LogAnomaly/result/deeplog/deeplog_epoch266.pth (torch_old, 643080 bytes, 30 tensors)

lstm.weight_ih_l0 f4 [256, 1]
000000 0a 15 4c be f0 97 77 bc 10 0f 6f bd a6 87 ae 3d
       -0.19929901 -0.015111908 -0.058363974 0.08521967
000010 a9 c5 0b be 3f 4e 3b 3d c7 6a d1 bd 55 55 88 3d
       -0.1364962 0.04572892 -0.10225444 0.06656901
000020 03 ce 32 3e fd 23 a8 3d 21 2f 2c 3e e4 72 a9 bd
       0.174614 0.08209989 0.16814853 -0.08273867
000030 9f e1 c4 3d f0 58 00 3e 42 27 a5 bd f5 b0 83 3e
       0.09613346 0.12533927 -0.080641285 0.25720945
000040 86 77 8d 3d 83 45 58 3d 08 66 1a be 44 da 17 3e
       0.06907563 0.052800667 -0.15077984 0.14829355
000050 d7 7e 2b 3e e5 cf a0 3d 39 f6 5e 3d 79 38 73 bd
       0.16747604 0.07852153 0.054434035 -0.05938003
000060 4b c7 49 3e 41 17 82 bd 60 d0 98 bc af a5 8b 3d
       0.1970493 -0.063520916 -0.018654048 0.06818711
000070 9d 98 97 3d 5f 2e 16 be 0d 67 ec 3d 1d 2b 37 3c
       0.074021555 -0.14666127 0.11543093 0.011179713
000080 3a fc 00 3e 49 8e c2 3d 5e 41 ba 3c 7b 1c 46 3d
       0.12596217 0.09499795 0.022736248 0.048367005
000090 ce ac 5c 3e 40 da 05 3c 98 59 07 3e ae ac 10 be
       0.21550295 0.008169711 0.13217771 -0.14128372
0000a0 4f 8b b9 3b e8 ba 0c be 5e ff 05 3e 51 56 cd 3e
       0.005662359 -0.13743174 0.13085696 0.40104917
0000b0 44 82 fb bd c1 59 d8 3d 7b 7c 13 3e 6b 56 4e be
       -0.122807056 0.10563994 0.14402954 -0.20150153
0000c0 cc 99 46 3e 1e a1 1c 3e 53 f7 b8 3e e0 30 bc 3d
       0.19394606 0.15295836 0.36126193 0.0918901
0000d0 3d 02 85 3d 7d 65 a6 3e 66 7a fc 3d 53 c7 65 bd
       0.064945675 0.32499304 0.12328033 -0.056098294
0000e0 23 3f 32 be 0f 74 bd 3c 89 40 e6 3d 5f 9d 20 3d
       -0.17406897 0.02312663 0.11242778 0.03921258
0000f0 ad fa 3b 3d cd 1f 0a 3e de d1 cd 3d 31 ba 1b be
       0.04589336 0.13488694 0.100497946 -0.15207745
000100 53 f0 83 bd a7 79 44 3d 20 72 f0 3d 16 fd 30 bd
       -0.064423226 0.04796758 0.117405176 -0.04321011
000110 f1 e4 ba bd 0a d6 5e 3d 94 13 e2 3d 1f cc 53 3d
       -0.09125698 0.054403342 0.110388905 0.051708337
000120 cb d7 28 bd 81 ec 95 3e 3d 2b 2e 3e 34 09 fe bd
       -0.04122142 0.29282 0.17008682 -0.12404099
000130 a7 d0 b7 bc f1 7b 9f 3d e2 2a 2f 3e c5 3a 85 3e
       -0.02243836 0.07787312 0.17106202 0.260214
000140 37 2d f3 3c f1 0d 06 3e dd e8 ee bd ad 49 10 3d
       0.029684646 0.13091256 -0.11665509 0.035226513
000150 b6 e0 b4 37 d6 c1 66 3e 1f 39 0a 3e 4a e0 5d bd
       2.1562311e-05 0.2253488 0.13498352 -0.054168977
000160 c6 94 68 3c aa 55 96 3d ca 29 24 bf e3 f2 9e 3d
       0.014195627 0.07340558 -0.64126265 0.07761171
000170 6a 06 87 bd 18 b4 87 be d2 3f 62 3e f3 ff 53 3c
       -0.0659302 -0.26504588 0.22094658 0.012939441
000180 21 e0 d4 bc 0b d8 16 3e 7c 48 e3 3d 95 a9 c2 3d
       -0.02598578 0.14730851 0.1109781 0.095050015
000190 1b b4 8d 3d f7 65 44 3e 31 df cf 3d e3 b0 12 3d
       0.06919118 0.19179522 0.10149992 0.035813224
0001a0 95 12 14 3e 6e 87 74 3e 1e e4 35 3e 03 fa 81 3d
       0.14460213 0.23879787 0.17762801 0.06346514
0001b0 c8 b6 05 be 4c 35 0b bd 69 89 5e 3d a6 be e8 bd
       -0.13058007 -0.033986375 0.054330263 -0.11364488
0001c0 04 a6 9b 3d f4 74 d0 3d 9b 62 9f 3e 03 ab 7c 3e
       0.07600024 0.10178557 0.31129918 0.24674611
0001d0 ab 56 51 3d b0 69 dd 3c 73 a8 21 3e b2 e3 e7 bc
       0.051108044 0.027027935 0.15786915 -0.028306816
0001e0 26 7e 37 be d7 3f 34 3e db 92 ee 3e 78 99 07 bd
       -0.17919216 0.17602478 0.46596417 -0.033105344
0001f0 9f ee 1b 3d e8 5c 51 3d 91 7f b4 bd d8 15 1c be
       0.038069364 0.051113993 -0.08813394 -0.15242708
000200 9d 9d e3 3e 86 0c 0b be ea b9 a7 3d c1 c2 01 3d
       0.44456187 -0.13578996 0.08189757 0.031679872
000210 c7 05 7d 3e f6 96 35 be 1e 73 45 bd bd c8 15 3e
       0.24709235 -0.17733368 -0.048205487 0.14627357
000220 26 19 2d 3e ce 7f 35 bd ac c3 84 bd f0 e7 68 3e
       0.16904125 -0.044311337 -0.06482634 0.22744727
000230 20 1e 76 be e5 b6 29 3e 29 5d 27 be d3 71 c2 bd
       -0.2403493 0.16573675 -0.16344132 -0.094943665
000240 03 87 62 3e 3b 14 9a be 96 09 85 be fb 78 59 3e
       0.22121815 -0.3009356 -0.25983876 0.21237557
000250 40 a9 36 3e 1f 96 16 bd 72 db 19 be 9d b3 4b 3e
       0.17838001 -0.03676426 -0.15025118 0.19892736
000260 08 a4 cf 3d 8f de a0 3e cc b4 e8 be a2 0b 9b 3c
       0.10138708 0.314198 -0.45450437 0.018926445
000270 8a 0d e6 3c d7 5b 3c be 48 50 6f 3f a1 d3 51 ba
       0.028082628 -0.18394409 0.93481874 -0.00080042524
000280 a0 c1 fb 3e 3e a6 c4 3c ea ee b2 3d e7 83 f0 bc
       0.49171162 0.024005052 0.087369755 -0.029359771
000290 27 9b 9f be 7b 42 52 be 2a 18 99 be ac d9 3d be
       -0.3117306 -0.20533173 -0.29901248 -0.18540066
0002a0 f0 db 47 3e 70 cd 4d 3d fb 1a 08 be 82 86 d6 bf
       0.19517493 0.05024475 -0.13291542 -1.6759799
0002b0 f9 65 bd 3e 20 cd 9e 3e 12 55 85 3d a8 c8 00 3f
       0.3699186 0.31015873 0.065103665 0.5030618
0002c0 e3 83 f5 bd e1 c4 1a be ce 21 18 be 10 28 18 bd
       -0.11988046 -0.15114166 -0.14856645 -0.03714758
0002d0 b4 f6 ce be fc 1f f0 3e 78 29 1a 3d 6a aa 2e 3e
       -0.40422595 0.46899402 0.037637204 0.17057195
0002e0 a3 c7 bd be 86 04 9a 3d ab 30 54 3d 9f 8d 9f bd
       -0.37066373 0.07520394 0.051804226 -0.07790684
0002f0 34 54 0d 3e 03 4c a0 bd 04 7b a4 3d c7 08 b1 be
       0.13801652 -0.07826998 0.08031276 -0.3457701
000300 3d fa 3b 3e bc 55 7b bc b1 9a 22 3e c4 52 aa 3e
       0.18357177 -0.015340265 0.15879323 0.3326627
000310 c0 02 39 3e da 15 9a 3d 53 20 31 3e c6 d2 65 3e
       0.18067455 0.07523699 0.17297487 0.22443685
000320 35 b7 49 3d ba 16 99 3e 42 8a 94 3d f1 8f 6b 3e
       0.049246985 0.29900151 0.07252933 0.23004128
000330 7c 06 82 3e b8 4b 1a 3e 02 e3 6b 3e 30 19 99 3e
       0.25395572 0.15067947 0.23035815 0.2990203
000340 39 90 bb bd 47 c4 04 3d 02 8f 9f 3e 40 2b 49 3e
       -0.09158368 0.032413747 0.31163794 0.19645405
000350 01 66 99 3e 5f 90 72 3e a2 9f 55 be 9e be 36 be
       0.29960635 0.23687886 -0.20861676 -0.17846152
000360 01 bc 34 be 51 46 4e 3d e0 82 b8 3a b0 a0 e1 3d
       -0.17649843 0.050360028 0.001407709 0.11016977
000370 56 62 b5 bc 83 d0 ae be ad 07 11 3e 38 20 90 3e
       -0.022141617 -0.34143457 0.14163084 0.2814958
000380 0f 5c dd bd d5 56 ae 3e 17 24 aa 3d 8f f6 a1 3e
       -0.108085744 0.34050623 0.08307665 0.31633422
000390 49 05 be bd f1 f6 66 be b6 80 ae 3d fb f3 98 be
       -0.09278352 -0.22555138 0.085206434 -0.29873642
0003a0 e7 98 58 be 2e af 90 3e f5 61 48 3e 8e 24 98 be
       -0.21152078 0.28258651 0.19568618 -0.2971539
0003b0 09 ea 87 3e 60 32 8d 3c 7d f3 5d 3e 49 ad 2b be
       0.26545742 0.017235935 0.21674915 -0.16765322
0003c0 2e 1d 41 be 0a 49 fa bd 36 22 fe 3d c0 d0 60 be
       -0.18858787 -0.12220962 0.12408869 -0.21954632
0003d0 5a 26 a1 3d 62 8a c4 bd 28 5e 81 3d 09 2d ad 3d
       0.07868643 -0.09596707 0.06316787 0.084558554
0003e0 ca bd 30 3e 31 08 62 be ad a9 8d 3e 24 5f 0f be
       0.17259899 -0.22073437 0.27668515 -0.14001137
0003f0 91 e0 e5 3d 91 5c 1f 3e 22 f9 6b 3e 56 83 03 3e
       0.11224473 0.15562655 0.23044255 0.1284307

lstm.weight_hh_l0 f4 [256, 64]
000000 ca ab 6c 3e d8 2a 1e be 83 e0 04 3d 2e a5 92 3d
       0.23112407 -0.15446031 0.032440674 0.07160412
000010 cb 4b 7e 3e 0b ea e8 bd 57 d7 5e bd 45 0d a5 3d
       0.248336 -0.11372765 -0.054404583 0.080591716
000020 12 2d 2a 3e 39 4d fd 3d 26 5e 24 bc c8 5f 28 be
       0.16618755 0.12368245 -0.010032212 -0.16442788
000030 6c 54 46 be b7 11 c7 3d 59 4f 00 be 60 93 85 3e
       -0.19368142 0.09720176 -0.12530269 0.26089
000040 f3 47 4e 3e 1f 32 39 bd e6 63 27 3d e9 aa 19 3e
       0.20144634 -0.045213815 0.040866755 0.15006603
000050 ef 26 96 bd 4d 7d bd 3d 3d 8b 96 bd 81 19 3e 3e
       -0.07331645 0.09252415 -0.07350776 0.18564416
000060 4f d5 8a 3e 3b b7 6b 3e a0 f8 bf 3d 35 c8 b5 3d
       0.27115867 0.23019116 0.09373593 0.08876077
000070 2c 0d aa 3d 2a 48 9d be 02 5a 73 3d ac 9d 03 3e
       0.083032936 -0.3071912 0.05941201 0.12853116
000080 3f 9a 4b 3d 64 86 8b 3d 09 0f a2 3d 3c a3 28 be
       0.049707647 0.06812742 0.07913024 -0.16468519
000090 d2 fd 3e bd 49 c5 4e be 24 83 e2 bd 6f fb 9e be
       -0.04662878 -0.20192446 -0.11060169 -0.31051204
0000a0 f2 17 a5 3d 95 43 f5 bd 90 05 b6 3d d7 fe db bd
       0.08061208 -0.11975781 0.0888778 -0.10741966
0000b0 8f ea 55 3d 11 52 30 3e ef ce 28 3d d9 4f 83 3e
       0.052225646 0.17218806 0.041212972 0.25646856
0000c0 b4 f7 96 be f9 7b ba bd 5e b6 30 3e ed 61 ab be
       -0.29485857 -0.09105677 0.17257068 -0.3347315
0000d0 e6 df 5b 3d 43 89 43 3e aa b2 e4 3d 5f 78 a6 bc
       0.053680323 0.1909533 0.1116689 -0.02032107
0000e0 97 fd cb bd 4a c8 be 3e fd b8 fa bc 2e a9 e2 bd
       -0.09960478 0.37262183 -0.030605787 -0.11067425
0000f0 f0 48 06 3e cf db 34 bd fd 10 17 be 4c 90 96 bd
       0.13113761 -0.04415494 -0.14752574 -0.07351741
000100 b7 3c 22 bd 14 4a c2 bd 9f aa 9b 3e 4c 38 76 3e
       -0.039608683 -0.094867855 0.3040361 0.24044913
000110 db 99 1f 3e 47 55 38 be 05 1f b5 3d 6a 52 b2 3d
       0.15586035 -0.1800128 0.08843807 0.087071255
000120 f0 cc 1e 3e f1 e0 bb 3d 29 6a 05 be 8b fe af 3d
       0.15507865 0.091737635 -0.13028778 0.08593472
000130 c5 17 5e be 25 ae 3e 3e b7 46 0a be 63 bf a9 be
       -0.21688755 0.18621118 -0.13503538 -0.3315383
000140 04 b2 63 3e 78 37 1d bd 48 98 0f be 95 ac 5e 3e
       0.22235876 -0.038382977 -0.14022934 0.21745522
000150 85 4e 00 3e b1 76 c2 bd 4f 4b 2b be e6 a8 67 3d
       0.12529953 -0.09495295 -0.16727947 0.05655756
000160 fd a0 c7 3e 18 92 c1 3d 18 74 be bd a2 62 ea 3d
       0.38990012 0.09451693 -0.09299487 0.11444594
000170 aa d7 69 3e c5 9a 23 bc 52 d8 2d 3d 82 ae 3a 3e
       0.22836176 -0.00998563 0.042442627 0.18230632
000180 91 1f e3 3c 1a 28 2d 3e ad 7a 8d 3d 0b 83 f7 bd
       0.027725013 0.16909829 0.06908164 -0.12085541
000190 92 f4 0c bd 0c 08 4a be 94 8e 1e be 92 6f 78 3d
       -0.034412928 -0.19729632 -0.15484077 0.060653277
0001a0 49 66 48 3e 1f ca 7b bd 85 86 f0 bd 04 ef bc 3d
       0.19570269 -0.061472055 -0.117444076 0.09225276
0001b0 38 58 a9 3c ae f2 23 3e 48 06 5c 3e 17 71 d8 bd
       0.020671949 0.16010544 0.21486771 -0.10568445
0001c0 23 85 80 be 7c 55 09 be 48 98 2f bd b2 c0 72 be
       -0.25101575 -0.13411516 -0.042869836 -0.2370632
0001d0 6d 0b 61 3c 27 53 a0 bc e0 dd 89 3e f8 c5 1b 3e
       0.013735634 -0.0195709 0.2692709 0.15212238
0001e0 8b 3d 47 bd 7a 53 ba 3e 8e 0c 5f 3d fd d5 41 be
       -0.048642676 0.36391813 0.054455332 -0.18929286
0001f0 cf 27 14 3e 98 ff 29 be ab 3d 97 3d e5 59 b8 bd
       0.14468311 -0.16601408 0.07384809 -0.09001521
000200 d1 53 f9 3d 42 0a 9e 3d a2 19 ea 3d 1f f8 66 3e
       0.1217419 0.077168 0.1143067 0.22555588
000210 89 94 20 3e f2 01 87 be d6 e0 7a be 18 c4 5e 3e
       0.15681662 -0.26368672 -0.2449983 0.21754491
000220 42 60 5a 3e df 5f ae bc f5 0d 91 bd ce 2c df 3d
       0.21325782 -0.02128595 -0.0708274 0.10897218
000230 db 34 b2 bd 5c e0 81 3d 0d 38 14 be f0 2b c5 3d
       -0.08701488 0.06341621 -0.14474507 0.09627521
000240 24 62 19 3e ea 99 6b be c7 33 6d bc 03 a0 57 3e
       0.14978844 -0.23007932 -0.014477677 0.21057133
000250 62 05 48 3d b3 5a 93 3d 05 8f 8d bd 26 85 d9 3d
       0.04883326 0.07195034 -0.069120444 0.10621099
000260 fa 6a 4c 3e 5c d3 ac 3d a2 4a 03 bd 9a 4d 94 3e
       0.19962683 0.08438751 -0.032053597 0.28965455
000270 9a ca b4 bc c7 5a ca be db d8 f4 3d 77 cb 8f 3d
       -0.022069264 -0.39522383 0.119554244 0.0702123
000280 87 5e d5 bd 26 ba 00 3e 7d 7e 49 3e b3 83 fb bd
       -0.1041842 0.1257101 0.19677158 -0.12280979
000290 a4 cd 24 3c 7f 66 1e be e2 07 3f bd 74 b5 ba be
       0.010058794 -0.15468787 -0.046638377 -0.36466563
0002a0 c5 02 2c 3e 70 b8 16 be 39 57 44 bd 58 e3 84 bd
       0.16797931 -0.14718795 -0.047934745 -0.06488675
0002b0 ce 84 87 3d cd 10 b0 3d 48 d2 80 3e fe c0 19 3c
       0.06617127 0.085969545 0.25160432 0.009384392
0002c0 f6 be 57 bd 55 0a 0c 3c 56 83 0f be a3 3d 09 3d
       -0.05267235 0.008547385 -0.14014944 0.033506047
0002d0 c2 e2 d2 3c 51 21 a1 3d a9 cb 3c 3d d1 cb 7a 3e
       0.025742892 0.07867683 0.046092663 0.24491812
0002e0 16 21 38 bd 67 0c 6b 3e aa d7 83 bc 7a 8f 08 bf
       -0.04495343 0.2295395 -0.016094048 -0.5334393
0002f0 1e 4d 61 bc 17 32 08 be 63 b5 99 3d 1a bb 94 be
       -0.013751296 -0.13300358 0.075053 -0.29048997
000300 0b 69 74 3d 75 6c 63 be 67 1b ca bc bf 44 3e 3d
       0.05967049 -0.22209342 -0.02467127 0.04645228
000310 00 6a 38 3d 7e 3c a9 3d a7 0a 1f 3c 59 fb d4 bd
       0.045022964 0.08263491 0.00970713 -0.10399503
000320 72 40 85 bd 83 dd a2 bc 2c 02 24 3d 2e 71 d4 3d
       -0.065064326 -0.019881016 0.040041134 0.1037315
000330 15 4f 8b bc 47 79 f3 3c 1a 54 77 3d c8 f4 c8 3d
       -0.017005483 0.029720915 0.06038294 0.09812313
000340 cf f1 07 3b 1c a8 b0 bd 3b 23 13 be 5c f8 03 3d
       0.0020743494 -0.08625814 -0.14368908 0.032219276
000350 62 2b 4f 3d 26 5a 77 3c c6 98 65 be 22 d7 8e 3e
       0.050578482 0.015097177 -0.2242156 0.27898508
000360 5c fd 4c bd 45 f0 0c 3e c9 58 cb 3c 55 ec ac 3d
       -0.05004631 0.1376353 0.02482261 0.08443514
000370 bf ca f2 3d bb 7f 78 be 5e 10 ce bc 41 24 97 bb
       0.11855077 -0.24267475 -0.025154289 -0.004612476
000380 84 83 aa 3d 3e 7e 0d bd 3a 94 02 3e 00 e0 30 3d
       0.08325866 -0.034544222 0.12751856 0.043182373
000390 1c b4 62 bd d6 3d 4f be c3 b3 e3 bd d1 44 6b be
       -0.055347547 -0.20238432 -0.11118271 -0.2297547
0003a0 48 63 51 bd 46 95 46 3d 9b 05 e6 bd d8 66 eb bc
       -0.051120073 0.048482202 -0.11231538 -0.028735563
0003b0 e0 1a 6c 3e 5f f9 3d bd 3a 06 20 be ab 69 a5 3e
       0.23057127 -0.046380397 -0.15627375 0.3230718
0003c0 24 24 ca 3b 0b 9a 78 3b fb 5a 92 3d ba 8d f2 bd
       0.006168859 0.0037933614 0.071462594 -0.118434384
0003d0 86 2b be bd ef d4 9b 3d 45 92 23 3d 90 1e 01 3e
       -0.09285645 0.07608973 0.039934415 0.12609315
0003e0 78 7a c3 bd 3f 32 06 3e 7e 0e e1 3d e9 45 bc bd
       -0.095448434 0.13105105 0.10989092 -0.09193022
0003f0 74 d3 dd 3d 43 bb e8 bc ff 59 ee bd e1 83 82 bc
       0.10831347 -0.028409606 -0.11638259 -0.015932025

lstm.bias_ih_l0 f4 [256]
000000 4f 94 de 3d f5 3a ad 3d ee 88 3d 3d 18 58 b1 bd
       0.10868131 0.08458511 0.046273164 -0.08659381
000010 e0 ce 46 3e 26 38 f0 bb 66 aa 3d 3e 8b d4 dc b7
       0.19414854 -0.007330912 0.18522033 -2.6325017e-05
000020 43 32 7b 3e 68 1e 44 3e 1a 13 f4 bd fa d9 61 3e
       0.24530892 0.19152224 -0.11917706 0.22055808
000030 b8 69 0a 3d c4 bf eb 3d 7b 92 e0 3d ce 22 18 3e
       0.033792228 0.11511186 0.10965439 0.14857027
000040 db 91 32 3e e8 37 1f 3e 01 c1 35 3e 22 dd dc bc
       0.17438452 0.1554867 0.17749406 -0.026960913
000050 78 91 88 bd 91 9c 3b 3d 18 07 c9 3d 26 2b bf 3d
       -0.06668371 0.04580361 0.09815806 0.09334402
000060 b2 aa 0a 3e ef 43 38 3e b6 02 6f 3d 29 59 96 3d
       0.13541678 0.17994665 0.058352195 0.07341225
000070 1d 71 bb bc 21 62 78 3e fb 25 8b 3e c7 41 e5 bd
       -0.022881085 0.24256183 0.27177414 -0.11194187
000080 f4 3a d0 bc 14 4d e5 3d 55 74 1f 3d d8 a9 dd bd
       -0.025418736 0.11196342 0.038929302 -0.10823411
000090 16 db 26 3e 3e f7 ad bd 0d d2 65 3c 4b 06 a4 bd
       0.16294512 -0.08494423 0.014027131 -0.08009013
0000a0 31 fc fd 3d 9c c5 e1 bc 31 04 33 bd 02 9e 2a 3f
       0.12401617 -0.027560048 -0.04370517 0.6664735
0000b0 08 5c 33 3d 52 28 88 3e 3f c4 f3 3c 32 c6 cc 3d
       0.04378894 0.26593262 0.029756663 0.0999874
0000c0 43 8e 32 bd ba 65 8a 3d 43 55 c8 bc 16 50 ec bd
       -0.043592703 0.06757684 -0.024454718 -0.11538713
0000d0 73 74 f1 bd e0 1a 98 3e 7c 49 b1 3d 14 1f 07 3d
       -0.11789789 0.29708004 0.08656594 0.032988623
0000e0 f9 63 3d 3e 74 af 49 bd 64 fd 4b 3d 8a e9 9b 3d
       0.18495168 -0.04923959 0.0498022 0.076129034
0000f0 74 2d e7 bc 4f a4 f0 3d d5 9a 76 be 11 ac fa 3c
       -0.028219916 0.117500894 -0.24082501 0.030599626
000100 cf 28 56 bd 98 1f 14 3e 06 ef a0 bd b1 a0 e2 3d
       -0.05228501 0.14465177 -0.0785809 0.11065806
000110 54 74 98 3d fd 3c b4 3d 06 8b c3 3d dc bc d3 3d
       0.07444063 0.08800695 0.09548001 0.103387564
000120 22 8d a9 3d 58 48 c2 3d 82 65 12 be 89 c2 10 3e
       0.08278872 0.09486455 -0.14296535 0.1413671
000130 28 7d 3b 3d af 0b 88 3d f5 8d ad 3b 77 9b b7 bd
       0.045773655 0.066428535 0.0052964636 -0.089651994
000140 39 c9 6a 3d cb c6 9e bc c3 c1 cd bd 43 05 e2 bd
       0.057320807 -0.019381901 -0.10046723 -0.1103616
000150 36 95 2b 3d cb 29 aa 3d 75 f6 dd bd 05 d3 9a bb
       0.041890346 0.083087526 -0.108380236 -0.0047248625
000160 3b 4b 51 3e 17 5d f6 3d fc d3 b9 3d 5e ef 8c 3c
       0.20438854 0.12029474 0.09073636 0.017203983
000170 49 59 52 3e 5c db ad 3d 5c 19 31 be 52 05 94 3d
       0.20541872 0.08489105 -0.1729483 0.07227577
000180 ac 14 88 bd bb 30 03 3d 15 ed 24 bd 97 09 ad 3c
       -0.06644568 0.032028895 -0.04026516 0.021122737
000190 b2 c1 0e 3d 09 9b 07 be da 4c 19 bd 8d eb b7 3b
       0.03485269 -0.13242735 -0.037426807 0.0056127966
0001a0 ff e8 bb bd 58 79 35 3b 3b 2c 05 3e b4 91 85 be
       -0.091753 0.0027690735 0.13005154 -0.26087725
0001b0 bf f0 ea bd 33 33 3e 3e 86 da cb 3d a0 eb d3 3d
       -0.114717 0.18574218 0.099537894 0.10347676
0001c0 44 9e 8d 3d c4 37 96 3c 18 95 08 bc c1 88 a6 bd
       0.069149524 0.018337138 -0.008336328 -0.081315525
0001d0 b1 4d d4 bd b1 75 d5 3d ae 2e ae 3d 09 58 5a 3c
       -0.10366381 0.104228385 0.08504997 0.013326653
0001e0 4a ba cb 3d 71 c4 0a 3e 2b de 54 be 41 68 fe 3d
       0.09947641 0.13551499 -0.20787875 0.124222286
0001f0 a1 95 d8 3c 84 46 47 3d ee 18 9d 3d f4 3a 22 3e
       0.026438536 0.048651233 0.076707706 0.15842801
000200 4d 70 fd 3c c0 f7 48 3e 2f 72 a7 bd ab 93 53 be
       0.030937338 0.19625759 -0.08176076 -0.206618
000210 e8 c1 04 3e 98 7d ef 3d d2 72 45 be 0f 02 73 3e
       0.12964594 0.11693877 -0.19282082 0.23731254
000220 3b 7e 6e 3e 88 82 05 3e a8 f6 a5 bd 3e 13 14 bd
       0.2329034 0.13038075 -0.081036866 -0.036151163
000230 5a a1 47 3e de 46 1c 3b 78 1c 40 bd 85 f2 c9 3d
       0.19495144 0.002384595 -0.04690215 0.0986071
000240 73 b9 6d 3e e2 0f 17 be 28 2a 82 3d eb 3d 0f 3d
       0.23215275 -0.14752153 0.06355697 0.03497116
000250 a1 ac e6 3c c6 8a 29 3e 11 02 96 bd d3 b8 ad bd
       0.028158488 0.16556844 -0.07324613 -0.08482518
000260 da 11 83 bd be 89 f0 3d 19 3f 92 3d 34 d0 c4 3d
       -0.06399889 0.11745022 0.07140941 0.09610024
000270 19 61 fc bc 57 63 99 be 13 e0 0b 3e 1a 70 5d 3c
       -0.030808019 -0.29958603 0.13659696 0.013515497
000280 bf 3d 74 be ef e3 27 be aa fc 14 3e 73 5a aa 3c
       -0.2385168 -0.16395544 0.14549509 0.020795083
000290 fc f7 14 3d 6c 96 0a bc d2 9d c0 bd aa f9 97 3d
       0.03636931 -0.008458715 -0.09405102 0.074206665
0002a0 cc c2 18 3b 8a 89 ba bd a8 68 af bd e9 e9 c9 3d
       0.0023309467 -0.09108265 -0.085648835 0.09859068
0002b0 02 9e 65 3a be c5 e5 3d 7f 91 82 3d 9c 2c 4f be
       0.0008759202 0.11219357 0.063754074 -0.20231861
0002c0 40 f4 82 bc 91 e6 c6 bc 18 13 aa 3c c9 0a 45 3d
       -0.015985608 -0.024279865 0.020761058 0.04810599
0002d0 7e 5b 27 3e 15 7b 8e 3e 15 9e 61 bd 22 0e 0c be
       0.16343495 0.2782828 -0.0550824 -0.13677266
0002e0 cc 1e e6 bd 3c 4b ad 3c 6f 57 36 3e 7d 08 86 3d
       -0.11236343 0.021154039 0.17806791 0.06544588
0002f0 0f b5 29 be b4 90 6f bd b0 a2 72 bd 7c 21 0f be
       -0.16572975 -0.05848761 -0.059237182 -0.13977617
000300 84 13 a0 3e 85 da 14 bd ac 0f e7 bc 29 e6 3f be
       0.3126489 -0.03634121 -0.028205715 -0.18740143
000310 39 ca 68 3e 09 56 9f 3d 9d df f7 3d 30 00 e4 bd
       0.22733392 0.07780082 0.12103198 -0.11132848
000320 4b e1 4d 3d b7 00 92 bb 78 51 17 3e 01 4e c5 bb
       0.050263684 -0.0044556516 0.14777172 -0.0060212617
000330 e8 3d 39 3e 3a 89 58 bd 9f 0c bf 3d 8c f4 c3 3d
       0.18090022 -0.052865244 0.09328579 0.09568128
000340 4c e2 c0 3d 96 e5 a2 3c 12 4b 51 3e c5 70 3d bd
       0.09418163 0.019884866 0.20438793 -0.046250124
000350 d2 fd 1d 3d 4a aa 33 3d 89 68 87 3d ba b0 86 3d
       0.03857214 0.043863572 0.066117354 0.06576677
000360 d3 16 27 3d cc 04 bc 3c fb 7c 49 3e fe ca c1 3c
       0.04079325 0.022951506 0.19676583 0.023656365
000370 4f 0d 07 3e a4 28 ad 3e 03 3a 9e 3e 0c fd 0e be
       0.1318867 0.3382007 0.30903634 -0.13963717
000380 1d 80 22 3e 7f b0 0d be 87 f7 f7 3d 4a 91 e0 bd
       0.15869184 -0.13836859 0.12107759 -0.10965212
000390 cc c6 db 3d 03 2f 13 3e 9b 2a 06 3e e4 1b 90 3e
       0.10731277 0.14373402 0.1310219 0.2814628
0003a0 a4 0c 2c 3e be 9b 86 3b f8 45 b2 3d a5 7a ed 3e
       0.16801697 0.0041079214 0.08704752 0.46382633
0003b0 a0 f0 17 3e 6f 37 e0 3d c9 7c 35 bd e0 f9 16 3e
       0.14837885 0.10948073 -0.044308458 0.14743757
0003c0 5f 5d 0b 3e f0 5f fb 3d b2 2d 32 3e e9 93 03 3d
       0.13609837 0.12274158 0.17400244 0.03212348
0003d0 09 91 64 3e 08 df 64 3e da d6 61 3e f1 bf 91 3e
       0.22320952 0.22350705 0.22054616 0.28466752
0003e0 90 b6 25 3e 86 5a a2 3d 91 74 0b 3d ab bf 3d 3e
       0.16182923 0.07927422 0.034046713 0.18530147
0003f0 e6 b0 86 bd f1 5e 3c 3d d4 e8 50 be 20 c3 90 3e
       -0.065767094 0.04598898 -0.20401317 0.2827387

lstm.bias_hh_l0 f4 [256]
000000 a0 eb 40 3e a8 5f 94 3d 10 98 75 3d 93 6d 8d 3d
       0.18839884 0.072448075 0.05995947 0.06905665
000010 f2 45 11 3e 30 84 50 3d fd 9b 33 3c c0 e3 a5 3d
       0.14186838 0.050907314 0.0109624835 0.081000805
000020 ce ab ad 3d 7c 5b 62 3e da 33 de 3c 32 ab 35 3e
       0.08480035 0.22105211 0.027124334 0.17741087
000030 1d f5 2c 3e 22 98 2c bc 5e b5 e3 3d fb e9 21 3e
       0.16890378 -0.010534318 0.111185774 0.15811913
000040 7f 62 d1 3d 4a e1 f2 3c a2 1f c3 3d e1 55 8d 3d
       0.10223865 0.029648442 0.09527518 0.06901146
000050 a7 9e 84 bc c8 d8 91 3d 97 5d 0c 3d 5f 4d 4f bb
       -0.016188933 0.07121426 0.03426894 -0.003163181
000060 b7 0c fd 3d 4c 4a d4 3d a1 c4 99 bc 96 4c c7 3d
       0.12355941 0.103657335 -0.018770518 0.097314045
000070 95 1c 02 bd 78 54 91 3e d4 10 64 3e 91 59 b5 3d
       -0.03176554 0.28384757 0.22272044 0.08854974
000080 32 a4 e5 3d 70 09 4e 3d c2 66 57 3d c6 c4 32 bc
       0.112129584 0.05030197 0.05258823 -0.010911172
000090 48 d0 70 3e 03 72 92 bd 48 6a 2b 3d d9 a4 05 be
       0.23516953 -0.07150652 0.041849405 -0.13051166
0000a0 ae 3f 06 3d f8 ba 5e ba 71 f2 86 3d aa 73 16 3f
       0.032775573 -0.00084964884 0.06589211 0.5877024
0000b0 0b de de 3d 9e 6e 79 3e fa d8 82 3d 87 e3 bb 3d
       0.10882195 0.24358603 0.06389041 0.09174257
0000c0 92 d2 c3 bd 71 6f 72 bd 8b 55 87 bd 69 52 30 bd
       -0.095616475 -0.05918831 -0.06608113 -0.043047342
0000d0 c1 57 77 bc bf 3a f7 3e 1e bd 4e bd 5a b7 84 3d
       -0.015096606 0.48287007 -0.050473325 0.06480284
0000e0 6f 2f 2a 3e ce a6 f1 3c 2a b6 70 3e c6 fa c1 3d
       0.16619657 0.029498484 0.2350699 0.09471659
0000f0 ae 4d f7 3d 5a be d3 3d 4c 15 08 be af b0 24 3d
       0.12075363 0.10339041 -0.13289374 0.04020756
000100 ad 2a 81 bd 16 68 c5 3c 78 2a f9 bc 48 d6 10 3e
       -0.06306968 0.024097484 -0.030415758 0.14144242
000110 a2 12 09 bd dd b1 f0 3d c0 32 3c 3d d0 f5 05 3e
       -0.033465035 0.11752675 0.045946836 0.13082051
000120 ac d9 5a 3e f7 5b 07 3c 32 6a e4 bd 65 aa 96 3d
       0.21372098 0.008261672 -0.11153068 0.07356719
000130 7f 6c ea ba 2b 17 42 3e 8f 96 b8 bd b0 2c 0d be
       -0.0017885118 0.1895415 -0.09013092 -0.13786578
000140 cc 54 a4 3d ed d7 83 3b cf a6 ca bd 7d ee 19 bb
       0.08023986 0.004023543 -0.098950975 -0.0023488097
000150 65 84 ba bb 0b 5b c1 3d a9 f2 63 bc 8f 1a c9 3d
       -0.005692052 0.09441193 -0.013912835 0.09819519
000160 0a f4 e2 3c 22 dd 94 3d 93 c6 d2 3d ae f4 a8 bd
       0.027704258 0.0726874 0.10291781 -0.08249794
000170 38 e2 41 3e ea 3b 73 3d 24 f9 d5 bc 78 cc 21 3e
       0.18933952 0.05938331 -0.026119776 0.15800655
000180 b6 a2 eb bd 80 27 14 be e8 5d 4c 3d 0f ef fc bb
       -0.11505644 -0.14468193 0.049894243 -0.0077189277
000190 21 b3 00 be 3c 8f b0 3b 49 9c 00 be df 94 92 bd
       -0.12568332 0.0053881686 -0.12559618 -0.07157301
0001a0 ca 89 55 bd 5f a0 46 bc 8e 25 c4 3d 7f fd 76 be
       -0.05213336 -0.012123196 0.095774755 -0.24120139
0001b0 b7 fa a2 bc 71 b4 54 3d 78 37 67 3c d4 66 30 bd
       -0.01989494 0.051929895 0.014112346 -0.043066815
0001c0 ca 36 0e 3d 16 3e 0d ba 5c f8 46 3d 14 c8 db bb
       0.03472022 -0.00053879747 0.048576698 -0.006707201
0001d0 b2 d0 14 bc 48 e8 6f 3d 46 ad 1b bd ae 7f 73 bc
       -0.00908296 0.05857113 -0.038007043 -0.014861984
0001e0 17 d4 b0 3d 7d aa 95 bd 64 24 8c 3c 67 74 6a bc
       0.08634203 -0.07307909 0.017107196 -0.014309979
0001f0 e5 70 ba 3d b2 9c df 3d d9 42 84 bd 7d 6a da 3d
       0.09103564 0.10918559 -0.06458063 0.10664842
000200 06 4b c6 bd 7a 4a f4 3d 1f ad 1d be b6 40 46 be
       -0.09682278 0.11928268 -0.15398072 -0.19360623
000210 e3 86 29 3e af 76 78 bd 22 6c 0c be c4 be 5a 3e
       0.16555361 -0.06066006 -0.13713124 0.21361834
000220 1f 9a b8 3d f6 62 2c 3d 78 51 51 bd ee de fb bd
       0.09013771 0.042086564 -0.051103085 -0.1229838
000230 a6 b2 49 3c 48 75 56 bd 77 a3 df 3d a0 5c 38 3e
       0.0123106595 -0.052357942 0.1091985 0.18004084
000240 6d d9 78 3e 4b 7d 03 be 85 28 61 bc c5 90 de bd
       0.24301691 -0.12840764 -0.013742571 -0.10867456
000250 0b 1e 07 be 82 87 49 3e e3 1e bf 3d e3 a6 57 bd
       -0.13195054 0.19680598 0.09332063 -0.05264939
000260 af 1d 7b 3b d5 42 66 3e 0b d7 92 3d 2d 87 0e 3e
       0.0038317253 0.22486432 0.071699224 0.13918753
000270 a0 40 94 bc 93 37 17 be 33 b9 ee bc 68 56 98 3c
       -0.018097222 -0.14767294 -0.029141044 0.01859589
000280 c9 4b ff bd 69 c5 56 be 9c 3c 13 3e 97 72 64 bd
       -0.12465627 -0.20973743 0.1437859 -0.055773344
000290 bd e1 25 3e ad a9 ea 3d cb 4c a4 bd 8c ec ab bd
       0.16199394 0.11458144 -0.080224596 -0.08394727
0002a0 13 d1 b7 bc a4 17 11 be a1 2c cb bd 2a ae c3 3d
       -0.022438562 -0.14169174 -0.09920622 0.095547035
0002b0 2c af 11 bd 27 bb 16 3e be 3b 4f 3d 5f ba bd 3c
       -0.035567448 0.1471983 0.050594084 0.023160158
0002c0 aa a1 cc 3d 10 34 85 bd 43 a6 96 3d 00 06 ef bc
       0.099917725 -0.06504071 0.07355931 -0.029177666
0002d0 70 f3 39 3e 20 52 86 3e 54 01 61 be 7a ef fe bd
       0.1815927 0.2623453 -0.21973163 -0.1244802
0002e0 07 b8 1f 3d ab 12 86 3c 8c c4 06 3d 67 25 c9 3d
       0.03899386 0.016366323 0.032902285 0.09821587
0002f0 d4 10 c9 bd be 03 05 bd e0 1b 8f bd 87 99 ef bb
       -0.09817663 -0.032474272 -0.069877386 -0.007312003
000300 2f b4 a1 3e 9c f3 df 3d 4f dd b9 bd 31 29 17 bd
       0.31582782 0.10935137 -0.090754144 -0.036904518
000310 4d 39 55 3e f0 3d 78 3d 6f c7 a4 3e 23 e2 59 bd
       0.2082264 0.060605943 0.32183406 -0.053194176
000320 4d f8 bd 3d b9 9c c7 bc d3 60 71 3d fc dc 98 bd
       0.09275875 -0.024366723 0.05893023 -0.074640244
000330 b1 1b 09 3e fd f7 e4 3d 4b 3b 92 3d 13 60 00 3d
       0.1338947 0.111801125 0.071402155 0.031341624
000340 b3 c3 9c 3d 6e 7d 26 3e 00 1f 83 3e 25 3a cc 3d
       0.07654514 0.16258785 0.2560959 0.09972028
000350 0d c8 d9 3b 1f ed 30 bc fc ad 4a 3e 7a ba 15 3e
       0.0066461624 -0.010798722 0.19792932 0.14621916
000360 9e c0 6a 3d cd 7a 3e bd 40 0d 41 3e 9e 05 b5 3d
       0.0573126 -0.04650383 0.1885271 0.08838962
000370 7f ef 43 bd 8f b6 57 3e 8d 30 79 3e a6 a6 1a bd
       -0.047835823 0.21065734 0.24334927 -0.037756585
000380 cb 19 e5 3d bf ca 73 bb 75 89 0b 3d d1 c8 05 bc
       0.1118656 -0.0037199704 0.034066636 -0.008165554
000390 49 26 b6 3d 3c ca e9 3c 0b 9b 14 3e cd 7b 90 3e
       0.08894021 0.028538816 0.14512269 0.28219453
0003a0 f6 4c 8f 3d 1c 44 f1 bc c6 de 7a bd 74 f7 c3 3e
       0.06997101 -0.029451422 -0.06124761 0.3827473
0003b0 6e 9d 05 3e 3b fb ea 3c f6 31 14 be 16 01 8a 3e
       0.13048336 0.02868425 -0.14472184 0.26953954
0003c0 85 50 9e 3d c3 d6 6e 3b 09 ee d6 3d d4 0b 14 3e
       0.07730202 0.0036443926 0.1049462 0.14457637
0003d0 85 9b 60 3d b2 10 37 3e ec 6b 53 3d 00 e7 6f 3e
       0.054835815 0.17877463 0.051616594 0.23427963
0003e0 ac e1 34 3e 01 19 86 bc 35 e8 3d bc c3 53 05 3e
       0.17664212 -0.016369345 -0.011591007 0.13020234
0003f0 95 03 b2 bc 08 21 05 3e 7a 1d 80 bb 3a c7 60 3e
       -0.021730224 0.13000882 -0.003909764 0.21950999

lstm.weight_ih_l1 f4 [256, 64]
000000 48 26 67 bc 15 3f c2 bd 33 41 8f bd 17 8b b8 bd
       -0.014108248 -0.09484688 -0.06994858 -0.09010904
000010 40 8b 8a 3d e9 92 4f bd 58 e9 5a bd ec 84 d7 bb
       0.06764841 -0.050677214 -0.05344519 -0.006577125
000020 e0 e1 04 3c eb d5 3e 3e e5 3c 56 bd 0a ad 8d bd
       0.008110493 0.1863629 -0.052304167 -0.0691777
000030 d6 29 16 be fb b9 34 bd 45 82 d0 3c 67 34 98 3c
       -0.14664397 -0.044122677 0.025452742 0.018579675
000040 0c c9 5d bc b1 5e 4f 3c 35 09 75 bd 61 fb 1f 3e
       -0.013536703 0.0126568535 -0.059823234 0.15623237
000050 d9 4c e2 3c 45 c0 f0 3d 04 4f 8e 3d b5 b3 10 3e
       0.027624534 0.117554225 0.06948665 0.14131053
000060 1c 83 cc 3c 06 da 13 3d 96 2d 19 be e0 1f 1b bc
       0.024964862 0.036096595 -0.14958796 -0.009468049
000070 f1 65 09 be 98 12 b5 bd 5d 0f da 3d f5 6b e4 bd
       -0.13417794 -0.08841437 0.106474616 -0.11153404
000080 ed ac d4 bd 68 a9 74 3d 54 14 83 bd db ce 14 3d
       -0.103845455 0.05973187 -0.06400362 0.036330085
000090 2a 28 8e 3d d7 5b 03 be fd 41 c9 bd dd e8 f7 bc
       0.069412544 -0.12828003 -0.098270394 -0.030262405
0000a0 2f 10 32 3c 7b c6 1c be 71 d3 bb 3d 0c ca 7c be
       0.010868116 -0.1531009 0.091711886 -0.2468645
0000b0 67 bd 1d 3d ee d8 8d 3d a8 68 b7 3d 98 69 a6 3d
       0.038510706 0.06926142 0.089555085 0.08125609
0000c0 4f 31 69 3d 53 a2 12 be 10 81 9a bc e4 e3 bb 3d
       0.05693179 -0.14319734 -0.01886037 0.09174326
0000d0 68 07 4b bc f9 59 d2 3d e1 98 6e bd 48 1a 3f 3d
       -0.0123919025 0.10271067 -0.058251265 0.046655923
0000e0 27 6b 63 3d 49 f0 42 bc f8 c6 fa bd 41 ed eb 3c
       0.05552211 -0.011898109 -0.122449815 0.028799655
0000f0 b9 b0 af bd 2b cf 9a bd cb e8 89 be e5 b9 0d be
       -0.08578629 -0.075590454 -0.2693542 -0.13840444
000100 7e 0f 05 be bf 31 8b bb 80 2e 56 3d 41 eb 3f bd
       -0.12994191 -0.0042478736 0.05229044 -0.046855215
000110 fd 0c bc bc 87 d2 51 bd fa a8 95 38 ab 87 83 bd
       -0.022955412 -0.051226165 7.136348e-05 -0.06422361
000120 01 08 6b 3c 98 59 0c 3e 8b f5 1f 3e 99 72 49 3d
       0.01434517 0.13706052 0.15621011 0.049181554
000130 ab c4 db 3d 3e 20 b3 bd d5 48 09 bd 80 63 95 3e
       0.10730871 -0.08746384 -0.033516724 0.29177475
000140 d9 8a 90 bd 28 72 c7 3d 24 57 83 3d 9d 23 59 bc
       -0.07057733 0.097385705 0.06413105 -0.01325312
000150 48 0c 6e bd 91 93 cb 3d a8 88 86 3d bc b2 16 3e
       -0.05811718 0.099402554 0.06569034 0.14716619
000160 9c a0 1b 3e fd 85 d3 3d aa f1 7a be 46 35 b8 bd
       0.15197986 0.103282906 -0.2450625 -0.08994536
000170 0b f0 04 3e d7 64 10 bd 06 a9 22 3d 34 67 72 3a
       0.12982194 -0.03525242 0.039711975 0.0009246946
000180 3e a3 51 be d9 ef 15 3e 48 39 1a bd bf 97 96 3d
       -0.20472428 0.14642276 -0.037652284 0.07353162
000190 18 62 76 3c 7d 9e d8 3d 61 38 a3 3d e1 6a 6d 3e
       0.015038036 0.10577104 0.07969738 0.23185302
0001a0 a8 bf d4 bd 69 7f ab bd 32 1a 58 3d a7 d6 fe bd
       -0.10388118 -0.08373911 0.052759357 -0.124432854
0001b0 a4 fa 85 bc 22 0f c3 3d b1 73 9f 3c c0 91 85 bc
       -0.016354866 0.09524371 0.019464346 -0.01630485
0001c0 ff 32 cd bb 81 80 bd bd 46 ed 55 3e a9 d5 9e bd
       -0.0062621827 -0.09253026 0.20891294 -0.07755596
0001d0 78 c4 d0 3d 91 05 7a bc f9 05 31 bd 15 36 e3 3d
       0.101937234 -0.015260116 -0.043218587 0.110943
0001e0 43 a5 1e be 7d c0 07 3d 79 3d 94 bd e9 05 3d be
       -0.1549273 0.033142556 -0.072382875 -0.18459286
0001f0 ee cf 99 bc e5 33 79 3d d6 ff 14 bc 62 f7 12 be
       -0.018775906 0.060840506 -0.009094199 -0.14352182
000200 b2 03 13 3d 76 41 7a be b2 c0 41 3c 4a 73 1d be
       0.035892196 -0.24439034 0.011825727 -0.1537601
000210 aa 63 05 3e 09 12 05 3e 06 1f 0e bc be a0 21 3d
       0.130263 0.12995161 -0.008674389 0.039459936
000220 32 dd dd 3c 7a eb 13 3f 38 94 cf 3c 2f 3d 93 3d
       0.027083013 0.57781184 0.02533923 0.07189404
000230 c7 3f 3d be cc 43 0f bd 5c ea 1a be be 68 5c 3f
       -0.1848136 -0.034976766 -0.15128464 0.86097324
000240 c5 b8 06 3e 4e 33 a0 3c ef 17 a2 bc 58 7c c4 3d
       0.13156421 0.019555714 -0.019786803 0.09594029
000250 5f 31 2d bb 41 4e cc 3c 74 27 94 bc b9 8d fa 3d
       -0.0026427133 0.024939658 -0.018085219 0.12234063
000260 64 3d fa 3d 23 60 32 3e 74 44 77 be 2f 78 f3 bd
       0.122187406 0.17419486 -0.24147207 -0.118881576
000270 9d 85 a7 3c 81 4a f8 3d b1 6d dc 3c d3 30 09 bd
       0.020449454 0.121235855 0.026907774 -0.033493828
000280 f3 88 47 be 3d 86 72 bd a4 33 da bd 9b fe f4 bc
       -0.19485836 -0.05921005 -0.10654381 -0.029906562
000290 f7 d1 ae bd a2 64 95 be 2b 3c 59 bd 6d 50 70 be
       -0.08536141 -0.2917834 -0.053035896 -0.2346818
0002a0 9b 89 42 3d cc 7f 26 3d 4f db 10 bb 99 2e 1d 3e
       0.047494512 0.04064922 -0.0022103374 0.15349807
0002b0 00 3f ac 3e ed d7 3f bc 33 a3 35 bd 95 b0 11 be
       0.33641815 -0.011709196 -0.044345092 -0.14227517
0002c0 80 69 4a 3d 50 66 23 be 7a e7 de 3c dc e5 17 be
       0.04941702 -0.15956998 0.027209986 -0.14833778
0002d0 fa a5 dc bd d5 b2 c8 3d 34 eb e6 bc b6 0a fa 3d
       -0.10773845 0.097997345 -0.028188325 0.12209074
0002e0 ec 5b b5 bd 15 d0 a1 bb c1 f3 16 bd b1 22 8f be
       -0.08855423 -0.0049381354 -0.036853556 -0.27956155
0002f0 eb 63 fd 3d 58 55 ed 3d d2 26 8b be 12 d4 0f be
       0.123725735 0.11588544 -0.27178055 -0.14045742
000300 04 4a 31 3e 43 77 a2 3d c9 e4 10 be b2 bd b3 bc
       0.17313391 0.079329036 -0.14149775 -0.02194104
000310 03 54 72 3e 22 1b 2d 3d 1e ec a8 3d 34 c1 ba 3d
       0.2366486 0.042262204 0.08248161 0.09118882
000320 43 cd 87 bd 4d 25 11 3e 6a 95 8e be 00 d3 88 bd
       -0.066309474 0.14174385 -0.2784837 -0.0668087
000330 b0 1a 0c 3e 59 5a 5c 3b 98 59 8a 3c c4 34 ee 3d
       0.13682055 0.0033623187 0.016888425 0.11631158
000340 e8 7c dc 3c 66 be d7 3b 74 af 86 bd 03 a8 c2 3c
       0.026915029 0.0065839766 -0.06576434 0.023761755
000350 b0 e8 1b be 49 00 9b 3d 31 b8 07 be 85 db a5 3c
       -0.15225482 0.07568414 -0.13253857 0.020246277
000360 0b 30 2f 3e c5 81 4c 3b 4e 9a 2f 3e c4 53 21 be
       0.1710817 0.0031205278 0.17148706 -0.1575461
000370 61 0a ff 3c 9f 1b a5 be 34 28 99 3d 19 1a ae 3d
       0.031132879 -0.32247636 0.07478371 0.085010715
000380 d2 d2 95 bc bb 5a 1f be f8 9b ef bd ec bb 6f bd
       -0.018289004 -0.15561955 -0.116996706 -0.058528826
000390 d6 c1 66 bd f5 85 ef bc 66 c3 fa 3c 5a b2 d1 bd
       -0.0563372 -0.02923868 0.030610751 -0.10239096
0003a0 73 2e 68 3c e2 33 04 3e 01 17 2c be 90 7d e8 be
       0.014171231 0.12910417 -0.1680565 -0.45408297
0003b0 aa 10 d0 bd 0d da 6e 3d 0f 24 f9 3d bd 7b 87 3d
       -0.101594284 0.05831342 0.12165081 0.06615398
0003c0 3f ce 0c be 4b c0 26 be 27 fd 47 3c e6 36 16 be
       -0.13750552 -0.16284291 0.012206352 -0.1466938
0003d0 82 8c f1 bd b7 6b a9 3c 44 c6 ad bd bd e7 47 be
       -0.11794378 0.020681245 -0.08485082 -0.19521995
0003e0 64 06 5c bd 2e 1e c4 bc f1 30 1b 3b ed 0b e9 3c
       -0.053717032 -0.023940172 0.0023680294 0.02844807
0003f0 d5 cf 09 bd 09 8f 89 3d e2 a7 f3 bd 63 79 04 be
       -0.03364547 0.06716735 -0.118972555 -0.1293693

lstm.weight_hh_l1 f4 [256, 64]
000000 d7 2d 84 3d db 2c 3a bd 13 2c 05 3e 27 07 ef 3d
       0.06454056 -0.045452934 0.13005094 0.11671286
000010 0b dc 05 3d 65 0e 00 3d 01 8a 27 bd c7 7a 3c be
       0.032680552 0.031263728 -0.040903095 -0.18406211
000020 6a c3 7d bd 6e 77 8a 3c 05 cf 9a bd 6e 29 0e be
       -0.06195394 0.016902652 -0.07559017 -0.13882992
000030 20 c2 92 bd e6 04 86 3d 24 b5 1b 3d 7d 80 c6 be
       -0.07165933 0.06543903 0.038014546 -0.38769904
000040 8b 9c e7 3d 70 a4 45 bd 73 6f 24 bc e0 0c 37 be
       0.11309155 -0.048252523 -0.010036337 -0.17876005
000050 4b ee d7 bc 0e 51 34 3e e0 97 93 bc fb d3 ea 3c
       -0.026358744 0.17609045 -0.018016756 0.028665533
000060 ee 4b de bd ca 15 67 3d 6b 76 0c bd 50 73 0b 3d
       -0.10854326 0.056417264 -0.03429262 0.034045517
000070 84 68 82 bd bf d7 b7 bd 6a 50 c5 3d 37 e0 ae bd
       -0.06367591 -0.08976697 0.096344784 -0.08538859
000080 ae 62 4e bb 15 4d a0 bd 38 40 22 be b1 e9 7f be
       -0.0031491923 -0.07827202 -0.1584481 -0.2499149
000090 cd d7 1d 3b ff 3d 18 bd a1 d0 a1 3d 3e e1 28 3e
       0.0024084926 -0.0371685 0.07901121 0.16492173
0000a0 e3 9e ca 39 e5 9a ac 3d 02 18 84 bc 90 4f ad 3d
       0.00038646822 0.08427981 -0.016124729 0.08462441
0000b0 35 a6 9d 3d 0d 3f 27 be 29 69 41 3d f2 34 06 3e
       0.07697717 -0.16332646 0.04721943 0.13106135
0000c0 62 a1 bf 3b 0d 01 6b bd 2b 7a c9 3d 60 61 f4 3c
       0.0058480958 -0.05737405 0.09837755 0.029831588
0000d0 3e 95 69 bd 2d f4 9b 3c 49 eb cf 3d 5f c1 2a 3d
       -0.057027094 0.01903733 0.10152299 0.04168832
0000e0 c7 55 4d bc 05 2a 40 3c fe 81 8f 3c ba b9 50 3c
       -0.012532658 0.011728768 0.01751804 0.012739593
0000f0 d9 d6 98 3d a9 d7 ec bc ac 2b 37 be c5 d7 43 3d
       0.07462854 -0.028911429 -0.17887753 0.047813196
000100 35 c3 43 be cf 95 97 3d 6e dc 1d 3e 02 ad 46 bd
       -0.19117434 0.074016206 0.15416119 -0.048504837
000110 82 dd 86 be f0 a5 86 3d bf a9 3f bc 17 5c da bd
       -0.26340872 0.06574619 -0.0116981855 -0.10662096
000120 47 cd 94 bd e7 1e 0f bd cf 8f 50 3c 83 74 1a bd
       -0.07265716 -0.03494158 0.012729599 -0.03770877
000130 9a 12 59 bd eb 65 0c be 37 90 96 3e 53 1c e9 3d
       -0.052996255 -0.13710754 0.29406902 0.113823555
000140 5d 5d d3 3d 2e 7f 28 be a7 a2 48 3d ea a7 03 be
       0.10320542 -0.16454765 0.048983242 -0.12857023
000150 7c 59 66 bd b9 4f 10 bd 00 ad 9f bd 63 3a a6 bd
       -0.056237683 -0.03523228 -0.07796669 -0.08116605
000160 20 4c 52 be de 1a 15 be db a9 5e be 78 e9 28 be
       -0.20536852 -0.1456103 -0.21744482 -0.16495311
000170 d5 91 4c bc 01 4b a1 bc c7 db 01 bd 72 b9 3a 3d
       -0.012485941 -0.019689085 -0.031703737 0.04558701
000180 b1 18 4f 3d 9f 09 b7 bb 3d f7 bd 3b 7c 1b 6c bd
       0.050560657 -0.0055858637 0.0057972954 -0.0576434
000190 ee 69 ca 3c 4c 5b 27 be 75 2b 27 bd 96 81 9d bc
       0.024708714 -0.1634342 -0.04081293 -0.01922683
0001a0 d8 ca 3b bd 66 c9 70 bd 80 2d 7d bc 8f 7b b4 3d
       -0.045847744 -0.05878582 -0.015452743 0.088126294
0001b0 42 f6 f5 3c 9c d5 20 be 06 f5 c9 3d 9c f1 39 3e
       0.030024651 -0.15706486 0.09861188 0.18158573
0001c0 fb a9 07 be d0 59 1f 3e d3 d8 32 3e 08 52 84 3d
       -0.13248436 0.15561604 0.17465524 0.06460959
0001d0 2c 38 b8 bd fc 1b 04 3e b3 61 b6 3d d2 c0 d2 bd
       -0.08995089 0.129013 0.089053534 -0.10290684
0001e0 fb f6 de 39 6f 44 60 bd 64 4d a0 3d 4e 0f f9 bd
       0.00042527154 -0.054752763 0.07827261 -0.12161122
0001f0 0c 18 10 3d 9a 55 18 3e a5 b2 5d 3d 76 2c c9 bd
       0.035179183 0.14876404 0.054125447 -0.098229334
000200 32 11 3b be d0 06 b9 3b cb d0 3d 3e 95 fa b3 3e
       -0.18268278 0.005646564 0.1853668 0.35152116
000210 af cb 5e be 25 10 91 3e 38 32 ac bd e1 5f 1c be
       -0.21757387 0.2833263 -0.08408016 -0.1527095
000220 8d 0f 9e be 7b 03 0e 3e 33 9f 60 3c 64 b0 44 be
       -0.3087124 0.13868515 0.013709831 -0.19207913
000230 59 b7 0b 3e 83 02 f3 3c de 7e 78 3d ab 7c 34 3e
       0.1364416 0.029664284 0.060667865 0.17625682
000240 e9 da a1 3e f0 cd 05 be 1a fe 84 3c f6 e6 06 bf
       0.31612328 -0.1306684 0.016234446 -0.5269617
000250 fa d5 2c be 79 c9 96 3e 2c 2e ee bc 60 53 0d 3e
       -0.168785 0.29450586 -0.02907475 0.13801336
000260 70 8a 95 be 57 fd 22 be ca 81 2a 3d 07 8a 9c bd
       -0.29207182 -0.15916954 0.041627683 -0.07643514
000270 1b 1b 1d be a9 d5 d2 ba a6 64 6f 3e ca 7a 56 be
       -0.15342371 -0.0016085404 0.23378238 -0.20945278
000280 2c e7 ee bd ff bc cc 3d 4e b9 1f be f9 c9 52 bd
       -0.11665186 0.09996986 -0.15598032 -0.051462147
000290 6e 57 e5 bd 03 b3 af be 60 e3 b8 bd 62 95 45 be
       -0.111983165 -0.34316263 -0.09027743 -0.19295266
0002a0 5e a4 3f 3d 5f 20 87 3c 4c af ba 3d 28 62 bf 3d
       0.046787612 0.016494928 0.091154665 0.09344894
0002b0 27 2e 9c 3e 0f 19 cc bc 89 8e 10 3e 6c 08 92 3e
       0.3050396 -0.024914293 0.14116873 0.2852205
0002c0 a4 32 a5 be c1 ce 4b 3e fc eb 23 3d a0 32 9a 3e
       -0.32265198 0.19903089 0.040019974 0.3011675
0002d0 59 75 a7 be cd fe 08 3c b0 1a 91 3e f1 76 1d be
       -0.32706717 0.0083615305 0.28340673 -0.15377404
0002e0 b6 0f 82 bd 3b da b1 3d 4d c9 d8 bd 80 ef 52 be
       -0.06350653 0.08684202 -0.1058527 -0.20599174
0002f0 8e e8 2a 3e da ff 9e 3b 59 fc 74 3c 72 37 1c be
       0.16690275 0.004852277 0.0149527425 -0.15255526
000300 10 ef 0a 3e b0 e5 3a 3e 62 4b 41 3c a8 f7 1e be
       0.13567758 0.18251681 0.011797758 -0.15524161
000310 bd 10 62 bd 84 0a bb 3d 7b f6 12 be ad 44 04 bd
       -0.055191744 0.09132865 -0.14351837 -0.032292057
000320 72 b5 f5 3c 6f 92 d4 bc 1f 9e 24 bc 60 67 c7 bd
       0.029993746 -0.025948731 -0.010047465 -0.09736514
000330 b5 ad 14 3e 6c a1 c0 3a 53 c7 6f bd 1f f8 8a be
       0.14519389 0.0014696545 -0.0585397 -0.27142426
000340 f1 08 07 be 57 8d 1a be 12 c3 86 bd 73 2c 35 be
       -0.13187005 -0.1509298 -0.065801755 -0.17692737
000350 d1 02 61 3e c8 f5 14 be f9 e1 10 3d f9 41 57 3a
       0.2197373 -0.14546883 0.035371754 0.000821143
000360 54 c4 84 3d b3 17 e8 bd 81 19 d2 bd 8e 1b 60 3d
       0.06482759 -0.11332645 -0.10258771 0.05471378
000370 02 b9 e5 bc eb fc bb bd 70 1c e6 3c bb 56 84 3d
       -0.02804232 -0.091791 0.028089732 0.06461855
000380 00 2d 0d bd 1f f1 d5 bd 5e 4f 9f 3d 3f 82 78 3d
       -0.034466743 -0.10446381 0.0777881 0.060671087
000390 28 04 53 bd d0 b7 87 39 77 26 64 bd d3 93 65 3e
       -0.051517636 0.00025886158 -0.055700745 0.22419672
0003a0 17 5d 81 3d db 1d 31 be a9 11 a7 3d ff 15 53 3d
       0.063165836 -0.17296545 0.08157665 0.05153465
0003b0 d3 ea a6 3d 9d b3 e8 3c e8 7c da 3d 42 d0 d4 3d
       0.08150258 0.028405959 0.10668355 0.103912845
0003c0 e2 15 fe bd 7c 4b f8 bd 15 41 f2 bd e3 b1 fb 3c
       -0.124065176 -0.121237725 -0.1182882 0.030724471
0003d0 70 a5 77 3e e8 69 e0 3d c7 c8 7b bb 5b a4 e7 3c
       0.24184203 0.109577 -0.0038419233 0.028276613
0003e0 16 31 13 be 80 7d 02 be a5 d5 58 3d d3 70 db bc
       -0.14374194 -0.12743187 0.052938122 -0.026787197
0003f0 cf b2 30 bd b3 dc 59 be 16 77 10 be a4 42 fe 3c
       -0.043139275 -0.21275596 -0.14107928 0.031037636

lstm.bias_ih_l1 f4 [256]
000000 c8 3c 90 bd f9 8e e3 bc a5 c9 e5 bd 90 63 72 3d
       -0.07042843 -0.027778136 -0.11220101 0.05917698
000010 53 40 b2 bc 4a 0a 3e 3d f2 7e da 3d 32 63 06 bc
       -0.021759188 0.04639653 0.10668744 -0.008202361
000020 c6 7c c2 3c bc 65 b2 bd 88 83 47 bd 97 4f 8e bd
       0.023741137 -0.087108105 -0.048709422 -0.06948774
000030 59 5b a7 bd 75 b4 a8 bd f4 d7 e4 3d 64 24 c7 bd
       -0.0817172 -0.082375444 0.11174002 -0.09723738
000040 e4 1e 2b bc 65 52 60 bd 95 1c b8 bc 81 a4 8d 3d
       -0.010444377 -0.054766078 -0.022474566 0.06916142
000050 75 ca 73 3d 23 a7 e6 bb 71 18 19 bd 48 ad 9b bd
       0.05951925 -0.007038967 -0.037376825 -0.0760141
000060 ff 78 4e 3c b4 02 70 bd 8e d6 44 3e 76 f4 11 3e
       0.01260209 -0.058596328 0.19222471 0.1425341
000070 14 a4 3b bd b3 55 b5 bc 54 3a 83 bd 03 7d 82 3d
       -0.045810774 -0.022135591 -0.064076096 0.063715
000080 db 7f 42 3d c2 b1 35 3b 97 24 82 3d 88 15 02 3d
       0.047485214 0.002772436 0.06354635 0.031758815
000090 49 bc 4c 3d 27 3f 90 3c ce 84 4a 3d 5b 9b 26 3c
       0.04998425 0.017608238 0.04944306 0.010168876
0000a0 0a 05 05 bd bf 9e 14 3d 6d 89 90 3c 6f d8 77 bd
       -0.03247551 0.036284205 0.017643655 -0.06050914
0000b0 cd 0d be 3d 14 43 c9 bd 3e 31 5d bb 9a 73 a1 3d
       0.09279976 -0.09827247 -0.0033751274 0.078833774
0000c0 c6 e8 da 3c 17 bf 3f bd fa 7d e6 bc c8 2b c2 3d
       0.026722323 -0.046813097 -0.028136242 0.09481007
0000d0 83 9a 43 3d 20 3e d5 bd f1 98 ad 3d 62 2f 4b 3d
       0.047754776 -0.1041224 0.08476437 0.049605735
0000e0 73 92 49 3e a5 0a 7b bc 00 8d a6 3d 2f e5 14 bb
       0.19684772 -0.015322362 0.08132362 -0.0022719612
0000f0 b7 c4 35 3e a4 58 86 3d 0e a4 8f 3e 9b 8d 36 3d
       0.17750822 0.065598756 0.2805485 0.04456864
000100 44 c3 8d bd 7b 8e d7 3c fc 2e 90 3d fd f4 32 bd
       -0.069220096 0.026313057 0.070402116 -0.04369067
000110 63 13 a4 bd 1e 29 89 3d 37 21 36 3c 68 46 e8 3d
       -0.0801151 0.066972956 0.0111163175 0.11341554
000120 00 c9 06 bd 5f 0f b7 3d a0 0e 87 3d 54 0e 8a bd
       -0.032906532 0.08938479 0.06594586 -0.06741014
000130 25 1c 61 3d 32 0c c8 bb 5f d3 dd 3d d3 be d9 3d
       0.05495848 -0.0061049694 0.108313315 0.106321
000140 a3 69 35 3d b3 b6 04 3e 6c 3b 3d 3d 63 f5 8c bd
       0.044290196 0.12960319 0.046199247 -0.06882741
000150 b5 76 29 3d 15 36 fe 3d e5 4c 08 3e 4e 49 1e 3d
       0.041372973 0.12412659 0.13310583 0.038644128
000160 1f 78 13 3e d3 fc ff 3d 2f 96 23 bd 43 8a 6d ba
       0.14401291 0.12499394 -0.039938148 -0.0009061435
000170 38 9d fd 3d 46 8a d5 3d ec df 9a 3c f8 ba 56 3d
       0.12383503 0.10426764 0.018905602 0.0524244
000180 2a 27 08 3e 38 6b cc 3d ec 51 0e 3e b0 82 b2 3c
       0.1329619 0.09981388 0.13898438 0.021790832
000190 58 f3 ba 3b 94 e0 82 bc a4 cd e6 3d 4b 02 31 bd
       0.0057052784 -0.015976228 0.112696916 -0.043215077
0001a0 36 08 e9 3c 0b 9f 3f 3d 64 18 c9 bd c9 89 4b bd
       0.028446298 0.046782535 -0.09819105 -0.04969195
0001b0 91 21 22 bc 32 5f 9a bd 59 06 29 bb 1f 2f 5d 3d
       -0.009895698 -0.07537688 -0.0025791137 0.054000016
0001c0 d5 7a 2c 3d 7c c8 ea 3c 2d 9f c7 bd 86 61 ef 3d
       0.04210933 0.028660052 -0.09747157 0.11688523
0001d0 c0 8e 96 3d ba cc b1 bc 50 4f 65 bd 1c fa d4 bd
       0.07351446 -0.021704067 -0.05598384 -0.10399267
0001e0 a3 86 e8 bc df 08 91 3d f9 ad 58 bd da b1 d2 bc
       -0.028384512 0.0708177 -0.05290029 -0.025719572
0001f0 96 34 f6 3c e6 ef 45 3d 3e 93 a7 bb 2a 17 ad 3d
       0.030054372 0.048324488 -0.005113988 0.08451684
000200 a2 9c ac 3c 60 fc 86 bd 8a da 47 bc 7a f7 75 3d
       0.021070782 -0.065911055 -0.0121981 0.060050465
000210 23 e4 33 3d 5a 11 08 bb fa 00 d2 bd 4b 40 9e bd
       0.04391874 -0.0020762295 -0.102540925 -0.07727107
000220 94 4d 90 bd 98 a6 7b 3d 28 2b fb bc 04 48 f1 3d
       -0.07046047 0.061438173 -0.030660227 0.11781314
000230 35 ab e3 bd 03 43 7d 3d 4d ad b3 bd b3 b7 24 3c
       -0.111166395 0.061831485 -0.08773289 0.010053563
000240 82 91 b3 bd f0 93 3b ba 12 ab 19 bd 59 3a b3 bc
       -0.08767988 -0.00071555283 -0.03751666 -0.021878408
000250 47 a3 8b 3d 51 f9 1d 3d 6c 3b 22 3d 59 76 3e bd
       0.06818252 0.038567845 0.03960745 -0.046499584
000260 fc 91 79 3d dd 8c d8 3d fa 65 de 3d 7a b8 59 3d
       0.060930237 0.105737425 0.10859294 0.053154446
000270 50 78 76 bd 80 5b ef 3d 37 ef 06 3e 0f aa c4 bd
       -0.060173333 0.11687374 0.1317719 -0.096027486
000280 79 b1 b4 3c 97 0a 02 be 6a e3 96 bd da 74 0c 3e
       0.022057282 -0.12699352 -0.073675945 0.1371645
000290 cb 38 bc bd aa a3 5c bc b4 12 6f 3d 08 bc 20 ba
       -0.0919052 -0.013466755 0.058367446 -0.00061315345
0002a0 05 6f fb 3c 50 8c 1b be d2 39 3a 3d 41 76 d5 3c
       0.030692587 -0.15190244 0.045465298 0.026057364
0002b0 6b c8 03 be 47 95 b1 bd 79 c3 0e bc f2 fa e9 bc
       -0.12869422 -0.086710505 -0.0087135965 -0.028562043
0002c0 82 b8 23 3d 1d 77 2b 3d b5 43 09 be f5 34 19 bd
       0.039970882 0.041861642 -0.13404734 -0.03740402
0002d0 79 8a 08 3e bf 3c c7 3b d3 8c 8f bd 22 93 42 3d
       0.13334073 0.0060802395 -0.07009282 0.047503598
0002e0 40 6c af 3d b8 95 65 bc 96 45 68 bc ad d5 f2 bc
       0.08565569 -0.0140127465 -0.014176747 -0.029642904
0002f0 ac f6 bd 3d 0f 4d 37 bd 4a 57 96 3d 01 54 a0 bd
       0.092755646 -0.044751223 0.07340868 -0.078285225
000300 8d c8 24 3e 6b d1 3c 3d 77 fd a1 3d c1 cb c2 bc
       0.16092129 0.046098154 0.07909673 -0.023778798
000310 99 08 05 3e 84 2e 6b bc 9b ef 37 bd ce 15 a0 bd
       0.12991561 -0.014354352 -0.04490624 -0.07816659
000320 40 00 c5 bc ef 00 1b 3e cc 09 44 3c 70 3c d5 3d
       -0.02404797 0.15137075 0.011965226 0.10411918
000330 d2 44 1d be 2c ee 5d 3e 31 9f 01 3d 83 95 28 bd
       -0.15358284 0.21672887 0.031645957 -0.04115821
000340 2a 55 9f 3d 9a 64 ef 3d b5 4a 95 3d 83 14 8b 3d
       0.07779916 0.1168911 0.0728964 0.06791022
000350 be e7 de 3d 7e 5f 9e 3d f3 04 b4 3a 07 73 2e 3e
       0.10884045 0.077330574 0.0013734385 0.17036067
000360 f9 b7 a4 3b 6c 7a 21 3e fd c9 2d 3e ff 67 2c 3e
       0.005026814 0.15769356 0.16971584 0.16836546
000370 38 26 a9 3d 9b 99 5b bd e6 f1 3a 3e ba 16 15 3d
       0.08259243 -0.053613286 0.1825634 0.036398627
000380 4c e4 8c 3d ae 9b f0 3d de e6 f4 3d 3e 43 24 3c
       0.06879482 0.117484435 0.11958097 0.010025797
000390 04 36 c6 3d 6e 8d f4 3d 90 85 5d 3e c4 dd d7 bc
       0.096782714 0.11941038 0.21632981 -0.026350863
0003a0 b3 fe bf 3d 62 1c 14 3e 5b 03 3e bd 1b f5 72 3d
       0.09374752 0.14463952 -0.04638992 0.059315782
0003b0 e1 0a a2 bd 8e dd f8 39 1a 19 87 bd 24 0f 91 3d
       -0.07912231 0.00047467317 -0.065965846 0.07082966
0003c0 75 c5 3e 3c ec 3f 78 3e 45 94 34 3e a1 9e 32 3e
       0.011643757 0.24243134 0.17634685 0.17443325
0003d0 84 e8 ef bd f4 ae 31 3c 91 1c a3 bd 9a 4e 09 3d
       -0.11714271 0.010844935 -0.07964433 0.033522226
0003e0 29 3d d7 3d 4a 4d 5a 3d 47 13 04 be 10 27 1c 3d
       0.10509712 0.053296365 -0.12897979 0.03812319
0003f0 da de c1 bc f3 d4 3b 3b 01 10 e6 3d b8 41 3a bc
       -0.023665834 0.0028660863 0.11233521 -0.011368208
