LogAnomaly/result/deeplog/deeplog_epoch348.pth (torch_old, 647877 bytes, 30 tensors)

lstm.weight_ih_l0 f4 [256, 1]
000000 dc e7 52 be c2 bd 5e bc b6 7b 86 bd b4 7b b4 3d
       -0.2059626 -0.0135950465 -0.06566565 0.08812657
000010 55 ed 0b be 38 d8 43 3d 48 39 d6 bd 70 9d 99 3d
       -0.13664754 0.047813624 -0.10460144 0.07500732
000020 75 e3 3d 3e 11 ef ad 3d 22 0c 2c 3e 86 8a ae bd
       0.18543799 0.08492864 0.16801503 -0.08522515
000030 b6 df c9 3d 17 a6 0e 3e be 82 a5 bd ce 7e 87 3e
       0.098571226 0.13930546 -0.08081578 0.26463932
000040 97 62 ae 3d eb fc 66 3d b3 c8 1b be ed ee 20 3e
       0.08514898 0.056393545 -0.1521328 0.15716143
000050 07 d2 2a 3e 1f ef 9d 3d 78 01 8d 3d 97 c3 78 bd
       0.16681682 0.07711624 0.06885046 -0.060733404
000060 b8 fc 58 3e d0 06 90 bd 99 f8 a5 bc b5 db 96 3d
       0.21190155 -0.070325494 -0.020260142 0.073661245
000070 dc 07 a3 3d 5f 3f 05 be 23 62 07 3e 24 00 87 3c
       0.079604834 -0.13012455 0.1322103 0.01647956
000080 37 81 f5 3d 0a fd d8 3d a2 d3 b7 3c 17 b3 38 3d
       0.119875364 0.10595138 0.022439782 0.04509267
000090 42 af 5d 3e f3 78 58 3c ff 3a 11 3e 71 77 11 be
       0.21648887 0.01321243 0.14182661 -0.1420572
0000a0 a1 05 5e 3b a9 d1 0c be d2 9d 06 3e 23 a1 d1 3e
       0.0033877867 -0.13751854 0.13146141 0.4094325
0000b0 48 7b 0b be 30 73 e7 3d 8d 26 16 3e 14 0b 52 be
       -0.13621247 0.11301267 0.14663143 -0.20512038
0000c0 5e 83 4c 3e 61 0b 26 3e 06 ec bf 3e 76 b9 aa 3d
       0.19971988 0.16215278 0.3748476 0.08336155
0000d0 b9 37 60 3d 40 cd ad 3e 7f 1f ed 3d 4e 57 7d bd
       0.05474064 0.33945656 0.11578273 -0.06185084
0000e0 2c d3 36 be 07 59 e9 3c d9 eb e2 3d 7a f5 2f 3d
       -0.17853993 0.028484834 0.110801406 0.042958714
0000f0 49 f6 30 3d 90 bd 23 3e f8 70 d1 3d 21 01 1e be
       0.043203626 0.15990281 0.10226625 -0.15430118
000100 93 09 84 bd 27 bd 26 3d 6a a8 01 3e 5d 80 3c bd
       -0.06447139 0.040707733 0.12661901 -0.046020854
000110 63 fa b9 bd 4e ec 75 3d 03 56 c6 3d 12 0f 71 3d
       -0.090809606 0.06003981 0.09684374 0.058852263
000120 61 3f 24 bd d7 7e 98 3e ca aa 2f 3e c0 48 0b be
       -0.040099505 0.2978427 0.17154995 -0.1360197
000130 a2 4a 1e bc 38 4b b6 3d 7e 29 30 3e 95 71 88 3e
       -0.009661349 0.089010656 0.17203328 0.26649156
000140 c2 03 06 3d 0e 4f 0f 3e 14 15 f9 bd 52 47 1f 3d
       0.032718427 0.13995 -0.121622235 0.038886376
000150 74 30 cf 3b 1d 52 70 3e b7 2a 11 3e 68 1c 62 bd
       0.0063229147 0.23468824 0.1417645 -0.05520287
000160 16 51 ab 3c cd 9e 9c 3d c2 ac 35 bf 7b 9d a5 3d
       0.020912688 0.07647476 -0.7096673 0.08086678
000170 b9 e2 77 bd fb 4d 7b be 54 85 61 3e 01 26 99 3c
       -0.060518954 -0.24541466 0.22023517 0.01869488
000180 de fd 0a bd ee e2 2c 3e 69 fb dd 3d ae 92 ea 3d
       -0.033933513 0.16883442 0.10838968 0.11453758
000190 b9 f9 86 3d 74 e9 4d 3e ce a7 f5 3d 6c 7e 13 3d
       0.065905996 0.20108587 0.11994897 0.036009237
0001a0 4c 5d 1b 3e 5e fc 77 3e 71 7f 3f 3e dd 6d 75 3d
       0.15172309 0.24217364 0.18700959 0.059919227
0001b0 3f bd 03 be ee 28 dd bc 65 bd 81 3d 54 83 e8 bd
       -0.1286516 -0.026997056 0.06334952 -0.11353174
0001c0 64 85 aa 3d d1 a6 e4 3d db 54 a1 3e 43 3f 81 3e
       0.083262235 0.1116463 0.31510052 0.25243577
0001d0 00 50 58 3d 56 95 b4 3c 33 70 32 3e af 45 d4 bc
       0.05281067 0.022043865 0.17425613 -0.025912134
0001e0 7a 70 3b be 9d b1 3c 3e 90 10 f6 3e 35 9d 14 bd
       -0.18304625 0.18427129 0.4805951 -0.036282737
0001f0 ec 1d 3c 3d 48 9d 62 3d 88 16 b1 bd 2e 7f 1d be
       0.045926973 0.055325776 -0.086468756 -0.15380546
000200 e6 80 ef 3e 1e 7a 0e be d7 2b a8 3d c6 e1 02 3d
       0.4677803 -0.13913772 0.08211487 0.031953596
000210 6d dd 87 3e 88 16 3a be 84 0e 53 bd 02 e9 23 3e
       0.26536122 -0.18172657 -0.051527515 0.16006854
000220 70 ca 3a 3e 4a cf 34 bd e5 34 8c bd 8a fe 6d 3e
       0.18241286 -0.044143 -0.06846026 0.2324163
000230 ad 35 7b be 1b 8a 37 3e ac 55 29 be 98 e0 c8 bd
       -0.24532194 0.17923777 -0.16536587 -0.09808463
000240 07 47 6f 3e 9c 8e 9f be 28 18 8a be 0f e0 61 3e
       0.23366939 -0.3116349 -0.26971555 0.22058128
000250 5e 68 3b 3e b9 1a 13 bd de cd 25 be 9d b5 50 3e
       0.18301532 -0.035914157 -0.16191813 0.2038178
000260 1d 4e d2 3d 50 b2 a5 3e 5b 46 f7 be 61 c8 ab 3c
       0.10268805 0.32362604 -0.48295864 0.020969572
000270 22 91 cf 3c 51 f3 43 be 3d 78 73 3f 50 d6 2b 3a
       0.02533776 -0.19135787 0.95105344 0.00065550674
000280 41 8f 03 3f ed 5c c4 3c a5 fe b0 3d db 93 ec bc
       0.51390463 0.023970092 0.086423196 -0.028879097
000290 75 5e a4 be 9a 0d 5b be 24 9b a9 be e8 1b 45 be
       -0.32103315 -0.21391907 -0.33126175 -0.19248927
0002a0 2b 6a 5b 3e 80 e0 6c 3d 9a 40 00 be 42 f0 d8 bf
       0.21427219 0.057831287 -0.12524644 -1.6948321
0002b0 b4 13 c4 3e 57 05 9e 3e 68 c1 8a 3d b8 dc 04 3f
       0.38296282 0.3086345 0.067751706 0.5189929
0002c0 e6 12 00 be 31 1a 1f be 16 bf 1b be ab 28 1e bd
       -0.12507209 -0.15537335 -0.15209612 -0.038613003
0002d0 7f 51 da be f2 71 f5 3e 7e 0e 16 3d 20 1c 32 3e
       -0.42640302 0.47938496 0.036634915 0.17393541
0002e0 c7 e5 c3 be 4c c4 a4 3d 63 98 4c 3d 24 3a a2 bd
       -0.38261244 0.08045253 0.049950015 -0.07921246
0002f0 52 c3 0d 3e 1a 10 a9 bd c7 71 ac 3d 7f 74 b7 be
       0.1384404 -0.08255024 0.08420139 -0.35831067
000300 b9 8e 4a 3e 1b 7a 25 bc d1 5a 23 3e 85 94 ac 3e
       0.19781007 -0.010099913 0.15952612 0.3370706
000310 22 e8 3e 3e 2f 3e a7 3d 3e d3 44 3e c6 0b 6a 3e
       0.18643239 0.081661575 0.19221207 0.22856054
000320 52 a2 30 3d 6b 5e 9c 3e 71 7d aa 3d e1 c4 65 3e
       0.04312355 0.30540785 0.08324707 0.22438385
000330 c7 1e 87 3e ae a4 1d 3e 78 d5 76 3e 4f 04 a2 3e
       0.2639067 0.15394852 0.2410487 0.31643912
000340 77 6f bf bd 5a 59 12 3d ff 4b ac 3e 1f 3d 61 3e
       -0.09347432 0.035729744 0.3365173 0.21995972
000350 ec f9 a4 3e 64 b3 78 3e a5 0e 5d be c2 e0 38 be
       0.32221925 0.24287182 -0.21587618 -0.18054488
000360 95 17 37 be 1b c0 44 3d e1 cc 2c 3b 12 85 e2 3d
       -0.1788009 0.04803477 0.0026367235 0.110605374
000370 81 c7 aa bc 99 18 ac be 1d ba 22 3e f8 a8 91 3e
       -0.020847084 -0.33612517 0.15891309 0.28449225
000380 d2 d3 e8 bd 2a 43 b0 3e b3 00 aa 3d 80 b7 a5 3e
       -0.113685265 0.34426242 0.083009146 0.32366562
000390 9a 8a c3 bd 5e 3b 6a be be d3 b7 3d 51 af 9a be
       -0.095479205 -0.2287421 0.089759335 -0.3021188
0003a0 5a cd 62 be be ff 93 3e 78 dc 51 3e 4a a7 99 be
       -0.22148648 0.28906053 0.20494258 -0.30010444
0003b0 72 b8 8c 3e b7 2c 9c 3c 2f d8 5f 3e 5f 3e 2e be
       0.2748447 0.01906429 0.21859811 -0.1701598
0003c0 63 23 44 be 23 36 fe bd e9 7d 03 3e 76 91 63 be
       -0.19154124 -0.124126695 0.12841 -0.22223458
0003d0 95 15 9c 3d 75 b9 c4 bd dd 6f 84 3d e3 e5 c3 3d
       0.07621304 -0.096056856 0.06466649 0.09565332
0003e0 61 80 38 3e 73 f7 63 be 4b 28 9e 3e 64 de 12 be
       0.18017723 -0.22262363 0.30890116 -0.14342648
0003f0 5b 23 db 3d ff c3 2a 3e 0f 5b 7b 3e 95 e5 24 3e
       0.10700103 0.16676329 0.24546455 0.16103204

lstm.weight_hh_l0 f4 [256, 64]
000000 1b dd 6c 3e 3b 50 1f be 23 f1 2f 3d a8 69 8d 3d
       0.2313122 -0.15557949 0.042954575 0.06904918
000010 63 fe 83 3e 6e 3c ec bd db 46 33 bd b2 33 b7 3d
       0.2578002 -0.115349635 -0.043768745 0.08945407
000020 f3 0a 32 3e 5d a1 0c 3e 62 26 d6 bb 70 b6 3e be
       0.1738699 0.1373343 -0.0065353373 -0.18624282
000030 94 0c 4d be fc 2e dc 3d 41 02 ea bd 9b 02 8c 3e
       -0.2002433 0.10751149 -0.11426211 0.27345738
000040 3d 89 59 3e f4 d0 61 bd 26 ba 2b 3d 68 b8 17 3e
       0.21243758 -0.055130914 0.04192557 0.14816439
000050 e5 af af bd 72 14 a2 3d 12 45 2b bd 70 37 3d 3e
       -0.08578471 0.07914056 -0.041813917 0.18478179
000060 1e a2 95 3e b9 47 72 3e 4c f6 c3 3d 22 30 ae 3d
       0.29225248 0.23660173 0.09568462 0.08505274
000070 21 1e b4 3d 88 9b aa be b5 dc 70 3d f2 3a 0a 3e
       0.08794809 -0.33321786 0.058804233 0.13499048
000080 2f 57 3a 3d 6a fc 95 3d b4 54 bb 3d 45 ac 32 be
       0.0454933 0.07323535 0.09147015 -0.17448528
000090 e7 b7 0b bd a0 51 5c be 0b 42 ee bd 6d 46 a9 be
       -0.03411093 -0.21515512 -0.116336904 -0.33061543
0000a0 5a fd a0 3d ba 61 04 be 32 9c c2 3d e3 16 e3 bd
       0.07860823 -0.12927905 0.09502448 -0.1108835
0000b0 81 e6 4a 3d c3 db 38 3e 61 42 23 3d e0 b3 81 3e
       0.049536232 0.18052582 0.039858226 0.25332546
0000c0 34 c1 9b be f6 6a c2 bd d7 cc 30 3e 24 bf b1 be
       -0.3042084 -0.094930574 0.1726564 -0.3471614
0000d0 a0 26 7d 3d 8d c1 50 3e 22 5e eb 3d 6e 74 bb bc
       0.061804414 0.20386334 0.11492564 -0.022882666
0000e0 7a 33 df bd a5 11 c8 3e a4 22 f0 bc 69 4c 02 be
       -0.1089849 0.39075962 -0.029313393 -0.1272446
0000f0 37 ab 0e 3e 2f 21 65 bd ff 37 14 be 94 65 af bd
       0.13932501 -0.05593985 -0.14474486 -0.08564296
000100 3a 92 87 bd fb e4 9a bd 4f 0d a3 3e 4a fe 90 3e
       -0.066196874 -0.07563206 0.3184609 0.28319007
000110 02 dd 12 3e 79 f4 37 be c7 de b2 3d b1 77 a1 3d
       0.1434212 -0.17964353 0.08733898 0.078841574
000120 79 e3 19 3e a4 8d bc 3d ca 07 fc bd 1f 09 8e 3d
       0.1502818 0.09206703 -0.12306173 0.069353335
000130 d6 15 58 be 2f ee 38 3e da 11 01 be 7e 6e a8 be
       -0.2110208 0.1805961 -0.12604466 -0.328968
000140 5b 0b 58 3e 05 5d 17 bd 99 af f1 bd 48 a5 57 3e
       0.21098082 -0.036953945 -0.11801071 0.21059144
000150 47 fb d3 3d b9 3c da bd 96 40 17 be 69 da a8 3c
       0.10350662 -0.10656113 -0.14770731 0.020611959
000160 d8 93 c4 3e 8c 26 ac 3d d9 b3 9b bd e5 9e f9 3d
       0.38394046 0.0840579 -0.076026626 0.1218851
000170 dd b9 6f 3e 00 64 83 bb fd ef 13 3d 13 98 36 3e
       0.23410745 -0.0040097237 0.036117543 0.17831449
000180 09 a1 83 3b b1 5f 40 3e 2c e1 72 3d 4a c2 08 be
       0.0040169996 0.18786503 0.059296772 -0.13355365
000190 6f 7c 1b bc 9f 4e 36 be ee 01 1b be ad dd a9 3d
       -0.0094901165 -0.17803429 -0.15137455 0.082942344
0001a0 a8 b7 3a 3e c3 cc 6c bd b1 52 e9 bd bd 88 d0 3d
       0.18234122 -0.057812463 -0.11392725 0.10182331
0001b0 4e c9 45 bb d8 30 1c 3e 4c f3 5d 3e 3a bd fa bd
       -0.0030179801 0.15253007 0.21674842 -0.12243123
0001c0 0e ea 70 be 96 2c fa bd 52 87 cd bc 3a b4 6d be
       -0.23526785 -0.12215535 -0.02508894 -0.23213282
0001d0 3f 76 21 3d bb d1 01 bd b8 9d 91 3e fa 1d 1c 3e
       0.03941941 -0.031694155 0.28440642 0.1524581
0001e0 f5 da 33 bd 24 df b7 3e 8b ed 22 3d b4 15 24 be
       -0.043909986 0.3591243 0.03977732 -0.16023904
0001f0 30 c5 1c 3e 44 f4 2c be 3d 7b 98 3d 4b ce a8 bd
       0.15309596 -0.16890055 0.07445381 -0.08242472
000200 a2 82 02 3e 9f 78 ae 3d e5 bf de 3d d3 e5 74 3e
       0.12745145 0.085191004 0.10876445 0.23915796
000210 87 62 25 3e 72 13 93 be 01 8c 85 be 37 b1 67 3e
       0.16150866 -0.28725773 -0.26083377 0.22626196
000220 f0 32 65 3e 42 90 f6 bc a9 8d a2 bd 84 47 fb 3d
       0.22382712 -0.030098084 -0.07937176 0.122695
000230 90 76 ad bd 9a 13 8b 3d 80 0c 0a be b8 b7 c5 3d
       -0.084698796 0.06790848 -0.13481331 0.09654182
000240 92 78 23 3e 5d 79 74 be 67 75 bb bc 69 12 65 3e
       0.15963963 -0.23874421 -0.02288313 0.22370304
000250 74 44 44 3d 17 a9 82 3d fa 37 5d bd 45 5f 17 3e
       0.047916844 0.063799076 -0.05400846 0.14782436
000260 17 e9 47 3e 67 b1 c9 3d 9b f9 68 bc e3 1e 9c 3e
       0.1952251 0.0984829 -0.014219667 0.30492315
000270 6f b0 44 bd a6 a3 d0 be 6a 1b ff 3d 89 2b aa 3d
       -0.048019823 -0.40749854 0.12456401 0.08309085
000280 b6 51 c3 bd 0e 91 19 3e b5 2e 59 3e 80 0d 12 be
       -0.095370695 0.1499674 0.21209224 -0.14262962
000290 59 54 82 3b bb d0 2c be 09 45 4c bd 73 72 de be
       0.00397734 -0.168765 -0.049870525 -0.43446693
0002a0 fe 0e 4e 3e 71 57 31 be 1f 42 ff bc a0 ef 81 bd
       0.20122907 -0.17318512 -0.031159459 -0.06344533
0002b0 8b ec a5 3d 57 28 b9 3d 68 aa 87 3e 93 f5 32 3c
       0.081017576 0.09040897 0.26497197 0.010922807
0002c0 88 95 16 bd 89 56 2e 3c cd 14 20 be b6 47 81 3d
       -0.036763698 0.010640749 -0.15632935 0.06312506
0002d0 57 cd 27 bb df 42 bb 3d 84 1b e4 3c ed 2d 8b 3e
       -0.002560457 0.09143614 0.027845152 0.27183476
0002e0 bf f1 23 bd 19 fe 7f 3e 92 8d 01 bc a5 f2 15 bf
       -0.04002547 0.24999274 -0.007907288 -0.5857337
0002f0 7b 82 27 bc d4 70 0b be 2c 16 a8 3d f1 35 9d be
       -0.01022398 -0.1361726 0.08207354 -0.30705217
000300 30 f3 b8 3d a9 35 6d be f7 58 2d bd 7a 89 c9 3c
       0.09030759 -0.23165001 -0.04232117 0.024601687
000310 ab f0 36 3d 1f 71 ac 3d 9c de 3e 3c fd 50 d2 bd
       0.044663113 0.08420014 0.011649754 -0.102693535
000320 86 1a 7b bd 35 a4 8a bc 1a 4b 24 3d e0 3e d4 3d
       -0.06130459 -0.016924003 0.040110685 0.10363555
000330 dd ea 81 3b 55 60 f3 3c c0 f0 8f 3d 80 98 d6 3d
       0.0039647655 0.02970902 0.07028341 0.10478306
000340 be 96 b5 3b 6b e7 b8 bd 38 46 1b be 42 c3 c5 3c
       0.0055416515 -0.090285145 -0.15163505 0.024140958
000350 16 5a 45 3d 51 1c 0b 3d c5 77 71 be c1 ef 96 3e
       0.048181616 0.03396255 -0.23580845 0.29479793
000360 d4 e5 28 bd b0 01 0a 3e 4f ea 25 3d 9f 0d b1 3d
       -0.041234806 0.13477206 0.040506657 0.08645176
000370 51 2e 0f 3e 3a f3 7d be a1 fa c2 bc b2 56 d1 bb
       0.13982512 -0.24799815 -0.02380115 -0.0063885087
000380 2b ee af 3d 34 f1 36 bd dc 06 04 3e b4 8d 21 3d
       0.08590349 -0.044663623 0.12893242 0.03944178
000390 4e 9f 6a bd de 84 51 be 73 16 ee bd ce 10 32 be
       -0.05728083 -0.20460841 -0.116253756 -0.17389223
0003a0 ec cc 46 bd 73 ed 33 3d 05 a0 f4 bd 25 aa 0f bd
       -0.048535272 0.04392762 -0.11944584 -0.03507437
0003b0 46 ce 6c 3e 04 c3 2a bd 62 5c 20 be c2 b8 b1 3e
       0.23125562 -0.041689888 -0.15660241 0.34711272
0003c0 73 d3 d9 bc 3a f0 8b bc 40 fd aa 3d 93 cf 1b be
       -0.026590085 -0.017082322 0.08349085 -0.15215902
0003d0 89 46 b7 bd be 87 93 3d a8 94 48 3d db 60 ea 3d
       -0.089490004 0.07203625 0.048969895 0.11444255
0003e0 1c 45 b3 bd ca 5a 0d 3e 5c 03 cf 3d 7e 5c af bd
       -0.08753416 0.13804165 0.101080626 -0.08562563
0003f0 9f f6 cf 3d 20 83 ba bc 2e 97 f6 bd 92 2d 69 bc
       0.10154461 -0.022767603 -0.12040554 -0.014232056

lstm.bias_ih_l0 f4 [256]
000000 91 6b f6 3d 36 cc b1 3d f6 ed 2e 3d d3 d9 a2 bd
       0.120322354 0.08681528 0.042707406 -0.07951703
000010 cc dc 4e 3e d0 36 4a bc b3 9d 3e 3e 6c 4d 25 3c
       0.20201415 -0.01234217 0.18614845 0.01008926
000020 71 db 82 3e 86 0d 3d 3e ae 36 fd bd 70 f3 67 3e
       0.25558046 0.1846219 -0.12363945 0.22651458
000030 fd c0 0f 3d 1b dc 03 3e 81 08 ef 3d d4 07 08 3e
       0.035096157 0.12876932 0.11671544 0.13284236
000040 56 29 41 3e 69 43 24 3e 3f 45 46 3e ac 77 8b bc
       0.18863425 0.1604134 0.19362353 -0.017024837
000050 9e 9d a5 bd 60 79 15 3d 5a 38 de 3d 4b b3 b7 3d
       -0.08086704 0.036492705 0.10850592 0.08969744
000060 1e 5c 16 3e 9d 46 31 3e 36 51 4d 3d f5 fa 91 3d
       0.14683577 0.17312093 0.050126277 0.071279444
000070 df 96 76 bc 1f d9 7e 3e 1a 69 92 3e f9 c4 dd bd
       -0.015050619 0.24887513 0.2859581 -0.10828585
000080 8f d6 15 bd ea a5 06 3e 58 c0 34 3d 3e 16 e4 bd
       -0.036581572 0.13149229 0.044128746 -0.11137055
000090 f7 fe 1e 3e 30 73 aa bd c0 6a 54 3a 5e 09 b2 bd
       0.15526949 -0.083227515 0.0008103065 -0.08693193
0000a0 82 19 f6 3d fe c4 e8 bc d5 19 4d bd 27 7d 2b 3f
       0.12016584 -0.028414246 -0.050073463 0.6698784
0000b0 4e f0 46 3d 2d 88 8a 3e af 6e cc 3c 5b 0d db 3d
       0.048569016 0.2705702 0.024955122 0.10695907
0000c0 90 02 1f bd 40 70 8a 3d 12 e3 e3 bc 26 0f 05 be
       -0.038820803 0.06759691 -0.027818237 -0.1299406
0000d0 4e 88 08 be 6a 5c 9b 3e 63 24 c5 3d e0 36 33 3d
       -0.13333246 0.30343944 0.09626081 0.043753505
0000e0 e4 d4 45 3e f8 f7 51 bd e8 11 4c 3d c0 2d a4 3d
       0.19319493 -0.051261872 0.049821764 0.080165386
0000f0 98 1a be bc 3e b4 f3 3d e4 22 7e be ae 31 02 3d
       -0.02320604 0.11899613 -0.24817997 0.03178566
000100 33 47 6f bd 1d 5e 11 3e 41 ed 94 bd ab 50 f9 3d
       -0.05841751 0.14196058 -0.07271815 0.12173589
000110 d3 8d 97 3d 9e 73 ac 3d 7d 7b c0 3d d7 86 dc 3d
       0.07400098 0.0842049 0.093985535 0.10767906
000120 fe 70 bb 3d 6a 7d a7 3d 14 e5 16 be 1b f5 0e 3e
       0.09152411 0.08178218 -0.14735824 0.13960688
000130 4a 78 3c 3d b5 8a 8b 3d 77 b2 04 3c a5 a9 be bd
       0.046013154 0.06813566 0.00809919 -0.09309701
000140 b6 2c 53 3d c8 3f 92 bc 72 95 c6 bd 40 4c ef bd
       0.05155631 -0.017852679 -0.09696473 -0.116844654
000150 78 8f 37 3d a4 15 9b 3d 8e 5e e2 bd 96 0c de bb
       0.044814557 0.07572487 -0.11053191 -0.0067764027
000160 da 4b 56 3e 58 92 f4 3d 80 a7 cd 3d 04 ce 96 3c
       0.20927373 0.11941975 0.10041714 0.018408783
000170 f5 de 57 3e 31 fd bb 3d e8 99 33 be b5 54 88 3d
       0.21081145 0.09179152 -0.1753918 0.066567816
000180 6b dd 9a bd ad cf 0f 3c 93 6b 2f bd 26 31 ae 3c
       -0.075617634 0.008777541 -0.0428272 0.02126367
000190 16 70 fd 3c d5 07 0c be 6b 17 33 bd 2b 1c 99 3b
       0.030937236 -0.13674863 -0.043723505 0.0046725473
0001a0 6b 3b c0 bd 7e bb 3b 3b 56 44 01 3e 44 1d 84 be
       -0.09386333 0.002864569 0.12623724 -0.25803578
0001b0 ba ff ed bd aa 89 44 3e 43 25 ca 3d c9 4f cc 3d
       -0.116210416 0.1919314 0.09870388 0.09976155
0001c0 39 f9 87 3d 04 54 b5 3c 72 dd 3c bc 91 e9 b5 bd
       0.06639332 0.022134788 -0.011527406 -0.0888244
0001d0 5f 04 f1 bd 61 1b d2 3d 5d 46 b1 3d 48 da 1a 3c
       -0.11768412 0.10259128 0.08655999 0.009451456
0001e0 7b d4 c7 3d 18 67 0b 3e f0 6c 5d be 1e e9 f5 3d
       0.09757324 0.13613546 -0.21623588 0.12007354
0001f0 7d 7f e9 3c 7f 6c 46 3d b1 48 9f 3d f4 6e 29 3e
       0.028503174 0.048443314 0.07777537 0.16546232
000200 9d 21 af 3c 58 db 49 3e 56 c2 b6 bd ff b4 5a be
       0.021378333 0.19712579 -0.089237854 -0.21358107
000210 f8 50 02 3e ee 52 fb 3d 83 9a 47 be d2 a9 76 3e
       0.127262 0.12271677 -0.19492535 0.24088219
000220 24 ef 71 3e ff 8e 05 3e cd 8b a0 bd 03 e5 21 bd
       0.23626381 0.1304283 -0.07839165 -0.039525043
000230 d2 b2 50 3e a5 6e 64 38 23 df 34 bd 3b 78 c9 3d
       0.20380715 5.446248e-05 -0.044158112 0.09837385
000240 38 91 66 3e 72 88 0d be 05 75 94 3d b6 f6 10 3d
       0.22516334 -0.13821581 0.07248882 0.035391532
000250 ac 94 df 3c 9c d7 2b 3e c2 13 8f bd be 72 b6 bd
       0.027292572 0.16781467 -0.069861904 -0.08908604
000260 b4 b5 90 bd 75 65 e7 3d ae c3 a9 3d 15 e9 ca 3d
       -0.07065907 0.11298648 0.08289276 0.09907738
000270 0d f7 1b bd ad 1d 90 be 1c ee 05 3e 28 69 00 3c
       -0.038077403 -0.2814764 0.13079113 0.007837571
000280 d1 6d 73 be 4f 52 32 be b2 22 13 3e 27 88 0a 3d
       -0.2377236 -0.1741421 0.14368704 0.03382125
000290 54 2b 17 3d 37 27 33 bb c1 89 a8 bd a4 2a 9f 3d
       0.036906555 -0.0027336606 -0.082293995 0.07771805
0002a0 b1 d0 c9 bb 9a eb af bd cd 58 a3 bd 4e a4 d9 3d
       -0.006158911 -0.08589859 -0.07975922 0.10627042
0002b0 c2 bd 48 bb 4c 8c b1 3d e5 21 83 3d 32 76 57 be
       -0.0030630683 0.08669338 0.06402949 -0.21041182
0002c0 d4 48 23 bc c7 3b 92 bc cb a0 ac 3c 5d a9 54 3d
       -0.009966094 -0.01785077 0.021072766 0.05191933
0002d0 81 81 29 3e c8 10 8a 3e 50 27 80 bd 12 6c 12 be
       0.16553308 0.26965928 -0.06257498 -0.14299038
0002e0 3d 94 d3 bd 56 e8 89 3c 07 2f 3e 3e 25 f5 8d 3d
       -0.103310086 0.01683442 0.18572627 0.06931523
0002f0 b0 32 31 be 1b a1 72 bd 02 a6 77 bd 01 fc 0c be
       -0.17304492 -0.059235673 -0.06046105 -0.13768007
000300 f3 5d a4 3e 69 c7 12 bd 77 a2 bf bc 4f 25 40 be
       0.32102928 -0.035834704 -0.023392899 -0.18764232
000310 a9 62 5e 3e ce 86 a2 3d cc e4 03 3e 83 69 dc bd
       0.21717323 0.07935868 0.12880248 -0.10762312
000320 f0 76 6b 3d 33 2c 09 bc 24 46 12 3e 64 a5 27 bc
       0.057486475 -0.008372354 0.14284569 -0.010232303
000330 25 b7 38 3e 54 22 4b bd 2a 91 b0 3d 51 34 c5 3d
       0.18038614 -0.049593285 0.08621438 0.09629119
000340 f2 c6 c8 3d 8d 50 b9 3c 25 ec 52 3e c0 55 19 bd
       0.09803571 0.022621417 0.20597894 -0.037435293
000350 9a d5 0d 3d fc 09 2b 3d 42 c4 a1 3d 04 1d 92 3d
       0.034627534 0.04175757 0.07898761 0.071344405
000360 e7 f8 4a 3d 60 e5 98 3c 70 4c 47 3e fc de dd 3c
       0.049553778 0.018664062 0.19462752 0.027083866
000370 47 2d 0b 3e b5 86 b3 3e 83 b8 a5 3e c0 38 0b be
       0.1359149 0.3506371 0.32367334 -0.13595867
000380 ae 62 26 3e 7e 2f 06 be 92 66 fd 3d 06 45 dd bd
       0.16248581 -0.13104054 0.12373079 -0.10804181
000390 b2 de df 3d 64 bd 17 3e 06 1f 0d 3e f6 a1 95 3e
       0.10931148 0.1481834 0.13781366 0.2922513
0003a0 43 98 30 3e 19 41 ef b9 4d d5 bf 3d c0 1c f4 3e
       0.17245583 -0.00045634134 0.09366856 0.47678185
0003b0 4b bc 1b 3e 3f 85 ea 3d f4 79 3d bd a2 25 22 3e
       0.15208547 0.11451196 -0.04625888 0.15834668
0003c0 a0 f7 0d 3e 4c 13 08 3e 92 22 33 3e 03 92 1e 3d
       0.13863993 0.13288611 0.17493656 0.038713466
0003d0 cf c9 62 3e 90 52 6d 3e 3b c6 62 3e 79 64 9e 3e
       0.22147296 0.23176026 0.22145931 0.3093603
0003e0 dd 15 30 3e 18 71 ab 3d 0a ae 1a 3d db 11 45 3e
       0.1719584 0.0837118 0.037763633 0.19245093
0003f0 f1 4c 79 bd 94 4c 2a 3d a2 71 5f be 8d 94 94 3e
       -0.060864393 0.041576937 -0.21820691 0.29019585

lstm.bias_hh_l0 f4 [256]
000000 ac d7 4c 3e ea f0 98 3d 4e fa 66 3d cc ec 9b 3d
       0.20004147 0.07467826 0.056391053 0.07613525
000010 d1 53 19 3e d2 fc 3b 3d b5 d3 42 3c 64 99 ba 3d
       0.1497338 0.045895405 0.011891295 0.09111288
000020 5d b4 c2 3d aa 49 5b 3e f8 a8 b9 3c 37 c5 3b 3e
       0.09507058 0.2141482 0.022663578 0.1833695
000030 26 49 2e 3e 51 96 4c 3b d6 2b f2 3d a0 cd 11 3e
       0.17020091 0.0031217525 0.11824767 0.14238596
000040 1c 90 ee 3d 44 9b 0d 3d 49 2a e4 3d cc ad a1 3d
       0.116485804 0.0345719 0.11140878 0.07894477
000050 ed d0 f8 bc 32 8f 7d 3d 45 ba 36 3d 11 47 df bb
       -0.030373061 0.06190414 0.044611234 -0.0068138917
000060 3d 38 0a 3e c5 4f c6 3d 03 28 dd bc 46 ed c2 3d
       0.13498016 0.096831836 -0.026996618 0.095179126
000070 c4 1b c4 bc 3f 90 94 3e b7 96 72 3e f6 d4 bc 3d
       -0.023939021 0.290163 0.23690306 0.092203066
000080 80 c6 ce 3d 53 03 8f 3d ed af 6c 3d 49 30 66 bc
       0.100964546 0.06983056 0.057784963 -0.014049598
000090 2a f3 68 3e 64 ed 8e bd ca 7f ea 3c 0d a6 0c be
       0.2274901 -0.069788724 0.028625388 -0.13735218
0000a0 22 f2 ec 3c 0a e6 df ba ca d0 73 3d b8 52 17 3f
       0.028924052 -0.0017082107 0.05952529 0.59110594
0000b0 17 a8 e8 3d 7c 2d 7e 3e bd 09 72 3d ac 2a ca 3d
       0.113601856 0.24822038 0.05909132 0.0987142
0000c0 14 0b ba bd 50 5f 72 bd 92 37 8e bd 3a ee 6b bd
       -0.09084144 -0.05917293 -0.06944193 -0.057600237
0000d0 03 1a fa bc 26 7c fa 3e de 08 27 bd a1 c1 9a 3d
       -0.030529981 0.48922843 -0.04077994 0.07556463
0000e0 36 a0 32 3e bf 17 e1 3c 00 bb 70 3e 7d 3f ca 3d
       0.17443928 0.027477143 0.23508835 0.09875391
0000f0 be c8 00 3e 51 cd d6 3d 9f 9c 0f be d5 8d 29 3d
       0.12576577 0.1048838 -0.1402459 0.041395027
000100 c2 b9 8d bd 0b 5f af 3c 5c 25 c9 bc d8 2d 1c 3e
       -0.06920196 0.021407625 -0.024553947 0.15251863
000110 17 e0 0a bd 90 e8 e8 3d a6 13 36 3d 30 5a 0a 3e
       -0.033905115 0.11372483 0.044452332 0.13510966
000120 1a ca 63 3e 29 fc 9d bb 61 69 ed bd a7 0f 93 3d
       0.22245064 -0.0048213196 -0.11592365 0.0718072
000130 88 34 cc ba fd d5 43 3e a1 da b2 bd b8 b4 10 be
       -0.001557962 0.19124599 -0.087331064 -0.14131439
000140 ee 84 98 3d 9c ec b5 3b 53 7a c3 bd 7d b3 10 bc
       0.07447229 0.0055518877 -0.09544816 -0.008831856
000150 ce 5c 35 bb 26 47 b2 3d 49 9c 83 bc 2f e7 c4 3d
       -0.0027673724 0.08704977 -0.016065734 0.09614407
000160 23 7e 05 3d dd 11 93 3d 39 99 e6 3d 73 7d a6 bd
       0.032590996 0.071811415 0.11259694 -0.08129396
000170 ca 68 47 3e 0f c0 87 3d f7 05 ea bc b2 f3 1b 3e
       0.19473568 0.06628429 -0.028567297 0.15229681
000180 06 6b fe bd b9 f6 2b be de dd 41 3d b5 58 f8 bb
       -0.12422757 -0.16793336 0.04733073 -0.007578934
000190 cd b5 04 be f2 07 8c 3a 21 0f 07 be 4d 80 94 bd
       -0.12959976 0.001068352 -0.13189365 -0.07251034
0001a0 6b 30 5e bd 59 1a 45 bc 15 56 bc 3d ce 14 74 be
       -0.054245394 -0.012030208 0.09196106 -0.23836061
0001b0 39 36 af bc d6 08 6e 3d ca 91 59 3c c4 9f 3f bd
       -0.02138816 0.058113895 0.013279388 -0.046783224
0001c0 4c ef 02 3d c5 81 55 3b 4b ec 39 3d 2b ee 68 bc
       0.031966493 0.003257857 0.045391362 -0.01421694
0001d0 d7 44 bd bc 4b 31 69 3d 73 7e 15 bd b9 7c 99 bc
       -0.023104114 0.056931775 -0.036497544 -0.01873623
0001e0 3d ee ac 3d df 64 94 bd 5c 5a 0f 3c ad 31 97 bc
       0.08443878 -0.07245802 0.008749571 -0.018456304
0001f0 c8 a9 be 3d 01 2f df 3d f6 11 82 bd c7 d1 e8 3d
       0.09309727 0.10897637 -0.06351082 0.11368137
000200 61 de d9 bd 8d 11 f6 3d 37 55 25 be 36 61 4d be
       -0.106381185 0.12015066 -0.16145788 -0.20056614
000210 b4 16 27 3e 78 cc 60 bd a4 92 0e be 5c 66 5e 3e
       0.16317254 -0.054882497 -0.13923126 0.21718735
000220 cb 7b bf 3d 2e 92 2c 3d af 7c 46 bd 2a 65 01 be
       0.093497835 0.042131595 -0.04845875 -0.12636247
000230 c8 68 ad 3c 23 02 60 bd 18 43 e5 3d dc 1e 38 3e
       0.021168128 -0.054689538 0.11194438 0.17980522
000240 b8 b0 71 3e 54 eb f3 bd 7a a5 9d bb f8 b5 dd bd
       0.23602569 -0.1191012 -0.004810986 -0.108257234
000250 e5 01 08 be 38 d4 4b 3e 99 0e c6 3d 1d 19 69 bd
       -0.13281973 0.19905174 0.09670753 -0.056908716
000260 96 3a 39 bb 8d b0 61 3e fa 5b aa 3d 6c 93 11 3e
       -0.002826368 0.22040005 0.083183244 0.14216393
000270 61 d7 cf bc 7d ac 04 be 5c 25 0f bd 36 9f 53 3c
       -0.025371255 -0.12956424 -0.034947738 0.012916377
000280 2c ac fd bd f7 33 61 be 41 62 11 3e 3d 15 2f bd
       -0.12386355 -0.2199248 0.14197637 -0.042744864
000290 3e 6f 26 3e 13 63 f6 3d b3 38 8c bd cf bb a4 bd
       0.16253373 0.12030616 -0.06846752 -0.08043634
0002a0 b5 60 fd bc 27 c8 0b be 53 1b bf bd 8f 68 d3 3d
       -0.030929903 -0.13650571 -0.093313836 0.10322677
0002b0 7e d3 21 bd 8f 3c f9 3d 6d 5a 50 3d 8b ee 76 3c
       -0.039508335 0.12169754 0.050867487 0.0150715215
0002c0 26 f4 d8 3d d8 10 70 bd cc 49 97 3d 14 c9 cf bc
       0.105934426 -0.058609813 0.073871225 -0.025364436
0002d0 72 19 3c 3e e2 e7 81 3e a7 ad 68 be 3d d7 05 be
       0.18369082 0.25372225 -0.22722493 -0.13070388
0002e0 13 cd 44 3d f0 61 45 3c 64 21 26 3d 5a 12 d1 3d
       0.048047137 0.012047276 0.040559188 0.102085784
0002f0 1f 0c d8 bd 68 13 08 bd 5a 9c 91 bd c4 ee aa bb
       -0.10549187 -0.033221632 -0.071099 -0.0052164514
000300 8f fe a5 3e d9 fc e0 3d 4c 02 b0 bd 7f 25 18 bd
       0.32420775 0.10985727 -0.08594188 -0.037145134
000310 45 d2 4a 3e 69 9f 7e 3d 8a c1 a8 3e 25 b5 4a bd
       0.19806774 0.062163744 0.3296016 -0.04948916
000320 de c2 cc 3d a1 b5 e7 bc ff 37 5d 3d f0 7d a1 bd
       0.099981055 -0.02828485 0.05400848 -0.07885349
000330 a1 92 08 3e 7f ab eb 3d 8f bf 83 3d 41 dc 02 3d
       0.13337184 0.1150732 0.06433021 0.03194833
000340 03 a8 a4 3d ad 4a 29 3e e8 ef 83 3e 24 48 de 3d
       0.08039858 0.16532393 0.2576897 0.108536035
000350 53 10 31 3b 76 6f 53 bc c3 db 57 3e 9d 70 1b 3e
       0.0027017787 -0.012904992 0.21079926 0.15179677
000360 79 51 87 3d ac 0a 50 bd 91 dc 3e 3e 5b 0c bc 3d
       0.066073366 -0.050791427 0.18638827 0.09182044
000370 6c 6f 33 bd 6e 72 64 3e be 15 84 3e 9b 95 0b bd
       -0.043807432 0.22309276 0.25797838 -0.03407822
000380 d2 dd ec 3d 96 79 6c 3b f1 67 16 3d 0b cf d6 bb
       0.11565746 0.0036083213 0.03672022 -0.006555443
000390 e5 3e ba 3d 1e 1e 07 3d 1c 8f 1b 3e eb 01 96 3e
       0.090940274 0.032987706 0.1519131 0.29298338
0003a0 80 64 98 3d 20 54 0b bd 2c bf 5f bd 83 99 ca 3e
       0.07441044 -0.034015775 -0.054625675 0.39570245
0003b0 3c 69 09 3e 78 1a 0a 3d 78 30 16 be fd 96 8f 3e
       0.1341905 0.03371665 -0.14666927 0.28044882
0003c0 ea 84 a3 3d 21 ea 61 3c 74 da d8 3d 61 cb 1a 3e
       0.07984336 0.013788731 0.105885416 0.15116645
0003d0 a4 7a 59 3d 51 84 3f 3e 95 28 57 3d 75 97 84 3e
       0.053095475 0.18702818 0.052528936 0.25896803
0003e0 11 42 3f 3e 19 7d 43 bc 0e 0f 01 bc e9 a5 0c 3e
       0.18677546 -0.011931681 -0.0078771245 0.13735165
0003f0 c4 d9 89 bc 04 9c 00 3e 09 49 94 bc cb 6a 68 3e
       -0.016827472 0.12559515 -0.018101232 0.22696988

lstm.weight_ih_l1 f4 [256, 64]
000000 d5 e7 e3 bc 44 e1 a5 bd 4f 35 bf bd 87 f2 a8 bd
       -0.027820507 -0.08099607 -0.0933634 -0.082493834
000010 65 d5 77 3d 47 8f 77 bd d9 40 54 bd 08 18 47 3b
       0.060506243 -0.060439374 -0.051819656 0.0030379314
000020 bc 62 43 3c 06 f4 38 3e 5f 2b 5a bd a2 82 12 bd
       0.011925396 0.18061838 -0.05326402 -0.035769112
000030 35 59 0d be f6 35 27 bd 52 88 00 3d 07 77 ba 3c
       -0.13803561 -0.040822946 0.031380005 0.022761835
000040 37 ec 1d bc 2c 12 3f 3c 76 9b 7a bd 62 5a 3a 3e
       -0.009638838 0.011662047 -0.061183415 0.18198541
000050 55 d8 27 3d 98 33 11 3e 10 99 b6 3d c0 d6 10 3e
       0.040977795 0.14179838 0.08915913 0.1414442
000060 e0 12 e3 3c 98 1f 14 3d ba 46 2e be 28 f7 13 3c
       0.027718961 0.036162943 -0.17019168 0.009031095
000070 c3 c5 19 be 26 ec b2 bd a3 85 e4 3d 70 03 e7 bd
       -0.15016846 -0.08736448 0.11158302 -0.112799525
000080 bc 9c fd bd 03 c0 77 3d 96 52 96 bd 00 f9 8b 3d
       -0.1238341 0.06048585 -0.07339971 0.06834602
000090 fd aa fe 3c 92 e5 df bd d2 16 d7 bd 08 dd 85 bc
       0.031087393 -0.10932459 -0.105023995 -0.016340747
0000a0 74 ea ae 3c c6 2e 2e be 51 b4 b3 3d a7 4d 83 be
       0.02135203 -0.1701003 0.08774627 -0.25645182
0000b0 58 89 6e 3d 65 9b 87 3d 36 99 d0 3d 91 7e 7f 3d
       0.05823645 0.06621436 0.10185473 0.062376563
0000c0 0c 7b 8c 3d 59 f5 0e be ec 83 9b bc a5 55 e3 3d
       0.06859407 -0.1396078 -0.018983804 0.1110032
0000d0 ab b3 e1 bc 35 e0 cd 3d 0d 6d 8e bd 4a 83 b0 3d
       -0.027551493 0.1005253 -0.069543935 0.086187914
0000e0 d1 c2 80 3d d7 2b 4b bc f7 58 02 be 88 9a 47 3d
       0.06287158 -0.012400589 -0.1272925 0.048731357
0000f0 99 bd b7 bd 81 6a 6d bd aa 2a 8c be ad 6d 1d be
       -0.0897171 -0.0579629 -0.273763 -0.15373869
000100 18 7b 09 be 70 44 6e 3b d7 2f 54 3d 17 61 2c bd
       -0.13425863 0.003635671 0.051803436 -0.04208478
000110 81 db d3 bc b1 da 16 bd 6f cb b8 bc 40 f1 87 bd
       -0.025861504 -0.036829654 -0.022557942 -0.06637812
000120 9c 7c 65 3c 6e 2e 27 3e 2a d5 26 3e 66 d7 79 3d
       0.01400676 0.16326305 0.16292253 0.060996436
000130 c9 40 ea 3d 4f f9 be bd 0a b6 b7 bc 66 49 a5 3e
       0.11438138 -0.093248956 -0.02242567 0.3228256
000140 0a ed 8e bd fc 04 ce 3d 78 f5 9f 3d 5c 4f 93 bc
       -0.06978805 0.100595444 0.07810491 -0.017982177
000150 78 de 2b bd fd 7d e5 3d 5d ea b2 3d c5 f9 24 3e
       -0.04196021 0.11205671 0.087361075 0.16110905
000160 81 53 1a 3e 19 48 ca 3d 2f 9f 82 be a5 ff b5 bd
       0.15070917 0.09877033 -0.25512072 -0.08886651
000170 b4 4d 01 3e 31 ca fc bc ea 70 0f 3d 74 5d ae bb
       0.12627298 -0.030858131 0.035019793 -0.005321199
000180 23 b9 5a be 14 1e 19 3e 48 99 3a bd 14 69 8d 3d
       -0.21359687 0.1495288 -0.045556337 0.06904808
000190 a3 7d ba 3c 75 6c ed 3d c9 0f b1 3d 48 93 81 3e
       0.022764986 0.11592952 0.08645589 0.2530768
0001a0 34 5e f0 bd eb f4 f4 bd ce 38 76 3d 8c 2c fa bd
       -0.11736718 -0.11960777 0.060112767 -0.12215528
0001b0 62 1e e8 bc b0 1c bd 3d f3 57 12 3c d4 5b 91 bc
       -0.0283348 0.09233987 0.008932102 -0.017743982
0001c0 88 ff 90 bb 01 09 bf bd 4e c3 6b 3e e5 3b 89 bd
       -0.004424993 -0.09327889 0.23023722 -0.06700877
0001d0 f3 0f f3 3d 1b 8d 7f bc 9f af 39 bd 7b 47 05 3e
       0.118682764 -0.015597607 -0.0453335 0.13015549
0001e0 28 f5 19 be 4d 4b fe 3c 6b d9 a2 bd 50 ed 3c be
       -0.15034926 0.031041766 -0.079516254 -0.18449903
0001f0 c7 2f ea bc b8 1e 46 3d 15 d5 05 bd 61 65 0a be
       -0.028587235 0.04836914 -0.032673914 -0.13515235
000200 1f 7d 2b 3d ec 0d 84 be 34 cd 29 3c 22 32 1d be
       0.04186737 -0.25791872 0.010363866 -0.15351155
000210 39 44 0c 3e 9f 9d f6 3d 9a 69 cc 3a fa 99 2c 3d
       0.136979 0.120417826 0.0015595437 0.04213903
000220 b7 77 03 3d 92 30 15 3f c8 7b 61 3c fa e5 b4 3d
       0.03209659 0.5827724 0.013762422 0.08832927
000230 08 41 4b be 4d a5 fe bc b5 58 2b be 13 82 5e 3f
       -0.19849026 -0.03108468 -0.16733058 0.8691723
000240 37 aa 0e 3e 4f 06 49 3c 0c 9b 23 bd 80 62 de 3d
       0.1393212 0.0122695705 -0.039942786 0.10858631
000250 7f 12 01 3b 92 f4 ad 3c 9e f9 0c bd 34 4d 1d 3e
       0.0019694862 0.021234784 -0.03441774 0.15361482
000260 d3 af 09 3e fa 69 39 3e 9a aa 7d be 21 ce 04 be
       0.13445978 0.18106833 -0.2477211 -0.12969257
000270 b3 f3 00 3d 17 47 f1 3d 3e a6 fa 3c e2 76 f7 bc
       0.03148241 0.117811374 0.030596849 -0.030208055
000280 bc 0b 3d be a7 96 60 bd a0 30 ca bd e4 39 f4 bc
       -0.18461508 -0.054831173 -0.09872556 -0.02981276
000290 ec e3 e0 bd 83 c1 9a be 7f 56 7a bd d0 c9 70 be
       -0.10980973 -0.30225763 -0.061117645 -0.23514485
0002a0 70 62 38 3d 6c 06 8d 3d b2 44 33 bc 46 9c 1b 3e
       0.045015752 0.068859905 -0.010941671 0.15196332
0002b0 d0 c0 b0 3e 4a a3 9b bb 2e 71 11 bd ab 31 0e be
       0.34522104 -0.00474969 -0.035508327 -0.13886134
0002c0 55 80 13 3d 7f bd 32 be 34 48 80 3c 98 d7 1d be
       0.03601106 -0.174551 0.01565943 -0.15414274
0002d0 60 e2 f4 bd 43 39 cb 3d f8 af 94 bc c2 b7 01 3e
       -0.1195724 0.09923031 -0.018150315 0.12667754
0002e0 a1 4b c4 bd ae 86 99 3b 87 bc e5 bc 25 f8 8e be
       -0.095847376 0.0046852445 -0.028043998 -0.27923694
0002f0 0b b4 ee 3d 9f 98 fb 3d 98 07 87 be 8c 51 0b be
       0.11655434 0.122849695 -0.2637298 -0.13605326
000300 43 0f 35 3e 24 7a 9e 3d c6 ff 1b be 81 cc 41 bd
       0.17681603 0.0773814 -0.15234289 -0.04731417
000310 2e 67 78 3e 2a 3c 43 3d a9 2c ae 3d af 2d 93 3d
       0.2425811 0.0476648 0.08504612 0.07186448
000320 69 4a 74 bd cc 33 14 3e 56 63 a1 be af 5d d3 bd
       -0.059641276 0.14472884 -0.315211 -0.10320603
000330 70 04 08 3e f0 f6 9a bb 84 7f 19 3b 61 f4 ec 3d
       0.13282943 -0.0047291443 0.0023421953 0.11570049
000340 0a 3f 56 3d 55 c3 16 3c 2c cc 8b bc f7 cf 5c 3c
       0.052306212 0.009201844 -0.01706513 0.013477317
000350 b7 03 2b be 01 23 e9 3d 11 c2 2a be 81 ed 24 3b
       -0.16700636 0.113836296 -0.16675593 0.0025165977
000360 b1 8c 56 3e 43 5f 07 3c a8 83 4b 3e aa da 45 be
       0.20952107 0.008262458 0.19874442 -0.19321695
000370 ad 70 25 3d 73 f3 b9 be a1 1e a8 3d 59 e1 86 3d
       0.04039066 -0.3631855 0.08208967 0.065859504
000380 16 07 a3 bc 2c 47 37 be e3 84 02 be a7 02 1b bd
       -0.01990084 -0.17898244 -0.12746005 -0.037844326
000390 a4 48 65 bd b0 8b 96 bd f0 ca fb 3c 79 58 0b be
       -0.05597748 -0.07350862 0.030736417 -0.13607968
0003a0 4d b0 d1 3c a5 6c 23 3e a7 33 3a be 9d c3 01 bf
       0.025596762 0.15959413 -0.18183766 -0.5068911
0003b0 22 18 e5 bd d5 18 6f 3d c4 af 06 3e 5f 30 cc 3d
       -0.111862436 0.05837329 0.13152987 0.099701636
0003c0 13 62 32 be 94 14 3a be 25 56 3c bc 8e 57 3d be
       -0.17420225 -0.18171912 -0.011495148 -0.1849043
0003d0 b2 0e 02 be 82 de 3a 3d 31 e9 94 bd a8 0e 57 be
       -0.12700918 0.045622356 -0.0727104 -0.21001685
0003e0 e1 3a 68 bd f4 96 34 3c 6f 4c 91 bb 5f 38 49 3c
       -0.056696776 0.011022318 -0.0044341604 0.012281506
0003f0 a2 6c 23 bd cd 17 9b 3d b9 bb 02 be d5 ee d6 bd
       -0.039898522 0.07572899 -0.12766923 -0.10494772

lstm.weight_hh_l1 f4 [256, 64]
000000 9f 45 74 3d 03 9a d4 bc 7d 3e e2 3d 65 3f 01 3e
       0.05963671 -0.025952345 0.11047075 0.1262184
000010 9a 46 5f 3d 5c 12 d4 3c 96 c4 09 bd 22 ea 4d be
       0.05451069 0.02588766 -0.033634745 -0.20108846
000020 8f 7a 8e bd d0 25 9f bb 8f da 8a bd 0e 8a 1e be
       -0.0695697 -0.0048568025 -0.06779968 -0.15482351
000030 ff 50 a5 bd 52 7c 9d 3d bb 96 3e 3d bc 33 f0 be
       -0.080720894 0.07689728 0.046530467 -0.4691447
000040 6f ea b9 3d 56 8f 19 bd be b6 08 bd 27 6e 3a be
       0.09077918 -0.03749021 -0.0333774 -0.18206082
000050 78 5d 9b bd 32 dd 3c 3e 88 f7 a4 3a 58 e8 f4 3c
       -0.07586187 0.18443754 0.0012585977 0.029895946
000060 af 87 b3 bd ec 7b c2 3d 5a 38 33 bd ba c0 6f 3d
       -0.08766114 0.094962925 -0.043754913 0.058533408
000070 42 1c 36 bd b8 74 c2 bd b0 6a d2 3d ac 8b 9e bd
       -0.044460543 -0.094949186 0.10274255 -0.07741484
000080 2b f4 72 bc 22 c2 61 bd 90 1b 37 be 66 16 88 be
       -0.014828722 -0.05511678 -0.17881608 -0.2657959
000090 f8 01 f2 3c ce be 07 bd de 8c af 3d ec a3 3d 3e
       0.029541954 -0.03314095 0.0857179 0.18519562
0000a0 97 c0 5d 3c 0b 03 ab 3d e2 2d 95 bc 7a 6a ff 3c
       0.0135346865 0.0835019 -0.018210355 0.031178702
0000b0 3a 20 b0 3d 5c 6d 32 be 62 31 47 3d a9 a1 00 3e
       0.08599897 -0.1742453 0.04863108 0.12561668
0000c0 2d ee 74 3c 77 80 96 bd b0 bf b0 3d 18 f7 05 3d
       0.014949364 -0.073487215 0.086303115 0.03270635
0000d0 5b 6f 16 bd 16 75 a4 3c d2 a3 c1 3d 30 a1 55 3d
       -0.03672729 0.020075362 0.09455074 0.052155674
0000e0 9a 30 8e bc 02 30 33 3d 4a 2b 32 3d f7 ef 26 3d
       -0.01735716 0.043746956 0.043498315 0.040756192
0000f0 62 c6 ae 3d 02 bf e8 bc 9e 3c 4f be bb 66 91 3d
       0.08533932 -0.028411392 -0.20237967 0.070996724
000100 2f 49 3d be 03 71 70 3d fe d5 36 3e 24 4e 81 bd
       -0.18484949 0.058701526 0.17855069 -0.06313732
000110 fb 12 88 be dc ab 86 3d a9 b5 c0 bc 4d 9e c7 bd
       -0.2657698 0.06575748 -0.023524122 -0.0974699
000120 45 d1 96 bd 0a 95 92 bd ed 23 78 3c b8 17 24 bd
       -0.07364134 -0.07157333 0.015145284 -0.040061682
000130 c2 c6 99 bd c1 8e 1c be b4 a1 9e 3e 0d b0 17 3e
       -0.07508613 -0.15288831 0.30982745 0.14813252
000140 7e 5b 05 3e e7 67 24 be fb 84 74 3d 2d 5b 02 be
       0.13023183 -0.1605526 0.059697133 -0.12730093
000150 89 02 41 bd 0b 87 19 bd 71 c4 bb bd 86 f4 c8 bd
       -0.04712156 -0.037482303 -0.091683276 -0.09812264
000160 41 c8 58 be 18 6a f2 bd 46 73 65 be c7 14 3d be
       -0.21170141 -0.11836642 -0.22407255 -0.18464957
000170 a8 55 05 bd 12 76 03 bd 55 da 4a bb 0f 1b d4 3c
       -0.03255239 -0.032095022 -0.003095289 0.025891809
000180 e6 61 33 3d 2f be 15 3c c8 1c 87 3c 24 90 42 bd
       0.043794535 0.009139582 0.016493216 -0.047500744
000190 2a c7 ed 3c 79 2a 04 be dc 15 e2 bc 13 ad 0f bc
       0.029025633 -0.12906827 -0.027598314 -0.008769291
0001a0 48 67 78 bd 4c bc 45 bd f8 2e 9c bc eb dc db 3d
       -0.06064537 -0.048275277 -0.019065365 0.10735496
0001b0 e8 35 0f 3d 1f 92 18 be 21 30 bf 3d f6 6e 39 3e
       0.03496352 -0.14899491 0.09335352 0.18108734
0001c0 83 bc 1f be 8e 16 23 3e e0 a7 36 3e 6e f4 5e 3d
       -0.15599255 0.15926573 0.17837477 0.054432325
0001d0 81 ce d3 bd 67 1d 04 3e 28 8f ba 3d 37 14 e9 bd
       -0.10342122 0.12901841 0.09109336 -0.11380809
0001e0 86 f5 9b 3c ce 67 86 bd d0 28 90 3d de 0b 17 be
       0.019037973 -0.06562768 0.07039034 -0.1475062
0001f0 b4 c3 c3 3c 91 58 18 3e 0f 09 7e 3d 54 63 bf bd
       0.02389703 0.14877535 0.062020358 -0.09345117
000200 3e aa 35 be 56 14 8e bb 61 4a 4a 3e 4e 59 b5 3e
       -0.17740723 -0.0043359203 0.19754936 0.35419697
000210 b2 b9 5e be 00 87 8e 3e 84 3a a2 bd 8b 99 27 be
       -0.21750525 0.27837372 -0.07921317 -0.16367166
000220 c4 2f a3 be fa 01 3e 3e ce 13 36 3c fc 54 55 be
       -0.3187238 0.18555441 0.01111312 -0.208332
000230 09 78 19 3e 3b e6 07 3d b5 91 39 3d c6 aa 2b 3e
       0.14987196 0.03317855 0.045304973 0.16764364
000240 ef ff a0 3e e5 d2 22 be 05 a7 18 3d bf 3f 0a bf
       0.31445262 -0.15900762 0.037268657 -0.5400352
000250 21 3f 29 be a8 5c 91 3e f1 ab 0d bd ea fa 08 3e
       -0.16527988 0.28391004 -0.034587804 0.13376966
000260 ff 41 9d be 10 fd 5c be b6 d1 4b 3d 4f 51 8a bd
       -0.30714414 -0.2158091 0.049760543 -0.0675379
000270 77 22 1a be 37 b7 20 3c 98 5a 6c 3e 85 78 53 be
       -0.1505221 0.009809307 0.23081434 -0.20651443
000280 03 db ce bd 9e ce ab 3d 73 56 24 be e6 25 60 bd
       -0.10100367 0.083890185 -0.16048603 -0.054723643
000290 f3 29 01 be 79 14 b6 be ee ae d7 bd a9 f2 51 be
       -0.12613659 -0.35562494 -0.10531412 -0.20502724
0002a0 2e 07 26 3d 5f a4 2c 3c 86 76 a5 3d 21 6d f3 3d
       0.04053419 0.010537236 0.08079247 0.11886049
0002b0 92 42 ab 3e 54 e8 6d bc 65 9c 02 3e a3 4d 99 3e
       0.33449227 -0.014520723 0.12754972 0.29942045
0002c0 9e c7 aa be 7b f3 55 3e 5c 38 f8 3c 41 64 a1 3e
       -0.3335542 0.20893662 0.030300312 0.315218
0002d0 85 3c a3 be f1 59 16 3b f6 b0 9b 3e 52 5c 1f be
       -0.3188211 0.0022941793 0.30408448 -0.15562561
0002e0 e6 5f 91 bd 46 90 ff 3c a5 e3 03 be a2 30 63 be
       -0.07098369 0.031196725 -0.12879808 -0.2218652
0002f0 3d e6 38 3e 56 63 57 3b 4a 08 f2 ba 31 d0 26 be
       0.18056579 0.0032865605 -0.0018465605 -0.16290356
000300 3f f5 17 3e 9d 46 4b 3e 8b ff f7 b9 3e 70 2b be
       0.14839648 0.19851156 -0.00047301906 -0.16742036
000310 4a 98 82 bd 58 64 ba 3d 3f fd 1b be 82 4f 26 bd
       -0.06376703 0.0910117 -0.15233324 -0.04060317
000320 d8 fb 9e 3c 2c 47 7c bc 7b fb a5 3a f5 f6 cb bd
       0.019407198 -0.015397828 0.0012663448 -0.09959213
000330 71 c8 10 3e 45 fa 8c 3b a9 83 95 bd 6f 9a 6e be
       0.14138962 0.0043022954 -0.07300503 -0.23301099
000340 6f 98 18 be 77 62 1b be 94 d6 b6 bd 50 fa 4e be
       -0.14901899 -0.1517428 -0.08927646 -0.20212674
000350 3b 08 8c 3e 98 8e 29 be c8 9e 8c 3d e7 35 9b 3c
       0.2735003 -0.16558301 0.068662226 0.018946601
000360 fd 89 94 3d f0 98 a6 bd f1 6b 9d bd 97 37 ba 3d
       0.07252882 -0.08134639 -0.07686604 0.09092634
000370 cb 59 b9 bc a1 41 0f be 3e 2d 27 3c 93 6d a6 3d
       -0.022625824 -0.13989879 0.010203658 0.081263684
000380 cc da d7 bc 3f 7e f1 bd 9d 73 58 3d 31 f0 c7 3d
       -0.026349448 -0.11791658 0.052844632 0.0976261
000390 e7 cb 15 bd 62 78 13 3c fa cb 88 bd 99 46 89 3e
       -0.03657141 0.0090008695 -0.066795304 0.26811674
0003a0 35 89 b1 3d 8f 49 49 be 13 09 8c 3d 22 dc e9 3c
       0.08668748 -0.19656967 0.06837668 0.02854735
0003b0 22 78 da 3d 33 1f 1f 3d 7c b0 1a 3e 78 b0 c7 3d
       0.10667445 0.038848113 0.15106386 0.097504556
0003c0 fd 5e b8 bd 07 e0 f7 bd 3e 80 ea bd 6b 0b ce 3c
       -0.090024926 -0.12103277 -0.114502415 0.025151929
0003d0 13 79 97 3e 7c 47 cd 3d 78 13 94 bb 5f 8b 9d 3b
       0.2958456 0.100234 -0.0045189224 0.004807874
0003e0 f3 1b 48 be 21 ef 37 be 5e 18 6f 3d 7f 22 fd 38
       -0.19541912 -0.17962314 0.058372848 0.000120704055
0003f0 70 da 90 bd a9 c6 6f be c9 0c 39 be 3d 87 42 3d
       -0.07072914 -0.23415627 -0.18071283 0.047492255

lstm.bias_ih_l1 f4 [256]
000000 72 0b 81 bd a7 74 f6 bc 5c 10 e5 bd 56 8f 82 3d
       -0.06301011 -0.030084921 -0.11184761 0.063749954
000010 0d 7e cf bc 01 0d 3d 3d f4 c9 d0 3d 2e 4a 1f bc
       -0.02532866 0.04615498 0.101947695 -0.009722276
000020 f0 73 d2 3c 44 46 d6 bd 4c b5 57 bd cf 09 96 bd
       0.025690049 -0.10462621 -0.052663133 -0.073260896
000030 b3 5f ad bd 08 88 a2 bd 65 17 f0 3d 76 eb c4 bd
       -0.08465519 -0.07936102 0.11723212 -0.09615223
000040 04 6a 93 bc 48 9e 49 bd 79 ca c8 bc ca e7 89 3d
       -0.017994888 -0.049223214 -0.024510609 0.067336634
000050 92 59 7d 3d c0 19 f3 b8 0a ca 2f bd ae e0 91 bd
       0.061853 -0.00011591939 -0.04291729 -0.071229324
000060 81 60 19 3c 1f 70 52 bd 25 08 4e 3e 30 b3 10 3e
       0.009361387 -0.05137646 0.20120294 0.14130855
000070 6e f5 3a bd 88 d4 6b bc cd 28 ad bd 95 fa 3e 3d
       -0.045644216 -0.014393933 -0.08455048 0.046625692
000080 fc 64 21 3d 38 0c a4 3b 23 a8 84 3d be 37 0a 3d
       0.039402947 0.0050063394 0.06477382 0.033744566
000090 a0 17 41 3d 39 31 07 3c 7e e8 4f 3d b8 79 d3 3c
       0.04714167 0.008251482 0.05075883 0.025814876
0000a0 f3 61 ee bc 8f f7 0c 3d f3 5e 63 3c 26 e8 87 bd
       -0.02909944 0.034415778 0.013877618 -0.06636076
0000b0 1e 08 cd 3d d0 1b d5 bd 9d 0f b5 bb 16 7a ab 3d
       0.10011314 -0.104056954 -0.005525543 0.083728954
0000c0 af 1c d5 3c 7c 0a 61 bd 37 00 ef bc 88 f9 d3 3d
       0.026014654 -0.05494164 -0.029174907 0.10350329
0000d0 72 1d 42 3d 5b ef df bd bc 1b a1 3d 3b 14 4a 3d
       0.047391362 -0.10934325 0.07866618 0.0493357
0000e0 1a 02 57 3e f0 8c bf bc a2 96 90 3d fd 73 96 bb
       0.20996895 -0.023382634 0.07059981 -0.0045914636
0000f0 c1 0a 2d 3e 07 5e 8c 3d d4 53 90 3e b9 37 3d 3d
       0.16898634 0.06853872 0.28188956 0.04619572
000100 8a a3 99 bd 2e ae ba 3c 73 a8 90 3d 52 01 3f bd
       -0.07501896 0.022788133 0.07063379 -0.04663212
000110 6a d4 d1 bd 9c 89 7f 3d 7d 66 02 3c ce 8e e3 3d
       -0.10245593 0.062387094 0.007959005 0.11111222
000120 1f 69 e5 bc 97 67 b3 3d 16 29 93 3d fa cf 82 bd
       -0.028004227 0.087599926 0.07185571 -0.06387325
000130 9f 85 89 3d 6e fb 77 bc 69 71 d8 3d 37 cd d1 3d
       0.06714939 -0.015135629 0.10568506 0.1024422
000140 9f d8 13 3d 12 a3 0b 3e 04 5c 34 3d c8 79 8d bd
       0.036095258 0.13636425 0.044033065 -0.069079936
000150 33 6a 28 3d 3d 46 f3 3d 3b 34 05 3e ab f8 37 3d
       0.041116904 0.11878631 0.13008206 0.044914883
000160 9a 1d 10 3e 06 b6 02 3e 29 c1 1a bd 0a c3 9f 3b
       0.14073792 0.12764749 -0.037781868 0.0048755454
000170 18 38 fb 3d e9 04 de 3d b7 29 af 3c 34 f7 64 3d
       0.122665584 0.1084078 0.021382196 0.055899814
000180 a6 84 06 3e 3a 9e d5 3d 2a 21 16 3e a2 54 a4 3c
       0.13136539 0.1043057 0.14661089 0.020059887
000190 32 54 51 3b ee 75 de bc 44 74 f4 3d 85 23 27 bd
       0.0031941053 -0.027155843 0.119362384 -0.04080536
0001a0 d7 49 f5 3c 9e 36 35 3d 49 4d ce bd 76 41 62 bd
       0.029942436 0.04424154 -0.10073335 -0.05523821
0001b0 0b 92 da bb fd 1a 8d bd 6a 53 29 ba 55 f9 7d 3d
       -0.0066702417 -0.06889913 -0.0006459268 0.06200536
0001c0 9c b7 0d 3d c5 d9 e7 3c 12 cf c3 bd 3a 33 f0 3d
       0.03459893 0.028302083 -0.0956098 0.11728521
0001d0 8c 9d 99 3d 82 15 a3 bc 6c a7 83 bd 06 9f dc bd
       0.07500753 -0.019907717 -0.064284176 -0.10772519
0001e0 ab e5 da bc 8d 80 99 3d 71 1b 62 bd 86 35 ce bc
       -0.026720842 0.07495222 -0.05520195 -0.025172006
0001f0 10 f6 c0 3c 11 2b 53 3d 40 19 c5 bb 6a 8f ad 3d
       0.023554832 0.051554743 -0.006014973 0.0847462
000200 b5 19 f1 3c 34 28 85 bd fa 76 4c bc aa 4f 74 3d
       0.029431203 -0.06501809 -0.012479538 0.059646286
000210 61 9e 3e 3d c8 7e 4e ba 2b 24 cd bd 8e c8 93 bd
       0.04653776 -0.0007877168 -0.10016664 -0.07215987
000220 8a 86 8c bd ff 18 6c 3d b4 a4 1d bd 41 e6 f5 3d
       -0.06861599 0.057641026 -0.03848715 0.12006808
000230 74 5b e8 bd f1 a6 8f 3d 24 67 b0 bd fc 4b 4f 3c
       -0.11345568 0.070142634 -0.086134225 0.012652393
000240 7d da b2 bd 52 bf 59 bb 57 96 04 bd ac 60 a3 bc
       -0.087330796 -0.0033225608 -0.032369938 -0.019943558
000250 3f 21 8f 3d 47 fd 25 3d 49 18 12 3d fc 78 2a bd
       0.06988763 0.040524747 0.03566769 -0.041619286
000260 ad 99 7a 3d 4a 35 d7 3d 92 d0 dd 3d f3 bc 66 3d
       0.061181713 0.10508211 0.10830797 0.05633254
000270 55 db 83 bd f1 5c f1 3d b3 39 08 3e 93 f4 c2 bd
       -0.06438319 0.11785305 0.1330326 -0.09519305
000280 45 06 85 3c bb ac 02 be 16 58 92 bd 66 99 0d 3e
       0.016238341 -0.12761204 -0.07145707 0.13828048
000290 26 fe b8 bd 9d 13 2c 3c 30 c9 87 3d 76 a5 08 bb
       -0.0903285 0.010502723 0.0663017 -0.0020850576
0002a0 50 ec dc 3c 1b 36 13 be c7 83 39 3d 97 13 e2 3c
       0.026968151 -0.14376108 0.04529169 0.027597232
0002b0 91 1a 07 be 45 a5 bc bd 3f 35 99 bb 3c 5c d9 bc
       -0.13193728 -0.0921121 -0.004675537 -0.026533239
0002c0 a1 10 3e 3d 6d f1 0d 3d 46 75 14 be 80 cc ff bc
       0.046402577 0.03465407 -0.14497861 -0.031225443
0002d0 b1 b9 0d 3e 62 1e 1d 3c ea d1 9b bd b0 bb 6f 3d
       0.13840367 0.009589763 -0.07608397 0.058528602
0002e0 c4 7b af 3d dd 0f 3c bc 6a 69 85 bc d7 03 e7 bc
       0.08568528 -0.0114783915 -0.016285617 -0.028200073
0002f0 0a 80 b8 3d c0 90 37 bd 4e ca 93 3d fd 45 9f bd
       0.090087965 -0.04481578 0.07216321 -0.07777021
000300 58 28 2b 3e 35 63 38 3d 93 f7 89 3d c9 c8 ae bc
       0.16714609 0.045016486 0.06736674 -0.021335976
000310 c6 f9 01 3e dc 49 e8 bc a0 45 32 bd 23 d1 9b bd
       0.12692937 -0.028355531 -0.04352343 -0.07608249
000320 a4 67 e2 bc 94 44 1e 3e d4 29 53 3b 3b af d1 3d
       -0.02763731 0.15455848 0.0032220976 0.10238501
000330 9e 36 20 be d6 8e 67 3e f6 70 24 3d 0d 7e 1a bd
       -0.15645835 0.22613081 0.04014679 -0.037717868
000340 b1 50 8c 3d fe a3 ed 3d 6f ee 9c 3d 6e d5 8f 3d
       0.06851328 0.11603545 0.07662665 0.0702313
000350 a1 51 e6 3d 71 df 9f 3d 18 39 da 39 40 db 33 3e
       0.11246038 0.0780629 0.00041622738 0.17564106
000360 9d fc e7 3b c5 d6 25 3e 2e fd 1b 3e 68 7d 28 3e
       0.0070796744 0.1619521 0.15233299 0.16454089
000370 9b 0f b1 3d 53 b0 5f bd 78 6b 28 3e 37 a4 31 3d
       0.08645555 -0.054611515 0.16447246 0.043369498
000380 17 df 87 3d ae 08 f0 3d 99 8c fa 3d e7 28 dd 3b
       0.06634348 0.117204055 0.12233848 0.0067492607
000390 58 25 cc 3d d0 02 ee 3d 4c c6 5e 3e 9e 14 ca bc
       0.0996806 0.1162163 0.21755332 -0.024668034
0003a0 0b be ab 3d f1 7c 18 3e e8 35 3a bd 13 47 83 3d
       0.08385857 0.14891411 -0.045461565 0.06410041
0003b0 ba b5 99 bd f0 36 3f 3c db 2a 83 bd bc 1a 9b 3d
       -0.07505365 0.011670813 -0.064046584 0.075734586
0003c0 68 38 25 3c e2 53 73 3e 7b 73 35 3e 23 91 36 3e
       0.010084249 0.23762468 0.17719834 0.17828803
0003d0 c4 8d e8 bd 2d 6c 51 3c d6 d2 a6 bd 14 fe 03 3d
       -0.11355165 0.012782139 -0.081456825 0.03222473
0003e0 6c 1d e3 3d c8 12 6b 3d f6 67 0a be 71 46 32 3d
       0.11089596 0.057390958 -0.1351622 0.04352421
0003f0 1a ae bd bc 44 59 ad bb 4c dd d3 3d df a0 4b bc
       -0.023154307 -0.0052901823 0.103449434 -0.012428491
