LogAnomaly/result/deeplog/deeplog_epoch358.pth (torch_old, 648462 bytes, 30 tensors)

lstm.weight_ih_l0 f4 [256, 1]
-0.20599563 -0.01374422 -0.06573594 0.08808616 -0.13667004 0.04783422 -0.10450738 0.07495518
0.18545893 0.08496114 0.16823253 -0.08514568 0.09860221 0.13940786 -0.08073159 0.2646877
0.085257836 0.056413643 -0.15221299 0.15722524 0.16683221 0.07708837 0.06881393 -0.060682982
0.21202447 -0.07030102 -0.020338057 0.07345247 0.07977207 -0.13006042 0.1323909 0.016491234
0.12000233 0.105998985 0.022495 0.045021024 0.21639973 0.013172031 0.14183389 -0.1420797
0.0032928144 -0.1373967 0.1316305 0.4096622 -0.13632262 0.1131215 0.14651959 -0.20525004
0.19974539 0.16220033 0.37493032 0.08333762 0.054997683 0.33968544 0.115606695 -0.06195785
-0.17860514 0.028378129 0.11097019 0.043118015 0.043179866 0.16004035 0.10232022 -0.15437649
-0.064481124 0.04045865 0.12664899 -0.04575292 -0.09084402 0.060107052 0.0968853 0.05885016
-0.040170155 0.29777372 0.17175813 -0.13613138 -0.009789314 0.08897094 0.17215984 0.2665444
0.032539725 0.13985184 -0.12176077 0.038968183 0.0063733463 0.23467661 0.14175394 -0.055200256
0.02087672 0.07645414 -0.70985585 0.08067695 -0.060309403 -0.24536146 0.22028741 0.018531008
-0.033965126 0.1689423 0.108425505 0.11466979 0.0659237 0.20101485 0.120033704 0.035935324
0.15174276 0.24220231 0.1871592 0.05993279 -0.1285556 -0.026939772 0.06351121 -0.113695815
0.08317738 0.11157641 0.31506386 0.25241053 0.05271049 0.021918703 0.17435701 -0.025783084
-0.18317357 0.18421274 0.48057887 -0.036367297 0.04604836 0.05551435 -0.08643973 -0.15388191
0.46773922 -0.13910145 0.082071505 0.0318896 0.2656423 -0.18179777 -0.05142204 0.16004741
0.18254848 -0.044102743 -0.06869761 0.23247111 -0.24535418 0.1793487 -0.16556337 -0.09798044
0.23376723 -0.31167892 -0.26976046 0.22049832 0.18305314 -0.03586593 -0.16210416 0.20376247
0.102751136 0.32375872 -0.48305637 0.020811416 0.025300523 -0.1916248 0.95103973 0.0005797829
0.5139746 0.02375962 0.08647836 -0.028787998 -0.3210675 -0.21386485 -0.33146402 -0.19235626
0.21443938 0.057885416 -0.12549178 -1.6948144 0.38298967 0.30886927 0.067688994 0.519021
-0.1250424 -0.15524788 -0.15224056 -0.038561612 -0.42638478 0.47940144 0.036494143 0.17389593
-0.38262138 0.08038919 0.04997809 -0.07929425 0.13853714 -0.08272912 0.084285185 -0.35828704
0.19805062 -0.010120994 0.15949953 0.33716166 0.18650794 0.08158827 0.19215618 0.22852658
0.04308541 0.30537924 0.083444595 0.22438204 0.26394704 0.15398848 0.24125183 0.31646377
-0.093530916 0.035686433 0.33688533 0.22005227 0.32240638 0.24285923 -0.21596391 -0.18065569
-0.17892669 0.04802584 0.0025655066 0.11043443 -0.020826085 -0.33627304 0.159096 0.28463668
-0.11369555 0.3443012 0.08318859 0.32362205 -0.0954521 -0.22884926 0.089691296 -0.30226296
-0.22163847 0.28924188 0.20503029 -0.3002028 0.27505898 0.019054933 0.2184791 -0.17029452
-0.19163224 -0.124177605 0.12861097 -0.22234926 0.07649097 -0.09613289 0.06452259 0.095778465
0.18035153 -0.22277853 0.3089841 -0.14354803 0.10711894 0.16695186 0.24560006 0.16136612
00000000: 85f0 52be 702f 61bc 91a0 86bd 8466 b43d
00000010: 3bf3 0bbe d1ed 433d f707 d6bd 1a82 993d
00000020: f2e8 3d3e 1b00 ae3d 2645 2c3e dc60 aebd
00000030: f5ef c93d efc0 0e3e 9b56 a5bd 2585 873e
00000040: a99b ae3d fe11 673d b9dd 1bbe a7ff 203e
00000050: 10d6 2a3e 82e0 9d3d 51ee 8c3d b88e 78bd
00000060: f11c 593e fbf9 8fbd ff9b a6bc 406e 963d
00000070: 8a5f a33d 8f2e 05be 7b91 073e a018 873c
00000080: c8c3 f53d ff15 d93d 6f47 b83c f767 383d
00000090: e497 5d3e 81cf 573c e73c 113e 577d 11be
000000a0: 42cc 573b b8b1 0cbe 25ca 063e 3ebf d13e
000000b0: 2898 0bbe 3fac e73d 3b09 163e 112d 52be
000000c0: 0e8a 4c3e d817 263e def6 bf3e eaac aa3d
000000d0: 4045 613d 40eb ad3e 34c3 ec3d 84c7 7dbd
000000e0: 44e4 36be 4079 e83c 5744 e33d 849c 303d
000000f0: 5fdd 303d 9ee1 233e 438d d13d df14 1ebe
00000100: ae0e 84bd f8b7 253d 46b0 013e 6a67 3bbd
00000110: 6e0c babd d032 763d cd6b c63d de0c 713d
00000120: 7689 24bd cc75 983e 5de1 2f3e 0666 0bbe
00000130: 5c63 20bc 6536 b63d ab4a 303e 8278 883e
00000140: 6048 053d 5235 0f3e b65d f9bd 1a9d 1f3d
00000150: 81d7 d03b 114f 703e f227 113e aa19 62bd
00000160: a805 ab3c fd93 9c3d 1db9 35bf f539 a53d
00000170: fe06 77bd 0940 7bbe 0693 613e 57ce 973c
00000180: 041f 0bbd 36ff 2c3e 310e de3d ffd7 ea3d
00000190: 0103 873d d6d6 4d3e 3bd4 f53d eb30 133d
000001a0: 7462 1b3e e203 783e a9a6 3f3e 167c 753d
000001b0: 14a4 03be ccb0 dcbc 2a12 823d 5ad9 e8bd
000001c0: e758 aa3d 2c82 e43d 0d50 a13e f43b 813e
000001d0: f4e6 573d da8e b33c a58a 323e 0c37 d3bc
000001e0: da91 3bbe 44a2 3c3e 6f0e f63e e0f5 14bd
000001f0: 359d 3c3d 0463 633d 5007 b1bd 3893 1dbe
00000200: 847b ef3e 9c70 0ebe 1b15 a83d ab9e 023d
00000210: 4402 883e 3229 3abe eb9f 52bd 78e3 233e
00000220: fded 3a3e 14a5 34bd 55b1 8cbd e80c 6e3e
00000230: 203e 7bbe 30a7 373e 7289 29be f8a9 c8bd
00000240: ad60 6f3e 6194 9fbe 0b1e 8abe 50ca 613e
00000250: 4872 3b3e 27e8 12bd a2fe 25be 1ca7 503e
00000260: 306f d23d b4c3 a53e 2a53 f7be b47c aa3c
00000270: 0b43 cf3c 4b39 44be 5777 733f 92fc 173a
00000280: d793 033f 89a3 c23c 911b b13d cfd4 ebbc
00000290: f662 a4be 63ff 5abe a7b5 a9be 0af9 44be
000002a0: ff95 5b3e 4219 6d3d eb80 00be aeef d8bf
000002b0: 3917 c43e 1d24 9e3e 87a0 8a3d 8fde 043f
000002c0: 1d0b 00be 4df9 1ebe f3e4 1bbe c8f2 1dbd
000002d0: 1b4f dabe 1b74 f53e e27a 153d c611 323e
000002e0: f3e6 c3be 16a3 a43d d3b5 4c3d 0665 a2bd
000002f0: aedc 0d3e e36d a9bd b69d ac3d 6671 b7be
00000300: c8cd 4a3e 87d2 25bc d853 233e 74a0 ac3e
00000310: f0fb 3e3e c017 a73d 97c4 443e df02 6a3e
00000320: 547a 303d ab5a 9c3e 00e5 aa3d 68c4 653e
00000330: 1124 873e 28af 1d3e b80a 773e 8a07 a23e
00000340: 238d bfbd f02b 123d 3c7c ac3e 6255 613e
00000350: 7312 a53e 17b0 783e a525 5dbe cefd 38be
00000360: 8f38 37be beb6 443d 0f22 283b 722b e23d
00000370: 779b aabc fb2b acbe 10ea 223e e6bb 913e
00000380: 36d9 e8bd 3f48 b03e c85e aa3d cab1 a53e
00000390: 647c c3bd 7657 6abe 12b0 b73d 36c2 9abe
000003a0: 32f5 62be 8317 943e 76f3 513e 2eb4 99be
000003b0: 88d4 8c3e 1719 9c3c fcb8 5f3e b061 2ebe
000003c0: 3e3b 44be d450 febd 98b2 033e 86af 63be
000003d0: 4ca7 9c3d 52e1 c4bd 6b24 843d 8027 c43d
000003e0: 12ae 383e 0e20 64be 2a33 9e3e 41fe 12be
000003f0: 2d61 db3d 6ef5 2a3e 957e 7b3e 293d 253e

lstm.weight_hh_l0 f4 [256, 64]
0.23129846 -0.15556578 0.042938877 0.06898189 0.257808 -0.11531399 -0.043576073 0.08947004
0.1738575 0.1373686 -0.0065482017 -0.18642734 -0.20026323 0.10754737 -0.11429001 0.273472
0.21246414 -0.055142432 0.04195529 0.14807695 -0.08585415 0.07907718 -0.041791897 0.1847464
0.29234278 0.23659532 0.09571109 0.08499878 0.087921225 -0.3332948 0.058751 0.13498774
0.04548286 0.07320913 0.091505304 -0.17448542 -0.034047823 -0.215241 -0.11633086 -0.3307288
0.07848632 -0.12931532 0.09504211 -0.11083448 0.049497474 0.18052793 0.039853368 0.25325227
-0.30423567 -0.09501852 0.17255571 -0.347197 0.061832625 0.20391403 0.11489734 -0.02298889
-0.10899019 0.39082518 -0.0292686 -0.1272842 0.13931571 -0.0559156 -0.14479145 -0.08565581
-0.06651951 -0.07538954 0.3183608 0.28381938 0.14316987 -0.17951465 0.08745144 0.07861723
0.15011698 0.091984585 -0.12286237 0.069016844 -0.21074723 0.18040921 -0.12585726 -0.32892257
0.21077815 -0.03680927 -0.1176755 0.21037318 0.103078626 -0.106783606 -0.14759701 0.020267047
0.38387156 0.08379411 -0.07571786 0.12184615 0.23406185 -0.00387951 0.03592299 0.178205
0.0037099763 0.18822105 0.059086364 -0.13359597 -0.009113931 -0.17798643 -0.15118757 0.08309185
0.18225624 -0.057893354 -0.11369343 0.102011725 -0.0033463761 0.15232073 0.21668765 -0.122644074
-0.23504438 -0.12193075 -0.024719102 -0.23205751 0.039731298 -0.031948227 0.28451505 0.15239464
-0.04370146 0.35908845 0.03951238 -0.16020961 0.15311575 -0.16880038 0.07455266 -0.082239345
0.12744758 0.085325144 0.10869572 0.23929416 0.16152881 -0.28735596 -0.26083308 0.22625734
0.22389652 -0.03001352 -0.0793586 0.1226651 -0.084596716 0.06791167 -0.1348486 0.09666896
0.1597298 -0.23881976 -0.022815486 0.22370534 0.047641378 0.06386229 -0.054089077 0.1479138
0.19542865 0.09850404 -0.013939836 0.30491117 -0.047919873 -0.40764743 0.1245839 0.08320583
-0.09533978 0.15014486 0.21208265 -0.14269276 0.0040269764 -0.16895062 -0.04991466 -0.43454662
0.20146784 -0.17338577 -0.031051511 -0.06350214 0.08101522 0.090452515 0.2650796 0.010966512
-0.03685389 0.010497565 -0.1562332 0.06309536 -0.002579732 0.09146724 0.02790643 0.2718648
-0.040070068 0.25027695 -0.00797802 -0.5859507 -0.010224412 -0.13616684 0.08204215 -0.3071371
0.090523735 -0.23176356 -0.04246426 0.024726868 0.044643596 0.08419641 0.011698894 -0.102647156
-0.061265577 -0.016955059 0.039930563 0.103618175 0.0039296 0.029734697 0.07019697 0.1047142
0.005568951 -0.09032124 -0.15166265 0.024102291 0.048166987 0.03396279 -0.23593603 0.29489264
-0.041121062 0.13476932 0.040600356 0.086395316 0.1401239 -0.24801368 -0.023756487 -0.0063675283
0.08598179 -0.044696525 0.12896249 0.03937714 -0.05729616 -0.20461832 -0.116294645 -0.17362075
-0.04859299 0.0439839 -0.11968185 -0.035111193 0.23125221 -0.041633572 -0.15657382 0.3473061
-0.02685813 -0.017321052 0.08346528 -0.15235424 -0.08954772 0.07201037 0.04919057 0.11433986
-0.08748666 0.13806173 0.101172805 -0.08554428 0.101584285 -0.022842646 -0.12032922 -0.014178235
00000000: 81d9 6c3e a34c 1fbe ade0 2f3d 6146 8d3d
00000010: 69ff 833e be29 ecbd d37c 32bd 113c b73d
00000020: b307 323e 5baa 0c3e 4c92 d6bb cfe6 3ebe
00000030: ce11 4dbe cc41 dc3d e110 eabd 8604 8c3e
00000040: 3390 593e 08dd 61bd 4fd9 2b3d 7ca1 173e
00000050: 4dd4 afbd 37f3 a13d fb2d 2bbd 292e 3d3e
00000060: f4ad 953e 0b46 723e 2d04 c43d d713 ae3d
00000070: 0b10 b43d 9ea5 aabe e3a4 703d 3a3a 0a3e
00000080: 3c4c 3a3d abee 953d 2267 bb3d 4eac 32be
00000090: bb75 0bbd 2368 5cbe e03e eebd 4955 a9be
000000a0: 70bd a03d 3c6b 04be 70a5 c23d 30fd e2bd
000000b0: ddbd 4a3d 50dc 383e 493d 233d 48aa 813e
000000c0: c7c4 9bbe 1299 c2bd 72b2 303e cec3 b1be
000000d0: 3544 7d3d d7ce 503e 4c4f eb3d 3253 bcbc
000000e0: 4036 dfbd 3d1a c83e b4c4 efbc ca56 02be
000000f0: c7a8 0e3e c207 65bd 3644 14be 506c afbd
00000100: 613b 88bd d565 9abd 3000 a33e c650 913e
00000110: 1f9b 123e b0d2 37be be19 b33d 1202 a13d
00000120: 44b8 193e 6a62 bc3d 449f fbbd b458 8d3d
00000130: 1fce 57be 31bd 383e bae0 00be 8a68 a8be
00000140: 3ad6 573e 51c5 16bd daff f0bd 116c 573e
00000150: e31a d33d 5db1 dabd ac23 17be 1407 a63c
00000160: d08a c43e 3f9c ab3d f711 9bbd 798a f93d
00000170: e9ad 6f3e 613f 7ebb fc23 133d 5f7b 363e
00000180: 1323 733b 05bd 403e 8b04 723d 62cd 08be
00000190: 9952 15bc 1342 36be ead0 1abe 0f2c aa3d
000001a0: 61a1 3a3e 9521 6dbd 1ad8 e8bd 86eb d03d
000001b0: e04e 5bbb f7f9 1b3e 5ee3 5d3e d12c fbbd
000001c0: 79af 70be d4b6 f9bd b77f cabc 7ca0 6dbe
000001d0: 49bd 223d 25dc 02bd f5ab 913e 570d 1c3e
000001e0: 4d00 33bd 71da b73e bcd7 213d fd0d 24be
000001f0: 60ca 1c3e 02da 2cbe 11af 983d 1a6d a8bd
00000200: 9e81 023e f3be ae3d dd9b de3d 8709 753e
00000210: cf67 253e 5220 93be ea8b 85be 01b0 673e
00000220: 2145 653e eade f5bc c386 a2bd d737 fb3d
00000230: 0b41 adbd 4615 8b3d c015 0abe 60fa c53d
00000240: 3590 233e 2b8d 74be 8be7 babc 0313 653e
00000250: 9b23 433d 3bca 823d 828c 5dbd b776 173e
00000260: 731e 483e 7cbc c93d e963 64bc 511d 9c3e
00000270: a147 44bd 2ab7 d0be d825 ff3d d167 aa3d
00000280: 8141 c3bd 93bf 193e 322c 593e 0d1e 12be
00000290: baf4 833b 6401 2dbe 5173 4cbd e57c debe
000002a0: 964d 4e3e 0a8c 31be bd5f febc 690d 82bd
000002b0: 4feb a53d 2b3f b93d 83b8 873e e3ac 333c
000002c0: 1bf4 16bd fbfd 2b3c 99fb 1fbe 2438 813d
000002d0: b910 29bb 2d53 bb3d 079c e43c dd31 8b3e
000002e0: 8320 24bd 4d24 803e 3eb6 02bc dd00 16bf
000002f0: 4b84 27bc 526f 0bbe b705 a83d 1341 9dbe
00000300: 8264 b93d 6d53 6dbe 01ef 2dbd 0090 ca3c
00000310: 34dc 363d 2b6f ac3d b8ac 3f3c ac38 d2bd
00000320: 9df1 7abd 56e5 8abc 3b8e 233d c435 d43d
00000330: e0c3 803b 2e96 f33c 6ec3 8f3d 6674 d63d
00000340: bf7b b63b 58fa b8bd 744d 1bbe 2b72 c53c
00000350: bf4a 453d 911c 0b3d 3799 71be 2bfc 963e
00000360: 8f6e 28bd f800 0a3e 8f4c 263d 07f0 b03d
00000370: a47c 0f3e 4cf7 7dbe f79c c2bc b3a6 d0bb
00000380: 3917 b03d b413 37bd be0e 043e ed49 213d
00000390: 61af 6abd 7787 51be e32b eebd a3c9 31be
000003a0: 7109 47bd 7628 343d c21b f5bd c1d0 0fbd
000003b0: 61cd 6c3e f787 2abd e354 20be 1bd2 b13e
000003c0: 9505 dcbc e1e4 8dbc d8ef aa3d c002 1cbe
000003d0: cc64 b7bd 2c7a 933d 0d7c 493d 042b ea3d
000003e0: 352c b3bd 0e60 0d3e b033 cf3d d731 afbd
000003f0: 6c0b d03d 8020 bbbc 2b6f f6bd d44b 68bc

lstm.bias_ih_l0 f4 [256]
0.120417885 0.08669675 0.042649295 -0.07953444 0.20209019 -0.012309665 0.18618351 0.010036714
0.2557007 0.18459563 -0.12342036 0.22660853 0.03512524 0.12888524 0.11686808 0.1327448
0.18885823 0.16053885 0.19368482 -0.0168865 -0.08094094 0.0365032 0.10854419 0.08966788
0.14703174 0.1732343 0.04989502 0.071191564 -0.014817748 0.24902725 0.28620756 -0.1082229
-0.03644114 0.1316731 0.044361785 -0.111503646 0.15502636 -0.083217286 0.00066648965 -0.08695731
0.12008654 -0.028358184 -0.049893264 0.67013395 0.04868551 0.27076483 0.024782049 0.10694516
-0.03879809 0.06762581 -0.027786307 -0.12979802 -0.13312517 0.3036941 0.09624725 0.043775793
0.19322932 -0.05131776 0.049905136 0.08017596 -0.023135493 0.11886455 -0.24814042 0.03177551
-0.05842075 0.14179596 -0.07267419 0.12188644 0.07392589 0.08423394 0.0940838 0.10764082
0.091482595 0.08164704 -0.14717473 0.13944714 0.04594042 0.06809289 0.008182292 -0.09304441
0.05125312 -0.01798745 -0.097095035 -0.11682074 0.044811588 0.07561974 -0.11059179 -0.006854844
0.20922701 0.1194377 0.10054552 0.01808097 0.21100277 0.09181681 -0.17534912 0.06639762
-0.07566258 0.008694908 -0.042846397 0.02127406 0.030982563 -0.13684916 -0.04369015 0.004695597
-0.0938751 0.0028862066 0.12625569 -0.2579956 -0.11616606 0.19198732 0.098723195 0.09969344
0.066265225 0.022062004 -0.011574467 -0.08891365 -0.1178258 0.10256122 0.08659116 0.009497106
0.09743423 0.13607314 -0.21624784 0.1200146 0.02864969 0.048544586 0.0778412 0.16535413
0.02129169 0.19714577 -0.089290045 -0.21363896 0.12743294 0.122674055 -0.19477531 0.24089132
0.23642212 0.1304409 -0.07857323 -0.039485738 0.2038004 0.00018447492 -0.044255536 0.09846638
0.2251177 -0.13818002 0.07248157 0.035389096 0.027327808 0.1678576 -0.069965154 -0.08918821
-0.070588455 0.113103725 0.08292265 0.09892718 -0.038084332 -0.28167376 0.13071196 0.0077609755
-0.23780012 -0.17435804 0.1437401 0.03401281 0.0369172 -0.0026449314 -0.082306564 0.077842616
-0.006217389 -0.08586456 -0.07977625 0.106362 -0.003058623 0.08686674 0.06394805 -0.21043786
-0.009905468 -0.017711874 0.020951599 0.051913865 0.16560596 0.26960436 -0.062622994 -0.1430281
-0.103242196 0.016772099 0.18585287 0.06922023 -0.17295617 -0.05934238 -0.06038807 -0.13759333
0.32126173 -0.035832427 -0.02336937 -0.1875955 0.2171142 0.079340726 0.12870227 -0.10759371
0.05752284 -0.00839015 0.14308333 -0.010275696 0.18039729 -0.049545355 0.0862734 0.09628649
0.098076984 0.022617552 0.20631461 -0.03734246 0.034659106 0.0418419 0.079048894 0.07124852
0.04951613 0.018763974 0.19443645 0.027098367 0.13607967 0.35070145 0.32388812 -0.135877
0.162579 -0.13090272 0.12399306 -0.108285606 0.10932774 0.14812224 0.13779834 0.29226694
0.17246985 -0.0003374008 0.09386688 0.47689843 0.15229556 0.11462635 -0.04635696 0.15837231
0.13857123 0.13293412 0.17514418 0.038697097 0.22178994 0.23185116 0.22137609 0.309678
0.17218234 0.08365215 0.037782654 0.19242755 -0.060716487 0.04164246 -0.21823594 0.29037455
00000000: a79d f63d 118e b13d 07b1 2e3d f4e2 a2bd
00000010: bbf0 4e3e 7aae 49bc e4a6 3e3e 0871 243c
00000020: 34eb 823e a306 3d3e d0c3 fcbd 110c 683e
00000030: 7cdf 0f3d 7efa 033e 8858 ef3d 41ee 073e
00000040: 0d64 413e 4c64 243e 5055 463e 8f55 8abc
00000050: 5dc4 a5bd 6184 153d 6b4c de3d cba3 b73d
00000060: 7d8f 163e 5564 313e b85e 4c3d e2cc 913d
00000070: 24c6 72bc 0001 7f3e cc89 923e f8a3 ddbd
00000080: 4e43 15bd 50d5 063e b4b4 353d 065c e4bd
00000090: 3bbf 1e3e d36d aabd 5db7 2e3a ad16 b2bd
000000a0: efef f53d 6c4f e8bc e15c 4cbd e68d 2b3f
000000b0: 756a 473d b0a1 8a3e b903 cb3c 1006 db3d
000000c0: bfea 1ebd 677f 8a3d 1ca0 e3bc c6e9 04be
000000d0: f751 08be cb7d 9b3e 471d c53d 3f4e 333d
000000e0: e8dd 453e 9232 52bd 5469 4c3d 4b33 a43d
000000f0: a586 bdbc 426f f33d 8618 7ebe 0a27 023d
00000100: 994a 6fbd f632 113e 35d6 94bd 999f f93d
00000110: 7566 973d d882 ac3d 02af c03d ca72 dc3d
00000120: 3a5b bb3d 9036 a73d f9b4 16be 3bcb 0e3e
00000130: 062c 3c3d 4974 8b3d 050f 063c 118e bebd
00000140: cbee 513d 6b5a 93bc c3d9 c6bd b63f efbd
00000150: 5b8c 373d 86de 9a3d f37d e2bd 999e e0bb
00000160: 9b3f 563e c19b f43d cfea cd3d 8b1e 943c
00000170: 1c11 583e 740a bc3d b88e 33be 7afb 873d
00000180: fcf4 9abd 1675 0e3c b47f 2fbd f046 ae3c
00000190: 25cf fd3c 3022 0cbe 71f4 32bd 86dd 993b
000001a0: 9741 c0bd 8326 3d3b 2c49 013e 0018 84be
000001b0: 79e8 edbd 5398 443e 632f ca3d 132c cc3d
000001c0: 10b6 873d 60bb b43c d5a2 3dbc 5c18 b6bd
000001d0: a74e f1bd 9e0b d23d b556 b13d c099 1b3c
000001e0: 998b c73d c256 0b3e 1370 5dbe 37ca f53d
000001f0: c1b2 ea3c b0d6 463d 356b 9f3d 9852 293e
00000200: e96b ae3c 95e0 493e b3dd b6bd 2cc4 5abe
00000210: c87d 023e 893c fb3d 2e73 47be 37ac 763e
00000220: a418 723e 4d92 053e 00eb a0bd ccbb 21bd
00000230: 0db1 503e 9c6f 4139 4b45 35bd bea8 c93d
00000240: 4185 663e 107f 0dbe 3871 943d 28f4 103d
00000250: 91de df3c dde2 2b3e e449 8fbd 4fa8 b6bd
00000260: ae90 90bd eda2 e73d 5ad3 a93d 559a ca3d
00000270: 51fe 1bbd 8b37 90be 5bd9 053e c84f fe3b
00000280: e081 73be ea8a 32be 9b30 133e 0451 0b3d
00000290: 7d36 173d 9656 2dbb 5890 a8bd f36b 9f3d
000002a0: 3dbb cbbb c2d9 afbd bb61 a3bd 52d4 d93d
000002b0: 2e73 48bb 30e7 b13d 32f7 823d 067d 57be
000002c0: 8b4a 22bc 7e18 91bc b0a2 ab3c a2a3 543d
000002d0: 9c94 293e 9509 8a3e 7c40 80bd f575 12be
000002e0: a570 d3bd a465 893c 3750 3e3e 56c3 8d3d
000002f0: 6c1b 31be ff10 73bd 7b59 77bd 44e5 0cbe
00000300: 6b7c a43e 06c5 12bd 1f71 bfbc 0919 40be
00000310: 2f53 5e3e 647d a23d 87ca 033e 175a dcbd
00000320: 129d 6b3d d776 09bc 7084 123e 655b 28bc
00000330: 11ba 383e 12f0 4abd 1cb0 b03d da31 c53d
00000340: 96dc c83d 7248 b93c 2344 533e 68f4 18bd
00000350: b5f6 0d3d 6a62 2b3d 63e4 a13d beea 913d
00000360: 6dd1 4a3d e8b6 993c 591a 473e 65fd dd3c
00000370: 7858 0b3e 248f b33e aad4 a53e 5723 0bbe
00000380: 1c7b 263e 5d0b 06be 13f0 fd3d d8c4 ddbd
00000390: 39e7 df3d 5bad 173e 021b 0d3e 03a4 953e
000003a0: f09b 303e 2be5 b0b9 473d c03d 082c f43e
000003b0: 5ef3 1b3e 38c1 ea3d cce0 3dbd 5a2c 223e
000003c0: 9ee5 0d3e e21f 083e ff58 333e d980 1e3d
000003d0: e71c 633e 646a 6d3e 6ab0 623e 1d8e 9e3e
000003e0: 9150 303e d251 ab3d fcc1 1a3d ba0b 453e
000003f0: dab1 78bd 4991 2a3d 3e79 5fbe f9ab 943e

lstm.bias_hh_l0 f4 [256]
0.20013684 0.074559726 0.05633291 0.076117866 0.14980984 0.0459279 0.011926318 0.09106022
0.09519076 0.21412192 0.022882655 0.18346345 0.17022997 0.0032376125 0.11840032 0.14228839
0.11670968 0.03469739 0.11147019 0.07908312 -0.030446932 0.061914608 0.04464947 -0.0068434454
0.13517612 0.09694511 -0.027227886 0.095091246 -0.023706174 0.29031527 0.23715262 0.09226599
0.10110494 0.07001156 0.058018 -0.014182688 0.22724697 -0.06977848 0.02848154 -0.13737762
0.028844742 -0.001652199 0.05970549 0.59136146 0.113718346 0.24841496 0.058918256 0.09870026
-0.09081872 -0.059144016 -0.06940999 -0.057457726 -0.030322704 0.4894831 -0.04079357 0.07558689
0.17447367 0.027421247 0.23517175 0.09876449 0.12583624 0.10475221 -0.14020635 0.041384887
-0.06920519 0.021243136 -0.024509983 0.15266928 -0.033980172 0.11375388 0.04455058 0.13507144
0.22240904 -0.0049565025 -0.11574015 0.071647525 -0.0016307489 0.19120325 -0.08724797 -0.14126183
0.074169114 0.0054171104 -0.09557846 -0.008807909 -0.0027703366 0.08694463 -0.01612563 0.096065655
0.032544352 0.07182936 0.11272531 -0.081621766 0.19492699 0.066309586 -0.028524593 0.15212657
-0.12427252 -0.16801603 0.04731153 -0.0075685387 -0.12955453 0.0009677849 -0.13186038 -0.07248732
-0.05425713 -0.012008578 0.09197943 -0.23832051 -0.021343833 0.05816966 0.013298671 -0.046851356
0.0318384 0.0031850634 0.045344334 -0.014306178 -0.023245804 0.056901652 -0.036466353 -0.018690595
0.084299766 -0.07252042 0.008737639 -0.018515231 0.09324377 0.10907763 -0.063444965 0.113573134
-0.10646787 0.12017053 -0.16151007 -0.200624 0.1633435 -0.05492519 -0.13908121 0.21719648
0.09365622 0.042144284 -0.048640337 -0.12632324 0.021161344 -0.054559514 0.11184696 0.17989777
0.23598005 -0.11906554 -0.004818235 -0.108259715 -0.13278453 0.19909468 0.0966043 -0.057010937
-0.0027557397 0.2205174 0.08321315 0.14201376 -0.025378194 -0.12976174 -0.035026934 0.012839779
-0.1239401 -0.22014074 0.14202942 -0.042553294 0.16254444 0.120394886 -0.06848009 -0.080311775
-0.03098839 -0.13647147 -0.09333085 0.103318356 -0.039503917 0.12187091 0.050786007 0.0150455795
0.10599501 -0.05847094 0.07375004 -0.025369879 0.1837637 0.25366732 -0.227273 -0.13074161
0.048114996 0.011984952 0.040685922 0.101990774 -0.10540317 -0.033328332 -0.07102592 -0.0051296023
0.32444024 0.10985952 -0.08591839 -0.0370983 0.1980087 0.06214585 0.32950148 -0.04945973
0.10001745 -0.028302645 0.05424613 -0.0788969 0.1333829 0.11512111 0.06438925 0.031943638
0.08043986 0.16532005 0.2580254 0.10862891 0.0027333254 -0.012820691 0.2108606 0.15170078
0.06603563 -0.050691523 0.18619718 0.09183501 -0.04364272 0.22315656 0.2581931 -0.033996515
0.115750596 0.0037461058 0.03698248 -0.0067992955 0.09095655 0.032926578 0.15189779 0.29299903
0.074424565 -0.033896826 -0.054427356 0.39581907 0.13440059 0.033831082 -0.14676742 0.28047454
0.07977457 0.013836802 0.10609304 0.15115017 0.05341237 0.1871191 0.05244563 0.25928572
0.18699941 -0.011991306 -0.007858154 0.13732827 -0.016679574 0.12566075 -0.018130252 0.22714849
00000000: acf0 4c3e c5b2 983d 56bd 663d afe3 9b3d
00000010: c067 193e e51e 3c3d 9a66 433c c87d ba3d
00000020: 60f3 c23d c742 5b3e 6874 bb3c d8dd 3b3e
00000030: c450 2e3e 202e 543b de7b f23d 0cb4 113e
00000040: 7c05 ef3d da1e 0e3d 7c4a e43d 55f6 a13d
00000050: d86b f9bc 2c9a 7d3d 5de2 363d fb3e e0bb
00000060: 9c6b 0a3e 288b c63d 040d dfbc 33bf c23d
00000070: 7333 c2bc 34a4 943e 23d8 723e f4f5 bc3d
00000080: 1b10 cf3d 3962 8f3d 48a4 6d3d 815e 68bc
00000090: 6eb3 683e 05e8 8ebd 1e52 e93c b8ac 0cbe
000000a0: cf4b ec3c 998e d8ba be8d 743d 7763 173f
000000b0: 2ae5 e83d 7e60 7e3e 4554 713d 5d23 ca3d
000000c0: 2aff b9bd ff40 72bd d326 8ebd cb58 6bbd
000000d0: 5267 f8bc 879d fa3e 2917 27bd 4dcd 9a3d
000000e0: 3aa9 323e 86a2 e03c ddd0 703e 0945 ca3d
000000f0: 37db 003e 5488 d63d 4192 0fbe 3383 293d
00000100: 73bb 8dbd 1606 ae3c 29c9 c8bc 5655 1c3e
00000110: cb2e 0bbd cbf7 e83d ab7a 363d 2b50 0a3e
00000120: 32bf 633e 286a a2bb 2c09 edbd f0bb 923d
00000130: dabe d5ba c9ca 433e 10af b2bd f1a6 10be
00000140: fae5 973d 0482 b13b a4be c3bd 0c4f 10bc
00000150: 898e 35bb 0710 b23d e619 84bc 12be c43d
00000160: 3a4d 053d 461b 933d 87dc e63d 5029 a7bd
00000170: f19a 473e 52cd 873d 68ac e9bc 11c7 1b3e
00000180: 9782 febd 650c 2cbe bcc9 413d 8101 f8bb
00000190: f1a9 04be f2b2 7d3a 6806 07be 3b74 94bd
000001a0: b93c 5ebd a0bf 44bc b65f bc3d 4b0a 74be
000001b0: 43d9 aebc 4f43 6e3d abe2 593c 35e7 3fbd
000001c0: fb68 023d 7fbc 503b fbba 393d 7664 6abc
000001d0: fc6d bebc b511 693d be5d 15bd 051d 99bc
000001e0: 5ba5 ac3d 9685 94bd 5028 0f3c 41ad 97bc
000001f0: 97f6 be3d 1864 df3d 6fef 81bd 0899 e83d
00000200: d40b dabd f81b f63d e562 25be 6170 4dbe
00000210: 8543 273e 3cf9 60bd 4e6b 0ebe c168 5e3e
00000220: d5ce bf3d 7c9f 2c3d 173b 47bd e15a 01be
00000230: 8e5a ad3c cc79 5fbd 0510 e53d 1f37 383e
00000240: c1a4 713e a2d8 f3bd 49e2 9dbb 45b7 ddbd
00000250: abf8 07be 7adf 4b3e 7ad8 c53d 4d84 69bd
00000260: a499 34bb 50cf 613e a86b aa3d 0e6c 113e
00000270: eee5 cfbc 43e0 04be 6778 0fbd f05d 523c
00000280: 4fd4 fdbd 936c 61be 2970 113e 5d4c 2ebd
00000290: 0d72 263e 9891 f63d 4a3f 8cbd 807a a4bd
000002a0: 5ddb fdbc 2dbf 0bbe 3f24 bfbd 9398 d33d
000002b0: dcce 21bd 7597 f93d fd04 503d bc81 763c
000002c0: e913 d93d 397f 6fbd 430a 973d 7ed4 cfbc
000002d0: 8d2c 3c3e afe0 813e 41ba 68be 21e1 05be
000002e0: 3b14 453d 885c 443c 48a6 263d 8ae0 d03d
000002f0: 9edd d7bd 4a83 08bd 0a76 91bd 3916 a8bb
00000300: 081d a63e 07fe e03d fbf5 afbd 63f4 17bd
00000310: cbc2 4a3e a68c 7e3d 6bb4 a83e 4996 4abd
00000320: f3d5 cc3d f3da e7bc 3131 5e3d b394 a1bd
00000330: 8795 083e 9ec4 eb3d 83de 833d 55d7 023d
00000340: a7bd a43d a949 293e e81b 843e d578 de3d
00000350: 9721 333b e00d 52bc d7eb 573e 7357 1b3e
00000360: b03d 873d eaa1 4fbd 79aa 3e3e fe13 bc3d
00000370: b5c2 32bd 2783 643e e331 843e ee3f 0bbd
00000380: a60e ed3d 3a81 753b f17a 173d a0cc debb
00000390: 6d47 ba3d 05de 063d 188b 1b3e f803 963e
000003a0: e86b 983d 66d7 0abd 38ef 5ebd cca8 ca3e
000003b0: 4fa0 093e 7692 0a3d 334a 16be 5c9a 8f3e
000003c0: da60 a33d c1b3 623c 4f47 d93d 1cc7 1a3e
000003d0: eec6 5a3d 269c 3f3e 3bd1 563d 19c1 843e
000003e0: c67c 3f3e 2f77 44bc 7dbf 00bc c89f 0c3e
000003f0: 9aa3 88bc 36ad 003e e585 94bc 9d99 683e

lstm.weight_ih_l1 f4 [256, 64]
-0.02780576 -0.08103941 -0.09336244 -0.082250424 0.060366828 -0.06050028 -0.05188333 0.0032654847
0.011962149 0.18033618 -0.053319104 -0.035296936 -0.13802008 -0.040685713 0.031213146 0.022546792
-0.009693733 0.011650299 -0.061044406 0.18229364 0.041383274 0.14173384 0.08915421 0.14149621
0.027616015 0.03621345 -0.17067693 0.009063601 -0.15023828 -0.087200515 0.11175574 -0.112661056
-0.123700544 0.060631655 -0.07338693 0.06834212 0.030553726 -0.10924692 -0.10508283 -0.01625397
0.02150796 -0.17008181 0.08763022 -0.25643107 0.05852555 0.06620436 0.101978295 0.062235665
0.06876349 -0.13949083 -0.019210372 0.111070745 -0.027903432 0.10035705 -0.06957852 0.0869518
0.06303947 -0.012536629 -0.12717591 0.0487112 -0.089492835 -0.058058355 -0.27351558 -0.15376396
-0.13413034 0.0036020323 0.05181331 -0.042072408 -0.025739066 -0.036816847 -0.022406682 -0.06638406
0.014103243 0.16357899 0.16287842 0.060883563 0.114357114 -0.09325263 -0.02242937 0.32312873
-0.069656804 0.10051791 0.07807262 -0.018029904 -0.04213766 0.11207035 0.087328695 0.16129923
0.15089257 0.09878436 -0.2549851 -0.08890294 0.1263855 -0.031009758 0.03507622 -0.0053521134
-0.21356748 0.14950223 -0.0455317 0.069067255 0.022802686 0.11583196 0.08639884 0.25305694
-0.11726061 -0.12008758 0.060094513 -0.122306824 -0.028471524 0.09242317 0.00890901 -0.01759449
-0.00458086 -0.0934386 0.23033504 -0.06715514 0.11876336 -0.015496612 -0.045247752 0.13007765
-0.15047362 0.03120848 -0.07952401 -0.18472339 -0.028524393 0.04826008 -0.032743677 -0.13529003
0.04199056 -0.25806177 0.01044907 -0.15340962 0.13708642 0.12019702 0.0014748229 0.04236002
0.03227653 0.5827565 0.013568368 0.088610075 -0.1987222 -0.030871538 -0.16757207 0.8691084
0.13942945 0.012063361 -0.04009932 0.10884004 0.0021707106 0.021169623 -0.034565803 0.15375574
0.13452986 0.18122502 -0.24801588 -0.12956902 0.031613216 0.11777017 0.030812116 -0.030054564
-0.18449974 -0.054682024 -0.09853353 -0.02994489 -0.11008036 -0.30236813 -0.06135192 -0.2350826
0.045059826 0.06887094 -0.011168279 0.15188217 0.34537634 -0.004555601 -0.035313822 -0.13876861
0.035908204 -0.17468072 0.015468054 -0.15420955 -0.119775124 0.09932231 -0.017998047 0.12682779
-0.095933996 0.0047587254 -0.02784748 -0.27913693 0.11662837 0.12270111 -0.26353773 -0.13609526
0.17679788 0.07746656 -0.15250155 -0.047544815 0.24265237 0.047751315 0.08515057 0.07169944
-0.059678387 0.14463697 -0.31517804 -0.10335091 0.13287534 -0.004825963 0.0023592217 0.115599066
0.052381523 0.009301076 -0.016845217 0.013421786 -0.16712694 0.11413097 -0.16683474 0.0023780002
0.2097144 0.008175023 0.19880082 -0.19333954 0.040380307 -0.3633987 0.08208108 0.065673746
-0.020021688 -0.17916715 -0.12760627 -0.037664045 -0.05598067 -0.07367348 0.030745145 -0.13602749
0.025675286 0.15986708 -0.1819839 -0.5071454 -0.11197319 0.058282416 0.13166425 0.099820435
-0.17438279 -0.18159273 -0.011472628 -0.18503356 -0.12695862 0.045728713 -0.072735906 -0.21011028
-0.056664016 0.011170415 -0.004653377 0.012272657 -0.040039863 0.07587911 -0.12790717 -0.1048947
00000000: e8c8 e3bc fdf7 a5bd cf34 bfbd e972 a8bd
00000010: 3543 773d 24cf 77bd 9d83 54bd be01 563b
00000020: e4fc 433c 0caa 383e 2265 5abd 8593 10bd
00000030: 2355 0dbe 10a6 26bd b6b2 ff3c 0db4 b83c
00000040: 77d2 1ebc e5e0 3e3c b309 7abd 2fab 3a3e
00000050: 8281 293d ad22 113e 7c96 b63d 62e4 103e
00000060: fb3a e23c 8e54 143d efc5 2ebe 7f7f 143c
00000070: 10d8 19be 2f96 b2bd 32e0 e43d d7ba e6bd
00000080: b656 fdbd e658 783d e34b 96bd f4f6 8b3d
00000090: cf4b fa3c d9bc dfbd ab35 d7bd 0c27 85bc
000000a0: 7631 b03c ed29 2ebe 7977 b33d ef4a 83be
000000b0: 7db8 6f3d 2796 873d ffd9 d03d d3ea 7e3d
000000c0: dfd3 8c3d afd6 0ebe 125f 9dbc 0f79 e33d
000000d0: bd95 e4bc ff87 cd3d 2f7f 8ebd c913 b23d
000000e0: d61a 813d 6f66 4dbc 673a 02be 6585 473d
000000f0: 0548 b7bd 99ce 6dbd 3c0a 8cbe 4d74 1dbe
00000100: 7759 09be 1310 6c3b 313a 543d 1e54 2cbd
00000110: bcda d2bc 43cd 16bd 388e b7bc 5ef4 87bd
00000120: 4a11 673c 4081 273e 9ac9 263e 0b61 793d
00000130: 1034 ea3d 3cfb bebd ccbd b7bc 2171 a53e
00000140: 3aa8 8ebd 56dc cd3d 8ae4 9f3d 73b3 93bc
00000150: 8a98 2cbd 2485 e53d 63d9 b23d a02b 253e
00000160: 9583 1a3e 744f ca3d 688d 82be bf12 b6bd
00000170: 336b 013e 2d08 febc 15ac 0f3d c860 afbb
00000180: 6fb1 5abe 1d17 193e 737f 3abd 2273 8d3d
00000190: b3cc ba3c 4f39 ed3d e0f1 b03d ae90 813e
000001a0: 5526 f0bd 7af0 f5bd aa25 763d 007c fabd
000001b0: 1d3d e9bc 5c48 bd3d 19f7 113c 5222 90bc
000001c0: 0a1b 96bb bd5c bfbd f3dc 6b3e a288 89bd
000001d0: 343a f33d 80e5 7dbc b555 39bd 1333 053e
000001e0: c215 1abe eda8 ff3c 7cdd a2bd 2128 3dbe
000001f0: fdab e9bc 5dac 453d 3c1e 06bd 7889 0abe
00000200: 4bfe 2b3d ac20 84be 9332 2b3c 6917 1dbe
00000210: 6260 0c3e db29 f63d d84e c13a b381 2d3d
00000220: 6534 043d 882f 153f dc4d 5e3c 3379 b53d
00000230: d57d 4bbe 4fe6 fcbc 0398 2bbe e37d 5e3f
00000240: 98c6 0e3e 67a5 453c 2f3f 24bd 87e7 de3d
00000250: 7b42 0e3b eb6b ad3c df94 0dbd 2572 1d3e
00000260: 32c2 093e 0d93 393e e0f7 7dbe bead 04be
00000270: dc7c 013d 7d31 f13d b169 fc3c fd34 f6bc
00000280: 80ed 3cbe 42fa 5fbd f3cb c9bd fc4e f5bc
00000290: d071 e1bd ffcf 9abe 274c 7bbd 7eb9 70be
000002a0: a790 383d 350c 8d3d 28fb 36bc 0087 1b3e
000002b0: 2bd5 b03e 2747 95bb 3aa5 10bd 5c19 0ebe
000002c0: 7b14 133d 81df 32be b96d 7d3c 1ce9 1dbe
000002d0: a94c f5bd 7f69 cb3d a470 93bc 25df 013e
000002e0: 0b79 c4bd 15ef 9b3b 6620 e4bc 09eb 8ebe
000002f0: dbda ee3d b84a fb3d 6bee 86be 8e5c 0bbe
00000300: 810a 353e caa6 9e3d 5e29 1cbe 5abe 42bd
00000310: dd79 783e e296 433d 6c63 ae3d 28d7 923d
00000320: 5371 74bd b71b 143e 045f a1be a4a9 d3bd
00000330: 7910 083e 1d23 9ebb 2c9d 1a3b 34bf ec3d
00000340: 028e 563d 8a63 183c fbfe 89bc 0de7 5b3c
00000350: 5323 2bbe 7fbd e93d bad6 2abe 39d8 1b3b
00000360: 5fbf 563e 88f0 053c 7192 4b3e cdfa 45be
00000370: d265 253d 650f babe 201a a83d f57f 863d
00000380: 8604 a4bc 9877 37be 38ab 02be 9d45 1abd
00000390: fd4b 65bd 1fe2 96bd 3edd fb3c ca4a 0bbe
000003a0: fa54 d23c 32b4 233e fd59 3abe 48d4 01bf
000003b0: 3352 e5bd 8bb9 6e3d fed2 063e a86e cc3d
000003c0: 6791 32be 72f3 39be b1f7 3bbc 7079 3dbe
000003d0: 7101 02be 084e 3b3d 90f6 94bd 2627 57be
000003e0: 8718 68bd 1e04 373c 5b7b 98bb 4113 493c
000003f0: d700 24bd 8266 9b3d 19fa 02be 08d3 d6bd

lstm.weight_hh_l1 f4 [256, 64]
0.059552003 -0.025678063 0.110501625 0.12622233 0.054679137 0.025819406 -0.033474375 -0.20118213
-0.06945383 -0.004985542 -0.06777331 -0.15484108 -0.080797 0.07693191 0.04639568 -0.4696764
0.09043129 -0.037465353 -0.033504937 -0.18199022 -0.07611675 0.18415873 0.0013798067 0.029922789
-0.087554604 0.09524521 -0.043856107 0.058921278 -0.044377428 -0.09496736 0.10258846 -0.07723143
-0.014836048 -0.055197403 -0.17889951 -0.2657659 0.029683726 -0.033066403 0.085644856 0.18529582
0.013577457 0.083439514 -0.018276865 0.031049594 0.08603215 -0.17412658 0.04860511 0.12560065
0.015095074 -0.07365939 0.086251356 0.032573 -0.03664057 0.020061253 0.09444073 0.05232653
-0.017375248 0.043975186 0.043732435 0.041011747 0.08532175 -0.028354842 -0.20252107 0.071115114
-0.18508187 0.058744363 0.1788347 -0.06292015 -0.26593828 0.06593345 -0.02386535 -0.09747911
-0.073744625 -0.07188058 0.015351511 -0.040206984 -0.075082645 -0.15318535 0.30993682 0.14852461
0.1303736 -0.16064954 0.059599034 -0.12745607 -0.046849214 -0.037373822 -0.09163944 -0.09804623
-0.21193673 -0.118270665 -0.22403425 -0.1847547 -0.032891713 -0.032112986 -0.0030394618 0.02586978
0.043857984 0.00928066 0.016437259 -0.047381364 0.028936816 -0.12900764 -0.027500119 -0.008792569
-0.060629036 -0.048317075 -0.019211935 0.107444584 0.03497171 -0.1488628 0.09349166 0.18120839
-0.15619057 0.15940833 0.17858164 0.05450965 -0.10378203 0.1291489 0.09124864 -0.11405122
0.019000836 -0.06589207 0.07042393 -0.14752445 0.0238977 0.14892986 0.06196704 -0.09356846
-0.17723241 -0.0044216295 0.197488 0.3542148 -0.21749581 0.27828702 -0.07930907 -0.1637959
-0.31885362 0.1857186 0.0110541 -0.20843825 0.14997695 0.033218 0.045244295 0.16763216
0.3145194 -0.15920193 0.037466474 -0.5401133 -0.1653587 0.2838508 -0.03466316 0.13360652
-0.30704215 -0.21606703 0.04973379 -0.067523226 -0.150482 0.009959982 0.2308878 -0.20656168
-0.100914806 0.08377118 -0.16055363 -0.054851357 -0.12629537 -0.35581455 -0.10535478 -0.2051716
0.040487975 0.0104524065 0.08083481 0.11910181 0.33464298 -0.01451869 0.12732527 0.29946607
-0.333727 0.20909196 0.030280361 0.31539267 -0.3185592 0.0022553303 0.3042955 -0.15567851
-0.07085772 0.030828716 -0.12911268 -0.22202133 0.18070185 0.0030908678 -0.0018965469 -0.163037
0.14856578 0.19844665 -0.0006733166 -0.16761278 -0.063692115 0.090900905 -0.15225054 -0.04074427
0.019390183 -0.015142751 0.001225424 -0.09946109 0.14133397 0.0044380766 -0.07319704 -0.23294783
-0.14915965 -0.15164778 -0.08922484 -0.20217639 0.27372852 -0.1658433 0.068665735 0.018965853
0.07266282 -0.08140024 -0.07665218 0.09121623 -0.022489404 -0.13999075 0.010095832 0.08136158
-0.026211146 -0.11817887 0.0527964 0.09759405 -0.036453977 0.009012683 -0.06693521 0.26832268
0.08678033 -0.1964894 0.06846421 0.028646426 0.10666443 0.03880619 0.15112638 0.0973749
-0.08984041 -0.121139735 -0.114523925 0.0250464 0.2961387 0.100112356 -0.0046247896 0.0048155636
-0.19564036 -0.18009894 0.058175508 0.00037192283 -0.07096541 -0.23440385 -0.18090205 0.047695532
00000000: cdec 733d cd5a d2bc ad4e e23d 6d40 013e
00000010: 3bf7 5f3d 3883 d33c 6d1c 09bd b002 4ebe
00000020: cf3d 8ebd c25d a3bb bccc 8abd a98e 1ebe
00000030: e678 a5bd 7a8e 9d3d 6609 3e3d 6d79 f0be
00000040: 0a34 b93d 4575 19bd 793c 09bd a55b 3abe
00000050: 19e3 9bbd 1b94 3c3e a1da b43a a320 f53c
00000060: d44f b3bd ec0f c33d 76a2 33bd 7057 713d
00000070: 1bc5 35bd 3f7e c2bd e619 d23d 832b 9ebd
00000080: e512 73bc ac16 62bd 6f31 37be 7812 88be
00000090: 492b f33c a370 07bd 9266 af3d 30be 3d3e
000000a0: fb73 5e3c 56e2 aa3d 5db9 95bc b85b fe3c
000000b0: a031 b03d 3d4e 32be 2716 473d 759d 003e
000000c0: 5451 773c bcda 96bd 8da4 b03d 446b 053d
000000d0: 6c14 16bd 7f57 a43c 246a c13d 5854 563d
000000e0: 8956 8ebc 531f 343d c820 333d effb 273d
000000f0: 2bbd ae3d 6a48 e8bc af61 4fbe cda4 913d
00000100: 1a86 3dbe ee9d 703d 7220 373e 48dc 80bd
00000110: 1029 88be 1e08 873d 4481 c3bc 21a3 c7bd
00000120: 6c07 97bd 2036 93bd e784 7b3c 14b0 24bd
00000130: eec4 99bd 9fdc 1cbe 0ab0 9e3e d616 183e
00000140: a880 053e 5081 24be 1e1e 743d d883 02be
00000150: f6e4 3fbd 4b15 19bd 75ad bbbd 76cc c8bd
00000160: f105 59be e437 f2bd 3c69 65be 5630 3dbe
00000170: 76b9 06bd e888 03bd b531 47bb dcec d33c
00000180: 6ea4 333d e90d 183c 6ea7 863c f612 42bd
00000190: e70c ed3c 941a 04be ee47 e1bc b50e 10bc
000001a0: 2756 78bd 20e8 45bd 5962 9dbc e80b dc3d
000001b0: 7f3e 0f3d 7d6f 18be 8e78 bf3d b18e 393e
000001c0: 6cf0 1fbe f03b 233e 1bde 363e 8345 5f3d
000001d0: ac8b d4bd 9c3f 043e 91e0 ba3d b093 e9bd
000001e0: a4a7 9b3c 6cf2 86bd 6c3a 903d a610 17be
000001f0: 1cc5 c33c 1281 183e 27d1 7d3d d2a0 bfbd
00000200: 6a7c 35be 51e3 90bb 4b3a 4a3e a45b b53e
00000210: 39b7 5ebe a37b 8e3e cb6c a2bd 1dba 27be
00000220: c840 a3be 042d 3e3e 411c 353c d670 55be
00000230: 8f93 193e 990f 083d 1552 393d c4a7 2b3e
00000240: b008 a13e d505 23be 7276 193d dd44 0abf
00000250: cb53 29be e454 913e f5fa 0dbd 26d0 083e
00000260: a134 9dbe ad40 5dbe a9b5 4b3d 9e49 8abd
00000270: f417 1abe 312f 233c da6d 6c3e e884 53be
00000280: 6cac cebd 3990 ab3d 2c68 24be d1ab 60bd
00000290: 9353 01be 532d b6be 3fc4 d7bd 8118 52be
000002a0: b8d6 253d 9240 2b3c b98c a53d a6eb f33d
000002b0: 5356 ab3e cddf 6dbc 8e61 023e 9e53 993e
000002c0: 44de aabe 341c 563e 850e f83c 267b a13e
000002d0: 311a a3be 2ace 133b 9fcc 9b3e 306a 1fbe
000002e0: da1d 91bd 818c fc3c 1d36 04be 8f59 63be
000002f0: e809 393e 2890 4a3b 8e95 f8ba 2cf3 26be
00000300: a121 183e 9935 4b3e 8381 30ba afa2 2bbe
00000310: 0371 82bd 412a ba3d 91e7 1bbe 77e3 26bd
00000320: 29d8 9e3c 4d19 78bc 689e a03a 42b2 cbbd
00000330: dab9 103e 496d 913b 54e8 95bd e089 6ebe
00000340: 4fbd 18be 8e49 1bbe 83bb b6bd 5407 4fbe
00000350: 2526 8c3e d3d2 29be 9fa0 8c3d 475e 9b3c
00000360: 3fd0 943d 2bb5 a6bd d1fb 9cbd 93cf ba3d
00000370: b33b b8bc bc59 0fbe fd68 253c e6a0 a63d
00000380: c2b8 d6bc c307 f2bd 0a41 583d 64df c73d
00000390: c450 15bd efa9 133c 5415 89bd 9761 893e
000003a0: e3b9 b13d 8434 49be f736 8c3d e9ab ea3c
000003b0: e172 da3d 3df3 1e3d e0c0 1a3e 7e6c c73d
000003c0: 40fe b7bd 1c18 f8bd 858b eabd 1c2e cd3c
000003d0: 7e9f 973e b507 cd3d 8c8b 97bb e0cb 9d3b
000003e0: f255 48be db6b 38be 7149 6e3d a3fe c239
000003f0: 5056 91bd 9007 70be 633e 39be 645c 433d

lstm.bias_ih_l1 f4 [256]
-0.063001715 -0.029991124 -0.11164858 0.06371698 -0.025170542 0.04631489 0.10200466 -0.009682927
0.02569372 -0.104534976 -0.052752286 -0.07323623 -0.08448656 -0.07929826 0.11722833 -0.09623875
-0.01823287 -0.049205218 -0.024413794 0.067232095 0.061778452 5.387854e-05 -0.043048035 -0.071272075
0.00949288 -0.051278085 0.20133795 0.14125688 -0.045351516 -0.014455718 -0.084603265 0.046714485
0.03939616 0.0050966246 0.06465844 0.03364687 0.047124933 0.008597773 0.050877687 0.025915135
-0.029197518 0.034409106 0.013854908 -0.06633983 0.10032325 -0.10419085 -0.005478726 0.08382747
0.026204618 -0.054803282 -0.02902108 0.10356803 0.047541093 -0.109417565 0.07872382 0.04954169
0.2102043 -0.023429105 0.070789136 -0.004714786 0.16893883 0.06838869 0.2820622 0.046192486
-0.0750696 0.022839146 0.07075569 -0.046667624 -0.10246099 0.06245122 0.007905604 0.111196056
-0.028189572 0.0874435 0.07193223 -0.06390198 0.06697828 -0.014973696 0.105945714 0.10229598
0.035928953 0.13643491 0.044068012 -0.06912181 0.04094392 0.11893356 0.12987985 0.045013305
0.14072236 0.12760212 -0.03782294 0.004968117 0.122720055 0.108544365 0.0213486 0.055790007
0.13126878 0.10409182 0.146655 0.020072863 0.003141492 -0.02719625 0.11935115 -0.040838532
0.029893925 0.044152323 -0.10065648 -0.05524312 -0.006607606 -0.06874135 -0.00056535925 0.062076267
0.034697168 0.028281065 -0.095531896 0.11735307 0.07512663 -0.019796224 -0.06419725 -0.10780829
-0.026467074 0.075084865 -0.055108916 -0.025032593 0.023352424 0.051519252 -0.0061521535 0.08479858
0.02950792 -0.06501956 -0.012617643 0.059681233 0.046537407 -0.00066214654 -0.10020801 -0.072221994
-0.06850903 0.057673592 -0.038290195 0.11996864 -0.11356095 0.070043504 -0.086106956 0.01266888
-0.08728864 -0.00323827 -0.03228499 -0.01998419 0.07016154 0.04053852 0.035543982 -0.041708507
0.06105633 0.104977064 0.1082798 0.05635033 -0.06453656 0.117855236 0.13303535 -0.095129125
0.01608683 -0.12766792 -0.071338296 0.1383335 -0.09031509 0.010414074 0.06647119 -0.0021176576
0.026874611 -0.14375238 0.04530418 0.027623042 -0.13195775 -0.09205619 -0.0047004498 -0.026447242
0.04627461 0.034475293 -0.14491266 -0.03115846 0.13835058 0.009554726 -0.07603094 0.058672808
0.085620135 -0.011629221 -0.01627785 -0.028256016 0.08999221 -0.04485314 0.072304614 -0.077772476
0.16712363 0.045086607 0.067522734 -0.021348216 0.12686008 -0.028376697 -0.043501213 -0.07604856
-0.027683055 0.15463394 0.003076564 0.10240849 -0.1563894 0.22626297 0.040364396 -0.037687518
0.068325244 0.11617296 0.07664445 0.07025819 0.112624064 0.07810127 0.00046101597 0.17574751
0.007317292 0.16185166 0.15235956 0.16455317 0.086386286 -0.05452135 0.1643141 0.043429434
0.06648339 0.117200315 0.12225528 0.0065798173 0.0998114 0.116179585 0.217747 -0.024868336
0.0839481 0.14876488 -0.045200896 0.06421288 -0.074940376 0.011562968 -0.06389169 0.07588507
0.010087346 0.23762923 0.17728157 0.1782773 -0.11364736 0.012934035 -0.08129144 0.032296356
0.110884026 0.05739907 -0.1347503 0.043593347 -0.02317587 -0.0055117104 0.10360253 -0.012554144
00000000: 0b07 81bd f2af f5bc 03a8 e4bd 0c7e 823d
00000010: 7432 cebc afb4 3d3d d2e7 d03d 24a5 1ebc
00000020: a37b d23c 6f16 d6bd c812 58bd e0fc 95bd
00000030: 4a07 adbd 2067 a2bd 6815 f03d d218 c5bd
00000040: 1a5d 95bc 698b 49bd 70ff c7bc fbb0 893d
00000050: 670b 7d3d a4fb 6138 2353 30bd 18f7 91bd
00000060: 0688 1b3c f808 52bd 892b 4e3e a5a5 103e
00000070: 83c2 39bd add7 6cbc 7a44 adbd b057 3f3d
00000080: de5d 213d 9601 a73b a56b 843d 4dd1 093d
00000090: 1306 413d acdd 0c3c 1f65 503d fa4b d43c
000000a0: a22f efbc 90f0 0c3d b2ff 623c 2ddd 87bd
000000b0: 4776 cd3d 0362 d5bd e286 b3bb bdad ab3d
000000c0: 11ab d63c 6879 60bd 9ebd edbc 7a1b d43d
000000d0: 73ba 423d 5116 e0bd f439 a13d 3aec 4a3d
000000e0: cc3f 573e 65ee bfbc e5f9 903d 7e7e 9abb
000000f0: 4dfe 2c3e 5f0f 8c3d 756a 903e 5534 3d3d
00000100: 17be 99bd 2919 bb3c 5ce8 903d 8d26 3fbd
00000110: 11d7 d1bd dacc 7f3d 8286 013c c2ba e33d
00000120: d1ed e6bc 9415 b33d 3451 933d 0bdf 82bd
00000130: e92b 893d 3c54 75bc 11fa d83d 8e80 d13d
00000140: 3d2a 133d 98b5 0b3e a980 343d bc8f 8dbd
00000150: d0b4 273d 7093 f33d 39ff 043e df5f 383d
00000160: 8619 103e 21aa 023e 3aec 1abd 96cb a23b
00000170: a754 fb3d 824c de3d 42e3 ae3c 1084 643d
00000180: 536b 063e 182e d53d ba2c 163e d86f a43c
00000190: 7de1 4d3b acca debc 606e f43d 4e46 27bd
000001a0: 1be4 f43c 11d9 343d fc24 cebd 9c46 62bd
000001b0: 9e84 d8bb 44c8 8cbd 9e34 14ba af43 7e3d
000001c0: 9e1e 0e3d b1ad e73c 3aa6 c3bd ce56 f03d
000001d0: fedb 993d b12b a2bc d979 83bd 98ca dcbd
000001e0: 7ad1 d8bc 18c6 993d e3b9 61bd 2711 cdbc
000001f0: 954d bf3c da05 533d 0198 c9bb e1aa ad3d
00000200: 98ba f13c fa28 85bd 3bba 4ebc 4f74 743d
00000210: 029e 3e3d e793 2dba db39 cdbd 20e9 93bd
00000220: 764e 8cbd 253b 6c3d 2ed6 1cbd 1eb2 f53d
00000230: a592 e8bd f872 8f3d d858 b0bd 2291 4f3c
00000240: 63c4 b2bd 2839 54bb 443d 04bd e2b5 a3bc
00000250: dab0 8f3d b80b 263d 9196 113d 8ad6 2abd
00000260: 3416 7a3d 37fe d63d cdc1 dd3d 9bcf 663d
00000270: be2b 84bd 165e f13d 6b3a 083e 0fd3 c2bd
00000280: 87c8 833c 61bb 02be d019 92bd 4ca7 0d3e
00000290: 1ef7 b8bd cb9f 2a3c 0c22 883d 66c8 0abb
000002a0: 2528 dc3c d333 13be e090 393d b849 e23c
000002b0: ef1f 07be f587 bcbd 3b06 9abb e3a7 d8bc
000002c0: 728a 3d3d f735 0d3d fc63 14be 0740 ffbc
000002d0: c6ab 0d3e 6d8b 1c3c 1cb6 9bbd e652 703d
000002e0: 9c59 af3d 7d88 3ebc 2059 85bc 2979 e7bc
000002f0: d64d b83d edb7 37bd 7114 943d 2d47 9fbd
00000300: 7522 2b3e bcac 383d 5c49 8a3d 74e2 aebc
00000310: 9ce7 013e 3f76 e8bc 542e 32bd 59bf 9bbd
00000320: 93c7 e2bc 5c58 1e3e 2ea0 493b 8bbb d13d
00000330: 8b24 20be 7bb1 673e 2355 253d 3a5e 1abd
00000340: 1bee 8b3d 17ec ed3d c4f7 9c3d 87e3 8f3d
00000350: 72a7 e63d 8ff3 9f3d 84b4 f139 28f7 333e
00000360: e5c5 ef3b 71bc 253e 2504 1c3e a080 283e
00000370: 4beb b03d c751 5fbd f541 283e 10e3 313d
00000380: 7228 883d b806 f03d fa60 fa3d 829b d73b
00000390: eb69 cc3d 90ef ed3d 12f9 5e3e aeb8 cbbc
000003a0: fbec ab3d d255 183e 9324 39bd 0b82 833d
000003b0: 577a 99bd 9a72 3d3c a5d9 82bd a269 9b3d
000003c0: 6545 253c 1455 733e 4d89 353e 538e 363e
000003d0: f2bf e8bd 46e9 533c 207c a6bd 2f49 043d
000003e0: 2a17 e33d 4a1b 6b3d fcfb 09be f08e 323d
000003f0: 52db bdbc 949b b4bb 902d d43d e5af 4dbc

lstm.bias_hh_l1 f4 [256]
0.05873313 0.00691473 -0.19593446 0.07460503 0.043695312 0.05706878 0.09468486 0.0139647685
-0.051561613 -0.04172967 0.16235146 -0.022962244 0.02738432 0.07765288 -0.052595098 -0.17286505
0.013862333 -0.005899853 0.09903824 0.03620853 0.08962984 -0.030590458 -0.09992001 0.14568534
0.12955919 0.053762477 0.25268877 0.14675368 0.056729533 0.11095682 -0.04377309 -0.17934027
0.14607495 0.21535708 0.15119699 0.03691389 0.06841914 0.05589914 0.07467866 -0.01685023
-0.08097607 0.03206263 -0.1526228 0.0093048625 0.10811038 -0.09836168 -0.049113233 0.06418818
-0.03277571 0.00604796 -0.07020644 0.08883712 -0.0029606242 -0.030483661 -0.06908135 0.09048457
0.24408539 -0.10817958 -0.0082371505 -0.11803289 0.17206965 0.09764151 0.21132255 -0.059481658
0.024251359 -0.04598621 0.06419968 -0.05023156 -0.052562393 0.13199966 0.06296539 -0.061124317
-0.037409697 -0.035511114 0.022320166 0.002404523 0.029543225 0.09950541 -0.07634061 -0.058670577
0.046413805 -0.014551714 0.15038443 0.050512247 0.035093438 0.08991908 0.12016483 0.038702216
0.120913014 -0.02529433 -0.0005896559 0.14987607 0.09349688 -0.006114874 -0.08013721 -0.014667153
-0.06248088 0.18545142 0.013367693 -0.11224607 0.044100564 -0.018499872 0.0002573619 -0.052267663
0.05404902 0.062112067 0.103844665 -0.042532805 0.09543073 0.014856871 0.027855014 -0.010194942
0.021966012 -0.12704541 -0.061850157 0.055927265 -0.06531205 -0.08657309 0.06368698 -0.07183784
-0.02519534 -0.0045697675 0.102457836 0.03556135 0.07688717 0.08129173 0.008548659 0.037037775
0.08468164 0.116135605 -0.022599155 0.02632236 -0.06641661 -0.044317923 -0.17914852 0.005953379
0.060923442 -0.116730876 -0.016048936 -0.11098661 0.12551746 0.10675395 0.055990588 0.089971945
0.09658483 0.027498296 -0.00661226 -0.03420547 0.030582646 -0.013012201 0.020748928 -0.097384796
0.08626636 0.04394732 0.013731965 -0.03076821 0.0027641586 -0.10976091 0.08564161 0.12540986
-0.008510573 -0.03524012 -0.070105076 -0.0383484 0.042082466 -0.09172807 -0.023060093 0.08723575
0.091954395 -0.14679408 -0.00888273 0.100344844 0.09501364 0.01886394 -0.053979818 -0.11491624
-0.06893086 -0.018620051 -0.015178694 -0.066841856 -0.00058033643 0.08840732 -0.0050279894 -0.08310699
-0.09521783 -0.051081166 -0.057977658 0.057696257 -0.039289102 -0.06195566 0.089093134 0.02460856
0.18063381 -0.15377982 -0.0542382 0.15516458 0.07072507 0.072900064 0.15020818 -0.111541316
0.054643195 0.02455716 -0.043357734 -0.03871013 -0.15766613 0.0784272 0.1815259 0.10938634
0.17854701 -0.10697227 -0.041133516 0.12632166 -0.06703098 0.045880683 -0.004319503 0.05485328
0.021916982 0.09400788 0.07963108 0.16651821 0.12279631 0.121362 0.031747423 0.16199847
-0.03242582 0.06868708 0.064517245 -0.09084801 0.05111203 0.0034470398 0.20288095 0.14900628
-0.10031584 -0.027283419 0.05438802 0.14036731 -0.07688877 0.21189365 0.1800893 0.12978189
0.024392217 0.20368534 0.054136306 0.14932333 -0.07534666 -0.060235113 0.119954616 0.1787701
0.1089541 0.00909827 -0.023194063 0.03902234 0.0020471679 0.10911264 0.13898128 -0.011079613
00000000: 2792 703d f694 e23b 0ba3 48be 86ca 983d
00000010: dbf9 323d f4c0 693d 23ea c13d 7ccc 643c
00000020: 4532 53bd bbec 2abd 763f 263e 511b bcbc
00000030: 1555 e03c 7908 9f3d f56d 57bd 8903 31be
00000040: d71e 633c 8e53 c1bb 90d4 ca3d 654f 143d
00000050: d98f b73d d798 fabc dda2 ccbd 8a2e 153e
00000060: 2aab 043e 0b36 5c3d 6c60 813e 9946 163e
00000070: 3a5d 683d 543d e33d 694b 33bd faa4 37be
00000080: ac94 153e 9186 5c3e 62d3 1a3e 0533 173d
00000090: 561f 8c3d 7ff6 643d 20f1 983d 7e09 8abc
000000a0: c8d6 a5bd 1b54 033d 2749 1cbe 6c73 183c
000000b0: fa68 dd3d d971 c9bd f52a 49bd 1875 833d
000000c0: d33f 06bd f72d c63b 65c8 8fbd 3cf0 b53d
000000d0: 0807 42bb dfb8 f9bc 867a 8dbd f94f b93d
000000e0: 85f1 793e 418d ddbd 1df5 06bc 3abb f1bd
000000f0: 0733 303e 46f8 c73d f064 583e 0aa3 73bd
00000100: c9aa c63c 095c 3cbd 1f7b 833d 9cbf 4dbd
00000110: aa4b 57bd eb2a 073e 00f4 803d 7e5d 7abd
00000120: e93a 19bd 1a74 11bd c8d8 b63c 3495 1d3b
00000130: a204 f23c 7ec9 cb3d 7758 9cbd 8f50 70bd
00000140: 671c 3e3d 506a 6ebc 60fe 193e eee5 4e3d
00000150: 23be 0f3d 7f27 b83d fa18 f63d 3786 1e3d
00000160: 3ea1 f73d 0e36 cfbc 2393 1aba 1d79 193e
00000170: 4b7b bf3d 485f c8bb fa1e a4bd 804e 70bc
00000180: f4eb 7fbd fae6 3d3e 2b04 5b3c 44e1 e5bd
00000190: cba2 343d 0b8d 97bc 88ee 8639 9e16 56bd
000001a0: 8162 5d3d 3969 7e3d 83ac d43d e136 2ebd
000001b0: 3071 c33d 3c6a 733c 3330 e43c b008 27bc
000001c0: 11f2 b33c 3118 02be 9756 7dbd fd13 653d
000001d0: 53c2 85bd 3b4d b1bd 526e 823d b81f 93bd
000001e0: 7566 cebc fdbd 95bb 6ad5 d13d c7a8 113d
000001f0: 0577 9d3d 477c a63d ad0f 0c3c ecb4 173d
00000200: 916d ad3d 81d8 ed3d dd21 b9bc fda1 d73c
00000210: 6e05 88bd b686 35bd b672 37be 9014 c33b
00000220: dc8a 793d 9910 efbd 0f79 83bc f34c e3bd
00000230: a687 003e d1a1 da3d 6356 653d 3643 b83d
00000240: 44ce c53d 1b44 e13c a8ab d8bb 091b 0cbd
00000250: 7588 fa3c 2031 55bc a8f9 a93c ae71 c7bd
00000260: 6bac b03d 1b02 343d 09fc 603c 9d0d fcbc
00000270: e326 353b 54ca e0bd de64 af3d 716b 003e
00000280: ee6f 0bbc f257 10bd 4093 8fbd 3613 1dbd
00000290: aa5e 2c3d eddb bbbd 85e8 bcbc a8a8 b23d
000002a0: 9652 bc3d 3051 16be df88 11bc 9981 cd3d
000002b0: 8396 c23d 8d88 9a3c f119 5dbd 3559 ebbd
000002c0: 9f2b 8dbd 1489 98bc 0fb0 78bc 62e4 88bd
000002d0: b821 18ba e60e b53d d5c1 a4bb ff33 aabd
000002e0: 9101 c3bd 7c3a 51bd fb79 6dbd e952 6c3d
000002f0: 9ced 20bd 38c5 7dbd 7676 b63d e497 c93c
00000300: 12f8 383e 7578 1dbe e028 5ebd 77e3 1e3e
00000310: 4ed8 903d a14c 953d 2cd0 193e c66f e4bd
00000320: 8bd1 5f3d 192c c93c e197 31bd 838e 1ebd
00000330: 3b73 21be 719e a03d ede1 393e f205 e03d
00000340: 07d5 363e 4714 dbbd 9e7b 28bd 775a 013e
00000350: 8a47 89bd 62ed 3b3d 9e8a 8dbb d5ad 603d
00000360: 3e8b b33c 3487 c03d 9f15 a33d c083 2a3e
00000370: a27c fb3d a48c f83d 9609 023d ede2 253e
00000380: f0d0 04bd d0ab 8c3d 9e21 843d 850e babd
00000390: d95a 513d bbe7 613b 06c0 4f3e 1a95 183e
000003a0: 6472 cdbd 7a81 dfbc f9c5 5e3d 73bc 0f3e
000003b0: dc77 9dbd a6fa 583e 5469 383e 8be5 043e
000003c0: 30d2 c73c e492 503e 08be 5d3d 37e8 183e
000003d0: 5a4f 9abd 18b9 76bd c4aa f53d 820f 373e
000003e0: 5423 df3d e910 153c 7a01 bebc e4d5 1f3d
000003f0: c729 063b 7376 df3d 1c51 0e3e 4487 35bc
