LogAnomaly/result/deeplog/deeplog_epoch310.pth (torch_old, 645654 bytes, 30 tensors)

lstm.weight_ih_l0 f4 [256, 1]
-0.20593624 -0.013540004 -0.06420076 0.08864572 -0.13650513 0.04830006 -0.10481325 0.07314858
0.18415903 0.084672555 0.16761911 -0.08519396 0.09766942 0.1371239 -0.081525885 0.26362327
0.084220506 0.055757716 -0.1520197 0.15551734 0.16786753 0.07774015 0.06899648 -0.060507897
0.21034244 -0.069269426 -0.021007495 0.07315308 0.07679871 -0.13284779 0.13125925 0.015934492
0.11978443 0.10417957 0.0215859 0.04563722 0.21687949 0.0119669335 0.14014636 -0.14183286
0.0028027291 -0.13876902 0.13002759 0.4101287 -0.1347608 0.112279505 0.14659163 -0.20520435
0.19872253 0.16131318 0.37292075 0.08301231 0.054499544 0.33806095 0.11558547 -0.061656836
-0.17811011 0.027882082 0.110910065 0.04150729 0.04322458 0.15634267 0.101970874 -0.1540498
-0.06466381 0.04345914 0.12468992 -0.04626183 -0.09155645 0.059493277 0.098162 0.058209874
-0.03896334 0.29808602 0.1711889 -0.13530935 -0.010533333 0.090241894 0.17141636 0.2662424
0.034496013 0.13940522 -0.12095257 0.0386723 0.0054260376 0.23397326 0.14135416 -0.054732356
0.019375723 0.07673949 -0.70465565 0.08065178 -0.06243881 -0.25085053 0.22021711 0.018708179
-0.032375447 0.16689691 0.10752706 0.11149245 0.06579349 0.20056634 0.11937465 0.036179826
0.1512585 0.24148268 0.18511394 0.060210273 -0.1289033 -0.027834449 0.061015688 -0.11360314
0.08293082 0.110285684 0.3150408 0.2520192 0.05319336 0.022776686 0.17260948 -0.025852181
-0.18244053 0.183345 0.4786394 -0.035671063 0.044663202 0.052930996 -0.08610388 -0.15359263
0.4666156 -0.13880137 0.082326345 0.03264621 0.26309496 -0.18178967 -0.051191654 0.15755126
0.18049589 -0.04403616 -0.06812076 0.23206104 -0.24498989 0.17738807 -0.16581017 -0.09776659
0.2336996 -0.31058568 -0.2685265 0.22015035 0.1828105 -0.036187734 -0.16079591 0.20332341
0.10219431 0.32349774 -0.47984174 0.020832812 0.025655957 -0.19075625 0.9500261 7.446813e-05
0.51187664 0.023810746 0.08607305 -0.028676583 -0.32031944 -0.2132627 -0.3284571 -0.19199541
0.21220772 0.057033956 -0.12671946 -1.6937562 0.3822257 0.30900985 0.067412384 0.5178091
-0.12471539 -0.15526779 -0.1516904 -0.03868788 -0.4247645 0.47894648 0.03650355 0.17349023
-0.3813623 0.080160014 0.050098546 -0.07955496 0.1376847 -0.083638825 0.08378498 -0.3573201
0.19686736 -0.011115422 0.15870042 0.33630022 0.18556416 0.081889175 0.19045758 0.2275765
0.04394621 0.30496907 0.082814105 0.22640312 0.26215965 0.15286502 0.23839782 0.3146616
-0.0932688 0.034605637 0.3347415 0.21463826 0.31973678 0.24220736 -0.21473582 -0.18022041
-0.1787153 0.047119144 0.0019692096 0.1107516 -0.021159532 -0.33802953 0.15787415 0.28381917
-0.113588944 0.34377295 0.082970925 0.32157323 -0.09513532 -0.22829984 0.088863626 -0.3018419
-0.22009785 0.28766128 0.20383985 -0.2998946 0.27319795 0.018753441 0.21746038 -0.16990758
-0.19130675 -0.12429593 0.12784109 -0.22186215 0.07596156 -0.09642046 0.06486349 0.09437672
0.17850669 -0.2226925 0.3076261 -0.14291558 0.10651502 0.16447164 0.24406338 0.15674186
00000000: f3e0 52be e5d6 5dbc b07b 83bd e38b b53d
00000010: 00c8 0bbe 49d6 453d 54a8 d6bd ecce 953d
00000020: 2f94 3c3e ce68 ad3d 58a4 2b3e 2c7a aebd
00000030: e806 c83d 356a 0c3e 0bf7 a6bd a1f9 863e
00000040: cd7b ac3d 3462 643d 0dab 1bbe f03f 1f3e
00000050: 77e5 2b3e 3a36 9f3d 074e 8d3d 21d7 77bd
00000060: 0264 573e 21dd 8dbd e917 acbc 48d1 953d
00000070: a448 9d3d 4009 08be d368 063e 0d89 823c
00000080: 8a51 f53d 195c d53d ead4 b03c 18ee 3a3d
00000090: a815 5e3e f510 443c 8782 0f3e a23c 11be
000000a0: fead 373b 7719 0ebe f425 053e 64fc d13e
000000b0: bcfe 09be ccf2 e53d 1e1c 163e 1721 52be
000000c0: eb7d 4b3e 482f 253e 78ef be3e 5c02 aa3d
000000d0: ea3a 5f3d 5316 ad3e 13b8 ec3d e18b 7cbd
000000e0: 7f62 36be f768 e43c d124 e33d 8c03 2a3d
000000f0: 420c 313d 4b18 203e 1bd6 d03d 3bbf 1dbe
00000100: 766e 84bd 3602 323d 6e5d ff3d 0b7d 3dbd
00000110: f381 bbbd 39af 733d 2909 c93d 7a6d 6e3d
00000120: 0698 1fbd bb9e 983e 254c 2f3e 898e 0abe
00000130: 0094 2cbc bed0 b83d c587 2f3e ed50 883e
00000140: b14b 0d3d 3ec0 0e3e fbb5 f7bd d866 1e3d
00000150: e7cc b13b b096 6f3e 25bf 103e 092f 60bd
00000160: d6b9 9e3c 9829 9d3d 5064 34bf c32c a53d
00000170: d6bf 7fbd 7b6f 80be 9880 613e e541 993c
00000180: 1e9c 04bd 06e7 2a3e 2637 dc3d 2756 e43d
00000190: bdbe 863d 4361 4d3e b27a f43d 4c31 143d
000001a0: 82e3 1a3e 3c47 773e 828e 3d3e 0c9f 763d
000001b0: 3aff 03be 1205 e4bc 96eb 793d c3a8 e8bd
000001c0: a2d7 a93d 76dd e13d 074d a13e a908 813e
000001d0: 48e1 593d 2c96 ba3c 8ac0 303e f4c7 d3bc
000001e0: b1d1 3abe cbbe 3b3e 3910 f53e d21b 12bd
000001f0: c3f0 363d 2cce 583d 3b57 b0bd 6347 1dbe
00000200: 3de8 ee3e f221 0ebe b79a a83d 08b8 053d
00000210: 62b4 863e 1227 3abe 57ae 51bd 1e55 213e
00000220: ead3 383e 435f 34bd e682 8bbd 69a1 6d3e
00000230: a1de 7abe 38a5 353e 24ca 29be da39 c8bd
00000240: f34e 6f3e 1605 9fbe 4e7c 89be 186f 613e
00000250: ad32 3b3e 9739 14bd afa7 24be 0334 503e
00000260: 404b d13d 7fa1 a53e d1ad f5be 93a9 aa3c
00000270: 712c d23c 9b55 43be e934 733f c62b 9c38
00000280: 590a 033f c10e c33c 1147 b03d 27eb eabc
00000290: e900 a4be 8a61 5abe 872b a8be 729a 44be
000002a0: fb4c 593e 709c 693d bfc2 01be 01cd d8bf
000002b0: 16b3 c33e 8a36 9e3e 810f 8a3d 238f 043f
000002c0: c86a ffbd 85fe 1ebe ba54 1bbe 2f77 1ebd
000002d0: bc7a d9be 7938 f53e bf84 153d 6ca7 313e
000002e0: eb41 c3be ef2a a43d 2234 4d3d b6ed a2bd
000002f0: 38fd 0c3e d54a abbd 7697 ab3d a9f2 b6be
00000300: 9997 493e 751d 36bc 5d82 223e 8b2f ac3e
00000310: 8804 3e3e 83b5 a73d 5007 433e d009 693e
00000320: f100 343d e824 9c3e 719a a93d 38d6 673e
00000330: ca39 863e a688 1c3e 8f1e 743e 531b a13e
00000340: b603 bfbd a4be 0d3d 3d63 ab3e 22ca 5b3e
00000350: 8ab4 a33e 3505 783e b5e3 5bbe b38b 38be
00000360: 2501 37be 0100 413d db0d 013b bcd1 e23d
00000370: c156 adbc 3512 adbe c3a9 213e bf50 913e
00000380: 52a1 e8bd 0203 b03e a9ec a93d 3fa5 a43e
00000390: 4fd6 c2bd 6fc7 69be 22fe b53d 068b 9abe
000003a0: 5561 61be 5748 933e 65bb 503e c98b 99be
000003b0: 9ae0 8b3e d1a0 993c efad 5e3e 41fc 2dbe
000003c0: ebe5 43be dd8e febd c6e8 023e d52f 63be
000003d0: bc91 9b3d 1778 c5bd 26d7 843d 9548 c13d
000003e0: 75ca 363e 8109 64be 2b81 9d3e 7658 12be
000003f0: 8c24 da3d 416b 283e c0eb 793e f080 203e

lstm.weight_hh_l0 f4 [256, 64]
0.23073919 -0.15499777 0.041462522 0.069453314 0.25610408 -0.114597574 -0.045166 0.08805283
0.17279364 0.1355191 -0.0065595084 -0.18403101 -0.19897737 0.105742864 -0.114895925 0.27206084
0.21119507 -0.053761598 0.042383723 0.14902475 -0.08425268 0.08106998 -0.04409262 0.18357933
0.28925043 0.23578788 0.09562524 0.08578646 0.087310165 -0.33023936 0.05870536 0.13399987
0.0455222 0.07245183 0.08963022 -0.17231697 -0.03483575 -0.21290153 -0.11518765 -0.32781574
0.079734 -0.12811115 0.094573796 -0.11074476 0.05048458 0.17930798 0.040508047 0.25366685
-0.30278376 -0.09331168 0.17371747 -0.34528443 0.061404172 0.2021735 0.11440942 -0.02262279
-0.10762045 0.38823357 -0.030088017 -0.124259956 0.13789095 -0.054013938 -0.14416842 -0.08366819
-0.06465443 -0.0786905 0.31798303 0.27706772 0.14444423 -0.18031672 0.08671471 0.080592915
0.15098259 0.09141305 -0.123616956 0.07275581 -0.21271682 0.18191122 -0.1279855 -0.3309133
0.21180524 -0.037240278 -0.11984044 0.21292634 0.1069273 -0.10482254 -0.14944617 0.023717856
0.38425565 0.085651666 -0.07877811 0.12250323 0.2333664 -0.0038092607 0.036930762 0.17850535
0.0052668825 0.18451734 0.06018832 -0.13327964 -0.012449828 -0.1790157 -0.15251958 0.08192375
0.18399748 -0.057407357 -0.114904754 0.10143399 0.0015351842 0.15347521 0.21657567 -0.12217774
-0.23680492 -0.12336987 -0.028688664 -0.23391584 0.03632883 -0.030181292 0.28220636 0.15546319
-0.04446978 0.35919693 0.04233056 -0.16380282 0.15440166 -0.16999365 0.07496799 -0.08348392
0.12824726 0.08251233 0.11086415 0.23749803 0.16126293 -0.28514552 -0.25933424 0.22649261
0.22293918 -0.031310122 -0.08025605 0.12291588 -0.086976014 0.06857256 -0.13751785 0.09388605
0.15812294 -0.23797633 -0.02303435 0.22375333 0.050933167 0.0635427 -0.055575687 0.14333066
0.19451483 0.09721791 -0.01788805 0.30398887 -0.04610878 -0.40473673 0.124632485 0.08141551
-0.094787225 0.14603092 0.21107137 -0.14105102 0.0027437196 -0.16648759 -0.05006507 -0.42769587
0.19723022 -0.16709499 -0.03407635 -0.06293857 0.07946087 0.09037528 0.26373038 0.010457447
-0.038402166 0.0109077655 -0.15710546 0.06015617 -0.0014830211 0.09030429 0.031139506 0.27072546
-0.03984497 0.24571638 -0.0067478274 -0.57930046 -0.009133254 -0.13704368 0.08314528 -0.30483884
0.08608902 -0.23003595 -0.03815634 0.026176456 0.0443587 0.083482504 0.009881661 -0.10253689
-0.061825816 -0.016711824 0.04275561 0.105453886 0.0024565873 0.030089853 0.071226664 0.104819015
0.0044255145 -0.0896991 -0.15079768 0.026088549 0.049166713 0.032360055 -0.23290357 0.29534447
-0.044084117 0.1354563 0.037411746 0.08785838 0.13338852 -0.24705642 -0.024151616 -0.0060763895
0.084222436 -0.04312818 0.12967214 0.038608167 -0.056934834 -0.20496552 -0.115949124 -0.1814961
-0.04727158 0.043301873 -0.1153153 -0.03358115 0.23204367 -0.042602472 -0.15663546 0.34297287
-0.02013711 -0.012038882 0.08226961 -0.14768524 -0.08964913 0.072626896 0.045077715 0.1189103
-0.08734103 0.1373119 0.100739814 -0.089251444 0.10377845 -0.023975443 -0.120324895 -0.014984667
00000000: e546 6c3e bcb7 1ebe 9bd4 293d 8a3d 8e3d
00000010: 1320 833e 22b2 eabd fcff 38bd 0b55 b43d
00000020: d1f0 303e 85c5 0a3e 25f1 d6bb a072 3cbe
00000030: b9c0 4bbe b78f d83d 8e4e ebbd 8f4b 8b3e
00000040: 8543 583e 1f35 5cbd 8e9a 2d3d f299 183e
00000050: ab8c acbd 0508 a63d 779a 34bd 38fc 3b3e
00000060: a218 943e 6172 713e 2ad7 c33d d0b0 af3d
00000070: accf b23d 2215 a9be 0875 703d 4337 093e
00000080: 7d75 3a3d a061 943d 0c90 b73d dc73 30be
00000090: eeaf 0ebd dc02 5abe 81e7 ebbd 77d7 a7be
000000a0: 944b a33d 922f 03be e8af c13d 26ce e2bd
000000b0: ebc8 4e3d 839c 373e c4eb 253d 9fe0 813e
000000c0: 7906 9bbe 321a bfbd fee2 313e 1fc9 b0be
000000d0: f182 7b3d 9206 4f3e 7c4f ea3d 6e53 b9bc
000000e0: 1c68 dcbd 8dc6 c63e 257b f6bc 017c febd
000000f0: 4933 0d3e b83d 5dbd e3a0 13be 3a5a abbd
00000100: 8b69 84bd 7c28 a1bd acce a23e d2db 8d3e
00000110: 30e9 133e f2a4 38be 7b97 b13d e60d a53d
00000120: 2e9b 1a3e c436 bb3d e32a fdbd 0001 953d
00000130: 70d2 59be ef46 3a3e a20e 03be 786d a9be
00000140: 79e3 583e 4389 18bd e86e f5bd 5d09 5a3e
00000150: b3fc da3d 33ad d6bd 6b08 19be f34b c23c
00000160: 28bd c43e 246a af3d 6b56 a1bd f9e2 fa3d
00000170: 9af7 6e3e caa4 79bb b644 173d 1bca 363e
00000180: d095 ac3b 1df2 3c3e 0788 763d 757a 08be
00000190: 5dfa 4bbc e44f 37be 182e 1cbe a4c7 a73d
000001a0: d669 3c3e fa23 6bbd 2f53 ebbd a0bc cf3d
000001b0: 3c38 c93a 9b28 1d3e 03c6 5d3e 5338 fabd
000001c0: fd7c 72be 58a9 fcbd 7d04 ebbc a287 6fbe
000001d0: 8acd 143d c23e f7bc 5a7d 903e be31 1f3e
000001e0: f225 36bd a9e8 b73e cf62 2d3d edbb 27be
000001f0: 781b 1e3e d112 2ebe d188 993d 9ef9 aabd
00000200: 4053 033e 39fc a83d be0c e33d af32 733e
00000210: 1c22 253e 98fe 91be 75c7 84be aeed 673e
00000220: 2b4a 643e 0b3f 00bd 495d a4bd 52bb fb3d
00000230: 7b20 b2bd c56f 8c3d 7bd1 0cbe 5447 c03d
00000240: fbea 213e 11b0 73be 88b2 bcbc 981f 653e
00000250: 4c9f 503d ad22 823d 55a3 63bd 46c5 123e
00000260: e52e 473e 2f1a c73d f689 92bc 6ea4 9b3e
00000270: 8fdc 3cbd a739 cfbe 513f ff3d 2dbd a63d
00000280: ce1f c2bd 2189 153e 1823 583e ae6f 10be
00000290: facf 333b b97b 2abe 0811 4dbd f4fa dabe
000002a0: b8f6 493e f31a 2bbe a593 0bbd f0e5 80bd
000002b0: 61bc a23d ad16 b93d ab07 873e b655 2b3c
000002c0: 974b 1dbd 7cb6 323c 41e0 20be 5166 763d
000002d0: ee61 c2ba 75f1 b83d 4718 ff3c 879c 8a3e
000002e0: 7b34 23bd 139d 7b3e e11c ddbb 094d 14bf
000002f0: a5a3 15bc 2e55 0cbe 1348 aa3d d613 9cbe
00000300: 714f b03d 8b8e 6bbe d349 1cbd 0270 d63c
00000310: 78b1 353d e0f8 aa3d b1e6 213c dcfe d1bd
00000320: 113d 7dbd 3ce7 88bc 8220 2f3d 35f8 d73d
00000330: b2fe 203b ff7e f63c 49df 913d 5aab d63d
00000340: e803 913b 29b4 b7bd b56a 1abe a7b7 d53c
00000350: 0963 493d fa8b 043d 467e 6ebe 6437 973e
00000360: 8c91 34bd 0eb5 0a3e 0f3d 193d 18ef b33d
00000370: 0097 083e 5cfc 7cbe 9cd9 c5bc 731c c7bb
00000380: d07c ac3d 2da7 30bd c6c8 043e 9923 1e3d
00000390: 8034 69bd 7be2 51be bc76 edbd 1dda 39be
000003a0: d89f 41bd 4e5d 313d 6e2a ecbd 638c 09bd
000003b0: db9c 6d3e ee7f 2ebd 0c65 20be 249a af3e
000003c0: 95f6 a4bc bb3e 45bc f87c a83d cd3a 17be
000003d0: f799 b7bd 69bd 943d 69a3 383d 3e87 f33d
000003e0: dbdf b2bd 7e9b 0c3e ad50 ce3d 76c9 b6bd
000003f0: cc89 d43d 2668 c4bc e66c f6bd 4082 75bc

lstm.bias_ih_l0 f4 [256]
0.11891436 0.08650822 0.043017413 -0.080836326 0.20141461 -0.011892102 0.1864571 0.0075327433
0.25382748 0.185012 -0.123796344 0.22592874 0.034192145 0.1267538 0.11517738 0.13477261
0.18725905 0.15976585 0.19239648 -0.018950656 -0.07942313 0.036066905 0.10956883 0.090751246
0.14445618 0.17317359 0.05091608 0.07133724 -0.019859679 0.24836162 0.28561926 -0.10984249
-0.036701333 0.12720379 0.043126732 -0.11125354 0.15722944 -0.084984146 0.00097511004 -0.08707107
0.12103446 -0.029339716 -0.051744662 0.6704393 0.048289966 0.2702948 0.025509352 0.10555286
-0.0400062 0.06811776 -0.028908297 -0.13101906 -0.13385345 0.30245063 0.09449773 0.04278966
0.19213647 -0.05163793 0.050080393 0.0781387 -0.025064487 0.11846914 -0.24851371 0.031775814
-0.05797517 0.14399089 -0.074966684 0.12183843 0.07359278 0.084015995 0.09257627 0.1068682
0.09168737 0.08325683 -0.14716436 0.13845265 0.04570511 0.07126571 0.00781568 -0.0928675
0.056124743 -0.017611517 -0.09708656 -0.11645082 0.045314405 0.076867364 -0.11013971 -0.0064736884
0.20773602 0.11935833 0.09897183 0.018117506 0.20871183 0.09115761 -0.17517321 0.06678161
-0.07485309 0.010520581 -0.043125696 0.020781057 0.03002958 -0.13644746 -0.042608786 0.003849626
-0.09457918 0.0024018637 0.12571858 -0.2582744 -0.11603173 0.19191948 0.09797606 0.099466614
0.06701975 0.021190066 -0.011813914 -0.08745209 -0.11631244 0.103436336 0.08603105 0.009599937
0.0972072 0.1358645 -0.21637276 0.119214565 0.027356163 0.047727898 0.07774522 0.16467796
0.021406893 0.19758642 -0.08835644 -0.21320269 0.12738109 0.122049764 -0.19486459 0.23909444
0.23492147 0.13059653 -0.078673735 -0.039019838 0.20320553 -0.0010795266 -0.04400193 0.09852918
0.2279023 -0.13856702 0.07197991 0.03534434 0.027329126 0.16773736 -0.06967829 -0.088718325
-0.07090657 0.11343768 0.08230852 0.09844114 -0.037378687 -0.28255486 0.13120928 0.0076507498
-0.23820645 -0.1745342 0.14387365 0.03240743 0.037457634 -0.0029495314 -0.08333965 0.0777915
-0.005444733 -0.08664085 -0.080691114 0.10633485 -0.002849232 0.08863189 0.06404469 -0.21036577
-0.010636294 -0.018563848 0.021247689 0.05201722 0.16607298 0.27097043 -0.062690966 -0.1427394
-0.103829816 0.017389802 0.18567538 0.069040194 -0.17330918 -0.059807394 -0.060477443 -0.13765937
0.32101962 -0.036071245 -0.025200656 -0.18837015 0.21809109 0.07886979 0.1280296 -0.10879252
0.056938734 -0.008474086 0.14273365 -0.008410818 0.17910126 -0.049926963 0.086026244 0.09601376
0.097497135 0.022061253 0.20598312 -0.04168472 0.035012115 0.040423837 0.07808601 0.07126054
0.04810989 0.017724855 0.19512501 0.026555853 0.13353713 0.34891692 0.32318407 -0.1366927
0.16167746 -0.13265364 0.1228606 -0.10828937 0.10957627 0.14733626 0.13625929 0.29037803
0.1716216 -0.0006963315 0.09173946 0.4761195 0.15008476 0.1135055 -0.04774457 0.15670882
0.13803867 0.1313241 0.17376392 0.037388306 0.22060099 0.2303452 0.22120571 0.3067714
0.16983716 0.082575895 0.03851313 0.1911296 -0.06337268 0.041606616 -0.21730845 0.2888921
00000000: 5f89 f33d 392b b13d 0733 303d 848d a5bd
00000010: a23f 4e3e 17d7 42bc 9cee 3e3e 3bd5 f63b
00000020: adf5 813e c973 3d3e f088 fdbd dd59 673e
00000030: 100d 0c3d c0cb 013e 1ee2 eb3d d501 0a3e
00000040: d6c0 3f3e a999 233e 9503 453e 683e 9bbc
00000050: 98a8 a2bd e4ba 133d 9f65 e03d cadb b93d
00000060: 52ec 133e 6b54 313e 618d 503d 4219 923d
00000070: c4b0 a2bc 8252 7e3e b03c 923e 19f5 e0bd
00000080: 2354 16bd b641 023e a8a5 303d e5d8 e3bd
00000090: c100 213e 2b0c aebd 879e 7f3a 5152 b2bd
000000a0: eae0 f73d d859 f0bc 36f2 53bd e9a1 2b3f
000000b0: b3cb 453d 1464 8a3e fdf8 d03c 192c d83d
000000c0: 8bdd 23bd 5381 8b3d 18d1 ecbc dc29 06be
000000d0: e110 09be cfda 9a3e 0788 c13d 3644 2f3d
000000e0: 6cbf 443e 4b82 53bd 1921 4d3d 2f07 a03d
000000f0: 0a54 cdbc f39f f23d 617a 7ebe 5b27 023d
00000100: 5f77 6dbd 5972 133e 2288 99bd 6d86 f93d
00000110: d0b7 963d 9410 ac3d a198 bd3d b7dd da3d
00000120: 96c6 bb3d 8f82 aa3d 41b2 16be 88c6 0d3e
00000130: 4835 3b3d c2f3 913d 560d 003c 5131 bebd
00000140: 0fe3 653d 0746 90bc 52d5 c6bd c47d eebd
00000150: 999b 393d a36c 9d3d ee90 e1bd 3c21 d4bb
00000160: c0b8 543e 2472 f43d beb1 ca3d 2a6b 943c
00000170: 8eb8 553e d7b0 ba3d 9b60 33be ccc4 883d
00000180: 944c 99bd 845e 2c3c 92a4 30bd 093d aa3c
00000190: 9800 f63c e2b8 0bbe 8d86 2ebd 024a 7c3b
000001a0: bbb2 c1bd 9668 1d3b 5fbc 003e 8b3c 84be
000001b0: 0ba2 edbd 8a86 443e aca7 c83d 27b5 cb3d
000001c0: a741 893d ca96 ad3c 268f 41bc 151a b3bd
000001d0: 3735 eebd 6ed6 d33d 0c31 b03d 0e49 1d3c
000001e0: 9214 c73d 1020 0b3e d290 5dbe c426 f43d
000001f0: 081a e03c 547e 433d e338 9f3d 57a1 283e
00000200: 825d af3c 1854 4a3e 39f4 b4bd ce51 5abe
00000210: 3070 023e 3af5 f93d 958a 47be 2cd5 743e
00000220: 418f 703e 19bb 053e b21f a1bd 44d3 1fbd
00000230: 1c15 503e e77e 8dba 5e3b 34bd abc9 c93d
00000240: 385f 693e 83e4 0dbe 346a 933d 3ac5 103d
00000250: 55e1 df3c 58c3 2b3e 7eb3 8ebd f4b1 b5bd
00000260: 7737 91bd 0452 e83d 5f91 a83d 829b c93d
00000270: 651a 19bd 08ab 90be ba5b 063e 24b3 fa3b
00000280: 64ec 73be 18b9 32be 9d53 133e a7bd 043d
00000290: 2d6d 193d ed4c 41bb faad aabd 2651 9f3d
000002a0: bb69 b2bb c270 b1bd 6241 a5bd 16c6 d93d
000002b0: 2eba 3abb a384 b53d dd29 833d 206a 57be
000002c0: da43 2ebc 3613 98bc a20f ae3c 0210 553d
000002d0: 090f 2a3e a3bc 8a3e 1f64 80bd 472a 12be
000002e0: baa4 d4bd 0f75 8e3c b021 3e3e f264 8d3d
000002f0: f677 31be 99f8 74bd 32b7 77bd 94f6 0cbe
00000300: af5c a43e 71bf 13bd 9b71 cebc 1be4 40be
00000310: 4553 5f3e 7c86 a13d 311a 033e 9dce debd
00000320: 9738 693d e5d6 0abc c528 123e 87cd 09bc
00000330: 5266 373e 3780 4cbd 872e b03d dda2 c43d
00000340: 94ac c73d cdb9 b43c 3ded 523e 99bd 2abd
00000350: dd68 0f3d 7793 253d 8feb 9f3d 0cf1 913d
00000360: e00e 453d b733 913c dace 473e a98b d93c
00000370: f5bd 083e 3da5 b23e 6278 a53e 2cf9 0bbe
00000380: c78e 253e 5bd6 07be 579e fb3d d1c6 ddbd
00000390: 8669 e03d 51df 163e 8e87 0b3e 6eac 943e
000003a0: 93bd 2f3e 048a 36ba e6e1 bb3d efc5 f33e
000003b0: d2af 193e 9275 e83d cf8f 43bd 4778 203e
000003c0: 025a 0d3e d379 063e 2bef 313e 7b24 193d
000003d0: 3ae5 613e 9ddf 6b3e c083 623e 2411 9d3e
000003e0: cbe9 2d3e 8d1d a93d f2bf 1d3d 7ab7 433e
000003f0: 89c9 81bd b36b 2a3d 1b86 5ebe aae9 933e

lstm.bias_hh_l0 f4 [256]
0.19863331 0.07437108 0.05670133 0.07481576 0.14913434 0.04634559 0.012200171 0.0885566
0.09331751 0.21453872 0.022506453 0.1827835 0.16929737 0.0011061945 0.116709486 0.14431661
0.11511088 0.033924785 0.110181384 0.07701892 -0.028929142 0.06147836 0.0456746 -0.0057596406
0.13260055 0.096884236 -0.026206737 0.095236965 -0.028747693 0.2896489 0.23656441 0.09064668
0.10084515 0.065542154 0.05678308 -0.0139325 0.22945023 -0.0715454 0.02879071 -0.13749139
0.02979275 -0.0026332622 0.057853926 0.591667 0.11332293 0.24794501 0.05964542 0.09730809
-0.09202723 -0.058651693 -0.070532255 -0.058678605 -0.031051116 0.4882397 -0.042542882 0.074600995
0.17338087 0.027100999 0.23534703 0.09672703 0.12390751 0.104357004 -0.14057973 0.041384894
-0.06875981 0.023437692 -0.02680233 0.15262133 -0.0343134 0.113535896 0.043043062 0.13429901
0.2226143 -0.0033465924 -0.11572943 0.07065274 -0.0018650074 0.19437613 -0.087614305 -0.14108449
0.07904071 0.0057930527 -0.095570125 -0.008438118 -0.002267467 0.08819229 -0.015673533 0.096446835
0.031053016 0.071749926 0.11115178 -0.08158498 0.19263558 0.065650396 -0.02834831 0.15251061
-0.12346311 -0.16619022 0.047032326 -0.00806146 -0.13050728 0.0013693422 -0.13077909 -0.07333361
-0.054961015 -0.01249267 0.09144228 -0.23859903 -0.02120947 0.058102235 0.012551456 -0.0470781
0.03259254 0.002313102 0.045104302 -0.012844714 -0.021732278 0.0577769 -0.037026577 -0.018587848
0.08407273 -0.072729014 0.008612893 -0.019315656 0.09195059 0.108261235 -0.063541174 0.11289736
-0.106352605 0.12061124 -0.16057652 -0.20018813 0.16329129 -0.055549406 -0.13917083 0.21539949
0.09215567 0.042300094 -0.048740603 -0.12585686 0.020566504 -0.055823464 0.11210045 0.17996088
0.23876476 -0.11945232 -0.0053198985 -0.10830422 -0.13278283 0.19897449 0.09689081 -0.056541283
-0.003074109 0.2208513 0.08259892 0.14152801 -0.024672288 -0.13064262 -0.03452919 0.012729717
-0.1243462 -0.2203167 0.14216316 -0.044158727 0.16308449 0.12009036 -0.069513164 -0.08036286
-0.030215511 -0.13724846 -0.09424594 0.103291206 -0.03929432 0.123636134 0.05088284 0.015116873
0.10526456 -0.059323005 0.074046165 -0.025266606 0.18423074 0.2550334 -0.2273408 -0.130452
0.047527492 0.012602485 0.040508416 0.10181081 -0.105756104 -0.03379347 -0.071115665 -0.005195839
0.3241982 0.10962058 -0.087749556 -0.037873026 0.19898535 0.061674878 0.3288292 -0.050658505
0.099433295 -0.028386427 0.05389608 -0.07703191 0.13208799 0.114739604 0.064142 0.031671204
0.079860054 0.16476388 0.2576935 0.104286514 0.0030863 -0.014238719 0.20989764 0.15171288
0.06462939 -0.051730677 0.18688598 0.09129208 -0.046185408 0.2213731 0.25748962 -0.034812186
0.11484932 0.0019949302 0.03584996 -0.006803065 0.09120497 0.032140456 0.1503588 0.2911101
0.0735761 -0.034255758 -0.056554783 0.3950401 0.13218975 0.032710176 -0.14815521 0.2788112
0.07924212 0.012226647 0.10471248 0.14984125 0.052224033 0.1856131 0.05227559 0.25637987
0.18465361 -0.013067654 -0.0071273637 0.13603032 -0.019335685 0.12562497 -0.017202806 0.22566612
00000000: 8866 4b3e dd4f 983d a73f 683d 0139 993d
00000010: acb6 183e e0d4 3d3d 3ae3 473c 2a5d b53d
00000020: 401d bf3d 0ab0 5b3e 745f b83c 992b 3b3e
00000030: 4a5c 2d3e bafd 903a 6205 ef3d bcc7 133e
00000040: 41bf eb3d b7f4 0a3d c7a6 e13d 18bc 9d3d
00000050: cffc ecbc bcd0 7b3d 4a15 3b3d 5ebb bcbb
00000060: 70c8 073e 3e6b c63d 83af d6bc 990b c33d
00000070: 4880 ebbc dc4c 943e f13d 723e f7a4 b93d
00000080: e787 ce3d f73a 863d 6095 683d 2445 64bc
00000090: 00f5 6a3e 6586 92bd 7fda eb3c 8bca 0cbe
000000a0: ed0f f43c cf92 2cbb 3df8 6c3d 7d77 173f
000000b0: da15 e83d 4ce5 7d3e c24e 743d 7749 c73d
000000c0: c678 bcbd c23c 70bd 3773 90bd fa58 70bd
000000d0: e95e febc 8efa f93e 7241 2ebd 68c8 983d
000000e0: c18a 313e ea02 de3c d0fe 703e d218 c63d
000000f0: 38c3 fd3d 20b9 d53d 22f4 0fbe 3583 293d
00000100: f1d1 8cbd 6700 c03c 8f90 dbbc c448 1c3e
00000110: 358c 0cbd 8285 e83d ec4d 303d ae85 093e
00000120: 01f5 633e 8152 5bbb 8d03 edbd 62b2 903d
00000130: 4473 f4ba 890a 473e 216f b3bd 7478 10be
00000140: 19e0 a13d a6d3 bd3b 45ba c3bd 0840 0abc
00000150: c999 14bb 299e b43d c865 80bc eb85 c53d
00000160: e562 fe3c a0f1 923d 8ba3 e33d 0716 a7bd
00000170: 4342 453e b773 863d b73a e8bc be2b 1c3e
00000180: 3ada fcbd c52d 2abe f8a4 403d 3714 04bc
00000190: b3a3 05be 807b b33a f4ea 05be ef2f 96bd
000001a0: cd1e 61bd 0eae 4cbc 1746 bb3d 4e53 74be
000001b0: 7cbf adbc 9cfc 6d3d 9fa4 4d3c f7d4 40bd
000001c0: c17f 053d 6997 173b 4abf 383d a372 52bc
000001d0: e407 b2bc 78a7 6c3d 2ea9 17bd 8b45 98bc
000001e0: 532e ac3d f3f2 94bd 171d 0d3c de3b 9ebc
000001f0: 9750 bc3d 11b8 dd3d e021 82bd bb36 e73d
00000200: 65cf d9bd 0703 f73d 2c6e 24be 1efe 4cbe
00000210: d535 273e c687 63bd cc82 0ebe af91 5c3e
00000220: 1dbc bc3d dd42 2d3d 3aa4 47bd 9fe0 00be
00000230: 167b a83c 25a7 64bd ec94 e53d aa47 383e
00000240: c07e 743e 6ba3 f4bd 8b52 aebb 9ace ddbd
00000250: 39f8 07be f8bf 4b3e b06e c63d d597 67bd
00000260: fe76 49bb d826 623e 9f29 a93d b8ec 103e
00000270: 8a1d cabc 2ec7 05be 7b6e 0dbd 4e90 503c
00000280: 38a9 febd b39a 61be 3893 113e c8df 34bd
00000290: 9fff 263e eff1 f53d eb5c 8ebd 4895 a4bd
000002a0: 8586 f7bc dc8a 0cbe 0404 c1bd 578a d33d
000002b0: 15f3 20bd f134 fd3d 866a 503d c3ac 773c
000002c0: f294 d73d aefc 72bd 84a5 973d eafb cebc
000002d0: fca6 3c3e bd93 823e 07cc 68be 3695 05be
000002e0: 30ac 423d a77a 4e3c 27ec 253d 3082 d03d
000002f0: a896 d8bd 066b 0abd 17a5 91bd db41 aabb
00000300: 4efd a53e c180 e03d 0ab6 b3bd bf20 1bbd
00000310: d1c2 4b3e cc9e 7c3d 4d5c a83e 4b7f 4fbd
00000320: afa3 cb3d a78a e8bc 23c2 5c3d e8c2 9dbd
00000330: 1342 073e 99fc ea3d e25c 833d aab9 013d
00000340: ab8d a33d ddb7 283e 67f0 833e 2b94 d53d
00000350: 8643 4a3b 8449 69bc 68ef 563e 9f5a 1b3e
00000360: 6a5c 843d 8ce3 53bd 0a5f 3f3e 58f7 ba3d
00000370: e92c 3dbd a1af 623e aed5 833e 3997 0ebd
00000380: 1f36 eb3d 60bd 023b 68d7 123d 3fec debb
00000390: acc9 ba3d b6a5 033d a8f7 193e 620c 953e
000003a0: 11af 963d c44f 0cbd fda5 67bd b242 ca3e
000003b0: c05c 073e 1bfb 053d 00b6 17be 57c0 8e3e
000003c0: b149 a23d 4652 483c 7f73 d63d fc6f 193e
000003d0: dee8 553d 5c11 3e3e ee1e 563d 3944 833e
000003e0: d615 3d3e b719 56bc a98c e9bb 884b 0b3e
000003f0: df65 9ebc d5a3 003e e6ec 8cbc 0515 673e

lstm.weight_ih_l1 f4 [256, 64]
-0.030452652 -0.080135174 -0.09203328 -0.086470805 0.059879627 -0.05744312 -0.05177654 4.8172977e-05
0.010367615 0.18315631 -0.05230496 -0.042560108 -0.13758847 -0.042992093 0.032737333 0.023938734
-0.010069381 0.012942259 -0.06096281 0.17656009 0.03795993 0.14404939 0.090068094 0.13921683
0.026407432 0.03489716 -0.16542007 0.007629889 -0.15077476 -0.088042155 0.10873403 -0.11405269
-0.12541239 0.059635717 -0.07393592 0.06692895 0.03909485 -0.10882255 -0.10274119 -0.015409702
0.017278532 -0.16819511 0.08941162 -0.25649634 0.054604482 0.065244295 0.10000893 0.06297807
0.06808819 -0.13969038 -0.017764691 0.111530475 -0.023124222 0.10187522 -0.070192076 0.076569214
0.061923273 -0.012624091 -0.12914936 0.049822383 -0.093319416 -0.056199662 -0.2767501 -0.15057068
-0.13601625 0.004376872 0.05153828 -0.043561243 -0.028185593 -0.036589384 -0.024717098 -0.06813099
0.0119388215 0.16116802 0.16427796 0.059561152 0.115273155 -0.09478321 -0.02161729 0.31936094
-0.072247356 0.10220861 0.07887147 -0.019747164 -0.04378907 0.11133888 0.08780625 0.15917134
0.1485233 0.098231554 -0.25366184 -0.08905141 0.124560386 -0.02879999 0.033376 -0.005729055
-0.21457082 0.14858001 -0.04626498 0.07066692 0.023332711 0.11673186 0.08762096 0.25241518
-0.118373945 -0.114183575 0.06137865 -0.11982929 -0.029143237 0.090604335 0.007977325 -0.019689946
-0.0023067864 -0.0909237 0.23000108 -0.06570486 0.11890166 -0.017689422 -0.046989474 0.12936097
-0.14850557 0.02912694 -0.08052445 -0.18432783 -0.027924223 0.04992841 -0.0315661 -0.13461788
0.042309258 -0.25829774 0.010104114 -0.15372421 0.13741359 0.1212805 0.0011673723 0.042321537
0.032300808 0.5806412 0.013862712 0.08747041 -0.1980395 -0.031258725 -0.16673602 0.86737615
0.13983186 0.0124358 -0.03970299 0.1079493 0.0018751284 0.021174086 -0.034058403 0.15289073
0.13396591 0.18157905 -0.24658564 -0.13035479 0.03128023 0.117361374 0.03069202 -0.030447315
-0.18445599 -0.055319548 -0.09867199 -0.02987686 -0.10957428 -0.301923 -0.060469683 -0.23686145
0.04526477 0.06880537 -0.010687571 0.15133919 0.34568405 -0.0047698473 -0.035679657 -0.13848902
0.0364632 -0.17440782 0.015671514 -0.15400599 -0.11970096 0.100057945 -0.01836179 0.12603754
-0.096045695 0.004218363 -0.027980296 -0.28007224 0.11672443 0.122264616 -0.26375946 -0.13654049
0.17525187 0.07854199 -0.1520333 -0.04574881 0.24108295 0.047503322 0.08609541 0.0728357
-0.06169802 0.1436699 -0.3147094 -0.10034916 0.13418923 -0.004853425 0.00322956 0.11545857
0.04815891 0.010212924 -0.020781739 0.0125286905 -0.16709338 0.11110561 -0.16349341 0.0028361042
0.20426746 0.0067416574 0.1973061 -0.19308595 0.037779123 -0.3573745 0.08061934 0.067291856
-0.018283598 -0.17739424 -0.12733847 -0.038787775 -0.05592587 -0.068654865 0.0315847 -0.13305297
0.022179622 0.15810865 -0.18274018 -0.49995497 -0.11164495 0.05715091 0.1331419 0.09508395
-0.16959307 -0.18359868 -0.01404849 -0.17976928 -0.12695497 0.041410998 -0.07463764 -0.2097981
-0.056891505 0.005826374 -0.0042324685 0.015700817 -0.040757325 0.07594014 -0.1269505 -0.104732424
00000000: d777 f9bc e91d a4bd f27b bcbd 9b17 b1bd
00000010: 5744 753d 7a49 6bbd a313 54bd 570d 4a38
00000020: eedc 293c 548d 3b3e ba3d 56bd 8253 2ebd
00000030: fee3 0cbe 7a18 30bd 9517 063d 2a1b c43c
00000040: 0cfa 24bc c50b 543c 24b4 79bd 2bcc 343e
00000050: df7b 1b3d af81 133e 9f75 b83d db8e 0e3e
00000060: 6654 d83c 53f0 0e3d e163 29be 2604 fa3b
00000070: b364 1abe 724f b4bd f2af de3d 7594 e9bd
00000080: 1b6c 00be 9544 743d b76b 97bd 0c12 893d
00000090: ec21 203d 5bde debd f969 d2bd fa78 7cbc
000000a0: b58b 8d3c 573b 2cbe 701d b73d 7d53 83be
000000b0: f3a8 5f3d cd9e 853d 7bd1 cc3d a5fa 803d
000000c0: d271 8b3d ff0a 0fbe 4287 91bc 176a e43d
000000d0: 026f bdbc f5a3 d03d ddc0 8fbd 52d0 9c3d
000000e0: 42a3 7d3d 46d5 4ebc bb3f 04be 8e12 4c3d
000000f0: 401e bfbd 9e31 66bd 30b2 8dbe 332f 1abe
00000100: d847 0bbe dd6b 8f3b ce19 533d 466d 32bd
00000110: 79e5 e6bc c0de 15bd 837b cabc 4388 8bbd
00000120: 0c9b 433c 3b09 253e 7b38 283e 65f6 733d
00000130: 5514 ec3d b31d c2bd be16 b1bc 4783 a33e
00000140: 6cf6 93bd bf52 d13d 5e87 a13d cec4 a1bc
00000150: 2b5c 33bd a405 e43d c3d3 b33d d0fd 223e
00000160: 7e16 183e a02d c93d f7df 81be 9660 b6bd
00000170: 8419 ff3d f5ed ebbc 46b5 083d ccba bbbb
00000180: 74b8 5bbe 5c25 183e 5980 3dbd d1b9 903d
00000190: 3e24 bf3c 1d11 ef3d 9e72 b33d 903c 813e
000001a0: 0a6e f2bd 14d9 e9bd 2e68 7b3d 0f69 f5bd
000001b0: ccbd eebc c48e b93d 53b3 023c cf4c a1bc
000001c0: 742d 17bb 3436 babd 6785 6b3e 4590 86bd
000001d0: b782 f33d 68e9 90bc 0978 40bd 3477 043e
000001e0: d811 18be 9f9b ee3c 01ea a4bd 6fc0 3cbe
000001f0: 57c1 e4bc bc81 4c3d 744b 01bd 45d9 09be
00000200: 794c 2d3d 9a3f 84be ba8b 253c e169 1dbe
00000210: 26b6 0c3e e961 f83d 8402 993a 5959 2d3d
00000220: da4d 043d e7a4 143f 6e20 633c b023 b33d
00000230: deca 4abe 2609 00bd d9bc 2abe 5d0c 5e3f
00000240: 1530 0f3e 87bf 4b3c 9a9f 22bd 8614 dd3d
00000250: dec6 f53a 4775 ad3c d380 0bbd 638f 1c3e
00000260: 5c2e 093e dcef 393e f280 7cbe ba7b 05be
00000270: b31f 003d 295b f03d d56d fb3c a66c f9bc
00000280: 08e2 3cbe c096 62bd 8a14 cabd 51c0 f4bc
00000290: 7b68 e0bd a795 9abe 0faf 77bd cf8b 72be
000002a0: 8d67 393d d4e9 8c3d ec1a 2fbc a9f8 1a3e
000002b0: 80fd b03e 614c 9cbb d524 12bd 11d0 0dbe
000002c0: 705a 153d f797 32be 8c61 803c bfb3 1dbe
000002d0: c725 f5bd 2eeb cc3d 776b 96bc fc0f 013e
000002e0: 9bb3 c4bd 323a 8a3b ef36 e5bc a165 8fbe
000002f0: 380d ef3d df65 fa3d 7b0b 87be 45d1 0bbe
00000300: 3a75 333e 9fda a03d 9eae 1bbe 1b63 3bbd
00000310: 73de 763e d892 423d ca52 b03d e22a 953d
00000320: 10b7 7cbd 341e 133e 9721 a1be dc83 cdbd
00000330: e768 093e 7b09 9fbb 07a7 533b 8b75 ec3d
00000340: 4742 453d 1c54 273c 773e aabc 2345 4d3c
00000350: 871a 2bbe 578b e33d d16a 27be efdd 393b
00000360: 7d2b 513e 1fe9 dc3b 9c0a 4a3e 53b8 45be
00000370: 48be 1a3d caf9 b6be c11b a53d 50d0 893d
00000380: 7cc7 95bc d6a6 35be 0465 02be eedf 1ebd
00000390: 8612 65bd ec9a 8cbd f55e 013d 0a3f 08be
000003a0: 0ab2 b53c 3ce7 213e 3e20 3bbe 19fa ffbe
000003b0: 1ca6 e4bd 1317 6a3d 5a56 083e 60bb c23d
000003c0: cea9 2dbe 4b01 3cbe a32b 66bc 7015 38be
000003d0: 7c00 02be 949e 293d 9edb 98bd 50d5 56be
000003e0: 1107 69bd 2beb be3b 85b0 8abb 009f 803c
000003f0: 27f1 26bd 8186 9b3d 50ff 01be f47d d6bd

lstm.weight_hh_l1 f4 [256, 64]
0.06233567 -0.032546096 0.110588215 0.12543102 0.052507408 0.024793988 -0.03434286 -0.19889563
-0.07020579 -0.0025259554 -0.07066266 -0.15195097 -0.0809308 0.07760968 0.045684382 -0.4625669
0.09533698 -0.036706787 -0.028740702 -0.18193239 -0.07057374 0.18319462 -0.0021970633 0.028876096
-0.086771466 0.09086705 -0.042079333 0.0528947 -0.044364423 -0.095420875 0.10451567 -0.08001339
-0.012087056 -0.057738625 -0.17586708 -0.26464948 0.02754617 -0.03348255 0.08563796 0.18383591
0.011059342 0.0849658 -0.018794332 0.03618359 0.08573545 -0.176002 0.04780289 0.12426676
0.013432625 -0.07197257 0.086105354 0.032713577 -0.03305462 0.018091619 0.09498144 0.05051687
-0.017021295 0.040154144 0.039378043 0.035054326 0.08364951 -0.031615645 -0.20017563 0.06988756
-0.18380757 0.059497952 0.17699668 -0.06533305 -0.26475284 0.06550903 -0.01974433 -0.09698233
-0.072711304 -0.07075587 0.013510082 -0.038899582 -0.07481945 -0.15029863 0.30891892 0.14389089
0.12690404 -0.16026802 0.058910947 -0.12847836 -0.04831755 -0.0382865 -0.09082364 -0.096356146
-0.21114898 -0.11882919 -0.22628628 -0.18372157 -0.029787995 -0.032112755 -0.005797858 0.028268907
0.04208846 0.007832379 0.016769158 -0.047238577 0.02992157 -0.13118453 -0.028176121 -0.008967441
-0.059507884 -0.04832367 -0.016215345 0.10591922 0.03580912 -0.15130597 0.09322604 0.180039
-0.15149897 0.1585324 0.17662917 0.05435891 -0.10339571 0.12817955 0.089559175 -0.11127893
0.018490097 -0.06098493 0.07198047 -0.14527497 0.0233662 0.14703168 0.063036 -0.09282585
-0.17651968 -0.0034193327 0.19586754 0.35259643 -0.21787491 0.2760564 -0.0802233 -0.16194619
-0.3169643 0.18290965 0.012768889 -0.20534016 0.14726938 0.034714114 0.044996195 0.16905752
0.31326166 -0.15661266 0.036246702 -0.53595906 -0.16591452 0.28306493 -0.034320198 0.13451673
-0.3038829 -0.21299434 0.051068775 -0.06728557 -0.1488813 0.009005468 0.23019697 -0.20579106
-0.10074112 0.08488437 -0.16030765 -0.0539455 -0.12499704 -0.35292307 -0.10555994 -0.20367466
0.040272772 0.010457259 0.07804327 0.11508331 0.33049166 -0.013019449 0.1272205 0.2987163
-0.33240902 0.20687841 0.031677313 0.3130695 -0.31824756 0.0017369312 0.30095524 -0.15620549
-0.07162501 0.03467312 -0.12573612 -0.22192818 0.18065917 0.006513183 -0.0019721894 -0.16247676
0.14916828 0.19657205 0.0017546221 -0.16767858 -0.061086804 0.089524135 -0.14980954 -0.039287437
0.021452015 -0.014960725 -0.002287959 -0.097962976 0.14266774 0.0057137036 -0.07344298 -0.23847684
-0.14909929 -0.15078573 -0.085435785 -0.1977721 0.27064285 -0.16500083 0.06385136 0.016661754
0.07334373 -0.08664082 -0.077708475 0.08747968 -0.021328162 -0.13473593 0.010340488 0.08018481
-0.026207285 -0.11885012 0.056414668 0.0918447 -0.037265442 0.009410601 -0.06743751 0.26469162
0.084089436 -0.19353038 0.07050148 0.03202245 0.103167094 0.03838082 0.14482185 0.09690567
-0.09211787 -0.12190081 -0.11775067 0.024552936 0.294172 0.09999614 -0.0053368565 0.008344972
-0.18938346 -0.17409825 0.056362063 -0.0057615726 -0.068478175 -0.23325266 -0.17849393 0.047014106
00000000: b053 7f3d 0e4f 05bd 137c e23d fd70 003e
00000010: 0212 573d c31c cb3c 19ab 0cbd 4cab 4bbe
00000020: 0ec8 8fbd 808a 25bb 96b7 90bd 0999 1bbe
00000030: 0cbf a5bd d3f1 9e3d 8c1f 3b3d 92d5 ecbe
00000040: 0940 c33d db59 16bd 9f71 ebbc 7c4c 3abe
00000050: f788 90bd 5f97 3b3e 9bfc 0fbb 908d ec3c
00000060: 3db5 b1bd 8118 ba3d 615b 2cbd 1da8 583d
00000070: 78b7 35bd 056c c3bd 500c d63d 0fde a3bd
00000080: ca08 46bc 567f 6cbd 8016 34be 2380 87be
00000090: 81a8 e13c 0025 09bd f462 af3d 7b3f 3c3e
000000a0: 3e32 353c 8d02 ae3d 92f6 99bc 3e35 143d
000000b0: 1196 af3d de39 34be f7cc 433d 927f fe3d
000000c0: 8314 5c3c 5b66 93bd 0158 b03d acfe 053d
000000d0: 4864 07bd e034 943c a185 c23d c7ea 4e3d
000000e0: 3e70 8bbc ac78 243d df4a 213d 2095 0f3d
000000f0: 6f50 ab3d 687f 01bd d7fa 4cbe 3621 8f3d
00000100: 0d38 3cbe 20b4 733d 9e3e 353e 56cd 85bd
00000110: af8d 87be 9929 863d dcbe a1bc ac9e c6bd
00000120: aae9 94bd 74e8 90bd 6459 5d3c 2b55 1fbd
00000130: f13a 99bd e2e7 19be 9f2a 9e3e 2258 133e
00000140: 22f3 013e 4d1d 24be 9b4c 713d d58f 03be
00000150: a0e8 45bd 4ed2 1cbd bf01 babd 5f56 c5bd
00000160: 7037 58be b85c f3bd 97b7 67be 8221 3cbe
00000170: f405 f4bc aa88 03bd f5fb bdbb 3294 e73c
00000180: f364 2c3d 6153 003c 795f 893c 3d7d 41bd
00000190: 151e f53c 3d55 06be 9cd1 e6bc 2cec 12bc
000001a0: 8abe 73bd 0aef 45bd 0bd6 84bc 2dec d83d
000001b0: 95ac 123d f4ef 1abe 4bed be3d 255c 383e
000001c0: 8c22 1bbe 5156 223e 47de 343e 73a7 5e3d
000001d0: 21c1 d3bd 8041 033e cd6a b73d 35e6 e3bd
000001e0: 8b78 973c 55cb 79bd 7f6a 933d f6c2 14be
000001f0: 796a bf3c 798f 163e 0519 813d 7b1b bebd
00000200: 93c1 34be e216 60bb 8091 483e 8587 b43e
00000210: 9a1a 5fbe 4457 8d3e 1d4c a4bd 39d5 25be
00000220: 2549 a2be ab4c 3b3e 9a34 513c b144 52be
00000230: c9cd 163e 6330 0e3d ee4d 383d 6a1d 2d3e
00000240: d563 a03e 125f 20be 6c77 143d 9d34 09bf
00000250: 7fe5 29be e3ed 903e 5693 0cbd c1be 093e
00000260: 8a96 9bbe 301b 5abe 7e2d 513d 04cd 89bd
00000270: 5774 18be ac8b 133c c1b8 6b3e e4ba 52be
00000280: 5c51 cebd dbd7 ad3d b027 24be f5f5 5cbd
00000290: 73fe ffbd 55b2 b4be cf2f d8bd 1790 50be
000002a0: 10f5 243d ec54 2b3c 26d5 9f3d ccb0 eb3d
000002b0: 3436 a93e 874f 55bc 1746 023e 58f1 983e
000002c0: 8431 aabe efd7 533e 12c0 013d a54a a03e
000002d0: 58f1 a2be bda9 e33a ce16 9a3e 55f4 1fbe
000002e0: 22b0 92bd 6705 0e3d f8c0 00be 2441 63be
000002f0: b8fe 383e 8a6c d53b d93f 01bb 4f60 26be
00000300: 92bf 183e 2f4a 493e 59fb e53a efb3 2bbe
00000310: 2836 7abd 6e58 b73d ac67 19be ddeb 20bd
00000320: 23bc af3c d41d 75bc 95f1 15bb d0a0 c8bd
00000330: 7e17 123e 053a bb3b 4669 96bd 4633 74be
00000340: 7cad 18be 9367 1abe f5f8 aebd c584 4abe
00000350: b391 8a3e faf5 28be 80c4 823d 3b7e 883c
00000360: 3d35 963d be70 b1bd 9f25 9fbd 8c28 b33d
00000370: 66b8 aebc 37f8 09be 266b 293c ef37 a43d
00000380: a9b0 d6bc b167 f3bd 1113 673d 1319 bc3d
00000390: a6a3 18bd ec2e 1a3c ad1c 8abd a985 873e
000003a0: 1537 ac3d d42c 46be 1463 903d f929 033d
000003b0: 4549 d33d 3535 1d3d 2e4c 143e 7b76 c63d
000003c0: 4ba8 bcbd 22a7 f9bd 4327 f1bd 3d23 c93c
000003d0: b69d 963e c7ca cc3d cce0 aebb 59b9 083c
000003e0: bded 41be d046 32be e8db 663d 93cb bcbb
000003f0: 493e 8cbd c9d9 6ebe 1dc7 36be dd91 403d

lstm.bias_ih_l1 f4 [256]
-0.06413912 -0.032467883 -0.11130206 0.06162508 -0.025672643 0.04579128 0.102753736 -0.0095899515
0.025054779 -0.10242114 -0.052427877 -0.07389374 -0.08620533 -0.077906124 0.11638302 -0.09921853
-0.018358622 -0.050457254 -0.02529911 0.06754181 0.06070254 -0.0008130094 -0.04361797 -0.07189297
0.008700853 -0.05257181 0.20291965 0.14100498 -0.046159703 -0.015523656 -0.08270033 0.04595175
0.040066436 0.005152273 0.06467817 0.034383014 0.047297653 0.0075255902 0.050899643 0.023621932
-0.030195659 0.034447663 0.0119826645 -0.06596493 0.09757795 -0.1007099 -0.0060211364 0.08183097
0.025212197 -0.05429575 -0.02910196 0.10167157 0.0482593 -0.10970732 0.07876524 0.04636383
0.20817123 -0.024261931 0.07048979 -0.005438716 0.17045091 0.0683233 0.28062892 0.044966448
-0.07436014 0.020802146 0.070210055 -0.046282653 -0.10174878 0.06343057 0.0060239565 0.113098055
-0.027951956 0.08818732 0.070732705 -0.065194316 0.065065525 -0.012263022 0.10677196 0.10120578
0.03743323 0.13513708 0.043977108 -0.068826824 0.040578734 0.120300904 0.12956943 0.044728056
0.14096168 0.12715006 -0.038013335 0.0035210992 0.12298928 0.1084288 0.021929098 0.05723592
0.1318578 0.10318221 0.14540881 0.018738339 0.0033375446 -0.027232718 0.11816095 -0.04113387
0.02962772 0.044772707 -0.09958082 -0.055736646 -0.007966856 -0.0693258 -0.0016226072 0.06093434
0.03737299 0.028305003 -0.096692294 0.11625492 0.07362373 -0.020360652 -0.064333856 -0.11016401
-0.027116483 0.07395451 -0.05568732 -0.026189081 0.02388762 0.050885156 -0.0049445266 0.08364864
0.029091908 -0.066109724 -0.012052969 0.060048632 0.045832228 -0.0014831994 -0.10138203 -0.07251326
-0.06925178 0.05672179 -0.03727513 0.12009902 -0.11394169 0.07029856 -0.08696927 0.012748632
-0.08750737 -0.002309102 -0.033277724 -0.02095068 0.06993607 0.040305506 0.036501404 -0.04237423
0.06270775 0.10560225 0.107872 0.055739284 -0.0634152 0.118075304 0.13339953 -0.0954977
0.017013585 -0.12757608 -0.07172612 0.13844463 -0.090539485 0.007868227 0.066298276 -0.0011623874
0.026911536 -0.14653732 0.04536041 0.02767206 -0.1321155 -0.09161011 -0.0058555566 -0.028377503
0.047161285 0.03545614 -0.14424966 -0.031990282 0.13819751 0.00821622 -0.075876705 0.05549476
0.08512379 -0.01094413 -0.015678173 -0.0287115 0.08973025 -0.044514313 0.07225539 -0.07848631
0.16495402 0.043799628 0.06844723 -0.021288326 0.1285082 -0.02738372 -0.043964837 -0.07699991
-0.02695991 0.1559814 0.0029844842 0.10124481 -0.15764952 0.22458248 0.038814735 -0.040052492
0.06907011 0.11618818 0.07541556 0.06800127 0.11096269 0.07846346 -0.00031797626 0.17533311
0.0060567483 0.1613973 0.15588409 0.16444543 0.085998796 -0.053950768 0.16613622 0.042675253
0.06480352 0.1179877 0.12205354 0.0067554503 0.09959551 0.116026625 0.21598165 -0.023487786
0.084183395 0.14748192 -0.046565328 0.06324059 -0.07634973 0.01150681 -0.06320255 0.074176736
0.010580927 0.23800427 0.17701067 0.17784233 -0.11389988 0.011737863 -0.08179103 0.031702694
0.109596714 0.056690384 -0.13669893 0.044387683 -0.02208431 -0.0023624136 0.10344552 -0.011967332
00000000: 5f5b 83bd 0bfd 04bd 56f2 e3bd 946a 7c3d
00000010: 6f4f d2bc a38f 3b3d 8d70 d23d 2c1f 1dbc
00000020: ae3f cd3c 2dc2 d1bd 9dbe 56bd 9a55 97bd
00000030: 6c8c b0bd 3f8d 9fbd 395a ee3d 1633 cbbd
00000040: d264 96bc 44ac 4ebd 1440 cfbc 5c53 8a3d
00000050: 3aa3 783d 2320 55ba c2a8 32bd 9f3c 93bd
00000060: 068e 0e3c 8a55 57bd 2bca 4f3e 9c63 103e
00000070: f511 3dbd ef56 7ebc ca5e a9bd e737 3c3d
00000080: b41c 243d 66d4 a83b fd75 843d 34d5 0c3d
00000090: 2fbb 413d 3a99 f63b 257c 503d c882 c13c
000000a0: e35c f7bc fe18 0d3d f052 443c 9f18 87bd
000000b0: f3d6 c73d fe40 cebd f44c c5bb ff96 a73d
000000c0: cf89 ce3c 3865 5ebd 3c67 eebc 2f39 d03d
000000d0: 8bab 453d 3bae e0bd ac4f a13d 00e8 3d3d
000000e0: d72a 553e f5c0 c6bc f35c 903d 4237 b2bb
000000f0: af8a 2e3e 16ed 8b3d 98ae 8f3e bd2e 383d
00000100: 214a 98bd 4369 aa3c 4aca 8f3d e192 3dbd
00000110: aa61 d0bd e3e7 813d 9c64 c53b f49f e73d
00000120: 80fb e4bc 8e9b b43d 4fdc 903d 9984 85bd
00000130: 1341 853d d8ea 48bc 42ab da3d fa44 cf3d
00000140: 9653 193d 6061 0a3e 5721 343d 14f5 8cbd
00000150: e335 263d 5260 f63d d9ad 043e c434 373d
00000160: 4258 103e a033 023e dfb3 1bbd 3ec2 663b
00000170: cee1 fb3d eb0f de3d a7a4 b33c 3670 6a3d
00000180: bb05 073e 3251 d33d 0ce6 143e 2581 993c
00000190: b5ba 5a3b 2617 dfbc 5efe f13d fd7b 28bd
000001a0: d5b5 f23c 9663 373d 07f1 cbbd 1c4c 64bd
000001b0: 6a87 02bc affa 8dbd aaad d4ba 4996 793d
000001c0: 6c14 193d e5df e73c 9c06 c6bd 0f17 ee3d
000001d0: 0ac8 963d 62cb a6bc 78c1 83bd ab9d e1bd
000001e0: 6323 debc 7675 973d 6318 64bd 7c8a d6bc
000001f0: f8af c33c f46c 503d b205 a2bb fa4f ab3d
00000200: 2752 ee3c 8964 87bd d179 45bc 8ef5 753d
00000210: 93ba 3b3d ea67 c2ba 62a1 cfbd d581 94bd
00000220: e1d3 8dbd 1c55 683d cfad 18bd 7af6 f53d
00000230: 435a e9bd b1f8 8f3d f21c b2bd a3df 503c
00000240: 1037 b3bd 4e54 17bb 394e 08bd c3a0 abbc
00000250: a43a 8f3d 6317 253d 7f82 153d 9a90 2dbd
00000260: ec6c 803d fe45 d83d ffeb dc3d e04e 643d
00000270: d4df 81bd 77d1 f13d e399 083e 4c94 c3bd
00000280: 1360 8b3c 4ea3 02be 25e5 92bd 6ec4 0d3e
00000290: c46c b9bd bce9 003c 64c7 873d 405b 98ba
000002a0: 9575 dc3c e10d 16be d6cb 393d 84b0 e23c
000002b0: 4949 07be 159e bbbd f8df bfbb f077 e8bc
000002c0: 312c 413d 753a 113d 2fb6 13be 3e08 03bd
000002d0: a683 0d3e 539d 063c 3f65 9bbd 794e 633d
000002e0: 6255 ae3d 024f 33bc 836f 80bc 6134 ebbc
000002f0: 7ec4 b73d a454 36bd a2fa 933d 6ebd a0bd
00000300: b5e9 283e 3d67 333d 102e 8c3d db64 aebc
00000310: a797 033e d353 e0bc 7914 34bd 21b2 9dbd
00000320: 07db dcbc 97b9 1f3e 5697 433b 7059 cf3d
00000330: e06e 21be f3f8 653e 33fc 1e3d 150e 24bd
00000340: a174 8d3d 12f4 ed3d 7973 9a3d 4044 8b3d
00000350: 6840 e33d 73b1 a03d 0db6 a6b9 868a 333e
00000360: b077 c63b 5545 253e 14a0 1f3e 6264 283e
00000370: 2320 b03d 7bfb 5cbd 9d1f 2a3e 3fcc 2e3d
00000380: b5b7 843d 89a3 f13d 35f7 f93d d35c dd3b
00000390: bbf8 cb3d 5e9f ed3d 4b2a 5d3e 7569 c0bc
000003a0: 5868 ac3d 8005 173e 49bb 3ebd 4884 813d
000003b0: 3f5d 9cbd 0f87 3c3c 5770 81bd f9e9 973d
000003c0: a05b 2d3c 64b7 733e 4942 353e 4d1c 363e
000003d0: 5744 e9bd 2a50 403c 0e82 a7bd afda 013d
000003e0: 3e74 e03d 2d34 683d cefa 0bbe dccf 353d
000003f0: 28ea b4bc b9d2 1abb 3fdb d33d a112 44bc

lstm.bias_hh_l1 f4 [256]
0.0575955 0.0044379234 -0.19558711 0.07251322 0.04319288 0.0565451 0.09543361 0.014057682
-0.052200127 -0.039616406 0.16267581 -0.023620447 0.025665201 0.07904475 -0.05344056 -0.175845
0.013736717 -0.0071516978 0.09815261 0.036518116 0.08855353 -0.031457294 -0.10049019 0.14506474
0.12876701 0.052468143 0.254271 0.14650188 0.05592103 0.10988872 -0.041870553 -0.18010296
0.1467456 0.2154124 0.1512168 0.037649635 0.068592064 0.0548271 0.0747005 -0.019143527
-0.081974566 0.032101184 -0.1544952 0.009679607 0.10536556 -0.094880775 -0.049655706 0.06219124
-0.033768304 0.0065553878 -0.070287794 0.08694038 -0.0022424345 -0.030773701 -0.069040276 0.08730629
0.24205205 -0.109012716 -0.008537036 -0.11875658 0.17358163 0.09757607 0.2098897 -0.060707565
0.024960145 -0.048023038 0.06365403 -0.049846582 -0.051850922 0.13297923 0.061083082 -0.059222728
-0.03717207 -0.03476732 0.021120615 0.0011119843 0.027630534 0.10221575 -0.07551424 -0.059760757
0.04791801 -0.01584939 0.15029338 0.050806925 0.034728184 0.091286406 0.11985409 0.0384168
0.121152155 -0.025746705 -0.00078016735 0.14842908 0.09376612 -0.00623043 -0.07955671 -0.013221153
-0.06189193 0.18454157 0.012121423 -0.11358072 0.044296622 -0.018536342 -0.0009330086 -0.052562904
0.053782634 0.06273248 0.10492072 -0.043026354 0.094071336 0.014272157 0.026797699 -0.0113370735
0.024641791 -0.12702172 -0.06301073 0.054829102 -0.06681494 -0.08713745 0.06355049 -0.07419373
-0.025844704 -0.0057001854 0.10187888 0.034404792 0.07742235 0.08065756 0.009756415 0.035887737
0.08426603 0.11504578 -0.022034291 0.026689608 -0.067121804 -0.045139402 -0.18032245 0.005662134
0.060180537 -0.117683105 -0.015035233 -0.11085605 0.12513657 0.107009 0.055128567 0.0900515
0.09636601 0.02842728 -0.0076046647 -0.035171904 0.030357346 -0.013245051 0.021706088 -0.09805046
0.087918036 0.044572677 0.013324033 -0.03137949 0.0038858189 -0.1095409 0.08600536 0.12504148
-0.007584163 -0.03514829 -0.070492946 -0.038236804 0.04185813 -0.094273806 -0.023233015 0.0881911
0.091991395 -0.14957911 -0.008826407 0.10039427 0.09485638 0.01930999 -0.055135038 -0.11684685
-0.068043984 -0.01763899 -0.014515614 -0.06767402 -0.00073337514 0.087068796 -0.0048740613 -0.086284764
-0.09571427 -0.05039646 -0.05737801 0.05724041 -0.039551154 -0.061616812 0.08904385 0.023894653
0.17846417 -0.15506655 -0.05331343 0.15522458 0.072372854 0.073893026 0.14974456 -0.112492666
0.05536636 0.025904324 -0.043450076 -0.039873794 -0.1589262 0.07674672 0.17997624 0.107021146
0.17929202 -0.106956914 -0.042362504 0.12406475 -0.068692386 0.046242807 -0.0050989226 0.054438915
0.020656122 0.09355333 0.083155796 0.16641046 0.12240878 0.12193268 0.033569768 0.16124448
-0.03410569 0.069474295 0.06431546 -0.09067331 0.05089615 0.0032939937 0.20111565 0.15038654
-0.100080594 -0.028566066 0.053023577 0.13939522 -0.0782981 0.2118375 0.18077822 0.12807347
0.024885664 0.20406084 0.05386535 0.14888838 -0.075599134 -0.06143132 0.11945503 0.17817621
0.1076668 0.008389539 -0.02514337 0.039816663 0.0031387121 0.11226185 0.1388242 -0.010492805
00000000: 42e9 6b3d 006c 913b fd47 48be d081 943d
00000010: 04eb 303d d69b 673d b272 c33d 3152 663c
00000020: cdcf 55bd d044 22bd 7d94 263e ab7f c1bc
00000030: d43f d23c 37e2 a13d 7de4 5abd b610 34be
00000040: f80f 613c ca58 eabb 3c04 c93d 0594 153d
00000050: 8e5b b53d 5dd9 00bd cdcd cdbd da8b 143e
00000060: 80db 033e d6e8 563d cf2f 823e 9704 163e
00000070: 730d 653d 560d e13d 7580 2bbd e96c 38be
00000080: 7b44 163e 1195 5c3e 94d8 1a3e 8136 1a3d
00000090: ff79 8c3d 6292 603d 93fc 983d e3d2 9cbc
000000a0: 48e2 a7bd 887c 033d fd33 1ebe 3797 1e3c
000000b0: e6c9 d73d da50 c2bd c863 4bbd 3ebc 7e3d
000000c0: a250 0abd 94ce d63b 0cf3 8fbd cc0d b23d
000000d0: cff5 12bb 2119 fcbc fd64 8dbd a4cd b23d
000000e0: 7edc 773e 0f42 dfbd edde 0bbc a636 f3bd
000000f0: 62bf 313e f6d5 c73d 53ed 563e 7fa8 78bd
00000100: 3879 cc3c ceb3 44bd 0b5d 823d ee2b 4cbd
00000110: a261 54bd b52b 083e 4132 7a3d 8893 72bd
00000120: be41 18bd 2d68 0ebd 2405 ad3c 00c0 913a
00000130: 6e59 e23c 7e56 d13d 36a7 9abd b2c7 74bd
00000140: ad45 443d 94d6 81bc 82e6 193e ec1a 503d
00000150: 243f 0e3d 5ef4 ba3d 1076 f53d ef5a 1d3d
00000160: 9f1e f83d c1ea d2bc 2584 4cba cbfd 173e
00000170: 7408 c03d a328 ccbb a1ee a2bd 899d 58bc
00000180: 6482 7dbd 77f8 3c3e ef98 463c 029d e8bd
00000190: 6070 353d 87d9 97bc 2695 74ba 334c 57bd
000001a0: 2e4b 5c3d e379 803d ade0 d63d 673c 30bd
000001b0: 79a8 c03d c4d5 693c d986 db3c 22bf 39bc
000001c0: 95dd c93c fb11 02be c50b 81bd 7b94 603d
000001d0: 45d6 88bd 1f75 b2bd c226 823d e2f2 97bd
000001e0: 46b8 d3bc 9fc8 babb e0a5 d03d 0aec 0c3d
000001f0: 9c8f 9e3d ca2f a53d 5fd9 1f3c 05ff 123d
00000200: ab93 ac3d 1f9d eb3d 4281 b4bc 2aa4 da3c
00000210: 2877 89bd 18e4 38bd 73a6 38be 6c89 b93b
00000220: de7f 763d d703 f1bd 5756 76bc 7f08 e3bd
00000230: cd23 003e 8927 db3d 7ece 613d ec6c b83d
00000240: 8b5b c53d 54e0 e83c 8d30 f9bb 6a10 10bd
00000250: f8af f83c c501 59bc f7d0 b13c aece c8bd
00000260: 5f0e b43d d791 363d 0b4d 5a3c c887 00bd
00000270: 39a9 7e3b fb56 e0bd 9423 b03d e00a 003e
00000280: 9284 f8bb a7f7 0fbd 9b5e 90bd 329e 1cbd
00000290: 6e73 2b3d a012 c1bd 2a53 bebc 899d b43d
000002a0: fc65 bc3d 442b 19be a29c 10bc 839b cd3d
000002b0: 1044 c23d fc2f 9e3c 47d5 61bd 674d efbd
000002c0: a55a 8bbd a57f 90bc e6d2 6dbc ad98 8abd
000002d0: f93f 40ba 2051 b23d 97b6 9fbb 11b6 b0bd
000002e0: d805 c4bd 856c 4ebd 3405 6bbd ec74 6a3d
000002f0: 6400 22bd e961 7cbd 9f5c b63d b8be c33c
00000300: 50bf 363e c4c9 1ebe 2f5f 5abd 31f3 1e3e
00000310: 3838 943d 3a55 973d a356 193e 8e62 e6bd
00000320: d6c7 623d 4e35 d43c b5f8 31bd b452 23bd
00000330: 8dbd 22be 622d 9d3d b14b 383e e72d db3d
00000340: 5498 373e 3a0c dbbd 4e84 2dbd a915 fe3d
00000350: 98ae 8cbd 1969 3d3d dd14 a7bb 57fb 5e3d
00000360: 0737 a93c e398 bf3d 964d aa3d 8167 2a3e
00000370: 74b1 fa3d d7b7 f93d 7480 093d 461d 253e
00000380: 68b2 0bbd 8a48 8e3d d3b7 833d eeb2 b9bd
00000390: 7b78 503d 0be0 573b 43f1 4d3e eefe 193e
000003a0: 0ef7 ccbd 6203 eabc 402f 593d 9fbd 0e3e
000003b0: c15a a0bd eeeb 583e ed1d 393e b125 033e
000003c0: 05dd cb3c 53f5 503e eaa1 5c3d 3276 183e
000003d0: b8d3 9abd 689f 7bbd d7a4 f43d d373 363e
000003e0: 6980 dc3d 4774 093c 78f9 cdbc cc16 233d
000003f0: dab2 4d3b 8ae9 e53d ee27 0e3e 04ea 2bbc
