LogAnomaly/result/deeplog/deeplog_epoch324.pth (torch_old, 646473 bytes, 30 tensors)

lstm.weight_ih_l0 f4 [256, 1]
000000 74 01 53 be 68 cf 5c bc 70 35 84 bd df 69 b5 3d
       -0.20606023 -0.013477184 -0.06455505 0.08858084
000010 fc 07 0c be 98 de 44 3d f5 5e d6 bd e7 5f 97 3d
       -0.13674921 0.048063844 -0.1046733 0.07391339
000020 45 02 3d 3e d5 3a ad 3d ee 17 2c 3e d6 92 ae bd
       0.18457897 0.08458487 0.16806003 -0.085241005
000030 a6 3a c8 3d 87 56 0d 3e 61 70 a6 bd ca 0d 87 3e
       0.09776811 0.13802539 -0.08126903 0.26377708
000040 f1 ed ac 3d 2b 52 65 3d 72 ea 1b be 2b c1 1f 3e
       0.08443821 0.055986565 -0.15226153 0.15601031
000050 4e 76 2b 3e 22 c3 9e 3d eb f1 8c 3d b1 63 78 bd
       0.16744348 0.077520624 0.0688208 -0.060641948
000060 38 9c 57 3e 65 73 8e bd 83 c6 a9 bc 84 0a 96 3d
       0.21055686 -0.069556035 -0.02072454 0.073262244
000070 10 65 9f 3d 51 f9 06 be 35 c4 06 3e 8a 75 84 3c
       0.07782948 -0.13181044 0.13160785 0.016169328
000080 90 d2 f5 3d 5a bc d6 3d 86 d0 b4 3c 6a 4e 3a 3d
       0.12003052 0.10485144 0.022072088 0.045484938
000090 32 d7 5d 3e 01 4e 4b 3c 88 b4 0f 3e 82 5c 11 be
       0.21664122 0.012408734 0.14033711 -0.14195445
0000a0 e9 bb 37 3b c9 b7 0d be a6 f5 05 3e da e1 d1 3e
       0.0028035587 -0.1383964 0.13081989 0.40992624
0000b0 5d 7d 0a be 80 62 e6 3d c1 12 16 3e cd 3e 52 be
       -0.13524385 0.11249256 0.14655592 -0.20531769
0000c0 c1 93 4b 3e b8 3b 25 3e 40 69 bf 3e 10 42 aa 3d
       0.19880582 0.16136062 0.37384987 0.08313382
0000d0 18 3b 60 3d 72 5a ad 3e 92 45 ed 3d f8 96 7c bd
       0.054743856 0.33858067 0.11585535 -0.061667413
0000e0 5f ae 36 be b4 6a e6 3c ed 6d e3 3d 4a 1f 2c 3d
       -0.17839955 0.028127052 0.11104951 0.042022027
0000f0 09 c0 31 3d 86 66 21 3e b6 52 d1 3d b1 28 1e be
       0.04339603 0.15761766 0.10220854 -0.1544521
000100 10 88 84 bd 92 6e 2d 3d 90 b5 00 3e 8c 4e 3d bd
       -0.06471264 0.042341776 0.1256926 -0.046217486
000110 f4 45 bb bd 1e cb 73 3d 6d 12 c8 3d d1 77 6f 3d
       -0.09144202 0.05951988 0.097691394 0.058463875
000120 48 38 21 bd c6 7b 98 3e c3 c9 2f 3e d8 b8 0a be
       -0.039360315 0.29781932 0.1716681 -0.13547075
000130 ce 35 29 bc 44 a5 b7 3d dc e7 2f 3e fc 5d 88 3e
       -0.010327769 0.08967069 0.17178291 0.26634204
000140 b7 78 09 3d ca fa 0e 3e 5b 96 f8 bd 37 e7 1d 3d
       0.03356239 0.13962856 -0.12138053 0.03855058
000150 93 50 c2 3b 5d 9f 6f 3e a0 cf 10 3e 5c de 60 bd
       0.0059300154 0.23400636 0.14141703 -0.05489956
000160 2b c1 a1 3c e1 2b 9d 3d be cc 34 bf 35 61 a5 3d
       0.01974543 0.07674385 -0.7062491 0.080751814
000170 32 3b 7d bd b5 d5 7e be cc 62 61 3e df 8b 9b 3c
       -0.06182403 -0.2488621 0.22010344 0.018987594
000180 2b e9 06 bd 17 91 2b 3e 22 3d dd 3d 34 87 e6 3d
       -0.03293721 0.16754566 0.10802676 0.11256257
000190 76 8c 86 3d 36 56 4d 3e 58 a1 f4 3d 48 b9 13 3d
       0.065697595 0.20052418 0.119448364 0.03606537
0001a0 ba ab 1a 3e 47 1d 77 3e 90 74 3e 3e 82 db 75 3d
       0.15104571 0.24132262 0.18599153 0.060023792
0001b0 32 d6 03 be 30 bb e1 bc b5 92 7e 3d 4b eb e8 bd
       -0.12874678 -0.027555078 0.06215163 -0.113730036
0001c0 89 71 a9 3d 60 91 e2 3d 97 66 a1 3e c0 07 81 3e
       0.08273608 0.11062884 0.31523582 0.25201225
0001d0 62 46 59 3d 80 58 b7 3c 76 73 31 3e 88 b9 d3 bc
       0.053045638 0.022381067 0.17329201 -0.025845304
0001e0 39 2b 3b be ae 2e 3c 3e 8b 83 f5 3e 1e 04 13 bd
       -0.18278207 0.18377182 0.47951922 -0.0358926
0001f0 31 62 39 3d 41 22 5b 3d 12 b7 b0 bd f4 a8 1d be
       0.04525966 0.053499464 -0.08628668 -0.15396482
000200 1c 0b ef 3e f7 3a 0e be 56 6c a8 3d 76 fc 04 3d
       0.46688163 -0.13889681 0.082237884 0.032467328
000210 0d 18 87 3e 1a ee 39 be 5f a0 51 bd d0 41 22 3e
       0.26385537 -0.18157235 -0.051178332 0.15845418
000220 cb 82 39 3e a9 8c 34 bd f4 5d 8c bd 7c 87 6d 3e
       0.181163 -0.044079456 -0.06853858 0.23196214
000230 24 c2 7a be a2 3b 36 3e bd a6 29 be ed 6a c8 bd
       -0.24488121 0.17796186 -0.16567512 -0.097860195
000240 dc 23 6f 3e 2e 2c 9f be e5 bb 89 be c7 8a 61 3e
       0.23353523 -0.31088394 -0.26901165 0.22025596
000250 e3 2e 3b 3e 1d 17 14 bd ea 0d 25 be 83 54 50 3e
       0.18279605 -0.036154855 -0.16118589 0.20344739
000260 ef 2d d1 3d 94 95 a5 3e 2d 4c f6 be 5a bb aa 3c
       0.10213839 0.32340682 -0.48104993 0.02084129
000270 09 9f d0 3c 56 9e 43 be 86 46 73 3f db 81 24 3a
       0.025466459 -0.19103369 0.95029485 0.00062754535
000280 6b 3c 03 3f 9f 46 c5 3c da e4 b0 3d 3f 45 eb bc
       0.51264066 0.024081526 0.086374 -0.028719543
000290 68 22 a4 be 81 71 5a be 0f 9c a8 be f6 bd 44 be
       -0.320575 -0.21332361 -0.32931563 -0.1921309
0002a0 44 df 59 3e 4e bb 6b 3d ef 10 01 be 3b db d8 bf
       0.21276575 0.057551675 -0.12604116 -1.6941904
0002b0 85 cc c3 3e 56 20 9e 3e 65 4a 8a 3d 68 a6 04 3f
       0.38241974 0.30884045 0.06752471 0.51816416
0002c0 13 3f ff bd 38 e2 1e be 2d 81 1b be 72 f8 1d bd
       -0.12463202 -0.15515983 -0.15185995 -0.038567014
0002d0 a8 c5 d9 be 48 1b f5 3e a6 a1 15 3d ec b8 31 3e
       -0.42533612 0.47872376 0.036531113 0.17355698
0002e0 66 8f c3 be 9f 2e a4 3d 6b 58 4d 3d 9b a0 a2 bd
       -0.38195342 0.08016705 0.05013315 -0.07940789
0002f0 87 89 0d 3e 5a 4e aa bd b0 94 ac 3d 36 0d b7 be
       0.13821994 -0.083157256 0.084267974 -0.35752267
000300 89 c6 49 3e db 4b 31 bc 3d bf 22 3e d0 5d ac 3e
       0.19704641 -0.010821308 0.15893264 0.33665323
000310 55 2d 3e 3e ed 4d a7 3d b4 8f 43 3e f3 54 69 3e
       0.1857198 0.0816916 0.19097787 0.22786312
000320 f6 3f 32 3d 9c 37 9c 3e 68 2f aa 3d 79 31 67 3e
       0.04351803 0.30511177 0.08309823 0.22577466
000330 2a 67 86 3e b9 04 1d 3e bf 37 75 3e 79 6c a1 3e
       0.26250583 0.15333833 0.23947047 0.3152807
000340 87 5c bf bd 1f 9c 0f 3d 45 99 ab 3e 84 cd 5d 3e
       -0.0934382 0.035060998 0.33515373 0.21660429
000350 7f 35 a4 3e 56 5e 78 3e 94 5c 5c be c4 c8 38 be
       0.32072064 0.24254736 -0.21519691 -0.18045336
000360 38 2f 37 be 21 fd 41 3d ab d3 11 3b 23 f1 e2 3d
       -0.17889106 0.047360543 0.0022251408 0.110811494
000370 22 6e ac bc e2 a8 ac be 3c 0f 22 3e c0 66 91 3e
       -0.02104861 -0.33722597 0.15826124 0.28398705
000380 c3 a6 e8 bd 6c 17 b0 3e 9b f9 a9 3d 28 0f a5 3e
       -0.11359932 0.3439287 0.082995616 0.32238126
000390 6c 59 c3 bd 01 0d 6a be c8 4e b6 3d 3c 9b 9a be
       -0.0953854 -0.22856523 0.08901745 -0.3019656
0003a0 83 f6 61 be ac 92 93 3e de 1f 51 3e 1b aa 99 be
       -0.22066693 0.2882284 0.20422313 -0.30012593
0003b0 93 1a 8c 3e dd 53 9a 3c a0 13 5f 3e f1 2d 2e be
       0.27364025 0.018838817 0.2178483 -0.17009713
0003c0 09 26 44 be 25 ad fe bd 5e 67 03 3e ba 64 63 be
       -0.19155134 -0.124353684 0.128324 -0.22206393
0003d0 72 09 9c 3d e2 73 c5 bd 64 da 84 3d c2 3a c2 3d
       0.07618989 -0.096412435 0.06486967 0.094838634
0003e0 70 59 37 3e bd 1a 64 be 9b 9f 9d 3e 2a 9e 12 be
       0.17905211 -0.22275825 0.30785832 -0.14318147
0003f0 b8 a9 da 3d 4a 38 29 3e c6 7c 7a 3e ac 0d 22 3e
       0.106769025 0.16525379 0.2446166 0.15825528

lstm.weight_hh_l0 f4 [256, 64]
000000 6e 6f 6c 3e a4 df 1e be 85 29 2b 3d 88 c1 8d 3d
       0.23089382 -0.15515 0.041787643 0.06921679
000010 c8 61 83 3e d1 0d eb bd c5 b3 35 bd 2d e3 b4 3d
       0.2566054 -0.11477245 -0.044360895 0.08832393
000020 0b 28 31 3e 3c 5f 0b 3e 78 5a d4 bb ff ac 3d be
       0.17300431 0.13610548 -0.0064805113 -0.18523024
000030 21 19 4c be 7a 86 d9 3d 6e a7 ea bd 70 84 8b 3e
       -0.19931461 0.106213525 -0.11457716 0.2724948
000040 a2 87 58 3e cf a7 5d bd 13 27 2d 3d 51 16 18 3e
       0.2114549 -0.054115113 0.042273592 0.14852263
000050 b8 1d ae bd d9 a5 a4 3d c2 cf 30 bd 0e 62 3c 3e
       -0.08501762 0.080394454 -0.043166883 0.1839678
000060 98 9d 94 3e 6c 97 71 3e 6e 20 c4 3d b1 0b af 3d
       0.29026484 0.23592919 0.09576498 0.08547152
000070 e6 3a b3 3d 85 9a a9 be 82 ff 6f 3d 77 6c 09 3e
       0.08751468 -0.33125702 0.05859328 0.13420282
000080 be 33 3a 3d 06 ac 94 3d 87 aa b8 3d ea 0b 31 be
       0.0454595 0.07259373 0.090169005 -0.17289701
000090 87 f6 0c bd d1 c9 5a be a6 7b ec bd 23 58 a8 be
       -0.034414794 -0.2136605 -0.115470216 -0.32879743
0000a0 1e ce a1 3d a4 81 03 be ba 31 c2 3d 87 ce e2 bd
       0.07900642 -0.12842423 0.09482141 -0.11074548
0000b0 c2 53 4c 3d 27 ed 37 3e 32 69 24 3d d2 cd 81 3e
       0.049884565 0.1796156 0.040139385 0.2535234
0000c0 6b 46 9b be 26 33 c0 bd 64 7f 31 3e e9 29 b1 be
       -0.30327162 -0.09384756 0.17333752 -0.34602287
0000d0 14 68 7c 3d 5b 76 4f 3e 30 a5 ea 3d d0 85 bc bc
       0.061622694 0.20259993 0.11457288 -0.023013026
0000e0 8f 30 dd bd bc 34 c7 3e 27 c2 f4 bc 71 3e 00 be
       -0.108002774 0.3890742 -0.029877735 -0.1252382
0000f0 bb 9d 0d 3e cd e1 5e bd 00 d4 13 be e1 8c ac bd
       0.138297 -0.05441456 -0.1443634 -0.08425308
000100 cc 3d 85 bd 6c ed 9e bd 78 f5 a2 3e e3 f5 8e 3e
       -0.065059274 -0.077601284 0.31827903 0.27921972
000110 f3 b9 13 3e f9 84 38 be 20 ee b1 3d 54 d9 a3 3d
       0.14426403 -0.18019475 0.08687997 0.080004364
000120 eb 7c 1a 3e b9 57 bc 3d 35 14 fd bd 62 51 92 3d
       0.15086715 0.09196419 -0.1235737 0.07144429
000130 26 70 59 be 1f e2 39 3e d5 31 02 be c0 f2 a8 be
       -0.21234187 0.18152665 -0.12714322 -0.32997704
000140 3f c2 58 3e 37 a4 18 bd 06 a6 f4 bd 97 43 59 3e
       0.21167849 -0.037265982 -0.11945729 0.2121719
000150 9e bb d8 3d 17 a0 d7 bd 78 10 18 be 8a 30 ba 3c
       0.1058266 -0.105285816 -0.14850032 0.022728223
000160 35 be c4 3e a2 85 ae 3d 5a 10 9f bd de a0 fa 3d
       0.38426366 0.08521582 -0.07766791 0.12237714
000170 c9 4b 6f 3e 8b c9 86 bb 2e 94 16 3d 9c dd 36 3e
       0.23368753 -0.0041133813 0.03676241 0.17857975
000180 f3 38 a5 3b cf 3e 3e 3e 66 ea 75 3d 65 7c 08 be
       0.0050421893 0.18578647 0.060037993 -0.13328703
000190 d8 03 3c bc ec c7 36 be ef e4 1b be 8f 5a a8 3d
       -0.011475526 -0.17849702 -0.1522405 0.08220398
0001a0 ef b9 3b 3e 44 f1 6b bd 96 d4 ea bd f1 ac cf 3d
       0.18332647 -0.057603136 -0.11466329 0.10140408
0001b0 f9 78 fb b9 69 f5 1c 3e cf eb 5d 3e b5 ec f9 bd
       -0.00047964582 0.15327992 0.21671985 -0.122033514
0001c0 43 14 72 be e3 ac fb bd 02 f1 df bc 01 d4 6e be
       -0.23640542 -0.12288835 -0.027336601 -0.2332306
0001d0 16 a1 19 3d 66 5d fa bc 92 fa 90 3e 19 d3 1d 3e
       0.03750714 -0.030562114 0.2831617 0.15412559
0001e0 c3 f6 35 bd cd 02 b8 3e 4c 82 29 3d a8 2d 26 be
       -0.044424783 0.35939637 0.041384026 -0.16228354
0001f0 9f 7c 1d 3e 76 86 2d be 42 53 98 3d 01 7e aa bd
       0.1537957 -0.16945824 0.07437755 -0.083248146
000200 08 ec 02 3e da ae ab 3d 79 71 e1 3d 98 e8 73 3e
       0.12785351 0.0838296 0.11007971 0.23819196
000210 e7 40 25 3e 0e 65 92 be 97 2a 85 be 51 e7 67 3e
       0.1613804 -0.28592724 -0.26009056 0.22646834
000220 31 c5 64 3e 4c 68 fa bc 90 a3 a3 bd 70 32 fb 3d
       0.22340848 -0.03056731 -0.079901814 0.122654796
000230 0f 56 b0 bd 04 2b 8c 3d 08 d4 0b be a1 da c2 3d
       -0.086101644 0.06844142 -0.13655102 0.095143564
000240 f6 9f 22 3e 83 1d 74 be 01 20 bb bc 44 27 65 3e
       0.15881333 -0.23839383 -0.02284241 0.2237826
000250 14 53 4b 3d 68 e0 82 3d 2d 3b 61 bd 69 45 14 3e
       0.049639776 0.06390458 -0.054988075 0.14479603
000260 67 b4 47 3e 5f 06 c8 3d cc 4f 88 bc ee f1 9b 3e
       0.19502412 0.0976684 -0.016639613 0.30458015
000270 41 88 3f bd 08 e4 cf be 92 72 ff 3d 2a 2f a8 3d
       -0.0467608 -0.40603662 0.124730244 0.08212121
000280 09 c6 c2 bd e8 34 17 3e 15 77 58 3e 02 0b 11 be
       -0.095104285 0.14766276 0.21139176 -0.14164355
000290 ea 19 5a 3b 89 87 2b be 3a 70 4d bd 84 41 dc be
       0.0033279606 -0.16750921 -0.050155856 -0.43018734
0002a0 3f bf 4b 3e ea d7 2d be c9 9f 07 bd b4 87 81 bd
       0.19897173 -0.16976896 -0.033111367 -0.063247114
0002b0 4d a9 a3 3d 11 4d b9 3d 62 55 87 3e ea 0c 2f 3c
       0.07991276 0.090479024 0.2643233 0.010684231
0002c0 3b ff 1a bd d0 a2 2f 3c 8b 6f 20 be 83 28 7b 3d
       -0.037841063 0.01071997 -0.1566755 0.06131793
0002d0 70 0e d8 ba af 02 ba 3d 1e 1d f4 3c 99 bc 8a 3e
       -0.0016483795 0.09082543 0.02979904 0.27097014
0002e0 07 13 24 bd bf 96 7d 3e ad 56 f0 bb 8c e2 14 bf
       -0.04005721 0.24764536 -0.0073345513 -0.58158183
0002f0 fe 03 1c bc c1 0e 0c be bb 3d a9 3d 38 94 9c be
       -0.009522436 -0.13677503 0.08263727 -0.30581832
000300 68 91 b3 3d e2 2b 6c be f3 34 22 bd 90 c6 d1 3c
       0.087679684 -0.23063615 -0.039601278 0.025607377
000310 f1 14 36 3d 50 69 ab 3d 49 ab 2b 3c 24 00 d2 bd
       0.044453565 0.08369696 0.010477849 -0.10253933
000320 26 5a 7c bd 2f da 89 bc 79 67 2b 3d 8e 12 d7 3d
       -0.06160941 -0.01682767 0.041846726 0.10501586
000330 5d c7 44 3b b7 bb f5 3c 02 f6 90 3d 26 ae d6 3d
       0.0030026056 0.029996736 0.07078172 0.10482435
000340 19 02 9f 3b 0f 32 b8 bd 21 ab 1a be d0 fe d0 3c
       0.004852545 -0.08993923 -0.15104343 0.025512129
000350 8b ae 47 3d ee 17 07 3d 29 b5 6f be 13 16 97 3e
       0.04875044 0.032981806 -0.23408951 0.2950903
000360 47 0c 30 bd de 76 0a 3e e6 f2 1c 3d 81 f8 b2 3d
       -0.04298046 0.13521907 0.038317584 0.087388046
000370 b2 f3 0a 3e 73 56 7d be 0b 92 c4 bc 5a 09 c9 bb
       0.13569525 -0.24740009 -0.02399542 -0.006135148
000380 cc b5 ad 3d e6 af 32 bd ac 84 04 3e 51 43 1f 3d
       0.084819406 -0.04362478 0.12941235 0.038882557
000390 d4 33 6a bd b8 ed 51 be 81 c3 ed bd d9 19 37 be
       -0.057178333 -0.20500839 -0.11609555 -0.17880954
0003a0 a5 01 43 bd 53 26 32 3d 0f eb ee bd b5 ad 0b bd
       -0.04760899 0.04349358 -0.116659276 -0.034101207
0003b0 17 73 6d 3e ad 12 2d bd 87 54 20 be 7e 4c b0 3e
       0.23188435 -0.04225414 -0.15657245 0.3443336
0003c0 cf a0 b8 bc 2f e2 64 bc 5c 5a a9 3d 5b fe 18 be
       -0.022537617 -0.013969942 0.08269188 -0.14940779
0003d0 3a 9b b7 bd 2b 48 94 3d d7 52 3e 3d 98 93 f0 3d
       -0.08965154 0.072403274 0.04646572 0.11746901
0003e0 40 fb b2 bd 63 f1 0c 3e 3a a1 ce 3d 38 63 b4 bd
       -0.087393284 0.13763957 0.10089345 -0.08807987
0003f0 97 19 d3 3d 10 b4 c1 bc 8b 4b f6 bd 7a 7e 71 bc
       0.10307615 -0.02364543 -0.120261274 -0.014739627

lstm.bias_ih_l0 f4 [256]
000000 d5 19 f4 3d 55 5a b1 3d c0 38 30 3d 88 45 a4 bd
       0.119189896 0.086598076 0.04302287 -0.080210745
000010 06 3e 4e 3e 44 76 48 bc 5a c2 3e 3e e9 81 0b 3c
       0.20140848 -0.012235228 0.18628827 0.00851486
000020 e0 47 82 3e 1a 55 3d 3e e3 14 fd bd a5 80 67 3e
       0.2544546 0.18489495 -0.123574995 0.22607668
000030 89 31 0c 3d ad 8b 02 3e 91 f8 ec 3d 62 06 09 3e
       0.034226928 0.12748595 0.11570848 0.13381341
000040 80 1f 40 3e 35 ce 23 3e f6 22 45 3e aa 97 96 bc
       0.18762016 0.1599663 0.19251618 -0.018382866
000050 61 c3 a3 bd 8f 48 14 3d 06 47 df 3d a4 ed b8 3d
       -0.0799625 0.03620201 0.109022185 0.09029701
000060 95 81 14 3e d9 52 31 3e b8 59 4f 3d 74 fc 91 3d
       0.14502557 0.1731676 0.05062267 0.0712823
000070 d8 16 94 bc 52 85 7e 3e 24 49 92 3e 7c ec df bd
       -0.018077299 0.24855545 0.28571427 -0.10933778
000080 bc dc 15 bd 35 f8 03 3e 52 2c 32 3d c5 e6 e3 bd
       -0.03658746 0.12887652 0.0434993 -0.11128
000090 3e 36 20 3e 24 b4 ac bd 3a 30 16 3a 28 32 b2 bd
       0.15645692 -0.084327966 0.0005729232 -0.08700973
0000a0 2a f7 f6 3d 52 6d ee bc 06 e2 50 bd 33 9a 2b 3f
       0.120588616 -0.029104862 -0.050996803 0.67032164
0000b0 f5 8e 46 3d c3 6c 8a 3e a5 6f ce 3c 3c ea d8 3d
       0.04847618 0.27036104 0.02519972 0.10591552
0000c0 92 b5 22 bd 37 a0 8a 3d 83 28 e8 bc 00 dd 05 be
       -0.03972394 0.0676884 -0.02833963 -0.13072586
0000d0 eb bf 08 be 9e 0f 9b 3e c0 1a c3 3d e7 a4 30 3d
       -0.13354461 0.30285352 0.095265865 0.043126013
0000e0 74 04 45 3e ab 04 53 bd 5b a5 4c 3d cb 7d a1 3d
       0.1923998 -0.051518124 0.049962383 0.07885321
0000f0 33 bc c6 bc e1 d6 f2 3d 95 35 7e be 0d 28 01 3d
       -0.024259662 0.11857391 -0.24825127 0.031532336
000100 2d f8 6d bd 55 85 12 3e 35 1d 97 bd 6b ac f9 3d
       -0.058098007 0.14308675 -0.07378618 0.12191089
000110 85 9c 96 3d 71 db ab 3d a1 0e bf 3d 89 9e db 3d
       0.073540725 0.083914645 0.09328962 0.107235976
000120 33 89 bb 3d f7 f7 a8 3d 00 6e 16 be 40 8e 0e 3e
       0.09157028 0.082504205 -0.14690399 0.13921452
000130 db 42 3b 3d 65 57 8f 3d 9c 7a 04 3c 57 95 be bd
       0.045718055 0.06999091 0.008085873 -0.09305828
000140 30 d1 5c 3d 5c be 90 bc 22 2a c7 bd 7b e4 ee bd
       0.053910434 -0.017668895 -0.09724833 -0.11664673
000150 40 81 39 3d 57 15 9c 3d a0 13 e2 bd fc 8b d6 bb
       0.045289278 0.07621258 -0.110388994 -0.006547449
000160 31 26 55 3e 8b 92 f4 3d 33 5b cc 3d 14 e1 96 3c
       0.2081535 0.11942013 0.09978332 0.018417872
000170 67 6b 56 3e 14 1b bb 3d 4e 96 33 be 89 d6 88 3d
       0.20939408 0.09136024 -0.17537805 0.06681544
000180 95 aa 99 bd 60 38 1f 3c 00 b1 2f bd 04 6d ac 3c
       -0.07503239 0.009718031 -0.04289341 0.021048076
000190 c8 5c f8 3c a5 07 0c be 06 f4 30 bd 31 05 86 3b
       0.030317679 -0.13674791 -0.04320147 0.0040899743
0001a0 83 f8 c1 bd c9 2c 0c 3b 60 26 01 3e b2 36 84 be
       -0.09471228 0.0021388999 0.12612295 -0.2582298
0001b0 45 80 ed bd 52 7b 44 3e 11 af c9 3d 1e d0 cb 3d
       -0.11596731 0.19187668 0.098478444 0.099518046
0001c0 53 31 88 3d 65 67 af 3c 23 db 3b bc b2 65 b4 bd
       0.06650033 0.021411607 -0.0114658205 -0.08808459
0001d0 0f 10 ef bd 6d d6 d2 3d 69 c0 b0 3d 27 90 1b 3c
       -0.11672985 0.10294805 0.08630449 0.009494818
0001e0 c7 61 c7 3d d9 5f 0b 3e 79 49 5d be e2 87 f4 3d
       0.097354464 0.13610782 -0.21610059 0.1193998
0001f0 44 b8 e4 3c ef d2 43 3d fb 30 9f 3d 43 b4 28 3e
       0.027919896 0.047808584 0.07773014 0.16475014
000200 f7 60 ae 3c 70 2b 4a 3e cb a5 b5 bd bd 6c 5a be
       0.02128647 0.19743133 -0.08869513 -0.21330543
000210 a3 62 02 3e 45 bf fa 3d 53 7a 47 be b2 81 75 3e
       0.1273294 0.12243513 -0.19480257 0.23975256
000220 45 1a 71 3e 86 9f 05 3e b1 41 a1 bd 3d 30 21 bd
       0.23545177 0.13049135 -0.07873858 -0.039352644
000230 e9 87 50 3e 5d b3 51 ba 0b c2 34 bd 8c ac c9 3d
       0.20364346 -0.00079994445 -0.044130366 0.09847364
000240 a1 39 68 3e 63 ac 0d be 8a 96 93 3d 40 08 11 3d
       0.22678234 -0.13835292 0.072064474 0.03540826
000250 8f 04 df 3c 26 b9 2b 3e 3b d2 8e bd ec 12 b6 bd
       0.027223853 0.16769847 -0.06973692 -0.08890328
000260 d2 67 91 bd 00 d1 e7 3d e0 d6 a8 3d eb 31 ca 3d
       -0.0709988 0.113191605 0.08244109 0.09872802
000270 fe 8b 1a bd 98 80 90 be 36 27 06 3e eb a6 00 3c
       -0.037731163 -0.2822311 0.13100895 0.007852296
000280 4e ae 73 be d4 7b 32 be 62 54 13 3e a8 f1 06 3d
       -0.2379696 -0.17430049 0.14387658 0.032945305
000290 8a 4c 18 3d f4 4a 33 bb 66 98 a9 bd 1d 4c 9f 3d
       0.03718237 -0.0027357908 -0.08281021 0.07778189
0002a0 6d f2 c2 bb ea 65 b0 bd ac 6b a4 bd 8c 8d d9 3d
       -0.0059493096 -0.086131886 -0.08028349 0.10622701
0002b0 37 86 3d bb 26 ef b3 3d 5b 1d 83 3d 1c 7e 57 be
       -0.002891911 0.08785848 0.064020835 -0.210442
0002c0 ce 77 27 bc e4 0a 95 bc e9 72 ad 3c 3d 10 55 3d
       -0.010221435 -0.01819367 0.021172957 0.05201744
0002d0 2b d5 29 3e a3 48 8a 3e ed 81 80 bd 3f 50 12 be
       0.16585223 0.27008542 -0.062747814 -0.14288424
0002e0 a2 92 d4 bd 50 e7 8c 3c d4 49 3e 3e 4f 7b 8d 3d
       -0.103795305 0.017200142 0.1858285 0.06908285
0002f0 b3 21 31 be 05 ec 73 bd 9c 9f 76 bd d6 d8 0c be
       -0.17298011 -0.059551258 -0.06021081 -0.13754591
000300 5b 4b a4 3e 13 b0 13 bd 0f 25 ca bc a4 92 40 be
       0.32088742 -0.03605659 -0.024675874 -0.18805939
000310 de de 5e 3e 20 ad a1 3d f2 4c 03 3e 66 ec dd bd
       0.21764705 0.07894349 0.12822321 -0.10836105
000320 3a 97 69 3d a0 6f 0a bc 5c 60 12 3e ab 6a 13 bc
       0.057028987 -0.008449465 0.1429457 -0.0089976
000330 ca a5 37 3e 78 3d 4c bd cb 8d b0 3d ac bc c4 3d
       0.17934337 -0.04986331 0.08620795 0.09606299
000340 a0 ea c7 3d e0 48 b6 3c 14 a9 52 3e 62 ef 23 bd
       0.09761548 0.022251546 0.2057231 -0.040023215
000350 a4 20 0f 3d 9d 28 28 3d 38 80 a0 3d 22 c2 91 3d
       0.034943238 0.041054357 0.07836956 0.07117106
000360 25 62 46 3d 6f e5 92 3c ff 9c 47 3e 34 a7 db 3c
       0.04843344 0.017931668 0.19493483 0.026813127
000370 2c 94 09 3e bd f8 b2 3e 7d 8e a5 3e b0 cd 0b be
       0.1343543 0.34955397 0.32335272 -0.13652682
000380 18 ee 25 3e b2 6f 07 be 07 51 fc 3d 8c dc dd bd
       0.16204107 -0.13226202 0.12320142 -0.108330816
000390 9b f1 df 3d ab 0c 17 3e 22 dc 0b 3e 2d 04 95 3e
       0.109347545 0.14750926 0.13658193 0.29104748
0003a0 d2 0e 30 3e 45 c8 14 ba 8c 61 bd 3d d4 ce f3 3e
       0.17193154 -0.00056755944 0.09247121 0.47618735
0003b0 15 43 1a 3e 5f 27 e9 3d b0 50 41 bd 11 fa 20 3e
       0.15064652 0.113844626 -0.04719609 0.15720393
0003c0 c7 68 0d 3e 95 d8 06 3e 81 99 32 3e d9 9e 1a 3d
       0.138095 0.13168557 0.1744137 0.037749145
0003d0 d8 53 62 3e 81 5f 6c 3e 81 a4 62 3e 37 8d 9d 3e
       0.22102296 0.23083307 0.22133066 0.307718
0003e0 0e b9 2e 3e f2 c7 a9 3d d5 15 1c 3d 15 19 44 3e
       0.1706278 0.0829009 0.03810676 0.19150193
0003f0 0c b9 7f bd f2 0f 2a 3d c0 de 5e be 8c 32 94 3e
       -0.062432334 0.041519113 -0.2176466 0.28944814

lstm.bias_hh_l0 f4 [256]
000000 c5 ae 4b 3e fd 7e 98 3d 42 45 68 3d 08 81 9a 3d
       0.19890888 0.07446096 0.056706674 0.07544142
000010 0c b5 18 3e 06 6d 3c 3d b4 1e 45 3c 05 60 b7 3d
       0.14912814 0.04600241 0.012031246 0.08953861
000020 28 66 c0 3d 4b 91 5b 3e b9 2f ba 3c 65 52 3b 3e
       0.09394485 0.21442144 0.022727834 0.1829315
000030 5e 65 2d 3e 8b f6 f0 3a d7 1b f0 3d 3f cc 12 3e
       0.169332 0.0018384022 0.1172406 0.14335726
000040 7c 7c ec 3d bd c6 0b 3d 92 e5 e1 3d bf e5 9e 3d
       0.11547181 0.03412508 0.11030115 0.07758664
000050 e5 67 f1 bc 67 5e 7c 3d f0 d7 38 3d 8e 9e cb bb
       -0.029468486 0.061613467 0.04512781 -0.0062139696
000060 b3 5d 08 3e 2c 68 c6 3d d9 16 d9 bc c6 ee c2 3d
       0.13316993 0.09687838 -0.026500152 0.09518199
000070 b5 e6 dc bc 4b 66 94 3e d7 56 72 3e 87 ad ba 3d
       -0.026965478 0.28984293 0.2366594 0.09115129
000080 89 c3 ce 3d f2 a7 89 3d f6 1b 6a 3d 49 b4 64 bc
       0.10095889 0.06721486 0.057155572 -0.013958999
000090 7c 2a 6a 3e 58 2e 91 bd b2 8e e8 3c 6e ba 0c be
       0.22867769 -0.070889175 0.028388355 -0.13742992
0000a0 f8 68 f0 3c e7 30 1d bb 74 08 70 3d c5 6f 17 3f
       0.029346928 -0.0023985447 0.05860181 0.5915492
0000b0 6e 77 e8 3d 9f f6 7d 3e 1c 0a 73 3d 97 07 c8 3d
       0.113509044 0.2480111 0.059335813 0.09767073
0000c0 b6 e4 bb bd 30 ff 71 bd 0a 49 8f bd 9c 25 6f bd
       -0.091744825 -0.059081256 -0.06996353 -0.058385476
0000d0 30 d7 fb bc 5c 2f fa 3e 0e 1c 2b bd b5 78 99 3d
       -0.030742258 0.48864257 -0.041774802 0.07493726
0000e0 c8 cf 31 3e 43 fe de 3c e5 df 70 3e 76 8f c7 3d
       0.17364419 0.02722085 0.23522909 0.0974416
0000f0 2a 69 ff 3d 01 f0 d5 3d 54 af 0f be 0b 84 28 3d
       0.1247123 0.10446168 -0.14031726 0.04114155
000100 55 12 8d bd 9e 98 b8 3c ef e4 d1 bc b9 5b 1c 3e
       -0.06888262 0.022533711 -0.02562186 0.15269364
000110 c6 c2 0c bd 62 50 e8 3d d3 39 33 3d 19 e6 09 3e
       -0.034365438 0.11343457 0.043756317 0.13466682
000120 40 d6 63 3e 4e 53 86 bb 2c 7b ec bd da 41 92 3d
       0.22249699 -0.004099286 -0.11546931 0.071414664
000130 87 cd f2 ba 59 bc 45 3e 7c e1 b2 bd 8b aa 10 be
       -0.0018524387 0.1931013 -0.08734414 -0.14127557
000140 29 57 9d 3d 67 f2 bb 3b 13 0f c4 bd 4f 75 0d bc
       0.0768264 0.0057356837 -0.09573188 -0.008633926
000150 67 3f 16 bb de 46 b3 3d 93 70 82 bc 44 5f c5 3d
       -0.0022925974 0.08753751 -0.01592282 0.09637311
000160 43 e7 00 3d 07 12 93 3d f9 4c e5 3d 95 78 a6 bd
       0.03147055 0.07181173 0.11196322 -0.08128468
000170 2e f5 45 3e f4 dd 86 3d 95 e8 e9 bc 9f 34 1c 3e
       0.1933181 0.06585303 -0.028553287 0.15254448
000180 35 38 fd bd 29 00 2b be 80 98 41 3d c0 68 ff bb
       -0.12364236 -0.1669928 0.047264576 -0.0077944696
000190 2e 58 05 be 06 18 8c 3a 48 86 06 be da b1 95 bd
       -0.13021919 0.0010688312 -0.13137162 -0.07309313
0001a0 72 aa 61 bd 60 fd 50 bc 25 1a bc 3d b5 47 74 be
       -0.05509419 -0.012755722 0.09184674 -0.23855479
0001b0 49 38 ad bc b3 cf 6d 3d f0 df 55 3c 1a 9f 40 bd
       -0.021145003 0.058059406 0.013053879 -0.04702673
0001c0 38 5f 03 3d b1 1c 26 3b 7e 2c 3a 3d aa cf 5c bc
       0.03207323 0.0025346691 0.045452587 -0.013477245
0001d0 57 73 b5 bc 6d a7 6a 3d 6e 8a 16 bd ef 21 99 bc
       -0.022149725 0.057288576 -0.03675311 -0.018692939
0001e0 86 7b ac 3d 72 73 94 bd 9f 92 11 3c 15 b7 9c bc
       0.08421998 -0.07248582 0.008885055 -0.019130269
0001f0 11 78 bd 3d 4f e2 dd 3d c1 29 82 bd 79 5c e7 3d
       0.092514165 0.108341806 -0.0635562 0.11296935
000200 87 0e da bd b0 b1 f6 3d f6 c6 24 be 09 19 4d be
       -0.10647302 0.1204561 -0.16091523 -0.20029081
000210 4e 28 27 3e b3 f3 61 bd 81 72 0e be 36 3e 5d 3e
       0.16323969 -0.05516405 -0.13910867 0.21605763
000220 13 d2 bd 3d 69 d4 2c 3d 4c e8 47 bd e2 37 01 be
       0.09268584 0.042194758 -0.04880552 -0.12618974
000230 95 11 ac 3c 04 82 63 bd 95 51 e5 3d 18 39 38 3e
       0.021004478 -0.055543914 0.11197201 0.1799053
000240 27 59 73 3e 21 33 f4 bd fd 8c ab bb 2a ad dd bd
       0.23764478 -0.119238146 -0.005235313 -0.10824044
000250 d7 13 08 be c4 b5 4b 3e 06 50 c6 3d b0 59 68 bd
       -0.13288818 0.19893557 0.09683232 -0.056726158
000260 2f 81 4f bb 5e e6 61 3e 27 6f a9 3d e6 37 11 3e
       -0.0031662693 0.22060534 0.08273154 0.1418148
000270 00 01 cd bc 4b 72 05 be a2 40 0e bd 63 dd 53 3c
       -0.02502489 -0.1303188 -0.034729607 0.012931201
000280 04 2d fe bd 71 5d 61 be fa 93 11 3e c3 ab 32 bd
       -0.1241093 -0.22008301 0.14216605 -0.043620836
000290 82 b7 26 3e f9 61 f6 3d 57 47 8d bd 50 9a a4 bd
       0.1628094 0.120304056 -0.068983726 -0.08037245
0002a0 d6 a8 fb bc 5d 05 0c be 40 2e c0 bd cd 51 d3 3d
       -0.030720156 -0.13673921 -0.093838215 0.10318337
0002b0 ea 1f 21 bd 70 9f fb 3d 7a 51 50 3d 6d 6e 76 3c
       -0.039337076 0.1228627 0.050858952 0.015040976
0002c0 59 6e d8 3d 77 78 71 bd 56 7e 97 3d 83 fb ce bc
       0.10567922 -0.058952775 0.073971435 -0.025266415
0002d0 1e 6d 3c 3e bd 1f 82 3e f6 da 68 be 45 bb 05 be
       0.18401 0.2541484 -0.22739777 -0.13059719
0002e0 4f d0 42 3d 5e 5f 4b 3c ae 8c 26 3d 89 98 d0 3d
       0.04756194 0.012412874 0.040661506 0.10185344
0002f0 1e ea d7 bd 62 5e 09 bd 45 19 91 bd 00 8a a6 bb
       -0.10542701 -0.033537276 -0.07084898 -0.005082369
000300 f8 eb a5 3e 72 88 e0 3d ef a2 b2 bd fc da 19 bd
       0.32406592 0.10963525 -0.08722483 -0.037562355
000310 70 4e 4b 3e 1e ec 7c 3d a3 75 a8 3e df ba 4d bd
       0.1985414 0.061748616 0.3290225 -0.050227042
000320 ff d2 cb 3d 2d 57 e8 bc ab a0 5d 3d 94 f6 9e bd
       0.09952354 -0.028361881 0.054108303 -0.07761875
000330 7b 81 07 3e ef 1d eb 3d 28 bc 83 3d 28 ed 01 3d
       0.13232987 0.11480319 0.06432372 0.03172031
000340 b6 cb a3 3d bf e9 28 3e 60 ce 83 3e 4c fb d8 3d
       0.07997839 0.16495417 0.2574339 0.10594806
000350 1c c0 45 3b f1 f4 5e bc bf 39 57 3e 29 43 1b 3e
       0.003017432 -0.013608203 0.21018122 0.15162338
000360 1a 06 85 3d a4 0a 53 bd 2c 2d 3f 3e 4e 7e bb 3d
       0.064953044 -0.05152382 0.18669575 0.0915495
000370 fb d3 39 bd 95 56 63 3e c0 eb 83 3e 4f e9 0d bd
       -0.045368176 0.22200997 0.257658 -0.03464633
000380 b9 f4 eb 3d 37 6a 1c 3b cf 3c 14 3d c1 47 e0 bb
       0.115212865 0.002386702 0.036190804 -0.006844491
000390 c3 51 ba 3d 47 5b 04 3d 3a 4c 1a 3e 21 64 95 3e
       0.09097626 0.03231361 0.1506814 0.29177955
0003a0 8e 51 97 3d c1 c8 0b bd b0 a6 64 bd 96 4b ca 3e
       0.07388602 -0.034127 -0.055823028 0.39510792
0003b0 06 f0 07 3e af 5e 07 3d 38 26 17 be 3e 01 8f 3e
       0.13275155 0.03304928 -0.14760673 0.27930635
0003c0 37 67 a2 3d 98 3e 4e 3c 3d c8 d7 3d 96 ce 19 3e
       0.07929843 0.012588166 0.10536239 0.15020213
0003d0 01 a3 57 3d 42 91 3e 3e e2 a1 56 3d 44 c0 83 3e
       0.052645687 0.18610099 0.052400477 0.25732625
0003e0 29 e5 3d 3e 58 c6 50 bc 29 de f6 bb 23 ad 0b 3e
       0.18544449 -0.012742601 -0.007533808 0.13640265
0003f0 df b1 96 bc da 8c 00 3e 22 b2 8f bc c8 a6 67 3e
       -0.018395362 0.1255373 -0.017540995 0.22622216

lstm.weight_ih_l1 f4 [256, 64]
000000 71 7b f2 bc 4e 62 a4 bd f5 e7 bd bd eb 80 ae bd
       -0.029599877 -0.08026563 -0.09272758 -0.08520683
000010 89 9e 75 3d af 92 6e bd 08 d2 53 bd 59 b3 6b 3a
       0.059965644 -0.058245357 -0.051713973 0.00089912635
000020 f3 ee 2f 3c 8b 46 3a 3e 5c f2 56 bd b3 7e 25 bd
       0.010738122 0.18190973 -0.052477226 -0.040404033
000030 81 d9 0c be a2 ac 2d bd 53 21 05 3d 28 76 be 3c
       -0.13754846 -0.042400964 0.032502484 0.0232497
000040 83 3a 24 bc 43 7b 4f 3c f2 ae 79 bd e3 7c 36 3e
       -0.010023716 0.012663665 -0.060957856 0.17821078
000050 c9 2b 1f 3d 1c ca 12 3e c7 d0 b7 3d 9e 3f 0f 3e
       0.038860116 0.14334911 0.08975368 0.13989112
000060 7c cb db 3c db db 0f 3d 82 bb 2a be 48 0a 04 3c
       0.026830427 0.03512178 -0.16673091 0.008059092
000070 3a 50 1a be d6 98 b3 bd f7 54 e0 3d 46 19 e9 bd
       -0.15069667 -0.087693855 0.10953706 -0.11381774
000080 83 1b 00 be a9 d3 74 3d 67 56 97 bd ac 77 8a 3d
       -0.12510495 0.059772167 -0.07389527 0.06761107
000090 de e4 15 3d 52 f4 de bd 50 a5 d3 bd af d5 7b bc
       0.036595218 -0.10886444 -0.10334265 -0.01537077
0000a0 2d 46 97 3c b5 dd 2c be c1 52 b6 3d 53 3e 83 be
       0.01846608 -0.1688145 0.08902503 -0.25633487
0000b0 b5 e0 63 3d aa f0 85 3d 1b e7 cd 3d ac 4c 80 3d
       0.05563422 0.06540044 0.100538455 0.06264624
0000c0 f9 04 8c 3d e8 f3 0e be c2 2b 93 bc c0 5b e4 3d
       0.06836886 -0.1396023 -0.017965201 0.111503124
0000d0 14 7d c7 bc 72 47 cf 3d 64 8d 8f bd 36 0f a3 3d
       -0.024351634 0.10121049 -0.0700939 0.07961886
0000e0 46 a0 7f 3d f3 10 4f bc 2f cf 03 be f6 e8 4a 3d
       0.062408708 -0.012638318 -0.12872003 0.049538575
0000f0 3e 0b bd bd c0 cc 67 bd cd 2e 8d be 0b 24 1b be
       -0.0923066 -0.05659175 -0.2757477 -0.15150468
000100 a8 59 0a be bf d2 7b 3b 52 37 54 3d 9a b0 2f bd
       -0.13510764 0.0038425175 0.05181057 -0.04289303
000110 62 bf dd bc eb 43 17 bd f8 3a c1 bc 61 de 89 bd
       -0.027068797 -0.036930006 -0.023587689 -0.067318685
000120 69 37 54 3c 3c f0 25 3e b6 69 27 3e f7 49 75 3d
       0.012952664 0.16204923 0.1634892 0.05988499
000130 f8 f2 ea 3d 7d 8e c0 bd 7f 54 b5 bc b9 20 a4 3e
       0.11472124 -0.094021775 -0.022135017 0.32056215
000140 34 91 91 bd 35 96 cf 3d f0 74 a0 3d 0f ad 9b bc
       -0.071077734 0.101360716 0.07834804 -0.01900342
000150 ec 61 31 bd c7 08 e4 3d b1 db b2 3d 5f fa 23 3e
       -0.043306276 0.11134487 0.08733309 0.16013478
000160 45 42 19 3e 49 dd c9 3d a9 1f 82 be 4e b8 b6 bd
       0.14966686 0.0985666 -0.2541478 -0.08921872
000170 db 80 00 3e eb b7 f4 bc f7 32 0c 3d b4 2b b4 bb
       0.12549154 -0.029872855 0.03422829 -0.005498374
000180 cb 1e 5b be 81 9c 18 3e 49 69 3b bd ce 31 8f 3d
       -0.21398465 0.14903452 -0.045754705 0.06991921
000190 ff 96 bc 3c b5 da ed 3d d8 07 b2 3d ec 45 81 3e
       0.02302122 0.11613981 0.08692902 0.2524866
0001a0 0a 2a f1 bd cc db ed bd 69 93 78 3d 68 bd f7 bd
       -0.117755964 -0.116141886 0.060687456 -0.12096673
0001b0 e5 d1 ed bc 3a 61 bb 3d a3 a0 0b 3c e1 d3 98 bc
       -0.02903075 0.09149404 0.0085221855 -0.01865572
0001c0 49 bf 5f bb f5 9a bc bd 2d 6f 6b 3e fb 44 88 bd
       -0.0034141114 -0.09209243 0.22991629 -0.06653782
0001d0 d7 04 f3 3d f5 04 89 bc 9e d2 3c bd de a6 04 3e
       0.118661575 -0.016725997 -0.046099298 0.1295428
0001e0 cd 08 19 be fd 21 f7 3c 4d aa a3 bd 24 18 3d be
       -0.14944763 0.030167574 -0.07991467 -0.1846624
0001f0 cf 5b e4 bc 0f e1 48 3d e7 c0 01 bd 05 3c 0a be
       -0.027875809 0.049042758 -0.031678107 -0.13499458
000200 73 f0 2c 3d 0d 32 84 be 85 96 27 3c cd 40 1d be
       0.042221498 -0.25819436 0.010228758 -0.15356751
000210 09 9f 0c 3e b0 a1 f7 3d e2 ef a6 3a fa 8f 2d 3d
       0.13732542 0.12091386 0.0012736286 0.042373635
000220 27 69 04 3d d4 d5 14 3f 31 20 61 3c d1 a3 b3 3d
       0.032326844 0.58138776 0.013740585 0.0877148
000230 61 05 4b be c2 7a fe bc e1 10 2b be e8 34 5e 3f
       -0.1982627 -0.031064395 -0.16705658 0.8679948
000240 49 08 0f 3e d7 16 49 3c 16 d0 22 bd 97 a6 dd 3d
       0.13968004 0.012273512 -0.039749227 0.1082279
000250 16 cd fa 3a a2 5b ad 3c 67 2b 0c bd e3 7e 1c 3e
       0.0019134607 0.021161858 -0.03422108 0.15282778
000260 e4 70 09 3e af c0 39 3e 98 e7 7c be 31 18 05 be
       0.1342197 0.18139909 -0.24697721 -0.1299751
000270 dc ce 00 3d 66 8d f0 3d 0b 1a fc 3c 46 a6 f7 bc
       0.031447276 0.117457196 0.030774137 -0.030230653
000280 68 de 3c be 9e 9b 61 bd a8 f2 c9 bd 1e 8a f5 bc
       -0.18444216 -0.05508005 -0.09860736 -0.029973086
000290 d5 98 e0 bd c7 a4 9a be 87 19 79 bd 20 c9 71 be
       -0.109666504 -0.3020384 -0.06081536 -0.2361188
0002a0 15 2f 39 3d 14 c7 8c 3d 1e 6b 32 bc 6c 22 1b 3e
       0.045210917 0.06873909 -0.010889797 0.1514985
0002b0 0d e2 b0 3e dd 46 98 bb df 8a 11 bd 48 e7 0d be
       0.34547463 -0.0046471194 -0.03553283 -0.13857758
0002c0 80 81 14 3d 7e b8 32 be 62 c4 7f 3c 04 d7 1d be
       0.036256313 -0.1745319 0.015610786 -0.15414053
0002d0 80 21 f5 bd 3b 68 cc 3d a8 22 95 bc 04 3e 01 3e
       -0.1196928 0.09980818 -0.018205002 0.12621313
0002e0 b6 9f c4 bd fe a3 90 3b f4 cd e4 bc 21 34 8f be
       -0.09600775 0.0044140806 -0.027930237 -0.2796946
0002f0 07 2d ef 3d 55 91 fa 3d 19 fe 86 be c5 ad 0b be
       0.1167851 0.12234751 -0.26365736 -0.13640507
000300 e6 5a 34 3e 4e 61 9f 3d 3f 90 1b be e2 c3 3c bd
       0.176128 0.07782231 -0.15191744 -0.046085246
000310 a5 b2 77 3e e7 b2 41 3d 2d c6 ae 3d 0a f8 94 3d
       0.24189241 0.047289755 0.08533893 0.07273872
000320 85 27 78 bd d1 d4 13 3e 48 68 a1 be 08 27 cf bd
       -0.060584564 0.14436652 -0.31524873 -0.101148665
000330 40 9c 08 3e b4 07 95 bb e9 db 31 3b a7 3d ed 3d
       0.13340855 -0.0045480374 0.0027139133 0.11584025
000340 50 ad 4c 3d 18 59 1c 3c 17 3a a1 bc 85 bf 58 3c
       0.04996997 0.009542726 -0.01968102 0.013229256
000350 cf ce 2a be fe 51 e5 3d af d5 28 be 5e f4 3e 3b
       -0.16680454 0.111972794 -0.16487764 0.0029137353
000360 99 3c 53 3e 8d 89 f9 3b 1c 48 4a 3e 9d 8d 45 be
       0.20628585 0.0076152743 0.1975407 -0.19292302
000370 d3 9b 1f 3d 5f 1a b8 be 8d f6 a6 3d c8 3a 89 3d
       0.038966965 -0.3595762 0.081524946 0.06700665
000380 40 7d 98 bc 3a 02 36 be 9a 11 02 be fa 5f 1e bd
       -0.018614411 -0.17774287 -0.12702027 -0.03866575
000390 84 67 66 bd 5d 6f 90 bd ce d8 fd 3c 3f 77 09 be
       -0.056251064 -0.07052491 0.03098717 -0.13424395
0003a0 60 00 c3 3c 4b 31 22 3e a2 b6 3a be 03 ac 00 bf
       0.02380389 0.15839116 -0.18233731 -0.5026247
0003b0 40 63 e4 bd c0 48 6d 3d 95 a5 07 3e eb 77 c6 3d
       -0.11151743 0.057930708 0.13246758 0.09690841
0003c0 6e 78 2f be b3 55 3b be b2 75 59 bc 15 27 3a be
       -0.17135784 -0.1829441 -0.01327269 -0.18178971
0003d0 62 4c 02 be 04 bc 30 3d 6c e7 96 bd 64 91 56 be
       -0.1272445 0.043148056 -0.07368359 -0.209539
0003e0 16 66 68 bd aa 36 01 3c b2 44 81 bb db 45 66 3c
       -0.05673798 0.007886568 -0.0039449567 0.014054741
0003f0 b9 6d 24 bd 4a cd 9a 3d b8 14 02 be 4a 37 d7 bd
       -0.040143702 0.07558687 -0.12703216 -0.105085924

lstm.weight_hh_l1 f4 [256, 64]
000000 6f 4e 7b 3d a0 ea f9 bc ff 09 e2 3d 52 c7 00 3e
       0.061354097 -0.030507386 0.11037063 0.12576035
000010 1f cb 5a 3d 69 b5 cc 3c 45 47 0b bd 7f 45 4c be
       0.053416368 0.024988847 -0.034003515 -0.19948386
000020 5a c9 8e bd 85 a5 5f bb 5c c6 8e bd 8a 66 1c be
       -0.069719985 -0.0034125757 -0.06971428 -0.1527349
000030 36 db a5 bd 54 db 9e 3d 95 40 3c 3d 24 05 ee be
       -0.08098452 0.07756677 0.045960028 -0.46488297
000040 3b c3 bf 3d ed 67 16 bd 17 50 f8 bc e8 1b 3a be
       0.09363409 -0.036720205 -0.030311627 -0.18174708
000050 70 66 94 bd 35 00 3c 3e db c7 8a ba b9 28 ef 3c
       -0.07246101 0.18359454 -0.0010588126 0.029194223
000060 e5 d7 b1 bd fa 6c bd 3d cf 8e 2e bd b9 0f 61 3d
       -0.08683757 0.09249301 -0.04261666 0.054946635
000070 22 17 35 bd 16 89 c3 bd ef d6 d4 3d 95 0a a2 bd
       -0.044211514 -0.095476314 0.10392558 -0.079121746
000080 7a 25 55 bc 54 7b 68 bd 07 0f 35 be f4 a4 87 be
       -0.013009423 -0.05675824 -0.17681514 -0.26493037
000090 ff 69 e9 3c 66 f6 07 bd 16 78 af 3d 53 eb 3c 3e
       0.028492926 -0.03319397 0.085678264 0.18449144
0000a0 50 f9 40 3c 21 2f ad 3d a8 4f 9a bc 29 93 0c 3d
       0.011778191 0.08456255 -0.018836811 0.03432003
0000b0 f8 61 af 3d fb c2 33 be 3f 69 44 3d bc 25 ff 3d
       0.08563608 -0.17554848 0.047951933 0.12458369
0000c0 b6 d4 67 3c 39 f7 94 bd 92 0c b0 3d ef 47 05 3d
       0.014149835 -0.072737165 0.085961476 0.032539304
0000d0 89 7b 0c bd 2e 48 98 3c 8c b4 c1 3d 55 9e 51 3d
       -0.0342975 0.018589105 0.09458265 0.051176388
0000e0 8d 7b 8c bc 8d 20 29 3d 7e a4 27 3d 82 a5 18 3d
       -0.017148757 0.04129081 0.040928356 0.037267216
0000f0 a0 5d ac 3d 39 a9 f9 bc 70 a6 4d be fa 2a 90 3d
       0.08416295 -0.0304762 -0.20083022 0.07039447
000100 ef f2 3c be 7a 6e 73 3d 83 fb 35 3e 7b c1 83 bd
       -0.18452047 0.05943153 0.17771725 -0.06433388
000110 6b e9 87 be af cf 86 3d de 8b b0 bc b4 43 c7 bd
       -0.2654527 0.06582581 -0.021551069 -0.0972971
000120 ba 3a 96 bd a8 72 92 bd 77 0a 6d 3c dc 77 21 bd
       -0.0733542 -0.07150775 0.014467827 -0.039420947
000130 dd 54 99 bd 55 21 1b be 9b 4d 9e 3e 4f 60 15 3e
       -0.074868895 -0.15149434 0.30918583 0.1458752
000140 fa 0d 03 3e 2c 75 24 be b1 43 71 3d 28 50 03 be
       0.127983 -0.16060323 0.058902446 -0.12823546
000150 05 fe 42 bd 48 d0 1b bd 96 2c ba bd 37 e0 c5 bd
       -0.047605533 -0.03804043 -0.09090535 -0.09661906
000160 20 bc 58 be a2 f2 f2 bd d6 96 66 be bf 47 3c be
       -0.21165514 -0.11862685 -0.22518477 -0.18386744
000170 d6 12 fe bc 56 bf 02 bd 8c b7 a5 bb 35 b6 e2 3c
       -0.031014841 -0.031920753 -0.005057281 0.027674774
000180 ba e2 2f 3d f7 bb 0b 3c f5 1e 86 3c a1 44 41 bd
       0.042940833 0.008528701 0.016372183 -0.04718459
000190 92 3b f0 3c 14 92 05 be dc 96 e6 bc 23 f6 13 bc
       0.02932528 -0.13044006 -0.028148107 -0.009030852
0001a0 01 8e 74 bd e8 fd 46 bd c8 70 8d bc 62 e6 d8 3d
       -0.059705738 -0.048581988 -0.017265692 0.10590817
0001b0 ed 2e 12 3d 2a e8 19 be 30 80 bf 3d 30 04 39 3e
       0.035689283 -0.1502997 0.09350622 0.18068004
0001c0 8c cd 1c be bb d5 22 3e f0 e4 35 3e ef 98 5f 3d
       -0.15312785 0.15901844 0.17763114 0.05458921
0001d0 5f 47 d4 bd fa c3 03 3e fd 0a b9 3d 94 7e e6 bd
       -0.103651755 0.12867728 0.09035299 -0.112546116
0001e0 68 45 96 3c ae 3e 80 bd ef fa 92 3d 4e 6d 15 be
       0.018343642 -0.06261955 0.07176768 -0.14592478
0001f0 d2 9e c2 3c 63 70 17 3e 1b 84 7f 3d 53 33 bf bd
       0.023757372 0.14788966 0.062381845 -0.09335961
000200 6c 20 35 be 45 ec 7f bb 47 ef 48 3e a9 fd b4 3e
       -0.17688149 -0.003905074 0.19622527 0.35349777
000210 12 ee 5e be 8e d7 8d 3e e8 b1 a3 bd 24 8a 26 be
       -0.21770504 0.27703518 -0.07992917 -0.16263634
000220 97 9a a2 be 5e 41 3c 3e 64 32 48 3c cd 59 53 be
       -0.31758568 0.1838431 0.012219045 -0.20639725
000230 4e 0f 18 3e 62 86 0c 3d b1 b1 38 3d 23 63 2c 3e
       0.14849588 0.034307845 0.045091335 0.16834693
000240 7f a3 a0 3e c7 1f 21 be db 6f 15 3d 12 96 09 bf
       0.31374738 -0.15734778 0.036483627 -0.53744614
000250 88 cd 29 be ab 14 91 3e 37 a3 0c bd 84 5e 09 3e
       -0.1658231 0.2833608 -0.03433534 0.13414961
000260 70 16 9c be be 02 5b be ff 09 4f 3d 72 ef 89 bd
       -0.30485868 -0.21387765 0.050546642 -0.06735124
000270 07 fd 18 be c2 3c 1a 3c ff 0e 6c 3e c9 0d 53 be
       -0.14940272 0.0094139 0.23052596 -0.20610727
000280 07 78 ce bd 56 dd ac 3d a8 50 24 be 13 be 5e bd
       -0.10081487 0.08440654 -0.16046393 -0.054380488
000290 e1 74 00 be 71 3f b5 be 85 fb d7 bd 97 39 51 be
       -0.12544586 -0.35399964 -0.105460204 -0.20432125
0002a0 0c e3 25 3d 08 66 2b 3c 00 22 a2 3d d6 58 ee 3d
       0.040499732 0.010461338 0.07916641 0.11638038
0002b0 1a cd a9 3e 04 92 5e bc 34 7d 02 3e f3 0a 99 3e
       0.33164293 -0.0135846175 0.12743074 0.29891166
0002c0 e5 6e aa be b7 af 54 3e 83 7c ff 3c 5b c7 a0 3e
       -0.3328773 0.20770155 0.031187302 0.31402096
0002d0 a9 09 a3 be 3c 51 03 3b bb a6 9a 3e c3 ba 1f be
       -0.31843308 0.0020037433 0.3020533 -0.15598588
0002e0 b9 10 92 bd c5 7a 09 3d 18 f1 01 be c4 27 63 be
       -0.07132096 0.033564348 -0.12689626 -0.22183138
0002f0 4e 06 39 3e 56 de b6 3b f6 85 f4 ba 41 93 26 be
       0.18068811 0.0055807037 -0.0018655646 -0.1626711
000300 a8 47 18 3e d2 74 4a 3e e8 c5 a0 3a b5 84 2b be
       0.14871085 0.19771126 0.0012266012 -0.16749842
000310 fb 9c 7f bd d2 1d b9 3d 3d 9c 1a be c9 f6 22 bd
       -0.062405568 0.09038891 -0.15098663 -0.039786134
000320 14 b6 a7 3c 6e 90 7a bc 14 bd 1d ba 0e 91 ca bd
       0.020472564 -0.015293224 -0.00060172495 -0.09890948
000330 79 a6 11 3e c4 a7 a0 3b b8 89 95 bd ee 14 72 be
       0.1422366 0.0049028117 -0.073016584 -0.23640797
000340 7d 6b 18 be 5e 29 1b be 9a 67 b2 bd 5b 73 4c be
       -0.14884754 -0.15152499 -0.08711167 -0.1996588
000350 7b 05 8b 3e 0c ee 28 be 34 e8 86 3d ec fc 90 3c
       0.2715262 -0.16497058 0.06587258 0.017698728
000360 b3 e2 94 3d c3 9b ad bd aa b6 9e bd 52 25 b5 3d
       0.07269802 -0.08476975 -0.07749684 0.08845009
000370 44 95 b5 bc b9 be 0b be 5a 11 2d 3c ff 09 a5 3d
       -0.022165902 -0.13646974 0.010563219 0.08058547
000380 d6 b1 d9 bc 62 4b f2 bd b9 db 60 3d 6c d8 c0 3d
       -0.026574057 -0.118307844 0.054897044 0.09416279
000390 c4 95 18 bd 58 21 16 3c bc 4b 89 bd de 17 88 3e
       -0.037252203 0.009163223 -0.06703898 0.2658071
0003a0 8e 96 ae 3d ae 8e 47 be 9e c0 8e 3d a9 94 f8 3c
       0.0852481 -0.19488022 0.069703326 0.030344324
0003b0 5e 64 d6 3d 58 c3 1e 3d 74 fc 16 3e bc 97 c7 3d
       0.10468362 0.038760513 0.1474474 0.09745738
0003c0 bc 9b bb bd 52 4a f8 bd 20 16 ee bd 97 a2 cc 3c
       -0.09160563 -0.121235505 -0.11625314 0.024979873
0003d0 02 ca 96 3e 37 b4 cd 3d cb cc 99 bb 50 bd dc 3b
       0.29450995 0.10044139 -0.0046936027 0.006736435
0003e0 32 43 44 be e2 29 34 be 79 98 6a 3d 7b 42 85 bb
       -0.19166258 -0.17594102 0.057274316 -0.004066763
0003f0 f3 82 8d bd 69 f1 6e be 7e dd 37 be ab 35 40 3d
       -0.06909742 -0.23334278 -0.17955586 0.04692618

lstm.bias_ih_l1 f4 [256]
000000 c7 e4 82 bd 4e 65 00 bd 10 13 e4 bd e7 6c 80 3d
       -0.06391292 -0.03134661 -0.111364484 0.062707715
000010 77 9e d2 bc a7 d6 3c 3d 90 06 d2 3d 40 7b 20 bc
       -0.025710328 0.046103146 0.10255158 -0.00979501
000020 a0 d1 cf 3c 15 08 d3 bd de c4 56 bd 91 9d 96 bd
       0.025368512 -0.10304276 -0.05243384 -0.07354272
000030 9f 5c af bd 19 57 a0 bd 9e 3d ef 3d 33 3f c9 bd
       -0.08562588 -0.078291126 0.116816744 -0.098265074
000040 e6 a1 93 bc 18 c9 4c bd 8c 2a ce bc f3 fa 8a 3d
       -0.018021535 -0.049996465 -0.025166772 0.06786146
000050 8a d4 7a 3d d7 a0 39 ba c6 ce 30 bd 0e c8 92 bd
       0.06123785 -0.0007081157 -0.043165945 -0.07167064
000060 c2 1e 13 3c fe 9f 55 bd 8a 79 4e 3e d2 d3 10 3e
       0.008979501 -0.052154534 0.20163551 0.14143303
000070 6d b9 3b bd 0a f8 77 bc 5c 5e ab bd 0e eb 3d 3d
       -0.045831133 -0.015134821 -0.08367607 0.046366744
000080 ee df 23 3d 6e 9f a6 3b ce a0 84 3d 40 7c 0b 3d
       0.040008478 0.0050849235 0.064759836 0.03405404
000090 0d a0 41 3d 0d f2 fe 3b 55 de 4f 3d 79 61 c7 3c
       0.047271777 0.0077803195 0.05074914 0.02433847
0000a0 d7 b0 f3 bc 12 7c 0c 3d 61 be 52 3c e0 ba 87 bd
       -0.02974741 0.03429801 0.012862773 -0.066274405
0000b0 f7 ff c9 3d 02 2d d1 bd e3 c7 be bb 22 63 a9 3d
       0.098632745 -0.10213663 -0.005822168 0.08270861
0000c0 4b 38 d1 3c 91 72 5f bd 9e fb ed bc 18 b0 d1 3d
       0.025539538 -0.05455262 -0.029050644 0.10238665
0000d0 0f a2 44 3d b3 36 e0 bd db 9c a1 3d 2a c2 41 3d
       0.048006114 -0.10947933 0.07891246 0.04730431
0000e0 df b3 55 3e 01 48 c2 bc 9b 21 90 3d 5f f9 a0 bb
       0.20869397 -0.023715975 0.0703766 -0.00491254
0000f0 47 18 2e 3e 3c 40 8c 3d 38 ea 8f 3e 18 da 39 3d
       0.17001449 0.06848189 0.28108382 0.045374006
000100 65 2c 99 bd 6d d8 ae 3c 31 99 90 3d 7e d7 3d bd
       -0.07479171 0.021343434 0.07060469 -0.046348087
000110 5f 87 d0 bd 75 57 81 3d 88 da ea 3b 90 da e4 3d
       -0.1018207 0.06315509 0.0071671642 0.111745
000120 50 cb e3 bc f3 a4 b3 3d 73 18 92 3d 9a 0a 84 bd
       -0.027806908 0.08771696 0.071335696 -0.064473346
000130 05 70 87 3d d0 2d 65 bc ef 30 da 3d e2 b2 d0 3d
       0.06613163 -0.013987973 0.106538646 0.10190369
000140 63 4b 17 3d b1 cd 0a 3e 7c e9 33 3d f2 44 8c bd
       0.03693713 0.13555028 0.04392384 -0.06849088
000150 95 5b 26 3d 33 85 f4 3d 3f 17 05 3e c5 25 38 3d
       0.040614683 0.11939468 0.12997149 0.044957895
000160 5a 51 10 3e 4c 82 02 3e 0d a1 1b bd 26 55 8e 3b
       0.14093533 0.12745017 -0.037995387 0.0043436466
000170 3e bc fb 3d 09 f4 dd 3d de 33 b2 3c f5 f6 66 3d
       0.12291764 0.10837562 0.021753248 0.05638786
000180 a7 9e 06 3e 98 cd d4 3d 90 4f 15 3e a4 30 9d 3c
       0.13146459 0.103907764 0.14581132 0.019188233
000190 b4 2a 53 3b 93 3b e0 bc bc 0f f3 3d d5 c8 27 bd
       0.0032221498 -0.027372157 0.118682355 -0.040963013
0001a0 39 c6 f3 3c 94 78 36 3d b0 87 cd bd e7 a3 63 bd
       0.029757606 0.044548586 -0.10035646 -0.05557623
0001b0 6e f3 ea bb 6d 34 8d bd 0a 48 b1 ba e1 6a 7b 3d
       -0.0071701324 -0.06894765 -0.0013525498 0.061381225
0001c0 00 a9 13 3d 98 98 e9 3c 94 c3 c4 bd 54 05 ef 3d
       0.036049843 0.028515145 -0.09607616 0.11670938
0001d0 e0 6e 98 3d 9e 9c a4 bc 77 fd 82 bd a5 ff df bd
       0.07443023 -0.020094212 -0.06396001 -0.10937432
0001e0 6a 27 dc bc 82 68 98 3d a8 a1 63 bd 11 9d d2 bc
       -0.026874263 0.07441808 -0.05557409 -0.02570966
0001f0 e7 04 c3 3c 6a 9b 51 3d 1e 1f af bb 46 3c ac 3d
       0.023806049 0.051173605 -0.0053442856 0.08409934
000200 59 3f ef 3c 95 1c 86 bd 2f 72 48 bc 7b 65 75 3d
       0.029205011 -0.0654842 -0.012234255 0.059911232
000210 70 8d 3c 3d 49 f7 89 ba c6 d0 ce bd 24 ac 93 bd
       0.046033323 -0.0010525967 -0.10098414 -0.072105676
000220 6c 66 8d bd d9 48 6a 3d 5e c0 19 bd d1 df f5 3d
       -0.06904301 0.05719838 -0.03753697 0.1200558
000230 75 bf e8 bd 60 84 90 3d d5 9d b1 bd 85 81 51 3c
       -0.113646425 0.070564985 -0.08672682 0.0127872275
000240 4d 47 b3 bd 56 0e 33 bb e9 5c 07 bd a4 15 aa bc
       -0.08753834 -0.0027321777 -0.03304759 -0.020762272
000250 d6 0f 8f 3d 4e c4 25 3d b0 be 14 3d ac 25 2c bd
       0.06985442 0.040470414 0.036314666 -0.042028114
000260 d9 bb 7d 3d b1 e2 d7 3d 5a 3c dd 3d 76 32 65 3d
       0.061946724 0.10541285 0.10802527 0.055956326
000270 79 e3 82 bd 26 7b f1 3d c7 63 08 3e 39 20 c3 bd
       -0.06391043 0.11791067 0.13319312 -0.0952763
000280 2e 11 88 3c bf 79 02 be d2 c9 92 bd 0f b5 0d 3e
       0.016609754 -0.12741755 -0.071674004 0.138386
000290 84 38 b9 bd a8 86 12 3c a8 e3 87 3d ae b0 da ba
       -0.090439826 0.008943237 0.06635219 -0.0016684735
0002a0 64 5b dd 3c 7b ee 14 be 61 2a 39 3d c1 cf e1 3c
       0.027021118 -0.14544098 0.04520643 0.027564885
0002b0 05 21 07 be 5f 4a bc bd 90 45 af bb c8 a1 e1 bc
       -0.1319619 -0.09193873 -0.0053488687 -0.027542964
0002c0 94 a8 3f 3d 26 7b 10 3d eb 05 14 be f9 01 02 bd
       0.046791628 0.035273694 -0.14455383 -0.031740163
0002d0 12 6e 0d 3e 86 cd 10 3c 22 38 9b bd c8 bb 68 3d
       0.1381152 0.008838063 -0.07579066 0.056819707
0002e0 94 77 ae 3d 6c 86 33 bc 84 02 82 bc 27 62 e7 bc
       0.085189015 -0.010957342 -0.01587034 -0.028245045
0002f0 b2 28 b8 3d 4f 49 37 bd 3f d5 93 3d 69 0f a0 bd
       0.08992137 -0.044747647 0.07218408 -0.07815439
000300 b9 b2 29 3e 6b 1b 36 3d 23 6f 8b 3d 95 d4 ae bc
       0.16572084 0.04445974 0.06808307 -0.021341601
000310 7a b5 02 3e 7e d3 e2 bc 07 ab 32 bd 5c d3 9c bd
       0.1276454 -0.027688738 -0.043620136 -0.07657501
000320 25 87 dd bc 36 57 1f 3e fb 26 4b 3b 5a 39 d0 3d
       -0.027041981 0.15560612 0.0030998576 0.10167189
000330 c7 10 21 be a6 7f 66 3e 2d 7e 21 3d 9b b2 21 bd
       -0.15729056 0.22509632 0.03942697 -0.039476972
000340 06 67 8d 3d 10 93 ed 3d 1a 86 9b 3d bc 53 8d 3d
       0.06904416 0.116003156 0.07593937 0.06900737
000350 d1 98 e4 3d c3 d6 a0 3d f8 d8 30 39 3f f4 33 3e
       0.1116196 0.078534625 0.00016865495 0.17573641
000360 6e d9 d6 3b ea 92 25 3e f3 45 1e 3e f6 71 28 3e
       0.0065566814 0.16169325 0.15456371 0.16449723
000370 38 58 b0 3d 0d 04 5e bd 1f 44 29 3e 5d 16 2f 3d
       0.086105764 -0.054203082 0.16529892 0.042745937
000380 bb 0f 86 3d 2c fd f0 3d 24 45 fa 3d 23 d1 da 3b
       0.06545969 0.11767039 0.12220219 0.006677763
000390 34 c9 cb 3d a5 ae ed 3d bf c7 5d 3e 8e d7 c3 bc
       0.09950486 0.116055764 0.21658228 -0.023906495
0003a0 0a 54 ac 3d 74 bc 17 3e 3f 76 3d bd b0 83 82 3d
       0.08414467 0.14817983 -0.046255346 0.06372774
0003b0 7b 48 9b bd 9c 25 3d 3c ee 63 82 bd 08 02 99 3d
       -0.07582184 0.011544611 -0.06366716 0.074710906
0003c0 77 e1 27 3c 87 60 73 3e 7d 75 35 3e e3 57 36 3e
       0.010246626 0.23767291 0.177206 0.17806964
0003d0 62 44 e9 bd 26 5e 44 3c 0c 06 a7 bd e4 01 03 3d
       -0.11389996 0.011985337 -0.0815545 0.031984225
0003e0 b4 a2 e1 3d 5a e4 69 3d 82 8a 0b be 27 d7 33 3d
       0.11017361 0.05710254 -0.13627055 0.043906357
0003f0 3e 2e b8 bc 41 99 6e bb 3a f8 d3 3d bf c1 45 bc
       -0.022482987 -0.0036407264 0.1035008 -0.012070118
