LogAnomaly/result/deeplog/deeplog_epoch320.pth (torch_old, 646239 bytes, 30 tensors)

lstm.weight_ih_l0 f4 [256, 1]
000000 6c cb 52 be e2 e2 5f bc 92 d4 83 bd 46 4b b5 3d
       -0.20585412 -0.013664933 -0.06437029 0.08852248
000010 72 ce 0b be 32 57 45 3d 00 26 d6 bd 25 01 97 3d
       -0.13652971 0.04817886 -0.10456467 0.07373265
000020 f7 dd 3c 3e 7e 4b ad 3d 2a c0 2b 3e 23 5f ae bd
       0.18444048 0.084616646 0.16772524 -0.0851424
000030 1e 62 c8 3d b3 01 0d 3e 74 7f a6 bd 53 1b 87 3e
       0.09784339 0.1377018 -0.081297785 0.26388034
000040 08 e7 ac 3d 2d 16 65 3d d6 c1 1b be 92 9a 1f 3e
       0.08442503 0.05592935 -0.15210661 0.15586308
000050 43 a5 2b 3e ff c6 9e 3d 40 dd 8c 3d 38 93 77 bd
       0.16762261 0.07752799 0.068781376 -0.060443133
000060 07 ab 57 3e 63 8f 8e bd 0e 20 aa bc 05 0e 96 3d
       0.21061336 -0.069609426 -0.020767238 0.07326893
000070 68 ef 9e 3d ef 61 07 be 83 ac 06 3e 26 26 84 3c
       0.07760507 -0.13220952 0.13151745 0.016131472
000080 ee e8 f5 3d e5 5a d6 3d d0 ca b3 3c 1c a0 3a 3d
       0.120073184 0.104665555 0.021947294 0.04556285
000090 0c f5 5d 3e d1 6e 49 3c b0 d5 0f 3e 28 31 11 be
       0.21675509 0.012294487 0.14046359 -0.14178908
0000a0 fb a2 39 3b 61 e6 0d be ea d0 05 3e 64 ec d1 3e
       0.0028325904 -0.13857414 0.13067976 0.41000664
0000b0 5c 51 0a be d9 28 e6 3d 90 29 16 3e d1 22 52 be
       -0.13507599 0.1123826 0.14664292 -0.20521094
0000c0 5c af 4b 3e bc 26 25 3e 24 2b bf 3e 69 2a aa 3d
       0.19891113 0.16128057 0.373376 0.0830887
0000d0 1c d2 5f 3d ac 46 ad 3e d5 d3 ec 3d 6c 17 7c bd
       0.054643735 0.3384298 0.11563841 -0.061545774
0000e0 8d 80 36 be 08 e6 e5 3c dd eb e2 3d 52 b6 2b 3d
       -0.17822476 0.028063789 0.110801436 0.04192192
0000f0 ba 22 31 3d 9f 06 21 3e fa f1 d0 3d 1a e4 1d be
       0.04324601 0.15725182 0.10202403 -0.15419045
000100 69 4d 84 bd 41 36 2e 3d bf 57 00 3e f2 70 3d bd
       -0.06460077 0.04253221 0.12533472 -0.04625029
000110 35 0e bb bd 8c 74 74 3d f4 6e c8 3d c0 62 6f 3d
       -0.09133569 0.05968146 0.09786788 0.058443785
000120 ba 94 20 bd 05 79 98 3e fd 86 2f 3e eb a6 0a be
       -0.039204337 0.2977983 0.17141338 -0.13540237
000130 2d f9 2a bc 1d 16 b8 3d ed ca 2f 3e 1c 49 88 3e
       -0.010435385 0.08988593 0.17167254 0.26618278
000140 9d d4 0a 3d 63 ec 0e 3e 84 17 f8 bd 64 54 1e 3d
       0.03389417 0.13957362 -0.1211386 0.0386547
000150 94 68 ba 3b 43 aa 6f 3e 78 e6 10 3e b7 2f 60 bd
       0.005688736 0.23404793 0.14150417 -0.054733004
000160 bd 5a a1 3c f7 e6 9c 3d da ad 34 bf a2 5b a5 3d
       0.019696588 0.076612405 -0.70577776 0.08074118
000170 88 58 7e bd c5 71 7f be fb 79 61 3e 55 68 9c 3c
       -0.06209615 -0.24945743 0.22019188 0.019092718
000180 39 35 06 bd 32 5d 2b 3e 12 f3 dc 3d 80 f4 e5 3d
       -0.0327656 0.1673477 0.107885495 0.11228275
000190 9a cd 86 3d 7f 8d 4d 3e 5c 45 f4 3d 68 21 14 3d
       0.06582184 0.20073508 0.11927292 0.03616467
0001a0 c6 e6 1a 3e b3 24 77 3e c4 29 3e 3e 17 4f 76 3d
       0.15127096 0.24135093 0.1857062 0.06013402
0001b0 17 d1 03 be 81 20 e2 bc 25 8e 7d 3d e7 cc e8 bd
       -0.1287273 -0.02760339 0.061903138 -0.11367207
0001c0 48 b9 a9 3d b1 1d e2 3d 8f 51 a1 3e 48 10 81 3e
       0.08287293 0.110408194 0.31507537 0.25207734
0001d0 31 ea 58 3d 9c de b7 3c 7f 1f 31 3e 48 e1 d4 bc
       0.052957717 0.022445016 0.17297171 -0.025986329
0001e0 9e f7 3a be ca fe 3b 3e 9b 5e f5 3e c5 eb 12 bd
       -0.18258521 0.18358913 0.4792374 -0.03586938
0001f0 e8 41 38 3d ad 80 5a 3d 54 98 b0 bd 0b 89 1d be
       0.044984728 0.05334537 -0.08622804 -0.15384309
000200 0e f6 ee 3e 18 3a 0e be 64 7c a8 3d da 9a 04 3d
       0.466721 -0.13889349 0.08226851 0.03237424
000210 8d fe 86 3e 4c 0a 3a be c6 2f 52 bd be cd 21 3e
       0.26366082 -0.1816799 -0.05131509 0.1580114
000220 16 36 39 3e 73 4b 34 bd a2 04 8c bd 09 a8 6d 3e
       0.18087038 -0.044017266 -0.06836821 0.23208632
000230 51 e8 7a be af e5 35 3e f3 9e 29 be 0b 30 c8 bd
       -0.24502684 0.17763399 -0.1656454 -0.097747885
000240 1e 29 6f 3e 23 1a 9f be 37 9f 89 be 52 77 61 3e
       0.23355529 -0.31074628 -0.26879284 0.22018173
000250 ab 3b 3b 3e 47 de 13 bd 2c 15 25 be 5a 59 50 3e
       0.1828448 -0.036100652 -0.16121358 0.20346585
000260 57 83 d1 3d b9 9a a5 3e b8 1c f6 be 1b 11 ab 3c
       0.10230129 0.32344607 -0.48068786 0.02088218
000270 72 3c d1 3c e4 69 43 be fb 41 73 3f 43 dc d7 39
       0.025541518 -0.19083363 0.95022553 0.00041172103
000280 2b 2c 03 3f 20 55 c3 3c 23 a7 b0 3d 61 52 eb bc
       0.5123927 0.023844302 0.08625629 -0.028725805
000290 cc 1a a4 be a7 95 5a be b6 7d a8 be 3f b7 44 be
       -0.32051694 -0.2134615 -0.3290841 -0.19210528
0002a0 56 e2 59 3e 0b df 6a 3d d7 1e 01 be 14 d8 d8 bf
       0.21277747 0.057341617 -0.1260942 -1.6940942
0002b0 a3 bf c3 3e 0a 10 9e 3e 0e 5f 8a 3d 64 9c 04 3f
       0.38232145 0.30871612 0.067564115 0.51801133
0002c0 05 e5 ff bd fe c2 1e be e7 62 1b be 5d f2 1d bd
       -0.12494854 -0.15504071 -0.15174447 -0.038561214
0002d0 5f a9 d9 be 60 2c f5 3e c3 43 15 3d c6 cf 31 3e
       -0.42512032 0.47885418 0.036441576 0.17364416
0002e0 2e 75 c3 be a8 3f a4 3d f7 4d 4d 3d 56 c1 a2 bd
       -0.38175339 0.08019954 0.05012318 -0.07947032
0002f0 d8 3d 0d 3e d3 89 aa bd 84 d7 ab 3d af 1a b7 be
       0.13793123 -0.08327069 0.08390716 -0.35762545
000300 3b d5 49 3e cc 36 33 bc 34 ae 22 3e 23 4c ac 3e
       0.19710247 -0.010938358 0.15886766 0.33651838
000310 1e 27 3e 3e c0 4f a7 3d 2d 53 43 3e 07 3b 69 3e
       0.1856961 0.08169508 0.19074698 0.22776423
000320 b6 6b 33 3d 90 27 9c 3e ba da a9 3d 1a 7f 67 3e
       0.043803893 0.30498934 0.08293672 0.22607079
000330 89 70 86 3e 1b cc 1c 3e 2d f7 74 3e f9 59 a1 3e
       0.26257733 0.15312235 0.23922415 0.31513956
000340 ea 32 bf bd e2 45 0f 3d 9c 8a ab 3e 32 64 5d 3e
       -0.09335883 0.034978755 0.33504188 0.21620253
000350 fe 19 a4 3e 29 3b 78 3e 84 45 5c be 82 b6 38 be
       0.3205108 0.24241318 -0.21510893 -0.18038371
000360 1f 0a 37 be 90 bc 41 3d 49 28 0f 3b 64 2e e3 3d
       -0.17874955 0.047298968 0.002184408 0.11092833
000370 6b 9b ac bc 71 c3 ac be 24 f9 21 3e b7 5c 91 3e
       -0.021070203 -0.3374286 0.15817696 0.28391048
000380 c7 88 e8 bd 2c 02 b0 3e d6 d8 a9 3d 26 ef a4 3e
       -0.11354213 0.34376657 0.08293311 0.32213706
000390 95 ee c2 bd 0a f1 69 be 11 a1 b6 3d 5e 9b 9a be
       -0.09518162 -0.22845855 0.0891744 -0.3019666
0003a0 79 da 61 be 43 80 93 3e a2 e7 50 3e 99 9f 99 be
       -0.22055997 0.28808793 0.20400861 -0.30004576
0003b0 34 01 8c 3e 83 7a 9a 3c f5 f6 5e 3e 9a 11 2e be
       0.27344668 0.018857246 0.21773894 -0.16998902
0003c0 60 f4 43 be 74 6d fe bd 6e 1c 03 3e 80 4f 63 be
       -0.1913619 -0.1242322 0.12803814 -0.22198296
0003d0 3d de 9b 3d 6d 40 c5 bd 2c b2 84 3d 01 19 c2 3d
       0.07610748 -0.09631429 0.06479296 0.09477425
0003e0 a6 46 37 3e 4c 08 64 be ea 7a 9d 3e 16 91 12 be
       0.17898044 -0.2226879 0.30757838 -0.14313158
0003f0 9b 72 da 3d ba 16 29 3e 51 45 7a 3e 0d a8 21 3e
       0.106663905 0.16512576 0.24440505 0.15786763

lstm.weight_hh_l0 f4 [256, 64]
000000 d4 7c 6c 3e c8 ec 1e be 9a 47 2b 3d 53 1b 8e 3d
       0.23094493 -0.15520012 0.04181633 0.069388054
000010 7a 5c 83 3e ae 34 eb bd e7 f4 36 bd 78 19 b5 3d
       0.25656492 -0.11484657 -0.04466715 0.088427484
000020 b4 3c 31 3e e0 4c 0b 3e de 6c d8 bb af 24 3d be
       0.17308313 0.13603544 -0.006604775 -0.18471025
000030 da 23 4c be 62 98 d9 3d e0 3f eb bd 8d 81 8b 3e
       -0.19935551 0.10624768 -0.114867926 0.27247277
000040 fa 9c 58 3e 8f ca 5d bd 56 d5 2c 3d be 63 18 3e
       0.21153632 -0.054148253 0.04219564 0.14881799
000050 ae 4f ad bd bc 0f a5 3d 9e f5 32 bd 70 4f 3c 3e
       -0.08462463 0.08059642 -0.04369127 0.18389678
000060 3a 81 94 3e 4f ab 71 3e 41 bf c3 3d d9 5e af 3d
       0.29004842 0.23600505 0.09557963 0.08563013
000070 71 44 b3 3d 8e 83 a9 be 1c c4 70 3d 7d 80 09 3e
       0.087532885 -0.3310818 0.058780774 0.1342792
000080 5c d4 3a 3d c3 d1 94 3d b8 92 b8 3d 3f fc 30 be
       0.045612678 0.072665714 0.090123594 -0.17283724
000090 e0 16 0e bd 89 a6 5a be 18 98 ec bd 17 39 a8 be
       -0.034689784 -0.2135259 -0.11552447 -0.32856056
0000a0 43 7c a2 3d 16 87 03 be a0 c3 c1 3d 6a 1c e3 bd
       0.07933857 -0.128445 0.09461141 -0.11089404
0000b0 4d c0 4d 3d 7a f7 37 3e 98 97 25 3d 51 e0 81 3e
       0.05023222 0.17965499 0.040427774 0.25366452
0000c0 43 3e 9b be 6e 1a c0 bd d8 7a 31 3e 76 12 b1 be
       -0.3032094 -0.09380041 0.17332017 -0.34584397
0000d0 e0 9c 7b 3d 9c 80 4f 3e 32 bb ea 3d 3d b0 ba bc
       0.061428905 0.20263904 0.11461486 -0.022789115
0000e0 44 35 dd bd 29 21 c7 3e 28 56 f4 bc cf 02 00 be
       -0.10801175 0.38892487 -0.029826239 -0.12501071
0000f0 fc 96 0d 3e c8 f4 5e bd 85 a8 13 be bc 4e ac bd
       0.13827127 -0.05443266 -0.14419754 -0.08413455
000100 8b dd 84 bd 17 52 9f bd a5 ea a2 3e bd be 8e 3e
       -0.064875685 -0.07779329 0.31819645 0.27879897
000110 a8 d9 13 3e 90 ae 38 be 2a b3 b1 3d 77 41 a4 3d
       0.14438498 -0.1803534 0.08676751 0.08020299
000120 c2 9e 1a 3e 24 42 bc 3d 48 53 fd bd f0 c4 92 3d
       0.15099624 0.09192303 -0.123694 0.07166469
000130 c6 94 59 be 60 0b 3a 3e 3b 46 02 be 53 04 a9 be
       -0.21248159 0.18168402 -0.12722103 -0.33011112
000140 f0 e3 58 3e c1 fd 18 bd 09 0e f5 bd 54 89 59 3e
       0.21180701 -0.037351374 -0.119655676 0.21243793
000150 18 50 d9 3d 54 65 d7 bd 97 23 18 be 6f 62 bd 3c
       0.1061098 -0.10517374 -0.14857326 0.023118226
000160 b1 ca c4 3e 83 c5 ae 3d 81 a9 9f bd aa 06 fb 3d
       0.3843589 0.08533766 -0.07796002 0.122571304
000170 36 41 6f 3e a7 44 88 bb 3d 07 17 3d bb eb 36 3e
       0.2336472 -0.0041585746 0.036872137 0.17863362
000180 86 6a a8 3b 09 1f 3e 3e 50 6a 76 3d a8 8a 08 be
       0.0051396517 0.18566526 0.06015998 -0.13334143
000190 83 71 3f bc 94 eb 36 be 83 14 1c be a3 2d a8 3d
       -0.011684778 -0.17863303 -0.152422 0.082118295
0001a0 55 fa 3b 3e f7 4c 6c bd 66 1b eb bd f3 87 cf 3d
       0.18357213 -0.057690587 -0.11479835 0.10133352
0001b0 28 5b 47 b9 cf 18 1d 3e 99 fc 5d 3e 95 cb f9 bd
       -0.00019012077 0.15341495 0.2167839 -0.12197033
0001c0 5c 49 72 be 6e fa fb bd 73 a8 e1 bc f4 04 6f be
       -0.23660797 -0.12303625 -0.027546143 -0.23341733
0001d0 56 bb 18 3d 36 2c f9 bc a8 e9 90 3e 3c 13 1e 3e
       0.037288032 -0.03041659 0.28303266 0.15437025
0001e0 9a 67 36 bd ed 14 b8 3e f6 80 2a 3d 93 90 26 be
       -0.044532396 0.35953465 0.041626893 -0.16266088
0001f0 e9 b2 1d 3e a7 af 2d be 3b 78 98 3d e3 d4 aa bd
       0.1540028 -0.16961537 0.07444807 -0.08341386
000200 55 07 03 3e 4d fe aa 3d 2f 1f e2 3d 6e 95 73 3e
       0.12795766 0.08349285 0.11041104 0.23787472
000210 62 41 25 3e 9b 4f 92 be 11 27 85 be f6 f8 67 3e
       0.16138223 -0.2857636 -0.26006368 0.22653565
000220 eb b7 64 3e 90 f7 fa bc 8d cb a3 bd 53 6c fb 3d
       0.22335784 -0.030635625 -0.079978086 0.122765206
000230 37 01 b1 bd 4d 68 8c 3d ba 37 0c be 60 3a c2 3d
       -0.0864281 0.06855831 -0.13693133 0.094837904
000240 03 81 22 3e 1f 12 74 be ca 43 bb bc 18 3d 65 3e
       0.15869527 -0.23835038 -0.022859473 0.22386587
000250 65 c8 4c 3d c2 0f 83 3d 49 46 62 bd c9 bc 13 3e
       0.0499958 0.0639949 -0.05524281 0.14427485
000260 f2 a8 47 3e e5 e5 c7 3d 64 fa 8b bc 10 ef 9b 3e
       0.19498041 0.09760646 -0.017087169 0.30455828
000270 54 bb 3e bd a7 be cf be 24 8c ff 3d de e8 a7 3d
       -0.04656537 -0.40575144 0.124779016 0.08198713
000280 99 a8 c2 bd 94 c3 16 3e f3 5c 58 3e fb e7 10 be
       -0.09504814 0.14723045 0.21129207 -0.14150994
000290 f4 bd 4d 3b 14 72 2b be 7a c2 4d bd 5f e8 db be
       0.0031393738 -0.16742736 -0.050234295 -0.42950723
0002a0 68 6d 4b 3e fc 35 2d be e5 e4 08 bd 13 6f 81 bd
       0.19865954 -0.16915125 -0.033421416 -0.06320014
0002b0 ca 82 a3 3d 5c 58 b9 3d 13 48 87 3e 7e 0b 2e 3c
       0.079839304 0.09050056 0.26422176 0.010622857
0002c0 2d da 1b bd c7 6f 30 3c e4 91 20 be 87 88 79 3d
       -0.038049866 0.010768837 -0.15680653 0.06092122
0002d0 5d 2e cd ba b2 f5 b9 3d 71 b6 f6 3c 29 c0 8a 3e
       -0.0015654076 0.09080066 0.030116292 0.27099732
0002e0 40 19 24 bd d7 2b 7d 3e d8 b0 eb bb 2e bc 14 bf
       -0.040063143 0.24723755 -0.0071927123 -0.5809964
0002f0 dd 51 19 bc 7d 2d 0c be c3 70 a9 3d 9a 83 9c be
       -0.009357897 -0.13689227 0.08273461 -0.30569154
000300 24 55 b2 3d 9d fa 6b be 8e ee 20 bd 64 ca d3 3c
       0.087076455 -0.2304482 -0.039290003 0.025853343
000310 55 a2 35 3d ab 44 ab 3d 82 bc 28 3c 01 04 d2 bd
       0.044344265 0.08362707 0.01029885 -0.1025467
000320 ed cf 7c bd d1 c8 89 bc 46 e4 2c 3d d0 4b d7 3d
       -0.06172173 -0.01681939 0.042209886 0.10512507
000330 a3 cc 3e 3b 87 e8 f5 3c e6 3f 91 3d 85 77 d6 3d
       0.0029113672 0.030018104 0.07092266 0.10472015
000340 f2 fc 97 3b 13 f1 b7 bd 31 5f 1a be 87 a9 d2 3c
       0.0046383077 -0.08981528 -0.15075375 0.025715603
000350 9c 20 48 3d 0d 46 06 3d fc 3e 6f be ad 1e 97 3e
       0.048859224 0.03278165 -0.2336387 0.2951559
000360 46 4d 31 bd 58 92 0a 3e 72 c9 1b 3d 87 5d b3 3d
       -0.043286584 0.13532388 0.03803391 0.08758073
000370 92 2c 0a 3e 4a 28 7d be b8 68 c5 bc 5a d6 ca bb
       0.13493565 -0.247224 -0.024097785 -0.0061901035
000380 08 33 ad 3d 02 29 32 bd a2 88 04 3e 59 9c 1e 3d
       0.08456999 -0.04349614 0.12942746 0.038723323
000390 1d a8 69 bd 05 e5 51 be 0e 9e ed bd 65 09 38 be
       -0.05704509 -0.2049752 -0.11602412 -0.17972334
0003a0 30 eb 42 bd cb fc 31 3d 5b 17 ee bd 7d 89 0a bd
       -0.047587574 0.043453973 -0.116255485 -0.033822525
0003b0 a2 a4 6d 3e ea c4 2d bd 52 6b 20 be 94 00 b0 3e
       0.23207334 -0.04242412 -0.1566594 0.3437544
0003c0 81 b4 b1 bc 64 cf 5b bc 45 ec a8 3d 0d 39 18 be
       -0.021692516 -0.013416145 0.0824819 -0.14865513
0003d0 4f b9 b7 bd 65 67 94 3d 46 25 3c 3d f8 a4 f1 3d
       -0.08970892 0.072462834 0.045933984 0.117990434
0003e0 2b cf b2 bd 9b c8 0c 3e e0 b0 ce 3d c3 29 b5 bd
       -0.087309204 0.137484 0.1009233 -0.08845856
0003f0 18 b9 d3 3d b5 d3 c2 bc d4 58 f6 bd 87 73 72 bc
       0.10338038 -0.02378259 -0.12028661 -0.014798052

lstm.bias_ih_l0 f4 [256]
000000 0b 54 f4 3d 4f 1d b1 3d 11 97 30 3d 9e 9b a4 bd
       0.119300924 0.08648168 0.04311282 -0.08037494
000010 19 6d 4e 3e 14 b3 46 bc 19 f2 3e 3e 1d f7 04 3c
       0.20158805 -0.0121276565 0.1864704 0.008115557
000020 2f 20 82 3e e9 61 3d 3e 19 cc fd bd ea 8e 67 3e
       0.2541518 0.18494381 -0.12392444 0.22613111
000030 62 cd 0c 3d 08 30 02 3e f6 c6 ec 3d 87 40 09 3e
       0.034375556 0.12713635 0.11561386 0.13403521
000040 06 ff 3f 3e 63 a8 23 3e 6d 32 45 3e 75 ff 97 bc
       0.18749627 0.15982203 0.19257517 -0.018554429
000050 88 4e a3 bd 2a 6f 14 3d e2 86 df 3d 96 81 b9 3d
       -0.07973963 0.036238827 0.10914399 0.0905792
000060 01 6d 14 3e 93 44 31 3e b1 db 4f 3d a4 3c 92 3d
       0.14494707 0.17311315 0.050746623 0.071404725
000070 a6 de 96 bc e7 64 7e 3e 3d 40 92 3e 49 3d e0 bd
       -0.018416714 0.24843179 0.28564635 -0.10949189
000080 b2 a0 15 bd 75 7a 03 3e d4 7f 31 3d 74 ea e3 bd
       -0.036530204 0.12839682 0.043334797 -0.11128703
000090 5a 6e 20 3e 3f 18 ad bd a2 f5 55 3a fa 1a b2 bd
       0.15667096 -0.0845189 0.00081619073 -0.086965516
0000a0 54 30 f7 3d 3e 09 f0 bc 95 96 51 bd 4e 9e 2b 3f
       0.12069765 -0.029301282 -0.051168997 0.6703843
0000b0 21 1e 46 3d 45 58 8a 3e 0c cb cf 3c ef e0 d8 3d
       0.048368577 0.2702047 0.025365375 0.10589778
0000c0 fd aa 22 bd bd d3 8a 3d cc 2f eb bc 20 c4 05 be
       -0.03971385 0.06778667 -0.028709315 -0.13063097
0000d0 ed d0 08 be bf fd 9a 3e 22 71 c2 3d fd a2 30 3d
       -0.13360949 0.30271718 0.094942346 0.043124188
0000e0 f7 06 45 3e 9f 19 53 bd 96 e4 4b 3d 43 e2 a0 3d
       0.19240938 -0.051538106 0.049778543 0.07855656
0000f0 3c 9d c8 bc 68 c7 f2 3d 96 54 7e be 0d f5 01 3d
       -0.024489038 0.1185444 -0.24836954 0.03172784
000100 58 13 6d bd 9c ad 12 3e 4f 0d 98 bd 55 98 f9 3d
       -0.057879776 0.14324039 -0.074244134 0.12187258
000110 99 04 97 3d 6d 5c ac 3d f5 89 be 3d 92 71 db 3d
       0.07373924 0.08416066 0.09303657 0.10715021
000120 b2 8f bb 3d 02 2f a9 3d 80 a3 16 be c5 5b 0e 3e
       0.09158267 0.08260919 -0.14710808 0.13902195
000130 f7 34 3b 3d ec 4e 90 3d 8a f9 02 3c c1 cc be bd
       0.045704808 0.07046303 0.007994065 -0.093163975
000140 b0 b8 5f 3d 47 68 90 bc af a2 c6 bd 3c 9a ee bd
       0.05461949 -0.017627848 -0.09698998 -0.116505116
000150 6d 1c 39 3d 24 78 9c 3d 2b 8b e1 bd 8d 43 d3 bb
       0.045193125 0.076401025 -0.11012872 -0.0064472617
000160 c0 07 55 3e f9 5f f4 3d 03 f0 cb 3d 63 65 96 3c
       0.20803738 0.11932368 0.09957888 0.018358892
000170 85 35 56 3e 1c f8 ba 3d 0d 7e 33 be 71 3f 89 3d
       0.20918854 0.09129354 -0.17528553 0.067015536
000180 67 97 99 bd 41 3e 22 3c e5 f4 2f bd 7c b3 ab 3c
       -0.07499581 0.009902538 -0.04295816 0.020959608
000190 4c 9d f8 3c aa cc 0b be ab 13 31 bd 86 d8 83 3b
       0.030348442 -0.13652292 -0.043231647 0.0040236143
0001a0 a5 90 c1 bd 29 a6 0e 3b 77 10 01 3e c3 3f 84 be
       -0.09451417 0.002176652 0.12603937 -0.25829896
0001b0 3b 7c ed bd 33 77 44 3e 87 7d c9 3d e2 eb cb 3d
       -0.11595961 0.19186096 0.098383956 0.099571005
0001c0 47 85 88 3d 6a 11 ae 3c eb 6e 3f bc 87 f6 b3 bd
       0.06666046 0.021248538 -0.01168416 -0.08787256
0001d0 fe 08 ef bd 1b 2d d3 3d d7 5e b0 3d 0e 94 19 3c
       -0.11671637 0.103113376 0.08611839 0.009373678
0001e0 79 67 c7 3d 91 2e 0b 3e f7 5c 5d be 0d 44 f4 3d
       0.09736533 0.13591982 -0.21617495 0.11927042
0001f0 1f 24 e2 3c ab 9e 43 3d 4e 0d 9f 3d 67 b7 28 3e
       0.027605115 0.04775874 0.077662095 0.16476212
000200 23 32 ae 3c 4a 3e 4a 3e 4e 8b b5 bd 4d 94 5a be
       0.021264141 0.19750324 -0.08864461 -0.21345635
000210 07 5f 02 3e 6b 64 fa 3d 5a 9e 47 be 9e 0e 75 3e
       0.12731563 0.122261845 -0.19494 0.23931357
000220 4a ca 70 3e c4 bd 05 3e 1c 3e a1 bd 46 a1 20 bd
       0.23514667 0.13060671 -0.078731745 -0.039216302
000230 8a 52 50 3e 8a 50 84 ba 0e 6b 34 bd 0c e6 c9 3d
       0.20343986 -0.0010094803 -0.044047408 0.09858331
000240 57 90 68 3e 65 b7 0d be 57 ca 93 3d 83 0a 11 3d
       0.22711311 -0.1383949 0.07216328 0.035410415
000250 a0 10 e0 3c 3f c8 2b 3e df e2 8e bd 8b e4 b5 bd
       0.027351677 0.16775607 -0.06976866 -0.08881482
000260 17 26 91 bd de e9 e7 3d cf ed a8 3d f3 20 ca 3d
       -0.07087343 0.113239035 0.082484834 0.09869566
000270 fd 30 1a bd 7a 7b 90 be b9 3a 06 3e 22 6d fc 3b
       -0.037644375 -0.28219205 0.13108338 0.0077034393
000280 b2 b3 73 be b7 a7 32 be 36 48 13 3e a8 8e 06 3d
       -0.23799017 -0.1744679 0.14383015 0.03285089
000290 67 9f 18 3d b8 af 3c bb e1 e7 a9 bd 7d 3c 9f 3d
       0.037261393 -0.002879126 -0.082961805 0.07775209
0002a0 9a 68 bc bb c1 b3 b0 bd d5 af a4 bd 2b 82 d9 3d
       -0.005749774 -0.08628035 -0.0804135 0.10620531
0002b0 c1 1f 41 bb 86 18 b4 3d f1 3c 83 3d c0 81 57 be
       -0.002946839 0.0879374 0.06408108 -0.2104559
0002c0 2c 6d 2d bc fe db 94 bc 43 f9 ad 3c 2a 21 55 3d
       -0.010585111 -0.018171307 0.021237021 0.05203358
0002d0 4e e8 29 3e 0d 73 8a 3e 27 8e 80 bd bd 33 12 be
       0.16592523 0.27040902 -0.062771134 -0.14277549
0002e0 39 80 d4 bd 9c 33 8d 3c 4a 2f 3e 3e 3a 95 8d 3d
       -0.10376019 0.017236523 0.18572727 0.06913228
0002f0 23 5b 31 be 2f 16 74 bd e1 d5 77 bd c7 0d 0d be
       -0.17319922 -0.05959147 -0.060506705 -0.13774787
000300 e1 59 a4 3e ae 5e 13 bd 7c 33 cb bc 86 ad 40 be
       0.32099822 -0.035978965 -0.024804823 -0.18816194
000310 b9 ef 5e 3e 02 5b a1 3d 61 1d 03 3e ac 18 de bd
       0.21771134 0.078786865 0.12804176 -0.108445495
000320 31 e1 69 3d 36 4e 0c bc ab 26 12 3e c8 5d 0f bc
       0.057099525 -0.008563569 0.14272563 -0.008750387
000330 8b b5 37 3e e6 28 4c bd 62 94 b0 3d f0 80 c4 3d
       0.17940347 -0.04984369 0.08622052 0.095949054
000340 7b 06 c8 3d 9d 0f b6 3c db ac 52 3e 7b 52 25 bd
       0.09766861 0.022224242 0.20573752 -0.040361863
000350 1e 9a 0f 3d 6d 7d 27 3d 6b 4a a0 3d f0 df 91 3d
       0.035059087 0.0408911 0.07826694 0.07122791
000360 21 7b 46 3d 1e c1 92 3c 28 af 47 3e 46 25 dc 3c
       0.04845727 0.017914351 0.1950041 0.026873242
000370 a6 7a 09 3e 92 de b2 3e 89 86 a5 3e 45 d3 0b be
       0.13425693 0.34935433 0.32329205 -0.13654812
000380 88 e8 25 3e 65 a1 07 be 47 fb fb 3d 2d 0d de bd
       0.16201985 -0.13245161 0.12303787 -0.10842357
000390 e3 61 e0 3d 83 02 17 3e 2d e7 0b 3e 94 e4 94 3e
       0.109561704 0.14747052 0.13662405 0.2908064
0003a0 0e e1 2f 3e 68 d0 33 ba 9a bd bc 3d e5 ca f3 3e
       0.17175695 -0.0006859363 0.09215851 0.47615734
0003b0 2e fd 19 3e 5b 06 e9 3d 8d 00 42 bd 4d ec 20 3e
       0.15037987 0.11378165 -0.047363807 0.15715142
0003c0 54 82 0d 3e 6b dd 06 3e 20 41 32 3e ad 67 1a 3d
       0.13819247 0.13170402 0.17407656 0.03769653
0003d0 49 30 62 3e 9f 4f 6c 3e 2d 94 62 3e 79 73 9d 3e
       0.22088732 0.23077248 0.22126837 0.3075216
0003e0 86 91 2e 3e eb ab a9 3d c5 e4 1b 3d 44 f0 43 3e
       0.170477 0.08284744 0.03805997 0.19134623
0003f0 90 5c 80 bd 46 51 2a 3d 8f cf 5e be dc 24 94 3e
       -0.06267655 0.041581415 -0.21758865 0.2893437

lstm.bias_hh_l0 f4 [256]
000000 de cb 4b 3e f4 41 98 3d 9f a3 68 3d ed 2a 9a 3d
       0.19901988 0.074344546 0.056796666 0.07527719
000010 21 e4 18 3e d8 dd 3c 3d e3 1a 48 3c af 8e b6 3d
       0.14930774 0.046110004 0.012213442 0.089139335
000020 69 c7 bf 3d 1e 9e 5b 3e da 52 b7 3c a9 60 3b 3e
       0.09364206 0.21447036 0.022378374 0.18298592
000030 5b 8c 2d 3e 05 24 c3 3a 3b ea ef 3d 68 06 13 3e
       0.16948073 0.0014888054 0.11714598 0.14357913
000040 93 3b ec 3d 89 2f 0b 3d 77 04 e2 3d d0 8b 9e 3d
       0.115348004 0.03398088 0.11036008 0.07741511
000050 7f 94 ef bc fc 84 7c 3d b1 57 39 3d 10 5f c2 bb
       -0.029245613 0.06165026 0.045249645 -0.0059317425
000060 1f 49 08 3e 92 4b c6 3d dd 12 d8 bc f8 2e c3 3d
       0.13309143 0.09682383 -0.026376182 0.09530443
000070 63 ae df bc 14 56 94 3e 03 45 72 3e be 5c ba 3d
       -0.027304834 0.28971922 0.23659138 0.090997204
000080 8f e1 ce 3d 67 ac 88 3d 7c 6f 69 3d b3 d1 64 bc
       0.10101616 0.06673508 0.056991085 -0.013966012
000090 99 62 6a 3e 74 92 91 bd f2 8c ea 3c d8 ae 0c be
       0.22889175 -0.07108012 0.028631661 -0.13738573
0000a0 95 4d f1 3c 9d 0f 2a bb e2 53 6f 3d e0 73 17 3f
       0.02945594 -0.0025949248 0.058429606 0.59161186
0000b0 0b 3f e8 3d ab cd 7d 3e ce b7 73 3d 4c fe c7 3d
       0.113401495 0.24785487 0.05950146 0.097653
0000c0 70 df bb bd 17 98 71 bd dd 0a 90 bd 18 c2 6e bd
       -0.09173477 -0.058982935 -0.07033322 -0.05829057
0000d0 38 5f fc bc 7e 1d fa 3e 41 6f 2c bd c5 77 99 3d
       -0.030807123 0.48850626 -0.042098287 0.07493547
0000e0 4c d2 31 3e 4c d4 de 3c af af 70 3e ec f3 c6 3d
       0.17365378 0.02720084 0.23504518 0.09714493
0000f0 ea f0 fe 3d 8b e0 d5 3d 58 ce 0f be ff 50 29 3d
       0.124482945 0.10443219 -0.14043558 0.04133701
000100 ec 9f 8c bd c9 da b9 3c 54 a5 d5 bc af 51 1c 3e
       -0.0686644 0.022687333 -0.026079811 0.15265535
000110 94 f2 0b bd 5e d1 e8 3d 87 30 32 3d 9b cf 09 3e
       -0.034166887 0.113680586 0.04350331 0.13458101
000120 83 d9 63 3e 93 e2 82 bb 21 e6 ec bd e6 dc 91 3d
       0.22250943 -0.003994295 -0.11567331 0.07122211
000130 ce 85 f4 ba 21 38 46 3e 9b 11 b3 bd 3a c6 10 be
       -0.00186556 0.19357349 -0.08743592 -0.14138117
000140 e9 ca 9e 3d a6 4a bd 3b 9f 87 c3 bd 7f 23 0b bc
       0.07753546 0.005776721 -0.09547352 -0.00849235
000150 90 8c 1c bb aa a9 b3 3d b3 4e 80 bc cb 93 c5 3d
       -0.0023887493 0.08772595 -0.015662527 0.0964733
000160 84 6d 00 3d 75 df 92 3d c9 e1 e4 3d 7d 97 a6 bd
       0.031354442 0.07171527 0.111758776 -0.08134363
000170 46 bf 45 3e fc ba 86 3d 48 26 e9 bc 17 69 1c 3e
       0.19311246 0.06578633 -0.028460637 0.15274464
000180 0a 25 fd bd cc cf 2a be 9d 54 41 3d 6e 27 01 bc
       -0.1236058 -0.1668083 0.047199834 -0.007882936
000190 1f 50 05 be ee 96 a9 3a 36 8e 06 be ad d4 95 bd
       -0.13018845 0.0012938657 -0.13140187 -0.07315955
0001a0 a8 da 60 bd ed 5e 50 bc 4a ee bb 3d d0 59 74 be
       -0.054896027 -0.012717945 0.091763094 -0.23862386
0001b0 31 28 ad bc 3e bf 6d 3d 84 53 54 3c 84 67 40 bd
       -0.021137329 0.05804371 0.012959365 -0.04697372
0001c0 1e 07 04 3d 83 6c 1b 3b 81 47 39 3d 37 56 59 bc
       0.03223335 0.00237158 0.045234207 -0.013265184
0001d0 0a 57 b5 bc d1 54 6b 3d 9d 4d 17 bd 00 20 9a bc
       -0.02213623 0.057453934 -0.036939252 -0.018814087
0001e0 37 81 ac 3d f8 d5 94 bd 7a 5a 10 3c 81 c6 9d bc
       0.08423083 -0.07267374 0.008810634 -0.019259693
0001f0 0d d3 bc 3d 32 c8 dd 3d 6f 4d 82 bd c6 62 e7 3d
       0.09219942 0.108292 -0.063624255 0.112981364
000200 3e 1a da bd 60 d7 f6 3d b5 b9 24 be 9a 40 4d be
       -0.106495366 0.12052798 -0.16086467 -0.20044175
000210 b0 24 27 3e 6f a9 62 bd 8c 96 0e be 22 cb 5c 3e
       0.16322589 -0.055337366 -0.13924617 0.21561864
000220 27 32 bd 3d 82 4d 2d 3d 1e e1 47 bd 27 14 01 be
       0.092380814 0.042310245 -0.048798673 -0.12605344
000230 a7 66 aa 3c b7 5d 64 bd 14 7d e5 3d de 55 38 3e
       0.020800902 -0.055753436 0.112054974 0.18001506
000240 dd af 73 3e 31 49 f4 bd 5e 50 a8 bb 01 ac dd bd
       0.23797555 -0.11928023 -0.0051365336 -0.10823823
000250 53 f2 07 be de c4 4b 3e 5e 3f c6 3d f4 fc 67 bd
       -0.13276033 0.19899318 0.09680055 -0.05663772
000260 59 49 47 bb ce f2 61 3e 15 86 a9 3d 6a 2f 11 3e
       -0.003040871 0.22065279 0.08277527 0.14178243
000270 e8 4a cc bc 13 68 05 be 85 f2 0d bd 19 6d 51 3c
       -0.024938062 -0.13027982 -0.034655113 0.012782359
000280 d4 37 fe bd 54 89 61 be ce 87 11 3e c2 0e 33 bd
       -0.12412992 -0.22025043 0.14211962 -0.043715246
000290 36 cc 26 3e d5 16 f6 3d d2 96 8d bd f1 a9 a4 bd
       0.16288838 0.120160736 -0.06913532 -0.08040226
0002a0 57 06 fa bc 4a 2c 0c be 6f 72 c0 bd 6b 46 d3 3d
       -0.030520601 -0.1368877 -0.093968265 0.103161655
0002b0 7a 59 21 bd d3 c8 fb 3d ad 90 50 3d b4 33 76 3c
       -0.039391972 0.122941636 0.050919224 0.015026975
0002c0 b4 af d7 3d 08 61 71 bd ec 9f 97 3d a0 d9 ce bc
       0.105315596 -0.058930427 0.074035496 -0.025250256
0002d0 41 80 3c 3e 27 4a 82 3e 0c e1 68 be bd 9e 05 be
       0.184083 0.254472 -0.22742099 -0.13048835
0002e0 25 f5 42 3d ee f7 4b 3c 85 22 26 3d 76 b2 d0 3d
       0.04759707 0.012449248 0.040560264 0.10190289
0002f0 f6 5c d8 bd 91 88 09 bd 6d b4 91 bd d7 27 ad bb
       -0.10564606 -0.033577505 -0.071144916 -0.0052842903
000300 7f fa a5 3e 26 b1 e0 3d 88 e6 b2 bd 6d 46 1a bd
       0.32417676 0.109712884 -0.087353766 -0.03766482
000310 49 5f 4b 3e e5 47 7c 3d da 5d a8 3e 68 13 4e bd
       0.19860567 0.061592 0.32884103 -0.050311476
000320 f1 f7 cb 3d 70 46 e9 bc e7 b9 5c 3d ef 74 9e bd
       0.099594004 -0.02847597 0.053888228 -0.07737147
000330 40 91 07 3e 3a 28 eb 3d bf c2 83 3d c0 75 01 3d
       0.13239002 0.11482282 0.06433629 0.031606436
000340 94 e7 a3 3d 95 e2 28 3e 3d d0 83 3e be 49 d8 3d
       0.080031544 0.16492684 0.2574481 0.1056094
000350 c9 57 4d 3b b0 a1 61 bc d2 1e 57 3e 11 52 1b 3e
       0.0031332842 -0.013771459 0.21007851 0.15168025
000360 93 12 85 3d d1 1c 53 bd 57 3f 3f 3e c9 9d bb 3d
       0.064976834 -0.051541153 0.18676506 0.091609545
000370 12 3a 3a bd 4e 22 63 3e cd e3 83 3e 97 ff 0d bd
       -0.045465536 0.22181055 0.25759736 -0.034667578
000380 9e e9 eb 3d 72 fc 0f 3b 4d 91 13 3d e7 51 e3 bb
       0.11519168 0.0021970537 0.03602724 -0.0069372538
000390 0b c2 ba 3d a4 32 04 3d 45 57 1a 3e 88 44 95 3e
       0.09119042 0.032274857 0.15072353 0.29153848
0003a0 09 f6 96 3d e4 44 0c bd 98 ee 65 bd a7 47 ca 3e
       0.07371146 -0.034245387 -0.056135744 0.3950779
0003b0 1f aa 07 3e ac 1c 07 3d 31 52 17 be 5e fa 8e 3e
       0.1324849 0.032986328 -0.14777447 0.2792539
0003c0 4e 9a a2 3d b8 8b 4e 3c 7e 17 d7 3d d0 c0 19 3e
       0.079395875 0.012606554 0.10502528 0.15014958
0003d0 e1 14 57 3d 60 81 3e 3e 9c 60 56 3d 89 a6 83 3e
       0.052510146 0.1860404 0.052338228 0.25712994
0003e0 9d bd 3d 3e 84 a6 51 bc 73 66 f8 bb 53 84 0b 3e
       0.18529363 -0.012796048 -0.0075805723 0.13624696
0003f0 0c b2 98 bc 32 9d 00 3e 8a 38 8f bc 68 8b 67 3e
       -0.018639587 0.12559965 -0.017483015 0.22611773

lstm.weight_ih_l1 f4 [256, 64]
000000 3c fc f5 bc 22 7b a4 bd fd 99 bd bd 5b 3a af bd
       -0.030027501 -0.08031298 -0.092578866 -0.08556052
000010 df 1d 75 3d 64 3e 6d bd 43 47 53 bd 12 54 14 3a
       0.05984294 -0.05792083 -0.051581632 0.00056582794
000020 7c 74 2d 3c 4d 9b 3a 3e 01 98 56 bd c4 c3 28 bd
       0.010586854 0.18223305 -0.052391056 -0.04120232
000030 6a d8 0c be 57 a3 2e bd dd 3d 05 3d d7 0f bf 3c
       -0.1375443 -0.04263624 0.0325297 0.023322983
000040 8a fd 24 bc 2e 25 51 3c 15 b6 78 bd 9b e4 35 3e
       -0.010070214 0.012765212 -0.060720522 0.17762987
000050 ad a1 1d 3d 7f da 12 3e 8c 38 b8 3d 27 ef 0e 3e
       0.038484264 0.14341162 0.089951605 0.13958417
000060 24 84 db 3c 88 7b 0f 3d ce 23 2a be 88 36 ff 3b
       0.026796408 0.035029918 -0.16615221 0.007788483
000070 e3 37 1a be 5a d2 b3 bd 24 91 df 3d e1 68 e9 bd
       -0.15060382 -0.08780356 0.10916355 -0.11396957
000080 fc 62 00 be 72 55 74 3d c5 6b 97 bd 1e 3f 8a 3d
       -0.1253776 0.0596518 -0.07393602 0.0675032
000090 01 c4 19 3d 40 07 df bd e8 16 d3 bd 4a 97 7d bc
       0.03754044 -0.10890055 -0.103071034 -0.015477965
0000a0 bc 65 93 3c 6e 62 2c be 32 ba b6 3d c4 30 83 be
       0.017992847 -0.16834423 0.08922233 -0.25623143
0000b0 cd 23 62 3d d8 ca 85 3d 35 7a cd 3d a2 52 80 3d
       0.055209924 0.0653283 0.10033075 0.06265761
0000c0 f8 b4 8b 3d 53 e9 0e be b2 35 92 bc cb 02 e4 3d
       0.068216264 -0.13956194 -0.01784787 0.11133345
0000d0 53 8b c3 bc 96 98 cf 3d 96 75 8f bd 06 19 a1 3d
       -0.023870146 0.10136525 -0.070048496 0.07866101
0000e0 ad 64 7f 3d 91 4b 4e bc 34 d7 03 be 72 b7 4a 3d
       0.06235187 -0.012591259 -0.12875062 0.049491353
0000f0 aa 71 bd bd f3 a0 67 bd 08 4d 8d be 68 a3 1a be
       -0.09250195 -0.056549978 -0.27597833 -0.15101397
000100 fe 77 0a be 47 24 83 3b 39 ce 53 3d 9e f5 30 bd
       -0.13522336 0.0040021273 0.05171034 -0.04320299
000110 de de de bc a2 f0 16 bd 58 8f c3 bc be 6b 8a bd
       -0.02720588 -0.03685058 -0.023872063 -0.067588314
000120 ce 29 50 3c 26 da 25 3e 8f a0 27 3e 82 16 74 3d
       0.0127052795 0.16196498 0.16369842 0.059591778
000130 4a 3c eb 3d 1a fc c0 bd a8 56 b4 bc 32 0e a4 3e
       0.114861086 -0.094230846 -0.022013977 0.3204208
000140 9a 1d 92 bd 1c fa cf 3d 6a 99 a0 3d 2c 8a 9d bc
       -0.07134552 0.101551265 0.078417614 -0.019230925
000150 c5 ea 32 bd 67 2a e4 3d 0c ff b2 3d 74 a9 23 3e
       -0.043680925 0.111409 0.087400526 0.1598261
000160 5b 15 19 3e dc 99 c9 3d 8f 0c 82 be 6e 70 b6 bd
       0.14949553 0.098437995 -0.25400206 -0.08908163
000170 33 46 00 3e 68 69 f3 bc c6 72 0b 3d 5c 8c b8 bb
       0.12526779 -0.029713348 0.034045003 -0.0056319665
000180 54 3b 5b be cc 66 18 3e c4 ff 3b bd ed e2 8f 3d
       -0.2140935 0.14882964 -0.045898214 0.070257045
000190 ac 31 bd 3c 70 f9 ed 3d d2 50 b2 3d 68 3f 81 3e
       0.023094974 0.11619842 0.087068215 0.25243688
0001a0 e1 55 f1 bd af de ec bd 4e 2f 79 3d c1 6a f7 bd
       -0.11783958 -0.11565911 0.06083613 -0.120809086
0001b0 d5 42 ef bc d1 f7 ba 3d 2c b5 08 3c 1e d5 99 bc
       -0.029206673 0.091292985 0.008343976 -0.01877838
0001c0 72 d4 53 bb b3 30 bc bd 0e 89 6b 3e 23 02 88 bd
       -0.0032322672 -0.09188976 0.23001501 -0.066410325
0001d0 f8 39 f3 3d 6b 9b 8a bc 93 c2 3d bd e3 5f 04 3e
       0.11876291 -0.016919812 -0.04632814 0.12927203
0001e0 f6 ec 18 be fe d5 f5 3c b5 13 a4 bd 84 0d 3d be
       -0.14934143 0.030009266 -0.08011571 -0.18462187
0001f0 2e 37 e4 bc 81 fb 49 3d bc c6 01 bd bb 66 0a be
       -0.027858343 0.04931212 -0.03168367 -0.13515751
000200 4b f2 2c 3d 9e 4d 84 be b4 50 28 3c 9a 2b 1d be
       0.042223256 -0.25840467 0.010273147 -0.15348664
000210 41 a0 0c 3e ba a3 f7 3d c9 1a a4 3a 52 ea 2d 3d
       0.13733007 0.12091775 0.001252019 0.042459793
000220 12 ae 04 3d 6b bd 14 3f b5 f4 5f 3c 08 b8 b3 3d
       0.03239257 0.5810153 0.013669183 0.087753356
000230 ac 1b 4b be 4e 26 fe bc 78 1c 2b be 7d 1b 5e 3f
       -0.19834775 -0.031024124 -0.16710079 0.86760694
000240 ea 19 0f 3e 44 9d 48 3c a3 d4 22 bd 7c c9 dd 3d
       0.13974729 0.012244526 -0.039753567 0.10829446
000250 6e cd 02 3b c8 11 ac 3c 43 31 0c bd 4b 82 1c 3e
       0.0019958871 0.021004573 -0.034226667 0.15284078
000260 ad 61 09 3e 97 f0 39 3e 1b e4 7c be f4 37 05 be
       0.13416167 0.18158184 -0.2469639 -0.13009626
000270 47 11 01 3d d8 80 f0 3d 9b 69 fc 3c 8c 5d f7 bc
       0.031510618 0.11743325 0.030812075 -0.030195974
000280 51 d3 3c be 02 6f 61 bd 1f bd c9 bd 7c ef f5 bc
       -0.18439986 -0.055037506 -0.09850525 -0.030021422
000290 cd b8 e0 bd 8c a7 9a be 21 02 79 bd de 23 72 be
       -0.10972748 -0.30205953 -0.060793046 -0.23646495
0002a0 e7 5b 39 3d 29 21 8d 3d 8e 10 33 bc 8d 20 1b 3e
       0.04525366 0.068910904 -0.01092924 0.15149136
0002b0 70 00 b1 3e 17 42 97 bb e9 49 11 bd 07 e8 0d be
       0.34570646 -0.004616033 -0.035470877 -0.13858043
0002c0 b0 ad 14 3d 48 b3 32 be 85 4b 7d 3c b4 dc 1d be
       0.036298454 -0.17451203 0.0154599 -0.15416223
0002d0 5a 7a f5 bd 36 99 cc 3d bb 80 94 bc 80 4a 01 3e
       -0.11986227 0.0999016 -0.01812779 0.12626076
0002e0 31 9a c4 bd 99 70 8f 3b 71 b5 e3 bc d0 4c 8f be
       -0.09599722 0.0043774364 -0.027796479 -0.2798829
0002f0 6e 4b ef 3d 8d 5b fa 3d 9a f0 86 be d6 a4 0b be
       0.11684309 0.12224493 -0.2635544 -0.13637099
000300 93 15 34 3e 3d bc 9f 3d 73 8a 1b be 86 42 3c bd
       0.17586355 0.077995755 -0.15189533 -0.04596188
000310 d3 7d 77 3e 62 a5 41 3d bf f6 ae 3d e5 01 95 3d
       0.24169092 0.047276862 0.08543157 0.07275752
000320 81 37 79 bd b2 b8 13 3e 30 4a a1 be 2e cb ce bd
       -0.06084395 0.14425924 -0.31501913 -0.10097347
000330 ad c6 08 3e d8 74 97 bb 8f 78 45 3b 53 23 ed 3d
       0.13357039 -0.004622083 0.0030131673 0.11579003
000340 f9 b6 4a 3d b3 4a 1e 3c 18 5b a4 bc c1 33 56 3c
       0.049490903 0.009661364 -0.020062968 0.0130738625
000350 cc fc 2a be f9 ae e4 3d ed 5b 28 be 0c f8 44 3b
       -0.16697997 0.11166186 -0.16441317 0.0030055074
000360 ec c1 52 3e 6d 3d f3 3b b3 42 4a 3e eb 77 45 be
       0.20581788 0.007423094 0.19752006 -0.19284026
000370 16 85 1e 3d 1b d9 b7 be 0e 6f a6 3d 10 62 89 3d
       0.03870114 -0.35907826 0.08126651 0.06708157
000380 72 83 98 bc e8 e7 35 be 2e 23 02 be af a6 1e bd
       -0.018617366 -0.17764246 -0.12708732 -0.03873318
000390 1a a8 65 bd 84 b7 8f bd 45 31 ff 3c 7c 50 09 be
       -0.056068517 -0.07017425 0.031151423 -0.13409609
0003a0 db 3d c0 3c 00 0a 22 3e b6 96 3a be 2a 82 00 bf
       0.023466995 0.15824127 -0.18221554 -0.50198615
0003b0 e9 75 e4 bd 07 a3 6c 3d 48 b2 07 3e 2e a4 c5 3d
       -0.11155302 0.057772662 0.13251603 0.096504554
0003c0 cd fc 2e be f2 8a 3b be a1 67 5a bc 4d ba 39 be
       -0.17088623 -0.18314722 -0.013330371 -0.18137474
0003d0 b8 1c 02 be e1 1b 2f 3d 3e 5a 97 bd eb 9f 56 be
       -0.12706268 0.042751197 -0.07390259 -0.20959441
0003e0 35 c0 68 bd a4 82 f4 3b 41 86 83 bb e7 4c 6c 3c
       -0.056823928 0.0074618626 -0.004013807 0.014422632
0003f0 33 d6 24 bd b1 df 9a 3d 1f 11 02 be 88 54 d7 bd
       -0.04024334 0.07562197 -0.12701844 -0.1051417

lstm.weight_hh_l1 f4 [256, 64]
000000 56 e5 7b 3d 7b 15 fd bc ca 38 e2 3d 8c a8 00 3e
       0.06149801 -0.030894032 0.11045988 0.12564296
000010 82 ef 59 3d bd e8 cc 3c 26 8d 0b bd 2d 0f 4c be
       0.053206928 0.025013322 -0.034070157 -0.19927664
000020 1a f2 8e bd c9 0d 58 bb 70 1e 8f bd 15 26 1c be
       -0.06979771 -0.00329672 -0.06988227 -0.15248902
000030 c2 ce a5 bd ff c4 9e 3d 43 be 3b 3d e7 b1 ed be
       -0.080960765 0.07752418 0.045835745 -0.4642479
000040 f5 8f c0 3d d5 77 16 bd 00 a6 f5 bc f6 48 3a be
       0.094024576 -0.036735374 -0.029986382 -0.18191895
000050 f2 13 93 bd 5d 09 3c 3e 80 10 a7 ba 97 07 f0 3c
       -0.07181539 0.18362947 -0.0012746006 0.029300494
000060 e6 f4 b1 bd 81 c5 bc 3d c3 82 2d bd c9 39 5f 3d
       -0.08689289 0.092173584 -0.042361032 0.054498468
000070 92 67 35 bd d0 6e c3 bd 99 c0 d4 3d fa 47 a2 bd
       -0.044288225 -0.0954262 0.103882976 -0.07923885
000080 4d 55 50 bc dd fe 68 bd e5 da 34 be e6 7b 87 be
       -0.01271565 -0.05688368 -0.17661627 -0.26461715
000090 7c 3b e7 3c 40 d6 07 bd 0c 4a af 3d e3 ab 3c 3e
       0.028226607 -0.03316331 0.08559045 0.18424945
0000a0 fd 68 3f 3c f1 43 ad 3d 46 4d 9a bc 82 c2 0e 3d
       0.011682746 0.084602244 -0.018835675 0.034853466
0000b0 25 5b af 3d 0c e2 33 be 67 7c 44 3d 3d 0f ff 3d
       0.08562306 -0.17566699 0.0479702 0.12454078
0000c0 9e aa 65 3c 83 94 94 bd e8 4a b0 3d ec 73 05 3d
       0.014017729 -0.07254889 0.08608037 0.032581255
0000d0 7a a0 0b bd 26 3d 97 3c 83 e3 c1 3d 2b f3 50 3d
       -0.03408859 0.018461775 0.094672225 0.051013153
0000e0 ba c5 8d bc c7 ea 27 3d 18 a5 26 3d 76 93 16 3d
       -0.017306197 0.040995385 0.04068479 0.036761723
0000f0 60 47 ac 3d 8e 0d fb bc 85 81 4d be 68 e5 8f 3d
       0.08412051 -0.030646112 -0.20068939 0.07026178
000100 8d cc 3c be 92 b4 73 3d 31 ad 35 3e bf 08 84 bd
       -0.18437405 0.059498377 0.17741849 -0.06446981
000110 35 d2 87 be e6 c6 86 3d cf a3 ad bc 95 2f c7 bd
       -0.26527563 0.065809056 -0.021196274 -0.097258724
000120 13 03 96 bd bf 58 92 bd 86 db 68 3c db 16 21 bd
       -0.07324805 -0.07145833 0.014212495 -0.039328437
000130 7d 1b 99 bd 3c c7 1a be 16 4b 9e 3e db ea 14 3e
       -0.07475946 -0.15115064 0.3091666 0.14542715
000140 25 d1 02 3e 30 59 24 be c6 ee 70 3d e4 79 03 be
       0.12775095 -0.16049647 0.058821462 -0.12839466
000150 10 63 43 bd d6 ad 1b bd b7 0c ba bd ba 90 c5 bd
       -0.047701895 -0.03800758 -0.090844564 -0.09646745
000160 01 9e 58 be 4e b5 f2 bd 7e 07 67 be 6e 3d 3c be
       -0.21154024 -0.118509874 -0.22561452 -0.18382809
000170 57 66 fb bc 84 cd 02 bd 67 db ab bb af 65 e4 3c
       -0.030688448 -0.031934276 -0.0052446607 0.027880518
000180 09 9b 2e 3d 81 6c 09 3c a9 65 86 3c 8f bf 41 bd
       0.04262832 0.008387686 0.016405897 -0.047301825
000190 d5 49 f1 3c ea e8 05 be 74 01 e6 bc 7a 52 14 bc
       0.029454151 -0.13077131 -0.028076865 -0.009052867
0001a0 e9 02 74 bd 0b cf 46 bd 84 21 8a bc be 00 d9 3d
       -0.059573088 -0.048537295 -0.016861685 0.10595845
0001b0 86 fe 11 3d 37 4e 1a be a5 66 bf 3d 01 d9 38 3e
       0.035643123 -0.15068899 0.0934575 0.1805153
0001c0 45 5e 1c be 00 c8 22 3e ff 9a 35 3e 8d b2 5f 3d
       -0.15270336 0.15896606 0.17734908 0.05461364
0001d0 87 96 d4 bd ac ab 03 3e 64 b7 b8 3d 25 e9 e5 bd
       -0.10380273 0.12858456 0.09019354 -0.112261094
0001e0 c4 7e 96 3c 06 ee 7e bd 0f 15 93 3d 1a 27 15 be
       0.018370993 -0.062238716 0.07181751 -0.14565697
0001f0 4b 41 c2 3c d5 2c 17 3e b4 36 80 3d ff 06 bf bd
       0.023712775 0.14763196 0.06260434 -0.09327506
000200 5e 00 35 be 32 5f 74 bb e5 b6 48 3e 62 d9 b4 3e
       -0.17675921 -0.0037288186 0.19601019 0.353221
000210 02 0d 5f be 92 b2 8d 3e 0c 0a a4 bd bc 7c 26 be
       -0.21782306 0.276753 -0.08009729 -0.1625852
000220 41 8f a2 be 33 01 3c 3e 63 bb 4b 3c 96 25 53 be
       -0.3174992 0.18359832 0.012434813 -0.20619807
000230 99 b9 17 3e 04 b0 0c 3d ef 31 38 3d 72 89 2c 3e
       0.14816894 0.03434755 0.044969495 0.16849306
000240 96 89 a0 3e 22 fe 20 be 3d 17 15 3d 87 74 09 bf
       0.3135497 -0.15721944 0.036399115 -0.5369343
000250 1c f8 29 be 75 00 91 3e bb 5a 0c bd 5f 7b 09 3e
       -0.16598552 0.2832066 -0.034266215 0.13425969
000260 f5 e3 9b be da c9 5a be a7 0c 50 3d 1b c1 89 bd
       -0.30447355 -0.21366063 0.050793316 -0.06726285
000270 ac c9 18 be 83 fc 19 3c 00 f0 6b 3e 6f e9 52 be
       -0.14920682 0.009398582 0.23040771 -0.2059686
000280 01 53 ce bd 7b 02 ad 3d 1c 5e 24 be 7a 74 5e bd
       -0.100744255 0.08447739 -0.16051525 -0.0543103
000290 1f 6c 00 be 2f 1f b5 be 06 37 d8 bd ed 1e 51 be
       -0.12541245 -0.35375354 -0.1055737 -0.20421953
0002a0 df e5 25 3d 55 f7 29 3c 34 8d a1 3d 98 65 ed 3d
       0.040502425 0.01037391 0.078882605 0.11591643
0002b0 f5 a4 a9 3e bc 0d 5b bc 15 73 02 3e cd 13 99 3e
       0.33133665 -0.013369974 0.12739213 0.2989792
0002c0 fc 67 aa be e8 7a 54 3e b4 97 00 3d cd ab a0 3e
       -0.3328246 0.2075001 0.031394675 0.31381074
0002d0 72 f1 a2 be f7 e5 00 3b bb 87 9a 3e c5 dc 1f be
       -0.31824833 0.001966832 0.3018168 -0.1561156
0002e0 46 7e 92 bd 96 94 0a 3d 2d 96 01 be d2 32 63 be
       -0.07152991 0.03383311 -0.12654944 -0.22187355
0002f0 db 21 39 3e b8 59 c1 3b b7 92 04 bb 5d 99 26 be
       0.18079321 0.005900588 -0.002022905 -0.16269441
000300 82 38 18 3e 12 55 4a 3e b6 15 b7 3a 4b 7d 2b be
       0.14865306 0.19759014 0.0013968262 -0.16747014
000310 4c 8d 7e bd 27 e5 b8 3d bf 66 1a be 5d d4 22 bd
       -0.06214647 0.09028082 -0.15078257 -0.039753307
000320 65 63 a8 3c 0b ba 7c bc 85 fc 7c ba f3 42 ca bd
       0.020555208 -0.0154252155 -0.00096506655 -0.09876051
000330 b7 e8 11 3e 86 7d a5 3b 44 84 95 bd 7f a0 72 be
       0.1424893 0.005050364 -0.07300618 -0.23694037
000340 01 5e 18 be e2 03 1b be 96 d9 b1 bd 90 10 4c be
       -0.1487961 -0.151382 -0.08684079 -0.19928193
000350 63 d7 8a 3e be c6 28 be 35 04 86 3d c8 59 8f 3c
       0.27117452 -0.16482064 0.06543771 0.017498866
000360 07 11 95 3d f2 0a ae bd e1 29 9f bd 70 57 b4 3d
       0.07278638 -0.084981814 -0.0777166 0.0880574
000370 14 6f b4 bc 94 41 0b be 03 0e 2e 3c 37 b6 a4 3d
       -0.022025622 -0.13599235 0.010623458 0.08042567
000380 67 a5 d9 bc 2e 2a f2 bd 55 fe 61 3d 41 92 bf 3d
       -0.026568128 -0.118244514 0.05517419 0.093540676
000390 f6 bf 18 bd c9 3f 15 3c 75 42 89 bd 2e f0 87 3e
       -0.037292443 0.009109446 -0.06702129 0.2655043
0003a0 53 33 ae 3d 16 49 47 be 85 fb 8e 3d d9 f6 fa 3c
       0.08505883 -0.19461474 0.06981567 0.030635284
0003b0 15 c4 d5 3d cf c1 1d 3d 6d 5c 16 3e 05 7f c7 3d
       0.1043779 0.03851491 0.14683695 0.09741024
0003c0 ee 04 bc bd 3d 78 f8 bd 82 b0 ee bd db 91 cc 3c
       -0.09180628 -0.12132309 -0.1165476 0.024971893
0003d0 53 a5 96 3e 3d 9f cd 3d 91 2b 9c bb 22 10 e8 3b
       0.29423007 0.10040138 -0.0047659357 0.0070820013
0003e0 f2 94 43 be 9a 90 33 be ea 76 6a 3d b8 64 91 bb
       -0.19099787 -0.1753563 0.05724231 -0.0044370554
0003f0 8f b2 8c bd 74 bc 6e be 0c 8b 37 be ce bc 3f 3d
       -0.06869995 -0.23314077 -0.17924136 0.046810918

lstm.bias_ih_l1 f4 [256]
000000 6a 2a 83 bd 4a 67 01 bd 08 fc e3 bd d3 cb 7f 3d
       -0.06404574 -0.031592645 -0.111320555 0.06245024
000010 04 5f d3 bc f8 9c 3c 3d 8f c1 d1 3d 04 29 1e bc
       -0.025802143 0.046048135 0.102419965 -0.009653334
000020 53 7d cf 3c e5 36 d2 bd d5 6a 56 bd 00 05 97 bd
       0.025328314 -0.102643766 -0.052347977 -0.073740005
000030 11 90 af bd 87 a4 9f bd c1 23 ef 3d 03 b3 c9 bd
       -0.085724 -0.07795053 0.116767414 -0.09848597
000040 17 86 96 bc 40 3e 4d bd 14 be ce bc e5 a7 8a 3d
       -0.018374486 -0.050108194 -0.02523712 0.067703046
000050 ec e3 7a 3d 6b 80 1b ba 73 6d 31 bd 65 83 92 bd
       0.06125252 -0.00059319165 -0.04331727 -0.07153968
000060 f2 db 11 3c cc ea 55 bd b7 9f 4e 3e 92 ac 10 3e
       0.008902537 -0.052225873 0.20178114 0.1412833
000070 d6 8c 3b bd e4 a8 77 bc fb c8 aa bd 45 d9 3d 3d
       -0.04578861 -0.01511595 -0.08339115 0.046349782
000080 e2 54 24 3d c1 17 aa 3b a5 3c 84 3d 00 74 0c 3d
       0.040120013 0.00519082 0.064568795 0.034290314
000090 e3 d1 41 3d 4e f1 f8 3b b8 f1 4f 3d 57 f5 c3 3c
       0.047319304 0.007597125 0.05076763 0.023920698
0000a0 64 9d f4 bc 9b 60 0c 3d 47 9a 50 3c f9 32 88 bd
       -0.029860206 0.034271818 0.012732095 -0.06650347
0000b0 e2 6e c9 3d 93 7d d0 bd 81 99 bf bb 65 de a8 3d
       0.09835602 -0.101802014 -0.0058471565 0.082455434
0000c0 58 89 d1 3c 99 ef 5e bd 35 6e ec bc 98 63 d1 3d
       0.025578186 -0.054427717 -0.028861145 0.10224074
0000d0 1a 41 44 3d 7b 2d e0 bd de 7c a1 3d cf 70 40 3d
       0.04791365 -0.10946175 0.07885145 0.046982583
0000e0 77 93 55 3e ad ae c3 bc 4a c1 90 3d a4 90 a1 bb
       0.20857035 -0.023887003 0.07068117 -0.0049305726
0000f0 0b 06 2e 3e 1a de 8b 3d f9 e7 8f 3e a5 2d 39 3d
       0.16994493 0.06829472 0.2810667 0.045209546
000100 31 09 99 bd 5e 24 ad 3c f5 5e 90 3d 24 82 3d bd
       -0.07472456 0.021135505 0.070493616 -0.04626669
000110 bd e4 d0 bd 47 91 81 3d 04 cb dc 3b 14 f9 e5 3d
       -0.10199878 0.063265376 0.0067380685 0.112291485
000120 3a 0f e3 bc 0c aa b3 3d 9f a8 91 3d 7e c2 84 bd
       -0.027717222 0.08772668 0.0711224 -0.06482409
000130 cc f7 86 3d 98 c3 56 bc 4c 91 da 3d 43 0f d0 3d
       0.06590232 -0.013108157 0.106722444 0.10159161
000140 1a 6c 17 3d 93 ae 0a 3e 4a 1a 34 3d a8 93 8c bd
       0.036968328 0.13543157 0.043970384 -0.06864101
000150 09 a9 26 3d 4c 9e f5 3d a1 f9 04 3e 8b dc 37 3d
       0.04068855 0.11993083 0.12985851 0.04488806
000160 53 51 10 3e ae 76 02 3e d3 48 1c bd ce 6a 87 3b
       0.14093523 0.12740585 -0.038155388 0.004132605
000170 80 cf fb 3d 00 26 de 3d 40 3a b3 3c e6 bc 67 3d
       0.12295437 0.10847092 0.021878362 0.056576632
000180 81 b0 06 3e 66 4e d4 3d 68 2a 15 3e 76 c4 9c 3c
       0.13153268 0.10366516 0.14566958 0.019136649
000190 67 7d 56 3b 6e 04 e3 bc 37 43 f2 3d 5b d9 27 bd
       0.0032728554 -0.027712073 0.118292265 -0.04097877
0001a0 74 5c f3 3c 31 63 37 3d ff ee cc bd 50 07 63 bd
       0.029707171 0.04477233 -0.100065224 -0.055426896
0001b0 0d bf f5 bb c6 44 8d bd 1c e4 b9 ba 35 e5 7a 3d
       -0.0074995817 -0.06897883 -0.0014182362 0.061253745
0001c0 08 77 15 3d dd f7 e8 3c f7 1a c5 bd ef a4 ee 3d
       0.03649047 0.028438503 -0.09624284 0.11652552
0001d0 94 76 97 3d 25 e7 a4 bc 7c 24 83 bd 8a f0 e0 bd
       0.07395664 -0.02012975 -0.06403443 -0.10983379
0001e0 0f b3 dc bc ab 76 98 3d 6b 97 63 bd 91 e9 d4 bc
       -0.02694085 0.07444509 -0.055564325 -0.02599028
0001f0 51 83 c3 3c 39 03 51 3d b7 a8 b4 bb 0e 77 ac 3d
       0.023866327 0.051028464 -0.0055132764 0.084211454
000200 0b 00 ee 3c 5b 6c 86 bd 75 92 46 bc ca 61 75 3d
       0.029052755 -0.06563636 -0.012119879 0.059907712
000210 e8 04 3d 3d 4b ec 97 ba 2c b4 ce bd cc 6d 94 bd
       0.046147257 -0.0011590807 -0.10092959 -0.072475046
000220 96 b1 8d bd d0 be 6a 3d c2 29 19 bd f1 d5 f5 3d
       -0.069186375 0.05731088 -0.03739334 0.12003697
000230 25 07 e9 bd dd 23 90 3d 96 dc b1 bd 4f e2 4f 3c
       -0.11378316 0.070380904 -0.086846516 0.0126882335
000240 0b 41 b3 bd ca 6b 2c bb c7 d6 06 bd 91 23 ab bc
       -0.0875264 -0.0026309364 -0.03291967 -0.020890983
000250 37 38 8f 3d 3c 83 24 3d 16 8b 14 3d bb 06 2d bd
       0.06993144 0.040164217 0.036265455 -0.042242747
000260 17 d7 7e 3d c5 eb d7 3d a9 38 dd 3d 8e 02 65 3d
       0.062216844 0.10543016 0.10801823 0.05591064
000270 65 ab 82 bd 52 84 f1 3d 0a 59 08 3e 2c 5d c3 bd
       -0.06380347 0.11792816 0.13315216 -0.095392555
000280 dc b4 87 3c 20 be 02 be 29 78 92 bd 53 b7 0d 3e
       0.016565733 -0.1276784 -0.07151825 0.13839464
000290 3c 58 b9 bd d5 cd 13 3c 2f a3 87 3d 9b 1f d9 ba
       -0.090500325 0.009021242 0.06622922 -0.0016565205
0002a0 c6 8c dd 3c c0 08 15 be 3b 5d 39 3d 95 99 e3 3c
       0.027044665 -0.14554119 0.045254927 0.027783195
0002b0 9f 2d 07 be 2f df bb bd 8e 93 b5 bb 62 9d e3 bc
       -0.13200997 -0.09173428 -0.0055412715 -0.027785007
0002c0 ca b4 3f 3d ad 81 10 3d 72 94 13 be 3e d3 01 bd
       0.046803273 0.03527992 -0.14412096 -0.031695597
0002d0 6e 9b 0d 3e 05 4c 0e 3c 21 5c 9b bd ae 4f 68 3d
       0.13828823 0.008685117 -0.075859316 0.056716613
0002e0 47 95 ae 3d fc af 37 bc 84 58 82 bc d7 ba e9 bc
       0.08524566 -0.011211392 -0.015911348 -0.028531475
0002f0 16 bb b7 3d 63 b6 36 bd 70 2f 94 3d 9b 0e a0 bd
       0.08971231 -0.04460753 0.072356105 -0.07815286
000300 74 71 29 3e c0 5c 35 3d 40 66 8b 3d c4 a9 af bc
       0.16547185 0.044277906 0.06806612 -0.021443255
000310 88 e4 02 3e fb 51 e2 bc 71 e3 33 bd 06 3c 9d bd
       0.1278249 -0.027626982 -0.043918077 -0.07677464
000320 d5 a5 de bc de 81 1f 3e 96 ba 44 3b 76 ec cf 3d
       -0.027178684 0.15576884 0.003001844 0.10152523
000330 b5 0c 21 be e7 46 66 3e 27 a4 20 3d f6 f7 21 bd
       -0.15727504 0.22487985 0.039219048 -0.039543115
000340 b1 1e 8d 3d 21 af ed 3d 25 16 9b 3d 2c 9d 8c 3d
       0.068906195 0.11605669 0.07572583 0.06865916
000350 e4 c8 e3 3d 31 96 a0 3d 66 51 b6 38 12 c4 33 3e
       0.11122301 0.07841147 8.693598e-05 0.17555264
000360 e2 6a d7 3b fd 70 25 3e 57 78 1e 3e e6 80 28 3e
       0.0065740207 0.16156383 0.15475594 0.16455421
000370 c0 29 b0 3d 98 a8 5d bd 3d 7f 29 3e 47 e3 2e 3d
       0.08601713 -0.05411586 0.16552444 0.042697217
000380 02 89 85 3d 69 ff f0 3d ed d3 f9 3d ef a8 e2 3b
       0.06520273 0.117674656 0.12198625 0.006917111
000390 18 d4 cb 3d 5a d9 ed 3d f7 ad 5d 3e 19 a4 c4 bc
       0.09952563 0.11613722 0.21648394 -0.02400403
0003a0 58 84 ac 3d 6b 7e 17 3e cb 63 3d bd a5 22 82 3d
       0.0842368 0.14794318 -0.046237748 0.06354264
0003b0 60 80 9b bd c4 04 3b 3c 71 c4 81 bd b4 9d 98 3d
       -0.07592845 0.01141471 -0.06336296 0.074519545
0003c0 4e 17 28 3c 6f 98 73 3e e7 52 35 3e 40 1b 36 3e
       0.0102594625 0.23788618 0.17707406 0.17783833
0003d0 3a 40 e9 bd 6c 91 44 3c 52 0a a7 bd 1e a6 02 3d
       -0.11389203 0.011997562 -0.08156265 0.031896703
0003e0 40 7b e1 3d ea 0f 6a 3d 8c 4e 0b be e8 2d 34 3d
       0.11009836 0.057144083 -0.13604182 0.043989092
0003f0 b9 56 b7 bc 67 a4 62 bb 36 33 d4 3d 11 d6 45 bc
       -0.02238022 -0.0034582855 0.1036133 -0.012074963
