LogAnomaly/result/deeplog/deeplog_epoch286.pth (torch_old, 644250 bytes, 30 tensors)

lstm.weight_ih_l0 f4 [256, 1]
000000 e0 07 50 be 37 48 86 bc 94 42 80 bd e6 4f b3 3d
       -0.20315504 -0.016391857 -0.06262699 0.08755474
000010 f4 c9 0b be c3 ce 44 3d 3c 12 d5 bd 90 77 90 3d
       -0.13651258 0.048048746 -0.104038686 0.07054055
000020 85 28 38 3e b3 f7 a9 3d a2 dc 2a 3e b2 5e aa bd
       0.17984207 0.08299198 0.16685727 -0.08318843
000030 7f 62 c4 3d 98 af 07 3e 2c 23 a6 bd 6f 03 85 3e
       0.09589099 0.13250577 -0.08112177 0.25979182
000040 7a 2a 9e 3d 32 64 5c 3d b0 0d 1a be d6 06 1b 3e
       0.077229455 0.05380649 -0.15044284 0.15139326
000050 74 d9 2c 3e ba b2 9d 3d e0 04 80 3d 05 c4 6d bd
       0.16879827 0.07700105 0.0625093 -0.058048267
000060 2d fa 4f 3e 15 cf 88 bd 1d 40 95 bc ef ec 93 3d
       0.20310278 -0.06680123 -0.018219048 0.07222926
000070 47 fa 97 3d fb c1 0e be a5 30 00 3e d3 08 6e 3c
       0.074207835 -0.13941185 0.12518556 0.014528471
000080 ed e6 fa 3d 09 4f d1 3d 17 82 ae 3c 37 de 42 3d
       0.12251077 0.10220153 0.021302266 0.0475752
000090 2e b5 5d 3e 5c 96 2a 3c d2 d7 0b 3e aa fe 0f be
       0.21651146 0.010411825 0.13656548 -0.1406199
0000a0 3b cb 89 3b 01 4e 0d be b0 02 06 3e a2 47 d1 3e
       0.004205135 -0.13799287 0.13086963 0.40874964
0000b0 3c 62 04 be a0 68 e1 3d 08 12 15 3e 6d fb 4f be
       -0.12928098 0.11006284 0.1455766 -0.20310755
0000c0 4b da 48 3e 47 89 23 3e 6f d5 bb 3e 89 88 ac 3d
       0.19614522 0.15970336 0.36686274 0.084244795
0000d0 96 20 72 3d 14 1e aa 3e 1b d1 ee 3d 0b 00 70 bd
       0.059113108 0.33226073 0.116609775 -0.05859379
0000e0 6e 95 34 be 31 d5 cb 3c b5 a7 e7 3d f8 fe 28 3d
       -0.17635128 0.024881931 0.113112845 0.041258782
0000f0 f7 6a 35 3d cc a5 16 3e 53 65 d0 3d 48 c2 1d be
       0.044291463 0.14711684 0.10175576 -0.15406144
000100 46 14 83 bd c2 97 36 3d a0 be f6 3d e3 de 2a bd
       -0.06400351 0.04457832 0.120480776 -0.041716468
000110 be 7c ba bd 51 26 64 3d 37 aa ce 3d 3f d5 63 3d
       -0.09105824 0.055700604 0.1009106 0.05562329
000120 e4 5f 2a bd 69 80 97 3e 81 22 2c 3e f6 32 06 be
       -0.041595355 0.29590157 0.16810037 -0.13105378
000130 ae b1 5e bc 22 4e af 3d 00 bf 2e 3e e8 59 87 3e
       -0.013592167 0.085598245 0.17065048 0.2643578
000140 e1 93 fe 3c 26 c3 0c 3e 03 30 f3 bd 89 ac 12 3d
       0.031076374 0.13746318 -0.11874392 0.035809074
000150 36 07 85 3b 90 1a 6c 3e c6 a1 0c 3e 87 87 55 bd
       0.0040596975 0.23057008 0.13733587 -0.052131202
000160 ec f1 79 3c 53 c0 9a 3d 27 46 2e bf d6 27 a3 3d
       0.015255433 0.07556214 -0.68075794 0.079665825
000170 14 be 82 bd 71 96 83 be 7e b0 62 3e 5a 17 58 3c
       -0.06383911 -0.25700715 0.22137639 0.013189161
000180 10 e9 f1 bc 4c 66 21 3e 00 68 e0 3d 0f 2e d8 3d
       -0.029530078 0.1576168 0.109573364 0.1055566
000190 41 40 89 3d 22 60 4a 3e d5 2d ec 3d f5 50 15 3d
       0.067017086 0.19763234 0.11532179 0.03645416
0001a0 2e 6d 19 3e 4a 05 75 3e e1 18 39 3e ef a3 7c 3d
       0.14983055 0.23927799 0.18075897 0.061679777
0001b0 c0 ce 04 be 32 d4 f7 bc ca c4 70 3d 4d cf e9 bd
       -0.12969494 -0.03025255 0.058781423 -0.114164926
0001c0 21 f7 a3 3d 5c 87 de 3d 9e 9d 9f 3e ad 87 7f 3e
       0.080061205 0.108656615 0.3117494 0.249541
0001d0 de 48 53 3d e3 55 ba 3c b7 4c 2a 3e 34 e1 da bc
       0.051583163 0.022746032 0.16630827 -0.026718713
0001e0 7b c2 39 be 13 1d 38 3e 53 87 f3 3e 2e ee 06 bd
       -0.18140595 0.17979841 0.47564182 -0.03294199
0001f0 b0 a7 29 3d f3 e4 5e 3d 66 b6 b3 bd a1 b2 1c be
       0.041419685 0.05441756 -0.08775024 -0.15302517
000200 73 5c ea 3e 56 0f 0c be 52 0e a6 3d 95 1f 04 3d
       0.45773658 -0.13677725 0.081082 0.03225668
000210 d0 97 83 3e 3d 59 37 be 21 ee 4c bd 2f 58 1b 3e
       0.2570176 -0.17905135 -0.050031785 0.15170358
000220 6e 4b 33 3e fa a5 2f bd 52 72 87 bd 7b 35 6c 3e
       0.17509243 -0.042882897 -0.06613602 0.23067276
000230 7a bc 79 be c3 6a 30 3e 8a 1e 29 be 0a 52 c5 bd
       -0.24388304 0.17228226 -0.16515556 -0.09634788
000240 c5 97 69 3e 5a be 9c be 17 23 87 be e2 6c 5e 3e
       0.22811802 -0.30613977 -0.2639396 0.21721223
000250 db 5d 3a 3e b4 8a 15 bd 83 95 1f be 6a bc 4e 3e
       0.18199866 -0.03650923 -0.15584378 0.20189062
000260 f6 9f cf 3d 56 a4 a4 3e ed f2 f0 be ad e0 9c 3c
       0.10137932 0.32156628 -0.47060338 0.019150103
000270 6e 2c ca 3c c0 45 41 be 3b c3 71 3f d5 56 20 39
       0.024679389 -0.18874264 0.94438523 0.00015291137
000280 f6 c2 00 3f a2 81 c7 3c 7d e5 b1 3d f2 bf f1 bc
       0.50297487 0.024353806 0.086863495 -0.029510472
000290 6f 2f a2 be 7a 31 57 be 6d df a2 be d6 60 42 be
       -0.31676814 -0.21014968 -0.31811085 -0.18982252
0002a0 ff 5a 52 3e af 5b 5d 3d 19 cd 03 be 03 e3 d7 bf
       0.20542525 0.054042514 -0.12871207 -1.6866153
0002b0 af 79 c1 3e 38 01 9f 3e 55 ff 88 3d 59 da 02 3f
       0.3778815 0.31055617 0.06689326 0.5111442
0002c0 36 7e fb bd 36 02 1e be 3e 28 18 be e0 39 1d bd
       -0.12279932 -0.15430531 -0.14859101 -0.038385272
0002d0 c6 4a d5 be 58 93 f4 3e 44 e7 10 3d 71 66 30 3e
       -0.4165861 0.47768664 0.035376802 0.17226578
0002e0 e1 4b c0 be 4f db 9f 3d 64 d5 4f 3d 44 ca a0 bd
       -0.3755789 0.07805502 0.050740615 -0.07851079
0002f0 43 bb 0a 3e 1f b0 aa bd 99 70 aa 3d d3 2e b4 be
       0.13547997 -0.08334374 0.083222575 -0.35191974
000300 a3 16 45 3e 8b a0 5c bc cd 9e 24 3e ef 6d ab 3e
       0.19246916 -0.013466011 0.16076203 0.3348231
000310 af 7b 3b 3e 0a b1 a2 3d 66 03 3b 3e fc 6d 68 3e
       0.183089 0.07943924 0.18263015 0.22698206
000320 47 36 3d 3d 5b 4a 9b 3e 52 63 a2 3d f8 97 6b 3e
       0.04619434 0.30330166 0.079291 0.2300719
000330 b4 4c 84 3e 00 dc 1c 3e 46 6e 6f 3e c3 4e 9e 3e
       0.2583977 0.15318298 0.2338191 0.30919465
000340 53 51 bc bd 3b 58 09 3d c3 46 a7 3e 98 e6 53 3e
       -0.09195199 0.03353141 0.32671174 0.20693433
000350 1f a6 a0 3e fc df 74 3e 8b dc 57 be 45 ef 36 be
       0.3137674 0.23913568 -0.21080224 -0.17864712
000360 43 c9 35 be 69 6b 44 3d 43 96 5e 3b 32 f7 e2 3d
       -0.17752557 0.047953997 0.0033964075 0.11082305
000370 a9 5c aa bc ff 26 ad be 64 12 1c 3e f3 da 90 3e
       -0.020796137 -0.33818814 0.1524139 0.28292045
000380 90 46 e3 bd 86 5f af 3e c9 b1 aa 3d a7 11 a4 3e
       -0.11097443 0.34252566 0.08334691 0.32044718
000390 e8 81 bf bd 00 50 68 be 3a 9a b1 3d 87 23 9a be
       -0.093509495 -0.22686768 0.086719945 -0.3010523
0003a0 89 3c 5d be 63 fc 91 3e 68 b2 4d 3e 58 fe 98 be
       -0.21605124 0.28512868 0.20087588 -0.2988155
0003b0 df c4 89 3e dc 7a 93 3c 21 bd 5c 3e 75 50 2c be
       0.26908013 0.01800292 0.21556522 -0.16827567
0003c0 f6 bb 42 be 34 71 fb bd db ae 01 3e e4 3a 61 be
       -0.19017014 -0.12277451 0.12664358 -0.21995121
0003d0 16 b7 9f 3d 3d 78 c3 bd 3b b4 7f 3d 5c e3 ba 3d
       0.07798593 -0.09544418 0.06242774 0.091253966
0003e0 d7 41 32 3e d5 4e 62 be 26 bd 96 3e 5e bd 0f be
       0.17407928 -0.22100385 0.29441184 -0.14037082
0003f0 22 dd dd 3d 64 10 26 3e eb aa 73 3e ec 7c 13 3e
       0.10833193 0.1621719 0.23795669 0.14403123

lstm.weight_hh_l0 f4 [256, 64]
000000 49 75 6c 3e 5f a5 1e be 88 bd 1a 3d f2 3b 91 3d
       0.23091616 -0.15492772 0.037778407 0.07091512
000010 da 44 81 3e 40 a8 e9 bd 3d d3 4a bd 1d c0 ad 3d
       0.25247842 -0.11409044 -0.04951786 0.08483908
000020 5d 37 2e 3e cc 31 07 3e 9f 5c 02 bc 33 6f 34 be
       0.17013307 0.1320259 -0.007956653 -0.17620544
000030 1e 12 49 be 05 ca d0 3d e3 d2 f4 bd 2d b5 89 3e
       -0.19635817 0.10194782 -0.11954286 0.2689604
000040 76 1f 54 3e 55 3d 4e bd 21 74 2b 3d 1e e2 18 3e
       0.20715126 -0.05035146 0.041858796 0.14930007
000050 09 6b a2 bd 56 58 b0 3d ad 38 69 bd cf ea 3c 3e
       -0.079305716 0.08610599 -0.056938816 0.18448947
000060 ca 02 90 3e 0a 7d 6f 3e db 84 c0 3d 4a 88 b0 3d
       0.28127128 0.23387542 0.0940034 0.08619745
000070 20 06 b0 3d 82 32 a4 be d8 ec 71 3d 3b 85 07 3e
       0.08594918 -0.32069784 0.059063762 0.13234417
000080 3b 94 41 3d d5 be 91 3d 85 08 af 3d e7 2c 2d be
       0.047260504 0.071164764 0.08546547 -0.1691166
000090 94 e5 22 bd 67 fa 54 be 36 80 e7 bd 26 03 a4 be
       -0.039769724 -0.20798646 -0.11303751 -0.32033652
0000a0 1d 55 a7 3d c5 48 00 be 84 a8 bb 3d fe 90 e0 bd
       0.08170531 -0.1252776 0.09163001 -0.10965155
0000b0 82 84 51 3d e7 b1 34 3e dd a6 24 3d b3 ad 82 3e
       0.05115176 0.1764599 0.040198196 0.25523147
0000c0 6d 4d 99 be 8f 29 bd bd 03 32 31 3e 8f 5f ae be
       -0.29941884 -0.09236442 0.17304234 -0.3405728
0000d0 5b 3e 6e 3d 13 e5 49 3e fb 90 e8 3d f5 e9 af bc
       0.058164936 0.19716291 0.11355778 -0.021473864
0000e0 e2 01 d5 bd 46 56 c3 3e a2 42 f7 bc 08 90 f3 bd
       -0.1040075 0.3815176 -0.03018314 -0.11892706
0000f0 9e 5a 0a 3e b0 7d 4d bd 8a 4d 15 be 13 db a0 bd
       0.1351113 -0.050168693 -0.1458036 -0.07854285
000100 aa cc 63 bd ac 08 ae bd 27 14 9f 3e 12 14 87 3e
       -0.055615105 -0.08497748 0.31070063 0.263825
000110 f6 bf 17 3e 03 b7 37 be 9f db b6 3d a5 aa aa 3d
       0.14819321 -0.17940907 0.08928608 0.08333329
000120 dc b2 1b 3e 7b ab b4 3d ee d2 01 be 35 3d 9e 3d
       0.15204948 0.0882177 -0.1267812 0.07726518
000130 08 95 5a be b2 1b 3c 3e b4 f5 06 be f0 85 ab be
       -0.21345913 0.1836994 -0.13179666 -0.33500624
000140 c1 71 5c 3e f8 15 17 bd 67 11 02 be 1d 22 5c 3e
       0.21527769 -0.036886185 -0.12701951 0.21497388
000150 23 4d ea 3d 11 83 d4 bd 69 49 20 be 14 cc 07 3d
       0.11440494 -0.103765614 -0.15653004 0.03315361
000160 85 a6 c5 3e 36 a9 b3 3d df d2 a7 bd 19 c4 f2 3d
       0.38603607 0.08772509 -0.08194517 0.11853809
000170 14 9e 6b 3e fe e3 9e bb ee af 1e 3d 15 73 37 3e
       0.23009521 -0.004848956 0.038742 0.17914994
000180 01 16 5a 3c 51 4a 37 3e 75 cf 80 3d 88 3c 02 be
       0.01331091 0.17899443 0.06289569 -0.12718403
000190 f2 08 a9 bc 14 43 3c be 98 84 1c be 82 47 9e 3d
       -0.020634148 -0.18384963 -0.15284956 0.07728483
0001a0 d0 f0 3e 3e 03 60 6c bd 21 1f ef bd b3 a8 ca 3d
       0.1864655 -0.05770875 -0.11675859 0.09895458
0001b0 ca 51 fb 3b 4d 47 1f 3e 5e 0a 5d 3e 68 e1 f0 bd
       0.007669662 0.15554543 0.21585986 -0.11761743
0001c0 97 7f 78 be 5f 42 03 be 13 12 12 bd a6 e7 6e be
       -0.24267422 -0.12818287 -0.03566177 -0.23330554
0001d0 a3 5b e2 3c 5c 14 df bc 81 a3 8d 3e ea 92 1b 3e
       0.027631586 -0.027231388 0.27663806 0.15192762
0001e0 c0 be 3a bd 5f c4 b7 3e 99 2f 48 3d 3e 00 2d be
       -0.04559207 0.35892007 0.048873518 -0.16894624
0001f0 3b 90 1b 3e 44 9e 2d be 97 0f a0 3d 2b 21 ae bd
       0.15191738 -0.16954905 0.078154735 -0.0850242
000200 08 86 fd 3d 5b f6 a6 3d 84 cb e8 3d 18 bd 6f 3e
       0.1237908 0.08152457 0.113669425 0.23411977
000210 89 ff 21 3e dc 4c 8d be 14 f2 81 be 88 8a 63 3e
       0.15820135 -0.27597702 -0.25380003 0.22220814
000220 0b 59 5f 3e 6d 7a de bc 7a bb 99 bd a4 cf ee 3d
       0.21811311 -0.027157987 -0.075064614 0.11660698
000230 63 d7 b0 bd f1 14 88 3d 61 0b 0e be 65 92 bf 3d
       -0.08634832 0.06644619 -0.13871528 0.093540944
000240 f4 a2 1c 3e c1 32 6f be 1c 4e 97 bc 5a aa 5e 3e
       0.15296537 -0.23359205 -0.018469863 0.21744671
000250 11 78 51 3d 51 56 87 3d 10 57 6f bd 24 4e 03 3e
       0.051139895 0.066082604 -0.05843264 0.12822777
000260 03 9e 47 3e 74 ee b9 3d 7e da b3 bc 8d 7c 98 3e
       0.1949387 0.090786844 -0.021954771 0.29782525
000270 7e 10 1c bd 5f 4e cc be 27 3a f9 3d e7 71 9a 3d
       -0.038101666 -0.39903542 0.12169295 0.075412564
000280 b5 68 ce bd 7e b7 0c 3e f3 bd 51 3e 14 fa 08 be
       -0.10078565 0.13741872 0.20482616 -0.13376647
000290 6b b7 ec 3b 09 dc 23 be 22 a3 44 bd f7 e0 cc be
       0.0072240136 -0.16001906 -0.048007138 -0.40015385
0002a0 4b 2a 3b 3e bd bb 22 be 95 7f 1f bd ec f7 80 bd
       0.18277852 -0.15891929 -0.03894003 -0.06297287
0002b0 a9 6a 93 3d 00 15 b3 3d 4b 02 84 3e 3e b6 16 3c
       0.07198078 0.0874424 0.25783 0.009198723
0002c0 2c 4d 2c bd e6 20 3a 3c 2d 3b 19 be 04 d8 5b 3d
       -0.042065784 0.011360383 -0.1496398 0.053672805
0002d0 fa 22 36 3c 87 c7 ac 3d 86 ba 13 3d 7a 62 85 3e
       0.0111167375 0.08436494 0.036066554 0.26051694
0002e0 b8 d0 25 bd 68 5c 73 3e af 5d 3b bc 54 f2 0f bf
       -0.040482253 0.23765719 -0.01143591 -0.5622914
0002f0 7f 43 26 bc 04 05 0b be f6 38 a2 3d d7 83 98 be
       -0.010147928 -0.13576132 0.07921021 -0.29788086
000300 e4 7d 97 3d 3c ec 67 be 5d 48 fe bc 50 a8 0d 3d
       0.073970586 -0.2264871 -0.031040365 0.034584343
000310 dc d7 31 3d 3c a6 a8 3d 77 fa 0a 3c dd 61 d2 bd
       0.04341875 0.08234832 0.008482567 -0.10272572
000320 ab 7e 80 bd 91 91 93 bc 36 e6 2e 3d 70 22 d9 3d
       -0.0627416 -0.018013747 0.042700015 0.106022716
000330 cc af af bb 63 18 fa 3c f0 52 8d 3d 0b a8 cf 3d
       -0.005361533 0.030529207 0.06900585 0.101394735
000340 b2 ff 45 3b 9a 47 b5 bd 86 3d 17 be 15 b5 eb 3c
       0.003021222 -0.088515475 -0.14769563 0.02877287
000350 f1 fc 4f 3d fb ce cc 3c 02 d1 69 be 8a 7b 95 3e
       0.050778333 0.02500104 -0.22833636 0.29195815
000360 62 90 45 bd 72 53 0b 3e c5 af 00 3d 6a b4 b3 3d
       -0.048233397 0.1360605 0.031417627 0.087746456
000370 dd d9 00 3e 89 1a 7b be 8f ec c9 bc 4a a2 f9 bb
       0.12583108 -0.24521841 -0.024648933 -0.0076182233
000380 82 13 a6 3d 22 5c 25 bd 2c b7 04 3e 48 da 20 3d
       0.081091896 -0.040371068 0.129605 0.03927067
000390 7d 43 5e bd 14 81 51 be 69 0e eb bd aa 73 48 be
       -0.05426358 -0.20459396 -0.11477358 -0.19575372
0003a0 f8 ca 47 bd 94 df 35 3d fd 51 e8 bd c1 fe f8 bc
       -0.04877755 0.044402674 -0.11343763 -0.030394914
0003b0 98 e5 6b 3e fd f0 34 bd ed ad 1f be d4 dc aa 3e
       0.23036802 -0.044175137 -0.15593691 0.33371603
0003c0 4b a0 05 bc a2 6c 70 bb a0 ea a0 3d 25 64 0a be
       -0.008155893 -0.0036685844 0.07857251 -0.13514765
0003d0 a6 90 b8 bd fd d0 98 3d a1 d9 2e 3d 3f 42 fe 3d
       -0.090119645 0.07461736 0.042688016 0.12414979
0003e0 cc ed b7 bd 1d 2f 0a 3e b2 31 d5 3d eb 11 c3 bd
       -0.08980903 0.13494535 0.10409869 -0.09524902
0003f0 dd e4 db 3d 73 32 e1 bc b3 0f f2 bd d8 7f 7f bc
       0.107370116 -0.027489876 -0.11819401 -0.015594445

lstm.bias_ih_l0 f4 [256]
000000 a9 3a eb 3d 58 9a ab 3d cc 4f 33 3d bd e9 a9 bd
       0.11485798 0.08379048 0.043777272 -0.08296535
000010 54 d6 4a 3e 22 30 26 bc 24 bd 3e 3e 66 94 7d 3b
       0.19808322 -0.010143312 0.18626839 0.0038693189
000020 4e ea 7f 3e 3b 6f 40 3e 72 cd fb bd 0f b7 65 3e
       0.24991724 0.18792431 -0.12295045 0.22433113
000030 e6 df 06 3d da 62 fa 3d 5c f0 e6 3d aa a3 0e 3e
       0.03292837 0.12225886 0.11276314 0.1392962
000040 8c ce 39 3e 85 f5 21 3e d2 e5 3f 3e 99 77 be bc
       0.18145198 0.15816315 0.18740013 -0.023250388
000050 5a 9e 98 bd fc 0b 1c 3d 5f 71 d7 3d ad c8 c0 3d
       -0.07452078 0.038097367 0.10519671 0.09413276
000060 48 d4 0d 3e 26 4e 33 3e 3b f5 60 3d 09 0d 94 3d
       0.1385051 0.1751028 0.05492137 0.07229049
000070 c1 52 b0 bc ff e5 7b 3e 37 0c 90 3e c3 ad e2 bd
       -0.021523835 0.24599455 0.2813432 -0.11068299
000080 c6 44 01 bd 6c 33 fb 3d 5c fb 2a 3d 5c 8f df bd
       -0.031559728 0.12265667 0.04174362 -0.109160155
000090 78 1f 23 3e 98 7a af bd c5 43 01 3c 4c dc ab bd
       0.15929973 -0.08568305 0.007889693 -0.08391628
0000a0 38 73 fe 3d 90 b3 e1 bc ad 6c 45 bd b2 c4 2b 3f
       0.1242432 -0.027551442 -0.048199344 0.6709701
0000b0 27 07 40 3d 0d f9 89 3e 32 8f d9 3c 2c 04 d4 3d
       0.04688182 0.26947823 0.026557539 0.10352358
0000c0 9f 74 2a bd 69 11 8f 3d 63 09 e9 bc c6 cf 03 be
       -0.041615125 0.069857426 -0.028446859 -0.12872228
0000d0 5b d4 00 be 4c b6 99 3e dd df b5 3d aa 77 24 3d
       -0.12581007 0.30021894 0.08880589 0.040153183
0000e0 5d 2b 41 3e cf 3f 53 bd af 4b 52 3d 23 31 a0 3d
       0.18864198 -0.051574524 0.05134171 0.07821872
0000f0 2b 04 dd bc 2e a0 ef 3d 5a 15 7c be d3 23 f9 3c
       -0.026979527 0.11700474 -0.2461752 0.03041259
000100 fe 22 5f bd e1 a0 11 3e a3 14 9f bd 1e dd f6 3d
       -0.05447673 0.14221527 -0.07767608 0.120538935
000110 32 8c 97 3d 19 2f ac 3d 06 9a bb 3d 68 5c d9 3d
       0.07399787 0.08407421 0.09160237 0.10613328
000120 e3 66 b4 3d 14 70 b5 3d 8b 36 16 be d1 06 10 3e
       0.088086866 0.08859268 -0.14669244 0.140651
000130 03 e5 3a 3d 5e 35 8e 3d 45 4d f4 3b 7d ea ba bd
       0.04562856 0.06943773 0.0074555003 -0.09126756
000140 15 4b 68 3d 55 5b 88 bc 06 69 c9 bd 19 23 eb bd
       0.05671223 -0.016645113 -0.09834485 -0.11481304
000150 2e ac 37 3d 75 bc a3 3d d7 69 e1 bd 08 43 77 bb
       0.044841938 0.0799493 -0.110065155 -0.0037729163
000160 57 89 50 3e f9 a7 f3 3d cb 06 c4 3d fc 2c 8f 3c
       0.20364891 0.118972726 0.09571608 0.017477505
000170 65 b6 53 3e df 84 b6 3d df 0d 32 be d6 09 89 3d
       0.20675047 0.08912062 -0.17388104 0.06691329
000180 0b 4e 91 bd aa 35 a5 3c 77 2d 29 bd f0 25 ad 3c
       -0.07094964 0.02016719 -0.041303124 0.021136254
000190 51 2f 06 3d 5d b5 09 be 0c 21 1e bd 60 67 75 3b
       0.03275997 -0.13448091 -0.038605735 0.003744565
0001a0 21 dd c1 bd 3c 5c 90 3a d4 47 02 3e 6d 69 84 be
       -0.09466005 0.0011013816 0.12722713 -0.25861683
0001b0 64 be ed bd 84 07 43 3e 78 90 cc 3d 4a 03 cd 3d
       -0.1160858 0.19045836 0.09988493 0.10010393
0001c0 10 60 8a 3d db e1 a8 3c e0 b1 4e bc 04 ee af bd
       0.06756604 0.020615509 -0.012615651 -0.0859032
0001d0 60 b7 e2 bd 30 a6 d0 3d fe 94 ae 3d 55 a4 42 3c
       -0.11070132 0.10187948 0.08524512 0.01188
0001e0 c7 44 c6 3d cb dc 09 3e fa d1 56 be a6 73 fa 3d
       0.09681087 0.13463132 -0.20978537 0.122290894
0001f0 3d d7 d6 3c 1b e4 47 3d 8e 08 9d 3d 08 33 26 3e
       0.02622568 0.048801523 0.07667647 0.16230404
000200 c0 3b c4 3c 3f fe 4a 3e 30 e6 b1 bd ee 8d 57 be
       0.023954272 0.1982355 -0.08686483 -0.21050236
000210 e4 43 03 3e da ff f4 3d 06 b7 46 be 0b 11 73 3e
       0.12818867 0.11962862 -0.19405755 0.2373697
000220 87 6b 6f 3e 71 3c 06 3e 78 d0 a3 bd d6 b3 1b bd
       0.23380862 0.13108994 -0.07998747 -0.0380133
000230 c0 39 4c 3e a8 91 87 b9 f8 59 3a bd cd d2 c9 3d
       0.19943905 -0.0002585773 -0.045495957 0.0985466
000240 1b f3 6b 3e ab 49 11 be 64 2a 8f 3d 8d 31 12 3d
       0.23041956 -0.14188258 0.06990507 0.035691787
000250 94 bb e6 3c 9d 9d 2a 3e 91 7e 90 bd 7f e7 b2 bd
       0.028165616 0.16661687 -0.070553906 -0.087355606
000260 c7 8e 8b bd 87 67 ed 3d 5a af 9f 3d 2f 6a c7 3d
       -0.06814342 0.11592012 0.077971175 0.0973705
000270 7b 3c 15 bd 15 5e 94 be 42 37 08 3e eb 26 1c 3c
       -0.03643463 -0.2897803 0.13302329 0.009530763
000280 16 e6 74 be 02 5e 2e be 5d 64 14 3e bd 3e e0 3c
       -0.23915896 -0.17028049 0.1449141 0.027373666
000290 d7 47 1a 3d 66 9a 9a bb 00 f6 b3 bd 16 11 9d 3d
       0.037666168 -0.0047181128 -0.08787155 0.076692745
0002a0 11 7e 46 bb b2 0e b6 bd be 97 a9 bd 26 fc d3 3d
       -0.0030287544 -0.08889522 -0.08280896 0.10350828
0002b0 37 45 f7 ba b1 db ca 3d 4a d0 82 3d 19 db 54 be
       -0.0018865232 0.09905184 0.06387384 -0.20786704
0002c0 ee 96 4c bc 6f 9a a3 bc f7 ef b4 3c bd f9 4e 3d
       -0.012487156 -0.0199711 0.02208708 0.050531138
0002d0 0d 63 29 3e 02 16 8d 3e 9b af 78 bd 3c 1e 10 be
       0.16541691 0.27555853 -0.060714345 -0.14074033
0002e0 d4 d2 d8 bd 23 30 94 3c ba 2f 3b 3e 83 cb 8a 3d
       -0.10587087 0.01808936 0.18279925 0.06777098
0002f0 7e 5c 2f be 90 0a 7a bd ab b2 71 bd 69 98 0c be
       -0.17125127 -0.06104523 -0.05900828 -0.13730015
000300 82 72 a3 3e 56 0d 1c bd c5 ea cb bc 04 e3 40 be
       0.319233 -0.038098656 -0.02489222 -0.188366
000310 70 de 62 3e 1b c5 a1 3d a5 78 fd 3d dc 59 df bd
       0.22155166 0.07898923 0.12376527 -0.10905811
000320 ec a4 60 3d 7a 8c e0 bb de 31 14 3e 72 bc b2 bb
       0.05484478 -0.0068526836 0.14472148 -0.0054545933
000330 0e 36 37 3e af 99 4b bd db d5 b0 3d 24 e5 c5 3d
       0.17891714 -0.04970711 0.0863454 0.09662846
000340 aa 45 c5 3d fd 43 af 3c 89 55 53 3e 71 d3 35 bd
       0.09632428 0.021394724 0.20638098 -0.0443911
000350 76 51 1d 3d 4b 3c 28 3d 46 fc 98 3d 84 fa 8f 3d
       0.038407765 0.041073125 0.07469992 0.07030204
000360 00 0c 36 3d d6 6e 9e 3c 19 3a 49 3e 0f b8 d1 3c
       0.044445038 0.01933996 0.19651069 0.025600461
000370 06 b1 08 3e b9 d5 b0 3e 46 78 a3 3e e8 28 0c be
       0.13348779 0.34538057 0.319277 -0.1368748
000380 fd b6 24 3e 8d d7 0a be 9f 93 fd 3d 9f f3 dc bd
       0.1608543 -0.13558789 0.12381672 -0.107886545
000390 d4 dc df 3d 13 6e 15 3e ef af 09 3e 5e 37 92 3e
       0.109307915 0.14592771 0.1344602 0.28557867
0003a0 c4 12 2f 3e dc 53 ec 3a f8 ac b7 3d 31 7a f1 3e
       0.17097002 0.0018030363 0.08968538 0.47163537
0003b0 a4 d6 16 3e e8 17 e6 3d 9c f0 44 bd b3 16 1d 3e
       0.14730316 0.112350285 -0.048081025 0.1534069
0003c0 a8 f0 0b 3e 1a ea 02 3e 47 cc 31 3e 93 ad 11 3d
       0.13666022 0.12784615 0.17363082 0.035565924
0003d0 1e be 64 3e c8 01 69 3e 3f d0 60 3e fa 83 99 3e
       0.22338149 0.22754586 0.2195444 0.29983503
0003e0 7e 24 28 3e ea f8 a6 3d c1 03 13 3d e4 9c 42 3e
       0.1642017 0.08152945 0.035892252 0.19005162
0003f0 50 fa 83 bd c9 a8 33 3d 5c f2 59 be 35 0e 92 3e
       -0.06444228 0.043862138 -0.21283859 0.28526464

lstm.bias_hh_l0 f4 [256]
000000 05 3f 47 3e f5 be 92 3d a4 5d 6b 3d 9a dc 94 3d
       0.19457634 0.071653284 0.05746235 0.07268639
000010 5e 4d 15 3e a1 fe 44 3d 84 ca 44 3c 32 dd ad 3d
       0.14580294 0.048094396 0.012011174 0.08489455
000020 65 1b b7 3d c9 ab 5e 3e 69 4c bf 3c 83 88 39 3e
       0.08940772 0.21745218 0.023351865 0.18118481
000030 b3 11 2c 3e 7b 0d 5e bb 6a 13 ea 3d 06 6a 18 3e
       0.16803627 -0.0033882547 0.11429484 0.14884195
000040 46 db df 3d 61 65 04 3d 7b 6a d7 3d 5b ee 94 3d
       0.10930495 0.032323245 0.105183564 0.07272025
000050 47 d3 c4 bc d1 10 82 3d 0e 2f 29 3d 70 c1 1b bb
       -0.024026526 0.06350864 0.04130464 -0.002376642
000060 25 b0 01 3e 79 5e ca 3d e4 df b5 bc db ff c4 3d
       0.1266485 0.098813005 -0.022201486 0.09619113
000070 09 1f f9 bc 85 16 93 3e f3 dc 6d 3e e0 ec b7 3d
       -0.030410307 0.2872812 0.23228817 0.08980727
000080 e4 0f d9 3d 11 d6 79 3d 4e ec 62 3d df f5 41 bc
       0.10598734 0.060995165 0.05540114 -0.011838405
000090 1d 14 6d 3e 1f f5 93 bd a2 42 12 3d 9d 8f 09 be
       0.23152204 -0.072244875 0.035708077 -0.1343369
0000a0 22 2d 07 3d 74 0f 5d ba 25 7d 7b 3d 4d 9a 17 3f
       0.033002026 -0.00084327837 0.061398644 0.5921982
0000b0 98 33 e5 3d 92 0f 7d 3e 19 99 78 3d 84 21 c3 3d
       0.11191481 0.24712971 0.06069288 0.09527877
0000c0 f3 c4 bf bd fd 1a 69 bd dd 81 8f bd f1 f0 66 bd
       -0.09363737 -0.056910504 -0.07007191 -0.056382123
0000d0 97 7b bc bc 12 d6 f8 3e 50 91 45 bd c2 62 93 3d
       -0.023008151 0.48600823 -0.048234284 0.07196571
0000e0 ba f6 2d 3e 34 87 de 3c 8c 49 72 3e c2 42 c6 3d
       0.1698865 0.02716408 0.23660868 0.09680702
0000f0 8d d7 f9 3d b6 b9 d2 3d 56 8f 0d be 7b ed 23 3d
       0.12199316 0.10289328 -0.1382421 0.0400214
000100 c3 a7 85 bd 83 73 b1 3c d3 c1 f1 bc 3d f4 1a 3e
       -0.06526139 0.021661526 -0.029511368 0.15132232
000110 1a e3 0a bd fd a3 e8 3d ce 50 2c 3d 42 c5 08 3e
       -0.033907987 0.11359403 0.04206925 0.13356498
000120 b6 45 60 3e bf 62 02 3b 18 0c ec bd f1 32 95 3d
       0.21901593 0.0019895283 -0.11525744 0.07285107
000130 29 1d fe ba 99 2b 45 3e 64 2b b4 bd a5 d4 0e be
       -0.0019387353 0.19254912 -0.087973386 -0.13948305
000140 b8 14 a3 3d 75 81 dd 3b 02 4e c6 bd 13 d7 de bb
       0.07962936 0.0067598172 -0.096828476 -0.006800541
000150 d1 93 33 bb c9 ed ba 3d 52 90 7f bc bf 0d cb 3d
       -0.0027401338 0.09127385 -0.0155983735 0.09914731
000160 85 e6 dc 3c 9b 27 92 3d e9 f8 dc 3d 77 65 a8 bd
       0.026965389 0.071364604 0.10789663 -0.08222478
000170 ca 3f 43 3e 79 47 82 3d dc a1 dd bc 59 4e 1c 3e
       0.19067302 0.063612886 -0.02705472 0.15264262
000180 d2 db f4 bd 03 4d 20 be bd 1c 48 3d c6 81 fc bb
       -0.1195599 -0.15654378 0.048855532 -0.0077059
000190 e4 d7 02 be f9 95 5a 3b 77 d1 01 be 91 67 96 bd
       -0.12777668 0.003335355 -0.12677561 -0.073439725
0001a0 e6 72 61 bd ea f8 61 bc d1 5c be 3d 01 ad 74 be
       -0.055041216 -0.013792256 0.09295047 -0.23894121
0001b0 45 31 ae bc 81 02 68 3d 9a e9 6c 3c 57 38 3e bd
       -0.021263728 0.056643013 0.014459992 -0.04644045
0001c0 a7 bb 07 3d 26 e4 e3 3a 2b 74 35 3d e1 10 39 bc
       0.033137944 0.0017386719 0.04430024 -0.011295528
0001d0 33 0f 84 bc 28 48 66 3d 00 e1 1a bd bc 98 85 bc
       -0.016120529 0.056221157 -0.037812233 -0.016308181
0001e0 a2 5e ab 3d 91 79 97 bd e9 0a 79 3c c3 09 85 bc
       0.08367659 -0.07396234 0.015200355 -0.016240006
0001f0 71 00 ba 3d 33 eb df 3d a9 52 84 bd 51 5a e2 3d
       0.090821154 0.109335326 -0.06461079 0.11052383
000200 ff 97 d4 bd 4f 57 f8 3d 21 e7 22 be 95 3a 4a be
       -0.103805535 0.12126028 -0.15908481 -0.1974891
000210 3c 09 28 3e 20 72 6d bd ab af 0d be a0 cd 5a 3e
       0.16409773 -0.057970166 -0.13836543 0.21367502
000220 ae 74 ba 3d 1a 49 2f 3d 52 05 4d bd a5 b0 ff bd
       0.09104286 0.042794324 -0.050053902 -0.12484864
000230 e7 9e 89 3c a9 49 61 bd 5c 85 e2 3d 84 4c 38 3e
       0.016799403 -0.05500189 0.110605925 0.17997938
000240 be 12 77 3e f5 6d fb bd 37 4f f2 bb d3 17 dd bd
       0.24128243 -0.12276832 -0.007394697 -0.1079556
000250 9f 1c 07 be 4b 9a 4a 3e 05 a3 c4 3d 7c 03 62 bd
       -0.13194512 0.1978542 0.09601406 -0.055179104
000260 1b 52 a3 b9 ae b1 64 3e 71 47 a0 3d f9 d3 0f 3e
       -0.00031150956 0.22333404 0.07826126 0.14045705
000270 fa 5e c2 bc 3e 2d 0d be 36 00 06 bd 97 5f 6f 3c
       -0.023726929 -0.1378679 -0.032715045 0.014610193
000280 45 4e 00 be 82 3f 5d be 1a a4 12 3e 25 7f 49 bd
       -0.12529857 -0.21606258 0.14320412 -0.04919352
000290 13 36 27 3e d0 52 f2 3d f3 a4 97 bd 4e d5 a6 bd
       0.16329221 0.118322015 -0.074045084 -0.081461534
0002a0 80 ba e3 bc 0a da 0e be e2 5a c5 bd 66 c0 cd 3d
       -0.027798891 -0.13950363 -0.09636475 0.10046463
0002b0 ee 00 1d bd 09 46 09 3e 52 b8 4f 3d 18 4b 90 3c
       -0.038330965 0.13405623 0.05071289 0.017613932
0002c0 05 cb d3 3d ec c0 78 bd 95 5d 99 3d e8 27 db bc
       0.10341457 -0.06073086 0.074885525 -0.026752427
0002d0 07 fb 3b 3e 16 ed 84 3e d2 c5 66 be 9b 88 03 be
       0.18357478 0.25962132 -0.225364 -0.1284508
0002e0 f0 4f 3a 3d 62 f0 59 3c 22 25 1a 3d a5 e8 cd 3d
       0.04548639 0.013301941 0.03763307 0.10054139
0002f0 7c 5f d4 bd 04 7d 0f bd 2f a3 8e bd 74 7b 9e bb
       -0.10369775 -0.035031334 -0.069647186 -0.004836494
000300 20 13 a5 3e 24 5a dc 3d 30 14 b3 bd 66 1c 1b bd
       0.32241154 0.107593805 -0.08744085 -0.03786888
000310 b9 4d 4f 3e e8 1b 7d 3d 81 2d a6 3e 9b 95 50 bd
       0.20244493 0.06179419 0.32456592 -0.050923925
000320 fa 59 c7 3d c1 40 db bc e5 e4 64 3d 80 b4 97 bd
       0.097339585 -0.026764276 0.055882353 -0.074074745
000330 b8 12 07 3e c1 6f eb 3d 52 04 84 3d 6f 3f 04 3d
       0.13190734 0.11495925 0.064461365 0.032287057
000340 f8 26 a1 3d 2d 09 28 3e 69 24 84 3e e1 08 d0 3d
       0.07868761 0.1640975 0.2580903 0.101579435
000350 cf 65 d4 3b a8 a6 5e bc d5 77 53 3e 65 5f 1a 3e
       0.006481863 -0.013589539 0.20651181 0.15075453
000360 ed b5 79 3d 00 46 4d bd 4e ca 40 3e e9 01 b9 3d
       0.060964514 -0.050115585 0.18827173 0.090335675
000370 8c 60 3d bd c0 10 5f 3e 04 d6 81 3e 14 56 0f bd
       -0.046234652 0.21783733 0.25358593 -0.0349942
000380 ec 86 e9 3d 69 37 76 ba e4 c1 16 3d e2 b8 d1 bb
       0.114026874 -0.0009392412 0.036806002 -0.0064002136
000390 a9 3c ba 3d 25 c2 fb 3c 22 20 18 3e 51 97 92 3e
       0.09093601 0.030732224 0.14856008 0.2863107
0003a0 5f 59 95 3d d2 12 02 bd 70 10 70 bd f2 f6 c7 3e
       0.07292437 -0.03175623 -0.058609426 0.39055592
0003b0 87 83 04 3e 3c 3f 01 3d 86 0e 18 be 94 0f 8d 3e
       0.12940799 0.031554446 -0.1484929 0.27550948
0003c0 fc 76 9f 3d c9 56 0f 3c ba 2c d6 3d 42 92 17 3e
       0.07786366 0.008748719 0.1045775 0.14801887
0003d0 e5 4d 61 3d 70 33 3b 3e 36 51 4f 3d 9d 6e 7f 3e
       0.055005927 0.1828134 0.05061456 0.2494454
0003e0 19 50 37 3e 83 3e 67 bc 7d b2 1f bc f5 30 0a 3e
       0.17901649 -0.014114025 -0.009747145 0.13495238
0003f0 05 29 a7 bc 53 f3 02 3e 99 a1 50 bc bc 5d 63 3e
       -0.020405302 0.12788133 -0.01273384 0.22203726

lstm.weight_ih_l1 f4 [256, 64]
000000 a4 b2 c2 bc 0a b2 b3 bd 1a 88 a3 bd 53 bb b0 bd
       -0.023766823 -0.08774193 -0.07984944 -0.08629479
000010 39 a4 85 3d 27 22 72 bd 9d 5b 59 bd 5c ec 63 ba
       0.065254636 -0.0591146 -0.053065885 -0.0008694583
000020 08 51 53 3c ff ab 3e 3e 6f 3b 62 bd dc ae 66 bd
       0.012897737 0.18620299 -0.05523246 -0.056319103
000030 7f cd 12 be 7a 3a 28 bd fa 63 03 3d 74 93 bf 3c
       -0.14336203 -0.041071393 0.032077767 0.02338574
000040 f9 0a 03 bc 14 a3 1a 3c 00 56 80 bd cd 6d 2c 3e
       -0.007998222 0.009438295 -0.06266403 0.1683876
000050 d0 18 01 3d 1f a6 07 3e 19 14 aa 3d b5 4e 15 3e
       0.031517804 0.13246964 0.083046146 0.14580806
000060 e2 56 e7 3c 5f 02 15 3d 0b a1 1f be 1d eb b6 39
       0.028239671 0.036379214 -0.15588777 0.00034888918
000070 9c 29 11 be d1 5e bf bd 8b 54 e2 3d c7 d8 e3 bd
       -0.14176029 -0.09344257 0.110512815 -0.11125331
000080 53 86 ed bd a1 6c 81 3d 0a 6b 87 bd 7d 20 4e 3d
       -0.11597886 0.063195474 -0.06612213 0.050323952
000090 9c 69 5e 3d 6f b0 f2 bd b1 c1 d4 bd 19 41 c6 bc
       0.054299936 -0.11850058 -0.10388506 -0.024200963
0000a0 08 fa 8a 3c 1e b8 2a be 35 14 bb 3d 5d 53 83 be
       0.016964927 -0.16671798 0.091347136 -0.2564954
0000b0 54 b1 3a 3d 7d b1 8f 3d 66 aa c9 3d 06 75 95 3d
       0.04557927 0.07016275 0.09846954 0.07297711
0000c0 97 8a 7a 3d 33 9f 10 be 3b be 99 bc 05 15 cf 3d
       0.061167326 -0.1412323 -0.018767467 0.10111431
0000d0 fa 57 97 bc 8a db d9 3d 2c a6 80 bd ec 84 7b 3d
       -0.018474568 0.10637577 -0.06281695 0.06140606
0000e0 b6 54 68 3d 1e 4f f8 bb e2 bc 00 be a6 be 13 3d
       0.05672141 -0.007577791 -0.12572053 0.03607049
0000f0 12 6f b7 bd 50 4b 85 bd 55 de 8b be fe 4a 18 be
       -0.08956732 -0.06508505 -0.27318063 -0.14872357
000100 03 d1 05 be 33 37 10 bb be 2a 58 3d 8d 7e 32 bd
       -0.13068013 -0.0022005558 0.052775137 -0.04357772
000110 5a a5 bf bc d6 12 3c bd 66 6f f5 bb 7e 7c 86 bd
       -0.023394275 -0.0459164 -0.0074900864 -0.06566714
000120 01 18 69 3c 27 ff 1c 3e 03 7a 22 3e 29 e1 62 3d
       0.014226914 0.15331708 0.15866856 0.05539051
000130 07 8c e0 3d 42 b1 b8 bd 6c 34 ea bc 46 a4 9d 3e
       0.10964208 -0.09018184 -0.02858945 0.30789393
000140 da e9 8f bd 6d e3 c9 3d 65 a1 8b 3d dc b8 66 bc
       -0.070270255 0.09857831 0.06817893 -0.01408216
000150 8c b7 3a bd f9 b8 d5 3d a7 b5 9d 3d 0b b1 20 3e
       -0.0455852 0.10435671 0.07700663 0.15692537
000160 25 c3 1b 3e 9e 3e d1 3d 9e 74 82 be c5 7f b9 bd
       0.1521116 0.102170214 -0.25479597 -0.09057573
000170 74 86 04 3e 27 44 08 bd ce bd 19 3d 63 e1 df ba
       0.12941915 -0.03326812 0.037534527 -0.001708072
000180 2b 62 55 be fe 7f 18 3e a2 9a 25 bd ec d3 92 3d
       -0.2083823 0.14892575 -0.040430672 0.07169327
000190 f6 06 8c 3c 5e 34 e0 3d 3d a3 a8 3d eb 61 75 3e
       0.017093163 0.10947488 0.0823426 0.23963134
0001a0 cb 74 e6 bd f4 00 d1 bd 86 54 64 3d 4c 90 fc bd
       -0.11252745 -0.1020526 0.05574467 -0.1233221
0001b0 50 0a a5 bc f3 2f c1 3d d8 4e 66 3c b1 50 7d bc
       -0.020146519 0.09432974 0.014056884 -0.015461133
0001c0 7b 1a ca bb 44 ad c0 bd df 6e 5f 3e 3e 60 96 bd
       -0.0061677075 -0.09408048 0.21819638 -0.073425755
0001d0 41 d5 df 3d 32 6f 6e bc d6 26 31 bd 44 81 fe 3d
       0.10929347 -0.014552878 -0.043249927 0.12426999
0001e0 9e 39 1d be 07 61 07 3d 2d 01 98 bd 24 96 3d be
       -0.1535401 0.033051517 -0.07422099 -0.18514305
0001f0 45 4f b9 bc 5c fc 63 3d 1f 8f b2 bc 27 e1 11 be
       -0.022620806 0.05566059 -0.021796761 -0.14246045
000200 33 c4 29 3d a7 0d 84 be ea 3f 48 3c 44 a5 1a be
       0.041446876 -0.25791666 0.01222227 -0.15102106
000210 fd 74 0a 3e 03 e1 fc 3d 9f 53 c2 ba 92 1a 32 3d
       0.1352119 0.12347605 -0.0014825946 0.04348237
000220 27 fa 06 3d 4e 8c 12 3f 19 13 76 3c 76 8d a4 3d
       0.032953408 0.5724534 0.015019202 0.08034794
000230 7d 37 48 be d4 e6 fa bc 41 78 27 be f3 64 5b 3f
       -0.19552417 -0.030627646 -0.16354467 0.8570091
000240 c3 ed 0d 3e 65 05 4d 3c e9 e5 02 bd 65 79 d6 3d
       0.1386023 0.012513493 -0.03195754 0.10472373
000250 10 88 72 b9 0c 80 90 3c 47 ba ff bc 0f 1e 0e 3e
       -0.00023129606 0.017639183 -0.031216754 0.13878654
000260 c8 71 06 3e b0 63 38 3e b8 17 7a be f6 a0 02 be
       0.13129342 0.18006778 -0.2442311 -0.12756714
000270 41 be 01 3d 69 37 f0 3d 1f 92 00 3d 73 4c f4 bc
       0.03167558 0.11729319 0.031389352 -0.02982161
000280 fa dc 3e be ac 91 63 bd 35 c6 c9 bd 17 35 02 bd
       -0.18638983 -0.055558845 -0.09852258 -0.03178891
000290 13 2d cf bd e6 bd 99 be d2 fa 74 bd db ee 71 be
       -0.10116019 -0.30027694 -0.059809513 -0.23626272
0002a0 6f f0 46 3d 70 67 7b 3d a6 73 1e bc b6 d5 1a 3e
       0.04856914 0.061377943 -0.009671127 0.15120587
0002b0 2d a1 af 3e f2 fb 9d bb ea dc 13 bd 89 44 0e be
       0.34302655 -0.004821294 -0.036099352 -0.13893332
0002c0 2e c9 1f 3d 99 d1 2e be 99 64 90 3c 52 4f 1f be
       0.03901022 -0.17072143 0.017626094 -0.15557602
0002d0 d4 74 f1 bd cb e9 cd 3d e4 c8 90 bc 06 fc fc 3d
       -0.11789861 0.10054358 -0.017673917 0.12352757
0002e0 b7 47 c0 bd c3 c5 1b 3b 6d 2b e8 bc 5c 7b 91 be
       -0.093886785 0.0023768998 -0.02834102 -0.28414428
0002f0 f6 fc f9 3d 93 c1 ef 3d 4c 81 86 be 8a af 0b be
       0.122064516 0.11706843 -0.2627052 -0.13641182
000300 85 8a 2e 3e 80 17 a2 3d 90 29 15 be f4 f6 09 bd
       0.17045029 0.079146385 -0.14566636 -0.03368278
000310 99 f6 71 3e 75 52 36 3d 89 78 b0 3d 70 de a9 3d
       0.23629226 0.04451223 0.0861674 0.0829438
000320 89 49 82 bd d2 f6 11 3e 35 87 99 be 7b 5a ae bd
       -0.06361682 0.1425431 -0.29985967 -0.085133515
000330 21 aa 0a 3e 0a 38 fd 39 c1 dd 49 3b de a8 ee 3d
       0.13541462 0.00048297673 0.0030802342 0.116533026
000340 a8 1d 1b 3d f3 b6 13 3c c1 8d 0e bd a7 19 8c 3c
       0.03787008 0.009015786 -0.034803156 0.017102076
000350 3b 52 27 be bd 7f c3 3d c9 79 1d be 13 49 bf 3b
       -0.16339962 0.095458485 -0.15378489 0.0058375685
000360 71 6c 40 3e 63 5d ac 3b a3 8b 40 3e 43 5f 38 be
       0.18791367 0.005260156 0.18803267 -0.1800509
000370 d8 5f 0a 3d b4 b2 ad be 63 ff a0 3d dd 43 9e 3d
       0.03378281 -0.33925402 0.07861211 0.07727788
000380 da a1 88 bc 8c 4e 2a be 42 fb fc bd ca 81 47 bd
       -0.01667874 -0.16631526 -0.12352611 -0.04870776
000390 1b a1 68 bd 40 48 4d bd 27 0b 06 3d 7d b3 ee bd
       -0.056794267 -0.05011773 0.03272548 -0.116553284
0003a0 f1 a9 8d 3c 7d d4 14 3e 05 5f 37 be ce e2 f4 be
       0.017292948 0.14534183 -0.17907341 -0.47829288
0003b0 0f 64 d7 bd 28 c0 6b 3d f6 b2 05 3e 78 49 a0 3d
       -0.105171315 0.0575563 0.1305655 0.07826513
0003c0 74 e3 1c be e6 74 36 be 7c 1a 1e bc ea ea 27 be
       -0.15321141 -0.1781803 -0.009649869 -0.16398206
0003d0 e4 f9 fe bd f8 2a fc 3c 3f 4b a2 bd bb 26 51 be
       -0.124500066 0.030782208 -0.07924508 -0.20424931
0003e0 c1 e4 4f bd 61 66 26 bc 8b 21 a4 b8 c7 34 c6 3c
       -0.050755266 -0.010156245 -7.826377e-05 0.024195088
0003f0 62 c1 14 bd f8 ff 90 3d 90 cc f4 bd a1 5d e4 bd
       -0.036317237 0.07080072 -0.1195308 -0.11150671

lstm.weight_hh_l1 f4 [256, 64]
000000 67 00 87 3d 4a 32 26 bd e4 8f 00 3e ed 64 f5 3d
       0.065918736 -0.040575303 0.1255489 0.11982141
000010 fa 91 1a 3d a2 9c 00 3d d9 dc 2e bd af fd 49 be
       0.03773687 0.031399377 -0.042691085 -0.19725679
000020 e8 60 92 bd 52 cd 8e 3b bd a9 8c bd 63 61 19 be
       -0.0714739 0.004357972 -0.068683125 -0.14978556
000030 c1 9e 9b bd 0f 7e 86 3d 50 b7 29 3d e5 2a da be
       -0.07598639 0.065670125 0.041434586 -0.4261085
000040 52 80 d0 3d f3 e9 32 bd 67 4d b5 bc 51 32 3a be
       0.10180725 -0.043680143 -0.022131635 -0.18183257
000050 8e 5b 50 bd 87 b0 35 3e e6 af b9 bb 54 5e ff 3c
       -0.050868563 0.17743121 -0.0056667207 0.031172909
000060 f6 51 cb bd ed 52 98 3d f2 07 18 bd 0c 16 2e 3d
       -0.09927742 0.07437692 -0.037116952 0.042501494
000070 20 1e 66 bd e5 e4 b8 bd 13 46 cd 3d f9 62 a5 bd
       -0.056181073 -0.09028033 0.10023131 -0.08075518
000080 82 15 20 bc 36 9f 8c bd f7 d6 2f be ec 8b 84 be
       -0.009770753 -0.068663046 -0.17171846 -0.25888002
000090 60 64 49 3c fe a0 21 bd 15 72 a6 3d f4 6b 31 3e
       0.012291998 -0.039460175 0.08127228 0.17326337
0000a0 55 46 2d 3c 20 06 a6 3d da 9c 69 bc 95 f5 5b 3d
       0.0105758505 0.08106637 -0.014258588 0.053701002
0000b0 29 17 a9 3d 59 f9 2b be 8e 15 51 3d 9c 57 06 3e
       0.082563706 -0.16794337 0.051045947 0.13119358
0000c0 46 7d d3 3b 3f 52 7e bd 91 c8 c7 3d c9 fd 0f 3d
       0.0064541427 -0.062090155 0.09755052 0.035154138
0000d0 cb 6f 38 bd 80 fe b1 3c eb 2e d1 3d 0f 28 2c 3d
       -0.04502849 0.0217278 0.10214027 0.04203039
0000e0 f0 a2 85 bc f7 2a 01 3d c6 d2 01 3d 32 6c bf 3c
       -0.016313046 0.031535115 0.03169515 0.023367021
0000f0 60 50 9f 3d e9 a5 09 bd ad f4 47 be 18 90 6d 3d
       0.07779002 -0.03360549 -0.1952693 0.057998747
000100 e3 1c 45 be 4d f4 84 3d 92 5e 2c 3e bd bf 5b bd
       -0.192493 0.06491909 0.1683295 -0.053649653
000110 2d 38 87 be a7 b0 8b 3d 5c c8 90 bc 98 63 d3 bd
       -0.26410046 0.06820803 -0.017673664 -0.103217304
000120 92 0b 9c bd af c7 65 bd 21 30 65 3c 6c d9 25 bd
       -0.07619394 -0.056098636 0.013988526 -0.040490553
000130 e9 7a 7f bd e1 f8 14 be 9a 07 9a 3e 58 1a 04 3e
       -0.062373076 -0.14548065 0.30083925 0.12900674
000140 86 62 f3 3d 00 b3 28 be bf 4e 5e 3d 27 6d 05 be
       0.11884026 -0.16474533 0.054274317 -0.1302992
000150 58 f9 68 bd 5b 50 11 bd d6 b5 ac bd 7e 9c ba bd
       -0.056878418 -0.035477024 -0.0843312 -0.0911188
000160 8c 90 57 be ef e7 04 be 93 0f 61 be 4f 9a 33 be
       -0.21051234 -0.129791 -0.21978597 -0.17539333
000170 f3 1e bc bc 85 19 c4 bc c1 ef 85 bc 77 15 0e 3d
       -0.022963976 -0.02393795 -0.016349675 0.03468844
000180 c6 41 4a 3d cd 65 3a 3b c3 9f 29 3c e2 f9 67 bd
       0.049379133 0.0028442026 0.010353032 -0.05663479
000190 1c 3d ce 3c db 58 18 be be 8d 10 bd 30 41 7f bc
       0.025175624 -0.14877646 -0.035291426 -0.015579507
0001a0 06 72 50 bd bc ce 5b bd f0 54 ad bc c4 74 c7 3d
       -0.05088999 -0.053663954 -0.021158665 0.09739068
0001b0 64 ee 16 3d 34 85 1b be 4b 1f c5 3d 28 cd 3b 3e
       0.03684844 -0.15187532 0.09625109 0.1833998
0001c0 27 5a 15 be 14 59 23 3e 98 58 34 3e 01 51 77 3d
       -0.14585172 0.1595195 0.17611921 0.060379986
0001d0 8f f5 bf bd 07 a2 06 3e 8f 51 bc 3d cb 86 dc bd
       -0.093730085 0.13147746 0.091952436 -0.10767897
0001e0 b0 33 35 3c 27 b8 79 bd 3e e5 97 3d 48 47 0a be
       0.011059687 -0.060966637 0.07416771 -0.13503754
0001f0 78 47 f4 3c 1f a2 1b 3e ad 7a 68 3d d5 b9 c5 bd
       0.029819235 0.15198563 0.056757618 -0.09654585
000200 56 6c 3c be 79 01 6b 3a ea 05 47 3e 24 1d b5 3e
       -0.18400702 0.0008964758 0.1943585 0.35373795
000210 b5 67 63 be 59 d8 8e 3e 9e 66 ab bd bc 99 24 be
       -0.2220753 0.27899435 -0.08369182 -0.1607427
000220 c4 8c a1 be c2 a4 2a 3e a0 1a 93 3c 28 fb 4b be
       -0.31552708 0.16664413 0.017957032 -0.19920027
000230 da 20 14 3e b0 92 dc 3c c4 a5 3e 3d 4a b5 32 3e
       0.14465657 0.026925415 0.046544805 0.17451969
000240 bb 75 9f 3e c2 3c 17 be 78 2d bc 3c b8 ac 06 bf
       0.3114451 -0.14769271 0.0229709 -0.526073
000250 f6 c6 28 be 2f fe 90 3e 86 fa db bc 66 72 0d 3e
       -0.16482148 0.28318927 -0.026852857 0.13813171
000260 b1 9d 98 be 46 de 47 be 9b c1 50 3d 8d 05 89 bd
       -0.2980781 -0.19518384 0.050965887 -0.06690512
000270 d6 18 19 be 26 f6 f1 3b 46 64 6a 3e d4 ed 50 be
       -0.1495088 0.0073840795 0.22889814 -0.20403224
000280 f7 e5 d3 bd 51 cf b4 3d 2a 6c 26 be 49 ae 4f bd
       -0.10346597 0.08828605 -0.16252199 -0.05070332
000290 f6 a6 fb bd 9a 98 b2 be 6f 9c d4 bd 5f cc 4e be
       -0.12287705 -0.3488205 -0.103814 -0.20195149
0002a0 14 47 3f 3d a0 1d 16 3c af 18 a1 3d 05 44 d2 3d
       0.046698645 0.009162337 0.07866036 0.1026688
0002b0 4e 44 a2 3e 08 c5 4f bc 2f fb 0b 3e be 57 98 3e
       0.31692737 -0.012681253 0.13670038 0.29754442
0002c0 8d 4a a8 be f3 ce 53 3e 4c 00 23 3d 9c 3c 9f 3e
       -0.32869378 0.20684414 0.039795205 0.3110093
0002d0 9d 86 a4 be 62 45 9c 3b bd 36 97 3e 75 b2 22 be
       -0.32133952 0.0047690133 0.2953395 -0.15888388
0002e0 a6 9d 90 bd ed 4d 69 3d 27 18 eb bd c2 f1 5a be
       -0.07061319 0.05695908 -0.11479216 -0.21381286
0002f0 b8 ea 35 3e 92 0f 5b 3c ee c4 cb 3a 31 c4 24 be
       0.1776532 0.0133704115 0.001554636 -0.16090466
000300 5e 37 15 3e b1 e0 43 3e 77 5e e2 3a 1b dc 23 be
       0.14571902 0.19128682 0.0017270584 -0.16001932
000310 41 d9 6d bd 4a 21 b7 3d d5 77 16 be c8 bc 19 bd
       -0.058068518 0.08941896 -0.1469415 -0.03753355
000320 0a 9e ca 3c 77 6f 9b bc b0 61 ab bb e8 3b c6 bd
       0.024733562 -0.018974049 -0.005230151 -0.09679395
000330 ec 3e 13 3e bc 13 c0 3b 3b c6 8f bd 3b 40 7f be
       0.14379472 0.0058617275 -0.07020231 -0.24926846
000340 77 7e 13 be cc 02 1a be 22 e3 9d bd 67 f2 40 be
       -0.14403711 -0.1504013 -0.07709338 -0.18842469
000350 3e 22 81 3e 0c 81 23 be c4 7a 55 3d c9 52 3a 3c
       0.25221437 -0.15967196 0.05211903 0.011372277
000360 74 e0 92 3d 88 00 c6 bd 05 0a b6 bd 50 7b 98 3d
       0.07171717 -0.0966807 -0.0888863 0.07445395
000370 e4 c6 b9 bc 25 b7 f1 bd df f1 76 3c 00 da 9a 3d
       -0.022677846 -0.1180251 0.015072315 0.075611115
000380 31 f3 ed bc 52 f4 e9 bd d8 97 84 3d 37 9e a0 3d
       -0.029046627 -0.114235535 0.064742744 0.07842677
000390 aa c3 2a bd 6a 4b d9 3b b2 db 82 bd 57 90 80 3e
       -0.041690506 0.0066313045 -0.0638956 0.25110123
0003a0 73 e1 99 3d d7 e2 3c be cd 4a 9d 3d 49 e3 28 3d
       0.07513704 -0.18445908 0.07680283 0.04123238
0003b0 58 31 bf 3d 23 79 03 3d f6 44 04 3e ef 2b ca 3d
       0.093355834 0.032097947 0.12916932 0.09871661
0003c0 24 c3 d6 bd 28 71 fb bd 3e 41 f6 bd 94 5f d4 3c
       -0.10486439 -0.12277442 -0.12024163 0.025924481
0003d0 2b da 8c 3e 31 1c d4 3d 90 a7 a7 bb 80 9d 85 3c
       0.275102 0.103569396 -0.0051164106 0.016310453
0003e0 a9 f3 2f be de be 1e be ae 33 5d 3d 08 f0 51 bc
       -0.17182793 -0.15502498 0.054004364 -0.012813576
0003f0 2a 15 79 bd 10 55 67 be b9 27 28 be 80 cd 26 3d
       -0.0608112 -0.22591043 -0.16421403 0.040723324

lstm.bias_ih_l1 f4 [256]
000000 18 d8 82 bd e2 40 ef bc f6 ca df bd 34 d4 77 3d
       -0.06388873 -0.029205743 -0.109273836 0.060505107
000010 26 e4 b6 bc f8 6b 43 3d 05 ff d6 3d a9 82 26 bc
       -0.022325587 0.04771039 0.1049786 -0.010162988
000020 44 54 c5 3c 23 a5 bc bd 86 54 4e bd d4 d5 93 bd
       0.024088033 -0.09211185 -0.050373577 -0.07218519
000030 93 1a ae bd e5 54 a3 bd d4 07 ea 3d 54 3b cb bd
       -0.085011624 -0.07975177 0.11427274 -0.09923425
000040 e0 09 2c bc b8 93 55 bd 63 97 bd bc be fb 89 3d
       -0.010500401 -0.05214283 -0.023143476 0.06737469
000050 d2 fb 75 3d 1c c2 95 bb 54 39 29 bd 3d 73 93 bd
       0.060054608 -0.004570259 -0.041314438 -0.07199714
000060 ae ba 23 3c 22 2c 65 bd 97 cf 48 3e 82 b7 0f 3e
       0.009993238 -0.05595029 0.19610439 0.14034846
000070 91 45 38 bd 0c 51 8e bc 71 cc 99 bd ee 49 52 3d
       -0.04498822 -0.01737263 -0.07509697 0.051340036
000080 ce c6 26 3d 4a 4f c9 3b ee 0c 84 3d 35 d9 ff 3c
       0.04071694 0.006143485 0.06447779 0.031231502
000090 2b f7 46 3d 83 e0 5c 3c aa 70 4f 3d ec ff 85 3c
       0.04857556 0.013481262 0.050644554 0.016357385
0000a0 9c 02 f4 bc 88 0d 09 3d b6 67 61 3c 84 ed 80 bd
       -0.0297864 0.03346017 0.013757637 -0.062953025
0000b0 7b 83 bb 3d 0d a2 c7 bd 68 45 eb bb 89 8e a4 3d
       0.09155937 -0.097477056 -0.0071799047 0.08034999
0000c0 49 ba db 3c 9c 07 44 bd 8f fe e2 bc 42 57 ce 3d
       0.026822226 -0.04785882 -0.027709274 0.10075237
0000d0 32 d4 40 3d 0a 12 db bd f3 b4 a8 3d d8 e1 45 3d
       0.047077365 -0.106968 0.08237638 0.048311085
0000e0 98 ad 50 3e f7 89 aa bc eb f9 9d 3d 8e a2 43 bb
       0.20378721 -0.02081774 0.07713684 -0.0029851529
0000f0 01 02 33 3e ff ac 90 3d 4d c9 8f 3e 12 2f 36 3d
       0.17481233 0.070642464 0.28083268 0.044478483
000100 bc 5d 8c bd 8a 01 be 3c 03 0f 8f 3d b5 77 3c bd
       -0.06853816 0.023194093 0.06985285 -0.0460126
000110 c7 f1 ac bd df c7 86 3d 6b 3b 12 3c 55 b5 e6 3d
       -0.08444553 0.06581091 0.008925299 0.11265055
000120 ff bf ee bc dc 22 b4 3d 10 4f 8c 3d d4 d5 8b bd
       -0.029144285 0.087957114 0.068510175 -0.06827894
000130 41 cc 77 3d da 51 81 bb be d0 da 3d 15 f2 d3 3d
       0.060497526 -0.003946525 0.10684346 0.10348908
000140 83 79 20 3d 10 fd 07 3e d5 2f 3c 3d 2c d0 92 bd
       0.039178383 0.1328013 0.045944054 -0.07168612
000150 51 d8 25 3d a8 f3 fb 3d 38 9f 05 3e d7 30 27 3d
       0.0404895 0.12302333 0.13049018 0.04081806
000160 5a f2 11 3e 17 a8 fd 3d 21 56 1f bd b1 e5 40 3b
       0.14252606 0.12385576 -0.0389005 0.0029433782
000170 80 41 fe 3d 77 16 d9 3d 7b db a0 3c 6b 89 60 3d
       0.12414837 0.10599988 0.019635906 0.054818552
000180 7a 38 07 3e 16 55 d3 3d b1 f0 11 3e cf 2c 99 3c
       0.13205138 0.10318963 0.14251973 0.018698124
000190 57 59 10 3b 7f 9f b8 bc 9c cb eb 3d fc e6 2a bd
       0.0022025907 -0.022536991 0.11513445 -0.04172419
0001a0 7d 94 f0 3c 40 84 3b 3d 8a 5c c2 bd 5b 76 6d bd
       0.02936768 0.04578042 -0.09490307 -0.0579742
0001b0 8f ab 1f bc 8d 5b 92 bd 08 6c 18 bb 65 b9 6c 3d
       -0.009745493 -0.07146368 -0.002325775 0.057793994
0001c0 c5 92 1e 3d 25 6a fe 3c 4f e6 c8 bd 91 18 ee 3d
       0.03871419 0.031056473 -0.09809553 0.116257794
0001d0 78 59 94 3d 5f 49 a7 bc 35 47 7e bd 8a 38 d4 bd
       0.07243627 -0.020420728 -0.062079627 -0.103623465
0001e0 e3 c7 db bc c6 bc 92 3d d6 e9 5e bd 92 f5 db bc
       -0.026828712 0.07164912 -0.054422222 -0.026850495
0001f0 ce f0 d4 3c ce 9a 56 3d 49 dd a7 bb fc c3 ac 3d
       0.02599373 0.052393727 -0.005122815 0.084358186
000200 ec 93 d0 3c 07 b9 86 bd 8d 94 38 bc 8a c8 77 3d
       0.02546116 -0.0657826 -0.011265886 0.060493983
000210 65 25 35 3d 6d ae 94 b8 6b 83 d1 bd a6 6a 94 bd
       0.044225115 -7.089679e-05 -0.10230144 -0.07246904
000220 3e 21 8f bd d8 84 72 3d 27 24 10 bd dd ed f1 3d
       -0.06988762 0.05920872 -0.035190728 0.11812947
000230 68 3e ec bd 74 7d 88 3d 12 d1 ae bd 72 7e 40 3c
       -0.115353405 0.06664553 -0.08535971 0.011748897
000240 47 50 b1 bd 6b a5 16 bb 3f af 0e bd 2e f2 b3 bc
       -0.0865789 -0.002298678 -0.034835096 -0.021966066
000250 35 a7 8e 3d 2d 9f 23 3d 06 86 1a 3d ed 0b 34 bd
       0.06965486 0.039946724 0.03772547 -0.043956686
000260 a5 b4 7e 3d 87 26 d9 3d 1f 18 dd 3d a3 af 5a 3d
       0.062183995 0.10603052 0.10795616 0.053390156
000270 32 1c 80 bd 73 90 ed 3d 76 5b 08 3e 18 50 c3 bd
       -0.06255378 0.11599817 0.1331614 -0.09536761
000280 18 95 9d 3c 88 e4 01 be 41 08 95 bd f9 87 0d 3e
       0.019236133 -0.12684834 -0.07276965 0.138214
000290 ae ce b9 bd 57 c5 a0 bb 8e 0e 81 3d 67 57 98 ba
       -0.09072624 -0.0049063372 0.06301604 -0.0011622728
0002a0 de 7d f4 3c 13 86 15 be df 78 36 3d 2d 1c da 3c
       0.029845174 -0.14601927 0.044548865 0.026624763
0002b0 f9 ec 05 be 52 db b5 bd 44 fd 04 bc 73 d4 ea bc
       -0.13078679 -0.08879723 -0.008117024 -0.028665757
0002c0 88 31 32 3d 37 26 20 3d 31 d9 0e be a1 f3 06 bd
       0.043504268 0.039098945 -0.1395004 -0.032947186
0002d0 f0 97 0a 3e 20 77 fc 3b 46 92 95 bd be f1 4a 3d
       0.13534522 0.0077046305 -0.0730329 0.04954695
0002e0 b2 00 ac 3d 84 34 2a bc 73 2a 8d bc 46 59 f5 bc
       0.0839857 -0.010388497 -0.017232155 -0.029949795
0002f0 45 3e bb 3d ed 76 34 bd 2b 74 98 3d 1f 3d a3 bd
       0.09142736 -0.04405873 0.07444032 -0.07970642
000300 66 ce 25 3e d0 ce 3c 3d ec 1a 96 3d b4 db b8 bc
       0.16192016 0.04609567 0.07329354 -0.0225657
000310 04 0c 05 3e e3 37 b1 bc 44 ee 33 bd d3 b0 9f bd
       0.12992865 -0.021633094 -0.0439284 -0.077973984
000320 f8 b7 d4 bc f2 16 21 3e 65 a3 ba 3b df ac cf 3d
       -0.02596663 0.15731409 0.0056957477 0.101403944
000330 54 33 22 be 5f 82 64 3e 9a 2a 19 3d 82 c2 23 bd
       -0.15839893 0.22315358 0.037394144 -0.03998042
000340 86 e6 9b 3d 80 ee ec 3d 88 d5 97 3d 90 64 8b 3d
       0.07612328 0.11568928 0.07413775 0.0680629
000350 aa ca e0 3d 31 ba a2 3d 4e 3d e5 3a b0 e3 34 3e
       0.10976155 0.079456694 0.0017489584 0.17664981
000360 e1 20 b7 3b 5e 68 24 3e 6d f3 29 3e 75 5a 2a 3e
       0.0055886363 0.16055438 0.16596766 0.16636069
000370 15 19 b1 3d 69 d2 61 bd 00 0d 37 3e 94 c7 25 3d
       0.08647362 -0.055132303 0.17876053 0.040473536
000380 7c 98 82 3d d1 f3 ee 3d 1f 34 f6 3d 27 f2 9b 3b
       0.0637674 0.11667598 0.1202166 0.0047590914
000390 ed 2d c6 3d f7 85 f2 3d 22 6b 5d 3e 9a e4 bf bc
       0.096767284 0.11841958 0.21622899 -0.023424435
0003a0 3a e1 b5 3d b3 95 15 3e 55 c8 3d bd 4f 4e 7f 3d
       0.08880849 0.14607887 -0.04633363 0.06233054
0003b0 18 43 a3 bd 29 89 e0 3b c9 41 83 bd ed b6 96 3d
       -0.079717815 0.0068522883 -0.06409032 0.07359109
0003c0 ad b0 20 3c 22 ee 74 3e f8 16 34 3e 96 4d 34 3e
       0.009807748 0.23918965 0.17586887 0.17607722
0003d0 19 32 eb bd ed bd 47 3c 67 93 a8 bd 4e 75 08 3d
       -0.11484165 0.012191278 -0.0823124 0.033314995
0003e0 16 7c df 3d 9b 3b 65 3d 8d 92 07 be 1c 62 29 3d
       0.109123394 0.055965047 -0.13239498 0.04135333
0003f0 ab 41 c2 bc 50 8a ef b6 62 a5 da 3d 59 aa 3a bc
       -0.023712954 -7.1388567e-06 0.106760755 -0.011393153
