LogAnomaly/result/deeplog/deeplog_epoch346.pth (torch_old, 647760 bytes, 30 tensors)

lstm.weight_ih_l0 f4 [256, 1]
-0.20603955 -0.013845801 -0.065516144 0.08825794 -0.13678756 0.047775183 -0.10451063 0.07494035
0.18529423 0.084896326 0.16814686 -0.085171625 0.098337784 0.13923807 -0.08084677 0.26460242
0.085087925 0.056356456 -0.15220746 0.15684655 0.166894 0.07727455 0.06878146 -0.06064856
0.21167798 -0.07029484 -0.020406911 0.07334674 0.07942513 -0.13051914 0.13223335 0.01648721
0.11988807 0.105963655 0.02244745 0.045164954 0.21636629 0.012976264 0.14176166 -0.14209959
0.0032629957 -0.1377391 0.13150217 0.40964845 -0.13623936 0.11294489 0.14661577 -0.20535326
0.19961038 0.16214831 0.374922 0.08313064 0.054840617 0.33934167 0.11555256 -0.061911993
-0.17863612 0.028263845 0.11082533 0.042971842 0.04323446 0.15987074 0.102390714 -0.15444379
-0.06455171 0.040477347 0.12665623 -0.04584266 -0.09098471 0.059901547 0.096939236 0.05881761
-0.04010253 0.29788005 0.17162864 -0.13606748 -0.010006684 0.08894603 0.1719853 0.26651672
0.032727648 0.13984509 -0.12171583 0.038801823 0.0061746268 0.23482856 0.14173509 -0.05516827
0.020675993 0.07643816 -0.7093741 0.080688655 -0.060587578 -0.24606231 0.22027558 0.018840613
-0.0337361 0.1688623 0.10839197 0.1143779 0.06584875 0.20084514 0.11997684 0.035942335
0.15158033 0.24212414 0.18697943 0.059822917 -0.12867032 -0.027105505 0.06345457 -0.11382852
0.08315091 0.11160074 0.3151271 0.25216225 0.05292334 0.021940228 0.17399864 -0.02584095
-0.18313208 0.18413767 0.48038644 -0.036181994 0.045960065 0.055221997 -0.08652189 -0.15398337
0.46769345 -0.13890485 0.08225913 0.032035094 0.2653814 -0.1815374 -0.05138414 0.15976243
0.18220367 -0.044141356 -0.06868701 0.23243508 -0.2452379 0.17908138 -0.16554505 -0.09802271
0.23366092 -0.31160524 -0.26977393 0.2203731 0.18294568 -0.035979595 -0.16184281 0.20380636
0.10269356 0.32361323 -0.48291108 0.02080188 0.0252842 -0.19129935 0.9509055 0.00080530025
0.5138342 0.02396517 0.08650353 -0.028936109 -0.3210157 -0.21372172 -0.33114615 -0.19233342
0.2141119 0.057875447 -0.12555926 -1.6945658 0.38288212 0.30860782 0.06775317 0.51892406
-0.12500046 -0.15531756 -0.15216263 -0.038420238 -0.4263276 0.47932073 0.036429062 0.17393234
-0.382666 0.08030817 0.050030034 -0.079318516 0.13848868 -0.08269809 0.084300034 -0.358223
0.19777043 -0.010414155 0.1594644 0.33720282 0.18639502 0.08165086 0.19185339 0.22854432
0.043078378 0.3054889 0.083382115 0.22465552 0.2636704 0.15391655 0.24075882 0.31630957
-0.093566656 0.035557564 0.3363621 0.21953638 0.32208094 0.24287215 -0.21581352 -0.1806891
-0.17895646 0.047886427 0.002503087 0.110373795 -0.020902706 -0.33647195 0.15889482 0.28463185
-0.11367829 0.3443536 0.08306287 0.32345626 -0.09543757 -0.22890851 0.08967958 -0.3022483
-0.22145689 0.28914723 0.20486586 -0.3002192 0.27482542 0.018989397 0.21844517 -0.17033495
-0.19169663 -0.12416693 0.12855181 -0.2223988 0.07630415 -0.096264064 0.06456616 0.09563474
0.18003725 -0.22279161 0.3088435 -0.14354122 0.1069869 0.16674963 0.24554147 0.16085097
00000000: 08fc 52be 80d9 62bc 542d 86bd 94c0 b43d
00000010: 0a12 0cbe e9af 433d ab09 d6bd 547a 993d
00000020: c5bd 3d3e 20de ad3d b12e 2c3e 766e aebd
00000030: 5265 c93d 6d94 0e3e fe92 a5bd f879 873e
00000040: 9442 ae3d 07d6 663d 46dc 1bbe 629c 203e
00000050: 43e6 2a3e 1f42 9e3d 4bdd 8c3d a06a 78bd
00000060: 1dc2 583e bef6 8fbd 652c a7bc d136 963d
00000070: a4a9 a23d cfa6 05be 2e68 073e 2f10 873c
00000080: e087 f53d 7903 d93d b7e3 b73c e3fe 383d
00000090: 208f 5d3e 659a 543c f829 113e 8e82 11be
000000a0: fcd7 553b 7b0b 0dbe 81a8 063e 71bd d13e
000000b0: 5582 0bbe a74f e73d 7222 163e 2048 52be
000000c0: aa66 4c3e 350a 263e c7f5 bf3e 6640 aa3d
000000d0: 8ea0 603d 31be ad3e d2a6 ec3d 6e97 7dbd
000000e0: 63ec 36be 9489 e73c 64f8 e23d 3e03 303d
000000f0: 9e16 313d 28b5 233e 39b2 d13d 8326 1ebe
00000100: b033 84bd 93cb 253d 2cb2 013e 83c5 3bbd
00000110: 3156 babd 535b 753d 1488 c63d bcea 703d
00000120: 8d42 24bd bc83 983e 6bbf 2f3e 4655 0bbe
00000130: 13f3 23bc 5629 b63d ea1c 303e e174 883e
00000140: 6d0d 063d 8d33 0f3e 2646 f9bd a9ee 1e3d
00000150: 8654 ca3b e676 703e 0123 113e 20f8 61bd
00000160: b360 a93c 9c8b 9c3d 8b99 35bf 1840 a53d
00000170: ae2a 78bd c2f7 7bbe ec8f 613e a157 9a3c
00000180: dd2e 0abd 3dea 2c3e 9cfc dd3d f63e ea3d
00000190: b6db 863d 59aa 4d3e 6bb6 f53d 4538 133d
000001a0: e037 1b3e 64ef 773e 8977 3f3e e008 753d
000001b0: 27c2 03be 5d0c debc 78f4 813d ed1e e9bd
000001c0: 064b aa3d ee8e e43d 5758 a13e 691b 813e
000001d0: 25c6 583d febb b33c b32c 323e 66b0 d3bc
000001e0: fa86 3bbe 968e 3c3e 36f5 f53e 9233 14bd
000001f0: 9f40 3c3d 7630 623d 6332 b1bd d1ad 1dbe
00000200: 8475 ef3e 133d 0ebe 7a77 a83d 3b37 033d
00000210: 12e0 873e f1e4 39be 2d78 52bd c398 233e
00000220: 9993 3a3e 91cd 34bd c6ab 8cbd 7603 6e3e
00000230: a51f 7bbe 1c61 373e a484 29be 21c0 c8bd
00000240: cf44 6f3e b98a 9fbe cf1f 8abe 7ca9 613e
00000250: 1d56 3b3e 575f 13bd 1fba 25be 9db2 503e
00000260: 0051 d23d a2b0 a53e 1f40 f7be b468 aa3c
00000270: d020 cf3c fae3 43be 8b6e 733f c91a 533a
00000280: a38a 033f 9b52 c43c c328 b13d 6b0b edbc
00000290: 2b5c a4be ded9 5abe fd8b a9be 0df3 44be
000002a0: 2640 5b3e ce0e 6d3d 9b92 00be 88e7 d8bf
000002b0: 2009 c43e d801 9e3e 2dc2 8a3d 35d8 043f
000002c0: 1f00 00be 910b 1fbe 85d0 1bbe 8a5e 1dbd
000002d0: 9c47 dabe 8769 f53e a436 153d 521b 323e
000002e0: ccec c3be 9c78 a43d 4bec 4c3d bf71 a2bd
000002f0: facf 0d3e 9e5d a9bd 7fa5 ac3d 0169 b7be
00000300: 5584 4a3e 22a0 2abc a34a 233e d9a5 ac3e
00000310: 56de 3e3e 9138 a73d 3775 443e 8607 6a3e
00000320: f472 303d 0b69 9c3e 3ec4 aa3d 190c 663e
00000330: cfff 863e 4d9c 1d3e 7b89 763e 54f3 a13e
00000340: e09f bfbd cfa4 113d a737 ac3e 25ce 603e
00000350: cbe7 a43e 7ab3 783e 38fe 5cbe 9006 39be
00000360: 5d40 37be 8f24 443d d50a 243b a80b e23d
00000370: 273c abbc 0d46 acbe 53b5 223e 44bb 913e
00000380: 2ad0 e8bd 1d4f b03e de1c aa3d 0f9c a53e
00000390: c674 c3bd fe66 6abe eda9 b73d 4ac0 9abe
000003a0: 98c5 62be 1b0b 943e 5bc8 513e 55b6 99be
000003b0: ebb5 8c3e a78f 9b3c 17b0 5f3e 496c 2ebe
000003c0: 1f4c 44be 3b4b febd 16a3 033e 83bc 63be
000003d0: 5a45 9c3d 1826 c5bd 433b 843d 26dc c33d
000003e0: af5b 383e 7c23 64be bc20 9e3e 78fc 12be
000003f0: f31b db3d 6ac0 2a3e 396f 7b3e 1eb6 243e

lstm.weight_hh_l0 f4 [256, 64]
0.23120518 -0.15548022 0.042738065 0.06899208 0.25760445 -0.11521294 -0.043767974 0.08928209
0.17370404 0.13714872 -0.006527576 -0.18630037 -0.2000817 0.10732128 -0.11432748 0.2733055
0.21229513 -0.054960463 0.04203187 0.14810693 -0.08572871 0.07932183 -0.041983873 0.18460818
0.29197887 0.23647593 0.09574945 0.0850421 0.087812446 -0.33296403 0.058716748 0.13486566
0.04544456 0.07309803 0.09126146 -0.17420411 -0.03407584 -0.21496043 -0.11618384 -0.33037075
0.078528784 -0.12912665 0.09502161 -0.11080851 0.049502242 0.18036391 0.039958604 0.25326484
-0.30404335 -0.09483169 0.17267801 -0.34696898 0.06182434 0.20368327 0.11480353 -0.022994401
-0.108824626 0.39052826 -0.029378299 -0.12697989 0.13915187 -0.05565238 -0.14466873 -0.08539315
-0.06624747 -0.07574939 0.31826714 0.28309828 0.14334303 -0.1795307 0.08747669 0.078754805
0.1501945 0.09197175 -0.12299277 0.06920969 -0.2109701 0.18050376 -0.12600744 -0.3290826
0.2109075 -0.036844548 -0.117963195 0.21054873 0.10345875 -0.10658292 -0.14772627 0.020526368
0.3839246 0.08395974 -0.07586253 0.1218488 0.23416679 -0.0039212243 0.036016855 0.1781797
0.003967719 0.1876897 0.059171535 -0.1333958 -0.009444694 -0.17788549 -0.15130493 0.08315403
0.18228635 -0.057730313 -0.113870144 0.101911895 -0.003121537 0.15244606 0.21662949 -0.12250467
-0.23535456 -0.122039914 -0.024994535 -0.23238231 0.039494194 -0.031754542 0.28452134 0.15235287
-0.043814678 0.3590989 0.039772 -0.16028056 0.15307274 -0.16877007 0.07444511 -0.082352646
0.12744272 0.085140884 0.109036095 0.23924813 0.16156057 -0.28730157 -0.26084793 0.22640337
0.22398202 -0.030099677 -0.079550445 0.122615755 -0.0849013 0.06812356 -0.13511261 0.09640047
0.15972775 -0.2388951 -0.02283568 0.22387323 0.04797672 0.06386561 -0.05418625 0.14741346
0.19545968 0.098468676 -0.0143803805 0.30507162 -0.047643125 -0.40757492 0.1247137 0.083095066
-0.09540259 0.14998606 0.21206005 -0.14262708 0.003994463 -0.16889766 -0.050088983 -0.43401513
0.20124741 -0.17303926 -0.031527653 -0.06353904 0.08080118 0.09055838 0.265162 0.011009683
-0.037019633 0.0104900915 -0.15634176 0.062872924 -0.0024059075 0.091496944 0.028178163 0.27174103
-0.040210743 0.2500579 -0.00783011 -0.58528054 -0.010024689 -0.13635857 0.08219501 -0.30709302
0.08999479 -0.23155014 -0.042013828 0.024964532 0.044570357 0.08406848 0.011421215 -0.10259123
-0.06130478 -0.016925257 0.040317703 0.10391765 0.003870102 0.02980607 0.070335045 0.104733184
0.0054369792 -0.09027122 -0.15152335 0.024402732 0.048293017 0.033797204 -0.23555815 0.2948896
-0.04146978 0.13488446 0.040127322 0.08662142 0.1393641 -0.24790251 -0.02378506 -0.0062874123
0.08566786 -0.044431355 0.12904917 0.039250042 -0.057234492 -0.20468324 -0.116285816 -0.17442274
-0.048408896 0.04386578 -0.11917731 -0.034939732 0.2314083 -0.041729007 -0.15655926 0.34674373
-0.026083665 -0.016744317 0.08335679 -0.15178756 -0.089549944 0.07206197 0.0486842 0.11496748
-0.08747005 0.13799609 0.10112145 -0.08600349 0.101933025 -0.023045653 -0.12032726 -0.014292345
00000000: 0dc1 6c3e 3536 1fbe 1c0e 2f3d b84b 8d3d
00000010: bbe4 833e c3f4 ebbd 0c46 33bd 87d9 b63d
00000020: 79df 313e b770 0c3e 47e5 d5bb 86c5 3ebe
00000030: 38e2 4cbe 42cb db3d 8724 eabd b3ee 8b3e
00000040: e563 593e 391e 61bd 9c29 2c3d 58a9 173e
00000050: 8992 afbd 7c73 a23d 48f7 2bbd ed09 3d3e
00000060: 417e 953e bf26 723e 4a18 c43d 8d2a ae3d
00000070: 03d7 b33d 437a aabe f980 703d 391a 0a3e
00000080: 1324 3a3d 6cb4 953d 4ae7 ba3d 9062 32be
00000090: 1c93 0bbd 961e 5cbe cbf1 edbd 5b26 a9be
000000a0: b3d3 a03d c739 04be b19a c23d 92ef e2bd
000000b0: ddc2 4a3d 51b1 383e a2ab 233d eeab 813e
000000c0: 92ab 9bbe 1e37 c2bd 81d2 303e eba5 b1be
000000d0: 853b 7d3d 5992 503e 1d1e eb3d c15e bcbc
000000e0: 72df debd 52f3 c73e c2aa f0bc 0407 02be
000000f0: d47d 0e3e c0f3 63bd 0a24 14be 9be2 aebd
00000100: c1ac 87bd 7f22 9bbd e9f3 a23e 42f2 903e
00000110: 84c8 123e e5d6 37be fb26 b33d 334a a13d
00000120: 96cc 193e af5b bc3d a2e3 fbbd cfbd 8d3d
00000130: 8c08 58be fad5 383e 1808 01be 847d a8be
00000140: 23f8 573e 4fea 16bd b096 f1bd 169a 573e
00000150: 2ee2 d33d 2548 dabd 8e45 17be ea26 a83c
00000160: c491 c43e 16f3 ab3d d05d 9bbd dd8b f93d
00000170: 6bc9 6f3e 9d7d 80bb 6986 133d bd74 363e
00000180: a403 823b bb31 403e da5d 723d e998 08be
00000190: ebbd 1abc 9d27 36be aeef 1abe a94c aa3d
000001a0: 46a9 3a3e 9f76 6cbd c034 e9bd 2fb7 d03d
000001b0: b392 4cbb d21a 1c3e 1fd4 5d3e bae3 fabd
000001c0: c900 71be 10f0 f9bd 57c1 ccbc a1f5 6dbe
000001d0: aac4 213d 0d11 02bd c8ac 913e 6402 1c3e
000001e0: 0577 33bd d0db b73e f7e7 223d 9620 24be
000001f0: 1abf 1c3e 10d2 2cbe ae76 983d 81a8 a8bd
00000200: 5880 023e 585e ae3d 514e df3d 76fd 743e
00000210: 2270 253e 3119 93be dc8d 85be 49d6 673e
00000220: 8b5b 653e 9993 f6bc 58eb a2bd f81d fb3d
00000230: bce0 adbd 5d84 8b3d f65a 0abe 9c6d c53d
00000240: ac8f 233e eba0 74be e411 bbbc 063f 653e
00000250: 3d83 443d f9cb 823d 67f2 5dbd 8ef3 163e
00000260: 9526 483e f2a9 c93d b09b 6bbc 5932 9c3e
00000270: 7025 43bd a9ad d0be e569 ff3d bf2d aa3d
00000280: 6f62 c3bd f295 193e 4526 593e d50c 12be
00000290: fce3 823b 82f3 2cbe 1b2a 4dbd 3b37 debe
000002a0: cd13 4e3e 3431 31be 2423 01bd c220 82bd
000002b0: 177b a53d ac76 b93d 50c3 873e f561 343c
000002c0: e6a1 17bd a2de 2b3c 0e18 20be 85c3 803d
000002d0: 6eac 1dbb c062 bb3d e4d5 e63c a421 8b3e
000002e0: 05b4 24bd 9707 803e dd49 00bc f2d4 15bf
000002f0: 983e 24bc 95a1 0bbe db55 a83d 4c3b 9dbe
00000300: 304f b83d 7b1b 6dbe b116 2cbd 6b82 cc3c
00000310: 688f 363d 182c ac3d 0c20 3b3c 5a1b d2bd
00000320: b91a 7bbd d6a6 8abc 2d24 253d c7d2 d43d
00000330: 8aa1 7d3b dc2b f43c d20b 903d 5a7e d63d
00000340: b028 b23b 1ee0 b8bd f028 1bbe 3de8 c73c
00000350: e6ce 453d f06e 0a3d 2836 71be c5fb 963e
00000360: 37dc 29bd 271f 0a3e 8c5c 243d 9266 b13d
00000370: 76b5 0e3e 28da 7dbe e3d8 c2bc a306 cebb
00000380: a272 af3d a7fd 35bd 7725 043e a7c4 203d
00000390: b76e 6abd 7c98 51be 4227 eebd e09b 32be
000003a0: 6848 46bd 9bac 333d 3c13 f4bd f71c 0fbd
000003b0: 4cf6 6c3e 09ec 2abd 1251 20be 6588 b13e
000003c0: 69ad d5bc 612b 89bc f7b6 aa3d 336e 1bbe
000003d0: f665 b7bd 3a95 933d 1569 473d 1274 eb3d
000003e0: 7f23 b3bd d94e 0d3e c318 cf3d 9922 b0bd
000003f0: 43c2 d03d 3dca bcbc 236e f6bd 712a 6abc

lstm.bias_ih_l0 f4 [256]
0.120169625 0.086474694 0.042825673 -0.0794808 0.20186882 -0.012400592 0.18624914 0.009856915
0.2553775 0.18476698 -0.12343924 0.22650266 0.034877937 0.12864356 0.1166532 0.13304085
0.18854462 0.16032259 0.19343942 -0.017309641 -0.080782436 0.036648072 0.10854609 0.089829296
0.14658181 0.17304787 0.05001377 0.07107885 -0.015380296 0.24874233 0.28599143 -0.10833792
-0.03662226 0.1315127 0.04412599 -0.111408405 0.1551262 -0.08347498 0.00082153734 -0.08698906
0.12017779 -0.028601246 -0.0500188 0.67008036 0.04852693 0.270511 0.024958214 0.10670072
-0.03886226 0.06764766 -0.027687164 -0.13022819 -0.13332538 0.30336243 0.095950425 0.04371751
0.19299224 -0.051378626 0.04975199 0.0800581 -0.0233173 0.11895163 -0.24800606 0.031652737
-0.05839131 0.14171438 -0.0726952 0.121858664 0.07392628 0.0841098 0.09395446 0.107595265
0.09141077 0.081897445 -0.14720115 0.1393808 0.045782357 0.068203256 0.008069152 -0.09303955
0.051647183 -0.01792203 -0.09711694 -0.11693524 0.044791464 0.075976305 -0.110619314 -0.0067304047
0.20906495 0.11937632 0.10035952 0.018167658 0.2106844 0.09158783 -0.1753527 0.06657927
-0.07542185 0.008993604 -0.042818602 0.021180093 0.03078216 -0.13690233 -0.043610357 0.004551048
-0.09397965 0.0028473253 0.12627144 -0.25821224 -0.116236486 0.19185278 0.09877675 0.099591754
0.066347 0.022048961 -0.01152783 -0.08894605 -0.117479816 0.10255121 0.086340375 0.009517797
0.09753744 0.1360793 -0.21622963 0.119978175 0.028545927 0.048351422 0.07776885 0.16522878
0.021383837 0.19734026 -0.08906438 -0.21357004 0.12739947 0.12281051 -0.19480255 0.24060906
0.2361062 0.13044232 -0.0784802 -0.039360546 0.20382433 -5.834268e-05 -0.044303652 0.098416835
0.22529233 -0.13825046 0.072301015 0.03525402 0.02724577 0.16774915 -0.06984759 -0.08900065
-0.070615396 0.11298262 0.082689 0.09885673 -0.038032714 -0.28152746 0.13073026 0.007890946
-0.23779899 -0.17421603 0.14381413 0.033786617 0.03688928 -0.0026385726 -0.08238583 0.077841625
-0.0062211193 -0.08584979 -0.079848014 0.106487356 -0.00299924 0.08677052 0.06408018 -0.21041586
-0.009940437 -0.017868966 0.021041045 0.052095644 0.16560806 0.2696929 -0.0626866 -0.14287426
-0.10346477 0.016826438 0.18579046 0.069150366 -0.17299907 -0.059304237 -0.060390532 -0.1376783
0.32103208 -0.03603027 -0.023494266 -0.18748534 0.21724652 0.079290345 0.12843545 -0.10768252
0.057301074 -0.008223767 0.14310765 -0.010034697 0.1802373 -0.04965105 0.08591684 0.09635187
0.097903386 0.022452742 0.2058764 -0.03776032 0.0346208 0.04177404 0.078970216 0.07121338
0.049272794 0.018527102 0.194493 0.026859643 0.13569415 0.35035232 0.3236615 -0.1358795
0.16245088 -0.13082361 0.123747244 -0.10821468 0.10932452 0.14791757 0.13773102 0.2920109
0.1724575 -0.00026896998 0.09361081 0.47672346 0.1520119 0.11439949 -0.046408728 0.15810935
0.1383754 0.13273779 0.17515032 0.038419884 0.22145936 0.23150583 0.2212466 0.3093779
0.17183223 0.083532855 0.037908126 0.19226778 -0.060986724 0.04164257 -0.21803531 0.29021442
00000000: 7e1b f63d a519 b13d f969 2f3d d4c6 a2bd
00000010: b3b6 4e3e da2b 4bbc 18b8 3e3e e67e 213c
00000020: d7c0 823e 8e33 3d3e b6cd fcbd 50f0 673e
00000030: 2bdc 0e3d 23bb 033e dfe7 ee3d dc3b 083e
00000040: d711 413e 9b2b 243e fc14 463e f3cc 8dbc
00000050: 4371 a5bd 4a1c 163d 6a4d de3d 6cf8 b73d
00000060: 8b19 163e 7633 313e 3ddb 4c3d ca91 913d
00000070: a3fd 7bbc 4fb6 7e3e 786d 923e 45e0 ddbd
00000080: 3901 16bd 44ab 063e 74bd 343d 172a e4bd
00000090: 67d9 1e3e eef4 aabd 705c 573a 5227 b2bd
000000a0: c61f f63d 294d eabc 83e0 4cbd 638a 2b3f
000000b0: 2dc4 463d 6b80 8a3e 2b75 cc3c e885 da3d
000000c0: 082e 1fbd db8a 8a3d 31d0 e2bc 8a5a 05be
000000d0: 7386 08be 5252 9b3e a881 c43d 2211 333d
000000e0: c29f 453e 6572 52bd bec8 4b3d 80f5 a33d
000000f0: ec03 bfbc ea9c f33d 4df5 7dbe 4da6 013d
00000100: ba2b 6fbd 931d 113e 39e1 94bd 0991 f93d
00000110: a966 973d c241 ac3d 326b c03d e85a dc3d
00000120: 9235 bb3d d9b9 a73d e6bb 16be d7b9 0e3e
00000130: 4886 3b3d 26ae 8b3d 7a34 043c 858b bebd
00000140: ff8b 533d 39d1 92bc 3fe5 c6bd be7b efbd
00000150: 4177 373d 7799 9b3d 618c e2bd ba8a dcbb
00000160: 1f15 563e 927b f43d 4b89 cd3d 57d4 943c
00000170: a7bd 573e 6692 bb3d a88f 33be b65a 883d
00000180: c576 9abd e959 133c 8f62 2fbd e081 ad3c
00000190: de2a fc3c 2030 0cbe c6a0 32bd f520 953b
000001a0: 6778 c0bd 319a 3a3b 4d4d 013e 6534 84be
000001b0: 650d eebd 0e75 443e 774b ca3d c3f6 cb3d
000001c0: f0e0 873d 06a0 b43c 39df 3cbc 5929 b6bd
000001d0: 4299 f0bd 5e06 d23d 39d3 b03d 89f0 1b3c
000001e0: b6c1 c73d 5f58 0b3e 4d6b 5dbe 1eb7 f53d
000001f0: 26d9 e93c 240c 463d 4645 9f3d bc31 293e
00000200: 282d af3c 9113 4a3e 6367 b6bd 1bb2 5abe
00000210: 0275 023e 1484 fb3d 527a 47be 3962 763e
00000220: d3c5 713e ac92 053e 3aba a0bd 8638 21bd
00000230: 53b7 503e fab4 74b8 bf77 35bd c48e c93d
00000240: 08b3 663e 8791 0dbe 8e12 943d 8566 103d
00000250: 8532 df3c 6fc6 2b3e 410c 8fbd f945 b6bd
00000260: ce9e 90bd 6f63 e73d da58 a93d 6675 ca3d
00000270: 31c8 1bbd 5e24 90be 27de 053e 0749 013c
00000280: 9481 73be b065 32be 0344 133e d663 0a3d
00000290: 3719 173d e7eb 2cbb e7b9 a8bd 6e6b 9f3d
000002a0: 88da cbbb 04d2 afbd 5b87 a3bd 0b16 da3d
000002b0: e68e 44bb beb4 b13d 783c 833d 4177 57be
000002c0: 37dd 22bc f061 92bc 455e ac3c 3e62 553d
000002d0: 2995 293e 3015 8a3e d561 80bd a14d 12be
000002e0: 56e5 d3bd 99d7 893c db3f 3e3e b59e 8d3d
000002f0: ab26 31be 00e9 72bd 105c 77bd 8afb 0cbe
00000300: 515e a43e 7a94 13bd 0c77 c0bc 28fc 3fbe
00000310: df75 5e3e fa62 a23d 9584 033e a788 dcbd
00000320: 88b4 6a3d fbbc 06bc d08a 123e 9268 24bc
00000330: 2090 383e e65e 4bbd 2bf5 af3d 2154 c53d
00000340: 9281 c83d d0ee b73c 43d1 523e 91aa 1abd
00000350: 8ace 0d3d 411b 2b3d 23bb a13d 52d8 913d
00000360: 45d2 493d 26c6 973c 2c29 473e c108 dc3c
00000370: 68f3 0a3e 6161 b33e f6b6 a53e ff23 0bbe
00000380: 8659 263e a0f6 05be 326f fd3d a89f ddbd
00000390: 89e5 df3d b477 173e 5c09 0d3e 7482 953e
000003a0: b398 303e 8a04 8db9 06b7 bf3d 1915 f43e
000003b0: 02a9 1b3e 484a ea3d 1417 3ebd 6be7 213e
000003c0: 48b2 0d3e 6aec 073e 9b5a 333e 2b5e 1d3d
000003d0: 3ec6 623e dd0f 6d3e 788e 623e c866 9e3e
000003e0: caf4 2f3e 4613 ab3d 8d45 1b3d d8e1 443e
000003f0: 37cd 79bd 6691 2a3d a644 5fbe fc96 943e

lstm.bias_hh_l0 f4 [256]
0.1998887 0.07433764 0.05650934 0.076171465 0.14958847 0.045837004 0.011991982 0.090880565
0.094867654 0.21429329 0.022863774 0.18335757 0.16998269 0.0029959716 0.11818542 0.14258447
0.11639613 0.034481116 0.111224666 0.07865997 -0.030288465 0.062059503 0.044651423 -0.006682012
0.13472618 0.09675881 -0.027109122 0.09497853 -0.02426868 0.29003015 0.23693642 0.09215101
0.10092387 0.06985103 0.05778222 -0.014087458 0.22734681 -0.07003619 0.028636625 -0.13740921
0.028935995 -0.0018951962 0.059579916 0.5913079 0.11355979 0.24816118 0.05909439 0.09845586
-0.09088289 -0.05912218 -0.06931089 -0.05788784 -0.030522905 0.48915142 -0.0410903 0.075528644
0.17423661 0.02736039 0.2350186 0.0986466 0.12565446 0.10483931 -0.14007199 0.041262098
-0.06917577 0.021161428 -0.024531003 0.15264134 -0.033979822 0.11362973 0.044421252 0.13502598
0.2223373 -0.0047060223 -0.11576654 0.071581095 -0.001788701 0.19131358 -0.087361075 -0.14125691
0.074563175 0.005482536 -0.09560036 -0.008922458 -0.0027904615 0.0873012 -0.016153095 0.09619009
0.032382198 0.07176798 0.112539336 -0.08153506 0.19460863 0.06608061 -0.028528163 0.15230826
-0.12403178 -0.16771722 0.047339328 -0.007662509 -0.12975484 0.0009145844 -0.13178049 -0.07263187
-0.054361694 -0.012047439 0.091995254 -0.23853703 -0.021414224 0.05803528 0.013352255 -0.046953004
0.031920165 0.0031720337 0.045390923 -0.0143386135 -0.02289978 0.056891713 -0.03671717 -0.018669885
0.08440298 -0.07251413 0.008755845 -0.018551685 0.09314006 0.10888448 -0.06351735 0.113447875
-0.10637566 0.12036517 -0.16128443 -0.20055512 0.16331 -0.05478873 -0.13910846 0.21691422
0.09334025 0.04214562 -0.04854729 -0.12619796 0.021185303 -0.05480236 0.11179881 0.17984824
0.23615468 -0.11913586 -0.0049987826 -0.10839472 -0.13286647 0.1989862 0.096721835 -0.05682333
-0.0027827166 0.22039624 0.082979485 0.14194326 -0.025326565 -0.12961529 -0.035008572 0.01296976
-0.12393893 -0.21999872 0.14210351 -0.042779505 0.16251644 0.12040126 -0.068559356 -0.080312766
-0.030992098 -0.13645695 -0.09340264 0.10344371 -0.039444506 0.12177469 0.050918188 0.015067429
0.1059601 -0.058628034 0.073839486 -0.025188124 0.1837658 0.25375587 -0.22733654 -0.13058773
0.04789247 0.01203928 0.040623486 0.10192092 -0.10544606 -0.033290204 -0.071028516 -0.0052146595
0.32421055 0.1096617 -0.08604324 -0.03698812 0.19814098 0.06209544 0.32923457 -0.049548537
0.099795654 -0.028136257 0.054270446 -0.078655876 0.1332231 0.11501541 0.06403267 0.032009035
0.08026627 0.16515526 0.2575872 0.10821102 0.00269503 -0.012888512 0.21078189 0.15166575
0.065792374 -0.05092839 0.18625374 0.09159619 -0.04402822 0.22280797 0.25796658 -0.03399903
0.11562255 0.0038252661 0.03673665 -0.0067283115 0.09095333 0.032721825 0.15183045 0.292743
0.074412055 -0.0338284 -0.054683436 0.39564407 0.13411693 0.033604182 -0.14681917 0.2802115
0.07957885 0.013640406 0.106099114 0.15087287 0.053081904 0.18677375 0.052316293 0.25898573
0.18664922 -0.012110633 -0.0077326163 0.1371685 -0.016949797 0.12566079 -0.01792969 0.22698839
00000000: a0af 4c3e 553e 983d 5676 673d c9ff 9b3d
00000010: b82d 193e 95bf 3b3d 057a 443c 971f ba3d
00000020: f949 c23d b36f 5b3e cf4c bb3c 16c2 3b3e
00000030: f10f 2e3e 1058 443b 330b f23d aa01 123e
00000040: 1861 ee3d 123c 0d3d c2c9 e33d 7a18 a13d
00000050: 841f f8bc 1b32 7e3d 69e4 363d c8f4 dabb
00000060: a9f5 093e 7c29 c63d f313 debc 1b84 c23d
00000070: 1ccf c6bc d57e 943e 769f 723e abb9 bc3d
00000080: 2db1 ce3d 0f0e 8f3d 0dad 6c3d 15cf 66bc
00000090: 9acd 683e 226f 8fbd 5b97 ea3c 00b5 0cbe
000000a0: 2e0b ed3c 3b68 f8ba 120a 743d f45f 173f
000000b0: 0992 e83d f71d 7e3e f60c 723d 3aa3 c93d
000000c0: cf20 babd 192a 72bd def2 8dbd cd1b 6dbd
000000d0: 2c0b fabc 0e72 fa3e 4d4e 28bd c3ae 9a3d
000000e0: 156b 323e e622 e03c b7a8 703e 3b07 ca3d
000000f0: 90ab 003e feb5 d63d 086f 0fbe 7202 293d
00000100: 07ac 8dbd bb5a ad3c 3ef5 c8bc 034e 1c3e
00000110: 6d2e 0bbd b4b6 e83d 0ff3 353d 4044 0a3e
00000120: 64ac 633e fa34 9abb 0217 edbd 1c99 923d
00000130: d972 eaba b5e7 433e 5dea b2bd a7a5 10be
00000140: 94b4 983d d8a6 b33b 1fca c3bd 802f 12bc
00000150: 2de0 36bb f9ca b23d 7f53 84bc 4fff c43d
00000160: 32a3 043d 17fb 923d 067b e63d dbfb a6bd
00000170: 7c47 473e 4555 873d e5b3 e9bc b2f6 1b3e
00000180: 6004 febd 10be 2bbe e2e6 413d c915 fbbb
00000190: 74de 04be b8c0 6f3a 77f1 06be 05c0 94bd
000001a0: 5eaa 5ebd 9f62 45bc 0268 bc3d 0d43 74be
000001b0: e26c afbc 67b6 6d3d 6bc3 5a3c cb51 40bd
000001c0: b8be 023d e5e1 4f3b d5eb 393d 81ec 6abc
000001d0: 5298 bbbc 4907 693d be64 16bd 96f1 98bc
000001e0: 78db ac3d 4a82 94bd ad74 0f3c b4f9 97bc
000001f0: 37c0 be3d d4fe de3d 6215 82bd 5c57 e83d
00000200: 7bdb d9bd 0482 f63d bf27 25be 525e 4dbe
00000210: bd3a 273e 266a 60bd 7372 0ebe c31e 5e3e
00000220: 2c29 bf3d e3a0 2c3d 86d9 46bd 0a3a 01be
00000230: cd8c ad3c 7078 60bd c6f6 e43d 232a 383e
00000240: 88d2 713e 80fd f3bd d4cc a3bb 0dfe ddbd
00000250: 260e 08be 0ac3 4b3e 1916 c63d 94bf 68bd
00000260: 3d5e 36bb 8daf 613e 26f1 a93d 9359 113e
00000270: a879 cfbc dfb9 04be 2665 0fbd 1e7f 543c
00000280: b2d3 fdbd 5847 61be 9583 113e 9039 2fbd
00000290: b66a 263e f094 f63d d968 8cbd 057b a4bd
000002a0: 24e3 fdbc 5fbb 0bbe e249 bfbd 4cda d33d
000002b0: 9090 21bd 0265 f93d 978f 503d 61dd 763c
000002c0: 9c01 d93d f323 70bd 2839 973d 5357 cebc
000002d0: 1a2d 3c3e 4aec 813e e9ca 68be cab8 05be
000002e0: e52a 443d 6640 453c d064 263d eabb d03d
000002f0: 1bf4 d7bd 4f5b 08bd 6677 91bd bcdf aabb
00000300: edfe a53e 5096 e03d 7037 b0bd db80 17bd
00000310: 78e5 4a3e ca57 7e3d 6f91 a83e 68f3 4abd
00000320: aa61 cc3d 027e e6bc b04a 5e3d 5516 a1bd
00000330: a36b 083e 338d eb3d 8f23 833d e81b 033d
00000340: a462 a43d 761e 293e 78e2 833e bd9d dd3d
00000350: 1a9f 303b 562a 53bc 35d7 573e 444e 1b3e
00000360: 27be 863d 4a9a 50bd 4db9 3e3e c996 bb3d
00000370: ef56 34bd c627 643e 3214 843e 9142 0bbd
00000380: 84cb ec3d 51b1 7a3b 2b79 163d 2b79 dcbb
00000390: bd45 ba3d 5207 063d 7179 1b3e 69e2 953e
000003a0: 5965 983d a68f 0abd bdfb 5fbd dc91 ca3e
000003b0: f355 093e 8aa4 093d c457 16be e277 8f3e
000003c0: 3cfa a23d 027c 5f3c 7e4a d93d 6b7e 1a3e
000003d0: 696c 593d 9e41 3f3e 9c49 563d c799 843e
000003e0: f920 3f3e ad6b 46bc e361 fdbb e675 0c3e
000003f0: 4dda 8abc 39ad 003e 49e1 92bc a56f 683e

lstm.weight_ih_l1 f4 [256, 64]
-0.028167965 -0.08068386 -0.093425214 -0.08296423 0.060280453 -0.060022514 -0.052059617 0.0028295224
0.0116519965 0.1805207 -0.052965574 -0.036038864 -0.13777822 -0.041036226 0.03150712 0.022584818
-0.009842763 0.011922043 -0.060936067 0.18160531 0.04108426 0.14216678 0.08942045 0.14118016
0.027356215 0.03593279 -0.16997191 0.009129674 -0.15051007 -0.08718076 0.11130637 -0.11296254
-0.12410506 0.060312975 -0.073635355 0.068390585 0.031560473 -0.10908618 -0.10466188 -0.01603365
0.020883389 -0.16987112 0.08795504 -0.25632778 0.058028862 0.0659535 0.10160301 0.062201437
0.06887402 -0.1393871 -0.018843884 0.1112975 -0.02718063 0.10046389 -0.06990382 0.08575822
0.06300043 -0.012709243 -0.12758031 0.048956975 -0.09002912 -0.05778363 -0.2739808 -0.15343185
-0.13427572 0.0036215517 0.05180993 -0.042153377 -0.025904145 -0.036843248 -0.022509178 -0.06648033
0.013955067 0.16319756 0.16294014 0.060736388 0.11440612 -0.093326226 -0.022398287 0.32273668
-0.069828704 0.10061915 0.078070655 -0.018162739 -0.042242218 0.11199167 0.087313056 0.16100872
0.15071735 0.09874075 -0.25491944 -0.08893069 0.12627307 -0.03085588 0.034972686 -0.005315254
-0.21363467 0.14948331 -0.045544185 0.06916791 0.022846678 0.115879245 0.086454764 0.25303602
-0.117371134 -0.11937164 0.06016106 -0.122126885 -0.028526753 0.0923122 0.008911259 -0.017756697
-0.00442493 -0.09325654 0.23027097 -0.06707867 0.11876283 -0.015694035 -0.045353703 0.12998989
-0.15034576 0.031058231 -0.07955688 -0.18457967 -0.028505832 0.048447605 -0.032552216 -0.13522054
0.041766763 -0.2577181 0.010267738 -0.1535388 0.13687508 0.12055214 0.0013874804 0.042112157
0.03199272 0.58283746 0.013882697 0.08828139 -0.19831133 -0.031135164 -0.16719857 0.8692312
0.1391803 0.012405328 -0.03971828 0.10848755 0.001977401 0.02138665 -0.03425173 0.1533703
0.13429476 0.18093497 -0.24768928 -0.12950724 0.03129723 0.11795519 0.030515745 -0.030281175
-0.18474787 -0.0548757 -0.0988724 -0.02984743 -0.10966941 -0.30205628 -0.06097427 -0.23497398
0.04489263 0.06878396 -0.010862374 0.15205207 0.34512582 -0.0048792376 -0.035623316 -0.13897428
0.036172155 -0.17441317 0.015770094 -0.15396006 -0.11949465 0.099144995 -0.018291207 0.12666774
-0.0956909 0.0044935406 -0.02813817 -0.27902 0.116580516 0.12279564 -0.26382622 -0.13594228
0.17671494 0.07748685 -0.1524217 -0.04728808 0.2425244 0.0477074 0.08518486 0.07187372
-0.059834644 0.14459881 -0.31529754 -0.10306507 0.13296466 -0.0047628423 0.00226331 0.11563224
0.051944442 0.009340933 -0.017204003 0.013386577 -0.16711158 0.113810144 -0.16660598 0.002389897
0.2091805 0.008074939 0.19868144 -0.19325452 0.04019737 -0.362728 0.081955835 0.065924026
-0.019792326 -0.17890114 -0.12753761 -0.037844747 -0.056019295 -0.07317263 0.030813232 -0.13574396
0.025320742 0.15961891 -0.18211555 -0.5063621 -0.111875795 0.058220666 0.131818 0.099288724
-0.17393109 -0.18195462 -0.011830168 -0.18453917 -0.12703961 0.04527145 -0.072830506 -0.21006423
-0.056584 0.010625977 -0.0044621304 0.0125387665 -0.040036347 0.075829685 -0.12773666 -0.104871064
00000000: 81c0 e6bc 943d a5bd b855 bfbd 26e9 a9bd
00000010: a3e8 763d 2bda 75bd 773c 55bd 826f 393b
00000020: 04e8 3e3c 6bda 383e 6ef2 58bd 7d9d 13bd
00000030: bc15 0dbe 9a15 28bd 9c0d 013d cc03 b93c
00000040: 8a43 21bc ac54 433c 1998 79bd bef6 393e
00000050: f847 283d 2b94 113e 1222 b73d 8891 103e
00000060: 241a e03c 432e 133d 1e0d 2ebe a194 153c
00000070: 501f 1abe d48b b2bd 98f4 e33d e758 e7bd
00000080: cb2a febd bd0a 773d 22ce 96bd 5d10 8c3d
00000090: 8e45 013d 9368 dfbd f858 d6bd 0059 83bc
000000a0: a413 ab3c b2f2 2dbe c621 b43d 653d 83be
000000b0: acaf 6d3d a112 873d 3d15 d03d efc6 7e3d
000000c0: d20d 8d3d 7ebb 0ebe 7d5e 9abc f2ef e33d
000000d0: eaa9 debc 03c0 cd3d bc29 8fbd 01a2 af3d
000000e0: 5f06 813d 6e3a 50bc 6aa4 02be 1c87 483d
000000f0: 3061 b8bd 87ae 6cbd 3647 8cbe 3d1d 1dbe
00000100: 937f 09be 8e57 6d3b a636 543d 05a9 2cbd
00000110: ee34 d4bc f2e8 16bd 2b65 b8bc d726 88bd
00000120: cba3 643c 431d 273e c8d9 263e b8c6 783d
00000130: c14d ea3d d221 bfbd 9d7c b7bc be3d a53e
00000140: 5a02 8fbd 6a11 ce3d 82e3 9f3d 06ca 94bc
00000150: 2d06 2dbd e45b e53d 30d1 b23d 78df 243e
00000160: a655 1a3e 9738 ca3d cd84 82be 4b21 b6bd
00000170: ba4d 013e 78c5 fcbc 853f 0f3d 952b aebb
00000180: 0cc3 5abe 2712 193e 8a8c 3abd e8a7 8d3d
00000190: f528 bb3c 1952 ed3d 320f b13d f08d 813e
000001a0: 4760 f0bd 1e79 f4bd 726b 763d a91d fabd
000001b0: f0b0 e9bc 2e0e bd3d 8700 123c 7e76 91bc
000001c0: 01ff 90bb 49fd bebd 27cc 6b3e 8b60 89bd
000001d0: ed39 f33d c790 80bc cec4 39bd 121c 053e
000001e0: 3df4 19be d56d fe3c b8ee a2bd 7402 3dbe
000001f0: 1085 e9bc ff70 463d 7955 05bd 4177 0abe
00000200: a013 2b3d a0f3 83be 043a 283c 4639 1dbe
00000210: fb28 0c3e 0ae4 f63d 1edc b53a cc7d 2c3d
00000220: cc0a 033d d634 153f 4074 633c e0cc b43d
00000230: 2012 4bbe 2c0f ffbc 1a36 2bbe f085 5e3f
00000240: 4885 0e3e b83f 4b3c a3af 22bd b82e de3d
00000250: 4997 013b 0e33 af3c 8b4b 0cbd 1b0d 1d3e
00000260: 9184 093e 0447 393e 42a2 7dbe 8c9d 04be
00000270: 8631 003d 7e92 f13d 28fc f93c 3a10 f8bc
00000280: 8c2e 3dbe 58c5 60bd 9d7d cabd 9982 f4bc
00000290: 5b9a e0bd 1fa7 9abe 28c0 79bd 059d 70be
000002a0: 56e1 373d 9bde 8c3d 19f8 31bc 8ab3 1b3e
000002b0: 55b4 b03e 03e2 9fbb c1e9 11bd 464f 0ebe
000002c0: 4129 143d 5e99 32be 4930 813c b5a7 1dbe
000002d0: 9cb9 f4bd 880c cb3d 71d7 95bc 30b5 013e
000002e0: 97f9 c3bd 8d3e 933b 0582 e6bc b6db 8ebe
000002f0: c4c1 ee3d 487c fb3d 3b14 87be 7434 0bbe
00000300: c3f4 343e 6db1 9e3d 6f14 1cbe 25b1 41bd
00000310: 5158 783e d668 433d 6675 ae3d 8732 933d
00000320: 2c15 75bd b611 143e ae6e a1be c813 d3bd
00000330: e327 083e 9e11 9cbb 0a54 143b 99d0 ec3d
00000340: b2c3 543d b60a 193c 69ef 8cbc 6053 5b3c
00000350: 4c1f 2bbe 4b15 e93d c29a 2abe d19f 1c3b
00000360: 6a33 563e c04c 043c 2673 4b3e 83e4 45be
00000370: ffa5 243d 7cb7 b9be 76d8 a73d 2d03 873d
00000380: 8423 a2bc dc31 37be 3899 02be 1803 1bbd
00000390: 7d74 65bd 88db 95bd 086c fc3c 7700 0bbe
000003a0: 726d cf3c 2473 233e 807c 3abe f2a0 01bf
000003b0: 231f e5bd cb78 6e3d 4cfb 063e e357 cb3d
000003c0: fe1a 32be 5052 3abe 52d3 41bc d6f7 3cbe
000003d0: ac16 02be 8e6e 393d 2928 95bd 141b 57be
000003e0: a0c4 67bd 9418 2e3c 1037 92bb 666f 4d3c
000003f0: 27fd 23bd 984c 9b3d 66cd 02be a4c6 d6bd

lstm.weight_hh_l1 f4 [256, 64]
0.05989331 -0.026483592 0.11032073 0.12605105 0.05466866 0.025533164 -0.033463545 -0.20071614
-0.069315456 -0.005014389 -0.068230964 -0.15431331 -0.081003375 0.077216364 0.046501905 -0.4689862
0.09097189 -0.037164174 -0.032943424 -0.18192482 -0.07549976 0.1842283 0.00090586365 0.029782346
-0.08720823 0.09514823 -0.043910816 0.058254037 -0.04418283 -0.09522495 0.10283528 -0.07754845
-0.014658652 -0.055260263 -0.17846806 -0.26562768 0.029713491 -0.032986846 0.085910074 0.1852658
0.013181131 0.08373691 -0.018475192 0.031724103 0.08580765 -0.17466883 0.04832804 0.12522262
0.015164062 -0.07369093 0.08601785 0.032412663 -0.03616082 0.019637657 0.094263494 0.052299242
-0.017269624 0.043584026 0.043329485 0.040518343 0.085061215 -0.028894247 -0.20206438 0.07117566
-0.18497038 0.05879473 0.17847249 -0.06305976 -0.26582953 0.06585529 -0.023500478 -0.09749431
-0.07370239 -0.071600154 0.0151899345 -0.04007637 -0.074982636 -0.15286086 0.3097532 0.14811295
0.1300454 -0.16060606 0.05952997 -0.12739716 -0.04712376 -0.03749433 -0.09154359 -0.097894944
-0.21181582 -0.11846938 -0.22409034 -0.18454884 -0.03254579 -0.032044787 -0.0033062107 0.026085338
0.043760978 0.00908081 0.016401058 -0.0474555 0.02898837 -0.12922205 -0.027642917 -0.008852952
-0.06050492 -0.048360415 -0.018923122 0.10729103 0.03499534 -0.1490825 0.09346271 0.1811322
-0.155771 0.15930828 0.17841066 0.054502044 -0.10364002 0.1290873 0.091096506 -0.11379749
0.018930357 -0.06536866 0.07057799 -0.14724615 0.023947885 0.1487601 0.062024426 -0.09352233
-0.177205 -0.004474762 0.1973703 0.3539898 -0.21726042 0.2779972 -0.07917819 -0.16330737
-0.3184564 0.1852201 0.011009403 -0.20799766 0.14953251 0.033583086 0.045540348 0.16777162
0.31458062 -0.15863617 0.03744225 -0.54006624 -0.16517714 0.28413153 -0.0348616 0.13364561
-0.30672532 -0.21543495 0.049625285 -0.06772236 -0.15024854 0.00956181 0.23098318 -0.20668323
-0.10113674 0.08416105 -0.16025582 -0.05467062 -0.12582114 -0.35536662 -0.10509238 -0.20473635
0.040270977 0.010766019 0.080615036 0.11886127 0.33432332 -0.014627807 0.12716852 0.29900694
-0.33337745 0.2086349 0.030170653 0.31491384 -0.31870058 0.002030331 0.30367425 -0.15548818
-0.070741735 0.031213362 -0.12881741 -0.22199208 0.1803852 0.0032245885 -0.001622191 -0.16263393
0.14860997 0.19830292 -0.00043015424 -0.16761301 -0.06348948 0.090828486 -0.15206192 -0.040680885
0.019513272 -0.015173961 0.0009463395 -0.09937347 0.14145915 0.0045437114 -0.073185146 -0.23348956
-0.14911431 -0.15161917 -0.08896149 -0.2018746 0.27342376 -0.1657166 0.06825678 0.018804174
0.07268856 -0.08179821 -0.07672983 0.0908109 -0.022419682 -0.13942483 0.010174247 0.08127963
-0.026260087 -0.118199356 0.053049926 0.09706764 -0.03655683 0.008994745 -0.06692245 0.26792556
0.086600214 -0.19622447 0.068719655 0.028865878 0.10633143 0.038678467 0.15057045 0.09737538
-0.09009136 -0.12112074 -0.11481909 0.025047062 0.29590583 0.10015405 -0.0046385657 0.005043463
-0.1951219 -0.17944822 0.058009498 -0.000338871 -0.07067952 -0.23423599 -0.18072096 0.047628764
00000000: b052 753d 1ef4 d8bc d6ef e13d 8713 013e
00000010: 3fec 5f3d ed2a d13c 1211 09bd 8888 4dbe
00000020: 43f5 8dbd be4f a4bb adbc 8bbd 4f04 1ebe
00000030: 19e5 a5bd 9d23 9e3d c878 3e3d f61e f0be
00000040: 784f ba3d 7639 18bd afef 06bd 804a 3abe
00000050: 9e9f 9abd 58a6 3c3e 7b77 6d3a 1bfa f33c
00000060: 3a9a b2bd 13dd c23d d4db 33bd c99b 6e3d
00000070: 0ef9 34bd 4c05 c3bd 4e9b d23d b9d1 9ebd
00000080: d82a 70bc 9658 62bd 55c0 36be 5a00 88be
00000090: b569 f33c 371d 07bd 9ff1 af3d 51b6 3d3e
000000a0: acf5 573c 427e ab3d 4959 97bc 22f1 013d
000000b0: ecbb af3d 63dc 32be 9ff3 453d 5c3a 003e
000000c0: b072 783c 45eb 96bd 202a b03d 24c3 043d
000000d0: 5e1d 14bd 27df a03c 380d c13d bb37 563d
000000e0: 0779 8dbc 2a85 323d 427a 313d 90f6 253d
000000f0: 9334 ae3d a1b3 ecbc f7e9 4ebe 8bc4 913d
00000100: e068 3dbe bed2 703d 7ec1 363e 7a25 81bd
00000110: cf1a 88be 23df 863d 1384 c0bc 19ab c7bd
00000120: 47f1 96bd 1aa3 92bd 34df 783c 1f27 24bd
00000130: 7f90 99bd 8f87 1cbe f997 9e3e ecaa 173e
00000140: 9f2a 053e ea75 24be b3d5 733d 6774 02be
00000150: d804 41bd a893 19bd 357b bbbd 257d c8bd
00000160: 3fe6 58be 13a0 f2bd f077 65be 5ffa 3cbe
00000170: bc4e 05bd 6541 03bd 03ad 58bb ebb0 d53c
00000180: b63e 333d adc7 143c 835b 863c b360 42bd
00000190: 0579 ed3c c952 04be 6673 e2bc f90b 11bc
000001a0: 02d4 77bd 9215 46bd aa04 9bbc 66bb db3d
000001b0: 4657 0f3d 15a9 18be 6169 bf3d b87a 393e
000001c0: 6f82 1fbe b621 233e 49b1 363e 893d 5f3d
000001d0: 3841 d4bd 762f 043e ce90 ba3d a90e e9bd
000001e0: d613 9b3c 01e0 85bd 318b 903d b2c7 16be
000001f0: 5b2e c43c 9154 183e 530d 7e3d a388 bfbd
00000200: 3a75 35be 06a1 92bb 711b 4a3e 273e b53e
00000210: 8479 5ebe a655 8e3e 2d28 a2bd 0c3a 27be
00000220: b80c a3be 57aa 3d3e c860 343c 57fd 54be
00000230: 0d1f 193e 6b8e 093d 8488 3a3d 53cc 2b3e
00000240: b610 a13e 8571 22be 0b5d 193d c841 0abf
00000250: 3224 29be b079 913e 09cb 0ebd 65da 083e
00000260: 1a0b 9dbe fb9a 5cbe e243 4b3d 05b2 8abd
00000270: c1da 19be 23a9 1c3c db86 6c3e c5a4 53be
00000280: c720 cfbd a15c ac3d 1a1a 24be 4dee 5fbd
00000290: 42d7 00be 9df2 b5be ac3a d7bd 68a6 51be
000002a0: 2ef3 243d f563 303c 7f19 a53d 8a6d f33d
000002b0: 6d2c ab3e 78a9 6fbc 7738 023e 7017 993e
000002c0: 73b0 aabe 63a4 553e 7228 f73c 633c a13e
000002d0: b92c a3be 4d0f 053b 317b 9b3e 4b38 1fbe
000002e0: 0be1 90bd 2ab3 ff3c b6e8 03be e451 63be
000002f0: e6b6 383e 9e53 533b b39f d4ba 8289 26be
00000300: 362d 183e ec0f 4b3e 5386 e1b9 bfa2 2bbe
00000310: c606 82bd 4904 ba3d 1fb6 1bbe 00a1 26bd
00000320: 4cda 9f3c 359c 78bc c513 783a 5184 cbbd
00000330: abda 103e 6ae3 943b 18e2 95bd e317 6fbe
00000340: 6cb1 18be 0e42 1bbe 7131 b6bd 37b8 4ebe
00000350: 33fe 8b3e 9db1 29be 36ca 8b3d 360b 9a3c
00000360: bddd 943d d285 a7bd 8724 9dbd 11fb b93d
00000370: 7ba9 b7bc 62c5 0ebe e3b1 263c ef75 a63d
00000380: 651f d7bc 8112 f2bd e14a 593d 66cb c63d
00000390: 9dbc 15bd b25e 133c a30e 89bd 8a2d 893e
000003a0: 745b b13d 11ef 48be e4bc 8c3d 2278 ec3c
000003b0: 4bc4 d93d 506d 1e3d 242f 1a3e be6c c73d
000003c0: d281 b8bd 270e f8bd 4526 ebbd 7f2f cd3c
000003d0: f880 973e 911d cd3d 1cff 97bb a243 a53b
000003e0: 09ce 47be 46c1 37be 5e9b 6d3d 7faa b1b9
000003f0: 6dc0 90bd 8fdb 6fbe ea0e 39be 6116 433d

lstm.bias_ih_l1 f4 [256]
-0.06316331 -0.030156013 -0.11190845 0.06353554 -0.025351519 0.046279006 0.101993985 -0.0095299855
0.0254544 -0.10436268 -0.05270159 -0.0734748 -0.08467257 -0.078995384 0.11693227 -0.09632798
-0.018268166 -0.0491259 -0.024472296 0.0672375 0.06165599 -0.00013005841 -0.042978108 -0.07137772
0.009345668 -0.051304433 0.20137557 0.14116912 -0.045605052 -0.01437878 -0.08468457 0.046550788
0.039336335 0.005271739 0.064727426 0.033763777 0.047198392 0.008358298 0.0509265 0.025751041
-0.029297115 0.034436572 0.013932416 -0.06633139 0.09995469 -0.10398436 -0.0054503423 0.08369523
0.026161164 -0.05488488 -0.029062133 0.1033025 0.047377273 -0.10931456 0.078714475 0.04918398
0.21003488 -0.02329141 0.07090816 -0.0046432726 0.16899014 0.068307646 0.28180328 0.046077624
-0.07490284 0.022596553 0.07059195 -0.046581917 -0.1025156 0.06255451 0.00765364 0.11142317
-0.028343203 0.08759363 0.07212181 -0.06416065 0.06712367 -0.014780596 0.10571684 0.102410585
0.035987303 0.13635114 0.04407684 -0.06910816 0.040624917 0.11893286 0.13001302 0.04480816
0.14074832 0.12752202 -0.037882965 0.004769003 0.122686714 0.10868655 0.021342209 0.055703465
0.1315545 0.1041664 0.14653409 0.020058889 0.003192628 -0.027179565 0.11931903 -0.04075444
0.02985891 0.044201236 -0.10063402 -0.055404745 -0.0066983555 -0.068877354 -0.00064147025 0.06197898
0.03479811 0.028220186 -0.09567215 0.11706191 0.074871846 -0.019820182 -0.0643386 -0.10794983
-0.026647026 0.075014494 -0.055094257 -0.025047237 0.023326483 0.051492117 -0.005856944 0.084901325
0.029616173 -0.064940564 -0.01238935 0.05957333 0.046483807 -0.000710313 -0.100284286 -0.07234051
-0.06852421 0.057628665 -0.03846274 0.12007764 -0.1134273 0.07004301 -0.08603992 0.012637957
-0.08733697 -0.0033995253 -0.032482598 -0.020122968 0.07013724 0.040521342 0.035744093 -0.041607756
0.06115691 0.1050101 0.10828051 0.056153543 -0.064413816 0.11785567 0.13305157 -0.09513305
0.016362863 -0.12763967 -0.07143753 0.13835451 -0.09033939 0.010337595 0.06648968 -0.002168348
0.026895199 -0.14387648 0.04538762 0.027459795 -0.13218905 -0.09204254 -0.0047301976 -0.026618112
0.04630529 0.03467003 -0.14494467 -0.031422652 0.13836381 0.009603855 -0.076077126 0.058508992
0.08547713 -0.011628162 -0.016343247 -0.028237946 0.089748174 -0.044804517 0.07224176 -0.07797317
0.16689435 0.04522167 0.06736044 -0.021376893 0.12693457 -0.028257605 -0.043619182 -0.07618643
-0.027614558 0.15468921 0.0032673078 0.10223935 -0.15670365 0.22608884 0.03999026 -0.037861615
0.06826778 0.116255425 0.076544225 0.070063464 0.11243318 0.078137934 0.00043667675 0.17565499
0.007147466 0.16182713 0.15251923 0.16451362 0.086452365 -0.054430332 0.16439049 0.043082282
0.06639566 0.11723201 0.12234156 0.0067997305 0.099781774 0.11600635 0.21753222 -0.024774741
0.08391489 0.1486663 -0.04537938 0.0641924 -0.07518789 0.011427845 -0.06378955 0.07581925
0.010242932 0.23759085 0.17720337 0.17830476 -0.113625035 0.012833443 -0.08145108 0.032270275
0.11086693 0.05734988 -0.13488919 0.043718174 -0.023080133 -0.0053742942 0.103512384 -0.012642175
00000000: c45b 81bd be09 f7bc 4230 e5bd ec1e 823d
00000010: fdad cfbc 0e8f 3d3d 39e2 d03d a823 1cbc
00000020: bf85 d03c 1abc d5bd 9fdd 57bd f579 96bd
00000030: d068 adbd 55c8 a1bd 307a ef3d 9b47 c5bd
00000040: 1fa7 95bc 3d38 49bd 207a c8bc d0b3 893d
00000050: fe8a 7c3d 4a60 08b9 d009 30bd 7b2e 92bd
00000060: 931e 193c 9924 52bd 6635 4e3e a38e 103e
00000070: 5dcc 3abd f994 6bbc 1b6f adbd 0aac 3e3d
00000080: 231f 213d 8dbe ac3b d08f 843d e34b 0a3d
00000090: 1a53 413d 3ef1 083c 4e98 503d d9f3 d23c
000000a0: 8100 f0bc 5d0d 0d3d ca44 643c c0d8 87bd
000000b0: 0bb5 cc3d c1f5 d4bd c998 b2bb 6868 ab3d
000000c0: f04f d63c f8ce 60bd b613 eebc 4390 d33d
000000d0: ac0e 423d 50e0 dfbd 0e35 a13d 2475 493d
000000e0: 6213 573e a1cd bebc 4c38 913d 9826 98bb
000000f0: c00b 2d3e e1e4 8b3d 8548 903e e4bb 3c3d
00000100: a966 99bd 681c b93c 8392 903d aecc 3ebd
00000110: b3f3 d1bd 941c 803d 63cb fa3b d531 e43d
00000120: 0130 e8bc 4a64 b33d 99b4 933d a966 83bd
00000130: 2278 893d 502a 72bc 1282 d83d a4bc d13d
00000140: 6c67 133d a29f 0b3e eb89 343d 9488 8dbd
00000150: 5066 263d 1293 f33d 2222 053e c388 373d
00000160: 5420 103e 2295 023e 2b2b 1bbd 4c45 9c3b
00000170: 2c43 fb3d 0e97 de3d dbd5 ae3c 5129 643d
00000180: 39b6 063e 3255 d53d 080d 163e 8a52 a43c
00000190: 693b 513b aea7 debc 895d f43d 21ee 26bd
000001a0: ac9a f43c 5b0c 353d 3619 cebd 16f0 62bd
000001b0: e17d dbbb 920f 8dbd 5728 28ba acdd 7d3d
000001c0: 7788 0e3d 052e e73c c3ef c3bd 28be ef3d
000001d0: 6956 993d ef5d a2bc f5c3 83bd cd14 ddbd
000001e0: dd4a dabc 33a1 993d 84aa 61bd dd2f cdbc
000001f0: 2e17 bf3c 66e9 523d 9beb bfbb bfe0 ad3d
00000200: 9e9d f23c 8fff 84bd b3fc 4abc 2a03 743d
00000210: ce65 3e3d 4c34 3aba d961 cdbd 4327 94bd
00000220: 6c56 8cbd 090c 6c3d 1b8b 1dbd 44eb f53d
00000230: 924c e8bd b672 8f3d b335 b0bd 6f0f 4f3c
00000240: badd b2bd 92ca 5ebb 790c 05bd ecd8 a4bc
00000250: 1da4 8f3d b5f9 253d 6668 123d e56c 2abd
00000260: ab7f 7a3d 890f d73d 2cc2 dd3d 4201 663d
00000270: 64eb 83bd 505e f13d ac3e 083e 1ed5 c2bd
00000280: 690b 863c f9b3 02be d74d 92bd ceac 0d3e
00000290: dc03 b9bd 045f 293c be2b 883d d81a 0ebb
000002a0: 5253 dc3c 5b54 13be 5ee8 393d 5df3 e03c
000002b0: 915c 07be cd80 bcbd c6ff 9abb 3a0e dabc
000002c0: 9eaa 3d3d 2902 0e3d 606c 14be 0ab5 00bd
000002d0: 3eaf 0d3e 7d59 1d3c 53ce 9bbd 20a7 6f3d
000002e0: a20e af3d 0c84 3ebc 46e2 85bc 4453 e7bc
000002f0: e4cd b73d f184 37bd 7df3 933d 66b0 9fbd
00000300: 5ae6 2a3e 5c3a 393d 45f4 893d 981e afbc
00000310: 23fb 013e 7e7c e7bc 07aa 32bd a207 9cbd
00000320: ed37 e2bc d966 1e3e 5420 563b dd62 d13d
00000330: ec76 20be d583 673e d4cc 233d c814 1bbd
00000340: facf 8b3d 5317 ee3d 38c3 9c3d 6f7d 8f3d
00000350: 5e43 e63d c806 a03d c3f1 e439 e7de 333e
00000360: 4a35 ea3b 03b6 253e 002e 1c3e 4276 283e
00000370: f00d b13d 57f2 5ebd fb55 283e 0c77 303d
00000380: 73fa 873d 5617 f03d 368e fa3d 46d0 de3b
00000390: 635a cc3d bd94 ed3d c4c0 5e3e 66f4 cabc
000003a0: 92db ab3d fb3b 183e bbdf 39bd 4e77 833d
000003b0: 1cfc 99bd db3b 3b3c 18a4 82bd 1f47 9b3d
000003c0: f8d1 273c 044b 733e cd74 353e 8695 363e
000003d0: 3eb4 e8bd 5c43 523c d3cf a6bd d62d 043d
000003e0: 330e e33d b5e7 6a3d 6420 0abe d411 333d
000003f0: 8c12 bdbc d91a b0bb 4dfe d33d 2021 4fbc

lstm.bias_hh_l1 f4 [256]
0.05857149 0.006749846 -0.19619411 0.07442361 0.043514304 0.057032872 0.094674155 0.014117695
-0.051800873 -0.0415575 0.16240232 -0.023200886 0.02719828 0.07795571 -0.05289112 -0.17295422
0.013827062 -0.005820501 0.09897975 0.036213916 0.089507245 -0.030774377 -0.099850155 0.14557981
0.12941194 0.053736053 0.25272644 0.14666596 0.05647597 0.11103368 -0.04385449 -0.179504
0.14601521 0.21553217 0.15126604 0.037030768 0.06849261 0.055659674 0.074727446 -0.01701433
-0.081075706 0.032090098 -0.15254538 0.009313244 0.10774184 -0.0981552 -0.049084865 0.06405591
-0.032819178 0.0059663607 -0.07024759 0.08857156 -0.0031244427 -0.030380666 -0.06909071 0.09012685
0.24391593 -0.10804193 -0.008118189 -0.11796133 0.17212097 0.097560465 0.21106389 -0.05959651
0.024418017 -0.0462288 0.06403594 -0.050145872 -0.05261705 0.132103 0.062713355 -0.060897253
-0.037563317 -0.035361007 0.022509744 0.0021457751 0.029688641 0.09969851 -0.076569475 -0.058555942
0.046472147 -0.014635424 0.1503934 0.05052584 0.034774415 0.08991839 0.1202979 0.03849706
0.120939024 -0.025374513 -0.0006496843 0.14967704 0.09346353 -0.005972753 -0.08014357 -0.0147536835
-0.06219527 0.18552598 0.0132466415 -0.11226002 0.04415172 -0.018483188 0.00022521245 -0.05218357
0.05401396 0.06216098 0.10386714 -0.042694435 0.095339954 0.014720811 0.02777889 -0.010292273
0.022066943 -0.12710626 -0.061990485 0.055636138 -0.06556684 -0.08659702 0.063545644 -0.0719794
-0.02537529 -0.004640135 0.10247244 0.03554671 0.07686122 0.081264585 0.008843892 0.03714052
0.084789924 0.116214655 -0.022370836 0.026214425 -0.066470236 -0.04436612 -0.1792248 0.0058348957
0.060908273 -0.11677588 -0.01622166 -0.11087758 0.12565117 0.10675346 0.056057643 0.089940995
0.09653649 0.027337031 -0.006809829 -0.034344226 0.030558359 -0.013029335 0.02094901 -0.097284146
0.08636694 0.043980416 0.013732675 -0.030964991 0.0028869528 -0.10976048 0.08565765 0.12540586
-0.00823457 -0.035211835 -0.07020432 -0.038327493 0.042058155 -0.09180452 -0.023041582 0.08718508
0.09197494 -0.1469182 -0.008799276 0.100181684 0.09478248 0.018877657 -0.054009575 -0.115087114
-0.06890016 -0.018425267 -0.015210698 -0.06710613 -0.00056715054 0.08845641 -0.0050741658 -0.08327073
-0.09536085 -0.051080186 -0.05804304 0.057714283 -0.039533187 -0.061907038 0.08903028 0.024407823
0.18040453 -0.15364465 -0.05440047 0.15513583 0.070799515 0.07301915 0.15009017 -0.11167919
0.054711718 0.024612363 -0.043167025 -0.03887928 -0.15798038 0.07825307 0.18115179 0.109212235
0.17848955 -0.10688979 -0.04123375 0.12612696 -0.067221865 0.045917388 -0.0043438924 0.05476067
0.021747122 0.09398343 0.079790846 0.16647868 0.12286238 0.12145297 0.0318239 0.16165128
-0.032513496 0.06871876 0.064603515 -0.09062816 0.05108237 0.0032738154 0.20266618 0.14909984
-0.10034907 -0.027381899 0.054209534 0.14034688 -0.077136286 0.21175852 0.18019128 0.12971617
0.0245478 0.20364702 0.054058082 0.14935079 -0.07532434 -0.0603357 0.119794965 0.17874399
0.108937 0.009049085 -0.023332858 0.03914716 0.0021429043 0.10925006 0.1388911 -0.011167644
00000000: a9e8 6f3d d02d dd3b 1ce7 48be 686b 983d
00000010: 0e3c 323d 4d9b 693d 86e4 c13d e84d 673c
00000020: 272d 54bd 3238 2abd cb4c 263e c90f bebc
00000030: edce de3c 3ea7 9f3d 5ca4 58bd e91a 31be
00000040: e78a 623c e7b9 bebb e5b5 ca3d 0b55 143d
00000050: 934f b73d 8c1a fcbc 3d7e ccbd e012 153e
00000060: 9084 043e 561a 5c3d 5c65 813e 9a2f 163e
00000070: 5953 673d a065 e33d c4a0 33bd e6cf 37be
00000080: 0385 153e 77b4 5c3e 7ce5 1a3e 93ad 173d
00000090: da45 8c3d 66fb 633d b40a 993d a361 8bbc
000000a0: 050b a6bd e870 033d db34 1cbe 9496 183c
000000b0: c1a7 dc3d 9805 c9bd 360d 49bd bf2f 833d
000000c0: 676d 06bd 7681 c33b f8dd 8fbd 0265 b53d
000000d0: 73c3 4cbb e0e0 f8bc 6e7f 8dbd 6d94 b83d
000000e0: 19c5 793e 1645 ddbd 2702 05bc b695 f1bd
000000f0: 7b40 303e c8cd c73d 2221 583e 781b 74bd
00000100: 4b08 c83c 695a 3dbd 4625 833d c265 4dbd
00000110: fa84 57bd 0246 073e dc6f 803d 666f 79bd
00000120: fedb 19bd b4d6 10bd 5b66 b83c 22a0 0c3b
00000130: 9835 f33c bb2e cc3d 75d0 9cbd 5bd8 6fbd
00000140: 9459 3e3d 6bc9 6fbc ba00 1a3e 2ff4 4e3d
00000150: 9e6f 0e3d 2227 b83d bf5e f63d 18af 1d3d
00000160: e1ae f73d 36de cfbc 934f 2aba f044 193e
00000170: cf69 bf3d 15b7 c3bb 5022 a4bd 6fb9 71bc
00000180: 78c0 7ebd 86fa 3d3e 7108 593c 95e8 e5bd
00000190: 6fd8 343d 0e6a 97bc 0227 6c39 70be 55bd
000001a0: be3d 5d3d 839c 7e3d 4cb8 d43d 5ce0 2ebd
000001b0: 9841 c33d 8e2f 713c 8e90 e33c eca0 28bc
000001c0: bcc5 b43c 2528 02be bce9 7dbd b8e2 633d
000001d0: e847 86bd c759 b1bd 3824 823d f069 93bd
000001e0: d7df cfbc 460c 98bb 12dd d13d 6d99 113d
000001f0: 6a69 9d3d 0c6e a63d f9e5 103c a820 183d
00000200: 57a6 ad3d f301 ee3d 0b43 b7bc a2bf d63c
00000210: 8c21 88bd 40b9 35bd b586 37be a732 bf3b
00000220: f47a 793d 3128 efbd 49e3 84bc c913 e3bd
00000230: b3aa 003e 8fa1 da3d b39c 653d fc32 b83d
00000240: ecb4 c53d e9f1 df3c fc24 dfbb 88ac 0cbd
00000250: 8655 fa3c fe78 55bc 429d ab3c e93c c7bd
00000260: 26e1 b03d cf24 343d 04ff 603c 4baa fdbc
00000270: 0833 3d3b 1aca e0bd 476d af3d 656a 003e
00000280: 4aea 06bc 493a 10bd 48c7 8fbd 4afd 1cbd
00000290: 2c45 2c3d 0204 bcbd b3c1 bcbc 178e b23d
000002a0: 5b5d bc3d ba71 16be d72a 10bc 0e2c cd3d
000002b0: 511d c23d 51a5 9a3c 2539 5dbd cbb2 ebbd
000002c0: 871b 8dbd 96f0 96bc 4b36 79bc f06e 89bd
000002d0: d4ac 14ba a228 b53d 3045 a6bb d889 aabd
000002e0: 8d4c c3bd 7539 51bd 8abe 6dbd d065 6c3d
000002f0: 8ded 21bd 3c92 7dbd 8255 b63d eaf2 c73c
00000300: f7bb 383e 0655 1dbe 07d3 5ebd eddb 1e3e
00000310: 56ff 903d 108b 953d 3db1 193e 0fb8 e4bd
00000320: 6519 603d de9f c93c e8cf 30bd e13f 1fbd
00000330: 9cc5 21be 2543 a03d db7f 393e aaaa df3d
00000340: f7c5 363e 09e9 dabd b8e4 28bd 6d27 013e
00000350: 9eab 89bd df13 3c3d 3657 8ebb b94c 603d
00000360: 0527 b23c 627a c03d 6269 a33d 6379 2a3e
00000370: 469f fb3d 56bc f83d c759 023d ea87 253e
00000380: df2c 05bd 6cbc 8c3d d94e 843d 429b b9bd
00000390: bf3b 513d 828d 563b b987 4f3e a1ad 183e
000003a0: d083 cdbd 0150 e0bc d10a 5e3d 18b7 0f3e
000003b0: a1f9 9dbd 3ad7 583e 1084 383e 51d4 043e
000003c0: 7818 c93c d888 503e 026c 5d3d 6aef 183e
000003d0: a643 9abd 9122 77bd 1057 f53d aa08 373e
000003e0: 5d1a df3d 9d42 143c 8d24 bfbc c658 203d
000003f0: f86f 0c3b 7fbe df3d 7839 0e3e 7ef8 36bc
