LogAnomaly/result/deeplog/deeplog_epoch298.pth (torch_old, 644952 bytes, 30 tensors)

lstm.weight_ih_l0 f4 [256, 1]
0	0xbe53480d	-0.20632954
1	0xbc6b7f78	-0.014373653
2	0xbd8297c8	-0.06376606
3	0x3db53aac	0.088490814
4	0xbe0bf735	-0.13668521
5	0x3d4a9f50	0.04946834
6	0xbdd5fea2	-0.10448958
7	0x3d964433	0.07337227
8	0x3e3c4b04	0.18387991
9	0x3dae8be3	0.08522775
10	0x3e2c2b18	0.16813314
11	0xbdad856e	-0.08472715
12	0x3dc6ead9	0.097127624
13	0x3e0c04a8	0.13673651
14	0xbda688b9	-0.081315465
15	0x3e8701f5	0.2636868
16	0x3daa6f66	0.08322029
17	0x3d65bc19	0.056087587
18	0xbe1ba1cb	-0.15198438
19	0x3e1d4085	0.15356643
20	0x3e2c75e8	0.16841853
21	0x3d9eac14	0.07747665
22	0x3d89c9ff	0.06727981
23	0xbd777f1b	-0.06042395
24	0x3e553a7d	0.20823093
25	0xbd8e5616	-0.06950013
26	0xbcb0d53d	-0.021586055
27	0x3d95f2c3	0.07321694
28	0x3d9a1cfb	0.07525059
29	0xbe0a1e1f	-0.13488053
30	0x3e062c35	0.13102801
31	0x3c80da2f	0.015729038
32	0x3df6aae2	0.12044312
33	0x3dd38c90	0.103295445
34	0x3cab6d46	0.02092613
35	0x3d3b900b	0.045791667
36	0x3e5e2664	0.21694332
37	0x3c2b4d09	0.010455378
38	0x3e0ed260	0.13947439
39	0xbe113711	-0.14181162
40	0x3a81dc0f	0.0009907502
41	0xbe0ea33c	-0.13929456
42	0x3e06119d	0.13092656
43	0x3ed1c625	0.40971485
44	0xbe094a22	-0.13407186
45	0x3de5e3f4	0.11225119
46	0x3e1643ec	0.14674348
47	0xbe52a1d3	-0.20569544
48	0x3e4b20ea	0.19836774
49	0x3e23422c	0.15943211
50	0x3ebe9990	0.37226534
51	0x3da8d261	0.082432516
52	0x3d6339f3	0.055475187
53	0x3eacab56	0.3372447
54	0x3ded7fc2	0.115966335
55	0xbd7a7fb3	-0.06115694
56	0xbe364c6d	-0.17802592
57	0x3cd7a27a	0.026322592
58	0x3de5185a	0.11186285
59	0x3d25a9f7	0.040445294
60	0x3d3268df	0.043557044
61	0x3e1f3adb	0.15549795
62	0x3dd1c653	0.102429055
63	0xbe1df452	-0.15425232
64	0xbd853cf3	-0.06505766
65	0x3d2fb179	0.04289386
66	0x3dfbe00d	0.12298594
67	0xbd3e00ea	-0.04638759
68	0xbdbba162	-0.09161641
69	0x3d76c2f1	0.060244504
70	0x3dcc19be	0.099658474
71	0x3d6dd091	0.058060233
72	0xbd1daac0	-0.038492918
73	0x3e98f797	0.29876396
74	0x3e2eedca	0.17082897
75	0xbe0ab7dd	-0.13546701
76	0xbc2f4b17	-0.010699055
77	0x3db9dd8e	0.09075461
78	0x3e2ec4e0	0.1706729
79	0x3e8804e6	0.26566237
80	0x3d06ed93	0.032941412
81	0x3e0eaf7c	0.1393413
82	0xbdf73c25	-0.120720185
83	0x3d1f06bb	0.038824778
84	0x3bae6baf	0.0053228955
85	0x3e6ef527	0.23335706
86	0x3e0fe6ce	0.14052889
87	0xbd5c0639	-0.053716872
88	0x3c9418e5	0.018078277
89	0x3d9d8237	0.07690852
90	0xbf336a85	-0.7008441
91	0x3da45416	0.080238506
92	0xbd817df1	-0.063228495
93	0xbe81d4b1	-0.25357583
94	0x3e60eba1	0.21964885
95	0x3ca20072	0.019775603
96	0xbd03e57d	-0.03220128
97	0x3e2a0973	0.16605167
98	0x3ddb70b7	0.10714858
99	0x3de34e6d	0.11098943
100	0x3d873f41	0.066038616
101	0x3e4cee50	0.20012784
102	0x3defe5b1	0.11713732
103	0x3d1783f2	0.036991067
104	0x3e18b408	0.14912426
105	0x3e781689	0.24227346
106	0x3e3db684	0.18526655
107	0x3d746490	0.059666216
108	0xbe05382c	-0.13009709
109	0xbcecb40f	-0.028894452
110	0x3d788547	0.06067398
111	0xbde7da0d	-0.11320887
112	0x3dab37b5	0.08360235
113	0x3ddfa142	0.10919429
114	0x3ea15963	0.3151351
115	0x3e809881	0.2511635
116	0x3d5bcd50	0.053662598
117	0x3cbcc137	0.02304135
118	0x3e301b1a	0.17197838
119	0xbcd1e525	-0.02562196
120	0xbe3ada97	-0.18247448
121	0x3e39f3af	0.18159364
122	0x3ef50a4f	0.47859427
123	0xbd10729c	-0.03526555
124	0x3d34c29a	0.0441309
125	0x3d540efd	0.051772106
126	0xbdb1c914	-0.08680931
127	0xbe1d696e	-0.1537225
128	0x3eee3f84	0.46532834
129	0xbe0d50ac	-0.13800305
130	0x3da91663	0.08256223
131	0x3d05e2c5	0.032686967
132	0x3e85d056	0.2613551
133	0xbe3a0d5b	-0.18169157
134	0xbd4fa86f	-0.05069774
135	0x3e20851d	0.15675779
136	0x3e3807c5	0.17971714
137	0xbd363cd9	-0.044491623
138	0xbd8a96ec	-0.06767067
139	0x3e6da4db	0.23207419
140	0xbe7a59ae	-0.24448273
141	0x3e34c8b1	0.17654683
142	0xbe29d693	-0.1658576
143	0xbdc81649	-0.097698756
144	0x3e6d6125	0.23181589
145	0xbe9e63c0	-0.30935478
146	0xbe896df8	-0.26841712
147	0x3e6187e2	0.22024491
148	0x3e3a5bbf	0.18199061
149	0xbd14a592	-0.036290713
150	0xbe238ef4	-0.15972501
151	0x3e4ff6ca	0.20308986
152	0x3dcef7e7	0.10105877
153	0x3ea5c676	0.32377976
154	0xbef4e5ff	-0.47831723
155	0x3caca852	0.021076355
156	0x3cccf9b0	0.025021404
157	0xbe432923	-0.19058661
158	0x3f72fe31	0.94919115
159	0xb9fd1760	-0.00048273336
160	0x3f02def9	0.5112148
161	0x3cc40d9e	0.023932274
162	0x3daf9777	0.085738115
163	0xbce73b3a	-0.028226484
164	0xbea3f9d2	-0.32026535
165	0xbe59d876	-0.2127398
166	0xbea6f49b	-0.32608494
167	0xbe44c9b1	-0.19217564
168	0x3e582f60	0.21111822
169	0x3d67bd3a	0.056576945
170	0xbe041bf8	-0.12901294
171	0xbfd8a224	-1.6924481
172	0x3ec37a62	0.38179308
173	0x3e9e41c9	0.30909565
174	0x3d8a2233	0.06744804
175	0x3f046dd4	0.51730084
176	0xbdfe5266	-0.1241806
177	0xbe1e7573	-0.15474491
178	0xbe1b485e	-0.15164325
179	0xbd1d49c7	-0.038400438
180	0xbed93825	-0.42425647
181	0x3ef4eebc	0.4783839
182	0x3d15e120	0.03659165
183	0x3e31d3be	0.1736593
184	0xbec21df3	-0.37913474
185	0x3da11666	0.078656
186	0x3d4bb751	0.04973537
187	0xbda329cb	-0.07966956
188	0x3e0ceede	0.13762996
189	0xbdac5a78	-0.08415693
190	0x3dabfb5d	0.08397553
191	0xbeb67ed6	-0.35643643
192	0x3e48950e	0.1958811
193	0xbc4488c7	-0.011995501
194	0x3e22c5e9	0.15895809
195	0x3eabeb27	0.33577845
196	0x3e3d27b1	0.18472172
197	0x3da71a0f	0.08159267
198	0x3e41144f	0.18855403
199	0x3e693b37	0.22776495
200	0x3d3904c8	0.045170575
201	0x3e9c75d8	0.30558658
202	0x3daa86ea	0.08326514
203	0x3e6874d6	0.2270082
204	0x3e85ab82	0.26107413
205	0x3e1cc3bc	0.15309042
206	0x3e72da02	0.23715976
207	0x3ea0dcc8	0.31418443
208	0xbdbe21b9	-0.09283776
209	0x3d0c2235	0.03421231
210	0x3eaaa57c	0.3332938
211	0x3e599b5f	0.21250676
212	0x3ea333bb	0.31875405
213	0x3e772f1c	0.24139065
214	0xbe5b43a3	-0.2141252
215	0xbe384140	-0.17993641
216	0xbe36d370	-0.17854095
217	0x3d3b4cb5	0.04572745
218	0x3acb6dc1	0.001552038
219	0x3de22922	0.11043002
220	0xbcae0380	-0.021241903
221	0xbeadcf6f	-0.33947322
222	0x3e211c69	0.15733494
223	0x3e911523	0.2833644
224	0xbde7ab82	-0.113120094
225	0x3eafe890	0.3435712
226	0x3daa4844	0.08314565
227	0x3ea46400	0.32107544
228	0xbdc1b759	-0.09458799
229	0xbe697190	-0.22797227
230	0x3db84462	0.08997418
231	0xbe9a7268	-0.3016541
232	0xbe6107de	-0.21975657
233	0x3e92e80f	0.28692672
234	0x3e4f627f	0.20252417
235	0xbe997731	-0.29973748
236	0x3e8b7b3c	0.27242458
237	0x3c97561f	0.018473683
238	0x3e5e185e	0.21688983
239	0xbe2e12b9	-0.1699933
240	0xbe43bfe0	-0.19116163
241	0xbdff5640	-0.12467623
242	0x3e031982	0.12802699
243	0xbe62ac29	-0.22135986
244	0x3d9c9301	0.07645226
245	0xbdc4d3fd	-0.09610746
246	0x3d861f44	0.06548932
247	0x3dc0767c	0.09397599
248	0x3e356d6d	0.17717524
249	0xbe63c95f	-0.22244786
250	0x3e9be056	0.30444592
251	0xbe123b35	-0.14280398
252	0x3ddb0462	0.10694195
253	0x3e286078	0.1644305
254	0x3e7a37a9	0.24435295
255	0x3e1ecb6b	0.15507285

lstm.weight_hh_l0 f4 [256, 64]
0	0x3e6b4969	0.22977223
1	0xbe1de8dd	-0.15420862
2	0x3d257cdb	0.040402275
3	0x3d8de73c	0.0692887
4	0x3e827e46	0.25486964
5	0xbde966ff	-0.11396598
6	0xbd3d17c0	-0.046165228
7	0x3db1c081	0.08679295
8	0x3e2fc9bf	0.17166804
9	0x3e09928f	0.13434814
10	0xbbb8792a	-0.0056296783
11	0xbe3bbd74	-0.1833399
12	0xbe4a7f7c	-0.19775194
13	0x3dd5edb9	0.104457326
14	0xbdea327f	-0.114354126
15	0x3e8ab3d3	0.2709032
16	0x3e56ab24	0.20963722
17	0xbd572f67	-0.05253544
18	0x3d30648d	0.043064643
19	0x3e181cf6	0.14854798
20	0xbdad471c	-0.08460829
21	0x3da77479	0.08176512
22	0xbd34805e	-0.044067733
23	0x3e3bc14a	0.18335453
24	0x3e932e90	0.28746462
25	0x3e708b22	0.23490575
26	0x3dc54abe	0.096333966
27	0x3db05b1a	0.08611126
28	0x3db140eb	0.0865496
29	0xbea7ea7c	-0.32796085
30	0x3d6d22ff	0.057894703
31	0x3e0856b3	0.13314323
32	0x3d35abcf	0.044353303
33	0x3d92f5be	0.07175778
34	0x3db4a82d	0.088211395
35	0xbe2f7f0e	-0.17138311
36	0xbd0d65a1	-0.03452075
37	0xbe587f0e	-0.21142218
38	0xbde9c1a0	-0.11413884
39	0xbea6df54	-0.3259226
40	0x3da1ec8f	0.07906448
41	0xbe026679	-0.12734403
42	0x3dc2b6bd	0.09507511
43	0xbde06c8c	-0.10958204
44	0x3d4d5809	0.050132785
45	0x3e367331	0.1781738
46	0x3d227e0f	0.039671
47	0x3e81976f	0.25310847
48	0xbe9a580c	-0.301453
49	0xbdbc6f88	-0.092009604
50	0x3e337aa5	0.17527254
51	0xbeb02a04	-0.34407055
52	0x3d7e0ff4	0.062026933
53	0x3e4d4a66	0.20047912
54	0x3de88ba0	0.11354756
55	0xbcba9455	-0.022775808
56	0xbdd9df95	-0.10638348
57	0x3ec5e4b1	0.3865104
58	0xbcfe2b27	-0.031026436
59	0xbdfc4371	-0.12317551
60	0x3e0c6d83	0.1371365
61	0xbd597d74	-0.053098157
62	0xbe1368d5	-0.14395459
63	0xbda952fa	-0.0826778
64	0xbd8368ab	-0.06416448
65	0xbda4ec7f	-0.080529206
66	0x3ea2238c	0.31667745
67	0x3e8cac79	0.27475336
68	0x3e1381d1	0.1440499
69	0xbe37dbc6	-0.1795493
70	0x3db2928c	0.08719358
71	0x3da5d66a	0.08097537
72	0x3e1a056f	0.15041135
73	0x3db7a872	0.08967675
74	0xbdfca8a9	-0.12336857
75	0x3d989153	0.074495934
76	0xbe59b762	-0.21261361
77	0x3e3a46f2	0.18191126
78	0xbe0515ab	-0.12996547
79	0xbeaa986d	-0.33319417
80	0x3e5871b7	0.21137129
81	0xbd15515f	-0.036454555
82	0xbdf5402b	-0.1197513
83	0x3e5a61b2	0.2132633
84	0x3dddbc71	0.10826958
85	0xbdd6dee6	-0.10491733
86	0xbe1b98c2	-0.15194991
87	0x3cc2337f	0.023706196
88	0x3ec47830	0.38372946
89	0x3daf7f27	0.08569174
90	0xbda2c413	-0.079475544
91	0x3df921ad	0.12164626
92	0x3e6e19f0	0.23252082
93	0xbb226f08	-0.0024785418
94	0x3d15b348	0.03654793
95	0x3e364b9b	0.17802279
96	0x3babcd2e	0.005242965
97	0x3e3b301a	0.18280068
98	0x3d74122e	0.05958765
99	0xbe07de5a	-0.13268414
100	0xbc66776c	-0.014066558
101	0xbe3783c1	-0.17921354
102	0xbe1b936e	-0.15192959
103	0x3da9cc6e	0.08290945
104	0x3e3c4d18	0.18388784
105	0xbd6906fb	-0.056891423
106	0xbdeab1cc	-0.11459693
107	0x3dd13cf1	0.10216702
108	0x3b90a28f	0.0044139097
109	0x3e1cb7bf	0.15304469
110	0x3e5d1495	0.21589883
111	0xbdfc3921	-0.12315584
112	0xbe72b02b	-0.23700015
113	0xbdfd5130	-0.12369001
114	0xbcfd1a8f	-0.030896453
115	0xbe6ffa58	-0.23435342
116	0x3d0cfefa	0.034422852
117	0xbcf85c0f	-0.030317334
118	0x3e8fa9c0	0.28059196
119	0x3e208024	0.15673882
120	0xbd31f280	-0.043444157
121	0x3eb728d2	0.3577333
122	0x3d33fd1b	0.043942552
123	0xbe295dea	-0.16539732
124	0x3e1ec8ad	0.15506239
125	0xbe2eb75a	-0.1706213
126	0x3d9d9fa1	0.076964624
127	0xbda9a95f	-0.08284258
128	0x3e03b14b	0.128606
129	0x3da70a5d	0.081562735
130	0x3de3becb	0.11120375
131	0x3e7194ae	0.23591873
132	0x3e258d9b	0.161673
133	0xbe910b6a	-0.2832902
134	0xbe83f0bf	-0.25769612
135	0x3e677fe3	0.22607379
136	0x3e63ffee	0.22265598
137	0xbcfd9be5	-0.030958125
138	0xbda3eb49	-0.080038615
139	0x3df9df96	0.12200849
140	0xbdb2f2bb	-0.087377034
141	0x3d8c6b01	0.06856347
142	0xbe0e2ed5	-0.13885053
143	0x3dc0a49f	0.09406399
144	0x3e21d9f5	0.158058
145	0xbe73944c	-0.2378704
146	0xbcb8ebdb	-0.022573402
147	0x3e645b40	0.22300434
148	0x3d4f4900	0.050606728
149	0x3d84b5e3	0.06480005
150	0xbd6dca9a	-0.058054544
151	0x3e0eeb88	0.13957036
152	0x3e48cf79	0.19610395
153	0x3dc53f4d	0.09631214
154	0xbc99d012	-0.018775973
155	0x3e9acc15	0.30233827
156	0xbd309b2f	-0.043116745
157	0xbecf4843	-0.4048482
158	0x3dff10fc	0.124544114
159	0x3da489fc	0.08034131
160	0xbdc16b4c	-0.094442934
161	0x3e12c0e7	0.14331399
162	0x3e570b5e	0.2100043
163	0xbe0e4f5f	-0.13897465
164	0x3b3b75b9	0.0028604104
165	0xbe2a443b	-0.1662759
166	0xbd4d19a3	-0.050073277
167	0xbed81c0e	-0.42208904
168	0x3e48e177	0.19617258
169	0xbe28d502	-0.16487506
170	0xbd11816d	-0.03552382
171	0xbd820710	-0.06349003
172	0x3da0ca82	0.07851125
173	0x3db9adac	0.090663284
174	0x3e86be67	0.2631714
175	0x3c364988	0.01112593
176	0xbd288dcf	-0.041150864
177	0x3c18f86c	0.009336572
178	0xbe1f8f22	-0.15581945
179	0x3d654805	0.055976886
180	0x3a270ced	0.00063724705
181	0x3db78ede	0.08962797
182	0x3d0b663f	0.034033056
183	0x3e892773	0.2678791
184	0xbd27c7dd	-0.04096209
185	0x3e7b5dd6	0.24547514
186	0xbbf83d72	-0.007575684
187	0xbf131ac6	-0.5746273
188	0xbc1d82b2	-0.00961368
189	0xbe0c2113	-0.13684492
190	0x3da955e0	0.082683325
191	0xbe9b8e3a	-0.30381948
192	0x3dabdd9c	0.08391878
193	0xbe692f7c	-0.2277202
194	0xbd17dacf	-0.037073907
195	0x3cd4586d	0.025921071
196	0x3d33a600	0.04385948
197	0x3dab4ae5	0.083638944
198	0x3c09b8cc	0.008405875
199	0xbdd3a7b3	-0.103347205
200	0xbd7f3fe7	-0.0623168
201	0xbc8436db	-0.016139438
202	0x3d38909b	0.04505978
203	0x3dd7f916	0.10545556
204	0x3b3ab39b	0.00284884
205	0x3cf14ffd	0.029457087
206	0x3d928231	0.07153738
207	0x3dd8e3d6	0.10590331
208	0x3b7cfb2f	0.0038601866
209	0xbdb6ade3	-0.08919885
210	0xbe18e2cc	-0.14930266
211	0x3cd9a410	0.026567489
212	0x3d43e48c	0.04782538
213	0x3d05478a	0.032538928
214	0xbe6d3d0c	-0.23167819
215	0x3e967bd3	0.29391345
216	0xbd38d8d5	-0.045128662
217	0x3e0aa31b	0.13538782
218	0x3d1565d7	0.036474075
219	0x3db5df85	0.088805236
220	0x3e0587dd	0.13040109
221	0xbe7cc08c	-0.24682826
222	0xbcc7718d	-0.024346137
223	0xbbcc1d3a	-0.00622907
224	0x3da96550	0.08271277
225	0xbd2ddec8	-0.04244879
226	0x3e03dd9b	0.12877505
227	0x3d223590	0.039601862
228	0xbd65d414	-0.056110457
229	0xbe53311f	-0.20624207
230	0xbdeca102	-0.11554147
231	0xbe3dc396	-0.18531641
232	0xbd3c48d2	-0.045967884
233	0x3d2e9bb3	0.042628955
234	0xbde77d7d	-0.11303232
235	0xbd090788	-0.033454448
236	0x3e6cd698	0.23128736
237	0xbd31be2c	-0.043394253
238	0xbe20c848	-0.15701401
239	0x3eaedf82	0.34154898
240	0xbc89a153	-0.016800558
241	0xbc1ef635	-0.009702255
242	0x3daae65a	0.08344717
243	0xbe1574ed	-0.14595385
244	0xbdb59322	-0.08865954
245	0x3d950b84	0.07277587
246	0x3d2ed4cd	0.04268341
247	0x3df5d7a1	0.120040186
248	0xbdb33e1c	-0.08752081
249	0x3e0c5d7a	0.13707533
250	0x3dca9371	0.098914035
251	0xbdb9f0cf	-0.09079134
252	0x3dd4d85b	0.10392829
253	0xbcc2de4a	-0.023787636
254	0xbdf84e27	-0.121242814
255	0xbc7f058f	-0.01556529

lstm.bias_ih_l0 f4 [256]
0	0x3df0863f	0.117443554
1	0x3dae9168	0.08523828
2	0x3d31d5c3	0.04341675
3	0xbda76d8d	-0.08175192
4	0x3e4d7583	0.20064358
5	0xbc2e21cc	-0.010628175
6	0x3e3ee8f6	0.18643555
7	0x3bebc644	0.007195266
8	0x3e819cd5	0.25314966
9	0x3e3dbac6	0.1852828
10	0xbdfc2b7e	-0.12312983
11	0x3e677db7	0.2260655
12	0x3d08fbf4	0.033443406
13	0x3e00e486	0.12587175
14	0x3deb4c75	0.114891924
15	0x3e0b9c33	0.13633804
16	0x3e3e52c1	0.18586256
17	0x3e23658f	0.1595671
18	0x3e43eb12	0.19132641
19	0xbca7d018	-0.020484969
20	0xbda072f4	-0.078344256
21	0x3d13a1a9	0.036042843
22	0x3ddcbbef	0.10778033
23	0x3db9fc3c	0.09081313
24	0x3e11ddaa	0.14244714
25	0x3e30b08e	0.1725485
26	0x3d55912d	0.052140404
27	0x3d905054	0.070465714
28	0xbcbb563a	-0.022868264
29	0x3e7dce1f	0.2478566
30	0x3e920b9f	0.2852449
31	0xbde0f2af	-0.10983788
32	0xbd12c58a	-0.03583292
33	0x3e009a5a	0.1255888
34	0x3d2eed8a	0.042707004
35	0xbde36666	-0.11103515
36	0x3e217630	0.15767741
37	0xbdb1b07c	-0.0867624
38	0x3aa9b5f7	0.0012947907
39	0xbdb204ce	-0.08692323
40	0x3df62f23	0.12020709
41	0xbcf23f20	-0.029571116
42	0xbd50bae3	-0.05095948
43	0x3f2b8dd7	0.67013305
44	0x3d434ee8	0.047682673
45	0x3e8a5ddc	0.27024734
46	0x3cd0cf1a	0.025489379
47	0x3dd5ee45	0.10445837
48	0xbd252b67	-0.040324595
49	0x3d8862c9	0.06659467
50	0xbcf00afa	-0.029302109
51	0xbe07dd38	-0.13267982
52	0xbe08ae36	-0.13347706
53	0x3e9a7338	0.3016603
54	0x3dbf6414	0.0934526
55	0x3d2ed329	0.042681847
56	0x3e437417	0.19087254
57	0xbd58c9c2	-0.052926786
58	0x3d559a6c	0.05214922
59	0x3d9fa1d5	0.07794539
60	0xbcceb454	-0.025232472
61	0x3df2f12e	0.118624076
62	0xbe7dc6b9	-0.24782838
63	0x3cfe770b	0.031062623
64	0xbd6e7841	-0.05822015
65	0x3e1191ed	0.14215823
66	0xbd9d20e0	-0.07672286
67	0x3df950d4	0.1217362
68	0x3d9580c7	0.07299953
69	0x3dae3a30	0.08507192
70	0x3dbf8d72	0.093531504
71	0x3ddac6c0	0.1068244
72	0x3dbbccde	0.09169935
73	0x3dae5805	0.08512882
74	0xbe169eb7	-0.14708982
75	0x3e0bea31	0.13663556
76	0x3d3a810a	0.045533217
77	0x3d949257	0.072544746
78	0x3bf8f7c8	0.007597897
79	0xbdbe6f8b	-0.09298619
80	0x3d5f8d25	0.054577965
81	0xbc8eedb0	-0.017447323
82	0xbdc882d5	-0.09790579
83	0xbdee595a	-0.11638136
84	0x3d3858c3	0.045006525
85	0x3d9c82df	0.07642149
86	0xbde2a221	-0.1106608
87	0xbbc84489	-0.0061116857
88	0x3e53539f	0.20637368
89	0x3df52e2c	0.11971697
90	0x3dcb5c50	0.099297166
91	0x3c8d51c5	0.017250905
92	0x3e54852a	0.20753923
93	0x3dba55a4	0.09098366
94	0xbe33f865	-0.17575224
95	0x3d8b55cb	0.06803473
96	0xbd98bc5b	-0.07457801
97	0x3c3d5ebb	0.01155823
98	0xbd31d768	-0.043418318
99	0x3cb4ef6c	0.022086821
100	0x3cf14ca9	0.0294555
101	0xbe0bdd4b	-0.13658635
102	0xbd34eb59	-0.044169758
103	0x3bb46090	0.005504675
104	0xbdc57897	-0.09642141
105	0x3b659d42	0.003503636
106	0x3e020503	0.12697224
107	0xbe847c31	-0.25876
108	0xbdf0563f	-0.117352
109	0x3e444495	0.19166787
110	0x3dc853ba	0.097815946
111	0x3dcc662d	0.09980426
112	0x3d8bc545	0.068247356
113	0x3ca4d91f	0.020123063
114	0xbc3b8199	-0.011444473
115	0xbdb491da	-0.088168815
116	0xbdecfe6b	-0.11571964
117	0x3dd4f22d	0.10397754
118	0x3db01c9f	0.08599209
119	0x3c237bf5	0.009978284
120	0x3dc522d3	0.09625783
121	0x3e097e26	0.13427028
122	0xbe5c51fa	-0.21515647
123	0x3df3b422	0.11899592
124	0x3cdb37c1	0.026759984
125	0x3d445d5b	0.047940593
126	0x3d9e5dd7	0.07732742
127	0x3e2876ba	0.1645154
128	0x3cb15c45	0.021650443
129	0x3e4ad72a	0.19808641
130	0xbdb3dbc7	-0.087821536
131	0xbe59ee02	-0.21282199
132	0x3e019fd8	0.12658632
133	0x3df8bbfd	0.12145231
134	0xbe4745fb	-0.19460289
135	0x3e740790	0.2383101
136	0x3e6feebc	0.23430914
137	0x3e057282	0.13031963
138	0xbda23364	-0.07919958
139	0xbd1e8914	-0.038704947
140	0x3e50149c	0.20320362
141	0xbad6a028	-0.0016374635
142	0xbd345ae9	-0.04403201
143	0x3dc9fe12	0.09862913
144	0x3e685390	0.22688127
145	0xbe0d8a57	-0.13822304
146	0x3d91e933	0.07124557
147	0x3d110d28	0.035412937
148	0x3cdafbe1	0.026731433
149	0x3e2bad73	0.16765384
150	0xbd8bf818	-0.068344295
151	0xbdb45b3f	-0.08806466
152	0xbd925178	-0.07144445
153	0x3de95a8f	0.11394226
154	0x3da7622a	0.0817302
155	0x3dc8b2ab	0.09799703
156	0xbd1aa579	-0.037755463
157	0xbe912fc6	-0.2835676
158	0x3e0683dd	0.1313624
159	0x3c058109	0.00814844
160	0xbe73d74c	-0.23812598
161	0xbe321bd1	-0.17393424
162	0x3e131081	0.14361764
163	0x3d00f3b3	0.03148241
164	0x3d1999f5	0.03750034
165	0xbb2eead1	-0.0026690254
166	0xbda9a893	-0.08284106
167	0x3d9f5b5c	0.07781097
168	0xbbad334c	-0.005285656
169	0xbdb28ff2	-0.08718862
170	0xbda90ffa	-0.082550004
171	0x3dda4559	0.10657758
172	0xbb4d4cde	-0.0031326334
173	0x3db7bf90	0.089720845
174	0x3d82e601	0.06391526
175	0xbe570ed8	-0.21001756
176	0xbc31f3dc	-0.010861363
177	0xbc97661d	-0.018481309
178	0x3cac146d	0.021005834
179	0x3d57c6b4	0.052679732
180	0x3e29ac0c	0.16569537
181	0x3e8ada68	0.27119756
182	0xbd7fd258	-0.06245646
183	0xbe11e0a9	-0.14245857
184	0xbdd1f3d9	-0.102515884
185	0x3c883d64	0.016630836
186	0x3e3dee42	0.1854792
187	0x3d8c761f	0.06858467
188	0xbe31113c	-0.1729173
189	0xbd75f447	-0.060047414
190	0xbd76bc5a	-0.06023822
191	0xbe0cf67e	-0.13765904
192	0x3ea426dc	0.32060897
193	0xbd19dd37	-0.037564483
194	0xbccd1224	-0.025033064
195	0xbe413d83	-0.18871121
196	0x3e5fb9e7	0.2184826
197	0x3da00437	0.07813304
198	0x3e01b1f0	0.12665534
199	0xbde00dcf	-0.10940134
200	0x3d6ab232	0.057298847
201	0xbbf5d6c6	-0.0075024096
202	0x3e12ed0e	0.14348242
203	0xbc0939a0	-0.008375555
204	0x3e36bf4c	0.17846411
205	0xbd4e922e	-0.050432377
206	0x3daf96e1	0.085737
207	0x3dc5a29c	0.09650156
208	0x3dc69f4b	0.096983515
209	0x3cb30eee	0.021857705
210	0x3e52b805	0.2057801
211	0xbd32d445	-0.043659467
212	0x3d1151c2	0.03547836
213	0x3d234a4e	0.039865784
214	0x3d9e0419	0.07715625
215	0x3d91904b	0.071076
216	0x3d43289d	0.047646154
217	0x3c8d58ea	0.017254312
218	0x3e49064d	0.1963131
219	0x3ccf7d69	0.025328355
220	0x3e082ee4	0.13299137
221	0x3eb22b28	0.3479855
222	0x3ea52f59	0.32262686
223	0xbe0caf4e	-0.13738748
224	0x3e25e070	0.16198897
225	0xbe090329	-0.13380112
226	0x3dfaff4e	0.12255727
227	0xbddd4f6d	-0.10806165
228	0x3de0e26e	0.10980688
229	0x3e166d82	0.14690211
230	0x3e0c6b06	0.13712701
231	0x3e944b5a	0.2896374
232	0x3e2e9f59	0.17052974
233	0xba377590	-0.0006998414
234	0x3db93c61	0.090447195
235	0x3ef34890	0.47516298
236	0x3e19431c	0.14967006
237	0x3de72d07	0.11287885
238	0xbd465d6f	-0.04842895
239	0x3e1f4f58	0.15557611
240	0x3e0d2e9b	0.1378731
241	0x3e052f0f	0.13006233
242	0x3e314b02	0.1731377
243	0x3d17ab50	0.03702861
244	0x3e620f31	0.22076108
245	0x3e6ba1f2	0.23010996
246	0x3e62cff9	0.22149648
247	0x3e9ccacf	0.3062348
248	0x3e2c240b	0.16810624
249	0x3da88b8c	0.082297415
250	0x3d18e789	0.037330184
251	0x3e431d84	0.19054228
252	0xbd82d7bf	-0.063888066
253	0x3d2d8f13	0.042372774
254	0xbe5d068e	-0.21584532
255	0x3e93dd0d	0.28879586

lstm.bias_hh_l0 f4 [256]
0	0x3e49e4f9	0.19716252
1	0x3d95b607	0.073101096
2	0x3d69e285	0.05710079
3	0x3d9758ec	0.073900074
4	0x3e17ec8d	0.1483633
5	0x3d430240	0.047609568
6	0x3c478855	0.0121785
7	0x3db4ac50	0.088219285
8	0x3dbdb9e5	0.09263972
9	0x3e5bf717	0.21480976
10	0x3cbdd506	0.023172867
11	0x3e3b4f6f	0.1829202
12	0x3e2c981d	0.16854902
13	0x396b14a8	0.00022419041
14	0x3dee6faf	0.11642396
15	0x3e156229	0.14588226
16	0x3de8e32d	0.11371455
17	0x3d0a2469	0.03372613
18	0x3ddf75a7	0.10911112
19	0x3d9a97b8	0.07548469
20	0xbce42621	-0.027850213
21	0x3d7bb781	0.0614543
22	0x3d33c22f	0.04388636
23	0xbbbab236	-0.005697514
24	0x3e05b9c3	0.13059144
25	0x3dc52376	0.09625904
26	0xbccca7e8	-0.024982408
27	0x3dc142bd	0.094365574
28	0xbd0212a3	-0.031756055
29	0x3e940aab	0.2891439
30	0x3e71dbd1	0.2361901
31	0x3db9a76c	0.09065136
32	0x3dd04f40	0.10171366
33	0x3d82ec3e	0.06392716
34	0x3d66dd5a	0.05636344
35	0xbc60b0ac	-0.013713997
36	0x3e6b6a7a	0.22989836
37	0xbd962abe	-0.07332371
38	0x3cee79b2	0.029110763
39	0xbe0ca3d4	-0.1373437
40	0x3ced4900	0.028965473
41	0xbb3bb8fa	-0.002864419
42	0x3d702f69	0.058638964
43	0x3f17636d	0.59136087
44	0x3de6d773	0.112715624
45	0x3e7dd8d7	0.24789749
46	0x3d7439b6	0.05962535
47	0x3dc50ba7	0.09621363
48	0xbdbd1fd5	-0.09234587
49	0xbd7679ae	-0.060174637
50	0xbd9141c1	-0.0709262
51	0xbd772659	-0.060339306
52	0xbcfb49c9	-0.030674832
53	0x3ef992fa	0.48744947
54	0xbd328960	-0.043588042
55	0x3d988ff8	0.07449335
56	0x3e303f6c	0.17211694
57	0x3cd373d3	0.025812065
58	0x3e731d26	0.23741588
59	0x3dc5b36d	0.096533634
60	0x3dfd6b2e	0.123739585
61	0x3dd60a6f	0.10451209
62	0xbe0f407c	-0.13989443
63	0x3d26973f	0.040671583
64	0xbd8d525f	-0.06900477
65	0x3cb0fcd8	0.02160494
66	0xbce9f36c	-0.028558455
67	0x3e1c2dfc	0.15251917
68	0xbd0efa48	-0.034906656
69	0x3deaaf19	0.114591785
70	0x3d34378a	0.04399828
71	0x3e097a3b	0.13425533
72	0x3e63f838	0.22262657
73	0xbac14915	-0.0014746512
74	0xbdecdc7c	-0.115654916
75	0x3d8cf9bc	0.068835706
76	0xbb0575b0	-0.0020364337
77	0x3e4859e5	0.19565542
78	0xbdb3e12d	-0.08783183
79	0xbe109780	-0.14120293
80	0x3d9eb535	0.07749406
81	0x3bc33562	0.0059572915
82	0xbdc567d3	-0.096389435
83	0xbc091d0a	-0.00836874
84	0xbb28c807	-0.0025753991
85	0x3db3b459	0.08774633
86	0xbc84aa5a	-0.016194511
87	0x3dc643a7	0.096808724
88	0x3cf33981	0.029690506
89	0x3d93ada1	0.072108515
90	0x3de44e27	0.11147719
91	0xbda8dc56	-0.08245151
92	0x3e440ed3	0.1914628
93	0x3d861884	0.06547645
94	0xbcecf8c3	-0.028927213
95	0x3e1d7446	0.15376386
96	0xbdfc4a00	-0.12318802
97	0xbe291dc9	-0.16515268
98	0x3d3f7232	0.046739765
99	0xbbdd5e8b	-0.006755655
100	0xbe063a34	-0.1310814
101	0x3aa13fd8	0.0012302352
102	0xbe07841a	-0.13233986
103	0xbd92cc42	-0.07167865
104	0xbd68aa86	-0.05680325
105	0xbc3aa06a	-0.011390785
106	0x3dbdd75b	0.092695914
107	0xbe74d289	-0.23908438
108	0xbcb8907b	-0.022529831
109	0x3d6cf4f3	0.05785079
110	0x3c4b0501	0.01239133
111	0xbd3f72da	-0.04674039
112	0x3d0a86e4	0.033820048
113	0x3aa35425	0.001246099
114	0x3d3a4267	0.045473482
115	0xbc5e30b2	-0.013561415
116	0xbcad2cbe	-0.021139499
117	0x3d6edf13	0.05831821
118	0xbd17d1f2	-0.037065454
119	0xbc952c27	-0.01820953
120	0x3daa3c94	0.083123356
121	0xbd9836d0	-0.0743233
122	0x3c210acf	0.009829237
123	0xbca00696	-0.01953439
124	0x3dbb1815	0.09135453
125	0x3dde27a0	0.108474016
126	0xbd82fcf8	-0.06395906
127	0x3de6e19a	0.11273499
128	0xbdd94fbd	-0.10610912
129	0x3df80935	0.12111131
130	0xbe23e1ef	-0.16004156
131	0xbe4c9a5e	-0.19980761
132	0x3e266571	0.16249634
133	0xbd65fa22	-0.05614675
134	0xbe0e3e40	-0.13890934
135	0x3e5bc416	0.2146152
136	0x3dbb7b15	0.091543354
137	0x3d2c2096	0.042023264
138	0xbd49cb9e	-0.04926645
139	0xbe008e05	-0.12554176
140	0x3ca87707	0.02056457
141	0xbd66f017	-0.05638131
142	0x3de5851b	0.112070285
143	0x3e3861e4	0.18006092
144	0x3e73731a	0.23774377
145	0xbdf3ef2b	-0.11910852
146	0xbbc66271	-0.0060542156
147	0xbdddaa93	-0.1082355
148	0xbe0894dc	-0.13338035
149	0x3e4baa10	0.19889092
150	0x3dc92a0d	0.09822474
151	0xbd64ea6d	-0.05588763
152	0xbb6cb8f5	-0.0036120985
153	0x3e62ab18	0.2213558
154	0x3da7fa68	0.08202058
155	0x3e10784a	0.14108387
156	0xbccd3343	-0.025048858
157	0xbe06d0b2	-0.13165548
158	0xbd0ccdef	-0.03437608
159	0x3c58b7ee	0.013227446
160	0xbdfe7f03	-0.12426569
161	0xbe60fd66	-0.21971664
162	0x3e11501f	0.1419072
163	0xbd38a9e0	-0.04508388
164	0x3e270ac7	0.16312705
165	0x3df684fc	0.120370835
166	0xbd8d5783	-0.06901457
167	0xbda48b0a	-0.08034332
168	0xbcf638a7	-0.03005631
169	0xbe0d1a7f	-0.13779639
170	0xbdc4d2ad	-0.09610496
171	0x3dd4099a	0.10353394
172	0xbd221c30	-0.039577663
173	0x3dff6fe5	0.12472514
174	0x3d4fe2ff	0.05075359
175	0x3c7d60bf	0.015464961
176	0x3dd71f01	0.105039604
177	0xbd72a62d	-0.05924051
178	0x3d9726b8	0.07380432
179	0xbcc98e80	-0.024604082
180	0x3e3c43ff	0.18385313
181	0x3e82b17f	0.25526044
182	0xbe688e8f	-0.22710632
183	0xbe054b83	-0.13017087
184	0x3d480dee	0.04884141
185	0x3c420b58	0.011843525
186	0x3d251e95	0.04031237
187	0x3dcf9357	0.10135525
188	0xbdd7c93a	-0.10536428
189	0xbd0b66c9	-0.03403357
190	0xbd9127b9	-0.070876546
191	0xbbaa3f0f	-0.0051955055
192	0x3ea5c779	0.32378748
193	0x3ddd71e7	0.10812741
194	0xbdb35e28	-0.08758193
195	0xbd1c8651	-0.03821403
196	0x3e4c296d	0.19937678
197	0x3d799a2d	0.06093805
198	0x3ea7a82b	0.3274549
199	0xbd51fdb6	-0.05126735
200	0x3dcc6082	0.09979345
201	0xbce0948b	-0.02741458
202	0x3d5fd30c	0.05464463
203	0xbd9db05b	-0.07699653
204	0x3e069b2a	0.13145128
205	0x3de9f3a1	0.11423422
206	0x3d82c535	0.063852705
207	0x3d03b95a	0.032159187
208	0x3da28061	0.079346426
209	0x3e288289	0.16456045
210	0x3e83d5c4	0.25749028
211	0x3dd188c2	0.102311626
212	0x3b68d1e8	0.0035525504
213	0xbc726e23	-0.014796766
214	0x3e55fbaf	0.20896791
215	0x3e1b2a48	0.15152848
216	0x3d836946	0.06416564
217	0xbd55d0fa	-0.05220125
218	0x3e409682	0.18807414
219	0x3db873b8	0.090064466
220	0xbd3f693c	-0.04673122
221	0x3e61bb7e	0.22044179
222	0x3e838cb5	0.25693288
223	0xbd116fcd	-0.035507012
224	0x3debd977	0.115160875
225	0x3a5e29fb	0.00084748835
226	0x3d11995b	0.03554664
227	0xbbd775a1	-0.0065753018
228	0x3dbb428b	0.091435514
229	0x3d01dea9	0.031706486
230	0x3e1adb29	0.15122665
231	0x3e94ab4d	0.29036942
232	0x3d94729e	0.07248424
233	0xbd0c5372	-0.034259267
234	0xbd6cf116	-0.057847105
235	0x3ec9c553	0.3940836
236	0x3e06f006	0.13177499
237	0x3d0369fb	0.032083493
238	0xbe18696f	-0.1488397
239	0x3e8e2bde	0.27767843
240	0x3da1f2e2	0.07907654
241	0x3c33a5e6	0.010964846
242	0x3dd52b1a	0.104086116
243	0x3e1911af	0.14948152
244	0x3d5690e4	0.052384272
245	0x3e3dd3b5	0.18537791
246	0x3d574fca	0.052566327
247	0x3e82fdf7	0.25584385
248	0x3e3b5008	0.18292248
249	0xbc5aa9a7	-0.013346112
250	0xbc08278a	-0.008310208
251	0x3e0ab192	0.135443
252	0xbca29e9b	-0.01985102
253	0x3e016cb7	0.12639128
254	0xbc80f083	-0.015739685
255	0x3e66fba5	0.22556932

lstm.weight_ih_l1 f4 [256, 64]
0	0xbcea8ed0	-0.028632551
1	0xbdaa644c	-0.08319911
2	0xbdb5bc6b	-0.088738285
3	0xbdb0554d	-0.0861002
4	0x3d7a347b	0.061085206
5	0xbd73d300	-0.059527397
6	0xbd511c7c	-0.051052555
7	0x3aa6e2b1	0.0012732354
8	0x3c47c314	0.012192506
9	0x3e3e9039	0.18609704
10	0xbd5e2828	-0.054237515
11	0xbd316ffb	-0.043319684
12	0xbe0fa4c5	-0.14027698
13	0xbd29f2e6	-0.04149141
14	0x3cf5022f	0.029908268
15	0x3cd86240	0.026414037
16	0xbc0679d9	-0.008207762
17	0x3c30b514	0.01078536
18	0xbd80acef	-0.062829845
19	0x3e367ce7	0.17821084
20	0x3d196615	0.03745087
21	0x3e10f2d4	0.14155132
22	0x3db3a617	0.087719135
23	0x3e10a65e	0.14125964
24	0x3ce006fc	0.02734708
25	0x3d16aa54	0.03678353
26	0xbe29fe77	-0.16600977
27	0x3bd0f12a	0.0063764052
28	0xbe17d41e	-0.1482701
29	0xbdb99caf	-0.09063088
30	0x3de1a132	0.11017074
31	0xbde51609	-0.111858435
32	0xbdfbe264	-0.1229904
33	0x3d7d0586	0.061772846
34	0xbd90a71e	-0.07063125
35	0x3d8208d9	0.06349344
36	0x3d222107	0.03958228
37	0xbde7c3fc	-0.11316678
38	0xbdd54b37	-0.10414737
39	0xbcaa28aa	-0.020771343
40	0x3ca1b25e	0.019738372
41	0xbe2be702	-0.16787341
42	0x3db5a8e8	0.08870107
43	0xbe843a7e	-0.25825876
44	0x3d63dade	0.05562865
45	0x3d8a732e	0.0676025
46	0x3dcf66d5	0.101270355
47	0x3d8699d7	0.06572311
48	0x3d872d0b	0.06600388
49	0xbe10123f	-0.1406946
50	0xbca8c3c3	-0.020601159
51	0x3ddce122	0.10785128
52	0xbcc910be	-0.024544116
53	0x3dd67ca6	0.104729936
54	0xbd8b7b13	-0.06810584
55	0x3d990f99	0.07473678
56	0x3d751fde	0.059844844
57	0xbc2c9e92	-0.010535853
58	0xbe01ba37	-0.12668692
59	0x3d3bb753	0.04582913
60	0xbdbc6451	-0.09198821
61	0xbd70b278	-0.05876395
62	0xbe8cc173	-0.2749134
63	0xbe1a05c7	-0.15041266
64	0xbe0b2d18	-0.1359142
65	0x3b7389d3	0.0037161007
66	0x3d51e844	0.051246896
67	0xbd3464eb	-0.044041555
68	0xbcec57e3	-0.028850501
69	0xbd182088	-0.0371404
70	0xbcbcc29f	-0.023042021
71	0xbd8d9593	-0.06913295
72	0x3c38d5a4	0.011281405
73	0x3e221b98	0.15830839
74	0x3e282cf5	0.164234
75	0x3d671f85	0.056426544
76	0x3debe3f0	0.11518085
77	0xbdc38183	-0.09546187
78	0xbcb176aa	-0.021663029
79	0x3ea1c5fe	0.3159637
80	0xbd95133d	-0.0727906
81	0x3dd1ceda	0.10244532
82	0x3d9fe1fb	0.07806774
83	0xbca95f69	-0.020675378
84	0xbd3db020	-0.046310544
85	0x3de10798	0.109877765
86	0x3db25f87	0.08709627
87	0x3e21beb9	0.15795411
88	0x3e181908	0.14853299
89	0x3dc979a3	0.098376535
90	0xbe8168a4	-0.25275147
91	0xbdb95e93	-0.09051242
92	0x3dff9be2	0.12480904
93	0xbceccfd5	-0.028907696
94	0x3d06eb07	0.032938983
95	0xbbc5dec4	-0.0060385186
96	0xbe5c002d	-0.21484442
97	0x3e17961b	0.14803354
98	0xbd3b8779	-0.045783494
99	0x3d93cd8d	0.0721694
100	0x3cc6b55e	0.024256404
101	0x3ded35e8	0.115825474
102	0x3db37ec1	0.08764411
103	0x3e8050e7	0.25061724
104	0xbdf24f79	-0.118315645
105	0xbddf1d1e	-0.108942255
106	0x3d7c1bba	0.06154988
107	0xbdf4baa0	-0.119496584
108	0xbceca13d	-0.028885478
109	0x3db8eb50	0.09029257
110	0x3c071d96	0.0082468
111	0xbca1ee16	-0.019766849
112	0xbb188c5c	-0.002327702
113	0xbdb9a662	-0.09064938
114	0x3e6a77e4	0.22897297
115	0xbd88d1bf	-0.06680631
116	0x3df30a35	0.11867181
117	0xbc9769f8	-0.018483147
118	0xbd3ffff2	-0.046874948
119	0x3e02b5c4	0.1276465
120	0xbe180adf	-0.14847897
121	0x3cef662a	0.02922352
122	0xbda41908	-0.08012587
123	0xbe3d4bdc	-0.1848597
124	0xbcdf096a	-0.027226169
125	0x3d523a9c	0.051325426
126	0xbcf78db9	-0.030218946
127	0xbe0a116d	-0.1348321
128	0x3d2d5788	0.042319804
129	0xbe847c57	-0.25876114
130	0x3c2b741c	0.010464694
131	0xbe1cf27d	-0.15326877
132	0x3e0cf52d	0.13765402
133	0x3df82963	0.12117269
134	0x3a3b2ab9	0.000713985
135	0x3d2f84aa	0.042851128
136	0x3d066156	0.03280767
137	0x3f1453b2	0.5794021
138	0x3c611b66	0.013739442
139	0x3db24bf5	0.08705894
140	0xbe4af661	-0.19820549
141	0xbcfc23e3	-0.03077883
142	0xbe2a9b01	-0.16660692
143	0x3f5dbc1d	0.86615163
144	0x3e0f80b7	0.14013945
145	0x3c45d2db	0.012074198
146	0xbd20e990	-0.039285243
147	0x3ddd8d6a	0.10817988
148	0x3b0630a5	0.0020475772
149	0x3ca9513b	0.020668617
150	0xbd0a7df4	-0.033811525
151	0x3e1bc6c5	0.15212543
152	0x3e08e800	0.13369751
153	0x3e3a780f	0.18209861
154	0xbe7c5bf9	-0.2464446
155	0xbe054570	-0.1301477
156	0x3d00d48d	0.031452704
157	0x3def895e	0.116961226
158	0x3cff6166	0.031174373
159	0xbcf854af	-0.030313818
160	0xbe3cb95d	-0.18430085
161	0xbd61c0e5	-0.0551156
162	0xbdc92876	-0.098221704
163	0xbcf6c39d	-0.030122573
164	0xbde01f10	-0.10943425
165	0xbe9aab7a	-0.3020895
166	0xbd7868f8	-0.06064698
167	0xbe73fcd3	-0.23826914
168	0x3d3c7c14	0.046016768
169	0x3d8a247c	0.0674524
170	0xbc327148	-0.010891266
171	0x3e1a97f4	0.15097028
172	0x3eb13d87	0.34617254
173	0xbb90e13b	-0.004421381
174	0xbd113261	-0.035448436
175	0xbe0d7b88	-0.13816655
176	0x3d168f93	0.036758017
177	0xbe324d1e	-0.1741223
178	0x3c7d79fb	0.015470977
179	0xbe1deb5b	-0.15421812
180	0xbdf5be2c	-0.11999163
181	0x3dce4e1f	0.10073494
182	0xbc948f8a	-0.018134851
183	0x3e00f7f8	0.12594593
184	0xbdc4f68c	-0.096173376
185	0x3b8b0128	0.004242081
186	0xbce2b291	-0.027673038
187	0xbe8fe2f0	-0.28102827
188	0x3df01157	0.11722057
189	0x3df914b2	0.121621504
190	0xbe86ee92	-0.2635389
191	0xbe0c9111	-0.13727213
192	0x3e349451	0.17634703
193	0x3d9e5547	0.07731109
194	0xbe1910aa	-0.14947763
195	0xbd2e7f5a	-0.04260192
196	0x3e77e6f4	0.24209195
197	0x3d37eaa0	0.04490149
198	0x3dad4935	0.08461229
199	0x3d9b349b	0.07578393
200	0xbd78269f	-0.060583707
201	0x3e157aad	0.14597578
202	0xbea0cac1	-0.3140469
203	0xbdc78f96	-0.09744184
204	0x3e079ccf	0.13243411
205	0xbb0e4c1f	-0.0021712852
206	0x3b1fee3a	0.0024403469
207	0x3df29cc4	0.11846307
208	0x3d40290a	0.046914138
209	0x3c0a2d78	0.008433692
210	0xbccf5856	-0.025310677
211	0x3c73188a	0.014837394
212	0xbe29d8bc	-0.16586584
213	0x3ddd0da0	0.107936144
214	0xbe26448a	-0.16237083
215	0x3bab4763	0.005227016
216	0x3e4fda4d	0.20298119
217	0x3bf37ddf	0.0074307765
218	0x3e471ee9	0.19445385
219	0xbe4209db	-0.18949072
220	0x3d1d466a	0.03839723
221	0xbeb60bb4	-0.35555804
222	0x3da76a09	0.081745215
223	0x3d9093a0	0.07059407
224	0xbc8373c1	-0.016046407
225	0xbe3232d5	-0.17402203
226	0xbdff5b9c	-0.12468645
227	0xbd2c6fc1	-0.042098764
228	0xbd6d35f9	-0.0579128
229	0xbd897cf4	-0.06713286
230	0x3cf528f7	0.02992676
231	0xbe0872bd	-0.13325019
232	0x3cb55b00	0.022138119
233	0x3e1ebfc2	0.15502837
234	0xbe39fcf3	-0.18162899
235	0xbefeba67	-0.4975159
236	0xbde0572d	-0.109541275
237	0x3d712231	0.058870498
238	0x3e09382f	0.13400339
239	0x3dc1bc7c	0.09459779
240	0xbe2c0d7a	-0.16802016
241	0xbe3c68af	-0.18399309
242	0xbc6399bc	-0.013891634
243	0xbe372dfa	-0.17888632
244	0xbe034c84	-0.12822157
245	0x3d25fbfd	0.040523518
246	0xbd9640e1	-0.073365934
247	0xbe552767	-0.20815812
248	0xbd6bccd3	-0.057568382
249	0x3b9e6b28	0.0048345514
250	0xbb57a194	-0.0032902705
251	0x3c7a1126	0.015262878
252	0xbd20f4fe	-0.039296143
253	0x3d979805	0.07402042
254	0xbe003d83	-0.12523465
255	0xbddc070d	-0.10743532

lstm.weight_hh_l1 f4 [256, 64]
0	0x3d7bf168	0.06150952
1	0xbd069d34	-0.032864764
2	0x3de760eb	0.112977825
3	0x3e0093ce	0.12556383
4	0x3d49635f	0.049167033
5	0x3cdd1c36	0.026990991
6	0xbd1556d0	-0.036459744
7	0xbe4cb518	-0.19990957
8	0xbd932327	-0.07184439
9	0xbb05834b	-0.0020372446
10	0xbd8f3acb	-0.06993636
11	0xbe1c1268	-0.15241396
12	0xbda19761	-0.07890201
13	0x3d9bacc7	0.07601314
14	0x3d30a172	0.043122716
15	0xbeea3dcd	-0.45750275
16	0x3dc73a50	0.09727919
17	0xbd1f4b93	-0.038890433
18	0xbceb1234	-0.028695203
19	0xbe3c208c	-0.1837179
20	0xbd8b2945	-0.06794981
21	0x3e3a04bf	0.18165873
22	0xbabdfc3e	-0.001449473
23	0x3cfae3e4	0.030626245
24	0xbdb68aee	-0.089132175
25	0x3db4240d	0.08795939
26	0xbd258288	-0.040407687
27	0x3d54d122	0.051957257
28	0xbd3f0d62	-0.046643622
29	0xbdbdee60	-0.09273982
30	0x3dd3035b	0.103033744
31	0xbda22c85	-0.07918648
32	0xbc229e1e	-0.009925393
33	0xbd7869ce	-0.06064778
34	0xbe34e972	-0.17667177
35	0xbe87454d	-0.2642006
36	0x3cbf6551	0.023363741
37	0xbd138ae5	-0.036021132
38	0x3dab68fb	0.08369633
39	0x3e39414f	0.1809132
40	0x3c4c4ed6	0.012469968
41	0x3da9418c	0.08264455
42	0xbc9af764	-0.018916793
43	0x3d1f4272	0.038881727
44	0x3db1b6f6	0.08677475
45	0xbe33925b	-0.17536299
46	0x3d48ecc3	0.04905392
47	0x3e016667	0.1263672
48	0x3c37ab40	0.011210263
49	0xbd8d22f3	-0.06891432
50	0x3db6b217	0.08920687
51	0x3d0f4fd6	0.034988247
52	0xbd0ea817	-0.03482827
53	0x3ca09c76	0.019605856
54	0x3dc7b857	0.09751957
55	0x3d45225e	0.04812848
56	0xbc977b18	-0.018491313
57	0x3d203b9d	0.03911935
58	0x3d1d2955	0.038369495
59	0x3d06aa0d	0.032877017
60	0x3daf8b44	0.08571485
61	0xbcfcba5e	-0.030850586
62	0xbe4dd41e	-0.20100448
63	0x3d8803ef	0.06641375
64	0xbe3dd081	-0.18536569
65	0x3d75ed70	0.06004089
66	0x3e33549f	0.17512749
67	0xbd84085e	-0.064469084
68	0xbe877d13	-0.26462612
69	0x3d8728fd	0.06599615
70	0xbc949840	-0.018139005
71	0xbdc7bed5	-0.09753195
72	0xbd9474a3	-0.07248809
73	0xbd8f2631	-0.06989706
74	0x3c5cb508	0.013470896
75	0xbd1e3507	-0.03862479
76	0xbd96f53a	-0.07370992
77	0xbe18cc9f	-0.14921807
78	0x3e9d4cf7	0.30722782
79	0x3e119808	0.14218152
80	0x3dfe30be	0.124116406
81	0xbe240d5e	-0.16020724
82	0x3d6b3b55	0.05742963
83	0xbe03d9f9	-0.12876119
84	0xbd4a4a28	-0.049387127
85	0xbd1df0f3	-0.038559865
86	0xbdb6a383	-0.08917906
87	0xbdc069c6	-0.09395175
88	0xbe5831e9	-0.21112789
89	0xbdf45ebe	-0.11932133
90	0xbe66fab9	-0.2255658
91	0xbe3a82df	-0.18213986
92	0xbce6f10b	-0.02819111
93	0xbd002832	-0.031288333
94	0xbc164ef5	-0.009174098
95	0x3cfcfe7c	0.030883066
96	0x3d2e7064	0.042587653
97	0x3bd2163e	0.006411343
98	0x3c809dd4	0.015700258
99	0xbd3e6ae3	-0.046488654
100	0x3cf2d427	0.029642178
101	0xbe089c27	-0.13340817
102	0xbcf1ad78	-0.029501662
103	0xbc229716	-0.009923717
104	0xbd6c096d	-0.057626177
105	0xbd4a84dd	-0.049443115
106	0xbc881e6e	-0.016616073
107	0x3dd811fe	0.10550307
108	0x3d0c8091	0.034302298
109	0xbe1b96bf	-0.15194224
110	0x3dc06b51	0.09395469
111	0x3e38ca89	0.18046011
112	0xbe185efb	-0.14879982
113	0x3e224b9f	0.1584916
114	0x3e347d83	0.17626004
115	0x3d6074a7	0.05479875
116	0xbdd41c9a	-0.10357018
117	0x3e03ceed	0.12871905
118	0x3db6622e	0.08905445
119	0xbde27757	-0.110579185
120	0x3c8a75f9	0.016901957
121	0xbd6f65a0	-0.058446527
122	0x3d98b06b	0.07455524
123	0xbe10d806	-0.14144906
124	0x3cc7231a	0.02430873
125	0x3e16b96e	0.14719173
126	0x3d7fb8fd	0.062432278
127	0xbdbf436f	-0.09339034
128	0xbe343fde	-0.17602488
129	0xbb240e38	-0.002503289
130	0x3e46f262	0.19428399
131	0x3eb45306	0.35219592
132	0xbe5fddf6	-0.21862015
133	0x3e8d74c7	0.27628157
134	0xbda75371	-0.08170212
135	0xbe25f2d4	-0.16205913
136	0xbea291b7	-0.31751797
137	0x3e385cf9	0.18004216
138	0x3c5f6ff9	0.013637536
139	0xbe52268b	-0.20522515
140	0x3e16761f	0.14693497
141	0x3d0ca95b	0.034341197
142	0x3d37dcdc	0.044888362
143	0x3e2e0007	0.16992198
144	0x3ea0394b	0.3129371
145	0xbe1f84e7	-0.15578042
146	0x3d0e15ca	0.03468875
147	0xbf08ec28	-0.53485346
148	0xbe2a017e	-0.16602132
149	0x3e90db2b	0.28292212
150	0xbd089e69	-0.033354197
151	0x3e0a2fa0	0.1349473
152	0xbe9abb77	-0.3022115
153	0xbe57404b	-0.2102062
154	0x3d5295a2	0.051412232
155	0xbd89738c	-0.06711492
156	0xbe186f3b	-0.14886181
157	0x3c143238	0.009045176
158	0x3e6ba2d8	0.23011339
159	0xbe52456c	-0.20534295
160	0xbdcee7ea	-0.10102828
161	0x3daf0406	0.08545689
162	0xbe24d039	-0.16095056
163	0xbd5c1afd	-0.053736676
164	0xbdffd4b2	-0.1249174
165	0xbeb4c22a	-0.35304385
166	0xbdd8161e	-0.105510935
167	0xbe50537d	-0.20344348
168	0x3d285c9d	0.041103948
169	0x3c247912	0.010038631
170	0x3da03bde	0.07823919
171	0x3de759a2	0.11296393
172	0x3ea8b0f4	0.32947505
173	0xbc502481	-0.012704016
174	0x3e034404	0.12818915
175	0x3e98f313	0.2987295
176	0xbeaa3b7b	-0.33248505
177	0x3e537147	0.2064868
178	0x3d0664c1	0.03281093
179	0x3ea03c09	0.31295803
180	0xbea2f16a	-0.3182481
181	0x3ae0de5a	0.001715611
182	0x3e99cdcb	0.3003982
183	0xbe20c50b	-0.15700166
184	0xbd92ef2f	-0.07174527
185	0x3d191d75	0.037381608
186	0xbdfe2343	-0.124090694
187	0xbe630a4f	-0.22171901
188	0x3e392b47	0.18082915
189	0x3c007b29	0.007841864
190	0xbb01c69d	-0.001980222
191	0xbe267c8a	-0.16258445
192	0x3e17f377	0.14838968
193	0x3e486a0f	0.19571708
194	0x3b90e44d	0.004421747
195	0xbe29b347	-0.16572295
196	0xbd7c3c28	-0.061580807
197	0x3dba9167	0.091097645
198	0xbe1a01e9	-0.15039791
199	0xbd25cb94	-0.04047735
200	0x3ca718ee	0.02039763
201	0xbc85ff97	-0.016357226
202	0xbb2efc70	-0.0026700757
203	0xbdcb44bb	-0.09925219
204	0x3e15219d	0.14563604
205	0x3ba8b1cc	0.005148148
206	0xbd94c021	-0.07263208
207	0xbe778d50	-0.24175
208	0xbe15dd16	-0.14635119
209	0xbe1ba316	-0.15198931
210	0xbdae33de	-0.08505987
211	0xbe49ded8	-0.19713914
212	0x3e888347	0.26662657
213	0xbe27eb96	-0.16398463
214	0x3d80b081	0.062836654
215	0x3c6c8150	0.014435127
216	0x3d9311a4	0.07181099
217	0xbdb6da5a	-0.08928366
218	0xbda594e7	-0.080850415
219	0x3daabb7e	0.083365425
220	0xbcbad3a9	-0.022806006
221	0xbe049bf2	-0.12950113
222	0x3c52dda4	0.012870226
223	0x3d9f986c	0.07792744
224	0xbce2fc2f	-0.027708141
225	0xbdf2ea3d	-0.11861084
226	0x3d68667d	0.056738365
227	0x3db35a55	0.08757464
228	0xbd24949d	-0.04018079
229	0x3bca60fa	0.0061761113
230	0xbd874083	-0.066041015
231	0x3e850913	0.25983486
232	0x3dac6c35	0.08419076
233	0xbe45f137	-0.19330297
234	0x3d90c84c	0.070694536
235	0x3d0a46e1	0.033759
236	0x3dd3d712	0.10343756
237	0x3d1ceddb	0.038312774
238	0x3e128351	0.14307906
239	0x3dcac5e1	0.09901024
240	0xbdc57db6	-0.09643118
241	0xbdf5023d	-0.119633175
242	0xbdf0da1f	-0.11760353
243	0x3ce0f405	0.027460108
244	0x3e948b38	0.29012465
245	0x3dd0bc22	0.101921335
246	0xbb5a2a63	-0.0033289425
247	0x3c13ab2f	0.009012981
248	0xbe3cebef	-0.18449377
249	0xbe2e6d0b	-0.17033784
250	0x3d6703f6	0.05640026
251	0xbc00c583	-0.00785959
252	0xbd87b7e2	-0.0662687
253	0xbe6d5c19	-0.23179664
254	0xbe3436d9	-0.17599048
255	0x3d36f9f9	0.044671986

lstm.bias_ih_l1 f4 [256]
0	0xbd7f5000	-0.062332153
1	0xbd0804c5	-0.033207674
2	0xbde2d197	-0.11075132
3	0x3d8088ee	0.06276117
4	0xbccdc310	-0.025117427
5	0x3d38dedd	0.045134414
6	0x3dd4a9b0	0.10383928
7	0xbc13d46f	-0.009022816
8	0x3cc389dc	0.023869447
9	0xbdd14301	-0.10217858
10	0xbd5506fa	-0.052008606
11	0xbd9707bf	-0.07374524
12	0xbdaf77d4	-0.08567777
13	0xbd98992f	-0.074510925
14	0x3ded279a	0.11579819
15	0xbdcd05ab	-0.10010847
16	0xbc985aee	-0.018598046
17	0xbd51349e	-0.05107557
18	0xbcd16d1d	-0.025564725
19	0x3d87205f	0.06597971
20	0x3d7741fc	0.060365662
21	0xbab52799	-0.0013821005
22	0xbd2c4776	-0.042060338
23	0xbd964df4	-0.07339087
24	0x3c022190	0.007942572
25	0xbd584832	-0.052803226
26	0x3e4e7cd6	0.20164809
27	0x3e10907e	0.1411762
28	0xbd3f36e7	-0.04668322
29	0xbc783fde	-0.015151946
30	0xbda7aa46	-0.08186774
31	0x3d39f866	0.045402907
32	0x3d20a79a	0.039222337
33	0x3b909781	0.004412592
34	0x3d846915	0.06465355
35	0x3d0adb03	0.033900272
36	0x3d472eef	0.048628744
37	0x3c2073b8	0.0097932145
38	0x3d509a1a	0.050928213
39	0x3c9e52e1	0.01932663
40	0xbcf4be15	-0.029875794
41	0x3d0bbead	0.03411739
42	0x3c1be379	0.009514683
43	0xbd87ed12	-0.066370144
44	0x3dc4bee3	0.09606721
45	0xbdc8f683	-0.098126434
46	0xbbda9dff	-0.0066716666
47	0x3da704e3	0.08155229
48	0x3cd4cb49	0.02597584
49	0xbd597396	-0.053088747
50	0xbce95c3e	-0.028486367
51	0x3dccce96	0.10000341
52	0x3d4d56a0	0.05013144
53	0xbddef910	-0.10887349
54	0x3da28a9a	0.079365924
55	0x3d42a69c	0.047522172
56	0x3e551112	0.20807293
57	0xbcb6c86a	-0.022312362
58	0x3d8e5dc1	0.06951476
59	0xbb84a16e	-0.004047564
60	0x3e2e674e	0.17031595
61	0x3d89fb6e	0.067374095
62	0x3e8f3ed4	0.27977622
63	0x3d368c86	0.044567607
64	0xbd92c22b	-0.07165941
65	0x3ca2c1a0	0.019867718
66	0x3d907f4f	0.07055532
67	0xbd3904c1	-0.04517055
68	0xbdcb1b2f	-0.09917294
69	0x3d818315	0.0632383
70	0x3bf2e968	0.007413078
71	0x3de83f64	0.11340216
72	0xbcf5d366	-0.03000803
73	0x3db5e37e	0.08881281
74	0x3d8fb0c4	0.07016137
75	0xbd864118	-0.065553844
76	0x3d825d81	0.06365491
77	0xbc2a9cd0	-0.010413364
78	0x3ddcbbb7	0.10777991
79	0x3dce73fe	0.100807175
80	0x3d1cbba4	0.038264886
81	0x3e09c9a0	0.1345582
82	0x3d349eca	0.044096746
83	0xbd9117b5	-0.070846
84	0x3d2c805b	0.042114597
85	0x3dfbde86	0.12298302
86	0x3e064810	0.13113427
87	0x3d3461e8	0.044038683
88	0x3e1080ce	0.14111635
89	0x3e029c99	0.1275505
90	0xbd1c0662	-0.038092025
91	0x3b4bf2b6	0.0031120009
92	0x3dfbdb78	0.1229772
93	0x3dde9a0b	0.10869225
94	0x3cac693f	0.021046279
95	0x3d6e4b07	0.05817702
96	0x3e07b2f4	0.13251859
97	0x3dd50b1e	0.10402511
98	0x3e1471fe	0.1449661
99	0x3c9dde5a	0.019271065
100	0x3b876ae1	0.004132614
101	0xbc8e67cb	-0.017383477
102	0x3df0b68a	0.117535666
103	0xbd26bd77	-0.04070803
104	0x3cf3055d	0.029665643
105	0x3d37ceea	0.044875063
106	0xbdc4c5ab	-0.09608015
107	0xbd63dbff	-0.055629726
108	0xbc011172	-0.007877694
109	0xbd8df578	-0.06931585
110	0xbb03aa09	-0.0020090363
111	0x3d777484	0.060413852
112	0x3d1cb0f4	0.038254693
113	0x3ced0c9a	0.028936673
114	0xbdc6a02a	-0.096985176
115	0x3dee05b8	0.116221845
116	0x3d98f847	0.0746923
117	0xbcab6942	-0.020924214
118	0xbd8401f1	-0.06445683
119	0xbddf9147	-0.10916381
120	0xbce0b341	-0.027429225
121	0x3d93888c	0.072037786
122	0xbd6a84ba	-0.057255484
123	0xbcc97d75	-0.024595955
124	0x3cbe76cc	0.023250006
125	0x3d50514c	0.05085878
126	0xbb5e60ab	-0.003393213
127	0x3daac7b9	0.08338875
128	0x3ce7bf82	0.02828956
129	0xbd87cadf	-0.066304915
130	0xbc34e94a	-0.011041949
131	0x3d72a330	0.05923766
132	0x3d355b23	0.044276368
133	0xbac3410c	-0.0014896705
134	0xbdd13951	-0.1021601
135	0xbd95c9d6	-0.07313888
136	0xbd9000c9	-0.070314
137	0x3d662173	0.056184243
138	0xbd19f6f9	-0.037589047
139	0x3df51531	0.119669326
140	0xbde882ab	-0.11353048
141	0x3d8f02e4	0.06982973
142	0xbdb2b2bd	-0.08725498
143	0x3c57a360	0.01316151
144	0xbdb2da15	-0.08733002
145	0xbad7fed3	-0.0016479142
146	0xbd08ee68	-0.033430487
147	0xbcae3c77	-0.021269066
148	0x3d8e91ca	0.06961401
149	0x3d1f1c50	0.03884536
150	0x3d1a39f2	0.037652917
151	0xbd322d2d	-0.043500114
152	0x3d8046b1	0.06263483
153	0x3dd9ce37	0.106350355
154	0x3ddffd16	0.10936944
155	0x3d6334e1	0.05547035
156	0xbd80ade8	-0.0628317
157	0x3df52420	0.11969781
158	0x3e083091	0.13299777
159	0xbdc3eaa1	-0.09566236
160	0x3c94e3b6	0.018174987
161	0xbe033c44	-0.12815958
162	0xbd933eb1	-0.07189692
163	0x3e0d5da7	0.13805257
164	0xbdbb5153	-0.09146371
165	0x398daea7	0.00027023742
166	0x3d846331	0.06464232
167	0x39c7cfde	0.0003811111
168	0x3ce20fde	0.027595457
169	0xbe16d103	-0.14728169
170	0x3d36ada2	0.044599183
171	0x3ce2bb05	0.027677068
172	0xbe076d58	-0.13225305
173	0xbdbb80da	-0.09155436
174	0xbbcb07d9	-0.006196004
175	0xbce8fd5a	-0.02844112
176	0x3d3cae6d	0.046064783
177	0x3d17e3c3	0.037082445
178	0xbe135210	-0.14386773
179	0xbd019cb9	-0.031643603
180	0x3e0d736d	0.13813563
181	0x3c016f6b	0.007900099
182	0xbd9996b2	-0.07499446
183	0x3d5668ca	0.05234603
184	0x3dae7526	0.08518438
185	0xbc155f32	-0.009116935
186	0xbc7c2376	-0.015389314
187	0xbce13d14	-0.027494945
188	0x3db6bf72	0.08923234
189	0xbd381e28	-0.044950634
190	0x3d93baa6	0.07213335
191	0xbd9ff177	-0.07809728
192	0x3e28b02c	0.16473454
193	0x3d31e85d	0.04343449
194	0x3d905f7e	0.07049464
195	0xbca8c3b2	-0.020601127
196	0x3e040382	0.12891963
197	0xbce557d9	-0.02799599
198	0xbd349c7e	-0.044094555
199	0xbda147f6	-0.078750536
200	0xbcded025	-0.02719886
201	0x3e1f2c8d	0.15544339
202	0x3b6ba01d	0.003595359
203	0x3dcf52d5	0.10123221
204	0xbe224686	-0.15847215
205	0x3e651a61	0.22373344
206	0x3d1aae48	0.037763864
207	0xbd2a49cc	-0.041574284
208	0x3d8f1894	0.0698711
209	0x3dec7800	0.11546326
210	0x3d97d3fb	0.07413479
211	0x3d89de33	0.06731834
212	0x3de0f246	0.1098371
213	0x3d9fd5a2	0.07804419
214	0x3a9a8574	0.001178904
215	0x3e347088	0.17621052
216	0x3bbd6a75	0.005780513
217	0x3e247b18	0.16062582
218	0x3e2203da	0.15821782
219	0x3e297d66	0.16551742
220	0x3db078cc	0.0861679
221	0xbd5ee5c5	-0.054418344
222	0x3e2db0ff	0.1696205
223	0x3d2eb888	0.04265645
224	0x3d8363a7	0.064154916
225	0x3df09d16	0.11748712
226	0x3df7498b	0.12074574
227	0x3bca8d24	0.006181376
228	0x3dca63e8	0.09882337
229	0x3dec58bd	0.11540363
230	0x3e5cd27a	0.21564665
231	0xbcb51725	-0.022105763
232	0x3dad0276	0.08447735
233	0x3e17386d	0.14767618
234	0xbd429e59	-0.047514293
235	0x3d802e99	0.06258888
236	0xbd9f1542	-0.077677265
237	0x3c27203e	0.010200558
238	0xbd8266e0	-0.06367278
239	0x3d9932a8	0.07480365
240	0x3c2ea5ff	0.010659694
241	0x3e74b2d9	0.2389635
242	0x3e367f5a	0.17822018
243	0x3e349ccf	0.17637943
244	0xbde801e1	-0.113284834
245	0x3c3db50f	0.011578812
246	0xbda9dff4	-0.08294669
247	0x3d05671f	0.032569047
248	0x3ddf6e24	0.109096795
249	0x3d66191e	0.056176297
250	0xbe0e6cd8	-0.13908708
251	0x3d37f3da	0.04491029
252	0xbcba4e58	-0.022742435
253	0xbab77e5c	-0.001399945
254	0x3dd31865	0.10307387
255	0xbc4607c3	-0.0120868115
