LogAnomaly/result/deeplog/deeplog_bestloss.pth (torch_old, 222985 bytes, 10 tensors)

lstm.weight_ih_l0 f4 [256, 1]
-0.20164183 -0.015431511 -0.061591487 0.08651385 -0.13535058 0.047111135 -0.103949465 0.069680765
0.1790309 0.0829427 0.16630653 -0.08347156 0.097911246 0.13043563 -0.08126199 0.26095894
0.07608375 0.054259192 -0.1497195 0.15297697 0.16879584 0.07720916 0.060373455 -0.05973999
0.20307079 -0.06509608 -0.021029761 0.07377297 0.07641663 -0.13931382 0.12346545 0.014985045
0.12308091 0.10121875 0.02132959 0.047514122 0.21502015 0.009963167 0.13485146 -0.14092773
0.0042477814 -0.13814157 0.12997201 0.40717515 -0.12622163 0.10889963 0.14528187 -0.20227918
0.1976652 0.15813453 0.36544615 0.08931836 0.06238799 0.3302524 0.12034571 -0.058261435
-0.17524573 0.025215274 0.11370831 0.04088397 0.04471812 0.14484604 0.1006513 -0.15308379
-0.06404862 0.04583012 0.118049614 -0.043694608 -0.090467095 0.05437957 0.10261697 0.05470293
-0.041538805 0.29578942 0.16944763 -0.13085835 -0.014456078 0.08162187 0.17126359 0.26254562
0.030404184 0.13566318 -0.11817073 0.03670248 0.0034209478 0.22767256 0.13664144 -0.054027833
0.015375793 0.07537266 -0.67394644 0.07919993 -0.063423075 -0.25787428 0.22152205 0.015686879
-0.028285507 0.1579013 0.11049284 0.10253934 0.067748144 0.1953863 0.1121114 0.03757653
0.14841083 0.24055716 0.17925432 0.062474776 -0.12875746 -0.03163918 0.056090146 -0.11353597
0.08131765 0.10657867 0.31224322 0.25078675 0.05169191 0.024836704 0.16718037 -0.02748097
-0.18056792 0.17847309 0.47262913 -0.034873538 0.04091154 0.05183452 -0.08703874 -0.15227251
0.45553777 -0.13800962 0.08362939 0.03228674 0.25506577 -0.1795769 -0.04929551 0.14964607
0.173216 -0.043345183 -0.06594078 0.22896801 -0.24401163 0.16998075 -0.16357437 -0.0962405
0.22645818 -0.30532303 -0.2632835 0.21661122 0.18144467 -0.03637385 -0.15605758 0.20084944
0.10201974 0.3217068 -0.46620515 0.02128406 0.027862445 -0.18654543 0.9411665 -0.00029104843
0.50093764 0.024588022 0.086478375 -0.028511923 -0.3163163 -0.20913878 -0.31305134 -0.18995208
0.20494598 0.05494513 -0.12826367 -1.6840256 0.37678263 0.30778447 0.06546374 0.5090176
-0.12546957 -0.15344003 -0.14903238 -0.039254323 -0.41590613 0.47490105 0.037716888 0.17213178
-0.3745966 0.07744793 0.05083514 -0.07842203 0.13584784 -0.0802991 0.08223765 -0.35091025
0.19000666 -0.013052694 0.15833347 0.33363426 0.18299371 0.0794165 0.18048593 0.22500806
0.047677685 0.3019494 0.07796744 0.22942223 0.25912225 0.1515158 0.23241301 0.30619827
-0.091823675 0.033403262 0.32339856 0.20666625 0.310083 0.23793165 -0.2108217 -0.17767178
-0.17692566 0.04811657 0.0007418955 0.11198352 -0.020944133 -0.33786878 0.1501531 0.2809226
-0.110824466 0.3415026 0.08316672 0.31941688 -0.09320239 -0.22611736 0.086331844 -0.30028883
-0.2148218 0.28373137 0.19937636 -0.29842037 0.26937696 0.01856963 0.21652782 -0.16775943
-0.18904325 -0.12224505 0.1260204 -0.219595 0.07938187 -0.09555487 0.06332269 0.08961321
0.17518322 -0.22100428 0.2917078 -0.13949166 0.10922109 0.16022262 0.23550116 0.14058259
00000000: 327b 4ebe 73d4 7cbc 5b47 7cbd 2c2e b13d
00000010: 5899 0abe 9bf7 403d 75e3 d4bd cab4 8e3d
00000020: e053 373e dddd a93d 424c 2a3e 23f3 aabd
00000030: b185 c83d eb90 053e b06c a6bd 699c 853e
00000040: ccd1 9b3d e33e 5e3d 1250 19be ffa5 1c3e
00000050: d1d8 2c3e d61f 9e3d 284a 773d ebb1 74bd
00000060: caf1 4f3e 1851 85bd 9b46 acbc 4816 973d
00000070: 5280 9c3d 48a8 0ebe 74db fc3d d683 753c
00000080: d811 fc3d c74b cf3d 64bb ae3c 2b9e 423d
00000090: 3e2e 5c3e 8d3c 233c 8016 0a3e 5c4f 10be
000000a0: f930 8b3b fc74 0dbe 6217 053e 4379 d03e
000000b0: 3e40 01be c506 df3d c5c4 143e 4622 4fbe
000000c0: bf68 4a3e 05ee 213e c21b bb3e 8bec b63d
000000d0: 8d8a 7f3d d816 a93e d077 f63d 8ba3 6ebd
000000e0: 9e73 33be 4390 ce3c e7df e83d f375 273d
000000f0: 592a 373d 8552 143e 4522 ce3d ffc1 1cbe
00000100: ec2b 83bd 5db8 3b3d ffc3 f13d 1ef9 32bd
00000110: d046 b9bd 1dbd 5e3d d928 d23d 2e10 603d
00000120: 9824 2abd b671 973e ae83 2d3e bbff 05be
00000130: 30d9 6cbc 5e29 a73d b95f 2f3e 616c 863e
00000140: 3212 f93c 4aeb 0a3e 7f03 f2bd 5755 163d
00000150: fb31 603b ff22 693e bceb 0b3e 4a4c 5dbd
00000160: c0ea 7b3c fb5c 9a3d c187 2cbf 9333 a23d
00000170: f5e3 81bd 1908 84be add6 623e c581 803c
00000180: 02b7 e7bc e1b0 213e 124a e23d 2500 d23d
00000190: 8abf 8a3d 5913 483e a99a e53d d9e9 193d
000001a0: 02f9 173e 9e54 763e 728e 373e 8de5 7f3d
000001b0: ffd8 03be 1698 01bd c8be 653d 8c85 e8bd
000001c0: de89 a63d eb45 da3d 58de 9f3e 1f67 803e
000001d0: e5ba 533d 5876 cb3c 5531 2b3e c51f e1bc
000001e0: cce6 38be a6c1 363e 72fc f13e 8ed7 0ebd
000001f0: dc92 273d 6f50 543d 5e41 b2bd 53ed 1bbe
00000200: 3f3c e93e 6552 0dbe e345 ab3d 1a3f 043d
00000210: fb97 823e 02e3 37be 17ea 49bd d23c 193e
00000220: 895f 313e b88a 31bd f60b 87bd 9776 6a3e
00000230: 2fde 79be 6f0f 2e3e 0a80 27be bd19 c5bd
00000240: a7e4 673e 4d53 9cbe 18cd 86be 55cf 5d3e
00000250: a2cc 393e bffc 14bd 8fcd 1fbe 7aab 4d3e
00000260: baef d03d c1b6 a43e 71b2 eebe e95b ae3c
00000270: c83f e43c c405 3fbe 4af0 703f dc97 98b9
00000280: 733d 003f d26c c93c 931b b13d d691 e9bc
00000290: 36f4 a1be 7a28 56be 4448 a0be cc82 42be
000002a0: 5cdd 513e 250e 613d 8d57 03be 278e d7bf
000002b0: a7e9 c03e ed95 9d3e da11 863d fa4e 023f
000002c0: 187b 00be 621f 1dbe f29b 18be 24c9 20bd
000002d0: a6f1 d4be 3b26 f33e 067d 1a3d 5043 303e
000002e0: 20cb bfbe 059d 9e3d 8238 503d bb9b a0bd
000002f0: b21b 0b3e db73 a4bd 376c a83d 82aa b3be
00000300: 1b91 423e f7da 55bc 2b22 223e 1cd2 aa3e
00000310: b462 3b3e 1ea5 a23d 4ed1 383e 8368 663e
00000320: ad49 433d 1d99 9a3e 65ad 9f3d a9ed 6a3e
00000330: acab 843e f526 1b3e adfd 6d3e 05c6 9c3e
00000340: 0d0e bcbd dcd1 083d 7f94 a53e 51a0 533e
00000350: 33c3 9e3e 5ba4 733e a5e1 57be 97ef 35be
00000360: 002c 35be e115 453d c47b 423a 9e57 e53d
00000370: 0893 abbc 23fd acbe bcc1 193e 16d5 8f3e
00000380: f0f7 e2bd 6ed9 ae3e 5053 aa3d 9c8a a33e
00000390: e5e0 bebd 4f8b 67be c0ce b03d 75bf 99be
000003a0: 3ffa 5bbe 3d45 913e 5129 4c3e 8eca 98be
000003b0: c7eb 893e 561f 983c 78b9 5d3e 21c9 2bbe
000003c0: 8e94 41be 9d5b fabd 7e0b 013e 83dd 60be
000003d0: f692 a23d 46b2 c3bd 54af 813d 2187 b73d
000003e0: 3b63 333e f24e 62be ba5a 953e e7d6 0ebe
000003f0: 4faf df3d 6611 243e 3727 713e e2f4 0f3e

lstm.weight_hh_l0 f4 [256, 64]
0.23138154 -0.15537627 0.037114654 0.07107181 0.2520574 -0.11454077 -0.050028816 0.084815904
0.17002285 0.13019578 -0.009476278 -0.17323647 -0.19637059 0.101948 -0.12195086 0.26684666
0.20680879 -0.049988803 0.041401494 0.1496616 -0.07791407 0.08720325 -0.061141185 0.18635362
0.2801071 0.23347478 0.093490176 0.08685935 0.085888855 -0.3189282 0.059802853 0.13152844
0.04814409 0.07050765 0.08479718 -0.16846178 -0.04129144 -0.20784648 -0.11327567 -0.3192127
0.08198553 -0.1238289 0.08955961 -0.109793484 0.051590968 0.1761869 0.041166708 0.25585136
-0.2991296 -0.09313578 0.17196584 -0.33978826 0.056746915 0.19685517 0.11357331 -0.020772116
-0.10374898 0.38048616 -0.029771296 -0.118746065 0.13482206 -0.050190233 -0.14622699 -0.07758979
-0.052521836 -0.08878018 0.30831224 0.25869805 0.14897585 -0.1791914 0.09107061 0.08379291
0.15192 0.08643591 -0.12765218 0.07964448 -0.2137958 0.18358198 -0.13294034 -0.33783495
0.21593405 -0.036388222 -0.12921798 0.21523939 0.116136074 -0.103538096 -0.15948132 0.03727513
0.38725644 0.088331036 -0.0820339 0.11638892 0.23043434 -0.0044626184 0.038680084 0.17782581
0.015993338 0.17401236 0.06360633 -0.12546167 -0.023598224 -0.18651095 -0.1525825 0.07569771
0.18738684 -0.05650313 -0.116432704 0.098851755 0.010432824 0.15572526 0.21510282 -0.116384335
-0.24492855 -0.12968448 -0.038594514 -0.23560679 0.024113817 -0.026454672 0.27642462 0.15268086
-0.044982444 0.35897785 0.052038673 -0.17368954 0.15146701 -0.16956119 0.07977989 -0.08513352
0.1257429 0.07901358 0.11309847 0.22883356 0.15923254 -0.27103794 -0.24865717 0.22019254
0.21603788 -0.025881438 -0.074569605 0.11485055 -0.0863957 0.064486295 -0.14097577 0.09419443
0.15231958 -0.23198344 -0.020110598 0.21495351 0.05115747 0.067970864 -0.06298546 0.124136105
0.19612257 0.089131914 -0.023837889 0.29262695 -0.032374788 -0.39789668 0.12070876 0.0729926
-0.09860436 0.13070163 0.20250133 -0.12890328 0.0062684845 -0.15668523 -0.046291463 -0.39216417
0.17740373 -0.15255424 -0.041375782 -0.06398162 0.07093255 0.08703033 0.25470626 0.011483923
-0.047091294 0.008864732 -0.14748293 0.047683645 0.014043839 0.08286038 0.039947048 0.25452545
-0.042411663 0.23393388 -0.012303113 -0.5527175 -0.013070087 -0.13370289 0.076859966 -0.29463273
0.06994998 -0.22559781 -0.027979715 0.036214754 0.044113852 0.08158944 0.0071554324 -0.10273312
-0.06282062 -0.01749591 0.043619208 0.106029354 -0.008275161 0.030654956 0.07071851 0.101543434
0.0029716275 -0.08829344 -0.14902437 0.029715708 0.05103316 0.023352122 -0.22537485 0.2916952
-0.049148124 0.13695657 0.030182028 0.08826379 0.12092587 -0.24519554 -0.024732733 -0.0070095505
0.07964494 -0.039443158 0.13110878 0.03962089 -0.05338869 -0.20362452 -0.114333555 -0.20453946
-0.048567705 0.044076584 -0.1104019 -0.029471189 0.23033662 -0.0442939 -0.15590042 0.33063757
-0.0029201834 -0.000588535 0.077489525 -0.13179666 -0.08956512 0.07513533 0.040090747 0.12529142
-0.09054947 0.13526872 0.103981055 -0.09841874 0.10841775 -0.028486753 -0.11868137 -0.0162463
00000000: 48ef 6c3e f51a 1fbe 8905 183d 198e 913d
00000010: ab0d 813e 5a94 eabd 04eb 4cbd f6b3 ad3d
00000020: 781a 2e3e 0b52 053e 6442 1bbc e764 31be
00000030: 5f15 49be 1dca d03d 5fc1 f9bd 20a0 883e
00000040: afc5 533e 0fc1 4cbd 9d94 293d e440 193e
00000050: 6991 9fbd 9e97 b23d 2e6f 7abd 7cd3 3e3e
00000060: 336a 8f3e 0314 6f3e c777 bf3d 51e3 b13d
00000070: 7fe6 af3d 8f4a a3be d6f3 743d 64af 063e
00000080: bd32 453d 5166 903d 25aa ad3d 3f81 2cbe
00000090: 3721 29bd b5d5 54be 13fd e7bd d96f a3be
000000a0: 08e8 a73d 029a fdbd 076b b73d 68db e0bd
000000b0: 0d51 533d 576a 343e 6c9e 283d f3fe 823e
000000c0: 8427 99be f9bd bebd d017 303e baf8 adbe
000000d0: 746f 683d 6794 493e 2099 e83d 492a aabc
000000e0: 587a d4bd 15cf c23e efe2 f3bc 2331 f3bd
000000f0: cb0e 0a3e 4694 4dbd 87bc 15be 65e7 9ebd
00000100: 2321 57bd 62d2 b5bd 1adb 9d3e 1274 843e
00000110: 208d 183e f37d 37be 3a83 ba3d 9e9b ab3d
00000120: eb90 1b3e 4f05 b13d 41b7 02be a51c a33d
00000130: 49ed 5abe eafc 3b3e 8321 08be b4f8 acbe
00000140: d11d 5d3e d10b 15bd b851 04be b767 5c3e
00000150: c0d8 ed3d c80b d4bd 124f 23be cfad 183d
00000160: 7a46 c63e e7e6 b43d 6401 a8bd 505d ee3d
00000170: fbf6 6b3e 283b 92bb 026f 1e3d f817 363e
00000180: 7604 833c 4c30 323e 0944 823d 0679 00be
00000190: 1051 c1bc bafc 3ebe 963e 1cbe 6707 9b3d
000001a0: 56e2 3f3e d36f 67bd 4574 eebd ca72 ca3d
000001b0: 6fee 2a3c 7176 1f3e ea43 5c3e e95a eebd
000001c0: 8dce 7abe 02cc 04be 4815 1ebd e842 71be
000001d0: 578a c53c 78b7 d8bc 8787 8d3e 5f58 1c3e
000001e0: 833f 38bd f2cb b73e 8126 553d acdb 31be
000001f0: 2b1a 1b3e 73a1 2dbe a463 a33d 7c5a aebd
00000200: bfc2 003e dfd1 a13d 2ca0 e73d 5853 6a3e
00000210: db0d 233e 7cc5 8abe fc9f 7ebe 277a 613e
00000220: 0939 5d3e 4f05 d4bc f3b7 98bd c436 eb3d
00000230: 3bf0 b0bd 6411 843d f45b 10be 02e9 c03d
00000240: aaf9 1b3e 118d 6dbe fbbe a4bc c61c 5c3e
00000250: 7f8a 513d 4f34 8b3d 85fe 80bd 123b fe3d
00000260: 5bd4 483e cb8a b63d ad47 c3bc 33d3 953e
00000270: 6d9b 04bd 1db9 cbbe 2836 f73d 257d 953d
00000280: 15f1 c9bd a6d6 053e 825c 4f3e 39ff 03be
00000290: dc67 cd3b 1872 20be 1e9c 3dbd bec9 c8be
000002a0: 53a9 353e 2e37 1cbe a779 29bd cc08 83bd
000002b0: 1645 913d f53c b23d dc68 823e 1027 3c3c
000002c0: cde2 40bd 623d 113c c405 17be ed4f 433d
000002d0: 2118 663c b4b2 a93d 849f 233d 2951 823e
000002e0: dab7 2dbd 5d8c 6f3e ff92 49bc e57e 0dbf
000002f0: eb23 56bc 69e9 08be c268 9d3d 1ada 96be
00000300: ef41 8f3d 1d03 67be b735 e5bc ec55 143d
00000310: bab0 343d 5d18 a73d 1e78 ea3b be65 d2bd
00000320: 19a8 80bd 9553 8fbc 0eaa 323d eb25 d93d
00000330: 8a94 07bc 1a20 fb3c ded4 903d 01f6 cf3d
00000340: a3bf 423b 31d3 b4bd d899 18be 5b6e f33c
00000350: 2608 513d f34c bf3c aac8 66be 1359 953e
00000360: 8b4f 49bd 583e 0c3e 4d40 f73c a5c3 b43d
00000370: fca7 f73d 8a14 7bbe 4d9c cabc 5fb0 e5bb
00000380: e31c a33d 268f 21bd 6141 063e 8449 223d
00000390: 19ae 5abd f282 50be b627 eabd cb72 51be
000003a0: eeee 46bd a689 343d 641a e2bd 906d f1bc
000003b0: 5ddd 6b3e 856d 35bd 5ca4 1fbe 5449 a93e
000003c0: 8c60 3fbb ea47 1aba d4b2 9e3d b4f5 06be
000003d0: eb6d b7bd 8de0 993d 3236 243d 654c 003e
000003e0: 0072 b9bd e283 0a3e 05f4 d43d c48f c9bd
000003f0: 200a de3d 0d5d e9bc 380f f3bd f616 85bc

lstm.bias_ih_l0 f4 [256]
0.11420208 0.085096344 0.044845913 -0.08450643 0.19847411 -0.009565216 0.18421431 0.0024218776
0.24811694 0.18868415 -0.12220841 0.2230368 0.0348137 0.1201317 0.111909986 0.14296074
0.18009967 0.156983 0.186214 -0.023174535 -0.07249352 0.04006768 0.10286127 0.09289124
0.13778661 0.17699535 0.05327022 0.07467372 -0.019497076 0.24504274 0.27970102 -0.11018558
-0.030881798 0.12156481 0.04202347 -0.10904203 0.15872304 -0.0857754 0.008578086 -0.082831256
0.1237127 -0.02858582 -0.04797259 0.6707591 0.046740986 0.26723295 0.027908092 0.10365484
-0.041176584 0.068260916 -0.027644232 -0.12243765 -0.12349931 0.2988622 0.09071778 0.03859576
0.18845648 -0.051066004 0.05312971 0.079251975 -0.026091477 0.11609811 -0.24530396 0.03034417
-0.05498986 0.14283533 -0.07981602 0.11703649 0.07467016 0.08398249 0.09407456 0.105493955
0.08628471 0.091667436 -0.14514938 0.13895503 0.04686941 0.06454978 0.006820541 -0.0901168
0.056351412 -0.01803985 -0.0996977 -0.112705946 0.044332877 0.07788341 -0.10913256 -0.0046646185
0.20328218 0.11999288 0.09399721 0.01703888 0.20927949 0.08834314 -0.17380525 0.071560554
-0.06871407 0.02701435 -0.03975352 0.019285373 0.03322269 -0.13608114 -0.039020464 0.007142682
-0.094149575 0.0031882592 0.12713239 -0.25765088 -0.11451366 0.18860886 0.09824357 0.10126033
0.06952885 0.018859461 -0.010401996 -0.08345334 -0.10962694 0.102783166 0.08769891 0.011928777
0.09785316 0.13365115 -0.2108127 0.122369625 0.026549814 0.047681987 0.07688142 0.16175151
0.025846196 0.19637941 -0.083151825 -0.20920484 0.1283899 0.119891346 -0.19261725 0.2354313
0.23233859 0.13100374 -0.0808559 -0.038289018 0.19790459 -0.0012162044 -0.044392936 0.09835272
0.23044078 -0.1429946 0.06886935 0.03555298 0.028532866 0.16660972 -0.072662294 -0.08746791
-0.06737826 0.117574394 0.07698034 0.098136514 -0.032004427 -0.29010543 0.13288811 0.011131893
-0.23822686 -0.1672641 0.14432703 0.02661096 0.0368859 -0.005087309 -0.08767008 0.075717345
-0.0003914066 -0.08738217 -0.081988096 0.102706425 -0.00087417325 0.09856027 0.063853234 -0.20715584
-0.016122617 -0.020858282 0.021407045 0.048814714 0.16343047 0.2752243 -0.058271967 -0.13969947
-0.10683401 0.01809872 0.18188354 0.066977516 -0.17028347 -0.058696195 -0.059780993 -0.13781679
0.31635666 -0.038273912 -0.02838878 -0.1885697 0.22282271 0.078756236 0.12286132 -0.109776996
0.054486316 -0.006422761 0.14669293 -0.005540889 0.18041334 -0.05053132 0.08691227 0.09576768
0.09611654 0.020902427 0.20509093 -0.04429609 0.037937928 0.041311692 0.07164337 0.07018764
0.044357244 0.020862903 0.19457611 0.02565647 0.13399597 0.34459385 0.31725344 -0.1375742
0.15992059 -0.13645706 0.12332619 -0.10850313 0.10877252 0.14578214 0.1341326 0.28562084
0.16985327 0.001981209 0.088548996 0.46985912 0.14841664 0.11235008 -0.046889674 0.15299629
0.13797985 0.12740389 0.17436923 0.03552457 0.22386342 0.22682396 0.22076097 0.29651442
0.16459899 0.08156284 0.03663692 0.18979877 -0.065221064 0.04389475 -0.21185252 0.283768
00000000: c8e2 e93d fe46 ae3d 59b0 373d b511 adbd
00000010: cc3c 4b3e 6cb7 1cbc ada2 3c3e 5db8 1e3b
00000020: 5e12 7e3e 6b36 413e 6748 fabd c263 643e
00000030: cf98 0e3d 9c07 f63d 1031 e53d 4d64 123e
00000040: 0c6c 383e 27c0 203e e2ae 3e3e 86d8 bdbc
00000050: 7c77 94bd 021e 243d eea8 d23d c33d be3d
00000060: ef17 0d3e 453e 353e e031 5a3d 89ee 983d
00000070: 55b8 9fbc 7cec 7a3e f934 8f3e faa8 e1bd
00000080: d3fb fcbc f9f6 f83d cd20 2c3d 6e51 dfbd
00000090: 4b88 223e 03ab afbd 1a8b 0c3c 6fa3 a9bd
000000a0: 165d fd3d cf2c eabc e87e 44bd deb6 2b3f
000000b0: 7a73 3f3d c2d2 883e 839f e43c fd48 d43d
000000c0: c7a8 28bd 61cc 8b3d 2876 e2bc 97c0 fabd
000000d0: 35ed fcbd 7704 993e 3eca b93d 9616 1e3d
000000e0: bcfa 403e 962a 51bd 8a9e 593d dc4e a23d
000000f0: cbbd d5bc d9c4 ed3d f630 7bbe 5694 f83c
00000100: 0c3d 61bd 6d43 123e 9576 a3bd d4b0 ef3d
00000110: abec 983d 03ff ab3d 2aaa c03d 370d d83d
00000120: 0ab6 b03d 23bc bb3d 0aa2 14be 3a4a 0e3e
00000130: 23fa 3f3d ad32 843d d87e df3b 288f b8bd
00000140: bdd0 663d 4fc8 93bc 4f2e ccbd 60d2 e6bd
00000150: 6496 353d 5681 9f3d e480 dfbd a8d9 98bb
00000160: 3429 503e d4be f53d 9c81 c03d 1f95 8b3c
00000170: 5d4d 563e 40ed b43d 01fa 31be 578e 923d
00000180: f6b9 8cbd 334d dd3c 96d4 22bd 5cfc 9d3c
00000190: 8414 083d db58 0bbe ecd3 1fbd 290d ea3b
000001a0: 7ed1 c0bd 1df2 503b fe2e 023e d1ea 83be
000001b0: 2386 eabd ae22 413e ed33 c93d 9361 cf3d
000001c0: 2465 8e3d 287f 9a3c 226d 2abc 96e9 aabd
000001d0: 1784 e0bd fb7f d23d 7c9b b33d eb70 433c
000001e0: 3d67 c83d d9db 083e 49df 57be ed9c fa3d
000001f0: ff7e d93c 304e 433d 0274 9d3d 30a2 253e
00000200: 67bb d33c af17 493e 814b aabd cb39 56be
00000210: a478 033e 9889 f53d 753d 45be e714 713e
00000220: 2bea 6d3e d825 063e c797 a5bd f2d4 1cbd
00000230: 80a7 4a3e 0c69 9fba 5ed5 35bd 276d c93d
00000240: abf8 6b3e 2d6d 12be 600b 8d3d 00a0 113d
00000250: c2bd e93c bd9b 2a3e f8cf 94bd 6022 b3bd
00000260: 9dfd 89bd d8ca f03d dea7 9d3d ccfb c83d
00000270: 1317 03bd b388 94be d213 083e 8b62 363c
00000280: bef1 73be 4847 2bbe 77ca 133e 3aff d93c
00000290: ab15 173d 71b3 a6bb 5f8c b3bd b211 9b3d
000002a0: b435 cdb9 6cf5 b2bd 60e9 a7bd bf57 d23d
000002b0: c628 65ba f8d9 c93d 7cc5 823d a920 54be
000002c0: 9413 84bc fdde aabc d45d af3c f0f1 473d
000002d0: 515a 273e 33ea 8c3e 96ae 6ebd 610d 0fbe
000002e0: cacb dabd c443 943c ae3f 3a3e 822b 893d
000002f0: ca5e 2ebe 6c6b 70bd eadc 74bd d81f 0dbe
00000300: 80f9 a13e 1bc5 1cbd 968f e8bc 6a18 41be
00000310: a32b 643e f34a a13d b79e fb3d c3d2 e0bd
00000320: 0b2d 5f3d 0676 d2bb ac36 163e 5990 b5bb
00000330: 46be 383e eef9 4ebd 0fff b13d d821 c43d
00000340: c0d8 c43d 913b ab3c 5b03 523e d16f 35bd
00000350: cd64 1b3d 7336 293d c2b9 923d 8abe 8f3d
00000360: f1af 353d aee8 aa3c f63e 473e 842d d23c
00000370: 3d36 093e 9b6e b03e 0b6f a23e 40e0 0cbe
00000380: 39c2 233e 66bb 0bbe 7192 fc3d e436 debd
00000390: 21c4 de3d ea47 153e 0e5a 093e e53c 923e
000003a0: 04ee 2d3e 2cd7 013b 2d59 b53d 6091 f03e
000003b0: 88fa 173e cc17 e63d 630f 40bd 0fab 1c3e
000003c0: 974a 0d3e 2a76 023e d98d 323e 3682 113d
000003d0: 743c 653e 8a44 683e 2a0f 623e bdd0 973e
000003e0: a38c 283e 6b0a a73d 9810 163d 9c5a 423e
000003f0: 9f92 85bd fbca 333d deef 58be 0a4a 913e

lstm.bias_hh_l0 f4 [256]
0.19392015 0.07295915 0.058531422 0.071145065 0.1461939 0.04867257 0.009956957 0.08344743
0.087607525 0.21821253 0.0240937 0.17989022 0.16992228 -0.005515316 0.113441594 0.15250717
0.10795273 0.031143567 0.10399696 0.07279661 -0.021999177 0.06547895 0.038969927 -0.0036176187
0.12592997 0.10070581 -0.02385273 0.09857442 -0.028383184 0.28632927 0.23064642 0.09030501
0.10666547 0.059903376 0.055681158 -0.011719928 0.23094586 -0.072337374 0.036397293 -0.13325211
0.03247174 -0.0018771966 0.061625462 0.5919872 0.11177405 0.24488509 0.062043082 0.09541007
-0.093199134 -0.05850651 -0.06926958 -0.05009762 -0.020697664 0.48465157 -0.046322204 0.07040875
0.16970113 0.027672553 0.23839684 0.09784023 0.12288135 0.10198695 -0.1373712 0.039952967
-0.065774724 0.022281313 -0.031651232 0.14781992 -0.033235647 0.11350229 0.044541337 0.13292596
0.21721447 0.00506433 -0.11371419 0.07115518 -0.0006968682 0.18766151 -0.088608086 -0.13833196
0.07926884 0.0053651757 -0.098181225 -0.0046935603 -0.0032492247 0.089207895 -0.014665552 0.098255575
0.026598604 0.072385035 0.106177956 -0.08266337 0.19320187 0.06283541 -0.02697841 0.15729012
-0.11732451 -0.14969659 0.050405275 -0.009556647 -0.12731397 0.0017350165 -0.12719023 -0.070041955
-0.05453053 -0.0117051285 0.092855744 -0.23797508 -0.01969162 0.05479415 0.012818451 -0.045283858
0.035100557 -1.7223054e-05 0.046513315 -0.008845579 -0.015046064 0.057125084 -0.03535836 -0.016259545
0.08471889 -0.07494271 0.014173155 -0.016161546 0.09114555 0.10821593 -0.064406104 0.109971344
-0.10191374 0.119404316 -0.15537179 -0.196192 0.16429876 -0.057707418 -0.1369258 0.2117368
0.08957282 0.04270841 -0.050922208 -0.12512386 0.015264711 -0.05595936 0.11170875 0.17978568
0.24130379 -0.12388039 -0.0084303925 -0.108093895 -0.13157766 0.19784719 0.093905434 -0.055291563
0.00045335252 0.22498836 0.07727036 0.14122301 -0.019296117 -0.13819286 -0.03285013 0.016211504
-0.12436647 -0.2130462 0.14261714 -0.04995644 0.16251163 0.11795282 -0.07384366 -0.08243685
-0.0251613 -0.13799079 -0.09554408 0.099662796 -0.03731841 0.13356464 0.050692473 0.018324645
0.099779285 -0.061618283 0.07420541 -0.028468827 0.18158838 0.25928706 -0.22292158 -0.12740934
0.044523224 0.013311166 0.036717378 0.09974791 -0.1027298 -0.032682292 -0.0704202 -0.0053529893
0.3195352 0.10741868 -0.0909374 -0.038072634 0.20371571 0.061561216 0.32366225 -0.051642597
0.09698115 -0.026334226 0.05785339 -0.07416089 0.1334043 0.114135005 0.06502832 0.031426642
0.078479856 0.16360518 0.25679994 0.10167442 0.0060119736 -0.013350728 0.20345539 0.15064014
0.060876664 -0.048592478 0.18633707 0.09039127 -0.045726508 0.21705046 0.25156313 -0.035693448
0.11309348 -0.0018083755 0.036315486 -0.007016892 0.090400435 0.030586718 0.1482328 0.2863529
0.071807675 -0.031578034 -0.05974582 0.38877985 0.13052139 0.03155402 -0.14730203 0.27509883
0.07918337 0.008306585 0.105315305 0.14797755 0.055488307 0.18209162 0.051831305 0.24612498
0.17941351 -0.014080713 -0.009001954 0.13469955 -0.021184018 0.12791409 -0.011748184 0.22054031
00000000: 0193 463e 9b6b 953d a5be 6f3d 81b4 913d
00000010: dbb3 153e e45c 473d 8122 233c 7ce6 aa3d
00000020: 936b b33d 1b73 5f3e 2760 c53c 2435 383e
00000030: 1b00 2e3e d3b9 b4bb 1154 e83d d72a 1c3e
00000040: 5216 dd3d cb20 ff3c 5cfc d43d 6416 953d
00000050: 9e37 b4bc d419 863d ee9e 1f3d 9215 6dbb
00000060: c9f3 003e d93e ce3d cd66 c3bc 63e1 c93d
00000070: da83 e8bc c099 923e 932e 6c3e d5f1 b83d
00000080: 6d73 da3d 3e5d 753d ed11 643d f104 40bc
00000090: 127d 6c3e 9e25 94bd 5415 153d 3e73 08be
000000a0: 1601 053d 440c f6ba fb6a 7c3d 798c 173f
000000b0: cbe9 e43d 28c3 7a3e e320 7e3d 5b66 c33d
000000c0: 30df bebd 86a4 6fbd 36dd 8dbd 2933 4dbd
000000d0: 268e a9bc 4024 f83e 5abc 3dbd 7632 903d
000000e0: 22c6 2d3e 8db1 e23c 4d1e 743e 7560 c83d
000000f0: 38a9 fb3d 89de d03d 09ab 0cbe b9a5 233d
00000100: e6b4 86bd 4d87 b63c b9a4 01bd 1b5e 173e
00000110: 1a22 08bd e373 e83d fa70 363d be1d 083e
00000120: 786d 5e3e aef2 a53b fce2 e8bd cfb9 913d
00000130: 09ae 36ba 572a 403e 2878 b5bd e5a6 0dbe
00000140: b457 a23d 5bce af3b 3d13 c9bd 70cc 99bb
00000150: f2f0 54bb a1b2 b63d c947 70bc 383a c93d
00000160: 51e5 d93c 9b3e 943d d473 d93d 6a4b a9bd
00000170: b6d6 453e daaf 803d d401 ddbc a910 213e
00000180: d547 f0bd 104a 19be c375 4e3d 7c93 1cbc
00000190: 985e 02be 7e69 e33a 283e 02be 2872 8fbd
000001a0: 685b 5fbd dec6 3fbc 272b be3d bdaf 73be
000001b0: 5250 a1bc d56f 603d 7b04 523c 917b 39bd
000001c0: 9ac5 0f3d 3a7a 90b7 bf84 3e3d 0ced 10bc
000001d0: c483 76bc fefb 693d edd3 10bd bd32 85bc
000001e0: 1981 ad3d 907b 99bd 8536 683c 3865 84bc
000001f0: 85aa ba3d 50a0 dd3d 59e7 83bd a838 e13d
00000200: 27b8 d0bd 408a f43d c819 1fbe 8ee6 48be
00000210: ef3d 283e 9d5e 6cbd 4736 0cbe 88d1 583e
00000220: f471 b73d 04ef 2e3d ce93 50bd 7820 00be
00000230: d718 7a3c a435 65bd 8fc7 e43d bd19 383e
00000240: 5718 773e 00b5 fdbd a11f 0abc 5560 ddbd
00000250: 4bbc 06be 7498 4a3e 7e51 c03d 6879 62bd
00000260: f2af ed39 5963 663e ec3f 9e3d c49c 103e
00000270: e412 9ebc 6e82 0dbe dc8d 06bd fdcd 843c
00000280: d9b3 febd c828 5abe 3a0a 123e 209f 4cbd
00000290: 7369 263e 4091 f13d 583b 97bd a7d4 a8bd
000002a0: 121f cebc 754d 0dbe 9dac c3bd 021c cc3d
000002b0: 30db 18bd 2bc5 083e e9a2 4f3d 911d 963c
000002c0: 1559 cc3d 7463 7cbd 02f9 973d 7537 e9bc
000002d0: 4ef2 393e 46c1 843e 8e45 64be 9877 02be
000002e0: fc5d 363d 1417 5a3c f664 163d a248 cc3d
000002f0: 0064 d2bd dedd 05bd 7738 90bd 2168 afbb
00000300: 1e9a a33e 53fe db3d 633d babd 0df2 1bbd
00000310: da9a 503e 9d27 7c3d 0fb7 a53e 3087 53bd
00000320: 0e9e c63d e0ba d7bc adf7 6c3d aae1 97bd
00000330: 239b 083e 9dbf e93d 912d 853d 39b9 003d
00000340: 0cba a03d 1e88 273e 487b 833e ae3a d03d
00000350: 1700 c53b 03bd 5abc 9c56 503e 6941 1a3e
00000360: cf59 793d e808 47bd 25cf 3e3e 0f1f b93d
00000370: b84b 3bbd 7a42 5e3e e2cc 803e 4b33 12bd
00000380: 8e9d e73d 0307 edba 8cbf 143d f5ed e5bb
00000390: dd23 b93d ff90 fa3c 57ca 173e d99c 923e
000003a0: e70f 933d f857 01bd 08b8 74bd 270e c73e
000003b0: 66a7 053e ca3e 013d 58d6 16be c1d9 8c3e
000003c0: e42a a23d 5818 083c 8daf d73d 6d87 173e
000003d0: b547 633d 3a76 3a3e 104d 543d 3008 7c3e
000003e0: 2db8 373e cab2 66bc ef7c 13bc aeee 093e
000003f0: 1b8a adbc e9fb 023e 757b 40bc 52d5 613e

lstm.weight_ih_l1 f4 [256, 64]
-0.022828279 -0.08795558 -0.07725688 -0.08737281 0.06560668 -0.057363644 -0.05543874 -0.0016686448
0.012660895 0.18804812 -0.053051163 -0.062121827 -0.14404981 -0.040792704 0.033097744 0.02329435
-0.008927756 0.00960383 -0.05866269 0.16473058 0.026351145 0.13158244 0.07971808 0.14279684
0.02869428 0.036265936 -0.15121062 0.0020260788 -0.14149357 -0.09382156 0.11007308 -0.111637846
-0.1157916 0.061891083 -0.065420054 0.04553875 0.062551 -0.12240774 -0.103561535 -0.026600724
0.017656218 -0.16824782 0.093961075 -0.2550307 0.045479465 0.0700517 0.09660321 0.07425955
0.060872152 -0.14151403 -0.017024074 0.09824278 -0.014392178 0.10749334 -0.06286841 0.055284325
0.057032432 -0.0058068736 -0.12747397 0.032837994 -0.088327385 -0.068252265 -0.27321562 -0.14839351
-0.13140048 -0.0021474715 0.05372081 -0.04441675 -0.023637425 -0.046997655 -0.010953334 -0.064943954
0.014772476 0.15181105 0.15832253 0.054877095 0.10945507 -0.08983608 -0.029445684 0.305548
-0.06990517 0.098179474 0.06851076 -0.013525741 -0.046933036 0.10392798 0.07591993 0.15582128
0.15126945 0.10300428 -0.25279728 -0.090096466 0.12868387 -0.03390247 0.038142085 -0.00011281963
-0.20821097 0.14880688 -0.039915703 0.070295624 0.016462034 0.10940152 0.08160175 0.23908082
-0.110356495 -0.09715002 0.05514056 -0.123711616 -0.020862086 0.09462946 0.015157842 -0.015673107
-0.005442316 -0.093023896 0.2168307 -0.07232032 0.10799933 -0.013902747 -0.043855045 0.1237169
-0.15340596 0.032747798 -0.074396886 -0.18552074 -0.0212014 0.05521498 -0.01994022 -0.14297459
0.04231502 -0.25738785 0.012536873 -0.150849 0.13593577 0.12361378 -0.002297244 0.044018213
0.03342394 0.5721119 0.015119469 0.07905364 -0.19529216 -0.030081129 -0.16273582 0.85667664
0.13874276 0.012227819 -0.03168218 0.10397672 -0.0003256677 0.018036168 -0.030295704 0.13771051
0.13084202 0.17930973 -0.24367969 -0.12623546 0.031165741 0.11681625 0.032369718 -0.029502051
-0.18587719 -0.05536564 -0.098364204 -0.03183269 -0.100455366 -0.30009598 -0.060131107 -0.23657267
0.04945634 0.058517653 -0.009642697 0.15024674 0.34155834 -0.004414587 -0.036025934 -0.13789749
0.039536424 -0.17019908 0.018194232 -0.15562457 -0.117352895 0.10158278 -0.017776195 0.123037376
-0.09435074 0.0023057698 -0.028791042 -0.2859846 0.12276979 0.11589414 -0.26283097 -0.13835128
0.17232937 0.079206556 -0.14612393 -0.032096427 0.23510668 0.046844106 0.08657695 0.08277146
-0.06669709 0.14027998 -0.29560003 -0.08145572 0.13615422 -0.0016278864 0.0067625153 0.11435464
0.03286224 0.010792778 -0.042456493 0.018047933 -0.16111447 0.09177218 -0.14749928 0.0073533226
0.1829046 0.003437642 0.18580033 -0.17722028 0.032424062 -0.33317629 0.07576929 0.077200614
-0.01609585 -0.16602507 -0.12342982 -0.04866495 -0.057052065 -0.043236185 0.03473704 -0.114594005
0.013330326 0.14340273 -0.1764791 -0.47005504 -0.105251685 0.055705976 0.12802713 0.07433585
-0.14943127 -0.17412435 -0.0044109873 -0.16030933 -0.12449425 0.025768062 -0.07999084 -0.2030746
-0.04899264 -0.015422584 0.00062042027 0.025746696 -0.036720086 0.07141145 -0.11991851 -0.112704985
00000000: 5f02 bbbc 0e22 b4bd db38 9ebd 84f0 b2bd
00000010: cc5c 863d 24f6 6abd bb13 63bd 6eb6 daba
00000020: a46f 4f3c b08f 403e 2d4c 59bd 7573 7ebd
00000030: cb81 13be 4016 27bd 8091 073d cbd3 be3c
00000040: b945 12bc 6259 1d3c 4a48 70bd 22af 283e
00000050: 5bde d73c 8cbd 063e 3c43 a33d 5639 123e
00000060: 4410 eb3c 978b 143d f5d6 1abe f6c7 043b
00000070: b1e3 10be 8525 c0bd ff6d e13d 62a2 e4bd
00000080: 2524 edbd 8181 7d3d f3fa 85bd d786 3a3d
00000090: bd1a 803d e9b0 fabd 1218 d4bd c3e9 d9bc
000000a0: c6a3 903c 2849 2cbe aa6e c03d 6293 82be
000000b0: ad48 3a3d 4477 8f3d e7d7 c53d 6415 983d
000000c0: 1455 793d 0ee9 10be 1276 8bbc 8333 c93d
000000d0: 2bcd 6bbc 7825 dc3d 27c1 80bd d171 623d
000000e0: d79a 693d 9647 bebb 8988 02be 2281 063d
000000f0: fde4 b4bd d8c7 8bbd ebe2 8bbe 78f4 17be
00000100: d98d 06be 98bc 0cbb 5a0a 5c3d 57ee 35bd
00000110: 46a3 c1bc 9d80 40bd 9d75 33bc 5601 85bd
00000120: 4108 723c 5b74 1b3e 4d1f 223e cec6 603d
00000130: fb29 e03d fbfb b7bd 1338 f1bc ca70 9c3e
00000140: 712a 8fbd 5212 c93d 5f4f 8c3d 129b 5dbc
00000150: db3c 40bd 31d8 d43d e97b 9b3d 9d8f 1f3e
00000160: 61e6 1a3e e8f3 d23d a56e 81be 7f84 b8bd
00000170: b4c5 033e 51dd 0abd e03a 1c3d 9499 ecb8
00000180: 4235 55be d560 183e a67e 23bd 27f7 8f3d
00000190: 63db 863c e70d e03d d11e a73d 9ad1 743e
000001a0: 9602 e2bd 97f6 c6bd 11db 613d 845c fdbd
000001b0: f7e6 aabc 17cd c13d 9958 783c e364 80bc
000001c0: 7555 b2bb 5083 bebd de08 5e3e ad1c 94bd
000001d0: c12e dd3d 59c8 63bc 59a1 33bd 495f fd3d
000001e0: 7416 1dbe 8e22 063d 655d 98bd 26f9 3dbe
000001f0: 8fae adbc 1a29 623d ac59 a3bc ee67 12be
00000200: 8452 2d3d 57c8 83be 7567 4d3c 2978 1abe
00000210: bf32 0b3e 3929 fd3d 5c8d 16bb 714c 343d
00000220: 8be7 083d ed75 123f a6b7 773c e0e6 a13d
00000230: abfa 47be b36c f6bc 38a4 26be 294f 5b3f
00000240: 9512 0e3e 3157 483c 2cc5 01bd bff1 d43d
00000250: 61be aab9 96c0 933c b22e f8bc fc03 0d3e
00000260: 73fb 053e f89c 373e 2b87 79be de43 01be
00000270: 4c4f ff3c 5c3d ef3d 1c96 043d 49ae f1bc
00000280: 9756 3ebe 15c7 62bd 2c73 c9bd ff62 02bd
00000290: 8bbb cdbd 2ea6 99be 094c 76bd 1b40 72be
000002a0: bb92 4a3d 35b0 6f3d 67fc 1dbc 48da 193e
000002b0: bce0 ae3e 3da8 90bb ee8f 13bd 0035 0dbe
000002c0: f2f0 213d ab48 2ebe 120c 953c 0c5c 1fbe
000002d0: b756 f0bd a20a d03d 629f 91bc 05fb fb3d
000002e0: f63a c1bd 661c 173b 31db ebbc 936c 92be
000002f0: ba6e fb3d e859 ed3d c891 86be f5ab 0dbe
00000300: 1c77 303e 0c37 a23d 83a1 15be 8b77 03bd
00000310: cebf 703e 9bdf 3f3d 424f b13d 1584 a93d
00000320: 7c98 88bd 8ea5 0f3e e358 97be 42d2 a6bd
00000330: 036c 0b3e ce5e d5ba 1798 dd3b c432 ea3d
00000340: 8e9a 063d 31d4 303c dce6 2dbd 42d9 933c
00000350: 31fb 24be 0df3 bb3d 0d0a 17be 24f4 f03b
00000360: 584b 3b3e 104a 613b 7142 3e3e 3c79 35be
00000370: 18cf 043d 1596 aabe ee2c 9b3d 5b1b 9e3d
00000380: 72db 83bc 7a02 2abe c6c8 fcbd e654 47bd
00000390: 6daf 69bd 6d18 31bd 6d48 0e3d 43b0 eabd
000003a0: 7167 5a3c 2ad8 123e f0b6 34be 0eab f0be
000003b0: 328e d7bd f32b 643d 8b19 033e 653d 983d
000003c0: 8304 19be a74d 32be 0b8a 90bb 2128 24be
000003d0: d7f6 febd 8b17 d33c 3dd2 a3bd caf2 4fbe
000003e0: 82ac 48bd 01af 7cbc b3a3 223a bcea d23c
000003f0: cd67 16bd 2b40 923d d697 f5bd dfd1 e6bd

lstm.weight_hh_l1 f4 [256, 64]
0.06556307 -0.040399197 0.12391994 0.11953124 0.03420711 0.034089595 -0.045544505 -0.19741362
-0.072689764 0.003651295 -0.069338545 -0.15093827 -0.07404952 0.06284297 0.045040306 -0.4191013
0.10473022 -0.043859396 -0.022386875 -0.18542838 -0.046769492 0.17983401 -0.005993108 0.0331438
-0.10212246 0.073602006 -0.039500345 0.039231945 -0.059636623 -0.09043545 0.0998373 -0.08073444
-0.012159692 -0.06836578 -0.17030992 -0.2548401 0.010619811 -0.042340916 0.08427976 0.17134765
0.010148254 0.08122247 -0.009751197 0.05574063 0.08536992 -0.17032163 0.05452058 0.13178802
0.004734659 -0.06106414 0.09728536 0.034947228 -0.051427007 0.021183932 0.10376178 0.039993554
-0.016540768 0.03370071 0.031788416 0.022745851 0.07669238 -0.033989128 -0.19071835 0.055606388
-0.1896187 0.06609986 0.1684045 -0.055397764 -0.2655463 0.06786063 -0.01807706 -0.10297487
-0.07749325 -0.05342368 0.014326312 -0.040050864 -0.06224154 -0.14517908 0.29910234 0.12961061
0.11631839 -0.16589476 0.053389885 -0.13135883 -0.054471053 -0.036184225 -0.0829526 -0.08924418
-0.21076547 -0.1363891 -0.2194194 -0.17513774 -0.023640297 -0.02358052 -0.019225467 0.037004627
0.04842803 0.0005037004 0.009553026 -0.05420724 0.024403905 -0.15073584 -0.036136873 -0.016538318
-0.050188933 -0.055045996 -0.020378461 0.098356135 0.037176218 -0.15171964 0.097686365 0.18342045
-0.144108 0.15984398 0.17612219 0.061070595 -0.09145803 0.13165782 0.0925603 -0.10820434
0.009889369 -0.05985235 0.075761884 -0.13509561 0.029627427 0.14779857 0.05631203 -0.09659957
-0.18318187 0.0012206554 0.19245128 0.35326687 -0.22221702 0.27877012 -0.08488164 -0.16046111
-0.31435946 0.1623207 0.017877994 -0.19773933 0.14431828 0.028060991 0.04756864 0.17463817
0.31192276 -0.1453082 0.022111867 -0.524681 -0.16646989 0.283315 -0.027272763 0.137929
-0.2958978 -0.18952775 0.05025119 -0.06759438 -0.14882638 0.0075068483 0.2295803 -0.20441122
-0.10383961 0.089286305 -0.16242585 -0.051803056 -0.122758515 -0.34841955 -0.10264645 -0.2015291
0.047136772 0.009200594 0.07901311 0.10026537 0.31347644 -0.013154608 0.13609554 0.29603228
-0.32882565 0.20663002 0.041257862 0.31105715 -0.32032275 0.005033445 0.29386425 -0.15906808
-0.069345325 0.060938686 -0.1137681 -0.2139367 0.17691323 0.014667321 0.002983868 -0.16131642
0.14493825 0.18953884 0.0051435297 -0.16224658 -0.05427949 0.08790152 -0.1431435 -0.034968153
0.029018326 -0.017769441 -0.0081645725 -0.095464684 0.14288773 0.00663487 -0.06860933 -0.2543406
-0.14208625 -0.14937897 -0.072652735 -0.18280423 0.24541456 -0.15787062 0.045869697 0.008481291
0.0712127 -0.10214395 -0.09127821 0.07034472 -0.022226326 -0.11292346 0.017574232 0.0735441
-0.028471874 -0.112942144 0.06966755 0.07251375 -0.043264028 0.008615643 -0.063943654 0.24458532
0.0710432 -0.17952068 0.078300714 0.04348947 0.08777565 0.031593226 0.12176895 0.098528616
-0.10727793 -0.1238899 -0.121245354 0.024040744 0.2693047 0.10424213 -0.006502181 0.02137682
-0.16264261 -0.15239784 0.05161036 -0.017750315 -0.05897422 -0.22379489 -0.16387206 0.040748656
00000000: ee45 863d a179 25bd bdc9 fd3d cbcc f43d
00000010: c11c 0c3d 88a1 0b3d e08c 3abd cc26 4abe
00000020: 5fde 94bd 914a 6f3b 5e01 8ebd 908f 1abe
00000030: 46a7 97bd d1b3 803d 2f7c 383d 7294 d6be
00000040: cc7c d63d e9a5 33bd ae64 b7bc f0e0 3dbe
00000050: 5e91 3fbd 6826 383e d561 c4bb cbc1 073d
00000060: 9525 d1bd a6bc 963d 1dcb 21bd adb1 203d
00000070: 8845 74bd 3936 b9bd 8077 cc3d 1958 a5bd
00000080: 7239 47bc 5c03 8cbd b965 2ebe 677a 82be
00000090: b7fe 2d3c ab6d 2dbd de9a ac3d c275 2f3e
000000a0: dd44 263c f757 a63d 7cc3 1fbc 4950 643d
000000b0: 6dd6 ae3d cb68 2ebe f950 5f3d 70f3 063e
000000c0: 3325 9b3b 641e 7abd 8c3d c73d d324 0f3d
000000d0: 20a5 52bd ed89 ad3c 0e81 d43d 48d0 233d
000000e0: 8180 87bc c109 0a3d 9234 023d 8255 ba3c
000000f0: e510 9d3d 2f38 0bbd ac4b 43be 86c3 633d
00000100: 682b 42be 5d5f 873d 3b72 2c3e c4e8 62bd
00000110: aff5 87be 84fa 8a3d 5816 94bc 7de4 d2bd
00000120: c8b4 9ebd cad2 5abd e8b8 6a3c 600c 24bd
00000130: fcf0 7ebd d3a9 14be f123 993e a5b8 043e
00000140: 5638 ee3d 51e0 29be 5aaf 5a3d ee82 06be
00000150: 0a1d 5fbd e935 14bd 0ee3 a9bd a7c5 b6bd
00000160: e7d2 57be 96a9 0bbe 7baf 60be 4f57 33be
00000170: 4ca9 c1bc ef2b c1bc ba7e 9dbc 2a92 173d
00000180: 785c 463d c30a 043a 4c84 1c3c 6908 5ebd
00000190: b3ea c73c 7f5a 1abe 4204 14bd 5e7b 87bc
000001a0: e992 4dbd e977 61bd bbf0 a6bc f16e c93d
000001b0: 1746 183d 655c 1bbe ca0f c83d 92d2 3b3e
000001c0: 0c91 13be 24ae 233e 6059 343e 2925 7a3d
000001d0: 594e bbbd 4fd1 063e 4190 bd3d 3d9a ddbd
000001e0: 0507 223c bd27 75bd 0c29 9b3d 8156 0abe
000001f0: 38b5 f23c 8258 173e 71a7 663d ffd5 c5bd
00000200: 0794 3bbe 66fe 9f3a f311 453e 65df b43e
00000210: dc8c 63be f5ba 8e3e 6dd6 adbd eb4f 24be
00000220: b9f3 a0be 6637 263e df74 923c 2e7c 4abe
00000230: 2cc8 133e 2ae0 e53c 56d7 423d 59d4 323e
00000240: 57b4 9f3e accb 14be f223 b53c 7e51 06bf
00000250: 1577 2abe aa0e 913e 216b dfbc 433d 0d3e
00000260: eb7f 97be 9013 42be 31d4 4d3d ec6e 8abd
00000270: f165 18be 02fc f53b 1917 6b3e 2d51 51be
00000280: dda9 d4bd bddb b63d f652 26be 712f 54bd
00000290: d168 fbbd 0c64 b2be 4d38 d2bd a55d 4ebe
000002a0: 7d12 413d 17be 163c a0d1 a13d ee57 cd3d
000002b0: fc7f a03e 6d86 57bc a15c 0b3e 8b91 973e
000002c0: d65b a8be d296 533e 01fe 283d e242 9f3e
000002d0: 5801 a4be 99ef a43b 6075 963e bee2 22be
000002e0: ec04 8ebd d89a 793d 40ff e8bd 3912 5bbe
000002f0: be28 353e 344f 703c ff8c 433b 2230 25be
00000300: b16a 143e 7816 423e 0e8b a83b f823 26be
00000310: 2c54 5ebd b605 b43d 3694 12be c43a 0fbd
00000320: d7b7 ed3c 3891 91bc b3c4 05bc fd82 c3bd
00000330: 2951 123e 5369 d93b 0c83 8cbd ee38 82be
00000340: 0f7f 11be cdf6 18be f5ca 94bd 0831 3bbe
00000350: f44d 7b3e d6a8 21be dde1 3b3d 1df5 0a3c
00000360: f7d7 913d d930 d1bd 12f0 babd e410 903d
00000370: fc13 b6bc 6a44 e7bd d6f7 8f3c 4a9e 963d
00000380: d93d e9bc 364e e7bd dcad 8e3d 1782 943d
00000390: 9f35 31bd a028 0d3c e4f4 82bd 9374 7a3e
000003a0: 197f 913d 45d4 37be 205c a03d 0422 323d
000003b0: b8c3 b33d e667 013d 0062 f93d 5fc9 c93d
000003c0: 88b4 dbbd fdb9 fdbd 7c4f f8bd 18f1 c43c
000003d0: 4ee2 893e e67c d53d 3f10 d5bb 711e af3c
000003e0: c98b 26be 2e0e 1cbe 6365 533d 1c69 91bc
000003f0: f48e 71bd 7d2a 65be 14ce 27be 10e8 263d

lstm.bias_ih_l1 f4 [256]
-0.06464922 -0.028634124 -0.108414374 0.057334196 -0.022750251 0.048409197 0.10522836 -0.010059309
0.024118524 -0.092616074 -0.051390335 -0.073537655 -0.08744671 -0.0808298 0.115225986 -0.09829834
-0.0127592115 -0.052270666 -0.024471572 0.06634498 0.059439268 -0.00438261 -0.04015779 -0.07512066
0.010655466 -0.055663124 0.19624579 0.13919164 -0.04534341 -0.017957082 -0.07774871 0.056660537
0.04374898 0.003339475 0.06464926 0.032673795 0.048526686 0.012547592 0.04905343 0.0150941545
-0.030153196 0.035293955 0.013242436 -0.06491597 0.09265939 -0.1027629 -0.005125006 0.079346105
0.025888857 -0.05025226 -0.028549543 0.10065075 0.0493836 -0.10609868 0.08205418 0.04764509
0.20091875 -0.018581416 0.07654862 -0.004259168 0.17503303 0.0673357 0.28164917 0.044614486
-0.068087466 0.024151204 0.070127256 -0.045853764 -0.089005195 0.06757307 0.007047776 0.11346042
-0.031544432 0.0906635 0.06703361 -0.068813995 0.061623435 -0.004779815 0.109355494 0.102660134
0.038762398 0.13281284 0.045264967 -0.069056 0.04154541 0.12575653 0.13189474 0.039206617
0.14394662 0.12676524 -0.03983189 0.0037758506 0.12392472 0.10704357 0.017456448 0.053852566
0.12974958 0.10330461 0.14176998 0.019619495 0.0032128925 -0.02510386 0.11378445 -0.041164197
0.029264664 0.046213046 -0.0964109 -0.05745085 -0.008694819 -0.06901057 -0.0014356937 0.056766577
0.041066013 0.031022819 -0.09312086 0.11613772 0.074373074 -0.019609502 -0.061285913 -0.107413866
-0.02658913 0.073304884 -0.053853236 -0.024613135 0.028533582 0.049630333 -0.005000428 0.08222903
0.025004962 -0.064910606 -0.011687484 0.059954062 0.04349923 -0.00010748594 -0.10253534 -0.074198656
-0.07046231 0.0575216 -0.033119142 0.11958672 -0.11590392 0.06423169 -0.08583678 0.0105114365
-0.087944046 -0.0016100089 -0.035449587 -0.021754915 0.069520764 0.037698697 0.038929228 -0.045141738
0.063159764 0.10402201 0.10778866 0.053326517 -0.06256286 0.11778317 0.13222125 -0.097021826
0.018546145 -0.12913164 -0.07332497 0.13800085 -0.09131376 -0.0026641483 0.06161418 -0.0013128951
0.029924467 -0.14894308 0.044922385 0.026816977 -0.13201503 -0.08874326 -0.007523187 -0.029123645
0.043231137 0.04041105 -0.13863043 -0.033760987 0.13533495 0.006787544 -0.07307111 0.050060034
0.08449828 -0.009827362 -0.015676923 -0.029166892 0.09196401 -0.04352769 0.07323304 -0.0778625
0.16327718 0.04501923 0.07482015 -0.02557072 0.12982891 -0.019598834 -0.045546584 -0.07794105
-0.02566069 0.15474544 0.0060186596 0.10160895 -0.1563893 0.22229181 0.036258217 -0.04194551
0.07249783 0.11618793 0.07431373 0.06637605 0.109281436 0.07641626 0.0014591276 0.17345142
0.0058800755 0.16057582 0.16276117 0.16619821 0.083215825 -0.05359079 0.17449155 0.039429497
0.066864915 0.11744758 0.12169612 0.008760995 0.09872889 0.11856628 0.21507171 -0.023509251
0.090218134 0.14687257 -0.04724975 0.06082664 -0.07813619 0.00485819 -0.06389799 0.071604796
0.009778835 0.23689336 0.1752839 0.1731779 -0.115399495 0.010533642 -0.082004875 0.032310154
0.10528814 0.054171354 -0.13263515 0.04056322 -0.023277598 0.00053311477 0.110152505 -0.011504284
00000000: cf66 84bd 1c92 eabc 5b08 debd 43d7 6a3d
00000010: bc5e babc b948 463d f781 d73d cdcf 24bc
00000020: 3694 c53c 7fad bdbd ac7e 52bd e99a 96bd
00000030: 4317 b3bd 188a a5bd 9afb eb3d a450 c9bd
00000040: 030c 51bc c419 56bd 9b78 c8bc e0df 873d
00000050: 9776 733d ff9b 8fbb 7f7c 24bd dcd8 99bd
00000060: 4394 2e3c 04ff 63bd a8f4 483e 4188 0e3e
00000070: 03ba 39bd bb1a 93bc b73a 9fbd e114 683d
00000080: 2132 333d 18db 5a3b d566 843d f5d4 053d
00000090: ebc3 463d 6a94 4d3c 40ec 483d 794d 773c
000000a0: d603 f7bc 6590 103d cdf6 583c aaf2 84bd
000000b0: 35c4 bd3d 5b75 d2bd abef a7bb 3680 a23d
000000c0: de14 d43c 50d5 4dbd bbe0 e9bc fb21 ce3d
000000d0: 7546 4a3d 444a d9bd 060c a83d 7f27 433d
000000e0: a5bd 4d3e 0e38 98bc 86c5 9c3d 7e90 8bbb
000000f0: dc3b 333e 4de7 893d 5234 903e aebd 363d
00000100: 7171 8bbd bfd8 c53c e19e 8f3d 28d1 3bbd
00000110: 5b48 b6bd c063 8a3d 08f1 e63b f05d e83d
00000120: bc34 01bd c9ad b93d eb48 893d 5aee 8cbd
00000130: db68 7c3d ff9f 9cbb c6f5 df3d 7a3f d23d
00000140: 52c5 1e3d 1700 083e c267 393d 3b6d 8dbd
00000150: 852b 2a3d 52c6 003e 6a0f 073e 1e97 203d
00000160: be66 133e bfce 013e c426 23bd 4374 773b
00000170: 3ecc fd3d a939 db3d d300 8f3c 8294 5c3d
00000180: 13dd 043e 5e91 d33d 262c 113e 10b9 a03c
00000190: 648f 523b 9ca6 cdbc d207 e93d ca9b 28bd
000001a0: 73bc ef3c e449 3d3d 1473 c5bd 9551 6bbd
000001b0: b774 0ebc 6a55 8dbd e32d bcba 1284 683d
000001c0: d634 283d 9123 fe3c 26b6 bebd 9dd9 ed3d
000001d0: e950 983d 1ba4 a0bc f006 7bbd cdfb dbbd
000001e0: 72d1 d9bc df20 963d 3695 5cbd 7ca1 c9bc
000001f0: 42bf e93c 2d49 4b3d a1da a3bb b267 a83d
00000200: 35d7 cc3c daef 84bd dc7c 3fbc 6492 753d
00000210: 402c 323d 136a e1b8 0cfe d1bd 77f5 97bd
00000220: 8b4e 90bd c59b 6b3d f0a7 07bd e2e9 f43d
00000230: 095f edbd e78b 833d 32cb afbd 2938 2c3c
00000240: 021c b4bd ef06 d3ba 9633 11bd 5d37 b2bc
00000250: e760 8e3d f369 1a3d 4174 1f3d 8be6 38bd
00000260: e859 813d 7e09 d53d 4dc0 dc3d e86c 5a3d
00000270: f520 80bd 4d38 f13d 0265 073e 61b3 c6bd
00000280: 16ee 973c 163b 04be 672b 96bd 1850 0d3e
00000290: b502 bbbd fe98 2ebb 275f 7c3d 7315 acba
000002a0: 2824 f53c 8984 18be 8900 383d 47af db3c
000002b0: f32e 07be 07bf b5bd 1185 f6bb b694 eebc
000002c0: 2213 313d 0f86 253d 23f5 0dbe f648 0abd
000002d0: 3f95 0a3e 0c6a de3b 4ea6 95bd c00b 4d3d
000002e0: 6f0d ad3d f202 21bc e46c 80bc 68ef eebc
000002f0: a057 bc3d 174a 32bd 34fb 953d 6076 9fbd
00000300: 2232 273e 1666 383d 4f3b 993d b079 d1bc
00000310: dff1 043e bc8d a0bc 0e8f 3abd 8f9f 9fbd
00000320: 5e36 d2bc 9775 1e3e 2d38 c53b 5a18 d03d
00000330: 8424 20be 77a0 633e 7f83 143d 0ecf 2bbd
00000340: be79 943d f0f3 ed3d cc31 983d 2bf0 873d
00000350: f2ce df3d 2180 9c3d 3340 bf3a 409d 313e
00000360: a6ad c03b fd6d 243e ddaa 263e dd2f 2a3e
00000370: 0f6d aa3d 0482 5bbd eaad 323e d380 213d
00000380: 79f0 883d 5b88 f03d d13b f93d 478a 0f3c
00000390: 5f32 ca3d e1d2 f23d c23b 5c3e 7996 c0bc
000003a0: 49c4 b83d c365 163e f488 41bd 5b25 793d
000003b0: de05 a0bd 7431 9f3b f3dc 82bd 89a5 923d
000003c0: 6837 203c 2c94 723e 9f7d 333e 8c55 313e
000003d0: 9256 ecbd 4c95 2c3c 2cf2 a7bd a757 043d
000003e0: 4fa1 d73d c8e2 5d3d 82d1 07be 9e25 263d
000003f0: a9b0 bebc bac0 0b3a a397 e13d 777c 3cbc

lstm.bias_hh_l1 f4 [256]
0.05708371 0.008271875 -0.1926977 0.06822272 0.046114113 0.059163243 0.097906515 0.013588164
-0.05313471 -0.029814279 0.1637131 -0.023266256 0.024422253 0.07611973 -0.054597083 -0.17492521
0.019335568 -0.00896448 0.09897893 0.03532014 0.08728948 -0.035026543 -0.09703106 0.14183663
0.13072081 0.04937351 0.2475975 0.1446896 0.056736566 0.1074554 -0.03692068 -0.169393
0.15043017 0.21359858 0.15118858 0.035938513 0.069822356 0.059849538 0.07285389 -0.027671738
-0.08193277 0.032947566 -0.15323675 0.010727842 0.10044959 -0.0969349 -0.04875975 0.059703574
-0.033092186 0.010598839 -0.06973649 0.085918285 -0.001118105 -0.027166456 -0.06575214 0.08858621
0.23479857 -0.1033335 -0.002481016 -0.11757545 0.17816208 0.09658806 0.2109102 -0.061058447
0.031229941 -0.04467331 0.063571036 -0.049417958 -0.039109938 0.137122 0.062104728 -0.058861654
-0.040763903 -0.032292042 0.017421218 -0.0025075886 0.024187632 0.10969824 -0.07292973 -0.05830661
0.0492467 -0.018173503 0.15158074 0.050576795 0.035694644 0.096742384 0.12217869 0.03289523
0.12413644 -0.026133105 -0.002599203 0.14868438 0.094701745 -0.0076154927 -0.08402934 -0.016604355
-0.06399913 0.1846631 0.008482497 -0.11269964 0.04417201 -0.016407672 -0.005309626 -0.05259314
0.05341923 0.06417283 0.108092345 -0.04474091 0.09334313 0.014586163 0.026984492 -0.015505402
0.02833509 -0.12430442 -0.0594402 0.054711748 -0.06606552 -0.086387 0.0665985 -0.071444176
-0.025317108 -0.006351109 0.103710786 0.03598095 0.082068294 0.07940233 0.009700817 0.03446808
0.080181204 0.1162455 -0.021668218 0.026594441 -0.0694552 -0.04376375 -0.18147531 0.003976624
0.058968455 -0.116885096 -0.01088536 -0.11136781 0.12317348 0.10094202 0.056261897 0.08781373
0.0959299 0.02912505 -0.009774456 -0.035976674 0.029942945 -0.015851954 0.024132896 -0.10081761
0.08837163 0.042993717 0.013239912 -0.033793572 0.0047395388 -0.10983314 0.08482619 0.123518
-0.0060531134 -0.03670506 -0.07209221 -0.038677897 0.041083746 -0.104806095 -0.027917705 0.08804146
0.09500435 -0.15198551 -0.009264311 0.09954048 0.094958395 0.022175493 -0.056803066 -0.11759415
-0.0719733 -0.012683626 -0.008896516 -0.06944676 -0.003595494 0.08563975 -0.0020692567 -0.09171803
-0.09634025 -0.049282007 -0.05737703 0.056782786 -0.037317887 -0.060630336 0.09002139 0.024518413
0.17678735 -0.15384659 -0.04694059 0.15094225 0.073693275 0.08167797 0.14816312 -0.11343371
0.056665696 0.024666974 -0.04041764 -0.039509814 -0.15766586 0.074456565 0.17742 0.105127074
0.18271881 -0.10695699 -0.04346481 0.12243948 -0.07037402 0.044195905 -0.0033237075 0.052557763
0.020478416 0.09273173 0.090033695 0.16816413 0.119625695 0.12229278 0.04192412 0.1579989
-0.032044183 0.06893346 0.06395755 -0.08867132 0.050029986 0.0058332784 0.20020595 0.15036374
-0.094045736 -0.029175133 0.05233924 0.13698123 -0.08008455 0.20518775 0.18008278 0.12550144
0.024083164 0.20295078 0.052138533 0.14422368 -0.07709792 -0.06263569 0.119241074 0.17878345
0.10335823 0.0058703693 -0.021082629 0.035992038 0.0019457652 0.115157254 0.14553156 -0.010030618
00000000: 9cd0 693d c286 073c 8c52 45be 5ab8 8b3d
00000010: 27e2 3c3d 2855 723d 3683 c83d e4a0 5e3c
00000020: c8a3 59bd 133d f4bc 68a4 273e e098 bebc
00000030: 2d11 c83c a9e4 9b3d 31a1 5fbd 981f 33be
00000040: a065 9e3c c1df 12bc 77b5 ca3d daab 103d
00000050: d4c4 b23d fe77 0fbd 38b8 c6bd 9f3d 113e
00000060: addb 053e e13b 4a3d 338a 7d3e 8329 143e
00000070: 9a64 683d 9411 dc3d 243a 17bd 5c75 2dbe
00000080: 5e0a 1a3e 96b9 5a3e 2ed1 1a3e 4334 133d
00000090: 06ff 8e3d ca24 753d 6c34 953d d7af e2bc
000000a0: 5ecc a7bd 07f4 063d 18ea 1cbe d5c3 2f3c
000000b0: 84b8 cd3d ce85 c6bd 4eb8 47bd bc8b 743d
000000c0: ac8b 07bd c1a6 2d3c 01d2 8ebd edf5 af3d
000000d0: 618d 92ba 308c debc 0fa9 86bd b06c b53d
000000e0: 096f 703e 84a0 d3bd 8b98 22bb 66cb f0bd
000000f0: 1f70 363e f6cf c53d d8f8 573e 6c18 7abd
00000100: efd5 ff3c 5cfb 36bd 8831 823d 7c6a 4abd
00000110: be31 20bd b669 0c3e 8761 7e3d eb18 71bd
00000120: 0df8 26bd a944 04bd f1b6 8e3c 5b56 24bb
00000130: 2425 c63c 79a9 e03d 2f5c 95bd e9d2 6ebd
00000140: e8b6 493d 99e0 94bc fb37 1b3e 9d29 4f3d
00000150: 8c34 123d df20 c63d d238 fa3d 26bd 063d
00000160: 3f3b fe3d 1815 d6bc 6457 2abb b840 183e
00000170: fdf2 c13d 628b f9bb 9317 acbd db05 88bc
00000180: fa11 83bd 5318 3d3e 2cfa 0a3c 12cf e6bd
00000190: b6ed 343d 6269 86bc 5ffc adbb e86b 57bd
000001a0: 1fce 5a3d 0b6d 833d 855f dd3d 3f42 37bd
000001b0: af2a bf3d cdfa 6e3c 950e dd3c 5f0a 7ebc
000001c0: fe1e e83c 5193 febd 9177 73bd 6d19 603d
000001d0: 5c4d 87bd abeb b0bd cb64 883d 5351 92bd
000001e0: d365 cfbc f71c d0bb 5266 d43d c360 133d
000001f0: 6c13 a83d b09d a23d 2df0 1e3c 672e 0d3d
00000200: 0b36 a43d 1f12 ee3d 8c81 b1bc 96dc d93c
00000210: 873e 8ebd 9e41 33bd aad4 39be 574e 823b
00000220: e888 713d 7461 efbd 8258 32bc ce14 e4bd
00000230: 6142 fc3d b1ba ce3d e072 663d afd7 b33d
00000240: e576 c43d a897 ee3c 0a25 20bc 475c 13bd
00000250: e84a f53c f5db 81bc 5ab2 c53c 7779 cebd
00000260: 2ffc b43d 2e1a 303d 37ec 583c 216b 0abd
00000270: 224e 9b3b 33f0 e0bd 5ab9 ad3d 01f7 fc3d
00000280: 3259 c6bb 0c58 16bd 15a5 93bd b76c 1ebd
00000290: 6e47 283d 94a4 d6bd acb3 e4bc 154f b43d
000002a0: a491 c23d 17a2 1bbe 56c9 17bc e1db cb3d
000002b0: 8c79 c23d 61a9 b53c 55aa 68bd 34d5 f0bd
000002c0: bd66 93bd fcce 4fbc b1c2 11bc 1a3a 8ebd
000002d0: 61a2 6bbb e563 af3d 5e9c 07bb aad6 bbbd
000002e0: 094e c5bd eedb 49bd 2d04 6bbd 1195 683d
000002f0: a4da 18bd 8457 78bd 225d b83d d7da c83c
00000300: be07 353e f689 1dbe c744 40bd 9b90 1a3e
00000310: 80ec 963d c846 a73d 13b8 173e ef4f e8bd
00000320: 4a1a 683d 6512 ca3c f88c 25bd 0bd5 21bd
00000330: 2973 21be af7c 983d 97ad 353e dd4c d73d
00000340: a41a 3b3e 440c dbbd 2808 32bd 8dc1 fa3d
00000350: 4120 90bd c406 353d 8fd2 59bb cf46 573d
00000360: 5ac2 a73c 22ea bd3d 9663 b83d 3833 2c3e
00000370: 51fe f43d a374 fa3d a0b8 2b3d 77ca 213e
00000380: c340 03bd fc2c 8d3d 2dfc 823d 4f99 b5bd
00000390: 3eec 4c3d 1625 bf3b ca02 4d3e f4f8 193e
000003a0: 0d9b c0bd b000 efbc ac61 563d cf44 0c3e
000003b0: 5e03 a4bd bd1c 523e 9f67 383e 7383 003e
000003c0: 0e4a c53c 54d2 4f3e 378f 553d 5faf 133e
000003d0: 84e5 9dbd 2447 80bd aa34 f43d 0213 373e
000003e0: 7bad d33d 3a5c c03b 7ab5 acbc 636c 133d
000003f0: 0c09 ff3a 91d7 eb3d 3a06 153e 7657 24bc
