LogAnomaly/result/deeplog/deeplog_epoch220.pth (torch_old, 640440 bytes, 30 tensors)

lstm.weight_ih_l0 f4 [256, 1]
000000 9e ea 43 be de 6c 98 bc 05 1e 31 bd 5b 53 a7 3d
       -0.19132468 -0.0186066 -0.04324152 0.08170196
000010 9f 89 0b be fd 14 4e 3d 28 8a c4 bd e4 6f 6b 3d
       -0.13626717 0.050312985 -0.09596664 0.057479754
000020 68 85 1e 3e 7d fa 9c 3d fc e6 2a 3e 91 4f a1 bd
       0.15480578 0.07664964 0.16689676 -0.07876504
000030 7b 8a ca 3d 37 db ea 3d 38 49 9d bd 70 52 87 3e
       0.09889694 0.11467593 -0.07679981 0.26430082
000040 f4 56 39 3d ae 38 4d 3d b6 aa 16 be fd 9e 13 3e
       0.04524894 0.050102882 -0.14713559 0.14416118
000050 88 40 21 3e ba fe 96 3d 04 30 2b 3d 8c c1 45 bd
       0.15747273 0.07372804 0.04179384 -0.048280284
000060 02 2b 3c 3e 51 83 57 bd b0 a4 e9 bb c1 69 52 3d
       0.18375781 -0.052615467 -0.007130228 0.051370386
000070 5e 2d 92 3d 08 40 21 be 03 9e b3 3d d0 d4 4f 3c
       0.07137559 -0.15747082 0.08770373 0.012685016
000080 1a 22 11 3e 3b f5 ba 3d c0 8b 65 3c 69 85 57 3d
       0.14173165 0.09128805 0.01401037 0.052617464
000090 94 5e 57 3e aa ce 2d 3c fe ba ff 3d a4 e2 0f be
       0.21032172 0.010608355 0.12486838 -0.140513
0000a0 49 3b 6c 3c d5 eb 11 be 90 c9 07 3e 4d 06 c8 3e
       0.014418432 -0.14250119 0.13260484 0.39067307
0000b0 10 d7 d0 bd aa 1f c1 3d 7c b6 0e 3e 10 21 45 be
       -0.1019727 0.094298676 0.139368 -0.19250894
0000c0 39 d1 38 3e e7 9c 15 3e f2 cd af 3e c5 30 de 3d
       0.18048562 0.14610635 0.3433681 0.10849146
0000d0 dc c1 a9 3d 71 d8 9c 3e 94 d5 12 3e e3 87 51 bd
       0.08288929 0.30633882 0.14339286 -0.051154982
0000e0 4c f9 2a be 19 f9 88 3c 8c 20 d3 3d da 53 24 3d
       -0.16696662 0.016720342 0.10308942 0.04011903
0000f0 62 b9 2f 3d 73 a5 e3 3d 3e 5f c9 3d 1e 33 1d be
       0.042901404 0.11115541 0.09832619 -0.15351531
000100 a7 45 78 bd df 63 59 3d bc 77 e7 3d 30 25 a0 bc
       -0.0606133 0.05307376 0.113021344 -0.019548982
000110 c2 56 b5 bd 4d 99 46 3d 4d 49 e9 3d 53 ba 3b 3d
       -0.08854438 0.048486043 0.11390934 0.04583199
000120 a0 f6 2d bd 2a fc 8d 3e 1b 70 28 3e f9 80 ed bd
       -0.042471528 0.27731448 0.16449015 -0.11596865
000130 d9 f0 c2 bc 9a 7b 82 3d 40 49 32 3e df 98 79 3e
       -0.023796486 0.063712314 0.17410755 0.24374722
000140 1e 69 c1 3c c0 46 e6 3d 54 03 e0 bd c4 b5 cb 3c
       0.023609694 0.11243963 -0.10938135 0.024866946
000150 5e 4d d4 3b 6f 36 5b 3e 33 91 e7 3d 5c e7 57 bd
       0.0064789494 0.21407484 0.113069914 -0.052710876
000160 08 75 eb 3b d3 a7 97 3d 74 ba 05 bf cb 71 a8 3d
       0.007185582 0.07405057 -0.5223763 0.08224829
000170 9b 14 7b bd 6f f1 88 be 05 82 61 3e 3c d3 02 3d
       -0.061298948 -0.267467 0.22022255 0.03193973
000180 ca ac 17 bc 47 52 01 3e 5d e8 e7 3d 84 39 94 3d
       -0.009257505 0.12629043 0.11323617 0.07237533
000190 a0 ff 9a 3d fe 06 38 3e ca 66 97 3d ee 09 0f 3d
       0.07568288 0.17971417 0.07392652 0.03492158
0001a0 7b 99 ff 3d 6a ee 67 3e 6a e3 2a 3e 4f 68 8c 3d
       0.12480446 0.22649541 0.16688314 0.06855833
0001b0 fa 8b 04 be 26 48 14 bd 2b 7e 56 3d cc 43 df bd
       -0.12944022 -0.03620162 0.052366417 -0.10901603
0001c0 e4 ac 64 3d 9f 01 b9 3d 79 1d 9b 3e 94 8f 71 3e
       0.055828944 0.09033512 0.30295923 0.23589927
0001d0 91 e6 5d 3d 58 3a f8 3c d6 8a 0c 3e 14 3a e9 bc
       0.054174963 0.030301258 0.13724837 -0.028470077
0001e0 fe 01 34 be 9e 5e 2a 3e c7 79 e2 3e bc 2b 02 bd
       -0.17578885 0.16637656 0.44233534 -0.03177999
0001f0 0b af d2 3c 41 47 6a 3d 3a c0 aa bd ce 4e 16 be
       0.025718233 0.05719686 -0.083374456 -0.14678499
000200 43 40 cf 3e ff 9b 04 be 06 4e a3 3d 1d 53 fe 3c
       0.40478715 -0.12950133 0.07973866 0.03104549
000210 ae fa 65 3e b2 40 2b be 3f b2 36 bd 83 ff fe 3d
       0.22458908 -0.16723898 -0.044603582 0.12451079
000220 45 c4 16 3e c2 ea 29 bd b6 69 68 bd aa 7f 60 3e
       0.14723308 -0.041483648 -0.05674144 0.219237
000230 bb ed 6d be b8 5a 16 3e 38 77 1f be fd 33 ba bd
       -0.23235218 0.14683044 -0.15572822 -0.09091947
000240 6d 2a 50 3e 3a 6a 8c be 92 46 77 be cf fe 49 3e
       0.20328684 -0.27424794 -0.24148014 0.19726108
000250 bb 92 32 3e f5 e2 11 bd e1 00 06 be fc 44 45 3e
       0.17438786 -0.035616834 -0.13086273 0.19264597
000260 fc e1 be 3d c4 85 9f 3e 35 f9 d5 be ae b2 97 3c
       0.09320447 0.31156743 -0.41791692 0.018517818
000270 2e e2 da 3c be 82 2c be e6 02 69 3f 51 61 9b 3a
       0.026719179 -0.16846749 0.9102005 0.0011854564
000280 d3 b6 ec 3e 84 90 f0 3c 59 ae ac 3d bc ec e0 bc
       0.46233234 0.029365785 0.08431692 -0.027456634
000290 48 99 9a be ed 31 49 be 7a 37 7c be f2 f2 35 be
       -0.3019507 -0.19647951 -0.24630538 -0.17768458
0002a0 ce d6 2f 3e dc 23 34 3d 28 c0 0e be 23 df d2 bf
       0.17171785 0.04397951 -0.1394049 -1.6474346
0002b0 dc 3f b4 3e c9 e0 9e 3e e5 0b 7f 3d ef 25 f4 3e
       0.3520497 0.31030872 0.062267203 0.4768519
0002c0 80 40 e4 bd 88 fc 13 be ea 99 13 be 65 f8 08 bd
       -0.11145115 -0.14451802 -0.14414182 -0.033440012
0002d0 09 12 bd be 74 91 e7 3e 4d fb 1a 3d f7 42 29 3e
       -0.36927822 0.4522816 0.037837315 0.16529451
0002e0 fb b9 b2 be f9 66 92 3d cc e8 6b 3d a0 a8 96 bd
       -0.34907517 0.07148547 0.05759506 -0.073563814
0002f0 49 95 0a 3e c6 f9 98 bd e5 6e a0 3d 29 66 a8 be
       0.1353351 -0.074695155 0.078336515 -0.32890442
000300 21 54 2b 3e 97 6e 95 bc 76 72 22 3e db 31 a6 3e
       0.16731311 -0.01824121 0.15863976 0.32459912
000310 0b 1b 2d 3e 69 f5 81 3d c4 4d 10 3e 0f 13 5f 3e
       0.16904847 0.063456364 0.14092165 0.21784614
000320 70 cd 57 3d da 31 92 3e 50 2d 54 3d 37 79 73 3e
       0.052686155 0.2855366 0.051801026 0.23776709
000330 9e e8 80 3e b3 61 13 3e 1e 46 65 3e d1 23 8d 3e
       0.25177473 0.14392738 0.22390029 0.27566388
000340 85 1a b9 bd 3f 91 03 3d 59 b5 94 3e 33 d0 2d 3e
       -0.09038261 0.03212094 0.29044607 0.16973953
000350 a0 3f 86 3e d6 8e 69 3e e9 ec 4b be e2 8c 30 be
       0.26220417 0.22808394 -0.19914593 -0.17241243
000360 41 a6 2f be 0b 02 63 3d 3c bb cf 3b 63 a8 de 3d
       -0.17153265 0.05542187 0.0063394587 0.10871961
000370 7b 1d de bc 9d 25 b2 be fa d6 e8 3d f7 1c 8c 3e
       -0.027113667 -0.34794322 0.113691285 0.27365848
000380 9b e9 d0 bd ef 17 ab 3e 24 e3 a3 3d 68 ed 9d 3e
       -0.10200807 0.33416697 0.08002308 0.3084519
000390 a1 28 b5 bd 66 26 61 be 07 2d a3 3d a9 27 94 be
       -0.0884564 -0.21987304 0.07967573 -0.28936508
0003a0 4c 2c 4b be 2e 30 8c 3e 4e 9f 46 3e 73 3a 95 be
       -0.19841117 0.27380508 0.19396707 -0.29146156
0003b0 a8 81 8a 3e 40 e8 7e 3c 18 48 5c 3e c2 ea 24 be
       0.27052045 0.015558302 0.21511877 -0.16105178
0003c0 41 f9 3c be bf 90 f2 bd b9 7f e9 3d e1 5d 5b be
       -0.18454458 -0.118440144 0.11401314 -0.2142253
0003d0 9c 31 9c 3d f3 32 bf bd 02 5b 75 3d 4c 11 85 3d
       0.0762665 -0.0933589 0.059901245 0.0649744
0003e0 31 8c 26 3e e9 fb 5d be 89 13 76 3e 0f 47 0b be
       0.16264416 -0.21678127 0.2403089 -0.13601325
0003f0 bd c7 f3 3d 3b 77 10 3e 83 5e 4e 3e 2f e9 c4 3d
       0.119033314 0.14107983 0.20153241 0.09614789

lstm.weight_hh_l0 f4 [256, 64]
000000 d5 a3 6f 3e 28 69 19 be 5a e6 ac 3c d7 79 9c 3d
       0.2340234 -0.1498152 0.021105934 0.076404266
000010 5e d8 72 3e d0 ed e4 bd 04 9d 91 bd 34 e9 92 3d
       0.2371535 -0.11178172 -0.071100265 0.07173386
000020 55 ab 1e 3e 3e 3e de 3d 69 13 72 bc a0 71 0c be
       0.15495045 0.108517155 -0.014775136 -0.1371522
000030 94 ef 3d be 91 5b b0 3d 15 3c 09 be 3a 53 7e 3e
       -0.18548423 0.08611215 -0.13401826 0.24836436
000040 17 11 3a 3e cb 9c 01 bd 24 c2 1a 3d 09 1b 14 3e
       0.18170582 -0.03164367 0.037782803 0.14463438
000050 b0 8a 69 bd 74 c5 c5 3d 18 9c cf bd 23 4b 4b 3e
       -0.05701703 0.09656802 -0.101371944 0.19852881
000060 73 d6 77 3e 8b b8 61 3e 22 3a b4 3d a7 89 bc 3d
       0.242029 0.22043054 0.088001505 0.092059426
000070 ca 67 9c 3d 5a 81 88 be e4 57 76 3d 49 c7 fb 3d
       0.07636984 -0.26661187 0.060142413 0.1229387
000080 cd 88 75 3d 5d e5 81 3d 9b 9b 89 3d 35 9b 25 be
       0.059944917 0.06342576 0.067191325 -0.16172488
000090 7f ca 83 bd fa 89 3a be 63 f7 d4 bd 98 f9 94 be
       -0.064351074 -0.18216696 -0.10398748 -0.29096675
0000a0 20 06 ab 3d 35 63 e2 bd 47 26 b2 3d 10 f7 c9 bd
       0.083507776 -0.110540785 0.08698707 -0.098615766
0000b0 a0 3f 62 3d 6a 55 24 3e 4d 52 0d 3d 05 64 84 3e
       0.05523646 0.16048208 0.034502316 0.2585756
0000c0 ed 85 8e be f9 7f ae bd 40 8a 2c 3e ed c6 a2 be
       -0.27836552 -0.085205026 0.16849613 -0.31792393
0000d0 64 fa 2f 3d 1c 03 30 3e 3a da d8 3d 0c 87 7c bc
       0.0429634 0.17188686 0.105884984 -0.015413057
0000e0 6b 3b ad bd 04 90 b1 3e fe 3a 01 bd 0b ef c1 bd
       -0.08458599 0.34680188 -0.0315504 -0.09469422
0000f0 40 0d 00 3e 20 60 14 bd b2 d9 1d be 27 c0 8a bd
       0.12505054 -0.036224484 -0.15415075 -0.067749314
000100 45 9a 7b bc d6 da db bd 1b c0 92 3e 9e 3b 41 3e
       -0.015356605 -0.10735099 0.2866219 0.18870398
000110 77 fd 2a 3e 47 e8 33 be ea 60 b3 3d 2e 18 ac 3d
       0.16698252 -0.17569076 0.08758719 0.084030494
000120 5b da 1d 3e cf 35 d9 3d 01 f8 01 be 6c 9a be 3d
       0.15415327 0.10605966 -0.12692262 0.093067974
000130 31 e3 5d be 50 39 3b 3e 95 3a 09 be 0a 62 a0 be
       -0.21668698 0.18283582 -0.13401254 -0.31324798
000140 47 fa 6d 3e 73 11 16 bd a0 af 24 be a2 64 5a 3e
       0.23240004 -0.036637735 -0.1608262 0.21327451
000150 9b f1 0c 3e 98 79 95 bd b9 e8 37 be 3e d4 ca 3d
       0.1376404 -0.07298583 -0.1795987 0.09903763
000160 ce a3 c9 3e 4c de d1 3d 34 e7 da bd 1b 40 d7 3d
       0.39382786 0.10247478 -0.1068863 0.10510274
000170 1e c5 5e 3e 9c bc 9b bc ea 17 31 3d 16 90 3b 3e
       0.21754882 -0.019010834 0.043235697 0.18316683
000180 de 78 5d 3d 4d c9 18 3e c0 80 9c 3d 07 8a d2 bd
       0.054070346 0.1492054 0.076417446 -0.10280233
000190 b6 61 48 bd ca 32 68 be e9 20 1e be 37 bd a9 3c
       -0.04892131 -0.22675624 -0.15442242 0.020720107
0001a0 53 91 60 3e ad 6d 8f bd fc 97 de bd fe d1 a8 3d
       0.21930437 -0.07003341 -0.108688325 0.08243178
0001b0 71 cb 20 3d 29 76 25 3e b1 52 51 3e eb f1 a6 bd
       0.039256517 0.16158356 0.204417 -0.08151611
0001c0 38 75 84 be 92 df 0a be 26 62 42 bd 00 dd 80 be
       -0.2587068 -0.13561848 -0.047456883 -0.2516861
0001d0 de e9 42 bb d5 f7 13 bc 0d c0 7d 3e cf c9 18 3e
       -0.0029741446 -0.009031256 0.24780293 0.14920734
0001e0 46 cd 58 bd d8 2d c0 3e ba 2f 44 3d 02 07 6f be
       -0.05293014 0.37534976 0.047897078 -0.23342517
0001f0 8d d5 fb 3d 19 06 18 be f1 04 58 3d f1 ab ce bd
       0.12296591 -0.14846076 0.052739087 -0.10091389
000200 aa 3d e6 3d 8d df 92 3d 40 6e eb 3d f0 5f 4b 3e
       0.1124223 0.07171545 0.11495638 0.19860816
000210 d5 82 14 3e 08 42 68 be b7 b6 53 be 3e 12 4e 3e
       0.14503033 -0.22681439 -0.20675169 0.20124146
000220 51 38 47 3e cf ac c0 bc a2 e6 71 bd b8 d4 b6 3d
       0.19455077 -0.023519902 -0.05905784 0.08927292
000230 81 e1 ab bd 3d 6c 4a 3d 84 52 17 be 00 b7 bb 3d
       -0.08392621 0.04941963 -0.14777571 0.09165764
000240 59 6b 0e 3e 2f 25 5d be 80 ac 29 bb be f0 3c 3e
       0.13908137 -0.21596216 -0.0025890172 0.18451211
000250 e0 01 44 3d 6d 35 97 3d 6d 22 c2 bd d1 47 46 3d
       0.04785335 0.07383237 -0.094792224 0.048408333
000260 02 8d 3b 3e be 74 85 3d ca 31 22 bd 5c a9 86 3e
       0.18315509 0.065164074 -0.039598264 0.26301086
000270 b1 9b bb 3c 62 f6 c2 be 5d 80 d6 3d cc bf 42 3d
       0.022901388 -0.380786 0.10473702 0.047546193
000280 20 1d ec bd 79 03 bf 3d 94 dc 2e 3e f4 5c cd bd
       -0.11528993 0.09326834 0.17076331 -0.10027495
000290 13 16 b3 3c 44 55 ee bd 82 82 0b bd 07 91 85 be
       0.021861112 -0.11637357 -0.03406001 -0.2608721
0002a0 cb 5a f5 3d d0 7e e8 bd a5 77 8c bd 65 a3 78 bd
       0.11980208 -0.113523126 -0.06858758 -0.0607027
0002b0 88 c2 26 3d 85 4c 9b 3d 68 32 6a 3e b6 07 01 3a
       0.040712863 0.07582954 0.22870791 0.00049221085
0002c0 ae 98 94 bd 46 3c a8 3c b1 e0 f0 bd 8e 05 c3 bc
       -0.07255684 0.020536553 -0.117616065 -0.02380636
0002d0 1f 7c 7a 3d b2 2b 82 3d ad 2e 9f 3d 6f 55 4b 3e
       0.061153527 0.063559905 0.077725746 0.19856809
0002e0 3d d8 5e bd 83 06 3f 3e a8 41 c1 bc e0 c5 df be
       -0.05440544 0.18654828 -0.023590878 -0.43705654
0002f0 f6 d8 ed bc da f5 f4 bd 3c 5f 80 3d f6 d6 87 be
       -0.02903412 -0.11960955 0.062681645 -0.2653119
000300 61 9e 03 3d fb 28 64 be 3a 91 67 bc 7f bf 6d 3d
       0.032133464 -0.22281258 -0.014133746 0.058043953
000310 02 e9 50 3d 91 c3 a8 3d e2 a2 a2 3c cd 29 c9 bd
       0.051003464 0.08240426 0.01985306 -0.09822426
000320 0f 57 8a bd 4c c4 25 bd 8c a3 d2 3c 53 f0 cf 3d
       -0.06754886 -0.040470406 0.02571275 0.1015326
000330 2e 34 19 bd ee fe 08 3d aa b5 1f 3d e9 8e 85 3d
       -0.037403278 0.033446245 0.038991608 0.065213986
000340 87 35 30 3b 43 5f aa bd bc 67 0f be e3 3b 24 3d
       0.0026887374 -0.08318951 -0.14004415 0.040096175
000350 b9 6d 7d 3d 13 7b 51 bc 70 93 5e be 0d 1b 82 3e
       0.061872218 -0.012785691 -0.2173593 0.25411263
000360 ac 4f 5f bd 24 7d 0f 3e 25 f8 92 3c bb ab 90 3d
       -0.05451934 0.14012581 0.01794059 0.07064005
000370 6b 72 d8 3d a7 15 71 be 0f fe d7 bc e8 6e 02 bc
       0.105686985 -0.23543416 -0.026366262 -0.007961012
000380 fc 1e ae 3d d8 5b 12 bd 7d 6e 02 3e 53 b8 40 3d
       0.085020036 -0.03573212 0.1273746 0.047050785
000390 5d 93 71 bd 3f 2c 3d be 2a 0b d8 bd d1 59 8e be
       -0.058978427 -0.1847391 -0.105490044 -0.278029
0003a0 07 cf 7e bd 35 cb 8a 3d 9f 5e f0 bd bb 34 bc bc
       -0.062209155 0.0677704 -0.117367975 -0.022974363
0003b0 f9 de 78 3e a3 13 40 bd 7c 3c 1d be c4 dc 96 3e
       0.24303807 -0.046893727 -0.15355104 0.29465306
0003c0 b4 e0 c8 3c 3d 8c 36 3c 81 4a 46 3d 24 e3 bd bd
       0.02452121 0.011141834 0.048410896 -0.09271839
0003d0 68 c3 d3 bd 67 c6 a6 3d 65 0b 2f 3d a3 65 fc 3d
       -0.10340005 0.08143311 0.042735476 0.12324073
0003e0 5e 74 d8 bd 4a 03 f7 3d 4c 1d 0b 3e bd b9 a0 bd
       -0.1056907 0.12061174 0.13585395 -0.07847927
0003f0 1f 58 ec 3d 87 fd 25 bd 10 99 c1 bd 4d d6 4d bc
       0.11540245 -0.040524986 -0.094530225 -0.0125633

lstm.bias_ih_l0 f4 [256]
000000 cc 4d bc 3d d7 fc ae 3d 8f 3c 5a 3d e0 e7 9b bd
       0.09194526 0.08544319 0.05328041 -0.07612586
000010 42 a8 3c 3e 43 9a a3 3b 4c 60 39 3e ad b1 62 bc
       0.1842356 0.0049927547 0.1810314 -0.0138363065
000020 e2 af 67 3e 7d 5d 54 3e c1 ca ee bd 73 1e 57 3e
       0.22625688 0.20738788 -0.11659766 0.21007709
000030 99 ec 33 3d 28 45 c7 3d 88 13 d5 3d 84 84 39 3e
       0.04392681 0.097299874 0.10404116 0.18116957
000040 0f b5 1c 3e 58 31 14 3e de 41 23 3e c3 11 17 bd
       0.15303443 0.14471948 0.15943095 -0.036882173
000050 44 1d 49 bd 20 2e 80 3d b0 9a b0 3d 96 fe cd 3d
       -0.049100175 0.06258798 0.08623254 0.10058324
000060 55 15 03 3e a9 5b 40 3e b2 13 89 3d 87 07 98 3d
       0.12801106 0.18784966 0.0669321 0.07423311
000070 f2 e1 b3 bc aa 7a 6d 3e c6 10 7c 3e 54 38 c8 bd
       -0.021958325 0.23191324 0.24615774 -0.09776369
000080 a9 bc e2 39 90 63 db 3d 48 9b 07 3d 20 f2 ce bd
       0.00043246642 0.107123494 0.033107072 -0.101047754
000090 2b 3d 2b 3e 6d 9d 9d bd 6e c0 20 3d 86 8e 94 bd
       0.16722552 -0.07696042 0.039246015 -0.07253747
0000a0 24 23 05 3e 02 6c eb bc 42 06 bc bc 6c 07 2b 3f
       0.13001686 -0.028738026 -0.022952203 0.668082
0000b0 00 da 33 3d 95 05 84 3e 77 99 06 3d 7e f2 bf 3d
       0.043909073 0.2578551 0.0328612 0.093724236
0000c0 6f 4b 59 bd 06 b1 98 3d 7b a6 a6 bc 4a bc bf bd
       -0.053050455 0.074556395 -0.020343056 -0.09362085
0000d0 16 ec ab bd 0f ae 93 3e b4 10 b7 3d 46 d3 54 3c
       -0.08394639 0.28843734 0.08938733 0.012989825
0000e0 f4 3d 33 3e bc b2 34 bd 0a c0 68 3d 9f aa 91 3d
       0.17504102 -0.044115767 0.056823768 0.071126215
0000f0 9b b6 f6 bc 00 53 f0 3d 63 19 65 be b0 6e e6 3c
       -0.03011637 0.11734581 -0.22372966 0.028128952
000100 e9 66 2d bd 85 13 22 3e 72 30 98 bd 01 f5 be 3d
       -0.04233447 0.15827759 -0.07431115 0.093240745
000110 50 06 a3 3d 71 e8 b8 3d 2c fa c3 3d 21 23 c6 3d
       0.079601884 0.0902871 0.09569201 0.09674669
000120 89 43 91 3d b2 6e c9 3d bc 12 11 be 05 d6 0d 3e
       0.070929594 0.098355666 -0.14167303 0.13851173
000130 5c 16 3b 3d c4 31 5f 3d 78 08 d8 3b 4e 0c af bd
       0.04567562 0.05449082 0.0065928064 -0.08547269
000140 a4 10 46 3d 83 89 80 bc 4e f8 cf bd 6c 37 dd bd
       0.048355713 -0.01569057 -0.10154782 -0.108015865
000150 c9 72 23 3d fa 1e c4 3d c3 31 d6 bd c6 59 b1 ba
       0.03990439 0.09576221 -0.1045871 -0.0013530783
000160 9e 87 4c 3e a7 ef ff 3d 05 63 9b 3d 85 ca 5b 3c
       0.19973609 0.12496882 0.07587246 0.013414984
000170 0e eb 47 3e db 69 a2 3d a4 7a 28 be 45 f0 d4 3d
       0.1952326 0.079303466 -0.16453034 0.1039739
000180 e1 95 46 bd 58 8c 69 3d a4 e1 10 bd cb d6 b1 3c
       -0.04848278 0.057018608 -0.035371438 0.021708867
000190 fb d5 35 3d 0b 6d 00 be e3 66 c8 bc 1b b2 b1 3b
       0.04439352 -0.12541597 -0.024463123 0.005422843
0001a0 5d ad bc bd 6b f0 7f bb ed 73 06 3e 2d 46 89 be
       -0.09212754 -0.0039053212 0.1313016 -0.26811352
0001b0 84 11 db bd 11 f5 3b 3e f2 12 d0 3d 9e ff d8 3d
       -0.106967 0.18355204 0.101598635 0.1059563
0001c0 62 dc 88 3d 14 20 86 3c 5d 14 97 bb da 51 96 bd
       0.0668266 0.016372718 -0.004610582 -0.07339831
0001d0 8d b8 a6 bd 37 0b d4 3d cb cf af 3d 1f 69 61 3c
       -0.08140669 0.103537016 0.08584555 0.013757973
0001e0 65 83 d3 3d 89 95 09 3e dc b1 4b be cc 27 04 3e
       0.10327796 0.1343595 -0.19892067 0.12905806
0001f0 92 27 d4 3c b8 bf 52 3d b3 15 9c 3d 94 02 1c 3e
       0.025897775 0.05145237 0.07621326 0.15235358
000200 a4 27 2c 3d 1d 10 45 3e a4 23 93 bd 8e e2 45 be
       0.04202999 0.19244428 -0.07184532 -0.19324705
000210 ed 79 0b 3e 14 60 e6 3d 64 5b 42 be 49 78 5e 3e
       0.1362073 0.11248794 -0.18980175 0.21725573
000220 0d e8 63 3e b6 54 06 3e 41 a5 a9 bd bc 38 fa bc
       0.22256489 0.13118252 -0.08283473 -0.030544631
000230 81 bc 3e 3e 99 34 20 ba 08 7c 53 bd f5 4c c6 3d
       0.18626596 -0.0006111353 -0.051631957 0.09682647
000240 a0 79 69 3e 30 9c 27 be 6f 00 52 3d a9 2b 02 3d
       0.22800303 -0.16368175 0.051269945 0.03177992
000250 13 86 08 3d af 99 25 3e 0d a8 a3 bd 41 65 a3 bd
       0.03333099 0.16171907 -0.079910375 -0.07978297
000260 20 26 80 bd 97 d0 05 3e ce 13 58 3d ce c2 c2 3d
       -0.06257272 0.13067852 0.052753262 0.09509812
000270 ba fd 8e bc cb 9a a1 be 63 14 14 3e 2d 2d 95 3c
       -0.01745497 -0.3156341 0.14460902 0.018210018
000280 fa 69 6f be 9c af 11 be 3b 3a 19 3e a9 15 42 3c
       -0.2338027 -0.14227146 0.1496362 0.0118459845
000290 d0 54 03 3d 1f a0 6d bc eb 8f de bd cf 86 8c 3d
       0.032063305 -0.014503508 -0.10867294 0.0686165
0002a0 61 fc 34 3c d4 ef cc bd 61 94 b9 bd 93 0d ae 3d
       0.0110465 -0.10006681 -0.09061504 0.08498683
0002b0 ce 30 ba 3b 66 e2 0d 3e b3 c1 82 3d ac 19 46 be
       0.0056820875 0.13855895 0.063846014 -0.1934573
0002c0 7b a5 c7 bc a1 66 03 bd b5 44 9e 3c ac bd 27 3d
       -0.0243709 -0.032080296 0.019319871 0.04095237
0002d0 7a 2a 21 3e 97 12 8e 3e 97 1b 41 bd 82 bd 03 be
       0.1573886 0.27748558 -0.047145452 -0.1286526
0002e0 24 3b fa bd 9b a0 de 3c 63 1b 33 3e 20 b1 6e 3d
       -0.122183114 0.027176192 0.17490916 0.05827439
0002f0 68 19 27 be 16 e9 6d bd 27 30 66 bd 79 d7 13 be
       -0.16318285 -0.058083616 -0.056198265 -0.14437665
000300 f0 96 9a 3e 5c 6e fe bc 0b af 21 bd 5c 02 3f be
       0.3019328 -0.031058483 -0.039473575 -0.18653244
000310 63 32 6d 3e c8 60 a2 3d 11 22 d9 3d 78 ac e7 bd
       0.23163752 0.07928616 0.10602201 -0.11312193
000320 39 62 1a 3d 48 0b 6c b9 b6 ce 22 3e cd 2c 72 3b
       0.03769133 -0.00022510916 0.15899166 0.0036952973
000330 4a fb 45 3e b6 d2 68 bd d2 88 e2 3d 3a e4 c4 3d
       0.1933414 -0.056841575 0.11061253 0.09613843
000340 90 0d b7 3d 96 ea 93 3c f6 6b 5b 3e 2a 5b 62 bd
       0.08938134 0.018056195 0.21427903 -0.055262722
000350 75 55 12 3d 66 ef 40 3d 24 ee 4a 3d 05 54 6c 3d
       0.03572603 0.04710331 0.049543515 0.057697315
000360 da c9 0a 3d 7f 1d f9 3c 57 c1 47 3e 2b 2e 83 3c
       0.033883907 0.030409573 0.19507347 0.016013226
000370 41 c8 00 3e 9c 7f a4 3e 0c eb 91 3e e8 46 0f be
       0.12576391 0.32128608 0.2849964 -0.13991892
000380 5d 10 1c 3e 6c 0f 0d be 37 9b f3 3d 71 31 df bd
       0.15240617 -0.13775414 0.11894839 -0.10898102
000390 4a 9b d2 3d 7f 7c 0e 3e d5 14 ec 3d aa ad 89 3e
       0.10283525 0.13914679 0.11527411 0.26890308
0003a0 6a 79 27 3e b2 76 3a 3c 13 89 be 3d c7 65 e5 3e
       0.1635491 0.011380838 0.093034886 0.44804212
0003b0 88 31 3b 3e 2e 9f dd 3d 57 8b 2f bd 88 b6 0b 3e
       0.18280613 0.10821377 -0.042857494 0.13643849
0003c0 f9 0e 07 3e 1e 5a ec 3d cf e3 31 3e 6d 10 cf 3c
       0.13189305 0.11540626 0.17372058 0.025276387
0003d0 dc 29 6a 3e 6b db 5b 3e 58 0f 62 3e 30 c3 7a 3e
       0.2286753 0.2147042 0.22076166 0.2448852
0003e0 18 0c 1e 3e ea b9 98 3d 40 00 08 3d b0 b2 36 3e
       0.15434301 0.07457335 0.033203363 0.17841601
0003f0 51 27 89 bd b8 95 4d 3d 8c 26 43 be b8 f7 92 3e
       -0.06696952 0.05019161 -0.19057673 0.2870462

lstm.bias_hh_l0 f4 [256]
000000 ef c7 2f 3e 5b 21 96 3d 03 27 89 3d e6 db a2 3d
       0.17166112 0.07330581 0.06696894 0.079520985
000010 55 1f 07 3e 00 7f 81 3d cf eb dd 3b 0f 9e 89 3d
       0.13195546 0.063230515 0.0067724953 0.067196004
000020 6c a8 86 3d 00 9c 72 3e bc 4f f3 3c 4c ef 2a 3e
       0.06575093 0.23692322 0.029701106 0.16692847
000030 65 58 37 3e 74 2d e8 bc 1d 37 d8 3d fc 4d 43 3e
       0.17904814 -0.028341986 0.10557387 0.19072717
000040 c4 aa a5 3d 76 b4 9a 3c 06 1f 9e 3d cc 0e 72 3d
       0.080892116 0.018884879 0.07720761 0.059096143
000050 02 0a b7 3a 37 39 b4 3d 12 16 b7 3c fe b8 85 3b
       0.0013964775 0.08799975 0.022349391 0.0040808907
000060 44 e0 ed 3d fd 7a e4 3d ce f2 26 bc e2 fc c8 3d
       0.11615041 0.11156271 -0.010189725 0.098138586
000070 07 a0 fc bc 72 e0 8b 3e 0c d7 49 3e 55 65 d2 3d
       -0.030838026 0.27319676 0.1971094 0.10273234
000080 f2 4b 0d 3e 37 36 3a 3d 96 92 3f 3d 86 df 73 bb
       0.13798502 0.04546186 0.046770655 -0.0037212088
000090 41 33 75 3e 5c 18 82 bd ff 5f 89 3d 34 d2 fb bd
       0.23945333 -0.063523024 0.06707763 -0.122959524
0000a0 4f d6 1e 3d f2 a2 04 bb 17 73 b1 3d 3e dd 16 3f
       0.0387786 -0.0020238725 0.0866453 0.5893134
0000b0 52 1d df 3d 8d 2a 71 3e 66 32 89 3d 86 0f af 3d
       0.10894264 0.23551388 0.06699066 0.08547883
0000c0 55 33 d7 bd 20 cf 55 bd 44 d7 7d bd 74 52 ae bc
       -0.10507838 -0.052199483 -0.06197287 -0.021279551
0000d0 fa 73 9a 3c 3e ce f2 3e ae 2b 43 bd bb 87 37 3d
       0.01885413 0.47422975 -0.047649078 0.044807177
0000e0 40 09 20 3e 90 cf 0d 3d 49 e7 77 3e 7f bb b7 3d
       0.15628529 0.034621775 0.24209322 0.08971309
0000f0 58 6c f3 3d c4 6d d3 3d c2 29 ed bd b3 8f 1a 3d
       0.11885899 0.103236705 -0.1158023 0.0377347
000100 08 93 59 bd fc 83 1a 3d 88 2e d6 bc 09 01 fe 3d
       -0.053118736 0.037723526 -0.026145235 0.12402541
000110 01 dd e7 bc ef 5c f5 3d 3f 11 3d 3d 7b 53 fe 3d
       -0.028303625 0.11980616 0.046159025 0.124182664
000120 e7 b6 4e 3e 32 98 40 3c 19 c5 e1 bd a0 d1 90 3d
       0.20186959 0.011755036 -0.110239215 0.07071233
000130 20 91 f5 ba cf de 35 3e d4 ec b5 bd aa e3 08 be
       -0.0018735267 0.17760776 -0.08883062 -0.13368097
000140 88 fb 91 3d cd dc fc 3b 6b dd cc bd 00 0c fd b5
       0.07128054 0.007716751 -0.100031696 -1.8853461e-06
000150 1a a0 fb bb fe 4e db 3d 8b c2 25 bc 12 02 d0 3d
       -0.0076789977 0.10708426 -0.010117183 0.10156645
000160 47 d5 bc 3c f3 70 9e 3d a2 56 b4 3d 41 b7 b0 bd
       0.023050917 0.07736387 0.088055864 -0.08628703
000170 ae 72 37 3e f1 59 5c 3d 05 f9 90 bc 38 43 42 3e
       0.1791484 0.053796712 -0.017696867 0.18970954
000180 89 d9 c6 bd 2c 21 f5 bd bc 6c 60 3d 2e ac e9 bb
       -0.0970946 -0.11969218 0.054791197 -0.007131121
000190 0b dc ed bd 26 23 4b 3c 2f ab e6 bd 69 f9 92 bd
       -0.116142355 0.012398517 -0.112631194 -0.071764775
0001a0 7e 0e 57 bd 2d f5 99 bc 88 b4 c6 3d 70 66 7e be
       -0.052504055 -0.018793667 0.09702402 -0.24843764
0001b0 92 fc 46 bc d4 c2 4b 3d 53 7b 84 3c 0a 3e 26 bd
       -0.012145178 0.04974635 0.016172087 -0.04058651
0001c0 f5 b0 04 3d e4 e1 23 bb 40 33 56 3d a9 1f 9f 3a
       0.032395322 -0.0025006467 0.05229497 0.0012140173
0001d0 f8 d8 57 3c 5a 17 6d 3d cf 69 18 bd 3a 72 6c bc
       0.013174288 0.057883598 -0.037210282 -0.014431531
0001e0 67 9d b8 3d e1 08 98 bd a3 87 d5 3c 1d 41 1b bc
       0.09014397 -0.074235685 0.026065653 -0.009475973
0001f0 b0 57 b9 3d 18 5a e5 3d ab 46 85 bd e8 f9 cd 3d
       0.09049928 0.11198825 -0.065076195 0.100574315
000200 7c 93 af bd a3 7b ec 3d ce 85 13 be d7 90 38 be
       -0.08573052 0.11547019 -0.14406511 -0.18024002
000210 19 3e 30 3e 4b 58 85 bd 87 56 09 be 95 35 46 3e
       0.17211188 -0.06510981 -0.13411914 0.19356377
000220 ba 6d a3 3d cb af 2f 3d 7e ad 58 bd ac 60 f0 bd
       0.07979913 0.04289226 -0.05289983 -0.11737189
000230 8d 5f 6d 3b 75 b8 62 bd 17 f2 d5 3d d7 8a 36 3e
       0.0036220283 -0.055351693 0.104465656 0.178264
000240 c0 9a 74 3e c7 09 14 be 4a 39 d5 bc 5b 18 e5 bd
       0.23887157 -0.14456855 -0.026028294 -0.11186286
000250 9d d1 01 be ab 96 45 3e 42 77 b1 3d 8c 01 43 bd
       -0.12677617 0.19295757 0.08665325 -0.047608897
000260 12 28 ac 3b c6 ce 73 3e c6 42 59 3d 40 80 0d 3e
       0.0052538 0.23809347 0.053042196 0.13818455
000270 ff 38 9b bb de a5 27 be 52 16 ad bc c2 d1 be 3c
       -0.004737019 -0.16371867 -0.021128807 0.02329338
000280 11 a4 f5 bd 47 91 40 be bc 7a 17 3e 00 8f 84 bd
       -0.11994184 -0.18805419 0.14792913 -0.064725876
000290 af 77 21 3e 1b 48 de 3d 0c 3f c2 bd d7 5e b7 bd
       0.15768312 0.10853597 -0.094846815 -0.08953636
0002a0 b3 ca 60 bc bb 4b 1a be e8 59 d5 bd cd d1 a7 3d
       -0.013720202 -0.15067951 -0.10417539 0.08194313
0002b0 ee f6 fb bc be ba 31 3e a0 9e 4f 3d 21 23 03 3d
       -0.030757394 0.17356393 0.050688386 0.032015923
0002c0 7c 77 bb 3d 6d 2f 95 bd ad b2 93 3d ba d1 14 bd
       0.09153649 -0.072844364 0.07211814 -0.036332823
0002d0 67 c2 33 3e a3 e9 85 3e 3a e0 58 be f6 4a ee bd
       0.17554627 0.26154813 -0.21179286 -0.116353914
0002e0 2f ff ee 3c d5 66 b7 3c 0b ab f3 3c f9 74 ba 3d
       0.029174415 0.022387901 0.029744646 0.09104342
0002f0 15 d9 c3 bd e9 5d 03 bd 74 e3 88 bd c4 29 43 bc
       -0.095628895 -0.03207198 -0.06684008 -0.011911813
000300 e7 37 9c 3e 17 c5 ea 3d db f0 d0 bd e5 99 13 bd
       0.305114 0.11463373 -0.102021895 -0.036035437
000310 27 a1 59 3e cd 52 7e 3d 8d 18 9d 3e cb 3a 61 bd
       0.21252881 0.062090684 0.30682793 -0.05498771
000320 27 39 a4 3d 17 ee a4 bc 05 a8 8f 3d 40 f4 84 bd
       0.080187134 -0.020133061 0.07014469 -0.064918995
000330 1a dc 15 3e 07 d3 dc 3d 06 b9 b5 3d 7f 42 02 3d
       0.14634743 0.10782438 0.08873181 0.031801697
000340 bb ee 92 3d 25 9e 24 3e 82 2f 88 3e b6 c4 b9 3d
       0.071744405 0.16075952 0.26598746 0.09070723
000350 59 07 79 3b a8 b1 f7 bb 46 b5 39 3e 1f 77 0d 3e
       0.0037998764 -0.00755902 0.18135557 0.13814972
000360 e0 73 4e 3d 42 ee 1f bd ee 51 3f 3e 4b 5c a5 3d
       0.050403476 -0.03904558 0.18683597 0.08074244
000370 a2 03 5d bd b2 64 46 3e 8a 95 60 3e a7 cd 1b bd
       -0.053958543 0.1937435 0.21932045 -0.038037922
000380 5e 3c d8 3d a0 80 4b bb 8b d1 02 3d 9c 92 f5 bb
       0.10558389 -0.0031052008 0.031938117 -0.007494284
000390 a3 f9 ac 3d 29 36 c4 3c f6 7a 04 3e 85 0d 8a 3e
       0.08446052 0.023951607 0.12937531 0.2696344
0003a0 64 26 86 3d de af b5 bc 56 5a 62 bd b7 e2 bb 3e
       0.06550291 -0.022178587 -0.055261932 0.36696407
0003b0 cf de 28 3e 86 97 e0 3c a3 b6 12 be 6c 5f 84 3e
       0.16491245 0.027416002 -0.14327483 0.2585405
0003c0 ae b3 95 3d e8 df 71 bb e0 56 d6 3d f8 08 0d 3e
       0.07309662 -0.003690714 0.10465789 0.13772953
0003d0 1b 05 77 3d ea 0c 2e 3e b9 4e 54 3d b5 2a 47 3e
       0.060307603 0.16997114 0.05183289 0.19449885
0003e0 03 36 2d 3e fb 9a ac bc 96 ab 4b bc 80 8d fc 3d
       0.16915135 -0.021069994 -0.012431046 0.123316765
0003f0 da dd bb bc f1 6e 09 3e 9e 09 1c 3c 35 30 65 3e
       -0.022932936 0.13421227 0.009523777 0.22381671

lstm.weight_ih_l1 f4 [256, 64]
000000 22 e9 4d 3c 42 77 e6 bd bf 22 55 bd b0 87 c6 bd
       0.01256779 -0.112532154 -0.05203509 -0.09693849
000010 7e cb a8 3d 39 b8 1a bd b3 76 84 bd 1c c7 05 bc
       0.08241938 -0.037773345 -0.064679526 -0.008165147
000020 97 af 24 3c 24 f3 3b 3e 5f 26 70 bd f2 98 ab bd
       0.0100516295 0.1835447 -0.058630344 -0.083787814
000030 1f 7c 1b be e3 34 35 bd 8c 01 3d 3c a8 aa 5d 3c
       -0.15184067 -0.04423989 0.011536013 0.013529457
000040 a6 74 40 bc 08 bb 3a 3c 5b 63 55 bd 67 c6 01 3e
       -0.011746561 0.011397131 -0.052096706 0.1267334
000050 2a dc f6 3c ab 8d c7 3d 89 1a c1 3c 7a f4 08 3e
       0.03013428 0.09743818 0.023572223 0.1337451
000060 77 c2 c4 3c 9b 7b 0c 3d 35 cf fd bd c6 99 ea bc
       0.02401851 0.034297567 -0.12393037 -0.028637778
000070 6c bf ec bd 40 ea b4 bd 78 83 d3 3d 6b 94 d8 bd
       -0.11559948 -0.08833742 0.1032781 -0.105751835
000080 fe e3 91 bd 43 7f 5b 3d b7 c4 6f bd 9a 4c 48 3c
       -0.07123564 0.053588163 -0.05853721 0.0122252945
000090 65 49 9c 3d b9 9c 12 be 28 d0 bc bd b7 1e 85 bc
       0.076311864 -0.14317597 -0.0921939 -0.016249998
0000a0 e7 71 64 3c ab 07 10 be 8a 53 aa 3d 6b db 68 be
       0.013943172 -0.14065425 0.08316715 -0.22739951
0000b0 9b b7 2e 3c 0b 40 99 3d 74 49 a6 3d a5 e3 cb 3d
       0.010663892 0.07482918 0.08119479 0.09955529
0000c0 e4 94 27 3d 8e f3 1b be 20 c5 81 bc a4 c6 89 3d
       0.040913478 -0.15229627 -0.015841067 0.06727341
0000d0 c1 27 1c bb ed 42 cb 3d b6 e8 38 bd fb ea a1 3c
       -0.0023827406 0.099248745 -0.045143805 0.019765368
0000e0 c8 0c 38 3d 2a 8f 7d bc d2 6d ea bd 68 58 14 3c
       0.044934064 -0.0154760275 -0.11446728 0.009054281
0000f0 f0 10 92 bd 14 73 c8 bd e1 71 81 be 14 cf 02 be
       -0.07132137 -0.097875744 -0.25282195 -0.12774307
000100 85 71 ee bd 6e 20 bf bb 19 5e 35 3d 3f 88 7c bd
       -0.11642746 -0.0058327233 0.04427919 -0.061653372
000110 94 4a ef bb c3 2b 74 bd 48 16 1d 3d 90 28 84 bd
       -0.0073025916 -0.059612047 0.038351327 -0.06453049
000120 50 33 82 3c dc f5 e5 3d db d6 1a 3e 2d 3a ff 3c
       0.015893608 0.112285346 0.15121023 0.03115567
000130 f7 f5 ce 3d dc 66 a8 bd 3f b2 2c bd 7f 4b 85 3e
       0.10105508 -0.08222744 -0.042162176 0.2603416
000140 4d 5e 87 bd f7 fe c0 3d 83 59 3c 3d 15 24 84 bb
       -0.06609783 0.09423631 0.045983803 -0.0040326216
000150 27 69 9f bd 4f c6 cc 3d 48 34 20 3d b7 23 13 3e
       -0.07783728 0.09998762 0.03911236 0.14369093
000160 14 de 27 3e 5f 29 d9 3d c7 f8 68 be 17 2c b1 bd
       0.1639331 0.10603594 -0.22751151 -0.086509876
000170 29 40 07 3e 6b a5 50 bd 41 a9 39 3d b0 35 a3 ba
       0.13208069 -0.050939005 0.04532743 -0.0012451913
000180 b3 ef 48 be a6 6f 09 3e 24 22 07 bd 5b 8a b3 3d
       -0.19622688 0.13421497 -0.032991543 0.087666236
000190 3a 5e 4f 3c 72 f3 b7 3d 3b 49 97 3d 30 63 55 3e
       0.012656743 0.089819804 0.073870145 0.20838618
0001a0 81 b1 af bd c0 a3 7c bd 0b 21 39 3d fb cb 0e be
       -0.08578778 -0.0616796 0.045197528 -0.13945
0001b0 70 9f ec bb 7e e6 c8 3d b4 e6 02 3d aa a4 95 bb
       -0.007221155 0.09809588 0.031958297 -0.0045667486
0001c0 77 b2 8b bc 06 12 cf bd 3e f2 47 3e 9c 1e c0 bd
       -0.017052872 -0.101108596 0.19526002 -0.09380838
0001d0 51 22 b6 3d f1 01 03 bc 9f 16 30 bd 25 36 a1 3d
       0.08893264 -0.007996068 -0.042990323 0.078716554
0001e0 70 6c 2f be c7 3b 30 3d 88 42 8c bd e4 51 3e be
       -0.1713121 0.043025758 -0.06848627 -0.18585926
0001f0 b6 94 b0 bc 77 6c 9a 3d 63 18 b3 3b 1e ff 20 be
       -0.021555286 0.07540219 0.0054655536 -0.1572232
000200 f0 7e 24 3d d1 9d 76 be 0d 52 b0 3c ec bc 0c be
       0.04016012 -0.2408364 0.0215235 -0.13743943
000210 ef dd 04 3e e1 7d f0 3d 08 98 94 bc 8b 8b 5a 3d
       0.12975286 0.117427595 -0.0181389 0.053355735
000220 61 3f 2d 3d dc 99 07 3f 49 49 8b 3c 21 bb 30 3d
       0.04229677 0.52969146 0.017002719 0.04314721
000230 bd e9 3d be a2 dd a7 bc c1 81 10 be 57 b0 4b 3f
       -0.18546195 -0.020491425 -0.14111997 0.7956595
000240 ac 80 07 3e 1e 93 ba 3b 16 7f 03 bc ab 84 b5 3d
       0.13232678 0.0056938073 -0.008025905 0.08863195
000250 c4 8a b9 bb 80 9a 93 3b a6 0c 2c bb aa 9c ac 3d
       -0.005662294 0.004504502 -0.0026252656 0.08428319
000260 6c d5 f1 3d b1 a3 2a 3e e1 fb 65 be 00 5e c8 bd
       0.11808285 0.16664006 -0.22459365 -0.09783554
000270 5b a4 d0 3c 87 71 dd 3d 8b 66 42 3d 56 5e d2 bc
       0.025468996 0.10812669 0.047461074 -0.025679749
000280 ba 67 46 be 49 32 52 bd 6e 06 bf bd 5b 79 3e bd
       -0.19375506 -0.051317487 -0.09327398 -0.046502452
000290 88 ee 5e bd c1 b2 92 be a6 b5 89 bd 9c 63 66 be
       -0.0544267 -0.28652003 -0.067241 -0.22498935
0002a0 37 ac 63 3d 1d 5d b0 3b a1 95 01 bc c9 e0 0f 3e
       0.05558416 0.0053821937 -0.0079092095 0.14050592
0002b0 3e 7a 96 3e da a0 ce 3a 15 8e 07 bd ca f4 02 be
       0.29390138 0.001576449 -0.033094484 -0.12788692
0002c0 46 d6 66 3d cd 0e 17 be c8 69 c7 3c 81 de 1b be
       0.05635669 -0.1475174 0.024342433 -0.15221597
0002d0 90 87 da bd bc 2d dc 3d 23 4f 9c bc 52 b6 e5 3d
       -0.10670388 0.10750911 -0.019080704 0.112164155
0002e0 8b 37 b8 bd 82 d9 86 bb 02 b2 f9 bc 93 2b 8d be
       -0.08994969 -0.0041152844 -0.030480389 -0.27572307
0002f0 23 4c 12 3e 66 2f b9 3d 55 19 83 be 0c f0 1a be
       0.14286856 0.09042244 -0.25605264 -0.15130633
000300 a7 76 29 3e 1e d4 92 3d ca 01 ff bd c7 65 68 3b
       0.16549169 0.071693644 -0.12451513 0.0035461055
000310 f9 33 59 3e ee 94 3b 3d 04 d0 8c 3d f6 42 e9 3d
       0.21211232 0.045796327 0.06875613 0.11389725
000320 c3 da 91 bd 0f 12 0d 3e b3 17 6f be 40 eb 4c bd
       -0.071218036 0.1377642 -0.23348884 -0.05002904
000330 8a 84 06 3e b5 7f b2 3c 25 24 c9 3c 48 cc d7 3d
       0.13136497 0.021789411 0.024553368 0.105370104
000340 78 f4 44 39 96 f2 4b bb 6b 73 bd bd 83 62 23 3d
       0.00018783088 -0.0031119934 -0.0925053 0.03988887
000350 af ad 08 be 57 84 2d 3d 78 17 b6 bd 52 39 51 3d
       -0.13347505 0.042362537 -0.08891195 0.051080056
000360 65 43 19 3e 2c 40 58 bb 12 25 ef 3d 35 d6 d9 bd
       0.14967115 -0.0032997234 0.116769925 -0.1063656
000370 12 b5 f7 3c 9d 69 97 be 97 ce 81 3d 65 ff d0 3d
       0.030237708 -0.29572764 0.06338232 0.10204963
000380 19 8c 16 bd db 57 02 be 5d 1d d4 bd 73 95 b8 bd
       -0.0367547 -0.12728827 -0.10357163 -0.0901288
000390 1d 69 1e bd d6 7c 19 bb 5f ef 48 3c b5 3c 55 bd
       -0.038674463 -0.0023420355 0.012264102 -0.052059848
0003a0 75 f8 c4 bb ff 25 cf 3d a7 80 25 be 65 ce be be
       -0.0060110637 0.10114669 -0.16162358 -0.37266842
0003b0 ca 10 b5 bd 0b 63 76 3d 66 a0 02 3e f3 b4 30 3d
       -0.08841093 0.06015305 0.127565 0.043141317
0003c0 b4 32 ef bd 35 37 11 be fe a0 60 3d f6 8d f1 bd
       -0.11679593 -0.14181216 0.054841034 -0.11794655
0003d0 21 69 c5 bd a4 05 1b 3c aa e0 b6 bd 68 52 36 be
       -0.096391924 0.009461794 -0.0892957 -0.17804873
0003e0 ea c6 22 bd 6c ec 2e bd 4e 80 04 3c 1e 85 9e 3c
       -0.03974048 -0.04270594 0.008087231 0.019350585
0003f0 c5 79 e7 bc b5 ed 6a 3d 82 35 f9 bd 42 ff 18 be
       -0.028256306 0.0573556 -0.12168409 -0.14941123

lstm.weight_hh_l1 f4 [256, 64]
000000 82 a9 91 3d 00 b1 3c bd ef e6 0d 3e 20 02 e0 3d
       0.07112409 -0.046067238 0.13857625 0.10937905
000010 05 0e 37 3c fc ea fd 3c 96 cc 47 bd 2d c0 2b be
       0.011172776 0.030995838 -0.048779093 -0.16772528
000020 64 53 51 bd 3d 08 0a 3d 20 f7 b0 bd 19 0a f8 bd
       -0.051104918 0.033699263 -0.08640885 -0.12111301
000030 a8 20 74 bd 6a 15 4d 3d 90 83 1a 3d f7 2c 95 be
       -0.059601456 0.05006925 0.037723124 -0.29135868
000040 97 df d9 3d e7 de 6c bd 88 0b 24 3b f7 f9 2b be
       0.106383495 -0.057829764 0.0025031287 -0.16794573
000050 2a 83 41 3c 99 01 1d 3e 28 43 04 bd 00 69 d4 3c
       0.011811057 0.1533264 -0.032290608 0.025928974
000060 42 9c 04 be 22 12 b1 3c 2a 60 ae bc 7f ac dd 3c
       -0.12950233 0.021615092 -0.021286089 0.027059792
000070 c7 60 ba bd 60 1b b3 bd 3e 50 98 3d 46 a1 b4 bd
       -0.0910049 -0.08745456 0.0743718 -0.08819823
000080 00 d0 04 ba 02 eb ac bd 84 a6 10 be 66 1c 5f be
       -0.0005066395 -0.08443262 -0.1412602 -0.21788177
000090 3e 67 a3 bc 89 46 08 bd 68 61 9a 3d 84 80 15 3e
       -0.01994669 -0.033270393 0.0753811 0.14599806
0000a0 bc 30 81 bc 24 ac a6 3d 0f 70 34 bc ad 7e d3 3d
       -0.015770309 0.08138302 -0.011013045 0.10326896
0000b0 b9 97 77 3d bb 50 08 be 81 6b 3b 3d 65 03 0d 3e
       0.06044743 -0.13312046 0.04575682 0.13770826
0000c0 6c 96 7c 3b b4 5a 5b bd 24 ba d8 3d 48 99 79 3c
       0.0038541807 -0.053553298 0.105823785 0.015234299
0000d0 fa e0 9e bd b3 f7 b2 3c 79 c8 d0 3d b1 03 15 3d
       -0.077577546 0.021846628 0.10194487 0.036380474
0000e0 35 07 15 bb f0 bf 41 bc 5a 17 92 3b 53 f4 9e bb
       -0.0022739891 -0.011825547 0.00445835 -0.004850903
0000f0 29 4b 7e 3d 58 e9 eb bc d9 75 15 be 6a a2 c1 3c
       0.062083397 -0.02879779 -0.14595737 0.023637015
000100 cb df 46 be 62 7c ba 3d 58 82 e3 3d 4b fb 33 bd
       -0.19421308 0.091057554 0.111088455 -0.043940824
000110 8d 05 81 be eb cc 6a 3d 48 22 b8 bb 27 f1 de bd
       -0.25199547 0.05732433 -0.005619321 -0.1088584
000120 14 80 80 bd eb bf b3 bc f4 6c bb 3b b9 15 d6 bc
       -0.06274429 -0.0219421 0.0057197753 -0.026133405
000130 fe c3 3d bd 53 b2 ec bd a1 bd 93 3e 72 49 a8 3d
       -0.04632949 -0.1155745 0.28855613 0.082171336
000140 e2 36 bf 3d bf 07 25 be d1 f9 2c 3d 5c 1d fc bd
       0.0933664 -0.16116236 0.04223043 -0.12310287
000150 7e 91 72 bd c3 46 c8 bc a4 3a 90 bd c9 7f 8a bd
       -0.059220783 -0.024447804 -0.07042435 -0.06762654
000160 f0 77 42 be 56 8d 27 be 08 03 55 be cd 1e 1b be
       -0.18991065 -0.16362509 -0.20801938 -0.15148468
000170 45 23 7f 3c 47 e4 64 bc 1a 52 57 bd bb ad 6f 3d
       0.015572374 -0.013970441 -0.052568533 0.05851529
000180 b6 b8 50 3d ba c3 02 ba b0 f6 94 bb 7a 40 96 bd
       0.050957404 -0.0004988272 -0.004546009 -0.07336517
000190 4f 0b e4 3c 76 17 3a be c9 21 41 bd 03 5d a0 bc
       0.027837424 -0.18173012 -0.04715136 -0.019575601
0001a0 6e a7 13 bd 0e 60 88 bd 30 c8 a0 bc 3b 31 95 3d
       -0.036048345 -0.06658946 -0.019626707 0.072847806
0001b0 af 21 a6 3b af e7 28 be 8b be c4 3d c5 b1 30 3e
       0.0050699334 -0.1649463 0.09606656 0.17255314
0001c0 e3 14 ca bd b9 3f 13 3e bd c6 2b 3e 98 b8 84 3d
       -0.09867265 0.14379777 0.16775031 0.06480521
0001d0 49 06 5c bd 82 33 ef 3d 02 48 a2 3d 84 be b8 bd
       -0.05371693 0.11679746 0.07923891 -0.09020713
0001e0 8c 81 b1 bc 34 4b 58 bd 0e 7e a5 3d a6 36 b6 bd
       -0.021668218 -0.052806094 0.08080684 -0.08897142
0001f0 26 c5 3b 3d 3c 34 10 3e 2b c0 43 3d 46 7d c8 bd
       0.045842312 0.14082426 0.047790688 -0.09789519
000200 a3 f9 37 be 9c 95 89 3c b0 10 1d 3e d8 03 af 3e
       -0.17966323 0.016794972 0.15338397 0.3418262
000210 4a 0f 66 be 09 55 86 3e 99 52 cb bd 07 ca 1e be
       -0.2246677 0.26236752 -0.09927864 -0.15506755
000220 9b f1 9c be 5c 69 a2 3d 84 e9 ba 3c a4 8d 36 be
       -0.3065308 0.07930252 0.022816427 -0.17827469
000230 73 87 00 3e a5 f7 93 3c 97 b8 82 3d 5d 92 35 3e
       0.1255167 0.018062422 0.06382864 0.17731614
000240 81 16 a0 3e 3e 5a eb bd 93 af 7e 3b 9d 65 f3 be
       0.3126717 -0.11491822 0.0038861975 -0.47538462
000250 3c 8c 4a be 6d 6d 90 3e cf 13 4d bc 1f 25 08 3e
       -0.19780058 0.28208485 -0.01251693 0.1329541
000260 f7 a5 65 be 9a ca ca bd 76 17 17 3d 02 6e a1 bd
       -0.22426592 -0.099019244 0.03688761 -0.078823105
000270 a8 61 0f be 72 66 50 3c 9b 99 73 3e f9 59 56 be
       -0.14002097 0.012719737 0.23789065 -0.2093276
000280 d2 45 04 be e4 ce ba 3d 16 55 30 be 05 27 9f bd
       -0.1291726 0.091214925 -0.17219958 -0.07771114
000290 76 1f f1 bd 92 49 ae be 98 4d ac bd 7a 35 47 be
       -0.11773579 -0.34040505 -0.08413237 -0.19453993
0002a0 6d ec 90 3d eb 1c d2 3b af 3a e2 3d 94 59 7c 3d
       0.07076345 0.0064121387 0.11046349 0.061608866
0002b0 6a 0d 86 3e ce 3e d0 bc 91 8a fd 3d f9 3d 92 3e
       0.2618211 -0.025420573 0.12379945 0.28562906
0002c0 32 80 a5 be 0f ca 50 3e 7c b7 77 3d 99 72 95 3e
       -0.32324368 0.20389579 0.06047772 0.29188994
0002d0 30 2a 9b be 48 5c 3a 3d 7e a9 8b 3e 6e 6f 22 be
       -0.30305624 0.045498163 0.2727775 -0.1586282
0002e0 84 3c 64 bd 90 b7 1c 3e b4 95 9a bd 1d b9 35 be
       -0.055721775 0.15304399 -0.07548085 -0.17746396
0002f0 1c ed 31 3e 43 7b fe 3b b6 25 c6 3c f1 f4 25 be
       0.17375606 0.007766159 0.024187904 -0.16206719
000300 e7 a5 e9 3d c0 10 1d 3e 0c 87 81 bb a8 ef 0c be
       0.114085965 0.15338421 -0.0039528664 -0.13763297
000310 15 59 34 bd 63 ec c6 3d 65 96 10 be e1 10 b4 bc
       -0.044030268 0.09713056 -0.14119871 -0.021980705
000320 e7 4f c9 3c 98 cd ce bc 2f c8 04 bd c1 5e ba bd
       0.024574233 -0.02524452 -0.032417472 -0.09100104
000330 ee 96 17 3e d4 d2 76 3a 92 66 50 bd 1f 8c 85 be
       0.14803669 0.0009415571 -0.05087907 -0.26083466
000340 f5 5b d5 bd b3 e9 08 be 5c a8 44 bd d4 3e 26 be
       -0.1041793 -0.13370399 -0.048012123 -0.16234905
000350 b4 ef 1e 3e 80 bc 06 be 7b 44 2c 3b 8b a6 bb bc
       0.15521127 -0.13157845 0.0026285935 -0.022906562
000360 fa 91 8c 3d bc 5a 19 be 74 9b fe bd 84 4a 79 3b
       0.0686378 -0.14976019 -0.12431994 0.00380388
000370 a6 65 d7 bc 9d 06 8a bd 7b 2e 8d 3d b4 f5 30 3d
       -0.026293587 -0.06739543 0.06893631 0.04320307
000380 1e c6 48 bd 25 2a b9 bd 9b 2f bd 3d 35 ec a6 3c
       -0.049017064 -0.090412416 0.09237596 0.020376304
000390 24 37 81 bd a7 7b d9 bc 7b e8 10 bd 35 a5 1d 3e
       -0.06309345 -0.02654822 -0.03537796 0.15395053
0003a0 92 66 5c 3d 61 22 19 be 4e c7 c9 3d e5 62 99 3d
       0.053808756 -0.14954521 0.098524675 0.07489566
0003b0 18 1b 36 3d 47 1e c9 3b 8c 72 7e 3d 48 40 e1 3d
       0.044459432 0.0061376425 0.06212096 0.10998589
0003c0 f0 88 20 be c4 0a e8 bd 68 7e 02 be 29 00 36 3d
       -0.15677238 -0.113301784 -0.12743533 0.044433746
0003d0 fd 62 28 3e 41 bf d3 3d ce 24 a2 bb 63 24 31 3d
       0.16444011 0.10339213 -0.004948235 0.04324759
0003e0 f0 89 d7 bd 61 5b d3 bd 31 02 0b 3d 22 55 bf bc
       -0.10524356 -0.103201635 0.033937637 -0.023356024
0003f0 f0 c9 a7 bc d6 e1 40 be 3f 68 d5 bd 12 5a 99 3c
       -0.020482033 -0.1883615 -0.10420274 0.018719707

lstm.bias_ih_l1 f4 [256]
000000 a8 3a 93 bd b2 c3 a8 bc 02 a4 bf bd d1 67 85 3d
       -0.07188922 -0.020601127 -0.09357454 0.06513942
000010 07 df 45 bc b7 15 61 3d 0c 4e de 3d 80 c1 0e bc
       -0.0120771 0.05495235 0.1085473 -0.008713126
000020 85 ad b3 3c e8 41 83 bd 25 1f 57 bd ac 0a 80 bd
       0.021933326 -0.06409055 -0.052519936 -0.062520355
000030 4d 34 95 bd 5f f8 aa bd d5 91 da 3d 5f 15 ba bd
       -0.07285366 -0.08348154 0.106723465 -0.090861075
000040 7d 97 e4 3b 9e d0 5e bd 08 c0 b3 bc ec cf 9b 3d
       0.0069760666 -0.05439817 -0.021942154 0.07608017
000050 51 fc 7b 3d 36 de 22 bc 68 0e de bc a8 fb ad bd
       0.061519925 -0.0099406745 -0.027106479 -0.08495265
000060 dc 39 3a 3c e6 f3 43 bd a2 76 44 3e 11 96 15 3e
       0.011366334 -0.04784002 0.1918588 0.14608027
000070 64 86 42 bd eb 7b ff bc b8 07 00 bd 19 b4 c8 3d
       -0.047491446 -0.031187018 -0.03125736 0.09799976
000080 a4 59 84 3d 77 7c 6c 3a fe 0f 85 3d 63 42 14 3d
       0.0646241 0.0009021232 0.06497191 0.036196124
000090 27 73 48 3d f6 c9 dc 3c f1 68 41 3d c7 ff 19 bc
       0.048937943 0.026951771 0.04721922 -0.009399361
0000a0 71 31 0f bd 7c 09 0e 3d 00 96 21 3d 96 a2 67 bd
       -0.03495926 0.034677014 0.03944969 -0.05655154
0000b0 43 55 b4 3d 8b 83 a7 bd 49 6b a4 3a af 36 a8 3d
       0.08805325 -0.08179387 0.001254418 0.08213555
0000c0 31 e8 1a 3d ed fe 16 bd 17 84 e1 bc 8a 44 8f 3d
       0.03781909 -0.03686421 -0.027528806 0.06995495
0000d0 2b 60 2e 3d b3 6b bd bd ac 1d ba 3d 98 38 62 3d
       0.04257218 -0.092490576 0.09087691 0.055229753
0000e0 06 42 37 3e d2 c5 38 3b 57 a0 ed 3d 37 0f a0 3c
       0.1789628 0.0028194082 0.11602848 0.019538505
0000f0 9c a3 3c 3e af 8b ab 3d 1d be 8e 3e 83 c4 29 3d
       0.18421787 0.08376252 0.2787942 0.041447174
000100 c8 a0 6b bd 4a 24 0a 3d d9 6a 8d 3d 46 25 1d bd
       -0.05752638 0.033726014 0.06905145 -0.038365625
000110 4a 4d 66 bd 01 ac 96 3d a5 17 94 3c fd 25 dd 3d
       -0.056226052 0.07357026 0.01807768 0.10798261
000120 ad c8 14 bd 1f c7 b0 3d df 96 6c 3d f9 fd 87 bd
       -0.03632419 0.08631729 0.05776107 -0.06640238
000130 5b 60 58 3d 5a d8 dd bc fa df fe 3d f0 59 eb 3d
       0.052826267 -0.027080704 0.12445064 0.114917636
000140 b1 52 3e 3d df 70 f9 3d 93 c7 37 3d f3 d7 8a bd
       0.04646558 0.121797316 0.044868063 -0.0677947
000150 63 67 2d 3d 73 e9 fe 3d 49 a4 0e 3e 35 c5 17 3d
       0.042334925 0.12446871 0.13929857 0.037053306
000160 08 7c 16 3e f2 64 01 3e 7a 54 1f bd a8 a7 6e ba
       0.14695752 0.12636164 -0.038898923 -0.0009103962
000170 fb 5e fc 3d 5b 94 cd 3d 0b 3a a6 3c b2 d4 38 3d
       0.123228036 0.10038062 0.020291349 0.045124717
000180 c7 03 09 3e ec 2d bc 3d b6 de 07 3e ad 27 e2 3c
       0.13380347 0.091884464 0.13268551 0.02760681
000190 f2 c6 f3 3b 32 6f b7 bc 05 87 ed 3d 90 da 30 bd
       0.0074394876 -0.02239189 0.115980186 -0.043177187
0001a0 ba 0d da 3c 75 23 4e 3d 4b 38 b9 bd 73 a8 2a bd
       0.026617873 0.050326783 -0.0904394 -0.041664552
0001b0 32 40 9b bb 44 13 8a bd 91 9d 6f 39 69 5b 3b 3d
       -0.0047378773 -0.06741956 0.00022851514 0.045741472
0001c0 ad 34 29 3d 38 c1 04 3d 83 e1 bb bd 0d e8 01 3e
       0.04131 0.03241083 -0.09173872 0.12686177
0001d0 55 61 85 3d 7b 8d 7c bc bd b2 71 bd 07 3c bd bd
       0.06512705 -0.015414591 -0.05900835 -0.09239965
0001e0 ed bc 12 bd b5 ee 86 3d 94 dd 50 bd f4 75 e4 bc
       -0.035824705 0.065884985 -0.050992563 -0.027888276
0001f0 b4 2e 08 3d 20 a5 46 3d 51 ff d3 bb 38 fa b3 3d
       0.033247665 0.04849732 -0.006469645 0.0878796
000200 75 42 78 3c df af 8b bd ca 72 0d bc e4 f1 7d 3d
       0.015152563 -0.06820654 -0.008633325 0.061998263
000210 54 8d 1d 3d a0 1c 90 3a c9 cc ce bd 34 41 ac bd
       0.03846486 0.0010994859 -0.100976534 -0.08410874
000220 0d 94 96 bd 18 7c 95 3d 15 94 c4 bc da 07 ed 3d
       -0.07352457 0.0729906 -0.023996392 0.11573763
000230 54 4e d7 bd 9e c5 53 3d 86 f8 bc bd 4f f6 c4 3b
       -0.10512987 0.051702134 -0.092270896 0.0060108076
000240 a1 79 b5 bd 38 ba ce bb 27 dc 1d bd 71 85 c1 bc
       -0.088610895 -0.00630882 -0.03854003 -0.0236232
000250 6a dc 82 3d 72 d3 39 3d 16 e1 30 3d a8 6e 49 bd
       0.06389697 0.045367666 0.04318341 -0.049177796
000260 7a 6b 63 3d 95 21 ce 3d f9 62 d6 3d b6 d4 49 3d
       0.05552242 0.10064999 0.10468096 0.049275123
000270 f3 76 7d bd 89 e8 e9 3d 31 cf 03 3e fa 48 c9 bd
       -0.061881017 0.11421306 0.12872006 -0.09828372
000280 d6 8e e0 3c 25 17 fb bd 41 e7 a0 bd fe 06 09 3e
       0.02741186 -0.12260274 -0.07856608 0.13381574
000290 89 8a c4 bd f6 ac e9 bc 44 28 3a 3d 1c 5d 12 bb
       -0.09596736 -0.028524857 0.045448557 -0.002233333
0002a0 49 51 05 3d 69 88 19 be aa 34 25 3d 3b 11 bb 3c
       0.032548223 -0.14993443 0.040333427 0.022835365
0002b0 eb e3 f6 bd c5 ba a5 bd 8c 56 8b bb 0e 72 bb bc
       -0.12055191 -0.08092264 -0.0042522606 -0.022881534
0002c0 66 03 aa 3c 2e 37 61 3d 35 d2 e9 bd 7d 50 07 bd
       0.020753574 0.054984264 -0.11417047 -0.033035744
0002d0 e4 6b fe 3d 1d 68 35 3c 3f d1 75 bd 46 7c 29 3d
       0.12422922 0.011072186 -0.060014006 0.041378282
0002e0 ca 14 b4 3d 42 4d 8e bc 9a 44 95 bc d9 4f 04 bd
       0.08793028 -0.017370824 -0.018221188 -0.03230271
0002f0 5c 9e cf 3d 0a d7 2e bd b1 da 92 3d a8 75 9e bd
       0.101376265 -0.042685546 0.07170618 -0.07737285
000300 a5 d4 20 3e ff 03 5a 3d c1 d1 c5 3d b2 d7 f4 bc
       0.15706117 0.053226467 0.09659148 -0.029888008
000310 ae 20 08 3e d0 a8 2b 3c 2a 29 4f bd 6d be 9e bd
       0.13293716 0.01047726 -0.050576366 -0.077511646
000320 95 f9 8d bc 47 ae 18 3e 6c 6a 58 3c aa 22 dc 3d
       -0.017330924 0.14910232 0.013208967 0.10748799
000330 9d c5 16 be ef 3d 57 3e 01 7c 8b 3c ac 35 0c bd
       -0.14723821 0.2101972 0.017026903 -0.034230873
000340 6b fd c6 3d 9f 2f f1 3d fc 03 92 3d 6c 96 8b 3d
       0.097163044 0.11776661 0.07129666 0.068158
000350 62 f4 e3 3d f8 7b 97 3d db f7 0d 3c c8 6a 33 3e
       0.11130597 0.07396692 0.00866505 0.17521203
000360 e8 14 3e 3b e0 cd 1f 3e a2 70 44 3e b6 19 26 3e
       0.002900416 0.15605879 0.19183591 0.16220745
000370 3b 25 a0 3d 13 0f 61 bd 13 44 5d 3e 0e 75 02 3d
       0.07819601 -0.054946017 0.21608 0.031849913
000380 c8 e9 c0 3d 76 7f df 3d c6 76 eb 3d 5a 31 c1 3c
       0.0941959 0.10912983 0.114972636 0.023583103
000390 4c 87 cd 3d 16 80 01 3e 5a d3 5d 3e f2 3e e7 bc
       0.100355715 0.12646517 0.21662655 -0.028228257
0003a0 1e 67 d8 3d f7 02 1a 3e c9 22 24 bd e9 6a 66 3d
       0.10566543 0.15040193 -0.040072236 0.0562543
0003b0 93 51 a1 bd d4 70 30 bc eb 4b 8f bd 89 de 88 3d
       -0.07876887 -0.010769088 -0.06996902 0.0668307
0003c0 8f aa 57 3c 8f b0 77 3e a8 d1 2c 3e 5c 5b 2e 3e
       0.013163223 0.24188446 0.16876853 0.17027038
0003d0 6b 62 fc bd c6 03 56 3c 0e 3d a0 bd bc b2 07 3d
       -0.12323459 0.013062423 -0.07824145 0.03312944
0003e0 e6 d0 d2 3d 3e a1 3d 3d 2f 7e bf bd ee 78 07 3d
       0.102937505 0.04629635 -0.093502395 0.033074312
0003f0 63 58 c9 bc 32 b6 88 3b b5 66 f4 3d 01 9e 15 bc
       -0.024578279 0.00417211 0.11933652 -0.009131909
