LogAnomaly/result/deeplog/deeplog_epoch202.pth (torch_old, 639414 bytes, 30 tensors)

lstm.weight_ih_l0 f4 [256, 1]
-0.18787293 -0.019640012 -0.039739083 0.08193009 -0.13610885 0.054863963 -0.090376146 0.05294605
0.14892092 0.07292034 0.16734813 -0.078076296 0.10281698 0.10857624 -0.077665836 0.26812476
0.038808648 0.050399628 -0.14589153 0.13786805 0.15614466 0.07298342 0.035403613 -0.04546275
0.1764318 -0.050071277 -0.005531308 0.049341455 0.073724486 -0.16120884 0.07641615 0.010117613
0.14665724 0.087922476 0.011291583 0.054197986 0.210026 0.01014714 0.120905474 -0.14117485
0.015011055 -0.14352998 0.12831663 0.3867331 -0.098712854 0.09285497 0.1371562 -0.18975438
0.1750567 0.14758497 0.33598623 0.11061934 0.09488891 0.29903784 0.14552979 -0.050710544
-0.16446377 0.014911906 0.09368887 0.038721893 0.042154502 0.09886559 0.09676169 -0.15393004
-0.060364246 0.051977012 0.11086557 -0.013275603 -0.08868736 0.04882592 0.114633776 0.044665407
-0.040890478 0.26842636 0.16285592 -0.110323064 -0.026612347 0.060366377 0.17339444 0.23600161
0.022020206 0.102631435 -0.10833481 0.022470465 0.00758687 0.21370964 0.10841381 -0.05276062
0.0022406895 0.07381971 -0.4706159 0.08321464 -0.058322836 -0.2669757 0.21835268 0.032704297
-0.0051423586 0.11228927 0.11340749 0.06599159 0.07923834 0.174195 0.06254702 0.03382488
0.1183893 0.22036803 0.16402996 0.067711264 -0.12849274 -0.035279524 0.05381 -0.10679574
0.050015386 0.08607549 0.29970485 0.23211381 0.054777864 0.028868604 0.12970984 -0.0303776
-0.1758638 0.16313818 0.42617843 -0.035987183 0.020274753 0.05738154 -0.08238668 -0.14449297
0.38743675 -0.12717065 0.07603809 0.030294951 0.2158901 -0.1654141 -0.043550096 0.11705941
0.14225325 -0.04166005 -0.052713044 0.21594618 -0.22763321 0.13836327 -0.1525018 -0.08901151
0.19946697 -0.26093787 -0.23031004 0.19350228 0.17196655 -0.035488464 -0.124041095 0.19009365
0.089866705 0.3131015 -0.39677185 0.017680857 0.03001891 -0.16537791 0.90058196 0.00059432007
0.4519372 0.026976608 0.08272735 -0.025713118 -0.29715616 -0.19120458 -0.22272837 -0.17282648
0.16497831 0.041275874 -0.14318292 -1.6352633 0.34358096 0.31372762 0.062242784 0.46652296
-0.10812343 -0.14226936 -0.14266062 -0.032541912 -0.35377017 0.45185953 0.03582948 0.16359085
-0.34074476 0.06937193 0.05729036 -0.07110045 0.13464618 -0.07186712 0.07600512 -0.32325602
0.16168664 -0.01983928 0.15587339 0.31887636 0.16560975 0.058483858 0.1293543 0.21568455
0.054702714 0.27890545 0.045049503 0.24025854 0.24925773 0.13979906 0.22083338 0.2674306
-0.08985788 0.03233105 0.28368917 0.15544371 0.24831134 0.224986 -0.19377618 -0.17039049
-0.16901632 0.05646652 0.006128031 0.10670572 -0.030518116 -0.3516428 0.10379262 0.27169564
-0.10122247 0.32980233 0.07904562 0.30371356 -0.087437004 -0.2176258 0.07719879 -0.28598067
-0.19196248 0.2694773 0.19223605 -0.28891826 0.27386704 0.0158001 0.21263598 -0.15828705
-0.1819137 -0.117446244 0.11041378 -0.21290982 0.07482249 -0.091566175 0.059367586 0.057256162
0.15712126 -0.21493454 0.22372836 -0.13457625 0.12012386 0.13354848 0.18840861 0.089068756
00000000: c361 40be 17e4 a0bc 73c5 22bd f7ca a73d
00000010: 1e60 0bbe 09b9 603d 2117 b9bd f5dd 583d
00000020: ba7e 183e 4257 953d 4f5d 2b3e 77e6 9fbd
00000030: b591 d23d 385d de3d 440f 9fbd a647 893e
00000040: d1f5 1e3d d76f 4e3d 9764 15be 482d 0d3e
00000050: 63e4 1f3e 5578 953d 6103 113d 2637 3abd
00000060: 8aaa 343e 8a17 4dbd f93f b5bb 441a 4a3d
00000070: ddfc 963d ee13 25be 1280 9c3d 58c4 253c
00000080: 512d 163e b310 b43d 5500 393c b5fe 5d3d
00000090: 0e11 573e 3140 263c 4a9d f73d 2490 10be
000000a0: eef0 753c 86f9 12be 6f65 033e e201 c63e
000000b0: f729 cabd bf2a be3d ad72 0c3e f94e 42be
000000c0: 1042 333e 8420 173e 6306 ac3e 648c e23d
000000d0: 1e55 c23d 7d1b 993e c305 153e dcb5 4fbd
000000e0: 3169 28be 1151 743c f3df bf3d d99a 1e3d
000000f0: 33aa 2c3d 0b7a ca3d fe2a c63d d69f 1dbe
00000100: 8040 77bd d9e5 543d 7d0d e33d ea81 59bc
00000110: b8a1 b5bd b0fd 473d 1dc5 ea3d 13f3 363d
00000120: c67c 27bd 2e6f 893e b4c3 263e 0ff1 e1bd
00000130: 2302 dabc bc42 773d 508e 313e 68aa 713e
00000140: b863 b43c 6e30 d23d a4de ddbd fb13 b83c
00000150: 479b f83b b3d6 5a3e 0f08 de3d 851b 58bd
00000160: 88d8 123b ca2e 973d 91f4 f0be 706c aa3d
00000170: ede3 6ebd 0ab1 88be d897 5f3e f1f4 053d
00000180: 3b81 a8bb ebf7 e53d 3042 e83d 9926 873d
00000190: b647 a23d 2d60 323e a718 803d f58b 0a3d
000001a0: 1776 f23d 28a8 613e 78f7 273e 34ac 8a3d
000001b0: 9a93 03be 4381 10bd e067 5c3d bab7 dabd
000001c0: efdc 4c3d 5948 b03d ea72 993e 3eaf 6d3e
000001d0: c15e 603d da7d ec3c a8d2 043e 72da f8bc
000001e0: a415 34be b20d 273e 0f34 da3e 4c67 13bd
000001f0: 3d17 a63c e808 6b3d 59ba a8bd f7f5 13be
00000200: 1c5e c63e 0639 02be dcb9 9b3d 1e2d f83c
00000210: 4b12 5d3e 5062 29be 9661 32bd d8bc ef3d
00000220: d6aa 113e bba3 2abd a2e9 57bd ff20 5d3e
00000230: ae18 69be 1aaf 0d3e 6f29 1cbe ab4b b6bd
00000240: 1241 4c3e a699 85be 65d6 6bbe 7625 463e
00000250: 0018 303e 5a5c 11bd 4209 febd e9a7 423e
00000260: 090c b83d d74e a03e ae25 cbbe 72d7 903c
00000270: 38ea f53c d458 29be 8a8c 663f 25cc 1b3a
00000280: 5064 e73e 0cfe dc3c f56c a93d 51a4 d2bc
00000290: da24 98be 22cb 43be e812 64be 6df9 30be
000002a0: 13f0 283e e410 293d 8b9e 12be 4f50 d1bf
000002b0: d8e9 af3e e8a0 a03e 4af2 7e3d 19dc ee3e
000002c0: d16f ddbd 0faf 11be a015 12be ab4a 05bd
000002d0: 5d21 b5be 225a e73e efc1 123d 5c84 273e
000002e0: 1976 aebe df12 8e3d 4ca9 6a3d 1d9d 91bd
000002f0: b0e0 093e 122f 93bd 93a8 9b3d d081 a5be
00000300: 2f91 253e fc85 a2bc 469d 1f3e c343 a33e
00000310: 9a95 293e c58c 6f3d 7475 043e 69dc 5c3e
00000320: f40f 603d b2cc 8e3e d485 383d 5606 763e
00000330: 6b3d 7f3e 7c27 0f3e 2522 623e aaec 883e
00000340: 6807 b8bd 906d 043d b53f 913e a32c 1f3e
00000350: 5445 7e3e bb62 663e 436d 46be d87a 2ebe
00000360: 9d12 2dbe 7049 673d a6cd c83b 8788 da3d
00000370: 2101 fabc 860a b4be 3a91 d43d b11b 8b3e
00000380: ba4d cfbd dadb a83e ace2 a13d 5880 9b3e
00000390: 2c12 b3bd 4cd9 5ebe 661a 9e3d 0f6c 92be
000003a0: d091 44be eef8 893e 87d9 443e 18ed 93be
000003b0: 4d38 8c3e 366f 813c 3fbd 593e 0016 22be
000003c0: 9647 3abe a887 f0bd 9f20 e23d 0805 5abe
000003d0: 893c 993d 0c87 bbbd 6d2b 733d 7085 6a3d
000003e0: 65e4 203e cd17 5cbe 0c19 653e 5bce 09be
000003f0: 8003 f63d efc0 083e 30ee 403e ae69 b63d

lstm.weight_hh_l0 f4 [256, 64]
0.23516242 -0.14544089 0.014535748 0.07702297 0.23325115 -0.11120489 -0.08259851 0.0675208
0.14935614 0.10032026 -0.015155589 -0.11727144 -0.18088865 0.080279976 -0.13263811 0.24273282
0.17323636 -0.024554402 0.03492275 0.14141849 -0.04810347 0.097391054 -0.10933971 0.2037735
0.2265586 0.21545291 0.084226236 0.08894972 0.07053484 -0.24635409 0.060921546 0.11993914
0.06519251 0.060420603 0.06127178 -0.15782088 -0.07427661 -0.16897853 -0.10125761 -0.2833653
0.0860984 -0.104885325 0.08876483 -0.094545566 0.05971377 0.15448086 0.035803366 0.25861898
-0.26766008 -0.07980188 0.16741028 -0.30497772 0.038172796 0.16363665 0.10078621 -0.010431537
-0.07902307 0.33281142 -0.033735283 -0.08698089 0.1202058 -0.03216942 -0.15917787 -0.066885814
-0.0086612925 -0.107897446 0.27370584 0.1652241 0.16659166 -0.17019598 0.091110535 0.07769549
0.14769168 0.107542075 -0.12082527 0.095010795 -0.21015657 0.17529164 -0.13081181 -0.306668
0.23106699 -0.031212645 -0.16527523 0.20743574 0.13872378 -0.06750742 -0.179616 0.11251665
0.38791355 0.10182187 -0.10709704 0.10023181 0.20905425 -0.015994776 0.039305754 0.17840123
0.06272036 0.13613854 0.07203495 -0.093104325 -0.051974937 -0.23189175 -0.14898968 0.0025183568
0.22323701 -0.0674499 -0.103131056 0.08291452 0.04175363 0.15653555 0.19200131 -0.07537033
-0.2541937 -0.13059133 -0.045404494 -0.24753733 -0.0060638925 -0.008971815 0.23196532 0.1516098
-0.051433466 0.37157908 0.042595726 -0.2355557 0.11194493 -0.13851593 0.04289372 -0.10261924
0.11481521 0.064048715 0.11312257 0.1828522 0.13837913 -0.21053988 -0.19091325 0.19426973
0.18477128 -0.027986258 -0.05617796 0.08444103 -0.08231797 0.041738283 -0.14873888 0.090781726
0.13467838 -0.20931242 -0.0018968047 0.17160343 0.05147729 0.07318478 -0.10582337 0.031436644
0.16596474 0.058282904 -0.042868767 0.25012934 0.039856263 -0.3728445 0.097728215 0.04012167
-0.111402966 0.08084082 0.1596016 -0.09223692 0.019900315 -0.09521081 -0.026261559 -0.22608212
0.10036668 -0.09849223 -0.07692639 -0.058880307 0.031934857 0.07040894 0.21728896 -0.0009253423
-0.077532984 0.02972666 -0.11101314 -0.051125273 0.06988172 0.058855966 0.089830264 0.18186142
-0.058056064 0.16083121 -0.02499624 -0.38955387 -0.038394533 -0.11164002 0.057805337 -0.25340077
0.01745931 -0.21820529 -0.016697902 0.059099477 0.04877955 0.087522805 0.023119714 -0.09992728
-0.0716798 -0.047025256 0.026427565 0.09316068 -0.0385827 0.030628227 0.036337916 0.054795224
0.00036674822 -0.07863622 -0.13084683 0.03663641 0.06566214 -0.020073418 -0.20787027 0.23460524
-0.062289413 0.13722105 0.020897863 0.06503134 0.09751308 -0.23123682 -0.029217185 -0.012411323
0.080608346 -0.037317127 0.12153913 0.050316356 -0.0574786 -0.17018794 -0.1001618 -0.28810468
-0.07093632 0.07380502 -0.11657728 -0.022372149 0.24025533 -0.051181477 -0.15691726 0.2787903
0.03393569 0.022683907 0.04599239 -0.082517564 -0.1021144 0.082170315 0.04193048 0.11370607
-0.10559241 0.11292713 0.13939832 -0.067261726 0.11151505 -0.03887413 -0.09215245 -0.010103032
00000000: 6bce 703e 75ee 14be 5927 6e3c 38be 9d3d
00000010: 64d9 6e3e 64bf e3bd 6829 a9bd 5848 8a3d
00000020: d1f0 183e b574 cd3d 264f 78bc 022c f0bd
00000030: e03a 39be d469 a43d 49d2 07be f48e 783e
00000040: df64 313e 5026 c9bc 280b 0f3d 02d0 103e
00000050: 2508 45bd f674 c73d 7fed dfbd 00aa 503e
00000060: fafe 673e b09f 5c3e ce7e ac3d 452b b63d
00000070: 9274 903d 3f44 7cbe df88 793d a7a2 f53d
00000080: a783 853d 987b 773d 1ef8 7a3d cc9b 21be
00000090: 561e 98bd b508 2dbe 2660 cfbd 4215 91be
000000a0: 5c54 b03d 1ece d6bd 56ca b53d 1ba1 c1bd
000000b0: 6d96 743d 3b30 1e3e 8da6 123d b569 843e
000000c0: be0a 89be 2b6f a3bd 9a6d 2b3e 0a26 9cbe
000000d0: 145b 1c3d 5e90 273e 0069 ce3d 0ae9 2abc
000000e0: d9d6 a1bd 4266 aa3e 022e 0abd 0923 b2bd
000000f0: 752e f63d 15c4 03bd 86ff 22be 6efb 88bd
00000100: 18e8 0dbc 56f9 dcbd 2c23 8c3e 8230 293e
00000110: 0197 2a3e db47 2ebe 2998 ba3d d01e 9f3d
00000120: 7d3c 173e 053f dc3d 3d73 f7bd 0595 c23d
00000130: 4933 57be a77f 333e 88f3 05be 9703 9dbe
00000140: d39c 6c3e a9b1 ffbc e93d 29be 096a 543e
00000150: 9b0d 0e3e 5541 8abd 42ed 37be 216f e63d
00000160: 9b9c c63e fc87 d03d b155 dbbd 5646 cd3d
00000170: 5112 563e 7a07 83bc 12ff 203d d0ae 363e
00000180: 8873 803d e767 0b3e 0f87 933d 7bad bebd
00000190: ace3 54bd 0875 6dbe c090 18be 040b 253b
000001a0: 3e98 643e 2c23 8abd 6036 d3bd 16cf a93d
000001b0: db05 2b3d db4a 203e fe9b 443e c25b 9abd
000001c0: ad25 82be bcb9 05be 10fa 39bd 6d7a 7dbe
000001d0: 9eb3 c6bb 85fe 12bc 5188 6d3e 993f 1b3e
000001e0: e6ab 52bd 9d3f be3e db78 2e3d 8335 71be
000001f0: 6243 e53d 1fd7 0dbe 53b1 2f3d 092a d2bd
00000200: 3d24 eb3d f92b 833d ceac e73d 9b3d 3b3e
00000210: 42b3 0d3e c497 57be c37e 43be a5ee 463e
00000220: af34 3d3e 7043 e5bc dc1a 66bd 6bef ac3d
00000230: 5396 a8bd c3f5 2a3d 014f 18be c5eb b93d
00000240: 21e9 093e ff55 56be 349e f8ba cfb8 2f3e
00000250: dad9 523d e7e1 953d ecb9 d8bd b6c3 003d
00000260: a9f2 293e 0eba 6e3d 2997 2fbd f410 803e
00000270: 5240 233d 79e5 bebe bb25 c83d 9f56 243d
00000280: 3d27 e4bd df8f a53d 9a6e 233e b6e6 bcbd
00000290: fc05 a33c e3fd c2bd 7b22 d7bc 1282 67be
000002a0: 0c8d cd3d 4bb6 c9bd 958b 9dbd 7a2c 71bd
000002b0: 20ce 023d 9032 903d ff80 5e3e ac92 72ba
000002c0: 9dc9 9ebd 5385 f33c db5a e3bd bc68 51bd
000002d0: 261e 8f3d f412 713d eef8 b73d e139 3a3e
000002e0: 32cc 6dbd f0b0 243e eac4 ccbc 9b73 c7be
000002f0: 9643 1dbd 86a3 e4bd 4ac5 6c3d bfbd 81be
00000300: d406 8f3c 3571 5fbe 0aca 88bc 4b12 723d
00000310: 11cd 473d 283f b33d 8e65 bd3c aca6 ccbd
00000320: dccc 92bd 8e9d 40bd 9f7e d83c 07cb be3d
00000330: e508 1ebd 0ce8 fa3c 11d7 143d f570 603d
00000340: 1d48 c039 070c a1bd b6fc 05be 0f10 163d
00000350: df79 863d 0271 a4bc f2db 54be 5b3c 703e
00000360: 2f23 7fbd ad83 0c3e ff31 ab3c 272f 853d
00000370: f0b4 c73d 58c9 6cbe e158 efbc dd58 4bbc
00000380: fd15 a53d d8d9 18bd 82e9 f83d 8618 4e3d
00000390: ae6e 6bbd bf45 2ebe a121 cdbd 7582 93be
000003a0: 1047 91bd 1627 973d 12c0 eebd cc45 b7bc
000003b0: 7e05 763e aba3 51bd ebae 20be 9abd 8e3e
000003c0: 2600 0b3d 9ad3 b93c 8462 3c3d f8fe a8bd
000003d0: 5b21 d1bd e948 a83d 4cbf 2b3d bade e83d
000003e0: d540 d8bd 5746 e73d 6fbe 0e3e 84c0 89bd
000003f0: 0162 e43d 7b3a 1fbd 6cba bcbd 3087 25bc

lstm.bias_ih_l0 f4 [256]
0.08466486 0.083541095 0.05354158 -0.07569191 0.18060777 0.009359609 0.18318968 -0.017692236
0.22297214 0.20847641 -0.11425991 0.20526694 0.04695025 0.091352664 0.10019789 0.19381338
0.14805405 0.14201881 0.1511947 -0.038978744 -0.039076567 0.06577949 0.07827043 0.103258476
0.124821655 0.18901329 0.06372253 0.07830329 -0.021726234 0.23018022 0.238676 -0.09365444
0.010263968 0.10159816 0.0310972 -0.09882412 0.16933748 -0.07610585 0.050039276 -0.07127843
0.13211939 -0.028160492 -0.019353043 0.6689864 0.04397362 0.25724193 0.033660993 0.08987217
-0.052128892 0.08135744 -0.019149479 -0.09489647 -0.06920044 0.285476 0.08615125 0.0051729614
0.16985829 -0.04286806 0.060483415 0.06710359 -0.032021467 0.11652208 -0.21971549 0.028156588
-0.0389034 0.16063558 -0.07182645 0.07786001 0.081091054 0.09123362 0.096543655 0.09625136
0.07020424 0.09729815 -0.1412747 0.13600342 0.045420583 0.049964745 0.001962395 -0.0856203
0.04708585 -0.01555116 -0.10328962 -0.10563992 0.038486343 0.103778005 -0.102622285 -0.0011844537
0.1939774 0.12770307 0.062823914 0.009165401 0.19175111 0.07872847 -0.16127527 0.11273432
-0.04110183 0.069458574 -0.03070813 0.024408108 0.04799931 -0.120189026 -0.020154137 0.006510061
-0.092628196 -0.0058186576 0.13198344 -0.27592966 -0.10046451 0.18588005 0.101696655 0.10656394
0.070403285 0.0176364 -0.0012397801 -0.06720762 -0.071684256 0.10162786 0.08620896 0.0110623315
0.103795476 0.13431184 -0.19785972 0.12599002 0.02466248 0.050342772 0.07526154 0.15055718
0.04924075 0.1902081 -0.06749619 -0.1887728 0.13850664 0.10963804 -0.18857713 0.21612616
0.22370246 0.13097963 -0.08291523 -0.029216954 0.18467064 0.0048868223 -0.051315203 0.097157106
0.2308289 -0.17473277 0.046124805 0.034873817 0.03232383 0.16036457 -0.08385398 -0.07909846
-0.059868813 0.1384545 0.044725068 0.092963494 -0.0108611975 -0.32600543 0.14851484 0.020628579
-0.23081422 -0.13623929 0.15409568 0.008259877 0.031042423 -0.015177248 -0.115538314 0.06711708
0.017025812 -0.10403998 -0.09292859 0.07970828 0.008092266 0.15279397 0.06420702 -0.18833119
-0.02877399 -0.035360537 0.018597983 0.038165435 0.15460289 0.27858427 -0.044635523 -0.12562695
-0.12823047 0.029600454 0.1718193 0.056560323 -0.16060728 -0.05949568 -0.056025844 -0.14642501
0.29617152 -0.032896362 -0.04353663 -0.18851271 0.2320901 0.079058126 0.09988282 -0.112317204
0.033498287 -0.00014671247 0.1634944 0.0066728974 0.19291835 -0.05914183 0.11473166 0.09632816
0.086790375 0.018741747 0.21981359 -0.059972927 0.03466965 0.04743722 0.041345477 0.05343479
0.03153407 0.034019526 0.18860185 0.011361612 0.121538535 0.31592053 0.27746943 -0.14004412
0.14570324 -0.13455176 0.1177633 -0.10923067 0.100589335 0.13705271 0.108853124 0.264706
0.16223484 0.015894732 0.09484546 0.4435041 0.20170848 0.10864414 -0.041660305 0.13148102
0.13067918 0.113739744 0.17474571 0.019364342 0.22756588 0.21198775 0.21823274 0.22960934
0.15189506 0.072369605 0.033311225 0.17521162 -0.06863382 0.04954573 -0.18322192 0.2927692
00000000: c564 ad3d 9817 ab3d 6a4e 5b3d 5c04 9bbd
00000010: 3ef1 383e 0c59 193c 1396 3b3e 4fef 90bc
00000020: cf52 643e d77a 553e 1a01 eabd 7f31 523e
00000030: e84e 403d 1b17 bb3d 8d34 cd3d 0477 463e
00000040: 7b9b 173e 616d 113e c9d2 1a3e 2da8 1fbd
00000050: c00e 20bd 66b7 863d 3f4c a03d 2e79 d33d
00000060: 7fa2 ff3d b38c 413e f580 823d 7a5d a03d
00000070: 37fb b1bc 5db4 6b3e 7b67 743e e6cd bfbd
00000080: 342a 283c b212 d03d 8ebf fe3c 4d64 cabd
00000090: ce66 2d3e 62dd 9bbd fcf5 4c3d 6dfa 91bd
000000a0: 4e4a 073e d5b0 e6bc 468a 9ebc b142 2b3f
000000b0: af1d 343d 37b5 833e 1ce0 093d e60e b83d
000000c0: 1b85 55bd bb9e a63d 5edf 9cbc 1559 c2bd
000000d0: f6b8 8dbd e929 923e 1170 b03d f281 a93b
000000e0: 55ef 2d3e 6b96 2fbd 75bd 773d 9b6d 893d
000000f0: f128 03bd 21a3 ee3d 19fd 60be a5a8 e63c
00000100: 2c59 1fbd a77d 243e bf19 93bd 1275 9f3d
00000110: 1113 a63d b1d8 ba3d aeb8 c53d 6f1f c53d
00000120: 3ec7 8f3d 4144 c73d 51aa 10be 7b44 0b3e
00000130: ef0a 3a3d d5a7 4c3d 869b 003b b259 afbd
00000140: 18dd 403d 4bca 7ebc 8289 d3bd be59 d8bd
00000150: dba3 1d3d 9089 d43d a22b d2bd ac3f 9bba
00000160: 03a2 463e 98c4 023e d3a9 803d 7a2a 163c
00000170: 675a 443e 643c a13d 5825 25be 40e1 e63d
00000180: 645a 28bd 4c40 8e3d 9e8f fbbc 83f3 c73c
00000190: ed9a 443d aa25 f6bd 4a1a a5bc 5a52 d53b
000001a0: dab3 bdbd 70aa bebb ab26 073e a746 8dbe
000001b0: 56c0 cdbd 5757 3e3e 5646 d03d 323e da3d
000001c0: 992f 903d 367a 903c 1e80 a2ba 26a4 89bd
000001d0: 32cf 92bd 4422 d03d 538e b03d c83e 353c
000001e0: b992 d43d 0b89 093e bd9b 4abe 8703 013e
000001f0: f808 ca3c 3934 4e3d b922 9a3d a92b 1a3e
00000200: abb0 493d eac5 423e 713b 8abd a84d 41be
00000210: afd4 0d3e e989 e03d 5d1a 41be 2d50 5d3e
00000220: 4212 653e 861f 063e 76cf a9bd 6558 efbc
00000230: 4d1a 3d3e a321 a03b e42f 52bd 4efa c63d
00000240: 695e 6c3e 26ed 32be 5ded 3c3d d9d7 0e3d
00000250: fe65 043d 9c36 243e a3bb abbd 60fe a1bd
00000260: 0039 75bd 04c7 0d3e a231 373d a563 be3d
00000270: 2af3 31bc 2fea a6be 4614 183e 44fd a83c
00000280: 905a 6cbe 5082 0bbe 42cb 1d3e 6f54 073c
00000290: ae4c fe3c fea9 78bc 5a9f ecbd ae74 893d
000002a0: b779 8b3c ea12 d5bd 5851 bebd 183e a33d
000002b0: 6c95 043c 0676 1c3e f87e 833d e4d9 40be
000002c0: 6eb7 ebbc 36d6 10bd cc5a 983c 5c53 1c3d
000002d0: 3850 1e3e 99a2 8e3e bdd3 36bd 5aa4 00be
000002e0: d94e 03be a77c f23c 66f1 2f3e ccab 673d
000002f0: 3c76 24be beb1 73bd 5b7b 65bd 70f0 15be
00000300: cba3 973e 56be 06bd 7753 32bd 7a09 41be
00000310: 07a9 6d3e 3ae9 a13d 5d8f cc3d 9006 e6bd
00000320: 8035 093d d4d6 19b9 136b 273e 52a8 da3b
00000330: 638c 453e b43e 72bd 6ff8 ea3d b347 c53d
00000340: 27bf b13d 4b88 993c d016 613e 2ca6 75bd
00000350: c301 0e3d 884d 423d e059 293d 70de 5a3d
00000360: de29 013d 0f58 0b3d d820 413e 0e26 3a3c
00000370: 32e9 f83d 56c0 a13e 7910 8e3e ba67 0fbe
00000380: 3b33 153e f0c7 09be e32d f13d 54b4 dfbd
00000390: c801 ce3d 8c57 0c3e 63ee de3d 8b87 873e
000003a0: e420 263e ab35 823c 563e c23d f812 e33e
000003b0: ab8c 4e3e d280 de3d ffa3 2abd f6a2 063e
000003c0: c3d0 053e 62f0 e83d 8af0 323e f8a1 9e3c
000003d0: 0807 693e 5113 593e 6778 5f3e b61e 6b3e
000003e0: 618a 1b3e 8436 943d 5a71 083d ad6a 333e
000003f0: e38f 8cbd 77f0 4a3d 879e 3bbe d8e5 953e

lstm.bias_hh_l0 f4 [256]
0.16438083 0.07140347 0.06723081 0.079953596 0.1283279 0.06759748 0.008930865 0.06334233
0.062467992 0.23801443 0.03203831 0.16211756 0.18207619 -0.034287084 0.10173117 0.20337449
0.07591331 0.016185801 0.068969704 0.057003114 0.0114218 0.0911918 0.014389115 0.006758491
0.11295987 0.11272744 -0.01339915 0.102209955 -0.030604979 0.27146235 0.18963134 0.106843576
0.14781986 0.039936587 0.0447628 -0.0014958093 0.24156617 -0.06266791 0.07787513 -0.121700935
0.040882282 -0.0014445893 0.09024497 0.5902185 0.109007366 0.23490377 0.06778861 0.08162651
-0.10415803 -0.04539452 -0.060780197 -0.022554457 0.03360059 0.47126982 -0.05088378 0.036990732
0.15110274 0.035869297 0.2457539 0.08569032 0.11695432 0.102413364 -0.111790806 0.037760556
-0.049687587 0.040081926 -0.023660319 0.10864542 -0.0268146 0.1207522 0.04701061 0.123687975
0.20114674 0.010698803 -0.10984106 0.06820405 -0.0021246516 0.17308319 -0.09345939 -0.13382667
0.07001288 0.00785713 -0.10177363 0.0023747357 -0.009097784 0.11509879 -0.008151452 0.101735085
0.017292228 0.08009903 0.07500789 -0.09053697 0.17566496 0.05322216 -0.014439205 0.19847114
-0.08971387 -0.10725244 0.059456218 -0.004430323 -0.112536825 0.017625574 -0.1083218 -0.070677534
-0.05300267 -0.020705443 0.09770563 -0.25625378 -0.0056430185 0.052077286 0.016269738 -0.039979022
0.03597173 -0.001235859 0.05566334 0.007406402 0.022896616 0.055974867 -0.036846202 -0.017127056
0.09066178 -0.07428377 0.027126601 -0.0125445565 0.08926541 0.11087918 -0.06602766 0.09877771
-0.078519866 0.11323378 -0.13971624 -0.17576809 0.17441036 -0.06795879 -0.13289675 0.19243559
0.08093696 0.042690914 -0.05298011 -0.116042614 0.0020255488 -0.049853034 0.104780495 0.17859626
0.24169885 -0.15561981 -0.031172313 -0.108767524 -0.12778246 0.19160342 0.082708634 -0.04692489
0.007955594 0.24586982 0.045014203 0.13605142 0.0018595158 -0.17408827 -0.017222797 0.02571328
-0.1169535 -0.18202254 0.15239026 -0.06831357 0.15666018 0.10786183 -0.10171224 -0.09103545
-0.007739647 -0.15465443 -0.10648971 0.076664574 -0.028345143 0.18779925 0.05105032 0.037139717
0.08713482 -0.07612618 0.07139649 -0.039120607 0.17276073 0.262647 -0.20928204 -0.11332651
0.02312702 0.024811769 0.026655037 0.08932908 -0.09305265 -0.033484943 -0.066668086 -0.01396
0.29935506 0.1127958 -0.106085 -0.03801562 0.21298176 0.06186274 0.30068946 -0.05418315
0.07599382 -0.02005306 0.07464613 -0.061939437 0.14592905 0.105524294 0.09285328 0.03199145
0.069153145 0.16144522 0.2715231 0.08599699 0.0027436055 -0.0072250147 0.17315726 0.13388748
0.048053466 -0.03543547 0.1803643 0.076090105 -0.05818392 0.18837751 0.21179815 -0.03816315
0.09888218 9.716199e-05 0.030753415 -0.0077440115 0.08221355 0.021857383 0.12295404 0.26543692
0.06418861 -0.017664803 -0.053451866 0.3624257 0.18381676 0.027846824 -0.14207923 0.25358352
0.071882464 -0.0053572725 0.10568079 0.13181742 0.059200972 0.16725467 0.04930407 0.1792232
0.16670217 -0.02327393 -0.012321864 0.12011242 -0.024597462 0.13356669 0.016876562 0.22954145
00000000: 7353 283e fc3b 923d 4fb0 893d b6be a33d
00000010: 6468 033e 8c70 8a3d c352 123c a0b9 813d
00000020: 70de 7f3d 0eba 733e 9a3a 033d 2502 263e
00000030: 2e72 3a3e 9d70 0cbd 6f58 d03d 6741 503e
00000040: 7078 9b3d 1698 843c fd3f 8d3d 197c 693d
00000050: 8022 3b3c c4c2 ba3d 53c0 6b3c 5576 dd3b
00000060: 8157 e73d a5dd e63d 1c88 5bbc 7453 d13d
00000070: 4bb7 fabc 1dfd 8a3e b82e 423e ced0 da3d
00000080: 175e 173e 8c94 233d 3359 373d 080f c4ba
00000090: 1f5d 773e 0858 80bd ff7c 9f3d 573e f9bd
000000a0: 2e74 273d 6058 bdba 5bd2 b83d 8f18 173f
000000b0: 413f df3d 9d8a 703e c1d4 8a3d cd2b a73d
000000c0: ce50 d5bd 9bef 39bd a8f4 78bd 20c4 b8bc
000000d0: c6a0 093d 474a f13e 836b 50bd 9883 173d
000000e0: adba 1a3e afeb 123d e9a6 7b3e 687e af3d
000000f0: bf85 ef3d 19be d13d 94f2 e4bd d0aa 1a3d
00000100: 3685 4bbd f22c 243d 49d3 c1bc 7d81 de3d
00000110: 4baa dbbc ee4c f73d 338e 403d 1f50 fd3d
00000120: 69f9 4d3e 084a 2f3c 5af4 e0bd 91ae 8b3d
00000130: bd3d 0bbb b83c 313e a367 bfbd dc09 09be
00000140: ea62 8f3d 31bb 003c b16e d0bd 74a1 1b3b
00000150: df0e 15bc eab8 eb3d ab8d 05bc 7c5a d03d
00000160: 6ea8 8d3c f60a a43d bd9d 993d 726b b9bd
00000170: 84e1 333e 7bff 593d 6a92 6cbc 053c 4b3e
00000180: e8bb b7bd 2ba7 dbbd 5d88 733d 3e2c 91bb
00000190: b579 e6bd 8263 903c d2d7 ddbd 62bf 90bd
000001a0: 5419 59bd 769e a9bc e419 c83d b233 83be
000001b0: 12e9 b8bb fe4e 553d 1d48 853c 0bc1 23bd
000001c0: 1857 133d 8cfc a1ba 3eff 633d 67b1 f23b
000001d0: af91 bb3c e745 653d 0bec 16bd 0a4e 8cbc
000001e0: e2ac b93d 1722 98bd 9b38 de3c af87 4dbc
000001f0: c9d0 b63d a014 e33d 8339 87bd f84b ca3d
00000200: 06cf a0bd 1de7 e73d c611 0fbe 8dfc 33be
00000210: a198 323e fa2d 8bbd 1616 08be d60d 453e
00000220: 47c2 a53d abdc 2e3d ac01 59bd c0a7 edbd
00000230: 12bf 043b b232 4cbd 2897 d63d f0e1 363e
00000240: e77f 773e cd5a 1fbe 145d ffbc 82c1 debd
00000250: 68d9 02be b033 443e 2563 a93d 5034 40bd
00000260: 2e58 023c 4cc5 7b3e d060 383d 1051 0b3e
00000270: ffba f33a 3244 32be d316 8dbc a8a4 d23c
00000280: 5185 efbd 1e64 3abe 310c 1c3e fce7 8bbd
00000290: 876b 203e aae6 dc3d 824e d0bd cb70 babd
000002a0: dd9c fdbb bb5d 1ebe 4717 dabd 5102 9d3d
000002b0: 1334 e8bc 724e 403e 241a 513d d11f 183d
000002c0: be73 b23d 0be8 9bbd 5338 923d ee3c 20bd
000002d0: 30e8 303e ab79 863e 084e 56be bb17 e8bd
000002e0: e074 bd3c 0d42 cb3c aa5b da3c 2af2 b63d
000002f0: 6392 bebd 8227 09bd 4789 88bd 7cb8 64bc
00000300: 1145 993e 7c01 e73d 1843 d9bd 44b6 1bbd
00000310: e417 5a3e c963 7d3d f8f3 993e 27ef 5dbd
00000320: a6a2 9b3d 5146 a4bc 12e0 983d 35b4 7dbd
00000330: 6d6e 153e 1f1d d83d dc29 be3d 7709 033d
00000340: 2aa0 8d3d e551 253e 1305 8b3e 311f b03d
00000350: 10ce 333b d1bf ecbb 2350 313e cd19 093e
00000360: b6d3 443d c924 11bd 6bb1 383e 21d5 9b3d
00000370: 4352 6ebd 09e6 403e 9de1 583e f750 1cbd
00000380: be82 ca3d 72c3 cb38 96ee fb3c 7ac1 fdbb
00000390: 945f a83d 410e b33c 54cf fb3d 59e7 873e
000003a0: 5175 833d c7b5 90bc 58f0 5abd dd8f b93e
000003b0: 763a 3c3e 061f e43c 387d 11be b3d5 813e
000003c0: 1d37 933d 0f8c afbb 2c6f d83d 25fb 063e
000003d0: b87c 723d cf44 2b3e 11f3 493d 4986 373e
000003e0: f9b3 2a3e f8a8 bebc a5e1 49bc 80fd f53d
000003f0: 9e80 c9bc b5c5 083e b740 8a3c ea0c 6b3e

lstm.weight_ih_l1 f4 [256, 64]
0.014687239 -0.124661684 -0.044269014 -0.09232594 0.083998404 -0.031920385 -0.061277293 -0.0061640544
0.011412374 0.17509879 -0.064106576 -0.08947947 -0.15677662 -0.04292839 0.0020432281 0.0010436812
-0.010184762 0.010016573 -0.044222374 0.12276453 0.037814897 0.0868092 0.005392528 0.11892004
0.022321494 0.03658795 -0.111174725 -0.038557973 -0.10678798 -0.088483766 0.099174015 -0.10115591
-0.060856305 0.055702683 -0.056355275 0.006295455 0.0728132 -0.14571002 -0.08980496 -0.0033133333
0.01235272 -0.13624538 0.075587615 -0.21355103 0.0031941223 0.07747405 0.08084473 0.10217442
0.035998803 -0.1539553 -0.019596368 0.053751152 -0.0014364563 0.0936831 -0.036646582 0.0120361205
0.04280171 -0.017836573 -0.107827306 0.011617317 -0.06560241 -0.10294046 -0.24106316 -0.11979661
-0.11387068 -0.0038171343 0.03795924 -0.07041597 -0.003611986 -0.05969455 0.045901667 -0.06737825
0.013669103 0.10042676 0.15247354 0.026206328 0.1016383 -0.083114125 -0.0407844 0.2510134
-0.06727821 0.09583461 0.041350815 -0.004307644 -0.08657384 0.1042604 0.033508703 0.14230768
0.16495574 0.10442253 -0.21408837 -0.08004782 0.12963474 -0.05529423 0.044556648 -0.0069827638
-0.19602004 0.12725118 -0.03423071 0.09623663 0.01376505 0.086180694 0.07475505 0.20281896
-0.0820442 -0.05196157 0.045442864 -0.14279807 -0.008449442 0.095997 0.033949576 -0.0027565411
-0.018401042 -0.10108432 0.19285591 -0.0961624 0.08666716 -0.00790809 -0.046068445 0.06488945
-0.17533223 0.044304464 -0.070821725 -0.18182184 -0.025708312 0.08260204 0.0067360983 -0.16098605
0.040451873 -0.23572274 0.023303678 -0.13160062 0.12593445 0.11836024 -0.014881277 0.053758387
0.042286996 0.5119064 0.017578399 0.027971944 -0.1762816 -0.021084594 -0.13327502 0.7834285
0.13000089 0.00576281 -0.0017072818 0.07733718 -0.011729299 -0.0033862619 0.0024148326 0.0628931
0.11563626 0.15291029 -0.2147278 -0.09258934 0.026371999 0.10541072 0.04953781 -0.02297966
-0.1936131 -0.04997598 -0.093778096 -0.05033458 -0.037499037 -0.28060594 -0.06602264 -0.20633063
0.055054083 0.0012206148 -0.004563682 0.13865517 0.2741129 0.0019622007 -0.033323538 -0.12516764
0.05925871 -0.14231846 0.030807238 -0.15514868 -0.09820831 0.1067044 -0.018205311 0.105457656
-0.08696825 -0.005956601 -0.031322747 -0.27528393 0.14723271 0.082187 -0.25161698 -0.14797689
0.15207794 0.0650281 -0.1180158 0.010146853 0.18830037 0.059160467 0.069755584 0.11654199
-0.077204905 0.14082775 -0.20839588 -0.056036692 0.12771472 0.024787687 0.032003727 0.09983919
-0.0108332 -0.0049137706 -0.08832246 0.03965782 -0.122036375 0.03430058 -0.06655823 0.067608565
0.14736514 -0.0069071017 0.09302607 -0.08975847 0.03313905 -0.29061082 0.05327033 0.103457585
-0.056908894 -0.120409936 -0.099895224 -0.10162226 -0.013529677 0.005083811 0.0050179055 -0.020697882
-0.020720769 0.09535273 -0.14712735 -0.3251924 -0.09264333 0.05767435 0.12010713 0.036899485
-0.114289306 -0.12032716 0.07564992 -0.11696587 -0.07687421 0.0074173403 -0.0878529 -0.1719976
-0.023896368 -0.04366415 0.005757328 0.0008348286 -0.02829052 0.05562194 -0.12768848 -0.14899644
00000000: bfa2 703c a04e ffbd 6d53 35bd 6215 bdbd
00000010: 5b07 ac3d f3be 02bd e6fd 7abd d6fb c9bb
00000020: f7fa 3a3c 194d 333e 4f4a 83bd 0341 b7bd
00000030: 0d8a 20be aed5 2fbd aee7 053b 21cc 883a
00000040: fddd 26bc 8d1c 243c 8522 35bd f86b fb3d
00000050: cbe3 1a3d 06c9 b13d ceb3 b03b 5a8c f33d
00000060: 91db b63c 3fdd 153d 93af e3bd f7ee 1dbd
00000070: a8b3 dabd fa36 b5bd bf1b cb3d d42a cfbd
00000080: 7644 79bd 7f28 643d cad4 66bd 1b4a ce3b
00000090: 161f 953d 0235 15be aaeb b7bd 8224 59bb
000000a0: 1063 4a3c e983 0bbe aecd 9a3d 1fad 5abe
000000b0: 7b54 513b b7aa 9e3d ec91 a53d d340 d13d
000000c0: 7b73 133d 75a6 1dbe 9088 a0bc 2b2a 5c3d
000000d0: 7a47 bcba eddc bf3d ba1a 16bd 2633 453c
000000e0: d950 2f3d 011e 92bc 90d4 dcbd 8f56 3e3c
000000f0: 8e5a 86bd 73d2 d2bd 43d9 76be ed57 f5bd
00000100: 0835 e9bd e328 7abb 267b 1b3d 4036 90bd
00000110: 12b7 6cbb 4682 74bd 6303 3c3d 9cfd 89bd
00000120: 60f4 5f3c 8cac cd3d 0622 1c3e a7ae d63c
00000130: be27 d03d bd37 aabd 8b0d 27bd d484 803e
00000140: 28c9 89bd f044 c43d 795f 293d 2327 8dbb
00000150: a04d b1bd 7a86 d53d 6c40 093d 1bb9 113e
00000160: 28ea 283e 7bdb d53d fb39 5bbe 1df0 a3bd
00000170: f8be 043e 347c 62bd 0881 363d abcf e4bb
00000180: 7ab9 48be 224e 023e 8035 0cbd b617 c53d
00000190: ce86 613c 817f b03d 2d19 993d c6af 4f3e
000001a0: ca06 a8bd a8d5 54bd 4c22 3a3d a839 12be
000001b0: 876f 0abc 139a c43d b60e 0b3d 16a7 34bb
000001c0: c8bd 96bc 4c05 cfbd 057c 453e cbf0 c4bd
000001d0: 8d7e b13d ef90 01bc 44b2 3cbd c3e4 843d
000001e0: 4b8a 33be 9978 353d fb0a 91bd 812f 3abe
000001f0: 3d9a d2bc 422b a93d 7dba dc3b 87d9 24be
00000200: ddb0 253d 4d61 71be 5be7 be3c 50c2 06be
00000210: f6f4 003e da66 f23d 9ad0 73bc c131 5c3d
00000220: 2135 2d3d 4c0c 033f 9300 903c 6b25 e53c
00000230: 2a83 34be 99b9 acbc 3f79 08be c58e 483f
00000240: f41e 053e f4d5 bc3b dfc6 dfba f562 9e3d
00000250: 3f2c 40bc 0cec 5dbb 2b42 1e3b 19ce 803d
00000260: b4d2 ec3d 8494 1c3e 9be1 5bbe 7b9f bdbd
00000270: 170a d83c 93e1 d73d 29e8 4a3d d73f bcbc
00000280: 8342 46be 9db3 4cbd bb0e c0bd a22b 4ebd
00000290: 9798 19bd 95ab 8fbe e136 87bd 5648 53be
000002a0: 6480 613d 09fd 9f3a f08a 95bb 9ffb 0d3e
000002b0: 8758 8c3e 4498 003b 437e 08bd f22b 00be
000002c0: 43b9 723d eebb 11be 765f fc3c 4cdf 1ebe
000002d0: 7021 c9bd d687 da3d 4e23 95bc 2ffa d73d
000002e0: 691c b2bd 972f c3bb 484c 00bd 04f2 8cbe
000002f0: 2cc4 163e a851 a83d f1d3 80be 4187 17be
00000300: 52ba 1b3e 742d 853d 45b2 f1bd fc3e 263c
00000310: d0d1 403e 3f52 723d 04dc 8e3d 91ad ee3d
00000320: 9b1d 9ebd 2635 103e bb65 55be bb86 65bd
00000330: a6c7 023e 8c0f cb3c 5716 033d 7d78 cc3d
00000340: bc7d 31bc b203 a1bb 68e2 b4bd 3d70 223d
00000350: 35ee f9bd c47e 0c3d ae4f 88bd 5c76 8a3d
00000360: e3e6 163e f854 e2bb 7484 be3d 4ad3 b7bd
00000370: d0bc 073d f1ca 94be fd31 5a3d 92e1 d33d
00000380: 4d19 69bd 7c99 f6bd de95 ccbd 551f d0bd
00000390: 94ab 5dbc 1996 a63b 3e6d a43b 9b8e a9bc
000003a0: 9abe a9bc 4b48 c33d 8da8 16be 9e7f a6be
000003b0: c9bb bdbd f03b 6c3d bafa f53d ea23 173d
000003c0: 8310 eabd 166e f6bd 58ee 9a3d cd8b efbd
000003d0: 3a70 9dbd 290d f33b 39ec b3bd 2420 30be
000003e0: 51c2 c3bc 2ed9 32bd f8a7 bc3b 66d8 5a3a
000003f0: 85c1 e7bc d5d3 633d c5c0 02be 8692 18be

lstm.weight_hh_l1 f4 [256, 64]
0.06790346 -0.047559813 0.14495073 0.10510849 0.0015876631 0.031171402 -0.051532827 -0.16792788
-0.046331104 0.038100965 -0.084949605 -0.1157967 -0.056567837 0.042595427 0.031043183 -0.256551
0.09424542 -0.05955563 0.0032701236 -0.16276349 0.024366751 0.14161225 -0.03317356 0.03114746
-0.13424325 0.013353394 -0.010583533 0.03025453 -0.09891266 -0.0815796 0.056393467 -0.08738025
0.0073384624 -0.089148596 -0.13874009 -0.20234144 -0.029112866 -0.031087765 0.07002406 0.13403167
-0.01859616 0.07831005 -0.0076636407 0.10705975 0.05328421 -0.120995484 0.047219757 0.14042415
0.004029101 -0.052127834 0.11155067 0.012036895 -0.07894299 0.022679348 0.10148085 0.03283095
-0.0014983962 -0.015394163 0.0025445826 -0.0047767838 0.054451924 -0.033476476 -0.1368909 0.016482985
-0.1895162 0.093891524 0.09319192 -0.047520835 -0.24539825 0.05078148 -0.0012166211 -0.1091746
-0.055120848 -0.023654377 0.00097556005 -0.021895863 -0.045163743 -0.10441766 0.28909624 0.06933066
0.08785195 -0.15627399 0.042437572 -0.12216237 -0.06434929 -0.026100064 -0.0708157 -0.067838944
-0.18319105 -0.15934132 -0.20836683 -0.1480158 0.02761463 -0.014792302 -0.055440575 0.059010502
0.048605625 0.0038578073 -0.0043998854 -0.079242036 0.032124463 -0.18859945 -0.046696726 -0.016143136
-0.035895955 -0.06604105 -0.016829086 0.061067685 -0.0031088497 -0.17008772 0.092289135 0.16625768
-0.08689613 0.13622332 0.1616221 0.061383076 -0.03412841 0.10994206 0.07307036 -0.08314091
-0.022336066 -0.047901854 0.08094316 -0.08278447 0.045489248 0.13508776 0.04883481 -0.09521729
-0.18967356 0.024999356 0.1279928 0.33948815 -0.22126774 0.23481517 -0.09488727 -0.15332791
-0.29079962 0.04926208 0.023507874 -0.16579309 0.11899219 0.014832532 0.06515595 0.18711324
0.30679747 -0.10706215 -0.004586185 -0.44131 -0.21834964 0.27707797 -0.0027386846 0.13468549
-0.19384594 -0.068041734 0.036754776 -0.07280122 -0.12257927 0.017475113 0.23476356 -0.20843971
-0.12971924 0.09208332 -0.17840324 -0.08706523 -0.11316222 -0.3295533 -0.08337246 -0.18903503
0.0808039 0.0033284556 0.10958683 0.044294342 0.23432861 -0.028170306 0.11214366 0.28528708
-0.31102484 0.20222628 0.06569111 0.27939278 -0.2883468 0.06554256 0.2593974 -0.15533184
-0.051800795 0.17720944 -0.05357462 -0.14008646 0.17610888 0.017690502 0.027730156 -0.15969673
0.095329635 0.13390845 -0.018216297 -0.12165444 -0.0404752 0.10166458 -0.14369856 -0.013608788
0.019425124 -0.033556312 -0.040096242 -0.08645181 0.15174773 -0.0019060252 -0.04897535 -0.24412741
-0.08354318 -0.11941932 -0.04451015 -0.1597313 0.13104393 -0.11997086 -0.005791576 -0.040673975
0.07422257 -0.15355408 -0.1252724 -0.017304353 -0.027038643 -0.07261983 0.09351314 0.024440842
-0.04554186 -0.08100733 0.09673608 0.010209245 -0.06427198 -0.03453047 -0.026780618 0.1193812
0.050156884 -0.14222191 0.0986695 0.088045344 0.03502779 -0.010640824 0.05055927 0.11154895
-0.16520233 -0.10555346 -0.126429 0.052791826 0.13199724 0.09547275 -0.0071461624 0.046096466
-0.09954702 -0.0948486 0.03233682 -0.010741686 -0.015809707 -0.17590474 -0.088675216 0.012803202
00000000: f810 8b3d 14ce 42bd f76d 143e 1f43 d73d
00000010: 2219 d03a 2b5b ff3c 1614 53bd 49f5 2bbe
00000020: afc5 3dbd c20f 1c3d 0ffa adbd d226 edbd
00000030: adb3 67bd 8b78 2e3d 464e fe3c a75a 83be
00000040: be03 c13d 9bf0 73bd 924f 563b 79ab 26be
00000050: c89c c73c cd02 113e 00e1 07bd f528 ff3c
00000060: 1077 09be 32c8 5a3c 8e66 2dbc 59d8 f73c
00000070: b892 cabd 3513 a7bd d6fc 663d 6bf4 b2bd
00000080: 7c77 f03b 8a93 b6bd e211 0ebe 9832 4fbe
00000090: 1b7e eebc c5ab febc c668 8f3d 993f 093e
000000a0: f956 98bc 0561 a03d 471f fbbb 2442 db3d
000000b0: 8b40 5a3d 7bcc f7bd 8169 413d 59cb 0f3e
000000c0: 8d06 843b ff83 55bd ad74 e43d 6636 453c
000000d0: ddac a1bd 0aca b93c 31d5 cf3d bf79 063d
000000e0: d565 c4ba cd37 7cbc 03c3 263b 9186 9cbb
000000f0: fb08 5f3d a11e 09bd 212d 0cbe 5307 873c
00000100: 8910 42be 334a c03d 68db be3d 35a5 42bd
00000110: ae49 7bbe 3e00 503d 0877 9fba ef96 dfbd
00000120: 66c6 61bd d3c6 c1bc babc 7f3a f45e b3bc
00000130: 9efd 38bd edd8 d5bd 6c04 943e 3cfd 8d3d
00000140: b9eb b33d 4a06 20be 05d3 2d3d 4430 fabd
00000150: 90c9 83bd cdcf d5bc d207 91bd 25ef 8abd
00000160: 6f96 3bbe 5f2a 23be 1d5e 55be 7491 17be
00000170: 1438 e23c 695b 72bc a815 63bd ffb4 713d
00000180: b116 473d 44d3 7c3b ea2c 90bb a649 a2bd
00000190: f194 033d 3720 41be 1145 3fbd 9c3e 84bc
000001a0: a307 13bd 8840 87bd 27dd 89bc 1c22 7a3d
000001b0: d8bd 4bbb 7a2b 2ebe 1602 bd3d 743f 2a3e
000001c0: 99f6 b1bd 207e 0b3e 4480 253e d26c 7b3d
000001d0: 3bca 0bbd 4e29 e13d eaa5 953d c845 aabd
000001e0: 20fa b6bc bc34 44bd 87c5 a53d e78a a9bd
000001f0: ef52 3a3d 7254 0a3e 0207 483d 4801 c3bd
00000200: c939 42be 73cb cc3c 8b10 033e 64d1 ad3e
00000210: 0394 62be 6373 703e 4254 c2bd fe01 1dbe
00000220: b0e3 94be 09c7 493d 9693 c03c aac5 29be
00000230: 2db2 f33d 2604 733c 7c70 853d 9d9a 3f3e
00000240: 8f14 9d3e 6743 dbbd b547 96bb 62f3 e1be
00000250: 0c97 5fbe 2add 8d3e 817b 33bb feea 093e
00000260: 8d7f 46be 7759 8bbd 2d8c 163d ce18 95bd
00000270: d70a fbbd f827 8f3c dc65 703e 3871 55be
00000280: 1fd5 04be 2e96 bc3d 57af 36be 414f b2bd
00000290: 98c1 e7bd 36bb a8be 2ebf aabd 6692 41be
000002a0: 847c a53d 3822 5a3b 0f6f e03d fc6d 353d
000002b0: d7f3 6f3e 6ac5 e6bc 93ab e53d 2611 923e
000002c0: a63e 9fbe 6814 4f3e 1089 863d 920c 8f3e
000002d0: 31a2 93be 2d3b 863d bccf 843e 4f0f 1fbe
000002e0: 122d 54bd 6476 353e 1071 5bbd d372 0fbe
000002f0: e355 343e aceb 903c 5a2a e33c 8a87 23be
00000300: 2f3c c33d 4c1f 093e 583a 95bc f725 f9bd
00000310: 53c9 25bd 8535 d03d b725 13be 65f7 5ebc
00000320: 7021 9f3c 5872 09bd f53b 24bd a60d b1bd
00000330: c263 1b3e 98d3 f9ba 609a 48bd 89fc 79be
00000340: b018 abbd 1e92 f4bd 4650 36bd 9a90 23be
00000350: 6130 063e 48b3 f5bd 43c7 bdbb c199 26bd
00000360: 0102 983d 483d 1dbe 6847 00be dcc1 8dbc
00000370: 2580 ddbc b5b9 94bd d183 bf3d 2938 c83c
00000380: 1a8a 3abd 2ce7 a5bd 911d c63d ad44 273c
00000390: 07a1 83bd d26f 0dbd 0763 dbbc 217e f43d
000003a0: 4e71 4d3d 9fa2 11be 3c13 ca3d 1e51 b43d
000003b0: 4d79 0f3d da56 2ebc 3d17 4f3d c773 e43d
000003c0: cd2a 29be 6a2c d8bd 9b76 01be 3e3c 583d
000003d0: 492a 073e 3887 c33d 5b2a eabb a6cf 3c3d
000003e0: 4fdf cbbd fc3f c2bd 9d73 043d e6fd 2fbc
000003f0: 5c83 81bc 5f20 34be 5a9b b5bd 85c4 513c

lstm.bias_ih_l1 f4 [256]
-0.07171177 -0.020875115 -0.09061851 0.065108165 -0.0022862216 0.05883888 0.111012176 -0.0058159432
0.019597853 -0.05594387 -0.056713443 -0.060438834 -0.07087901 -0.081785 0.10855478 -0.08368087
0.01665981 -0.0534172 -0.022514498 0.078161776 0.061595306 -0.0132072205 -0.02318491 -0.086261354
0.011187561 -0.047228374 0.19216487 0.15102105 -0.04891968 -0.036407422 -0.022553792 0.112369634
0.07261696 0.0023620834 0.063397236 0.0348617 0.049910605 0.03446678 0.047279224 -0.020797435
-0.036376406 0.038211484 0.047531087 -0.051109206 0.08560646 -0.07493278 0.005198218 0.083442844
0.042351127 -0.031881936 -0.024739424 0.05916116 0.04156692 -0.08990121 0.089749314 0.057219487
0.17472678 0.0044800793 0.12673526 0.030519508 0.18474503 0.08819231 0.2743941 0.037281763
-0.053496838 0.036522597 0.070118345 -0.034079377 -0.04294888 0.07484964 0.019159356 0.106933355
-0.037424907 0.08543076 0.05534857 -0.06593533 0.05063785 -0.035806704 0.12694575 0.113464795
0.053503685 0.12076052 0.043909438 -0.0662973 0.042186957 0.12570384 0.14237127 0.038814254
0.14681673 0.12839788 -0.035157677 0.0023827902 0.12240062 0.09805913 0.022863608 0.04189735
0.1323303 0.08961315 0.1310348 0.027559502 0.00903226 -0.017152688 0.1167163 -0.044392023
0.02585128 0.051943127 -0.08581076 -0.044002276 -0.004928296 -0.06472363 0.00093320233 0.042678945
0.0410896 0.040233415 -0.09040976 0.12710132 0.063523844 -0.011397137 -0.062253483 -0.0909905
-0.035423324 0.060577344 -0.052450683 -0.02823855 0.039188452 0.048311736 -0.0057641296 0.09073256
0.013090568 -0.06901036 -0.008961535 0.0636157 0.0346098 0.0038063845 -0.10195711 -0.08769819
-0.07351627 0.07585335 -0.02502433 0.114557706 -0.1031215 0.03709763 -0.09426421 0.0056979
-0.08884369 -0.008668823 -0.03785807 -0.024984177 0.06490785 0.046659343 0.0442377 -0.05059934
0.054707658 0.09911351 0.1031069 0.046623345 -0.061606094 0.11243143 0.12813312 -0.09956683
0.02997058 -0.1218557 -0.078519106 0.13320154 -0.097721234 -0.040002912 0.04131208 -0.0027959088
0.0324593 -0.15252708 0.040639956 0.023383997 -0.11327537 -0.080334805 -0.001300394 -0.020937067
0.013547781 0.06288873 -0.108441055 -0.027243385 0.12146536 0.014058518 -0.059201133 0.039621126
0.088439964 -0.019779783 -0.018417014 -0.033244964 0.10617089 -0.041279253 0.07075525 -0.079162195
0.15562896 0.057204254 0.10259819 -0.033763155 0.1362648 0.0151332645 -0.048323564 -0.075537615
-0.015401756 0.14633036 0.011719288 0.110290125 -0.14611466 0.20629819 0.0115926005 -0.03211835
0.10132738 0.11767431 0.069983006 0.06446614 0.11435533 0.07294963 0.010171914 0.17269662
0.0022779224 0.15457304 0.19422953 0.16250703 0.07498327 -0.054283634 0.22713882 0.03341019
0.10239807 0.10560999 0.11195918 0.026559422 0.101919785 0.12956169 0.2115424 -0.029894954
0.10999425 0.15403374 -0.038118333 0.055476807 -0.07594579 -0.012886098 -0.0719324 0.063717306
0.014056701 0.2413175 0.16368343 0.16928717 -0.12479956 0.012315135 -0.0761755 0.03347288
0.10196554 0.042901963 -0.082753345 0.028397227 -0.0272631 0.0041415915 0.12219342 -0.00922728
00000000: 9fdd 92bd 4a02 abbc 3396 b9bd 6e57 853d
00000010: 6fd4 15bb 0a01 713d 5a5a e33d ab93 bebb
00000020: ad8b a03c 6625 65bd 5b4c 68bd b68e 77bd
00000030: 0429 91bd e57e a7bd f851 de3d e060 abbd
00000040: 277a 883c fecb 5abd 5370 b8bc 4813 a03d
00000050: 5c4b 7c3d 1963 58bc 48ee bdbc cba9 b0bd
00000060: 084c 373c 8a72 41bd dec6 443e 43a5 1a3e
00000070: 0160 48bd f31f 15bd bbc2 b8bc 0d22 e63d
00000080: 33b8 943d 2fcd 1a3b 69d6 813d 24cb 0e3d
00000090: 106f 4c3d 0a2d 0d3d dca7 413d 625f aabc
000000a0: 6dff 14bd a583 1c3d f5af 423d e357 51bd
000000b0: 7152 af3d 5b76 99bd d055 aa3b 15e4 aa3d
000000c0: 6078 2d3d a296 02bd 55aa cabc f952 723d
000000d0: 1342 2a3d 201e b8bd 7dce b73d fb5e 6a3d
000000e0: 94eb 323e a1cd 923b e3c6 013e 0c04 fa3c
000000f0: cd2d 3d3e 2b9e b43d 627d 8c3e c3b4 183d
00000100: 801f 5bbd b898 153d 359a 8f3d d196 0bbd
00000110: 2aeb 2fbd c54a 993d 15f4 9c3c e0ff da3d
00000120: dc4a 19bd 53f6 ae3d 2fb5 623d 1a09 87bd
00000130: a269 4f3d 0daa 12bd 11fe 013e 3b60 e83d
00000140: ae26 5b3d 4b51 f73d 62da 333d e1c6 87bd
00000150: 3bcc 2c3d 82b8 003e c6c9 113e b2fb 1e3d
00000160: 2057 163e bc7a 033e 7f01 10bd 9628 1c3b
00000170: 2dad fa3d 3ad3 c83d 764c bb3c 8e9c 2b3d
00000180: 9881 073e 1987 b73d fd2d 063e 77c4 e13c
00000190: 0bfc 133c cb83 8cbc f508 ef3d 69d4 35bd
000001a0: 10c6 d33c 51c2 543d 8dbd afbd bb3b 34bd
000001b0: 8b7d a1bb d38d 84bd 26a2 743a 1ed0 2e3d
000001c0: 924d 283d cbcb 243d c128 b9bd d926 023e
000001d0: ca18 823d 0fbb 3abc 82fd 7ebd 3a59 babd
000001e0: 0c18 11bd f31f 783d 87d6 56bd 8854 e7bc
000001f0: 1284 203d 87e2 453d 06e1 bcbb fed1 b93d
00000200: d279 563c 4e55 8dbd 67d3 12bc f348 823d
00000210: 01c3 0d3d 8974 793b e4ce d0bd 1c9b b3bd
00000220: b38f 96bd 0059 9b3d d3ff ccbc 3b9d ea3d
00000230: 5d31 d3bd aff3 173d 980d c1bd 73b5 ba3b
00000240: aef3 b5bd ae07 0ebc 1011 1bbd 9eab ccbc
00000250: 68ee 843d de1d 3f3d 9732 353d 4141 4fbd
00000260: 2315 603d 06fc ca3d b629 d33d 1ff8 3e3d
00000270: ac56 7cbd 7342 e63d 5435 033e b2e9 cbbd
00000280: dd84 f53c 7b8f f9bd a0ce a0bd fc65 083e
00000290: 1222 c8bd 18da 23bd db36 293d 913b 37bb
000002a0: 0bf4 043d 0f30 1cbe 1576 263d cc8f bf3c
000002b0: ebfc e7bd 9386 a4bd fb71 aaba 3684 abbc
000002c0: 83f7 5d3c cecb 803d 5816 debd 852d dfbc
000002d0: d5c2 f83d b355 663c e37c 72bd c349 223d
000002e0: 0320 b53d 3609 a2bc 47df 96bc df2b 08bd
000002f0: 2070 d93d 6f14 29bd 21e8 903d ca1f a2bd
00000300: 335d 1f3e 024f 6a3d 001f d23d 3c4b 0abd
00000310: 0089 0b3e 83f1 773c eeee 45bd 77b3 9abd
00000320: a657 7cbc a0d7 153e 4202 403c cadf e13d
00000330: 159f 15be d53f 533e e4ee 3d3c 888e 03bd
00000340: bb84 cf3d 3bff f03d 4053 8f3d d306 843d
00000350: 2133 ea3d 9e66 953d 19a8 263c 62d7 303e
00000360: 3249 153b 6548 1e3e 1be4 463e 3e68 263e
00000370: d490 993d 8458 5ebd 1497 683e 20d9 083d
00000380: 14b6 d13d 0d4a d83d db4a e53d 2593 d93c
00000390: 52bb d03d d2ab 043e 929e 583e 43e6 f4bc
000003a0: aa44 e13d 05bb 1d3e f821 1cbd a63b 633d
000003b0: 7789 9bbd 3620 53bc 4b51 93bd 387e 823d
000003c0: 144e 663c ef1b 773e a19c 273e 9e59 2d3e
000003d0: e996 ffbd 6cc5 493c e701 9cbd dc1a 093d
000003e0: 4fd3 d03d f8b9 2f3d 967a a9bd 4da1 e83c
000003f0: dd56 dfbc 30b6 873b 8b40 fa3d 042e 17bc

lstm.bias_hh_l1 f4 [256]
0.05001283 0.016031291 -0.17489599 0.075997934 0.06657289 0.06959349 0.10368189 0.017827967
-0.057649042 0.006849204 0.15838797 -0.010169179 0.04098586 0.0751605 -0.06126737 -0.160307
0.048752733 -0.010111416 0.10093151 0.047128722 0.08944295 -0.0438491 -0.08006665 0.13069591
0.13124877 0.057796348 0.24351984 0.1565338 0.053155884 0.08900503 0.018267829 -0.113678426
0.17930557 0.21261664 0.14993808 0.038117375 0.07120998 0.08177116 0.071077846 -0.0635666
-0.0881601 0.035865374 -0.11895236 0.024534894 0.093400426 -0.0691093 -0.0384389 0.063789345
-0.016631464 0.028968228 -0.0659329 0.044424724 -0.008932568 -0.010977264 -0.058062106 0.09815349
0.20860445 -0.08027758 0.047692858 -0.082788356 0.18787038 0.11744431 0.20365694 -0.06838743
0.045806203 -0.032300062 0.06355919 -0.03764547 0.00693624 0.14439799 0.074212715 -0.065393835
-0.04664255 -0.037527807 0.0057360944 0.0003724248 0.013195884 0.078668505 -0.055334885 -0.047503438
0.06398708 -0.03022596 0.15022366 0.05333107 0.036333773 0.09668457 0.13265193 0.03250307
0.1270047 -0.024506913 0.0020741133 0.14729401 0.09317723 -0.016599296 -0.07861952 -0.028561784
-0.06141403 0.17096663 -0.002253704 -0.10476031 0.049991295 -0.008458303 -0.0023781145 -0.055821206
0.05000437 0.06990338 0.11869742 -0.031294204 0.0971052 0.018867018 0.029352708 -0.029594142
0.028359318 -0.11509692 -0.056735117 0.06567448 -0.07691423 -0.07817884 0.065629445 -0.055024292
-0.034150705 -0.019084163 0.10510408 0.0323573 0.09272203 0.078082256 0.008937556 0.042971775
0.06827944 0.112147644 -0.018942554 0.030253485 -0.07834414 -0.039851606 -0.18089318 -0.009522786
0.05590756 -0.098562956 -0.0028019156 -0.11639099 0.13595022 0.07380793 0.04783935 0.08299847
0.09503217 0.022065032 -0.012173906 -0.03920212 0.025335955 -0.006889145 0.029436383 -0.10627252
0.07993017 0.038091935 0.008555315 -0.04050425 0.005702847 -0.11518513 0.08073493 0.12097577
0.005365716 -0.029434443 -0.077287816 -0.043468367 0.034676105 -0.14214687 -0.048221204 0.08656212
0.09753813 -0.15557116 -0.013546544 0.09611334 0.11369984 0.030578693 -0.050582264 -0.10941507
-0.10165421 0.009792057 0.021292964 -0.06293898 -0.017466232 0.09290988 0.0117967725 -0.10214997
-0.09240035 -0.05924113 -0.06011835 0.052694973 -0.023114514 -0.058381993 0.08754273 0.023218576
0.16913834 -0.14166129 -0.019165555 0.14274965 0.080127686 0.11641081 0.1453856 -0.11102999
0.0669261 0.016247727 -0.03471992 -0.030828312 -0.14739136 0.058463823 0.15275373 0.11495402
0.21154742 -0.10547097 -0.04779619 0.120530196 -0.06530092 0.04073075 0.005380913 0.0518059
0.016871357 0.08673029 0.12150438 0.1644842 0.11139326 0.12159913 0.09456498 0.1519799
0.003490264 0.05709429 0.054218724 -0.070889376 0.05322259 0.016827097 0.19667688 0.14397165
-0.07427006 -0.022013316 0.06146774 0.13163128 -0.07789432 0.18743196 0.17204861 0.11761153
0.028360697 0.20737575 0.040537197 0.14033146 -0.08649516 -0.060855754 0.12507007 0.1799466
0.10003514 -0.0053996495 0.028784396 0.023825722 -0.002039913 0.11876422 0.15756921 -0.007755179
00000000: 41da 4c3d 0e54 833c ef17 33be cea4 9b3d
00000010: 5e57 883d 0887 8e3d 2c57 d43d f50b 923c
00000020: 6721 6cbd 4a6f e03b 7530 223e a19c 26bc
00000030: cae0 273d c0ed 993d 7ef3 7abd 8527 24be
00000040: f2b0 473d 5aaa 25bc 2eb5 ce3d 0c0a 413d
00000050: de2d b73d 1d9b 33bd fcf9 a3bd 26d5 053e
00000060: 1466 063e ddbb 6c3d 445d 793e 654a 203e
00000070: fcb9 593d 4548 b63d 6aa6 953c 3cd0 e8bd
00000080: e19b 373e 2db8 593e 5e89 193e f720 1c3d
00000090: 8ad6 913d a377 a73d 4391 913d 352f 82bd
000000a0: 488d b4bd 92e7 123d 4b9d f3bd 67fd c83c
000000b0: b948 bf3d 2d89 8dbd 1c72 1dbd fda3 823d
000000c0: b53e 88bc c74e ed3c d407 87bd b3f6 353d
000000d0: e859 12bc fbd9 33bc 88d2 6dbd b204 c93d
000000e0: 689c 553e 9268 a4bd 9659 433d f18c a9bd
000000f0: 1861 403e a486 f03d 728b 503e b50e 8cbd
00000100: 499f 3b3d 124d 04bd 522b 823d 2332 1abd
00000110: 6649 e33b 11dd 133e d6fc 973d 34ed 85bd
00000120: 420c 3fbd c2b6 19bd d9f5 bb3b 0342 c339
00000130: 8d33 583c f41c a13d d5a6 62bd f792 42bd
00000140: a80b 833d 6f9c f7bc 3bd4 193e ae71 5a3d
00000150: b9d2 143d 8f02 c63d e8d5 073e f021 053d
00000160: 850d 023e b9c2 c8bc d9ed 073b 3ed4 163e
00000170: b4d3 be3d 3ffb 87bc 4503 a1bd 67fa e9bc
00000180: 478d 7bbd e011 2f3e e1b2 13bb 938c d6bd
00000190: acc3 4c3d b294 0abc 24da 1bbb c7a4 64bd
000001a0: 62d1 4c3d 8129 8f3d a217 f33d 5a2e 00bd
000001b0: 17df c63d 018f 9a3c 1775 f03c 6a6f f2bc
000001c0: cd51 e83c efb7 ebbd 1563 68bd 5780 863d
000001d0: 3585 9dbd 3a1c a0bd bb68 863d 2761 61bd
000001e0: 9ce1 0bbd 6456 9cbc cf40 d73d 1789 043d
000001f0: 0ce5 bd3d 97e9 9f3d d46e 123c 2c03 303d
00000200: 17d6 8b3d aaad e53d 6a2d 9bbc 28d6 f73c
00000210: e472 a0bd 703b 23bd 103c 39be 7605 1cbc
00000220: 53ff 643d 60db c9bd 58a0 37bb 665e eebd
00000230: 8936 0b3e 9d28 973d 32f3 433d 1afb a93d
00000240: 3aa0 c23d bac1 b43c 1075 47bc 6792 20bd
00000250: 598d cf3c 56be e1bb 9224 f13c 68a5 d9bd
00000260: 6eb2 a33d 4a06 1c3d 982b 0c3c c9e7 25bd
00000270: f3de ba3b 2ee6 ebbd 5b58 a53d 25c2 f73d
00000280: e3d2 af3b 8020 f1bc 1349 9ebd e30b 32bd
00000290: 8808 0e3d f38e 11be 9983 45bd 7b47 b13d
000002a0: 12c2 c73d 0c4e 1fbe 53f2 5dbc 12d7 c43d
000002b0: 76db e83d 2b80 fa3c 592f 4fbd 0215 e0bd
000002c0: 1530 d0bd dd6e 203c 956e ae3c 27e6 80bd
000002d0: 5815 8fbc 8947 be3d 4047 413c 0134 d1bd
000002e0: 653c bdbd d4a6 72bd a93e 76bd afd6 573d
000002f0: a65a bdbc f521 6fbd 9a49 b33d e234 be3c
00000300: 9a32 2d3e a80f 11be 1501 9dbc f72c 123e
00000310: fc19 a43d ca68 ee3d f6df 143e b163 e3bd
00000320: 8d10 893d f419 853c 7a36 0ebd a88b fcbc
00000330: c3ed 16be c377 6f3d 796b 1c3e 036d eb3d
00000340: e39f 583e 2a01 d8bd f0c5 43bd 89d8 f63d
00000350: 7dbc 85bd 49d5 263d 5f52 b03b 6c32 543d
00000360: cd35 8a3c a69f b13d 4ad7 f83d 8c6e 283e
00000370: 2622 e43d f708 f93d 49ab c13d 9ea0 1b3e
00000380: eabc 643b b4db 693d 7414 5e3d 732e 91bd
00000390: eeff 593d fbd8 893c aa65 493e 4e6d 133e
000003a0: e71a 98bd 4555 b4bc 99c5 7b3d 5aca 063e
000003b0: 0f87 9fbd 2aee 3f3e 832d 303e 50de f03d
000003c0: b154 e83c 4f5a 543e 550a 263d 0db3 0f3e
000003d0: 6024 b1bd e243 79bd 5e12 003e ec43 383e
000003e0: 39df cc3d 8bef b0bb 41cd eb3c 292e c33c
000003f0: 10b0 05bb a83a f33d d359 213e 281f febb
