LogAnomaly/result/deeplog/deeplog_epoch246.pth (torch_old, 641922 bytes, 30 tensors)

lstm.weight_ih_l0 f4 [256, 1]
-0.19522476 -0.018524874 -0.053120706 0.08392656 -0.13610442 0.045672808 -0.10018032 0.062143236
0.16845131 0.07850221 0.16589892 -0.08105702 0.09526889 0.11810919 -0.0793302 0.25440648
0.059755757 0.053344063 -0.14857 0.14470716 0.160376 0.0771668 0.04974558 -0.05406288
0.193873 -0.05939388 -0.014411066 0.060598888 0.07199736 -0.1522296 0.10088575 0.011060088
0.13285896 0.09312878 0.01751974 0.050412264 0.21207428 0.0064330436 0.12796421 -0.13941623
0.009585777 -0.14136553 0.12986958 0.39569643 -0.1119097 0.101778 0.14199752 -0.1978193
0.18972158 0.14967833 0.35221383 0.098836474 0.06992662 0.31775486 0.12951781 -0.054333184
-0.17067587 0.020168865 0.10868391 0.03764508 0.045000654 0.121481 0.09939458 -0.15163048
-0.063180715 0.049688246 0.11454854 -0.02934851 -0.091157116 0.05066594 0.11064002 0.049611215
-0.041645184 0.28812224 0.16663185 -0.1189857 -0.024456585 0.07225656 0.17100856 0.2537124
0.026645552 0.12380513 -0.113170184 0.029151913 0.0034279004 0.22161412 0.12834534 -0.051749278
0.012647491 0.07302949 -0.59675795 0.079101875 -0.06407515 -0.26890644 0.22103238 0.022580832
-0.020320699 0.14432994 0.11093195 0.08588161 0.071098894 0.18602625 0.08839291 0.03614722
0.13472702 0.23421966 0.17088872 0.06682978 -0.12900135 -0.035596546 0.054225214 -0.11182403
0.06776312 0.0977076 0.3079468 0.24222358 0.052905075 0.028884595 0.14770553 -0.03018901
-0.17829125 0.17210022 0.4579317 -0.033142105 0.032818835 0.049009707 -0.08658393 -0.15124974
0.42819634 -0.13159536 0.081205495 0.03163104 0.2383162 -0.17339446 -0.04710211 0.13781866
0.16249506 -0.042952426 -0.061274156 0.22270046 -0.23391962 0.1580153 -0.16082172 -0.09349959
0.21512489 -0.29103392 -0.2515257 0.20570841 0.17801763 -0.036561035 -0.14116605 0.19622792
0.09846057 0.3166184 -0.44012797 0.018619739 0.026457712 -0.1782097 0.92488605 0.0009960089
0.48146188 0.027629474 0.08593689 -0.028788533 -0.30766782 -0.20137647 -0.2760647 -0.1824128
0.18556479 0.048409645 -0.13594255 -1.6663295 0.36209843 0.31148896 0.063890286 0.49026728
-0.11695485 -0.14865594 -0.14573392 -0.034810513 -0.39120045 0.46108428 0.035286486 0.16769096
-0.36126068 0.07312909 0.05550204 -0.07582712 0.13392803 -0.07627946 0.07852569 -0.3400478
0.1762144 -0.017921839 0.15992707 0.32799488 0.17846955 0.0708965 0.16380922 0.22180858
0.05192771 0.292751 0.06400452 0.2349626 0.2522823 0.14818548 0.22945659 0.28922945
-0.09176643 0.034126725 0.30102107 0.18286633 0.28176376 0.2323264 -0.205705 -0.17550059
-0.17430227 0.05353634 0.0032946793 0.10943873 -0.022764258 -0.3450783 0.12754905 0.28004012
-0.10528183 0.3372463 0.08200412 0.31189728 -0.090899 -0.22363588 0.08202414 -0.2958421
-0.20610717 0.27735853 0.19549347 -0.29431877 0.2661133 0.017661108 0.2160256 -0.1647857
-0.18699253 -0.120149046 0.11896494 -0.21772106 0.07704561 -0.0951363 0.060884986 0.07595155
0.17035681 -0.21928959 0.2592647 -0.138074 0.11423789 0.1485447 0.21672522 0.11635135
00000000: 00e9 47be 7ac1 97bc 1995 59bd b0e1 ab3d
00000010: f55e 0bbe 6913 3b3d 572b cdbd e889 7e3d
00000020: 807e 2c3e c4c5 a03d 68e1 293e 3901 a6bd
00000030: 561c c33d 3be3 f13d df77 a2bd 9141 823e
00000040: 74c2 743d 4e7f 5a3d bc22 18be 1d2e 143e
00000050: 9b39 243e a109 9e3d 05c2 4b3d 0a71 5dbd
00000060: a586 463e ff46 73bd 641c 6cbc 8a36 783d
00000070: 5a73 933d 14e2 1bbe 309d ce3d 5f35 353c
00000080: 2e0c 083e 4dba be3d 8f85 8f3c 177d 4e3d
00000090: 002a 593e 48cc d23b 0d09 033e 21c3 0ebe
000000a0: aa0d 1d3c 20c2 10be 88fc 043e b998 ca3e
000000b0: ea30 e5bd fc70 d03d cc67 113e 2591 4abe
000000c0: 6046 423e 4745 193e 5f55 b43e c76a ca3d
000000d0: b035 8f3d c4b0 a23e 51a0 043e 798c 5ebd
000000e0: a8c5 2ebe 2d39 a53c ab95 de3d ba31 1a3d
000000f0: 9b52 383d 08cb f83d 638f cb3d 0545 1bbe
00000100: e464 81bd e785 4b3d 6d98 ea3d 496c f0bc
00000110: 95b0 babd 1787 4f3d 3c97 e23d 2135 4b3d
00000120: 2494 2abd c284 933e 8aa1 2a3e c6ae f3bd
00000130: 2d59 c8bc 3ffb 933d de1c 2f3e 97e6 813e
00000140: c647 da3c 8b8d fd3d c5c5 e7bd fecf ee3c
00000150: a0a6 603b d0ee 623e f66c 033e 0df7 53bd
00000160: 6c37 4f3c 7c90 953d 21c5 18bf 2a00 a23d
00000170: d539 83bd 1bae 89be 5056 623e 70fb b83c
00000180: 9877 a6bc 3acb 133e 4a30 e33d b3e2 af3d
00000190: 4c9c 913d aa7d 3e3e 5807 b53d 1b0f 143d
000001a0: e1f5 093e 47d7 6f3e 74fd 2e3e 0dde 883d
000001b0: ee18 04be afcd 11bd 421b 5e3d ff03 e5bd
000001c0: 64c7 8a3d ec1a c83d 34ab 9d3e 7509 783e
000001d0: feb2 583d 639f ec3c 1e40 173e f14e f7bc
000001e0: fb91 36be 0a3b 303e 0676 ea3e 04c0 07bd
000001f0: 0b6d 063d 67be 483d ea52 b1bd 36e1 1abe
00000200: 8d3c db3e efc0 06be 114f a63d 8d8f 013d
00000210: 2909 743e 518e 31be 24ee 40bd 5620 0d3e
00000220: 1b65 263e e2ee 2fbd 9cfa 7abd 970b 643e
00000230: a088 6fbe c3ce 213e 73ae 24be b77c bfbd
00000240: b349 5c3e 6602 95be fac7 80be 3aa5 523e
00000250: 414a 363e 06c1 15bd d58d 10be f9ef 483e
00000260: b2a5 c93d cf1b a23e 7458 e1be 6c88 983c
00000270: d8bd d83c 9b7c 36be 55c5 6c3f 838c 823a
00000280: 2c82 f63e 3557 e23c aeff af3d eed5 ebbc
00000290: a386 9dbe a235 4ebe 5a58 8dbe 6cca 3abe
000002a0: b204 3e3e 3149 463d 8634 0bbe 494a d5bf
000002b0: f764 b93e 7b7b 9f3e e9d8 823d 5004 fb3e
000002c0: 0686 efbd 4339 18be 463b 15be 7895 0ebd
000002d0: 6d4b c8be 3d13 ec3e 9088 103d 2eb7 2b3e
000002e0: 29f7 b8be b4c4 953d 1b56 633d 404b 9bbd
000002f0: 6e24 093e 6838 9cbd 14d2 a03d bf1a aebe
00000300: 8c71 343e d2d0 92bc ecc3 233e f2ee a73e
00000310: b9c0 363e 2f32 913d 9bbd 273e ca21 633e
00000320: 27b2 543d 76e3 953e cd14 833d 099a 703e
00000330: 252b 813e efbd 173e abf6 6a3e e215 943e
00000340: 0af0 bbbd 77c8 0b3d 6f1f 9a3e 5041 3b3e
00000350: 5743 903e f9e6 6d3e 55a4 52be 6db6 33be
00000360: 4b7c 32be ec48 5b3d 8ceb 573b 6a21 e03d
00000370: 1c7c babc 1aae b0be 389c 023e 6b61 8f3e
00000380: 009e d7bd 8cab ac3e c7f1 a73d 00b1 9f3e
00000390: 4129 babd ce00 65be 46fc a73d 9e78 97be
000003a0: c20d 53be f001 8e3e 712f 483e f3b0 96be
000003b0: 0140 883e 07ae 903c d135 5d3e 95bd 28be
000003c0: f87a 3fbe b410 f6bd e4a3 f33d 45f2 5ebe
000003d0: 17ca 9d3d d2d6 c2bd 8962 793d 7c8c 9b3d
000003e0: 0472 2e3e 738d 60be 58be 843e 4563 0dbe
000003f0: 8ef5 e93d 1a1c 183e 37ed 5d3e 9e49 ee3d

lstm.weight_hh_l0 f4 [256, 64]
0.23256864 -0.15396768 0.029465292 0.074799806 0.24349275 -0.11361663 -0.061713234 0.077177644
0.16244851 0.11947289 -0.013119057 -0.15164322 -0.19133443 0.09274352 -0.13027668 0.25750825
0.19402029 -0.040342 0.03914799 0.14810632 -0.065774284 0.0933241 -0.084954634 0.19193035
0.2594616 0.22732054 0.09099222 0.08802919 0.08092355 -0.29130098 0.059925783 0.12713481
0.053950258 0.067311585 0.07494858 -0.16484335 -0.05368596 -0.19433838 -0.10836433 -0.30231914
0.08069883 -0.11685439 0.087371886 -0.10384185 0.0530557 0.16813935 0.039061032 0.25776806
-0.2888774 -0.08893807 0.17011565 -0.3278302 0.049111895 0.18363333 0.11036578 -0.016836831
-0.0936059 0.362501 -0.030011287 -0.10655179 0.12935854 -0.041291807 -0.15316764 -0.069826044
-0.029274015 -0.10102093 0.29583424 0.22254506 0.16042072 -0.17949109 0.08698944 0.0879335
0.15592182 0.09397937 -0.13095242 0.09009422 -0.21628676 0.18640994 -0.13511862 -0.3271777
0.22705247 -0.038312964 -0.14920266 0.21703842 0.13195762 -0.08952646 -0.1758568 0.07555094
0.39092776 0.09790544 -0.0995719 0.110582255 0.22188748 -0.013538503 0.043919094 0.18355998
0.037057325 0.16434133 0.07435796 -0.11517356 -0.041251894 -0.21148509 -0.1550305 0.044533927
0.20673068 -0.06718794 -0.11370563 0.08790924 0.02959416 0.16166116 0.2137225 -0.09716604
-0.2540094 -0.13456284 -0.04704656 -0.24216865 0.004179016 -0.015414354 0.2618948 0.15174186
-0.049035143 0.36906013 0.05502317 -0.21225502 0.13826193 -0.16162358 0.07215697 -0.093898155
0.11154682 0.07963109 0.116811395 0.2193445 0.15155448 -0.25059995 -0.23238726 0.21149772
0.20625056 -0.020128706 -0.06380958 0.09946002 -0.086680725 0.059745274 -0.14573675 0.092216074
0.14289282 -0.22410573 -0.004556206 0.20282234 0.04901196 0.073187694 -0.072508045 0.0778982
0.19526449 0.07645517 -0.036595903 0.28302366 -0.006942487 -0.38731298 0.11426425 0.059389997
-0.11396316 0.11420751 0.185788 -0.11442472 0.018426947 -0.1389565 -0.043287486 -0.32153976
0.14586525 -0.13516246 -0.056752518 -0.061643206 0.055440996 0.08138848 0.24306048 0.0018419557
-0.057273936 0.013743748 -0.13154592 0.01945845 0.042275984 0.07112828 0.05458774 0.22818881
-0.046796326 0.21338253 -0.01976701 -0.49680907 -0.016682712 -0.12960486 0.06902813 -0.28128043
0.04616161 -0.22349222 -0.021049675 0.056928873 0.044979934 0.08461476 0.017148498 -0.10454411
-0.06885981 -0.029489493 0.03345329 0.10189256 -0.027787223 0.029306985 0.049559306 0.084957466
-0.0009860995 -0.0825143 -0.13950346 0.033604156 0.054690503 -0.0006779744 -0.22141516 0.26240927
-0.052802857 0.13732995 0.021356467 0.07582174 0.11471959 -0.23703487 -0.028368609 -0.006805119
0.08398014 -0.033453852 0.12542889 0.04690064 -0.05698807 -0.19406687 -0.10657143 -0.24718925
-0.060732402 0.060042243 -0.11472024 -0.02249739 0.23324484 -0.049069453 -0.15738814 0.30918953
0.015683418 0.0074911555 0.060267273 -0.10408761 -0.09905861 0.075121716 0.04263191 0.124027304
-0.09789915 0.12355326 0.12196667 -0.086723246 0.11040954 -0.031810675 -0.1082689 -0.011407813
00000000: 7926 6e3e b4a9 1dbe 3261 f13c a430 993d
00000010: 2a56 793e d6af e8bd 04c7 7cbd 500f 9e3d
00000020: e758 263e 34ae f43d 50f1 56bc 5c48 1bbe
00000030: 2ced 43be 51f0 bd3d 4067 05be 1fd8 833e
00000040: 41ad 463e a73d 25bd a559 203d 2fa9 173e
00000050: abb4 86bd b520 bf3d b2fc adbd 6489 443e
00000060: 27d8 843e b7c6 683e 215a ba3d a648 b43d
00000070: 3fbb a53d 6725 95be bd74 753d a12f 023e
00000080: f2fa 5c3d a8da 893d a47e 993d b2cc 28be
00000090: cfe5 5bbd a400 47be 1eee ddbd 93c9 9abe
000000a0: 6e45 a53d 5b51 efbd 08f0 b23d 09ab d4bd
000000b0: ef50 593d b92c 2c3e 76fe 1f3d 2dfa 833e
000000c0: bde7 93be 2a25 b6bd cc32 2e3e 5cd9 a7be
000000d0: 8e29 493d 600a 3c3e 7407 e23d 65ed 89bc
000000e0: 73b4 bfbd bb99 b93e 3bda f5bc d337 dabd
000000f0: 9176 043e 9921 29bd fad7 1cbe f500 8fbd
00000100: 0fd0 efbc 10e4 cebd 9677 973e dae2 633e
00000110: 5445 243e 83cc 37be 8527 b23d 7b16 b43d
00000120: f8a9 1f3e 4278 c03d 6418 06be 5283 b83d
00000130: 477a 5dbe 3fe2 3e3e 895c 0abe d683 a7be
00000140: 7180 683e 0eee 1cbd 95c8 18be 523f 5e3e
00000150: e61f 073e a659 b7bd ce13 34be 74ba 9a3d
00000160: af27 c83e a682 c83d 5aec cbbd f378 e23d
00000170: 7936 633e 99d0 5dbc 82e4 333d 26f7 3b3e
00000180: 6cc9 173d 1849 283e fc48 983d 1ee0 ebbd
00000190: bff7 28bd 8c8f 58be 51c0 1ebe 3569 363d
000001a0: 35b1 533e d599 89bd 7fde e8bd c209 b43d
000001b0: 746f f23c 818a 253e 12da 5a3e fdfe c6bd
000001c0: 850d 82be d7ca 09be e5b3 40bd 0ffb 77be
000001d0: 21f0 883b 7d8c 7cbc 1317 863e 3862 1b3e
000001e0: 13d9 48bd 73f5 bc3e fa5f 613d 6159 59be
000001f0: 8994 0d3e a780 25be 09c7 933d ad4d c0bd
00000200: a972 e43d a015 a33d d03a ef3d d89b 603e
00000210: 1931 1b3e a34e 80be edf6 6dbe dc92 583e
00000220: 5933 533e f5e4 a4bc 99ae 82bd b2b1 cb3d
00000230: aa85 b1bd 76b7 743d 043c 15be c8db bc3d
00000240: 7f52 123e f97b 65be 3a4c 95bb a9b0 4f3e
00000250: c4c0 483d 6ee3 953d 197f 94bd 1789 9f3d
00000260: 6af3 473e 8794 9c3d 96e5 15bd 7ae8 903e
00000270: cd7d e3bb e34d c6be 6003 ea3d ed42 733d
00000280: 8465 e9bd a1e5 e93d 363f 3e3e 8257 eabd
00000290: 1cf4 963c 9d4a 0ebe 384e 31bd dca0 a4be
000002a0: b35d 153e 0768 0abe 5475 68bd 967d 7cbd
000002b0: 1916 633d 01af a63d d9e4 783e c76d f13a
000002c0: 1398 6abd 752d 613c f9b3 06be 5467 9f3c
000002d0: 9529 2d3d b4ab 913d 6597 5f3d 54aa 693e
000002e0: 81ad 3fbd f380 5a3e 6dee a1bc c25d febe
000002f0: 2faa 88bc 23b7 04be 9f5e 8d3d fd03 90be
00000300: f513 3d3d 25db 64be 5e70 acbc 402e 693d
00000310: e13c 383d 814a ad3d 027b 8c3c 391b d6bd
00000320: 5f06 8dbd f393 f1bc 5106 093d 0cad d03d
00000330: 08a2 e3bc 3415 f03c b3fe 4a3d 2efe ad3d
00000340: 0240 81ba 42fd a8bd ffd9 0ebe 83a4 093d
00000350: 2603 603d 18ba 31ba a8ba 62be 825a 863e
00000360: cf47 58bd 39a0 0c3e c2f3 ae3c 6e48 9b3d
00000370: 1bf2 ea3d 45b9 72be 4965 e8bc 7afd debb
00000380: c8fd ab3d e806 09bd 6e70 003e e31a 403d
00000390: 536c 69bd 77b9 46be 1f42 dabd 2e1f 7dbe
000003a0: 8ac2 78bd dbee 753d 72f2 eabd 724c b8bc
000003b0: bcd7 6e3e 0dfd 48bd 5b2a 21be 174e 9e3e
000003c0: 837a 803c 5e78 f53b d1da 763d e32b d5bd
000003d0: 3edf cabd 6ad9 993d cc9e 2e3d 0702 fe3d
000003e0: 597f c8bd 7e09 fd3d a9c9 f93d f59b b1bd
000003f0: 661e e23d e94b 02bd 16bc ddbd d6e7 3abc

lstm.bias_ih_l0 f4 [256]
0.10229685 0.08443252 0.04861138 -0.08624792 0.19063179 -0.0038115587 0.18400371 -0.0063265003
0.24004024 0.19537695 -0.11941362 0.2175078 0.035669927 0.106612965 0.10753987 0.1581459
0.16697015 0.15304226 0.1706414 -0.03202252 -0.060314022 0.051189385 0.092826664 0.09720471
0.13508788 0.182092 0.061388098 0.07513338 -0.02280877 0.23908782 0.26059693 -0.10904155
-0.016010044 0.10725067 0.035180267 -0.10585977 0.1619132 -0.083331145 0.025206277 -0.07680485
0.1261906 -0.029864546 -0.03709491 0.6656113 0.044596672 0.26370293 0.031043569 0.0974369
-0.04703733 0.06974892 -0.024617948 -0.103754155 -0.107353754 0.2936908 0.08729869 0.0241419
0.18150547 -0.046759356 0.051889583 0.07287436 -0.032231595 0.11591916 -0.23782642 0.031178547
-0.04801301 0.14741835 -0.07884541 0.10640337 0.076241896 0.088341564 0.09397959 0.101086214
0.07753164 0.09789459 -0.1452956 0.14319798 0.04511436 0.0653523 0.0043834336 -0.08661137
0.05502737 -0.019465266 -0.09977043 -0.10932866 0.042234294 0.08850193 -0.10559007 -0.0010288485
0.20590779 0.12189543 0.08347171 0.014690032 0.20137641 0.08299978 -0.16995709 0.08429963
-0.06009097 0.04621832 -0.040152047 0.02057521 0.037990842 -0.13001102 -0.033126622 0.0032535926
-0.09169611 0.00061504194 0.12932871 -0.2591541 -0.112552814 0.18535353 0.1027066 0.10464139
0.06810917 0.017540447 -0.0076790117 -0.0788695 -0.09533811 0.104167685 0.08461794 0.013115834
0.10055657 0.13645796 -0.20323052 0.12600675 0.025504189 0.046453685 0.076227725 0.15531044
0.03589898 0.19669555 -0.079475254 -0.2023564 0.13141456 0.11407573 -0.19206715 0.23212108
0.23087972 0.13076624 -0.081281394 -0.035523586 0.1938709 0.002786386 -0.047680445 0.09767934
0.23210683 -0.15153168 0.060691766 0.03472836 0.030647937 0.1644675 -0.07500263 -0.08379741
-0.06359888 0.12681626 0.06474878 0.096127965 -0.027084293 -0.30701017 0.13987805 0.016140359
-0.23561703 -0.15591884 0.14588901 0.01663008 0.034652848 -0.011186621 -0.09837225 0.07118087
0.0071458626 -0.093475096 -0.087911025 0.09108941 0.0029732515 0.12445542 0.06437577 -0.1998806
-0.020784441 -0.026700282 0.020886345 0.04658416 0.16039576 0.2799766 -0.05349272 -0.13455135
-0.11641729 0.023378886 0.17721686 0.063696876 -0.16712569 -0.057199363 -0.05850171 -0.14250468
0.30664197 -0.033946358 -0.03221923 -0.18985093 0.23099577 0.07923975 0.12003081 -0.1119566
0.04684995 -0.0032248392 0.15162382 -0.0024257638 0.18507604 -0.05417415 0.10153677 0.09640258
0.09261431 0.020573927 0.20472112 -0.05081878 0.036452696 0.044196613 0.059836864 0.064168565
0.038419206 0.026669836 0.19600926 0.022551762 0.13118885 0.33188444 0.29806045 -0.13968347
0.15696508 -0.14123113 0.119923666 -0.111678414 0.10658415 0.14185312 0.12398029 0.27465034
0.1673556 0.005002071 0.08725236 0.45862383 0.15885562 0.11014811 -0.043041196 0.14273746
0.13490275 0.12046165 0.17279668 0.030070823 0.22378351 0.22000316 0.21970071 0.26804277
0.15916207 0.07741282 0.032682505 0.18192329 -0.06785092 0.047886673 -0.20020781 0.2839093
00000000: 0381 d13d f5ea ac3d ba1c 473d c0a2 b0bd
00000010: fb34 433e 58cb 79bb 786b 3c3e 884e cfbb
00000020: 1ccd 753e e510 483e 218f f4bd 5dba 5e3e
00000030: a11a 123d e657 da3d dd3d dc3d 00f1 213e
00000040: 39fa 2a3e 1cb7 1c3e 9fbc 2e3e 0c2a 03bd
00000050: d60b 77bd f6ab 513d e81b be3d 4313 c73d
00000060: 7a54 0a3e 5376 3a3e 1672 7b3d 88df 993d
00000070: 75d9 babc 70d3 743e f66c 853e 2d51 dfbd
00000080: 7f27 83bc 3da6 db3d 2f19 103d 02cd d8bd
00000090: 93cc 253e 85a9 aabd 657d ce3c dc4b 9dbd
000000a0: 1c38 013e 7ea6 f4bc d5f0 17bd 8165 2a3f
000000b0: 00ab 363d 1204 873e 154f fe3c ff8c c73d
000000c0: 37aa 40bd 86d8 8e3d 94ab c9bc 0f7d d4bd
000000d0: 49dc dbbd a45e 963e a8c9 b23d 3cc5 c53c
000000e0: 92dc 393e bd86 3fbd 2c8a 543d 273f 953d
000000f0: 4705 04bd 0667 ed3d c588 73be 276a ff3c
00000100: 4aa9 44bd d6f4 163e b479 a1bd 03ea d93d
00000110: b624 9c3d 6cec b43d 5f78 c03d 4a06 cf3d
00000120: e9c8 9e3d f57c c83d 5fc8 14be 7ea2 123e
00000130: d6c9 383d 6dd7 853d e8a2 8f3b 4d61 b1bd
00000140: 6164 613d 9f75 9fbc 7054 ccbd b4e7 dfbd
00000150: defd 2c3d 8040 b53d 9b3f d8bd 6dda 86ba
00000160: 7ed9 523e 50a4 f93d 37f3 aa3d 76ae 703c
00000170: 9e35 4e3e cafb a93d 3b09 2ebe 49a5 ac3d
00000180: f321 76bd 6c4f 3d3d 7976 24bd 588d a83c
00000190: 499c 1b3d 9c21 05be c8af 07bd 3a3a 553b
000001a0: 2ccb bbbd c43a 213a bf6e 043e d9af 84be
000001b0: 1782 e6bd 51cd 3d3e d757 d23d 3a4e d63d
000001c0: d27c 8b3d fcb0 8f3c 38a0 fbbb 5586 a1bd
000001d0: a140 c3bd de55 d53d 2c4c ad3d cce3 563c
000001e0: 9af0 cd3d a3bb 0b3e a91b 50be ea07 013e
000001f0: 29ee d03c 3846 3e3d 481d 9c3d b309 1f3e
00000200: cf0a 133d 8f6a 493e ecc3 a2bd 8436 4fbe
00000210: 8a91 063e 89a0 e93d 40ad 44be 26b1 6d3e
00000220: bc6b 6c3e 96e7 053e dc76 a6bd 2e81 11bd
00000230: 1886 463e cd9b 363b 924c 43bd 1b0c c83d
00000240: 6aad 6d3e 1f2b 1bbe ee97 783d 533f 0e3d
00000250: 6211 fb3c 2b6a 283e fb9a 99bd fa9d abbd
00000260: 2140 82bd 1fdc 013e 029b 843d bdde c43d
00000270: e1df ddbc 7030 9dbe 313c 0f3e c938 843c
00000280: 9745 71be 30a9 1fbe ee63 153e ce3b 883c
00000290: 25f0 0d3d 1748 37bc 6477 c9bd 47c7 913d
000002a0: d727 ea3b df6f bfbd b20a b4bd 168d ba3d
000002b0: e2da 423b 7ce2 fe3d 72d7 833d 80ad 4cbe
000002c0: 2244 aabc 8dba dabc d719 ab3c 08cf 3e3d
000002d0: c93e 243e 1859 8f3e 2f1b 5bbd d4c7 09be
000002e0: 306c eebd 1485 bf3c 5678 353e 8273 823d
000002f0: ff22 2bbe e149 6abd 7d9f 6fbd bfec 11be
00000300: 2d00 9d3e 560b 0bbd 50f8 03bd 4868 42be
00000310: 288a 6c3e 7348 a23d b7d2 f53d 8049 e5bd
00000320: bce5 3f3d d357 53bb 4643 1b3e 90f9 1ebb
00000330: 9384 3d3e b7e5 5dbd 83f2 cf3d b76e c53d
00000340: 92ac bd3d a78a a83c 6aa2 513e 5a27 50bd
00000350: 6c4f 153d 8207 353d 8017 753d cf6a 833d
00000360: 755d 1d3d b37a da3c a7b6 483e 79be b83c
00000370: 5f56 063e c2ec a93e 619b 983e 2f09 0fbe
00000380: 74bb 203e e59e 10be 8a9a f53d a7b7 e4bd
00000390: ca48 da3d f241 113e 61e9 fd3d f89e 8c3e
000003a0: 445f 2b3e 6ae8 a33b 5eb1 b23d bed0 ea3e
000003b0: 0cab 223e 5595 e13d f74b 30bd c529 123e
000003c0: f223 0a3e 99b4 f63d 9df1 303e 1657 f63c
000003d0: 8127 653e 8248 613e 39f9 603e e73c 893e
000003e0: 62fb 223e 9d8a 9e3d 17de 053d 194a 3a3e
000003f0: 6cf5 8abd d124 443d 4703 4dbe 8f5c 913e

lstm.bias_hh_l0 f4 [256]
0.1820135 0.0722953 0.06229892 0.069401175 0.13835149 0.054426655 0.009744802 0.074702665
0.07953248 0.22490875 0.026886629 0.17435984 0.17078537 -0.019031567 0.109071456 0.16769832
0.09482576 0.02720553 0.08842078 0.06395195 -0.009818644 0.07660001 0.028940018 0.0006995902
0.123229384 0.105803505 -0.015734354 0.099036805 -0.03169076 0.28037235 0.21154511 0.091451496
0.12153955 0.045589007 0.048840802 -0.008535454 0.23413916 -0.06989404 0.05303257 -0.12722656
0.034950893 -0.003152628 0.072501704 0.58684117 0.109629996 0.24135855 0.06517571 0.08919187
-0.099062964 -0.05701283 -0.066245735 -0.031413738 -0.004552991 0.4794817 -0.049739443 0.055957515
0.16275044 0.031978507 0.23715807 0.09146161 0.116742626 0.10180947 -0.12989652 0.040785793
-0.058797654 0.026863841 -0.030679848 0.13718814 -0.03166378 0.11786119 0.044446588 0.1285207
0.20846726 0.011292498 -0.11386122 0.07539819 -0.002442277 0.18846667 -0.09104232 -0.13482308
0.07794857 0.0039408533 -0.0982542 -0.0013154091 -0.005348388 0.099825636 -0.011121405 0.101890765
0.029223144 0.07428926 0.09565425 -0.08501169 0.18529484 0.05749259 -0.023126554 0.17003256
-0.10870224 -0.1304925 0.050008554 -0.0082659535 -0.12254498 0.007803774 -0.12129559 -0.07393346
-0.052075326 -0.014275661 0.09505158 -0.2394777 -0.01773082 0.051543575 0.017280288 -0.04190197
0.03367891 -0.0013346636 0.049230546 -0.0042598997 -0.0007569617 0.05851214 -0.038438633 -0.015073288
0.08742228 -0.072136745 0.021755632 -0.012526354 0.0901038 0.10698867 -0.06506135 0.10353094
-0.091861404 0.11972113 -0.15169488 -0.18934636 0.16732077 -0.063522905 -0.13638051 0.20842749
0.08811394 0.042473737 -0.051347226 -0.12235335 0.011228863 -0.051955268 0.10841891 0.17911464
0.24297239 -0.1324181 -0.016607396 -0.108916044 -0.12946008 0.19570519 0.0915629 -0.05162247
0.0042304792 0.2342306 0.06503827 0.13921462 -0.014370234 -0.15509619 -0.025859894 0.021221874
-0.12175627 -0.20170133 0.14418042 -0.059939746 0.16027552 0.11185313 -0.08454594 -0.08697255
-0.017622784 -0.14408574 -0.10146984 0.08804577 -0.03346854 0.15946046 0.051216763 0.025595758
0.0951204 -0.06746215 0.073684655 -0.030699858 0.17855333 0.26403904 -0.21814133 -0.12225653
0.03493996 0.018591044 0.032051694 0.09646648 -0.09957314 -0.03118705 -0.06914275 -0.010040246
0.30982193 0.11174628 -0.09476768 -0.039354045 0.21188746 0.062044818 0.32083476 -0.05382199
0.08934514 -0.023134815 0.06277966 -0.07104319 0.13807543 0.11049236 0.07965419 0.032064334
0.074977666 0.16327743 0.2564288 0.095150955 0.004526597 -0.010465413 0.1916488 0.14462115
0.054938722 -0.04278515 0.18777095 0.08728288 -0.048533812 0.20434108 0.23237768 -0.037802674
0.11014018 -0.006582532 0.032913044 -0.01019164 0.08821066 0.026657807 0.13808148 0.27538192
0.06930938 -0.028557215 -0.061043017 0.3775447 0.1409608 0.029350895 -0.14345634 0.26483953
0.07610674 0.0013647788 0.10373777 0.14252365 0.05541254 0.17527069 0.050771326 0.21765555
0.17397314 -0.018230682 -0.012953645 0.12682405 -0.023814049 0.13190699 -0.000105215586 0.22067998
00000000: bf61 3a3e 8f0f 943d 272d 7f3d 3422 8e3d
00000010: 03ac 0d3e 7cee 5e3d a9a8 1f3c b6fd 983d
00000020: ede1 a23d 7b4e 663e 5941 dc3c 638b 323e
00000030: 5ce2 2e3e 17e8 9bbc db60 df3d 1cb9 2b3e
00000040: 0234 c23d 22de de3c f415 b53d 3df9 823d
00000050: 61de 20bc 77e0 9c3d 9e13 ed3c b464 373a
00000060: b05f fc3d 82af d83d 55e5 80bc cfd3 ca3d
00000070: 2cce 01bd f78c 8f3e 489f 583e ec4a bb3d
00000080: bae9 f83d 8abb 3a3d 4b0d 483d 4ad8 0bbc
00000090: 2dc2 6f3e 9b24 8fbd ae38 593d ae47 02be
000000a0: ab28 0f3d 529c 4ebb c67b 943d 393b 163f
000000b0: b185 e03d b226 773e d87a 853d 3aaa b63d
000000c0: 86e1 cabd 4986 69bd d8ab 87bd b1ab 00bd
000000d0: 4231 95bb a07e f53e 96bb 4bbd b533 653d
000000e0: 0da8 263e e5fb 023d 91d9 723e 3950 bb3d
000000f0: c216 ef3d 7c81 d03d 9803 05be 010f 273d
00000100: cfd5 70bd 8f11 dc3c 4e54 fbbc 0c7b 0c3e
00000110: e1b1 01bd 3561 f13d a00d 363d ee9a 033e
00000120: 7178 553e 2b04 393c 1230 e9bd 5e6a 9a3d
00000130: 9c0e 20bb 68fd 403e 6574 babd 100f 0abe
00000140: 80a3 9f3d 4622 813b 7f39 c9bd ce69 acba
00000150: 8841 afbb 6271 cc3d 8e36 36bc 1bac d03d
00000160: 6065 ef3c f824 983d 60e6 c33d 9c1a aebd
00000170: eebd 3d3e 5a7d 6b3d e673 bdbc 041d 2e3e
00000180: 489f debd d39f 05be c5d5 4c3d ec6d 07bc
00000190: ddf8 fabd cdb6 ff3b d369 f8bd 6d6a 97bd
000001a0: f04c 55bd 76e4 69bc 67aa c23d a439 75be
000001b0: 3a40 91bc 5b1f 533d 648f 8d3c 66a1 2bbd
000001c0: e6f2 093d e1ef aeba f8a5 493d a196 8bbb
000001d0: d76e 46ba 6daa 6f3d d471 1dbd f4f5 76bc
000001e0: 740a b33d 6ebc 93bd de38 b23c 563b 4dbc
000001f0: 5788 b83d e01c db3d e33e 85bd 0808 d43d
00000200: d521 bcbd 5a30 f53d e755 1bbe 03e4 41be
00000210: 2356 2b3e 4c18 82bd 55a7 0bbe 046e 553e
00000220: 1575 b43d f1f8 2d3d 7851 52bd 6594 fabd
00000230: 44f9 373c 0ccf 54bd bc0a de3d d469 373e
00000240: c1cd 783e 9c98 07be 3c0c 88bc 600f dfbd
00000250: 2f91 04be f166 483e 5485 bb3d 1572 53bd
00000260: d59f 8a3b 25da 6f3e c932 853d 478e 0e3e
00000270: 2171 6bbc 89d1 1ebe 21d8 d3bc 7fd9 ad3c
00000280: 5a5b f9bd cb8a 4ebe 08a4 133e 6183 75bd
00000290: 441f 243e 4113 e53d 6c26 adbd aa1e b2bd
000002a0: a85d 90bc 368b 13be 6bcf cfbd 5751 b43d
000002b0: 4f16 09bd 9a49 233e abc8 513d 32ae d13c
000002c0: 7cce c23d 9829 8abd fbe7 963d 457e fbbc
000002d0: afd6 363e 2030 873e 7160 5fbe a261 fabd
000002e0: 341d 0f3d 3f4c 983c a348 033d 3890 c53d
000002f0: 01ed cbbd fc7b ffbc b79a 8dbd d87f 24bc
00000300: fba0 9e3e 3cdb e43d 8f15 c2bd b531 21bd
00000310: 07f9 583e b522 7e3d 7444 a43e 7274 5cbd
00000320: 96fa b63d 3985 bdbc 9f92 803d 187f 91bd
00000330: a563 0d3e d249 e23d bc21 a33d e455 033d
00000340: e48d 993d 3332 273e a34a 833e 81de c23d
00000350: d953 943b 2077 2bbc 953f 443e 9117 143e
00000360: 6d07 613d 7b3f 2fbd 0747 403e 5ec1 b23d
00000370: 64cb 46bd ca3e 513e 6af4 6d3e fad6 1abd
00000380: 2d91 e13d 48b2 d7bb d4cf 063d d6fa 26bc
00000390: caa7 b43d 7961 da3c 3b65 0d3e dcfe 8c3e
000003a0: 14f2 8d3d d2f0 e9bc 3e08 7abd 8a4d c13e
000003b0: 0758 103e 4a71 f03c 38e6 12be 0c99 873e
000003c0: dadd 9b3d 61e2 b23a 7874 d43d b8f1 113e
000003d0: 42f8 623d 297a 333e 98f5 4f3d 19e1 5e3e
000003e0: 0426 323e 8358 95bc 863b 54bc 2ade 013e
000003f0: ae15 c3bc a012 073e 30a7 dcb8 eff9 613e

lstm.weight_ih_l1 f4 [256, 64]
-0.0005584998 -0.09988968 -0.06178255 -0.09525982 0.07627935 -0.04623885 -0.059287492 -0.010818811
0.007898959 0.19053182 -0.051016044 -0.07887068 -0.14748703 -0.04593198 0.026874771 0.021626305
-0.01405087 0.012670736 -0.05939964 0.14082757 0.025341047 0.109258905 0.056103375 0.14529383
0.024259275 0.035067305 -0.13736622 -0.014859197 -0.12665115 -0.09059856 0.10381167 -0.1116525
-0.08963389 0.05379922 -0.06155403 0.023372944 0.07454078 -0.13464445 -0.09604641 -0.03251794
0.009968169 -0.14934517 0.092666864 -0.24141082 0.022565369 0.07108662 0.081497274 0.092822775
0.049917817 -0.1450865 -0.011461257 0.08140963 -0.005814983 0.10179491 -0.053925633 0.03030653
0.04970763 -0.011622753 -0.12368199 0.018075805 -0.08199898 -0.08429396 -0.2695041 -0.1394085
-0.1243501 -0.0067415144 0.05077172 -0.051724736 -0.016701585 -0.05654857 0.019718295 -0.06365962
0.015690027 0.12740536 0.15285942 0.039028153 0.10385322 -0.08442408 -0.039045356 0.27748677
-0.068132736 0.09515242 0.05542177 -0.011243966 -0.06422507 0.097641386 0.05306637 0.14509693
0.15698865 0.105965726 -0.24100159 -0.090811744 0.13233986 -0.041244622 0.043231197 0.0018569825
-0.19999157 0.14276662 -0.034193058 0.07835895 0.014324425 0.09881412 0.07620469 0.22326797
-0.09792579 -0.07279721 0.04876767 -0.1303661 -0.011873874 0.097506166 0.025667258 -0.011876731
-0.0103260195 -0.096221425 0.2015395 -0.08492778 0.09591441 -0.012449839 -0.042415373 0.09812008
-0.16145575 0.036962107 -0.06903052 -0.184721 -0.018538548 0.06888469 0.00021145472 -0.14911444
0.04178855 -0.242947 0.01669531 -0.14672995 0.13521788 0.12298891 -0.01371401 0.047749028
0.036640584 0.5659521 0.0195897 0.06225478 -0.18624449 -0.02617722 -0.15016033 0.84305555
0.13525453 0.01087668 -0.019037172 0.094388366 -0.003703022 0.019657899 -0.012524946 0.113408975
0.123519875 0.17002127 -0.23258784 -0.107999526 0.024560923 0.11374336 0.038239643 -0.027670184
-0.18972692 -0.054401305 -0.09937613 -0.03723584 -0.07919761 -0.2902047 -0.061274644 -0.22814167
0.053525284 0.01947566 -0.007035387 0.1462752 0.31622896 -0.0030968676 -0.03701668 -0.1337917
0.04995259 -0.15850994 0.025489278 -0.14907515 -0.110080145 0.10545327 -0.022758003 0.11811852
-0.0925035 -0.0024409443 -0.03327283 -0.27500325 0.13261929 0.103549324 -0.2649093 -0.1507262
0.17207113 0.07707791 -0.13513827 -0.008796393 0.22960512 0.0414781 0.0751393 0.101925164
-0.06845954 0.1405363 -0.25849614 -0.055999555 0.13733076 0.010490777 0.020997835 0.113901794
0.014692754 0.0033001734 -0.08101909 0.030200033 -0.14344034 0.057935093 -0.11629228 0.029417377
0.15762453 0.0007357696 0.15230317 -0.13565591 0.028829234 -0.3074514 0.069504365 0.09416213
-0.021990005 -0.14271086 -0.11155461 -0.07204903 -0.053506266 -0.014155247 0.024313372 -0.08233677
0.008750789 0.11287689 -0.16466747 -0.42146337 -0.095257536 0.0590471 0.120374 0.051683784
-0.12544465 -0.1591859 0.039701335 -0.12977023 -0.11060353 0.013357906 -0.08935429 -0.18823725
-0.050585873 -0.03557265 0.0061986013 0.029315297 -0.03078186 0.061938375 -0.11667318 -0.13921739
00000000: 4a68 12ba f692 ccbd b30f 7dbd 9517 c3bd
00000010: 5938 9c3d f364 3dbd 71d7 72bd 6241 31bc
00000020: a36a 013c c61a 433e 33f6 50bd f386 a1bd
00000030: d706 17be 2c23 3cbd 7b28 dc3c a629 b13c
00000040: 9f35 66bc eb98 4f3c 094d 73bd 1a35 103e
00000050: 0798 cf3c 22c3 df3d a7cc 653d e8c7 143e
00000060: 63bb c63c bca2 0f3d bba9 0cbe fd73 73bc
00000070: d7b0 01be bd8b b9bd 369b d43d 11aa e4bd
00000080: f991 b7bd 925c 5c3d 1420 7cbd 9e78 bf3c
00000090: d6a8 983d 3ce0 09be fbb3 c4bd 8831 05bd
000000a0: 8851 233c f1ed 18be 20c8 bd3d 6634 77be
000000b0: 02db b83c dd95 913d 0be8 a63d de19 be3d
000000c0: a076 4c3d 8e91 14be ffc7 3bbc 18ba a63d
000000d0: 9d8b bebb da79 d03d 20e1 5cbd 6645 f83c
000000e0: 3a9a 4b3d 5c6d 3ebc fc4c fdbd b613 943c
000000f0: 15ef a7bd 50a2 acbd 71fc 89be 1ac1 0ebe
00000100: 44ab febd ece7 dcbb 02f6 4f3d 51dd 53bd
00000110: c3d1 88bc 799f 67bd 4388 a13c fa5f 82bd
00000120: 5f88 803c 8d76 023e 2e87 1c3e fcdb 1f3d
00000130: ffb0 d43d 88e6 acbd 06ee 1fbd bf12 8e3e
00000140: 2d89 8bbd 46df c23d f001 633d 9d38 38bc
00000150: 6f88 83bd 35f8 c73d 1f5c 593d 4a94 143e
00000160: a2c1 203e 8f04 d93d 1fc9 76be 82fb b9bd
00000170: 1a84 073e 1ff0 28bd 3213 313d fe65 f33a
00000180: 97ca 4cbe 6a31 123e 050e 0cbd a87a a03d
00000190: feb0 6a3c 0f5f ca3d 3411 9c3d 5ca0 643e
000001a0: 518d c8bd b416 95bd 9cc0 473d b17e 05be
000001b0: a38a 42bc 50b1 c73d 2444 d23c 9f96 42bc
000001c0: 772e 29bc bd0f c5bd 5f60 4e3e 9eee adbd
000001d0: c66e c43d 69fa 4bbc bebb 2dbd 2ef3 c83d
000001e0: a854 25be 9465 173d e05f 8dbd 8027 3dbe
000001f0: 27de 97bc 6b13 8d3d f2b9 5d39 75b1 18be
00000200: 782a 2b3d 19c7 78be 9ac4 883c 6040 16be
00000210: 8e76 0a3e 9ce1 fb3d bab0 60bc 7c94 433d
00000220: 7014 163d 3de2 103f 947a a03c defe 7e3d
00000230: e0b6 3ebe 9c71 d6bc a1c3 19be 7dd2 573f
00000240: 2a80 0a3e 1a34 323c d8f3 9bbc b04e c13d
00000250: 66ae 72bb 9a09 a13c 6e35 4dbc f742 e83d
00000260: fdf7 fc3d 0e1a 2e3e 822b 6ebe db2e ddbd
00000270: fd33 c93c 47f2 e83d 2ca1 1c3d 95ac e2bc
00000280: c647 42be e7d3 5ebd b685 cbbd 9c84 18bd
00000290: 5b32 a2bd b695 94be 1ffb 7abd f89d 69be
000002a0: 543d 5b3d 6b8b 9f3c 1b89 e6bb 2bc9 153e
000002b0: c3e8 a13e d1f4 4abb cd9e 17bd b100 09be
000002c0: 169b 4c3d 6e50 22be e4ce d03c 28a7 18be
000002d0: b371 e1bd e2f7 d73d fe6e babc 1fe8 f13d
000002e0: 7a72 bdbd 40f8 1fbb 1749 08bd 3acd 8cbe
000002f0: 5acd 073e ab11 d43d 31a2 87be f857 1abe
00000300: 6a33 303e 06db 9d3d b061 0abe bf1e 10bc
00000310: 9b1d 6b3e f1e4 293d a2e2 993d 24be d03d
00000320: 8434 8cbd bfe8 0f3e 9b59 84be ca5f 65bd
00000330: 6fa0 0c3e 82e1 2b3c a703 ac3c 5845 e93d
00000340: e0b9 703c b947 583b 56ed a5bd 0f66 f73c
00000350: 06e2 12be 594d 6d3d a62a eebd b6fc f03c
00000360: 5368 213e a9e0 403a 5df5 1b3e 62e9 0abe
00000370: 492b ec3c 456a 9dbe 4e58 8e3d 13d8 c03d
00000380: 6224 b4bc cc22 12be be76 e4bd 718e 93bd
00000390: 6329 5bbd 69eb 67bc d62c c73c 2ea0 a8bd
000003a0: 785f 0f3c 002c e73d 979e 28be 0cca d7be
000003b0: 6216 c3bd 5fdb 713d a586 f63d 60b2 533d
000003c0: 9074 00be a101 23be de9d 223d 7de2 04be
000003d0: 1b84 e2bd 1edb 5a3c 62ff b6bd 44c1 40be
000003e0: 2233 4fbd a1b4 11bd a31d cb3b a226 f03c
000003f0: 3d2a fcbc 18b3 7d3d 59f2 eebd 018f 0ebe

lstm.weight_hh_l1 f4 [256, 64]
0.06825198 -0.048035417 0.13607295 0.114384875 0.023046942 0.032373004 -0.045462146 -0.17406097
-0.057825044 0.025682451 -0.083132006 -0.13160647 -0.06261919 0.05678461 0.03884696 -0.3437985
0.12249237 -0.05476985 -0.00090450177 -0.17506781 -0.009887186 0.16835862 -0.028037217 0.020433934
-0.12194173 0.037931178 -0.03317954 0.02333752 -0.07931553 -0.0896568 0.095879 -0.09230675
-0.004203233 -0.08702808 -0.14729516 -0.24031116 -0.010118528 -0.03930415 0.08151915 0.1549761
-0.008924987 0.08603165 -0.010977224 0.102443025 0.07320273 -0.14898244 0.044211682 0.13551208
0.00056728895 -0.05380419 0.1028294 0.0224218 -0.06954762 0.022414763 0.10433984 0.039723866
-0.0025237342 -0.004058432 0.0041933185 0.0013482407 0.067520134 -0.028770171 -0.16151 0.036380842
-0.19619657 0.08352338 0.1354418 -0.04254832 -0.25975993 0.063568726 -0.010033008 -0.10908787
-0.068318546 -0.026482863 0.011153589 -0.03369904 -0.04643065 -0.1284819 0.2887447 0.099671744
0.09565474 -0.16495042 0.043692123 -0.12766516 -0.06411178 -0.030686345 -0.07199418 -0.07278336
-0.20032647 -0.15470348 -0.21229246 -0.15720595 -0.0009485387 -0.015015413 -0.042725194 0.053073183
0.05404568 -0.0042859623 -0.0009391983 -0.06691246 0.023852881 -0.17473628 -0.04539255 -0.021797914
-0.03931091 -0.06397607 -0.018040873 0.08394248 0.019825967 -0.16027428 0.09877185 0.18039984
-0.11759072 0.15160084 0.17245123 0.065753035 -0.07702783 0.12605898 0.08612152 -0.097174615
-0.011799691 -0.05156731 0.08265627 -0.10390966 0.043680113 0.14901479 0.049690668 -0.10061729
-0.17578201 0.012594478 0.17353474 0.34722942 -0.22491959 0.2777795 -0.09737261 -0.15560584
-0.31268895 0.10666258 0.019088006 -0.1894463 0.1336785 0.025899904 0.06263494 0.17784034
0.31622833 -0.12348684 0.011524157 -0.5126703 -0.17634754 0.28973052 -0.022659278 0.13529986
-0.2642733 -0.13334642 0.03919839 -0.07786019 -0.14938521 0.005689812 0.23754163 -0.20877582
-0.121415235 0.09708259 -0.16485713 -0.06115307 -0.1168701 -0.3453903 -0.08697276 -0.19433294
0.05689771 0.010153243 0.10115279 0.08062607 0.28652537 -0.024718413 0.13054964 0.28338802
-0.3265521 0.20340656 0.050559893 0.30363038 -0.31751835 0.01746419 0.28158525 -0.16029973
-0.059232254 0.11270486 -0.09638165 -0.20303053 0.17047638 0.0037968005 0.018355055 -0.15940978
0.12756367 0.17496404 0.0124604795 -0.14807013 -0.05063189 0.093077525 -0.14151476 -0.026250666
0.03111154 -0.02775405 -0.018094834 -0.09683693 0.14398208 0.0010469109 -0.051453494 -0.27343056
-0.122584246 -0.1478279 -0.056450743 -0.16859394 0.18831487 -0.13866974 0.019948797 -0.0080790715
0.06259957 -0.1302592 -0.119768 0.036849238 -0.028769819 -0.07580516 0.042019777 0.05894769
-0.045658886 -0.097993515 0.08621205 0.04823982 -0.057363145 -0.009275175 -0.04618011 0.19663532
0.05801559 -0.16155301 0.08664332 0.06267984 0.06571115 0.02330671 0.085749984 0.106412835
-0.14049557 -0.12007504 -0.123304754 0.03409567 0.20913322 0.10985244 -0.0040679695 0.03730101
-0.12721354 -0.10480329 0.049211636 -0.03106227 -0.031009296 -0.19972551 -0.123448275 0.02520006
00000000: b2c7 8b3d c9c0 44bd b556 0b3e 9e42 ea3d
00000010: f1cc bc3c 8e99 043d 8436 3abd 0a3d 32be
00000020: f4d9 6cbd 0164 d23c 1d41 aabd d9c3 06be
00000030: 7d3e 80bd fb96 683d fd1d 1f3d 5b06 b0be
00000040: 48dd fa3d 5a56 60bd 161c 6dba fa44 33be
00000050: ddfd 21bc 3466 2c3e 4eae e5bc 1165 a73c
00000060: 96bc f9bd b95d 1b3d 45e7 07bd 542e bf3c
00000070: 2e70 a2bd fc9d b7bd 365c c43d 520b bdbd
00000080: 46bb 89bb c73b b2bd 8bd4 16be 2114 76be
00000090: 2fc8 25bc 63fd 20bd 83f3 a63d 0eb2 1e3e
000000a0: 1c3a 12bc 5d31 b03d d1d9 33bc a6cd d13d
000000b0: 50eb 953d da8e 18be 4f17 353d aec3 0a3e
000000c0: 1eb6 143a c861 5cbd 3898 d23d ecad b73c
000000d0: fc6e 8ebd 2a9f b73c 20b0 d53d 7eb5 223d
000000e0: 3c65 25bb 98fc 84bb 1b68 893b 73b7 b03a
000000f0: ff47 8a3d 6caf ebbc e162 25be 1404 153d
00000100: c1e7 48be 4e0e ab3d 41b1 0a3e 2647 2ebd
00000110: 41ff 84be 5230 823d 7c61 24bc 7669 dfbd
00000120: 98ea 8bbd 97f2 d8bc 8bbd 363c 0108 0abd
00000130: 112e 3ebd c290 03be 58d6 933e b320 cc3d
00000140: a2e6 c33d c3e8 28be 83f6 323d a8ba 02be
00000150: 094d 83bd ee61 fbbc af71 93bd 710f 95bd
00000160: 6222 4dbe 976a 1ebe 3263 59be 99fa 20be
00000170: 5ba7 78ba 3503 76bc 9d00 2fbd 4463 593d
00000180: 015f 5d3d 4271 8cbb 8834 76ba 6609 89bd
00000190: 1e67 c33c 11ee 32be 8aed 39bd 8a91 b2bc
000001a0: 7a04 21bd e305 83bd 74ca 93bc 09ea ab3d
000001b0: 116a a23c f11e 24be e548 ca3d bcba 383e
000001c0: 67d3 f0bd 403d 1b3e 0e97 303e 87a9 863d
000001d0: c4c0 9dbd 9b15 013e 7b60 b03d 7c03 c7bd
000001e0: 7e53 41bc 3e38 53bd b147 a93d 96ce d4bd
000001f0: ebe9 323d 5597 183e 7188 4b3d 7010 cebd
00000200: 3300 34be 1259 4e3c 17b3 313e 0ec8 b13e
00000210: 5251 66be 1d39 8e3e 4a6b c7bd 2357 1fbe
00000220: c418 a0be e971 da3d 735e 9c3c 36fe 41be
00000230: 04e3 083e 092c d43c bf46 803d c71b 363e
00000240: aee8 a13e abe6 fcbd d1cf 3c3c 5c3e 03bf
00000250: 7394 34be 8f57 943e f39f b9bc 0c8c 0a3e
00000260: d44e 87be f78b 08be 7e8e 203d 2a75 9fbd
00000270: 70f8 18be 9a71 ba3b 1d3e 733e 54c9 55be
00000280: 8da8 f8bd 3dd3 c63d 4fd0 28be a47b 7abd
00000290: 9759 efbd ffd6 b0be c61e b2bd 37ff 46be
000002a0: 930d 693d ca59 263c 3229 cf3d 481f a53d
000002b0: 74b3 923e 457e cabc ceae 053e 3c18 913e
000002c0: d631 a7be cf49 503e e417 4f3d 7175 9b3e
000002d0: c491 a2be 1011 8f3c f12b 903e 9d25 24be
000002e0: 859d 72bd ced1 e63d be63 c5bd 3ce7 4fbe
000002f0: 5c91 2e3e bed3 783b 575d 963c 513c 23be
00000300: 0da0 023e c629 333e 0a27 4c3c b29f 17be
00000310: 6263 4fbd 6e9f be3d 3fe9 10be a30b d7bc
00000320: a1dd fe3c 765c e3bc 9e3b 94bc 7152 c6bd
00000330: 0a70 133e 8038 893a e6c0 52bd 17ff 8bbe
00000340: 730d fbbd 3260 17be e538 67bd e4a3 2cbe
00000350: 9dd5 403e 71ff 0dbe a96b a33c 155e 04bc
00000360: 3434 803d ab62 05be ed48 f5bd 3aef 163d
00000370: afae ebbc bc3f 9bbd ee1c 2c3d 2273 713d
00000380: d004 3bbd d3b0 c8bd f18f b03d 1e97 453d
00000390: 9ef5 6abd e7f6 17bc 5b27 3dbd c55a 493e
000003a0: c1a1 6d3d 276e 25be 0e72 b13d 4a5e 803d
000003b0: 9193 863d b7ed be3c b09d af3d f9ee d93d
000003c0: 12de 0fbe e7e9 f5bd 3487 fcbd e7a7 0b3d
000003d0: 0527 563e 51fa e03d 9a4c 85bb f2c8 183d
000003e0: 4444 02be 1ba3 d6bd 2492 493d 4d76 febc
000003f0: 3507 febc d884 4cbe 73d2 fcbd 5b70 ce3c

lstm.bias_ih_l1 f4 [256]
-0.07275464 -0.0242923 -0.10171042 0.06029077 -0.017529419 0.0486279 0.108520366 -0.008948123
0.024048474 -0.07968366 -0.049456507 -0.065620385 -0.078482784 -0.08205439 0.10603232 -0.09595742
-0.002055526 -0.053599857 -0.02417154 0.071202904 0.060448714 -0.0075776763 -0.031823315 -0.07826961
0.010983836 -0.05264187 0.18778631 0.1441028 -0.04697985 -0.027528372 -0.049218744 0.07783184
0.05018607 0.0025664065 0.066301845 0.031025216 0.04946634 0.025731692 0.04934751 -0.0008961132
-0.03451672 0.035258383 0.023226373 -0.058453806 0.08555598 -0.09496713 -0.003371848 0.079954244
0.03204204 -0.040897567 -0.030464923 0.089251034 0.041993972 -0.10194462 0.08758301 0.05309291
0.18715271 -0.007002846 0.09712215 0.0036397085 0.18023457 0.07630628 0.27870694 0.04320816
-0.063752875 0.029822728 0.07069706 -0.040696938 -0.06620292 0.06992869 0.015829833 0.108345985
-0.03298621 0.090198755 0.06269182 -0.066405006 0.05554626 -0.015613206 0.11422136 0.11146537
0.046985768 0.12656441 0.04486746 -0.068582475 0.042172827 0.12467033 0.13689035 0.0386617
0.14587152 0.12817672 -0.040438898 0.001216717 0.12404058 0.101677194 0.018224604 0.049689487
0.13379118 0.09628023 0.13606729 0.023400106 0.0062261033 -0.019304315 0.11526085 -0.04420264
0.027517129 0.05022682 -0.09035317 -0.04607574 -0.010000266 -0.07052638 -0.0014218444 0.05004407
0.04340901 0.029147994 -0.09712244 0.12083519 0.06788654 -0.019876903 -0.055962197 -0.09680283
-0.033291463 0.068129845 -0.052422997 -0.030096557 0.030941172 0.04725989 -0.008193287 0.08646458
0.019480227 -0.06762497 -0.010323894 0.06283394 0.040720277 -0.00038442365 -0.10259352 -0.0783116
-0.07279935 0.06585177 -0.029737094 0.116624676 -0.109421566 0.056939147 -0.090024 0.008576261
-0.08734066 -0.0034084625 -0.037735797 -0.023249825 0.06705363 0.04142648 0.04208735 -0.047368053
0.05976695 0.10348538 0.10732365 0.05223928 -0.05937541 0.11620756 0.13102189 -0.09696106
0.025075432 -0.124856256 -0.07783479 0.13612492 -0.09339438 -0.021800442 0.052031286 0.00024569617
0.031190934 -0.15147369 0.04481609 0.025856799 -0.12683931 -0.08489048 -0.00745344 -0.02570599
0.030465081 0.048154272 -0.12698671 -0.036645494 0.12893078 0.0072050844 -0.06604835 0.04299201
0.08650437 -0.014121005 -0.017295435 -0.030916298 0.09723368 -0.043656353 0.07327334 -0.078005865
0.15884054 0.048923403 0.09000932 -0.027357742 0.1299123 -0.004128257 -0.047763273 -0.07724422
-0.020183071 0.14925577 0.0115167415 0.10501263 -0.15048566 0.21322563 0.024375146 -0.0404567
0.08736784 0.116726905 0.072573684 0.06743232 0.109320685 0.07453258 0.0057244836 0.17566282
0.005192499 0.15821889 0.18152201 0.16385764 0.08087899 -0.054782223 0.19699663 0.03562858
0.08123586 0.11234639 0.11704288 0.013617003 0.09848874 0.1216684 0.2161833 -0.026984049
0.09770839 0.14707935 -0.04489042 0.05798004 -0.08159482 -0.0076575186 -0.06656467 0.0687987
0.010314282 0.24226193 0.17234892 0.17242956 -0.120817 0.0123649 -0.07984677 0.031904403
0.10643461 0.049338173 -0.11201826 0.035506967 -0.023189684 0.0038626145 0.11517132 -0.009986362
00000000: 6200 95bd a500 c7bc 8d4d d0bd 74f3 763d
00000010: db99 8fbc 0d2e 473d ed3f de3d 269b 12bc
00000020: 4e01 c53c 3031 a3bd e892 4abd fb63 86bd
00000030: 95bb a0bd 220c a8bd 7927 d93d 5385 c4bd
00000040: 01b6 06bb 868b 5bbd 6503 c6bc d4d2 913d
00000050: 1299 773d 284e f8bb 2a59 02bd d14b a0bd
00000060: 8cf5 333c 009f 57bd 0e4b 403e af8f 133e
00000070: f16d 40bd 2e83 e1bc 9899 49bd 4d66 9f3d
00000080: e98f 4d3d 2831 283b 43c9 873d 9828 fe3c
00000090: 389d 4a3d 45cb d23c 9d20 4a3d 24e9 6aba
000000a0: 6761 0dbd 186b 103d 3c45 be3c 426d 6fbd
000000b0: f937 af3d 207e c2bd 39fa 5cbb 0dbf a33d
000000c0: 843e 033d 3584 27bd 9391 f9bc 3fc9 b63d
000000d0: df01 2c3d 57c8 d0bd b95e b33d f477 593d
000000e0: f6a4 3f3e 2178 e5bb fae7 c63d 2d88 6e3b
000000f0: 698f 383e 7846 9c3d adb2 8e3e 0afb 303d
00000100: de90 82bd cb4e f43c 9fc9 903d d5b1 26bd
00000110: 6695 87bd c636 8f3d 91ad 813c 80e4 dd3d
00000120: 8c1c 07bd 20ba b83d 9264 803d 59ff 87bd
00000130: 7a84 633d 88ce 7fbc e3ec e93d f547 e43d
00000140: 2674 403d 1a9a 013e f1c6 373d f874 8cbd
00000150: 6abd 2c3d 2853 ff3d fc2c 0c3e bb5b 1e3d
00000160: 585f 153e c240 033e 42a3 25bd 3f7a 9f3a
00000170: fd08 fe3d 223c d03d c44b 953c 3487 4b3d
00000180: 8e00 093e 922e c53d 3955 0b3e 94b1 bf3c
00000190: 5704 cc3b 1524 9ebc e10d ec3d d40d 35bd
000001a0: 9a6b e13c a3ba 4d3d 150b b9bd eab9 3cbd
000001b0: 28d8 23bc 2270 90bd 2e5d baba 03fb 4c3d
000001c0: a5cd 313d c6c7 ee3c 21e8 c6bd 7178 f73d
000001d0: 1908 8b3d e3d4 a2bc 9e38 65bd 9040 c6bd
000001e0: a15c 08bd a987 8b3d 7fb9 56bd 0e8d f6bc
000001f0: 5778 fd3c 9693 413d 233d 06bc 5714 b13d
00000200: ff94 9f3c f67e 8abd 8d25 29bc 15af 803d
00000210: 4eca 263d 788c c9b9 8d1c d2bd d561 a0bd
00000220: d317 95bd 4bdd 863d 359b f3bc ebd8 ee3d
00000230: 6a18 e0bd 0639 693d 815e b8bd 7283 0c3c
00000240: a9df b2bd 8360 5fbb da90 1abd 6b76 bebc
00000250: 6a53 893d d0ae 293d c963 2c3d 0105 42bd
00000260: 30ce 743d 25f0 d33d 80cc db3d dbf8 553d
00000270: a133 73bd 3bfe ed3d 9a2a 063e 8593 c6bd
00000280: fe6a cd3c a3b4 ffbd d967 9fbd 5564 0b3e
00000290: 8d45 bfbd d796 b2bc c21e 553d c8d0 8039
000002a0: 2184 ff3c eb1b 1bbe 1491 373d a3d1 d33c
000002b0: 2ae2 01be 0fdb adbd fd3b f4bb 5e95 d2bc
000002c0: e891 f93c 6a3d 453d ce08 02be 9619 16bd
000002d0: 6e06 043e a118 ec3b 5b44 87bd 6418 303d
000002e0: 3429 b13d ca5b 67bc 28af 8dbc 2d44 fdbc
000002f0: 7422 c73d 01d1 32bd 5510 963d 8ac1 9fbd
00000300: 18a7 223e e863 483d ce56 b83d 581d e0bc
00000310: bb07 053e 5446 87bb 6ca3 43bd 3832 9ebd
00000320: f856 a5bc 81d6 183e b7b0 3c3c dd10 d73d
00000330: ea18 1abe d257 5a3e 63ae c73c edb5 25bd
00000340: e9ed b23d 840e ef3d 83a1 943d f519 8a3d
00000350: 86e3 df3d 8aa4 983d 7394 bb3b f4e0 333e
00000360: d725 aa3b 2204 223e e8e0 393e 4cca 273e
00000370: e2a3 a53d 5363 60bd 7cb9 493e 46ef 113d
00000380: fd5e a63d dd15 e63d 2db4 ef3d da19 5f3c
00000390: 77b4 c93d 482d f93d 285f 5d3e a70d ddbc
000003a0: 561b c83d f89b 163e 04df 37bd 7a7c 6d3d
000003b0: 2f1b a7bd eceb fabb 0f53 88bd 55e6 8c3d
000003c0: 3cfd 283c 8313 783e 3c7c 303e 6091 303e
000003d0: e76e f7bd 2696 4a3c b486 a3bd 31ae 023d
000003e0: 64fa d93d d316 4a3d d469 e5bd c16f 113d
000003f0: 4bf8 bdbc eb23 7d3b f1de eb3d d79d 23bc

lstm.bias_hh_l1 f4 [256]
0.048974395 0.012614383 -0.18599056 0.07118022 0.05133254 0.05938216 0.101194404 0.014698524
-0.053201914 -0.016885987 0.16564612 -0.015350478 0.03338441 0.074893035 -0.06378985 -0.17258477
0.030038388 -0.010293112 0.09927685 0.040174525 0.08829769 -0.03821992 -0.0887004 0.13868774
0.13104759 0.05238774 0.23913924 0.14960493 0.05509803 0.09788439 -0.008394692 -0.14821891
0.15687104 0.21282354 0.15284212 0.0342867 0.07076452 0.07303491 0.0731475 -0.04366335
-0.08629827 0.032912053 -0.14325455 0.017189335 0.093349926 -0.08914161 -0.047007762 0.06030686
-0.026939556 0.019953383 -0.071654424 0.074516006 -0.008507271 -0.023015516 -0.060225468 0.094030924
0.22103114 -0.091757536 0.01808617 -0.10967332 0.18336186 0.10555858 0.20796882 -0.06246282
0.035557296 -0.03900097 0.06413969 -0.04426173 -0.016313197 0.13947736 0.07088458 -0.063978694
-0.042204708 -0.03275873 0.013079541 -9.7723896e-05 0.018108128 0.09886371 -0.06806187 -0.049501896
0.057469636 -0.024421982 0.15118268 0.051048364 0.03632117 0.09565416 0.12717293 0.03235042
0.1260604 -0.024724854 -0.0032071883 0.1461267 0.09481745 -0.012981577 -0.08326084 -0.020767879
-0.059955746 0.17763612 0.00277943 -0.108919404 0.047185417 -0.010608636 -0.0038333123 -0.055631675
0.05167103 0.06818682 0.11415267 -0.033366572 0.09203647 0.013067914 0.026998173 -0.022228727
0.030678311 -0.12618008 -0.063443765 0.059408743 -0.072552025 -0.08665613 0.07192159 -0.060835324
-0.032019302 -0.011528931 0.10513675 0.030498225 0.08447565 0.077031225 0.0065083103 0.03870375
0.07466174 0.11353353 -0.020304006 0.029473133 -0.072234005 -0.04404153 -0.18153167 -0.0001363526
0.05662855 -0.108558886 -0.007511489 -0.11432722 0.12965319 0.09364946 0.05207625 0.085877456
0.09653415 0.027324954 -0.0120565165 -0.03747154 0.027478024 -0.012123119 0.027289063 -0.103043094
0.084982544 0.04245968 0.012773853 -0.03488396 0.007929771 -0.11140896 0.083624594 0.123579696
0.00047334388 -0.032432444 -0.076602995 -0.040550098 0.03900309 -0.12394275 -0.037501667 0.08960193
0.09627135 -0.15451689 -0.009370469 0.09858277 0.10013676 0.026025865 -0.05673397 -0.11417944
-0.08473815 -0.004940809 0.002746756 -0.072335996 -0.009999283 0.086056784 0.004951575 -0.09878284
-0.094335034 -0.053579036 -0.058996078 0.055029314 -0.03204971 -0.060759153 0.09006148 0.02437503
0.1723504 -0.14994223 -0.0317522 0.14915521 0.07377591 0.09714873 0.14594673 -0.1127368
0.062143974 0.01917506 -0.034921117 -0.03610631 -0.15176222 0.06539122 0.16553745 0.10661514
0.19758786 -0.106417984 -0.045205988 0.12349618 -0.07033535 0.04231303 0.0009373565 0.054770175
0.019788833 0.090375125 0.10879571 0.16582772 0.11728908 0.1211012 0.06442627 0.15419807
-0.017673299 0.06383116 0.05930293 -0.083822414 0.04979053 0.008934447 0.20131782 0.14688616
-0.0865556 -0.028968072 0.054697316 0.13413458 -0.083543114 0.19266796 0.17741637 0.12269418
0.024618201 0.20831975 0.049202994 0.14347473 -0.08251428 -0.060805112 0.121398784 0.17837784
0.104504645 0.0010367049 -0.00047344074 0.030935818 0.0020339729 0.11848635 0.15054938 -0.008514119
00000000: 6099 483d 8fac 4e3c 4f74 3ebe efc6 913d
00000010: 1242 523d b53a 733d 033f cf3d 14d2 703c
00000020: 40ea 59bd 7b54 8abc 239f 293e 9280 7bbc
00000030: 17be 083d 8561 993d 41a4 82bd 10ba 30be
00000040: 1113 f63c 71a4 28bc a951 cb3d 0b8e 243d
00000050: 6bd5 b43d 7e8c 1cbd 8ea8 b5bd 2904 0e3e
00000060: 5731 063e 8794 563d ebe0 743e 0932 193e
00000070: 79ae 613d 9c77 c83d e489 09bc b3c6 17be
00000080: cda2 203e 6aee 593e a582 1c3e 3670 0c3d
00000090: fdec 903d 5493 953d 5bce 953d 57d8 32bd
000000a0: 26bd b0bd cace 063d 52b1 12be a6d0 8c3c
000000b0: 3f2e bf3d e08f b6bd 368b 40bd 5304 773d
000000c0: 58b0 dcbc 4775 a33c 8ebf 92bd d99b 983d
000000d0: 1562 0bbc 098b bcbc fbae 76bd 4993 c03d
000000e0: fd55 623e 60eb bbbd 7329 943c 689c e0bd
000000f0: 36c3 3b3e 192f d83d c7f5 543e 04d9 7fbd
00000100: 87a4 113d 7bbf 1fbd ab5b 833d ca4b 35bd
00000110: 41a3 85bc 27d3 0e3e ef2b 913d 4307 83bd
00000120: d8de 2cbd 052e 06bd 924b 563c 1ef1 ccb8
00000130: 7f57 943c 0f79 ca3d 0664 8bbd 80c2 4abd
00000140: 4865 6b3d 9c10 c8bc a2cf 1a3e 1718 513d
00000150: 82c5 143d 54e6 c33d 9f39 023e e081 043d
00000160: fa15 013e c78b cabc b12f 52bb 3da2 153e
00000170: a72f c23d aeb0 54bc a984 aabd 6621 aabc
00000180: 2894 75bd 3ee6 353e 1927 363b 2311 dfbd
00000190: 7f45 413d d8cf 2dbc 4f38 7bbb 0ade 63bd
000001a0: 01a5 533d 88a5 8b3d e0c8 e93d 63ab 08bd
000001b0: 9e7d bc3d ce1a 563c 462b dd3c 0519 b6bc
000001c0: 1551 fb3c 5a35 01be ceee 81bd 9556 733d
000001d0: 2896 94bd c578 b1bd a04b 933d 762e 79bd
000001e0: ac26 03bd d7e3 3cbc f051 d73d 6ad7 f93c
000001f0: 9201 ad3d 8cc2 9d3d aa43 d53b d387 1e3d
00000200: 41e8 983d 4484 e83d 9654 a6bc a471 f13c
00000210: 6cef 93bd e464 34bd 70e3 39be dff9 0eb9
00000220: 57f3 673d 1f54 debd f022 f6bb 6424 eabd
00000230: cec3 043e 4acb bf3d e84d 553d 85e0 af3d
00000240: b2b3 c53d 95d8 df3c b288 45bc c27b 19bd
00000250: 9819 e13c 0ca0 46bc 508d df3c 4208 d3bd
00000260: 540b ae3d 34ea 2d3d 6c49 513c 7ce2 0ebd
00000270: dfeb 013c 612a e4bd 5f43 ab3d 5a17 fd3d
00000280: 242b f839 e2d7 04bd 08e2 9cbd dc17 26bd
00000290: b4c1 1f3d b2d5 fdbd 599b 19bd 3781 b73d
000002a0: ea29 c53d ad39 1ebe 9886 19bc c3e5 c93d
000002b0: 8014 cd3d 3234 d53c e161 68bd e9d6 e9bd
000002c0: 328b adbd 83e6 a1bb eb02 343b e524 94bd
000002d0: 08d4 23bc 8a3e b03d d240 a23b a84e cabd
000002e0: ba32 c1bd b175 5bbd dfa5 71bd 6b66 613d
000002f0: 8f46 03bd 97de 78bd 2772 b83d 25ae c73c
00000300: a07c 303e 758a 19be 980e 02bd 25bc 183e
00000310: d317 973d eaf5 c63d 0f73 153e 8de2 e6bd
00000320: ae8a 7e3d 0415 9d3c 7209 0fbd 36e4 13bd
00000330: 8e67 1bbe d5eb 853d a682 293e 0a59 da3d
00000340: 7954 4a3e acf1 d9bd ea29 39bd 91eb fc3d
00000350: fb0b 90bd 6e50 2d3d eeb8 753a b156 603d
00000360: 311c a23c 9816 b93d 49d0 de3d bece 293e
00000370: 4235 f03d e803 f83d ecf1 833d 19e6 1d3e
00000380: 98c7 90bc e9b9 823d a1e7 723d 16ab abbd
00000390: 28f1 4b3d c961 123c 4226 4e3e 5369 163e
000003a0: 1044 b1bd 734e edbc 4b0a 603d 935a 093e
000003b0: a718 abbd c04a 453e a3ac 353e 1647 fb3d
000003c0: 1cac c93c c651 553e 1489 493d 0aeb 123e
000003d0: 3ffd a8bd c80e 79bd ed9f f83d aea8 363e
000003e0: 8806 d63d 0be2 873a 2438 f8b9 1d6d fd3c
000003f0: 674c 053b f9a8 f23d 9e29 1a3e ce7e 0bbc
