LogAnomaly/result/deeplog/deeplog_epoch248.pth (torch_old, 642036 bytes, 30 tensors)

lstm.weight_ih_l0 f4 [256, 1]
00000000: eb0d 49be 5116 8abc efd7 5dbd 33b3 aa3d
00000010: 7ec1 0abe f9f1 3d3d 0926 cebd a1c9 7a3d
00000020: 13c4 2b3e 8e03 9f3d 329a 293e 87c7 a6bd
00000030: 7dad c53d fc08 f13d 27db a2bd 68aa 823e
00000040: aa86 743d 46ff 563d 0d25 18be 8a79 133e
00000050: 397a 223e b094 9c3d 40b9 4a3d 6ead 5dbd
00000060: 3b6d 473e 48b4 71bd cdf5 78bc f85a 7b3d
00000070: 3cb6 913d f9f3 1bbe 025d cf3d 7ac0 2e3c
00000080: 8ac1 063e 0852 bf3d f8ff 923c 25e1 483d
00000090: 32f7 593e e5a9 ec3b 454c 033e 304c 0fbe
000000a0: 1b24 ee3b 5f7b 10be b3c8 033e 73ed ca3e
000000b0: 125d e5bd d1c1 cf3d 342e 113e 169a 4abe
000000c0: 15f4 433e 3589 193e 41c4 b43e e5cb ca3d
000000d0: 86a5 8e3d 6c00 a33e 9630 043e 8127 63bd
000000e0: bbd5 2ebe 11ca ab3c baae dd3d 5834 213d
000000f0: 2797 343d 0df5 fb3d b079 c93d 79a5 1bbe
00000100: b17a 81bd 0cb2 533d ae11 ec3d 170b f4bc
00000110: 7405 b9bd b9bb 533d 6951 e33d 9445 4c3d
00000120: 60ca 2abd ac65 933e f0bc 2a3e f4ae f7bd
00000130: ec5d d1bc a2f4 923d e022 2f3e 76d3 813e
00000140: 8fc2 d93c b344 003e c7a5 e7bd 4cc9 ee3c
00000150: 43d9 3b3b f521 623e 700d 043e 6cba 5bbd
00000160: 0aae 523c 7952 993d bae8 19bf 24c7 9e3d
00000170: 229d 83bd 76a4 89be d8fc 613e cce7 aa3c
00000180: 6b23 adbc 2784 153e 2eeb e43d 9e83 b13d
00000190: fe48 923d e185 3f3e 0959 b93d 6778 143d
000001a0: d4a7 0a3e 1226 723e 8103 303e b99d 853d
000001b0: 51d9 02be 964b 0bbd 37a0 5c3d 0343 e4bd
000001c0: 63d1 8e3d 26bf c93d 0d0b 9e3e 3058 783e
000001d0: 7723 5c3d 180f e53c 50b9 173e 01b0 f0bc
000001e0: 8f66 36be 4784 313e db32 eb3e 0951 04bd
000001f0: 5bf4 033d 5b22 453d b230 b1bd 1dfa 1abe
00000200: 13cf db3e 1d2e 09be d006 aa3d 7b40 fe3c
00000210: 4094 743e 10e0 32be 60fd 42bd 21df 0c3e
00000220: 1e38 263e d2a8 2fbd 6b73 79bd 9836 643e
00000230: 9b98 71be d01c 223e 6182 24be 9ed8 bfbd
00000240: f606 5d3e 8dd3 96be 14ff 81be 9d62 543e
00000250: fea4 363e 1b2a 14bd 0b53 11be 9a76 493e
00000260: 7961 cb3d fb8d a33e f3a9 e2be a851 9d3c
00000270: 679b db3c 1103 37be 58e4 6c3f 5edc fe39
00000280: 9626 f73e 97cd d73c d3b1 b33d 5717 e0bc
00000290: e3cf 9dbe bbfc 4ebe 1e0e 8fbe 4b8f 3bbe
000002a0: 33f9 3e3e c07c 4b3d 467b 09be df41 d5bf
000002b0: 306d ba3e 8387 9f3e c837 833d f03d fc3e
000002c0: 6769 f0bd 445f 18be b775 15be 46de 10bd
000002d0: 5997 c9be 425a eb3e 7e0f 143d 771d 2c3e
000002e0: 4fe7 b8be 3156 983d e4cf 6f3d fe19 9ebd
000002f0: bf21 083e 1b16 9cbd 2973 a23d d722 aebe
00000300: 75e4 343e 8716 8ebc 1676 223e 17f7 a73e
00000310: e36c 373e 5b36 923d 7f71 283e a441 633e
00000320: a9e4 503d 2344 963e bb13 823d 441e 6e3e
00000330: a83a 813e 3d4e 173e ec66 6b3e 2382 943e
00000340: bdcb bbbd 434c 0b3d b0de 9a3e c226 3c3e
00000350: 614a 913e f69e 6d3e 97ae 52be 3056 34be
00000360: 72a6 32be 4e09 5a3d 9763 2b3b a605 e03d
00000370: 7bc4 bcbc e12c b0be 2c63 033e 16e9 8e3e
00000380: 7b8e dabd 0927 ad3e 06a9 a73d 5e3e 9f3e
00000390: 10d9 babd aad2 64be cbca a63d c275 97be
000003a0: fdd7 53be b4d0 8d3e 6129 473e e3a6 96be
000003b0: 8de6 873e 2e2a 943c 50ab 5b3e 628c 28be
000003c0: f858 3fbe 0888 f6bd 3b75 f43d a2a3 5ebe
000003d0: fd2d 9d3d 8cc6 c2bd 4592 773d 1873 9c3d
000003e0: b52d 303e db50 60be 40b6 843e dd4e 0dbe
000003f0: 14f2 e63d 578f 183e 3a1b 5e3e 42a8 ef3d
-0.19634216 -0.016856344 -0.05416101 0.08334961 -0.13550374 0.04637334 -0.100658484 0.061227445
0.16774015 0.0776435 0.16562727 -0.081435256 0.09652231 0.11769292 -0.07951956 0.25520635
0.05969874 0.05248954 -0.14857884 0.14401832 0.15866937 0.076455474 0.049493074 -0.054120474
0.19475262 -0.05900982 -0.015195322 0.06136605 0.071148366 -0.15229787 0.10125162 0.010666007
0.13159767 0.09341818 0.017944321 0.04904284 0.21285704 0.0072224014 0.12822063 -0.13993907
0.0072674877 -0.14109562 0.1286953 0.39634284 -0.111993924 0.101443894 0.14177781 -0.19785342
0.19136079 0.14993747 0.3530598 0.09902171 0.06965165 0.3183626 0.12909159 -0.055457596
-0.17073719 0.020970376 0.10824342 0.03935656 0.044089463 0.12302599 0.09837663 -0.15199842
-0.0632223 0.05168347 0.1152681 -0.029790444 -0.09034243 0.0516927 0.11099512 0.049871042
-0.041696906 0.28788507 0.16673636 -0.120939165 -0.02555748 0.07175566 0.17103148 0.25356644
0.02658203 0.12526207 -0.113109164 0.02914872 0.0028663434 0.22083266 0.12895751 -0.053644583
0.012858877 0.074864335 -0.6012074 0.07752827 -0.06426455 -0.26883286 0.22069108 0.020862482
-0.021135053 0.14601193 0.111776695 0.08667682 0.071428284 0.18703414 0.09050185 0.036247637
0.13540584 0.23647335 0.17188837 0.06524224 -0.12778212 -0.03400763 0.05386373 -0.11145594
0.06973531 0.09850912 0.30867806 0.24252391 0.05374476 0.027961299 0.14816785 -0.0293808
-0.1781256 0.17335616 0.45937237 -0.032303844 0.032215457 0.048128467 -0.08651866 -0.15134473
0.42931423 -0.13396497 0.08302081 0.031036606 0.23884678 -0.17468286 -0.04760492 0.13756992
0.16232345 -0.04288561 -0.060901087 0.22286451 -0.2359337 0.15831304 -0.1606536 -0.09367488
0.21584687 -0.29458275 -0.25389922 0.20740743 0.17836377 -0.036172967 -0.14191835 0.19674149
0.09930701 0.3194426 -0.44270286 0.019203976 0.0268075 -0.17872263 0.92535925 0.00048610842
0.48271626 0.02634315 0.08774152 -0.02735488 -0.30822667 -0.20213597 -0.27940458 -0.1831638
0.1864975 0.049679518 -0.13425931 -1.6660727 0.36411428 0.31158075 0.06407124 0.49266005
-0.11738854 -0.14880091 -0.14595686 -0.035368226 -0.39373282 0.459673 0.036147587 0.16808115
-0.36113974 0.07438315 0.05854787 -0.07719801 0.13294123 -0.07621404 0.07932121 -0.34010956
0.17665274 -0.017344726 0.15865359 0.32805702 0.1791263 0.07139274 0.16449545 0.22193009
0.050999317 0.2934886 0.063514195 0.23253733 0.25240064 0.1477594 0.2298848 0.29005536
-0.09169719 0.034008276 0.30248022 0.1837416 0.2837706 0.2320517 -0.20574413 -0.17611003
-0.17446306 0.05323153 0.002615189 0.10938577 -0.023042908 -0.3440924 0.128308 0.27912205
-0.10671707 0.33818844 0.081865355 0.3110227 -0.09123433 -0.22345987 0.081441484 -0.2958203
-0.20687862 0.2769829 0.19449379 -0.294242 0.26543084 0.01808652 0.2145207 -0.16459802
-0.18686283 -0.12037665 0.119364224 -0.21742108 0.07674787 -0.09510526 0.060442228 0.0763914
0.17204936 -0.21905844 0.25920296 -0.13799615 0.112766415 0.1489843 0.21690074 0.117020145

lstm.weight_hh_l0 f4 [256, 64]
00000000: 81e2 6d3e ab25 1dbe 98ab e93c b870 963d
00000010: 61bb 793e 1273 e7bd 0bee 76bd 45c7 9b3d
00000020: 1be3 253e 13f8 f33d 9baf 42bc 04a3 1ebe
00000030: 9760 43be 0e7e bc3d dee8 02be 8e93 833e
00000040: 4aa0 463e 454a 24bd 61d4 223d cf34 173e
00000050: ef45 8bbd c643 c03d d332 a8bd 34a4 433e
00000060: 2481 853e a943 683e 447f bc3d 98b2 b53d
00000070: 126e a53d 2630 96be 6817 723d c0f8 003e
00000080: 72b6 583d c7c3 873d afda 983d 3e7b 27be
00000090: a1d8 53bd 75d4 47be 980d ddbd 3f60 9bbe
000000a0: 7e41 a43d c98b eebd ebaa b53d 3ce1 d4bd
000000b0: 512f 513d 7ddd 2b3e 3fe0 193d 5503 843e
000000c0: 5346 94be e979 b5bd 0014 303e 6d76 a8be
000000d0: 6d83 4e3d d2f3 3b3e 246f e13d ae7d 96bc
000000e0: edba c0bd 6b46 ba3e 44f8 fdbc 2538 dabd
000000f0: acc8 033e 25f2 24bd fca7 1dbe 231f 90bd
00000100: f3cb 04bd 6352 cebd ce71 973e 721e 683e
00000110: 46f0 213e 865b 36be cf40 b53d afcc b03d
00000120: f9fb 1d3e 2ebe bd3d 3d06 04be 21b7 b43d
00000130: 81f6 5cbe 0086 3d3e 8bc3 09be 1fe4 a7be
00000140: 5314 663e 0d52 17bd 9e39 15be fe61 5d3e
00000150: a8e4 033e 79b3 babd f472 33be 16ab 913d
00000160: caf1 c73e aab8 c43d eaaf c9bd 5c64 e23d
00000170: 9a38 653e 9b14 42bc 585d 2c3d a6c7 3a3e
00000180: 3f21 0c3d 0b1e 293e c0a6 933d 5e9f ebbd
00000190: 163f 1fbd ef84 57be 2343 1dbe 7fe6 433d
000001a0: 8d82 533e 0af4 86bd 0b59 e6bd 9a34 b83d
000001b0: 06bd e63c cddd 233e dffb 593e 08b2 cbbd
000001c0: 2ece 81be 0f52 08be ca33 38bd 8ead 7bbe
000001d0: e13c ca3b 239a 8fbc 8cc8 873e c9d8 193e
000001e0: 738a 41bd 939a bc3e 95b7 593d 82da 56be
000001f0: ae38 0e3e 0437 25be b5ba 943d 0b30 bcbd
00000200: 60a0 e63d 10be a23d 6455 ed3d df2b 613e
00000210: 1b5a 1b3e cfb6 7fbe 3b46 6cbe 34a8 573e
00000220: 4c77 523e 84e7 a0bc 17be 82bd 8212 cb3d
00000230: c9f1 afbd 265d 703d 84c9 14be 3a5f c13d
00000240: 4e7b 123e 6810 65be 2e3b babb 92aa 4e3e
00000250: a0b4 443d 52f6 943d 67ec 94bd fe9e a13d
00000260: 23ad 473e 51f7 9c3d 558c 0fbd 4c23 903e
00000270: 2e75 f5bb 27c1 c6be cfbd e83d 43a4 753d
00000280: 29a2 e6bd 61c0 eb3d 2521 3e3e c498 e8bd
00000290: 9122 943c db51 0ebe 26d5 2cbd bf0a a6be
000002a0: babe 153e ce09 0bbe cbd6 63bd 6e62 7fbd
000002b0: 576d 623d 0dbc a53d 512b 783e facc 7d3b
000002c0: b150 6bbd 584d 5f3c a823 06be 6a4b a23c
000002d0: 2aef 2a3d 5852 913d 3a77 623d 2769 683e
000002e0: 1ef9 3ebd cb87 5a3e ccd7 a8bc 53c6 fdbe
000002f0: 7982 95bc c24d 03be 00dc 8a3d cfbb 8fbe
00000300: 0011 3d3d 72d0 61be 942b 9dbc 0031 693d
00000310: 5e29 3c3d fcb4 a83d fe63 603c 3d57 d3bd
00000320: 38be 88bd 10bc d6bc 68f3 0d3d 9b1c d03d
00000330: 9e23 d7bc 36e7 fe3c 97c1 4e3d 2e72 b43d
00000340: 4472 083a 25d4 acbd f82f 0ebe fcaf 113d
00000350: ab24 5b3d 5224 3c3b 5202 61be f6f1 863e
00000360: a0cb 4fbd d23c 0e3e ab74 b73c b204 a33d
00000370: 9213 eb3d d3f8 74be 9f36 d6bc 5459 abbb
00000380: 6721 a93d 3f77 01bd f645 013e 594f 383d
00000390: c288 62bd c77c 49be 1f04 dfbd 0343 7cbe
000003a0: 4189 6dbd 7ef0 693d 9114 edbd 3371 c9bc
000003b0: 2a6b 6d3e 4cf6 42bd 2d7c 1fbe 2e1d 9f3e
000003c0: f5ad 783c 5dd0 c53b 32b2 7d3d 78df d1bd
000003d0: 274b c7bd 94eb 9c3d 44d9 243d 4513 013e
000003e0: d18e cbbd b8c4 003e 54b5 f53d 43f6 b3bd
000003f0: be57 e53d 7b73 07bd 1db6 e3bd a85c 63bc
0.23230936 -0.153464 0.028524205 0.07345718 0.24387886 -0.11301245 -0.06028561 0.07606367
0.16199915 0.11912551 -0.011882688 -0.15491873 -0.19079815 0.092037305 -0.12784144 0.25698513
0.19397083 -0.04010989 0.03975332 0.14766239 -0.06800448 0.09387927 -0.08212819 0.19105607
0.2607509 0.2268206 0.092039615 0.08871955 0.08077635 -0.2933361 0.059104353 0.1259489
0.05290837 0.066291384 0.074635856 -0.16355607 -0.051720265 -0.1951464 -0.107936084 -0.30346867
0.08020304 -0.11647756 0.08870491 -0.103945225 0.051070515 0.1678371 0.037567373 0.25783792
-0.28959903 -0.08861143 0.1719513 -0.32902852 0.050418306 0.18354729 0.110075265 -0.018370476
-0.09410653 0.3638185 -0.031002171 -0.1065524 0.12869519 -0.04026999 -0.15396112 -0.07037189
-0.032421064 -0.10074308 0.29579014 0.22667864 0.15814313 -0.17808351 0.08850252 0.0863279
0.15428151 0.092647895 -0.12893005 0.088239916 -0.21578409 0.18508148 -0.134535 -0.3279123
0.2246869 -0.036943484 -0.1457276 0.21619412 0.12880194 -0.09116263 -0.1752432 0.0711271
0.39051658 0.096055344 -0.09848006 0.11054298 0.22384873 -0.011845733 0.042081207 0.18240222
0.034211393 0.16515367 0.072095394 -0.11505006 -0.038878523 -0.21046804 -0.15357642 0.04782724
0.2065527 -0.065895155 -0.11247452 0.08994408 0.028166305 0.16002579 0.21287487 -0.09946066
-0.25352615 -0.13312553 -0.044971265 -0.24577925 0.006171808 -0.017529553 0.26520193 0.15024103
-0.047251176 0.3683668 0.053153593 -0.20981792 0.13888809 -0.16134268 0.07262174 -0.09188851
0.11261058 0.07946408 0.115885526 0.21989392 0.15171091 -0.2497208 -0.23073666 0.21060258
0.2055332 -0.019641645 -0.06383913 0.099156395 -0.08591039 0.058682583 -0.14529997 0.09441991
0.1430485 -0.2236954 -0.0056833243 0.20182255 0.04802382 0.07273544 -0.07271653 0.078916535
0.1949964 0.07664359 -0.03504594 0.2815193 -0.0074907755 -0.3881924 0.11364328 0.059971105
-0.11261398 0.11511303 0.18567331 -0.11357263 0.018082889 -0.13898413 -0.04219546 -0.32430074
0.14623538 -0.13577959 -0.055624764 -0.06234973 0.055280056 0.080925085 0.24235274 0.0038726912
-0.05745 0.01362928 -0.1309954 0.01981135 0.04173199 0.07095784 0.055289485 0.22696362
-0.046624295 0.21340863 -0.020610712 -0.49565372 -0.01825069 -0.12822631 0.06780243 -0.28072974
0.04615879 -0.22052172 -0.019185819 0.056931496 0.04593789 0.08237645 0.013695715 -0.10319374
-0.06676906 -0.026212722 0.03465596 0.10161706 -0.0262621 0.03111611 0.05047759 0.088108405
0.0005205015 -0.08438901 -0.13885486 0.035568222 0.053501766 0.0028708172 -0.21973541 0.26356477
-0.0507313 0.13890389 0.022394499 0.0795988 0.11478342 -0.23923044 -0.026149092 -0.0052291546
0.08258324 -0.031607863 0.12624344 0.044997547 -0.055306204 -0.19676505 -0.10889458 -0.24634938
-0.057992224 0.057114117 -0.11576188 -0.02459011 0.23185411 -0.04759817 -0.15574713 0.3107695
0.015178193 0.0060368017 0.06193752 -0.102477014 -0.09731131 0.076621205 0.040246263 0.12605007
-0.099393494 0.12575042 0.11997476 -0.08787205 0.11198376 -0.033069115 -0.1111872 -0.013877071

lstm.bias_ih_l0 f4 [256]
00000000: 22d0 d03d da62 af3d ca55 443d 7a39 b0bd
00000010: f822 443e 2af0 18bb ff06 3c3e 00ab e7bb
00000020: 4d30 753e c484 473e e572 f3bd d035 5e3e
00000030: b3cd 123d d09a da3d a5e4 db3d 5050 203e
00000040: 9829 2b3e 9ca6 1c3e 9610 2f3e 4f52 01bd
00000050: 04cd 81bd 34e8 4c3d 14b9 bc3d 2887 c53d
00000060: 4912 0b3e 6753 3b3e 6928 743d 7ad6 9a3d
00000070: ddca cabc 71d1 743e 49e9 853e a3f1 dfbd
00000080: 2472 8dbc 34c0 df3d 319f 143d bfca d9bd
00000090: 9ad6 253e 91e9 a8bd 4ba6 cc3c 2b0f 9dbd
000000a0: c53a 003e bd3d f4bc 5bf0 1cbd f77c 2a3f
000000b0: 9329 383d 75fa 863e 948f f93c a813 ca3d
000000c0: 08ce 38bd 8f62 8e3d 62f6 c6bc 2fa0 d6bd
000000d0: 2cbd debd ed94 963e de7a b33d 35a1 c53c
000000e0: b9af 3a3e e236 3cbd dbff 573d d9ad 953d
000000f0: fc43 06bd 98e3 ec3d 8576 74be 124e fd3c
00000100: 9fd8 44bd fc9d 193e 08dc 9fbd 576b db3d
00000110: 8247 9e3d e343 b63d ece8 c03d 0f9c ce3d
00000120: acb2 9e3d 14de c63d 7a1d 14be 70b0 103e
00000130: 8b4f 353d be00 833d 4c31 8d3b d3be b0bd
00000140: f3f2 603d d7ec 97bc 5995 ccbd c883 e1bd
00000150: 9dcc 2a3d 1d19 b33d 2d79 d8bd b8a4 a2bb
00000160: 6479 533e d327 fe3d 528d ac3d c93f 653c
00000170: e3d3 4e3e 21e8 a93d da8f 2ebe 53d6 a73d
00000180: 5656 79bd 2943 403d 5a70 20bd 132c aa3c
00000190: b61d 1c3d d92b 05be 9b48 06bd 9e11 b53b
000001a0: ad1e bebd f817 503b 8a53 043e 20f7 85be
000001b0: 65eb e1bd 6e1e 3e3e bd80 d03d 5d15 d83d
000001c0: 26fc 8e3d cb05 963c 1062 dcbb 7c05 a2bd
000001d0: 78b7 c2bd 23fc d43d 73d0 aa3d b848 613c
000001e0: 7693 cd3d 368b 0c3e bbee 4fbe 6d3f 013e
000001f0: 64e7 cb3c c322 3c3d af19 9b3d 6f13 1f3e
00000200: 1a65 0f3d 8308 473e 7154 9ebd 631c 4fbe
00000210: 3501 063e 07ae e73d 67a0 44be a09c 6c3e
00000220: 30d3 6b3e 40c8 053e faf8 a5bd f35b 13bd
00000230: 9d25 453e 09bf 1b3b 3b86 41bd 4e9d c73d
00000240: 74d2 6d3e 0bb5 1dbe 2bfb 743d 9bcf 113d
00000250: 7f43 f53c 9955 283e 6576 98bd 5653 acbd
00000260: 2fdc 80bd 88a6 043e 977c 843d d0b6 c53d
00000270: 5f05 d2bc a79b 9cbe b068 0e3e 1c73 7b3c
00000280: 86ea 71be 87da 20be 327c 173e 7743 963c
00000290: b252 103d abe4 37bc 3357 cabd 37f0 903d
000002a0: 04b7 ea3b 4f9b bdbd 2fa2 b0bd 65c2 be3d
000002b0: fe9c 513b 23a9 fb3d d3ec 833d df18 4cbe
000002c0: 4bc4 b0bc 155b dabc c188 a93c 4013 383d
000002d0: 356d 243e bf68 8e3e 2794 57bd 92b7 09be
000002e0: 5508 ebbd f665 c93c fb7d 373e 1f7b 803d
000002f0: 1195 2bbe bee6 69bd ce50 6ebd cae9 10be
00000300: e507 9d3e bb5c 0dbd 4f79 06bd 668d 42be
00000310: c21d 6d3e 3f98 a13d e0f3 f33d 2a21 e5bd
00000320: 11dd 3d3d 4386 2ebb ee1f 1b3e f01f 85bb
00000330: bb27 3c3e ab28 5ebd 28d6 cf3d 8ee0 c53d
00000340: f558 bd3d be71 a73c 793c 523e 6447 51bd
00000350: bf68 193d 2b18 2f3d 8fb5 773d d37f 813d
00000360: 83d7 1d3d 8ab0 df3c 2734 473e 0474 be3c
00000370: 3270 053e 9a40 aa3e bd35 993e 5b9d 0ebe
00000380: af0c 203e 0c78 0ebe 0c40 f63d dd65 e4bd
00000390: 8c64 d93d 6be0 113e 59c6 fe3d 9443 8d3e
000003a0: 90b7 2a3e f97b ac3b afd0 b23d fa0a eb3e
000003b0: ab89 203e 2518 e23d 5fec 37bd f67d 133e
000003c0: 9279 0a3e d2c4 f73d 97b4 313e 4b40 f83c
000003d0: 21ee 643e ae99 613e 9e3e 603e 5f1a 8a3e
000003e0: be65 253e 40b7 9f3d dcd3 013d 7045 3a3e
000003f0: 165e 8bbd e734 433d acb0 4dbe ea0e 913e
0.10195948 0.08563776 0.047933377 -0.08604713 0.19153965 -0.0023336508 0.18362044 -0.0070699453
0.23944207 0.1948424 -0.11887149 0.21700215 0.0358407 0.106740594 0.1073697 0.15655637
0.16715086 0.15297931 0.17096171 -0.031572636 -0.06337932 0.050026134 0.09214988 0.0964492
0.13581194 0.18293534 0.05960885 0.075604394 -0.024754936 0.2390802 0.26154545 -0.109347604
-0.01726634 0.10925332 0.03628463 -0.10634374 0.16195145 -0.08247674 0.024981638 -0.07668909
0.12522419 -0.029814595 -0.03831516 0.6659693 0.044961523 0.2636296 0.030463971 0.098670304
-0.04511836 0.06952392 -0.024287406 -0.10479771 -0.108759254 0.29410496 0.087636694 0.024124721
0.18231095 -0.045950778 0.052734237 0.073085494 -0.03277968 0.115668476 -0.23873337 0.030921016
-0.04805815 0.15001673 -0.078056395 0.10713833 0.07728483 0.08899667 0.09419426 0.100883596
0.07748923 0.09710327 -0.1446437 0.14129806 0.04426531 0.06396626 0.004308855 -0.08630147
0.054919194 -0.018545551 -0.09989423 -0.110114634 0.04169904 0.08745024 -0.105699874 -0.0049634837
0.20651776 0.124099396 0.08425392 0.013992258 0.20198016 0.08296228 -0.17047063 0.08195176
-0.060873352 0.04693905 -0.039169647 0.02077297 0.038114272 -0.13005008 -0.032784086 0.005525782
-0.09283195 0.0031752568 0.12922493 -0.26165104 -0.11031226 0.18566296 0.10180805 0.1055095
0.06981687 0.01831331 -0.006725557 -0.07911202 -0.0950765 0.10399654 0.0834054 0.013750248
0.100378916 0.1372498 -0.20305912 0.12621851 0.02489061 0.04593159 0.07573258 0.15534757
0.035008527 0.1943684 -0.0773095 -0.20225672 0.13086398 0.1131249 -0.19201814 0.23106623
0.2302978 0.1306467 -0.08104129 -0.03597636 0.1925263 0.002376499 -0.047247153 0.097468
0.23224813 -0.15401094 0.059809845 0.03559838 0.029939411 0.16438903 -0.07444457 -0.084143326
-0.06291997 0.12954152 0.06469076 0.09654009 -0.025637327 -0.30587503 0.13907123 0.015347268
-0.2362462 -0.15708362 0.1479347 0.018342717 0.035235114 -0.011223952 -0.09879913 0.07077067
0.0071629304 -0.092581384 -0.08624684 0.093144216 0.0031984444 0.1228812 0.06441655 -0.19931363
-0.021577975 -0.02665476 0.020695092 0.044940233 0.16057284 0.2781429 -0.052631523 -0.13448933
-0.114761986 0.024584752 0.17919151 0.062734835 -0.16756083 -0.05710482 -0.05818253 -0.14151683
0.30670086 -0.034512263 -0.032830533 -0.18999252 0.23155883 0.07890367 0.1191175 -0.11187966
0.046353403 -0.002663032 0.15148899 -0.004062645 0.18374531 -0.054238003 0.10148269 0.09661971
0.09245483 0.020439979 0.20530881 -0.051093474 0.03745341 0.042747658 0.060475882 0.06323209
0.038535606 0.02730586 0.19453488 0.02324868 0.1303108 0.33252412 0.29923812 -0.13927214
0.15629838 -0.13912982 0.12023935 -0.111522414 0.10614881 0.14245765 0.124401756 0.2759062
0.16671586 0.005263802 0.087312095 0.45906812 0.15677516 0.110397615 -0.044903155 0.14403519
0.13522938 0.12098087 0.17354046 0.030304095 0.22356464 0.2203128 0.21898887 0.26973245
0.16152093 0.07798624 0.031696185 0.18190551 -0.06805055 0.047657873 -0.20086926 0.2833169

lstm.bias_hh_l0 f4 [256]
00000000: 5009 3a3e 7887 963d 2066 7c3d 858b 8e3d
00000010: 049a 0e3e 39fc 643d 6961 193c ce77 973d
00000020: 38a8 a13d 52c2 653e b8b2 e03c d506 323e
00000030: 060f 2f3e c7dc 9abc 9e07 df3d 4c18 2a3e
00000040: a392 c23d ca59 de3c fdbd b53d 0ce5 833d
00000050: 6517 53bc 917e 9a3d de87 e73c 006a 6bb8
00000060: 51db fd3d ae69 da3d d178 8fbc a3ca cb3d
00000070: 1dc7 09bd ff8b 8f3e dd97 593e 60aa ba3d
00000080: f656 f63d 85ef 423d 2593 4c3d eac6 13bc
00000090: 29cc 6f3e 9c64 8dbd ad4c 583d 4f29 02be
000000a0: 4233 0b3d be59 4bbb 0dfc 913d ac52 163f
000000b0: f944 e13d 6513 773e 0c4b 843d e530 b93d
000000c0: 59f3 c6bd 8072 6abd 6afe 86bd ecf1 04bd
000000d0: 863f c3bb e7b4 f53e 5e59 4abd a921 653d
000000e0: 307b 273e af4b 063d f7b6 733e f2be bb3d
000000f0: 6cf7 ed3d 0dfe cf3d 53f1 05be 0801 263d
00000100: 2605 71bd dc5a f13c a7dd f4bc b83b 0d3e
00000110: abd8 fabc aeb8 f23d bbee 363d c665 033e
00000120: 346d 553e c70c 2c3c 42da e7bd 3b86 963d
00000130: c8bd 57bb 0392 3f3e 8d9b babd dfbd 09be
00000140: a06a 9f3d 8644 9f3b 677a c9bd 0eb8 09bb
00000150: 67cb c0bb 094a ca3d ab03 38bc 409d c83d
00000160: 9464 f43c 63a8 9c3d 6780 c53d 7d88 afbd
00000170: 435c 3e3e 0b56 6b3d 0fa9 c1bc 72b5 2b3e
00000180: 7639 e0bd e4e2 04be bfdb 503d a030 04bc
00000190: 2db8 fabd 1770 fe3b 40b6 f7bd 15c3 92bd
000001a0: 2df4 59bd dbf2 3fbc ff73 c23d 2ec8 77be
000001b0: 46cb 7dbc 9a63 543d 4f33 863c 1213 28bd
000001c0: a7f1 103d 824a 13ba 088e 4d3d 328a 93bb
000001d0: 0add 01ba baf6 6e3d 5169 22bd c390 6cbc
000001e0: 4cad b23d 411d 92bd 28a0 b33c 72c2 49bc
000001f0: 9a46 b73d 0f0b da3d 7242 86bd 7d1b d43d
00000200: b0f4 bdbd 2e6c f03d 2b1e 19be d5c9 41be
00000210: dcc5 2a3e cc0a 84bd 6d9a 0bbe 7559 543e
00000220: fd43 b33d 897b 2d3d db55 51bd eb81 fbbd
00000230: f7f1 213c f27c 56bd f6ed de3d 6532 373e
00000240: baf2 783e 8822 0abe e645 8fbc 4147 ddbd
00000250: ef4a 05be 6052 483e 03aa bc3d bedc 54bd
00000260: 95e0 a03b 8ea4 723e 5e14 853d 52fa 0e3e
00000270: 48bd 53bc f5a7 1dbe 3374 dabc 085a a73c
00000280: 3aa5 fabd 1fbc 4fbe 4abc 153e 687f 6ebd
00000290: f2b7 243e aeff e43d 3b06 aebd bdf5 b2bd
000002a0: 003a 90bc e9a0 12be d266 ccbd a486 b83d
000002b0: 632a 08bd eaac 213e 48f3 513d d653 d63c
000002c0: 5b2e c13d b211 8abd b683 963d d97a 04bd
000002d0: 2305 373e c73f 863e b47e 5ebe 2f41 fabd
000002e0: ebe4 153d 082d a23c 255f 0b3d dc97 c33d
000002f0: 14d1 ccbd 77b5 febc 5ff3 8cbd bc50 14bc
00000300: b2a8 9e3e 90b2 e33d 1356 c3bd 28c6 21bd
00000310: a38c 593e 42c2 7c3d bbcc a33e c323 5cbd
00000320: 47f6 b53d 45eb b8bc 174c 803d 5bd9 94bd
00000330: af06 0c3e 4f28 e23d 5605 a33d 7739 043d
00000340: 493a 993d 110f 273e a997 833e 7b4e c23d
00000350: 991e b53b 7134 43bc 19e7 443e 1122 133e
00000360: 7e81 613d 8ca4 2cbd 84c4 3e3e e22e b43d
00000370: 1564 4abd 7ee6 513e 0229 6f3e a227 19bd
00000380: 9733 e03d f0d7 92bb e41a 083d cf6c 24bc
00000390: 94c3 b33d 3355 df3c b1d3 0d3e 7aa3 8d3e
000003a0: b3a2 8c3d e1cb e7bc 92c9 79bd c487 c13e
000003b0: a236 0e3e b47c f23c 4bce 14be 2543 883e
000003c0: 2489 9c3d 35f1 f63a 90fa d53d e02e 123e
000003d0: a212 623d 62cb 333e 1f0b 4d3d 099c 603e
000003e0: 6b90 343e fda5 90bc f764 64bc 82d9 013e
000003f0: 50b8 c4bc a3d6 063e 6af5 48ba a15e 613e
0.18167615 0.07350057 0.06162083 0.06960205 0.1392594 0.0559046 0.009361603 0.07395898
0.07893413 0.22437409 0.02742897 0.17385419 0.17095575 -0.018904103 0.10890125 0.16610831
0.09500625 0.027142424 0.08874128 0.064401716 -0.012883996 0.07543672 0.028263029 -5.6127086e-05
0.12395347 0.10664688 -0.017513664 0.09950759 -0.033637155 0.28036496 0.21249337 0.09114528
0.12028305 0.047591705 0.049945015 -0.009019593 0.23417725 -0.06903955 0.0528075 -0.1271107
0.03398443 -0.0031028832 0.07128153 0.587199 0.109994836 0.24128492 0.064596266 0.09042529
-0.09714384 -0.057238102 -0.065914944 -0.032457277 -0.0059585003 0.4798958 -0.049401633 0.055940304
0.16355586 0.03278702 0.23800264 0.09167279 0.116194576 0.10155878 -0.13080339 0.040528327
-0.0588428 0.02946227 -0.029890848 0.13792312 -0.030620893 0.11851631 0.044661265 0.12831792
0.20842439 0.010501093 -0.11320926 0.07349821 -0.0032919515 0.18708043 -0.091117 -0.13451336
0.07784009 0.0048604636 -0.098377995 -0.0021014246 -0.0058836224 0.09877402 -0.011231343 0.09795618
0.029833116 0.07649305 0.096436314 -0.08570955 0.18589883 0.057455104 -0.023640184 0.16768435
-0.1094846 -0.12977177 0.050990816 -0.008068234 -0.1224216 0.007764827 -0.12095308 -0.07166115
-0.05321138 -0.011715616 0.09494781 -0.24197456 -0.015490359 0.0518528 0.016381888 -0.041033812
0.035386708 -0.00056187075 0.05018428 -0.004502558 -0.0004953897 0.058340766 -0.03965122 -0.014438811
0.0872446 -0.07134486 0.021926954 -0.012314426 0.08949013 0.106466405 -0.06555642 0.103568055
-0.09275186 0.11739384 -0.14952914 -0.18924649 0.1667704 -0.06447372 -0.13633128 0.2073725
0.08753202 0.04235414 -0.05110727 -0.12280639 0.009884349 -0.05236525 0.10885231 0.17890318
0.24311343 -0.13489735 -0.017489385 -0.10804606 -0.13016866 0.19562674 0.09212115 -0.05196833
0.0049095848 0.23695585 0.06498025 0.13962677 -0.012923546 -0.15396102 -0.026666736 0.020428672
-0.12238546 -0.20286606 0.14622608 -0.058226973 0.16085795 0.111815795 -0.08497282 -0.08738277
-0.017605782 -0.14319195 -0.09980549 0.09010056 -0.033243548 0.15788618 0.0512574 0.026163023
0.0943267 -0.06741656 0.073493406 -0.03234372 0.17873053 0.26220533 -0.21728021 -0.12219464
0.036595266 0.019796863 0.034026284 0.09550449 -0.10000816 -0.031092389 -0.06882357 -0.009052452
0.3098808 0.111180425 -0.09537902 -0.039495617 0.21245055 0.061708696 0.31992134 -0.053745043
0.08884864 -0.022573123 0.06264513 -0.0726802 0.13674425 0.110428445 0.07960002 0.032281365
0.0748182 0.16314341 0.25701645 0.09487625 0.005527329 -0.0119143585 0.19228782 0.14368464
0.055055134 -0.04214911 0.18629652 0.08798005 -0.049411852 0.20498082 0.23355487 -0.037391312
0.1094734 -0.004481308 0.03322877 -0.010035708 0.08777538 0.027262306 0.13850285 0.27663785
0.0686697 -0.02829546 -0.060983248 0.37798893 0.13888028 0.029600479 -0.1453182 0.26613727
0.07643345 0.0018840196 0.10448182 0.14275694 0.05519355 0.17558053 0.050059434 0.21934523
0.17633216 -0.017657274 -0.0139400875 0.12680629 -0.024013668 0.13167815 -0.0007665964 0.22008754

lstm.weight_ih_l1 f4 [256, 64]
00000000: e653 feba de2d cdbd dc5f 7dbd b2f1 bfbd
00000010: 8018 983d f861 40bd 578f 6dbd 0cf6 29bc
00000020: 8f9b 023c e3d6 433e 7ca4 54bd a2e2 9fbd
00000030: f5d8 17be 9502 3bbd cca0 cb3c 0459 aa3c
00000040: 24ce 6cbc 9b14 513c a32a 6ebd c090 123e
00000050: d1f3 cf3c ef4a e03d c841 663d 2ced 143e
00000060: 84bb ca3c 8c5c 133d 51f0 0dbe 846d 74bc
00000070: 9e97 01be 5806 b8bd 06da d43d ec77 e2bd
00000080: 8ca1 b9bd 7a33 613d f807 7dbd 8572 bf3c
00000090: f53c 973d e802 0abe 5c79 c5bd cbb2 0abd
000000a0: eb1c 283c 7ded 18be 0e40 bc3d 0ad4 76be
000000b0: e67d d33c f41a 913d 6bef a83d 5e71 bb3d
000000c0: 15b9 4c3d 1971 15be ca6f 65bc ffe4 a73d
000000d0: c52e 03bc 5c47 d03d 3823 5abd 520e 073d
000000e0: dc74 503d ee92 3ebc 022c fbbd fbf1 9b3c
000000f0: c4d2 a6bd 4536 abbd f0f8 89be c591 0dbe
00000100: e98b 00be ac39 b4bb 1daa 4b3d 35a8 56bd
00000110: 94d0 8ebc b409 60bd 38ae a13c ccbf 84bd
00000120: c6de 6e3c fd0b 033e 22e9 1d3e 07dc 183d
00000130: 4457 d73d 948e afbd c0f3 1abd c297 8e3e
00000140: 0ae7 8cbd a1f6 c43d 96e8 693d 76cc 56bc
00000150: 1576 86bd 7507 ca3d b21b 5d3d 716f 123e
00000160: 96ea 1f3e 0e47 d73d c8f8 75be 2bb5 b9bd
00000170: d898 063e 455f 25bd 12c7 2b3d c6ac 9c3a
00000180: 5f10 4ebe 4b66 113e 57e4 11bd fb46 a23d
00000190: 4bc3 833c d92b cc3d 1fcd 9e3d cc3a 663e
000001a0: 8da5 cabd e8a1 97bd e483 4d3d ab81 04be
000001b0: e0e5 52bc da9e c53d ae20 c73c 3a94 50bc
000001c0: e723 1bbc 1032 c3bd c247 503e a3f9 acbd
000001d0: 9360 c83d b72b 53bc 4d55 32bd c89a c53d
000001e0: 2a7f 24be fc00 143d d556 90bd 81aa 3bbe
000001f0: 9364 a2bc 3cdd 8e3d 68cb 39ba 052c 18be
00000200: fdcc 373d d666 7abe 3ca0 853c a54b 16be
00000210: d06a 0d3e e731 f93d 1948 4dbc 985e 483d
00000220: 57a8 1d3d 1f91 103f fa52 8f3c e36f 813d
00000230: 9859 40be 5140 cdbc 1ae9 1bbe 3998 573f
00000240: fa31 0d3e 1ae6 113c a459 b8bc e0a7 c43d
00000250: 03dc 64bb a64a 9e3c a94c 80bc 79dc ee3d
00000260: bffd 003e 464c 2f3e bc89 6ebe ea79 debd
00000270: 1176 db3c aaca e43d 7c85 243d aa12 dfbc
00000280: f034 3fbe c7ec 5dbd 4a65 c8bd 6c3b 19bd
00000290: 4401 a9bd 1bde 95be f7cd 80bd 0f6d 6cbe
000002a0: c01b 643d 1f6c 9d3c 8640 0abc 5787 133e
000002b0: 359d a23e 0646 8aba bdcd 0fbd cbd1 06be
000002c0: 1952 423d 165c 25be e66f c53c 5895 1abe
000002d0: 07a1 e5bd 5aa9 dd3d 6c2b abbc 874f f13d
000002e0: b869 c2bd 3427 5cb9 90d0 01bd e432 8cbe
000002f0: de5e 073e ebf7 d33d d2ca 86be facf 1cbe
00000300: 9909 2f3e af72 a13d 79c6 0abe 73a2 28bc
00000310: 7ff7 693e 790e 2a3d 9f9d 993d 0f58 ce3d
00000320: cdd5 8dbd 124c 0f3e 788a 84be b794 66bd
00000330: 8206 0d3e ffe5 1e3c 2b71 a83c 9f36 e73d
00000340: 4f6a 643c 8f60 9b3b dadf 9fbd 0e8b f43c
00000350: 0464 14be e78f 7a3d 35f1 f0bd 65cc e63c
00000360: 3932 223e 1cae b139 1da3 1e3e bf9d 0abe
00000370: db4a e43c 3c5e 9dbe b9e8 8c3d 67f1 be3d
00000380: 8446 bcbc 1f48 13be d879 e7bd 5e8e 91bd
00000390: 897c 59bd ab75 78bc 304f d63c fb23 aabd
000003a0: 2b10 fc3b 895c eb3d 326f 28be 6062 d8be
000003b0: 0baa c2bd e7b0 6b3d a9e4 fb3d de59 543d
000003c0: 1c34 00be e29d 24be 6557 173d dd33 05be
000003d0: 6d13 e4bd d9e8 4d3c 3951 b8bd 484f 41be
000003e0: 3dfc 48bd 8ec3 11bd 6c04 a63b 4ac2 f53c
000003f0: 027a 00bd 402c 803d e450 f0bd 2424 0ebe
-0.0019403666 -0.10018514 -0.061858997 -0.093722716 0.07426548 -0.04696843 -0.057998028 -0.010373604
0.007971658 0.19124942 -0.051914677 -0.07806899 -0.14828856 -0.04565676 0.024856947 0.0207944
-0.014453445 0.01276126 -0.05814613 0.1431303 0.025384815 0.109517924 0.056215078 0.14543599
0.024747618 0.03597693 -0.13861205 -0.014918689 -0.12655494 -0.08985585 0.10393147 -0.110580295
-0.09064016 0.054980733 -0.061775178 0.023370037 0.073846735 -0.13477671 -0.09642288 -0.033861917
0.010260801 -0.14934345 0.09191905 -0.24104324 0.025816869 0.07085219 0.0824879 0.091524825
0.049981195 -0.14593925 -0.014003703 0.081979744 -0.008006756 0.10169861 -0.053256243 0.03297264
0.050892696 -0.01163171 -0.12264253 0.019036284 -0.08145669 -0.083599605 -0.26947737 -0.13825138
-0.12553371 -0.005500039 0.04972278 -0.05240651 -0.017433442 -0.054696754 0.019736394 -0.06481895
0.0145794805 0.12797542 0.15420964 0.03731921 0.105146915 -0.085721165 -0.037830114 0.27850157
-0.06880005 0.09617353 0.057106577 -0.013110271 -0.06565491 0.098647036 0.05398149 0.14300324
0.15616831 0.105115995 -0.24020684 -0.09067758 0.13144243 -0.04037406 0.041937895 0.0011953346
-0.20123433 0.14199178 -0.035618152 0.07923695 0.016084334 0.09969301 0.077539675 0.22483367
-0.098948576 -0.07403928 0.05017461 -0.1294009 -0.012872189 0.09649439 0.024307575 -0.0127306525
-0.009469009 -0.09531033 0.20339873 -0.08446052 0.09784045 -0.01288884 -0.04353838 0.09648663
-0.16064134 0.03613375 -0.07047812 -0.18326761 -0.019823348 0.06975791 -0.00070875 -0.14860542
0.044873226 -0.24453291 0.016311757 -0.14677294 0.13810277 0.12167721 -0.012529396 0.048918337
0.03849062 0.5647144 0.017495621 0.06320169 -0.18784177 -0.025055083 -0.1522564 0.8421665
0.13788596 0.008904958 -0.022503681 0.09602332 -0.0034921176 0.019322705 -0.015661554 0.116631456
0.12596796 0.1711894 -0.23294729 -0.10863097 0.026789697 0.111714676 0.040166363 -0.02723058
-0.18672538 -0.054180887 -0.09784944 -0.037410185 -0.082521945 -0.29271016 -0.06289285 -0.23088478
0.055690527 0.019216595 -0.008438235 0.14407097 0.31760564 -0.0010549433 -0.035108317 -0.13165967
0.047441576 -0.16148409 0.024101209 -0.15096033 -0.11212354 0.10823317 -0.020894729 0.11782747
-0.094928205 -0.00020995439 -0.03169304 -0.27382576 0.13219783 0.10350021 -0.26326615 -0.15313712
0.17093505 0.07883202 -0.13552274 -0.010292637 0.22848319 0.04151771 0.07500767 0.100753896
-0.06925545 0.13993862 -0.25886893 -0.05629417 0.13772014 0.00969839 0.020561775 0.11289715
0.013941362 0.0047417353 -0.07806368 0.029851463 -0.14491278 0.061172392 -0.117647566 0.028173635
0.15839471 0.00033889792 0.1549191 -0.13536738 0.027867725 -0.30735958 0.06880326 0.093233876
-0.022982843 -0.14382981 -0.11302537 -0.071072325 -0.05309728 -0.015164773 0.026160806 -0.08307644
0.007692357 0.11492259 -0.16448668 -0.42262554 -0.09505089 0.057541754 0.12299473 0.051843517
-0.12519878 -0.16075853 0.03694858 -0.13008066 -0.11136518 0.012567722 -0.08999867 -0.188779
-0.04906868 -0.035586886 0.005066445 0.02999987 -0.031366356 0.0625844 -0.11734179 -0.13880974

lstm.weight_hh_l1 f4 [256, 64]
00000000: 0931 873d 616c 42bd 5ec7 0c3e f81d ef3d
00000010: 2553 bc3c 6142 0a3d 0fc9 39bd 0319 32be
00000020: 2b39 70bd 5748 c43c 0e22 a7bd c443 08be
00000030: 8463 80bd b5a2 643d 3936 1a3d 0ca5 b1be
00000040: 66d7 fa3d 797e 61bd 91f9 28bb 5a59 36be
00000050: 6daf 30bc 4c61 2c3e 8236 d7bc 1f22 ae3c
00000060: ec5a fabd 3df0 203d cb2e 04bd 0d3e cb3c
00000070: 5c82 a2bd c961 b8bd 0054 c53d 07a4 bbbd
00000080: 7667 4fbb 6d37 b4bd 8c82 18be cfdf 76be
00000090: 4a42 18bc da6a 20bd 774c a63d 84ec 1e3e
000000a0: 8ba9 edbb 7dbd af3d a039 3ebc c117 d13d
000000b0: cb6b 993d 8348 19be b7dd 3d3d 5169 0b3e
000000c0: 00dc 323a 53cc 57bd d13d d23d a9ba c23c
000000d0: 0a80 8dbd ef32 c13c 06e0 d63d 5412 1f3d
000000e0: 1703 6ebb 1fe3 ddba ef23 da3b 0da8 383b
000000f0: 334c 8c3d 8c15 ddbc 0c7a 27be ae5e 173d
00000100: 45f4 48be b180 aa3d 380a 0b3e d4cd 2fbd
00000110: cb0a 85be da5e 823d 971c 29bc 1161 ddbd
00000120: 1ca8 8abd 59e1 f3bc 2361 353c 7d62 09bd
00000130: e0ec 41bd 7738 04be 588c 943e 9cf9 cf3d
00000140: d189 c43d b422 28be 7e57 333d c01e 03be
00000150: ae78 81bd e1ac f6bc 2350 94bd 86ab 95bd
00000160: 5ba8 4dbe 4063 1cbe 4cd1 5abe e9b2 21be
00000170: e4fa 0dbb f334 86bc f350 2cbd bc04 573d
00000180: 3e17 5a3d a71e 53bb 4198 20b9 22f0 85bd
00000190: e396 ca3c dff3 30be 2767 33bd 8a85 abbc
000001a0: 4f7b 24bd 6279 81bd 7d77 93bc 61de ad3d
000001b0: d412 a43c 8676 25be 4a84 ca3d 913a 383e
000001c0: 446b efbd e0b9 1a3e 115a 303e 3531 843d
000001d0: b9e9 a2bd 5bb5 003e ec0c af3d 1401 c7bd
000001e0: c108 2cbc 7eb5 55bd 2387 aa3d 74e8 d4bd
000001f0: d401 303d 05f5 173e 869c 513d e2b4 ccbd
00000200: 5914 32be 356d 483c c932 313e b82c b13e
00000210: a4e3 66be ee2b 8d3e 3252 cabd ea12 21be
00000220: 51d9 a0be 7ae2 db3d e433 a73c 7551 43be
00000230: 97d0 083e 646e e23c 06c1 773d 307b 363e
00000240: 834a a13e 8b73 ffbd 7cc9 473c d613 03bf
00000250: 3cb1 34be 1d98 933e dedd b7bc 50af 0a3e
00000260: 5721 87be 58ad 0abe aaba 283d 8d70 9bbd
00000270: 76a1 15be 9d15 e23b d06a 723e b569 54be
00000280: 83bc f4bd a790 c63d 177e 2abe 6a7b 79bd
00000290: 0281 f2bd 2a64 b1be 7bcb b6bd 3d3d 47be
000002a0: 6d52 693d 308f 0c3c ddac d03d 45ec a43d
000002b0: aa3a 933e 25ab babc 4031 033e 218c 913e
000002c0: e2a6 a7be 8cd5 503e bdcf 513d d51f 9c3e
000002d0: 28c1 a1be 5a2d 7e3c 8bf3 903e d2bb 25be
000002e0: 8aa4 76bd 1ede e23d 3215 c7bd a87d 51be
000002f0: 8140 303e eaa3 733b c1eb 7f3c a29e 24be
00000300: fc98 043e 7c57 343e db35 2e3c 34d9 18be
00000310: 95d9 4cbd fbb6 bc3d 300b 10be d145 e0bc
00000320: 3da3 003d 35d8 d9bc cf8d 97bc 496a c6bd
00000330: ec44 143e 96ee 353b 8fa3 5abd 65d6 8dbe
00000340: 8411 febd 2365 16be 92d9 68bd 3299 2dbe
00000350: 36cb 443e e97b 10be 6858 aa3c edb1 00bc
00000360: 702d 843d 31bd 02be 968c f2bd d374 233d
00000370: 7a58 ddbc 993b 9fbd eb1c 273d 3af1 753d
00000380: c98c 38bd abce ccbd 63ed af3d a4c8 433d
00000390: 3e4f 62bd 338e 1abc 3655 41bd d8f6 4d3e
000003a0: ddb9 6d3d a1b0 25be 650b b43d 2839 823d
000003b0: 45e7 8a3d 1450 ae3c 023c b33d bc48 d63d
000003c0: 181c 0ebe c33c f7bd fe3b febd 502a 093d
000003d0: 44d1 593e 79b9 dd3d e27f 99bb bbaf 163d
000003e0: 50b0 03be 7c54 dcbd e620 463d 0f59 f3bc
000003f0: 6cd6 07bd 1f2b 50be 821a 00be 9470 dd3c
0.066011496 -0.04746664 0.13747928 0.11675638 0.022988865 0.03375471 -0.04535776 -0.17392354
-0.05864827 0.023960276 -0.08160792 -0.133071 -0.06268981 0.055819232 0.037649367 -0.34696233
0.12248115 -0.055052254 -0.0025783519 -0.17807522 -0.010784012 0.16833991 -0.026271109 0.021256505
-0.12224373 0.03929161 -0.032271188 0.024809862 -0.0793502 -0.09003026 0.09635162 -0.09162145
-0.003164736 -0.08799634 -0.1489355 -0.24108814 -0.009293148 -0.0391644 0.08120053 0.15519911
-0.007252877 0.08581064 -0.011610419 0.10209609 0.07491263 -0.14969067 0.046354022 0.13614394
0.00068229437 -0.052685093 0.10265697 0.023770647 -0.06909187 0.023583857 0.10491948 0.03883584
-0.003631776 -0.0016928649 0.0066571156 0.0028176338 0.06850471 -0.026987813 -0.16355151 0.036955528
-0.19624431 0.08325327 0.13578117 -0.042920902 -0.25984797 0.06365748 -0.010321758 -0.108095296
-0.067703456 -0.02977054 0.0110705225 -0.03354119 -0.047345042 -0.12912165 0.29013324 0.10155031
0.09596599 -0.16419488 0.04378461 -0.12804699 -0.06321846 -0.030111732 -0.07241847 -0.07308106
-0.20083754 -0.15272236 -0.21368903 -0.15790905 -0.0021664435 -0.01638267 -0.042069387 0.05249475
0.05324482 -0.0032214315 -0.00015315508 -0.06539942 0.024730152 -0.1728053 -0.043799546 -0.0209377
-0.04015666 -0.0632198 -0.018001312 0.08489681 0.02002851 -0.16158494 0.098885134 0.17991091
-0.11690381 0.15109968 0.17221858 0.06454698 -0.07954735 0.12569182 0.085473865 -0.097170025
-0.010500134 -0.052175038 0.083265565 -0.103958994 0.042970493 0.14839561 0.051174663 -0.09995438
-0.17390575 0.012233068 0.17304529 0.3460443 -0.22547776 0.27572578 -0.09878959 -0.15729871
-0.314158 0.10736556 0.020410486 -0.19074042 0.1336082 0.027640529 0.060486816 0.1782043
0.3150216 -0.1247321 0.012194034 -0.5120214 -0.17645735 0.2882699 -0.022444662 0.13543439
-0.26392624 -0.13542688 0.04119364 -0.07589827 -0.14612374 0.006899549 0.23673558 -0.20743449
-0.11950018 0.09695559 -0.16649662 -0.060908712 -0.118410125 -0.34646732 -0.089255296 -0.19456954
0.056963373 0.00857906 0.10189221 0.08052877 0.28755695 -0.022786686 0.12811756 0.28427222
-0.3274451 0.20393962 0.051223505 0.30493036 -0.3159268 0.015513742 0.2831081 -0.16184929
-0.06021551 0.11077522 -0.097208396 -0.2045809 0.17212106 0.0037176558 0.015620173 -0.16076139
0.12948984 0.17611498 0.010632957 -0.14926606 -0.05001219 0.09214588 -0.14066768 -0.027377041
0.031405676 -0.026592353 -0.018500237 -0.09688241 0.14479417 0.0027760617 -0.053378638 -0.27702633
-0.124056846 -0.14687018 -0.056848116 -0.1695297 0.19218144 -0.14109768 0.020794109 -0.007854921
0.06453979 -0.12767483 -0.11843221 0.039906334 -0.027019728 -0.07775039 0.040799063 0.060044505
-0.04505614 -0.10000356 0.085902 0.047798768 -0.055251352 -0.009433317 -0.047200404 0.20113695
0.05803858 -0.1618066 0.08791236 0.06358558 0.067823924 0.021278419 0.0875168 0.10463092
-0.13877904 -0.12072136 -0.12413786 0.033487618 0.21271235 0.10826392 -0.0046844343 0.036788683
-0.12860227 -0.107583016 0.04837122 -0.029705552 -0.033163473 -0.2032895 -0.12510112 0.02703122

lstm.bias_ih_l1 f4 [256]
00000000: 63b4 95bd 1fdf cebc 2a4a cbbd c41a 713d
00000010: e1c6 8ebc e1bc 473d e4b9 dd3d cc49 14bc
00000020: 2183 b03c 9b88 a4bd 8cdd 4fbd 0f0f 8abd
00000030: c1e3 a3bd 831a a3bd f806 db3d dacf c6bd
00000040: a1e5 2cbb 6780 5fbd e22c cbbc 6f6d 8d3d
00000050: 3794 773d c91e e3bb 68a8 0bbd fd91 a4bd
00000060: 4ee0 2c3c 25ed 5abd db91 403e 62e0 133e
00000070: 843b 40bd 2e73 e7bc 768f 50bd e11c 9d3d
00000080: c488 543d 14a0 1e3b 67a1 843d 2052 ee3c
00000090: 1d6c 483d 20af d13c 4c00 4b3d cd9b cd3a
000000a0: a648 0fbd 12d7 0d3d 2d4b be3c d5bf 6bbd
000000b0: 461e b23d bf5e c6bd 9006 7dbb 0f70 a43d
000000c0: 41af 043d c8e8 2cbd 4dcb f0bc 986c b83d
000000d0: be03 2b3d 3159 d3bd efe4 b13d 573d 573d
000000e0: fdf5 403e ca0a febb 2131 c63d 4fde 3b3b
000000f0: 965a 383e 9732 983d c0ce 8f3e 068b 313d
00000100: 2050 85bd db25 e43c c5fd 923d e812 2bbd
00000110: 0194 8abd 04b9 903d 704f 783c d6c1 df3d
00000120: efb0 11bd 392e b63d c9fd 823d f113 8abd
00000130: f919 643d 6948 4ebc c843 e73d 8ef2 e23d
00000140: 7622 413d bdf7 013e b313 363d ce50 8bbd
00000150: 089c 2d3d b79e 003e 5fc6 0a3e 61a0 213d
00000160: 4737 153e 8e40 033e 21aa 1abd 77dd 013b
00000170: 49ea fd3d 2a2a d13d 4c1f 8c3c c4fd 463d
00000180: 675a 083e 501f cd3d f81d 0b3e 5bd7 c03c
00000190: 9e2e cc3b 978e a4bc 8371 ed3d 371a 2dbd
000001a0: 20bc e03c 3b9f 493d 7107 bdbd d933 45bd
000001b0: 13d1 1dbc c1b2 93bd 354c d1ba 4985 4e3d
000001c0: ff9a 353d f645 ec3c 3119 c4bd 7bf1 f83d
000001d0: 3590 893d 96ad a4bc 950b 67bd beea c7bd
000001e0: c04b 02bd b22d 8c3d 516f 55bd 64fa e9bc
000001f0: d8a8 043d 81b6 433d dd3a 86bb be87 b03d
00000200: af81 9c3c ef06 8bbd c740 45bc e385 763d
00000210: 7cc3 283d 4712 88ba 5fe7 d1bd 5870 9ebd
00000220: ceef 90bd a3ba 833d fbec ebbc c29b f03d
00000230: d3f1 e3bd 0228 6c3d b546 b8bd 4209 053c
00000240: 4f84 b1bd 7ade c8ba 946e 19bd 0435 b2bc
00000250: 0c3f 893d eb1e 243d 139a 243d e325 42bd
00000260: c554 763d 2a74 d33d 9c1f dd3d a2eb 563d
00000270: 7105 75bd 88e1 ee3d f850 063e a4a5 c8bd
00000280: 6c34 c53c a8c3 00be 674e 9cbd 5bba 0b3e
00000290: e4a5 bebd 3d2e aabc 865e 5c3d 9eab 1fba
000002a0: 2d29 fa3c dfb6 18be 87cf 333d 6403 d03c
000002b0: 22dd 01be 4b7c adbd d14d 02bc 0fda d4bc
000002c0: 1153 fd3c 3ed1 3b3d a2ca 01be 237b 11bd
000002d0: 6950 053e 26d1 d93b ad7a 88bd 8f83 313d
000002e0: a5d9 b23d 57dd 73bc 0612 8bbc e106 f9bc
000002f0: 0e26 c83d 77cd 2fbd ebb0 933d 29c5 a0bd
00000300: 2461 223e 7679 4b3d 40f7 b93d 9ae9 e9bc
00000310: 5ac4 043e 1c92 91bb c31e 44bd ab01 9cbd
00000320: 622c a9bc d84d 193e c206 393c fe38 d63d
00000330: 4913 1abe eb41 5b3e 548f d83c 190e 25bd
00000340: 3782 b13d df7c f13d b5c2 943d 9c20 893d
00000350: eed1 e13d 4a3b 9a3d 094a 9c3b 3488 353e
00000360: a57f 853b fd6e 223e f5fb 363e 9669 273e
00000370: f96b a53d 4b0e 62bd 64df 463e c249 113d
00000380: 6598 a63d f0f9 e93d d3ce ef3d c567 503c
00000390: 693d c73d 90ec f73d 598e 5f3e c933 e1bc
000003a0: 7ce5 c53d b32b 173e c619 3bbd 60f9 743d
000003b0: 80ef a6bd e4ab ddbb 4a93 86bd c510 8f3d
000003c0: 335d 4c3c 01dc 763e 3a8f 313e 992c 303e
000003d0: e44b fabd 1160 5a3c 8e48 a5bd 32f7 033d
000003e0: d354 dc3d 7d9f 443d 4ff3 e0bd 5343 173d
000003f0: 657f c5bc bae2 eb3a 68e1 f03d 1c9d 33bc
-0.07309797 -0.025252877 -0.09926255 0.058863416 -0.017428817 0.048764113 0.108264714 -0.009050798
0.021546902 -0.08033868 -0.050748393 -0.067411534 -0.08002425 -0.07964041 0.106946886 -0.09707613
-0.0026381987 -0.054565813 -0.024801675 0.069056384 0.060444083 -0.00693116 -0.03409615 -0.080356576
0.010551525 -0.053448815 0.1880564 0.14441064 -0.04693176 -0.028253164 -0.050918065 0.07671524
0.051888242 0.00242043 0.064760976 0.029091895 0.04893123 0.025596201 0.04956083 0.0015686691
-0.034981392 0.034628935 0.023229206 -0.057555992 0.086971804 -0.0968604 -0.0038608648 0.08029186
0.032393698 -0.042214185 -0.029393816 0.090050876 0.041751616 -0.10319746 0.08686244 0.052548733
0.18843837 -0.007752751 0.09677339 0.0028666442 0.18003306 0.07431524 0.28087425 0.043345474
-0.06509423 0.027850082 0.07177309 -0.041766077 -0.06766511 0.07066539 0.015155658 0.10925643
-0.035569128 0.08895535 0.06396062 -0.06742085 0.055688832 -0.012590506 0.11292225 0.1108142
0.047152005 0.12692161 0.04445238 -0.06802522 0.04238513 0.12560545 0.13552235 0.03945959
0.14571868 0.12817594 -0.037759904 0.0019815841 0.12398202 0.1021312 0.017104767 0.048581854
0.13315736 0.10015738 0.13585651 0.02354019 0.006231143 -0.020087523 0.11593916 -0.04226133
0.027433455 0.04922412 -0.09229935 -0.04814515 -0.009632367 -0.07211829 -0.0015968146 0.05042008
0.04433727 0.028841954 -0.095751174 0.12155434 0.067169584 -0.020102303 -0.05640753 -0.097615704
-0.031810522 0.06844653 -0.052108113 -0.028561778 0.032387584 0.04778147 -0.0040963725 0.08619641
0.019104807 -0.06788432 -0.01203937 0.060186278 0.041202053 -0.0010381424 -0.10249209 -0.077362716
-0.07076989 0.064320825 -0.028799525 0.117484584 -0.11130109 0.057655342 -0.08997861 0.008119883
-0.08667814 -0.0015325092 -0.03745897 -0.021753795 0.06701478 0.04006855 0.040186 -0.047399413
0.060139436 0.10324891 0.10797045 0.05247081 -0.059819642 0.116641104 0.13116825 -0.097972184
0.024072848 -0.12574637 -0.076321416 0.13645308 -0.09308985 -0.020774001 0.053801082 -0.00060909416
0.030537212 -0.1491351 0.043899085 0.025392242 -0.12682012 -0.084709726 -0.007953123 -0.025982885
0.030923398 0.045853846 -0.12674955 -0.035517823 0.13018955 0.006647247 -0.066640235 0.043338355
0.08732919 -0.0148843145 -0.016976368 -0.030398788 0.09772883 -0.042920556 0.07211479 -0.07850105
0.15857369 0.04967638 0.09080362 -0.028553773 0.12965527 -0.0044424664 -0.0478809 -0.07617506
-0.020651046 0.14971101 0.011293115 0.10460089 -0.15046419 0.21411864 0.026435532 -0.040296648
0.08667415 0.117913954 0.072637 0.06695673 0.11026369 0.0753084 0.004769568 0.17727739
0.0040740543 0.15862651 0.17869551 0.16348872 0.08077235 -0.055189412 0.19421154 0.03547073
0.08134536 0.11424625 0.117093705 0.012720053 0.0972851 0.121056676 0.21831645 -0.027490513
0.09662911 0.14762764 -0.045678876 0.059808135 -0.0815115 -0.0067648757 -0.06571062 0.069856204
0.012473392 0.24107362 0.17339793 0.17204513 -0.12221506 0.013328568 -0.08070479 0.032218166
0.107583664 0.048003662 -0.109839074 0.03692944 -0.024108598 0.0017996647 0.11761743 -0.010962751

lstm.bias_hh_l1 f4 [256]
00000000: a931 473d 2bef 3e3c a9f2 3bbe 82da 8e3d
00000010: abab 523d 85c9 733d 27b9 ce3d 9e23 6f3c
00000020: 7729 64bd d2b1 8fbc 7e4c 283e 7f6c 8cbc
00000030: ce6d 023d 3653 9e3d c4c4 80bd 58df 31be
00000040: 094d f13c ea77 38bc 5807 ca3d 87c3 1b3d
00000050: 0cd3 b43d 98e6 19bd 1550 babd 12e1 0b3e
00000060: 0ac0 053e cc46 533d b527 753e a982 193e
00000070: 0ae1 613d 9bfb c63d 9f60 25bc 73eb 18be
00000080: f560 223e 2ac8 593e b0ee 1a3e 2f85 043d
00000090: 5ed4 8f3d 394c 953d 393e 963d b2bf 28bd
000000a0: b7b0 b1bd c03a 043d 8ab0 12be 7d2b 943c
000000b0: 7a14 c23d 7c70 babd f78b 42bd 9666 783d
000000c0: cbce d9bc 1dac 983c f78d 90bd 343f 9a3d
000000d0: ba5a 0fbc 21ce c6bc 77a2 79bd 1176 bf3d
000000e0: 08a7 633e 6474 bdbd ae4e 913c c831 e2bd
000000f0: 638e 3b3e 3a1b d43d e92d 573e 2349 7fbd
00000100: 8f26 0c3d f4d3 27bd dc8f 853d c4ac 39bd
00000110: 379d 91bc 4994 0f3e 85ca 8f3d d429 81bd
00000120: 4273 37bd bb45 0bbd 1815 6b3c 44f7 91ba
00000130: d782 953c dca9 d03d 320d 8ebd 386d 4dbd
00000140: 9a13 6c3d 7823 c5bc d362 1a3e 7f60 533d
00000150: 29a4 153d b2d0 c53d 06d3 003e 8fc6 073d
00000160: ebed 003e f68c cabc 6e74 0aba be6a 163e
00000170: f310 c23d 9340 4dbc d5cf acbd 2734 b3bc
00000180: e62c 78bd a0de 393e bf56 283b b5c7 debd
00000190: c94a 413d f2a4 3abc c7c2 4ebb 84ea 5bbd
000001a0: 4c4d 533d d097 893d 72cc e53d 4525 11bd
000001b0: 8b3e bd3d 8306 3c3c 5cbc db3c 7104 b3bc
000001c0: de75 013d 9185 01be 853f 7ebd b448 763d
000001d0: 090e 96bd ddee b1bd 2c62 923d c782 7cbd
000001e0: 9a2b fabc c0b2 37bc 23f7 d73d 0235 033d
000001f0: ecf7 af3d 05d4 9e3d a6c1 2d3c 9a6e 1d3d
00000200: 5123 983d 40fc e73d 1262 b4bc 48c1 db3c
00000210: d6f2 92bd 5912 37bd dfc8 39be b1fe 543a
00000220: 8e43 703d a976 e1bd 3769 d7bb b061 e8bd
00000230: 28d7 023e c842 c13d 697d 553d 3ff1 ae3d
00000240: 000f c73d ce36 ef3c 1a00 41bc 1d5b 13bd
00000250: bbc7 e03c ecdf 5cbc 40fa cf3c c118 d3bd
00000260: 85ce ae3d 09f2 2c3d a8e2 5b3c 85ef 0dbd
00000270: e347 f53b 1447 e3bd 2090 ab3d 3d05 fb3d
00000280: 6cb1 0aba 197d 08bd 8fc8 99bd e7bf 24bd
00000290: 0401 213d 81bb fbbd 755b 12bd 01c1 b53d
000002a0: 26d3 c33d a0d4 1bbe 198d 28bc 2af2 c83d
000002b0: 881e cd3d 89af d63c cd6d 6abd 0268 eabd
000002c0: ed9a acbd 3a47 edbb e08d 433b 86d5 91bd
000002d0: 5134 0fbc 111a af3d 75dc 8e3b 2a99 c9bd
000002e0: 4b82 bfbd f895 5ebd 3d57 70bd 3c85 633d
000002f0: 4f3f 01bd 17db 75bd cc12 b63d ac9f c33c
00000300: b236 303e 0ec5 18be 1d9b fdbc 9e82 173e
00000310: 1b91 963d 3851 c63d 3754 153e fcb1 e4bd
00000320: f79f 7c3d fecf a03c e8f3 0fbd ed93 15bd
00000330: e761 1bbe 01c0 873d be9e 2b3e eeac da3d
00000340: 9c9e 493e 5783 d7bd 77e7 38bd 2cf2 fb3d
00000350: 911d 8ebd d27d 303d c404 92b7 aaf3 663d
00000360: eaf2 983c 4bec b93d 5e06 d93d f96d 293e
00000370: 59fd ef3d 782e f73d 9a7b 7c3d b7bc 1d3e
00000380: 10e2 8fbc fd9d 863d 0b1d 733d 2c81 adbd
00000390: f302 473d 3f5c 083c 7455 503e 9de4 153e
000003a0: e579 b3bd bad0 e8bc 8fcf 5c3d c839 0b3e
000003b0: f7ec aabd d734 463e 868c 363e 9171 fd3d
000003c0: 195c db3c 461a 543e 1bd5 4d3d 4086 123e
000003d0: 4cda abbd 401c 75bd 13de f63d ecfa 363e
000003e0: f760 d83d a21a 9cb9 cb9a df3a 1e8a 043d
000003f0: f426 923a 646f ee3d e2aa 1c3e f87d 1bbc
0.048631344 0.011653702 -0.18354286 0.06975271 0.051433247 0.059518356 0.10093909 0.014595894
-0.055703606 -0.017540846 0.1643543 -0.017141579 0.031843 0.07730715 -0.0628753 -0.17370355
0.029455679 -0.0112590585 0.09864682 0.038028266 0.088293165 -0.037573427 -0.09097306 0.13660076
0.13061538 0.05158119 0.23940928 0.14991249 0.055146255 0.09715959 -0.010093837 -0.14933567
0.15857299 0.21267763 0.15130115 0.032353576 0.07022928 0.07289929 0.07336087 -0.04119844
-0.08676284 0.03228259 -0.14325157 0.018087143 0.09476562 -0.09103486 -0.047496762 0.06064471
-0.026587864 0.018636758 -0.07058328 0.07531586 -0.008749658 -0.024268212 -0.060945954 0.09348691
0.22231686 -0.092507154 0.017737713 -0.11044651 0.18316035 0.103567556 0.21013607 -0.062325608
0.03421646 -0.04097362 0.065215796 -0.045330778 -0.017775161 0.1402141 0.070210494 -0.06306806
-0.044787653 -0.034002047 0.014348291 -0.0011136313 0.018250866 0.10188648 -0.069361106 -0.050152987
0.05763588 -0.024064764 0.15076761 0.051605698 0.03653351 0.09658946 0.12580499 0.033148345
0.12590759 -0.024725419 -0.00052816316 0.14689156 0.09475889 -0.012527603 -0.08438078 -0.021875454
-0.060589693 0.18151331 0.002568647 -0.10877935 0.04719046 -0.011391865 -0.0031549202 -0.05369045
0.051587388 0.06718409 0.112206355 -0.035435934 0.09240445 0.011476162 0.026823215 -0.021852704
0.031606548 -0.12648608 -0.062072296 0.06012793 -0.07326896 -0.08688138 0.07147631 -0.061648156
-0.030538369 -0.011212051 0.105451845 0.032032974 0.08592209 0.07755283 0.010605251 0.038435556
0.07428611 0.1132741 -0.02201942 0.026825562 -0.071752235 -0.044695232 -0.18143032 0.000812511
0.058658175 -0.11008961 -0.006573822 -0.113467574 0.12777388 0.09436566 0.052121554 0.08542108
0.09719658 0.029200938 -0.011779809 -0.035975564 0.027438989 -0.0134811215 0.025387883 -0.10307456
0.08535484 0.04222301 0.013420738 -0.03465225 0.007485376 -0.110975415 0.08377099 0.122568585
-0.000529072 -0.033322427 -0.07508957 -0.040222075 0.03930761 -0.12291623 -0.03573175 0.08874703
0.09561758 -0.15217829 -0.010287547 0.09811814 0.10015589 0.026206749 -0.05723362 -0.11445619
-0.08427987 -0.007241157 0.0029839203 -0.071208045 -0.008740501 0.08549894 0.0043597766 -0.09843667
-0.09351023 -0.05434224 -0.058676947 0.055546984 -0.031554516 -0.060023393 0.08890304 0.023879848
0.17208365 -0.1491892 -0.030957753 0.1479592 0.073518954 0.0968346 0.14582907 -0.1116676
0.061675992 0.019630428 -0.035144717 -0.036518026 -0.15174066 0.06628419 0.16759774 0.10677515
0.19689411 -0.10523098 -0.045142617 0.1230205 -0.06939233 0.04308874 -1.7406775e-05 0.05638472
0.018670518 0.090782724 0.105969176 0.16545857 0.11718244 0.1206941 0.061641313 0.1540402
-0.01756385 0.065731026 0.05935387 -0.08471903 0.048586797 0.008322774 0.20345098 0.1463799
-0.08763484 -0.028419841 0.05390888 0.1359626 -0.08345979 0.19356094 0.17827043 0.12375177
0.026777314 0.20713148 0.05025206 0.14309025 -0.08391246 -0.059841394 0.12054076 0.17869157
0.105653696 -0.00029774482 0.0017059682 0.03235828 0.0011150525 0.1164234 0.15299562 -0.0094904825
