LogAnomaly/result/deeplog/deeplog_epoch272.pth (torch_old, 643431 bytes, 30 tensors)

lstm.weight_ih_l0 f4 [256, 1]
0	0xbe4d42cd	-0.20045014
1	0xbc65dc50	-0.014029577
2	0xbd78b8ac	-0.06072299
3	0x3daf9bd6	0.08574645
4	0xbe0b9445	-0.13630779
5	0x3d3f917f	0.046769615
6	0xbdd0f5f1	-0.102031596
7	0x3d8bd944	0.068285495
8	0x3e34398f	0.17600082
9	0x3da821f1	0.08209599
10	0x3e2aa1d5	0.16663297
11	0xbdaa0467	-0.08301621
12	0x3dc53936	0.09630053
13	0x3e028cd5	0.12749036
14	0xbda4819c	-0.080325335
15	0x3e84a72a	0.25908786
16	0x3d9275d5	0.07151381
17	0x3d5a5e44	0.053312555
18	0xbe1a0b5d	-0.15043397
19	0x3e192b31	0.14957882
20	0x3e2b6ed3	0.16741495
21	0x3da21c47	0.0791555
22	0x3d678e59	0.056532238
23	0xbd704da8	-0.05866781
24	0x3e4bf383	0.19917111
25	0xbd86a413	-0.065742634
26	0xbc9a4542	-0.018831853
27	0x3d8cd3ab	0.0687631
28	0x3d950daf	0.072780006
29	0xbe13f716	-0.14449725
30	0x3df2f1d6	0.11862533
31	0x3c54132f	0.012944027
32	0x3e00a6a0	0.12563562
33	0x3dc9ee32	0.09859885
34	0x3ca8c922	0.02060372
35	0x3d3ee280	0.046602726
36	0x3e5b805e	0.21435687
37	0x3c2c1e6b	0.010505299
38	0x3e07b332	0.13251951
39	0xbe117548	-0.14204895
40	0x3b50d770	0.0031866692
41	0xbe0d5b1b	-0.13804285
42	0x3e05208b	0.13000695
43	0x3eced935	0.4040009
44	0xbdfb2730	-0.12263334
45	0x3ddb7b7d	0.10716913
46	0x3e14d13e	0.14532945
47	0xbe4f18aa	-0.20224252
48	0x3e468b8c	0.1938917
49	0x3e1dd7c9	0.15414347
50	0x3eb91210	0.36146593
51	0x3dba7739	0.09104771
52	0x3d814cc6	0.063134715
53	0x3ea7aab6	0.3274743
54	0x3dfbf470	0.12302482
55	0xbd6ad3ba	-0.057330824
56	0xbe32e7a1	-0.17471172
57	0x3cc49eb7	0.024001462
58	0x3de4a078	0.111634195
59	0x3d2964da	0.041355945
60	0x3d390c92	0.045178004
61	0x3e0dcb34	0.13847047
62	0x3dcd0351	0.10010398
63	0xbe1b503e	-0.15167329
64	0xbd82679a	-0.06367417
65	0x3d3accbd	0.04560541
66	0x3deff846	0.11717276
67	0xbd2760f8	-0.04086396
68	0xbdbab599	-0.09116668
69	0x3d5f6aa0	0.054545045
70	0x3ddb475f	0.10706972
71	0x3d5ae13b	0.053437453
72	0xbd294c00	-0.041332245
73	0x3e96b229	0.294328
74	0x3e2d186b	0.16903846
75	0xbe00cb53	-0.12577562
76	0xbc910fc5	-0.017707715
77	0x3da1dcf6	0.07903473
78	0x3e314cc9	0.17314447
79	0x3e87146c	0.26382768
80	0x3cf73239	0.030175315
81	0x3e081941	0.13290884
82	0xbdef9377	-0.116980486
83	0x3d0acd9c	0.03388749
84	0x3b12444a	0.0022318535
85	0x3e6914c5	0.22761829
86	0x3e0ce830	0.13760448
87	0xbd5c58f4	-0.05379577
88	0x3c74c158	0.014938675
89	0x3d94b97d	0.072619416
90	0xbf2734be	-0.65314853
91	0x3d9cf81e	0.07664512
92	0xbd881eef	-0.06646525
93	0xbe86cd0f	-0.26328322
94	0x3e61b469	0.22041477
95	0x3c6127ae	0.0137423705
96	0xbcd7054a	-0.02624764
97	0x3e1c62a3	0.15272002
98	0x3ddff12c	0.10934672
99	0x3dc95995	0.098315395
100	0x3d8f3969	0.06993372
101	0x3e475a29	0.19467987
102	0x3dd92632	0.10602988
103	0x3d10f70c	0.035391852
104	0x3e14fb71	0.14549042
105	0x3e759283	0.23981671
106	0x3e34eeda	0.1766924
107	0x3d7eda3f	0.062219854
108	0xbe0391b4	-0.1284855
109	0xbd047f03	-0.03234769
110	0x3d664ab1	0.056223575
111	0xbdea173f	-0.11430215
112	0x3d9bcf11	0.07607854
113	0x3dd5f987	0.10447984
114	0x3e9f7bbe	0.31149095
115	0x3e7eefdb	0.24896185
116	0x3d55ea23	0.052225243
117	0x3cd60969	0.026127534
118	0x3e26befb	0.16283791
119	0xbce7f308	-0.028314129
120	0xbe3899e5	-0.18027456
121	0x3e352560	0.17690039
122	0x3ef075a1	0.46964744
123	0xbd0414a5	-0.03224625
124	0x3d1db739	0.038504813
125	0x3d533eb6	0.051573478
126	0xbdaf91dd	-0.08572743
127	0xbe1bcdbc	-0.152152
128	0x3ee5bbb7	0.44869778
129	0xbe0c14d1	-0.13679816
130	0x3daac4bb	0.083383046
131	0x3d042f57	0.03227171
132	0x3e803314	0.2503897
133	0xbe35ab7a	-0.17741194
134	0xbd453229	-0.04814354
135	0x3e16e5e5	0.14736135
136	0x3e2e58d6	0.17026076
137	0xbd338ce5	-0.04383554
138	0xbd82689d	-0.0636761
139	0x3e690afa	0.22758093
140	0xbe7785fd	-0.24172206
141	0x3e2b5739	0.16732492
142	0xbe279dd3	-0.16368799
143	0xbdc334b4	-0.09531537
144	0x3e64e2f9	0.22352208
145	0xbe9afaf3	-0.30269584
146	0xbe857662	-0.2606688
147	0x3e59e757	0.21279655
148	0x3e38b06b	0.18036048
149	0xbd181b68	-0.03713551
150	0xbe1b021a	-0.1513752
151	0x3e4c60a1	0.19958736
152	0x3dcce078	0.100037515
153	0x3ea2ef46	0.31823176
154	0xbeec09c4	-0.461012
155	0x3c9d3d47	0.019194258
156	0x3cdc6a8b	0.026906272
157	0xbe3dd1b9	-0.18537034
158	0x3f6fd2f3	0.9368126
159	0x3a1ea9de	0.0006052534
160	0x3eff3422	0.49844462
161	0x3ccd194b	0.025036475
162	0x3daf5abc	0.08562228
163	0xbce5240e	-0.027971294
164	0xbea0ec61	-0.31430343
165	0xbe543679	-0.20723905
166	0xbe9b928a	-0.30385238
167	0xbe3fdd95	-0.1873687
168	0x3e4ad5a3	0.19808058
169	0x3d5b32f0	0.053515375
170	0xbe045ccd	-0.12926026
171	0xbfd6e39b	-1.678821
172	0x3ebf1dc1	0.37327388
173	0x3e9e840f	0.30960128
174	0x3d86ee48	0.06588417
175	0x3f013586	0.50472295
176	0xbdf9de33	-0.12200584
177	0xbe1b92fd	-0.1519279
178	0xbe1874cf	-0.14888309
179	0xbd183557	-0.037160244
180	0xbed23316	-0.410546
181	0x3ef09c51	0.4699426
182	0x3d1b15bc	0.037862524
183	0x3e2eaa09	0.17057051
184	0xbebd4e0c	-0.36973608
185	0x3d9b420d	0.075809576
186	0x3d5555e7	0.052083876
187	0xbda148a0	-0.0787518
188	0x3e0b9d4e	0.13634226
189	0xbd9fc984	-0.07802108
190	0x3da5b999	0.080920406
191	0xbeb2b67f	-0.34904858
192	0x3e3f0969	0.18655933
193	0xbc74a7c5	-0.0149325775
194	0x3e232fb8	0.15936172
195	0x3eaa10aa	0.3321584
196	0x3e39eb89	0.18156256
197	0x3d9c77d1	0.07640041
198	0x3e35e07b	0.17761414
199	0x3e66ec60	0.22551107
200	0x3d43e4bf	0.04782557
201	0x3e9a15ba	0.300947
202	0x3d94fa48	0.072743
203	0x3e6a2b9d	0.228682
204	0x3e833abc	0.25630748
205	0x3e19c7f8	0.15017688
206	0x3e6c3438	0.23066795
207	0x3e9aa53e	0.30204195
208	0xbdbc1adf	-0.09184813
209	0x3d0621d4	0.032747105
210	0x3ea223e5	0.3166801
211	0x3e4c3b05	0.19944389
212	0x3e9a3dd2	0.3012529
213	0x3e725929	0.23666824
214	0xbe562b55	-0.20914967
215	0xbe36ad5d	-0.1783957
216	0xbe35495f	-0.1770377
217	0x3d4e2636	0.05032941
218	0x3acf02e8	0.0015793713
219	0x3de32f81	0.11093045
220	0xbcbb6686	-0.022876035
221	0xbeaea11a	-0.34107286
222	0x3e13f02b	0.14447086
223	0x3e904444	0.28177083
224	0xbddf6f2e	-0.10909878
225	0x3eae5c5b	0.34054837
226	0x3daa303e	0.08309983
227	0x3ea1d3a4	0.3160678
228	0xbdbd8c5e	-0.092552885
229	0xbe6764da	-0.22597066
230	0x3db025b3	0.086009406
231	0xbe999afe	-0.30001062
232	0xbe599f7d	-0.21252246
233	0x3e911f6f	0.28344294
234	0x3e4a8442	0.19777015
235	0xbe988946	-0.2979223
236	0x3e89a590	0.26884127
237	0x3c8ab205	0.01693059
238	0x3e5d6aac	0.21622723
239	0xbe2c163a	-0.16805354
240	0xbe41d6ac	-0.18929547
241	0xbdf9ce7f	-0.12197589
242	0x3dfd7c6c	0.12377247
243	0xbe60e1a8	-0.21961081
244	0x3da0177a	0.07816978
245	0xbdc48a61	-0.09596706
246	0x3d826bd3	0.06368222
247	0x3dafc68d	0.085827924
248	0x3e326c01	0.17424013
249	0xbe61c7ec	-0.2204892
250	0x3e903eff	0.28173062
251	0xbe0f466c	-0.13991708
252	0x3de1c1a1	0.1102326
253	0x3e2006a4	0.15627533
254	0x3e6ddc79	0.23228635
255	0x3e0894fc	0.13338083

lstm.weight_hh_l0 f4 [256, 64]
0	0x3e6d0adf	0.23148678
1	0xbe1e27e4	-0.15444905
2	0x3d0a5022	0.033767827
3	0x3d907ca1	0.07055021
4	0x3e7ff644	0.24996287
5	0xbde9c39f	-0.11414265
6	0xbd5d1204	-0.05397226
7	0x3da64b6b	0.081198536
8	0x3e2b5ecc	0.16735381
9	0x3e01997a	0.12656203
10	0xbc258139	-0.01010161
11	0xbe2d0820	-0.1689763
12	0xbe470fbc	-0.19439596
13	0x3dc94d9c	0.09829256
14	0xbdfde9d0	-0.12398112
15	0x3e86d286	0.26332492
16	0x3e5025fe	0.20326993
17	0xbd3fd9e8	-0.04683867
18	0x3d267266	0.040636443
19	0x3e192679	0.14956082
20	0xbd9b9471	-0.07596672
21	0x3dba5968	0.09099084
22	0xbd8bf631	-0.06834067
23	0x3e3e6be4	0.18595845
24	0x3e8cbad4	0.2748629
25	0x3e6cc478	0.23121822
26	0x3dc067c8	0.09394795
27	0x3db7099f	0.08937382
28	0x3dabcf01	0.08389092
29	0xbe9fee5b	-0.31236538
30	0x3d72dc77	0.059292283
31	0x3e042ab9	0.12906922
32	0x3d48722a	0.048937
33	0x3d8c1fbe	0.06841992
34	0x3da64231	0.08118094
35	0xbe2a000f	-0.16601585
36	0xbd3462d2	-0.044039555
37	0xbe51a07c	-0.20471376
38	0xbde44d19	-0.11147518
39	0xbea0eead	-0.31432095
40	0x3da4c0b9	0.080445714
41	0xbdf7c2c2	-0.12097694
42	0x3db48c6e	0.08815847
43	0xbddefd88	-0.10888201
44	0x3d4e4c40	0.050365686
45	0x3e31aa4d	0.17350121
46	0x3d24f99d	0.040277112
47	0x3e8376b1	0.25676492
48	0xbe97e074	-0.29663432
49	0xbdbcae21	-0.092129
50	0x3e30d01e	0.1726689
51	0xbeac68bc	-0.33673656
52	0x3d61dc93	0.055141997
53	0x3e45b662	0.19307855
54	0x3de5dc95	0.11223713
55	0xbcafd8fe	-0.021465775
56	0xbdcfbf5c	-0.10143921
57	0x3ec08dc5	0.37608162
58	0xbcfb48d3	-0.030674374
59	0xbde8ff22	-0.11376788
60	0x3e073d06	0.13206872
61	0xbd3b24da	-0.04568944
62	0xbe18e5aa	-0.1493136
63	0xbd9a44cc	-0.07532653
64	0xbd3a3f83	-0.045470726
65	0xbdb92559	-0.090403266
66	0x3e9c6e86	0.30553073
67	0x3e7c3c49	0.24632372
68	0x3e1c4973	0.15262394
69	0xbe363fa1	-0.1779771
70	0x3db82952	0.08992256
71	0x3dac08c5	0.0840011
72	0x3e1c37df	0.15255688
73	0x3dba5694	0.09098545
74	0xbe0232ce	-0.12714693
75	0x3da7eecf	0.08199846
76	0xbe5ace1b	-0.21367685
77	0x3e3bf4a8	0.18355048
78	0xbe076226	-0.13221034
79	0xbeaa13f9	-0.33218363
80	0x3e6062ab	0.21912639
81	0xbd1501ed	-0.03637879
82	0xbe0ada81	-0.13559915
83	0x3e5b58d9	0.21420611
84	0x3df50f6d	0.11965833
85	0xbdc6cdb8	-0.097072065
86	0xbe263acb	-0.16233365
87	0x3d4b97cd	0.049705315
88	0x3ec66e1a	0.38755876
89	0x3dbaeec2	0.09127571
90	0xbdb3c446	-0.087776706
91	0x3de8ed55	0.113733925
92	0x3e68c6a2	0.22732022
93	0xbbf28ac1	-0.0074017947
94	0x3d23aaad	0.03995769
95	0x3e38c30f	0.18043159
96	0x3cbbd2bc	0.022927634
97	0x3e2f221d	0.17102857
98	0x3d873afc	0.06603047
99	0xbdf7306e	-0.12069784
100	0xbcf1ba56	-0.029507797
101	0xbe43f477	-0.19136225
102	0xbe1c0c1b	-0.15238993
103	0x3d887171	0.06662262
104	0x3e4434ee	0.19160816
105	0xbd7603f8	-0.06006238
106	0xbdec11a6	-0.11526804
107	0x3dc2ca55	0.09511248
108	0x3c82d0a2	0.015968625
109	0x3e20f514	0.1571849
110	0x3e5a752d	0.21333762
111	0xbde1ad91	-0.11019433
112	0xbe7c7593	-0.24654226
113	0xbe05b752	-0.13058212
114	0xbd20ef84	-0.03929092
115	0xbe6ea435	-0.23304828
116	0x3c9ff453	0.019525683
117	0xbcb933e1	-0.022607746
118	0x3e89cc60	0.26913738
119	0x3e19e029	0.15026917
120	0xbd3f46b1	-0.046698276
121	0x3eb928b2	0.3616386
122	0x3d4f67d6	0.050636135
123	0xbe3af4a7	-0.1825739
124	0x3e1441b7	0.14478193
125	0xbe28f404	-0.16499335
126	0x3d96cffb	0.07363888
127	0xbdb34cd6	-0.0875489
128	0x3dfeb687	0.12437158
129	0x3d9f6d4e	0.0778452
130	0x3de81529	0.11332161
131	0x3e6a3708	0.22872555
132	0x3e209649	0.15682329
133	0xbe87fe48	-0.2656119
134	0xbe7b9656	-0.24569067
135	0x3e5f8169	0.2182671
136	0x3e5a3091	0.21307589
137	0xbcd47c74	-0.02593825
138	0xbd9431dc	-0.072360724
139	0x3de3ec6f	0.111290805
140	0xbdb2b56c	-0.0872601
141	0x3d81eae2	0.063436285
142	0xbe12f401	-0.14350893
143	0x3dc08f1e	0.094022974
144	0x3e184793	0.14871053
145	0xbe6b4248	-0.22974503
146	0xbc88dd58	-0.016707107
147	0x3e597478	0.21235836
148	0x3d52d1c7	0.05146959
149	0x3d8a85f7	0.06763833
150	0xbd88d382	-0.06680967
151	0x3de36dce	0.11104928
152	0x3e484858	0.19558847
153	0x3dae58ac	0.085130066
154	0xbd028f1a	-0.031874754
155	0x3e94db2b	0.29073462
156	0xbcd09914	-0.025463618
157	0xbec952bc	-0.39320934
158	0x3df4c927	0.11952429
159	0x3d8e6f18	0.06954783
160	0xbdd05bd8	-0.10173768
161	0x3e01d5f1	0.12679268
162	0x3e4abb21	0.19797947
163	0xbdff2211	-0.124576695
164	0x3c06497e	0.008196233
165	0xbe1d0931	-0.15335537
166	0xbd3b5f2c	-0.04574506
167	0xbebf3c85	-0.3735086
168	0x3e2d4843	0.16922097
169	0xbe15fbcb	-0.14646833
170	0xbd3df00b	-0.0463715
171	0xbd81fabc	-0.06346652
172	0x3d89ba63	0.067250036
173	0x3daf8e6f	0.08572089
174	0x3e80f4de	0.2518682
175	0x3c28a16f	0.010292395
176	0xbd4db07b	-0.050217133
177	0x3c1788f4	0.009248961
178	0xbe1211b6	-0.14264569
179	0x3d1aafaf	0.0377652
180	0x3ca9ee04	0.020743378
181	0x3da048f5	0.078264154
182	0x3d3f4bd9	0.046703193
183	0x3e7e87d4	0.24856502
184	0xbd2edf06	-0.04269316
185	0x3e67dfa4	0.22643906
186	0xbc6618ac	-0.014043968
187	0xbf090cca	-0.5353514
188	0xbc4fcf2d	-0.012683672
189	0xbe08f84f	-0.13375972
190	0x3d9d3d94	0.07677761
191	0xbe947e7d	-0.29002753
192	0x3d7a2ecb	0.06107978
193	0xbe649089	-0.22320761
194	0xbcc91e0a	-0.024550457
195	0x3d345c62	0.044033416
196	0x3d31a4b7	0.043369975
197	0x3da84285	0.082158126
198	0x3bf421c5	0.0074503147
199	0xbdd44445	-0.10364584
200	0xbd84f3ec	-0.06491837
201	0xbca091e7	-0.019600822
202	0x3d3052b8	0.043047637
203	0x3dd8d39a	0.10587235
204	0xbc835bca	-0.01603498
205	0x3cf55115	0.02994589
206	0x3d8659bf	0.065600865
207	0x3dca41a1	0.09875799
208	0x3a906d88	0.0011018971
209	0xbdb07c71	-0.08617485
210	0xbe145250	-0.14484525
211	0x3d02db0e	0.031947188
212	0x3d54e77c	0.051978573
213	0x3c8f2b57	0.01747672
214	0xbe6475ef	-0.22310613
215	0x3e910ff7	0.28332493
216	0xbd538a19	-0.051645372
217	0x3e0cc75e	0.13747928
218	0x3cd17058	0.025566265
219	0x3db21659	0.08695669
220	0x3debbf9e	0.115111575
221	0xbe784bb5	-0.2424763
222	0xbcd4dc3e	-0.025983926
223	0xbbb1fa93	-0.005431482
224	0x3da3bf5c	0.07995483
225	0xbd123732	-0.03569717
226	0x3e045f90	0.12927079
227	0x3d263920	0.040581822
228	0xbd6099d8	-0.054834217
229	0xbe4e9892	-0.20175388
230	0xbde504a1	-0.111825235
231	0xbe6458b3	-0.22299461
232	0xbd4bf6a4	-0.04979576
233	0x3d3e230f	0.046420153
234	0xbddc1be2	-0.10747506
235	0xbcdb365d	-0.02675932
236	0x3e6c5eeb	0.23083083
237	0xbd3f5285	-0.046709556
238	0xbe204814	-0.15652496
239	0x3ea4c637	0.32182476
240	0x3bbecd44	0.0058228094
241	0x3bcb7ac8	0.006209705
242	0x3d95c817	0.07313555
243	0xbdff29fd	-0.124591805
244	0xbdbbb689	-0.09165675
245	0x3d982e1f	0.07430672
246	0x3d1f52f0	0.038897455
247	0x3e03ac8e	0.12858793
248	0xbdba35fc	-0.09092328
249	0x3e0790ec	0.13238877
250	0x3dda77d5	0.106673874
251	0xbdc82dfd	-0.097743966
252	0x3de0fc80	0.109856606
253	0xbcf1ac98	-0.029501244
254	0xbdedfe48	-0.11620766
255	0xbc80c47a	-0.015718687

lstm.bias_ih_l0 f4 [256]
0	0x3de2c58a	0.11072834
1	0x3dacf15c	0.08444473
2	0x3d366021	0.04452527
3	0xbdb087cf	-0.086196534
4	0x3e483640	0.19551945
5	0xbc029c3b	-0.007971819
6	0x3e3e8780	0.18606377
7	0x3aae58f8	0.0013301661
8	0x3e7bc159	0.24585475
9	0x3e448a55	0.19193394
10	0xbdf763a1	-0.120795496
11	0x3e629c17	0.22129856
12	0x3d0f6b66	0.035014533
13	0x3df03ca7	0.117303185
14	0x3de29112	0.11062826
15	0x3e1690b5	0.14703639
16	0x3e35176b	0.17684714
17	0x3e202c71	0.15641953
18	0x3e3908e8	0.18069804
19	0xbcd5f5cf	-0.026118187
20	0xbd8dc84f	-0.069229715
21	0x3d38d929	0.045128975
22	0x3dcd04a7	0.10010653
23	0x3dbec93c	0.09315726
24	0x3e0b1f0c	0.13586062
25	0x3e367dfa	0.17821494
26	0x3d693c23	0.056942116
27	0x3d9735c2	0.073833
28	0xbcce0f81	-0.025153877
29	0x3e78dbda	0.24302617
30	0x3e8c9672	0.2745853
31	0xbde2d686	-0.11076073
32	0xbcd728b7	-0.026264532
33	0x3df249a7	0.11830454
34	0x3d25a9c3	0.0404451
35	0xbde01e2b	-0.10943254
36	0x3e232f11	0.15935923
37	0xbdad74a4	-0.08469513
38	0x3c460267	0.012085534
39	0xbda8a10c	-0.08233842
40	0x3dfc7112	0.12326254
41	0xbce504b7	-0.02795635
42	0xbd375df5	-0.04476734
43	0x3f2b13c1	0.6682702
44	0x3d3decf7	0.046368565
45	0x3e88ba51	0.26704648
46	0x3cf44ca6	0.029821705
47	0x3dce2f3a	0.100676015
48	0xbd33e7e0	-0.043922305
49	0x3d8abcfa	0.06774326
50	0xbcda8d32	-0.026678655
51	0xbdee0c57	-0.116234474
52	0xbdf66172	-0.12030305
53	0x3e986ef4	0.2977215
54	0x3db62448	0.08893639
55	0x3d0ce206	0.03439524
56	0x3e3e34ee	0.18574879
57	0xbd4c951f	-0.0499469
58	0x3d4b2696	0.049597345
59	0x3d9f8111	0.07788289
60	0xbce9d82f	-0.028545467
61	0x3df10c3f	0.11769914
62	0xbe781d33	-0.24229889
63	0x3d020664	0.031744376
64	0xbd58714c	-0.052842423
65	0x3e124e9d	0.14287801
66	0xbda2df06	-0.079526946
67	0x3deca3b4	0.115546614
68	0x3d968424	0.073494226
69	0x3db12b5c	0.08650848
70	0x3dbfbb68	0.09361917
71	0x3dd7d84a	0.10539301
72	0x3dac7f78	0.0842275
73	0x3dc0563f	0.0939145
74	0xbe14775c	-0.14498657
75	0x3e0fcc2a	0.14042726
76	0x3d43f8be	0.04784464
77	0x3d8856bd	0.06657169
78	0x3bfca4f4	0.0077100936
79	0xbdb042ab	-0.08606466
80	0x3d6c73cf	0.05772763
81	0xbc9eb0ea	-0.019371469
82	0xbdcc2d54	-0.09969583
83	0xbde7179d	-0.11283801
84	0x3d34a792	0.04410512
85	0x3da79d09	0.08184249
86	0xbddb4ab4	-0.10707608
87	0xbbb9d608	-0.0056712665
88	0x3e51a359	0.20472468
89	0x3df2c445	0.11853842
90	0x3dbdfc2b	0.09276613
91	0x3c8c2deb	0.01711174
92	0x3e4f66b4	0.20254022
93	0x3dae9be3	0.08525827
94	0xbe3163a9	-0.17323174
95	0x3d91fc56	0.071282074
96	0xbd8971cd	-0.06711159
97	0x3d037c72	0.032101102
98	0xbd2ae66e	-0.04172366
99	0x3cad1ad2	0.021130953
100	0x3d11d07e	0.035599224
101	0xbe074b5f	-0.13212346
102	0xbd196b63	-0.037455928
103	0x3b653640	0.0034974962
104	0xbdbe0f1d	-0.092802264
105	0x3b4bb5ea	0.003108377
106	0x3e02f6e4	0.12789494
107	0xbe84f5cb	-0.25968775
108	0xbde6cd36	-0.1126961
109	0x3e4096e5	0.18807562
110	0x3dccc937	0.09999316
111	0x3dd11d3a	0.10210653
112	0x3d89d640	0.06730318
113	0x3c968a0b	0.01837637
114	0xbc2c6aa8	-0.010523476
115	0xbda50081	-0.08056737
116	0xbdd93672	-0.10606088
117	0x3dd12dc0	0.10213804
118	0x3db368b2	0.087602034
119	0x3c44606f	0.011985882
120	0x3dc7b892	0.09752001
121	0x3e0a7073	0.13519458
122	0xbe5505a1	-0.20802929
123	0x3dffed9f	0.124964945
124	0x3cd3d8b5	0.02586017
125	0x3d4236fa	0.04741571
126	0x3da013e2	0.07816292
127	0x3e23b590	0.1598723
128	0x3cecdc4a	0.028913636
129	0x3e47a698	0.19497144
130	0xbda5d089	-0.080964155
131	0xbe545be0	-0.20738173
132	0x3e04b0f6	0.1295813
133	0x3df1d348	0.11807877
134	0xbe45d422	-0.19319203
135	0x3e713890	0.23556733
136	0x3e6d7bdd	0.23191781
137	0x3e05de32	0.13073042
138	0xbda3add6	-0.07992141
139	0xbd1901dc	-0.03735529
140	0x3e48a13a	0.19592753
141	0x3a46a078	0.00075770123
142	0xbd3b31d9	-0.045701835
143	0x3dc9fa3c	0.098621815
144	0x3e6d4625	0.2317129
145	0xbe146617	-0.14492069
146	0x3d87495e	0.066057906
147	0x3d103b42	0.035212763
148	0x3ceb3610	0.028712302
149	0x3e2962ef	0.16541646
150	0xbd93a017	-0.07208269
151	0xbdb05dde	-0.08611654
152	0xbd8a3373	-0.067480944
153	0x3df1fcaa	0.1181577
154	0x3d95050f	0.072763555
155	0x3dc5f0d0	0.09665072
156	0xbd052f66	-0.032515906
157	0xbe97d422	-0.29654032
158	0x3e0a1296	0.13483652
159	0x3c585ae8	0.0132052675
160	0xbe71c64a	-0.23610798
161	0xbe286069	-0.16443028
162	0x3e13be84	0.14428145
163	0x3ccd30e0	0.02504772
164	0x3d14a9d5	0.036294777
165	0xbc0078b4	-0.007841278
166	0xbdba6f05	-0.091032065
167	0x3d981677	0.0742616
168	0x3afdf28e	0.0019374655
169	0xbdb69d92	-0.08916773
170	0xbda94e72	-0.082669154
171	0x3dcdfe85	0.100583114
172	0x3a817196	0.000987577
173	0x3ddb0d86	0.10695939
174	0x3d843609	0.06455619
175	0xbe51843b	-0.20460598
176	0xbc8775b9	-0.016535627
177	0xbcbb2ce4	-0.022848554
178	0x3caa90d1	0.020821007
179	0x3d478fe3	0.048721205
180	0x3e257b34	0.1616028
181	0x3e8cee40	0.2752552
182	0xbd6748f4	-0.056466058
183	0xbe0d6ac8	-0.13810265
184	0xbdddfd87	-0.10839372
185	0x3ca4ff7b	0.020141354
186	0x3e38c8d3	0.18045358
187	0x3d84e515	0.064890064
188	0xbe2c6fbd	-0.168395
189	0xbd6cf256	-0.057848297
190	0xbd722609	-0.059118304
191	0xbe101aa4	-0.14072663
192	0x3ea12f40	0.3148136
193	0xbd176845	-0.036964674
194	0xbce8ff5a	-0.028442074
195	0xbe412de3	-0.1886516
196	0x3e675f1e	0.22594878
197	0x3d9d4dd7	0.076808624
198	0x3dfc187d	0.12309358
199	0xbde18b65	-0.110129155
200	0x3d52adde	0.051435344
201	0xbb92243f	-0.0044598873
202	0x3e1516ed	0.14559527
203	0xbbe6f51e	-0.007048263
204	0x3e3a4d10	0.1819346
205	0xbd564467	-0.052311327
206	0x3dbb1e35	0.09136621
207	0x3dc5c540	0.09656763
208	0x3dc1a6ac	0.09455618
209	0x3ca7366d	0.020411694
210	0x3e51d48d	0.20491238
211	0xbd3ec988	-0.046578914
212	0x3d14c63c	0.036321864
213	0x3d2d75d5	0.0423487
214	0x3d8b7a51	0.068104394
215	0x3d892d2f	0.06698071
216	0x3d2940d5	0.041321594
217	0x3cb92724	0.022601672
218	0x3e48cf9a	0.19610444
219	0x3ccccfbe	0.025001403
220	0x3e051294	0.12995368
221	0x3eadccd6	0.3394534
222	0x3e9f59e7	0.31123278
223	0xbe0d7b07	-0.13816462
224	0x3e233404	0.15937811
225	0xbe0c0d91	-0.1367705
226	0x3df9dae1	0.12199951
227	0xbde08a22	-0.10963847
228	0x3ddd7a9c	0.108144015
229	0x3e1377e9	0.14401211
230	0x3e08337b	0.13300888
231	0x3e9034c6	0.28165263
232	0x3e2c5338	0.1682862
233	0x3b8b30b1	0.004247748
234	0x3db63a8c	0.08897886
235	0x3eee7f9e	0.4658174
236	0x3e19a0f1	0.150028
237	0x3de2f905	0.11082653
238	0xbd3d0605	-0.04614832
239	0x3e186447	0.14882003
240	0x3e0b1a6d	0.135843
241	0x3dff79a9	0.12474377
242	0x3e31c59b	0.17360537
243	0x3d07ffda	0.033202983
244	0x3e6463dd	0.2230372
245	0x3e65d03a	0.22442713
246	0x3e62882d	0.2212226
247	0x3e938d40	0.28818703
248	0x3e27dcf1	0.16392876
249	0x3da3782b	0.079819046
250	0x3d0cd5ac	0.03438346
251	0x3e3eb64c	0.18624228
252	0xbd87bd19	-0.066278644
253	0x3d37188e	0.04470115
254	0xbe53d6dc	-0.20687431
255	0x3e911025	0.2833263

lstm.bias_hh_l0 f4 [256]
0	0x3e43043e	0.19044587
1	0x3d94160b	0.07230767
2	0x3d6e6eff	0.058211323
3	0x3d8e3e05	0.06945423
4	0x3e12ad57	0.14323936
5	0x3d4de3c4	0.050266042
6	0x3c416eb2	0.011806177
7	0x3da8aaaa	0.082356766
8	0x3daec9c4	0.085345775
9	0x3e62c737	0.22146307
10	0x3cd0f2a6	0.025506329
11	0x3e366d59	0.1781515
12	0x3e2e3537	0.17012487
13	0xbc08b29e	-0.008343367
14	0x3de5b3f4	0.11215964
15	0x3e2057a1	0.15658428
16	0x3dd66d69	0.10470087
17	0x3cfa84c6	0.03058089
18	0x3dc9afb6	0.09847967
19	0x3d8f0f9e	0.069854006
20	0xbc997aa7	-0.018735243
21	0x3d907729	0.07053978
22	0x3d1457ca	0.036216535
23	0xbb5b9522	-0.0033505638
24	0x3dfdf583	0.12400343
25	0x3dd0be52	0.10192551
26	0xbca55219	-0.020180749
27	0x3dc828f4	0.09773436
28	0xbd0b6c92	-0.034039088
29	0x3e919162	0.2843123
30	0x3e66f1a6	0.22553119
31	0x3db7c49d	0.08973048
32	0x3de3e892	0.11128344
33	0x3d68029b	0.05664311
34	0x3d5d9baa	0.05410353
35	0xbc4668a3	-0.012109908
36	0x3e6d2427	0.23158322
37	0xbd91ef56	-0.07125728
38	0x3d237551	0.039906804
39	0xbe07f22d	-0.13275976
40	0x3d03294e	0.032021813
41	0xbaa36218	-0.0012465147
42	0x3d84c5ac	0.064830154
43	0x3f16e965	0.5894988
44	0x3de42690	0.11140168
45	0x3e7a9283	0.24469952
46	0x3d82fb44	0.06395581
47	0x3dbd4c8f	0.09243118
48	0xbdc47f16	-0.09594552
49	0xbd71c22d	-0.05902307
50	0xbd8be340	-0.06830454
51	0xbd33cae6	-0.04389467
52	0xbc8f5f83	-0.017501598
53	0x3ef78ecb	0.4835113
54	0xbd4507e6	-0.048103236
55	0x3d879891	0.066208966
56	0x3e2b0063	0.16699366
57	0x3cebdbf9	0.028791415
58	0x3e708074	0.23486501
59	0x3dc59280	0.09647083
60	0x3df6a2d9	0.120427795
61	0x3dd42632	0.10358848
62	0xbe09978a	-0.13436714
63	0x3d29617e	0.04135274
64	0xbd824f03	-0.063627265
65	0x3cb6e017	0.022323651
66	0xbd00753f	-0.031361815
67	0x3e15d7b2	0.14633062
68	0xbd0cf307	-0.034411456
69	0x3deda036	0.116028234
70	0x3d349371	0.044085924
71	0x3e08036d	0.13282557
72	0x3e5c529b	0.21515886
73	0x3bef953e	0.007311492
74	0xbde88dc8	-0.113551676
75	0x3d94bdb2	0.07262744
76	0x39935428	0.00028100726
77	0x3e423c9a	0.1896843
78	0xbdb3a55f	-0.087717764
79	0xbe09806d	-0.13427897
80	0x3da529c9	0.080646105
81	0x3b842e65	0.004033851
82	0xbdc91264	-0.09817961
83	0xbb9e1de0	-0.0048253387
84	0xbb63e1b1	-0.0034771974
85	0x3dbece67	0.09316712
86	0xbc4e9535	-0.012608816
87	0x3dc72a5d	0.09724877
88	0x3ce5b594	0.028040685
89	0x3d914438	0.0709309
90	0x3dd6ee9c	0.1049473
91	0xbda92510	-0.08259022
92	0x3e3eefd6	0.18646178
93	0x3d74bd06	0.05975058
94	0xbcd84c67	-0.026403619
95	0x3e20c7d3	0.15701227
96	0xbdecffcd	-0.115722276
97	0xbe141495	-0.14460976
98	0x3d466453	0.04843552
99	0xbbfcab50	-0.0077108517
100	0xbdffdef6	-0.12493698
101	0x3bba8620	0.0056922585
102	0xbe00a3f6	-0.12562546
103	0xbd96e9a7	-0.073687844
104	0xbd59d63b	-0.05318282
105	0xbc411369	-0.011784413
106	0x3dbfbaf1	0.09361828
107	0xbe75c5ad	-0.24001189
108	0xbc926c9b	-0.017874053
109	0x3d5e4258	0.05426249
110	0x3c6ead0c	0.014567625
111	0xbd3603a7	-0.044437077
112	0x3d06a729	0.03287426
113	0xba030786	-0.00049983745
114	0x3d3e03de	0.046390407
115	0xbbc346c3	-0.005959363
116	0xbc3c15fc	-0.011479851
117	0x3d6757f9	0.05648038
118	0xbd11394a	-0.035455026
119	0xbc84bb57	-0.016202612
120	0x3dacd247	0.08438545
121	0xbd965263	-0.07339933
122	0x3c8ae89c	0.01695662
123	0xbc5e47de	-0.013566939
124	0x3db94160	0.090456724
125	0x3ddd14e7	0.107950024
126	0xbd8147b5	-0.06312505
127	0x3ddd5f97	0.10809248
128	0xbdca7001	-0.09884644
129	0x3df1a80f	0.11799633
130	0xbe1cdc4a	-0.15318409
131	0xbe4708d1	-0.19436957
132	0x3e29760c	0.16548938
133	0xbd73cb3f	-0.059520002
134	0xbe0ccd45	-0.13750179
135	0x3e58f540	0.21187305
136	0x3db69562	0.08915211
137	0x3d2dd11b	0.042435747
138	0xbd4cbfd9	-0.049987648
139	0xbdfe56a5	-0.1241887
140	0x3c59b2b5	0.013287236
141	0xbd5d1f6c	-0.053985044
142	0x3de21912	0.11039938
143	0x3e386072	0.18005541
144	0x3e7865f5	0.24257644
145	0xbe00d378	-0.12580669
146	0xbc382eea	-0.011241654
147	0xbdde1243	-0.10843327
148	0xbe068cfb	-0.13139717
149	0x3e495fa4	0.1966539
150	0x3dc18109	0.0944844
151	0xbd5cf0c8	-0.053940564
152	0x39b77fe4	0.00034999766
153	0x3e66fc4a	0.22557178
154	0x3d959d16	0.073053524
155	0x3e0f176b	0.13973777
156	0xbca240a5	-0.019806216
157	0xbe141935	-0.1446274
158	0xbcfd2578	-0.030901656
159	0x3c95cb35	0.018285373
160	0xbdfa5cf8	-0.12224764
161	0xbe5741df	-0.21021222
162	0x3e11fe65	0.142572
163	0xbd530702	-0.051520355
164	0x3e25ce4d	0.16191979
165	0x3debed6f	0.11519896
166	0xbd9e1dff	-0.07720565
167	0xbdabcfc1	-0.08389235
168	0xbcbb0ade	-0.02283233
169	0xbe0f21a7	-0.13977681
170	0xbdc5122c	-0.09622607
171	0x3dc7c2c6	0.09753947
172	0xbd113a81	-0.035456184
173	0x3e115f03	0.141964
174	0x3d5284aa	0.05139605
175	0x3caafeb0	0.020873398
176	0x3dcb80f9	0.09936709
177	0xbd824570	-0.063609004
178	0x3d96c5b7	0.0736193
179	0xbce9fc05	-0.028562555
180	0x3e38132a	0.1797606
181	0x3e84c54f	0.25931785
182	0xbe626c1a	-0.2211155
183	0xbe00d4a4	-0.12581116
184	0x3d2ffa80	0.042963505
185	0x3c7b8e61	0.01535377
186	0x3d1089eb	0.03528778
187	0x3dc80216	0.09766023
188	0xbdce85fb	-0.100841485
189	0xbd026528	-0.03183475
190	0xbd8edd5a	-0.06975813
191	0xbc076013	-0.008262652
192	0x3ea2cfe2	0.31799227
193	0x3ddeacc9	0.108728
194	0xbdba594a	-0.09099062
195	0xbd1c480e	-0.038154654
196	0x3e53ce42	0.2068415
197	0x3d742d9d	0.059613813
198	0x3ea5d598	0.32389522
199	0xbd54f88f	-0.051994856
200	0x3dc05e88	0.093930304
201	0xbcc7a5dc	-0.02437108
202	0x3d687774	0.056754544
203	0xbd9af795	-0.07566754
204	0x3e0a2a99	0.13492812
205	0x3de61a50	0.112354875
206	0x3d8e4cd6	0.06948249
207	0x3d0400bb	0.03222726
208	0x3d9d8800	0.076919556
209	0x3e270781	0.16311456
210	0x3e8363c7	0.25662062
211	0x3dcb8dc6	0.099391505
212	0x3b900b9e	0.004395916
213	0xbc49bf43	-0.012313667
214	0x3e4cb6e1	0.19991638
215	0x3e16f8b6	0.14743313
216	0x3d6ceaaa	0.05784098
217	0xbd3fe9a8	-0.04685369
218	0x3e405fd6	0.18786559
219	0x3db7c726	0.089735314
220	0xbd4bda73	-0.049768876
221	0x3e58feeb	0.21190993
222	0x3e7b6fec	0.24554414
223	0xbd149e60	-0.03628385
224	0x3de68177	0.11255162
225	0xbb0b0d4b	-0.002121764
226	0x3d0f5042	0.03498865
227	0xbc059013	-0.008152026
228	0x3db7da2c	0.0897716
229	0x3cec114e	0.028816845
230	0x3e16a3d6	0.14710936
231	0x3e9094b5	0.28238454
232	0x3d8fda30	0.07024038
233	0xbcf01ed5	-0.029311577
234	0xbd72f569	-0.059316073
235	0x3ec4fc68	0.3847382
236	0x3e074dc0	0.13213253
237	0x3cf601d4	0.030030169
238	0xbe16142d	-0.14656134
239	0x3e8ab650	0.27092218
240	0x3d9dcaac	0.07704672
241	0x3bb905da	0.0056464495
242	0x3dd61e59	0.10455007
243	0x3e1526d3	0.14565592
244	0x3d5fe62d	0.054662872
245	0x3e3801e9	0.17969479
246	0x3d563143	0.052293073
247	0x3e738183	0.23779874
248	0x3e370833	0.17874222
249	0xbc81a24a	-0.015824456
250	0xbc386577	-0.01125466
251	0x3e064a63	0.13114314
252	0xbcb63427	-0.022241665
253	0x3e03cf6a	0.12872091
254	0xbbdddbd9	-0.0067705926
255	0x3e61615b	0.22009794

lstm.weight_ih_l1 f4 [256, 64]
0	0xbc9b3fa8	-0.018951252
1	0xbdb78674	-0.08961192
2	0xbd99c914	-0.07509056
3	0xbdba64f6	-0.09101288
4	0x3d87779f	0.06614613
5	0xbd5c4ae6	-0.053782366
6	0xbd65549d	-0.055988897
7	0xbbd909d5	-0.0066234865
8	0x3c020258	0.007935129
9	0x3e3ed257	0.18634926
10	0xbd4d48e2	-0.050118335
11	0xbd82ffd9	-0.06396455
12	0xbe12be4e	-0.14330408
13	0xbd37c037	-0.044861045
14	0x3d096070	0.033539236
15	0x3cab2ebe	0.020896312
16	0xbc5ef713	-0.013608712
17	0x3c5acdda	0.013354743
18	0xbd77d9d0	-0.060510457
19	0x3e234040	0.15942478
20	0x3cee2ae0	0.029073179
21	0x3dfd3b1d	0.123647906
22	0x3da44369	0.0802067
23	0x3e16ec16	0.14738497
24	0x3cc0b90f	0.023525743
25	0x3d0f881e	0.03504192
26	0xbe1aa5d0	-0.15102315
27	0xbb0a177f	-0.0021071134
28	0xbe0fc536	-0.14040074
29	0xbdb64489	-0.08899791
30	0x3dd9c33c	0.10632941
31	0xbde92284	-0.113835365
32	0xbde25206	-0.11050801
33	0x3d7301e7	0.059327986
34	0xbd862776	-0.06550495
35	0x3d233e3c	0.039854273
36	0x3d89b371	0.06723679
37	0xbdfd37d4	-0.12364164
38	0xbdc97931	-0.098375686
39	0xbd03b404	-0.0321541
40	0x3c43ff8b	0.011962782
41	0xbe23562f	-0.15950845
42	0x3dc45ca9	0.09587986
43	0xbe7f5316	-0.24934039
44	0x3d270d91	0.040784422
45	0x3d8a632e	0.06757198
46	0x3db6e82a	0.089310005
47	0x3d9ddb3f	0.077078335
48	0x3d7cef23	0.061751496
49	0xbe0dffb7	-0.13867079
50	0xbc8771d8	-0.016533777
51	0x3dc61981	0.09672833
52	0xbc55c962	-0.013048502
53	0x3dd34d35	0.103174604
54	0xbd8082d6	-0.06274955
55	0x3d594d94	0.0530525
56	0x3d6c4e96	0.057692133
57	0xbc30838c	-0.010773551
58	0xbe00f45f	-0.1259322
59	0x3cf6773a	0.030086149
60	0xbdb5c0fd	-0.088747
61	0xbd915355	-0.070959724
62	0xbe8c38df	-0.2738714
63	0xbe136037	-0.14392172
64	0xbe058b52	-0.13041428
65	0xbb22c76e	-0.0024838108
66	0x3d55d2a4	0.052202836
67	0xbd3cd34e	-0.046099953
68	0xbcb1bd0c	-0.02169659
69	0xbd48d201	-0.0490284
70	0xbb4361c7	-0.0029812919
71	0xbd836346	-0.06415419
72	0x3c6e6262	0.0145498235
73	0x3e118b20	0.14213228
74	0x3e2104b6	0.15724453
75	0x3d4806ea	0.04883472
76	0x3dde2871	0.10847557
77	0xbdb37b1e	-0.08763717
78	0xbd0103cb	-0.031497758
79	0x3e97beda	0.29637796
80	0xbd8fbe99	-0.070187755
81	0x3dc7ed89	0.09762103
82	0x3d874b43	0.06606152
83	0xbc6589f6	-0.014009943
84	0xbd5eae3b	-0.054365378
85	0x3dd08d48	0.10183197
86	0x3d8f33dd	0.06992314
87	0x3e16297c	0.14664263
88	0x3e1bd632	0.15218428
89	0x3dd169c6	0.10225253
90	0xbe7e4f17	-0.24834858
91	0xbdb62a6d	-0.08894811
92	0x3e045ec5	0.12926777
93	0xbd0f1f21	-0.034941796
94	0x3d217209	0.039415393
95	0x3847cad6	4.7634203e-05
96	0xbe52e07d	-0.20593448
97	0x3e16a306	0.14710626
98	0xbd205147	-0.039140012
99	0x3d939147	0.07205444
100	0x3c8a86b3	0.016909933
101	0x3dddb80d	0.108261205
102	0x3da49759	0.0803668
103	0x3e72f136	0.23724827
104	0xbddd4950	-0.10804999
105	0xbdb95f14	-0.09051338
106	0x3d5aa8bf	0.053383585
107	0xbdff9847	-0.124802165
108	0xbc9b828b	-0.018983146
109	0x3dc2cfc3	0.09512284
110	0x3c931dd5	0.017958561
111	0xbc842073	-0.016128754
112	0xbbc9a81e	-0.0061540743
113	0xbdbe5315	-0.092931904
114	0x3e59f66c	0.21285409
115	0xbd99e271	-0.075138934
116	0x3dd8350c	0.10556993
117	0xbc6dbd8e	-0.014510525
118	0xbd32bc8b	-0.04363684
119	0x3de68534	0.11255875
120	0xbe1ee991	-0.15518786
121	0x3d06a663	0.032873522
122	0xbd97611c	-0.07391569
123	0xbe39fb0b	-0.18162172
124	0xbca6c386	-0.020356905
125	0x3d74df4d	0.05978327
126	0xbc590d9d	-0.013247875
127	0xbe146e16	-0.1449512
128	0x3d2166e4	0.039404765
129	0xbe80d00a	-0.2515872
130	0x3c5b1c91	0.01337351
131	0xbe1a7f01	-0.1508751
132	0x3e09b306	0.13447198
133	0x3e00330d	0.12519474
134	0xbbdb99c7	-0.0067016813
135	0x3d33c382	0.043887623
136	0x3d04f837	0.03246328
137	0x3f128a3c	0.5724218
138	0x3c98d81c	0.018657736
139	0x3d9a7abb	0.0754294
140	0xbe439456	-0.19099554
141	0xbcf9d42c	-0.03049668
142	0xbe21d13d	-0.15802474
143	0x3f5b051b	0.85554665
144	0x3e0bebfc	0.1366424
145	0x3c643981	0.013929726
146	0xbcd595c0	-0.026072383
147	0x3dd01623	0.10160472
148	0xba74f211	-0.0009343932
149	0x3ca5020a	0.020142574
150	0xbcc6b517	-0.024256272
151	0x3e036589	0.12831701
152	0x3e01f364	0.12690502
153	0x3e35ce46	0.17754468
154	0xbe78768c	-0.24263972
155	0xbdf90ac5	-0.12160257
156	0x3cdd2c07	0.026998533
157	0x3df15110	0.117830396
158	0x3d027564	0.031850234
159	0xbcf686ab	-0.030093512
160	0xbe420a63	-0.18949275
161	0xbd652d76	-0.055951558
162	0xbdce5a01	-0.10075761
163	0xbd043ad5	-0.03228267
164	0xbdbfd13b	-0.093660794
165	0xbe976526	-0.29569358
166	0xbd6fc500	-0.058537483
167	0xbe70f30b	-0.23530214
168	0x3d4c6aab	0.049906414
169	0x3d428e12	0.04749877
170	0xbbfdfa16	-0.00775076
171	0x3e1a5c79	0.15074338
172	0x3eada304	0.33913434
173	0xbbca64b7	-0.006176557
174	0xbd1cd9ff	-0.038293835
175	0xbe0ecfa0	-0.1394639
176	0x3d3522ab	0.044222515
177	0xbe2950ad	-0.16534682
178	0x3cb02640	0.021502614
179	0xbe1bb527	-0.15205823
180	0xbde91eba	-0.11382814
181	0x3dcf9058	0.10134953
182	0xbcb1062e	-0.021609392
183	0x3dfbc2f3	0.12293043
184	0xbdbdd725	-0.09269551
185	0xba579f5b	-0.0008225345
186	0xbd015065	-0.03157081
187	0xbe9014c4	-0.28140843
188	0x3dff978a	0.12480076
189	0x3de8a7bc	0.11360118
190	0xbe8805f6	-0.26567048
191	0xbe10d79b	-0.14144747
192	0x3e320573	0.17384891
193	0x3da193bf	0.078895085
194	0xbe1303d2	-0.14356926
195	0xbcd44bc2	-0.02591503
196	0x3e71902c	0.23590153
197	0x3d36eaf8	0.044657677
198	0x3dade5b2	0.084910765
199	0x3db405c3	0.087901615
200	0xbd892644	-0.06696752
201	0x3e0f7266	0.14008483
202	0xbe91d2b9	-0.2848108
203	0xbd92175a	-0.0713336
204	0x3e0b49f2	0.13602427
205	0x3ab8cac1	0.0014098511
206	0x3c6b28bf	0.014352976
207	0x3deb362e	0.11484943
208	0x3ce92dea	0.028464276
209	0x3c09ba00	0.008406162
210	0xbd6e162a	-0.058126606
211	0x3cb43e7c	0.022002451
212	0xbe1f7295	-0.15571053
213	0x3da6eba2	0.08150412
214	0xbe0cf616	-0.1376575
215	0x3c861083	0.016365295
216	0x3e332f15	0.17498429
217	0x3b52cbcf	0.0032164936
218	0x3e34569b	0.17611162
219	0xbe2822bb	-0.16419499
220	0x3cfaa7cf	0.030597595
221	0xbea6da58	-0.32588458
222	0x3d98da3a	0.074634984
223	0x3da7ae7a	0.08187576
224	0xbc8cca0c	-0.017186187
225	0xbe236a01	-0.15958406
226	0xbdf35125	-0.118807115
227	0xbd5e82a9	-0.054323826
228	0xbd68cf2c	-0.0568382
229	0xbd0e0b64	-0.03467883
230	0x3d069e95	0.03286608
231	0xbde0d7b5	-0.10978643
232	0x3c619f93	0.013770956
233	0x3e0a04a1	0.13478328
234	0xbe2f139d	-0.17097326
235	0xbeebdcdf	-0.4606695
236	0xbdcfe722	-0.10151507
237	0x3d6979e1	0.057001
238	0x3e001f44	0.12511927
239	0x3d8e4fa7	0.06948786
240	0xbe1098bc	-0.14120764
241	0xbe2abed2	-0.16674355
242	0x3b9cf56a	0.004789998
243	0xbe1b6f74	-0.15179235
244	0xbdf8be93	-0.12145724
245	0x3cb39a61	0.0219242
246	0xbdab0da7	-0.08352213
247	0xbe4b74d0	-0.19868779
248	0xbd559da6	-0.0521523
249	0xbcac679d	-0.0210455
250	0x3ae8eaca	0.0017770168
251	0x3cda445a	0.02664392
252	0xbd0e6efa	-0.034773804
253	0x3d8daa01	0.06917191
254	0xbdf4174e	-0.119185075
255	0xbdf8d2d3	-0.121495865

lstm.weight_hh_l1 f4 [256, 64]
0	0x3d8c3376	0.06845753
1	0xbd393fd9	-0.045226905
2	0x3e057dd6	0.13036284
3	0x3de7b0b2	0.11312999
4	0x3d0fced5	0.03510936
5	0x3cfd4f2d	0.030921543
6	0xbd2b69bf	-0.041848894
7	0xbe3f784e	-0.18698236
8	0xbd83d77e	-0.06437586
9	0x3c33494e	0.01094277
10	0xbd980bc9	-0.07424123
11	0xbe1232ce	-0.14277193
12	0xbd994f57	-0.07485836
13	0x3d83f6c5	0.06443552
14	0x3d349f70	0.044097364
15	0xbecc80fc	-0.39942157
16	0x3de2e08f	0.110779874
17	0xbd391d53	-0.04519398
18	0xbc462c9e	-0.0120955985
19	0xbe377fb9	-0.17919816
20	0xbd137056	-0.035995804
21	0x3e37a913	0.1793559
22	0xbc82b78d	-0.015956664
23	0x3cedf7ce	0.029048827
24	0xbdd7b4ad	-0.10532508
25	0x3d82bd6a	0.06383784
26	0xbd216662	-0.03940428
27	0x3d06561d	0.032796968
28	0xbd7dd718	-0.061972708
29	0xbdbc9d2e	-0.09209667
30	0x3dccfdf3	0.100093745
31	0xbdaecd20	-0.08535218
32	0xbc18d871	-0.009328947
33	0xbd965952	-0.07341255
34	0xbe23cffc	-0.15997308
35	0xbe814a3e	-0.25251955
36	0x3bcef6f1	0.006316059
37	0xbd1cc525	-0.03827395
38	0x3da9e648	0.08295876
39	0x3e2ca30b	0.16859071
40	0x3adca3c4	0.0016833474
41	0x3db006ba	0.08595033
42	0xbc2df098	-0.010616444
43	0x3d96a9c4	0.07356599
44	0x3d9f8714	0.07789436
45	0xbe2b277e	-0.16714284
46	0x3d40afd1	0.04704267
47	0x3e05100e	0.12994406
48	0x3bb67a3d	0.005568771
49	0xbd79fb76	-0.061030827
50	0x3dc91a0b	0.098194204
51	0x3cf0aaaf	0.029378263
52	0xbd5fd821	-0.054649476
53	0x3c9c7b60	0.019101799
54	0x3dcfb255	0.10141436
55	0x3d2fd92d	0.042931724
56	0xbc3c8683	-0.0115066795
57	0x3cb07004	0.021537788
58	0x3cb2f5f9	0.021845805
59	0x3c6b5cfb	0.01436543
60	0x3d958017	0.07299822
61	0xbd08265f	-0.03323972
62	0xbe3b159d	-0.18269964
63	0x3d58de84	0.052946582
64	0xbe437ade	-0.19089839
65	0x3d9195d2	0.07108654
66	0x3e21a729	0.15786423
67	0xbd4b6b2a	-0.049662746
68	0xbe86be05	-0.26316848
69	0x3d86fa13	0.065906666
70	0xbc6a540a	-0.014302263
71	0xbdd75327	-0.10513907
72	0xbd97acff	-0.07406043
73	0xbd2f60c5	-0.042816896
74	0x3c4d9640	0.012548029
75	0xbd1e11ee	-0.038591318
76	0xbd650982	-0.05591727
77	0xbe0df970	-0.13864684
78	0x3e981463	0.29703054
79	0x3df3371d	0.118757464
80	0x3dde1b0f	0.10845005
81	0xbe27bd12	-0.16380718
82	0x3d5241a4	0.05133213
83	0xbe0469f6	-0.12931046
84	0xbd635d93	-0.05550916
85	0xbd0c1c45	-0.034206647
86	0xbda530aa	-0.080659226
87	0xbdaea0b5	-0.08526746
88	0xbe53d932	-0.20688322
89	0xbe101210	-0.1406939
90	0xbe5f6d6b	-0.21819083
91	0xbe2cb873	-0.16867237
92	0xbc7ac1ad	-0.015304965
93	0xbcaf0667	-0.021365358
94	0xbcd8727c	-0.026421778
95	0x3d29f5e5	0.04149427
96	0x3d4be493	0.049778532
97	0xbb030235	-0.001999033
98	0x3bfa875a	0.0076455297
99	0xbd6e1e98	-0.058134645
100	0x3cd018fc	0.025402538
101	0xbe2318c1	-0.15927412
102	0xbd1bdc6c	-0.038052008
103	0xbc924993	-0.017857349
104	0xbd4449a4	-0.04792179
105	0xbd68922d	-0.05678003
106	0xbc966964	-0.018360801
107	0x3dbc570b	0.0919629
108	0x3d02e87b	0.031959992
109	0xbe1fe046	-0.15612897
110	0x3dc798e0	0.097459555
111	0x3e39a0c1	0.18127729
112	0xbe0bcbfe	-0.13652036
113	0x3e20464a	0.15651813
114	0x3e32acc9	0.17448725
115	0x3d8253ac	0.063636154
116	0xbdb60fb9	-0.088897176
117	0x3e03b4b1	0.12861897
118	0x3db79289	0.08963496
119	0xbdd5765a	-0.104229644
120	0x3bad6650	0.0052917376
121	0xbd6db4e5	-0.058033843
122	0x3d9c464f	0.07630598
123	0xbe018dcd	-0.12651749
124	0x3d0473c5	0.03233697
125	0x3e173ab3	0.14768486
126	0x3d658027	0.05603042
127	0xbdc7240f	-0.097236745
128	0xbe367898	-0.1781944
129	0x3bab246b	0.005222847
130	0x3e3fc850	0.18728757
131	0x3eb2c455	0.34915414
132	0xbe62f158	-0.22162378
133	0x3e8e2172	0.27759892
134	0xbdb41b77	-0.08794301
135	0xbe20d4c3	-0.15706162
136	0xbea08c26	-0.31356925
137	0x3e144d34	0.14482576
138	0x3c8a8e0c	0.016913436
139	0xbe47c87b	-0.19510071
140	0x3e0e2815	0.13882478
141	0x3ce9dd0c	0.028547786
142	0x3d5c2d75	0.05375429
143	0x3e3603e4	0.17774922
144	0x3ea0511c	0.31311882
145	0xbe0bf8ad	-0.13669081
146	0x3c9b08e0	0.01892513
147	0xbf05ef6f	-0.5231847
148	0xbe2b51e2	-0.16730455
149	0x3e9361ee	0.28785652
150	0xbce3127b	-0.027718773
151	0x3e0d317c	0.13788408
152	0xbe9482c9	-0.2900603
153	0xbe304c39	-0.17216577
154	0x3d3eef20	0.046614766
155	0xbd92875f	-0.07154726
156	0xbe1919e6	-0.14951286
157	0x3b88ce5d	0.004174991
158	0x3e6cd706	0.231289
159	0xbe52beb4	-0.2058056
160	0xbde23d40	-0.11046839
161	0x3dc1cbc6	0.09462695
162	0xbe247876	-0.16061577
163	0xbd56e59f	-0.052465077
164	0xbdf2e6f5	-0.11860458
165	0xbeb17714	-0.34661162
166	0xbdc60b8b	-0.096701704
167	0xbe49671b	-0.19668238
168	0x3d42b03d	0.047531355
169	0x3c36d70a	0.011159668
170	0x3db6b3c9	0.0892101
171	0x3dc4a50a	0.09601791
172	0x3e9e0fb9	0.3087137
173	0xbc911d79	-0.017714249
174	0x3e0a9553	0.13533525
175	0x3e94a7ac	0.29034173
176	0xbea774d3	-0.32706317
177	0x3e508436	0.20362934
178	0x3d2dbf19	0.042418573
179	0x3e9d488f	0.3071942
180	0xbea4ca23	-0.32185468
181	0x3bd00206	0.0063478975
182	0x3e9418bf	0.2892513
183	0xbe227cc8	-0.15867913
184	0xbd876176	-0.06610386
185	0x3d995e3c	0.07488677
186	0xbdde8a92	-0.10866274
187	0xbe58f0ca	-0.21185604
188	0x3e309029	0.17242493
189	0x3bdef272	0.006803804
190	0x3c084856	0.0083180275
191	0xbe229b33	-0.15879516
192	0x3e0f4aa8	0.13993323
193	0x3e3f7cda	0.18699971
194	0x3c0985b9	0.008393698
195	0xbe230063	-0.15918116
196	0xbd5d11d0	-0.053972065
197	0x3db7d759	0.08976621
198	0xbe118e92	-0.14214543
199	0xbd0d1971	-0.03444809
200	0x3cf7aa8d	0.030232692
201	0xbcb07b2b	-0.021543106
202	0xbc1eba01	-0.0096879015
203	0xbdc57e02	-0.09643175
204	0x3e14b7f3	0.14523296
205	0x3b95afeb	0.00456809
206	0xbd805dc8	-0.06267887
207	0xbe88db26	-0.26729697
208	0xbe0be4dd	-0.13661523
209	0xbe192f54	-0.1495946
210	0xbd8c63db	-0.068549834
211	0xbe36aa57	-0.17838417
212	0x3e6a68c9	0.22891535
213	0xbe1af3d7	-0.1513208
214	0x3d21671e	0.03940498
215	0x3bad9085	0.005296769
216	0x3d8b6650	0.06806624
217	0xbddcb093	-0.10775866
218	0xbdc7d87d	-0.09758089
219	0x3d825ef5	0.06365768
220	0xbccce170	-0.02500984
221	0xbdc76b4f	-0.09737264
222	0x3cbeacc3	0.023275739
223	0x3d8ee157	0.06976574
224	0xbcfffea1	-0.031249346
225	0xbdde3fb0	-0.10851991
226	0x3d985113	0.07437339
227	0x3d80c24c	0.06287059
228	0xbd465497	-0.048420515
229	0x3b42902c	0.0029687984
230	0xbd76372c	-0.06011121
231	0x3e6c6235	0.23084338
232	0x3d870eae	0.06594597
233	0xbe3377d9	-0.17526187
234	0x3da90fc2	0.08254959
235	0x3d456632	0.048193164
236	0x3da8a8ab	0.08235296
237	0x3ce65c88	0.028120294
238	0x3de5155e	0.11185716
239	0x3dd0a3f4	0.101875216
240	0xbdf18c4a	-0.11794336
241	0xbdfce7de	-0.12348913
242	0xbdf44e71	-0.11929024
243	0x3ce3375f	0.027736364
244	0x3e80ecf7	0.2518079
245	0x3ddbaaf7	0.10725968
246	0xbbb6b0d3	-0.0055752783
247	0x3cd80678	0.026370272
248	0xbe196fd3	-0.14984064
249	0xbe0bdee3	-0.13659243
250	0x3d5345d2	0.051580258
251	0xbcb15c47	-0.021650447
252	0xbd46f695	-0.048575003
253	0xbe5d32b5	-0.21601374
254	0xbe1ab162	-0.15106729
255	0x3d0f9629	0.035055313

lstm.bias_ih_l1 f4 [256]
0	0xbd8f96c6	-0.070111796
1	0xbcdf19e7	-0.02723403
2	0xbddd58a8	-0.108079255
3	0x3d6d4521	0.057927255
4	0xbcbc78c8	-0.023006812
5	0x3d44201a	0.047882177
6	0x3dd78bf3	0.1052474
7	0xbc038ce2	-0.008029195
8	0x3cbe9294	0.023263253
9	0xbdb25a35	-0.08708612
10	0xbd564789	-0.052314315
11	0xbd8fa17c	-0.070132226
12	0xbdabc030	-0.08386266
13	0xbd9a2726	-0.07526998
14	0x3de45664	0.1114929
15	0xbdc8695d	-0.097857215
16	0xbc3cc3c4	-0.011521284
17	0xbd540f1a	-0.051772214
18	0xbcc22632	-0.023699854
19	0x3d874ed9	0.06606836
20	0x3d75d28c	0.060015246
21	0xbbcc4afb	-0.0062345243
22	0xbd1e91a1	-0.0387131
23	0xbd997a2e	-0.07494007
24	0x3c4ae57d	0.012383816
25	0xbd72c488	-0.059269458
26	0x3e46aced	0.19401903
27	0x3e10da6c	0.14145821
28	0xbd40a928	-0.04703632
29	0xbca059f2	-0.01957414
30	0xbd8dd57e	-0.06925486
31	0x3d7bd64d	0.06148367
32	0x3d3e8ea5	0.046522755
33	0x3b848c23	0.004045026
34	0x3d865a90	0.06560242
35	0x3cfe7b81	0.03106475
36	0x3d531af9	0.051539395
37	0x3c83a1fb	0.01606845
38	0x3d495969	0.049157534
39	0x3c3bb3a6	0.011456406
40	0xbd007b68	-0.03136769
41	0x3d0ce46b	0.034397524
42	0x3c8eb93b	0.01742231
43	0xbd83d28a	-0.064366415
44	0x3dc0599a	0.0939209
45	0xbddac45f	-0.10681986
46	0xbb8e3ec0	-0.0043409765
47	0x3da561a4	0.08075264
48	0x3ce58974	0.028019644
49	0xbd43e110	-0.04782206
50	0xbcf99812	-0.03046802
51	0x3dc56d94	0.09640041
52	0x3d41b358	0.047290176
53	0xbdd5090c	-0.10402116
54	0x3dac9586	0.08426957
55	0x3d44f2f4	0.04808326
56	0x3e4c31b3	0.19940834
57	0xbc5c1e85	-0.013435011
58	0x3daa3ebf	0.08312749
59	0xbb543bf9	-0.003238438
60	0x3e35840e	0.17726156
61	0x3d87af36	0.06625216
62	0x3e8f322b	0.27967963
63	0x3d405242	0.046953447
64	0xbd8aee6b	-0.06783756
65	0x3cd58987	0.026066555
66	0x3d8fa0de	0.07013105
67	0xbd35a13f	-0.04434323
68	0xbdb5c20f	-0.08874904
69	0x3d8afed7	0.06786888
70	0x3c093c94	0.008376259
71	0x3de9902a	0.1140445
72	0xbd021209	-0.03175548
73	0x3db58fa1	0.08865286
74	0x3d84cfc4	0.06484941
75	0xbd8a0542	-0.06739284
76	0x3d5efbb7	0.054439273
77	0xbbc19855	-0.005908052
78	0x3dd8b53a	0.10581441
79	0x3dd7cc31	0.10536993
80	0x3d2ed2d7	0.04268154
81	0x3e062ef3	0.13103847
82	0x3d3b7171	0.045762483
83	0xbd8f2ac2	-0.06990577
84	0x3d250275	0.040285546
85	0x3dfc4fac	0.12319884
86	0x3e07e87b	0.13272278
87	0x3d219549	0.03944901
88	0x3e138067	0.1440445
89	0x3e026cab	0.12736766
90	0xbd1d39ad	-0.038385082
91	0x3b184344	0.0023233453
92	0x3dfd08fa	0.12355228
93	0x3dd804c0	0.10547781
94	0x3ca76530	0.020433992
95	0x3d610904	0.05494024
96	0x3e06c205	0.1315995
97	0x3dcc0a1b	0.09962865
98	0x3e0f86d4	0.14016277
99	0x3caec29e	0.021333035
100	0x3b9e0350	0.004822172
101	0xbcb158d9	-0.021648811
102	0x3dec262f	0.115307204
103	0xbd2f388d	-0.04277854
104	0x3cec3df7	0.02883814
105	0x3d426529	0.047459755
106	0xbdc982a9	-0.098393746
107	0xbd4b596e	-0.049645834
108	0xbbc1efdb	-0.0059184856
109	0xbd8f9b7c	-0.07012078
110	0xbaeeebf9	-0.0018228284
111	0x3d6395eb	0.055562895
112	0x3d280530	0.041020572
113	0x3cf44a7e	0.029820677
114	0xbdc14ae9	-0.09438116
115	0x3deb4673	0.114880465
116	0x3d971609	0.0737725
117	0xbcaef059	-0.021354841
118	0xbd6a23eb	-0.05716316
119	0xbddcc540	-0.1077981
120	0xbce638a6	-0.028103184
121	0x3d967ba1	0.07347799
122	0xbd5c97e3	-0.053855788
123	0xbcdb9ca8	-0.026808098
124	0x3cde355a	0.02712505
125	0x3d4bde5a	0.049772598
126	0xbba54e94	-0.0050447676
127	0x3daede29	0.085384674
128	0x3cb83937	0.02248822
129	0xbd843995	-0.064562954
130	0xbc375c8b	-0.011191498
131	0x3d7335a0	0.059377313
132	0x3d35bf29	0.044371758
133	0xb9eafff2	-0.00044822652
134	0xbdd0a180	-0.10187054
135	0xbda14c82	-0.07875921
136	0xbd922ed9	-0.07137842
137	0x3d7e3b35	0.062068183
138	0xbd0b0970	-0.033944547
139	0x3df1bfb0	0.118041396
140	0xbde846c8	-0.113416255
141	0x3d75d4e5	0.060017485
142	0xbdaf9e93	-0.085751675
143	0x3c1a98cf	0.0094358465
144	0xbdb3cbd9	-0.08779115
145	0xbb5d5abc	-0.0033776006
146	0xbd144da6	-0.036206864
147	0xbcb9eea8	-0.022696808
148	0x3d8dbcb8	0.06920761
149	0x3d1c870d	0.038214732
150	0x3d1ef494	0.038807467
151	0xbd341d87	-0.043973472
152	0x3d770aba	0.060312964
153	0x3dd682c1	0.10474158
154	0x3ddd0538	0.10792011
155	0x3d59c75b	0.053168636
156	0xbd78653f	-0.06064343
157	0x3df096ad	0.11747489
158	0x3e0727ae	0.1319873
159	0xbdc4608e	-0.09588729
160	0x3caf13e1	0.021371784
161	0xbe02bbd6	-0.12766966
162	0xbd99b0d1	-0.07504428
163	0x3e0cc922	0.13748601
164	0xbdbd6dbd	-0.092494465
165	0xbc03d994	-0.00804748
166	0x3d755e7f	0.05990457
167	0xbaa96357	-0.0012923282
168	0x3cfea4c1	0.03108442
169	0xbe1bcd2a	-0.15214983
170	0x3d3b68f0	0.045754373
171	0x3cdb1ce1	0.026747169
172	0xbe04d696	-0.12972483
173	0xbdb36546	-0.08759551
174	0xbbde86a6	-0.0067909537
175	0xbcd981b6	-0.026551109
176	0x3d20db4e	0.039271645
177	0x3d2da5e6	0.04239454
178	0xbe0b606f	-0.13611005
179	0xbd0b8cea	-0.034069933
180	0x3e073d18	0.13206899
181	0x3be175e5	0.006880509
182	0xbd9188c8	-0.07106167
183	0x3d4986b4	0.04920073
184	0x3dadc2a6	0.08484392
185	0xbc3d505f	-0.0115548065
186	0xbc90d769	-0.01768084
187	0xbcf35f3b	-0.029708495
188	0x3dc07c98	0.09398764
189	0xbd320b70	-0.04346794
190	0x3d93c2b4	0.07214871
191	0xbda09e84	-0.078427345
192	0x3e222c6c	0.15837258
193	0x3d40f0fc	0.04710482
194	0x3da1b13a	0.078951314
195	0xbcd2570f	-0.025676278
196	0x3e03f1a5	0.12885149
197	0xbc81f31d	-0.015862996
198	0xbd3b85e6	-0.045781992
199	0xbd9ee28b	-0.077580534
200	0xbcb4d95d	-0.022076303
201	0x3e1eb82d	0.15499945
202	0x3c1d8bc3	0.009615841
203	0x3dd2883e	0.102798924
204	0xbe1e7f7a	-0.15478316
205	0x3e604e83	0.2190495
206	0x3d05fcf7	0.03271195
207	0xbd319727	-0.04335704
208	0x3d9b79df	0.075916044
209	0x3df3473f	0.118788235
210	0x3d955c8e	0.07293044
211	0x3d8a9628	0.06766921
212	0x3de38d4e	0.11110936
213	0x3d9c0b40	0.07619333
214	0x3a56e37b	0.00081973494
215	0x3e30b3dc	0.17256111
216	0x3bc80ad6	0.0061048074
217	0x3e227536	0.15865025
218	0x3e295939	0.16537942
219	0x3e2a61d0	0.16638875
220	0x3daaf27f	0.08347034
221	0xbd588612	-0.052862234
222	0x3e39e585	0.18153961
223	0x3d1cd6f5	0.038290936
224	0x3d90915f	0.07058977
225	0x3defb0e1	0.11703659
226	0x3df86515	0.12128655
227	0x3c2ab1d8	0.010418378
228	0x3dc8ecec	0.09810814
229	0x3df2016f	0.1181668
230	0x3e5b96f2	0.214443
231	0xbccb22fc	-0.024796955
232	0x3dbde566	0.0927227
233	0x3e16b5ca	0.14717785
234	0xbd3c78ba	-0.04601357
235	0x3d7c7225	0.061632294
236	0xbda3bfcc	-0.07995567
237	0x3ae1153e	0.0017172468
238	0xbd823516	-0.063577816
239	0x3d926562	0.071482435
240	0x3c3104b1	0.010804341
241	0x3e755e47	0.23961745
242	0x3e31cd5c	0.17363495
243	0x3e31a1b0	0.17346835
244	0xbdec25b6	-0.1153063
245	0x3c2f61fc	0.010704514
246	0xbda6f82e	-0.08152805
247	0x3d019d51	0.03164417
248	0x3ddaa1e3	0.10675409
249	0x3d596516	0.05307492
250	0xbe00d436	-0.12580952
251	0x3d23149d	0.03981458
252	0xbccab7ee	-0.024745908
253	0x3b2a1929	0.0025954938
254	0x3de556fd	0.11198232
255	0xbc3b9c68	-0.011450864
