LogAnomaly/result/deeplog/deeplog_epoch278.pth (torch_old, 643782 bytes, 30 tensors)

lstm.weight_ih_l0 f4 [256, 1]
0	0xbe4e7613	-0.20162229
1	0xbc842de4	-0.016135164
2	0xbd7cc2e9	-0.06170932
3	0x3dafcde5	0.08584193
4	0xbe0b6cc2	-0.13615707
5	0x3d3db7aa	0.046317734
6	0xbdd25330	-0.10269773
7	0x3d8eb374	0.06967822
8	0x3e36a413	0.17836027
9	0x3da90b42	0.082541004
10	0x3e2ab0bb	0.1666898
11	0xbdaab58c	-0.083354086
12	0x3dc5e07e	0.09661959
13	0x3e052a0d	0.13004322
14	0xbda670c7	-0.08126979
15	0x3e85028e	0.25978512
16	0x3d973fbb	0.073852025
17	0x3d5f4c01	0.054515842
18	0xbe19c9f8	-0.15018451
19	0x3e1aa7f4	0.15103132
20	0x3e2a6993	0.16641836
21	0x3d9fa89b	0.07795831
22	0x3d6ceebf	0.057844874
23	0xbd73229d	-0.05935918
24	0x3e4df48d	0.2011282
25	0xbd85305d	-0.06503365
26	0xbc9cc64f	-0.01913753
27	0x3d92b7f3	0.07163992
28	0x3d98779a	0.07444687
29	0xbe0fc6e8	-0.1404072
30	0x3df6aeb1	0.120450385
31	0x3c5aeff2	0.0133628715
32	0x3dfe7a2f	0.124256484
33	0x3dcc507f	0.09976291
34	0x3ca63625	0.02028949
35	0x3d3d13fa	0.04616163
36	0x3e5bd08e	0.21466276
37	0x3c2aadba	0.010417396
38	0x3e0957fe	0.13412473
39	0xbe11563b	-0.1419305
40	0x3b5c7d54	0.0033644037
41	0xbe0ce230	-0.13758159
42	0x3e049822	0.12948659
43	0x3ecef506	0.40421313
44	0xbdff5b3d	-0.12468574
45	0x3ddecf6a	0.10879405
46	0x3e14817e	0.14502522
47	0xbe4f1b1b	-0.20225184
48	0x3e489df7	0.19591509
49	0x3e2026b1	0.1563976
50	0x3ebaa231	0.36451867
51	0x3db53861	0.08848644
52	0x3d7fdf2d	0.062468696
53	0x3ea8caf1	0.32967332
54	0x3df59255	0.11990801
55	0xbd6e44a2	-0.058170922
56	0xbe332902	-0.17496112
57	0x3cc4b4ea	0.024012048
58	0x3de7ee13	0.11324706
59	0x3d26587c	0.04061173
60	0x3d36e9b0	0.044656456
61	0x3e11aa3b	0.14225094
62	0x3dd07644	0.101788074
63	0xbe1c4b8d	-0.15263195
64	0xbd81a044	-0.06329396
65	0x3d3997ed	0.045310903
66	0x3df050e0	0.11734176
67	0xbd2dc7f3	-0.042427015
68	0xbdb94d3a	-0.09047933
69	0x3d615e72	0.05502171
70	0x3dd6404f	0.10461485
71	0x3d5e4030	0.054260433
72	0xbd2a08bd	-0.04151224
73	0x3e972854	0.29522955
74	0x3e2c6182	0.16834071
75	0xbe03a122	-0.12854436
76	0xbc9b2f45	-0.018943438
77	0x3da4bcd4	0.080438286
78	0x3e3179b0	0.17331576
79	0x3e86e73d	0.26348296
80	0x3cf83361	0.030297937
81	0x3e0b954e	0.13631174
82	0xbdf037d5	-0.11729399
83	0x3d0fa86a	0.03507272
84	0x3b78732c	0.0037910445
85	0x3e69d3a1	0.22834636
86	0x3e0bb236	0.13642201
87	0xbd5e5b71	-0.054286424
88	0x3c60657f	0.013696074
89	0x3d99b5ae	0.07505356
90	0xbf2a3179	-0.6648174
91	0x3d9d322e	0.07675587
92	0xbd84641c	-0.06464407
93	0xbe8509cb	-0.25984034
94	0x3e6302be	0.22169015
95	0x3c68e8cb	0.014215658
96	0xbce0a9a5	-0.027424643
97	0x3e1f730d	0.15571232
98	0x3de30244	0.110844165
99	0x3dd0a0f8	0.10186952
100	0x3d8cab82	0.0686865
101	0x3e486c7d	0.19572635
102	0x3de14ca0	0.11000943
103	0x3d121a3c	0.03566955
104	0x3e16d884	0.14731032
105	0x3e76d0a0	0.24103022
106	0x3e36fd37	0.17870031
107	0x3d7dc246	0.06195285
108	0xbe04203a	-0.12902918
109	0xbd030cac	-0.031994507
110	0x3d67d387	0.056598213
111	0xbde90449	-0.113777705
112	0x3da11669	0.078656025
113	0x3dd89f83	0.105772994
114	0x3e9f996b	0.31171736
115	0x3e7e4b7f	0.24833487
116	0x3d4fec9f	0.05076277
117	0x3ccc0e09	0.024909036
118	0x3e27eb10	0.16398263
119	0xbce3edeb	-0.027823409
120	0xbe38f220	-0.18061113
121	0x3e362d74	0.17790776
122	0x3ef184db	0.47171673
123	0xbd0b9a67	-0.034082796
124	0x3d22fa2d	0.039789367
125	0x3d54dab7	0.051966395
126	0xbdb1d3a5	-0.08682946
127	0xbe1c15d0	-0.15242696
128	0x3ee7be6f	0.45262477
129	0xbe0a7e56	-0.13524756
130	0x3daca670	0.08430183
131	0x3d032ad2	0.03202326
132	0x3e81c419	0.25344923
133	0xbe36647e	-0.17811772
134	0xbd4bb16d	-0.049729753
135	0x3e1a45c4	0.15065676
136	0x3e3142e8	0.17310679
137	0xbd340190	-0.043946803
138	0xbd845ebc	-0.06463382
139	0x3e6a4cdf	0.22880886
140	0xbe778c6e	-0.24174663
141	0x3e2d9891	0.1695273
142	0xbe280d3f	-0.16411303
143	0xbdc43898	-0.09581107
144	0x3e66edb7	0.22551619
145	0xbe9cdf4d	-0.30639115
146	0xbe86808c	-0.26269948
147	0x3e5b7ef9	0.21435155
148	0x3e38e9a1	0.18057872
149	0xbd153fb0	-0.03643769
150	0xbe1cf43c	-0.15327543
151	0x3e4d5312	0.2005122
152	0x3dc9a363	0.09845617
153	0x3ea3bdb4	0.3198067
154	0xbeee13fa	-0.46499616
155	0x3ca7d554	0.020487465
156	0x3cdc3455	0.026880423
157	0xbe3d4452	-0.18483093
158	0x3f709e6d	0.9399174
159	0x3a13f2dd	0.00056437944
160	0x3effa79e	0.4993257
161	0x3cd17ecc	0.025573157
162	0x3daffc28	0.08593017
163	0xbce3c0ce	-0.027801897
164	0xbea17b50	-0.31539392
165	0xbe55680d	-0.20840473
166	0xbe9eaa79	-0.30989435
167	0xbe40a0c6	-0.1881133
168	0x3e4ec3ee	0.20191929
169	0x3d5d5bd1	0.05404264
170	0xbe03fd2f	-0.1288955
171	0xbfd7328a	-1.6812298
172	0x3ebfddbd	0.3747386
173	0x3e9dd29a	0.3082474
174	0x3d87362d	0.0660213
175	0x3f01df44	0.507313
176	0xbdf9720e	-0.12179957
177	0xbe1bb25a	-0.15204754
178	0xbe185a7c	-0.14878267
179	0xbd1518a6	-0.03640046
180	0xbed375c8	-0.41300797
181	0x3ef31e53	0.47484073
182	0x3d128483	0.035770904
183	0x3e30005d	0.17187639
184	0xbebf72c8	-0.3739226
185	0x3d9c9d13	0.07647147
186	0x3d50bed6	0.050963245
187	0xbd9fa1bc	-0.0779452
188	0x3e0ac5b8	0.13551986
189	0xbda3dc88	-0.080010474
190	0x3da81085	0.08206276
191	0xbeb41221	-0.3517008
192	0x3e412e67	0.18865357
193	0xbc699840	-0.014257491
194	0x3e23035d	0.15919252
195	0x3eaaa6c4	0.33330357
196	0x3e3ad017	0.18243442
197	0x3da03eef	0.07824504
198	0x3e385c8d	0.18004055
199	0x3e681e48	0.22667801
200	0x3d40dda3	0.04708637
201	0x3e9a4ff7	0.30139133
202	0x3d9cbb25	0.076528825
203	0x3e698527	0.228047
204	0x3e840b91	0.25790074
205	0x3e1c0bf8	0.1523894
206	0x3e6dfd37	0.23241125
207	0x3e9c0640	0.30473518
208	0xbdbc5451	-0.091957696
209	0x3d0b2411	0.033969942
210	0x3ea432b0	0.32069921
211	0x3e4eb823	0.2018743
212	0x3e9d1500	0.30680084
213	0x3e73e4b3	0.2381771
214	0xbe571f3a	-0.21008006
215	0xbe36379c	-0.17794651
216	0xbe3586c8	-0.17727196
217	0x3d4b0d3f	0.04957318
218	0x3aec17c1	0.001801245
219	0x3de5423e	0.11194275
220	0xbcb6eb88	-0.022329107
221	0xbeadd5a8	-0.3395207
222	0x3e15f9d3	0.14646082
223	0x3e908952	0.28229767
224	0xbde2b4d1	-0.11069644
225	0x3eaf602a	0.34253055
226	0x3da9cdec	0.082912296
227	0x3ea28a83	0.317463
228	0xbdbe41e5	-0.09289912
229	0xbe67b7bc	-0.22628683
230	0x3db11048	0.086456835
231	0xbe999f50	-0.30004358
232	0xbe5bc260	-0.21460867
233	0x3e9159f5	0.28388944
234	0x3e4c9cc0	0.1998167
235	0xbe98520c	-0.29750097
236	0x3e89cee3	0.26915655
237	0x3c955796	0.01823024
238	0x3e5cfb0b	0.2158014
239	0xbe2c4eff	-0.1682701
240	0xbe42097c	-0.1894893
241	0xbdfa4cce	-0.122216806
242	0x3e005a35	0.12534411
243	0xbe60efe7	-0.21966515
244	0x3da06345	0.07831434
245	0xbdc4b147	-0.096041255
246	0x3d7e902f	0.062149223
247	0x3db2b25f	0.08725428
248	0x3e3284d6	0.17433485
249	0xbe624b3b	-0.2209901
250	0x3e9307d5	0.28716913
251	0xbe0f86d6	-0.1401628
252	0x3de1b338	0.110205114
253	0x3e2341a2	0.15943006
254	0x3e6fbb26	0.23411235
255	0x3e0c83de	0.13722178

lstm.weight_hh_l0 f4 [256, 64]
0	0x3e6ce0b3	0.23132591
1	0xbe1e2642	-0.15444282
2	0x3d1038ce	0.035210423
3	0x3d8fafe5	0.07015971
4	0x3e807289	0.25087383
5	0xbde8ab4b	-0.113607965
6	0xbd56f64a	-0.052480973
7	0x3da7fdeb	0.08202728
8	0x3e2c09da	0.16800633
9	0x3e03cc7c	0.12870973
10	0xbc0cb6cb	-0.008588503
11	0xbe308844	-0.17239481
12	0xbe4765e8	-0.19472468
13	0x3dcaf115	0.09909264
14	0xbdf98cc9	-0.12185056
15	0x3e88238a	0.26589614
16	0x3e514dad	0.20439787
17	0xbd441f1b	-0.047881227
18	0x3d293e15	0.04131897
19	0x3e1836eb	0.148647
20	0xbda0381f	-0.07823204
21	0x3db6f6cc	0.089337915
22	0xbd811258	-0.06302327
23	0x3e3ea5dd	0.1861796
24	0x3e8e100d	0.2774662
25	0x3e6d7dcb	0.23192517
26	0x3dc115a8	0.09427959
27	0x3db3d90b	0.08781632
28	0x3dad2c74	0.084557444
29	0xbea1a35e	-0.31569952
30	0x3d705791	0.05867726
31	0x3e051c7a	0.12999144
32	0x3d44c576	0.048039876
33	0x3d8d69c8	0.06904942
34	0x3da920b4	0.08258191
35	0xbe2ad3d6	-0.16682371
36	0xbd2bf47d	-0.04198121
37	0xbe5301bc	-0.2060613
38	0xbde4c269	-0.11169893
39	0xbea246c0	-0.31694603
40	0x3da5a14f	0.08087408
41	0xbdfa61bd	-0.12225673
42	0x3db82aac	0.08992514
43	0xbddf0126	-0.10888891
44	0x3d4ece93	0.050489973
45	0x3e328457	0.17433296
46	0x3d1e30fa	0.038620926
47	0x3e832d60	0.25620556
48	0xbe98786e	-0.2977938
49	0xbdbd4dba	-0.09243341
50	0x3e31c4f3	0.17360286
51	0xbead4607	-0.3384249
52	0x3d692cd0	0.056927502
53	0x3e47170b	0.19442384
54	0x3de64a28	0.11244613
55	0xbcb170e3	-0.021660274
56	0xbdd20cf7	-0.10256379
57	0x3ec19e2f	0.37815997
58	0xbcfd59e3	-0.03092665
59	0xbdee7810	-0.11643994
60	0x3e07ef7f	0.13274954
61	0xbd40380d	-0.046928454
62	0xbe194b8b	-0.14970224
63	0xbd9c9f40	-0.07647562
64	0xbd401e7d	-0.046904076
65	0xbdb522ce	-0.08844529
66	0x3e9d0dbe	0.30674547
67	0x3e8195c2	0.2530957
68	0x3e1be941	0.15225698
69	0xbe381cf2	-0.17979792
70	0x3db8ab61	0.09017063
71	0x3dabff69	0.08398325
72	0x3e1cb934	0.15305024
73	0x3db81958	0.08989209
74	0xbe032fb0	-0.1281116
75	0x3da41c9c	0.08013269
76	0xbe5aee4c	-0.21379966
77	0x3e3bd824	0.1834417
78	0xbe05abd7	-0.13053833
79	0xbeaa3e92	-0.33250862
80	0x3e5ff7d8	0.21871889
81	0xbd18d523	-0.037312638
82	0xbe09c101	-0.13452531
83	0x3e5b6481	0.21425058
84	0x3df0168c	0.117230505
85	0xbdce334c	-0.10068378
86	0xbe237393	-0.15962057
87	0x3d3c4990	0.045968592
88	0x3ec6ba92	0.38814217
89	0x3db8eee2	0.09029938
90	0xbdadb6ed	-0.08482156
91	0x3decb0e8	0.1155718
92	0x3e6a3424	0.22871453
93	0xbbf3aa89	-0.007436101
94	0x3d23d684	0.0399995
95	0x3e3858e2	0.18002656
96	0x3ca801f3	0.020508742
97	0x3e31cb71	0.17362763
98	0x3d874255	0.06604449
99	0xbdfc014b	-0.12304934
100	0xbcda5d61	-0.026655855
101	0xbe423f7f	-0.18969534
102	0xbe1d27bd	-0.1534719
103	0x3d8b471e	0.06800674
104	0x3e426968	0.18985522
105	0xbd737911	-0.05944163
106	0xbded3902	-0.11583139
107	0x3dc38f34	0.09548798
108	0x3c5179ae	0.012785358
109	0x3e2126da	0.15737477
110	0x3e5bc6f5	0.21462615
111	0xbde4df7c	-0.11175439
112	0xbe7bf955	-0.24606831
113	0xbe0683f6	-0.13136277
114	0xbd1b41ca	-0.03790454
115	0xbe6fccf4	-0.23418027
116	0x3cb4cc7f	0.022070168
117	0xbcc44556	-0.023958843
118	0x3e8c2d1c	0.27378166
119	0x3e1994f0	0.14998221
120	0xbd425a32	-0.0474493
121	0x3eb9188b	0.36151537
122	0x3d512fe3	0.05107106
123	0xbe3591f5	-0.1773146
124	0x3e167d81	0.14696313
125	0xbe2ad06b	-0.16681068
126	0x3d9b2641	0.07575656
127	0xbdb3ab8a	-0.08772953
128	0x3dfe97e5	0.12431315
129	0x3d9e4910	0.07728779
130	0x3de70aca	0.11281355
131	0x3e6c75a1	0.23091747
132	0x3e2126c5	0.15737446
133	0xbe8a457b	-0.27006134
134	0xbe7c4893	-0.2463706
135	0x3e607ecb	0.21923368
136	0x3e5b87c8	0.21438515
137	0xbce92c57	-0.028463526
138	0xbd97d70a	-0.07414062
139	0x3de87e0f	0.11352169
140	0xbdb18a87	-0.08669
141	0x3d82b9cc	0.06383094
142	0xbe0fd538	-0.1404618
143	0x3dbb4823	0.09144618
144	0x3e1975b6	0.1498631
145	0xbe6bfbdc	-0.23045295
146	0xbc9c54ce	-0.019083407
147	0x3e5b5f13	0.21422987
148	0x3d551c39	0.05202887
149	0x3d84bdea	0.06481536
150	0xbd7b852a	-0.061406292
151	0x3df92b43	0.12166455
152	0x3e478c0f	0.19487022
153	0x3db25cc0	0.08709097
154	0xbcd1532c	-0.025552355
155	0x3e957355	0.29189554
156	0xbcfe0769	-0.031009393
157	0xbec9ff35	-0.3945252
158	0x3df50bb1	0.119651206
159	0x3d903e00	0.070430756
160	0xbdcf24d6	-0.10114448
161	0x3e05016e	0.12988827
162	0x3e4e3972	0.20139101
163	0xbe02aa37	-0.12760244
164	0x3c06c145	0.00822479
165	0xbe1e6305	-0.1546746
166	0xbd3ab78e	-0.045585208
167	0xbec5e100	-0.38648224
168	0x3e307ae1	0.17234375
169	0xbe17e578	-0.14833629
170	0xbd30f0fb	-0.043198567
171	0xbd7f5d59	-0.062344883
172	0x3d8daa50	0.0691725
173	0x3dafc671	0.085827716
174	0x3e82029c	0.25392616
175	0x3c2362c4	0.009972278
176	0xbd3e7f74	-0.046508268
177	0x3c1557e2	0.009115191
178	0xbe15ff22	-0.14648107
179	0x3d40c0e5	0.04705896
180	0x3c83417f	0.016022442
181	0x3da3f2bb	0.080052815
182	0x3d2d45ed	0.042303015
183	0x3e81bd6b	0.25339827
184	0xbd2a9751	-0.041648213
185	0x3e6bd442	0.23030189
186	0xbc3c2053	-0.011482316
187	0xbf0c4afe	-0.5480193
188	0xbc45d944	-0.012075726
189	0xbe097cc1	-0.13426496
190	0x3da058a8	0.0782941
191	0xbe95a2d1	-0.29225782
192	0x3d87793a	0.06614919
193	0xbe660ae4	-0.22465092
194	0xbcd5fa85	-0.026120434
195	0x3d2383eb	0.03992073
196	0x3d303f6a	0.043029226
197	0x3da8b57f	0.08237743
198	0x3bf29599	0.0074030873
199	0xbdd3a844	-0.103348285
200	0xbd83a3bb	-0.064277135
201	0xbc9d144f	-0.019174723
202	0x3d30ef5f	0.043197032
203	0x3dd9747d	0.106179215
204	0xbc2dbbe8	-0.010603882
205	0x3cf639c9	0.030056851
206	0x3d899bf0	0.06719196
207	0x3dcb7517	0.099344425
208	0x3ad5d05f	0.001631271
209	0xbdb1e802	-0.0868683
210	0xbe15edda	-0.14641514
211	0x3cfa0def	0.030524222
212	0x3d52e7a4	0.05149044
213	0x3ca64c22	0.020299975
214	0xbe662691	-0.2247565
215	0x3e93dbda	0.2887867
216	0xbd521906	-0.051293395
217	0x3e0baac2	0.13639358
218	0x3ce2a909	0.027668493
219	0x3db33af9	0.087514825
220	0x3df52091	0.11969102
221	0xbe79187c	-0.24325746
222	0xbccfae49	-0.02535166
223	0xbbc27f23	-0.005935566
224	0x3da40deb	0.08010467
225	0xbd18eda9	-0.037336025
226	0x3e0451cd	0.1292183
227	0x3d23deff	0.040007588
228	0xbd5d1ad1	-0.053980652
229	0xbe4f5937	-0.20248877
230	0xbde68b66	-0.11257057
231	0xbe58dfb7	-0.2117909
232	0xbd4ac0bc	-0.049500212
233	0x3d3aef6c	0.045638487
234	0xbde31989	-0.11088855
235	0xbce60e60	-0.028083026
236	0x3e6be78b	0.23037545
237	0xbd3c9d95	-0.04604872
238	0xbe206fb7	-0.15667616
239	0x3ea7a4af	0.3274283
240	0x3abf8c58	0.0014613969
241	0x3b431056	0.0029764376
242	0x3d99df5a	0.07513304
243	0xbe044672	-0.12917498
244	0xbdb9f7a9	-0.090804406
245	0x3d983195	0.07431332
246	0x3d21fa26	0.0395452
247	0x3e0264a5	0.12733705
248	0xbdb9699f	-0.09053349
249	0x3e081e21	0.13292743
250	0x3dd7d34a	0.10538347
251	0xbdc50fe7	-0.09622174
252	0x3ddf3a28	0.10899764
253	0xbceb46e9	-0.028720336
254	0xbdef7583	-0.116923355
255	0xbc7fc831	-0.015611694

lstm.bias_ih_l0 f4 [256]
0	0x3de58b41	0.11208201
1	0x3dacc421	0.08435846
2	0x3d34ba53	0.044123005
3	0xbdad1969	-0.08452112
4	0x3e49006e	0.1962907
5	0xbc13a498	-0.00901141
6	0x3e3eda7a	0.1863803
7	0x3b6caced	0.0036113814
8	0x3e7e6cbf	0.24846171
9	0x3e42d2ad	0.19025679
10	0xbdf7bf92	-0.12097086
11	0x3e6382ff	0.2221794
12	0x3d0dd83c	0.034630045
13	0x3df49403	0.119422935
14	0x3de2cf43	0.11074688
15	0x3e1439b7	0.14475141
16	0x3e370213	0.17871885
17	0x3e2122c4	0.15735918
18	0x3e3bcf5b	0.18340819
19	0xbcc9482b	-0.024570545
20	0xbd918995	-0.0710632
21	0x3d329bce	0.04360562
22	0x3dcebc11	0.100944646
23	0x3dbe25a9	0.09284527
24	0x3e0b8a8f	0.13627075
25	0x3e359ead	0.17736311
26	0x3d647c21	0.05578244
27	0x3d969367	0.073523335
28	0xbcb1d5fa	-0.021708477
29	0x3e79d862	0.2439895
30	0x3e8d4b1a	0.2759636
31	0xbde50e68	-0.111843884
32	0xbce107a0	-0.027469456
33	0x3df60fe5	0.120147504
34	0x3d25b2ad	0.0404536
35	0xbde0579c	-0.1095421
36	0x3e23f2b5	0.16010554
37	0xbdaee245	-0.08539251
38	0x3c2d662f	0.0105834445
39	0xbdaadd89	-0.08343036
40	0x3dfbfbe7	0.12303906
41	0xbce1aba6	-0.027547669
42	0xbd3d7b62	-0.046260245
43	0x3f2ad932	0.66737664
44	0x3d412ce6	0.04716196
45	0x3e88feb7	0.26756832
46	0x3ceac09f	0.028656302
47	0x3dcf07a1	0.10108877
48	0xbd2e5565	-0.042561907
49	0x3d8bd4e8	0.06827718
50	0xbcd60527	-0.026125504
51	0xbdf8cfe3	-0.12149026
52	0xbdf8bf62	-0.121458784
53	0x3e98ea03	0.29866037
54	0x3db75ae9	0.089528866
55	0x3d128ae8	0.035777003
56	0x3e3fd85a	0.18734875
57	0xbd4dd976	-0.050256215
58	0x3d580bc1	0.052745584
59	0x3da14df4	0.078761965
60	0xbce39c44	-0.027784474
61	0x3defe08b	0.1171275
62	0xbe79088f	-0.24319671
63	0x3cfd11f2	0.030892346
64	0xbd5a3635	-0.053274352
65	0x3e13b285	0.14423569
66	0xbda479b9	-0.08031029
67	0x3ded20d2	0.115785256
68	0x3d975694	0.0738956
69	0x3daf6b70	0.08565414
70	0x3dbadd73	0.09124269
71	0x3dd7c00f	0.10534679
72	0x3daf6acf	0.08565294
73	0x3dbea263	0.093083166
74	0xbe15b5d1	-0.14620139
75	0x3e0e95ef	0.13924383
76	0x3d39c2a5	0.045351643
77	0x3d8805f8	0.066417634
78	0x3c0dd237	0.008656076
79	0xbdb5cf99	-0.08877487
80	0x3d68e12a	0.05685536
81	0xbc93da71	-0.018048497
82	0xbdca088c	-0.098649114
83	0xbde7db79	-0.11321158
84	0x3d37ce29	0.044874344
85	0x3da3f5af	0.08005845
86	0xbde151da	-0.1100194
87	0xbbb44ff2	-0.0055026943
88	0x3e4f0a7b	0.20218842
89	0x3df57e0f	0.119869344
90	0x3dc0f046	0.094208285
91	0x3c840ade	0.016118463
92	0x3e52cf10	0.205868
93	0x3db24289	0.08704097
94	0xbe30d72c	-0.17269582
95	0x3d8b19e9	0.06792051
96	0xbd8995a1	-0.067179926
97	0x3ce4f245	0.027947554
98	0xbd228fb1	-0.039687816
99	0x3cad2f83	0.02114082
100	0x3d0c4ce5	0.03425302
101	0xbe08ece2	-0.13371614
102	0xbd1e4762	-0.038642295
103	0x3b6f81f5	0.0036545966
104	0xbdbf4941	-0.09340144
105	0x3b61feaa	0.0034484067
106	0x3e024eb9	0.12725343
107	0xbe85928c	-0.2608837
108	0xbde96b40	-0.113974094
109	0x3e40a564	0.18813092
110	0x3dcbec0e	0.09957133
111	0x3dce548d	0.100747205
112	0x3d8c374b	0.06846484
113	0x3c9b6f90	0.018974096
114	0xbc2d5fef	-0.010581954
115	0xbdab9c83	-0.083794616
116	0xbddf6f73	-0.10909929
117	0x3dd2839a	0.10279007
118	0x3db0a0d6	0.08624427
119	0x3c49b53e	0.012311278
120	0x3dc873eb	0.097877346
121	0x3e0aabbb	0.13542072
122	0xbe568dca	-0.20952526
123	0x3dfb399c	0.122668475
124	0x3cd9d0fd	0.026588911
125	0x3d43d5b2	0.047811218
126	0x3d9fefef	0.078094356
127	0x3e24d010	0.16094995
128	0x3cdea4b2	0.027178142
129	0x3e4aa355	0.19788869
130	0xbda798b4	-0.08183423
131	0xbe55c9a1	-0.20877697
132	0x3e040ef4	0.12896329
133	0x3df4d728	0.119551
134	0xbe4699c2	-0.19394591
135	0x3e737279	0.23774137
136	0x3e6ef0f5	0.23334105
137	0x3e059c1b	0.13047831
138	0xbda352ba	-0.07974763
139	0xbd15cdd2	-0.03657324
140	0x3e4b0066	0.1982437
141	0xb95680b7	-0.0002045658
142	0xbd3ae1ec	-0.045625612
143	0x3dc9bf0c	0.098508924
144	0x3e6c45d7	0.23073517
145	0xbe13f2e8	-0.1444813
146	0x3d89951e	0.06717895
147	0x3d0ec4f6	0.034855805
148	0x3ce7d53b	0.028299918
149	0x3e2a25b3	0.16615944
150	0xbd93c199	-0.0721466
151	0xbdb1b6dd	-0.086774565
152	0xbd8f4d31	-0.06997145
153	0x3df0b356	0.117529556
154	0x3d997927	0.07493811
155	0x3dc96da1	0.09835363
156	0xbd05768e	-0.032583766
157	0xbe951172	-0.29114872
158	0x3e095ceb	0.13414352
159	0x3c3b9fec	0.011451703
160	0xbe73bec5	-0.23803242
161	0xbe29a768	-0.16567767
162	0x3e133e30	0.14379191
163	0x3cca7cfb	0.024717798
164	0x3d13a463	0.036045443
165	0xbbcb80ee	-0.006210438
166	0xbdb683a8	-0.0891183
167	0x3d9a0e23	0.075222276
168	0x3a50ef11	0.0007970194
169	0xbdb5fdec	-0.088863224
170	0xbda8ab6b	-0.082358204
171	0x3dd1e54e	0.102488145
172	0xb915b6f9	-0.0001427791
173	0x3dcec9bb	0.10097071
174	0x3d83e503	0.06440165
175	0xbe528ef3	-0.20562343
176	0xbc638505	-0.013886695
177	0xbcaa76ff	-0.020808695
178	0x3cb0b460	0.021570385
179	0x3d4fcfb5	0.050735194
180	0x3e273a2d	0.16330786
181	0x3e8dd028	0.27697873
182	0xbd71bbeb	-0.059017103
183	0xbe0da9cd	-0.13834305
184	0xbddf29b2	-0.108966246
185	0x3c9d6baa	0.019216377
186	0x3e398af5	0.18119414
187	0x3d8855df	0.066570036
188	0xbe2ec027	-0.17065488
189	0xbd709a7a	-0.05874107
190	0xbd6fa9c9	-0.05851153
191	0xbe100bfc	-0.14067072
192	0x3ea1c1a7	0.31593058
193	0xbd1a5dbb	-0.037687045
194	0xbce15d32	-0.02751026
195	0xbe40690a	-0.18790069
196	0x3e6593c4	0.2241965
197	0x3d9f9e94	0.07793918
198	0x3dfd6654	0.12373033
199	0xbddf92ab	-0.109166466
200	0x3d5649fc	0.05231665
201	0xbbbb00e2	-0.0057068923
202	0x3e1611c2	0.14655212
203	0xbbb7672d	-0.0055970163
204	0x3e3a4b8f	0.18192886
205	0xbd4f4990	-0.050607264
206	0x3dba2cd8	0.090905845
207	0x3dc5f86c	0.09666523
208	0x3dc32c80	0.09529972
209	0x3cab5400	0.020914078
210	0x3e52ab2b	0.20573108
211	0xbd40422e	-0.046938114
212	0x3d1986c0	0.037482023
213	0x3d2e54d6	0.042561375
214	0x3d904bcd	0.07045708
215	0x3d8d7f0e	0.069089994
216	0x3d2dad1e	0.042401426
217	0x3cb0bef6	0.021575432
218	0x3e48bd53	0.19603471
219	0x3cd08974	0.025456168
220	0x3e07583b	0.13217251
221	0x3eaee77d	0.34160987
222	0x3ea04234	0.3130051
223	0xbe0dc0c2	-0.13843063
224	0x3e238d37	0.15971838
225	0xbe0a539f	-0.13508461
226	0x3dfc2594	0.12311855
227	0xbde00115	-0.109377064
228	0x3dde7deb	0.10863861
229	0x3e141fc0	0.14465237
230	0x3e0a1d56	0.13487753
231	0x3e910cb9	0.2833002
232	0x3e2d3ff9	0.16918935
233	0x3b6bb621	0.0035966712
234	0x3db74a0d	0.08949671
235	0x3eefca9b	0.46834263
236	0x3e18a0af	0.14905046
237	0x3de5b32e	0.112158164
238	0xbd3f62bc	-0.04672502
239	0x3e1928ee	0.1495702
240	0x3e0bae54	0.1364072
241	0x3e016c76	0.12639031
242	0x3e328697	0.17434154
243	0x3d0cec11	0.034404818
244	0x3e64e2bc	0.22352117
245	0x3e67049e	0.22560355
246	0x3e60f077	0.2196673
247	0x3e955c46	0.29171962
248	0x3e2787c2	0.16360381
249	0x3da46cd7	0.08028572
250	0x3d10a9f6	0.035318337
251	0x3e3ff9b0	0.18747592
252	0xbd855c2b	-0.0651172
253	0x3d37cc88	0.04487279
254	0xbe5706df	-0.20998715
255	0x3e910959	0.28327444

lstm.bias_hh_l0 f4 [256]
0	0x3e44673a	0.19180003
1	0x3d93e8c1	0.07222129
2	0x3d6cc8e3	0.057808768
3	0x3d91aca4	0.07113007
4	0x3e13777e	0.14401051
5	0x3d49a1a7	0.04922643
6	0x3c469f30	0.012122914
7	0x3dad564b	0.08463725
8	0x3db42069	0.08795244
9	0x3e610f74	0.21978551
10	0x3ccf8350	0.02533117
11	0x3e37544b	0.17903249
12	0x3e2dd022	0.16973928
13	0xbbcbf2d0	-0.006224014
14	0x3de5f239	0.11227841
15	0x3e1e0069	0.15429844
16	0x3dda428b	0.10657223
17	0x3d011b21	0.031520013
18	0x3dcf3cff	0.10119056
19	0x3d923ab6	0.071401045
20	0xbca87fc8	-0.020568743
21	0x3d8d58ac	0.069016784
22	0x3d17c5c9	0.037053857
23	0xbb701200	-0.0036631823
24	0x3dfeccb7	0.1244139
25	0x3dceffb9	0.10107369
26	0xbcaed257	-0.021340532
27	0x3dc78661	0.097424276
28	0xbcfaa0a9	-0.030594187
29	0x3e920fb4	0.28527606
30	0x3e685add	0.22690912
31	0x3db58c7e	0.088646874
32	0x3de17099	0.110078044
33	0x3d6f8f24	0.05848612
34	0x3d5da403	0.054111492
35	0xbc483591	-0.0122198025
36	0x3e6de798	0.23232877
37	0xbd935cec	-0.07195458
38	0x3d1d4cf5	0.03840347
39	0xbe091065	-0.1338516
40	0x3d023ede	0.031798236
41	0xba5bd0cc	-0.00083853
42	0x3d81b715	0.06333748
43	0x3f16aed1	0.588605
44	0x3de5c670	0.112194896
45	0x3e7b1b2b	0.24522083
46	0x3d809880	0.06279087
47	0x3dbe24f5	0.09284393
48	0xbdc1b5a6	-0.09458475
49	0xbd6f9313	-0.05848987
50	0xbd8ac113	-0.06775107
51	0xbd4951f5	-0.049150426
52	0xbc98d6f3	-0.018657183
53	0x3ef809d0	0.48444986
54	0xbd429ad6	-0.047510944
55	0x3d8a6cc1	0.067590244
56	0x3e2ca3cf	0.16859363
57	0x3ce953e5	0.028482387
58	0x3e73b9a7	0.2380129
59	0x3dc75f7b	0.09735008
60	0x3df831c5	0.12118868
61	0x3dd2fa6a	0.10301669
62	0xbe0a82ce	-0.1352646
63	0x3d25e48e	0.04050117
64	0xbd833172	-0.06405915
65	0x3cc1ffc5	0.02368153
66	0xbd03aad9	-0.032145355
67	0x3e161628	0.1465689
68	0xbd0b4e2d	-0.0340101
69	0x3debe049	0.115173884
70	0x3d2ad784	0.041709438
71	0x3e07f730	0.13277888
72	0x3e5dc80f	0.21658348
73	0x3bd456cb	0.006480073
74	0xbdeb0a92	-0.114766255
75	0x3d925132	0.07144393
76	0xbb110e9e	-0.0022133957
77	0x3e421413	0.1895297
78	0xbdb1b5ae	-0.08677231
79	0xbe0c46fc	-0.13698953
80	0x3da3602a	0.07977326
81	0x3baf86d9	0.0053566513
82	0xbdc6ed87	-0.097132735
83	0xbbaa5d9c	-0.0051991474
84	0xbb3177af	-0.0027079394
85	0x3dbb2704	0.09138301
86	0xbc7ecf1b	-0.0155523075
87	0x3dc782cc	0.097417444
88	0x3cd0ef08	0.025504604
89	0x3d93fde1	0.07226158
90	0x3dd9e292	0.10638918
91	0xbdab2de8	-0.08358365
92	0x3e42584b	0.18978994
93	0x3d7c0a5b	0.061533313
94	0xbcd3ea05	-0.025868425
95	0x3e1d567f	0.15365027
96	0xbded2393	-0.11579051
97	0xbe18556d	-0.14876337
98	0x3d4ebad0	0.050471127
99	0xbbfc59ce	-0.0077011352
100	0xbe01506b	-0.12628333
101	0x3b86582f	0.004099868
102	0xbe01dafe	-0.12681195
103	0xbd96971b	-0.0735304
104	0xbd5c4aa5	-0.053782124
105	0xbc3b82ca	-0.011444757
106	0x3dbe6aa1	0.092976816
107	0xbe76ff35	-0.24120791
108	0xbc9ce4a7	-0.019151999
109	0x3d5e7b8f	0.054317053
110	0x3c67c4b2	0.014146017
111	0xbd3b9555	-0.04579671
112	0x3d0b69a2	0.034036286
113	0x38ccae2e	9.7599215e-05
114	0x3d3dc760	0.046332717
115	0xbc168423	-0.009186777
116	0xbc6dde6d	-0.0145183625
117	0x3d6a0375	0.057132203
118	0xbd16c91b	-0.036812883
119	0xbc8210c1	-0.01587713
120	0x3dad8daf	0.084742896
121	0xbd95dbc7	-0.0731731
122	0x3c7d4e83	0.015460613
123	0xbc81f2f2	-0.015862916
124	0x3dbabf36	0.09118502
125	0x3ddde42d	0.10834537
126	0xbd816b90	-0.06319344
127	0x3ddf9475	0.10916988
128	0xbdcdfde1	-0.10058189
129	0x3df7a192	0.12091364
130	0xbe1dc065	-0.15405424
131	0xbe487672	-0.19576433
132	0x3e28d42b	0.16487186
133	0xbd6dc379	-0.058047745
134	0xbe0d92a8	-0.13825476
135	0x3e5b2f1c	0.2140469
136	0x3db97f89	0.090575285
137	0x3d2cc85c	0.042183265
138	0xbd4c09b6	-0.04981395
139	0xbdfcbd0a	-0.12340744
140	0x3c7fa644	0.015603606
141	0xbd6110a0	-0.054947495
142	0x3de24119	0.11047573
143	0x3e3842c3	0.17994218
144	0x3e776591	0.24159838
145	0xbe006041	-0.12536718
146	0xbc25d15f	-0.010120719
147	0xbddecd99	-0.108790584
148	0xbe06f93f	-0.13181017
149	0x3e4a226a	0.1973969
150	0x3dc15fc0	0.09442091
151	0xbd5fa290	-0.05459839
152	0xbb0c4216	-0.0021401695
153	0x3e665797	0.2249435
154	0x3d9a1132	0.07522811
155	0x3e10d5bf	0.14144038
156	0xbca2d0de	-0.019874986
157	0xbe0e93e3	-0.13923602
158	0xbd01696b	-0.031594675
159	0x3c876d04	0.016531475
160	0xbdfe4dea	-0.12417205
161	0xbe5888e4	-0.2114597
162	0x3e117dfe	0.14208218
163	0xbd546081	-0.051849846
164	0x3e258d0a	0.16167083
165	0x3def446d	0.11682973
166	0xbd9a32a2	-0.07529189
167	0xbda9d827	-0.08293181
168	0xbcc462a7	-0.023972822
169	0xbe0ed1c0	-0.13947201
170	0xbdc46ece	-0.09591447
171	0x3dcba98f	0.0994445
172	0xbd15dc26	-0.036586903
173	0x3e0b3d12	0.13597515
174	0x3d51e24f	0.051241215
175	0x3ca2aa25	0.019856522
176	0x3dd0ed81	0.1020155
177	0xbd7c2f99	-0.06156883
178	0x3d984ea3	0.07436874
179	0xbcd97c07	-0.026548399
180	0x3e39d224	0.18146569
181	0x3e85a73b	0.2610415
182	0xbe6508db	-0.2236666
183	0xbe0113d7	-0.12605225
184	0x3d2da233	0.042391013
185	0x3c6c6689	0.014428743
186	0x3d139224	0.036028042
187	0x3dcb72e5	0.09934024
188	0xbdd326b7	-0.10310119
189	0xbd060d10	-0.0327273
190	0xbd8d9f16	-0.06915109
191	0xbc067610	-0.008206859
192	0x3ea36247	0.31910917
193	0x3ddd3201	0.10800553
194	0xbdb870c2	-0.09005882
195	0xbd193495	-0.03740366
196	0x3e5202ec	0.20508927
197	0x3d78ceec	0.06074421
198	0x3ea628fe	0.3245315
199	0xbd5106f9	-0.05103204
200	0x3dc22c79	0.09481139
201	0xbcd1dd35	-0.025618175
202	0x3d6c6395	0.057712156
203	0xbd97fefa	-0.0742168
204	0x3e0a28b1	0.13492085
205	0x3de997c3	0.114058994
206	0x3d8d5b65	0.06902198
207	0x3d0466c2	0.03232456
208	0x3d9f0dc6	0.07766299
209	0x3e278b2f	0.16361688
210	0x3e83cf25	0.25743976
211	0x3dcad184	0.09903243
212	0x3bb60fb0	0.0055560693
213	0xbc46437f	-0.012101053
214	0x3e4f1fa3	0.20226912
215	0x3e1921a3	0.14954238
216	0x3d715708	0.05892089
217	0xbd441db3	-0.047879886
218	0x3e404d85	0.18779571
219	0x3db8b5cc	0.0901905
220	0xbd42c3b8	-0.047549933
221	0x3e5b343c	0.21406645
222	0x3e7d404c	0.24731559
223	0xbd15b556	-0.03654989
224	0x3de733a4	0.112891465
225	0xb9e48347	-0.00043585358
226	0x3d13e5d3	0.03610785
227	0xbc0147e4	-0.007890675
228	0x3db8dd8a	0.0902663
229	0x3cf14ff7	0.029457076
230	0x3e188da6	0.14897785
231	0x3e916ca8	0.2840321
232	0x3d91b3be	0.07114361
233	0xbcf57402	-0.029962543
234	0xbd70d639	-0.05879805
235	0x3ec64765	0.38726345
236	0x3e064d7f	0.131155
237	0x3d007588	0.031362087
238	0xbe16ab40	-0.14713764
239	0x3e8b18b2	0.2716728
240	0x3d9ef263	0.07761075
241	0x3beef994	0.0072929356
242	0x3dd7a0bc	0.105287045
243	0x3e1661e4	0.1468578
244	0x3d61e125	0.055146355
245	0x3e39364d	0.1808712
246	0x3d4fd270	0.0507378
247	0x3e771f61	0.24133064
248	0x3e36b32d	0.17841788
249	0xbc7b9f1b	-0.015357758
250	0xbc29164e	-0.010320259
251	0x3e078dc8	0.13237679
252	0xbcacb077	-0.021080239
253	0x3e03fc5c	0.12889236
254	0xbc21eca8	-0.009883083
255	0x3e6153d6	0.22004637

lstm.weight_ih_l1 f4 [256, 64]
0	0xbc9ba406	-0.01899911
1	0xbdb7c32d	-0.08972774
2	0xbd9e754f	-0.077372186
3	0xbdb96a47	-0.09053474
4	0x3d88a41d	0.06671927
5	0xbd5c8910	-0.05384165
6	0xbd609409	-0.054828677
7	0xbbb4273a	-0.0054978402
8	0x3c225ebe	0.009910284
9	0x3e438a62	0.19095758
10	0xbd5012e2	-0.050799258
11	0xbd86d1cc	-0.06582984
12	0xbe131bcf	-0.14366077
13	0xbd33961c	-0.043844327
14	0x3d0a48ba	0.033760764
15	0x3ccad013	0.02475742
16	0xbc3775e8	-0.011197545
17	0x3c3f6619	0.011682057
18	0xbd7742b3	-0.060366344
19	0x3e24970e	0.16073248
20	0x3cd2b7ad	0.025722349
21	0x3e04494f	0.1291859
22	0x3da52b1e	0.080648646
23	0x3e12ee49	0.14348711
24	0x3ce3edbc	0.027823322
25	0x3d0e4078	0.03472945
26	0xbe1aad1f	-0.15105103
27	0x3a4fe176	0.00079300196
28	0xbe0f43d5	-0.1399072
29	0xbdbcc766	-0.0921772
30	0x3ddbfdfb	0.10741802
31	0xbde85bc6	-0.113456294
32	0xbde9abb9	-0.114097066
33	0x3d730f33	0.059340667
34	0xbd87b460	-0.06626201
35	0x3d367370	0.044543684
36	0x3d865cfb	0.06560703
37	0xbdfbfd6b	-0.12304195
38	0xbdcea573	-0.10090151
39	0xbce8cca7	-0.028417898
40	0x3c5d6f8e	0.013515366
41	0xbe27dde1	-0.16393234
42	0x3dc25f74	0.094908625
43	0xbe815e75	-0.25267377
44	0x3d29a77a	0.041419484
45	0x3d8c9cfe	0.068658814
46	0x3dbbd4c2	0.0917144
47	0x3d9d59fa	0.07683177
48	0x3d71fc63	0.059078585
49	0xbe108ddb	-0.14116614
50	0xbc66540f	-0.014058127
51	0x3dc499aa	0.095996216
52	0xbc44cf86	-0.012012368
53	0x3dd7df9e	0.105406985
54	0xbd7c9769	-0.061667833
55	0x3d5093b8	0.050922126
56	0x3d67744f	0.056507405
57	0xbbf2ad47	-0.00740591
58	0xbe0243f0	-0.12721229
59	0x3cfe74ef	0.031061618
60	0xbdb6175d	-0.08891175
61	0xbd8ce200	-0.068790436
62	0xbe8d4cd4	-0.27597678
63	0xbe157a27	-0.14597379
64	0xbe0407e5	-0.12893637
65	0xbb3bbf78	-0.002864806
66	0x3d52a090	0.051422656
67	0xbd3ce090	-0.046112597
68	0xbcac2a11	-0.021016153
69	0xbd43ba38	-0.047785014
70	0xbb165c49	-0.002294319
71	0xbd85dc11	-0.06536115
72	0x3c73d60c	0.014882576
73	0x3e1449e6	0.14481315
74	0x3e21226c	0.15735787
75	0x3d4e7fb6	0.050414763
76	0x3ddeb6bd	0.10874698
77	0xbdb68cd8	-0.089135826
78	0xbcf61ea5	-0.03004391
79	0x3e9a0d9f	0.30088517
80	0xbd8d21ef	-0.06891238
81	0x3dc7afbf	0.09750318
82	0x3d8681a4	0.06567696
83	0xbc6361f2	-0.013878332
84	0xbd5b13f1	-0.053485814
85	0x3dd28d42	0.10280849
86	0x3d92f634	0.07175866
87	0x3e1c1a67	0.15244447
88	0x3e1d9d16	0.15391955
89	0x3dd19a9e	0.10234569
90	0xbe7ed0e7	-0.24884377
91	0xbdba0bff	-0.09084319
92	0x3e051d21	0.12999393
93	0xbd162f3c	-0.03666614
94	0x3d1f34af	0.038868602
95	0xbac387d6	-0.0014917802
96	0xbe535beb	-0.20640533
97	0x3e15d955	0.14633687
98	0xbd20b7b3	-0.03923769
99	0x3d97d9ab	0.07414564
100	0x3c8a870e	0.016910102
101	0x3ddae5e9	0.10688383
102	0x3da5710f	0.08078205
103	0x3e71dfe9	0.23620571
104	0xbddcd755	-0.10783259
105	0xbdbe9dcb	-0.0930744
106	0x3d5efbf7	0.05443951
107	0xbe012096	-0.12610087
108	0xbca228c7	-0.019794835
109	0x3dc33790	0.09532082
110	0x3c8a716a	0.016899783
111	0xbc642f11	-0.013927237
112	0xbc00c6ce	-0.007859899
113	0xbdc1e982	-0.09468366
114	0x3e5c58a7	0.21518193
115	0xbd9a3d14	-0.07531181
116	0x3ddabba0	0.10680318
117	0xbc57e0a3	-0.013176116
118	0xbd300d51	-0.04298145
119	0x3debf83a	0.11521955
120	0xbe1fbe0c	-0.15599841
121	0x3d0f8c85	0.03504612
122	0xbd975d00	-0.07390785
123	0xbe3d2496	-0.18470988
124	0xbcb34ed9	-0.021888183
125	0x3d71b27b	0.059008103
126	0xbc8961ef	-0.016770331
127	0xbe14dca1	-0.14537288
128	0x3d25db15	0.040492136
129	0xbe8265ab	-0.25468192
130	0x3c4c77a5	0.012479697
131	0xbe1a28f7	-0.1505469
132	0x3e09756a	0.13423696
133	0x3dfee985	0.12446884
134	0xbb6ae5ec	-0.003584261
135	0x3d321bdc	0.0434836
136	0x3d04017b	0.032227974
137	0x3f125c6b	0.5717227
138	0x3c8abd8a	0.016936082
139	0x3d9e019c	0.07715151
140	0xbe45af54	-0.19305164
141	0xbcf972c9	-0.030450242
142	0xbe243d91	-0.1603911
143	0x3f5b2752	0.85606873
144	0x3e0bfe5f	0.13671254
145	0x3c5f7500	0.013638735
146	0xbce7f537	-0.02831517
147	0x3dd300e0	0.10302901
148	0xba2cbaa9	-0.0006589094
149	0x3c98ee09	0.018668192
150	0xbce1c235	-0.027558425
151	0x3e0819c6	0.13291082
152	0x3e041c86	0.12901506
153	0x3e35903d	0.17730804
154	0xbe792436	-0.2433022
155	0xbdfd8339	-0.12378544
156	0x3cf1f8e2	0.029537622
157	0x3df2013d	0.118166424
158	0x3d00268b	0.031286757
159	0xbcf7f991	-0.03027037
160	0xbe4054fe	-0.18782422
161	0xbd640964	-0.055673018
162	0xbdccaa01	-0.09993363
163	0xbd01bd3c	-0.03167461
164	0xbdc5cfa2	-0.096587434
165	0xbe98915d	-0.29798403
166	0xbd7139e2	-0.058893092
167	0xbe70a314	-0.2349971
168	0x3d4a8652	0.049444504
169	0x3d647134	0.05577202
170	0xbc0fddbc	-0.008780893
171	0x3e1b3781	0.15157892
172	0x3eae1cb5	0.34006277
173	0xbbc0c5d0	-0.005882956
174	0xbd18738a	-0.03721956
175	0xbe0ea151	-0.13928725
176	0x3d2aa383	0.041659843
177	0xbe2be3ba	-0.1678609
178	0x3ca27394	0.019830503
179	0xbe1de5c8	-0.15419686
180	0xbded42c2	-0.11584999
181	0x3dcc8c4a	0.099876955
182	0xbc9cfb3b	-0.019162765
183	0x3dfb92c2	0.12283851
184	0xbdbdff9a	-0.09277268
185	0x3a21c372	0.0006170786
186	0xbcf66541	-0.030077578
187	0xbe908c55	-0.28232065
188	0x3dfd292c	0.123613685
189	0x3debb582	0.11509229
190	0xbe8735ae	-0.26408142
191	0xbe0d241c	-0.13783306
192	0x3e2f4742	0.17117026
193	0x3da3ef1b	0.0800459
194	0xbe142425	-0.14466913
195	0xbcf84493	-0.030306136
196	0x3e712ce3	0.23552279
197	0x3d42f78c	0.04759936
198	0x3daea808	0.08528143
199	0x3dacaaca	0.08431013
200	0xbd87c619	-0.06629581
201	0x3e104478	0.14088619
202	0xbe93b998	-0.28852534
203	0xbda2eaa0	-0.079549074
204	0x3e0b94bb	0.13630955
205	0xba08e7fc	-0.00052225566
206	0x3c1e71fc	0.009670731
207	0x3deb0cb2	0.11477031
208	0x3d0602cc	0.03271751
209	0x3c1b630d	0.009484065
210	0xbd3c4b8c	-0.045970485
211	0x3c9a7595	0.018854896
212	0xbe24d8b2	-0.16098288
213	0x3db81e69	0.08990175
214	0xbe145522	-0.144856
215	0x3bed583a	0.0072431834
216	0x3e39538d	0.18098278
217	0x3b5947e5	0.0033154425
218	0x3e3c7ab8	0.18406188
219	0xbe2e21e8	-0.17005122
220	0x3d0178b3	0.03160925
221	0xbeaa08ce	-0.33209842
222	0x3d98b323	0.074560426
223	0x3da08ee3	0.078397535
224	0xbc9d5d1e	-0.01920944
225	0xbe280390	-0.16407609
226	0xbdfac58d	-0.12244711
227	0xbd4fb3a1	-0.050708417
228	0xbd61627c	-0.055025563
229	0xbd23b55a	-0.039967872
230	0x3d0d8ae5	0.03455629
231	0xbde00677	-0.10938733
232	0x3c7849cb	0.015154312
233	0x3e0e77fd	0.1391296
234	0xbe30f455	-0.17280705
235	0xbeef6e82	-0.46763998
236	0xbdd5f68a	-0.10447414
237	0x3d651fa6	0.055938385
238	0x3e01deae	0.12682602
239	0x3d9241be	0.071414456
240	0xbe15e285	-0.14637192
241	0xbe2e4606	-0.170189
242	0x3a830a9a	0.0009997666
243	0xbe219cdf	-0.15782498
244	0xbdf5c51e	-0.12000488
245	0x3cd9057b	0.026491871
246	0xbda7d1d9	-0.08194322
247	0xbe50116b	-0.20319144
248	0xbd4d1e79	-0.05007789
249	0xbc831a1b	-0.016003659
250	0xba4c56e2	-0.0007794929
251	0x3cd3a219	0.02583413
252	0xbd13d679	-0.03609321
253	0x3d913440	0.07090044
254	0xbdf7698b	-0.120806776
255	0xbdefc193	-0.11706843

lstm.weight_hh_l1 f4 [256, 64]
0	0x3d84a7d8	0.06477326
1	0xbd2bb208	-0.04191783
2	0x3dff8498	0.12476462
3	0x3df25b37	0.11833804
4	0x3d11f2d7	0.03563198
5	0x3d0671cd	0.032823373
6	0xbd2e1040	-0.042495966
7	0xbe4541da	-0.19263402
8	0xbd8bcea4	-0.06826523
9	0x3c3ffd25	0.011718069
10	0xbd944985	-0.07240585
11	0xbe16526b	-0.14679877
12	0xbd963ec3	-0.073361896
13	0x3d854e25	0.065090455
14	0x3d354662	0.044256575
15	0xbed36eb3	-0.41295394
16	0x3de27f80	0.11059475
17	0xbd386bc3	-0.045024645
18	0xbc88eaa0	-0.01671344
19	0xbe3a9a67	-0.18222962
20	0xbd3440d0	-0.044007123
21	0x3e382f56	0.17986807
22	0xbc42b57f	-0.011884092
23	0x3cecbaf9	0.02889775
24	0xbdd5cf2f	-0.10439908
25	0x3d87bc5f	0.06627726
26	0xbd2088b5	-0.039192874
27	0x3d164983	0.0366912
28	0xbd78e10b	-0.060761493
29	0xbdb91be8	-0.09038526
30	0x3dd14ce0	0.10219741
31	0xbdadb9ef	-0.0848273
32	0xbc15f08b	-0.009151588
33	0xbd95327f	-0.07285022
34	0xbe292c68	-0.16520846
35	0xbe83a73c	-0.25713527
36	0x3c154703	0.009111169
37	0xbd278075	-0.04089399
38	0x3dac2bf5	0.08406822
39	0x3e2c4b6a	0.16825643
40	0x3bbdc5f1	0.0057914187
41	0x3dad382c	0.084579796
42	0xbc33f6f0	-0.010984167
43	0x3d894ba7	0.06703883
44	0x3da68e53	0.08132615
45	0xbe2c72b1	-0.16840626
46	0x3d4eaeff	0.050459858
47	0x3e068640	0.1313715
48	0x3b8231eb	0.003973236
49	0xbd75794c	-0.05993013
50	0x3dc55067	0.09634476
51	0x3d0a48ed	0.033760954
52	0xbd603372	-0.054736562
53	0x3cae5e93	0.02128533
54	0x3dd2a615	0.10285584
55	0x3d2d3555	0.04228719
56	0xbc51b2dc	-0.012798991
57	0x3cd0e4cd	0.025499726
58	0x3cb65a94	0.022259988
59	0x3c995cdd	0.018721038
60	0x3d9ac060	0.07556224
61	0xbd02e73f	-0.031958815
62	0xbe3e1122	-0.18561223
63	0x3d609e64	0.054838553
64	0xbe4565bb	-0.19277088
65	0x3d8b0536	0.06788103
66	0x3e263c21	0.16233875
67	0xbd4bd7a0	-0.049766183
68	0xbe8756c7	-0.26433393
69	0x3d89e3db	0.06732913
70	0xbc8638d0	-0.016384512
71	0xbdd7f6c3	-0.10545113
72	0xbd9b6a89	-0.07588679
73	0xbd452bb9	-0.0481374
74	0x3c6477a8	0.013944544
75	0xbd224e4c	-0.03962545
76	0xbd6d79c5	-0.057977457
77	0xbe1203ba	-0.14259234
78	0x3e989a90	0.29805422
79	0x3e00088b	0.12503259
80	0x3de6f020	0.11276269
81	0xbe28881d	-0.16458173
82	0x3d541040	0.05177331
83	0xbe03f288	-0.12885487
84	0xbd67596c	-0.056481764
85	0xbd11f792	-0.035636492
86	0xbda64b60	-0.081198454
87	0xbdb0f3d7	-0.08640259
88	0xbe551b0c	-0.20811099
89	0xbe0a8648	-0.13527787
90	0xbe5f27a4	-0.21792465
91	0xbe2ec0fe	-0.17065808
92	0xbc9a467a	-0.018832434
93	0xbcb1be82	-0.021697287
94	0xbcc0429b	-0.02346926
95	0x3d22021b	0.03955279
96	0x3d4a0a61	0.049326304
97	0xba970952	-0.0011523163
98	0x3bf9c05c	0.007621808
99	0xbd67e103	-0.056611072
100	0x3cc90a97	0.024541182
101	0xbe1f0b1c	-0.15531582
102	0xbd19dc5f	-0.037563678
103	0xbc902e47	-0.017600192
104	0xbd467a45	-0.04845645
105	0xbd66e7c9	-0.05637339
106	0xbcb15549	-0.021647112
107	0x3dc12283	0.09430411
108	0x3d0c6cdd	0.034283508
109	0xbe1dc9fd	-0.15409084
110	0x3dc84b25	0.09779958
111	0x3e3b7836	0.18307576
112	0xbe102f7b	-0.14080612
113	0x3e223bad	0.15843077
114	0x3e3443fc	0.17604059
115	0x3d7fb4ff	0.06242847
116	0xbdba715a	-0.09103651
117	0x3e05e2d3	0.13074808
118	0x3dbaf0d4	0.091279656
119	0xbdda1ead	-0.10650382
120	0x3bbe3255	0.00580434
121	0xbd794e81	-0.060865883
122	0x3d9c7556	0.076395676
123	0xbe03fb3e	-0.1288881
124	0x3d0522d1	0.032503907
125	0x3e19126f	0.14948438
126	0x3d62cbb8	0.055370063
127	0xbdc75b9e	-0.097342715
128	0xbe3acf01	-0.18243028
129	0x3b11a45c	0.002222321
130	0x3e415817	0.1888126
131	0x3eb486fe	0.3525924
132	0xbe615f4b	-0.22009008
133	0x3e8da670	0.27666044
134	0xbdae2a74	-0.08504191
135	0xbe21f41f	-0.15815781
136	0xbea01c45	-0.31271568
137	0x3e1d481e	0.15359542
138	0x3c829fca	0.015945334
139	0xbe477c95	-0.19481118
140	0x3e11b6a9	0.14229836
141	0x3cffce76	0.031226378
142	0x3d5093cc	0.0509222
143	0x3e34483a	0.17605677
144	0x3ea0580c	0.31317174
145	0xbe0f2320	-0.13978243
146	0x3cb6ba79	0.022305714
147	0xbf0617ef	-0.5238027
148	0xbe2a93ef	-0.16657995
149	0x3e92b12f	0.28650805
150	0xbce9df2b	-0.028548798
151	0x3e0c87d7	0.13723694
152	0xbe952701	-0.2913132
153	0xbe3786cf	-0.17922519
154	0x3d45d954	0.048302963
155	0xbd8d3736	-0.06895296
156	0xbe15f108	-0.14642727
157	0x3bc0d9bf	0.0058853324
158	0x3e6c4bb3	0.23075752
159	0xbe52b54f	-0.20576976
160	0xbdd9ceee	-0.10635172
161	0x3dbccfd3	0.09219327
162	0xbe251f2e	-0.16125175
163	0xbd586b28	-0.052836567
164	0xbdf5e5d3	-0.12006726
165	0xbeb1deb0	-0.3474021
166	0xbdcbff30	-0.099607825
167	0xbe4b58ec	-0.1985814
168	0x3d3f1695	0.046652395
169	0x3c2fdc6e	0.010733707
170	0x3da63a93	0.08116641
171	0x3dccadeb	0.0999411
172	0x3e9e4f85	0.30920044
173	0xbc84d1ff	-0.016213415
174	0x3e0705da	0.13185826
175	0x3e95ab30	0.29232168
176	0xbea77d24	-0.32712662
177	0x3e526afe	0.20548627
178	0x3d266472	0.040623136
179	0x3e9e42f4	0.30910456
180	0xbea45992	-0.32099587
181	0x3b94230f	0.004520781
182	0x3e94ca6a	0.2906068
183	0xbe21a1d0	-0.15784383
184	0xbd89e0db	-0.06732341
185	0x3d817192	0.0632049
186	0xbde766f3	-0.11298933
187	0xbe59109f	-0.21197747
188	0x3e3295d9	0.17439975
189	0x3c378547	0.011201209
190	0x3bc323dc	0.0059552025
191	0xbe2324d9	-0.15932025
192	0x3e11b8ae	0.14230606
193	0x3e4449c6	0.19168767
194	0x3b70e2a9	0.0036756194
195	0xbe227689	-0.1586553
196	0xbd6460b1	-0.055756275
197	0x3db79767	0.089644246
198	0xbe137d3a	-0.14403239
199	0xbd138300	-0.036013603
200	0x3ce1711a	0.027519751
201	0xbcbd2c19	-0.023092316
202	0xbbf0beef	-0.00734698
203	0xbdc59952	-0.09648384
204	0x3e13e993	0.1444457
205	0x3bb05527	0.0053812447
206	0xbd82b000	-0.063812256
207	0xbe852a65	-0.26008907
208	0xbe0f1f66	-0.13976821
209	0xbe18f64f	-0.1493771
210	0xbd983938	-0.074327886
211	0xbe3cfe7a	-0.1845645
212	0x3e75878e	0.23977491
213	0xbe1d1fce	-0.15344164
214	0x3d3dd9d6	0.046350323
215	0x3c3d7fea	0.011566142
216	0x3d8e59fd	0.06950758
217	0xbdcca65e	-0.099926695
218	0xbdbe68a3	-0.092973016
219	0x3d8d8c43	0.069115184
220	0xbcc36f41	-0.023856761
221	0xbddde1b8	-0.10834068
222	0x3ca4291d	0.020039136
223	0x3d96f5ba	0.07371087
224	0xbcf469bc	-0.029835574
225	0xbddf9e4c	-0.109188646
226	0x3d8d5386	0.069006965
227	0x3d9063c4	0.07050279
228	0xbd33b316	-0.04387196
229	0x3bbcaa50	0.0057576075
230	0xbd7ab0e6	-0.06120386
231	0x3e75501c	0.2395634
232	0x3d8fb098	0.070161045
233	0xbe37bc89	-0.17943014
234	0x3da7656b	0.08173641
235	0x3d2eaafb	0.04264353
236	0x3db35f96	0.08758466
237	0x3cda7705	0.026668081
238	0x3df784ba	0.120858625
239	0x3dcc6ac5	0.09981302
240	0xbde1eaae	-0.1103109
241	0xbdfcafd6	-0.123382255
242	0xbdf4e871	-0.11958397
243	0x3cd037b4	0.025417186
244	0x3e85f99d	0.26167002
245	0x3dd77725	0.10520772
246	0xbbbfdaaf	-0.0058549265
247	0x3caff316	0.021478217
248	0xbe25fde4	-0.16210133
249	0xbe15599a	-0.14584962
250	0x3d609f88	0.05483964
251	0xbc81e0ec	-0.015854321
252	0xbd5e6e56	-0.054304443
253	0xbe63206a	-0.22180334
254	0xbe210392	-0.15724018
255	0x3d1ccea0	0.03828299

lstm.bias_ih_l1 f4 [256]
0	0xbd8a581c	-0.06755087
1	0xbce27f7c	-0.02764868
2	0xbde03f45	-0.10949568
3	0x3d6ea766	0.058265112
4	0xbcb58c75	-0.022161702
5	0x3d3f70ba	0.046738364
6	0x3dd63440	0.10459185
7	0xbc11ddf6	-0.008903017
8	0x3cc80f03	0.02442122
9	0xbdb96cde	-0.09053968
10	0xbd528d1d	-0.051404107
11	0xbd912e54	-0.070889145
12	0xbdac084d	-0.08400021
13	0xbda2377c	-0.07920739
14	0x3de7e770	0.1132344
15	0xbdc60248	-0.09668404
16	0xbc351d7a	-0.011054391
17	0xbd5308ec	-0.05152218
18	0xbcc84570	-0.024447173
19	0x3d87b483	0.06626227
20	0x3d7a25f5	0.061071355
21	0xbba31000	-0.0049762726
22	0xbd221e7b	-0.03957985
23	0xbd9aaa56	-0.0755202
24	0x3c4668c9	0.012109944
25	0xbd749e68	-0.05972138
26	0x3e48c7c0	0.19607449
27	0x3e102d44	0.14079767
28	0xbd388136	-0.0450451
29	0xbc9597db	-0.018260887
30	0xbd9165a5	-0.07099465
31	0x3d75a0bb	0.059967738
32	0x3d38e5f8	0.04514119
33	0x3b9d291f	0.004796162
34	0x3d852ae3	0.065023206
35	0x3cfde9c9	0.030995267
36	0x3d45ad3a	0.048260905
37	0x3c5927a1	0.013254077
38	0x3d4e040d	0.050296832
39	0x3c6d6c83	0.014491203
40	0xbcfb97f3	-0.030712103
41	0x3d0a1215	0.03370865
42	0x3c871897	0.016491218
43	0xbd8425d8	-0.064525306
44	0x3dc40339	0.09570927
45	0xbdd6b8a5	-0.10484437
46	0xbba37768	-0.0049885996
47	0x3da50527	0.08057623
48	0x3cddf45a	0.027094055
49	0xbd4530ae	-0.048142128
50	0xbcf0b3ce	-0.029382613
51	0x3dcb6ab4	0.099324614
52	0x3d3e3574	0.046437696
53	0xbdd55fd8	-0.10418671
54	0x3daaaae7	0.08333378
55	0x3d489595	0.048970778
56	0x3e4c7d48	0.19969666
57	0xbc837083	-0.01604486
58	0x3d9eb183	0.077487014
59	0xbb14a418	-0.0022680815
60	0x3e348839	0.1763009
61	0x3d8c4327	0.06848746
62	0x3e8f906b	0.2803987
63	0x3d3b5fab	0.045745533
64	0xbd8b83ea	-0.0681227
65	0x3cd5c82d	0.026096428
66	0x3d8f081e	0.0698397
67	0xbd3b02b9	-0.045656893
68	0xbdae55b8	-0.08512443
69	0x3d88b1b6	0.06674521
70	0x3c06a24b	0.008217405
71	0x3debaac8	0.11507183
72	0xbcfc6e68	-0.030814365
73	0x3db5748c	0.0886012
74	0x3d89fee9	0.067380734
75	0xbd8a93d5	-0.06766478
76	0x3d6f7a19	0.05846605
77	0xbb92b4d1	-0.0044771214
78	0x3dd95ee0	0.10613799
79	0x3dd5e6ff	0.1044445
80	0x3d1fb8e1	0.038994674
81	0x3e0760e6	0.13220558
82	0x3d37eec8	0.044905454
83	0xbd8faf09	-0.07015807
84	0x3d242e1e	0.040083043
85	0x3dfca5ca	0.12336309
86	0x3e0671bd	0.13129325
87	0x3d27777f	0.040885445
88	0x3e13bbf8	0.14427173
89	0x3dffb678	0.12485975
90	0xbd1fbef1	-0.039000455
91	0x3b1d76c1	0.0024027082
92	0x3dfec2b5	0.12439481
93	0x3dd92dbc	0.10604426
94	0x3c9b99bd	0.018994207
95	0x3d67c02e	0.05657976
96	0x3e073f52	0.13207749
97	0x3dcea444	0.10089925
98	0x3e105400	0.14094543
99	0x3ca7d7aa	0.020488579
100	0x3b74cc1d	0.0037353106
101	0xbca93440	-0.020654798
102	0x3dea5d30	0.11443555
103	0xbd2937e5	-0.04131307
104	0x3cef75be	0.029230949
105	0x3d3c3606	0.04594996
106	0xbdcab958	-0.09898633
107	0xbd528d02	-0.051404007
108	0xbc221feb	-0.009895305
109	0xbd92bfd3	-0.07165494
110	0xbaf5d282	-0.0018754753
111	0x3d661866	0.056175612
112	0x3d26df14	0.040740088
113	0x3cf75950	0.030193955
114	0xbdc39cf7	-0.09551423
115	0x3dea379d	0.11436389
116	0x3d9a3953	0.07530465
117	0xbca03e80	-0.019561052
118	0xbd78607b	-0.060638886
119	0xbddbf3c2	-0.107398525
120	0xbcf165ae	-0.02946743
121	0x3d94a725	0.07258443
122	0xbd657bb8	-0.05602619
123	0xbcd25cdc	-0.025679044
124	0x3ce52c45	0.02797521
125	0x3d4de562	0.050267585
126	0xbbb2b167	-0.005453277
127	0x3dad6f6a	0.08468516
128	0x3cc06918	0.023487613
129	0xbd85bbae	-0.06529938
130	0xbc2a268b	-0.010385166
131	0x3d77a796	0.060462557
132	0x3d33f173	0.043931436
133	0xba8bceac	-0.0010666451
134	0xbdcff86b	-0.10154804
135	0xbd9b7290	-0.075902104
136	0xbd9065df	-0.0705068
137	0x3d7692e6	0.060198687
138	0xbd0551fa	-0.032548882
139	0x3df17f5b	0.11791869
140	0xbde62423	-0.11237361
141	0x3d80a12a	0.062807396
142	0xbdb3580b	-0.08757027
143	0x3c33cd74	0.010974277
144	0xbdb51a96	-0.088429615
145	0xbb0d7d71	-0.0021589661
146	0xbd0d9ca4	-0.034573212
147	0xbcba09a2	-0.022709671
148	0x3d8db860	0.06919932
149	0x3d20bd68	0.039243132
150	0x3d1e5acc	0.03866081
151	0xbd358f07	-0.044325855
152	0x3d7d71a0	0.06187594
153	0x3dd8bf06	0.1058331
154	0x3ddcb6b1	0.10777033
155	0x3d5e6cc7	0.054302957
156	0xbd7f44f8	-0.062321633
157	0x3df45951	0.11931098
158	0x3e080c5c	0.13285965
159	0xbdc51779	-0.09623618
160	0x3cabf0fe	0.020988937
161	0xbe031984	-0.12802702
162	0xbd9786fd	-0.07398794
163	0x3e0d30da	0.13788167
164	0xbdbb4aa0	-0.09145093
165	0xbbb288f5	-0.0054484555
166	0x3d7a2146	0.06106689
167	0xbb02407a	-0.0019874857
168	0x3cf6acbe	0.030111667
169	0xbe182c6a	-0.14860693
170	0x3d38298a	0.04496149
171	0x3cdb78ff	0.026791094
172	0xbe073861	-0.132051
173	0xbdb5427d	-0.08850572
174	0xbc00af67	-0.007854319
175	0xbce05de5	-0.027388522
176	0x3d27a6f6	0.04093071
177	0x3d290fce	0.04127484
178	0xbe0c1c63	-0.13682704
179	0xbd0ea835	-0.034828383
180	0x3e09b339	0.13447274
181	0x3bfb7657	0.0076740193
182	0xbd93e97d	-0.07222269
183	0x3d48a716	0.04898747
184	0x3dae3e14	0.08507934
185	0xbc39e767	-0.0113466745
186	0xbc7a159d	-0.015263942
187	0xbcf0a1ee	-0.02937409
188	0x3dbc30da	0.09189005
189	0xbd343310	-0.04399401
190	0x3d95e463	0.07318952
191	0xbd9ff1b6	-0.078097746
192	0x3e263619	0.16231574
193	0x3d3ae772	0.04563088
194	0x3d98c2bc	0.07459018
195	0xbccbe347	-0.024888648
196	0x3e0443e1	0.12916519
197	0xbca52175	-0.020157555
198	0xbd3b2669	-0.045690928
199	0xbd9de9b3	-0.0771059
200	0xbcc6db4f	-0.024274496
201	0x3e1e40b7	0.15454374
202	0x3c0f1a3c	0.008734282
203	0x3dd2c4f7	0.10291474
204	0xbe1fa5c5	-0.1559058
205	0x3e621fcb	0.2208244
206	0x3d054808	0.032539397
207	0xbd271f36	-0.04080125
208	0x3d9b01f3	0.07568731
209	0x3dedeea4	0.11617783
210	0x3d95b6d9	0.07310266
211	0x3d8cebe7	0.06880932
212	0x3de3a5c5	0.111156024
213	0x3d9db8bd	0.07701252
214	0x3ae38dfc	0.001736104
215	0x3e30a62b	0.17250888
216	0x3bd244f7	0.0064169127
217	0x3e22722c	0.15863866
218	0x3e272145	0.16321285
219	0x3e2bce4b	0.16777913
220	0x3dad2ad6	0.08455436
221	0xbd5ad46a	-0.05342523
222	0x3e381b2e	0.17979118
223	0x3d1effc5	0.03881814
224	0x3d8a4fdf	0.067535155
225	0x3df0e19f	0.11761784
226	0x3df47aaf	0.119374625
227	0x3c159bcc	0.009131383
228	0x3dc658f6	0.09684937
229	0x3defe107	0.117128424
230	0x3e5c4b7a	0.21513167
231	0xbccee09c	-0.025253586
232	0x3db86b90	0.09004891
233	0x3e15677f	0.14590262
234	0xbd435959	-0.04769263
235	0x3d7f8234	0.06238003
236	0xbda2049d	-0.07911036
237	0x3b60c5c1	0.0034297558
238	0xbd84aa0b	-0.064777456
239	0x3d93c5d6	0.072154686
240	0x3c2ab9c2	0.010420265
241	0x3e7413cb	0.23835675
242	0x3e3308c3	0.17483811
243	0x3e3225b8	0.17397201
244	0xbdedfa16	-0.11619966
245	0x3c4f417d	0.012649891
246	0xbda6346f	-0.0811547
247	0x3d015695	0.03157671
248	0x3dd8e20d	0.10589991
249	0x3d596e73	0.05308385
250	0xbe0599fb	-0.1304702
251	0x3d2b4f2a	0.041823544
252	0xbcb61e78	-0.022231326
253	0x3b3f3517	0.002917593
254	0x3dde27ab	0.1084741
255	0xbc345c37	-0.011008314
