LogAnomaly/result/deeplog/deeplog_epoch218.pth (torch_old, 640326 bytes, 30 tensors)

lstm.weight_ih_l0 f4 [256, 1]
-0.19132355 -0.017284937 -0.0435322 0.082032956 -0.13602883 0.052956566 -0.095789075 0.055221938
0.15317212 0.076398775 0.1666092 -0.07892576 0.10056538 0.11377817 -0.07659973 0.26578405
0.044356626 0.049465787 -0.14659487 0.14386603 0.15680492 0.07361542 0.04214461 -0.04821993
0.18318354 -0.05100899 -0.0083912285 0.05229527 0.072585225 -0.1573157 0.086453475 0.011847635
0.1428098 0.08981285 0.013532537 0.051918697 0.21062784 0.010648184 0.121668234 -0.14042059
0.01586836 -0.14228466 0.13181263 0.3912263 -0.10133766 0.09420175 0.13842449 -0.19210194
0.18129544 0.14789435 0.3413574 0.10893581 0.085453905 0.3053366 0.14440115 -0.05162034
-0.16675746 0.016957691 0.10339068 0.038443457 0.043118007 0.11055252 0.097189225 -0.15313841
-0.060596157 0.054489132 0.111643106 -0.020195242 -0.08843933 0.04960388 0.113217846 0.045578934
-0.04226476 0.27623534 0.16411833 -0.11515396 -0.023142226 0.0635909 0.17356475 0.24307643
0.02339476 0.10890685 -0.108940676 0.024152443 0.0059207445 0.21386403 0.11358905 -0.053416897
0.006094226 0.075281605 -0.5187169 0.079593346 -0.060770266 -0.26726773 0.2213176 0.032293897
-0.008931246 0.12545891 0.11327185 0.07189936 0.07585899 0.17875999 0.072948895 0.03392562
0.12542798 0.22630082 0.1655513 0.068285875 -0.12975097 -0.033858206 0.052865963 -0.10880036
0.0579372 0.08975747 0.30259842 0.23542824 0.054473754 0.02908531 0.13689956 -0.028671503
-0.17548609 0.16664976 0.43865 -0.03287636 0.025468832 0.057436116 -0.083815746 -0.14646739
0.40360478 -0.13015391 0.079282 0.031054687 0.22413677 -0.16893494 -0.043568764 0.123111196
0.14583486 -0.04178142 -0.056860637 0.21940222 -0.23240516 0.14593486 -0.15548377 -0.09037644
0.202716 -0.2712963 -0.24091874 0.1965387 0.17362496 -0.03555233 -0.13086566 0.19217204
0.09291644 0.3121874 -0.4160768 0.017536199 0.028636549 -0.16857827 0.90921855 -0.0007784286
0.4613418 0.027032675 0.0851671 -0.0266887 -0.30113804 -0.19586132 -0.24450833 -0.17660749
0.17191754 0.04274167 -0.1391068 -1.6467415 0.3513619 0.31182164 0.062194455 0.47567883
-0.1122569 -0.14425234 -0.14372335 -0.03280685 -0.36805648 0.4514545 0.038121507 0.16512506
-0.34913194 0.07141372 0.057083026 -0.07223024 0.13477772 -0.074955456 0.07785307 -0.32823247
0.16755116 -0.017632168 0.15820563 0.32442743 0.16911115 0.0621897 0.14032073 0.21698067
0.052727904 0.28373647 0.05194632 0.23862083 0.25199005 0.14317486 0.22470662 0.27446508
-0.09038754 0.032269273 0.29144692 0.1692531 0.25973088 0.22702488 -0.19840537 -0.17267245
-0.17132252 0.055860728 0.0049217814 0.10866533 -0.027556429 -0.34869736 0.11288335 0.27467987
-0.10208778 0.33482653 0.079863116 0.30632883 -0.08851264 -0.22018524 0.07860516 -0.28979445
-0.19807374 0.27342567 0.19302997 -0.29123718 0.27390912 0.01587202 0.21468407 -0.16083364
-0.18440557 -0.11844995 0.11199244 -0.2145422 0.076621614 -0.09337222 0.059910376 0.06464554
0.16212733 -0.21682122 0.24001531 -0.13622575 0.11896885 0.14036173 0.19903068 0.09578013
00000000: 52ea 43be 2499 8dbc d24e 32bd e500 a83d
00000010: 244b 0bbe fce8 583d 102d c4bd 6630 623d
00000020: 27d9 1c3e f676 9c3d 9a9b 2a3e d4a3 a1bd
00000030: 39f5 cd3d 8704 e93d 52e0 9cbd d914 883e
00000040: 4baf 353d a39c 4a3d f71c 16be 9e51 133e
00000050: 7891 203e aec3 963d d49f 2c3d 4382 45bd
00000060: 7794 3b3e cdee 50bd 5d7b 09bc 9133 563d
00000070: 90a7 943d 5e17 21be 850e b13d 951c 423c
00000080: bb3c 123e cdef b73d 93b7 5d3c b3a8 543d
00000090: d3ae 573e b975 2e3c 322d f93d 6aca 0fbe
000000a0: 5dfe 813c 12b3 11be e4f9 063e d04e c83e
000000b0: 1e8a cfbd d9ec c03d 26bf 0d3e 5fb6 44be
000000c0: 83a5 393e 9e71 173e 66c6 ae3e bd19 df3d
000000d0: 7502 af3d 1455 9c3e e5dd 133e da6f 53bd
000000e0: 78c2 2abe dbea 8a3c 7ebe d33d e376 1d3d
000000f0: 829c 303d 5c69 e23d 250b c73d 51d0 1cbe
00000100: ad33 78bd ff2f 5f3d 24a5 e43d 7e70 a5bc
00000110: ae1f b5bd 702d 4b3d c2de e73d fab0 3a3d
00000120: d01d 2dbd b86e 8d3e a30e 283e d7d5 ebbd
00000130: c494 bdbc f23b 823d f5ba 313e 07e9 783e
00000140: 5ea6 bf3c 8e0a df3d 4a1c dfbd 58db c53c
00000150: ce02 c23b 2cff 5a3e 60a1 e83d adcb 5abd
00000160: 13b2 c73b 3e2d 9a3d a1ca 04bf d601 a33d
00000170: 3eea 78bd 51d7 88be 15a1 623e 9b46 043d
00000180: 5c54 12bc 4d78 003e 12fb e73d f93f 933d
00000190: f55b 9b3d dc0c 373e 3b66 953d 97f5 0a3d
000001a0: 3170 003e 67bb 673e 4886 293e 77d9 8b3d
000001b0: 70dd 04be e7ae 0abd fb89 583d b9d2 debd
000001c0: 8f4f 6d3d c4d2 b73d 2eee 9a3e 1a14 713e
000001d0: df1f 5f3d 5144 ee3c 662f 0c3e 80e0 eabc
000001e0: a0b2 33be 3ca6 2a3e bc96 e03e 5da9 06bd
000001f0: 03a4 d03c 2242 6b3d 97a7 abbd 8cfb 15be
00000200: 49a5 ce3e 1147 05be 9a5e a23d 6666 fe3c
00000210: 1c84 653e 48fd 2cbe 2975 32bd b921 fc3d
00000220: bc55 153e ff22 2bbd b3e6 68bd faaa 603e
00000230: 9efb 6dbe f36f 153e 2337 1fbe 4817 b9bd
00000240: c894 4f3e 59e7 8abe 67b3 76be 7141 493e
00000250: beca 313e 529f 11bd a601 06be bfc8 443e
00000260: f94a be3d 07d7 9f3e 0508 d5be 13a8 8f3c
00000270: 3297 ea3c c89f 2cbe 8cc2 683f 760f 4cba
00000280: fe34 ec3e a173 dd3c 176c ae3d 43a2 dabc
00000290: c42e 9abe df8f 48be 6460 7abe 98d8 34be
000002a0: 270b 303e e411 2f3d 0372 0ebe 6dc8 d2bf
000002b0: b5e5 b33e 16a7 9f3e 9dbf 7e3d 2d8c f33e
000002c0: f2e6 e5bd e3b6 13be 372c 13be 7a60 06bd
000002d0: e671 bcbe 0b25 e73e 4c25 1c3d 8b16 293e
000002e0: 6cc1 b2be 5b41 923d e4cf 693d 73ed 93bd
000002f0: 2c03 0a3e 3f82 99bd 6e71 9f3d 160e a8be
00000300: 8892 2b3e 5671 90bc a800 223e 5a1b a63e
00000310: 792b 2d3e a0ba 7e3d 3db0 0f3e 2e30 5e3e
00000320: 37f9 573d e845 913e aac5 543d 0559 743e
00000330: d704 813e 6e9c 123e 7e19 663e b086 8c3e
00000340: 1a1d b9bd c92c 043d 8838 953e af50 2d3e
00000350: 72fb 843e 3679 683e c72a 4bbe 0cd1 30be
00000360: 2c6f 2fbe 38ce 643d e546 a13b ee8b de3d
00000370: 05be e1bc 7688 b2be 632f e73d d7a2 8c3e
00000380: 6613 d1bd 626e ab3e 468f a33d 22d7 9c3e
00000390: 1d46 b5bd 3d78 61be befb a03d f05f 94be
000003a0: d8d3 4abe 73fe 8b3e a6a9 453e 0a1d 95be
000003b0: d13d 8c3e 0a06 823c 24d6 5b3e 93b1 24be
000003c0: d0d4 3cbe e395 f2bd 4b5c e53d f3b0 5bbe
000003d0: cbeb 9c3d ef39 bfbd 9564 753d e264 843d
000003e0: b504 263e 6206 5ebe 93c6 753e c37e 0bbe
000003f0: f1a5 f33d fcba 0f3e b3ce 4b3e 5f28 c43d

lstm.weight_hh_l0 f4 [256, 64]
0.23383029 -0.14876653 0.019775998 0.075912744 0.23639849 -0.11139647 -0.07243318 0.070944294
0.1538752 0.10733846 -0.014050531 -0.13482642 -0.18446873 0.0851647 -0.1333884 0.24769647
0.18033905 -0.030396067 0.037893556 0.14396001 -0.055810474 0.09724727 -0.10223474 0.19866225
0.23972629 0.21945618 0.08773903 0.0910741 0.075027786 -0.26380104 0.05985973 0.122074135
0.06023511 0.062519066 0.06608473 -0.16068582 -0.065284416 -0.18015872 -0.10322489 -0.28975937
0.083905354 -0.10977217 0.087825574 -0.09780347 0.056153037 0.15935987 0.034437664 0.25814086
-0.2765344 -0.08422487 0.1685748 -0.31577188 0.04268266 0.17066035 0.10458878 -0.0151530765
-0.083463594 0.34474686 -0.032137763 -0.09328319 0.123947345 -0.03533895 -0.15454613 -0.06732569
-0.014385449 -0.107261024 0.28524044 0.18579721 0.16755047 -0.17556758 0.08735807 0.08335988
0.15380992 0.1074148 -0.12628746 0.0925746 -0.21666013 0.18215336 -0.13203008 -0.31170282
0.23252237 -0.036483828 -0.16215928 0.21262528 0.13830999 -0.07208527 -0.17718215 0.10127631
0.39297995 0.102727346 -0.10748838 0.105108805 0.21696271 -0.019452026 0.043074563 0.18281165
0.055350427 0.14736384 0.076863356 -0.10186989 -0.048582423 -0.22621268 -0.15429431 0.01778871
0.2194426 -0.0699981 -0.10836752 0.08198334 0.038996898 0.16148387 0.20305504 -0.07963236
-0.25810966 -0.13481091 -0.04660468 -0.2515706 -0.0028425572 -0.008597172 0.24664737 0.14798771
-0.053568423 0.37583733 0.04656872 -0.2329485 0.12150978 -0.14705496 0.050083894 -0.101690866
0.11252258 0.06983379 0.113669865 0.19665866 0.14290556 -0.2232066 -0.20211034 0.19934106
0.1918414 -0.025082253 -0.05856625 0.088097125 -0.083177805 0.0474323 -0.14709617 0.09147193
0.13728034 -0.21401106 -0.0023911155 0.18152507 0.0479042 0.07270859 -0.09594332 0.046368536
0.17970815 0.063392214 -0.039133433 0.25975227 0.024567666 -0.37846196 0.10260179 0.046038456
-0.11448656 0.09149064 0.16875386 -0.09851343 0.0216038 -0.11179012 -0.03177026 -0.2559362
0.11582334 -0.11010144 -0.068767674 -0.05943942 0.038695104 0.07400211 0.22615355 -0.00016921056
-0.072786145 0.022961685 -0.11656858 -0.027539996 0.06234741 0.061767347 0.080255926 0.19494988
-0.05347186 0.18160033 -0.024067894 -0.4303469 -0.031061592 -0.11772072 0.062106967 -0.26185852
0.031141547 -0.22229266 -0.0145379 0.05798259 0.052712224 0.08173241 0.019310098 -0.09770147
-0.06647236 -0.03867051 0.02514057 0.099609524 -0.037597004 0.033976614 0.0395693 0.06647806
0.0043890765 -0.08421349 -0.1408365 0.039566427 0.06084688 -0.011850205 -0.21557547 0.2538843
-0.05312766 0.1411318 0.019329209 0.07047678 0.105140924 -0.23711833 -0.02546836 -0.0071518673
0.084502436 -0.035156038 0.12871546 0.046891592 -0.05781777 -0.18470457 -0.10629256 -0.27916524
-0.061617453 0.06660615 -0.11666195 -0.02499245 0.24232446 -0.045775834 -0.15270394 0.2944209
0.02369003 0.010947944 0.04898715 -0.09136122 -0.10202891 0.08308064 0.042627446 0.1211414
-0.10721126 0.12219914 0.13572581 -0.08027896 0.11530412 -0.04084917 -0.09579047 -0.013847555
00000000: 3571 6f3e 4156 18be 4601 a23c 2478 9b3d
00000010: 7212 723e d523 e4bd d957 94bd 3e4b 913d
00000020: 7691 1d3e 44d4 db3d 3334 66bc f00f 0abe
00000030: 5fe5 3cbe d56a ae3d f896 08be 25a4 7d3e
00000040: cdaa 383e 2c01 f9bc 4636 1b3d 416a 133e
00000050: 8699 64bd 9429 c73d 7360 d1bd 1e6e 4b3e
00000060: cf7a 753e 1fb9 603e 85b0 b33d 0f85 ba3d
00000070: 2ba8 993d ee10 87be 7a2f 753d 0102 fa3d
00000080: 17b9 763d ff09 803d 6e57 873d d38a 24be
00000090: d6b3 85bd 877b 38be 9267 d3bd 575b 94be
000000a0: 92d6 ab3d 3bd0 e0bd e5dd b33d 304d c8bd
000000b0: ba00 663d 3c2f 233e 820e 0d3d 0a2b 843e
000000c0: eb95 8dbe 177e acbd df9e 2c3e daac a1be
000000d0: 03d4 2e3d 96c1 2e3e a432 d63d 9c44 78bc
000000e0: f6ee aabd a982 b03e e3a2 03bd 420b bfbd
000000f0: 1bd8 fd3d 93bf 10bd 5741 1ebe 0de2 89bd
00000100: f2b0 6bbc abab dbbd 090b 923e a041 3e3e
00000110: 5a92 2b3e fdc7 33be cae8 b23d 96b8 aa3d
00000120: 5980 1d3e 4afc db3d 8051 01be c097 bd3d
00000130: 27dc 5dbe 6986 3a3e e532 07be 8397 9fbe
00000140: 581a 6e3e 1170 15bd 150d 26be 71ba 593e
00000150: 22a1 0d3e 71a1 93bd 3d6f 35be f469 cf3d
00000160: ab34 c93e b762 d23d de22 dcbd 4943 d73d
00000170: 792b 5e3e db59 9fbc f46e 303d fa32 3b3e
00000180: 21b7 623d 8ce6 163e 896a 9d3d 29a1 d0bd
00000190: 5dfe 46bd 4ca4 67be 54ff 1dbe a1b9 913c
000001a0: 90b5 603e 2a5b 8fbd caef ddbd e2e6 a73d
000001b0: 36bb 1f3d 075c 253e a9ed 4f3e 4a16 a3bd
000001c0: f326 84be df0b 0abe 8de4 3ebd ddcd 80be
000001d0: 324a 3abb 27db 0cbc 2191 7c3e 178a 173e
000001e0: 906a 5bbd c06d c03e d8be 3e3d 0d8a 6ebe
000001f0: 1fda f83d 9395 16be c524 4d3d 4d43 d0bd
00000200: 3d72 e63d 0505 8f3d bfcb e83d e360 493e
00000210: d655 123e 4590 64be 03f6 4ebe 1020 4c3e
00000220: 1272 443e 4c79 cdbc 2ae3 6fbd 446c b43d
00000230: 2059 aabd 5f48 423d 61a0 16be a355 bb3d
00000240: 3893 0c3e b725 5bbe 43b4 1cbb b5e1 393e
00000250: 3237 443d 3ee8 943d ee7d c4bd efec 3d3d
00000260: 6a05 383e c7d3 813d 614a 20bd 40fe 843e
00000270: 2142 c93c c4c5 c1be e320 d23d d292 3c3d
00000280: ee77 eabd 725f bb3d d0cd 2c3e 69c1 c9bd
00000290: 74fa b03c 38f2 e4bd 8821 02bd 120a 83be
000002a0: ca34 ed3d dd7c e1bd 11d6 8cbd c076 73bd
000002b0: c27e 1e3d 6b8e 973d cc94 673e 1d6e 31b9
000002c0: e710 95bd 251a bc3c 82bb eebd 8f9b e1bc
000002d0: ff5f 7f3d c2ff 7c3d 385d a43d f1a0 473e
000002e0: 4f05 5bbd 70f5 393e 082a c5bc 6e56 dcbe
000002f0: e174 febc 9017 f1bd e063 7e3d 5212 86be
00000300: 8f1c ff3c b0a0 63be 5f30 6ebc 277f 6d3d
00000310: c6e8 573d 5263 a73d 3630 9e3c b517 c8bd
00000320: a922 88bd f864 1ebd 99f3 cd3c 1400 cc3d
00000330: 51ff 19bd 102b 0b3d 6b13 223d a625 883d
00000340: 3ed2 8f3b 1f78 acbd 7237 10be 6810 223d
00000350: 943a 793d 5d27 42bc d1bf 5cbe 1ffd 813e
00000360: 649c 59bd db84 103e 4a58 9e3c 2156 903d
00000370: 2054 d73d 26cf 72be 06a3 d0bc 365a eabb
00000380: 9d0f ad3d c7ff 0fbd fccd 033e 6611 403d
00000390: 53d2 6cbd 3223 3dbe eaaf d9bd bfee 8ebe
000003a0: 9562 7cbd ce68 883d 76ec eebd f7bc ccbc
000003b0: e723 783e 717f 3bbd 6c5e 1cbe 56be 963e
000003c0: 9811 c23c 015f 333c c0a6 483d 971b bbbd
000003d0: 88f4 d0bd 2f26 aa3d 1e9a 2e3d fb18 f83d
000003e0: 9491 dbbd 8b43 fa3d b5fb 0a3e 4c69 a4bd
000003f0: 9124 ec3d 7651 27bd cb2d c4bd dbe0 62bc

lstm.bias_ih_l0 f4 [256]
0.091217995 0.08691024 0.052393172 -0.075508 0.18416278 0.006551793 0.18083501 -0.015519392
0.22490285 0.20700806 -0.11629873 0.20967562 0.044613034 0.09649004 0.104330815 0.18319762
0.15226462 0.1447299 0.15950868 -0.037318964 -0.048328847 0.06171245 0.08639494 0.10095773
0.12724528 0.18897146 0.06522665 0.076671235 -0.02057087 0.232259 0.24568912 -0.09730863
0.0018986993 0.10640478 0.033297505 -0.10187876 0.16833287 -0.07703636 0.037626114 -0.07304964
0.13118792 -0.028163001 -0.023662798 0.6689842 0.04532866 0.25833014 0.032322016 0.09365758
-0.050909955 0.076937124 -0.021743221 -0.09415228 -0.080715455 0.28830495 0.090742074 0.012407194
0.17428692 -0.044003382 0.060054213 0.06900859 -0.03028164 0.1175062 -0.22478959 0.028645696
-0.04097142 0.16160423 -0.07565469 0.091658354 0.08031365 0.091361634 0.09523856 0.096181326
0.070556216 0.0979866 -0.14224496 0.13815393 0.045931183 0.053675942 0.0056648576 -0.08446554
0.048153378 -0.019436976 -0.10149567 -0.10856952 0.03893754 0.09604968 -0.10358537 -0.001521967
0.19821057 0.12644365 0.0722601 0.009674039 0.1958261 0.079196416 -0.16269834 0.106340855
-0.047412183 0.061497547 -0.03489301 0.022288451 0.04376678 -0.12495616 -0.023288533 0.0033172765
-0.091015056 -0.0032421774 0.12994336 -0.26766193 -0.10590562 0.18500613 0.101875626 0.10604609
0.07109057 0.01666305 -0.0039191176 -0.071795285 -0.08014204 0.102794215 0.08666862 0.013645382
0.10386961 0.13541187 -0.20048527 0.12807845 0.026116593 0.051350486 0.07523219 0.15183365
0.04288211 0.19083346 -0.07126641 -0.19239165 0.13675682 0.1105179 -0.18861626 0.21706547
0.22198312 0.1308433 -0.08332371 -0.030312069 0.18564272 -0.0007089157 -0.051252235 0.097177364
0.22821726 -0.16156691 0.050348792 0.031709816 0.032802004 0.16154368 -0.080348045 -0.080268964
-0.06288723 0.1323688 0.05155131 0.09356965 -0.01524776 -0.3172193 0.14500351 0.017539332
-0.23342247 -0.14248924 0.15163717 0.0114674205 0.032333042 -0.0149669945 -0.11027799 0.068356626
0.012504701 -0.101603225 -0.08967836 0.08393682 0.006684451 0.14149816 0.06367867 -0.19301209
-0.026042022 -0.03245755 0.019386986 0.040691108 0.15622926 0.27682075 -0.046711203 -0.12856522
-0.12366218 0.02797908 0.17389241 0.059476756 -0.16382018 -0.05805099 -0.05613553 -0.14483893
0.30240953 -0.03105777 -0.040337704 -0.18604839 0.23208275 0.07915115 0.10698251 -0.11367582
0.03627876 -0.0010327337 0.16033803 0.003761217 0.19349177 -0.057200674 0.11238322 0.09596688
0.08897366 0.01829733 0.21672979 -0.055553596 0.034742087 0.045670517 0.049195565 0.05683451
0.03344563 0.0313696 0.19293156 0.01548016 0.12574512 0.32037657 0.2846005 -0.13851842
0.15200865 -0.13547426 0.11806428 -0.11012737 0.10273611 0.13846901 0.113440946 0.26700634
0.16335507 0.012176254 0.092861235 0.44812125 0.1879973 0.1082201 -0.04251782 0.13628724
0.13152653 0.115434624 0.17169775 0.02406241 0.22960322 0.21368349 0.22116858 0.24452749
0.15413247 0.074040845 0.034194194 0.17726389 -0.067438416 0.050206374 -0.19073106 0.288176
00000000: 80d0 ba3d fffd b13d 399a 563d f0a3 9abd
00000010: 2b95 3c3e 6cb0 d63b d02c 393e 0c45 7ebc
00000020: ef4c 663e ecf9 533e 072e eebd 35b5 563e
00000030: 28bc 363d 929c c53d 65ab d53d 2898 3b3e
00000040: 42eb 1b3e 1334 143e 3e56 233e c5db 18bd
00000050: 78f4 45bd 32c6 7c3d d5ef b03d edc2 ce3d
00000060: 964c 023e bc81 413e 8d95 853d cf05 9d3d
00000070: 3e84 a8bc 4ed5 6d3e ee95 7b3e bf49 c7bd
00000080: c7dd f83a c0ea d93d f762 083d d0a5 d0bd
00000090: 745f 2c3e 3dc5 9dbd d71d 1a3d 0d9b 95bd
000000a0: 2056 063e 18b6 e6bc 7cd8 c1bc 8c42 2b3f
000000b0: 8caa 393d d943 843e 1764 043d 8ccf bf3d
000000c0: f586 50bd 3691 9d3d d71e b2bc e9d2 c0bd
000000d0: 254e a5bd b59c 933e fbd6 b93d 8b47 4b3c
000000e0: 4578 323e e43c 34bd 68fb 753d 6054 8d3d
000000f0: 3411 f8bc 17a7 f03d 3e2f 66be 61aa ea3c
00000100: a6d1 27bd 947b 253e d9f0 9abd 60b7 bb3d
00000110: 7c7b a43d cf1b bb3d 6f0c c33d b7fa c43d
00000120: c77f 903d 33ad c83d aaa8 11be 3978 0d3e
00000130: 5622 3c3d 4edb 5b3d 45a0 b93b 45fc acbd
00000140: 7a3c 453d 4b3a 9fbc f6dc cfbd b259 debd
00000150: f87c 1f3d b2b5 c43d 9124 d4bd bd7c c7ba
00000160: b6f7 4a3e 727a 013e 1afd 933d dc7f 1e3c
00000170: a386 483e bb31 a23d 659a 26be 3cc9 d93d
00000180: 4733 42bd dae4 7b3d f9eb 0ebd 4596 b63c
00000190: cc44 333d 04e9 ffbd 98c7 bebc aa66 593b
000001a0: 1a66 babd b67a 54bb df0f 053e fc0a 89be
000001b0: 0ce5 d8bd 3f72 3d3e 2ba4 d03d b12e d93d
000001c0: ef97 913d f380 883c f16b 80bb 6809 93bd
000001d0: 8321 a4bd c685 d23d 517f b13d e190 5f3c
000001e0: 97b9 d43d 69a9 0a3e 034c 4dbe ff26 033e
000001f0: 77f2 d53c e354 523d 5613 9a3d 487a 1b3e
00000200: 27a5 2f3d d969 433e 20f4 91bd 5102 45be
00000210: fb09 0c3e 3557 e23d 9f24 41be 6946 5e3e
00000220: 8b4f 633e c9fb 053e 9fa5 aabd 0451 f8bc
00000230: 2019 3e3e 87d6 39ba dded 51bd ed04 c73d
00000240: c9b1 693e cc71 25be 893a 4e3d 27e2 013d
00000250: 655b 063d b56b 253e 848d a4bd 0e64 a4bd
00000260: 05cb 80bd b08b 073e 7727 533d 72a1 bf3d
00000270: bed1 79bc 916a a2be cd7b 143e a5ae 8f3c
00000280: 4d06 6fbe b3e8 11be c646 1b3e d9e1 3b3c
00000290: a76f 043d 2038 75bc 6dd9 e1bd 8ffe 8b3d
000002a0: 84e0 4c3c 5a15 d0bd 4aa9 b7bd 11e7 ab3d
000002b0: 3d09 db3b e5e4 103e f669 823d f6a4 45be
000002c0: 1456 d5bc 35f2 04bd 75d1 9e3c b8ab 263d
000002d0: 90fa 1f3e 73bb 8d3e 3f54 3fbd 9aa6 03be
000002e0: 9942 fdbd 6234 e53c da10 323e e69d 733d
000002f0: 7ac0 27be e0c6 6dbd 5fee 65bd a850 14be
00000300: 6cd5 9a3e dd6c febc 2639 25bd 7883 3ebe
00000310: 1aa7 6d3e 001a a23d a519 db3d dece e8bd
00000320: 0999 143d cb5c 87ba a72f 243e c07e 763b
00000330: b522 463e 414b 6abd 2c29 e63d 498a c43d
00000340: d237 b63d 48e4 953c 6aee 5d3e 2b8c 63bd
00000350: b84d 0e3d 0211 3b3d 4a81 493d 4ecb 683d
00000360: 49fe 083d 697d 003d da8f 453e 7fa0 7d3c
00000370: 54c3 003e 6608 a43e 28b7 913e c6d7 0dbe
00000380: 28a8 1b3e c4b9 0abe afcb f13d 758a e1bd
00000390: 4f67 d23d d2ca 0d3e ba53 e83d 0eb5 883e
000003a0: 8d46 273e e97e 473c 082e be3d 2670 e53e
000003b0: 5d82 403e 80a2 dd3d 2a27 2ebd e28e 0b3e
000003c0: e4ae 063e fd68 ec3d 89d1 2f3e 881e c53c
000003d0: 1b1d 6b3e d8cf 5a3e 047a 623e 6a65 7a3e
000003e0: e7d4 1d3e baa2 973d 360f 0c3d aa84 353e
000003f0: 271d 8abd 33a5 4d3d 014f 43be ce8b 933e

lstm.bias_hh_l0 f4 [256]
0.17093392 0.07477289 0.06608176 0.08013883 0.13188264 0.06478956 0.006576212 0.06551317
0.06439708 0.23654374 0.029999938 0.16652694 0.17973495 -0.029151512 0.105863474 0.19275568
0.08012244 0.01889545 0.077285096 0.058659706 0.002167915 0.087124236 0.02251205 0.0044556307
0.11538449 0.11268467 -0.011895184 0.100576766 -0.029450431 0.2735425 0.19664109 0.10318773
0.13945156 0.04474312 0.046961352 -0.0045520742 0.24056083 -0.06359883 0.06545835 -0.123471744
0.039949752 -0.0014486813 0.08593483 0.5902156 0.1103622 0.23598921 0.0664513 0.08541219
-0.10293796 -0.049818344 -0.06337317 -0.021810852 0.022085084 0.47409746 -0.04629422 0.044224568
0.15553112 0.034734167 0.24532369 0.0875954 0.11869376 0.1033971 -0.11686254 0.03825117
-0.051755656 0.041050322 -0.027488764 0.122443065 -0.027591892 0.12088062 0.04570555 0.12361736
0.20149648 0.011386119 -0.110811055 0.070354454 -0.0016174759 0.17679296 -0.08975837 -0.13267362
0.07107851 0.0039704083 -0.099979535 -0.0005554401 -0.008645886 0.107371606 -0.009115342 0.1013975
0.021525364 0.07883884 0.08444362 -0.09002795 0.17974164 0.05368971 -0.015864575 0.19207671
-0.09602415 -0.11521328 0.055269796 -0.006551401 -0.11676906 0.012858329 -0.11145653 -0.07387034
-0.051391393 -0.018130329 0.09566578 -0.2479861 -0.011083931 0.051200774 0.016448991 -0.040496703
0.03665925 -0.0022101966 0.052986186 0.0028171905 0.014438888 0.05714082 -0.036387138 -0.014544227
0.09073566 -0.0731834 0.02450099 -0.010455717 0.0907184 0.111886434 -0.06605729 0.100054376
-0.08487843 0.11385933 -0.14348619 -0.17938471 0.17266124 -0.06707977 -0.13293387 0.19337375
0.07921737 0.042553194 -0.053388745 -0.117139086 0.0029987113 -0.055449434 0.10484514 0.1786151
0.23908599 -0.14245382 -0.026949331 -0.11193286 -0.12730505 0.19278218 0.08621543 -0.048094943
0.004939026 0.23978382 0.051840235 0.13665625 -0.0025294223 -0.16530353 -0.020734336 0.022622844
-0.11956161 -0.18827201 0.14993028 -0.06510451 0.1579526 0.10807238 -0.09645187 -0.08979619
-0.012261827 -0.15221609 -0.10323879 0.080893114 -0.029754752 0.17650315 0.050521094 0.032460928
0.08986558 -0.073221736 0.07218531 -0.036594085 0.17438698 0.2608833 -0.21135859 -0.11626621
0.027695369 0.02319073 0.028727906 0.09224577 -0.09626613 -0.03203943 -0.06677738 -0.012374105
0.30559093 0.11463454 -0.10288604 -0.03555143 0.21297403 0.06195568 0.30778855 -0.05554165
0.07877453 -0.020940578 0.07149088 -0.06485286 0.14649832 0.10746527 0.09050283 0.031630136
0.07133672 0.16100071 0.26843825 0.09041629 0.0028159462 -0.008991889 0.18100756 0.13728696
0.049965214 -0.038085625 0.18469404 0.08020939 -0.05397731 0.19283384 0.21892498 -0.036637485
0.1051867 -0.0008252641 0.031053845 -0.008640742 0.084361255 0.023273833 0.12754215 0.26773772
0.06530883 -0.021383168 -0.05543557 0.36704314 0.17010382 0.027422488 -0.14293529 0.25838944
0.07273006 -0.0036623767 0.10263484 0.13651557 0.06123584 0.16895044 0.052239873 0.19414113
0.16894054 -0.021602493 -0.011440146 0.12216456 -0.02340182 0.13422711 0.009369293 0.22494684
00000000: 4d09 2f3e 8722 993d e055 873d d41f a43d
00000010: 3e0c 073e 64b0 843d 447d d73b c52b 863d
00000020: 9ee2 833d 8638 723e 6ec2 f53c 0a86 2a3e
00000030: 700c 383e 27cf eebc f3ce d83d bf61 453e
00000040: 3c17 a43d a1ca 9a3c a647 9e3d 2945 703d
00000050: 9413 0e3b 316e b23d 316b b83c 8a00 923b
00000060: b44e ec3d 38c7 e63d 05e4 42bc 31fb cd3d
00000070: 0842 f1bc c30d 8c3e 485c 493e 1754 d33d
00000080: 64cc 0e3e 9044 373d 8c5a 403d 9129 95bb
00000090: 9455 763e 1a40 82bd 070f 863d c1de fcbd
000000a0: 5aa2 233d aee1 bdba 9afe af3d 5f18 173f
000000b0: 9405 e23d 28a7 713e 9f17 883d 96ec ae3d
000000c0: 23d1 d2bd 520e 4cbd cbc9 81bd acac b2bc
000000d0: c7eb b43c e7bc f23e 029f 3dbd d224 353d
000000e0: 8d43 1f3e 6a45 0e3d 2236 7b3e 3865 b33d
000000f0: b715 f33d dcc1 d33d a155 efbd 42ad 1c3d
00000100: bdfd 53bd 6224 283d 1e30 e1bc 6ec3 fa3d
00000110: 6408 e2bc 4290 f73d be35 3b3d 192b fd3d
00000120: 1855 4e3e d88c 3a3c e8f0 e2bd ff15 903d
00000130: 7c01 d4ba 3709 353e 3cd3 b7bd 98db 07be
00000140: 9c91 913d 331a 823b 12c2 ccbd f49a 11ba
00000150: 79a7 0dbc a5e5 db3d 8458 15bc 7ea9 cf3d
00000160: f655 b03c 4276 a13d c7f0 ac3d 9360 b8bd
00000170: 310e 383e bee9 5b3d 6df6 81bc c2af 443e
00000180: 4fa8 c4bd f1f4 ebbd 9562 623d 23ad d6bb
00000190: 9e24 efbd beab 523c 5243 e4bd 5549 97bd
000001a0: c87f 52bd 0e86 94bc 6cec c33d 11f0 7dbe
000001b0: 6099 35bc e7b7 513d 09c0 863c dfdf 25bd
000001c0: 0228 163d f2d8 10bb 0b08 593d 9da0 383b
000001d0: 1691 6c3c 7e0c 6a3d ae0a 15bd e94a 6ebc
000001e0: 9ed3 b93d 2ee1 95bd 4db6 c83c 754e 2bbc
000001f0: 92ca b93d b724 e53d 0b49 87bd 4fe9 cc3d
00000200: bed4 adbd 152f e93d 0bee 12be a0b0 37be
00000210: 1cce 303e 1e61 89bd d11f 08be c503 463e
00000220: b73c a23d 424c 2e3d 28ae 5abd 9ee6 efbd
00000230: 0786 443b f21e 63bd 0cb9 d63d e0e6 363e
00000240: f5d2 743e 6adf 11be d8c4 dcbc 0e3d e5bd
00000250: 415c 02be b168 453e b791 b03d 34ff 44bd
00000260: 8ed7 a13b e489 753e 6d56 543d 9eef 0b3e
00000270: aac4 25bb 5445 29be 0edb a9bc 8b53 b93c
00000280: b8dc f4bd 61ca 40be 5387 193e 8355 85bd
00000290: 54be 213e 0d55 dd3d 8f88 c5bd 11e7 b7bd
000002a0: d4e5 48bc 89de 1bbe dc6e d3bd 4aab a53d
000002b0: 3dc0 f3bc 3ebd 343e 35ef 4e3d c0f5 043d
000002c0: 720b b83d 47f5 95bd e4d5 933d aee3 15bd
000002d0: 8092 323e 7f92 853e 636e 58be fb1c eebd
000002e0: 66e1 e23c 7cfa bd3c c956 eb3c 5aeb bc3d
000002f0: 2d27 c5bd c73b 03bd 94c2 88bd c2bc 4abc
00000300: 6a76 9c3e 84c5 ea3d ebb5 d2bd 609e 11bd
00000310: dd15 5a3e 3dc5 7d3d 7696 9d3e a47f 63bd
00000320: 8a54 a13d 938b abbc cf69 923d 94d1 84bd
00000330: a803 163e c016 dc3d 8c59 b93d 9a8e 013d
00000340: fc18 923d 5fdd 243e bd70 893e 2d2c b93d
00000350: bd8b 383b b752 13bc 0c5a 393e f494 0c3e
00000360: 53a8 4c3d acff 1bbd 6f20 3d3e d244 a43d
00000370: 5017 5dbd 3c76 453e df2d 603e 3011 16bd
00000380: 206c d73d 8956 58ba a264 fe3c e691 0dbc
00000390: 98c5 ac3d c4a8 be3c 699a 023e eb14 893e
000003a0: a3c0 853d c12b afbc 6910 63bd 14ed bb3e
000003b0: b22f 2e3e 20a5 e03c a15d 12be 9f4b 843e
000003c0: 7ff3 943d 7c04 70bb 3732 d23d bdca 0b3e
000003d0: 6fd2 7a3d 5801 2d3e 7af9 553d efcc 463e
000003e0: c0fe 2c3e b6f7 b0bc 736f 3bbc 6a31 fa3d
000003f0: 2cb5 bfbc d572 093e aa81 193c 7758 663e

lstm.weight_ih_l1 f4 [256, 64]
0.013588732 -0.114607625 -0.049235012 -0.09460763 0.08515583 -0.039199013 -0.06531048 -0.0055876193
0.012868149 0.18213674 -0.060562406 -0.08495003 -0.15378647 -0.041876223 0.009428914 0.011095499
-0.009227435 0.00887417 -0.051862814 0.12838049 0.031810217 0.0957683 0.020767517 0.13041972
0.024942866 0.0365741 -0.12456987 -0.029115396 -0.113515384 -0.090934865 0.105396025 -0.10293894
-0.069401145 0.05574945 -0.056172024 0.010248444 0.075672284 -0.14475751 -0.094309695 -0.014370611
0.015037253 -0.14183088 0.08089257 -0.22852851 0.010949129 0.07753549 0.08327387 0.10184277
0.03948312 -0.15378626 -0.016906973 0.064718746 -0.0022844358 0.10068291 -0.043172237 0.019277988
0.042486865 -0.013769668 -0.11297921 0.009216164 -0.06916482 -0.09969343 -0.2502098 -0.12949805
-0.11764325 -0.004575703 0.04318588 -0.06343033 -0.008615913 -0.058606755 0.035747863 -0.06562444
0.014577451 0.11234809 0.15254748 0.030920312 0.102050774 -0.08326975 -0.04098989 0.26012656
-0.06754811 0.095529184 0.04717739 -0.004695698 -0.07890649 0.100857556 0.039741606 0.14349549
0.16240756 0.10550803 -0.22550204 -0.0849204 0.13051546 -0.049731724 0.044069648 -0.0026737088
-0.19756365 0.13262817 -0.034257505 0.0881558 0.013287758 0.09065245 0.07506522 0.20782349
-0.08556321 -0.060513426 0.04631132 -0.13820474 -0.008001328 0.096759155 0.03082519 -0.0059970412
-0.01563052 -0.09937892 0.19562219 -0.09289749 0.08895091 -0.009065178 -0.044579197 0.07722936
-0.17001893 0.04159863 -0.069688566 -0.18468942 -0.022286877 0.07611677 0.004735182 -0.15639466
0.041791882 -0.23835082 0.018993605 -0.13920766 0.13090703 0.11930468 -0.015874341 0.051325697
0.04176656 0.52989465 0.017748937 0.038931955 -0.1825615 -0.022566456 -0.13836898 0.7982755
0.13329013 0.006258844 -0.009126422 0.0846446 -0.008859033 0.006103575 -0.0032242066 0.08395179
0.119280994 0.1629748 -0.22063035 -0.099002905 0.025301214 0.1059648 0.04691992 -0.027360214
-0.19299673 -0.05341091 -0.094624005 -0.044818893 -0.05138802 -0.28739086 -0.06583497 -0.22372891
0.056814957 0.00370218 -0.005779987 0.13868277 0.28888232 0.0012361151 -0.033950333 -0.12570268
0.05521709 -0.14820208 0.027649062 -0.15365766 -0.10348525 0.10843309 -0.019720504 0.10838602
-0.09133957 -0.0026525091 -0.032776628 -0.2761771 0.14049926 0.09206888 -0.25697735 -0.15259072
0.16481666 0.07040272 -0.1225776 0.0059309187 0.20989507 0.045058127 0.06748515 0.11584926
-0.070606306 0.1378194 -0.23219915 -0.048265684 0.13019374 0.023148863 0.02368989 0.104896024
-0.00035235813 -0.004236945 -0.093039945 0.041476995 -0.12971884 0.039052434 -0.08754731 0.054202758
0.14813602 -0.0024956258 0.11227548 -0.10595274 0.03098482 -0.29386705 0.06376644 0.10396688
-0.036805782 -0.124944694 -0.10220943 -0.09219482 -0.038130406 -0.0013897334 0.0098098805 -0.048552316
-0.007216149 0.099547125 -0.16171062 -0.367572 -0.08761793 0.06114225 0.12665677 0.043105915
-0.11571481 -0.14039814 0.055986874 -0.11653391 -0.09623145 0.009244989 -0.08861924 -0.1745525
-0.03825681 -0.043866117 0.00962514 0.0184384 -0.02669462 0.055438567 -0.12004031 -0.14942451
00000000: 46a3 5e3c 67b7 eabd a7aa 49bd a5c1 c1bd
00000010: 2e66 ae3d 258f 20bd 80c1 85bd 5918 b7bb
00000020: eed4 523c 0e82 3a3e 4910 78bd 48fa adbd
00000030: 337a 1dbe 6786 2bbd bb7b 1a3c e5c9 353c
00000040: ab2e 17bc f764 113c 1a6e 54bd 2d76 033e
00000050: 6e4b 023d 2c22 c43d a420 aa3c bf8c 053e
00000060: fb54 cc3c b9ce 153d 7d1e ffbd 6983 eebc
00000070: c17a e8bd 0f3c babd dfd9 d73d a7d1 d2bd
00000080: 3022 8ebd 8959 643d a314 66bd 17e9 273c
00000090: 12fa 9a3d 503b 14be 7125 c1bd b672 6bbc
000000a0: cf5e 763c 1d3c 11be 01ab a53d 6103 6abe
000000b0: fa63 333c edca 9e3d 7e8b aa3d f192 d03d
000000c0: 0db9 213d 257a 1dbe 7e80 8abc 438b 843d
000000d0: 79b6 15bb d732 ce3d 5fd5 30bd dfec 9d3c
000000e0: b506 2e3d 2c9a 61bc a561 e7bd 65ff 163c
000000f0: 49a6 8dbd 122c ccbd 801b 80be 239b 04be
00000100: f2ee f0bd c7ef 95bb ade3 303d c3e7 81bd
00000110: c229 0dbc a30d 70bd 5a6c 123d 1b66 86bd
00000120: 43d6 6e3c c116 e63d 6835 1c3e 984c fd3c
00000130: ffff d03d 5589 aabd 04e5 27bd 4f2f 853e
00000140: aa56 8abd cea4 c33d 143d 413d 5fde 99bb
00000150: ba99 a1bd 688e ce3d 18c8 223d 7bf0 123e
00000160: 2b4e 263e 9814 d83d 02ea 66be bfea adbd
00000170: d8a5 053e 7eb3 4bbd 6082 343d 6439 2fbb
00000180: 204e 4abe aecf 073e 9951 0cbd 078b b43d
00000190: e6b4 593c fea7 b93d cbbb 993d aecf 543e
000001a0: c43b afbd eddc 77bd f0b0 3d3d 8b85 0dbe
000001b0: 0118 03bc aa29 c63d 1c85 fc3c d482 c4bb
000001c0: 940b 80bc 2d87 cbbd 2f51 483e 0a41 bebd
000001d0: e52b b63d 1d86 14bc ad98 36bd 6d2a 9e3d
000001e0: 7119 2ebe 5363 2a3d e1b8 8ebd 391f 3dbe
000001f0: f892 b6bc 1ce3 9b3d 9629 9b3b ec25 20be
00000200: f72d 2b3d 3d12 74be 7a98 9b3c 748c 0ebe
00000210: 7e0c 063e 0356 f43d e80a 82bc e53a 523d
00000220: 6a13 2b3d 2da7 073f 3866 913c 1d77 1f3d
00000230: 67f1 3abe 4add b8bc 99b0 0dbe c85b 4c3f
00000240: 357d 083e fd16 cd3b fd86 15bc 265a ad3d
00000250: 7a25 11bc 8000 c83b 364d 53bb ebee ab3d
00000260: 9849 f43d dee2 263e ecec 61be 09c2 cabd
00000270: 7e44 cf3c 1304 d93d 1a2f 403d 8722 e0bc
00000280: efa0 45be 66c5 5abd 3bca c1bd 0494 37bd
00000290: 3f7c 52bd e524 93be 7cd4 86bd 3119 65be
000002a0: cdb6 683d 46a0 723b 0c66 bdbb db02 0e3e
000002b0: 62e8 933e 2405 a23a 810f 0bbd 34b8 00be
000002c0: 512b 623d 49c2 17be 4980 e23c 6f58 1dbe
000002d0: 13f0 d3bd 2b12 de3d e58c a1bc 7df9 dd3d
000002e0: 3e10 bbbd b8d5 2dbb c940 06bd 1667 8dbe
000002f0: 0adf 0f3e 9c8e bc3d 8992 83be be40 1cbe
00000300: b3c5 283e 4d2f 903d f709 fbbd 2758 c23b
00000310: bcee 563e df8e 383d a835 8a3d 6042 ed3d
00000320: 0a9a 90bd 8720 0d3e 9dc5 6dbe 3db2 45bd
00000330: 8251 053e afa2 bd3c 4d11 c23c bad3 d63d
00000340: b5bc b8b9 12d6 8abb ba8b bebd c8e3 293d
00000350: 04d5 04be 72f5 1f3d 014c b3bd b603 5e3d
00000360: f8b0 173e a78d 23bb b0f0 e53d c0fd d8bd
00000370: e1d3 fd3c be75 96be fb97 823d 96ec d43d
00000380: a9c1 16bd 01e3 ffbd 2d53 d1bd a3d0 bcbd
00000390: a12e 1cbd b727 b6ba 9fb9 203c cbde 46bd
000003a0: 7275 ecbb 5ddf cb3d 7897 25be 6632 bcbe
000003b0: 0771 b3bd 4c70 7a3d 50b2 013e d48f 303d
000003c0: e3fb ecbd 88c4 0fbe 7e52 653d 55a9 eebd
000003d0: ff14 c5bd 4b78 173c 017e b5bd e4bd 32be
000003e0: 2cb3 1cbd f5ac 33bd c3b2 1d3c 210c 973c
000003f0: adae dabc 8d13 633d b2d7 f5bd bd02 19be

lstm.weight_hh_l1 f4 [256, 64]
0.0706282 -0.04550367 0.13776945 0.10995818 0.0070826337 0.032440163 -0.051795144 -0.1696377
-0.052278914 0.033188656 -0.084420085 -0.12183462 -0.057858087 0.04762676 0.03510545 -0.2873698
0.10506024 -0.059399493 0.0009622681 -0.16853222 0.011316427 0.14933337 -0.030257221 0.027076455
-0.13047232 0.021116469 -0.020091748 0.028252242 -0.093214214 -0.08539608 0.07226402 -0.08683316
0.00044357637 -0.0876792 -0.14309882 -0.2159445 -0.023035107 -0.036053695 0.074278586 0.1427593
-0.014659249 0.07879207 -0.00875266 0.103472605 0.061446406 -0.13144444 0.04777507 0.13961162
0.0020521085 -0.051430125 0.10736662 0.015784087 -0.079086564 0.023383332 0.10395903 0.033876367
-0.0030175298 -0.010031541 0.0055329856 -0.0032725816 0.063248195 -0.029067429 -0.1453352 0.020655524
-0.19342183 0.09118446 0.10980951 -0.04595684 -0.25093865 0.056674793 -0.0050031287 -0.107358955
-0.061244056 -0.02726084 0.0051708864 -0.025250303 -0.047661938 -0.114506304 0.29006383 0.08273825
0.09274403 -0.15987398 0.04246097 -0.12398149 -0.05837118 -0.022860343 -0.070959635 -0.06830763
-0.1896522 -0.16123484 -0.20906043 -0.152545 0.01640372 -0.015546116 -0.05202517 0.057935927
0.049877875 0.003541586 -0.003548428 -0.07206785 0.029269543 -0.180824 -0.045823738 -0.017671078
-0.036470134 -0.065632 -0.019443331 0.07003995 0.0036401476 -0.1664861 0.09550691 0.17110962
-0.09545205 0.14220692 0.16709054 0.06329069 -0.050516024 0.1156766 0.077628955 -0.08912383
-0.020346137 -0.051964574 0.08225508 -0.08856779 0.044296335 0.13852578 0.04898501 -0.09664025
-0.17989019 0.0181943 0.15282604 0.34057254 -0.2251995 0.25993037 -0.099208616 -0.15480213
-0.3043166 0.074348055 0.023976682 -0.17684904 0.12442495 0.017762955 0.063776106 0.18032481
0.31090713 -0.11395429 0.0019850053 -0.4719084 -0.1992296 0.2811546 -0.01119971 0.13431954
-0.22327195 -0.09461453 0.03754072 -0.077957645 -0.13874769 0.012554105 0.23657086 -0.20837641
-0.12905319 0.09303967 -0.17257994 -0.07648125 -0.11726176 -0.33843362 -0.08435016 -0.192875
0.07173572 0.005912985 0.11107616 0.057846285 0.25863716 -0.025280489 0.12313557 0.28591523
-0.32157215 0.20327903 0.061988626 0.29024392 -0.30251205 0.046753265 0.2710446 -0.15886079
-0.055447947 0.15754244 -0.071386196 -0.17399128 0.17348847 0.008455897 0.024236487 -0.16229552
0.11309267 0.15160878 -0.003205007 -0.13689165 -0.044805575 0.09751887 -0.14130901 -0.020970019
0.024591226 -0.024990566 -0.032858312 -0.09121286 0.14758365 -0.00082450197 -0.05037047 -0.2608908
-0.10196411 -0.13416792 -0.04698022 -0.16111532 0.15183885 -0.13085973 0.0011294192 -0.024807733
0.068052344 -0.15325889 -0.12573075 0.0011452074 -0.027385453 -0.066961326 0.070645705 0.041726153
-0.049155664 -0.0893156 0.09344417 0.020270731 -0.06454884 -0.026807893 -0.034620985 0.14990556
0.05298881 -0.14896417 0.09908856 0.075689 0.043321155 0.007457355 0.060584687 0.11116943
-0.15896833 -0.11154604 -0.12664075 0.045382995 0.16002804 0.10427342 -0.004493047 0.043694988
-0.10461317 -0.10160527 0.03373393 -0.023510557 -0.018607514 -0.18577231 -0.10325638 0.016890781
00000000: 85a5 903d 0e62 3abd 6f13 0d3e c131 e13d
00000010: 7015 e83b fadf 043d 2527 54bd 81b5 2dbe
00000020: 6a22 56bd d4f0 073d 70e4 acbd 6e84 f9bd
00000030: 9afc 6cbd 4714 433d bbca 0f3d 2222 93be
00000040: d329 d73d e24c 73bd b840 7c3a b693 2cbe
00000050: 8968 393c d9ea 183e fedd f7bc 71cf dd3c
00000060: 899a 05be 72fc ac3c 7397 a4bc 3f71 e73c
00000070: 18e7 bebd 24e4 aebd 29ff 933d 95d5 b1bd
00000080: d08f e839 2791 b3bd 7f88 12be 8e20 5dbe
00000090: 1fb4 bcbc 0aad 13bd 5f1f 983d 7e2f 123e
000000a0: 592d 70bc bd5d a13d 5167 0fbc 72e9 d33d
000000b0: 3aaf 7b3d 5f99 06be cbaf 433d 59f6 0e3e
000000c0: ab7c 063b 65a8 52bd 08e3 db3d a14d 813c
000000d0: 23f8 a1bd 678e bf3c 79e8 d43d f2c1 0a3d
000000e0: c0c1 45bb 555b 24bc 0c4e b53b cf78 56bb
000000f0: 4588 813d d11e eebc c0d2 14be c635 a93c
00000100: 5f10 46be ebbe ba3d cfe3 e03d 3d3d 3cbd
00000110: 087b 80be d423 683d 49f1 a3bb 03df dbbd
00000120: 0cdb 7abd 2052 dfbc 8a70 a93b b9d9 cebc
00000130: 2a39 43bd 4882 eabd 3f83 943e ac72 a93d
00000140: 95f0 bd3d 01b6 23be 8eeb 2d3d 02ea fdbd
00000150: 9e16 6fbd 9d45 bbbc 4953 91bd dfe4 8bbd
00000160: 3034 42be bf1a 25be f013 56be c234 1cbe
00000170: 1861 863c 23b5 7ebc 5818 55bd 394e 6d3d
00000180: be4c 4c3d f419 683b be8c 68bb 4f98 93bd
00000190: aec6 ef3c ed29 39be acb1 3bbd f0c2 90bc
000001a0: b561 15bd 126a 86bd 9f47 9fbc 1b71 8f3d
000001b0: 8b8f 6e3b 557b 2abe 2099 c33d 5c37 2f3e
000001c0: 5d7c c3bd b19e 113e c819 2b3e 8d9e 813d
000001d0: e4e9 4ebd dae7 ec3d eefb 9e3d 8e86 b6bd
000001e0: f1ac a6bc ced8 54bd 5a75 a83d 0863 b5bd
000001f0: 1370 353d b4d9 0d3e 81a4 483d 53eb c5bd
00000200: 2235 38be 360c 953c 6e7e 1c3e 865f ae3e
00000210: b39a 66be 9815 853e e32d cbbd 7384 1ebe
00000220: 63cf 9bbe cb43 983d bf6a c43c ea17 35be
00000230: 82d2 fe3d 9e83 913c 0c9d 823d 11a7 383e
00000240: 382f 9f3e de60 e9bd dd16 023b fa9d f1be
00000250: d802 4cbe 7ff3 8f3e fd7e 37bc 108b 093e
00000260: 67a1 64be 43c5 c1bd 4cc4 193d 42a8 9fbd
00000270: e013 0ebe bcaf 4d3c a23f 723e a060 55be
00000280: 8526 04be 958b be3d ccb8 30be 34a2 9cbd
00000290: ef26 f0bd 2c47 adbe c7bf acbd 0681 45be
000002a0: 2dea 923d b7c1 c13b e67b e33d 3af0 6c3d
000002b0: 176c 843e 0719 cfbc 802e fc3d 7b63 923e
000002c0: 1ba5 a4be 6128 503e c9e7 7d3d da9a 943e
000002d0: dce2 9abe 5a80 3f3d 5cc6 8a3e 67ac 22be
000002e0: 631d 63bd ce52 213e ed32 92bd c52a 32be
000002f0: f6a6 313e 9a8a 0a3c 998b c63c cc30 26be
00000300: 219d e73d 553f 1b3e 180b 52bb 532d 0cbe
00000310: 0d86 37bd f9b7 c73d 4fb3 10be 51c9 abbc
00000320: 8a73 c93c 04b9 ccbc 7096 06bd cfcd babd
00000330: 2b20 173e 6423 58ba 4451 4ebd 7b93 85be
00000340: 8fd2 d0bd 5163 09be 556e 40bd 6afb 24be
00000350: a57b 1b3e 1800 06be 0509 943a 9639 cbbc
00000360: 075f 8b3d e6ef 1cbe 90bf 00be c91a 963a
00000370: 7557 e0bc 0523 89bd b2ae 903d 0be9 2a3d
00000380: 7357 49bd 19eb b6bd a85f bf3d ce0e a63c
00000390: 2f32 84bd 3a9c dbbc bcce 0dbd d880 193e
000003a0: cb0a 593d 108a 18be f1ee ca3d d602 9b3d
000003b0: 8671 313d d45c f43b a627 783d ccac e33d
000003c0: 98c8 22be 4072 e4bd 1dae 01be 85e3 393d
000003d0: 64de 233e 4e8d d53d 693a 93bb 84f9 323d
000003e0: 6e3f d6bd 6c16 d0bd 972c 0a3d 3699 c0bc
000003f0: c96e 98bc 193b 3ebe 1578 d3bd 895e 8a3c

lstm.bias_ih_l1 f4 [256]
-0.06935416 -0.021682864 -0.09356865 0.06580191 -0.010276846 0.056092277 0.10893551 -0.007914436
0.022185434 -0.06201449 -0.054117814 -0.062007155 -0.072595514 -0.07948126 0.107647836 -0.08595306
0.00876726 -0.053996418 -0.021399643 0.07757878 0.060062405 -0.009141855 -0.02695796 -0.08695656
0.01222804 -0.047983773 0.19238447 0.14777148 -0.04692814 -0.032199804 -0.02922251 0.09856658
0.064725846 0.0020196573 0.06517262 0.033917136 0.048975397 0.028147733 0.0472898 -0.009497089
-0.03533728 0.036404595 0.038311683 -0.05508167 0.089453295 -0.080666676 0.0022884414 0.08288829
0.037458874 -0.034614593 -0.027165804 0.06863948 0.043187693 -0.093029596 0.09061617 0.055947855
0.17912033 0.0026313968 0.117350765 0.01941303 0.18602507 0.08486931 0.2780226 0.041371755
-0.05479407 0.03351828 0.07030805 -0.04031937 -0.051831223 0.073845334 0.018548505 0.10809704
-0.037680943 0.08754014 0.057838477 -0.06633883 0.05288188 -0.023327576 0.12480632 0.113748424
0.046732258 0.121657565 0.045049615 -0.06804769 0.040544674 0.12538052 0.13981332 0.037113875
0.14724399 0.12732877 -0.03848473 -2.61658e-07 0.123391524 0.098495916 0.01778549 0.045234088
0.13313524 0.09165398 0.1323327 0.02755815 0.008153226 -0.02006115 0.11673085 -0.04339908
0.026407171 0.05193016 -0.089508496 -0.043153137 -0.003829589 -0.06583283 0.0005582525 0.045682024
0.040683303 0.03413759 -0.0918928 0.12558596 0.06539947 -0.015278123 -0.060026467 -0.09171024
-0.03411928 0.066776186 -0.051724385 -0.02856741 0.035599697 0.049706217 -0.0061417487 0.08820017
0.0162478 -0.069075935 -0.008901238 0.061968826 0.038048703 0.0021555512 -0.10107943 -0.08560305
-0.07439889 0.07316351 -0.024479635 0.11546945 -0.10507757 0.051022623 -0.09284622 0.0066860607
-0.087936886 -0.006787423 -0.03809755 -0.024022955 0.06466876 0.04491622 0.043095518 -0.04944248
0.056157246 0.10144798 0.10366042 0.048225794 -0.061433777 0.11417694 0.12949619 -0.09901765
0.027397834 -0.1229362 -0.07895195 0.13444333 -0.09679846 -0.03066367 0.044659134 -0.004169159
0.03276028 -0.15133819 0.041103117 0.023582982 -0.11866137 -0.08042207 -0.004458564 -0.021973137
0.021009231 0.056387376 -0.11254559 -0.033211075 0.12299495 0.009485388 -0.05994198 0.04079516
0.087449126 -0.017061267 -0.018259065 -0.031702418 0.10196729 -0.042130083 0.070946924 -0.07825636
0.15677989 0.053468507 0.09696854 -0.029677836 0.13288708 0.011676197 -0.05024219 -0.07586923
-0.01691524 0.14934959 0.012839367 0.10816145 -0.14628303 0.2101175 0.017750481 -0.03260256
0.0990114 0.11833412 0.07166958 0.068571724 0.11189531 0.07421001 0.0088772345 0.17420825
0.0033070394 0.1564004 0.19363219 0.16430317 0.07804111 -0.053995963 0.2183239 0.03186923
0.09468642 0.10911136 0.11488388 0.021939589 0.10075705 0.12556094 0.21740074 -0.028982129
0.10668461 0.15157816 -0.041573316 0.056822997 -0.07904321 -0.008531117 -0.06932068 0.06694021
0.014377263 0.24319656 0.16798693 0.17032598 -0.12494643 0.01302698 -0.07831641 0.03334256
0.10519744 0.044083845 -0.092758656 0.03204364 -0.025047291 0.0011938905 0.11953752 -0.009404102
00000000: 8e09 8ebd 43a0 b1bc eca0 bfbd 27c3 863d
00000010: 3760 28bc 04c1 653d 9519 df3d 8dab 01bc
00000020: 3abe b53c e802 7ebd a4aa 5dbd 37fb 7dbd
00000030: f5ac 94bd 12c7 a2bd 7876 dc3d 2808 b0bd
00000040: 8ea4 0f3c 592b 5dbd 4e4e afbc a0e1 9e3d
00000050: ff03 763d b8c7 15bc f1d6 dcbc 4816 b2bd
00000060: 1e58 483c a28a 44bd 6f00 453e 6851 173e
00000070: b937 40bd f1e3 03bd 0c64 efbc 46dd c93d
00000080: fc8e 843d 3a5c 043b 3979 853d b2ec 0a3d
00000090: 6d9a 483d 1396 e63c f3b2 413d ae99 1bbc
000000a0: d3bd 10bd fc1c 153d b6ec 1c3d 519d 61bd
000000b0: 4a33 b73d 9234 a5bd adf9 153b 56c1 a93d
000000c0: 7a6e 193d 08c8 0dbd d28a debc db92 8c3d
000000d0: 94e5 303d 4d86 bebd f894 b93d 9429 653d
000000e0: 526b 373e 8373 2c3b 9955 f03d 1308 9f3c
000000f0: 5b7d 3e3e f6cf ad3d fa58 8e3e 6e75 293d
00000100: bf6f 60bd 774a 093d abfd 8f3d ec25 25bd
00000110: fa4c 54bd 393c 973d 09f3 973c fb61 dd3d
00000120: 5557 1abd 3f48 b33d 0ae8 6c3d a7dc 87bd
00000130: ac9a 583d 7919 bfbc 759a ff3d eff4 e83d
00000140: 536a 3f3d 9a27 f93d f285 383d 965c 8bbd
00000150: 2c12 263d c063 003e 392b 0f3e b804 183d
00000160: 21c7 163e 7962 023e 2aa2 1dbd 007a 8cb4
00000170: b2b4 fc3d 3ab8 c93d e0b2 913c 6147 393d
00000180: 9b54 083e 15b5 bb3d 3982 073e a1c1 e13c
00000190: 1c95 053c 4857 a4bc 9510 ef3d 3cc3 31bd
000001a0: da53 d83c b8b4 543d 3b50 b7bd 58c1 30bd
000001b0: d8f9 7abb 5dd3 86bd b157 123a 131d 3b3d
000001c0: 89a3 263d dcd3 0b3d 4b32 bcbd 9b99 003e
000001d0: 28f0 853d 1851 7abc 50de 75bd 94d2 bbbd
000001e0: a8c0 0bbd f4c1 883d f3dc 53bd 3306 eabc
000001f0: fdd0 113d bf98 4b3d b940 c9bb 4aa2 b43d
00000200: 1b1a 853c af77 8dbd 80d6 11bc 06d3 7d3d
00000210: f5d8 1b3d 2644 0d3b bb02 cfbd a750 afbd
00000220: 725e 98bd c0d6 953d 8489 c8bc 3f7b ec3d
00000230: e932 d7bd 19fd 503d 2926 bebd be16 db3b
00000240: 4118 b4bd 0869 debb 2d0c 1cbd cacb c4bc
00000250: 0e71 843d 12fa 373d ed84 303d 3384 4abd
00000260: 2405 663d f5c3 cf3d ea4b d43d 6988 453d
00000270: fca1 7bbd 99d5 e93d a69a 043e c4c9 cabd
00000280: 6c71 e03c f9c5 fbbd 8fb1 a1bd 83ab 093e
00000290: 453e c6bd 6032 fbbc 7fec 363d 719d 88bb
000002a0: a52f 063d 66f8 1abe be5b 283d 1931 c13c
000002b0: bb04 f3bd 54b4 a4bd 2519 92bb 0201 b4bc
000002c0: 8d1b ac3c 73f6 663d 4d7e e6bd 5608 08bd
000002d0: c7e4 fb3d 9a68 1b3c b985 75bd d318 273d
000002e0: 8718 b33d 12c4 8bbc 0994 95bc 65da 01bd
000002f0: 3ad4 d03d 9890 2cbd 9f4c 913d df44 a0bd
00000300: e88a 203e cb01 5b3d 7197 c63d ef1e f3bc
00000310: 8d13 083e 854d 3f3c c1ca 4dbd 5461 9bbd
00000320: d491 8abc 19ef 183e 355c 523c c083 dd3d
00000330: 38cb 15be 0b29 573e 7569 913c 438a 05bd
00000340: 7dc6 ca3d 2959 f23d 80c7 923d 556f 8c3d
00000350: 5e29 e53d 6bfb 973d d271 113c a663 323e
00000360: eaba 583b 6d27 203e 8447 463e 173f 283e
00000370: 04d4 9f3d df2a 5dbd 4d90 5f3e 4f89 023d
00000380: f4ea c13d c775 df3d 3d48 eb3d a7ba b33c
00000390: b659 ce3d 0c93 003e 4d9e 5e3e ee6b edbc
000003a0: 767d da3d 4e37 1b3e c848 2abd 3bbf 683d
000003b0: 68e1 a1bd 19c6 0bbc 00f8 8dbd f317 893d
000003c0: 9d8e 6b3c 8508 793e c404 2c3e ef69 2e3e
000003d0: eae3 ffbd 1d6f 553c 5b64 a0bd 3592 083d
000003e0: c171 d73d 4391 343d 40f8 bdbd 3140 033d
000003f0: fa2f cdbc 517c 9c3a 16d0 f43d aa13 1abc

lstm.bias_hh_l1 f4 [256]
0.052372135 0.015223563 -0.1778468 0.07669194 0.058583137 0.066846676 0.10160687 0.015730653
-0.055062577 0.0007800434 0.16098402 -0.01173746 0.039270163 0.077464804 -0.06217413 -0.1625799
0.040860604 -0.010690184 0.10204729 0.046547078 0.0879104 -0.03978348 -0.08383798 0.13000081
0.13228999 0.057042412 0.24373879 0.15327968 0.055148274 0.093213 0.0115997195 -0.12748249
0.17141317 0.21227488 0.15171333 0.037175436 0.07027479 0.07545161 0.07108922 -0.052265387
-0.087120116 0.034058444 -0.12817119 0.020562017 0.0972481 -0.07484236 -0.041348133 0.06323689
-0.021523299 0.026235795 -0.06835736 0.05390294 -0.0073127127 -0.014104092 -0.05719423 0.09688317
0.21299821 -0.082125284 0.03831061 -0.09389674 0.18915135 0.11412159 0.2072851 -0.064297944
0.04451129 -0.035304453 0.06374969 -0.043885075 -0.001944691 0.14339381 0.073602445 -0.06422931
-0.04689865 -0.035418212 0.008226158 -3.117128e-05 0.01544142 0.09114838 -0.057474766 -0.047219392
0.057215624 -0.029328931 0.15136436 0.051581755 0.034692064 0.09636243 0.1300945 0.030802667
0.12743214 -0.025575383 -0.001253052 0.14491077 0.09416818 -0.016162649 -0.08369853 -0.025224168
-0.060610212 0.17300823 -0.0009554973 -0.1047614 0.04911243 -0.011366263 -0.0023638164 -0.054828044
0.0505605 0.06989035 0.11499943 -0.030445257 0.0982049 0.017759256 0.028978 -0.026591137
0.027952919 -0.121191844 -0.05821618 0.06415923 -0.07503879 -0.082059406 0.067856774 -0.055743676
-0.032846857 -0.012884456 0.10583196 0.03202772 0.08913367 0.07947699 0.008559773 0.04043937
0.07143432 0.11208282 -0.018881563 0.028607 -0.07490538 -0.041502174 -0.18001628 -0.0074277897
0.055026215 -0.10125031 -0.0022564624 -0.11548017 0.13399518 0.08773267 0.049256183 0.08398695
0.09593865 0.023946077 -0.012415673 -0.038242888 0.025095202 -0.008632351 0.028295403 -0.10511642
0.08137703 0.040425006 0.009109549 -0.038900014 0.005874008 -0.11343957 0.082098015 0.121524185
0.0027936185 -0.030513981 -0.0777205 -0.04222854 0.035598908 -0.13280715 -0.04487426 0.08518803
0.09784034 -0.15438218 -0.013083326 0.0963105 0.108314544 0.030492734 -0.053739935 -0.11044932
-0.09419327 0.0032909887 0.017188158 -0.06890524 -0.01593596 0.088336945 0.011056626 -0.1009769
-0.09339093 -0.056521084 -0.05996006 0.054239593 -0.027317282 -0.059232883 0.08773468 0.02412445
0.17028932 -0.14539728 -0.024794197 0.14683498 0.07674965 0.11295362 0.14346763 -0.111361854
0.0654125 0.019267503 -0.033599485 -0.032957144 -0.14755978 0.06228312 0.15891175 0.11446892
0.20923157 -0.10481103 -0.046109956 0.12463544 -0.06776097 0.0419909 0.0040875184 0.053316884
0.01790145 0.088557445 0.12090684 0.1662782 0.11445104 0.121887065 0.08575143 0.15043883
-0.004221532 0.060595833 0.057143703 -0.07550486 0.052059643 0.012826362 0.20253514 0.14488591
-0.07757944 -0.024468815 0.058013696 0.13297743 -0.0809917 0.19178978 0.17466041 0.12083481
0.028680997 0.20925464 0.044840753 0.14137046 -0.086642526 -0.060143575 0.122929126 0.1798164
0.10326755 -0.0042177984 0.018781092 0.02747219 0.00017632493 0.11581688 0.15491387 -0.007931704
00000000: 2a84 563d 406c 793c 791d 36be aa10 9d3d
00000010: dff4 6f3d e9e6 883d 4317 d03d 92dd 803c
00000020: 4c89 61bd d47b 4c3a ffd8 243e 7a4e 40bc
00000030: c0d9 203d dea5 9e3d 4daa 7ebd 587b 26be
00000040: 735d 273d e225 2fbc 2bfe d03d 26a8 3e3d
00000050: 5e0a b43d 01f4 22bd 3fb3 abbd ef1e 053e
00000060: 0777 073e 4ea5 693d a996 793e 59f5 1c3e
00000070: 28e3 613d 75e6 be3d c00c 3e3c c58a 02be
00000080: ef86 2f3e 965e 593e bd5a 1b3e 4545 183d
00000090: 3bec 8f3d 6086 9a3d 3a97 913d 3b14 56bd
000000a0: 086c b2bd de80 0b3d 4f3f 03be ad71 a83c
000000b0: 032a c73d f446 99bd a95c 29bd 5882 813d
000000c0: a151 b0bc 73ec d63c f2fe 8bbd 54c9 5c3d
000000d0: 7b9f efbb d914 67bc 7f44 6abd af6a c63d
000000e0: 341c 5a3e 4d31 a8bd 96eb 1c3d ef4c c0bd
000000f0: e4b0 413e 95b8 e93d 8c42 543e a4ae 83bd
00000100: 7851 363d 679b 10bd 338f 823d d6c0 33bd
00000110: 00e5 feba d4d5 123e e1bc 963d a88a 83bd
00000120: cc18 40bd b012 11bd 02c7 063c e8bd 02b8
00000130: 02fe 7c3c 00ac ba3d a96a 6bbd 1f69 41bd
00000140: ee5a 6a3d 3a43 f0bc 42ff 1a3e 6447 533d
00000150: 4419 0e3d aa59 c53d 7e37 053e e055 fc3c
00000160: 927d 023e 7783 d1bc 733d a4ba 7d63 143e
00000170: 3fdb c03d 8867 84bc 236a abbd eaa2 cebc
00000180: 6a42 78bd 1229 313e 577a 7aba 258d d6bd
00000190: 1e2a 493d 9039 3abc 42ea 1abb 5f93 60bd
000001a0: 8718 4f3d ac22 8f3d d284 eb3d 5568 f9bc
000001b0: a71f c93d dc7b 913c 4563 ed3c a8d5 d9bc
000001c0: 85fd e43c 6e33 f8bd 1774 6ebd ea65 833d
000001d0: f0ad 99bd c30e a8bd 7ef8 8a3d 7b53 64bd
000001e0: 6d8a 06bd 5319 53bc 6dbe d83d 802f 033d
000001f0: b78b b63d d5c4 a23d 4a3e 0c3c c1a3 253d
00000200: 284c 923d ad8b e53d 82ad 9abc 3a59 ea3c
00000210: fe67 99bd 2ffe 29bd 3056 38be d164 f3bb
00000220: 2b63 613d 535c cfbd 28e1 13bb de80 ecbd
00000230: 0836 093e 30ad b33d dac0 493d 5a01 ac3d
00000240: 7c7b c43d 902a c43c 1b6b 4bbc 93a4 1cbd
00000250: 7494 cd3c b46e 0dbc c3cb e73c 4747 d7bd
00000260: 00a9 a63d b194 253d 3840 153c 9f55 1fbd
00000270: c07a c03b 0153 e8bd 0123 a83d ace1 f83d
00000280: 2415 373b 75f8 f9bc ed2b 9fbd d5f7 2cbd
00000290: 29d0 113d 99fe 07be 12ce 37bd 1077 ae3d
000002a0: 8460 c83d 5d16 1ebe 725b 56bc 703e c53d
000002b0: 04d4 dd3d e6cb f93c 681e 5cbd 4133 e2bd
000002c0: 67e8 c0bd a1ad 573b 2ece 8c3c 311e 8dbd
000002d0: 218c 82bc 00ea b43d da26 353c facc cebd
000002e0: be43 bfbd a782 67bd ae98 75bd 562a 5e3d
000002f0: 7ec8 dfbc 2e9e 72bd 3dae b33d a3a0 c53c
00000300: 5360 2e3e 06e3 14be 331d cbbc e95b 163e
00000310: ec2e 9d3d 3a54 e73d 2ee9 123e af11 e4bd
00000320: fdf6 853d e2d6 9d3c 9d9f 09bd 12fe 06bd
00000330: e919 17be 961c 7f3d c3b9 223e ae6e ea3d
00000340: cd40 563e 2aa7 d6bd cbdd 3cbd de40 ff3d
00000350: 43c6 8abd a6fe 2b3d 97f0 853b ce62 5a3d
00000360: 10a6 923c 9b5d b53d 019e f73d d544 2a3e
00000370: 4f65 ea3d ed9f f93d 729e af3d a30c 1a3e
00000380: c754 8abb 5633 783d 840f 6a3d 4ba2 9abd
00000390: 7e3c 553d a925 523c 5f65 4f3e f95c 143e
000003a0: f8e1 9ebd d372 c8bc c59f 6d3d 3c2b 083e
000003b0: fade a5bd 8a64 443e 2eda 323e 3e78 f73d
000003c0: 69f4 ea3c d946 563e f0aa 373d 6bc3 103e
000003d0: a371 b1bd 1c59 76bd 44c2 fb3d ca21 383e
000003e0: f07d d33d 7535 8abb ceda 993c 5c0d e13c
000003f0: dde3 3839 6631 ed3d bea1 1e3e faf3 01bc
