LogAnomaly/result/deeplog/deeplog_epoch258.pth (torch_old, 642612 bytes, 30 tensors)

lstm.weight_ih_l0 f4 [256, 1]
0	0xbe4b27de	-0.19839427
1	0xbc6bce31	-0.014392422
2	0xbd67b18f	-0.056565817
3	0x3dacb543	0.084330104
4	0xbe0baebf	-0.13640879
5	0x3d37aaa3	0.044840466
6	0xbdd2b98d	-0.10289297
7	0x3d7e8867	0.062141802
8	0x3e2ec140	0.17065907
9	0x3da29fba	0.07940622
10	0x3e2b94bf	0.16755961
11	0xbda8ab33	-0.08235779
12	0x3dc4013b	0.09570547
13	0x3dfc98ed	0.12333856
14	0xbda35c7c	-0.07976624
15	0x3e8157f3	0.25262412
16	0x3d82c030	0.06384313
17	0x3d52ab56	0.05143293
18	0xbe19bdf8	-0.15013874
19	0x3e15361a	0.1457142
20	0x3e256677	0.16152368
21	0x3d9e9bcc	0.0774456
22	0x3d55c62a	0.052190937
23	0xbd6347ea	-0.055488504
24	0x3e46a233	0.19397812
25	0xbd7b946c	-0.061420843
26	0xbc872db8	-0.016501293
27	0x3d81bb87	0.06334596
28	0x3d92c48f	0.07166397
29	0xbe188126	-0.14893016
30	0x3ddea4b2	0.10871257
31	0x3c451286	0.012028342
32	0x3e04a7f0	0.12954688
33	0x3dc415ad	0.09574447
34	0x3c96faa8	0.01843007
35	0x3d3eaeee	0.046553545
36	0x3e5b277b	0.2140178
37	0x3bf2bcb8	0.007407751
38	0x3e03937b	0.12849228
39	0xbe0e571e	-0.1390042
40	0x3bd52598	0.0065047257
41	0xbe10e200	-0.14148712
42	0x3e050794	0.12991172
43	0x3eccc62e	0.3999495
44	0xbdee6d0a	-0.11641891
45	0x3dd2e1dd	0.10296986
46	0x3e11cfac	0.14239377
47	0xbe4cd585	-0.20003326
48	0x3e43fb55	0.19138844
49	0x3e1b0db6	0.15141949
50	0x3eb71638	0.3575914
51	0x3dc5de18	0.09661502
52	0x3d8ba3da	0.068183616
53	0x3ea4ddd0	0.3220048
54	0x3e0501f1	0.12989022
55	0xbd660f26	-0.05616679
56	0xbe30f834	-0.17282182
57	0x3cb5eaf0	0.022206753
58	0x3de0cdca	0.10976751
59	0x3d211785	0.03932907
60	0x3d36d4a9	0.044636402
61	0x3e04d764	0.1297279
62	0x3dcc7711	0.099836476
63	0xbe1d07d3	-0.15335016
64	0xbd82d0e3	-0.06387498
65	0x3d495561	0.04915369
66	0x3debf7f9	0.115219064
67	0xbd13b8c4	-0.036064878
68	0xbdba9c0e	-0.09111796
69	0x3d531cb9	0.051541064
70	0x3ddd2566	0.10798149
71	0x3d519b25	0.051173348
72	0xbd2a3307	-0.04155257
73	0x3e94c672	0.29057652
74	0x3e2b114d	0.16705818
75	0xbdfd6f94	-0.123747975
76	0xbcb9763b	-0.022639384
77	0x3d995617	0.074871235
78	0x3e2e5f87	0.17028628
79	0x3e83d1a0	0.2574587
80	0x3ce3b298	0.027795121
81	0x3e01c0b8	0.12671173
82	0xbdeca323	-0.11554553
83	0x3cfe46bb	0.031039586
84	0x3af2f17f	0.0018535106
85	0x3e645e6b	0.22301643
86	0x3e05cd84	0.13066679
87	0xbd59efd4	-0.053207234
88	0x3c5e0073	0.013549912
89	0x3d98ef71	0.07467545
90	0xbf1ff605	-0.6248477
91	0x3d9ed7fb	0.07756039
92	0xbd87ce17	-0.066311054
93	0xbe894da3	-0.26817045
94	0x3e62cb4c	0.22147864
95	0x3c8d8881	0.017277004
96	0xbcc86367	-0.024461461
97	0x3e15ee0a	0.14641586
98	0x3ddd5dc4	0.108089
99	0x3dbdae80	0.09261799
100	0x3d8fc93a	0.07020803
101	0x3e418a7f	0.18900488
102	0x3dc8886c	0.097916454
103	0x3d13d1fb	0.036088925
104	0x3e0f7e7f	0.14013098
105	0x3e753474	0.2394579
106	0x3e323d79	0.17406262
107	0x3d81c1e2	0.06335808
108	0xbe040488	-0.12892354
109	0xbd0d3797	-0.034476843
110	0x3d5e6b65	0.05430164
111	0xbde5ec14	-0.11226669
112	0x3d942508	0.07233626
113	0x3dcd9b02	0.10039331
114	0x3e9f3f4c	0.3110298
115	0x3e7c7f13	0.2465785
116	0x3d55dd51	0.052213017
117	0x3cf7201a	0.030166674
118	0x3e2084db	0.1567568
119	0xbce8f4c8	-0.028437033
120	0xbe3758c8	-0.17904961
121	0x3e333961	0.17502357
122	0x3eecfbb1	0.46285775
123	0xbd03e740	-0.03220296
124	0x3d0ede1d	0.034879792
125	0x3d4f2978	0.050576657
126	0xbdb38e8e	-0.087674245
127	0xbe1cd20f	-0.15314506
128	0x3ee062a5	0.4382526
129	0xbe08b8b6	-0.13351712
130	0x3da8646f	0.08222281
131	0x3cfcc047	0.030853404
132	0x3e7858be	0.24252602
133	0xbe328d60	-0.17436743
134	0xbd439d30	-0.047757328
135	0x3e126904	0.14297873
136	0x3e2a0e2d	0.1660697
137	0xbd315a71	-0.043299142
138	0xbd809159	-0.06277723
139	0x3e664b37	0.2248963
140	0xbe7364e1	-0.23768951
141	0x3e273d09	0.16331877
142	0xbe26d161	-0.16290809
143	0xbdc205b6	-0.094737455
144	0x3e5fd943	0.21860223
145	0xbe9837d2	-0.29730088
146	0xbe835538	-0.25650954
147	0x3e562fc9	0.20916666
148	0x3e37b4df	0.1794009
149	0xbd1471bd	-0.03624128
150	0xbe15026a	-0.14551702
151	0x3e4b70b8	0.19867218
152	0x3dcbf974	0.09959689
153	0x3ea2deb9	0.3181055
154	0xbee760d4	-0.45191061
155	0x3c9a6bc0	0.018850207
156	0x3cd56f05	0.026053915
157	0xbe398d9f	-0.1812043
158	0x3f6e453e	0.93074405
159	0xbac1f480	-0.0014797598
160	0x3efaa8da	0.4895695
161	0x3cca1ddc	0.024672441
162	0x3daee556	0.08539836
163	0xbcd6e97b	-0.026234379
164	0xbe9f208f	-0.31079528
165	0xbe501139	-0.2031907
166	0xbe94fc10	-0.29098558
167	0xbe3e2905	-0.18570335
168	0x3e4390eb	0.1909825
169	0x3d50802d	0.050903488
170	0xbe08a6aa	-0.13344827
171	0xbfd613e6	-1.6724823
172	0x3ebc687b	0.36798462
173	0x3e9f69ef	0.31135508
174	0x3d83f947	0.0644403
175	0x3eff2ef3	0.49840507
176	0xbdf152fb	-0.117834054
177	0xbe1b344e	-0.15156671
178	0xbe168697	-0.1469978
179	0xbd181ab2	-0.037134834
180	0xbecd75dd	-0.40128985
181	0x3eec96df	0.46208856
182	0x3d1b8fa4	0.037978783
183	0x3e2d83ca	0.16944805
184	0xbebbef92	-0.36706215
185	0x3d96bdf6	0.07360451
186	0x3d5ddfa6	0.054168366
187	0xbd9ce28f	-0.076604
188	0x3e08b28f	0.13349365
189	0xbd9f6b48	-0.07784134
190	0x3da479f5	0.08031074
191	0xbeb057d6	-0.34442014
192	0x3e37cf0f	0.1795008
193	0xbc87ed40	-0.016592622
194	0x3e20c8c1	0.15701582
195	0x3ea97cb1	0.33102944
196	0x3e376a73	0.17911701
197	0x3d964e61	0.07339168
198	0x3e2e8d00	0.17045975
199	0x3e63aa6a	0.22232977
200	0x3d41c80f	0.04730993
201	0x3e97c4a8	0.29642224
202	0x3d8bb4c8	0.06821591
203	0x3e6debbd	0.23234458
204	0x3e80f9de	0.25190634
205	0x3e191aaa	0.14951578
206	0x3e6ac2ec	0.2292592
207	0x3e973055	0.29529062
208	0xbdbd0acb	-0.09230574
209	0x3d04584c	0.03231077
210	0x3e9d3698	0.30705714
211	0x3e41f094	0.1893943
212	0x3e963613	0.2933813
213	0x3e70e7cc	0.23525923
214	0xbe54db65	-0.20786817
215	0xbe35a6f7	-0.17739473
216	0xbe347ea3	-0.17626433
217	0x3d45a3de	0.04825198
218	0x3b1aedd3	0.002364029
219	0x3de0b898	0.109727085
220	0xbcbef248	-0.023308888
221	0xbeafbaf5	-0.34322324
222	0x3e0af462	0.13569787
223	0x3e8f0982	0.2793694
224	0xbddcf1a1	-0.107882746
225	0x3eaeefaa	0.34167224
226	0x3da6a07a	0.08136077
227	0x3ea13e51	0.31492856
228	0xbdbc99b0	-0.09209001
229	0xbe667f17	-0.22509418
230	0x3da8fba9	0.08251125
231	0xbe987fbc	-0.29784954
232	0xbe56b42b	-0.20967166
233	0x3e8f89ea	0.28034908
234	0x3e4872de	0.19575068
235	0xbe9761f0	-0.29566908
236	0x3e87c3b0	0.26516485
237	0x3c8ad2b3	0.016946172
238	0x3e5bc8dd	0.21463342
239	0xbe2a3a2e	-0.16623756
240	0xbe410c66	-0.18852386
241	0xbdf981ae	-0.121829376
242	0x3dfc59f6	0.12321846
243	0xbe604331	-0.21900631
244	0x3da02728	0.078199685
245	0xbdc55eeb	-0.09637245
246	0x3d7e461d	0.062078584
247	0x3da32217	0.079654865
248	0x3e2f8b96	0.17143092
249	0xbe61d557	-0.22054039
250	0x3e88ccdd	0.26718798
251	0xbe0eaaef	-0.13932393
252	0x3de478af	0.11155831
253	0x3e1a9a24	0.15097862
254	0x3e6565eb	0.2240216
255	0x3dfb22cb	0.122624956

lstm.weight_hh_l0 f4 [256, 64]
0	0x3e6cad38	0.23112953
1	0xbe1d9a3e	-0.1539087
2	0x3cfebee0	0.031096876
3	0x3d947764	0.072493345
4	0x3e7bf155	0.2460378
5	0xbde85593	-0.11344447
6	0xbd78b0d1	-0.0607155
7	0x3da00903	0.07814219
8	0x3e2826a9	0.16420998
9	0x3df92e02	0.121669784
10	0xbc2f5c0d	-0.010703099
11	0xbe26baea	-0.1628224
12	0xbe44de8d	-0.19225521
13	0x3dc1a312	0.09454931
14	0xbe01941b	-0.12654154
15	0x3e84968a	0.25896102
16	0x3e4a858a	0.19777504
17	0xbd304787	-0.043036964
18	0x3d27d861	0.04097784
19	0x3e1816cb	0.14852445
20	0xbd967a70	-0.07347572
21	0x3dbf4da2	0.09340979
22	0xbd98f528	-0.07468635
23	0x3e402e15	0.18767579
24	0x3e88c540	0.2671299
25	0x3e6a0fb2	0.2285755
26	0x3dbf483b	0.09339949
27	0x3db3af36	0.08773653
28	0x3da8523f	0.08218812
29	0xbe9a93c4	-0.3019086
30	0x3d716898	0.05893764
31	0x3e0235d7	0.12715851
32	0x3d4d8fac	0.050185844
33	0x3d8a3300	0.06748009
34	0x3d9d5e88	0.07684046
35	0xbe283242	-0.16425422
36	0xbd41c207	-0.04730418
37	0xbe4bc5fe	-0.19899747
38	0xbde02f84	-0.10946563
39	0xbe9d65ff	-0.3074188
40	0x3da1b98b	0.07896718
41	0xbdf1b352	-0.11801781
42	0x3db54a38	0.08852047
43	0xbdd8ccd7	-0.10585945
44	0x3d4b953d	0.04970287
45	0x3e2e32f4	0.17011625
46	0x3d2434e5	0.040089507
47	0x3e83b82c	0.2572645
48	0xbe95f9bb	-0.29292092
49	0xbdb7b64b	-0.089703165
50	0x3e31aa8c	0.17350215
51	0xbeaa4a36	-0.33259743
52	0x3d5a5084	0.053299442
53	0x3e3ff754	0.18746692
54	0x3de3f13c	0.11129996
55	0xbca6696d	-0.020313943
56	0xbdc7278a	-0.09724338
57	0x3ebd0099	0.36914518
58	0xbd002c07	-0.031291988
59	0xbde0852b	-0.109629
60	0x3e0564d8	0.1302675
61	0xbd315ffb	-0.043304425
62	0xbe19319d	-0.14960332
63	0xbd933c8d	-0.071892835
64	0xbd1747f3	-0.03693385
65	0xbdc6b2ad	-0.097020485
66	0x3e99da85	0.3004953
67	0x3e6f7850	0.2338574
68	0x3e206e7a	0.15667143
69	0xbe368d50	-0.17827344
70	0x3db75b68	0.08952981
71	0x3daf678c	0.08564672
72	0x3e1da6d6	0.15395674
73	0x3dbf60c1	0.09344626
74	0xbe040794	-0.12893516
75	0x3db06f17	0.08614939
76	0xbe5d1be7	-0.21592675
77	0x3e3d56da	0.18490162
78	0xbe0a419a	-0.13501588
79	0xbea8a80f	-0.3294072
80	0x3e64584e	0.2229931
81	0xbd176f64	-0.036971465
82	0xbe122721	-0.14272739
83	0x3e5cd9a6	0.21567401
84	0x3e00fb24	0.12595803
85	0xbdbe851f	-0.093027346
86	0xbe2e4860	-0.17019796
87	0x3d8197da	0.063277915
88	0x3ec7e654	0.39042914
89	0x3dc2d787	0.09513765
90	0xbdbfb739	-0.09361119
91	0x3de32c62	0.1109245
92	0x3e67af5e	0.22625491
93	0xbc2b1dac	-0.010444086
94	0x3d298258	0.04138407
95	0x3e3acfae	0.18243286
96	0x3cf87909	0.030331152
97	0x3e2b548d	0.16731472
98	0x3d8edb78	0.06975454
99	0xbdef3f20	-0.11681962
100	0xbd14d919	-0.036339853
101	0xbe4f8de0	-0.20268965
102	0xbe1d2809	-0.15347303
103	0x3d60ca99	0.054880712
104	0x3e4b108a	0.19830528
105	0xbd813d8f	-0.063105695
106	0xbdec0433	-0.115242384
107	0x3dbc4ac8	0.09193951
108	0x3cbe2614	0.023211516
109	0x3e233778	0.15939128
110	0x3e59b9f4	0.21262342
111	0xbdd3bbd4	-0.1033856
112	0xbe80db3d	-0.25167266
113	0xbe08f75b	-0.13375609
114	0xbd3583dd	-0.044315208
115	0xbe73d130	-0.23810267
116	0x3c2b322f	0.010448976
117	0xbc9c2497	-0.019060416
118	0x3e880fc6	0.26574534
119	0x3e19042d	0.14942999
120	0xbd44689b	-0.047951322
121	0x3ebae3de	0.36501974
122	0x3d5aeb80	0.053447247
123	0xbe49952e	-0.19685814
124	0x3e10700c	0.14105242
125	0xbe267f0d	-0.16259404
126	0x3d9231e4	0.07138422
127	0xbdb938bf	-0.090440266
128	0x3df148fd	0.117814995
129	0x3d9f94d9	0.07792062
130	0x3decad25	0.11556462
131	0x3e6673ee	0.22505161
132	0x3e1e2f98	0.15447843
133	0xbe840658	-0.2578609
134	0xbe748c39	-0.23881616
135	0x3e5cb862	0.21554711
136	0x3e57fb92	0.2109206
137	0xbcbe994e	-0.02326646
138	0xbd8d34e4	-0.06894854
139	0x3dd6e1cd	0.10492287
140	0xbdb437a3	-0.08799674
141	0x3d807188	0.06271654
142	0xbe161549	-0.14656557
143	0x3dbe7cbe	0.093011364
144	0x3e16486c	0.14676064
145	0xbe6983f3	-0.22804241
146	0xbc15dad4	-0.009146411
147	0x3e556db7	0.20842634
148	0x3d48d8ae	0.049034767
149	0x3d910e5f	0.07082819
150	0xbd9793ec	-0.07401261
151	0x3db80747	0.08985763
152	0x3e4c8cd6	0.199756
153	0x3da50192	0.0805694
154	0xbd0ee4f8	-0.03488633
155	0x3e92fb11	0.28707173
156	0xbc52d3e0	-0.012867898
157	0xbec88b7d	-0.3916892
158	0x3df0a37c	0.11749932
159	0x3d84a52b	0.06476816
160	0xbddeef99	-0.108855434
161	0x3df73a72	0.120716944
162	0x3e44827e	0.19190404
163	0xbdf32b8d	-0.11873541
164	0x3c5cdb86	0.013480073
165	0xbe18ed6d	-0.14934321
166	0xbd3c3aad	-0.045954395
167	0xbeaeedfa	-0.34165937
168	0x3e2354f8	0.15950382
169	0xbe116ea8	-0.14202368
170	0xbd589d13	-0.052884173
171	0xbd8170e1	-0.06320358
172	0x3d7ad660	0.0612396
173	0x3dad9aa6	0.084767625
174	0x3e7f6fbd	0.24944969
175	0x3bc2615f	0.0059320177
176	0xbd6a0485	-0.057133216
177	0x3c1df6c3	0.009641352
178	0xbe0b627c	-0.13611788
179	0x3cbcd38c	0.023050092
180	0x3d083732	0.033255763
181	0x3d97b124	0.07406834
182	0x3d5f38d1	0.054497544
183	0x3e726f6c	0.23675317
184	0xbd38afde	-0.045089595
185	0x3e64296e	0.22281429
186	0xbc8b1924	-0.016979761
187	0xbf043ab1	-0.51652056
188	0xbc5e48fa	-0.013567204
189	0xbe07da28	-0.13266814
190	0x3d98eefa	0.07467456
191	0xbe92011e	-0.28516477
192	0x3d60d374	0.054889157
193	0xbe62f8ef	-0.22165273
194	0xbcaf0770	-0.021365851
195	0x3d54a487	0.051914718
196	0x3d3e0a4e	0.046396546
197	0x3da7760d	0.08176813
198	0x3c3399f9	0.010962003
199	0xbdd17924	-0.10228184
200	0xbd851ba8	-0.06499416
201	0xbcbaa8fe	-0.02278566
202	0x3d15bf7c	0.036559567
203	0x3dd6b4e9	0.104837246
204	0xbcb0ae10	-0.021567374
205	0x3d00ef09	0.03147796
206	0x3d6284ce	0.055302434
207	0x3dc37c20	0.09545159
208	0x3b115e2c	0.0022181375
209	0xbdb0e1b1	-0.08636797
210	0xbe121025	-0.14263971
211	0x3d0df698	0.034659
212	0x3d53ccb7	0.051708903
213	0x3c25205f	0.010078519
214	0xbe6575d4	-0.22408229
215	0x3e8b2a96	0.27180928
216	0xbd4fa21b	-0.050691705
217	0x3e0dc814	0.13845855
218	0x3cb23322	0.021752898
219	0x3da9475d	0.082655646
220	0x3ded3686	0.11582665
221	0xbe775ac9	-0.24155726
222	0xbcc98a15	-0.024601975
223	0xbb35200b	-0.0027637507
224	0x3dac2932	0.08406295
225	0xbd02739f	-0.031848546
226	0x3e031cf9	0.12804021
227	0x3d2fe8dc	0.04294668
228	0xbd6681be	-0.056276076
229	0xbe4e8bb5	-0.20170482
230	0xbde34bad	-0.110984184
231	0xbe743ee6	-0.23852119
232	0xbd55a4f3	-0.05215926
233	0x3d503e86	0.050840877
234	0xbde7b469	-0.113137074
235	0xbcdf9588	-0.027292982
236	0x3e6e5194	0.23273307
237	0xbd3c83bd	-0.046024073
238	0xbe1e575c	-0.15463012
239	0x3ea294ab	0.3175405
240	0x3c269393	0.01016702
241	0x3b9e0ee1	0.004823551
242	0x3d87c449	0.06629235
243	0xbde4959a	-0.11161347
244	0xbdc40b7f	-0.09572505
245	0x3d9d9d10	0.07695973
246	0x3d200918	0.039071172
247	0x3e025e85	0.12731369
248	0xbdc73c5b	-0.09728309
249	0x3e04961e	0.1294789
250	0x3deb094f	0.11476385
251	0xbdbad7b6	-0.09123175
252	0x3de2a15f	0.11065935
253	0xbcfff039	-0.031242477
254	0xbde5940c	-0.11209878
255	0xbc7eda0a	-0.015554914

lstm.bias_ih_l0 f4 [256]
0	0x3dd6d1c3	0.104892276
1	0x3dae333a	0.085058644
2	0x3d3a992f	0.045556244
3	0xbdacdcbe	-0.08440541
4	0x3e44f12b	0.19232623
5	0xbbc75d97	-0.006084155
6	0x3e3bdcde	0.18345973
7	0xbb764c73	-0.0037582188
8	0x3e789a55	0.24277623
9	0x3e44d118	0.19220388
10	0xbdf2a8bb	-0.11848589
11	0x3e5fe765	0.21865614
12	0x3d09b7c2	0.03362251
13	0x3de72326	0.11286001
14	0x3dde09cb	0.108417116
15	0x3e181394	0.14851218
16	0x3e2f1b14	0.17100173
17	0x3e1e6a4e	0.1547024
18	0x3e31f140	0.17377186
19	0xbcf5e46f	-0.030016152
20	0xbd8411e5	-0.064487256
21	0x3d4a3535	0.04936715
22	0x3dc1275e	0.09431337
23	0x3dc30d9b	0.095240794
24	0x3e094063	0.13403468
25	0x3e38d26a	0.18049017
26	0x3d72a0d9	0.059235428
27	0x3d98fa29	0.07469589
28	0xbcd5774a	-0.026057858
29	0x3e764cf7	0.24052797
30	0x3e89822f	0.26857135
31	0xbde0488b	-0.109513365
32	0xbcaa3a80	-0.020779848
33	0x3de5aa34	0.11214104
34	0x3d16ec15	0.03684624
35	0xbddc669d	-0.107617594
36	0x3e257f4d	0.16161843
37	0xbdad50dc	-0.08462688
38	0x3c9939d2	0.018704329
39	0xbd9f3f96	-0.077758
40	0x3dfdb2af	0.12387597
41	0xbcf3807d	-0.029724354
42	0xbd26b139	-0.040696356
43	0x3f2af6af	0.6678266
44	0x3d3409fa	0.043954827
45	0x3e87d6cb	0.26531062
46	0x3cf98632	0.030459497
47	0x3dca30e0	0.098726034
48	0xbd3bd09b	-0.04585324
49	0x3d8d52e2	0.06900574
50	0xbccb7f66	-0.024841022
51	0xbde21f45	-0.110411204
52	0xbde99049	-0.11404473
53	0x3e9785ff	0.29594418
54	0x3db60a4e	0.08888684
55	0x3ce19b11	0.027539762
56	0x3e3b6842	0.1830149
57	0xbd4862f4	-0.048922494
58	0x3d51f647	0.05126026
59	0x3d97f109	0.07419021
60	0xbcff6817	-0.031177564
61	0x3df0b2db	0.11752864
62	0xbe74e2fb	-0.23914711
63	0x3cf58546	0.029970776
64	0xbd4c8ade	-0.04993712
65	0x3e173c4c	0.14769095
66	0xbda4fbf2	-0.08055867
67	0x3dde164c	0.108440965
68	0x3d99eab5	0.0751547
69	0x3db2c88f	0.0872966
70	0x3dbd3f99	0.09240646
71	0x3dd31ae6	0.10307865
72	0x3da4c1ee	0.08044802
73	0x3dc0242c	0.09381899
74	0xbe14bb01	-0.14524461
75	0x3e129f58	0.14318597
76	0x3d3c2c17	0.045940485
77	0x3d875609	0.06608207
78	0x3bb6b754	0.0055760536
79	0xbdb5b499	-0.08872337
80	0x3d67b5e0	0.056569934
81	0xbcae1b29	-0.021253185
82	0xbdcdfc3c	-0.100578755
83	0xbde500da	-0.11181803
84	0x3d287685	0.041128654
85	0x3dadc12b	0.084841095
86	0xbddea85d	-0.108719565
87	0xbb830faf	-0.0039996724
88	0x3e520243	0.20508675
89	0x3dfafbb0	0.12255037
90	0x3db2574f	0.08708059
91	0x3c8330b8	0.016014442
92	0x3e4dcb1b	0.2009701
93	0x3da9faca	0.08299787
94	0xbe2f50fe	-0.1712074
95	0x3d9f704b	0.0778509
96	0xbd818041	-0.063232906
97	0x3d1a266e	0.037634306
98	0xbd2f8da4	-0.04285969
99	0x3cb4b3d4	0.022058405
100	0x3d166fdb	0.036727767
101	0xbe073175	-0.1320246
102	0xbd0cbefc	-0.034361824
103	0x3ba6b437	0.0050874013
104	0xbdbd0693	-0.092297696
105	0x3b921dce	0.0044591194
106	0x3e0454f5	0.12923034
107	0xbe85b239	-0.26112536
108	0xbde61c04	-0.11235812
109	0x3e3e79dd	0.18601175
110	0x3dcf2eef	0.10116374
111	0x3dd5b9d8	0.104358375
112	0x3d8b86eb	0.06812843
113	0x3c91c21b	0.017792752
114	0xbbbc90d7	-0.005754571
115	0xbd9e0c7f	-0.07717227
116	0xbdcba04c	-0.099426836
117	0x3dd8401c	0.10559103
118	0x3db45fee	0.0880736
119	0x3c7e593e	0.015524207
120	0x3dccf748	0.10008103
121	0x3e0c2a70	0.13688064
122	0xbe52c775	-0.205839
123	0x3e00649d	0.12538381
124	0x3cd3198f	0.025769023
125	0x3d41dadd	0.047327865
126	0x3d9bba74	0.076039225
127	0x3e1f1fb4	0.15539438
128	0x3d02a75b	0.031897884
129	0x3e4860e0	0.19568205
130	0xbda4f7f7	-0.08055108
131	0xbe5143a9	-0.20435967
132	0x3e04f3a8	0.12983572
133	0x3dedf88e	0.11619674
134	0xbe4509db	-0.19242041
135	0x3e7131f0	0.23554206
136	0x3e6d9766	0.23202285
137	0x3e04e402	0.12977603
138	0xbda5fee0	-0.08105254
139	0xbd168503	-0.036747944
140	0x3e47b35e	0.19502017
141	0x3b34ff27	0.0027617903
142	0xbd40cf66	-0.04707279
143	0x3dc7066b	0.09718021
144	0x3e6e6168	0.23279345
145	0xbe186d58	-0.14885461
146	0x3d81e151	0.06341804
147	0x3d0fc8e4	0.035103694
148	0x3cf0fdb1	0.029417844
149	0x3e28adcb	0.16472547
150	0xbd979975	-0.074023165
151	0xbdad3b3f	-0.08458566
152	0xbd8306c7	-0.06397777
153	0x3e02130b	0.12702577
154	0x3d8b28f7	0.06794923
155	0x3dc4d6d2	0.09611286
156	0xbcfb31ab	-0.030663332
157	0xbe9b00b6	-0.3027398
158	0x3e0d087a	0.13772765
159	0x3c5b984b	0.013403009
160	0xbe70e368	-0.23524249
161	0xbe249385	-0.16071899
162	0x3e141572	0.14461306
163	0x3ca61b48	0.02027668
164	0x3d139fb6	0.036040984
165	0xbc185063	-0.009296509
166	0xbdc40399	-0.09570999
167	0x3d92fe0b	0.07177361
168	0x3b9b4001	0.0047378545
169	0xbdbc98b2	-0.09208812
170	0xbdb181c5	-0.0866733
171	0x3dc3ac2a	0.09554322
172	0x3b425988	0.0029655416
173	0x3df265a7	0.11835795
174	0x3d84464c	0.064587206
175	0xbe4e242a	-0.20130983
176	0xbc8c7329	-0.017144756
177	0xbcd780e2	-0.026306573
178	0x3ca77710	0.020442516
179	0x3d3e6356	0.046481453
180	0x3e2605d2	0.16213158
181	0x3e8cf94b	0.27533945
182	0xbd5e2200	-0.054231644
183	0xbe0ba965	-0.13638838
184	0xbde9cf36	-0.114164755
185	0x3cb3d044	0.021949895
186	0x3e36f688	0.17867482
187	0x3d85be1a	0.065303996
188	0xbe2d02d7	-0.16895615
189	0xbd6e274d	-0.05814295
190	0xbd6c1a01	-0.057641987
191	0xbe117082	-0.14203075
192	0x3e9e6595	0.30936876
193	0xbd123db2	-0.03570337
194	0xbd00cdf0	-0.031446397
195	0xbe40bcb4	-0.18821985
196	0x3e6aebc0	0.22941494
197	0x3d9ea929	0.077471085
198	0x3dfa1a94	0.122121006
199	0xbde5029f	-0.111821406
200	0x3d3feb90	0.04685551
201	0xbba7a634	-0.0051162485
202	0x3e1ae479	0.15126218
203	0xbb56b1bb	-0.0032759744
204	0x3e393d30	0.18089747
205	0xbd5a630c	-0.053317115
206	0x3dc4fc51	0.09618438
207	0x3dc275a5	0.09495095
208	0x3dbe8e13	0.09304442
209	0x3ca46ba8	0.020070866
210	0x3e5130e8	0.20428813
211	0xbd49129e	-0.04909002
212	0x3d1ec0ed	0.038758207
213	0x3d30639f	0.043063756
214	0x3d7fdf61	0.06246889
215	0x3d843150	0.06454718
216	0x3d1fe09d	0.039032567
217	0x3cbb597d	0.02286982
218	0x3e48b5ab	0.19600551
219	0x3cc0b9fd	0.023526186
220	0x3e053191	0.1300719
221	0x3eab5c5e	0.33468908
222	0x3e9cc26b	0.3061708
223	0xbe0f206b	-0.1397721
224	0x3e217f41	0.157712
225	0xbe0c3763	-0.13693003
226	0x3df79864	0.12089613
227	0xbde12ea7	-0.10995226
228	0x3dda662a	0.106640175
229	0x3e121d05	0.14268883
230	0x3e0314fa	0.1280097
231	0x3e8e58c9	0.27802113
232	0x3e2b88fa	0.16751471
233	0x3b9e67cc	0.004834151
234	0x3db348a1	0.08754087
235	0x3eec882f	0.4619765
236	0x3e1aa494	0.15101844
237	0x3dde4efe	0.1085491
238	0xbd38b23e	-0.04509186
239	0x3e14c26d	0.14527293
240	0x3e0a5141	0.13507558
241	0x3df870dc	0.12130901
242	0x3e31223d	0.17298217
243	0x3cfc8195	0.030823508
244	0x3e655b2f	0.22398065
245	0x3e62fce4	0.22166783
246	0x3e627073	0.22113208
247	0x3e8e5599	0.2779968
248	0x3e254fdd	0.16143747
249	0x3d9fc549	0.07801301
250	0x3d019425	0.031635422
251	0x3e3b4580	0.18288231
252	0xbd8b283f	-0.06794786
253	0x3d3ceae9	0.046122465
254	0xbe502ba5	-0.20329149
255	0x3e90d25d	0.28285494

lstm.bias_hh_l0 f4 [256]
0	0x3e3d0a2e	0.18460914
1	0x3d9557d2	0.07292141
2	0x3d72a8e8	0.059243113
3	0x3d91e8b0	0.0712446
4	0x3e0f6839	0.14004602
5	0x3d559f85	0.052154083
6	0x3c16c1bf	0.009201466
7	0x3d9e3fa9	0.07726986
8	0x3da87c19	0.08226795
9	0x3e630e5a	0.22173443
10	0x3ce3dc6b	0.027815064
11	0x3e33b875	0.17550834
12	0x3e2cc8fb	0.16873543
13	0xbc517aa9	-0.012785592
14	0x3de12cb3	0.10994854
15	0x3e21db16	0.15806231
16	0x3dca754b	0.09885653
17	0x3cec75a9	0.028864698
18	0x3dbb7faf	0.09155213
19	0x3d871465	0.06595687
20	0xbc653fd4	-0.013992269
21	0x3d99251d	0.07477782
22	0x3cf93e64	0.030425258
23	0xbaa5e40c	-0.0012656464
24	0x3dfa37e5	0.12217692
25	0x3dd56794	0.104201466
26	0xbc928833	-0.01788721
27	0x3dc9ede8	0.0985983
28	0xbd0f1e85	-0.034941215
29	0x3e9049d1	0.28181317
30	0x3e60c958	0.21951807
31	0x3dba531f	0.09097885
32	0x3def2487	0.11676889
33	0x3d4ec392	0.05047948
34	0x3d4edf22	0.050505765
35	0xbc28a940	-0.010294259
36	0x3e6f74bf	0.23384379
37	0xbd91cbd3	-0.071189545
38	0x3d3e943a	0.04652808
39	0xbe034179	-0.12817945
40	0x3d05acd4	0.032635525
41	0xbb457b67	-0.0030133368
42	0x3d8d1bc6	0.06890063
43	0x3f16cc5e	0.5890559
44	0x3ddf3514	0.10898796
45	0x3e78cbbf	0.24296473
46	0x3d844932	0.064592734
47	0x3db94e28	0.0904811
48	0xbdc8742a	-0.097877815
49	0xbd6c939c	-0.05775796
50	0xbd882049	-0.06646783
51	0xbd1bf089	-0.03807119
52	0xbc3837a0	-0.011243731
53	0x3ef6a5f1	0.48173478
54	0xbd453b21	-0.048152093
55	0x3d731ded	0.05935471
56	0x3e2833ba	0.16425982
57	0x3cf43fc7	0.029815568
58	0x3e723476	0.23652825
59	0x3dbe023d	0.09277771
60	0x3df13f39	0.11779637
61	0x3dd3cd06	0.103418395
62	0xbe065d84	-0.13121611
63	0x3d221d3a	0.039578654
64	0xbd78b74c	-0.06072168
65	0x3cde4d51	0.027136477
66	0xbd04aeda	-0.032393314
67	0x3e0e9129	0.13922562
68	0xbd0625d5	-0.032750923
69	0x3def3d63	0.116816305
70	0x3d2f9c0b	0.042873424
71	0x3e05a505	0.13051231
72	0x3e587469	0.21138157
73	0x3bec7738	0.0072163604
74	0xbde91549	-0.11381013
75	0x3d9a641d	0.07538626
76	0xbad4410b	-0.0016193701
77	0x3e41bc7c	0.18919557
78	0xbdb803a3	-0.08985069
79	0xbe0c390f	-0.13693641
80	0x3da2cb76	0.07948963
81	0x3b0d10be	0.0021524872
82	0xbdcae146	-0.09906249
83	0xbb795b9c	-0.0038048988
84	0xbbd37b5c	-0.0064539146
85	0x3dc4f263	0.09616544
86	0xbc697f72	-0.014251577
87	0x3dca96a7	0.09892016
88	0x3ce8abfe	0.028402325
89	0x3d997be3	0.07494333
90	0x3dcb4a19	0.099262424
91	0xbdab643e	-0.08368729
92	0x3e3d53cb	0.18488996
93	0x3d6b7b25	0.057490487
94	0xbcc7b473	-0.024378037
95	0x3e278226	0.16358241
96	0xbde50e59	-0.11184377
97	0xbe0e6a0f	-0.13907646
98	0x3d41bdd6	0.047300182
99	0xbbde4477	-0.006783064
100	0xbdfd8f16	-0.12380807
101	0x3bbdbf1b	0.005790604
102	0xbdfaf189	-0.122531004
103	0xbd93a899	-0.07209892
104	0xbd57c49c	-0.052677736
105	0xbc2aed39	-0.010432535
106	0x3dc276fb	0.0949535
107	0xbe773e86	-0.24144945
108	0xbc8fa7f5	-0.017536143
109	0x3d55d00e	0.05220037
110	0x3c80ece6	0.015737962
111	0xbd2cca38	-0.04218504
112	0x3d0a07ad	0.033698726
113	0xba8dedb3	-0.0010828286
114	0x3d5189c9	0.051156793
115	0xbb2801c8	-0.0025635827
116	0xbb9ecaf4	-0.0048459712
117	0x3d757d92	0.059934206
118	0xbd0f4ab0	-0.034983337
119	0xbc4f7f01	-0.012664557
120	0x3db2111a	0.08694668
121	0xbd92de99	-0.071713634
122	0x3c9cda66	0.01914711
123	0xbc576e04	-0.013148788
124	0x3db9127b	0.09036728
125	0x3ddce6ff	0.107862465
126	0xbd85a17e	-0.06524943
127	0x3dd43408	0.10361487
128	0xbdc45384	-0.09586242
129	0x3df31cbf	0.11870717
130	0xbe1c6ff8	-0.15277088
131	0xbe43f0da	-0.19134846
132	0x3e29b884	0.16574293
133	0xbd7b80b6	-0.061402045
134	0xbe0c0380	-0.1367321
135	0x3e58eeb2	0.21184805
136	0x3db6cc67	0.089257054
137	0x3d29e9cb	0.041482728
138	0xbd5161d5	-0.05111869
139	0xbdfd1739	-0.12357945
140	0x3c4ad101	0.012378932
141	0xbd54e94b	-0.051980298
142	0x3ddf49ce	0.10902749
143	0x3e36e6be	0.17861459
144	0x3e798184	0.24365813
145	0xbe04daca	-0.12974086
146	0xbc636e8d	-0.013881338
147	0xbdde4af5	-0.10854141
148	0xbe05d3b4	-0.1306904
149	0x3e48aa89	0.19596304
150	0x3dbd8737	0.09254306
151	0xbd56ac10	-0.052410185
152	0x3b7c7abd	0.0038525306
153	0x3e701106	0.23443994
154	0x3d8bc0c6	0.06823878
155	0x3e0e8a70	0.13919997
156	0xbc930e78	-0.017951235
157	0xbe1a723b	-0.15082638
158	0xbce575e6	-0.02801032
159	0x3c976b9c	0.01848393
160	0xbdf89714	-0.12138191
161	0xbe53750c	-0.20650119
162	0x3e12557e	0.14290425
163	0xbd6692c1	-0.0562923
164	0x3e258b76	0.16166481
165	0x3de8f24d	0.1137434
166	0xbda7b296	-0.081883594
167	0xbdb0e802	-0.08638002
168	0xbca41915	-0.020031491
169	0xbe121f57	-0.14269768
170	0xbdcd4618	-0.10023135
171	0x3dbd706d	0.09249959
172	0xbd091f78	-0.033477277
173	0x3e1d0b24	0.15336281
174	0x3d52a5bf	0.0514276
175	0x3cc5fbe4	0.024167962
176	0x3dca424e	0.09875928
177	0xbd895acb	-0.067067705
178	0x3d95ff46	0.0732408
179	0xbcfc5506	-0.030802261
180	0x3e389dc3	0.18028931
181	0x3e84d052	0.25940186
182	0xbe60223e	-0.21888062
183	0xbdfe256a	-0.1240948
184	0x3d18571e	0.037192456
185	0x3c8c9794	0.017162122
186	0x3d09412d	0.033509422
187	0x3dc8daf9	0.09807391
188	0xbdcfac65	-0.101403035
189	0xbd039ab7	-0.03212997
190	0xbd8bd7b8	-0.068282545
191	0xbc1cbca9	-0.009566464
192	0x3ea00654	0.31254828
193	0x3de14219	0.10998935
194	0xbdc0805e	-0.09399484
195	0xbd1a8352	-0.037722893
196	0x3e575aac	0.21030682
197	0x3d76e450	0.06027633
198	0x3ea55644	0.32292378
199	0xbd5be6c9	-0.05368689
200	0x3db6fd97	0.08935087
201	0xbccd0579	-0.025027024
202	0x3d7fab91	0.062419478
203	0xbd933d60	-0.07189441
204	0x3e091b84	0.13389403
205	0x3de40b18	0.111349285
206	0x3d982b2e	0.07430111
207	0x3cfac578	0.030611739
208	0x3d9a6f68	0.0754078
209	0x3e26ae46	0.16277418
210	0x3e8311e9	0.25599602
211	0x3dc66902	0.096879974
212	0x3bdfe0cb	0.0068322173
213	0xbc3e074a	-0.011598418
214	0x3e46f195	0.19428094
215	0x3e147acf	0.14499973
216	0x3d638a9d	0.055552114
217	0xbd3ed04f	-0.046585377
218	0x3e4045fa	0.18776694
219	0x3db4c0ec	0.088258594
220	0xbd4b5e94	-0.049650744
221	0x3e541e0a	0.20714584
222	0x3e7641cc	0.24048537
223	0xbd1b33e8	-0.0378913
224	0x3de3187c	0.110886544
225	0xbb158397	-0.002281403
226	0x3d0acb38	0.03388521
227	0xbc0ab361	-0.008465619
228	0x3db4c559	0.088267036
229	0x3ce139df	0.027493415
230	0x3e11857a	0.14211074
231	0x3e8eb8b4	0.27875292
232	0x3d8e45ae	0.06946884
233	0xbceb50f8	-0.028725132
234	0xbd78d986	-0.06075432
235	0x3ec30501	0.38089755
236	0x3e085170	0.13312316
237	0x3ce35895	0.0277522
238	0xbe14ff88	-0.14550602
239	0x3e88e55c	0.26737487
240	0x3d9c3864	0.07627943
241	0x3b10f77b	0.0022120166
242	0x3dd4d6a7	0.10392504
243	0x3e12b710	0.14327645
244	0x3d63c585	0.05560829
245	0x3e352e90	0.17693543
246	0x3d55d28c	0.052202746
247	0x3e69127c	0.22760957
248	0x3e347ac7	0.17624961
249	0xbc906e04	-0.017630585
250	0xbc6566ce	-0.014001561
251	0x3e02d996	0.12778315
252	0xbcc3e0e0	-0.02391094
253	0x3e054412	0.13014248
254	0xbb50f38e	-0.003188345
255	0x3e60e59c	0.21962589

lstm.weight_ih_l1 f4 [256, 64]
0	0xbc36cf1c	-0.011157777
1	0xbdbea379	-0.09308524
2	0xbd8c0f4c	-0.06838855
3	0xbdc34e55	-0.09536425
4	0x3d8d124e	0.06888257
5	0xbd3be64a	-0.045873918
6	0xbd69d561	-0.05708826
7	0xbc3ab788	-0.011396296
8	0x3bb9e3fd	0.0056729303
9	0x3e43bbe5	0.19114645
10	0xbd45fe45	-0.048338193
11	0xbd99c080	-0.075074196
12	0xbe13657e	-0.14394185
13	0xbd414d72	-0.047193
14	0x3ce82570	0.028338164
15	0x3cc26c88	0.023733392
16	0xbc835a81	-0.016034367
17	0x3c77ea2e	0.015131516
18	0xbd6153e8	-0.05501166
19	0x3e15a542	0.14613822
20	0x3cc2e979	0.023792969
21	0x3df347b7	0.11878913
22	0x3d857612	0.06516661
23	0x3e1287bb	0.1430959
24	0x3cbdb176	0.023155909
25	0x3d090a78	0.03345725
26	0xbe1226e4	-0.14272648
27	0xbc18b29c	-0.009319928
28	0xbe0939c1	-0.13400938
29	0xbdb4f92d	-0.08836589
30	0x3dd3a674	0.10334483
31	0xbde91ad4	-0.1138207
32	0xbdcf1c31	-0.10112799
33	0x3d60bf1b	0.054869752
34	0xbd87c3c3	-0.066291355
35	0x3d01a154	0.031647995
36	0x3d999730	0.0749954
37	0xbe061820	-0.1309514
38	0xbdc2bad6	-0.095082924
39	0xbcfe9fc0	-0.031082034
40	0x3c2cebf3	0.010554302
41	0xbe1d0b84	-0.15336424
42	0x3dc2e00a	0.09515388
43	0xbe7a97ad	-0.24471922
44	0x3cf36271	0.029710026
45	0x3d89dfb3	0.0673212
46	0x3da9dd50	0.08294165
47	0x3dadd364	0.08487585
48	0x3d65b786	0.056083225
49	0xbe1183ba	-0.14210406
50	0xbc57b5e0	-0.013165921
51	0x3db5c85a	0.08876105
52	0xbbc4531a	-0.005991352
53	0x3dcfcf17	0.10146921
54	0xbd74047d	-0.059574593
55	0x3d187f65	0.037230868
56	0x3d60277c	0.054725155
57	0xbc4c1609	-0.012456425
58	0xbe02aa9d	-0.12760396
59	0x3cd7b1c9	0.026329892
60	0xbdb1b4e8	-0.08677083
61	0xbd9aeef5	-0.07565109
62	0xbe8cd86b	-0.27508864
63	0xbe0ddf31	-0.13854672
64	0xbe04b5bb	-0.1295995
65	0xbba55fdd	-0.005046828
66	0x3d50d11f	0.050980683
67	0xbd4ab1c7	-0.049485948
68	0xbcb7cac2	-0.02243555
69	0xbd57c1e9	-0.05267516
70	0x3c447ce2	0.011992665
71	0xbd85a9e6	-0.06526546
72	0x3c623158	0.01380571
73	0x3e082391	0.13294818
74	0x3e1f75dd	0.15572305
75	0x3d313ffb	0.043273907
76	0x3dda7355	0.10666529
77	0xbdb3a464	-0.087715894
78	0xbd100740	-0.035163164
79	0x3e90f532	0.2831207
80	0xbd90184c	-0.07035884
81	0x3dc7db63	0.097586416
82	0x3d7c558f	0.061605033
83	0xbc606839	-0.013696724
84	0xbd7a4135	-0.061097343
85	0x3dc847c9	0.09779317
86	0x3d7a8beb	0.061168592
87	0x3e166d04	0.14690024
88	0x3e1c7012	0.15277126
89	0x3dd6dc60	0.10491252
90	0xbe79b8f5	-0.24386962
91	0xbdba62a8	-0.091008484
92	0x3e0562c2	0.13025954
93	0xbd1601fe	-0.036622994
94	0x3d2396c8	0.039938718
95	0x3a254a0e	0.00063052855
96	0xbe510343	-0.204114
97	0x3e1326ea	0.14370313
98	0xbd16bf3f	-0.03680348
99	0x3d9d2905	0.076738395
100	0x3c83ab68	0.016072944
101	0x3dd37ccf	0.1032654
102	0x3da27d39	0.079340406
103	0x3e68e14e	0.22742197
104	0xbdd2e1ab	-0.10296949
105	0xbd9d4234	-0.07678643
106	0x3d560ea0	0.05226004
107	0xbe0032d7	-0.12519394
108	0xbc6e1a8e	-0.014532698
109	0x3dc2d4ff	0.09513282
110	0x3cac61ec	0.021042787
111	0xbc8125fc	-0.015765183
112	0xbbd838b9	-0.0065985587
113	0xbdbe06ff	-0.09278678
114	0x3e52f153	0.2059987
115	0xbda5c952	-0.080950394
116	0x3dcd0671	0.10010994
117	0xbc770483	-0.015076759
118	0xbd3420a9	-0.04397646
119	0x3dd90e4b	0.10598429
120	0xbe1ff299	-0.15619887
121	0x3d099d35	0.03359719
122	0xbd91af30	-0.071134925
123	0xbe3e71af	-0.18598054
124	0xbc980478	-0.018556818
125	0x3d860371	0.06543625
126	0xbbaee3e4	-0.0053372253
127	0xbe138e6c	-0.14409798
128	0x3d3e1d7c	0.046414837
129	0xbe803c19	-0.2504585
130	0x3c79ea17	0.015253565
131	0xbe1646c4	-0.14675432
132	0x3e0fa4ef	0.14027761
133	0x3df71fff	0.1206665
134	0xbc0d96f7	-0.00864195
135	0x3d4a4932	0.04938621
136	0x3d21e5a2	0.039525636
137	0x3f1049e7	0.56362766
138	0x3c69ab80	0.01426208
139	0x3d898135	0.067140974
140	0xbe449221	-0.19196369
141	0xbcc69ce4	-0.024244733
142	0xbe218837	-0.15774618
143	0x3f576fd9	0.8415504
144	0x3e0ff690	0.140589
145	0x3be98177	0.007126029
146	0xbcde2628	-0.027117804
147	0x3dcd6e17	0.100307636
148	0xbb1e1662	-0.0024122228
149	0x3c8f3e0b	0.01748564
150	0xbcbbc31a	-0.02292018
151	0x3df8245e	0.121163115
152	0x3e04c095	0.12964089
153	0x3e339778	0.1753825
154	0xbe726fd3	-0.2367547
155	0xbde8943c	-0.113563985
156	0x3d01e956	0.031716667
157	0x3de340d1	0.11096347
158	0x3d267939	0.04064295
159	0xbcdadd0d	-0.026716733
160	0xbe3b8bd4	-0.18315059
161	0xbd5ad979	-0.053430054
162	0xbdc4bf10	-0.09606755
163	0xbd13970d	-0.036032725
164	0xbdb90888	-0.0903483
165	0xbe983d8f	-0.29734465
166	0xbd83d9ed	-0.064380504
167	0xbe71d28c	-0.23615474
168	0x3d676559	0.056493137
169	0x3cdb97b4	0.026805736
170	0xbc34510e	-0.011005653
171	0x3e12bb42	0.14329246
172	0x3ea66daa	0.32505542
173	0x3a265b27	0.000634598
174	0xbd0686d2	-0.03284342
175	0xbe0694a1	-0.13142635
176	0x3d2fb6a6	0.042898796
177	0xbe2aa47e	-0.16664311
178	0x3ca85dfa	0.020552624
179	0xbe1dfe65	-0.15429075
180	0xbdeddc1e	-0.1161425
181	0x3ddf9127	0.109163575
182	0xbc8a53bb	-0.016885629
183	0x3df32c56	0.11873691
184	0xbdc7243f	-0.0972371
185	0x3b20213c	0.0024433872
186	0xbcecfc25	-0.028928826
187	0xbe8bc6eb	-0.273002
188	0x3e054ff3	0.1301878
189	0x3dd8d1a2	0.10586859
190	0xbe859860	-0.26092815
191	0xbe1bc5b6	-0.1521214
192	0x3e30ba86	0.17258653
193	0x3da40c15	0.08010117
194	0xbe0f159c	-0.13973087
195	0xbc9338ab	-0.017971357
196	0x3e6eb2e2	0.23310426
197	0x3d2ccbdb	0.0421866
198	0x3da44991	0.08021844
199	0x3dbfc230	0.0936321
200	0xbd8c4bce	-0.06850396
201	0x3e10d7d7	0.14144836
202	0xbe8b06a3	-0.271535
203	0xbd8026ec	-0.06257424
204	0x3e0d4742	0.13796714
205	0x3b8aa6b4	0.0042312983
206	0x3cab63b0	0.020921558
207	0x3dec340e	0.11533366
208	0x3caa0950	0.020756394
209	0x3bd9497d	0.006631075
210	0xbd945c45	-0.072441615
211	0x3ccbf7d7	0.024898453
212	0xbe195c60	-0.14976645
213	0x3d8ca433	0.06867256
214	0xbdff7a16	-0.12474458
215	0x3cd8e38c	0.02647569
216	0x3e295732	0.16537169
217	0x3abe65d4	0.0014526197
218	0x3e2a1234	0.16608506
219	0xbe184da2	-0.14873365
220	0x3cf20c22	0.029546801
221	0xbea1ca5d	-0.31599703
222	0x3d91317b	0.07089516
223	0x3db2aaa3	0.087239526
224	0xbca93be7	-0.020658446
225	0xbe1bcebc	-0.15215582
226	0xbdec3537	-0.115335874
227	0xbd816e03	-0.06319811
228	0xbd5ae21b	-0.053438287
229	0xbcbb205a	-0.022842575
230	0x3cf39e41	0.029738547
231	0xbdc5a772	-0.09651078
232	0x3c37f984	0.011228923
233	0x3dfb21ec	0.122623295
234	0xbe27ef89	-0.16399969
235	0xbee1aae2	-0.44075686
236	0xbdccfdde	-0.10009359
237	0x3d6acb17	0.057322588
238	0x3df222b7	0.118230276
239	0x3d7983f1	0.060916845
240	0xbe072676	-0.13198265
241	0xbe258dcb	-0.16167371
242	0x3cca8ad6	0.024724405
243	0xbe0eee43	-0.13958077
244	0xbde91f5e	-0.11382936
245	0x3c8b26a9	0.016986208
246	0xbdb4e44a	-0.08832605
247	0xbe456b08	-0.1927911
248	0xbd51853f	-0.051152464
249	0xbcec9063	-0.028877443
250	0x3b44b747	0.0030016468
251	0x3ce772ba	0.028252948
252	0xbd0872ec	-0.033312723
253	0x3d873656	0.06602161
254	0xbdf4c92a	-0.119524315
255	0xbe09452d	-0.13405295

lstm.weight_hh_l1 f4 [256, 64]
0	0x3d8a2ba2	0.067466035
1	0xbd4674b7	-0.04845115
2	0x3e08f2c8	0.13373864
3	0x3ded9ed2	0.11602558
4	0x3ceeffca	0.029174704
5	0x3d0656cd	0.032797623
6	0xbd342458	-0.043979973
7	0xbe371e05	-0.17882545
8	0xbd755d28	-0.059903294
9	0x3c8892c8	0.016671553
10	0xbda41a9b	-0.08012887
11	0xbe0bcba8	-0.13651907
12	0xbd8bdef1	-0.06829632
13	0x3d716906	0.05893805
14	0x3d30a4d3	0.04312594
15	0xbebb6fe2	-0.36608797
16	0x3df4e673	0.11958017
17	0xbd47d6be	-0.04878878
18	0xbbb5c38e	-0.0055469936
19	0xbe3980b9	-0.1811551
20	0xbc941cd5	-0.018080154
21	0x3e3568a0	0.17715693
22	0xbcbd151c	-0.023081355
23	0x3cca1227	0.024666859
24	0xbdeaf40f	-0.11472332
25	0x3d535e33	0.051603507
26	0xbd171734	-0.036887363
27	0x3ccfbb24	0.02535779
28	0xbd93e05e	-0.07220529
29	0xbdbdf1b9	-0.092746206
30	0x3dc85207	0.097812705
31	0xbdb8b8f9	-0.09019656
32	0xbbd42de7	-0.0064751985
33	0xbda690a4	-0.08133057
34	0xbe1be831	-0.15225293
35	0xbe7b15d4	-0.24520046
36	0xbb043760	-0.0020174608
37	0xbd1abcbd	-0.03777765
38	0x3dad47dc	0.08460972
39	0x3e25494c	0.16141242
40	0xbb8548d4	-0.0040675197
41	0x3db347be	0.08753918
42	0xbc3f5fa6	-0.011680519
43	0x3dbfeace	0.09370957
44	0x3d9a3103	0.075288795
45	0xbe24fe5a	-0.16112652
46	0x3d424963	0.04743327
47	0x3e069bd6	0.13145384
48	0x3b782110	0.0037861504
49	0xbd6adc2d	-0.057338882
50	0x3dcd2c6c	0.100182384
51	0x3cce477b	0.025180569
52	0xbd83208b	-0.064026915
53	0x3caab759	0.02083938
54	0x3dd1b0d8	0.102388084
55	0x3d28ca6f	0.04120868
56	0xbbdf17a9	-0.0068082404
57	0x3be0c9ee	0.0068600094
58	0x3c5ca080	0.013466001
59	0x3bf015a4	0.0073267985
60	0x3d8a899a	0.06764527
61	0xbd04fe67	-0.03246918
62	0xbe2c0b09	-0.16801085
63	0x3d37c354	0.044864014
64	0xbe491460	-0.19636679
65	0x3d9f828a	0.0778857
66	0x3e16e7a1	0.14736797
67	0xbd3d5990	-0.04622799
68	0xbe864e9a	-0.26231843
69	0x3d85b7da	0.065292075
70	0xbc3c093f	-0.011476814
71	0xbdd94ff1	-0.10610951
72	0xbd8e3f2a	-0.06945641
73	0xbd1222a8	-0.035677582
74	0x3c4ea96f	0.012613638
75	0xbd11f1fb	-0.03563116
76	0xbd515949	-0.05111054
77	0xbe09a110	-0.13440347
78	0x3e95571e	0.29168028
79	0x3de4a27e	0.111638054
80	0x3dcdcac5	0.10048441
81	0xbe28c06d	-0.16479655
82	0x3d3d0246	0.046144746
83	0xbe034ea7	-0.12822972
84	0xbd6de9c1	-0.058084253
85	0xbd020f31	-0.03175277
86	0xbd9a74bb	-0.07541796
87	0xbd9b691e	-0.07588409
88	0xbe525094	-0.2053855
89	0xbe1a3be5	-0.1506191
90	0xbe5c06fe	-0.21487042
91	0xbe270b65	-0.1631294
92	0xbc0cc531	-0.008591936
93	0xbc9e238e	-0.019304063
94	0xbd18dbda	-0.03731904
95	0x3d481371	0.048846666
96	0x3d57d964	0.052697554
97	0xbb3ff573	-0.0029290586
98	0x3b752222	0.0037404378
99	0xbd6f1b3c	-0.058375582
100	0x3ccad2c9	0.024758713
101	0xbe2a997f	-0.16660117
102	0xbd2b8541	-0.041875128
103	0xbc9ad5cd	-0.018900776
104	0xbd33aed5	-0.043867905
105	0xbd78a0e5	-0.060700316
106	0xbcb1e3ca	-0.021715064
107	0x3dba9c4f	0.09111845
108	0x3cdc01a9	0.02685626
109	0xbe224211	-0.15845515
110	0x3dcb4807	0.099258475
111	0x3e3a010d	0.18164463
112	0xbdfed786	-0.124434516
113	0x3e1d4d2c	0.1536147
114	0x3e31f6b0	0.1737926
115	0x3d821bd5	0.06352965
116	0xbdb896d2	-0.09013142
117	0x3e02f46d	0.12788554
118	0x3db2faf0	0.08739269
119	0xbdce13c8	-0.10062367
120	0xbb97cd6d	-0.004632643
121	0xbd648e6b	-0.055799883
122	0x3da8107c	0.08206269
123	0xbde82032	-0.11334266
124	0x3d1e63e9	0.0386695
125	0x3e18e788	0.14932072
126	0x3d55014c	0.05200319
127	0xbdcad396	-0.09903638
128	0xbe33fffc	-0.17578119
129	0x3c340fce	0.010990096
130	0x3e34934d	0.17634316
131	0x3eb4237c	0.35183322
132	0xbe676e81	-0.22600748
133	0x3e8d8a37	0.27644512
134	0xbdc8140d	-0.097694494
135	0xbe2564bc	-0.16151708
136	0xbea25040	-0.3170185
137	0x3df9cc83	0.12197211
138	0x3ca8eba3	0.020620173
139	0xbe463788	-0.19357121
140	0x3e0ee077	0.13952814
141	0x3cf2e087	0.029648079
142	0x3d5e66a9	0.054297123
143	0x3e363621	0.17794086
144	0x3ea04854	0.31305182
145	0xbe05c5f3	-0.13063793
146	0x3c610e41	0.013736309
147	0xbf03ff6f	-0.51561636
148	0xbe31090f	-0.17288612
149	0x3e923756	0.28557843
150	0xbcbccbad	-0.023046339
151	0x3e0bf73d	0.13668533
152	0xbe8b2b32	-0.27181393
153	0xbe186667	-0.14882813
154	0x3d3d5b56	0.046229683
155	0xbd8fcc84	-0.0702143
156	0xbe134c3e	-0.14384553
157	0x3c19756b	0.0093663735
158	0x3e6fa2bb	0.2340192
159	0xbe5220e4	-0.2052036
160	0xbde63769	-0.112410374
161	0x3dc0fa94	0.09422794
162	0xbe2cf8b0	-0.16891742
163	0xbd748218	-0.05969438
164	0xbdf8a3c3	-0.1214061
165	0xbeb28060	-0.34863567
166	0xbdc38f58	-0.09548825
167	0xbe4a8d35	-0.19780429
168	0x3d65c4b8	0.05609581
169	0x3bc9dc3f	0.0061602886
170	0x3dc596b5	0.09647886
171	0x3dae4bbd	0.0851054
172	0x3e961464	0.29312432
173	0xbc99b7eb	-0.018764457
174	0x3e034c71	0.12822129
175	0x3e93de04	0.28880322
176	0xbea864a4	-0.32889283
177	0x3e536034	0.20642167
178	0x3d4a5ee2	0.049406894
179	0x3e9f3a35	0.31099096
180	0xbea281af	-0.31739566
181	0x3c2b2127	0.010444916
182	0x3e936e60	0.28795147
183	0xbe2719e9	-0.16318478
184	0xbd84da86	-0.064869925
185	0x3dc005a9	0.093760796
186	0xbdd6539e	-0.104651675
187	0xbe554794	-0.20828086
188	0x3e32c45e	0.1745772
189	0x3c02768a	0.007962832
190	0x3c1defd6	0.009639701
191	0xbe2728da	-0.16324177
192	0x3e0712ea	0.13190809
193	0x3e37bca5	0.17943056
194	0x3c54af6f	0.01298128
195	0xbe1d87cd	-0.15383835
196	0xbd58dd75	-0.052945573
197	0x3dbc5ded	0.091976024
198	0xbe11f6ff	-0.14254378
199	0xbce8d4a1	-0.028421702
200	0x3cfd4654	0.030917324
201	0xbcdeaffc	-0.027183525
202	0xbc5346da	-0.01289531
203	0xbdc68fd8	-0.09695405
204	0x3e13c5af	0.14430879
205	0x3a9723a6	0.001153101
206	0xbd5dc6e8	-0.05414477
207	0xbe8ad198	-0.27113032
208	0xbe0240d0	-0.12720037
209	0xbe18fd9b	-0.14940493
210	0xbd7b6de4	-0.061384097
211	0xbe31b933	-0.17355804
212	0x3e567b44	0.2094546
213	0xbe10cb33	-0.14140014
214	0x3ce536f2	0.027980302
215	0xbabaae04	-0.0014242535
216	0x3d819ca8	0.06328708
217	0xbdf6513d	-0.12027214
218	0xbde34375	-0.11096851
219	0x3d38a328	0.045077473
220	0xbceedfe6	-0.029159497
221	0xbdb27279	-0.0871324
222	0x3d0df5e8	0.034658343
223	0x3d7cdd7d	0.061734665
224	0xbd205fd7	-0.0391539
225	0xbdccf983	-0.10008528
226	0x3da982b0	0.0827688
227	0x3d604d24	0.054761067
228	0xbd5a5c26	-0.053310536
229	0xbae1b3a3	-0.0017219674
230	0xbd4d8a44	-0.05018069
231	0x3e5dc465	0.2165695
232	0x3d763496	0.060108744
233	0xbe2ae66f	-0.16689466
234	0x3dac8bb6	0.08425085
235	0x3d62cc9b	0.05537091
236	0x3d97b21b	0.07407018
237	0x3cd607cd	0.026126767
238	0x3dc929a2	0.09822394
239	0x3dd5ddd0	0.10442698
240	0xbe04f84a	-0.1298534
241	0xbdf88544	-0.121347934
242	0xbdf51bcc	-0.119681925
243	0x3cfb2829	0.030658798
244	0x3e6a3b88	0.22874272
245	0x3de050c1	0.109529026
246	0xbb8d0720	-0.004303828
247	0x3d02eddc	0.03196512
248	0xbe099f74	-0.13439733
249	0xbdf706a1	-0.12061811
250	0x3d53178a	0.05153612
251	0xbcff4181	-0.031159164
252	0xbd24eda3	-0.04026569
253	0xbe55e2c8	-0.20887291
254	0xbe08e2a4	-0.13367707
255	0x3cf4acc2	0.029867534

lstm.bias_ih_l1 f4 [256]
0	0xbd971722	-0.07377459
1	0xbce292b7	-0.02765785
2	0xbdcab41d	-0.09897635
3	0x3d6e1ae9	0.058131132
4	0xbc9ef283	-0.019402748
5	0x3d4231fd	0.047410954
6	0x3dda566c	0.10661015
7	0xbc00dfca	-0.0078658555
8	0x3cb67c4d	0.022276068
9	0xbda61574	-0.081095606
10	0xbd4db4ee	-0.050221376
11	0xbd8de1da	-0.069278434
12	0xbda7b199	-0.08188171
13	0xbda7f2fc	-0.082006425
14	0x3ddd251f	0.10798096
15	0xbdc69495	-0.096963085
16	0xbba525c2	-0.0050399015
17	0xbd5a825c	-0.053346977
18	0xbccc1440	-0.024912
19	0x3d8a4775	0.067519106
20	0x3d7669f0	0.060159624
21	0xbbbfc460	-0.005852267
22	0xbd18ec6a	-0.037334837
23	0xbd9c7b26	-0.07640676
24	0x3c313c89	0.010817655
25	0xbd603817	-0.05474099
26	0x3e458f9e	0.19293067
27	0x3e127bda	0.14305058
28	0xbd3fbfe1	-0.04681385
29	0xbcce7341	-0.025201442
30	0xbd7393b9	-0.05946705
31	0x3d8f022e	0.069828376
32	0x3d4a9d2e	0.049466304
33	0x3a828bbd	0.0009959858
34	0x3d87abfd	0.06624601
35	0x3cfd5889	0.030926006
36	0x3d4c477e	0.049872868
37	0x3cc59533	0.024118995
38	0x3d4454ea	0.047932543
39	0x3baafc27	0.005218047
40	0xbd0d9dcc	-0.034574315
41	0x3d1341d8	0.035951465
42	0x3cb26ed7	0.021781368
43	0xbd76a3c5	-0.060214777
44	0x3db80344	0.08984998
45	0xbdc74220	-0.09729409
46	0xbba0dbc5	-0.004909011
47	0x3da40bca	0.08010061
48	0x3cfe2a4e	0.031026032
49	0xbd37ea82	-0.04490138
50	0xbce31ffb	-0.02772521
51	0x3dbee517	0.09321039
52	0x3d41affe	0.04728698
53	0xbdd3e425	-0.103462495
54	0x3db18a1e	0.08668922
55	0x3d4c40e0	0.049866557
56	0x3e44355b	0.19160978
57	0xbc41bd3d	-0.011824903
58	0x3db40aae	0.087910995
59	0x3ab24f17	0.0013603893
60	0x3e384c6c	0.17997903
61	0x3d8bfd9a	0.0683548
62	0x3e90a53b	0.2825106
63	0x3d37cd9f	0.04487383
64	0xbd88e5d4	-0.06684461
65	0x3cde743d	0.027155036
66	0x3d91737b	0.07102104
67	0xbd2ebb91	-0.042659346
68	0xbd936af3	-0.07198133
69	0x3d8e35b6	0.06943838
70	0x3c4ae70a	0.012384186
71	0x3de3924e	0.1111189
72	0xbd0de26a	-0.034639753
73	0x3db371f5	0.0876197
74	0x3d820ec7	0.06350475
75	0xbd8b15eb	-0.0679129
76	0x3d681892	0.056664057
77	0xbc139cc3	-0.009009543
78	0x3de52d8f	0.1119033
79	0x3de0565a	0.1095397
80	0x3d3cce56	0.046095215
81	0x3e033666	0.1281372
82	0x3d35ac71	0.044353906
83	0xbd8d20fc	-0.06891057
84	0x3d2a0509	0.04150871
85	0x3e002294	0.1251319
86	0x3e08be16	0.13353762
87	0x3d1e0902	0.03858281
88	0x3e149177	0.14508615
89	0x3e03a2d3	0.12855081
90	0xbd1a0721	-0.037604455
91	0x3ad0d62d	0.001593297
92	0x3dfdfc00	0.12401581
93	0x3dd1f9e8	0.10252744
94	0x3c97e0b1	0.018539758
95	0x3d5849e3	0.05280484
96	0x3e065cd7	0.13121353
97	0x3dc6764c	0.09690532
98	0x3e0cb312	0.13740185
99	0x3cc10764	0.023563094
100	0x3baa2596	0.005192469
101	0xbc955235	-0.018227676
102	0x3de6b4f8	0.11264986
103	0xbd23625a	-0.039888717
104	0x3ce2ed76	0.02770112
105	0x3d46785f	0.04845464
106	0xbdc126f2	-0.09431256
107	0xbd4eb3a7	-0.0504643
108	0xbc078ebc	-0.008273777
109	0xbd92e1ff	-0.071720116
110	0xbb09d578	-0.0021031778
111	0x3d53f8b0	0.05175084
112	0x3d2f9151	0.042863194
113	0x3cff0b11	0.031133207
114	0xbdc5ab3c	-0.09651801
115	0x3df3bb49	0.11900956
116	0x3d922bbd	0.07137249
117	0xbcaa5436	-0.020792108
118	0xbd6474a3	-0.055775296
119	0xbdd52c87	-0.104088835
120	0xbcf1275f	-0.029437719
121	0x3d8d92c2	0.069127575
122	0xbd5af280	-0.053453922
123	0xbcd94576	-0.02652238
124	0x3d03c9c4	0.03217484
125	0x3d439086	0.04774525
126	0xbc042d03	-0.008067372
127	0x3db1aca7	0.08675509
128	0x3caadfcf	0.020858673
129	0xbd894c71	-0.06704033
130	0xbc415c8e	-0.011801852
131	0x3d7758e8	0.060387522
132	0x3d2cf2aa	0.04222361
133	0xbac1506a	-0.0014748697
134	0xbdd05b3e	-0.10173653
135	0xbda1f7b6	-0.07908575
136	0xbd939fdd	-0.07208226
137	0x3d81b05c	0.06332466
138	0xbcf2b3f3	-0.029626822
139	0x3df2343a	0.11826368
140	0xbde490fb	-0.11160465
141	0x3d75f256	0.060045563
142	0xbdb59790	-0.08866799
143	0x3c12fd57	0.008971534
144	0xbdb0e5bb	-0.086375676
145	0xbad86b56	-0.0016511481
146	0xbd19eabd	-0.03757738
147	0xbcb30274	-0.021851756
148	0x3d8b27fb	0.06794735
149	0x3d268344	0.04065253
150	0x3d1cdb0b	0.038294833
151	0xbd442d20	-0.047894597
152	0x3d7798ab	0.06044833
153	0x3dd2e6f8	0.1029796
154	0x3dddc0fd	0.10827825
155	0x3d57fecb	0.052733224
156	0xbd7688bc	-0.060188994
157	0x3dede78f	0.11616432
158	0x3e06a565	0.1314903
159	0xbdc5c357	-0.09656399
160	0x3cb5ff5d	0.022216493
161	0xbe01632c	-0.12635487
162	0xbd9d63bc	-0.076850384
163	0x3e0bdd8c	0.13658732
164	0xbdbdb181	-0.09262372
165	0xbc8aa965	-0.016926477
166	0x3d60fa1b	0.05492602
167	0xbb20897b	-0.0024496007
168	0x3cf859d7	0.030316276
169	0xbe1ba062	-0.151979
170	0x3d3639d4	0.044488743
171	0x3cd92f76	0.026511889
172	0xbe01cbf6	-0.12675461
173	0xbdad38ba	-0.08458085
174	0xbc08bf71	-0.008346424
175	0xbcd85517	-0.026407761
176	0x3d0ef7b8	0.03490421
177	0x3d37d065	0.044876475
178	0xbe02bdce	-0.12767717
179	0xbd0e54f2	-0.03474898
180	0x3e05f3d8	0.130813
181	0x3bdf67ce	0.0068177944
182	0xbd8aff6e	-0.067870006
183	0x3d3c0141	0.045899633
184	0x3dae9322	0.08524157
185	0xbc4f4b66	-0.012652254
186	0xbc865db0	-0.016402096
187	0xbcfcb68d	-0.030848766
188	0x3dc5ef21	0.09664751
189	0xbd3770eb	-0.04478542
190	0x3d957afd	0.07298849
191	0xbda27a5b	-0.07933494
192	0x3e21d3b5	0.15803416
193	0x3d458621	0.04822362
194	0x3db4aa38	0.08821529
195	0xbcdc8870	-0.026920527
196	0x3e053c50	0.13011289
197	0xbc08dfdf	-0.008354156
198	0xbd4144f0	-0.047184885
199	0xbd9faf5a	-0.077971175
200	0xbcb255e1	-0.021769466
201	0x3e1c34a7	0.1525446
202	0x3c255908	0.0100920275
203	0x3dd3c604	0.10340503
204	0xbe1caf7b	-0.15301315
205	0x3e5dde35	0.21666797
206	0x3cdbaa99	0.026814746
207	0xbd201bb3	-0.039088916
208	0x3daab804	0.083358794
209	0x3df01dc4	0.11724427
210	0x3d96bc21	0.073601015
211	0x3d884380	0.066534996
212	0x3de00baf	0.109397285
213	0x3d9d90dd	0.07693646
214	0x3b46e495	0.0030348648
215	0x3e34e2b0	0.176646
216	0x3ba996e0	0.0051754564
217	0x3e23d069	0.15997471
218	0x3e346f4e	0.17620584
219	0x3e28561e	0.16439101
220	0x3da87e94	0.08227268
221	0xbd621965	-0.0552
222	0x3e4199d9	0.18906344
223	0x3d0fae9b	0.035078626
224	0x3d9e3891	0.07725633
225	0x3dec7f4d	0.11547718
226	0x3df63eef	0.120237224
227	0x3c492b56	0.0122783985
228	0x3dc704db	0.09717723
229	0x3df8ae82	0.1214266
230	0x3e5dc8d5	0.21658643
231	0xbcc586d3	-0.02411214
232	0x3dc345ff	0.09534835
233	0x3e161572	0.14656618
234	0xbd3804ef	-0.04492658
235	0x3d728a3e	0.05921387
236	0xbda47a34	-0.08031121
237	0xbbadb6b8	-0.005301323
238	0xbd8af527	-0.0678504
239	0x3d8cffc9	0.06884725
240	0x3c474963	0.012163493
241	0x3e76aeb9	0.24090089
242	0x3e329d4a	0.17442814
243	0x3e30b5eb	0.17256896
244	0xbdf1193c	-0.11772391
245	0x3c3bbf43	0.011459175
246	0xbda71abd	-0.08159397
247	0x3d046dff	0.032331463
248	0x3dda99a6	0.10673837
249	0x3d4af4d9	0.04954991
250	0xbdf6ea1e	-0.12056373
251	0x3d1765e8	0.03696242
252	0xbcc3e790	-0.023914129
253	0x3b034a7e	0.0020033414
254	0x3def107f	0.11673068
255	0xbc2e5155	-0.010639508
