LogAnomaly/result/deeplog/deeplog_epoch304.pth (torch_old, 645303 bytes, 30 tensors)

lstm.weight_ih_l0 f4 [256, 1]
00000000: 8616 53be 9240 59bc 7b39 83bd 24f0 b53d
00000010: b4c0 0bbe 2faa 463d 6dbd d6bd 3672 953d
00000020: 7f74 3c3e 0f17 ad3d 997e 2b3e b99d aebd
00000030: 2c8b c73d 22ff 0b3e ff64 a7bd c4d7 863e
00000040: e04b ac3d d8ee 633d 279f 1bbe cbe8 1e3e
00000050: 64ea 2b3e c169 9f3d e2cb 8d3d 6051 78bd
00000060: 1208 573e 34da 8dbd 43ea acbc 9bf9 953d
00000070: a45a 9c3d 9583 08be 0140 063e 5ec7 813c
00000080: 1677 f43d 5216 d53d 18dd b03c 5999 3b3d
00000090: eb4d 5e3e f1ff 413c 5a90 0f3e 9731 11be
000000a0: 0089 493b cf4c 0ebe 6b6a 043e 0d05 d23e
000000b0: dfe4 09be b7fd e53d 8f2b 163e 8c4e 52be
000000c0: f02d 4b3e e022 253e 58b8 be3e 9e07 aa3d
000000d0: 38e9 5d3d a2f7 ac3e 6bb7 ec3d 5bcf 7cbd
000000e0: c657 36be b27a e33c dc8c e23d 349d 293d
000000f0: bddc 303d 048d 1f3e 0269 d03d 04b8 1dbe
00000100: c4e9 84bd 4c63 343d 682c fe3d d14c 3dbd
00000110: 32de bbbd d21d 743d ebba c93d 3216 6e3d
00000120: 125b 1fbd 3397 983e 3f35 2f3e 1792 0abe
00000130: 921e 31bc 8422 b93d d26d 2f3e ab40 883e
00000140: 9685 0e3d 54b2 0e3e 9b62 f7bd 95bb 1e3d
00000150: 5933 a13b 18a2 6f3e 5ae1 103e 877e 60bd
00000160: 8389 9c3c 22e4 9c3d 6930 34bf dc7d a53d
00000170: eb94 80bd eded 80be 7f7c 613e ca63 993c
00000180: 918a 04bd 5b84 2a3e 5724 dc3d 6656 e33d
00000190: 6ccf 863d ae75 4d3e 763b f43d 9475 143d
000001a0: 132d 1b3e df54 773e 3b54 3d3e fb96 763d
000001b0: e722 04be 4220 e5bc 697d 783d 1ec5 e8bd
000001c0: 5bd2 a93d b481 e13d b242 a13e 7909 813e
000001d0: d661 5a3d e4d5 bb3c 346f 303e eed0 d0bc
000001e0: 3dc5 3abe 5379 3b3e 3fef f43e 1965 11bd
000001f0: df93 363d 64e8 583d 23ae b0bd 5242 1dbe
00000200: a1bd ee3e b3f3 0dbe cb80 a83d a097 063d
00000210: 8487 863e 9f51 3abe c9ff 51bd 5b44 213e
00000220: 0e90 383e 3f2e 34bd 312e 8bbd a29d 6d3e
00000230: 12d3 7abe 1d58 353e e4e9 29be d548 c8bd
00000240: 6a46 6f3e 22f5 9ebe 6c5b 89be 1f47 613e
00000250: cc32 3b3e e34a 14bd 799d 24be fc4b 503e
00000260: c9f7 d03d d694 a53e ff68 f5be 2345 ab3c
00000270: 3bf1 d03c 3814 43be 582e 733f 95e9 52b7
00000280: 07f7 023f cb83 c33c 94a2 b03d bd1d edbc
00000290: 44f1 a3be ff50 5abe d1f8 a7be 9fa8 44be
000002a0: 7f0d 593e ee11 683d c434 02be a1c5 d8bf
000002b0: d4a4 c33e fb43 9e3e 0e16 8a3d d082 043f
000002c0: 05d9 febd d314 1fbe 2e4e 1bbe cf87 1ebd
000002d0: 4058 d9be 332b f53e 2d2e 153d 59a8 313e
000002e0: a216 c3be 53ca a33d 32a4 4d3d 7c1c a3bd
000002f0: d6d2 0c3e 6e28 acbd f67d ab3d 8dc7 b6be
00000300: b76e 493e 4a7f 35bc 827f 223e 092f ac3e
00000310: 42ea 3d3e eecf a73d abbd 423e 6e27 693e
00000320: 5412 343d d618 9c3e 360f a93d 2139 683e
00000330: d4e8 853e 5581 1c3e 5156 733e f9d9 a03e
00000340: e1f4 bebd c2a7 0c3d 7c29 ab3e bed3 5a3e
00000350: d471 a33e 3cef 773e 82ce 5bbe b4af 38be
00000360: 2703 37be fa90 3f3d b513 f83a 81be e23d
00000370: 1728 aebc 1d5e adbe ab93 213e a34c 913e
00000380: 26f9 e8bd a925 b03e c8e3 a93d 2a71 a43e
00000390: 05df c2bd aac8 69be b4b3 b53d e68e 9abe
000003a0: a63f 61be 0f2c 933e 8e62 503e dc84 99be
000003b0: d2ba 8b3e 0ce5 983c 9897 5e3e 9f10 2ebe
000003c0: ddef 43be add9 febd 3078 023e 7234 63be
000003d0: 7aec 9a3d e08a c5bd e314 853d 98d9 c03d
000003e0: 1f31 363e 1119 64be 696e 9d3e 4b55 12be
000003f0: e2e8 d93d 9744 283e f389 793e d6b5 1f3e
-0.20614061 -0.013260024 -0.06407448 0.08883694 -0.13647729 0.048502143 -0.10485349 0.07297175
0.18403815 0.08451664 0.16747512 -0.08526177 0.09743342 0.13671544 -0.0817356 0.2633649
0.084129095 0.0556477 -0.1519743 0.15518491 0.16788632 0.07783843 0.06923653 -0.06062448
0.20999172 -0.069263846 -0.021107798 0.07322999 0.07634476 -0.13331445 0.13110353 0.015842136
0.11936776 0.10404648 0.0215898 0.04580054 0.21709411 0.011840806 0.1401991 -0.14179073
0.0030751824 -0.13896488 0.1293122 0.41019478 -0.13466214 0.11230033 0.14665054 -0.20537776
0.19841743 0.16126585 0.37250018 0.08302234 0.054177493 0.3378268 0.11558422 -0.061721187
-0.1780692 0.027768467 0.11062023 0.041409686 0.043179262 0.15581137 0.10176279 -0.15402228
-0.064899 0.04404001 0.124108136 -0.046215836 -0.0917324 0.05959875 0.09850105 0.058126636
-0.03890521 0.29802856 0.17110156 -0.13532291 -0.010810511 0.090397865 0.17131737 0.26611838
0.034795366 0.13935214 -0.120793544 0.03875311 0.004919451 0.23401678 0.14148465 -0.054808166
0.01910854 0.076607004 -0.7038637 0.080806464 -0.06278404 -0.25181523 0.22020148 0.018724341
-0.03235871 0.16652052 0.10749119 0.111004636 0.06582531 0.20064422 0.11925404 0.036244944
0.15153913 0.2415347 0.18489163 0.06020258 -0.12903939 -0.027969483 0.060666475 -0.11365722
0.08292075 0.11011067 0.31496197 0.2520254 0.05331596 0.02292914 0.1722992 -0.02549025
-0.18239303 0.18308 0.4783878 -0.035496805 0.044574615 0.052956 -0.08626964 -0.1535733
0.4662905 -0.13862495 0.0822769 0.032859445 0.26275265 -0.18195198 -0.051269326 0.15748732
0.18023703 -0.043989416 -0.0679592 0.23204663 -0.2449458 0.17709394 -0.16593128 -0.097795166
0.23366705 -0.31046396 -0.26827562 0.21999787 0.18281096 -0.03620423 -0.16075696 0.20341486
0.10203511 0.32340115 -0.47931668 0.02090699 0.025505653 -0.19050682 0.9499259 -1.25713605e-05
0.51158184 0.023866555 0.08624759 -0.028944844 -0.3202001 -0.2131996 -0.3280702 -0.19204949
0.21196555 0.056657724 -0.12715441 -1.6935312 0.3821169 0.3091124 0.06742488 0.51762104
-0.12443737 -0.15535288 -0.15166542 -0.038703736 -0.42450142 0.4788452 0.03642099 0.17349376
-0.38103205 0.07997575 0.050205417 -0.07964417 0.13752303 -0.08406149 0.083736345 -0.3569912
0.1967114 -0.011077711 0.15868953 0.33629635 0.18546394 0.08193956 0.19017665 0.22768947
0.04396279 0.30487698 0.082548544 0.22678043 0.26154196 0.15283711 0.23763396 0.314163
-0.09324051 0.034339674 0.33430088 0.21369836 0.3192278 0.24212354 -0.21465495 -0.18035775
-0.17872296 0.04676912 0.0018926772 0.11071492 -0.02125935 -0.33860865 0.15778987 0.28378782
-0.11375646 0.34403732 0.08295399 0.32117587 -0.09515194 -0.22830454 0.08872166 -0.30187148
-0.21996936 0.28744552 0.20350096 -0.29984176 0.2729097 0.018663906 0.21737516 -0.16998528
-0.1913447 -0.12443862 0.1274116 -0.22187975 0.075646356 -0.09645629 0.064981245 0.09416503
0.17792176 -0.22275187 0.307483 -0.14290349 0.10640122 0.16432415 0.2436903 0.15596709

lstm.weight_hh_l0 f4 [256, 64]
00000000: fde7 6b3e e86a 1ebe b6bf 283d 7b53 8e3d
00000010: 07de 823e 811e eabd 32bc 3abd 4cd3 b33d
00000020: dba3 303e 6b52 0a3e 4dde d1bb 8cf5 3bbe
00000030: b35a 4bbe 99b9 d73d 6334 ebbd 991d 8b3e
00000040: 7bee 573e 60a7 5abd 7acd 2e3d c198 183e
00000050: 8e1a acbd 38d9 a63d 4146 35bd 8283 3b3e
00000060: 1eb6 933e 303a 713e 7a59 c43d 507c af3d
00000070: 7620 b23d aba8 a8be db9b 6f3d 9f04 093e
00000080: 6472 393d b413 943d 24a4 b63d e520 30be
00000090: 23aa 0ebd f758 59be c72d ebbd 3774 a7be
000000a0: a478 a33d 7df8 02be ade7 c13d 5e13 e2bd
000000b0: 303d 4f3d d23e 373e 5488 263d 28b9 813e
000000c0: a1c0 9abe 8deb bdbd b435 323e f274 b0be
000000d0: 89ff 7b3d a190 4e3e 38b5 e93d 14a5 b8bc
000000e0: da5d dbbd a16c c63e 57e2 f8bc 2311 fdbd
000000f0: 61e2 0c3e b278 5cbd 1f64 13be ab49 aabd
00000100: 98b1 83bd 3813 a2bd b8cd a23e 8445 8d3e
00000110: f32b 143e bdcd 38be b73f b13d e1d2 a53d
00000120: f4c7 1a3e e707 bb3d f76b fdbd b866 963d
00000130: 5a31 5abe 2c90 3a3e c285 03be 1198 a9be
00000140: 281b 593e c904 19bd b93f f6bd 037a 5a3e
00000150: 6153 dc3d daed d5bd 596e 19be 3da7 c63c
00000160: 7dc4 c43e e02b b03d 184b a2bd ba24 fb3d
00000170: 2ae2 6e3e 3b5d 7abb 5927 183d 2edd 363e
00000180: a280 b53b 744e 3c3e 4340 773d c386 08be
00000190: 8eb8 55bc 1f85 37be c969 1cbe 8225 a73d
000001a0: e3a7 3c3e ff12 6bbd f1cf ebbd 416a cf3d
000001b0: 8c5c 223b ab60 1d3e 9dc2 5d3e 9ef2 f9bd
000001c0: 15b9 72be 522f fdbd 53fe f0bc 8ebf 6fbe
000001d0: 2f5f 123d 5e65 f4bc 183c 903e cbba 1f3e
000001e0: 32d8 36bd d0e1 b73e 9771 2f3d 5948 28be
000001f0: 1a44 1e3e b84e 2ebe 84c2 993d 7d79 abbd
00000200: 2c5f 033e 1393 a73d b57d e33d e30c 733e
00000210: 07f5 243e 41b6 91be 946a 84be ccc1 673e
00000220: a9e7 633e b99b 02bd 5799 a4bd c4a4 fb3d
00000230: d788 b2bd ad34 8c3d 6f11 0dbe ea01 bf3d
00000240: eb79 213e 0058 73be 765e bcbc e2df 643e
00000250: c444 523d 345b 813d a5cb 64bd 9a1b 123e
00000260: 3cd7 463e 4257 c63d 09dc 94bc 9c4d 9b3e
00000270: 057f 3bbd c9e0 cebe 31c5 fe3d f1f5 a53d
00000280: 32ca c1bd f2e9 143e 5bed 573e 4d0a 10be
00000290: 87ee 293b 87d1 29be 5607 4cbd 3861 dabe
000002a0: 160a 493e c1bc 29be 2090 0cbd 7655 80bd
000002b0: a605 a23d f4b1 b83d 4cd8 863e 1915 283c
000002c0: 1c40 1ebd 5700 353c 4bf6 20be 8afe 733d
000002d0: a099 aeba 360a b83d c5b8 023d 9e6d 8a3e
000002e0: 7548 22bd 09a6 7a3e e478 d9bb 5f11 14bf
000002f0: d06e 15bc 8f4d 0cbe ece7 aa3d 66bb 9bbe
00000300: b135 af3d e251 6bbe 4736 1abd 6cac d73c
00000310: 18b0 353d 44b2 aa3d 1117 1e3c 09e7 d1bd
00000320: 5946 7dbd 6c7e 88bc ca2e 303d 8850 d83d
00000330: 9724 143b 9e00 f73c d640 923d 56ae d63d
00000340: 1fab 8e3b 82aa b7bd f16d 1abe 725a d73c
00000350: 8994 493d 469d 033d ee1a 6ebe a550 973e
00000360: ebc3 35bd 37c5 0a3e 794a 183d 8740 b43d
00000370: aabd 073e 9beb 7cbe cdca c5bc f701 c8bb
00000380: b5ed ab3d 710d 30bd 24f7 043e faca 1d3d
00000390: 05b5 68bd 3d04 52be 707a edbd 86d4 3abe
000003a0: 389d 40bd 2404 313d 5914 ebbd 3b22 09bd
000003b0: ae9b 6d3e 9cb5 2ebd 374c 20be 375c af3e
000003c0: 779a 9ebc a408 3cbc 054a a83d 66b1 16be
000003d0: 3269 b7bd 8ef7 943d 15de 363d e294 f43d
000003e0: dc02 b3bd ac96 0c3e 8f3e ce3d dc1a b8bd
000003f0: 9f2d d53d 796f c6bc 8b3f f6bd eb8f 77bc
0.23037715 -0.15470469 0.041198455 0.069495164 0.25560018 -0.114315994 -0.045589633 0.08780536
0.17250006 0.13508002 -0.006404674 -0.18355387 -0.19858818 0.10533447 -0.11484601 0.2717102
0.21087067 -0.053382277 0.042676426 0.14902021 -0.084035024 0.081469 -0.044256452 0.18311885
0.28849882 0.23557353 0.09587379 0.085686326 0.08697598 -0.32941183 0.058498245 0.13380669
0.045275107 0.072303206 0.08918026 -0.17200048 -0.034830224 -0.21225344 -0.11483341 -0.32705852
0.07981995 -0.12790103 0.09468017 -0.1103885 0.050595462 0.17895058 0.040657356 0.25336576
-0.3022509 -0.09273443 0.17403299 -0.34464222 0.061522994 0.20172359 0.11411518 -0.022539653
-0.1071126 0.38754752 -0.030381365 -0.12356784 0.13758232 -0.05382604 -0.14393662 -0.08314832
-0.06430358 -0.07913822 0.31797576 0.275921 0.1446989 -0.18047233 0.08654731 0.080968626
0.15115339 0.091323666 -0.12374108 0.07343811 -0.21307889 0.1821906 -0.12843993 -0.3312383
0.21201766 -0.03735808 -0.12023873 0.21335606 0.10758091 -0.10445757 -0.149835 0.024249667
0.3843116 0.086021185 -0.07924479 0.122628644 0.23328462 -0.0038202542 0.0371469 0.17857811
0.005539016 0.18389302 0.06036402 -0.13332658 -0.01304449 -0.17921875 -0.15274729 0.08161451
0.18423419 -0.057391163 -0.11514271 0.10127688 0.00247744 0.15368907 0.2165627 -0.12204479
-0.23703416 -0.12362541 -0.029418146 -0.23412916 0.035735305 -0.029833492 0.28170848 0.155986
-0.044639774 0.3591447 0.042832937 -0.16433848 0.15455666 -0.17022216 0.07507804 -0.083727814
0.12829274 0.08182349 0.11107961 0.23735385 0.16109096 -0.2845936 -0.25862563 0.22632521
0.2225634 -0.03188679 -0.0803706 0.12287286 -0.087175064 0.068459846 -0.13776182 0.09326537
0.15769164 -0.23764038 -0.022994261 0.2235103 0.05133511 0.06316224 -0.055858273 0.14268342
0.19418043 0.09684612 -0.018171327 0.3033265 -0.045775432 -0.40405872 0.12439955 0.0810355
-0.09462394 0.14542368 0.21086638 -0.1406643 0.0025929527 -0.16583835 -0.049811684 -0.42652297
0.19632754 -0.1657591 -0.034317136 -0.062663004 0.079112336 0.09018317 0.26336896 0.010258936
-0.03863536 0.011047444 -0.15718953 0.05956892 -0.001332093 0.089863226 0.03191449 0.27036756
-0.03961988 0.244774 -0.0066367257 -0.57839006 -0.009120658 -0.13701461 0.08345017 -0.3041641
0.08555163 -0.22980455 -0.03764942 0.026327334 0.04435739 0.08334783 0.009649054 -0.102491446
-0.061834667 -0.016661845 0.04301337 0.10562235 0.0022604817 0.030151661 0.07141273 0.10482471
0.0043538953 -0.08968069 -0.15081002 0.026288245 0.04921392 0.03213241 -0.2325246 0.29553714
-0.044376295 0.13551794 0.037180398 0.0880137 0.13255945 -0.24699251 -0.024144555 -0.00610375
0.083949484 -0.04298157 0.12984902 0.03852365 -0.05681326 -0.2050943 -0.11595619 -0.18245134
-0.047024935 0.04321684 -0.114784904 -0.03347991 0.23203918 -0.042653665 -0.15654074 0.34250042
-0.019360764 -0.011476669 0.08217243 -0.1471611 -0.08955611 0.0727378 0.044645388 0.1194246
-0.0874078 0.13729352 0.10070526 -0.08989498 0.10409092 -0.024223076 -0.120238386 -0.015109996

lstm.bias_ih_l0 f4 [256]
00000000: bfcd f23d d666 b13d a8f6 2f3d 05bd a5bd
00000010: 012a 4e3e ccee 3fbc 9c11 3f3e c309 f33b
00000020: ded9 813e 8589 3d3e 568d fdbd 8239 673e
00000030: bfa5 0a3d 5d74 013e 1d3c eb3d 3a78 0a3e
00000040: 6d94 3f3e 7683 233e 43e2 443e 4e74 9ebc
00000050: d10c a2bd 36b3 133d 2821 e13d fa05 ba3d
00000060: 896f 133e f628 313e 93d0 513d bb1b 923d
00000070: 1a17 a8bc 1714 7e3e 2734 923e 8637 e1bd
00000080: f988 17bd f0ac 013e 0d0e 303d 34b1 e3bd
00000090: a47b 213e b1bb aebd a249 b43a dc71 b2bd
000000a0: d95a f83d 0a82 f1bc da4c 56bd 2da7 2b3f
000000b0: 0ba9 443d f969 8a3e a455 d23c 5655 d73d
000000c0: 9225 25bd 87aa 8b3d 2aa7 eebc 8a8b 06be
000000d0: 478e 09be e1c2 9a3e af09 c13d db9d 2e3d
000000e0: 9780 443e c487 54bd 9c68 4c3d bef7 9f3d
000000f0: 3eb4 d0bc b43b f23d 6ad3 7ebe f1cd 013d
00000100: 0a6a 6ebd 9303 143e 56ee 9abd 40a9 f93d
00000110: 2783 963d 4358 ac3d 2254 bd3d 3dac da3d
00000120: bede bb3d c1e9 aa3d a4ac 16be 0589 0d3e
00000130: 4dd4 3a3d acb5 923d 83e2 fc3b b656 bebd
00000140: ac8b 693d dd4e 8fbc e060 c6bd fe10 eebd
00000150: cca6 383d 5a42 9e3d 315e e1bd a1fb d4bb
00000160: e86c 543e 8144 f43d fb29 ca3d 9b70 943c
00000170: f569 553e f41f ba3d fa51 33be ff42 893d
00000180: ddd8 99bd bf82 303c a470 30bd 7eb5 a63c
00000190: cffd f53c 7883 0bbe 33df 2dbd 23a6 723b
000001a0: 6a72 c1bd 0100 263b 949e 003e 164a 84be
000001b0: 45f7 edbd 238f 443e 3764 c83d 9367 cb3d
000001c0: 3093 893d d371 ac3c 343c 44bc c08f b2bd
000001d0: 1361 edbd 3820 d43d c2f0 af3d c7e1 233c
000001e0: a3be c63d 93ef 0a3e bf99 5dbe 1b6e f43d
000001f0: 2bcd df3c 7bde 443d 99e3 9e3d 8276 283e
00000200: 8def ad3c 2681 4a3e 77f0 b4bd a932 5abe
00000210: bd74 023e c1c5 f93d 4aa1 47be 0cd6 743e
00000220: 625c 703e 9acf 053e 5a3f a1bd 917b 1fbd
00000230: 09f8 4f3e eabe a8ba 261f 34bd 14c1 c93d
00000240: dbb0 693e 5807 0ebe c96a 933d 4266 103d
00000250: 81ff e03c dec1 2b3e 8f01 8fbd 4f79 b5bd
00000260: 0165 91bd a884 e83d 9a8a a83d 3c68 c93d
00000270: b57a 19bd 16b5 90be 256f 063e 2440 fd3b
00000280: 553b 74be 9da8 32be 19a0 133e 4458 033d
00000290: 7f08 1a3d f27c 44bb b40d abbd fb6a 9f3d
000002a0: f170 aebb 6113 b2bd d690 a5bd 1ced d93d
000002b0: 1f89 3dbb b94e b63d 1f34 833d ef73 57be
000002c0: 74c4 2bbc a435 9abc b941 ae3c 68a7 553d
000002d0: 764e 2a3e 1ad1 8a3e 94b8 80bd 462d 12be
000002e0: 3376 d4bd da8c 8d3c 764a 3e3e 154c 8d3d
000002f0: ec98 31be 56d5 75bd dd76 77bd 20c5 0cbe
00000300: 5757 a43e 2b54 13bd d224 d1bc bcea 40be
00000310: 527d 5f3e 2d4f a13d 78fc 023e 26df debd
00000320: 2dc6 683d 4120 0bbc d9fe 113e 98dd 00bc
00000330: 23ab 363e b91a 4cbd 404b af3d 5b7a c43d
00000340: 9d75 c73d 644d b43c dbc7 523e 2a7f 2ebd
00000350: 8424 0f3d 249f 243d df7c 9f3d f28b 913d
00000360: 0b31 443d c6cd 8e3c 011a 483e b378 d73c
00000370: 2567 083e d369 b23e af76 a53e 7efc 0bbe
00000380: 063e 253e 74d1 07be 1950 fb3d 8fdf ddbd
00000390: 5e75 e03d ddba 163e 3262 0b3e 8f7a 943e
000003a0: a99a 2f3e fda8 52ba efed ba3d b4c2 f33e
000003b0: f068 193e 3537 e83d ad22 44bd 8a08 203e
000003c0: 682a 0d3e 3e22 063e d784 313e be17 183d
000003d0: f66b 613e e8a0 6b3e 2f9b 623e f0dc 9c3e
000003e0: 1f2a 2d3e ab9d a83d 9d2d 1e3d 4698 433e
000003f0: ac92 82bd 2837 2b3d 6c85 5ebe 4cb7 933e
0.11855649 0.086621925 0.04295984 -0.08092693 0.2013321 -0.011714648 0.18659061 0.007416935
0.25361532 0.18509491 -0.12380473 0.22580531 0.033849474 0.12642045 0.11486075 0.13522425
0.18708964 0.15968117 0.19226937 -0.019342568 -0.07912601 0.03605958 0.10992652 0.09083171
0.14398016 0.17300782 0.051224303 0.071341954 -0.020518828 0.24812351 0.28555414 -0.109969184
-0.03699586 0.12663627 0.04298215 -0.11117783 0.15769821 -0.08531893 0.0013754854 -0.08713123
0.12126703 -0.029480953 -0.052319385 0.67051965 0.048012774 0.27033976 0.025675602 0.105143234
-0.040319033 0.06819635 -0.029132444 -0.13139167 -0.13433181 0.30226806 0.09425675 0.04263101
0.19189678 -0.05188729 0.04990445 0.07810925 -0.025476571 0.11827794 -0.24885336 0.03169054
-0.058206595 0.14454488 -0.0756499 0.12190485 0.07349234 0.08415272 0.09244563 0.10677383
0.09173344 0.08345366 -0.14714295 0.138218 0.045612622 0.071635574 0.007717432 -0.092938825
0.057017967 -0.01749366 -0.09686446 -0.11624335 0.045080945 0.07727499 -0.11004294 -0.006499723
0.2074467 0.119271286 0.098712884 0.0181201 0.208412 0.09088126 -0.1751174 0.067022316
-0.075120665 0.01077336 -0.043076172 0.020350214 0.030028252 -0.1362437 -0.042449187 0.0037025295
-0.09445651 0.0025329592 0.12560493 -0.25837773 -0.116194285 0.19195227 0.097847395 0.099318646
0.06717527 0.02105037 -0.011977244 -0.087188244 -0.11590781 0.10357708 0.08590843 0.01000256
0.0970433 0.13567953 -0.2164068 0.119350635 0.027319511 0.048063736 0.077582546 0.16451457
0.02123239 0.19775829 -0.088349275 -0.21308388 0.12739845 0.12195922 -0.1949512 0.23909777
0.23472741 0.13067475 -0.078734115 -0.0389362 0.20309462 -0.001287428 -0.043975018 0.0985128
0.22821371 -0.13869989 0.07198102 0.03525377 0.027465584 0.16773173 -0.06982719 -0.088610284
-0.07099343 0.11353427 0.08229561 0.09834334 -0.03747054 -0.28263158 0.13128336 0.0077285934
-0.23850758 -0.17447133 0.14416541 0.0320666 0.03760576 -0.00299817 -0.08352223 0.07784077
-0.0053235223 -0.086951025 -0.08084266 0.10640928 -0.0028920842 0.08901734 0.06406426 -0.21040319
-0.01048385 -0.018824406 0.021271573 0.052161604 0.16631493 0.27112657 -0.062852055 -0.14275083
-0.10374107 0.017279077 0.18583092 0.06899277 -0.17343491 -0.060017906 -0.06041609 -0.13747072
0.32097885 -0.03596894 -0.025530253 -0.18839544 0.2182515 0.0787643 0.12791622 -0.10882406
0.05682962 -0.008491577 0.14257373 -0.007865332 0.17838721 -0.049830172 0.08559275 0.0959365
0.0973923 0.022009559 0.20584051 -0.04260174 0.034946933 0.04019083 0.07787489 0.071067706
0.047898334 0.017432105 0.1954117 0.026302671 0.13320597 0.34846362 0.3231711 -0.13670537
0.16136941 -0.13263494 0.12271137 -0.10833656 0.10959886 0.1471972 0.13611677 0.28999755
0.17148842 -0.00080360455 0.091274135 0.47609484 0.14981437 0.11338655 -0.047884632 0.15628257
0.13785708 0.13099 0.1733583 0.037132017 0.2201384 0.230106 0.2212951 0.30637312
0.16910599 0.08233198 0.03861772 0.19101056 -0.06375632 0.041800648 -0.21730584 0.28850782

lstm.bias_hh_l0 f4 [256]
00000000: bf08 4b3e 7a8b 983d 5903 683d 8009 993d
00000010: 0ba1 183e f78e 3e3d 5613 4a3c 7420 b53d
00000020: fead be3d cac5 5b3e cd4d b83c 3c0b 3b3e
00000030: 7f02 2d3e 8d9d 4a3a 5e5f ee3d 243e 143e
00000040: 7666 eb3d db9b 0a3d 1e64 e13d a7ee 9c3d
00000050: b48d eabc 10c9 7b3d 658c 3c3d 3018 babb
00000060: a44b 073e 5a14 c63d 2529 d4bc 1b0e c33d
00000070: 79e6 f0bc a92d 943e db2c 723e 8e62 b93d
00000080: 87ed cd3d 6911 853d cdfd 673d 6707 63bc
00000090: e56f 6b3e ea35 93bd 5622 ef3c 54da 0cbe
000000a0: aff7 f53c 83d3 35bb 949d 6a3d c27c 173f
000000b0: 8684 e73d 15f1 7d3e 09fd 743d b472 c63d
000000c0: d81c bdbd 4aea 6fbd c2e8 90bd a0df 71bd
000000d0: 1425 01bd a1e2 f93e 313e 2fbd 3d75 983d
000000e0: ed4b 313e e2f7 db3c afd0 703e 5d09 c63d
000000f0: 2aeb fc3d e254 d53d 2b4d 10be c729 293d
00000100: 474b 8dbd 1a8a c43c 5329 e1bc 2a5a 1c3e
00000110: 86f5 0cbd 2ecd e83d dbc4 2f3d ef6c 093e
00000120: 1d01 643e a66c 4ebb 52f8 ecbd 6637 903d
00000130: 1f47 00bb 816b 473e 9ea2 b3bd 278b 10be
00000140: 6fb4 a33d 5db0 c13b d545 c3bd 2cda 06bc
00000150: 4ee7 23bb e173 b53d 6d35 7fbc 4078 c53d
00000160: 0904 fc3c fdc3 923d cb1b e33d a214 a7bd
00000170: a8f3 443e d6e2 853d c4c5 e7bc dd6a 1c3e
00000180: 8366 fdbd 82eb 29be ebd8 403d 3c23 0bbc
00000190: 0ca4 05be 902c ce3a 1bc1 05be 117d 96bd
000001a0: 279e 60bd 1388 4abc 790a bb3d 596e 74be
000001b0: 7914 afbc 051f 6e3d d888 4b3c 1570 41bd
000001c0: cf22 063d 5a6f 0e3b f713 383d 0b20 4ebc
000001d0: 5eb7 aebc 083b 6d3d b529 18bd 31f9 94bc
000001e0: 62d8 ab3d f753 95bd 828e 0c3c a11e 9dbc
000001f0: 6c3d bc3d 2968 de3d 2e77 82bd 21e1 e63d
00000200: ea2a dabd 275d f73d 4b6c 24be fade 4cbe
00000210: 603a 273e b2e6 63bd 8699 0ebe 9092 5c3e
00000220: 5c56 bc3d da94 2d3d 8be3 47bd acca 00be
00000230: 9692 a73c 2081 65bd 05a3 e53d 6443 383e
00000240: 64d0 743e 1fe9 f4bd 1a49 aebb 12fe ddbd
00000250: 73d4 07be 7ebe 4b3e 9c20 c63d 8d26 67bd
00000260: c528 4fbb 2540 623e d922 a93d 0dd3 103e
00000270: 11de cabc 4edb 05be cc20 0dbd d9d6 513c
00000280: 1447 ffbd 358a 61be b7df 113e 2a45 36bd
00000290: 7426 273e 6fd8 f53d a5bc 8ebd 717b a4bd
000002a0: 4588 f6bc 35dc 0cbe 7b53 c1bd 5db1 d33d
000002b0: 0220 21bd 07ff fd3d 197f 503d b80f 773c
000002c0: e1e4 d73d e20d 74bd 0cb2 973d 1bcd cdbc
000002d0: 6ae6 3c3e 34a8 823e 41f6 68be 2a98 05be
000002e0: 3e09 433d 37aa 4c3c 528f 263d 4e69 d03d
000002f0: 9dd8 d8bd c347 0bbd f084 91bd 7b13 a4bb
00000300: f4f7 a53e 6ab6 e03d d362 b4bd 3a3b 1bbd
00000310: dbec 4b3e 1f30 7c3d 724d a83e 65a0 4fbd
00000320: 786a cb3d 4caf e8bc 5d1a 5c3d e3a4 9cbd
00000330: eb86 063e 5b2f eb3d 9b79 823d ac68 013d
00000340: b256 a33d 51aa 283e b8dd 833e 53b3 d33d
00000350: 0cfe 453b dc1a 6dbc 0fb8 563e 1128 1b3e
00000360: 7ced 833d 8b16 55bd 33aa 3f3e 8d72 ba3d
00000370: 2a88 3ebd d238 623e ffd3 833e 80a4 0ebd
00000380: a194 ea3d 22f7 033b f13a 123d 1d78 e0bb
00000390: 81d5 ba3d ff13 033d 4fd2 193e 81da 943e
000003a0: 3e69 963d 3fc0 0cbd e88d 69bd 773f ca3e
000003b0: dc15 073e 627e 053d bbda 17be 7f88 8e3e
000003c0: 80ea a13d f6d8 423c d19e d53d ca2c 193e
000003d0: d203 543d a7d2 3d3e a67c 563d 0b10 833e
000003e0: 2756 3c3e c918 5abc 041f e6bb 542c 0b3e
000003f0: 528a a1bc bad6 003e 65e7 8cbc 32b0 663e
0.19827555 0.07448478 0.056643818 0.07472515 0.14905183 0.04652306 0.012333712 0.088440806
0.0931053 0.2146217 0.022498036 0.18266004 0.16895483 0.00077291654 0.116392836 0.1447683
0.11494152 0.03384004 0.11005424 0.07662707 -0.028632022 0.061471045 0.04603233 -0.005679153
0.13212448 0.096718505 -0.025898525 0.09524175 -0.029406773 0.28941086 0.23649924 0.09052001
0.1005507 0.06497461 0.056638528 -0.013856745 0.22991903 -0.07188018 0.029191177 -0.1375516
0.030025331 -0.002774448 0.057279184 0.5917474 0.11304574 0.24798997 0.059811626 0.09689847
-0.09234017 -0.058573045 -0.07075645 -0.059051156 -0.0315295 0.48805717 -0.04278392 0.074442364
0.1731412 0.026851598 0.23517106 0.09669755 0.123495415 0.10416581 -0.14091937 0.041299608
-0.06899124 0.023991633 -0.027485525 0.1526877 -0.034413837 0.1136726 0.042912345 0.13420461
0.2226605 -0.0031497865 -0.11570801 0.070418164 -0.0019573641 0.19474603 -0.08771251 -0.14115582
0.07993399 0.0059109167 -0.09534804 -0.008230727 -0.0025009695 0.08859993 -0.015576703 0.096420765
0.030763643 0.07166288 0.110892855 -0.08158232 0.19233572 0.06537406 -0.028292544 0.1527514
-0.12373068 -0.16593745 0.04708187 -0.008492287 -0.1305086 0.0015729833 -0.13061945 -0.07348073
-0.054838326 -0.012361544 0.09132857 -0.2387022 -0.021372067 0.05813505 0.012422763 -0.04722603
0.03274804 0.0021733851 0.044940915 -0.012580882 -0.02132767 0.057917625 -0.03714915 -0.01818523
0.08390881 -0.07291406 0.008578898 -0.019179644 0.09191403 0.10859711 -0.06370388 0.11273409
-0.106527165 0.12078314 -0.16056935 -0.20006934 0.16330862 -0.05563993 -0.13925752 0.21540284
0.09196159 0.042378284 -0.048800986 -0.12577313 0.02045564 -0.056031346 0.11212734 0.17994457
0.2390762 -0.11958527 -0.005318773 -0.10839476 -0.13264637 0.19896886 0.096741885 -0.05643325
-0.0031609994 0.22094782 0.082586 0.1414301 -0.024764093 -0.1307194 -0.034455106 0.012807571
-0.12464729 -0.22025378 0.14245497 -0.044499554 0.16323262 0.12004172 -0.06969575 -0.08031357
-0.030094275 -0.13755877 -0.09439751 0.10336564 -0.039337166 0.12402158 0.05090246 0.015079431
0.10541702 -0.059583552 0.074070066 -0.025122216 0.18447271 0.25518954 -0.22750188 -0.13046327
0.047616236 0.012491754 0.040664025 0.10176335 -0.10588191 -0.034003984 -0.07105434 -0.005007205
0.32415736 0.10972293 -0.08807912 -0.03789828 0.19914572 0.06156933 0.32871586 -0.050690074
0.09932417 -0.0284039 0.05373608 -0.07648637 0.13137405 0.11483642 0.06370851 0.031593964
0.0797552 0.1647122 0.25755095 0.10336938 0.0030211238 -0.014471736 0.2096865 0.15152003
0.06441781 -0.05202345 0.1871727 0.0910388 -0.046516575 0.22091988 0.25747678 -0.03482485
0.1145413 0.0020136316 0.035700742 -0.006850256 0.09122754 0.03200149 0.15021633 0.29072955
0.07344292 -0.034363028 -0.057020098 0.39501545 0.13191932 0.03259123 -0.14829533 0.27838513
0.079060555 0.011892548 0.104306825 0.14958492 0.051761456 0.18537389 0.052364968 0.25598177
0.1839224 -0.013311573 -0.0070227403 0.13591129 -0.019719277 0.12581912 -0.017200181 0.2252815

lstm.weight_ih_l1 f4 [256, 64]
00000000: 2885 fdbc ccdb a3bd 3ce0 bbbd 1aad b2bd
00000010: f3e1 753d a30a 6abd a7df 54bd f744 d8b9
00000020: 9bc0 273c 7aff 3b3e c1e5 55bd dc4a 32bd
00000030: 09dd 0cbe e27a 31bd cdf9 063d 3116 c73c
00000040: 4fdf 23bc 414d 553c 98f3 79bd 0930 343e
00000050: 9e33 193d d1f7 133e c129 b93d 03ef 0d3e
00000060: abed d63c 21a7 0e3d 52ec 28be cb48 f93b
00000070: 9e79 1abe 3810 b5bd 3844 de3d 630f eabd
00000080: 0886 00be 8eab 733d 4388 97bd 4ce1 883d
00000090: 1182 243d 47a5 debd 0209 d2bd 7094 7ebc
000000a0: 074b 8b3c 25d7 2bbe 9592 b73d 8d7a 83be
000000b0: cfed 5c3d 1f8a 853d 8953 cc3d bb71 813d
000000c0: a722 8b3d fce2 0ebe 71cf 90bc 9c4e e43d
000000d0: 8b45 b8bc 757e d13d 62f5 8fbd 0ec3 993d
000000e0: a0ed 7b3d 1e13 4dbc 6c7e 04be 9f98 4d3d
000000f0: f778 c0bd 8bb8 64bd c507 8ebe 6510 1abe
00000100: 25a4 0bbe 66ad 923b bb01 533d 69f9 32bd
00000110: 87e4 eabc cba5 15bd 9c5c cdbc c21a 8cbd
00000120: 6ee4 3c3c 91a5 243e 2284 283e 9909 743d
00000130: bb5e ec3d 749d c2bd ec94 b0bc 263a a33e
00000140: 89fb 94bd 6cf6 d13d 7fdd a13d a4d2 a2bc
00000150: 268d 33bd aecc e33d 421c b43d ce76 223e
00000160: b69b 173e b21c c93d 32f1 81be 3b54 b6bd
00000170: 8d7f fe3d ca28 e8bc 1849 073d 9d43 babb
00000180: 02e7 5bbe 0215 183e d109 3ebd 3b56 913d
00000190: 07a5 be3c 2779 ef3d e8fa b33d 6b2b 813e
000001a0: 15fc f2bd 2a07 e8bd d932 7c3d aa5a f4bd
000001b0: 9893 ecbc 26e2 b83d ec04 003c a900 a5bc
000001c0: e2bc f3ba f14c b9bd 1d69 6b3e 8b02 86bd
000001d0: 536a f33d c6a2 94bc f2a2 41bd ee86 043e
000001e0: f0ac 17be 0b0c eb3c cb2a a5bd e494 3cbe
000001f0: 59b6 e4bc c953 4e3d ffd4 00bd f29f 09be
00000200: 4f15 2e3d fd52 84be 227a 233c 9c8c 1dbe
00000210: 9fd0 0c3e f9c5 f83d df01 b33a 18df 2c3d
00000220: 7f4b 043d d489 143f 5d50 633c aaa7 b23d
00000230: 63b4 4abe 01bb 00bd 2f9d 2abe 55f8 5d3f
00000240: 375e 0f3e dd6e 4c3c 042c 23bd 5db3 dc3d
00000250: 1401 de3a 40f1 ac3c 5bfb 0bbd 09d5 1c3e
00000260: f036 093e 2901 3a3e f42c 7cbe 00e3 05be
00000270: c866 003d fff3 ef3d 1d35 fb3c d79e fabc
00000280: 40bd 3cbe 9750 63bd ba19 cabd e95e f3bc
00000290: 2d59 e0bd 80ab 9abe 5c12 77bd 982a 73be
000002a0: 7d31 3a3d add5 8c3d 6bd4 2cbc 86c6 1a3e
000002b0: 4a05 b13e 9440 9dbb 184c 12bd 759a 0dbe
000002c0: 6f12 153d 84a8 32be 479e 803c 0cd4 1dbe
000002d0: 742c f5bd e95b cd3d 4f3d 96bc a1d2 003e
000002e0: e1f7 c4bd a9dd 8c3b e879 e5bc aca4 8fbe
000002f0: f5be ee3d f795 fa3d 670e 87be d9ec 0bbe
00000300: bbdf 323e 238e a23d c037 1cbe 7b25 3cbd
00000310: e0f8 753e 2172 453d 5c08 b23d 405e 943d
00000320: 9a8a 80bd 0648 123e 80e8 a0be 96a6 cdbd
00000330: e468 0a3e 8281 b3bb f2fa 6d3b 521b eb3d
00000340: 0206 403d 0b35 353c 3db9 a9bc f087 3f3c
00000350: 768b 2bbe bc5b e33d 317c 26be 40b2 253b
00000360: f2ea 4f3e c32f bf3b 4e59 4a3e 435a 46be
00000370: f1bf 163d e048 b6be bb34 a33d 784e 893d
00000380: 3ae2 95bc c4db 35be 981e 03be d89c 1dbd
00000390: 9e16 63bd 1b0f 8abd f7dc 043d dd4d 07be
000003a0: adb5 ab3c 4522 223e b4a9 3bbe 3637 ffbe
000003b0: 094b e5bd 4b57 663d b9cb 083e 0260 c03d
000003c0: f38e 2cbe 4b58 3cbe d141 6bbc 5294 36be
000003d0: e49c 01be 7e97 243d 07c0 9abd 8e6e 57be
000003e0: 930b 68bd bf48 913b ee92 97bb 56e7 8a3c
000003f0: fdfd 29bd decb 9c3d d030 02be 6605 d5bd
-0.030947283 -0.08000907 -0.09173629 -0.08724423 0.060029935 -0.05713905 -0.051971104 -0.00041250113
0.010238792 0.18359175 -0.052221064 -0.043528423 -0.13756193 -0.04333008 0.032953072 0.024302574
-0.010001971 0.013018907 -0.061023325 0.17596449 0.03740274 0.14450003 0.09041167 0.13860707
0.026236376 0.034827355 -0.16496399 0.0076075546 -0.15085456 -0.08840984 0.108528554 -0.11428716
-0.12551129 0.05948978 -0.07399037 0.06683597 0.040163103 -0.10871368 -0.10255624 -0.01553832
0.01700355 -0.1678129 0.08963505 -0.25679436 0.05393773 0.06520485 0.099768706 0.063205205
0.06793719 -0.13953775 -0.01767704 0.11147806 -0.022494098 0.10229198 -0.07029225 0.07507907
0.061505914 -0.012516765 -0.12938851 0.05019438 -0.09398072 -0.055840056 -0.27740303 -0.15045317
-0.13636835 0.004476237 0.051515322 -0.043694887 -0.028673423 -0.036535066 -0.025068574 -0.06841041
0.011529071 0.16078784 0.16456655 0.059579466 0.11541506 -0.09502688 -0.021555386 0.318803
-0.07274539 0.10252079 0.07903575 -0.019875832 -0.04383578 0.11123024 0.08794452 0.15865633
0.14805493 0.09819926 -0.2537933 -0.089027844 0.12426672 -0.028339762 0.033028692 -0.0056843297
-0.21474841 0.14851764 -0.04639608 0.07096525 0.02327205 0.1169303 0.08788091 0.25228438
-0.11864487 -0.113294914 0.06157193 -0.11931355 -0.028878972 0.090275094 0.0078136735 -0.020141916
-0.001859572 -0.090478785 0.22989316 -0.06543454 0.11885514 -0.018144023 -0.047274537 0.12942097
-0.14812064 0.028692266 -0.08064803 -0.18416172 -0.027918981 0.050372873 -0.03145313 -0.1343992
0.04250079 -0.25844565 0.009977849 -0.1538567 0.13751458 0.12147135 0.0013657174 0.042204946
0.03229856 0.5802281 0.013874141 0.08723386 -0.19795375 -0.03142834 -0.16661523 0.8670705
0.14000784 0.012477604 -0.0398369 0.10776398 0.0016937577 0.02111113 -0.034175258 0.15315641
0.13399863 0.18164505 -0.24626523 -0.13074875 0.03134802 0.117164604 0.030664975 -0.030593319
-0.18431568 -0.05549678 -0.09868188 -0.029708343 -0.10954509 -0.3020897 -0.060320243 -0.23746717
0.045457352 0.06876693 -0.010548691 0.15114793 0.34574348 -0.004798958 -0.0357171 -0.13828452
0.036394533 -0.17447096 0.015700473 -0.1541292 -0.119713694 0.10027296 -0.018339781 0.12580349
-0.09617592 0.004298885 -0.028012231 -0.28055322 0.11657516 0.12235635 -0.26378176 -0.13664569
0.17468159 0.07937267 -0.15255642 -0.04593418 0.2402072 0.048204545 0.08693001 0.07244539
-0.06276436 0.14285287 -0.31427383 -0.10041539 0.13516575 -0.005478085 0.0036312905 0.1147982
0.04688073 0.01106001 -0.020718211 0.011690125 -0.16752419 0.11101481 -0.16258313 0.0025283247
0.20304468 0.005834551 0.1976063 -0.1937037 0.036804143 -0.35602474 0.07969042 0.0670442
-0.01829635 -0.17759615 -0.1280464 -0.038479656 -0.05544149 -0.067411624 0.03243729 -0.13213296
0.020960653 0.15833385 -0.18326455 -0.4984681 -0.111959524 0.056235593 0.13358964 0.09393312
-0.16851406 -0.18393056 -0.014358954 -0.17830017 -0.12657505 0.040183537 -0.075561576 -0.21038267
-0.056651663 0.004433721 -0.0046256697 0.016956013 -0.041501988 0.07656072 -0.12713933 -0.1040142

lstm.weight_hh_l1 f4 [256, 64]
00000000: 0f24 813d a388 08bd 3460 e23d 0920 003e
00000010: 919f 553d 12be c93c 6135 0dbd ea8b 4bbe
00000020: ef72 90bd 7cab 13bb a7c9 91bd bf4e 1bbe
00000030: 3d79 a5bd a958 9f3d 529c 3a3d d872 ecbe
00000040: db92 c43d 0e1e 16bd 955a e5bc 0b49 3abe
00000050: b13f 8fbd d859 3b3e 6f61 32bb 4ca0 ea3c
00000060: bd68 b1bd 16e8 b83d 4e63 2bbd e5ec 543d
00000070: b773 35bd d621 c3bd e7de d63d 7ac9 a4bd
00000080: 9167 42bc a862 6ebd a7aa 33be 5b9e 87be
00000090: abb7 dd3c 8230 0abd 9c53 af3d 94fa 3b3e
000000a0: 3200 313c 7644 ae3d ffcd 97bc 0405 173d
000000b0: 1788 af3d 0888 34be eb0b 433d a81b fe3d
000000c0: f103 563c 7acb 92bd 6da2 b03d 8c93 063d
000000d0: bc0f 04bd 20da 913c d6fa c23d 81e8 4d3d
000000e0: 40be 89bc 39e9 223d 4960 1e3d 38ed 0a3d
000000f0: abf3 aa3d 1c54 04bd ced5 4cbe 698f 8e3d
00000100: f8ff 3bbe ce82 743d 33d8 343e f232 86bd
00000110: 7365 87be ff0a 863d 453f 9abc 7daf c6bd
00000120: 224d 94bd 0393 8fbd 3344 563c 5121 1fbd
00000130: 9eb3 98bd b364 19be c503 9e3e ab41 123e
00000140: 4d63 013e 710e 24be e44e 713d f5c0 03be
00000150: f99a 48bd 0a33 1ebd 58cf b9bd fb37 c5bd
00000160: c0fe 57be c7c8 f3bd ff18 68be 80d5 3bbe
00000170: 9391 efbc c748 03bd e11b c9bb 808d e93c
00000180: 8b82 2b3d 8ca0 e93b ee4b 8a3c a9ca 41bd
00000190: 47bd f63c 15ef 06be e5c7 e7bc 5a98 15bc
000001a0: 9622 73bd a7a5 45bd 6abb 7fbc 6030 d93d
000001b0: c69e 133d bc59 1bbe 9dcc be3d 5f2e 383e
000001c0: 70a3 1abe d938 223e f862 343e 75f2 5e3d
000001d0: 2388 d3bd 4124 033e ede3 b63d a2c2 e2bd
000001e0: 28bf 973c 5e63 76bd 644c 933d c062 14be
000001f0: 602b bf3c 895e 163e c38c 813d 1cb8 bdbd
00000200: abe6 34be 0e2b 4ebb 8595 483e bd67 b43e
00000210: c55a 5fbe 9939 8d3e e496 a4bd 43af 25be
00000220: c32e a2be a5f3 3a3e 52c0 573c 7bde 51be
00000230: 3e77 163e 30b3 0d3d f33f 373d ac92 2d3e
00000240: 3032 a03e 8726 20be 5df5 123d e6fd 08bf
00000250: c7e8 29be a2c4 903e ac62 0bbd bc14 0a3e
00000260: 2f7b 9bbe 3fc2 59be 0cc6 523d 705b 89bd
00000270: bf52 18be 5518 123c 645d 6b3e ea69 52be
00000280: bbf2 cdbd ebfb ad3d 9542 24be 47ca 5bbd
00000290: 4ef6 ffbd 0079 b4be e2b5 d8bd 8f61 50be
000002a0: ef8b 253d 1db2 283c 4dc7 9e3d 9d32 ea3d
000002b0: 6de0 a83e 48fd 4ebc 097f 023e de0d 993e
000002c0: f215 aabe 6ea3 533e 653a 033d 2519 a03e
000002d0: 3700 a3be 1dd3 e83a abef 993e c82b 20be
000002e0: 4b5b 93bd 35b6 103d 1613 00be 9e0f 63be
000002f0: a513 393e 1bfd e93b 54c3 0fbb a966 26be
00000300: 3f6b 193e 845f 483e b213 e03a bc3d 2cbe
00000310: eed9 75bd 3781 b53d fc5b 18be 2225 1ebd
00000320: 06f2 b53c 99ca 6cbc f842 63bb b9b0 c6bd
00000330: 23ce 113e 813b d63b 148a 97bd 7246 75be
00000340: d54f 19be e489 19be a3ab acbd 9f4e 49be
00000350: 9090 8a3e a665 29be 6e27 803d 7d8c 863c
00000360: e9c4 973d 5d45 b3bd 8f7d 9ebd b536 b33d
00000370: d8c4 a7bc 315c 09be 8761 1e3c 22db a43d
00000380: 0ae3 d1bc 088c f4bd d227 6b3d ec0a ba3d
00000390: 5187 16bd 9979 233c 655c 8bbd d771 873e
000003a0: bb61 aa3d 880f 45be eccf 913d 3fa4 073d
000003b0: b4fb d03d c895 1b3d 569c 123e c6d9 c43d
000003c0: 930a bcbd 443f fbbd 1086 f3bd bc73 c33c
000003d0: c4c7 963e f54f cb3d 0241 cabb ec97 1a3c
000003e0: a4f9 40be b58b 31be 60b1 633d 1aad cdbb
000003f0: 0185 8cbd 3927 6fbe 5250 36be a541 433d
0.06305706 -0.033333432 0.110535055 0.1251222 0.052154128 0.024626765 -0.034474734 -0.19877592
-0.07053172 -0.0022532633 -0.0711854 -0.15166758 -0.08079765 0.077805825 0.045559235 -0.4618137
0.09598323 -0.036649756 -0.027997294 -0.18191926 -0.0699457 0.18295991 -0.002721872 0.028640889
-0.08662555 0.09028642 -0.04184275 0.051983733 -0.044299807 -0.09527938 0.10491734 -0.08046241
-0.0118655125 -0.058199555 -0.17545567 -0.26488003 0.027065119 -0.033737667 0.08560869 0.18357307
0.010803269 0.08509152 -0.018530844 0.036870018 0.08570879 -0.17630017 0.047618788 0.12407619
0.013062463 -0.07167716 0.0862473 0.032855555 -0.032241568 0.017804205 0.095204994 0.05027056
-0.016814351 0.0397732 0.038666043 0.033917636 0.08347257 -0.032306775 -0.20003435 0.06960947
-0.18359363 0.059695058 0.17660598 -0.06552686 -0.26444587 0.06545066 -0.018828997 -0.097014405
-0.072412744 -0.07010462 0.013077783 -0.038850132 -0.07456134 -0.1497982 0.3086225 0.14282863
0.12635536 -0.16021134 0.058913127 -0.12866576 -0.04897592 -0.038622893 -0.09072751 -0.09629818
-0.21093273 -0.119035296 -0.22665785 -0.18343163 -0.02924422 -0.032051828 -0.0061373566 0.028509855
0.041872542 0.0071297344 0.01688191 -0.047312412 0.030119551 -0.1317714 -0.02829356 -0.009130562
-0.059359156 -0.04825368 -0.015608648 0.1060493 0.03604009 -0.1517095 0.09316371 0.17986439
-0.15101409 0.15841998 0.17615879 0.054430444 -0.103287004 0.12806799 0.08930192 -0.110722795
0.018523768 -0.060153358 0.07192305 -0.14490795 0.023336112 0.146845 0.06325676 -0.09263632
-0.17666118 -0.0031458768 0.19588287 0.35235396 -0.2181197 0.27583006 -0.080365926 -0.16180138
-0.316763 0.18257006 0.013168411 -0.20495026 0.14693925 0.034594715 0.04473872 0.16950482
0.3128829 -0.15639697 0.035878528 -0.5351242 -0.16592704 0.2827502 -0.034029648 0.13484472
-0.3036742 -0.21265505 0.051458403 -0.067068934 -0.14875315 0.008916934 0.22984844 -0.20548216
-0.10056063 0.08495315 -0.16041024 -0.053659704 -0.12498151 -0.35248566 -0.105815664 -0.20349716
0.040416654 0.010296372 0.07752857 0.11435435 0.32983723 -0.012633629 0.12743773 0.29893392
-0.33219868 0.20667812 0.03203811 0.31269184 -0.318361 0.0017763112 0.30065665 -0.15641701
-0.07195147 0.035330016 -0.1250728 -0.22173926 0.180739 0.007140768 -0.0021936493 -0.16250099
0.14982317 0.19567686 0.0017095713 -0.16820425 -0.060022287 0.088625364 -0.14878839 -0.03860963
0.022210132 -0.0144526 -0.0034677368 -0.09701676 0.14238791 0.006537855 -0.07399383 -0.23952654
-0.1497186 -0.14994007 -0.084311746 -0.19658898 0.27063417 -0.16542682 0.062575206 0.016424412
0.074106045 -0.08753464 -0.07738792 0.08750669 -0.020479605 -0.13414074 0.009666807 0.08049609
-0.025620956 -0.11940771 0.057411022 0.090841144 -0.03675014 0.009977722 -0.06804732 0.2645404
0.08319422 -0.19244206 0.07119736 0.03311562 0.102042586 0.03798464 0.1431745 0.096118495
-0.09181704 -0.12267926 -0.11890805 0.023858897 0.29449284 0.0992736 -0.0061723003 0.009435635
-0.1884523 -0.1733845 0.05558908 -0.006276739 -0.06861306 -0.23354806 -0.17804077 0.047670025

lstm.bias_ih_l1 f4 [256]
00000000: bb6b 83bd cede 06bd afe8 e3bd 6e1d 783d
00000010: 0103 d0bc 64c1 3a3d cdef d23d 208f 1fbc
00000020: 7f94 cc3c f80b d1bd 9c9d 56bd ca91 97bd
00000030: 5833 b1bd 0f6d 9fbd a216 ee3d f921 ccbd
00000040: 6aec 96bc 9612 4fbd 7ca5 cebc 5c3d 8a3d
00000050: 67d8 783d 75b0 80ba e6ba 31bd 2244 94bd
00000060: e46f 0b3c 2ce6 57bd 5fb3 503e 9247 103e
00000070: 75ae 3dbd 8e1b 7ebc 3498 a9bd e69e 3a3d
00000080: 947e 243d f508 a33b 4685 843d abbd 0e3d
00000090: 042f 423d dcfb f93b 262a 503d 3446 c03c
000000a0: f352 f8bc aa1a 0e3d 016c 3d3c b5c7 86bd
000000b0: 115e c63d 0829 ccbd 4c25 c8bb 6cfc a63d
000000c0: 732f cd3c 52c8 5dbd a370 efbc 79be ce3d
000000d0: 0ba6 463d a3d1 e0bd 5a97 a13d 83f0 3c3d
000000e0: eb00 553e 5472 c6bc 9972 903d 4856 b3bb
000000f0: b0db 2e3e b41f 8c3d a585 8f3e 83f0 373d
00000100: 3887 97bd a9b7 ab3c 6021 8f3d bd7d 3ebd
00000110: 7b15 cfbd 7d65 823d 7d2c c13b 008c e73d
00000120: 10c2 e6bc 5a61 b53d 9865 903d f951 86bd
00000130: c768 843d e3ef 37bc 05a7 d93d cdff ce3d
00000140: e82e 1b3d 9a31 0a3e 7d6e 343d bd2c 8dbd
00000150: a070 273d 56ed f63d 3b0d 053e 5a79 353d
00000160: 6d57 103e 4600 023e 2b4a 1bbd 0eeb 623b
00000170: 1cf3 fb3d 2564 de3d 083c b03c 6811 6d3d
00000180: aa22 073e 098f d23d 79bc 143e b26c 973c
00000190: c255 6c3b 6628 d2bc 0102 f13d 8bb8 28bd
000001a0: 1d4e f23c 14e8 373d 3aeb cabd acd0 63bd
000001b0: 0d2c 15bc 6e68 8ebd 073a e5ba 4fdd 783d
000001c0: 6246 1a3d 18a7 e83c 0c97 c7bd 0e4f ed3d
000001d0: f83e 963d 28da a7bc 1013 84bd 3b19 e2bd
000001e0: eb16 dbbc 8cf8 963d 3337 65bd e069 d8bc
000001f0: 649a c53c c94b 503d a93d 9ebb 3346 ab3d
00000200: 255a ec3c 0819 88bd c324 43bc 1720 773d
00000210: ba06 3a3d 5ed1 ceba 0829 d0bd 0172 93bd
00000220: 9e41 8ebd d0f6 663d a72f 18bd c6cf f53d
00000230: 06ca e8bd 8aeb 8f3d 6ed0 b1bd f6e9 513c
00000240: e12b b3bd a8d9 16bb bebd 09bd 8fb3 adbc
00000250: 8319 8f3d 0d61 253d a2b6 163d b272 2ebd
00000260: 8313 813d 358d d83d 41a6 dc3d 2a59 633d
00000270: 01bf 81bd 30b4 f13d f476 083e 9482 c3bd
00000280: d52d 8c3c 72a7 02be f522 93bd 9dd6 0d3e
00000290: 45bd b9bd 2326 d23b b3ce 873d b9b8 4cba
000002a0: 59a4 dc3c d4bc 16be 871d 3a3d a6a3 e23c
000002b0: 499f 07be 5da1 bbbd 6a4e c1bb 3f36 ebbc
000002c0: 2616 423d bdd2 113d fbd9 13be b43a 03bd
000002d0: 1b8d 0d3e 6a36 033c 882b 9bbd 4c27 603d
000002e0: 786a ad3d 8bf8 32bc c816 7fbc 09eb ecbc
000002f0: 92a2 b73d 5d86 35bd bdf0 933d d4fa a0bd
00000300: 6b97 283e 2d32 323d c496 8c3d 5bbb aebc
00000310: 14e2 033e 7961 dcbc f741 34bd fa70 9ebd
00000320: 24ea dcbc c1b6 1f3e be66 553b 5740 cf3d
00000330: a9ac 21be f66a 653e 5981 1c3d a7e6 24bd
00000340: af84 8d3d c832 ee3d ded6 993d fe3f 8a3d
00000350: e08b e23d a5b1 a03d 2278 16ba 6c28 333e
00000360: fcf1 c03b 24eb 243e f737 203e 4b9a 283e
00000370: 2b3d b03d 2ada 5cbd 8b68 2a3e e83a 2e3d
00000380: 0fcc 833d f1f8 f13d a9c5 f93d e9d7 dd3b
00000390: 942c cc3d f315 ee3d 5be9 5c3e ef40 c0bc
000003a0: 5090 ac3d b5c7 163e eee7 3fbd b42c 813d
000003b0: e9b7 9cbd 5bab 383c 40e4 80bd 3799 973d
000003c0: 3ee5 2c3c 44bc 733e f80b 353e dc1d 363e
000003d0: 860c e9bd 452d 3b3c dca9 a7bd 1cf8 013d
000003e0: 5a67 df3d a8c3 663d 355b 0cbe f9f8 353d
000003f0: 4d65 b4bc 23ec d8ba b948 d33d c260 43bc
-0.06417032 -0.032927327 -0.11128365 0.06057494 -0.025392057 0.045594588 0.102996446 -0.0097387135
0.024973152 -0.10207361 -0.0523964 -0.07400854 -0.08652371 -0.07784473 0.116254106 -0.09967417
-0.018423278 -0.050554834 -0.025225393 0.067499846 0.060753252 -0.0009818213 -0.04339113 -0.07239558
0.0085105635 -0.052709743 0.20380925 0.14089802 -0.046308953 -0.015509499 -0.082809836 0.045561694
0.040159777 0.004975433 0.064707324 0.03484885 0.04740812 0.007628901 0.050821446 0.023470975
-0.03031299 0.034693398 0.011561395 -0.0658106 0.096859105 -0.099687636 -0.0061079618 0.081536144
0.02504704 -0.05414612 -0.029228514 0.100949235 0.048498195 -0.10977485 0.07890196 0.046127807
0.20801131 -0.024224438 0.07053108 -0.005472932 0.17075992 0.068419844 0.2803165 0.044907104
-0.07398838 0.0209616 0.06988788 -0.046506632 -0.10111519 0.063670136 0.005895196 0.11306
-0.028168708 0.08856459 0.070506275 -0.06558604 0.06465297 -0.011226627 0.106275596 0.10107384
0.03788653 0.13495484 0.044050682 -0.06893299 0.040878892 0.12056987 0.12993328 0.044305183
0.1409585 0.12695417 -0.03791253 0.0034624967 0.12302229 0.10858945 0.021513 0.057877928
0.13196817 0.10281188 0.14525022 0.018484447 0.0036061858 -0.02565403 0.1176796 -0.04119162
0.029578263 0.04489906 -0.09908147 -0.055618927 -0.009104741 -0.06953512 -0.0017488607 0.06075793
0.03766478 0.028399989 -0.09745607 0.11587344 0.07336229 -0.020489767 -0.064489484 -0.110399686
-0.026744327 0.07371625 -0.055960845 -0.026417673 0.02412147 0.050853524 -0.004829128 0.08362999
0.028851578 -0.06645399 -0.01191062 0.060333338 0.04541657 -0.0015778949 -0.10164076 -0.07199479
-0.06946109 0.056387722 -0.03715482 0.1200252 -0.11366658 0.070273474 -0.08682333 0.012812128
-0.087486036 -0.0023017917 -0.033628218 -0.021203784 0.06987288 0.040375758 0.036795266 -0.04258985
0.0630255 0.10573808 0.10773898 0.055504955 -0.06335259 0.11801946 0.13326627 -0.0954639
0.017111698 -0.12759188 -0.07184402 0.138514 -0.090693034 0.0064132377 0.066312216 -0.0007809508
0.026933836 -0.1472047 0.045438316 0.027665924 -0.13244356 -0.09161637 -0.0058992403 -0.02871239
0.047384404 0.035601366 -0.14438622 -0.032038406 0.13823359 0.008008579 -0.07576662 0.054724976
0.08467573 -0.010923515 -0.015569396 -0.028920667 0.08966555 -0.044317592 0.072236516 -0.07860342
0.16464011 0.043504883 0.06864694 -0.021329572 0.1287921 -0.026901947 -0.04400822 -0.07736392
-0.026967116 0.15597059 0.003256246 0.10119694 -0.15788521 0.22404084 0.038209293 -0.04025903
0.06910073 0.116307795 0.07511686 0.06750487 0.11061835 0.07846383 -0.0005739947 0.17495888
0.005888222 0.16105324 0.15646349 0.16465108 0.08605417 -0.053918995 0.16641442 0.042536646
0.064354055 0.1181506 0.12195904 0.0067701233 0.0996944 0.1162528 0.21573393 -0.023468463
0.08425963 0.1472462 -0.046852045 0.063073546 -0.076522656 0.011271323 -0.06293535 0.0740227
0.0105527025 0.23802286 0.17680347 0.17784828 -0.11379342 0.011424367 -0.08186695 0.031730756
0.109083846 0.056338936 -0.13706668 0.044426892 -0.02202096 -0.0016549866 0.10316605 -0.011924924

lstm.bias_hh_l1 f4 [256]
00000000: 78c8 6b3d cb5d 823b 2743 48be 3a5b 923d
00000010: 3611 323d 9acd 663d e9f1 c33d 41e2 633c
00000020: 6025 56bd 88d8 20bd bf9c 263e 8170 c2bc
00000030: 06a4 cf3c 5f02 a23d b16b 5bbd 2788 34be
00000040: e200 603c 348b edbb dc2a c93d f067 153d
00000050: 2476 b53d 5e8a 01bd dd56 cdbd 1108 143e
00000060: 98a9 033e 2058 563d 61a4 823e 8fe8 153e
00000070: e870 643d c914 e13d 54f3 2bbd 2cd3 38be
00000080: f75c 163e b566 5c3e 34e0 1a3e ec1e 1c3d
00000090: f5b3 8c3d b9fe 603d 91d3 983d 820f 9ebc
000000a0: ce1f a8bd 327e 043d 75a2 1ebe 6f1e 213c
000000b0: 1051 d63d e838 c0bd dabe 4bbd 0487 7d3d
000000c0: d9fd 0abd e6b5 db3b 6c35 90bd 1393 b03d
000000d0: 674d 03bb e3a6 fcbc 511d 8dbd e751 b23d
000000e0: 8fb2 773e 6e2e dfbd ef31 0bbc 9448 f3bd
000000f0: 6210 323e 9208 c83d 709b 563e b6e6 78bd
00000100: b984 cf3c 910c 44bd 20b4 813d cc16 4dbd
00000110: 4cc9 51bd 7c6a 083e 27ab 793d 7dbb 72bd
00000120: 0225 19bd 95dc 0cbd 3c2a ab3c 52cd 3c3a
00000130: 45f8 de3c d475 d33d 70ab 9bbd 0f52 75bd
00000140: 0121 463d ad54 83bc caf9 193e 93ab 4f3d
00000150: de79 0f3d 6681 bb3d ce34 f63d 879f 1b3d
00000160: f11c f83d b585 d4bc 2f18 32ba 72ee 173e
00000170: c219 c03d 39e5 c6bb cbc8 a3bd b018 4ebc
00000180: ac0e 7dbd 6f97 3c3e afff 433c 1e22 e9bd
00000190: 108a 363d c9ea 8abc 7162 b9ba c088 57bd
000001a0: 4c17 5c3d 1ebc 803d 7de6 d73d f9c0 2fbd
000001b0: e453 be3d b267 663c 0f7e da3c 12a3 3cbc
000001c0: 9641 cc3c 12f9 01be 3a9c 82bd 6e04 5f3d
000001d0: 565f 89bd d0b8 b2bd 2cd5 813d 766e 98bd
000001e0: cfab d0bc 6e97 c2bb 6f16 d03d 53fc 0b3d
000001f0: 3a0a 9f3d 381f a53d 5bbd 213c 7beb 123d
00000200: b115 ac3d a4e8 ea3d b856 b3bc 3ef9 dc3c
00000210: 1151 8abd 6847 39bd 48ea 38be 8f86 ca3b
00000220: 58a4 753d 09b3 f1bd 5d5e 74bc 2f2f e3bd
00000230: e76b 003e 621a db3d 9167 623d 398e b83d
00000240: bb66 c53d 9def e83c 1f56 02bc de19 11bd
00000250: 702b f83c 04db 57bc 3239 b43c b23f c9bd
00000260: fdb4 b43d 5820 373d 091f 583c 8d7d 01bd
00000270: fc61 813b 4374 e0bd b5dd af3d bc13 003e
00000280: eb4d f5bb 4f08 10bd 6d9c 90bd 5055 1cbd
00000290: 6cd2 2a3d 740d c4bd e835 bebc 8a65 b53d
000002a0: b171 bc3d 39da 19be dd55 0fbc 5398 cd3d
000002b0: 2198 c13d ca22 9e3c 1503 62bd 05fd efbd
000002c0: a9e5 8abd 064f 8fbc a80f 70bc edb1 8abd
000002d0: 84c6 36ba 40e4 b13d 391b 9cbb a049 b2bd
000002e0: c3f0 c4bd f756 4ebd 2693 6abd 8b99 693d
000002f0: 4044 22bd a293 7bbd b852 b63d 17c9 c23c
00000300: 066d 363e 0617 1fbe c18d 59bd 61e8 1e3e
00000310: 0ecd 943d cb51 983d 454b 193e 6721 e7bd
00000320: 49c0 623d b51e d43c cbdb 30bd ea84 23bd
00000330: 53fb 22be 6911 9c3d 01ad 373e a5c1 da3d
00000340: 5ca0 373e 84cd dabd 92bd 2ebd 6611 fd3d
00000350: 2063 8dbd 8269 3d3d e978 afbb f972 5d3d
00000360: 82d5 a73c 8ae4 be3d 567d ab3d 6a9d 2a3e
00000370: 7cce fa3d 84c8 f93d 3da4 0a3d f4f8 243e
00000380: c089 0dbd f09d 8e3d 4686 833d 58ab b9bd
00000390: 30e0 503d 58b2 663b 54b0 4d3e fa03 1a3e
000003a0: 17cf ccbd cff1 ebbc 9d02 583d d391 0e3e
000003b0: 6bb5 a0bd 34ae 583e f863 393e 4efd 023e
000003c0: c7a1 cb3c 35fa 503e bdc8 5b3d bd77 183e
000003d0: e59b 9abd 26e8 7cbd 097d f43d 2a7b 363e
000003e0: 8773 db3d 36b2 033c abfc d0bc e63f 233d
000003f0: c2d9 513b 685c e73d b3de 0d3e 3238 2bbc
0.05756423 0.003978466 -0.19556867 0.07146306 0.043473445 0.05634842 0.09567625 0.013908924
-0.052281737 -0.039269 0.16270731 -0.023735287 0.025346767 0.079106085 -0.0535695 -0.17630063
0.0136720855 -0.0072492603 0.09822628 0.036476076 0.08860424 -0.031626098 -0.100263335 0.14456202
0.12857664 0.052330136 0.25516036 0.14639495 0.05577174 0.109902926 -0.041980103 -0.18049306
0.14683901 0.21523555 0.15124589 0.038115427 0.068702616 0.054930422 0.07462228 -0.019294504
-0.08209191 0.03234691 -0.1549166 0.009833916 0.1046468 -0.09385854 -0.049742557 0.06189634
-0.033933494 0.0067050336 -0.070414394 0.08621802 -0.002003515 -0.030841297 -0.06890357 0.08707028
0.24189208 -0.10897528 -0.008495792 -0.118790776 0.17389062 0.0976726 0.20957732 -0.060766898
0.025331842 -0.047863547 0.06333184 -0.05007057 -0.051217362 0.1332187 0.06095424 -0.059260834
-0.03738881 -0.03439005 0.020894162 0.0007202226 0.027217994 0.10325208 -0.076010585 -0.05989271
0.04837132 -0.016031587 0.15036693 0.050700735 0.03502833 0.0915554 0.120217904 0.037993934
0.12114895 -0.025942663 -0.0006793765 0.14837053 0.09379913 -0.006069806 -0.079972826 -0.012579128
-0.06178157 0.18417142 0.011962815 -0.113834605 0.04456526 -0.016957657 -0.0014143718 -0.05262065
0.053733155 0.062858805 0.10542009 -0.042908642 0.092933446 0.014062809 0.026671438 -0.011513488
0.024933618 -0.12692669 -0.06377454 0.054447584 -0.06707637 -0.087266564 0.063394874 -0.07442944
-0.02547255 -0.005938462 0.10160529 0.034176182 0.077656224 0.08062595 0.009871806 0.035869103
0.08402575 0.11470154 -0.021891937 0.026974317 -0.067537434 -0.045234114 -0.18058121 0.0061805914
0.059971184 -0.11801726 -0.014915076 -0.11092984 0.12541161 0.106983915 0.05527455 0.09011502
0.09638735 0.028434569 -0.007955103 -0.03542506 0.03029415 -0.013174776 0.02199993 -0.09826602
0.08823583 0.04470858 0.013190993 -0.031613875 0.003948448 -0.10959675 0.08587209 0.12507528
-0.007486095 -0.035164174 -0.07061086 -0.038167298 0.04170458 -0.095728785 -0.023219064 0.08857258
0.092013724 -0.15024652 -0.008748499 0.10038819 0.094528444 0.019303698 -0.05517872 -0.117181815
-0.067820854 -0.017493736 -0.01465217 -0.06772218 -0.000697233 0.08686113 -0.0047639874 -0.08705449
-0.09616234 -0.050375905 -0.057269238 0.057031196 -0.03961587 -0.06142009 0.08902496 0.023777528
0.17815027 -0.15536126 -0.053113703 0.15518333 0.072656736 0.07437476 0.1497012 -0.11285668
0.05535916 0.025893549 -0.04317836 -0.03992168 -0.15916185 0.07620508 0.1793709 0.10681466
0.17932266 -0.1068373 -0.042661257 0.12356834 -0.06903672 0.0462432 -0.00535499 0.054064725
0.02048755 0.09320934 0.08373515 0.16661611 0.12246415 0.121964484 0.033848036 0.16110593
-0.034555197 0.06963718 0.06422095 -0.09065884 0.05099505 0.0035201516 0.20086795 0.1504058
-0.10000437 -0.028801827 0.052736867 0.13922815 -0.07847103 0.21160203 0.18104541 0.1279194
0.024857415 0.20407946 0.053658236 0.14889427 -0.07549266 -0.06174483 0.11937911 0.17820421
0.107153945 0.008038094 -0.025511106 0.03985586 0.0032020663 0.11296922 0.13854484 -0.01045041
