LogAnomaly/result/deeplog/deeplog_epoch352.pth (torch_old, 648111 bytes, 30 tensors)

lstm.weight_ih_l0 f4 [256, 1]
000000 6a f4 52 be 9e fa 60 bc 0a 85 86 bd 68 62 b4 3d
       -0.20601049 -0.013731627 -0.06568344 0.08807832
000010 8d f3 0b be aa 0f 44 3d 6e fa d5 bd 84 5d 99 3d
       -0.13667126 0.0478665 -0.10448156 0.0748854
000020 70 e2 3d 3e 27 02 ae 3d e2 40 2c 3e 2f 62 ae bd
       0.1854341 0.08496504 0.16821626 -0.08514821
000030 b7 f8 c9 3d c3 ac 0e 3e b9 51 a5 bd 97 8b 87 3e
       0.09861892 0.13933091 -0.08072228 0.26473686
000040 47 90 ae 3d 7c 0c 67 3d 3f e5 1b be de f5 20 3e
       0.085236125 0.05640839 -0.15224169 0.15718791
000050 a2 de 2a 3e ce d9 9d 3d 3b dd 8c 3d cd 72 78 bd
       0.1668649 0.077075586 0.06878134 -0.060656358
000060 1f 1a 59 3e b3 ef 8f bd 06 bf a6 bc 60 4f 96 3d
       0.2120137 -0.07028141 -0.020354759 0.07339358
000070 b6 44 a3 3d 9f 37 05 be 23 8f 07 3e 32 00 87 3c
       0.0797209 -0.13009499 0.13238196 0.016479585
000080 41 d3 f5 3d e1 fe d8 3d b9 3f b8 3c 4d 66 38 3d
       0.12003184 0.10595489 0.022491323 0.045019437
000090 19 9a 5d 3e 0e 50 57 3c 63 2e 11 3e 7a 81 11 be
       0.21640815 0.013141645 0.14177851 -0.14209548
0000a0 a5 c0 56 3b 19 c0 0c be 37 c7 06 3e d4 c5 d1 3e
       0.0032768634 -0.13745154 0.13161932 0.40971243
0000b0 db 93 0b be f2 a9 e7 3d 20 fe 15 3e aa 33 52 be
       -0.13630621 0.11311711 0.14647722 -0.20527521
0000c0 ea 85 4c 3e 15 18 26 3e 4e f4 bf 3e 95 9e aa 3d
       0.19972959 0.16220124 0.37491077 0.08331028
0000d0 cb 65 61 3d d4 e9 ad 3e 1e b3 ec 3d dd b7 7d bd
       0.055028718 0.3396746 0.115576014 -0.061942924
0000e0 29 e8 36 be cb 47 e8 3c 63 4e e3 3d 85 86 30 3d
       -0.17862 0.028354546 0.110989355 0.043097038
0000f0 23 c0 30 3d ef cf 23 3e 0e 7a d1 3d c1 15 1e be
       0.043151986 0.15997289 0.10228358 -0.15437986
000100 5e 1a 84 bd aa e2 25 3d c2 a5 01 3e 1e 59 3b bd
       -0.06450342 0.040499367 0.12660888 -0.045739286
000110 a6 1c ba bd a9 47 76 3d 0c 8b c6 3d 45 fe 70 3d
       -0.090874955 0.060126934 0.0969449 0.05883624
000120 2c 6b 24 bd 44 74 98 3e 37 e3 2f 3e bb 6e 0b be
       -0.04014127 0.29776204 0.1717652 -0.13616459
000130 71 47 20 bc 2e 49 b6 3d 70 42 30 3e af 75 88 3e
       -0.009782658 0.08900677 0.17212844 0.26652285
000140 b0 65 05 3d 48 3a 0f 3e e1 69 f9 bd 96 6e 1f 3d
       0.03256768 0.13987076 -0.12178398 0.038923822
000150 10 dc cf 3b 07 41 70 3e 5a 18 11 3e e9 06 62 bd
       0.006343372 0.23462306 0.14169446 -0.05518237
000160 e0 ab aa 3c 4b 99 9c 3d e0 b1 35 bf e0 22 a5 3d
       0.02083391 0.07646426 -0.7097454 0.080632925
000170 4a 20 77 bd bd 59 7b be 13 92 61 3e a6 40 98 3c
       -0.060333528 -0.24545951 0.22028379 0.018585514
000180 22 15 0b bd 2e f7 2c 3e 25 1a de 3d 84 b5 ea 3d
       -0.0339557 0.16891167 0.108448304 0.114604026
000190 2b f7 86 3d 67 d3 4d 3e 23 d8 f5 3d 85 22 13 3d
       0.06590112 0.20100175 0.120041154 0.035921592
0001a0 2e 60 1b 3e 85 07 78 3e 99 a0 3f 3e d5 91 75 3d
       0.15173408 0.24221618 0.18713607 0.05995353
0001b0 f4 a3 03 be 9b 91 dc bc 6d fc 81 3d 00 e5 e8 bd
       -0.12855512 -0.026924899 0.063469745 -0.11371803
0001c0 c4 37 aa 3d f0 67 e4 3d 3d 4c a1 3e a3 38 81 3e
       0.08311418 0.11152637 0.31503478 0.25238523
0001d0 9c c2 57 3d 12 3a b3 3c 4c 8b 32 3e 0c 24 d3 bc
       0.05267583 0.021878276 0.1743595 -0.025774024
0001e0 86 94 3b be 64 9d 3c 3e dd 10 f6 3e 76 fa 14 bd
       -0.18318376 0.18419415 0.4805974 -0.03637167
0001f0 a1 71 3c 3d 4e 68 63 3d 79 11 b1 bd be 95 1d be
       0.046006802 0.055519395 -0.08645911 -0.15389153
000200 5c 7b ef 3e a4 7d 0e be b1 27 a8 3d ff 9a 02 3d
       0.46773803 -0.13915116 0.082106955 0.031886097
000210 4a 00 88 3e 3e 32 3a be 69 cd 52 bd 43 d0 23 3e
       0.2656272 -0.18183228 -0.051465426 0.15997414
000220 bc e6 3a 3e c3 88 34 bd df ba 8c bd 06 0d 6e 3e
       0.1825208 -0.04407574 -0.0687158 0.23247156
000230 3d 45 7b be 53 9c 37 3e 83 85 29 be 14 9a c8 bd
       -0.24538131 0.17930727 -0.16554837 -0.09795013
000240 a0 64 6f 3e 9c 96 9f be 02 1d 8a be 06 c2 61 3e
       0.23378229 -0.31169593 -0.26975256 0.2204667
000250 f8 76 3b 3e 1a d9 12 bd 4b f2 25 be d4 a8 50 3e
       0.18307102 -0.035851575 -0.16205709 0.20376903
000260 45 7a d2 3d f7 c1 a5 3e 0e 50 f7 be 71 56 aa 3c
       0.10277227 0.32374546 -0.48303264 0.020793172
000270 28 6c cf 3c 33 41 44 be 92 75 73 3f b6 ff 10 3a
       0.025320128 -0.19165497 0.95101273 0.0005531268
000280 35 8e 03 3f be 4e c2 3c b5 24 b1 3d 9a e3 eb bc
       0.51388866 0.023719188 0.086495794 -0.028795052
000290 d8 5e a4 be a1 fa 5a be 0d b0 a9 be f4 ea 44 be
       -0.3210361 -0.2138467 -0.3314213 -0.19230253
0002a0 d9 8b 5b 3e 4c ed 6c 3d 8f 86 00 be 80 ee d8 bf
       0.21440066 0.05784349 -0.1255133 -1.6947784
0002b0 6b 12 c4 3e fe 28 9e 3e 65 97 8a 3d e2 dd 04 3f
       0.38295302 0.3089065 0.067671575 0.51901066
0002c0 05 09 00 be 9e ee 1e be 43 e2 1b be 31 dd 1d bd
       -0.1250344 -0.15520713 -0.15223031 -0.038541023
0002d0 b7 46 da be a3 70 f5 3e 45 7e 15 3d c5 14 32 3e
       -0.42632076 0.47937497 0.036497373 0.17390735
0002e0 c2 e0 c3 be b9 a3 a4 3d 05 cc 4c 3d 94 73 a2 bd
       -0.38257414 0.0803904 0.049999256 -0.07932201
0002f0 30 d4 0d 3e 9c 91 a9 bd 93 9f ac 3d 4a 6c b7 be
       0.13850474 -0.08279726 0.08428874 -0.35824805
000300 6d d4 4a 3e 72 82 26 bc 3a 5b 23 3e 1e a2 ac 3e
       0.19807597 -0.0101629365 0.15952769 0.33717436
000310 85 fd 3e 3e d6 15 a7 3d d1 c0 44 3e 22 ff 69 3e
       0.18651398 0.08158462 0.19214179 0.22851232
000320 6a 86 30 3d 26 5e 9c 3e 19 df aa 3d 7f d4 65 3e
       0.043096937 0.3054058 0.08343334 0.22444342
000330 b7 21 87 3e 90 ab 1d 3e c5 04 77 3e 92 0d a2 3e
       0.2639291 0.15397477 0.24122913 0.31650978
000340 d2 94 bf bd a7 1e 12 3d 5f 7c ac 3e 03 37 61 3e
       -0.09354557 0.035673764 0.33688638 0.21993642
000350 c1 0c a5 3e 66 b1 78 3e a3 21 5d be 38 02 39 be
       0.32236293 0.24286422 -0.21594863 -0.18067253
000360 85 40 37 be e6 9e 44 3d bd 20 27 3b a9 28 e2 3d
       -0.17895706 0.0480031 0.0025501691 0.110429116
000370 af b9 aa bc 8c 32 ac be e7 e7 22 3e 77 bd 91 3e
       -0.020840494 -0.33632314 0.15908776 0.28464863
000380 d4 e2 e8 bd 4b 4d b0 3e ba 65 aa 3d b1 b2 a5 3e
       -0.11371389 0.3443397 0.08320184 0.32362893
000390 39 80 c3 bd dd 59 6a be 19 97 b7 3d ff c6 9a be
       -0.09545941 -0.22885843 0.089643665 -0.30229947
0003a0 57 f1 62 be f3 15 94 3e ac ee 51 3e 3e b1 99 be
       -0.22162376 0.28922996 0.20501202 -0.30018038
0003b0 5c d8 8c 3e 11 39 9c 3c 1a a8 5f 3e b7 65 2e be
       0.2750882 0.01907018 0.2184147 -0.17030989
0003c0 84 40 44 be e4 53 fe bd 4c b2 03 3e a7 b4 63 be
       -0.19165236 -0.124183446 0.12860984 -0.22236882
0003d0 55 b1 9c 3d 9e f3 c4 bd 60 11 84 3d 31 24 c4 3d
       0.07651011 -0.09616779 0.064486265 0.095772155
0003e0 ba a3 38 3e 41 29 64 be 49 2d 9e 3e 89 fe 12 be
       0.18031207 -0.22281362 0.30893925 -0.1435491
0003f0 d5 5c db 3d 69 ec 2a 3e 62 74 7b 3e c3 26 25 3e
       0.10711066 0.16691746 0.24556115 0.16128068

lstm.weight_hh_l0 f4 [256, 64]
000000 e8 d0 6c 3e dc 43 1f be 8a ae 2f 3d a5 39 8d 3d
       0.23126566 -0.1555323 0.042891063 0.068957604
000010 7a f9 83 3e 77 16 ec bd 0e a5 32 bd 76 29 b7 3d
       0.25776273 -0.11527722 -0.04361444 0.08943455
000020 28 fe 31 3e 9a 99 0c 3e 7c f8 d5 bb 3c e1 3e be
       0.17382109 0.1373047 -0.006529866 -0.18640608
000030 af 07 4d be 89 2b dc 3d cc 14 ea bd 88 fc 8b 3e
       -0.20022462 0.10750491 -0.11429748 0.27341104
000040 0b 88 59 3e 89 b0 61 bd 04 fa 2b 3d 34 a3 17 3e
       0.21243303 -0.055099998 0.04198648 0.14808351
000050 07 cd af bd 71 1a a2 3d 98 57 2b bd 45 1f 3d 3e
       -0.08584028 0.079151995 -0.041831583 0.1846896
000060 1f a5 95 3e d3 3c 72 3e 71 0d c4 3d c5 13 ae 3d
       0.2922754 0.23656015 0.09572876 0.084998645
000070 bb fc b3 3d b7 9c aa be 33 93 70 3d 19 2f 0a 3e
       0.08788439 -0.3332269 0.05873413 0.13494529
000080 be 32 3a 3d 5e d9 95 3d 13 49 bb 3d 82 99 32 be
       0.045458548 0.0731685 0.09144797 -0.17441371
000090 7d 6f 0b bd 14 59 5c be f3 29 ee bd b5 4b a9 be
       -0.03404187 -0.21518356 -0.11629095 -0.33065572
0000a0 12 c0 a0 3d db 5c 04 be bc a7 c2 3d 2f f4 e2 bd
       0.078491345 -0.12926047 0.09504649 -0.110817306
0000b0 d9 cc 4a 3d 6a d1 38 3e d8 62 23 3d c6 a7 81 3e
       0.049511764 0.18048635 0.039889187 0.25323313
0000c0 70 bf 9b be 7d 83 c2 bd d8 b8 30 3e 24 bc b1 be
       -0.30419493 -0.09497736 0.17258012 -0.34713852
0000d0 a6 4f 7d 3d 45 c5 50 3e d4 3d eb 3d bc 79 bc bc
       0.061843537 0.20387752 0.11486402 -0.023007266
0000e0 9c 21 df bd 0a 12 c8 3e 35 05 f0 bc 9e 3f 02 be
       -0.10895082 0.39076263 -0.029299358 -0.1271958
0000f0 1b 9c 0e 3e c3 d6 64 bd 38 3e 14 be 83 4f af bd
       0.13926737 -0.055868875 -0.1447686 -0.085600875
000100 67 40 88 bd 52 81 9a bd b7 f8 a2 3e 0a 48 91 3e
       -0.06652909 -0.07544197 0.3183038 0.28375274
000110 c3 94 12 3e 93 cb 37 be db 23 b3 3d 1d fb a0 3d
       0.1431456 -0.17948751 0.08747073 0.07860396
000120 fc af 19 3e 16 4a bc 3d 02 90 fb bd ca 6b 8d 3d
       0.15008539 0.09193818 -0.12283327 0.06905325
000130 b0 c9 57 be 51 b7 38 3e e3 df 00 be 79 6f a8 be
       -0.21073031 0.1803868 -0.12585406 -0.32897547
000140 32 ce 57 3e c1 9c 16 bd 1b fc f0 bd a1 6a 57 3e
       0.21074751 -0.036770586 -0.11766835 0.2103677
000150 30 26 d3 3d a3 ba da bd 26 24 17 be e9 36 a6 3c
       0.10310018 -0.106801294 -0.14759883 0.020289855
000160 74 85 c4 3e ce 94 ab 3d a0 1a 9b bd 27 80 f9 3d
       0.38383067 0.083779916 -0.07573438 0.12182646
000170 e7 9e 6f 3e 90 33 7b bb 9d 01 13 3d 42 71 36 3e
       0.2340046 -0.0038330294 0.03589021 0.17816642
000180 ed 3a 71 3b 4c a9 40 3e d0 ee 71 3d ca c2 08 be
       0.0036808804 0.18814582 0.05906564 -0.13355556
000190 6c 8e 15 bc 85 39 36 be 4d ca 1a be da 30 aa 3d
       -0.009128194 -0.1779538 -0.15116234 0.08310099
0001a0 96 9b 3a 3e 60 02 6d bd 24 c8 e8 bd 0e 00 d1 3d
       0.18223414 -0.057863593 -0.11366299 0.102050886
0001b0 d3 0f 57 bb fa f2 1b 3e b3 d7 5d 3e f5 44 fb bd
       -0.0032815828 0.15229407 0.21664314 -0.12269012
0001c0 05 ac 70 be 48 ac f9 bd 7b bd ca bc a2 9f 6d be
       -0.2350312 -0.12191063 -0.024748554 -0.23205426
0001d0 2b 8d 22 3d e6 f0 02 bd 5e a5 91 3e 4b 18 1c 3e
       0.03968541 -0.03196802 0.28446478 0.15243642
0001e0 39 d8 32 bd a5 d5 b7 3e 68 f3 21 3d 21 21 24 be
       -0.043663237 0.35905185 0.03953877 -0.16028263
0001f0 6e ce 1c 3e f8 d7 2c be 36 bc 98 3d d5 60 a8 bd
       0.15313122 -0.1687926 0.074577734 -0.08221594
000200 d8 85 02 3e 62 95 ae 3d d3 b2 de 3d 9d 0d 75 3e
       0.1274637 0.08524586 0.10873952 0.23930974
000210 93 67 25 3e 12 1a 93 be 5a 82 85 be 47 b3 67 3e
       0.16152792 -0.28730828 -0.26076013 0.22626983
000220 05 45 65 3e bb 44 f6 bc 22 a1 a2 bd 7b 2c fb 3d
       0.2238961 -0.03006207 -0.0794089 0.12264343
000230 50 5c ad bd 9e 23 8b 3d 51 26 0a be 70 dd c5 3d
       -0.08464873 0.06793903 -0.13491179 0.096613765
000240 ae 8c 23 3e c9 8d 74 be ce bc ba bc a9 13 65 3e
       0.15971634 -0.23882212 -0.022795107 0.22370781
000250 ac 45 43 3d a4 c0 82 3d 1d d7 5d bd b3 5c 17 3e
       0.047673866 0.063843995 -0.054160226 0.14781456
000260 f9 24 48 3e 67 a8 c9 3d 98 f7 64 bc f8 17 9c 3e
       0.19545354 0.09846573 -0.013975047 0.30487037
000270 22 f7 43 bd d5 b4 d0 be 0b 2b ff 3d be 5e aa 3d
       -0.047843106 -0.40762964 0.12459382 0.08318852
000280 be 2b c3 bd 0a b4 19 3e 0e 2a 59 3e 77 17 12 be
       -0.095298275 0.15010086 0.21207449 -0.14266764
000290 59 47 83 3b fc fb 2c be 76 82 4c bd ba 6a de be
       0.004006308 -0.16893 -0.049929105 -0.434408
0002a0 38 44 4e 3e b9 72 31 be 2b de fe bc ab 0c 82 bd
       0.20143211 -0.1732892 -0.031111797 -0.063500725
0002b0 0d d1 a5 3d 92 46 b9 3d 96 b9 87 3e 61 c9 33 3c
       0.08096514 0.09046663 0.26508778 0.010973305
0002c0 28 37 17 bd 04 b7 2b 3c bc ff 1f be 11 08 81 3d
       -0.036917835 0.010480646 -0.15624899 0.06300367
0002d0 a3 93 27 bb c2 47 bb 3d 89 8d e5 3c be 29 8b 3e
       -0.0025570176 0.09144546 0.02802159 0.27180284
0002e0 a9 23 24 bd da 20 80 3e fc 5d 02 bc 98 f9 15 bf
       -0.04007307 0.25025064 -0.007956978 -0.58583975
0002f0 8d 28 27 bc aa 75 0b be fb 21 a8 3d 8a 3a 9d be
       -0.010202539 -0.13619104 0.08209606 -0.30708724
000300 6d 3e b9 3d 9c 46 6d be 57 96 2d bd ca e3 ca 3c
       0.0904511 -0.23171467 -0.042379703 0.024766821
000310 13 f3 36 3d 38 61 ac 3d b0 ff 3e 3c 01 32 d2 bd
       0.044665407 0.084169805 0.01165764 -0.10263444
000320 cf e4 7a bd 29 ad 8a bc d4 b6 23 3d a4 35 d4 3d
       -0.061253365 -0.016928272 0.03996928 0.10361794
000330 12 f4 7e 3b b2 ca f3 3c 47 d2 8f 3d 0f 82 d6 3d
       0.0038902801 0.029759739 0.07022529 0.104740255
000340 61 9d b6 3b f7 ff b8 bd fe 4b 1b be 6b cc c5 3c
       0.0055729602 -0.090331964 -0.15165707 0.024145326
000350 a6 47 45 3d a8 13 0b 3d 23 8a 71 be 69 fb 96 3e
       0.048164032 0.033954293 -0.23587851 0.29488686
000360 a8 83 28 bd 8a 07 0a 3e 5f 31 26 3d e3 04 b1 3d
       -0.041141182 0.13479438 0.040574428 0.0864351
000370 88 61 0f 3e ba fa 7d be d9 79 c2 bc 12 f4 cf bb
       0.14002049 -0.24802676 -0.023739742 -0.006346234
000380 04 0b b0 3d 6d e3 36 bd 68 15 04 3e a5 32 21 3d
       0.08595851 -0.044650484 0.12898791 0.03935494
000390 2e 9e 6a bd 77 8c 51 be de 33 ee bd 2b ec 31 be
       -0.05727976 -0.2046374 -0.11630987 -0.17375247
0003a0 e8 e2 46 bd 08 0c 34 3d 43 f9 f4 bd 19 d6 0f bd
       -0.04855624 0.043956786 -0.119616054 -0.03511629
0003b0 49 c5 6c 3e e3 80 2a bd b9 50 20 be e5 cc b1 3e
       0.23122133 -0.041626822 -0.15655793 0.34726635
0003c0 98 32 db bc bd 3e 8d bc 4f ef aa 3d 23 ec 1b be
       -0.026757523 -0.01724183 0.08346426 -0.15226798
0003d0 36 5c b7 bd ab 8c 93 3d ee 2f 49 3d 1e 45 ea 3d
       -0.08953135 0.07204565 0.049117975 0.11438964
0003e0 97 38 b3 bd a5 62 0d 3e 50 26 cf 3d 7f 51 af bd
       -0.08751028 0.13807161 0.101147294 -0.08560466
0003f0 b4 1e d0 3d 8b 4b bb bc 10 7f f6 bd 0b df 68 bc
       0.10162106 -0.02286317 -0.12035954 -0.014213334

lstm.bias_ih_l0 f4 [256]
000000 45 94 f6 3d 86 93 b1 3d 1d cb 2e 3d a5 f2 a2 bd
       0.12039999 0.08670716 0.042674173 -0.07956437
000010 50 ec 4e 3e 1f dc 48 bc 44 b1 3e 3e a9 1a 23 3c
       0.20207334 -0.012259512 0.18622309 0.009955087
000020 05 e8 82 3e 8c 0f 3d 3e 80 c5 fc bd 81 07 68 3e
       0.25567642 0.18462962 -0.12342358 0.22659113
000030 c3 ef 0f 3d 76 ec 03 3e ae 54 ef 3d 6c ff 07 3e
       0.035140764 0.12883171 0.11686073 0.1328103
000040 da 5d 41 3e fc 67 24 3e 00 48 46 3e 9f 88 8a bc
       0.18883458 0.16055292 0.19363403 -0.01691085
000050 24 bd a5 bd 40 52 15 3d b9 4f de 3d 82 b8 b7 3d
       -0.08092716 0.036455393 0.1085505 0.08970739
000060 74 89 16 3e 9c 68 31 3e 57 5f 4c 3d 4e b6 91 3d
       0.14700872 0.17325062 0.04989561 0.0711485
000070 a6 2d 74 bc b2 09 7f 3e 0d 8c 92 3e 91 b2 dd bd
       -0.014903462 0.24906042 0.28622475 -0.108250745
000080 c0 23 15 bd 99 c6 06 3e ce ab 35 3d 1f 62 e4 bd
       -0.036411047 0.13161696 0.0443533 -0.111515276
000090 31 c3 1e 3e 83 7e aa bd 84 7f 25 3a 74 21 b2 bd
       0.15504147 -0.083249114 0.0006313252 -0.08697787
0000a0 6f 05 f6 3d 86 93 e8 bc 18 5f 4c bd 40 91 2b 3f
       0.12012755 -0.028390657 -0.049895376 0.6701851
0000b0 b7 6f 47 3d a5 a3 8a 3e db 9d ca 3c a9 f8 da 3d
       0.048690524 0.27077976 0.024733474 0.106919594
0000c0 69 06 1f bd 9c 88 8a 3d 59 ad e3 bc 35 e8 04 be
       -0.038824473 0.067643374 -0.02779262 -0.12979205
0000d0 73 4b 08 be a7 7e 9b 3e d5 11 c5 3d fb 49 33 3d
       -0.13310032 0.30370066 0.09622542 0.043771725
0000e0 7a d1 45 3e aa 30 52 bd 5f 7c 4c 3d b2 23 a4 3d
       0.1931819 -0.05131594 0.049923297 0.08014621
0000f0 67 db bd bc d6 69 f3 3d 5d 21 7e be e1 1b 02 3d
       -0.023175908 0.11885421 -0.24817415 0.03176487
000100 e6 49 6f bd 91 39 11 3e 53 ee 94 bd 45 a8 f9 3d
       -0.058420084 0.14182116 -0.07272019 0.12190298
000110 7c 5b 97 3d e8 8c ac 3d d9 b1 c0 3d 91 67 dc 3d
       0.07390496 0.08425313 0.09408922 0.10761941
000120 83 5a bb 3d fc 42 a7 3d 3e ae 16 be b6 b8 0e 3e
       0.09148123 0.08167073 -0.14714906 0.13937649
000130 b6 4b 3c 3d 88 99 8b 3d 99 ad 05 3c 91 84 be bd
       0.04597064 0.06816393 0.008159065 -0.09302629
000140 c4 31 52 3d 34 21 93 bc 64 ee c6 bd 15 47 ef bd
       0.05131699 -0.017960168 -0.09713438 -0.1168348
000150 1c 97 37 3d 33 d2 9a 3d d7 90 e2 bd 52 09 e0 bb
       0.044821844 0.075596236 -0.11062782 -0.0068370486
000160 bb 35 56 3e 21 9f f4 3d 09 ed cd 3d 4b db 93 3c
       0.20918934 0.11944414 0.100549765 0.018048903
000170 64 10 58 3e 3f 1a bc 3d 8a 8d 33 be bc 13 88 3d
       0.21100003 0.091846935 -0.17534462 0.06644389
000180 a0 df 9a bd 52 c6 0e 3c d1 5f 2f bd 76 09 ae 3c
       -0.07562184 0.008714275 -0.042815987 0.021244746
000190 0f 73 fd 3c 47 21 0c be 71 cf 32 bd 1d c6 99 3b
       0.030938653 -0.1368457 -0.043654863 0.0046928064
0001a0 84 4f c0 bd fa 6d 3e 3b 1b 49 01 3e 5f 19 84 be
       -0.093901664 0.002905725 0.12625544 -0.25800607
0001b0 d6 dc ed bd f1 9b 44 3e f1 27 ca 3d 6e 32 cc 3d
       -0.11614387 0.19200112 0.098708995 0.09970556
0001c0 8a 9e 87 3d 99 90 b4 3c 5c 38 3e bc f2 0a b6 bd
       0.06622036 0.022041606 -0.011610117 -0.088888064
0001d0 c5 42 f1 bd 22 f6 d1 3d c4 5f b1 3d 3b a7 1b 3c
       -0.117803134 0.10252024 0.08660844 0.00950032
0001e0 26 77 c7 3d cc 56 0b 3e 2c 61 5d be 86 bf f5 3d
       0.09739523 0.13607329 -0.216191 0.11999421
0001f0 13 5f ea 3c 4f e2 46 3d a7 62 9f 3d 3d 49 29 3e
       0.028609788 0.04855567 0.07782488 0.16531844
000200 96 93 ae 3c 59 d3 49 3e bd c8 b6 bd be c2 5a be
       0.021310609 0.19709529 -0.089250065 -0.21363351
000210 85 82 02 3e 43 27 fb 3d a0 7c 47 be f7 9f 76 3e
       0.12745102 0.12263348 -0.19481134 0.24084459
000220 e2 15 72 3e 2f 9a 05 3e b6 fa a0 bd a5 ba 21 bd
       0.2364116 0.13047098 -0.07860319 -0.03948464
000230 a7 a6 50 3e 46 78 39 39 d6 14 35 bd 93 b8 c9 3d
       0.20376073 0.0001768778 -0.044209324 0.09849658
000240 bc 96 66 3e 64 89 0d be 57 66 94 3d a5 ed 10 3d
       0.22518438 -0.13821942 0.07246082 0.035382885
000250 e1 fe df 3c 9d e6 2b 3e 80 3e 8f bd ce a1 b6 bd
       0.027343215 0.1678719 -0.06994343 -0.089175805
000260 93 82 90 bd 1e a9 e7 3d 4e c7 a9 3d 2c 8c ca 3d
       -0.07056155 0.113115534 0.082899675 0.09890017
000270 31 cf 1b bd b8 3e 90 be 5c d7 05 3e 4e b2 fd 3b
       -0.03803939 -0.2817285 0.13070434 0.007742203
000280 06 91 73 be 8d 96 32 be dc 36 13 3e bf 3a 0b 3d
       -0.23785791 -0.17440243 0.14376396 0.03399157
000290 26 59 17 3d 10 b1 2c bb a7 9d a8 bd 20 7e 9f 3d
       0.036950253 -0.0026350655 -0.08233195 0.07787728
0002a0 38 fa ca bb b1 ef af bd 36 5c a3 bd fe de d9 3d
       -0.006194379 -0.085906394 -0.07976572 0.106382355
0002b0 19 b0 48 bb 0c 07 b2 3d 5f e9 82 3d ff 7a 57 be
       -0.003062254 0.0869275 0.06392168 -0.21043013
0002c0 4c 79 22 bc 50 02 91 bc f1 9b ab 3c a0 a1 54 3d
       -0.009916615 -0.017701298 0.020948382 0.05191195
0002d0 d1 9b 29 3e f7 08 8a 3e 30 32 80 bd f9 6f 12 be
       0.16563345 0.26959965 -0.062595725 -0.14300527
0002e0 2c 65 d3 bd 82 93 89 3c dc 59 3e 3e 7d b9 8d 3d
       -0.103220314 0.01679397 0.18588966 0.06920145
0002f0 e6 1b 31 be 7c 3b 73 bd c4 5f 77 bd 38 e0 0c be
       -0.17295799 -0.0593829 -0.060394064 -0.13757408
000300 65 81 a4 3e d7 e2 12 bd 2d 92 bf bc ab 19 40 be
       0.3212997 -0.035860863 -0.023385132 -0.18759792
000310 f0 5a 5e 3e ae 80 a2 3d 9b c9 03 3e 9d 69 dc bd
       0.21714377 0.079347 0.12869875 -0.10762332
000320 64 8c 6b 3d f2 02 09 bc 1f 87 12 3e fa b1 27 bc
       0.057506934 -0.008362519 0.14309357 -0.010235304
000330 66 ba 38 3e 2c f5 4a bd 35 b9 b0 3d 82 4c c5 3d
       0.18039855 -0.04955022 0.086290754 0.09633733
000340 9d c7 c8 3d f6 43 b9 3c b2 4b 53 3e c7 5b 19 bd
       0.09803698 0.022615414 0.20634344 -0.03744104
000350 da f7 0d 3d 7e 44 2b 3d 9c db a1 3d 9c e7 91 3d
       0.034660198 0.041813366 0.07903215 0.07124254
000360 77 9a 4a 3d 01 bd 99 3c 3d 19 47 3e 81 00 de 3c
       0.049463715 0.018766882 0.19443221 0.02709985
000370 57 4e 0b 3e be 8e b3 3e db d5 a5 3e 9c 24 0b be
       0.13604103 0.3506984 0.3238972 -0.13588184
000380 1a 79 26 3e 84 0d 06 be b5 f0 fd 3d 58 aa dd bd
       0.16257134 -0.13091093 0.12399427 -0.10823506
000390 0b e6 df 3d 74 a4 17 3e 54 0b 0d 3e 4e 9d 95 3e
       0.10932549 0.14808828 0.13773853 0.29221576
0003a0 72 99 30 3e f3 1a a7 b9 aa 36 c0 3d 5f 2f f4 3e
       0.17246035 -0.000318728 0.09385426 0.4769239
0003b0 e3 f8 1b 3e 7d c1 ea 3d 10 29 3e bd af 26 22 3e
       0.15231661 0.11462686 -0.04642588 0.15835069
0003c0 8e df 0d 3e ad 1a 08 3e cf 59 33 3e ea 49 1e 3d
       0.1385481 0.13291426 0.17514728 0.03864471
0003d0 5c 21 63 3e b0 5c 6d 3e cc ab 62 3e 82 8b 9e 3e
       0.22180694 0.23179889 0.22135848 0.3096581
0003e0 a8 45 30 3e 38 3d ab 3d 73 b8 1a 3d 97 06 45 3e
       0.17214072 0.08361286 0.03777356 0.19240795
0003f0 25 ea 78 bd b6 90 2a 3d 29 77 5f be a2 a6 94 3e
       -0.060770173 0.041641913 -0.218228 0.2903338

lstm.bias_hh_l0 f4 [256]
000000 06 ec 4c 3e 3a b8 98 3d 71 d7 66 3d fd d3 9b 3d
       0.20011911 0.074570134 0.056357805 0.07608793
000010 55 63 19 3e 7b 53 3c 3d b1 0c 44 3c 08 53 ba 3d
       0.14979298 0.04597805 0.0119659165 0.09097868
000020 b6 e6 c2 3d b0 4b 5b 3e be 6d bb 3c 48 d9 3b 3e
       0.09516661 0.21415591 0.022879478 0.18344605
000030 d7 54 2e 3e af ac 50 3b 04 78 f2 3d 38 c5 11 3e
       0.17024551 0.0031841209 0.118392974 0.14235389
000040 23 f9 ee 3d 8f 2d 0e 3d cc 2f e4 3d 90 e9 a1 3d
       0.11668613 0.034711417 0.11141929 0.07905877
000050 fc 4e f9 bc 0d 68 7d 3d fc e8 36 3d 9b f3 de bb
       -0.03043317 0.06186681 0.044655785 -0.0068039424
000060 94 65 0a 3e bc 93 c6 3d bf 0b df bc 9f a8 c2 3d
       0.13515311 0.09696147 -0.02722728 0.09504818
000070 30 e7 c2 bc 8b a8 94 3e 9a dc 72 3e 5c e7 bc 3d
       -0.02379188 0.29034838 0.23716965 0.09223816
000080 e5 1f cf 3d b4 44 8f 3d 63 9b 6d 3d 54 8f 68 bc
       0.10113505 0.06995526 0.058009516 -0.014194328
000090 64 b7 68 3e b6 f8 8e bd 67 08 e9 3c 1e b2 0c be
       0.22726208 -0.069810316 0.02844639 -0.13739821
0000a0 d7 a1 ec 3c 7b cf dc ba 87 8b 74 3d d1 66 17 3f
       0.028885765 -0.0016846502 0.059703376 0.5914126
0000b0 cf e7 e8 3d 69 64 7e 3e 56 21 71 3d f8 15 ca 3d
       0.11372339 0.24842991 0.058869682 0.098674715
0000c0 00 0d ba bd 9a 2e 72 bd 29 2a 8e bd 85 52 6b bd
       -0.09084511 -0.059126474 -0.06941635 -0.057451744
0000d0 18 33 f8 bc 63 9e fa 3e 01 2e 27 bd 2f cb 9a 3d
       -0.0302978 0.48948964 -0.040815357 0.075582854
0000e0 cc 9c 32 3e 53 a6 e0 3c 9d d5 70 3e 70 35 ca 3d
       0.17442626 0.02742306 0.23518987 0.09873474
0000f0 a0 d0 00 3e e8 82 d6 3d 18 9b 0f be 08 78 29 3d
       0.12579584 0.10474187 -0.14024007 0.041374236
000100 1d bb 8d bd bb 3a ae 3c 98 29 c9 bc a5 59 1c 3e
       -0.06920455 0.02126824 -0.024555966 0.15268572
000110 ba 44 0b bd da 01 e9 3d 5c 80 36 3d 8c 4a 0a 3e
       -0.03400109 0.11377306 0.044556007 0.13505
000120 d7 be 63 3e 28 a3 a1 bb bb fb ec bd e7 96 92 3d
       0.22240768 -0.00493278 -0.11571451 0.071576886
000130 14 c8 d1 ba 67 dd 43 3e 3e bb b2 bd 34 a2 10 be
       -0.0016005062 0.19127427 -0.0872712 -0.14124376
000140 74 07 98 3d e9 66 b2 3b 45 d3 c3 bd 2f 8a 10 bc
       0.074232966 0.0054443968 -0.09561781 -0.008822008
000150 84 e2 34 bb b5 03 b2 3d 78 65 84 bc 66 c7 c4 3d
       -0.0027600834 0.08692113 -0.016161665 0.09608345
000160 b1 25 05 3d a6 1e 93 3d c2 de e6 3d 22 3a a7 bd
       0.03250665 0.0718358 0.112729564 -0.08165385
000170 39 9a 47 3e 1d dd 87 3d fc a2 e9 bc 36 d3 1b 3e
       0.19492425 0.06633971 -0.0285201 0.1521729
000180 3b 6d fe bd 52 07 2c be 9f e9 41 3d 62 f7 f8 bb
       -0.12423178 -0.16799667 0.04734194 -0.0075978497
000190 72 b5 04 be 3e 9f 7e 3a 21 fd 06 be ad 75 94 bd
       -0.12959841 0.000971306 -0.13182499 -0.072490074
0001a0 94 58 5e bd c4 6d 44 bc a8 5f bc 3d 0e 0d 74 be
       -0.054283693 -0.011989061 0.091979325 -0.23833105
0001b0 ae aa ae bc ed 51 6e 3d 2e a7 59 3c 82 da 3f bd
       -0.02132162 0.0581836 0.013284488 -0.046839245
0001c0 f1 39 02 3d 5c 66 4f 3b 97 95 39 3d 34 f9 69 bc
       0.03179354 0.0031646704 0.045308676 -0.014280606
0001d0 6c 3e be bc c4 e6 68 3d ac 4b 15 bd 40 16 99 bc
       -0.023223124 0.0568607 -0.03644912 -0.018687367
0001e0 e8 90 ac 3d 7c 85 94 bd 9b 16 10 3c 01 d8 97 bc
       0.08426076 -0.072520226 0.008794452 -0.018535616
0001f0 a9 e1 be 3d ed 69 df 3d fd f7 81 bd 54 86 e8 3d
       0.09320385 0.109088756 -0.06346128 0.11353746
000200 e4 01 da bd 91 01 f6 3d 6b 58 25 be f3 6e 4d be
       -0.10644892 0.120120175 -0.1614701 -0.20061855
000210 41 48 27 3e c9 23 61 bd c0 74 0e be 81 5c 5e 3e
       0.16336156 -0.054965768 -0.13911724 0.21714975
000220 46 c9 bf 3d fb be 2c 3d 7b 5a 47 bd 94 5a 01 be
       0.09364562 0.04217432 -0.048670273 -0.12632209
000230 68 07 ad 3c c7 81 5f bd 3f 28 e5 3d 0c 3f 38 3e
       0.021121696 -0.054567125 0.11189317 0.179928
000240 3c b6 71 3e 45 ed f3 bd 5f 90 9e bb 82 ba dd bd
       0.23604673 -0.1191049 -0.0048389877 -0.10826589
000250 9f f4 07 be 3a e3 4b 3e dd e3 c5 3d 3d 77 69 bd
       -0.1327691 0.19910899 0.09662602 -0.05699848
000260 5a d6 32 bb 63 d2 61 3e 9b 5f aa 3d f9 64 11 3e
       -0.0027288408 0.22052912 0.083190165 0.14198674
000270 b0 87 cf bc 9a ee 04 be 5c 80 0f bd 31 0f 52 3c
       -0.025333256 -0.12981644 -0.035034522 0.012821005
000280 93 f2 fd bd 36 78 61 be 6b 76 11 3e a5 62 2e bd
       -0.12399783 -0.22018513 0.14205329 -0.042574544
000290 b5 7a 26 3e c6 96 f6 3d 99 4c 8c bd 52 68 a4 bd
       0.16257747 0.120404765 -0.06850547 -0.0802771
0002a0 16 ab fd bc 2c ca 0b be bb 1e bf bd 3f a3 d3 3d
       -0.03096537 -0.13651341 -0.09332033 0.10333871
0002b0 a7 d2 21 bd 50 b7 f9 3d 61 e9 4f 3d 48 a2 76 3c
       -0.039507534 0.12193167 0.050759677 0.015053339
0002c0 12 0e d9 3d 1d 74 6f bd 96 08 97 3d 87 d8 cf bc
       0.10598387 -0.058460344 0.073746845 -0.025371803
0002d0 c2 33 3c 3e 11 e0 81 3e 16 b3 68 be 25 db 05 be
       0.18379119 0.25366262 -0.22724566 -0.13071878
0002e0 2a 2b 45 3d 49 b8 44 3c d5 cc 26 3d b1 d6 d0 3d
       0.048136868 0.012006828 0.040722687 0.10197199
0002f0 88 de d7 bd c8 ad 08 bd 34 79 91 bd 4e 75 a7 bb
       -0.10540491 -0.033368856 -0.07103196 -0.0051104194
000300 02 22 a6 3e 1f ef e0 3d 3e fe af bd de f6 17 bd
       0.3244782 0.10983109 -0.08593415 -0.037100665
000310 8c ca 4a 3e 21 93 7e 3d f7 b3 a8 3e 54 b5 4a bd
       0.19803828 0.06215203 0.32949802 -0.049489334
000320 99 cd cc 3d 02 a1 e7 bc e2 3b 5e 3d 88 7f a1 bd
       0.10000152 -0.028275017 0.054256327 -0.07885653
000330 e0 95 08 3e 13 c2 eb 3d 9b e7 83 3d a2 0c 03 3d
       0.13338423 0.11511626 0.064406596 0.03199447
000340 ae a8 a4 3d 16 49 29 3e b1 1f 84 3e 24 45 de 3d
       0.080399856 0.16531786 0.2580543 0.10853031
000350 10 34 33 3b 80 85 52 bc 70 e7 57 3e e7 55 1b 3e
       0.0027344264 -0.012849212 0.2108438 0.15169488
000360 39 22 87 3d db 9e 4f bd 5d a9 3e 3e be 14 bc 3d
       0.06598324 -0.050688606 0.18619294 0.09183644
000370 33 eb 32 bd 74 82 64 3e 15 33 84 3e 08 45 0b bd
       -0.043681335 0.22315389 0.25820222 -0.03400138
000380 a5 0a ed 3d ed f7 74 3b 3d 7c 17 3d 1c 24 dd bb
       0.11574296 0.003737922 0.036983717 -0.0067486893
000390 3f 46 ba 3d 53 ba 06 3d 6a 7b 1b 3e 43 fd 95 3e
       0.0909543 0.032892536 0.15183797 0.29294786
0003a0 e7 66 98 3d cf c3 0a bd 6d fc 5e bd 23 ac ca 3e
       0.07441502 -0.033878144 -0.05443995 0.39584455
0003b0 d4 a5 09 3e fd 92 0a 3d 40 5c 16 be 83 97 8f 3e
       0.13442165 0.033831585 -0.14683628 0.28045282
0003c0 bf 54 a3 3d 83 60 62 3c e7 48 d9 3d 5c b9 1a 3e
       0.079751484 0.0138169555 0.10609608 0.15109771
0003d0 cb d8 5a 3d 71 8e 3f 3e d0 be 56 3d 7e be 84 3e
       0.053429406 0.18706681 0.052428067 0.25926584
0003e0 dd 71 3f 3e 27 1c 45 bc 87 e5 00 bc a5 9a 0c 3e
       0.18695779 -0.012030638 -0.007867224 0.13730867
0003f0 2c 14 89 bc 0e ad 00 3e 44 75 94 bc f0 8e 68 3e
       -0.016733252 0.12566015 -0.018122323 0.22710776

lstm.weight_ih_l1 f4 [256, 64]
000000 69 7c e4 bc fb ea a5 bd 72 2f bf bd 7c 9b a8 bd
       -0.027891355 -0.081014596 -0.09335221 -0.08232781
000010 b8 12 77 3d d7 7f 77 bd 6d a8 54 bd fd 84 51 3b
       0.060320586 -0.060424652 -0.051918436 0.0031970136
000020 9f 4f 43 3c 0d af 38 3e 01 37 5a bd d1 39 11 bd
       0.011920839 0.18035527 -0.053275112 -0.03545553
000030 0a 4e 0d be dc d7 26 bd e1 17 00 3d d5 a7 b8 3c
       -0.13799301 -0.040733203 0.031272773 0.022540966
000040 a8 31 1f bc d9 6d 3f 3c 9e d7 79 bd bf 8d 3a 3e
       -0.009716429 0.011683905 -0.060996644 0.18218134
000050 08 3a 29 3d b8 31 11 3e 8b ad b6 3d 6d d9 10 3e
       0.04131511 0.14179122 0.089198194 0.14145441
000060 88 0c e2 3c 83 23 14 3d 85 a1 2e be 80 64 14 3c
       0.027593866 0.03616668 -0.17053802 0.009057164
000070 ce dd 19 be 88 9a b2 bd 20 b4 e4 3d 78 d0 e6 bd
       -0.15026018 -0.08720881 0.111671686 -0.11270231
000080 65 82 fd bd 9c 40 78 3d bd 56 96 bd 72 e8 8b 3d
       -0.123783864 0.06060849 -0.07340763 0.06831445
000090 f8 d4 fb 3c 7e b2 df bd e5 16 d7 bd ae cb 84 bc
       0.0307412 -0.109227166 -0.10502414 -0.016210403
0000a0 76 88 af 3c dd 27 2e be ac 9d b3 3d c4 48 83 be
       0.021427374 -0.17007394 0.08770308 -0.25641453
0000b0 a6 50 6f 3d 25 84 87 3d ba c1 d0 3d 5a e2 7e 3d
       0.05842652 0.066170014 0.101932004 0.062227584
0000c0 0d d4 8c 3d 89 cf 0e be 2b d3 9c bc 1a 7b e3 3d
       0.06876383 -0.13946356 -0.019143661 0.11107464
0000d0 f0 92 e3 bc 29 8b cd 3d e6 8a 8e bd 7e b4 b1 3d
       -0.027780026 0.10036308 -0.069600865 0.08677004
0000e0 9a 1f 81 3d 02 5f 4d bc 9b 4a 02 be 8a 86 47 3d
       0.06304856 -0.012534859 -0.12723772 0.04871229
0000f0 48 69 b7 bd 97 b0 6d bd a4 11 8c be ef 60 1d be
       -0.08955628 -0.058029737 -0.2735721 -0.15369008
000100 26 64 09 be a2 7b 6e 3b 02 1e 54 3d 12 8e 2c bd
       -0.1341711 0.003638961 0.05178643 -0.042127676
000110 be 32 d3 bc c5 ad 16 bd cc f7 b7 bc ca 13 88 bd
       -0.025781032 -0.036786813 -0.022457026 -0.066443995
000120 94 1c 66 3c 0f 83 27 3e 20 d6 26 3e 6b 1d 79 3d
       0.0140448995 0.16358589 0.1629262 0.06081907
000130 72 48 ea 3d 47 15 bf bd 69 7c b7 bc 60 6e a5 3e
       0.11439599 -0.0933023 -0.02239819 0.32310772
000140 9c c9 8e bd 25 f6 cd 3d ed f6 9f 3d aa 1e 94 bc
       -0.06972048 0.10056714 0.07810769 -0.018081028
000150 f1 d6 2c bd 6d 8d e5 3d 3d e4 b2 3d 0b 1b 25 3e
       -0.04219717 0.112086155 0.08734939 0.16123597
000160 9b 79 1a 3e e8 39 ca 3d 8f 89 82 be 5b 06 b6 bd
       0.15085451 0.09874326 -0.25495574 -0.08887931
000170 49 5f 01 3e 93 a5 fd bc fc 75 0f 3d be b8 b0 bb
       0.12634005 -0.030962741 0.035024628 -0.0053931167
000180 fd bb 5a be ae 0b 19 3e d5 a8 3a bd 2b 8e 8d 3d
       -0.21360774 0.14945862 -0.045571167 0.06911882
000190 b9 1e bb 3c 59 45 ed 3d 5a 08 b1 3d e9 91 81 3e
       0.022841798 0.11585493 0.08644171 0.25306633
0001a0 66 3a f0 bd 88 c1 f5 bd 4e 4f 76 3d 00 61 fa bd
       -0.117298886 -0.11999804 0.060134225 -0.122255325
0001b0 e5 9f e9 bc e6 2d bd 3d 6b 32 11 3c 69 7a 90 bc
       -0.028518626 0.0923727 0.008862118 -0.017636495
0001c0 3f c6 94 bb 0a 44 bf bd e6 e5 6b 3e 56 7b 89 bd
       -0.0045402343 -0.09339149 0.23036918 -0.067129776
0001d0 2a 4f f3 3d a9 c0 7e bc 4f 85 39 bd bf 28 05 3e
       0.11880334 -0.015548863 -0.04529315 0.13003825
0001e0 6d 0b 1a be 2d 56 ff 3c cc f2 a2 bd 60 20 3d be
       -0.15043421 0.031169022 -0.07956466 -0.18469381
0001f0 4f b0 e9 bc f9 d5 45 3d 0b 20 06 bd 0e 87 0a be
       -0.028526453 0.048299763 -0.032745402 -0.13528082
000200 40 32 2c 3d ce 28 84 be ab 1d 2b 3c 80 15 1d be
       0.04204011 -0.25812382 0.010444085 -0.15340233
000210 6f 68 0c 3e ff 24 f6 3d 01 4b c3 3a 0f a3 2d 3d
       0.13711713 0.12018775 0.0014899672 0.042391833
000220 23 5d 04 3d 4a 2a 15 3f da b0 5d 3c 7d 7b b5 3d
       0.032315385 0.58267653 0.013530934 0.08861444
000230 d8 87 4b be 06 b6 fc bc 60 a3 2b be 2a 79 5e 3f
       -0.19876039 -0.030848514 -0.16761541 0.8690363
000240 da d1 0e 3e 65 09 45 3c a0 56 24 bd 87 f1 de 3d
       0.1394724 0.012026166 -0.040121675 0.108859114
000250 04 b2 0d 3b 4b 20 ad 3c 1f ca 0d bd 77 71 1d 3e
       0.0021620998 0.021133563 -0.034616586 0.15375315
000260 00 cb 09 3e 5c 9f 39 3e a6 f3 7d be fc b3 04 be
       0.13456345 0.18127197 -0.24799976 -0.12959284
000270 a4 ad 01 3d 6d 1a f1 3d 33 bb fc 3c 88 02 f6 bc
       0.031659737 0.117726184 0.030850982 -0.030030504
000280 3e e2 3c be c7 fb 5f bd 35 b5 c9 bd 8a 6c f5 bc
       -0.1844568 -0.054683473 -0.098490156 -0.029958982
000290 16 85 e1 bd 0a d7 9a be 71 69 7b bd 31 cf 70 be
       -0.11011712 -0.30242187 -0.061379854 -0.23516537
0002a0 c6 d4 38 3d a4 0c 8d 3d 29 5d 37 bc b4 7b 1b 3e
       0.04512479 0.06887177 -0.011191645 0.15183908
0002b0 6b dc b0 3e 46 fb 93 bb f8 7e 10 bd 3f 0f 0e be
       0.34543166 -0.004516038 -0.035277337 -0.13873003
0002c0 ad f2 12 3d 1c ea 32 be 91 bc 7c 3c bd f8 1d be
       0.035875965 -0.17472118 0.015425817 -0.15426917
0002d0 d4 64 f5 bd 70 82 cb 3d cc 22 93 bc 24 da 01 3e
       -0.11982122 0.09936988 -0.017960928 0.1268087
0002e0 52 88 c4 bd 75 fd 9c 3b 76 d1 e3 bc 1f f8 8e be
       -0.095963135 0.0047909566 -0.02780984 -0.27923676
0002f0 89 e6 ee 3d f3 38 fb 3d 57 e8 86 be ba 60 0b be
       0.11665065 0.122667216 -0.26349136 -0.13611117
000300 2e 09 35 3e 4f ba 9e 3d c9 2f 1c be 11 b9 42 bd
       0.17679283 0.07750379 -0.15252604 -0.047539774
000310 12 76 78 3e 53 b4 43 3d 0d 7b ae 3d 2e d2 92 3d
       0.2426379 0.047779392 0.08519564 0.07168995
000320 26 b1 74 bd 31 0f 14 3e de 60 a1 be d9 92 d3 bd
       -0.059739254 0.1445892 -0.31519216 -0.10330743
000330 bf 1b 08 3e 57 29 9f bb d9 45 1c 3b e4 af ec 3d
       0.13291834 -0.004857223 0.0023845343 0.11556986
000340 df 2a 56 3d 54 23 19 3c a2 8a 8a bc 97 23 5b 3c
       0.05228698 0.009346802 -0.016911808 0.0133751845
000350 20 26 2b be 19 a8 e9 3d 44 ce 2a be e6 b1 19 3b
       -0.16713762 0.11409015 -0.16680247 0.0023451983
000360 73 a0 56 3e 1c 2d 05 3c bc 91 4b 3e 93 04 46 be
       0.20959644 0.008128431 0.19879812 -0.19337682
000370 6c 21 25 3d 86 fe b9 be 89 04 a8 3d ee 80 86 3d
       0.040315077 -0.36326998 0.0820399 0.0656756
000380 bd a3 a3 bc 5a 77 37 be 17 b2 02 be ec 39 1a bd
       -0.019975537 -0.17916623 -0.12763248 -0.037652895
000390 6b 4e 65 bd 72 aa 96 bd 14 3f fc 3c 79 36 0b be
       -0.05598299 -0.073567286 0.030791797 -0.13594998
0003a0 c6 c6 d1 3c 50 b3 23 3e ac 61 3a be 03 cd 01 bf
       0.025607478 0.15986371 -0.18201321 -0.5070345
0003b0 b2 55 e5 bd ab 8c 6e 3d 0c d8 06 3e 76 40 cc 3d
       -0.11197986 0.05823962 0.13168353 0.099732324
0003c0 4c 7a 32 be 6d 03 3a be c0 15 3d bc c2 5e 3d be
       -0.17429465 -0.1816537 -0.01154083 -0.18493178
0003d0 54 02 02 be 8a de 3a 3d 5a 0f 95 bd 89 2c 57 be
       -0.126962 0.045622386 -0.07278319 -0.21013083
0003e0 c4 ff 67 bd 23 04 35 3c 5c 70 98 bb ef 9f 4a 3c
       -0.0566404 0.01104835 -0.004652066 0.012367233
0003f0 2c 2a 24 bd 80 72 9b 3d 83 f7 02 be 2a c6 d6 bd
       -0.04007928 0.075901985 -0.1278973 -0.104870155

lstm.weight_hh_l1 f4 [256, 64]
000000 1b 1b 74 3d e4 10 d3 bc ab 58 e2 3d 5b 38 01 3e
       0.059596162 -0.02576489 0.11052068 0.12619154
000010 bf d4 5f 3d aa 66 d3 3c fa 3c 09 bd e9 f4 4d be
       0.05464625 0.02580579 -0.033505417 -0.20112957
000020 12 43 8e bd 20 63 a5 bb b0 e0 8a bd fe 81 1e be
       -0.069463864 -0.005047217 -0.06781137 -0.15479276
000030 a8 84 a5 bd a3 8d 9d 3d 2b 26 3e 3d 14 6b f0 be
       -0.08081943 0.07693031 0.04642312 -0.46956694
000040 93 49 b9 3d ab 4e 19 bd 7f 0b 09 bd 35 5f 3a be
       0.09047236 -0.03742854 -0.03345823 -0.18200381
000050 b9 b1 9b bd 18 9b 3c 3e e1 92 b0 3a 01 24 f5 3c
       -0.07602257 0.18418539 0.0013471508 0.029924395
000060 63 45 b3 bd bc 13 c3 3d c3 96 33 bd 88 f1 70 3d
       -0.08753469 0.095252484 -0.04384495 0.058824092
000070 06 c8 35 bd 7e 8f c2 bd 81 22 d2 3d e3 39 9e bd
       -0.04438021 -0.09500025 0.10260487 -0.07725885
000080 83 1a 73 bc 94 f0 61 bd 5e 26 37 be 03 0b 88 be
       -0.014837864 -0.055161074 -0.1788573 -0.265709
000090 da 16 f3 3c fb 71 07 bd 9a 79 af 3d 97 bd 3d 3e
       0.029673982 -0.033067685 0.085681155 0.18529354
0000a0 9c f6 5d 3c 19 eb aa 3d bd c0 95 bc 89 b0 fe 3c
       0.013547566 0.083456226 -0.018280381 0.031090038
0000b0 1f 29 b0 3d 74 5e 32 be 1f 0e 47 3d 59 95 00 3e
       0.08601593 -0.17418844 0.04859745 0.12556972
0000c0 57 54 77 3c 8d d4 96 bd fd aa b0 3d 45 67 05 3d
       0.015095792 -0.073647596 0.086263634 0.03256919
0000d0 de e4 15 bd 25 ef a3 3c 87 66 c1 3d be 30 56 3d
       -0.036595218 0.020011494 0.09443384 0.052292578
0000e0 3a 52 8e bc b1 0f 34 3d cd 1d 33 3d c2 bb 27 3d
       -0.017373193 0.043960277 0.043729592 0.040950544
0000f0 df 9d ae 3d 74 c7 e8 bc 41 54 4f be 17 9d 91 3d
       0.08526205 -0.02841542 -0.20246984 0.07110041
000100 b8 82 3d be e2 a9 70 3d e9 0f 37 3e 3f f3 80 bd
       -0.18506896 0.058755763 0.17877163 -0.062963955
000110 de 24 88 be 4f 01 87 3d e2 04 c3 bc e5 93 c7 bd
       -0.26590627 0.065920465 -0.02380604 -0.097450055
000120 0d ff 96 bd f4 4f 93 bd 00 d6 7a 3c 6d 8d 24 bd
       -0.07372866 -0.07192984 0.015309811 -0.040173937
000130 a2 c7 99 bd 8e ca 1c be d1 b4 9e 3e f9 08 18 3e
       -0.0750878 -0.15311643 0.30997327 0.14847173
000140 63 78 05 3e fa 79 24 be e9 09 74 3d d6 90 02 be
       0.13034205 -0.16062155 0.059579764 -0.12750563
000150 0b e8 3f bd c9 f0 18 bd ce ab bb bd ed b3 c8 bd
       -0.046852153 -0.037339006 -0.091636285 -0.09799943
000160 d1 00 59 be a8 1c f2 bd ac 7c 65 be 9f 31 3d be
       -0.21191718 -0.11821872 -0.2241084 -0.1847596
000170 bc 73 06 bd 3e 9f 03 bd 7f 83 49 bb c7 31 d4 3c
       -0.032825217 -0.032134287 -0.0030748544 0.025902642
000180 ed 7b 33 3d 54 d7 18 3c 98 c2 86 3c e5 18 42 bd
       0.043819357 0.009328682 0.016450211 -0.047387023
000190 72 60 ed 3c c1 1f 04 be be 0b e1 bc 43 ab 0f bc
       0.028976653 -0.12902738 -0.02747142 -0.008768859
0001a0 4a 4c 78 bd 3c d5 45 bd 3a de 9c bc f8 f0 db 3d
       -0.06061963 -0.04829906 -0.019148935 0.107393205
0001b0 84 4e 0f 3d ee 88 18 be 3d 6e bf 3d 28 83 39 3e
       0.034986988 -0.14895985 0.09347198 0.18116438
0001c0 9c d4 1f be f0 34 23 3e b4 d1 36 3e 6a 37 5f 3d
       -0.15608448 0.15938163 0.17853433 0.054496206
0001d0 ab 90 d4 bd 6f 34 04 3e c7 ca ba 3d 28 79 e9 bd
       -0.10379156 0.12910627 0.09120708 -0.11400062
0001e0 3b a2 9b 3c 12 cc 86 bd 6b 4e 90 3d f3 04 17 be
       0.018998256 -0.06581892 0.07046207 -0.14747982
0001f0 b5 9b c3 3c ab 73 18 3e 80 09 7e 3d 21 93 bf bd
       0.023877958 0.14887874 0.06202078 -0.093542345
000200 78 86 35 be a0 77 8e bb c1 2d 4a 3e 31 60 b5 3e
       -0.17727077 -0.0043477565 0.19744016 0.3542495
000210 67 c1 5e be d7 7f 8e 3e d0 82 a2 bd 7a c1 27 be
       -0.21753465 0.2783191 -0.07935107 -0.16382399
000220 c0 3f a3 be 7b 1f 3e 3e ff 6b 36 3c ce 69 55 be
       -0.31884575 0.18566696 0.011134147 -0.20841143
000230 f6 91 19 3e 8f f8 07 3d b7 20 39 3d 2b a6 2b 3e
       0.14997086 0.03319603 0.045197215 0.16762607
000240 ed 00 a1 3e a1 ff 22 be 79 11 19 3d d7 3d 0a bf
       0.3144602 -0.15917827 0.03737018 -0.5400061
000250 96 62 29 be c3 4d 91 3e 9d a7 0d bd 53 d9 08 3e
       -0.16541514 0.2837964 -0.034583677 0.13364153
000260 2f 2f 9d be ec 2e 5d be 1f ea 4b 3d 97 2f 8a bd
       -0.3070006 -0.2159993 0.049783822 -0.06747358
000270 02 11 1a be d1 af 23 3c e5 63 6c 3e df 77 53 be
       -0.1504555 0.009990648 0.23084982 -0.20651196
000280 96 9b ce bd 39 87 ab 3d c1 76 24 be 2f a8 60 bd
       -0.100882694 0.08375401 -0.16060926 -0.054847892
000290 dc 57 01 be 20 2a b6 be 01 da d7 bd 22 1e 52 be
       -0.12631172 -0.35579014 -0.10539628 -0.20519307
0002a0 b4 22 26 3d 58 76 2a 3c f8 75 a5 3d 42 a8 f3 3d
       0.04056044 0.010404192 0.080791414 0.11897327
0002b0 23 45 ab 3e 65 0e 6d bc 93 72 02 3e 7f 59 99 3e
       0.33451185 -0.014468764 0.12739019 0.29951093
0002c0 f0 db aa be 85 1c 56 3e c7 97 f8 3c e1 7b a1 3e
       -0.33370924 0.20909317 0.03034581 0.31539825
0002d0 a5 1a a3 be 0b df 16 3b 32 c8 9b 3e 41 73 1f be
       -0.31856266 0.0023021128 0.30426174 -0.1557131
0002e0 6b 35 91 bd 9a 90 fd 3c 84 1b 04 be 62 48 63 be
       -0.07090267 0.03095274 -0.12901121 -0.2219558
0002f0 11 16 39 3e 46 40 53 3b f9 6e fd ba ec fb 26 be
       0.18074824 0.0032234355 -0.0019335441 -0.16307038
000300 df 29 18 3e 2e 24 4b 3e c1 11 25 ba 90 ac 2b be
       0.14859723 0.1983802 -0.0006296896 -0.16765046
000310 5e 4d 82 bd dd 0c ba 3d 93 d4 1b be c6 af 26 bd
       -0.06362413 0.09084485 -0.1521781 -0.040694974
000320 f4 86 9f 3c 94 4f 77 bc 92 45 97 3a 0c 90 cb bd
       0.01947353 -0.0150946565 0.0011541119 -0.09939584
000330 60 b6 10 3e e8 f6 92 3b 45 f7 95 bd fa a2 6e be
       0.1413207 0.004485 -0.073225535 -0.23304358
000340 95 c4 18 be 89 3e 1b be 82 83 b6 bd de e3 4e be
       -0.1491874 -0.15160574 -0.08911802 -0.20204112
000350 01 26 8c 3e 99 d4 29 be c3 5b 8c 3d 63 ea 9a 3c
       0.27372745 -0.16585006 0.0685344 0.018910592
000360 41 e2 94 3d e2 f0 a6 bd a4 f4 9c bd d8 c3 ba 3d
       0.07269717 -0.081514135 -0.07663849 0.091193855
000370 08 da b7 bc 86 46 0f be 58 1a 25 3c 2f 92 a6 3d
       -0.022442833 -0.13991746 0.010077082 0.08133351
000380 71 78 d6 bc 5a 1b f2 bd a6 ab 58 3d fd 9c c7 3d
       -0.026180478 -0.11821623 0.05289807 0.0974674
000390 56 49 15 bd 8c 82 14 3c 3b 27 89 bd d3 5b 89 3e
       -0.03644689 0.009064328 -0.06696936 0.2682787
0003a0 49 8b b1 3d 0b 1c 49 be 71 48 8c 3d d0 3c eb 3c
       0.08669145 -0.19639604 0.068497546 0.028715521
0003b0 4e 3d da 3d 77 f8 1e 3d 04 9e 1a 3e 94 59 c7 3d
       0.10656224 0.038811173 0.1509934 0.097338825
0003c0 25 fd b7 bd 4d 2e f8 bd 7c af ea bd 5b d6 cc 3c
       -0.0898383 -0.12118206 -0.11459252 0.025004556
0003d0 5b a0 97 3e 07 fa cc 3d 30 27 99 bb 18 9e a0 3b
       0.2961453 0.100086264 -0.004673861 0.0049016587
0003e0 e1 33 48 be 80 65 38 be 42 fc 6d 3d 56 6a 79 39
       -0.1955104 -0.18007469 0.0581019 0.00023786104
0003f0 46 5a 91 bd 2a 06 70 be cd 3b 39 be ea 75 43 3d
       -0.070972964 -0.23439851 -0.18089218 0.047719873

lstm.bias_ih_l1 f4 [256]
000000 74 19 81 bd 09 2d f6 bc 31 8e e4 bd 53 5d 82 3d
       -0.06303683 -0.030050771 -0.11159933 0.063654564
000010 d1 81 ce bc 82 e3 3d 3d 57 ec d0 3d e1 4f 1e bc
       -0.025208386 0.046359546 0.10201328 -0.009662599
000020 0b e4 d2 3c ac 04 d6 bd 1c 2d 58 bd ca ff 95 bd
       0.025743505 -0.1045011 -0.052777395 -0.073241785
000030 77 1c ad bd 04 4c a2 bd 49 32 f0 3d c7 64 c5 bd
       -0.08452695 -0.07924655 0.11728341 -0.096383624
000040 65 3f 95 bc 9a 97 49 bd f2 15 c8 bc e6 bd 89 3d
       -0.018218705 -0.049216844 -0.024424527 0.067256734
000050 8b f2 7c 3d 79 ed 5f 38 ff 52 30 bd 70 fc 91 bd
       0.061754744 5.3388507e-05 -0.0430479 -0.07128227
000060 e2 81 1b 3c 44 28 52 bd 3d 35 4e 3e 0b a2 10 3e
       0.009491416 -0.05130793 0.20137496 0.14124314
000070 b3 b4 39 bd 1e 8d 6d bc 0b 21 ad bd 5e 79 3f 3d
       -0.045338344 -0.014498977 -0.08453568 0.046746604
000080 ec 98 21 3d 6b 94 a7 3b 28 70 84 3d 2a be 09 3d
       0.03945248 0.0051141283 0.064667046 0.03362862
000090 da f5 40 3d 2f 6f 0d 3c 5f 5c 50 3d 89 ae d3 3c
       0.047109462 0.008632465 0.050869342 0.02584006
0000a0 5a 4b ef bc 6e f9 0c 3d 39 c1 61 3c 6b cd 87 bd
       -0.029210735 0.034417562 0.013778978 -0.06630977
0000b0 56 70 cd 3d 7b 59 d5 bd 9e c4 b3 bb 30 ad ab 3d
       0.10031192 -0.10417458 -0.005486085 0.08382642
0000c0 1c a0 d6 3c 8b 52 60 bd 9a f3 ed bc 7b 27 d4 3d
       0.026199393 -0.05476622 -0.029046822 0.10359093
0000d0 ef e7 42 3d 65 27 e0 bd c6 45 a1 3d 74 c0 4a 3d
       0.04758447 -0.10945014 0.07874636 0.049499944
0000e0 47 35 57 3e c8 19 c0 bc ba d3 90 3d b0 b7 9b bb
       0.21016417 -0.023449793 0.07071634 -0.004752122
0000f0 51 0f 2d 3e 8c 12 8c 3d 0f 68 90 3e 3a 1f 3d 3d
       0.16900374 0.06839475 0.2820439 0.046172358
000100 69 b8 99 bd e1 d6 ba 3c ab f0 90 3d 4a 2d 3f bd
       -0.075058766 0.02280754 0.07077154 -0.04667405
000110 54 e5 d1 bd 52 fe 7f 3d 36 23 01 3c 57 b9 e3 3d
       -0.10248819 0.062498398 0.00788193 0.11119335
000120 44 8e e6 bc d6 1c b3 3d 58 3b 93 3d fb e9 82 bd
       -0.02814401 0.087457344 0.07189053 -0.063922845
000130 5b 0f 89 3d 4b 7f 74 bc a0 0b d9 3d 57 77 d1 3d
       0.06692382 -0.014922927 0.105979204 0.102278404
000140 64 01 13 3d 66 b1 0b 3e 78 84 34 3d af 87 8d bd
       0.035889998 0.13641891 0.044071645 -0.06910645
000150 55 7d 27 3d ca 9d f3 3d e6 fe 04 3e 49 79 38 3d
       0.04089101 0.1189533 0.12987861 0.04503754
000160 18 1b 10 3e 0a a7 02 3e be 24 1b bd 80 a3 a2 3b
       0.14072835 0.12759033 -0.037876837 0.0049633384
000170 3a 57 fb 3d 35 51 de 3d c2 38 af 3c 16 90 64 3d
       0.122724965 0.10855333 0.021389369 0.055801474
000180 3c 5d 06 3e 7a 22 d5 3d 57 28 16 3e aa fb a3 3c
       0.13121504 0.104069665 0.14663826 0.020017464
000190 99 c1 4c 3b 11 be de bc 69 53 f4 3d 11 39 27 bd
       0.0031243323 -0.02719024 0.11929972 -0.040825907
0001a0 04 d4 f4 3c e5 f8 34 3d cf 27 ce bd a0 88 62 bd
       0.029886253 0.044182677 -0.10066187 -0.055306077
0001b0 5b a7 d9 bb 1b c1 8c bd d1 e9 16 ba c4 48 7e 3d
       -0.006642265 -0.068727694 -0.0005756887 0.062081113
0001c0 c8 7e 0e 3d 1e b5 e7 3c 47 aa c3 bd 0a 57 f0 3d
       0.034788877 0.028284606 -0.09553962 0.117353514
0001d0 0a ec 99 3d 97 50 a2 bc ed 80 83 bd e2 d9 dc bd
       0.07515724 -0.019813819 -0.06421075 -0.10783745
0001e0 17 0c d9 bc 6a b5 99 3d 8a 9c 61 bd 18 1b cd bc
       -0.026495023 0.07505305 -0.055080928 -0.025037333
0001f0 a6 5c bf 3c 6c 18 53 3d b7 b9 c9 bb 06 90 ad 3d
       0.023359608 0.051536962 -0.006156172 0.08474736
000200 cf af f1 3c 4b 4c 85 bd 79 9d 4e bc b7 85 74 3d
       0.029502777 -0.06508692 -0.012610787 0.059697833
000210 72 a7 3e 3d da 2c 28 ba d5 40 cd bd c9 e4 93 bd
       0.046546407 -0.0006415375 -0.10022131 -0.07221372
000220 c0 65 8c bd a8 1d 6c 3d 18 b3 1c bd 1a b4 f5 3d
       -0.06855345 0.05764547 -0.038256735 0.11997242
000230 ce 9d e8 bd f4 66 8f 3d 88 82 b0 bd ea 8d 4f 3c
       -0.11358224 0.070020586 -0.08618647 0.012668112
000240 17 bb b2 bd e7 4c 53 bb 44 53 04 bd 19 ef a3 bc
       -0.08727091 -0.0032241882 -0.03230597 -0.020011472
000250 7b c9 8f 3d 98 2d 26 3d 0f a2 11 3d 54 f8 2a bd
       0.07020851 0.040570825 0.03555494 -0.04174073
000260 f1 33 7a 3d d1 fe d6 3d d2 ad dd 3d 92 c7 66 3d
       0.06108469 0.10497821 0.10824169 0.05634267
000270 36 26 84 bd 6f 60 f1 3d 3e 3e 08 3e c5 d3 c2 bd
       -0.06452601 0.117859714 0.13304994 -0.09513048
000280 c9 59 83 3c 70 c2 02 be 51 22 92 bd 11 b3 0d 3e
       0.016034024 -0.12769485 -0.071354516 0.1383784
000290 73 ec b8 bd cc 65 29 3c 4f 2c 88 3d bd 0a 0b bb
       -0.09029474 0.010339212 0.06649076 -0.0021216117
0002a0 e1 39 dc 3c 82 44 13 be f1 85 39 3d fb 6d e2 3c
       0.026883068 -0.14381602 0.045293752 0.027640333
0002b0 40 15 07 be 30 77 bc bd 42 31 9b bb 62 ac d8 bc
       -0.131917 -0.09202421 -0.0047360966 -0.026449386
0002c0 59 92 3d 3d f4 4f 0d 3d 8f 6b 14 be f9 49 ff bc
       0.046282146 0.034500077 -0.14494155 -0.031163203
0002d0 b2 a9 0d 3e e3 e7 1b 3c d8 ae 9b bd 56 1e 70 3d
       0.13834265 0.009515735 -0.07601708 0.05862268
0002e0 8b 53 af 3d 32 b0 3d bc bc fe 84 bc 16 88 e7 bc
       0.085608564 -0.011577653 -0.016234748 -0.028263133
0002f0 db 55 b8 3d f1 87 37 bd 12 19 94 3d d8 4a 9f bd
       0.09000751 -0.04480738 0.07231344 -0.07777947
000300 51 16 2b 3e e5 a3 38 3d 78 5d 8a 3d ce c6 ae bc
       0.16707732 0.045078177 0.06756109 -0.021335032
000310 f5 ef 01 3e cf 35 e8 bc 7d 17 32 bd 87 a5 9b bd
       0.12689193 -0.02834597 -0.04347943 -0.07599931
000320 9a fb e1 bc 59 5d 1e 3e 94 7d 48 3b 6d a9 d1 3d
       -0.027585793 0.15465297 0.0030592429 0.102373935
000330 cf 1e 20 be e5 b0 67 3e eb 45 25 3d a2 b4 1a bd
       -0.15636753 0.22626074 0.040349882 -0.03776992
000340 77 f0 8b 3d c2 fd ed 3d 44 04 9d 3d ac f3 8f 3d
       0.068329744 0.11620666 0.07666829 0.070288986
000350 de a9 e6 3d 05 eb 9f 3d 0d a1 06 3a ca 00 34 3e
       0.11262868 0.07808498 0.0005135693 0.17578426
000360 05 6a ef 3b 9e bb 25 3e 45 15 1c 3e 35 83 28 3e
       0.0073063397 0.16184852 0.15242489 0.16456302
000370 25 d6 b0 3d bc 0c 5f bd b1 49 28 3e 6a f3 31 3d
       0.08634595 -0.054455504 0.16434361 0.04344503
000380 0e 17 88 3d be 18 f0 3d a5 6f fa 3d 35 3a d6 3b
       0.06645022 0.11723469 0.12228326 0.0065377005
000390 f5 66 cc 3d c8 10 ee 3d ab f0 5e 3e 36 38 cb bc
       0.09980575 0.116242945 0.21771495 -0.024807077
0003a0 56 fa ab 3d a5 55 18 3e bd 50 39 bd 00 75 83 3d
       0.08397357 0.14876421 -0.045243014 0.064188
0003b0 4d 60 99 bd 10 6f 3c 3c b9 c1 82 bd 1d 58 9b 3d
       -0.07489071 0.011501089 -0.06384606 0.07585166
0003c0 5e 7b 25 3c 9c 58 73 3e f3 92 35 3e 69 88 36 3e
       0.010100214 0.2376427 0.17731838 0.17825474
0003d0 cc cd e8 bd 66 f5 52 3c ac 6b a6 bd c5 43 04 3d
       -0.11367378 0.01287589 -0.081260055 0.032291193
0003e0 ce f7 e2 3d 2d 48 6b 3d c5 0b 0a be 3b a3 32 3d
       0.11082421 0.05744188 -0.13481052 0.0436127
0003f0 29 b7 bd bc 9e e0 b2 bb 6e 2d d4 3d b3 62 4d bc
       -0.023158627 -0.0054589054 0.103602275 -0.012535739
