LogAnomaly/result/deeplog/deeplog_epoch338.pth (torch_old, 647292 bytes, 30 tensors)

lstm.weight_ih_l0 f4 [256, 1]
0	0xbe52e588	-0.20595372
1	0xbc5fefa0	-0.013667971
2	0xbd858f57	-0.065214805
3	0x3db4f0cc	0.08834991
4	0xbe0c05bd	-0.13674064
5	0x3d440cf8	0.04786393
6	0xbdd60e3f	-0.10451936
7	0x3d988e1d	0.07448981
8	0x3e3d7134	0.18500215
9	0x3dad76b4	0.084699064
10	0x3e2c2a91	0.16813113
11	0xbdae5afa	-0.08513446
12	0x3dc92940	0.09822321
13	0x3e0e23c4	0.13880831
14	0xbda5d451	-0.08097137
15	0x3e874dde	0.26426595
16	0x3dadc9d6	0.08485763
17	0x3d6653c3	0.056232225
18	0xbe1bd75e	-0.15218875
19	0x3e2068dd	0.15665002
20	0x3e2b31db	0.16718237
21	0x3d9e48bc	0.07728717
22	0x3d8cdcbd	0.0687804
23	0xbd784674	-0.060614064
24	0x3e5862a0	0.21131372
25	0xbd8f963b	-0.07011076
26	0xbca774ec	-0.020441495
27	0x3d9659a3	0.073413156
28	0x3da1935f	0.07889437
29	0xbe060f42	-0.13091758
30	0x3e072ce7	0.13200723
31	0x3c8647df	0.016391693
32	0x3df6261e	0.12018989
33	0x3dd80ed2	0.10549702
34	0x3cb76e2f	0.022391407
35	0x3d396618	0.04526338
36	0x3e5daae8	0.21647227
37	0x3c5173b5	0.012783934
38	0x3e108d99	0.14116515
39	0xbe117ae7	-0.1420704
40	0x3b442105	0.0029926908
41	0xbe0d5ccf	-0.13804935
42	0x3e0687bb	0.13137715
43	0x3ed1c2ec	0.40969026
44	0xbe0b21bc	-0.13587087
45	0x3de6df23	0.11273029
46	0x3e161c10	0.14659142
47	0xbe523684	-0.20528609
48	0x3e4c0ec7	0.19927512
49	0x3e25c3ab	0.16187923
50	0x3ebfb6d0	0.37444162
51	0x3daa88f1	0.08326901
52	0x3d6073e3	0.05479802
53	0x3eada388	0.33913827
54	0x3dece957	0.115679435
55	0xbd7d2a0b	-0.061807673
56	0xbe36cdb5	-0.17851909
57	0x3ce77936	0.02825604
58	0x3de30d6d	0.11086545
59	0x3d2e20fe	0.042511933
60	0x3d3161b1	0.043306056
61	0x3e22dbb9	0.1590413
62	0x3dd19e39	0.10235257
63	0xbe1e3de1	-0.15453292
64	0xbd8435cd	-0.06455574
65	0x3d28cb53	0.04120953
66	0x3e015235	0.12629016
67	0xbd3c7ee8	-0.046019465
68	0xbdba8f62	-0.09109379
69	0x3d74f593	0.05980451
70	0x3dc702ad	0.09717307
71	0x3d707ab5	0.058710773
72	0xbd22886e	-0.03968089
73	0x3e987c5f	0.29782388
74	0x3e2fc9f0	0.17166877
75	0xbe0b0d83	-0.13579373
76	0xbc273e36	-0.010207703
77	0x3db6bba3	0.089225076
78	0x3e3011f0	0.17194343
79	0x3e886ea1	0.26646903
80	0x3d07a77c	0.03311871
81	0x3e0f5648	0.13997757
82	0xbdf8fda7	-0.12157755
83	0x3d1ed868	0.0387806
84	0x3bcf4495	0.0063253143
85	0x3e700078	0.23437679
86	0x3e10fc60	0.14158773
87	0xbd60e4ba	-0.05490563
88	0x3ca71214	0.020394363
89	0x3d9c83a7	0.07642298
90	0xbf354d69	-0.70821244
91	0x3da54a0d	0.08070765
92	0xbd79af6d	-0.060958315
93	0xbe7cd7c5	-0.24691685
94	0x3e618e6c	0.22026986
95	0x3c9b32fa	0.018945206
96	0xbd0907ed	-0.033454824
97	0x3e2c40b0	0.16821551
98	0x3dddfc2b	0.10839113
99	0x3de8fa6b	0.113758884
100	0x3d86c4a5	0.06580476
101	0x3e4d8621	0.20070697
102	0x3df530b2	0.119721785
103	0x3d1307d6	0.035896145
104	0x3e1b180c	0.15145892
105	0x3e77a88a	0.24185386
106	0x3e3f1a4d	0.18662377
107	0x3d756532	0.05991096
108	0xbe03d7b6	-0.12875256
109	0xbcde3be3	-0.027128166
110	0x3d809cc5	0.062799014
111	0xbde91838	-0.113815725
112	0x3da9addf	0.082851164
113	0x3de39987	0.111132674
114	0x3ea15bae	0.3151526
115	0x3e81213c	0.25220668
116	0x3d58aade	0.052897327
117	0x3cb41830	0.02198419
118	0x3e3202f2	0.17383936
119	0xbcd415ad	-0.025889242
120	0xbe3b69ec	-0.18302125
121	0x3e3c7865	0.18405302
122	0x3ef5cf83	0.4800988
123	0xbd13a735	-0.036048133
124	0x3d3b1fe8	0.045684725
125	0x3d5fe807	0.054664638
126	0xbdb11584	-0.08646682
127	0xbe1dbd88	-0.15404332
128	0x3eef44c4	0.46732152
129	0xbe0e61c7	-0.13904487
130	0x3da80d8e	0.0820571
131	0x3d03c31a	0.032168485
132	0x3e87a987	0.26496527
133	0xbe39ea8d	-0.1815588
134	0xbd521f64	-0.051299468
135	0x3e230a5f	0.15921925
136	0x3e3a38a6	0.18185672
137	0xbd349e36	-0.044096194
138	0xbd8c9aa6	-0.06865434
139	0x3e6de4db	0.23231833
140	0xbe7b0371	-0.24513032
141	0x3e370139	0.1787156
142	0xbe2998ea	-0.16562238
143	0xbdc88363	-0.09790685
144	0x3e6f49f1	0.2336805
145	0xbe9f746b	-0.31143507
146	0xbe89ee92	-0.26939827
147	0x3e61b5c3	0.22041993
148	0x3e3b4795	0.18289025
149	0xbd13947c	-0.036030278
150	0xbe2586a8	-0.16164649
151	0x3e506019	0.20349158
152	0x3dd20ae6	0.10255985
153	0x3ea59f9e	0.3234834
154	0xbef6d355	-0.4820811
155	0x3ca9f12b	0.02074488
156	0x3cd1a75b	0.025592497
157	0xbe43d18d	-0.19122906
158	0x3f736673	0.950782
159	0x3a35a56f	0.00069292536
160	0x3f03664a	0.51327956
161	0x3cc4d172	0.024025653
162	0x3db1703f	0.08663987
163	0xbced6c3c	-0.028982274
164	0xbea43aa4	-0.3207599
165	0xbe5ab865	-0.21359403
166	0xbea93c2f	-0.3305373
167	0xbe44c72e	-0.19216606
168	0x3e5aca9b	0.2136635
169	0x3d6c76bc	0.05773042
170	0xbe00ba59	-0.12571086
171	0xbfd8e29a	-1.6944153
172	0x3ec3eae0	0.38265133
173	0x3e9e1290	0.30873537
174	0x3d8a7986	0.0676146
175	0x3f04bb5b	0.5184838
176	0xbdffee0c	-0.12496576
177	0xbe1eed66	-0.15520248
178	0xbe1bb02d	-0.15203924
179	0xbd1dff12	-0.038573332
180	0xbeda0f9b	-0.4259003
181	0x3ef548c6	0.47907084
182	0x3d158566	0.03650417
183	0x3e31e5fa	0.17372885
184	0xbec3c66a	-0.38237315
185	0x3da476e1	0.08030487
186	0x3d4d08b1	0.050057117
187	0xbda23bc1	-0.079215534
188	0x3e0da253	0.13831453
189	0xbda98651	-0.08277572
190	0x3dac741e	0.08420585
191	0xbeb73054	-0.3577906
192	0x3e4a419f	0.19751595
193	0xbc2b7403	-0.010464671
194	0x3e22ff08	0.15917599
195	0x3eac7e80	0.33690262
196	0x3e3eac26	0.18620357
197	0x3da73fab	0.081664406
198	0x3e442f52	0.19158676
199	0x3e69a48c	0.22816676
200	0x3d313dce	0.043271832
201	0x3e9c456a	0.3052171
202	0x3daa9234	0.08328667
203	0x3e6675e0	0.22505903
204	0x3e86dcd1	0.26340345
205	0x3e1d5ac5	0.15366657
206	0x3e7653b3	0.24055366
207	0x3ea1c923	0.31598768
208	0xbdbf6c7d	-0.09346864
209	0x3d111298	0.035418123
210	0x3eac0df4	0.33604395
211	0x3e5fd660	0.21859121
212	0x3ea49f98	0.3215301
213	0x3e786dbf	0.24260615
214	0xbe5ccfdf	-0.21563672
215	0xbe38e606	-0.18056497
216	0xbe37340c	-0.17890948
217	0x3d43b54a	0.047780313
218	0x3b2235ff	0.0024751422
219	0x3de2baee	0.1107081
220	0xbcaae1b2	-0.020859573
221	0xbeac61e7	-0.33668444
222	0x3e2288bb	0.15872471
223	0x3e918ef0	0.28429365
224	0xbde88695	-0.113537945
225	0x3eb023ec	0.34402406
226	0x3daa0653	0.083019875
227	0x3ea56b9e	0.32308668
228	0xbdc34760	-0.09535098
229	0xbe6a3d12	-0.22874859
230	0x3db71958	0.08940381
231	0xbe9ab459	-0.3021572
232	0xbe628764	-0.2212196
233	0x3e93dcb0	0.2887931
234	0x3e519965	0.20468672
235	0xbe99b92f	-0.30024096
236	0x3e8c7b9d	0.2743806
237	0x3c9b95a8	0.01899226
238	0x3e5f5ca9	0.21812691
239	0xbe2e53a5	-0.17024095
240	0xbe44277a	-0.19155684
241	0xbdfe528f	-0.124180906
242	0x3e03927f	0.12848853
243	0xbe6395e3	-0.22225146
244	0x3d9c37f2	0.07627858
245	0xbdc514b1	-0.09623087
246	0x3d848d48	0.0647226
247	0x3dc344c4	0.095346004
248	0x3e381a0e	0.17978689
249	0xbe6419a7	-0.2227541
250	0x3e9df13c	0.3084811
251	0xbe12d1d0	-0.1433785
252	0x3ddaf774	0.10691729
253	0x3e2a5060	0.16632223
254	0x3e7aebfa	0.2450408
255	0x3e23bc7d	0.15989871

lstm.weight_hh_l0 f4 [256, 64]
0	0x3e6cb386	0.23115358
1	0xbe1f2bce	-0.15544054
2	0x3d2e13d8	0.042499393
3	0x3d8db9a8	0.06920177
4	0x3e83b98f	0.25727507
5	0xbdebc09e	-0.11511348
6	0xbd345f14	-0.044035986
7	0x3db65354	0.08902612
8	0x3e31b5ea	0.17354551
9	0x3e0c2ace	0.13688204
10	0xbbd71902	-0.0065642605
11	0xbe3e346b	-0.18574683
12	0xbe4cad6c	-0.1998803
13	0x3ddb216e	0.106997356
14	0xbdea7b47	-0.114492945
15	0x3e8bda77	0.27315113
16	0x3e592b40	0.21207905
17	0xbd6034c7	-0.054737832
18	0x3d2c5979	0.042077515
19	0x3e17edcf	0.1483681
20	0xbdaed9f6	-0.085376665
21	0x3da351c0	0.07974577
22	0xbd2e3747	-0.042533185
23	0x3e3cd704	0.18441397
24	0x3e953322	0.29140574
25	0x3e720485	0.23634537
26	0x3dc3e757	0.09565609
27	0x3daeb10f	0.08529865
28	0x3db3cbcc	0.087791055
29	0xbeaa32f2	-0.33241993
30	0x3d70b0dc	0.058762416
31	0x3e09f7f0	0.13473487
32	0x3d3a7aff	0.045527454
33	0x3d95964c	0.073040575
34	0x3dba36cb	0.09092482
35	0xbe320408	-0.1738435
36	0xbd0c86c5	-0.034308214
37	0xbe5baeb1	-0.21453358
38	0xbded8cb3	-0.11599102
39	0xbea8db51	-0.32979825
40	0x3da1946b	0.078896366
41	0xbe041352	-0.12897995
42	0x3dc25562	0.09488942
43	0xbde31a05	-0.11088947
44	0x3d4bfc38	0.04980108
45	0x3e387e04	0.18016821
46	0x3d2438d9	0.040093277
47	0x3e81c4ce	0.25345463
48	0xbe9b8f54	-0.30382788
49	0xbdc1929d	-0.094517924
50	0x3e311487	0.17292987
51	0xbeb17e12	-0.34666497
52	0x3d7c987a	0.06166885
53	0x3e503c46	0.20335492
54	0x3deb24e1	0.114816435
55	0xbcbb5c09	-0.022871034
56	0xbdde67f7	-0.108596735
57	0x3ec7b689	0.3900645
58	0xbcf1cede	-0.029517587
59	0xbe0162e7	-0.12635385
60	0x3e0e3bfb	0.13890068
61	0xbd6274d3	-0.055287194
62	0xbe140b82	-0.14457515
63	0xbdae10ff	-0.084993355
64	0xbd868f4a	-0.06570299
65	0xbd9c884d	-0.07643185
66	0x3ea2ffc6	0.31835765
67	0x3e903ea3	0.28172788
68	0x3e1329b1	0.14371373
69	0xbe3821b5	-0.17981608
70	0x3db28d13	0.08718314
71	0x3da24bb8	0.079245985
72	0x3e1a154e	0.1504719
73	0x3dbc6796	0.09199445
74	0xbdfc68f1	-0.123247035
75	0x3d8f9142	0.070101276
76	0xbe589f00	-0.21154404
77	0x3e393ecf	0.18090366
78	0xbe016f63	-0.12640147
79	0xbea89e07	-0.32933065
80	0x3e584896	0.2112144
81	0xbd17af92	-0.03703267
82	0xbdf2d176	-0.11856358
83	0x3e584117	0.2111858
84	0x3dd5c005	0.104370154
85	0xbdd956e0	-0.10612273
86	0xbe179317	-0.14802204
87	0x3caf6b67	0.021413518
88	0x3ec49eac	0.38402307
89	0x3dacf7f8	0.08445734
90	0xbd9d1134	-0.07669297
91	0x3dfa0a8e	0.122090444
92	0x3e6f8566	0.23390731
93	0xbb83e447	-0.0040250155
94	0x3d14cc9e	0.03632795
95	0x3e36af23	0.17840247
96	0x3b90c214	0.004417667
97	0x3e3f923c	0.18708128
98	0x3d73ffa4	0.05956997
99	0xbe089175	-0.13336737
100	0xbc281905	-0.010259871
101	0xbe367bb2	-0.17820624
102	0xbe1b5284	-0.15168196
103	0x3da94906	0.08265881
104	0x3e3b295f	0.182775
105	0xbd6c8790	-0.05774647
106	0xbde9cd1e	-0.11416076
107	0x3dd03d3a	0.10167928
108	0xbb098765	-0.0020985242
109	0x3e1c740f	0.15278648
110	0x3e5de7b3	0.21670417
111	0xbdfa668f	-0.12226593
112	0xbe716a53	-0.23575716
113	0xbdfa922c	-0.12234911
114	0xbcd3dd58	-0.02586238
115	0xbe6e584f	-0.23275875
116	0x3d1e63b0	0.03866929
117	0xbd0032dc	-0.031298503
118	0x3e917121	0.28406623
119	0x3e1cb702	0.15304187
120	0xbd347cc3	-0.044064295
121	0x3eb7efcb	0.35925135
122	0x3d2548b3	0.040352535
123	0xbe24e352	-0.16102341
124	0x3e1d0bfe	0.15336606
125	0xbe2d1c9b	-0.16905443
126	0x3d9868e4	0.07441881
127	0xbda966b1	-0.0827154
128	0x3e028188	0.12744725
129	0x3dad7cbe	0.08471058
130	0x3de01bd4	0.10942808
131	0x3e747362	0.2387214
132	0x3e2549a9	0.1614138
133	0xbe92d46b	-0.28677687
134	0xbe857d9f	-0.26072404
135	0x3e67cbb5	0.22636302
136	0x3e650e83	0.22368817
137	0xbcf69e0a	-0.030104656
138	0xbda2c3c3	-0.07947495
139	0x3dfb31bb	0.12265345
140	0xbdaea236	-0.08527033
141	0x3d8b975b	0.06815978
142	0xbe0aba1d	-0.13547559
143	0x3dc4a45b	0.09601661
144	0x3e23206b	0.15930335
145	0xbe745661	-0.23861076
146	0xbcba7f73	-0.02276585
147	0x3e65206e	0.22375652
148	0x3d470626	0.048589848
149	0x3d8314cb	0.0640045
150	0xbd5e3ad7	-0.054255333
151	0x3e162175	0.146612
152	0x3e47dd20	0.19517946
153	0x3dc923cf	0.09821283
154	0xbc77f74c	-0.015134644
155	0x3e9c2677	0.30498096
156	0xbd432708	-0.047644645
157	0xbed05913	-0.40692958
158	0x3dff34ef	0.12461268
159	0x3da95cfc	0.082696885
160	0xbdc37e9b	-0.095456325
161	0x3e18a360	0.14906073
162	0x3e58df20	0.21178865
163	0xbe11bf37	-0.14233099
164	0x3b7a33cd	0.0038177848
165	0xbe2c5b62	-0.16831735
166	0xbd4ce6e4	-0.050024882
167	0xbedd9c80	-0.43283463
168	0x3e4d2e32	0.20037153
169	0xbe3006f1	-0.17190148
170	0xbd02b4e8	-0.031910807
171	0xbd81985d	-0.06327889
172	0x3da4f880	0.0805521
173	0x3db92eae	0.090421066
174	0x3e878610	0.2646947
175	0x3c2f623b	0.010704572
176	0xbd17d908	-0.03707221
177	0x3c304a64	0.010759924
178	0xbe203db2	-0.15648535
179	0x3d802978	0.062579095
180	0xbb0be6a0	-0.002134718
181	0x3dbaf4ab	0.09128698
182	0x3ce8710c	0.028374217
183	0x3e8b112c	0.2716154
184	0xbd23f5e2	-0.040029414
185	0x3e7f1c5a	0.24913159
186	0xbbfc6ab8	-0.0077031516
187	0xbf1591b6	-0.5842546
188	0xbc219a07	-0.009863383
189	0xbe0bb9c2	-0.1364508
190	0x3da84c3b	0.08217665
191	0xbe9d032b	-0.3066648
192	0x3db6561a	0.08903141
193	0xbe6ca621	-0.23110248
194	0xbd27f85f	-0.04100835
195	0x3cce683c	0.025196187
196	0x3d36e0d3	0.044648003
197	0x3dabc8ec	0.08387932
198	0x3c34b71c	0.011029985
199	0xbdd1f718	-0.102522075
200	0xbd7b275f	-0.061316844
201	0xbc898c4b	-0.01679053
202	0x3d277dd0	0.04089147
203	0x3dd53f91	0.10412515
204	0x3b6a01f0	0.0035706721
205	0x3cf56dc4	0.029959567
206	0x3d908213	0.0705606
207	0x3dd6c305	0.10486416
208	0x3baf2392	0.0053448165
209	0xbdb8d582	-0.090250984
210	0xbe1ae467	-0.15126191
211	0x3ccb4a73	0.024815774
212	0x3d45d1e3	0.048295867
213	0x3d09d36d	0.033648897
214	0xbe70a0bc	-0.23498815
215	0x3e96eec7	0.29479048
216	0xbd2b7329	-0.041857872
217	0x3e0a4ec0	0.13506603
218	0x3d224e72	0.039625593
219	0x3db21f3c	0.08697364
220	0x3e0d6a16	0.1381
221	0xbe7dcf52	-0.24786118
222	0xbcc2aeaa	-0.023764927
223	0xbbc99620	-0.0061519295
224	0x3daecce2	0.08535172
225	0xbd3482a8	-0.044069916
226	0x3e044909	0.12918486
227	0x3d1ff427	0.0390512
228	0xbd69d2e5	-0.05708589
229	0xbe51c66c	-0.20485848
230	0xbdee3509	-0.116312094
231	0xbe342474	-0.17592031
232	0xbd44c9ce	-0.04804402
233	0x3d32b174	0.043626264
234	0xbdf2387b	-0.11827179
235	0xbd0e6201	-0.034761433
236	0x3e6ced3a	0.2313737
237	0xbd2b5aea	-0.04183475
238	0xbe203d17	-0.15648304
239	0x3eb11f7d	0.34594336
240	0xbccb8c86	-0.02484728
241	0xbc8109d6	-0.01575176
242	0x3daa7ce2	0.08324601
243	0xbe1a8504	-0.15089804
244	0xbdb72586	-0.08942704
245	0x3d94192b	0.07231363
246	0x3d43d4e1	0.04781044
247	0x3ded1509	0.11576278
248	0xbdb35771	-0.087569125
249	0x3e0d4b1f	0.13798188
250	0x3dcea92a	0.10090859
251	0xbdb19956	-0.08671825
252	0x3dd19364	0.10233191
253	0xbcbe8ca1	-0.023260416
254	0xbdf6ad15	-0.120447315
255	0xbc6ea2c9	-0.014565178

lstm.bias_ih_l0 f4 [256]
0	0x3df57bc6	0.119864985
1	0x3db1569f	0.086591
2	0x3d2f58c1	0.04280925
3	0xbda336bf	-0.07969426
4	0x3e4e9b81	0.20176508
5	0xbc4a8f8d	-0.012363327
6	0x3e3eb540	0.18623829
7	0x3c182da5	0.009288226
8	0x3e829930	0.25507498
9	0x3e3d0b8d	0.18461438
10	0xbdfd3090	-0.12362778
11	0x3e67def3	0.22643642
12	0x3d0e8fe8	0.03480521
13	0x3e035723	0.12826209
14	0x3dee553a	0.116373494
15	0x3e0859ce	0.13315508
16	0x3e40c5b5	0.18825419
17	0x3e241041	0.16021825
18	0x3e45cbff	0.193161
19	0xbc8f81d0	-0.017517954
20	0xbda4a709	-0.08039672
21	0x3d14b553	0.036305737
22	0x3ddeaef9	0.10873217
23	0x3db866f2	0.0900401
24	0x3e159a57	0.14609657
25	0x3e315b73	0.17320041
26	0x3d4df98f	0.050286826
27	0x3d920c8a	0.07131298
28	0xbc860ace	-0.016362574
29	0x3e7eb814	0.24874908
30	0x3e9266db	0.28594097
31	0xbddea22b	-0.10870775
32	0xbd14c60f	-0.036321696
33	0x3e05b2af	0.13056444
34	0x3d3400c1	0.04394603
35	0xbde41d91	-0.11138452
36	0x3e1f613c	0.15564436
37	0xbdab69bd	-0.08369777
38	0x3a320386	0.0006790686
39	0xbdb24347	-0.087042384
40	0x3df63b4c	0.12023029
41	0xbcec0fc3	-0.02881611
42	0xbd4e17b7	-0.050315585
43	0x3f2b8eea	0.67014945
44	0x3d46afcd	0.0485075
45	0x3e8a7978	0.27045798
46	0x3ccce5ab	0.025011858
47	0x3dd9fddf	0.10644125
48	0xbd20d231	-0.039262954
49	0x3d8aadc8	0.067714274
50	0xbce5ec5f	-0.028066812
51	0xbe056be4	-0.13029438
52	0xbe0875c9	-0.13326181
53	0x3e9b4922	0.30329233
54	0x3dc42434	0.09577218
55	0x3d322256	0.043489777
56	0x3e457924	0.19284493
57	0xbd52663a	-0.051367022
58	0x3d4c236a	0.04983846
59	0x3da2f7e9	0.07957441
60	0xbcc14a51	-0.023595007
61	0x3df3a3d0	0.11896479
62	0xbe7e1f6c	-0.24816674
63	0x3d016839	0.031593535
64	0xbd6ea3c4	-0.058261648
65	0x3e119d3c	0.14220136
66	0xbd95b3c3	-0.073096775
67	0x3df9c0a7	0.12194949
68	0x3d9740e5	0.073854245
69	0x3dac3fa1	0.08410574
70	0x3dbfd356	0.09366481
71	0x3ddc2819	0.107498355
72	0x3dbb8a32	0.09157218
73	0x3da7ea81	0.08199025
74	0xbe16a070	-0.1470964
75	0x3e0ec0c9	0.13940729
76	0x3d3b6a29	0.04575554
77	0x3d8cfe5a	0.06884451
78	0x3c053bfc	0.008131977
79	0xbdbeb677	-0.09312146
80	0x3d573f38	0.052550524
81	0xbc903f3c	-0.017608277
82	0xbdc6f684	-0.09714988
83	0xbdef0ef1	-0.11672772
84	0x3d38d2d8	0.04512295
85	0x3d9b54e5	0.07584552
86	0xbde24039	-0.11047406
87	0xbbd8edf7	-0.0066201645
88	0x3e55cf4a	0.20879856
89	0x3df47133	0.119356535
90	0x3dcd2e09	0.10018546
91	0x3c960e09	0.01831724
92	0x3e576a97	0.21036755
93	0x3dbbc0d0	0.091676354
94	0xbe33807b	-0.1752948
95	0x3d88f054	0.06686464
96	0xbd9a31de	-0.07529043
97	0x3c155973	0.009115565
98	0xbd2efc5c	-0.042721137
99	0x3cadd907	0.02122165
100	0x3cfb7955	0.030697504
101	0xbe0c1e13	-0.13683347
102	0xbd32508b	-0.043533843
103	0x3b8c7517	0.004286419
104	0xbdc0de38	-0.09417385
105	0x3b2a0788	0.002594443
106	0x3e013a5d	0.1261992
107	0xbe843acd	-0.2582611
108	0xbdedfd5c	-0.1162059
109	0x3e448c1d	0.19194074
110	0x3dc9be4a	0.09850748
111	0x3dcbb1a0	0.09945989
112	0x3d8798b5	0.066209234
113	0x3cb2bee3	0.021819538
114	0xbc3d5b7e	-0.011557458
115	0xbdb545c4	-0.08851197
116	0xbdf028ca	-0.1172653
117	0x3dd22e73	0.10262766
118	0x3db0fa56	0.08641498
119	0x3c1988a1	0.009370954
120	0x3dc7a513	0.09748282
121	0x3e0b6a79	0.13614835
122	0xbe5d575c	-0.21615356
123	0x3df558fd	0.11979864
124	0x3ce7d559	0.028299974
125	0x3d45a8a9	0.04825655
126	0x3d9f0a6d	0.077656604
127	0x3e28fbb6	0.1650227
128	0x3cae4473	0.021272874
129	0x3e49fb7e	0.19724843
130	0xbdb6824d	-0.08911572
131	0xbe5a961a	-0.21346322
132	0x3e029183	0.12750821
133	0x3dfb3176	0.12265293
134	0xbe4772bb	-0.1947736
135	0x3e7607be	0.24026391
136	0x3e719891	0.23593356
137	0x3e0591c2	0.13043883
138	0xbda117a4	-0.07865837
139	0xbd216204	-0.039400116
140	0x3e50a892	0.20376804
141	0xb99199fd	-0.00027771285
142	0xbd35487f	-0.04425859
143	0x3dc9a3b2	0.098456755
144	0x3e675a46	0.2259303
145	0xbe0db8ff	-0.13840102
146	0x3d9420d1	0.07232822
147	0x3d1114ef	0.035420354
148	0x3cdf2da0	0.027243435
149	0x3e2bc3a9	0.16773857
150	0xbd8ef9f4	-0.069812685
151	0xbdb69be6	-0.08916454
152	0xbd90ceba	-0.0707068
153	0x3de7851b	0.11304685
154	0x3da97d01	0.08275796
155	0x3dca447d	0.09876344
156	0xbd1a624d	-0.037691403
157	0xbe90494f	-0.2818093
158	0x3e061677	0.13094507
159	0x3c01056c	0.007874828
160	0xbe73a433	-0.23793106
161	0xbe327b6c	-0.17429894
162	0x3e137547	0.14400207
163	0x3d089c17	0.033351984
164	0x3d18077a	0.037116505
165	0xbb2fd0f6	-0.0026827431
166	0xbda92d4e	-0.08260594
167	0x3d9f7932	0.07786788
168	0xbbc917d9	-0.006136876
169	0xbdb011b2	-0.08597125
170	0xbda3e877	-0.080033235
171	0x3dd9dcef	0.10637843
172	0xbb473d7f	-0.0030401645
173	0x3db29aa4	0.087209016
174	0x3d82f18f	0.0639373
175	0xbe57a1e2	-0.21057847
176	0xbc25f4af	-0.010129138
177	0xbc934c23	-0.01798064
178	0x3cac741f	0.021051465
179	0x3d54b732	0.05193252
180	0x3e29b3d0	0.165725
181	0x3e8a22b4	0.269796
182	0xbd806901	-0.06270028
183	0xbe126f3c	-0.14300245
184	0xbdd41440	-0.10355425
185	0x3c8b6254	0.01701466
186	0x3e3e3fbd	0.18579002
187	0x3d8dbd8e	0.0692092
188	0xbe312fd2	-0.17303398
189	0xbd732681	-0.059362892
190	0xbd771cfa	-0.06033037
191	0xbe0cb8d5	-0.13742383
192	0x3ea45b7d	0.3210105
193	0xbd1350cd	-0.03596573
194	0xbcc3fc4e	-0.02392402
195	0xbe4038d3	-0.18771677
196	0x3e5eb506	0.21748742
197	0x3da21415	0.079139866
198	0x3e03923f	0.12848757
199	0xbddcce4d	-0.10781536
200	0x3d6aea5f	0.05735242
201	0xbc0a888e	-0.008455409
202	0x3e124c56	0.14286932
203	0xbc1e08fa	-0.009645695
204	0x3e386820	0.1800847
205	0xbd4b04e3	-0.049565207
206	0x3db0c48c	0.08631238
207	0x3dc5138b	0.09622868
208	0x3dc8a12c	0.09796366
209	0x3cb85ca0	0.022505105
210	0x3e52e1c8	0.20593941
211	0xbd1ce7ac	-0.038306877
212	0x3d0df559	0.03465781
213	0x3d2912a1	0.04127753
214	0x3da13f58	0.0787341
215	0x3d91ec73	0.07125177
216	0x3d48b9b2	0.049005218
217	0x3c975959	0.018475221
218	0x3e4760af	0.19470476
219	0x3cddf361	0.027093591
220	0x3e0aa280	0.13538551
221	0x3eb346a7	0.3501484
222	0x3ea5b651	0.3236566
223	0xbe0b4d84	-0.13603789
224	0x3e26601e	0.16247603
225	0xbe06a715	-0.13149674
226	0x3dfd30f7	0.12362855
227	0xbddda171	-0.10821808
228	0x3de01081	0.10940648
229	0x3e1760f3	0.14783077
230	0x3e0c8817	0.13723789
231	0x3e95553e	0.29166597
232	0x3e304b31	0.17216183
233	0xb9cbc7d2	-0.00038868055
234	0x3dbec07f	0.093140595
235	0x3ef3efcf	0.47643897
236	0x3e1b1dbc	0.15148062
237	0x3dea2c4f	0.114342324
238	0xbd3fc8a8	-0.04682222
239	0x3e219902	0.15781024
240	0x3e0db99c	0.13840336
241	0x3e0798fa	0.1324195
242	0x3e32f96a	0.17477956
243	0x3d1ca426	0.03824248
244	0x3e62c974	0.22147161
245	0x3e6cf3e8	0.23139918
246	0x3e62a9f4	0.22135144
247	0x3e9e1c1a	0.30880815
248	0x3e2fa774	0.17153722
249	0x3daa9fa8	0.08331233
250	0x3d1b3dde	0.037900798
251	0x3e44a139	0.19202127
252	0xbd7b9bf5	-0.06142803
253	0x3d2b0f45	0.04176261
254	0xbe5f5404	-0.21809393
255	0x3e947ae6	0.29000014

lstm.bias_hh_l0 f4 [256]
0	0x3e4c5fc3	0.19958405
1	0x3d987b49	0.0744539
2	0x3d676529	0.05649296
3	0x3d9b8fdd	0.07595799
4	0x3e191286	0.14948472
5	0x3d3be6b0	0.045874298
6	0x3c444cca	0.011981199
7	0x3db8f577	0.09031194
8	0x3dc1ab4f	0.09456503
9	0x3e5b47b6	0.21414074
10	0x3cb9c143	0.022675162
11	0x3e3bb0b8	0.18329132
12	0x3e2dfce7	0.16991006
13	0x3b2b581d	0.002614505
14	0x3df17889	0.117905684
15	0x3e121fa2	0.1426988
16	0x3dedc8db	0.11610576
17	0x3d0ccec0	0.03437686
18	0x3de337bb	0.11094614
19	0x3da0ab40	0.07845163
20	0xbcf4f6b0	-0.029902786
21	0x3d7ccb25	0.06171717
22	0x3d37a792	0.044837542
23	0xbbd40b5d	-0.006471081
24	0x3e097675	0.13424094
25	0x3dc67973	0.09691133
26	0xbcdbd74d	-0.026836062
27	0x3dc2fedd	0.095212676
28	0xbccedafa	-0.0252509
29	0x3e947fb7	0.2900369
30	0x3e729240	0.23688602
31	0x3dbbf7ca	0.091781214
32	0x3dcf4ecc	0.10122451
33	0x3d8d1cdf	0.06890272
34	0x3d6bf05b	0.057602268
35	0xbc666ae4	-0.014063571
36	0x3e695574	0.22786504
37	0xbd8fe3f1	-0.07025898
38	0x3ce96cd3	0.028494274
39	0xbe0cc2f7	-0.13746248
40	0x3ced795a	0.028988529
41	0xbb0a474c	-0.0021099625
42	0x3d72d2d2	0.059283085
43	0x3f17647b	0.59137696
44	0x3de887dc	0.11354038
45	0x3e7e100f	0.24810813
46	0x3d724532	0.05914802
47	0x3dc91b36	0.09819643
48	0xbdbaf2f9	-0.091283746
49	0xbd71e436	-0.05905553
50	0xbd8eb9f7	-0.06969064
51	0xbd6d6131	-0.057954017
52	0xbcf985f4	-0.030459382
53	0x3efa68e0	0.48908138
54	0xbd290936	-0.04126855
55	0x3d9a375e	0.07530092
56	0x3e324478	0.17408931
57	0x3ce03b23	0.027371949
58	0x3e70bf61	0.23510505
59	0x3dc9099c	0.09816286
60	0x3e0062cb	0.12537687
61	0x3dd6bcea	0.10485251
62	0xbe0f992a	-0.14023271
63	0x3d28c446	0.041202806
64	0xbd8d681c	-0.06904623
65	0x3cb157bd	0.021648282
66	0xbccc3f48	-0.024932519
67	0x3e1c65d2	0.15273216
68	0xbd0b7a01	-0.0340519
69	0x3de8b492	0.11362566
70	0x3d34c34a	0.044131555
71	0x3e0a2adc	0.13492912
72	0x3e63d6be	0.22249886
73	0xbb972ad8	-0.0046132617
74	0xbdece00d	-0.11566172
75	0x3d92a6f5	0.07160751
76	0xbaedeef7	-0.0018152882
77	0x3e448fd1	0.19195487
78	0xbdb2c965	-0.08729819
79	0xbe10bb20	-0.14133883
80	0x3d9a8e31	0.07546652
81	0x3bbdeef7	0.005796309
82	0xbdc3db6b	-0.09563335
83	0xbc0ec954	-0.008714993
84	0xbb2126a8	-0.0024589691
85	0x3db28669	0.08717043
86	0xbc8322e5	-0.01600785
87	0x3dc53923	0.096300386
88	0x3d038bc1	0.0321157
89	0x3d92f0b8	0.0717482
90	0x3de61fca	0.11236532
91	0xbda6ad67	-0.081385426
92	0x3e46f468	0.19429171
93	0x3d8783b2	0.06616916
94	0xbce93a3e	-0.028470155
95	0x3e1c4182	0.15259364
96	0xbdfdbf7b	-0.123900376
97	0xbe2b9e1b	-0.16759531
98	0x3d424d18	0.047436804
99	0xbbf9b8f6	-0.007620926
100	0xbe04f4a2	-0.12983945
101	0x3a80e3bd	0.0009833496
102	0xbe06dd65	-0.13170393
103	0xbd954acc	-0.07289657
104	0xbd5f75e8	-0.054555804
105	0xbc498720	-0.012300283
106	0x3dbc4218	0.09192294
107	0xbe744fd5	-0.23858579
108	0xbcaf2cc3	-0.021383649
109	0x3d6e12b4	0.058123305
110	0x3c565a08	0.013082989
111	0xbd40dc14	-0.047084883
112	0x3d022e28	0.0317823
113	0x3b40d897	0.0029425973
114	0x3d39cca0	0.04536116
115	0xbc63cfef	-0.013904556
116	0xbcb9d665	-0.02268524
117	0x3d695777	0.05696818
118	0xbd161685	-0.03664257
119	0xbc9a2599	-0.018816756
120	0x3dacbed4	0.08434835
121	0xbd945e1d	-0.07244513
122	0x3c10b3f0	0.008831963
123	0xbc997263	-0.018731302
124	0x3dbe3f4d	0.092894174
125	0x3ddecd23	0.108789705
126	0xbd825046	-0.06362967
127	0x3de7eb56	0.11324184
128	0xbdda15a9	-0.106486626
129	0x3df651dc	0.12027332
130	0xbe253535	-0.16133578
131	0xbe4d425c	-0.20044845
132	0x3e27573a	0.16341868
133	0xbd610f63	-0.054946315
134	0xbe0e6ae1	-0.13907959
135	0x3e5dc446	0.21656904
136	0x3dbecea8	0.0931676
137	0x3d2c9d57	0.04214224
138	0xbd479443	-0.048725378
139	0xbe01445c	-0.12623733
140	0x3cad16d0	0.021129042
141	0xbd615e75	-0.055021722
142	0x3de50e63	0.11184385
143	0x3e3834a2	0.17988828
144	0x3e7279c8	0.23679268
145	0xbdf44c66	-0.11928634
146	0xbba2e8c5	-0.004971596
147	0xbddda6d1	-0.10822833
148	0xbe080ebc	-0.1328687
149	0x3e4bc043	0.19897561
150	0x3dc6285e	0.09675668
151	0xbd696b88	-0.056987315
152	0xbb3c5cf2	-0.0028741923
153	0x3e61c066	0.2204605
154	0x3daa154b	0.083048426
155	0x3e114126	0.14185008
156	0xbcccadc2	-0.024985198
157	0xbe0503b1	-0.1298969
158	0xbd0e83d2	-0.034793682
159	0x3c543b9f	0.012953668
160	0xbdfe18dd	-0.12407086
161	0xbe615d10	-0.22008157
162	0x3e11b4db	0.14229147
163	0xbd310150	-0.043214142
164	0x3e26a647	0.16274367
165	0x3df67dc7	0.12035709
166	0xbd8cdc3f	-0.06877946
167	0xbda46d3e	-0.08028649
168	0xbcfd3262	-0.030907813
169	0xbe0bdb37	-0.13657843
170	0xbdbfab04	-0.093587905
171	0x3dd3a130	0.103334785
172	0xbd21bb6c	-0.03948538
173	0x3dfa4ae8	0.122213185
174	0x3d4ff9cd	0.050775338
175	0x3c743330	0.014904782
176	0x3dd89eb1	0.10577143
177	0xbd709919	-0.058739755
178	0x3d973e9b	0.07384988
179	0xbccfad8a	-0.025351305
180	0x3e3c4bc0	0.18388271
181	0x3e81f9ce	0.25385898
182	0xbe68ce7d	-0.22735019
183	0xbe05da59	-0.13071574
184	0x3d43cd15	0.047803003
185	0x3c4855b3	0.012227464
186	0x3d266459	0.040623043
187	0x3dd0dac6	0.10197978
188	0xbdd80667	-0.10548096
189	0xbd0898d6	-0.03334888
190	0xbd9157ea	-0.070968464
191	0xbba28968	-0.0049602278
192	0x3ea5fc1a	0.324189
193	0x3de0b81b	0.10972615
194	0xbdb118bf	-0.08647298
195	0xbd1873a9	-0.037219677
196	0x3e4b249c	0.19838184
197	0x3d7db9f7	0.061944928
198	0x3ea89847	0.32928678
199	0xbd4b7eb8	-0.049681395
200	0x3dcc7c91	0.09984697
201	0xbce863c2	-0.02836788
202	0x3d5d50bd	0.054032076
203	0xbda04a60	-0.07826686
204	0x3e0843b6	0.1330708
205	0x3debba32	0.11510123
206	0x3d83f2e9	0.06442816
207	0x3d029acd	0.03188591
208	0x3da4823e	0.08032654
209	0x3e292c31	0.16520764
210	0x3e83eabe	0.25765032
211	0x3ddc7f2e	0.10766445
212	0x3b330ba4	0.002732017
213	0xbc5b4ce0	-0.013385028
214	0x3e57994a	0.21054569
215	0x3e1b5855	0.15170415
216	0x3d8631dc	0.06552479
217	0xbd50d0a8	-0.05098024
218	0x3e3ef0d2	0.18646553
219	0x3dbc1169	0.09183008
220	0xbd359a88	-0.044336826
221	0x3e63f256	0.22260413
222	0x3e841390	0.25796175
223	0xbd0be888	-0.034157306
224	0x3decd8bf	0.115647785
225	0x3b4e9376	0.0031521
226	0x3d15fcba	0.036617972
227	0xbbdc95b4	-0.006731713
228	0x3dba70ae	0.09103523
229	0x3d05ac4e	0.032635026
230	0x3e1af82e	0.15133736
231	0x3e95b532	0.29239804
232	0x3d97ca45	0.07411627
233	0xbd0b0d30	-0.033948123
234	0xbd61e8cc	-0.055153653
235	0x3eca6c91	0.39535955
236	0x3e08caad	0.13358565
237	0x3d096894	0.033547
238	0xbe16c430	-0.14723277
239	0x3e8f50b9	0.27991274
240	0x3da308eb	0.07960685
241	0x3c5a44ac	0.013322037
242	0x3dd8880b	0.10572823
243	0x3e1a4fea	0.15069547
244	0x3d597952	0.053094216
245	0x3e3f25aa	0.18666711
246	0x3d56b793	0.052421164
247	0x3e844f1c	0.25841606
248	0x3e3ed399	0.18635406
249	0xbc4a08a4	-0.012331162
250	0xbbfd9ec1	-0.007739872
251	0x3e0c3547	0.13692199
252	0xbc8e77cb	-0.017391106
253	0x3e00ccae	0.12578079
254	0xbc935c62	-0.017988387
255	0x3e68377e	0.22677419

lstm.weight_ih_l1 f4 [256, 64]
0	0xbcea76db	-0.028621128
1	0xbda55c93	-0.08074298
2	0xbdbe8460	-0.09302592
3	0xbdab1bd1	-0.08354915
4	0x3d7627e4	0.060096636
5	0xbd735dbe	-0.05941557
6	0xbd53d76f	-0.051719125
7	0x3b123c52	0.0022313786
8	0x3c3ada7d	0.011404631
9	0x3e392c86	0.1808339
10	0xbd58fc3d	-0.05297493
11	0xbd1abc78	-0.037777394
12	0xbe0d2bdf	-0.13786267
13	0xbd299644	-0.04140307
14	0x3d01803b	0.03161643
15	0x3cb8e98e	0.022572305
16	0xbc2142ea	-0.009842614
17	0x3c45cf37	0.01207333
18	0xbd796656	-0.06088861
19	0x3e38c8e3	0.18045382
20	0x3d24bd09	0.04021934
21	0x3e11b8bf	0.14230631
22	0x3db6c522	0.08924319
23	0x3e0ff76a	0.14059225
24	0x3cdf6681	0.027270557
25	0x3d127391	0.035754744
26	0xbe2cd9b3	-0.1687992
27	0x3c0ad55b	0.0084737195
28	0xbe19f423	-0.15034537
29	0xbdb30cd6	-0.08742683
30	0x3de2c94f	0.11073553
31	0xbde7b948	-0.113146365
32	0xbdfea0fa	-0.124330476
33	0x3d76df15	0.06027134
34	0xbd96b838	-0.07359356
35	0x3d8b6249	0.06805856
36	0x3d089867	0.033348467
37	0xbddf9c26	-0.10918455
38	0xbdd5991f	-0.10429596
39	0xbc8213e6	-0.015878629
40	0x3ca50228	0.02014263
41	0xbe2d7653	-0.16939668
42	0x3db48677	0.0881471
43	0xbe833aab	-0.25630698
44	0x3d6a5662	0.057211287
45	0x3d86e364	0.0658634
46	0x3dcfa533	0.10138931
47	0x3d7fbc9a	0.062435724
48	0x3d8c6446	0.06855063
49	0xbe0ee072	-0.13952807
50	0xbc999195	-0.018746177
51	0x3de39cac	0.11113867
52	0xbcd76ea0	-0.026297867
53	0x3dce520b	0.10074242
54	0xbd8ed610	-0.06974423
55	0x3daaee3c	0.08346221
56	0x3d80841b	0.06275197
57	0xbc4ee374	-0.012627471
58	0xbe02e0b2	-0.12781027
59	0x3d48a8f5	0.048989255
60	0xbdb9abef	-0.09065997
61	0xbd6b6ccc	-0.057476804
62	0xbe8c6cb8	-0.27426696
63	0xbe1c3ea7	-0.15258275
64	0xbe09cc2f	-0.13456796
65	0x3b73248d	0.0037100643
66	0x3d544493	0.05182321
67	0xbd2de3a3	-0.04245342
68	0xbcd7357b	-0.026270619
69	0xbd16f45d	-0.036854137
70	0xbcbbd448	-0.022928372
71	0xbd88c5f1	-0.06678379
72	0x3c5ed31b	0.013600136
73	0x3e26a17b	0.16272537
74	0x3e270f67	0.1631447
75	0x3d776d3d	0.060406912
76	0x3dea84ae	0.11451088
77	0xbdbf9ef4	-0.0935649
78	0xbcb696f5	-0.022288779
79	0x3ea4db4a	0.32198554
80	0xbd8fec53	-0.07027497
81	0x3dce9b8e	0.100882635
82	0x3da01b69	0.07817728
83	0xbc96f96e	-0.018429484
84	0xbd2e737e	-0.04259061
85	0x3de4f3ee	0.111793384
86	0x3db2d4d0	0.08731997
87	0x3e247173	0.16058902
88	0x3e19f7a4	0.15035874
89	0x3dca0b25	0.09865407
90	0xbe8265f7	-0.25468418
91	0xbdb63ee7	-0.088987164
92	0x3e0101b4	0.12598306
93	0xbcfa1489	-0.03052737
94	0x3d0e2472	0.034702726
95	0xbbb28da8	-0.0054490156
96	0xbe5ae2f6	-0.21375641
97	0x3e18e043	0.14929299
98	0xbd3ae59b	-0.045629125
99	0x3d8e1bd8	0.069389045
100	0x3cbb8337	0.022889717
101	0x3ded7f99	0.11596603
102	0x3db16948	0.08662659
103	0x3e817be3	0.2528983
104	0xbdf0a35f	-0.117499106
105	0xbdf22c7b	-0.1182489
106	0x3d77243c	0.06033729
107	0xbdf948da	-0.121720985
108	0xbceb1021	-0.028694214
109	0x3dbc75ae	0.09202133
110	0x3c0f55b2	0.008748459
111	0xbc93c61c	-0.018038802
112	0xbb85be4b	-0.0040815226
113	0xbdbe2a8a	-0.092854574
114	0x3e6bb2dc	0.23017448
115	0xbd88f24b	-0.06686839
116	0x3df32fb4	0.11874333
117	0xbc83a6db	-0.016070774
118	0xbd3ae5a2	-0.04562915
119	0x3e04e900	0.12979507
120	0xbe19a86d	-0.15005656
121	0x3cfbfadc	0.030759268
122	0xbda342b4	-0.07971707
123	0xbe3cf84d	-0.18454094
124	0xbce7addf	-0.02828115
125	0x3d473275	0.048632104
126	0xbd044c8d	-0.032299567
127	0xbe0a6ec4	-0.13518816
128	0x3d2c7117	0.04210004
129	0xbe840a60	-0.25789165
130	0x3c2629d1	0.010141806
131	0xbe1d61b2	-0.15369299
132	0x3e0c7cbc	0.13719457
133	0x3df73f84	0.120726615
134	0x3ac167f0	0.0014755707
135	0x3d2ca7e3	0.042152297
136	0x3d03a88c	0.03214316
137	0x3f151247	0.58231014
138	0x3c62aaa7	0.013834632
139	0x3db41dcf	0.08794748
140	0xbe4b0adb	-0.1982836
141	0xbcff3ff6	-0.031158429
142	0xbe2b1fec	-0.16711396
143	0x3f5e6b7f	0.86882776
144	0x3e0ed5ae	0.139487
145	0x3c49fd8c	0.012328517
146	0xbd2356f3	-0.039877843
147	0x3ddddc48	0.10833031
148	0x3aefc6ff	0.0018293558
149	0x3caf344c	0.021387242
150	0xbd0cbf1e	-0.03436195
151	0x3e1cf0f9	0.15326299
152	0x3e09a68e	0.13442442
153	0x3e397906	0.18112573
154	0xbe7d3e6d	-0.24730845
155	0xbe04e324	-0.12977272
156	0x3d0093c2	0.031390913
157	0x3df0da62	0.11760403
158	0x3cfaf16a	0.030632693
159	0xbcf8a8de	-0.03035396
160	0xbe3cfc7e	-0.18455693
161	0xbd619ac7	-0.055079248
162	0xbdca49b2	-0.098773375
163	0xbcf426cc	-0.029803656
164	0xbde0a1b2	-0.10968341
165	0xbe9abccd	-0.3022217
166	0xbd798502	-0.06091786
167	0xbe713515	-0.23555405
168	0x3d38e4cd	0.045140076
169	0x3d8c7f58	0.068602264
170	0xbc31405e	-0.010818569
171	0x3e1b56a9	0.15169777
172	0x3eb0c5f8	0.34526038
173	0xbb9bbfcc	-0.0047530886
174	0xbd11ccce	-0.035595708
175	0xbe0e03c3	-0.13868622
176	0x3d13cb95	0.036082823
177	0xbe32c8d0	-0.17459416
178	0x3c8111ce	0.01575556
179	0xbe1de10c	-0.1541788
180	0xbdf4c564	-0.11951712
181	0x3dcbd5f4	0.09952918
182	0xbc95bc9c	-0.018278413
183	0x3e015f5f	0.12634037
184	0xbdc48703	-0.09596064
185	0x3b971695	0.0046108463
186	0xbce62b35	-0.028096775
187	0xbe8f10c8	-0.2794249
188	0x3deeac1a	0.116539195
189	0x3dfb5b7f	0.12273311
190	0xbe871009	-0.2637942
191	0xbe0b9289	-0.13630117
192	0x3e34c62d	0.17653723
193	0x3d9e9ae7	0.07744389
194	0xbe1bb085	-0.15204056
195	0xbd3f5824	-0.046714917
196	0x3e7827b3	0.24233894
197	0x3d42657e	0.04746007
198	0x3dae3b92	0.08507456
199	0x3d9425b7	0.07233756
200	0xbd75723e	-0.059923403
201	0x3e14240c	0.14466876
202	0xbea15f57	-0.3151805
203	0xbdd19a6f	-0.10234534
204	0x3e0822f5	0.13294585
205	0xbb934b76	-0.0044950796
206	0x3b15b2d9	0.0022842197
207	0x3ded3b5b	0.11583587
208	0x3d524a91	0.051340643
209	0x3c172354	0.0092247315
210	0xbc942d07	-0.018087877
211	0x3c5d45f3	0.013505447
212	0xbe2af43a	-0.16694728
213	0x3de78c61	0.11306072
214	0xbe2a1557	-0.16609703
215	0x3b25f8d7	0.0025325322
216	0x3e5540a3	0.20825438
217	0x3c0427cb	0.008066128
218	0x3e4aef64	0.19817883
219	0xbe459044	-0.19293314
220	0x3d23801d	0.0399171
221	0xbeb931db	-0.3617085
222	0x3da7ced1	0.08193744
223	0x3d8817d0	0.06645167
224	0xbc9ed38c	-0.019387983
225	0xbe369ce7	-0.17833291
226	0xbe023e5e	-0.12719104
227	0xbd1ce41a	-0.038303472
228	0xbd661a81	-0.05617762
229	0xbd942df4	-0.07235327
230	0x3cfbce3c	0.030737989
231	0xbe0a7ea4	-0.13524872
232	0x3ccc73dd	0.024957592
233	0x3e22dda6	0.15904865
234	0xbe3a624c	-0.1820156
235	0xbf014f36	-0.5051149
236	0xbde4abe1	-0.11165596
237	0x3d6ebab8	0.058283538
238	0x3e072d0d	0.1320078
239	0x3dc9d1ac	0.09854445
240	0xbe314e3a	-0.17314997
241	0xbe3aa045	-0.182252
242	0xbc47f56e	-0.012204511
243	0xbe3c2662	-0.18374017
244	0xbe022e63	-0.12713008
245	0x3d36e8cf	0.044655617
246	0xbd95706d	-0.07296834
247	0xbe56ceac	-0.20977277
248	0xbd685d97	-0.05672988
249	0x3c20958f	0.009801283
250	0xbb8b3b7d	-0.004249035
251	0x3c53d59a	0.012929345
252	0xbd236dea	-0.039899744
253	0x3d9ac453	0.07556977
254	0xbe0268ce	-0.12735292
255	0xbdd73c2d	-0.105095245

lstm.weight_hh_l1 f4 [256, 64]
0	0x3d76e0fe	0.060273163
1	0xbce3b22e	-0.027794924
2	0x3de21a0d	0.11040125
3	0x3e01142b	0.1260535
4	0x3d5da629	0.05411354
5	0x3cd08e61	0.025458517
6	0xbd0a0daa	-0.033704437
7	0xbe4d4bf7	-0.2004851
8	0xbd8e0b28	-0.06935722
9	0xbb958360	-0.0045627803
10	0xbd8c85fc	-0.06861493
11	0xbe1d711b	-0.15375178
12	0xbda56d7b	-0.08077522
13	0x3d9e2560	0.077219725
14	0x3d3cccfe	0.046093933
15	0xbeef518e	-0.4674191
16	0x3dbbb855	0.09166018
17	0xbd17bcb8	-0.03704521
18	0xbd03ec60	-0.032207847
19	0xbe3a48fd	-0.18191905
20	0xbd983a5d	-0.07433007
21	0x3e3c2825	0.18374689
22	0x39db2768	0.00041800295
23	0x3cf41767	0.029796315
24	0xbdb2a45a	-0.08722754
25	0x3dc12c8b	0.09432324
26	0xbd3129f8	-0.043252915
27	0x3d6b2a23	0.05741323
28	0xbd35589e	-0.044273965
29	0xbdc2e4e1	-0.095163114
30	0x3dd2c94e	0.10292302
31	0xbd9f8aa9	-0.07790119
32	0xbc62ce3f	-0.013843118
33	0xbd64c50b	-0.055851977
34	0xbe365374	-0.17805272
35	0xbe87cfdf	-0.2652578
36	0x3cee4ac8	0.029088393
37	0xbd0781fe	-0.033082955
38	0x3daf422a	0.08557542
39	0x3e3d4334	0.18482667
40	0x3c524c8e	0.012835635
41	0x3daba598	0.08381194
42	0xbc975e2d	-0.018477524
43	0x3d04f6c7	0.032461908
44	0x3daf658f	0.08564293
45	0xbe331328	-0.17487776
46	0x3d461363	0.048358332
47	0x3e00261b	0.12514536
48	0x3c727c03	0.0148000745
49	0xbd960592	-0.07325281
50	0x3db09c18	0.086235225
51	0x3d054b4e	0.03254252
52	0xbd122d52	-0.035687752
53	0x3c9eb566	0.019373607
54	0x3dc161b0	0.094424605
55	0x3d541b69	0.051783953
56	0xbc8f21ef	-0.017472235
57	0x3d2f8e93	0.04286058
58	0x3d2e9c36	0.042629443
59	0x3d22c541	0.039738897
60	0x3dadc61f	0.08485054
61	0xbcf0266e	-0.0293152
62	0xbe4e8fe0	-0.20172071
63	0x3d90c2e0	0.070684195
64	0xbe3d3bbb	-0.18479817
65	0x3d71866a	0.058966078
66	0x3e3676d7	0.17818771
67	0xbd820eae	-0.06350456
68	0xbe880530	-0.26566458
69	0x3d86c8d7	0.06581276
70	0xbcbad45c	-0.022806339
71	0xbdc781e8	-0.097415745
72	0xbd96bbcd	-0.07360039
73	0xbd92b5e9	-0.07163603
74	0x3c740c2a	0.014895478
75	0xbd22fa25	-0.039789338
76	0xbd9982f1	-0.07495678
77	0xbe1c012a	-0.15234819
78	0x3e9e81f5	0.30958524
79	0x3e16ee59	0.1473936
80	0x3e047e23	0.12938742
81	0xbe246a5f	-0.16056202
82	0x3d730400	0.059329987
83	0xbe02a809	-0.12759413
84	0xbd4136ab	-0.047171276
85	0xbd1a4718	-0.037665457
86	0xbdbb0958	-0.091326416
87	0xbdc7a638	-0.097485006
88	0xbe58c594	-0.2116912
89	0xbdf2ad8c	-0.11849508
90	0xbe65ddcf	-0.22447895
91	0xbe3cc085	-0.18432815
92	0xbd02ccd4	-0.03193362
93	0xbd031744	-0.03200461
94	0xbb7dc725	-0.0038723436
95	0x3cd9e5f5	0.02659891
96	0x3d31d169	0.0434126
97	0x3c112263	0.008858296
98	0x3c863cd5	0.016386429
99	0xbd424951	-0.0474332
100	0x3cee80c4	0.029114135
101	0xbe04c7a6	-0.12966785
102	0xbce39d95	-0.027785102
103	0xbc11e907	-0.008905656
104	0xbd76a077	-0.060211625
105	0xbd465206	-0.048418067
106	0xbc972ba0	-0.01845342
107	0x3ddaf31e	0.10690902
108	0x3d1029de	0.035196178
109	0xbe191c93	-0.14952306
110	0x3dbf5d00	0.0934391
111	0x3e394d51	0.180959
112	0xbe1e8a3b	-0.15482418
113	0x3e230cfe	0.15922925
114	0x3e36621a	0.1781086
115	0x3d5f5752	0.054526635
116	0xbdd42781	-0.10359097
117	0x3e040e71	0.12896134
118	0x3dba03af	0.09082734
119	0xbde8247a	-0.11335082
120	0x3c99fa6e	0.018796172
121	0xbd8414c1	-0.06449271
122	0x3d9161d8	0.0709874
123	0xbe165149	-0.14679445
124	0x3cc32380	0.023820639
125	0x3e17f1ee	0.14838383
126	0x3d7ea85c	0.06217228
127	0xbdbf5418	-0.093422115
128	0xbe358561	-0.17726661
129	0xbb87ce1f	-0.0041444446
130	0x3e49ab2d	0.19694205
131	0x3eb53758	0.35393786
132	0xbe5eb5a8	-0.21748984
133	0x3e8e415e	0.27784246
134	0xbda2c9a4	-0.07948616
135	0xbe270a22	-0.16312459
136	0xbea2e0b8	-0.31812072
137	0x3e3d0c20	0.18461657
138	0x3c3ddba7	0.011588014
139	0xbe547929	-0.20749344
140	0x3e18c697	0.14919506
141	0x3d0a32a3	0.033739697
142	0x3d399ecc	0.045317456
143	0x3e2bf858	0.16793954
144	0x3ea0da93	0.3141676
145	0xbe21f419	-0.15815772
146	0x3d17116b	0.036881845
147	0xbf0a041a	-0.5391251
148	0xbe2964c7	-0.1654235
149	0x3e91512d	0.28382245
150	0xbd0d6094	-0.034515932
151	0x3e0931b2	0.13397864
152	0xbe9cc3ea	-0.3061822
153	0xbe5bd765	-0.21468885
154	0x3d4d0414	0.050052717
155	0xbd8a3fff	-0.067504875
156	0xbe198a78	-0.14994228
157	0x3c1c19d5	0.009527643
158	0x3e6c4139	0.23071755
159	0xbe535137	-0.2063645
160	0xbdcec7df	-0.10096716
161	0x3daca25e	0.084294066
162	0xbe244498	-0.16041791
163	0xbd5f3adb	-0.05449949
164	0xbe00b474	-0.12568837
165	0xbeb5b67b	-0.35490784
166	0xbdd7a296	-0.10529058
167	0xbe517e6b	-0.20458381
168	0x3d25d4b7	0.040486064
169	0x3c2d75a7	0.010587133
170	0x3da3ebb3	0.080039404
171	0x3df13cc6	0.1177917
172	0x3eaaa104	0.3332597
173	0xbc693d79	-0.014235848
174	0x3e0287d5	0.12747128
175	0x3e991d82	0.29905325
176	0xbeaa90bb	-0.33313546
177	0x3e554cd5	0.2083009
178	0x3cfb000d	0.030639673
179	0x3ea119c6	0.31464976
180	0xbea33441	-0.31875804
181	0x3b05d586	0.002042146
182	0x3e9b2bb8	0.30306792
183	0xbe1f754c	-0.15572089
184	0xbd91a2e8	-0.0711115
185	0x3d043192	0.032273836
186	0xbe02fdf7	-0.12792192
187	0xbe631680	-0.22176552
188	0x3e38e12c	0.18054646
189	0x3b8b8013	0.004257211
190	0xbae9d19b	-0.0017838957
191	0xbe269899	-0.16269149
192	0x3e180adc	0.14847893
193	0x3e4b0a27	0.19828092
194	0x39511b14	0.0001994188
195	0xbe2b4dcd	-0.16728897
196	0xbd81a73c	-0.063307256
197	0x3dba11f9	0.09085459
198	0xbe1b8725	-0.15188272
199	0xbd257b8a	-0.04040102
200	0x3ca18322	0.01971585
201	0xbc7d9160	-0.015476555
202	0x3a121f4c	0.00055741216
203	0xbdcb82c8	-0.09937054
204	0x3e1145a6	0.14186725
205	0x3b938303	0.004501702
206	0xbd9575d6	-0.07297866
207	0xbe701d21	-0.23448612
208	0xbe1871c6	-0.14887151
209	0xbe1b5561	-0.15169288
210	0xbdb54828	-0.08851653
211	0xbe4e089d	-0.20120473
212	0x3e8b92e9	0.2726052
213	0xbe294a22	-0.16532186
214	0x3d8a7a1f	0.06761574
215	0x3c975abb	0.01847588
216	0x3d949a32	0.07255973
217	0xbda9711c	-0.08273527
218	0xbd9e08a9	-0.077164955
219	0x3db80d85	0.08986954
220	0xbcb86066	-0.022506904
221	0xbe0db1cf	-0.1383736
222	0x3c2b0516	0.010438224
223	0x3da5b6bd	0.08091495
224	0xbcd91a6f	-0.026501862
225	0xbdf1d5da	-0.11808367
226	0x3d5b48ac	0.053536102
227	0x3dc4c5dc	0.09608051
228	0xbd173eef	-0.036925253
229	0x3c115a08	0.008871563
230	0xbd88c77d	-0.06678674
231	0x3e88b12d	0.26697674
232	0x3db0a6d9	0.08625574
233	0xbe48b076	-0.19598565
234	0x3d8d31a8	0.06894237
235	0x3cef97b9	0.029247152
236	0x3dd8fba7	0.10594874
237	0x3d1e9e5d	0.038725246
238	0x3e193aa8	0.14963782
239	0x3dc7cb71	0.097556
240	0xbdb9d3b7	-0.090735845
241	0xbdf7c967	-0.12098961
242	0xbdebe651	-0.11518539
243	0x3cce85cf	0.02521029
244	0x3e972cfb	0.29526505
245	0x3dcd94bb	0.10038134
246	0xbb932370	-0.0044903085
247	0x3bb4c0b1	0.0055161347
248	0xbe4687f5	-0.19387801
249	0xbe364b4f	-0.17802165
250	0x3d6d9014	0.05799873
251	0xbac5866d	-0.0015069969
252	0xbd8f37fb	-0.06993099
253	0xbe6f67a0	-0.23379374
254	0xbe385a4c	-0.18003196
255	0x3d4113fb	0.047138195

lstm.bias_ih_l1 f4 [256]
0	0xbd81cdb3	-0.06338062
1	0xbcfa6862	-0.030567352
2	0xbde49b7c	-0.11162469
3	0x3d81e024	0.063415796
4	0xbcd11388	-0.025522009
5	0x3d3cf297	0.04612979
6	0x3dd12899	0.102128215
7	0xbc205c6e	-0.009787662
8	0x3cd10c33	0.025518512
9	0xbdd44581	-0.10364819
10	0xbd5740cb	-0.052552026
11	0xbd96a439	-0.07355542
12	0xbdae339a	-0.08505936
13	0xbda12d2c	-0.07869944
14	0x3def9ab1	0.11699427
15	0xbdc6e3c8	-0.097114146
16	0xbc947d59	-0.018126177
17	0xbd4b0885	-0.04956867
18	0xbcca9f36	-0.02473412
19	0x3d8a2d0a	0.06746872
20	0x3d7bb9d8	0.06145653
21	0xb9abf9ef	-0.00032801877
22	0xbd30412b	-0.0430309
23	0xbd928dd2	-0.07155956
24	0x3c16acbd	0.009196457
25	0xbd532b64	-0.051555052
26	0x3e4dda85	0.2010289
27	0x3e1094ee	0.14119312
28	0xbd3b805f	-0.04577672
29	0xbc707d79	-0.0146783525
30	0xbdac510c	-0.08413896
31	0x3d3f54cb	0.046711724
32	0x3d22cbca	0.03974513
33	0x3bad844e	0.005295313
34	0x3d846e07	0.064662986
35	0x3d0ac5cd	0.033880044
36	0x3d41b38c	0.04729037
37	0x3c044473	0.00807296
38	0x3d5021a9	0.05081335
39	0x3ccd39d1	0.025051983
40	0xbcf15c1b	-0.029462865
41	0x3d0c05c0	0.03418517
42	0x3c5c4cf0	0.013446078
43	0xbd87e31b	-0.06635114
44	0x3dcbb067	0.099457555
45	0xbdd3abb3	-0.103354834
46	0xbbb8c2a9	-0.0056384397
47	0x3daaa3fb	0.08332058
48	0x3cd3d504	0.02585841
49	0xbd6023f5	-0.05472179
50	0xbcee7eae	-0.02911314
51	0x3dd331e1	0.10312248
52	0x3d433b61	0.04766405
53	0xbde03493	-0.10947528
54	0x3da135e5	0.07871608
55	0x3d467482	0.048450954
56	0x3e5685b2	0.20949438
57	0xbcc11356	-0.02356879
58	0x3d911386	0.07083802
59	0xbb9677c8	-0.0045919158
60	0x3e2d5581	0.16927148
61	0x3d8c489d	0.068497874
62	0x3e9036c3	0.2816678
63	0x3d3b5c6a	0.04574243
64	0xbd998500	-0.07496071
65	0x3cb5bb3f	0.022184012
66	0x3d90a449	0.07062585
67	0xbd3e283b	-0.046425086
68	0xbdd1c8f8	-0.1024341
69	0x3d807d4a	0.06273897
70	0x3bf82c77	0.00757366
71	0x3de39536	0.11112444
72	0xbce4afea	-0.027915914
73	0x3db30152	0.08740486
74	0x3d930692	0.071789876
75	0xbd838c51	-0.064232476
76	0x3d88f89f	0.06688046
77	0xbc6dbccc	-0.014510345
78	0x3dd9d66d	0.106366016
79	0x3dd11efc	0.10210988
80	0x3d143892	0.036186762
81	0x3e0b43eb	0.13600127
82	0x3d3475b0	0.044057548
83	0xbd8cf44a	-0.06882532
84	0x3d26fe1f	0.040769693
85	0x3df3ece1	0.119104154
86	0x3e05206b	0.13000648
87	0x3d37f362	0.044909842
88	0x3e1021ec	0.1407544
89	0x3e029409	0.12751783
90	0xbd1b498b	-0.037911933
91	0x3b9e2cfe	0.004827141
92	0x3dfb61b7	0.12274497
93	0x3dde6668	0.10859376
94	0x3cb0deb0	0.02159056
95	0x3d649c50	0.055813134
96	0x3e067213	0.13129453
97	0x3dd4fa2f	0.10399281
98	0x3e15c40c	0.14625567
99	0x3ca176a4	0.019709893
100	0x3b52773b	0.0032114524
101	0xbce10a43	-0.027470713
102	0x3df361ce	0.11883889
103	0xbd280b5b	-0.041026454
104	0x3cf454af	0.029825537
105	0x3d355fab	0.04428069
106	0xbdcdea97	-0.1005451
107	0xbd62cec4	-0.05537297
108	0xbbde2c25	-0.006780165
109	0xbd8d1fbb	-0.06890818
110	0xba7c6589	-0.0009628167
111	0x3d7cf5fe	0.061758034
112	0x3d0f9486	0.035053752
113	0x3ce75d48	0.028242722
114	0xbdc440f6	-0.09582703
115	0x3deffb73	0.11717882
116	0x3d99377c	0.07481286
117	0xbca4199b	-0.02003174
118	0xbd834b83	-0.06410887
119	0xbdde221b	-0.10846349
120	0xbcdaca6e	-0.026707854
121	0x3d99101b	0.07473775
122	0xbd6233ce	-0.055225186
123	0xbccf663f	-0.02531731
124	0x3cc03ed7	0.023467464
125	0x3d529eb8	0.051420897
126	0xbbbd1bc0	-0.0057711303
127	0x3dace3bc	0.084418744
128	0x3cf0a53b	0.029375663
129	0xbd859942	-0.06523372
130	0xbc4bb4f1	-0.0124332765
131	0x3d74581d	0.059654344
132	0x3d3e1cfa	0.046414353
133	0xba660d48	-0.0008775783
134	0xbdcdbcdb	-0.10045787
135	0xbd93bf48	-0.072142184
136	0xbd8ceecb	-0.06881484
137	0x3d6b9bfb	0.0575218
138	0xbd1be9ba	-0.038064696
139	0x3df5f2e9	0.12009222
140	0xbde8b01a	-0.11361714
141	0x3d8fc8b7	0.07020705
142	0xbdb11a03	-0.086475395
143	0x3c4fd344	0.012684647
144	0xbdb2ede4	-0.0873678
145	0xbb4c00c0	-0.0031128377
146	0xbd057b34	-0.0325882
147	0xbca60c49	-0.02026953
148	0x3d8f9531	0.07010878
149	0x3d255188	0.040360957
150	0x3d13018e	0.035890155
151	0xbd2b8040	-0.041870356
152	0x3d7bafdc	0.06144701
153	0x3dd769a5	0.10518197
154	0x3dddc396	0.10828321
155	0x3d666517	0.05624875
156	0xbd8360d1	-0.06414951
157	0x3df17206	0.11789326
158	0x3e083da0	0.13304758
159	0xbdc30ec0	-0.09524298
160	0x3c85e3b0	0.016343921
161	0xbe02b27f	-0.12763403
162	0xbd924489	-0.07141978
163	0x3e0db79a	0.1383957
164	0xbdb92317	-0.09039896
165	0x3c24ce5a	0.010058964
166	0x3d87e5d8	0.06635636
167	0xbae73a7b	-0.001764133
168	0x3cdcd229	0.02695568
169	0xbe13cdf0	-0.14434028
170	0x3d395562	0.045247443
171	0x3ce27318	0.027642772
172	0xbe072fe3	-0.13201861
173	0xbdbc1ffb	-0.09185787
174	0xbba2595d	-0.0049545006
175	0xbcdd0161	-0.026978197
176	0x3d3ea174	0.046540692
177	0x3d0f09b4	0.034921363
178	0xbe146799	-0.14492644
179	0xbd003ce9	-0.03130809
180	0x3e0da730	0.13833308
181	0x3c171768	0.009221889
182	0xbd9b9c33	-0.07598152
183	0x3d6d867a	0.057989575
184	0x3daeedf9	0.085414834
185	0xbc3b0488	-0.011414655
186	0xbc84306f	-0.016136376
187	0xbce7f149	-0.028313296
188	0x3db80c46	0.08986716
189	0xbd37625b	-0.044771533
190	0x3d940b59	0.07228727
191	0xbd9f82c4	-0.077886134
192	0x3e2a7256	0.16645178
193	0x3d379033	0.044815253
194	0x3d8a9a60	0.06767726
195	0xbcaf891a	-0.02142768
196	0x3e021854	0.12704593
197	0xbce601de	-0.028077062
198	0xbd32fcfa	-0.04369829
199	0xbd9c8b56	-0.07643764
200	0xbce174f4	-0.027521588
201	0x3e1efd6e	0.15526363
202	0x3b4eceaf	0.0031556298
203	0x3dd0df2d	0.101988174
204	0xbe20a745	-0.15688808
205	0x3e6726f6	0.22573456
206	0x3d2319cc	0.039819524
207	0xbd1d4f9a	-0.038405992
208	0x3d8ca581	0.06867505
209	0x3ded9607	0.11600881
210	0x3d9c3ad9	0.07628412
211	0x3d8ec59e	0.06971286
212	0x3de5842a	0.11206849
213	0x3da048d2	0.07826389
214	0x39cebf4f	0.00039433918
215	0x3e33e360	0.17567205
216	0x3be0984a	0.006854092
217	0x3e25e3c4	0.16200167
218	0x3e1ccc73	0.15312366
219	0x3e284ef6	0.16436371
220	0x3db0c293	0.08630862
221	0xbd5f0058	-0.054443687
222	0x3e28cd7a	0.16484633
223	0x3d306522	0.043065198
224	0x3d8736cc	0.066022485
225	0x3df07606	0.11741261
226	0x3dfa460a	0.1222039
227	0x3bde4ecd	0.006784296
228	0x3dcbf52e	0.09958874
229	0x3dee0d8e	0.11623679
230	0x3e5e69e0	0.21720076
231	0xbcc83550	-0.024439484
232	0x3dac04f4	0.08399382
233	0x3e18222f	0.1485679
234	0xbd3baee4	-0.045821086
235	0x3d82d543	0.06388333
236	0xbd9a7c5a	-0.075432494
237	0x3c3d51a3	0.011555108
238	0xbd82f2b2	-0.06393947
239	0x3d9a665b	0.07539054
240	0x3c267bf8	0.010161392
241	0x3e737227	0.23774014
242	0x3e3597b6	0.17733654
243	0x3e3675af	0.1781833
244	0xbde8dc9e	-0.113702044
245	0x3c4bfb1b	0.012450005
246	0xbda6d18a	-0.08145435
247	0x3d03b04b	0.032150548
248	0x3de2ab61	0.11067844
249	0x3d6b1f2e	0.057402782
250	0xbe0a842b	-0.1352698
251	0x3d32d02f	0.04365557
252	0xbcbca7be	-0.023029204
253	0xbba1578d	-0.004923767
254	0x3dd45f89	0.103697844
255	0xbc4c36e2	-0.012464257
