LogAnomaly/result/deeplog/deeplog_epoch232.pth (torch_old, 641124 bytes, 30 tensors)

lstm.weight_ih_l0 f4 [256, 1]
00000000: 209e 47be 9862 91bc 1b97 4abd a9ac a93d
00000010: 0a80 0bbe 23cc 433d 86b9 c5bd 97e4 683d
00000020: 81b4 293e 8089 9a3d c19c 2c3e 9556 a5bd
00000030: e2ad cb3d f704 e93d 840a 9fbd 0fe8 813e
00000040: ab04 5c3d 95d3 533d 4fb5 18be 3a82 133e
00000050: 2889 283e f437 9e3d ca33 333d 8189 5cbd
00000060: 4cf6 3c3e 4a17 63bd 23f7 6dbc cab4 773d
00000070: 8f49 8f3d e209 1fbe dd07 bc3d d523 ed3b
00000080: cd35 113e 4f8d b33d 9e22 573c b3d2 573d
00000090: 27e7 583e 825f ba3b 6131 fe3d 0246 0fbe
000000a0: 6bf3 4c3c 6012 14be 36b0 0d3e 1b96 c83e
000000b0: 185c dcbd aa9c c93d 3cd7 0d3e 7074 4abe
000000c0: 66ae 3a3e 3224 143e e186 b23e 9acb d23d
000000d0: 6819 a83d 19ed 9f3e 35f0 083e a65a 56bd
000000e0: 0cf6 2cbe bfa1 833c 2395 dd3d bc58 0f3d
000000f0: afac 383d de74 e43d ba22 ca3d 2a9f 1dbe
00000100: 92ff 82bd d1d4 5c3d 0560 ec3d 5a59 d4bc
00000110: 79e3 b7bd a392 423d fa74 ee3d d623 3d3d
00000120: 9a15 2ebd 6e2d 913e de45 283e 6db9 ecbd
00000130: 8b3b e3bc 4d48 7e3d dd68 333e ab0b 813e
00000140: ebd0 c63c 7ffc ed3d 23f7 e7bd b3a0 cb3c
00000150: 5d59 403b af9e 5c3e 5c09 ff3d 7adf 6abd
00000160: 2335 ea3b 0ce2 9d3d 7e47 0fbf e0e2 9b3d
00000170: cbe9 7fbd 05cc 89be 941a 623e a1de d93c
00000180: 5109 a5bc cb5c 0f3e 1f82 e53d 66dc 9f3d
00000190: f911 923d b919 3b3e 5a6e a53d 0ff8 183d
000001a0: 0989 043e 6c20 6e3e 395f 2b3e ab04 883d
000001b0: b242 04be 9ae0 35bd ed12 5c3d a81f e4bd
000001c0: afe6 763d 1f48 c13d 8b7c 9c3e 121c 743e
000001d0: c17e 5f3d a4de fc3c 8455 0f3e fd36 e4bc
000001e0: 1337 36be aa49 2b3e 91a6 e53e e775 ddbc
000001f0: f0a7 f63c 8319 5e3d 0f4f a8bd 1dd0 19be
00000200: 805f d43e 88f4 05be cb5c a63d b92a 093d
00000210: 839f 6d3e 8cf2 2ebe 54f7 3bbd a1db 083e
00000220: 9594 223e be20 32bd d257 66bd 60f4 613e
00000230: e74f 6cbe 34da 1c3e 4e35 28be 9312 bdbd
00000240: a99f 573e a1bf 91be ec1c 7dbe 388c 4d3e
00000250: 0848 353e a1c0 1abd eeb8 0bbe dc93 483e
00000260: 8e25 c13d a7ae a13e 2f18 dbbe bc1f 943c
00000270: fa95 d63c 990c 32be 73fe 6a3f 3b17 6f3a
00000280: efdb f13e 31b6 ef3c cb07 b33d 828f f3bc
00000290: 9efa 9bbe 6092 4abe 5411 86be 3ddd 39be
000002a0: efd4 343e e5eb 503d 32d6 0fbe 4bf8 d3bf
000002b0: da3b b63e 6e57 a03e a794 803d 27fe f73e
000002c0: 9c38 e1bd 421b 17be a685 13be 4a08 11bd
000002d0: f62c c3be 1dd8 e93e 0d26 123d e495 2b3e
000002e0: 6167 b5be c0ed 8d3d 48cc 5e3d 5236 9cbd
000002f0: 32ec 083e 31a9 a4bd 2134 a03d 1956 aabe
00000300: c173 303e 4789 a3bc 3816 283e 8b17 a63e
00000310: c0fa 333e 79b7 8f3d 9d00 1c3e f34e 623e
00000320: a91a 553d 45f9 933e ee7e 713d 5b64 7a3e
00000330: 5cf7 803e 411f 163e 23fd 6b3e 4314 923e
00000340: c052 babd b0da fa3c e217 983e b6be 343e
00000350: 2dd2 8a3e 81e1 663e cf6b 51be 04fd 33be
00000360: 0c2a 32be 85d0 543d 2aaa 413b 2d69 e13d
00000370: be9a d1bc ee96 b2be 42a8 f23d 3e59 8f3e
00000380: 3e7a d4bd 09dd ac3e ab41 a43d 8fec 9e3e
00000390: dc32 b9bd 6b86 64be 09dd a13d 2a56 97be
000003a0: 4b18 53be 4b7f 8c3e 3ac0 493e a1a1 96be
000003b0: a9f3 893e fd48 473c cf1d 5c3e 9b67 28be
000003c0: 4ff4 3ebe 506d f7bd b1fe f63d 2787 5ebe
000003d0: face a63d 956f c4bd 8718 7d3d e6dc 913d
000003e0: cc57 2b3e 4b78 60be 77e4 803e 4255 0dbe
000003f0: 5279 ec3d 0537 123e d885 543e 79df da3d
-0.19493914 -0.017747208 -0.04946051 0.082848854 -0.13623062 0.0478021 -0.096545264 0.056858625
0.16572763 0.07545757 0.16856672 -0.08073155 0.09945275 0.113779 -0.077656776 0.2537236
0.05371539 0.051715452 -0.14912914 0.14405146 0.16458571 0.07725516 0.04375056 -0.05384207
0.1845333 -0.055442132 -0.014524254 0.06047515 0.06996452 -0.15531114 0.09181187 0.0072369375
0.1418068 0.08767187 0.013130812 0.052691173 0.21181928 0.005687655 0.12411762 -0.1399155
0.012509207 -0.14460135 0.1383675 0.3917702 -0.10759753 0.098443344 0.13851637 -0.1977098
0.1823059 0.14466932 0.3486853 0.1029274 0.08207971 0.3123558 0.13372882 -0.052332543
-0.16890734 0.016068337 0.10819461 0.034996733 0.04508656 0.11155103 0.09869905 -0.15392748
-0.063964024 0.053913895 0.11541752 -0.025921512 -0.08978934 0.047503125 0.11643405 0.046176754
-0.04250107 0.28354973 0.16432902 -0.11558805 -0.027738353 0.06208067 0.17520471 0.25204214
0.024269542 0.116204254 -0.113264345 0.0248569 0.002935014 0.21544908 0.12452957 -0.05734203
0.0071474477 0.07709131 -0.55968463 0.07611632 -0.06247882 -0.26913467 0.22080451 0.026595416
-0.020146044 0.14000241 0.11206459 0.078057095 0.07132334 0.18271531 0.080776885 0.037345942
0.129429 0.23254555 0.16735543 0.06641515 -0.12916067 -0.04440365 0.053728987 -0.111388505
0.06027859 0.09437584 0.3056377 0.23838833 0.05456424 0.030867882 0.13997465 -0.027858252
-0.17794447 0.1672732 0.44853643 -0.02703376 0.030109376 0.05422355 -0.08218204 -0.15020795
0.4147911 -0.13081563 0.081231676 0.03348801 0.2320538 -0.17084712 -0.045890167 0.13365032
0.15876992 -0.043488257 -0.056236096 0.22065878 -0.23077355 0.15317613 -0.16426584 -0.092320584
0.21057 -0.28466514 -0.24718064 0.2007302 0.17703259 -0.03778136 -0.13644764 0.19587654
0.09430991 0.31578562 -0.42791888 0.018081538 0.026194561 -0.17387618 0.9179451 0.0009120588
0.4723811 0.02926168 0.08741721 -0.029731516 -0.30464643 -0.197824 -0.26185095 -0.18150802
0.17659353 0.051006217 -0.14046553 -1.6560148 0.35592538 0.31316704 0.06278353 0.4843609
-0.109971255 -0.14756492 -0.14406452 -0.035408296 -0.3812024 0.45672694 0.03568082 0.16756397
-0.35430434 0.06930113 0.054394037 -0.07627548 0.13371351 -0.08040083 0.07822443 -0.33268812
0.17231657 -0.01996292 0.16414726 0.32439837 0.17576122 0.070174165 0.15234609 0.22100429
0.05202738 0.28901115 0.05895894 0.24452345 0.2518872 0.1466036 0.23045783 0.28531083
-0.090978146 0.030621856 0.2970572 0.17650875 0.27113476 0.2254696 -0.20451282 -0.17576987
-0.17398852 0.051956672 0.0029550889 0.11006389 -0.025586482 -0.34880775 0.11848499 0.27997774
-0.10374878 0.33762386 0.08020338 0.31039855 -0.09042904 -0.22316901 0.07903487 -0.29557925
-0.20614736 0.27440867 0.19702235 -0.29420188 0.2694371 0.012163398 0.21495746 -0.16445772
-0.18647884 -0.120813966 0.12060297 -0.21731244 0.081449464 -0.09591595 0.06179097 0.07122211
0.1673271 -0.21920888 0.25174305 -0.13802055 0.115465775 0.14278801 0.20754182 0.10687155

lstm.weight_hh_l0 f4 [256, 64]
00000000: ce06 6e3e dd87 1bbe 5ef3 ce3c 8117 993d
00000010: be78 763e 1f96 e6bd a708 79bd 5c67 963d
00000020: 882c 223e 1f59 e93d 88fe 52bc 971a 14be
00000030: cc83 40be 6a40 b43d de8b 01be da40 813e
00000040: c334 403e c9fd 11bd 8d22 1f3d 83de 143e
00000050: 97bc 87bd 98b0 be3d 0ca7 bbbd e9b0 433e
00000060: cfa5 803e 9c08 653e 6148 b83d 1abe b63d
00000070: e70d a13d e33d 8fbe b2a0 723d b248 fe3d
00000080: 4455 5f3d 21b6 843d 2c75 913d abfa 26be
00000090: a477 67bd 76fc 40be 6adf d8bd aa20 98be
000000a0: b01d a63d 6764 e8bd 1582 b63d 684f cebd
000000b0: dbad 623d a212 283e 7a0f 063d 68e5 833e
000000c0: 9368 91be 8c7e afbd 3197 2b3e 3bed a5be
000000d0: 7bcc 413d b36a 353e b7f5 dc3d 7754 90bc
000000e0: 1b25 b7bd c1d4 b53e ad0f fdbc a336 c7bd
000000f0: e431 023e a494 22bd 93a5 23be 94f0 8cbd
00000100: 06b9 bdbc b92d dabd 969e 943e 5d21 503e
00000110: aa5a 263e 860b 35be 23af b23d 8016 b13d
00000120: 3c2b 1e3e 1a45 c83d 6dab 02be 504b bf3d
00000130: 8d6b 5dbe b5e9 3c3e 02a9 0bbe 87a2 a5be
00000140: a962 6a3e 6095 15bd 1b5f 1dbe ba3d 5c3e
00000150: d2aa 093e 6142 a4bd bc86 39be dec3 af3d
00000160: 9b2c c93e 2f99 cc3d 626d d1bd 10e4 da3d
00000170: 5972 603e b31d 6bbc e1eb 2d3d 8bb6 3a3e
00000180: 83d7 303d 38c6 1d3e 90a9 983d 383c e0bd
00000190: e4f7 38bd c8f0 61be e6ec 1dbe 9451 133d
000001a0: eca8 5b3e 4adb 8abd 59ec e0bd b189 b13d
000001b0: 8ec5 163d 79c2 243e 0508 563e 71e5 bbbd
000001c0: 3366 83be 6178 0abe b4c3 45bd a194 7fbe
000001d0: 0cf6 9239 b38c 4bbc 38c3 813e 99e7 1c3e
000001e0: ba6d 48bd 1417 be3e acbc 563d 951c 6bbe
000001f0: 71de 063e 440c 20be bcb9 863d 500a c5bd
00000200: 286b e53d 60ed 933d 4f11 f63d e832 583e
00000210: 92c3 1a3e 05ab 79be be98 64be 51a6 573e
00000220: b0c2 513e b731 d6bc 5615 87bd 757c c73d
00000230: 4324 b7bd 3b94 723d 733d 19be ded7 ab3d
00000240: 4767 123e 5230 64be 1184 aebb 1984 4c3e
00000250: 09d5 603d 3bf2 933d 83b8 acbd b97f 823d
00000260: 79a9 433e e963 943d 95f3 25bd e98f 8d3e
00000270: 8e1e 173c 38c9 c4be 5bfe e63d ce6c 5c3d
00000280: 5393 eabd 5b49 d63d c0ba 393e f80a e1bd
00000290: 23d1 963c 25e1 04be 0818 2dbd b8bc 94be
000002a0: fa43 083e 2344 fcbd 4cc9 88bd cb85 7bbd
000002b0: 351c 4e3d 1897 a73d 246a 763e 86e3 0d39
000002c0: 09e4 87bd f4ed 7a3c e5a6 04be 2a9b 63bb
000002d0: e8ad 483d f0e1 8c3d 31b9 8b3d 359d 5f3e
000002e0: c223 55bd 6d6f 4e3e 8ee0 87bc 6cf6 f1be
000002f0: ad0b 97bc 1985 03be 11f4 933d 0a23 8dbe
00000300: 683a 1d3d a43b 64be 360a 99bc eb9a 673d
00000310: eead 3f3d 7edc b03d 2fb5 af3c 0b9e d9bd
00000320: 5b78 90bd ac1e f4bc 3ab8 ff3c b53d c73d
00000330: 9312 dcbc 085c db3c f57c 333d 92a9 ab3d
00000340: c6fa a039 e19a a5bd 3621 0ebe e14f 013d
00000350: 507f 563d 064b acbb 8dca 5fbe 31a5 843e
00000360: 6428 58bd b506 0c3e cd76 bf3c 8550 8d3d
00000370: 1265 e53d ba27 72be d653 f7bc 7dba b2bb
00000380: ae5c af3d f1f5 07bd 7c90 fc3d 4a9a 553d
00000390: 68e5 6abd 821a 41be 602e d3bd 07e3 84be
000003a0: 5769 81bd 70ee 833d ccb3 ebbd 0cc7 b8bc
000003b0: f406 703e 8c47 4dbd 2fd5 21be 8744 9b3e
000003c0: da4e 9e3c 9b7e 0d3c e236 713d 293d c0bd
000003d0: 784d cabd f8bc 9c3d 5967 313d 496f f63d
000003e0: 0c9d d2bd 74fc f73d 9023 013e 47a2 a1bd
000003f0: d675 d93d 6e49 f2bc 394c dcbd 7e10 34bc
0.23244783 -0.15188546 0.02526253 0.07475186 0.24069497 -0.11259102 -0.060799267 0.07343933
0.158373 0.113939516 -0.012878068 -0.14463268 -0.18800277 0.088013485 -0.12651011 0.2524479
0.18770127 -0.03564242 0.03885131 0.14538006 -0.066277675 0.09311026 -0.09162721 0.19110455
0.25126502 0.22366565 0.0899818 0.08922978 0.0786398 -0.27976903 0.059235282 0.12416209
0.054524675 0.06480051 0.07102427 -0.1630656 -0.056510583 -0.18846306 -0.10589488 -0.2971242
0.08111131 -0.11347275 0.0891153 -0.10073739 0.055341583 0.16413358 0.032729603 0.2576096
-0.28400096 -0.08569059 0.16756894 -0.32407555 0.04731415 0.17716484 0.10789054 -0.017618401
-0.08942624 0.3551388 -0.030891264 -0.09727218 0.12714344 -0.039692536 -0.1598113 -0.06881824
-0.023159515 -0.10653252 0.2902724 0.20325227 0.16245523 -0.17680177 0.08724811 0.0864687
0.1544618 0.09778805 -0.12760706 0.093405366 -0.21623059 0.18448527 -0.1363869 -0.3235056
0.22889198 -0.03651941 -0.15368311 0.21507922 0.13444069 -0.08020473 -0.18117803 0.085822806
0.39291844 0.09990155 -0.10225941 0.10688031 0.2191862 -0.014350343 0.04246128 0.18233697
0.043174278 0.15407646 0.074542165 -0.10948986 -0.045158282 -0.22064507 -0.15422401 0.03596647
0.21451157 -0.06780107 -0.1098258 0.08668841 0.036809497 0.1608981 0.20901497 -0.09174622
-0.2566391 -0.13522483 -0.04828234 -0.24959041 0.0002803061 -0.012423682 0.25344253 0.15322722
-0.04893277 0.37126982 0.052426025 -0.22960122 0.13170792 -0.15629679 0.06578395 -0.096211076
0.11202079 0.0722301 0.1201502 0.21113169 0.15113667 -0.24381645 -0.22323892 0.21059538
0.20484424 -0.026146753 -0.065958664 0.09740535 -0.08942463 0.059223395 -0.14964847 0.08390783
0.1429721 -0.22284058 -0.005325802 0.19972266 0.054890666 0.07223936 -0.0843363 0.063720174
0.19107617 0.07245619 -0.0405155 0.27648857 0.009223593 -0.38434768 0.11278983 0.0538147
-0.11453881 0.1046321 0.18137646 -0.1098842 0.018410271 -0.12976511 -0.042259246 -0.2905023
0.13307181 -0.123176835 -0.06679019 -0.06140689 0.05031987 0.08183116 0.24063927 0.00013531567
-0.06635291 0.0153155215 -0.1295429 -0.0034729936 0.048993975 0.06879032 0.06822432 0.21837313
-0.052036054 0.20159693 -0.016586568 -0.47258317 -0.018438185 -0.12843741 0.07224286 -0.27565795
0.03838578 -0.22288376 -0.018681627 0.056544226 0.04679673 0.086358055 0.0214487 -0.106258474
-0.07054206 -0.029799782 0.031215776 0.097285666 -0.026864326 0.026777282 0.04382034 0.08381952
0.0003070442 -0.080861814 -0.13879856 0.03157032 0.05236751 -0.005257967 -0.2185461 0.2590728
-0.052772895 0.13674434 0.023372078 0.069001235 0.11200918 -0.23647967 -0.030191343 -0.00545436
0.08562599 -0.033193532 0.12332246 0.052149095 -0.057347685 -0.18857768 -0.1031158 -0.25954458
-0.0631892 0.06441963 -0.11508903 -0.02255585 0.23440152 -0.05011706 -0.1580398 0.3032572
0.019324709 0.008636142 0.05889023 -0.093866654 -0.09878057 0.076532304 0.04331145 0.12032945
-0.102838606 0.121086985 0.12611222 -0.0789228 0.106181785 -0.02957603 -0.10756726 -0.01099026

lstm.bias_ih_l0 f4 [256]
00000000: 6729 c73d 98c0 b23d 8013 563d 7800 b0bd
00000010: f282 403e fb8b 0a3b f4f2 3b3e 8bde 2bbc
00000020: 5c4e 733e 0761 4a3e 13af ebbd 4e7f 5d3e
00000030: b796 1e3d 93cb cf3d 6149 dd3d 7d20 2d3e
00000040: 7aee 253e 3c90 183e 96c8 293e 6aec 0bbd
00000050: 1c95 49bd 4cf5 4f3d 4036 b53d 848d c93d
00000060: 586e 033e 2def 3d3e 0ae3 853d f4fa 9d3d
00000070: 5be4 d1bc 8d56 723e e068 823e 9fc7 dcbd
00000080: c010 e6bb 1af7 ca3d 4873 083d 478c d0bd
00000090: f2cf 293e 24f5 aabd b942 093d d19f 98bd
000000a0: 840c 033e b0de 01bd 69d2 cebc 6c83 2a3f
000000b0: 3ef4 333d b866 863e 7700 f93c 7d26 c03d
000000c0: f546 4ebd c22f 903d d423 bcbc 5bed d0bd
000000d0: aa88 bebd de01 953e d4ea b03d ee3b b63c
000000e0: c728 373e 3804 41bd ca1d 703d 00dc 913d
000000f0: 484c 04bd 2dad e33d c410 72be acb0 ea3c
00000100: ce41 36bd 24b8 1f3e ccc0 9abd ea10 ca3d
00000110: c2a1 a23d 1115 b43d f58a c53d 8955 c63d
00000120: 6746 983d 01b2 ca3d c4a6 12be 9d01 113e
00000130: dbc4 383d e74d 703d e6ab eb3b 87f0 abbd
00000140: ea91 573d 904a 97bc 239c cfbd 8e9c e1bd
00000150: 929d 243d 2b7d b93d 5d7b d9bd 85ea d1bb
00000160: aad8 4c3e 3b8b 033e 5454 a13d 3f15 e33b
00000170: d228 4a3e 11d0 a83d f1da 2abe 3703 c63d
00000180: f2af 67bd 6026 663d 1ddb 16bd 050e ae3c
00000190: 3e81 1a3d 4ad0 01be c648 e2bc da93 f83b
000001a0: d6e6 bebd deae 853a 5ba1 033e 3106 86be
000001b0: 883d dfbd a5bd 3a3e 88b5 ce3d 5ddd d93d
000001c0: 9318 8c3d 81df 903c 7b7f bcbb 24d5 99bd
000001d0: a12a acbd 1b60 d83d 300d ac3d 9153 933c
000001e0: a096 cd3d 0117 0a3e a4a5 4fbe 988f 053e
000001f0: 14a4 d33c a673 4b3d a924 a33d ae39 1d3e
00000200: ce0f 163d 4358 473e e0ff 99bd 50ef 49be
00000210: a6ca 093e 8d53 e63d 38a0 43be 0a1e 6d3e
00000220: ebdb 6b3e c656 063e f4c3 a6bd 7838 0bbd
00000230: bdb1 443e d65d 473b 3aeb 52bd dc06 c93d
00000240: 6b1e 6d3e 42d8 22be b5c4 613d c754 0b3d
00000250: b256 f83c 4f05 273e 8fb1 9fbd 44ec a9bd
00000260: ff12 82bd 5c18 073e 1d25 703d 063c c33d
00000270: 8d7a b9bc c800 a0be 1653 123e 3b0b 9b3c
00000280: 3a58 71be 4378 1abe 9631 1a3e 32d7 3b3c
00000290: e6d9 0d3d c17d 47bc f43b d7bd 391e 8c3d
000002a0: 3e53 1a3c c44e bfbd 841a b6bd a974 b43d
000002b0: fbf0 883b 4ec4 093e 40cb 813d 88fc 47be
000002c0: 541e a5bc 0777 f4bc b475 ad3c d815 313d
000002d0: 2528 233e ed58 8f3e 6169 51bd 7b9f 06be
000002e0: fcf8 f2bd a773 c53c 116d 323e 49a1 7a3d
000002f0: d807 2abe f166 75bd fe5d 6fbd ec48 11be
00000300: 1d3f 9c3e 15eb 04bd 8eaf 0abd 86bf 44be
00000310: 03f4 6d3e 882a a83d d8d6 eb3d 7d50 e8bd
00000320: bb7c 303d d856 28bb 651e 213e ae4b ca3b
00000330: b3ad 3f3e 4bb7 65bd bff0 dc3d 1007 ca3d
00000340: a2c0 ba3d e468 953c cf3b 563e 002e 57bd
00000350: 1104 113d e904 253d af2c 603d 9d22 7c3d
00000360: 3da0 103d 4135 e53c d635 4b3e 8113 a43c
00000370: fe79 013e 4567 a73e 249d 953e a02e 0ebe
00000380: 9f8e 213e 54c9 0fbe f720 f33d 7ddd e0bd
00000390: f5f0 d93d c1ee 0f3e d9ee f33d d583 8a3e
000003a0: 9375 273e fa45 e03b 7971 bd3d 76a7 e73e
000003b0: 9d91 2d3e 2f97 de3d 348f 30bd 0bd9 0d3e
000003c0: a6bd 083e 485b f13d a0d9 323e 44e7 e13c
000003d0: d3b4 6c3e 2ce7 5e3e 57e7 613e ae65 853e
000003e0: 016c 1e3e 561d 9b3d 1ece 173d 8231 383e
000003f0: 6e02 8ebd 656c 443d c53e 4abe af7f 913e
0.09724694 0.087281406 0.05226469 -0.085938394 0.18799952 0.0021140564 0.18354398 -0.01049007
0.2376036 0.19763575 -0.11508002 0.21630594 0.03871795 0.101462506 0.108050115 0.16906925
0.16204253 0.14898771 0.16580424 -0.03416101 -0.049214467 0.050771043 0.08848238 0.09841445
0.12835062 0.1854827 0.06537445 0.07713881 -0.025621584 0.23665829 0.25470638 -0.10780262
-0.0070210397 0.09910412 0.033313066 -0.10183006 0.16583231 -0.08347538 0.033510897 -0.074523576
0.12797743 -0.031706512 -0.025246816 0.66606784 0.0439341 0.26250243 0.03039573 0.09382341
-0.05036064 0.07040359 -0.022966303 -0.10201522 -0.0930341 0.29102987 0.0863854 0.022245374
0.17886649 -0.047123164 0.05862216 0.0712204 -0.03229931 0.11117015 -0.23639208 0.028648697
-0.04449635 0.15597588 -0.07556304 0.09866507 0.07941009 0.087930806 0.096456446 0.09684283
0.07435303 0.09897233 -0.14321429 0.14160772 0.04510961 0.058668043 0.0071921227 -0.08395486
0.05262939 -0.018468171 -0.101372026 -0.110161886 0.040189333 0.09057077 -0.10619233 -0.0064061307
0.20004526 0.12846081 0.078774124 0.006930023 0.19742134 0.082428105 -0.16685082 0.09668582
-0.05656428 0.05618894 -0.036830056 0.02124692 0.03772091 -0.12677112 -0.027622592 0.0075859847
-0.09321372 0.0010199209 0.12854521 -0.261766 -0.10900408 0.18236406 0.10093218 0.10637925
0.06840625 0.0176847 -0.0057525015 -0.075113565 -0.08406568 0.10565206 0.08400953 0.017984184
0.10038495 0.13485338 -0.2027803 0.13043058 0.025835074 0.049670838 0.07965977 0.15354034
0.036636166 0.19467263 -0.075195074 -0.19720197 0.1345621 0.11246405 -0.19104087 0.2315599
0.23033111 0.13119039 -0.08142844 -0.0339894 0.19208427 0.003042092 -0.05149386 0.098157614
0.23156135 -0.15902808 0.055119235 0.034016397 0.030314777 0.16310619 -0.077975385 -0.08297017
-0.063512795 0.13192886 0.058629144 0.09532933 -0.022641445 -0.31250596 0.14289507 0.018926254
-0.23568812 -0.15084939 0.15057978 0.011464881 0.034631632 -0.012175978 -0.10509482 0.06841702
0.009419261 -0.09341195 -0.08891776 0.08811314 0.0041791177 0.1345379 0.06337595 -0.19529927
-0.020156063 -0.029841913 0.02117429 0.043233722 0.15933283 0.27997532 -0.051125888 -0.13146774
-0.11863896 0.024102999 0.17424418 0.06118897 -0.16604555 -0.059912626 -0.058439247 -0.14187974
0.30516902 -0.032450754 -0.03385883 -0.19213685 0.23237614 0.08211237 0.115155876 -0.11343477
0.043087702 -0.0025686529 0.15734251 0.0061735725 0.18718605 -0.056083005 0.10788106 0.09864628
0.09118773 0.018238492 0.20921253 -0.052534103 0.03540427 0.040287886 0.054730114 0.061556447
0.035309065 0.027979495 0.19844756 0.020028831 0.12644193 0.32695976 0.2922145 -0.13884974
0.15777062 -0.14041644 0.11871522 -0.109797455 0.10641662 0.14055921 0.11910791 0.27053705
0.16353445 0.0068442794 0.09250159 0.4524495 0.16950078 0.1086868 -0.04310532 0.13852327
0.13353595 0.11784989 0.1746583 0.027576096 0.23115854 0.21767873 0.22060905 0.26054138
0.15470888 0.07573955 0.037061803 0.17987636 -0.06934057 0.047954936 -0.19750507 0.28417727

lstm.bias_hh_l0 f4 [256]
00000000: d335 353e 1ce5 993d 2812 873d e0c3 8e3d
00000010: 08fa 0a3e bf33 773d 661f 183c 9277 903d
00000020: cfe4 9d3d 069f 683e b9bf ff3c 3d50 313e
00000030: 3c02 323e e116 c6bc 976c e03d 4de9 363e
00000040: fb1c b83d f6a8 bd3c 302d ab3d d631 7d3d
00000050: 4df5 a73a 5305 9c3d 4380 c93c 3b6f fa3a
00000060: e892 ee3d ada1 df3d 2779 40bc efef ce3d
00000070: 3352 0dbd 734e 8e3e 7897 523e fcd4 bd3d
00000080: 95a9 053e 705d 193d 8268 403d 619c 93bb
00000090: a9c5 733e 4570 8fbd cd3f 7b3d 43e3 ffbd
000000a0: b17a 163d 57a0 a3bb 9fbf ac3d 3159 163f
000000b0: 6e2a df3d 75ec 753e 8e26 843d ba43 af3d
000000c0: 88b0 d1bd 3dd5 66bd 6e4a 84bd 7e17 f3bc
000000d0: 8c04 203c ee21 f43e 2878 4fbd 806f 5d3d
000000e0: 33f4 233e 437e 013d 96be 793e 0bed b73d
000000f0: 7cf3 ee3d c2c7 c63d dc8b 03be 80b1 1c3d
00000100: 2b6e 62bd 5916 113d 4170 e0bc 948e 043e
00000110: a56f e9bc b089 f03d d132 403d 8685 fe3d
00000120: b337 523e b0ae 4a3c e8ec e4bd 9428 973d
00000130: d114 20bb 7725 3a3e 62b3 b4bd 5156 07be
00000140: 79bb 9a3d 3fd3 a13b 3081 ccbd 94c7 0cbb
00000150: bb45 f2bb adad d03d 6a11 40bc dea8 c53d
00000160: f25d bf3c 8a97 a53d b547 ba3d 07ff bdbd
00000170: b6b0 393e d825 693d c4fe a3bc 70cc 3a3e
00000180: 6d66 d7bd 23d4 f6bd 1472 5a3d 19d6 f8bb
00000190: 6286 fbbd 64ef 343c e923 edbd 3d8b 8ebd
000001a0: f682 5bbd dc3c 63bc 7e0f c13d 58e6 77be
000001b0: 175c 68bc e0e2 463d 040c 7e3c b382 24bd
000001c0: d729 0b3d bee7 9bba 4388 513d d3c2 03ba
000001d0: fe48 2c3c 4ec0 753d 7cef 1fbd ba33 27bc
000001e0: 8bb0 b23d da05 97bd 25e9 b53c cfc2 04bc
000001f0: 4736 b93d d3b3 e13d 3d6f 7cbd f967 d03d
00000200: 549f babd cf0b f13d e8f3 16be 169d 3cbe
00000210: 098f 2e3e 1865 85bd d79a 0abe 15db 543e
00000220: 7655 b33d 90b6 2f3d 6aeb 52bd 776f f7bd
00000230: eaaf 1a3c 6fc2 53bd 0d3b d63d 6be7 373e
00000240: 163f 783e c745 0fbe e2b1 b5bc 5284 e0bd
00000250: 70e8 04be 2202 473e 3d6e b53d 290f 50bd
00000260: 3668 8d3b 6f16 753e 7d54 713d e4bc 0d3e
00000270: 0a9e 22bc 1c72 24be dd20 bbbc 5dad c43c
00000280: b780 f9bd f259 49be d871 183e 5656 85bd
00000290: 5119 243e 880c e33d 0deb babd a3c7 b7bd
000002a0: 6377 7bbc de7a 13be cadf d1bd e738 ae3d
000002b0: a224 04bd 9e9c 2d3e d1b0 4d3d 6332 f73c
000002c0: 9e18 c43d 4699 90bd 0d7f 973d 1179 0bbd
000002d0: 11c0 353e f52f 873e cbf3 5cbe 3710 f4bd
000002e0: cc03 063d 673a 9e3c de37 ee3c 1d6d c03d
000002f0: a6b6 c9bd 9cdb 0abd 1d7a 8dbd 0b42 1abc
00000300: f3df 9d3e 2eeb e73d 2e71 c5bd a38e 2abd
00000310: dd62 5a3e 66f3 843d 9dc5 a13e 9182 62bd
00000320: 3846 af3d 8322 b8bc 0548 8c3d afc3 7fbd
00000330: be8d 0f3e 0061 de3d 4820 b03d 4887 0c3d
00000340: f3a1 963d e6cd 243e 5997 853e 245b bf3d
00000350: 94f1 633b ab81 6bbc e104 3f3e d06a 113e
00000360: 504a 543d 4fe2 29bd 4bc6 423e 3a96 ad3d
00000370: e03c 5abd f833 4c3e caf8 673e bd6c 17bd
00000380: fe37 e33d 78fd bcbb e4dc 013d 6c29 08bc
00000390: b64f b43d 4dc8 cf3c fa67 083e b4e3 8a3e
000003a0: 8f1e 863d 7fd9 dabc 8f88 64bd 5624 be3e
000003b0: b03e 1b3e dd77 e43c 52f7 12be b070 853e
000003c0: 2a11 993d 1577 a3ba 7743 d83d c363 0f3e
000003d0: 9897 803d ad18 313e 5bae 533d b832 573e
000003e0: 5796 2d3e 4e0d a3bc 4977 0cbc 318b ff3d
000003f0: cb49 cfbc 9924 073e 422f 2a3b 3a40 623e
0.17696314 0.07514402 0.0659526 0.06970954 0.13571942 0.060352083 0.00928483 0.07054056
0.077096574 0.22716913 0.03121935 0.17315765 0.17383665 -0.024180831 0.10958212 0.17862435
0.089899026 0.023151856 0.08358228 0.061815105 0.0012814194 0.07618203 0.024597293 0.0019106636
0.11649114 0.10919509 -0.011747635 0.101043575 -0.03450222 0.27794227 0.20565593 0.09269139
0.13052972 0.037442625 0.046974666 -0.004504726 0.2380587 -0.070038356 0.061340142 -0.124945186
0.0367381 -0.0049934792 0.08434986 0.58729845 0.10896765 0.24015982 0.06452666 0.0855784
-0.10238749 -0.056355704 -0.06459509 -0.029674288 0.009766709 0.47682136 -0.0506517 0.054061413
0.16011123 0.031614553 0.24389109 0.08980759 0.11667535 0.097060695 -0.12846321 0.038255215
-0.055280846 0.035421703 -0.027397277 0.12945014 -0.02849562 0.11745012 0.046923462 0.12427811
0.2052906 0.01237075 -0.11177999 0.073807865 -0.002442647 0.18178354 -0.08823277 -0.13216521
0.07555289 0.0049385126 -0.09985578 -0.0021481263 -0.0073935664 0.10189376 -0.011722902 0.096513495
0.023360226 0.080855444 0.09095708 -0.09277158 0.18133816 0.056920856 -0.020018943 0.18242049
-0.10517583 -0.120521806 0.05333145 -0.007593882 -0.12281491 0.011043403 -0.11579115 -0.06960151
-0.05359169 -0.0138694905 0.09426783 -0.24208963 -0.014182112 0.04855621 0.015505794 -0.040163707
0.03397545 -0.0011894626 0.05115534 -0.00050262845 0.01051545 0.05999785 -0.03904675 -0.010205204
0.08725079 -0.07374163 0.022205899 -0.008103087 0.09043556 0.11020627 -0.061629523 0.10176081
-0.09112421 0.117698304 -0.1474148 -0.18419299 0.17046751 -0.06513423 -0.13535629 0.20786698
0.08756535 0.042898715 -0.05149404 -0.12081807 0.009441355 -0.0516991 0.10460482 0.17959373
0.24242815 -0.13991462 -0.022179548 -0.10962738 -0.12979293 0.19434407 0.08858917 -0.050795708
0.0043154014 0.23934339 0.058918465 0.13841587 -0.009925375 -0.16059154 -0.022842819 0.024008447
-0.121827535 -0.19663218 0.14887178 -0.06510608 0.16025282 0.110863745 -0.09126864 -0.089736246
-0.015348288 -0.14402339 -0.102477625 0.08506947 -0.0322615 0.16954276 0.050217453 0.030175393
0.09575008 -0.070604846 0.0739728 -0.034051005 0.17749049 0.26403776 -0.21577375 -0.11917155
0.032718465 0.019314958 0.029079374 0.09395812 -0.098492905 -0.033900842 -0.06908057 -0.00941516
0.30834922 0.11324154 -0.09640728 -0.041639935 0.21326776 0.06491737 0.3159608 -0.0553003
0.08558315 -0.022477394 0.06849674 -0.062442478 0.14018914 0.10858345 0.08599907 0.0343087
0.07355108 0.16094169 0.26092032 0.093435556 0.0034781443 -0.014374177 0.18654205 0.14200902
0.051828682 -0.04147559 0.19020955 0.08475919 -0.05328071 0.199417 0.22653499 -0.036968935
0.11094664 -0.0057675205 0.0317048 -0.008310657 0.08804266 0.025364066 0.13320914 0.2712685
0.06548797 -0.026715038 -0.055794295 0.37137097 0.15160632 0.027889187 -0.14352158 0.26062536
0.07473977 -0.0012471402 0.10559743 0.140029 0.06278914 0.1729457 0.05167995 0.21015441
0.16951881 -0.019903805 -0.008573362 0.124777205 -0.025303742 0.13197555 0.002596811 0.22094813

lstm.weight_ih_l1 f4 [256, 64]
00000000: af1a 003c feee d3bd 914f 66bd a6c1 cebd
00000010: e56c ad3d b833 33bd a07b 87bd fa25 38bc
00000020: 1a36 3a3c df83 4b3e 2dca 58bd e20b b1bd
00000030: 85b8 18be 7945 3cbd 5378 af3c 7ed4 db3c
00000040: 6adc 0bbc ae84 263c 5774 6ebd a09c 053e
00000050: 7d00 be3c 1de2 df3d 4755 303d 4037 123e
00000060: 21b1 de3c ec04 153d 28b3 f8bd e7b6 9fbc
00000070: a49c f9bd 73be c7bd 7b97 d63d f64c ddbd
00000080: bffd a2bd 31db 4f3d 5305 72bd 23f7 8f3c
00000090: bae3 9f3d 35a6 11be 758b c3bd 684f ecbc
000000a0: a045 663c 9804 18be 6119 ba3d 03da 75be
000000b0: 90f8 603c 194a 993d f6e3 a53d 9f03 cf3d
000000c0: 0929 313d 82aa 19be 78ba 12bc 791c 963d
000000d0: bf23 27ba a52c db3d c1be 53bd e9f9 8c3c
000000e0: a9db 2d3d 2343 fcbb 51cb f9bd 1712 1e3c
000000f0: d603 a5bd 95d5 b3bd 60ca 89be 2f7d 0fbe
00000100: 3a1b 01be db40 98bb 1eb6 463d d871 69bd
00000110: 5351 96bc d4f2 61bd f95f bf3c 27db 89bd
00000120: dfe1 413c b554 f93d 31c4 1f3e 4a41 093d
00000130: 6e4b d83d d7cd b1bd bcc1 1bbd 52f7 8a3e
00000140: 3932 93bd 7817 c93d 3746 673d 7e06 34bc
00000150: 1452 91bd 8294 cb3d b9b4 523d 3469 123e
00000160: 0eaf 1e3e ada3 d73d db8b 71be bcd8 b6bd
00000170: 059a 043e 662b 21bd a7b8 233d 12b4 b139
00000180: 6878 4fbe bf75 0d3e 8fbd 14bd f9c6 ae3d
00000190: b6b3 843c 9263 c83d 37df a03d a9f4 5d3e
000001a0: 1af6 c5bd ff28 83bd b55c 4e3d e52e 03be
000001b0: cef7 1fbc 68db c03d 1964 ca3c 75e1 62bc
000001c0: ab71 00bc 72c0 bebd 3b87 4d3e 881f aebd
000001d0: 27a3 c33d f22b 73bc 0078 3dbd c095 bb3d
000001e0: 1b5a 24be 48ef 0c3d 33fb 91bd a58e 3ebe
000001f0: 4f7a a5bc 883c 993d f464 18b9 333e 19be
00000200: 7605 2c3d 0d03 72be 140c 8d3c af26 15be
00000210: 26ac 073e 95d9 fe3d 4263 87bc 3bd7 3f3d
00000220: 5650 173d 8bdc 0e3f 789a af3c fccf 563d
00000230: 11a0 39be 6bb4 e1bc 8e85 12be 1197 553f
00000240: 2854 093e 6cca 3a3c 6141 67bc 4674 af3d
00000250: 7a44 11bc 7127 863c b4db edbb 7749 d63d
00000260: 2759 f83d 26ba 263e 5023 64be c94e d6bd
00000270: 5d16 b43c ea0c e23d 8f29 223d b5b9 e8bc
00000280: 9548 44be 5ea2 62bd 1c36 cdbd 6768 20bd
00000290: d6d9 86bd 2569 93be 3e2a 77bd 591f 65be
000002a0: e5da 623d 4bd7 2e3c 7050 60bb dbc9 123e
000002b0: 7426 993e eaa9 73bb 0092 1cbd f889 04be
000002c0: c3a5 573d 67db 1cbe ad61 f53c 2a50 19be
000002d0: 661a d5bd 06ea d93d e3cc c8bc f725 e83d
000002e0: 1dd3 babd c862 1ebb 80bb 16bd f6d2 94be
000002f0: b0da 0a3e 363e cb3d 5d46 87be 6b9e 1abe
00000300: f0fa 2d3e 6581 a83d e0ab 0abe 72c7 12bc
00000310: e307 683e d19a 3d3d 0148 923d 0c64 d33d
00000320: 1677 96bd 6d1c 103e c9c6 75be 99f3 64bd
00000330: fd5e 103e 1e9a 3a3c eabb f43c 35e9 e43d
00000340: 5efa df3b 0ff0 693b eb04 b5bd 953b f43c
00000350: 518b 11be 8756 683d 4a54 c5bd 6474 1f3d
00000360: 68ef 1b3e 7d75 bebb a439 0f3e 1efe f6bd
00000370: be91 c03c 8307 9bbe 580e 823d fde8 bf3d
00000380: 960c f0bc f48b 0fbe ef62 e4bd 75be 9cbd
00000390: 81fe 37bd d181 9dbb c289 ae3c e83a 88bd
000003a0: 5668 7eba 4125 e03d ac86 26be b455 cdbe
000003b0: db4e cabd 2a44 643d 5f68 003e 3f1e 453d
000003c0: 79e7 f4bd 2b70 18be 63be 5a3d 1e01 f4bd
000003d0: f410 cabd 92f0 303c b178 c3bd b0d1 40be
000003e0: 2ee1 54bd 39cd 22bd f6f8 85ba 8def e63c
000003f0: 03db 18bd 313f 883d c84e 00be 78e5 18be
0.007818862 -0.103483185 -0.056228224 -0.10095529 0.084680356 -0.043750495 -0.066153765 -0.011239523
0.011365438 0.19874524 -0.052927185 -0.086448446 -0.14914139 -0.04596469 0.02141968 0.026834723
-0.0085364375 0.010163469 -0.05821642 0.13048029 0.023193592 0.109317996 0.043050077 0.14278889
0.027184071 0.036381647 -0.12143546 -0.019496394 -0.1218808 -0.09753122 0.10478111 -0.10805695
-0.079585545 0.050746147 -0.05908711 0.017573899 0.07807107 -0.14223559 -0.09548084 -0.028846458
0.014054686 -0.14845502 0.09086872 -0.24008946 0.013731137 0.07484836 0.08100121 0.101081125
0.043252025 -0.1500645 -0.00895559 0.073296495 -0.0006375871 0.10701875 -0.05169559 0.01720901
0.042445812 -0.007698433 -0.12196983 0.009647868 -0.08057372 -0.08780972 -0.26912212 -0.14012598
-0.12608042 -0.0046464032 0.048513524 -0.056993335 -0.018349325 -0.05516322 0.023361193 -0.06731253
0.011833637 0.1217436 0.15602185 0.03350953 0.10561262 -0.08681839 -0.038026556 0.27141815
-0.071873136 0.098189294 0.056463446 -0.010987876 -0.07095733 0.09940435 0.05144188 0.14297944
0.15496466 0.105292656 -0.23588507 -0.089280576 0.12949379 -0.03934803 0.03997102 0.00033894234
-0.20260775 0.13814448 -0.03631359 0.08534045 0.016198974 0.097846165 0.07855075 0.21675362
-0.09666081 -0.06404304 0.05038138 -0.12810858 -0.009763671 0.094168484 0.024705933 -0.013847698
-0.007839601 -0.0931405 0.20071118 -0.08502108 0.09552603 -0.01484202 -0.04625702 0.09159422
-0.16049998 0.034407884 -0.071279906 -0.18609102 -0.020199923 0.074822485 -0.00014533458 -0.14965133
0.041997395 -0.23633976 0.017217673 -0.14565538 0.13249263 0.12443844 -0.016526822 0.04683612
0.03694185 0.5580527 0.021435961 0.052444443 -0.18127467 -0.02755185 -0.1430876 0.83433634
0.1341101 0.0114008 -0.014114709 0.08567099 -0.008866424 0.016376229 -0.0072588567 0.10463231
0.121263795 0.16281947 -0.22279096 -0.10464246 0.02198332 0.110376194 0.039590415 -0.028408865
-0.19168313 -0.055330627 -0.10020086 -0.039162066 -0.06584518 -0.28791156 -0.06034302 -0.2237524
0.055384535 0.010671447 -0.0034227632 0.14334814 0.2991215 -0.0037180134 -0.038225174 -0.12943256
0.052648317 -0.1531807 0.029953802 -0.14971986 -0.10405426 0.106403396 -0.02451176 0.11335366
-0.09122298 -0.0024167765 -0.036799908 -0.290672 0.13559985 0.09923975 -0.2642087 -0.15099494
0.16990256 0.08227805 -0.13542128 -0.008958684 0.22659259 0.046290223 0.0714264 0.10321817
-0.073469326 0.14073344 -0.24001612 -0.055896375 0.14098735 0.011389283 0.02987476 0.11177293
0.006835266 0.0035696065 -0.08838829 0.029813567 -0.14213301 0.056723144 -0.096352175 0.038929358
0.15228045 -0.0058123455 0.13986832 -0.12060188 0.023506995 -0.30279168 0.06350392 0.09370611
-0.029302876 -0.14018232 -0.111516826 -0.07653514 -0.04492045 -0.004806735 0.021305922 -0.066518605
-0.00097048783 0.109446056 -0.1626231 -0.4010445 -0.09878322 0.05572907 0.12539814 0.048124548
-0.119582124 -0.14886539 0.053404223 -0.119142756 -0.09866515 0.010799544 -0.095445044 -0.1882999
-0.05197256 -0.039746497 -0.0010221291 0.028190399 -0.03731824 0.06652678 -0.12530053 -0.14931285

lstm.weight_hh_l1 f4 [256, 64]
00000000: be5e 913d b4f8 44bd f904 123e 2ee7 e33d
00000010: 0b12 493c 18e1 183d c985 59bd ea1e 34be
00000020: b9d9 79bd a180 ed3c 7fd1 a7bd d79b 05be
00000030: 6604 78bd 098a 413d 3c66 153d a004 a3be
00000040: 6565 f13d d8f7 79bd 7d08 24ba bcfc 38be
00000050: be4d 093b 801c 273e f7a6 e9bc 9493 ce3c
00000060: 5c52 05be 92c2 d73c 3f4e f3bc db8f 773c
00000070: d1c8 bebd b805 b0bd a57c b33d 5c06 babd
00000080: 1167 70bb f548 b5bd 76a1 14be 6a62 67be
00000090: c5f3 b2bc 7d92 2fbd c480 a43d 2ee8 153e
000000a0: a28d 22bc eb34 aa3d cc5c 71bb c821 dd3d
000000b0: 9d02 973d f72a 0fbe 34a2 523d 2115 0f3e
000000c0: ae2b 78bb fc26 4ebd 6eb2 db3d 56d7 9f3c
000000d0: d62d 94bd bd4f d63c bcbf e03d d3e5 0a3d
000000e0: 2656 6ebb 0a2e cabb abba 3d3b e500 3fbc
000000f0: 2dc2 843d 99f0 17bd e1fc 1fbe 0b79 f13c
00000100: 1de2 4abe 70c5 ac3d c0f9 f93d 4b2b 28bd
00000110: 9194 82be 1ebf 773d f521 82bb 812a dcbd
00000120: d104 80bd 98d1 43bc ead9 ea3b d766 f2bc
00000130: b41f 39bd 4167 fabd 6e6b 943e 1fb1 b23d
00000140: 5293 c63d 678d 25be 35c7 353d a8a0 febd
00000150: 541d 71bd 1dc2 cdbc fc19 95bd 73e1 8bbd
00000160: 4b48 47be a0fc 24be 090d 5bbe ea01 20be
00000170: 1d56 0a3c e584 86bc 6e78 42bd 628d 603d
00000180: fb4d 533d 2c8f cebb 5afc 34ba 5f1a 90bd
00000190: ab76 e43c 6531 39be 4a2c 37bd 5d61 acbc
000001a0: c74b 1ebd 19fc 81bd f25d b0bc c146 b43d
000001b0: ce51 563c 8215 28be a64a c73d 9ae7 333e
000001c0: 55ad dcbd b5da 153e 9a97 2c3e 5890 863d
000001d0: 3612 97bd 1c1a f73d 3fcd a63d 6941 bbbd
000001e0: 9901 9bbc 0f33 65bd edde a13d 69d1 c6bd
000001f0: a76a 363d 8b04 153e d236 513d b0fd c8bd
00000200: 2abd 37be 5858 9c3c 224b 343e 499a af3e
00000210: 1317 6bbe 7d9c 8f3e d8b4 c9bd 1711 1cbe
00000220: ab2a 9ebe 50ac c13d e0ed c73c 118d 3dbe
00000230: 9970 043e 108e 853c 7003 853d 6b8d 393e
00000240: 486e a03e df0e f5bd 1b2b 933b e926 00bf
00000250: 8f28 37be 3abc 923e 250b 94bc 8488 0d3e
00000260: 1ef8 82be c279 f7bd c44e 153d 0d37 a6bd
00000270: 9e01 1abe c7ca 8e3b e954 723e 8f25 54be
00000280: b77b 01be 36f3 c93d 2454 28be d6fa 79bd
00000290: 84bd ecbd 4032 afbe d991 abbd e4c6 44be
000002a0: 7a87 803d 9a8e 153c a145 d43d 8c3f 8a3d
000002b0: 7f35 8e3e 4aee b9bc c765 0c3e 215f 913e
000002c0: 1f2e a6be d106 4f3e 3d06 6f3d baf0 983e
000002d0: 42a2 a3be 723c d43c c788 8d3e b474 25be
000002e0: ae7f 64bd d359 0a3e c0e9 a9bd a7d6 48be
000002f0: c991 2c3e 8ebc fd3b cf98 bf3c ad56 25be
00000300: fa60 063e b691 203e a8d6 1b3c 4f69 1bbe
00000310: d81f 36bd dc60 bb3d 7932 0dbe 1966 c9bc
00000320: ec63 fc3c 09cb d4bc d66e ffbc f8ea bdbd
00000330: bb2d 153e 953d 6c3b f9ea 51bd dd5e 8dbe
00000340: 1da5 f1bd ff71 0ebe a50d 3ebd d1f1 26be
00000350: 8904 343e ee51 0fbe 9e8e a73b 1c9e 8abc
00000360: a9d8 863d 4608 14be 333e 05be 2676 933c
00000370: 9d0a d3bc 18a3 91bd fd3a 513d 27b1 563d
00000380: a90d 47bd 9a20 c9bd bb9e c53d 81c8 083d
00000390: 6fb7 7cbd 9ebe 98bc 4476 28bd 67d7 333e
000003a0: 61b0 4c3d be63 1abe 0cb5 c83d 5f9f 973d
000003b0: 8a07 673d e427 933c 0a64 8f3d 15fc d63d
000003c0: 0057 1bbe e5be f6bd c2db 06be 741e 163d
000003d0: 67f1 413e 31f6 d43d 563a b0bb f447 373d
000003e0: b2ce d9bd 8d6b c7bd 5e6f 143d 591b 04bd
000003f0: fb92 0fbd e996 51be b74c debd 2ad4 d53c
0.07098149 -0.048088744 0.1425971 0.111280784 0.012272368 0.03732404 -0.053106103 -0.17589918
-0.060998652 0.028992 -0.08194255 -0.1304773 -0.06055107 0.04725078 0.03647445 -0.31839466
0.117869176 -0.061027378 -0.00062573684 -0.1806516 0.002095088 0.16319466 -0.028521998 0.025216855
-0.13019699 0.026337896 -0.029700397 0.015109981 -0.093156464 -0.08594841 0.087640084 -0.09083244
-0.0036682526 -0.08851806 -0.14514717 -0.22596136 -0.021844754 -0.04286431 0.080323726 0.14639351
-0.009921463 0.083108746 -0.0036828993 0.10797459 0.07373545 -0.13981234 0.05142422 0.13972904
-0.0037867832 -0.050330147 0.10727392 0.01951186 -0.07235305 0.026161069 0.109740704 0.033910584
-0.0036367266 -0.006170039 0.0028950374 -0.011657928 0.064823486 -0.037094686 -0.1562381 0.029476663
-0.19812818 0.08436096 0.12205839 -0.041056912 -0.25503972 0.060484998 -0.003971333 -0.107502945
-0.06250919 -0.0119518265 0.0071670907 -0.029590053 -0.04519625 -0.12226725 0.28988212 0.087251894
0.09696068 -0.16167222 0.04437943 -0.124329865 -0.05886586 -0.025116974 -0.07280347 -0.068301104
-0.19461171 -0.16111994 -0.21391691 -0.1562573 0.008443383 -0.01642079 -0.047478132 0.054822333
0.05158804 -0.0063036885 -0.00069040584 -0.0703628 0.027888617 -0.18085249 -0.04471997 -0.02104252
-0.038646486 -0.06346912 -0.021529172 0.08802558 0.013081027 -0.16414455 0.09731035 0.17568818
-0.10775248 0.14634211 0.16854706 0.065705 -0.0737652 0.12065527 0.08144616 -0.09143335
-0.01892166 -0.055956896 0.07903848 -0.097079106 0.044535305 0.14552514 0.05107767 -0.09814012
-0.17943254 0.019085094 0.17606786 0.34297398 -0.22958021 0.2804908 -0.09848946 -0.15240894
-0.30891928 0.09456694 0.02440542 -0.18510844 0.12933578 0.016303092 0.06494796 0.18120353
0.31334138 -0.11965727 0.0044912226 -0.5005937 -0.17886566 0.2865923 -0.01807172 0.13821608
-0.25579923 -0.1208377 0.03645207 -0.08115969 -0.1503968 0.004357669 0.23665203 -0.20717452
-0.1264485 0.09860842 -0.16438347 -0.06103023 -0.11559585 -0.34218025 -0.083774276 -0.19216496
0.0627584 0.009128237 0.10364843 0.06750402 0.2777519 -0.022696633 0.137107 0.2839289
-0.32457063 0.20217444 0.05835556 0.2987116 -0.3195973 0.025907729 0.27643415 -0.161578
-0.055785827 0.13510828 -0.082965374 -0.19613133 0.16852488 0.0077434247 0.023388295 -0.16146345
0.13122931 0.15680584 0.009511627 -0.15176891 -0.044463962 0.09149334 -0.13788785 -0.024584817
0.030809365 -0.025975721 -0.03118078 -0.09273332 0.14568226 0.0036047448 -0.051249478 -0.27611437
-0.11799071 -0.13910674 -0.04639973 -0.16303183 0.17579855 -0.13996097 0.005113437 -0.016921096
0.065842934 -0.14456281 -0.13012008 0.018000674 -0.025761897 -0.07111186 0.051081646 0.05241504
-0.04859701 -0.098206714 0.09649416 0.03339434 -0.061698373 -0.01864558 -0.041128412 0.17562638
0.049972896 -0.15077111 0.09800157 0.074034445 0.056403674 0.017963357 0.07001503 0.104972996
-0.15169907 -0.12048129 -0.13169768 0.036650136 0.18939744 0.1039852 -0.005378048 0.044746354
-0.10635127 -0.097373106 0.03623902 -0.032252643 -0.03505228 -0.20467724 -0.10854476 0.026102144

lstm.bias_ih_l1 f4 [256]
00000000: f72c 8fbd f8f1 e1bc d92c cfbd 5932 753d
00000010: 6bd1 1cbc aff9 453d a0c5 e23d d8c5 0ebc
00000020: 2c48 bd3c 276d 92bd 271e 4ebd 28d3 86bd
00000030: f35a 9fbd 2403 a9bd 04c4 e53d 7ae2 babd
00000040: 658c f53a 5de6 60bd f62a bbbc 5aed 963d
00000050: cd37 673d 6768 28bc 8925 d9bc f19f 9dbd
00000060: de2d e23b 8d8b 3cbd d499 443e 09e1 153e
00000070: 6c97 47bd d87d 00bd 8202 29bd 3a81 af3d
00000080: 892d 6a3d 5048 2b3b 8b73 873d c2fd b33c
00000090: f443 3a3d e3c3 f13c 10ff 4a3d 956b 0cbc
000000a0: ba64 0fbd 5499 0d3d 1dbb bc3c a407 64bd
000000b0: e6e1 a13d 1c94 b7bd 8b20 103a ad8a a23d
000000c0: de8b 013d 3c0e 1cbd 2c86 e7bc 7f46 9d3d
000000d0: 8c19 383d f01b cbbd a3c7 b33d 0647 743d
000000e0: 2a3a 3a3e 3425 263a 893f df3d 782f 4d3c
000000f0: 3444 383e 6eac a43d a0bc 8d3e 4e6a 253d
00000100: 169b 6ebd 95d1 dc3c 03b0 8e3d 7228 1bbd
00000110: 33ae 62bd a6f3 8e3d e4ee 993c bb2e e43d
00000120: 39a5 20bd 7aac ad3d 805d 7b3d 44d4 8abd
00000130: 1416 4c3d 7923 97bc a79f f43d 7181 e03d
00000140: 2453 533d a5e3 fc3d 36f4 3b3d 716f 8abd
00000150: d1c7 3f3d e222 f83d 98a9 0e3e 2690 0b3d
00000160: f17d 153e d74a fe3d bedc 2fbd 1e57 7fbb
00000170: 88db fc3d aa00 c83d fac3 883c ca45 423d
00000180: ea94 093e ea67 ba3d f0f6 093e 95fd 9d3c
00000190: 5149 023c 0766 68bc ba1c ee3d 7d4c 2abd
000001a0: f43e de3c 8bb7 503d 7085 bdbd d56c 58bd
000001b0: 913f 0dbc 71fd 79bd 8851 0cba df8b 3f3d
000001c0: 7ed0 253d fc6e 0f3d f6bc bdbd f6a0 ff3d
000001d0: 4a66 943d 39bb 96bc aa3e 68bd bf32 bcbd
000001e0: b1e8 00bd 465e 823d e632 6cbd 20e7 efbc
000001f0: 9be3 103d 3cf7 433d 6a48 97bb 1554 b73d
00000200: fa13 933c 3003 89bd a211 0dbc a61b 813d
00000210: 3e2f 0b3d 6e49 0639 7fab d4bd 2021 a6bd
00000220: 8f87 93bd c53b 8d3d 6edb fabc e246 ee3d
00000230: 962f debd cc40 5f3d b0fb c5bd 0793 1c3c
00000240: 24ad b8bd 19a4 6abb a7a4 1dbd 2dd3 debc
00000250: 8b03 853d b56f 333d 5ca1 393d 7e23 48bd
00000260: 02bc 723d ba71 d63d 3310 e33d 0b7f 4f3d
00000270: f57a 74bd 1b53 ec3d d2c9 023e 9dc4 c8bd
00000280: 07b1 e23c 8318 f7bd 66a2 a1bd 297f 0a3e
00000290: 132c bebd 6880 f4bc 6acd 403d 50c6 52bb
000002a0: 0d9c 043d 6ce6 1bbe 8074 2b3d bb35 ca3c
000002b0: 04fc ffbd cd78 a8bd 54c8 abbb f768 d0bc
000002c0: dd57 e83c bb8b 5a3d 0b5d f2bd 0a8b 14bd
000002d0: 072e 063e 8cb8 0e3c f372 82bd eddd 1e3d
000002e0: 1aeb b13d 1c85 2cbc 1add 8cbc 7b94 f7bc
000002f0: 0fc1 ce3d 0da8 2cbd ae6a 993d 43b4 a3bd
00000300: 169a 243e 0c5f 513d 1b16 c53d de09 d8bc
00000310: 51cf 053e 3067 1b39 409b 41bd df70 a1bd
00000320: 3fbf 8bbc 2e2a 193e a487 4f3c 0a15 d63d
00000330: c894 19be 7646 563e 5401 563c f809 0abd
00000340: aa2d b63d f5e8 f13d 1d90 993d 6ae0 873d
00000350: dd21 e53d 4816 9e3d 1a3a a43b acac 343e
00000360: 3e1a 753b 3025 1f3e e4a0 463e 4cf9 273e
00000370: 444b a73d 673a 58bd 901a 553e bb9d 053d
00000380: 8e09 c43d 58dc e63d baf0 e93d 150d a53c
00000390: d4a1 cd3d 009c f93d 8194 5c3e 3a88 a6bc
000003a0: 65ed d73d 6124 163e 67bd 48bd b8ba 713d
000003b0: 329d a5bd 9c8e 4bbc 9b43 8dbd 59aa 883d
000003c0: 45fc 493c 9696 753e e89d 2f3e b899 2e3e
000003d0: 6570 f8bd 91e3 4c3c b4bf a5bd adc4 003d
000003e0: 2b0e d03d 632f 423d 34be cdbd 2e55 ff3c
000003f0: c5b5 c4bc c426 f73b baab ec3d 488a 30bc
-0.06990998 -0.0275812 -0.10115976 0.05986247 -0.0095714135 0.04833382 0.1107285 -0.008714162
0.023105703 -0.071497254 -0.050321724 -0.065832436 -0.07781019 -0.08252552 0.11219028 -0.09125228
0.0018733857 -0.05490719 -0.022847634 0.0736949 0.0564497 -0.010278798 -0.026507156 -0.07696522
0.0069024405 -0.046031523 0.19199306 0.14636625 -0.04872839 -0.031370014 -0.041262157 0.0856957
0.057172332 0.002613563 0.06613835 0.021971587 0.04547496 0.029512351 0.049559653 -0.008570571
-0.03500817 0.034570053 0.023038441 -0.05567135 0.07904415 -0.089637965 0.00054980133 0.079366066
0.03162753 -0.038099512 -0.02826222 0.07679462 0.04494624 -0.09917438 0.08778312 0.059638046
0.1818625 0.0006337941 0.1090079 0.012523524 0.17994767 0.08040701 0.27682972 0.040384583
-0.05825337 0.026955405 0.06967165 -0.03788037 -0.05534191 0.06980066 0.01879067 0.11141726
-0.03922007 0.08480163 0.061368465 -0.06778768 0.049825743 -0.018449532 0.11944514 0.10962189
0.05159296 0.12348107 0.045887195 -0.06759537 0.04682142 0.12116028 0.13931882 0.034073018
0.14598824 0.12416618 -0.042935126 -0.0038961838 0.1234656 0.09765752 0.016695011 0.047429837
0.13435712 0.09101851 0.13473105 0.019285956 0.00795205 -0.014184481 0.11626573 -0.04157685
0.027129628 0.05095629 -0.09253967 -0.052838165 -0.008621112 -0.061032716 -0.0005352725 0.04676425
0.040482037 0.035017952 -0.09264557 0.12481873 0.072460726 -0.018399822 -0.056700386 -0.091893665
-0.03147191 0.063656375 -0.057665728 -0.029285014 0.03537331 0.047843203 -0.0046167867 0.08951584
0.017953862 -0.06690061 -0.008610161 0.06304102 0.0339806 0.0001280659 -0.10384273 -0.08111787
-0.0720359 0.06896166 -0.03062221 0.116346136 -0.1084892 0.054505154 -0.09667146 0.009556538
-0.09017399 -0.0035803376 -0.038487103 -0.027200306 0.064948164 0.043807704 0.0453199 -0.048861973
0.05926133 0.1047091 0.11087074 0.050658267 -0.059687573 0.115392886 0.12772301 -0.09803126
0.027672304 -0.12065222 -0.07892303 0.1352507 -0.0928575 -0.029846385 0.047070898 -0.003216166
0.032375384 -0.15224618 0.04185915 0.024683824 -0.1249924 -0.08226166 -0.005242387 -0.025440676
0.028362209 0.053355914 -0.11834153 -0.03626541 0.13103496 0.008710992 -0.06369581 0.038785864
0.0868742 -0.010529783 -0.017195273 -0.030222168 0.10095417 -0.042152453 0.07491051 -0.079933666
0.16074404 0.051116034 0.09623357 -0.026371893 0.13067366 0.00014820392 -0.0472672 -0.078828566
-0.017058967 0.14957497 0.012666617 0.10453232 -0.14998162 0.20925316 0.01306184 -0.033700913
0.088954285 0.11812011 0.074981906 0.066346005 0.111880995 0.077190936 0.005011809 0.17643994
0.0037399675 0.1554153 0.19397312 0.16403693 0.08168653 -0.05279007 0.20810914 0.032621127
0.09572135 0.11272496 0.11422868 0.02014784 0.10040632 0.12187958 0.21541025 -0.02032863
0.10543326 0.14662315 -0.049008753 0.05901596 -0.08086623 -0.012424137 -0.0689766 0.06673116
0.012328212 0.23983225 0.1715008 0.17050827 -0.121308126 0.012505428 -0.08093205 0.031437565
0.10158952 0.047408473 -0.10046044 0.031168547 -0.024012456 0.007542463 0.11556192 -0.010775156

lstm.bias_hh_l1 f4 [256]
00000000: da3e 543d 3bcb 183c bce3 3dbe 82e6 903d
00000010: ced9 723d 5706 723d 12c4 d33d 13a5 743c
00000020: b8c5 5dbd f28d 0ebc 3cbc 283e d1f8 7ebc
00000030: 647e 0b3d 066a 983d 3e0f 6cbd 96e8 2bbe
00000040: 2c21 0b3d c810 3ebc 8b07 ce3d a9c1 2e3d
00000050: 8ea4 ac3d ac9c 27bd fac5 aabd 1f5a 0f3e
00000060: 4203 023e 77a6 713d dc2f 793e 1384 1b3e
00000070: 3784 5a3d 8299 c03d 2b22 e6b9 f8b8 0fbe
00000080: 85ca 273e 9cfa 593e d057 1c3e ebb2 ce3c
00000090: 9bc0 883d 9c51 9d3d 743d 963d 3948 52bd
000000a0: 13bf b1bd 17fd 033d c2e2 12be 849c a33c
000000b0: 76d8 b13d 46a6 abbd 607b 30bd 169a 743d
000000c0: f915 e0bc c660 ba3c 0d3d 8ebd 5531 7e3d
000000d0: 2d03 b6bb fedb a5bc d9dd 75bd 49fa cd3d
000000e0: 29eb 5c3e 3748 acbd b683 f53c 306a cebd
000000f0: ec77 3b3e 1d95 e03d a409 533e 83b4 85bd
00000100: a428 283d 927d 2bbd d241 813d d7c2 29bd
00000110: f0b6 b2bb 93b1 0e3e 173c 973d eb7a 79bd
00000120: 5867 46bd a149 1cbd dd9c 403c 1503 c2ba
00000130: c1f0 4a3c bea9 c43d ccb0 80bd db4f 52bd
00000140: 0d44 7e3d 0453 e1bc e5da 1b3e 8822 553d
00000150: 8fcf 273d b7b5 bc3d feb5 043e 666c e33c
00000160: 7834 013e ae68 ebbc 44e5 babb 0566 103e
00000170: 2302 c13d 0b46 8bbc 4ca6 adbd cca4 bcbc
00000180: ea41 73bd c582 303e 461f bd3a 207e e7bd
00000190: 4757 483d efde b3bb 805f 39bb 7a1c 59bd
000001a0: 630e 523d 0e24 8d3d 364f e53d 3b5f 24bd
000001b0: 2750 bf3d eed0 b83c 6a6e e43c 75f7 d0bc
000001c0: 2557 e33c 7665 f6bd 0388 71bd b1d3 813d
000001d0: e137 8bbd d372 aebd 80c8 913d 4713 65bd
000001e0: 3c65 f7bc ac19 83bc 6e94 cc3d d73e 003d
000001f0: 3a15 b63d 3af4 9e3d 8c3a 253c 4a07 2b3d
00000200: 29c9 953d 4200 ea3d 724a 98bc 4623 f33c
00000210: e1bc a1bd ba4b 32bd bf2a 3bbe 87da 40bb
00000220: 8e12 6b3d 3cf6 d7bd 3c96 09bc e4b5 eabd
00000230: f7b7 053e 15cf ba3d 3d14 3a3d 56e2 b13d
00000240: 4de6 bf3d 4170 de3c bed3 51bc bfa9 29bd
00000250: 20dc cf3c bf99 1fbc 0d07 fa3c 4917 d6bd
00000260: 2403 ad3d 83ee 323d 86b2 853c 655d 15bd
00000270: dba6 f93b 84d5 e5bd 9c81 a43d 89e6 fa3d
00000280: a626 493b a240 e7bc b01c 9fbd 38ab 29bd
00000290: a3f4 213d 2828 07be 1eed 2dbd 5c6a b03d
000002a0: fc96 c73d 4804 1fbe abf8 49bc 147f c73d
000002b0: d7dc d03d 0abc ea3c ae53 5fbd 6a4c e9bd
000002c0: a1d9 b1bd 4a5e 8839 f1a4 3a3c 5a5e 93bd
000002d0: 695c 01bc 0654 b33d fa51 ef3b 3deb d2bd
000002e0: 0c71 c0bd d9c0 4cbd 2f3d 71bd 093d 643d
000002f0: 7413 e8bc 87b5 72bd 5ecc bb3d 36e3 b73c
00000300: 8c6f 323e b04b 17be a720 d1bc 97be 193e
00000310: d3a6 983d 14b8 cf3d 1af5 153e 3621 eabd
00000320: 65ab 853d 17b1 9f3c e653 0abd 07dc 15bd
00000330: 70e3 1abe 3a92 7b3d d4ec 1d3e f62e e83d
00000340: 46f4 4b3e 3c17 d7bd 7a4c 2fbd 03b2 fa3d
00000350: b1cd 8abd 2934 383d 1c25 6a39 5b86 633d
00000360: a434 963c df58 b33d 7b50 f83d 4cfe 293e
00000370: 9ddc f13d 4418 fc3d b1b3 9a3d b8d1 1a3e
00000380: f9e8 50bb 5880 833d 8e60 673d 514c 9ebd
00000390: 43cc 533d c5d6 153c 885b 4d3e ce39 1d3e
000003a0: 0072 a1bd 770b f1bc bb2b 4f3d 1d6a 0a3e
000003b0: b69a a9bd 9b68 403e 5a34 333e f70a f73d
000003c0: 192b da3c e0d4 523e 9c0f 463d 52f3 103e
000003d0: 86fe a9bd be7b 78bd ff66 f63d 5f2e 363e
000003e0: 4f1a cc3d 0a23 6aba 8191 353c 88e2 d93c
000003f0: dac2 9e3a 2132 fa3d e28f 1a3e ad6a 18bc
0.051817752 0.009325798 -0.18543905 0.07075216 0.059289746 0.059088077 0.10340132 0.014931935
-0.054143637 -0.008700835 0.16478056 -0.015562252 0.034056082 0.07442097 -0.057631724 -0.16787943
0.033967182 -0.011600681 0.100600325 0.042665157 0.08429824 -0.0409209 -0.08338542 0.13999222
0.12696555 0.058996644 0.24334663 0.15187101 0.053348746 0.09404279 -0.00043894476 -0.14035404
0.16385849 0.21287006 0.15267873 0.0252318 0.066773616 0.076815814 0.0733594 -0.05133841
-0.08679023 0.032223787 -0.14344314 0.019972093 0.08683865 -0.083813235 -0.04308641 0.05971726
-0.027354227 0.022751223 -0.06945238 0.062058765 -0.005554578 -0.020246502 -0.060026024 0.10057504
0.21574081 -0.084122114 0.029970031 -0.100788474 0.18307465 0.10965941 0.20609146 -0.065285705
0.041054383 -0.0418678 0.06311382 -0.04144558 -0.0054539368 0.13934927 0.07384508 -0.06090824
-0.0484384 -0.038156155 0.011756149 -0.0014801944 0.012386502 0.09602688 -0.06283721 -0.051345687
0.062076617 -0.027505405 0.1522022 0.052034885 0.040969428 0.09214347 0.1296005 0.02776165
0.12617671 -0.028736439 -0.0057036 0.14101417 0.09424236 -0.017001173 -0.08478984 -0.0230278
-0.059389032 0.17237385 0.0014428876 -0.11303353 0.04891136 -0.0054892222 -0.0028285682 -0.053005673
0.05128325 0.068916425 0.11196749 -0.04012988 0.0934146 0.022560563 0.02788468 -0.025508622
0.027751515 -0.12031071 -0.0589676 0.06339205 -0.067977674 -0.08517995 0.071183205 -0.055926587
-0.03019964 -0.016003452 0.09989248 0.03130993 0.088907674 0.07761426 0.010084759 0.041755
0.07313759 0.114258304 -0.018590186 0.029679906 -0.07897354 -0.04352925 -0.18278025 -0.0029427127
0.057390742 -0.10545012 -0.008397635 -0.11460474 0.13058458 0.09121529 0.045429457 0.08685748
0.09370098 0.027153136 -0.012806831 -0.041421648 0.025373518 -0.009741246 0.03052094 -0.1045366
0.08447865 0.043684494 0.016320478 -0.03646602 0.0076187677 -0.112223655 0.080325335 0.12251002
0.0030693202 -0.028229062 -0.077691436 -0.041423053 0.039539944 -0.13198912 -0.04246246 0.086140364
0.09745595 -0.15528977 -0.0123273535 0.09741035 0.10198372 0.028654117 -0.054523163 -0.11391528
-0.086840875 0.00026010192 0.011391864 -0.071957305 -0.007895567 0.087562606 0.0073034735 -0.102987744
-0.09396562 -0.0499886 -0.05889624 0.05572227 -0.028329588 -0.05925515 0.09169839 0.02244721
0.17425364 -0.14774966 -0.025528265 0.1501411 0.07453694 0.10142532 0.1464428 -0.11432116
0.065268315 0.019493623 -0.033771418 -0.036586788 -0.15125823 0.06141875 0.15422374 0.11337082
0.19917402 -0.105024785 -0.042797543 0.12240984 -0.06777514 0.04497162 0.00022329803 0.055548053
0.018335648 0.08757185 0.121247254 0.16600913 0.11809657 0.12309316 0.07553805 0.15119064
-0.0031877144 0.06420964 0.056488566 -0.077294 0.05170847 0.009145443 0.20054448 0.15354082
-0.07883072 -0.029424412 0.050578814 0.13517042 -0.08281462 0.18789904 0.1750044 0.12062638
0.026631879 0.20589018 0.04835473 0.1415532 -0.083004996 -0.060664885 0.12031364 0.17791127
0.099659555 -0.0008931613 0.011082054 0.026597276 0.0012112514 0.122165926 0.1509395 -0.009302777
