LogAnomaly/result/deeplog/deeplog_epoch250.pth (torch_old, 642150 bytes, 30 tensors)

lstm.weight_ih_l0 f4 [256, 1]
000000 6b 13 4a be da 6e 7b bc 92 f3 5d bd 23 ed aa 3d
       -0.1973397 -0.015346253 -0.054187365 0.083460115
000010 a0 d4 0b be 9f eb 38 3d 24 e3 ce bd 00 a5 7a 3d
       -0.13655329 0.04514658 -0.101019174 0.061192513
000020 1c b6 2c 3e e7 6e a0 3d 16 71 29 3e 91 b2 a7 bd
       0.16866344 0.07833653 0.16547045 -0.08188356
000030 1e e9 c2 3d 32 49 f3 3d 94 6b a2 bd c4 34 83 3e
       0.0951712 0.11879195 -0.07930675 0.25626194
000040 bf e8 76 3d 30 7e 52 3d 70 93 19 be 01 0d 14 3e
       0.060280558 0.051389873 -0.14997649 0.14458086
000050 11 ee 22 3e 28 99 9c 3d 76 02 51 3d 7b 6f 5d bd
       0.15911128 0.076464 0.051027738 -0.054061394
000060 12 31 45 3e c1 01 7b bd 91 26 7a bc 81 f1 7f 3d
       0.19257 -0.06128097 -0.015267984 0.062486175
000070 a8 26 94 3d 8b 54 19 be 70 f2 d0 3d cd c6 35 3c
       0.072339356 -0.14973657 0.10202491 0.011094761
000080 28 d9 05 3e 0f 5c c0 3d 2f 40 90 3c 7e bd 45 3d
       0.1307112 0.09392559 0.01760873 0.048276417
000090 40 cc 59 3e 2d 5e fb 3b ed 83 05 3e 23 16 0f be
       0.21269321 0.0076711387 0.13038607 -0.13973288
0000a0 69 15 01 3c 0f 2f 0f be 6c 56 03 3e 44 1c cb 3e
       0.00787864 -0.13982795 0.12825936 0.39670002
0000b0 8e 87 e8 bd ae ac d0 3d 02 0d 11 3e df 97 4b be
       -0.1135398 0.10189186 0.14165118 -0.19882153
0000c0 8b c2 41 3e 85 de 18 3e 22 79 b5 3e f7 2c cb 3d
       0.18921869 0.14928634 0.3544398 0.09920686
0000d0 41 97 8b 3d 70 55 a3 3e 46 91 05 3e 9d 9a 63 bd
       0.06815959 0.3190112 0.13043699 -0.055567373
0000e0 f6 f5 2f be 9f ec ab 3c 47 b1 db 3d 3b ea 21 3d
       -0.1718367 0.020986853 0.10727172 0.03953002
0000f0 1d 0e 34 3d 8b 8d fd 3d 87 99 c8 3d 50 f2 1b be
       0.043958772 0.12380513 0.09794908 -0.15229154
000100 4b ab 82 bd 1d 21 54 3d d7 bd ee 3d 84 e5 f5 bc
       -0.06380328 0.05178939 0.11657303 -0.030016668
000110 99 24 bb bd 0a e5 54 3d 98 24 e1 3d e8 d8 4c 3d
       -0.0913784 0.05197624 0.10993308 0.050011545
000120 9a 40 2a bd 4e d3 93 3e c0 47 2a 3e db 34 f8 bd
       -0.041565515 0.2887215 0.16628933 -0.121194564
000130 88 b2 ce bc 53 8b 92 3d 8f 64 2f 3e 93 6c 82 3e
       -0.025231615 0.0715548 0.17128204 0.2547346
000140 a9 ed d9 3c a2 d1 fe 3d 6f 8c ea bd 75 a2 ee 3c
       0.026602583 0.12442328 -0.11452567 0.0291302
000150 6e d3 6b 3b 2f 74 62 3e 48 d7 05 3e f3 0d 59 bd
       0.0035984176 0.22114633 0.13070405 -0.05299182
000160 c2 0b 3f 3c b9 68 95 3d 8d 15 1b bf 8c e5 9c 3d
       0.011660518 0.07295365 -0.6057976 0.0766097
000170 d3 41 82 bd de 2a 89 be 77 55 62 3e bd f7 aa 3c
       -0.06360211 -0.26790518 0.22102915 0.020870084
000180 2f db b5 bc 22 3d 13 3e ba 28 e2 3d 07 5b b4 3d
       -0.022199241 0.14378789 0.11042924 0.088064246
000190 f2 1e 91 3d 08 88 40 3e 42 73 bc 3d 3e 64 12 3d
       0.070859805 0.18801892 0.09201671 0.03574013
0001a0 7d 0f 0b 3e f0 a9 71 3e 6b f1 2f 3e 31 f4 86 3d
       0.13580127 0.23599982 0.17181937 0.065895446
0001b0 da 1c 05 be 44 d2 11 bd 29 5a 59 3d 53 0c e6 bd
       -0.12999287 -0.035600916 0.0530645 -0.112328194
0001c0 91 21 8b 3d b6 2b cb 3d de ba 9d 3e 20 8c 79 3e
       0.06793512 0.099204466 0.3080663 0.2436986
0001d0 27 af 4f 3d 40 ee e2 3c 7e 1f 19 3e 9f 84 e8 bc
       0.050704148 0.027701497 0.1495342 -0.028383551
0001e0 72 79 37 be 7d 05 31 3e fa b8 ea 3e ea ea 04 bd
       -0.17917421 0.1728725 0.4584425 -0.032450594
0001f0 fc 7b 03 3d de 8d 4b 3d 1d 8e b0 bd 62 e6 1b be
       0.032100663 0.049695842 -0.08620856 -0.15224603
000200 7d ae dc 3e 7e 7a 08 be e7 6b ab 3d 76 63 fe 3c
       0.43101874 -0.13327977 0.0837019 0.031053286
000210 00 76 75 3e 92 b2 32 be 89 fa 40 bd 87 ef 0e 3e
       0.23970795 -0.17450932 -0.04711393 0.1395856
000220 ec 64 27 3e c8 1b 2f bd 02 a5 77 bd 07 9f 65 3e
       0.16347092 -0.042751104 -0.060460098 0.22423945
000230 36 3f 71 be d6 12 23 3e 7b fb 25 be 71 d5 c0 bd
       -0.2355927 0.15925154 -0.16209213 -0.09415711
000240 b1 1c 5d 3e d9 07 97 be 85 88 82 be 9c 55 54 3e
       0.21592976 -0.29498175 -0.2549478 0.20735782
000250 bd 6c 36 3e 05 df 12 bd 40 89 13 be 66 89 4a 3e
       0.17814918 -0.03585722 -0.14407825 0.19778976
000260 6e d8 c5 3d e2 4c a3 3e 86 db e3 be 65 f5 a1 3c
       0.09660421 0.31894594 -0.4450342 0.019770334
000270 46 3c d5 3c ae 39 37 be f0 28 6d 3f 18 9d e6 b9
       0.026029717 -0.17893097 0.9264059 -0.00043986063
000280 25 00 f8 3e 3b d0 d4 3c ed 5c b2 3d ab 9f e3 bc
       0.4843761 0.025978198 0.087091304 -0.027786097
000290 8a 22 9e be c4 ed 4e be d9 8a 90 be 08 5d 3b be
       -0.30885726 -0.20207888 -0.28230932 -0.18297207
0002a0 ed b6 40 3e e8 d9 45 3d 0b b1 08 be de 6b d5 bf
       0.1881978 0.048303515 -0.13348787 -1.6673543
0002b0 ba 78 ba 3e 27 4c 9f 3e 0c c7 81 3d dc c7 fc 3e
       0.36420232 0.31112787 0.06336793 0.4937123
0002c0 94 e3 e9 bd 70 9a 18 be 82 7d 15 be d1 9d 13 bd
       -0.1142036 -0.14902663 -0.14598659 -0.036039177
0002d0 ed 3a ca be a1 18 eb 3e a9 22 14 3d 61 fe 2c 3e
       -0.39498082 0.45917228 0.036165867 0.16893913
0002e0 6e 58 b9 be 56 55 95 3d ca a3 61 3d c6 e1 9e bd
       -0.3620028 0.07291667 0.055087842 -0.077579066
0002f0 47 3e 08 3e 29 18 9c bd 59 e5 a2 3d 19 4c ae be
       0.13305007 -0.07621796 0.07953901 -0.34042433
000300 83 2a 35 3e b5 8d 8c bc b3 2a 23 3e 6f b6 a8 3e
       0.17691998 -0.017157415 0.15934257 0.32951686
000310 16 ac 36 3e 6f fd 90 3d 6f 94 2a 3e ce 96 62 3e
       0.17839083 0.070795886 0.16658185 0.2212784
000320 1f 4d 4b 3d d8 12 97 3e 21 e0 82 3d ff 09 6e 3e
       0.049634095 0.29506564 0.063904054 0.23246
000330 60 45 80 3e cb 42 17 3e 06 3c 6a 3e 5b 27 95 3e
       0.2505293 0.14771573 0.2287446 0.29131588
000340 c2 4e bd bd e6 41 05 3d de 2e 9b 3e 18 30 3d 3e
       -0.092435375 0.03253355 0.30309194 0.18475378
000350 5e 62 92 3e 8e 93 6e 3e 8c c3 53 be 3e 67 35 be
       0.28590673 0.23298475 -0.20680064 -0.17715165
000360 e4 a9 33 be 1b 7e 50 3d ab 27 34 3b 34 7a de 3d
       -0.17545277 0.050901514 0.0027489464 0.10863152
000370 59 e5 ba bc 93 16 b0 be cb 15 04 3e 9d 0b 8f 3e
       -0.02281444 -0.34392223 0.12898938 0.27938548
000380 3f 3b db bd 3e af ad 3e 92 97 a7 3d 14 eb 9f 3e
       -0.1070466 0.33922762 0.081832066 0.31234038
000390 40 f8 bb bd d9 ec 65 be a1 42 a7 3d 34 28 98 be
       -0.09178209 -0.22453631 0.08167005 -0.29718173
0003a0 45 12 55 be 05 a6 8e 3e c8 bf 47 3e 75 4a 97 be
       -0.2080775 0.27861038 0.19506752 -0.29548994
0003b0 ad a3 87 3e d5 fa 86 3c 1b 9c 5c 3e f0 a1 29 be
       0.26492062 0.016477028 0.21543925 -0.1656568
0003c0 96 56 40 be be 5b f8 bd c9 ec f4 3d e6 89 5f be
       -0.1878303 -0.121268734 0.11959226 -0.21829948
0003d0 46 b0 9a 3d 42 0e c4 bd f6 bb 7c 3d 65 c1 9c 3d
       0.07553153 -0.09573032 0.06170269 0.076540746
0003e0 7d 88 2f 3e 07 3a 61 be 30 14 86 3e a6 71 0e be
       0.1714191 -0.21994792 0.26187277 -0.13910541
0003f0 93 80 e7 3d 70 0e 19 3e 1f f5 5f 3e 6f 88 f2 3d
       0.113038205 0.14946914 0.2187085 0.11842429

lstm.weight_hh_l0 f4 [256, 64]
000000 4c d9 6c 3e 68 da 1c be 64 06 e9 3c 8f 3d 95 3d
       0.23129767 -0.1531769 0.02844543 0.07287132
000010 92 64 79 3e d4 4c e6 bd 2d 72 76 bd 2b e8 9b 3d
       0.24354771 -0.112451226 -0.06016748 0.07612642
000020 2f f1 25 3e e0 77 f3 3d 88 0b 3e bc 32 46 20 be
       0.16205285 0.11888099 -0.011599429 -0.15651777
000030 3f 42 43 be 1c 8f bc 3d cf 5d 02 be b3 66 83 3e
       -0.1906824 0.092069834 -0.12731098 0.2566429
000040 f3 35 47 3e 2a 7e 24 bd 49 33 27 3d 40 e7 16 3e
       0.19454174 -0.040159382 0.040820394 0.14736652
000050 8e 94 8c bd a5 28 c1 3d bd 4a a4 bd 63 82 42 3e
       -0.06864272 0.094315805 -0.08022068 0.18995051
000060 d2 e8 85 3e 18 28 68 3e 08 c8 be 3d 16 e5 b1 3d
       0.2615419 0.22671545 0.09315497 0.08686273
000070 09 12 a5 3d fd c5 96 be 4d 1a 70 3d 60 a4 00 3e
       0.080600806 -0.29447928 0.058618832 0.12562704
000080 39 44 54 3d ec 25 87 3d f1 8e 98 3d 36 46 27 be
       0.051822875 0.0659903 0.07449139 -0.16335377
000090 22 70 4e bd 45 db 47 be c3 90 dc bd bb 57 9b be
       -0.050399907 -0.19517238 -0.107697986 -0.3034037
0000a0 c5 7d a2 3d fa 04 ed bd ec 2d b6 3d 3e 32 d4 bd
       0.07934145 -0.11573215 0.08895478 -0.103611454
0000b0 c5 d5 4c 3d b5 d7 2b 3e 0f bb 20 3d c1 90 83 3e
       0.050008554 0.16781504 0.039240893 0.25696376
0000c0 a0 69 94 be 8f 80 b4 bd bc 29 30 3e 7e 69 a8 be
       -0.28986835 -0.08813583 0.1720342 -0.32892984
0000d0 16 fe 51 3d 67 56 3c 3e 26 4f e1 3d da 12 9a bc
       0.051267706 0.18392335 0.110014245 -0.018807817
0000e0 c2 73 c0 bd a8 83 ba 3e 74 69 00 bd 40 96 da bd
       -0.09397079 0.3642857 -0.031350568 -0.10673189
0000f0 cd 7f 03 3e b6 79 25 bd 25 88 1d be 84 89 8e bd
       0.12841721 -0.040399276 -0.15383966 -0.06959823
000100 21 9f 03 bd 18 d0 cc bd 2e 5a 98 3e 98 fa 66 3e
       -0.03213418 -0.10000628 0.29756302 0.22556531
000110 4b f3 22 3e bd f6 36 be 60 ed b3 3d 7e 44 b2 3d
       0.15913121 -0.1786756 0.0878551 0.0870447
000120 fe c1 1e 3e b5 ef bf 3d b5 56 04 be 15 60 b6 3d
       0.1550369 0.09371892 -0.12923701 0.08905045
000130 0c ae 5d be 5c 47 3e 3e 8c 05 0b be 70 95 a7 be
       -0.21648425 0.18581909 -0.13576335 -0.327312
000140 ce ed 66 3e 5d c7 1a bd d8 df 15 be 2b 08 5e 3e
       0.22551653 -0.037787784 -0.14636171 0.21682803
000150 dc 1d 04 3e 6d 85 b7 bd d7 b1 33 be 55 01 8f 3d
       0.12902015 -0.08960996 -0.1754831 0.06982676
000160 9b 50 c8 3e 4b 95 c6 3d 8f 0b c9 bd 5e 60 e3 3d
       0.39123997 0.09696444 -0.09816658 0.11102365
000170 90 5a 65 3e 11 77 4d bc b0 4a 30 3d 2c b7 3b 3e
       0.22397828 -0.012540595 0.043039978 0.18331593
000180 20 36 0e 3d c2 50 29 3e db d1 93 3d 6b 31 ec bd
       0.034719586 0.16534713 0.07217761 -0.11532863
000190 ee 83 22 bd ab 72 57 be 36 07 1e be 3c bf 44 3d
       -0.0396766 -0.21039836 -0.15432438 0.048033938
0001a0 34 48 53 3e cf 47 87 bd b7 9e e8 bd e9 6f b6 3d
       0.20633012 -0.06605493 -0.113583975 0.08908064
0001b0 90 49 eb 3c fa 97 24 3e 72 91 5a 3e 03 07 cb bd
       0.0287216 0.160736 0.21344545 -0.09913447
0001c0 42 ee 81 be 10 8c 09 be 27 52 3b bd 05 0c 7a be
       -0.2537709 -0.13432336 -0.045732643 -0.24418648
0001d0 71 2d ce 3b 4b 4b 87 bc a6 e4 86 3e 20 50 1a 3e
       0.006292038 -0.016515395 0.2634632 0.15069628
0001e0 ca ed 46 bd c2 89 bc 3e 73 51 5b 3d d6 0b 54 be
       -0.048566617 0.3682385 0.053544473 -0.2070764
0001f0 7e 21 0e 3e 91 8e 25 be 7d 55 93 3d 5e 29 be bd
       0.13879964 -0.16167666 0.0719404 -0.09285234
000200 06 d5 e9 3d 31 aa a2 3d 2b d4 ed 3d b7 15 62 3e
       0.11417584 0.07942618 0.116127335 0.22078596
000210 9f 17 1d 3e 1f f5 80 be ac 57 6f be c5 19 59 3e
       0.15341042 -0.25187013 -0.23373288 0.21201237
000220 32 4d 54 3e 32 5c 99 bc df 29 85 bd 6d 78 cd 3d
       0.20732573 -0.01872072 -0.06502127 0.10032735
000230 ec c2 b0 bd b1 19 75 3d f9 e4 14 be e3 db c3 3d
       -0.086309284 0.059838954 -0.14540471 0.095634244
000240 e0 07 14 3e 16 90 66 be 08 fb ec bb ee 4f 50 3e
       0.14456129 -0.22515902 -0.0072320737 0.20342991
000250 df 39 47 3d 0f af 95 3d 85 cf 94 bd b7 2b a9 3d
       0.048639175 0.073087804 -0.07266144 0.08260291
000260 69 eb 48 3e 99 b5 9f 3d 11 23 13 bd eb 14 91 3e
       0.19621052 0.07798309 -0.035922114 0.28336272
000270 de e6 17 bc a8 c1 c7 be 7a 8a eb 3d bc 7b 7d 3d
       -0.009271352 -0.39014935 0.11501022 0.06188558
000280 77 5b e4 bd 73 9d ee 3d 42 3b 40 3e 18 40 eb bd
       -0.11150258 0.11651125 0.18772605 -0.11486834
000290 13 04 89 3c f8 e3 10 be 7b e8 31 bd cf a0 a8 be
       0.016725576 -0.14149463 -0.0434346 -0.32935187
0002a0 40 3a 19 3e 78 ce 0d be a1 e6 62 bd df fc 81 bd
       0.14963627 -0.13848293 -0.055395726 -0.063470595
0002b0 48 b9 68 3d af dc a8 3d 5b e3 79 3e 8d 89 b1 3b
       0.056817323 0.08245217 0.24403135 0.0054180087
0002c0 e0 6e 6a bd 46 0c 4b 3c 46 f4 06 be 73 e2 ab 3c
       -0.057234645 0.012393063 -0.1317912 0.020982003
0002d0 74 d1 23 3d 94 dc 93 3d 93 b7 5d 3d c6 73 6a 3e
       0.039994672 0.07219806 0.05413015 0.22895727
0002e0 02 70 41 bd 84 84 5d 3e d7 f8 a3 bc ba 3a 00 bf
       -0.04722596 0.21632582 -0.020016117 -0.5008961
0002f0 17 4d 8d bc d8 77 04 be 4d 52 8c 3d dd b8 90 be
       -0.017248673 -0.12936342 0.06851635 -0.2826604
000300 75 74 48 3d b5 b5 63 be 1f b1 ab bc d8 ac 61 3d
       0.048939187 -0.22237284 -0.020958481 0.055096477
000310 31 0e 3b 3d 9b dd ab 3d ae 74 78 3c 90 80 d4 bd
       0.04566783 0.08391877 0.015164537 -0.10376084
000320 20 02 8a bd e6 4a df bc ec d9 0a 3d 2f 8f d2 3d
       -0.067386866 -0.027257394 0.033899233 0.10281216
000330 24 47 d2 bc 56 ae f7 3c bd 5a 4c 3d 1b e6 b4 3d
       -0.025668688 0.030234497 0.049891222 0.08832952
000340 81 3b 8c 39 7f b8 ab bd c3 32 0f be a5 f6 0b 3d
       0.00026747215 -0.08384799 -0.13984208 0.034170765
000350 c3 8a 5c 3d 29 78 43 3b d5 a2 64 be a5 76 87 3e
       0.05384327 0.002982626 -0.2232774 0.26457706
000360 f9 12 53 bd c6 2d 0d 3e 36 0d b9 3c e9 05 a0 3d
       -0.051531766 0.13786992 0.022589307 0.07813627
000370 91 2b ee 3d f9 94 74 be 60 9c db bc c5 47 b2 bb
       0.116294034 -0.23884954 -0.026807964 -0.0054406845
000380 62 26 ad 3d ea b8 08 bd 38 03 01 3e 64 35 3b 3d
       0.084545866 -0.033379473 0.12598884 0.045705214
000390 65 ab 69 bd 1b 07 49 be 43 4e dd bd c0 68 79 be
       -0.05704822 -0.19631617 -0.10805943 -0.24356365
0003a0 7f 5e 6f bd a7 85 6b 3d 0e b1 eb bd 00 01 c7 bc
       -0.058439728 0.057500508 -0.1150838 -0.024292469
0003b0 26 d1 6d 3e 9d 27 44 bd e6 7c 20 be 4f cb 9f 3e
       0.23224315 -0.04788934 -0.15672645 0.312098
0003c0 ea 7d 4e 3c 0a 3f c3 3b a9 18 7e 3d 71 a2 db bd
       0.012603262 0.0059584426 0.062035237 -0.107243426
0003d0 4b 11 c9 bd ad 31 9b 3d 68 9b 2d 3d d9 10 fe 3d
       -0.098177515 0.07577834 0.042384535 0.12405557
0003e0 07 75 c8 bd 7d 3e 00 3e ca 6a f5 3d 12 64 b2 bd
       -0.09787946 0.12523837 0.11983259 -0.08710493
0003f0 47 b5 e1 3d 12 fa 00 bd 88 61 e1 bd e3 e8 4f bc
       0.11020904 -0.031488486 -0.11004931 -0.012689802

lstm.bias_ih_l0 f4 [256]
000000 3e f7 d0 3d bb 42 b1 3d 30 5d 45 3d 90 82 af bd
       0.10203408 0.08655306 0.048184574 -0.08569825
000010 f4 74 43 3e 3a e9 92 bb 0b 29 3c 3e ef 48 bf bb
       0.19087583 -0.004483369 0.18375032 -0.005837552
000020 ee 4d 76 3e 20 a4 48 3e 88 72 f4 bd 9d 3f 5e 3e
       0.24053165 0.19593859 -0.119359076 0.21703954
000030 cd 89 09 3d e4 18 dd 3d ad 7a dc 3d e9 94 21 3e
       0.033578683 0.10795763 0.10765586 0.15779461
000040 cf 70 2b 3e 42 23 1c 3e de 44 2e 3e 67 82 01 bd
       0.16742252 0.15247825 0.17018458 -0.031618502
000050 b4 4b 81 bd 32 ed 50 3d 3a 3e c0 3d 06 91 c4 3d
       -0.06313267 0.051007457 0.09386869 0.095979735
000060 5e a9 08 3e 70 a4 38 3e d9 ea 77 3d a2 e2 9b 3d
       0.13345858 0.18031478 0.060526703 0.07611586
000070 46 48 bc bc 1c 51 75 3e 83 f2 85 3e 5c d1 df bd
       -0.022983681 0.23956722 0.26161584 -0.10928604
000080 b9 62 94 bc bf 1d df 3d c8 a8 11 3d bc 1e da bd
       -0.01811348 0.108943455 0.035561353 -0.10650393
000090 3b 81 25 3e d9 09 aa bd 6c 67 c9 3c a5 2a 9f bd
       0.16162579 -0.083026595 0.024585448 -0.07771806
0000a0 b8 7c ff 3d bb 66 e8 bc 84 c6 20 bd 47 53 2a 3f
       0.1247496 -0.028369298 -0.03925182 0.6653332
0000b0 fc 9e 31 3d 0e 3b 87 3e 54 f4 f8 3c 38 3d c8 3d
       0.04336451 0.26412243 0.030389942 0.097773015
0000c0 3f ca 41 bd 54 6a 8c 3d e3 fe be bc 1b c9 d9 bd
       -0.047312018 0.06856218 -0.023314899 -0.10634061
0000d0 53 99 e3 bd dd 84 96 3e 35 98 b5 3d f2 79 c8 3c
       -0.11113229 0.29398242 0.08866922 0.02447221
0000e0 f5 c3 39 3e 5e 23 42 bd 2d 49 50 3d 2c 16 98 3d
       0.18141158 -0.04739701 0.050851036 0.07426104
0000f0 10 62 04 bd 5f fa ed 3d 43 3e 74 be 3e 82 fa 3c
       -0.032320082 0.1162002 -0.23851876 0.030579682
000100 1e 36 4a bd de fc 19 3e 5c 60 9d bd f1 76 de 3d
       -0.049368016 0.15037867 -0.07684395 0.1086253
000110 ec 65 9b 3d 85 6d b5 3d 6c d9 c1 3d 9d 64 cf 3d
       0.075877994 0.0885878 0.09465298 0.10126612
000120 4d e0 9f 3d f5 ea c8 3d 9d ce 14 be 04 4c 11 3e
       0.07806454 0.098104395 -0.14531942 0.14189154
000130 67 8e 36 3d 62 f7 7e 3d 41 66 a7 3b 7a f6 ae bd
       0.0445694 0.06224764 0.005108625 -0.085431054
000140 07 c1 5e 3d c6 ec a5 bc 08 89 ce bd 75 06 e3 bd
       0.054383304 -0.020254504 -0.100847304 -0.11085216
000150 84 bb 2c 3d 63 f7 b1 3d 6a 8d d6 bd cd 42 90 bb
       0.042171016 0.086897634 -0.10476191 -0.0044024945
000160 6c 31 51 3e 1f c7 f9 3d 3a f4 ad 3d ce cd 66 3c
       0.20429009 0.121961825 0.08493848 0.014087154
000170 0a e2 4f 3e 6e a0 a9 3d d2 2c 2f be fd c9 a6 3d
       0.20301071 0.08282553 -0.17106941 0.08143995
000180 06 f4 7f bd 43 fb 2d 3d 55 b0 25 bd 8f ec a8 3c
       -0.06248858 0.04247595 -0.040451366 0.020620612
000190 45 59 1b 3d 18 22 05 be 57 c0 06 bd d7 b2 6c 3b
       0.03792693 -0.13001287 -0.032898273 0.003611734
0001a0 78 2a bd bd 3a 60 0f 3b 52 24 04 3e e1 26 85 be
       -0.09236616 0.0021877424 0.1290448 -0.26006225
0001b0 7b 7b e8 bd ed 76 3d 3e 18 28 cf 3d ee 8e d6 3d
       -0.11351677 0.18502398 0.10115069 0.104764804
0001c0 5f 98 89 3d e1 3f 96 3c de c4 ed bb fd 33 a0 bd
       0.067185156 0.018341007 -0.0072561344 -0.07822416
0001d0 1b 3a cc bd 7a 91 d3 3d 42 28 ac 3d 8e e0 7a 3c
       -0.0997202 0.10330482 0.08406116 0.015312327
0001e0 4c f8 cc 3d 10 b4 0b 3e 3e 2b 52 be 92 11 01 3e
       0.10008296 0.13642907 -0.20524308 0.12604359
0001f0 1f 8b cc 3c db 9f 3f 3d ee f0 9b 3d fc 07 1f 3e
       0.024968682 0.04678331 0.07614313 0.1553039
000200 66 f0 0d 3d 89 0a 48 3e 45 01 9e bd bb 86 4f be
       0.03465309 0.19535269 -0.07715086 -0.2026624
000210 f6 f3 05 3e 19 f9 ea 3d 66 b4 44 be b8 86 6e 3e
       0.13081345 0.11473293 -0.19209442 0.23293579
000220 37 7b 6c 3e 6c f0 05 3e a9 7f a4 bd 4d 2b 0e bd
       0.23093878 0.13079995 -0.08032162 -0.034709264
000230 0e 1c 46 3e 73 00 cf 3a 1c 28 47 bd a5 48 c7 3d
       0.1934664 0.001579298 -0.048622236 0.09730653
000240 da de 6c 3e 8b 19 1c be 87 35 76 3d 3a ef 0d 3d
       0.23131886 -0.15244119 0.06010964 0.034651972
000250 ac f6 f7 3c 87 b5 28 3e 3b 10 9c bd e3 b9 aa bd
       0.03026899 0.16475497 -0.07620283 -0.08336236
000260 76 32 86 bd 06 7f 03 3e 75 90 84 3d bd be c5 3d
       -0.065525934 0.12841424 0.064728655 0.09655521
000270 9d 6c e2 bc b1 e8 9b be 4b 25 0e 3e 4d fd 73 3c
       -0.027639681 -0.30450967 0.13881414 0.014891935
000280 1a 04 71 be 43 21 21 be cd 10 16 3e 99 05 9b 3c
       -0.23536721 -0.15735345 0.14654846 0.018923568
000290 3c 40 0d 3d 17 12 2b bc 82 61 ca bd 49 88 93 3d
       0.034485087 -0.010441325 -0.098818794 0.07203729
0002a0 ef 04 e0 3b 67 e6 bf bd 11 75 af bd c1 f8 be 3d
       0.0068365256 -0.09370118 -0.085672505 0.0932479
0002b0 48 af 40 3b 35 d0 f7 3d 44 ce 82 3d d7 53 4c be
       0.002940135 0.12100259 0.06386998 -0.19953857
0002c0 17 73 8e bc 09 7c d7 bc 39 f2 ad 3c 46 1c 3c 3d
       -0.017388863 -0.026304262 0.021233665 0.0459254
0002d0 11 eb 23 3e ab 4e 8d 3e db 97 5d bd 2c f0 08 be
       0.1600764 0.2759908 -0.0540999 -0.13372868
0002e0 e0 64 ea bd 2a 34 ba 3c 28 84 35 3e 7b b7 7d 3d
       -0.11445022 0.022729952 0.17726195 0.06194256
0002f0 ca 27 2c be 49 ca 68 bd 1d 52 6d bd d2 bd 10 be
       -0.16812053 -0.05683354 -0.057939637 -0.1413491
000300 d9 3b 9d 3e 3c 22 0b bd ac d9 00 bd 92 0e 41 be
       0.30709723 -0.033968195 -0.031457588 -0.18853214
000310 2d fc 6b 3e b0 e6 9e 3d e9 72 f9 3d c3 ac e5 bd
       0.23045416 0.07758844 0.121801205 -0.11214592
000320 f4 9c 3c 3d c7 e4 02 bb e6 17 1a 3e d4 4a 7a bb
       0.04604812 -0.0019972788 0.15048179 -0.0038191574
000330 d7 d7 39 3e 21 d7 5d bd 07 ed cb 3d 7d ae c6 3d
       0.18148743 -0.05416024 0.09957319 0.0970125
000340 24 51 bc 3d 34 75 9c 3c 9e 02 52 3e 45 ee 50 bd
       0.09195164 0.019098856 0.20508811 -0.05100848
000350 0c 6d 1a 3d 34 ec 32 3d 20 4e 77 3d 3a 5c 80 3d
       0.03770165 0.043682292 0.06037724 0.06267591
000360 15 7c 1c 3d 61 04 cd 3c 16 75 48 3e 93 4d b4 3c
       0.03820427 0.025026502 0.19575915 0.022009647
000370 c9 e7 05 3e 21 71 aa 3e 21 48 99 3e 2d e6 0e be
       0.130767 0.33289436 0.29937842 -0.13954993
000380 36 30 20 3e 39 29 0e be e3 f8 f6 3d 1a ee e2 bd
       0.15643391 -0.13882913 0.1205919 -0.110805705
000390 0c c8 d8 3d 78 26 11 3e fc c6 ff 3d c3 f2 8c 3e
       0.10585031 0.14174831 0.12489125 0.27528962
0003a0 ff 73 2a 3e 18 19 b7 3b 08 36 b2 3d 90 07 eb 3e
       0.16645811 0.005587708 0.08701712 0.45904207
0003b0 2a b4 1f 3e 2f db e0 3d 29 22 32 bd b2 99 12 3e
       0.15596071 0.10979306 -0.04348961 0.14316443
0003c0 11 fe 09 3e be ad f6 3d b1 de 31 3e 36 28 f6 3c
       0.13475825 0.120448574 0.17370106 0.030048471
0003d0 b4 86 63 3e 66 5c 61 3e 52 ba 61 3e 2c 9c 8a 3e
       0.22219354 0.22007903 0.22043732 0.27072275
0003e0 e6 b1 24 3e ee 89 9e 3d a9 4a 03 3d a0 c1 39 3e
       0.16083488 0.07741152 0.032053623 0.18140268
0003f0 07 79 89 bd ad 67 43 3d 54 90 4d be 30 5b 91 3e
       -0.06712537 0.047706295 -0.20074588 0.28389883

lstm.bias_hh_l0 f4 [256]
000000 e0 1c 3a 3e 53 67 98 3d 77 6d 7d 3d 8c 42 8f 3d
       0.18175077 0.074415825 0.061871972 0.06995115
000010 02 ec 0d 3e 1e 2e 5c 3d 64 82 1b 3c d9 fd 99 3d
       0.13859561 0.05375492 0.009491537 0.07519121
000020 6a e3 a3 3d 96 e1 66 3e 36 b4 dc 3c a3 10 32 3e
       0.0800236 0.22546992 0.0269414 0.17389159
000030 f8 bd 2c 3e f9 e4 90 bc a2 9d df 3d cd 5c 2b 3e
       0.16869342 -0.017687308 0.10918738 0.1673462
000040 fb 20 c3 3d da 3e da 3c 93 26 b4 3d da cc 83 3d
       0.09527775 0.026641298 0.0879642 0.06435557
000050 56 0d 4f bc 0c 81 9c 3d 09 9c f5 3c 84 d3 09 ba
       -0.012637457 0.07641801 0.02998163 -0.00052576535
000060 84 09 f9 3d c0 0b d5 3d 13 f4 87 bc c3 d6 cc 3d
       0.12160018 0.10402632 -0.016595876 0.100019
000070 1c 86 02 bd d8 cb 8f 3e 41 aa 59 3e 95 ca ba 3d
       -0.031866178 0.28085208 0.21256353 0.09120671
000080 ba 9a f4 3d 97 aa 41 3d 94 9c 49 3d 67 67 16 bc
       0.11943574 0.047281828 0.04922159 -0.0091799265
000090 c6 76 6f 3e da 84 8e bd d1 ac 56 3d 09 37 03 be
       0.23385152 -0.06958933 0.052410904 -0.12813963
0000a0 7e 41 09 3d f9 49 d9 ba 01 11 90 3d fb 28 16 3f
       0.033509724 -0.0016577832 0.07034493 0.5865628
0000b0 a9 ff dd 3d 89 94 77 3e 51 24 84 3d 65 5a b7 3d
       0.10839779 0.24177755 0.06452239 0.08952788
0000c0 62 71 cb bd 44 63 6e bd 75 00 85 bd d1 43 0b bd
       -0.099337354 -0.058200136 -0.06494228 -0.03400022
0000d0 1f 81 08 bc d4 a4 f5 3e d2 1e 46 bd ef 8d 66 3d
       -0.008331566 0.47977316 -0.048369236 0.056287702
0000e0 74 8f 26 3e 48 5f 00 3d 46 c9 71 3e 4d 27 be 3d
       0.1626566 0.031340867 0.23611936 0.0928484
0000f0 5e e8 ee 3d c8 14 d1 3d 04 b9 05 be 3b 9b 24 3d
       0.11665414 0.10209042 -0.13058859 0.0401871
000100 b4 62 76 bd cc 51 f4 3c 0f ef ea bc 7c c1 0e 3e
       -0.060152724 0.02982416 -0.028678445 0.13940996
000110 72 2f 03 bd 4f e2 f1 3d ac cf 38 3d 03 ca 03 3e
       -0.03202767 0.11810743 0.045119926 0.1287003
000120 ef 03 56 3e 56 73 3c 3c 96 3c e9 bd 65 bd 97 3d
       0.20899938 0.011502108 -0.11388509 0.07409171
000130 e6 d7 43 bb 71 cf 3d 3e 50 f8 b8 bd bf d9 08 be
       -0.0029883324 0.18536164 -0.09031737 -0.13364314
000140 83 51 9e 3d eb 88 4e 3b 17 6e cb bd e0 0c 3a bb
       0.07730391 0.0031514715 -0.09933107 -0.0028389022
000150 53 54 b1 bb 5f 28 c9 3d eb a5 28 bc 5d c3 c9 3d
       -0.0054116636 0.09822153 -0.010293464 0.09851716
000160 d9 24 e2 3c 9c 47 98 3d 3c e7 c6 3d c4 56 af bd
       0.027605461 0.074355334 0.09712073 -0.08561471
000170 77 6a 3f 3e a2 c6 6a 3d ef 90 c6 bc 35 2f 2b 3e
       0.18692957 0.057318337 -0.024239032 0.16717227
000180 42 88 e3 bd dc 74 09 be a2 9b 4b 3d cf af 06 bc
       -0.111099735 -0.13423485 0.04970897 -0.008220627
000190 64 1a fb bd b2 a8 ff 3b 25 f2 f7 bd 8c ae 96 bd
       -0.12260893 0.0078020925 -0.12106732 -0.07357511
0001a0 f2 0b 58 bd 6b 21 50 bc 94 15 c2 3d c0 27 76 be
       -0.052745767 -0.01270328 0.09476772 -0.24038601
0001b0 f4 25 99 bc 70 c5 51 3d c2 d0 80 3c f4 1f 2b bd
       -0.018694855 0.05121368 0.015724543 -0.04177852
0001c0 24 2a 06 3d c6 0d 0c ba e9 61 4b 3d a3 e6 6c bb
       0.032755032 -0.00053426286 0.04965392 -0.0036148212
0001d0 93 66 a8 bb 38 21 6c 3d bc b9 1f bd cc f8 52 bc
       -0.005139181 0.057648867 -0.03899549 -0.012876701
0001e0 29 12 b2 3d 7e cb 93 bd 15 bc a1 3c db 9f 4c bc
       0.0869487 -0.072165474 0.019743005 -0.012489284
0001f0 6f 6f b7 3d 90 c9 db 3d 34 6b 85 bd 94 04 d4 3d
       0.08956801 0.10731804 -0.06514588 0.10352436
000200 05 af be bd 2a 70 f2 3d 99 f4 18 be 22 34 42 be
       -0.09310726 0.118378 -0.14937057 -0.189652
000210 a8 b8 2a 3e bc bf 80 bd 56 ae 0b be 8a 43 56 3e
       0.16672003 -0.062865704 -0.13640723 0.20924202
000220 08 94 b4 3d 1d 1c 2e 3d 3a 63 4e bd ba e9 f8 bd
       0.08817297 0.04250728 -0.0503876 -0.12153955
000230 7c 59 31 3c eb c0 59 bd 13 1d dc 3d 09 08 37 3e
       0.010824557 -0.053162497 0.10747733 0.17874159
000240 17 ff 77 3e 07 87 08 be 3a d1 8c bc 84 37 df bd
       0.24218403 -0.13332759 -0.01718961 -0.10899261
000250 88 f4 04 be 4c b2 48 3e 32 10 b9 3d d2 a9 51 bd
       -0.12983906 0.19599265 0.09036292 -0.051187344
000260 21 fd 16 3b 0c 7d 71 3e 3e 28 85 3d 4e fe 0e 3e
       0.002303906 0.23582858 0.06501816 0.13964197
000270 db 8c 74 bc 18 42 1c be 51 8f dc bc fb 9e a3 3c
       -0.014926161 -0.15259588 -0.026923807 0.019973269
000280 6d d8 f8 bd d6 02 50 be de 50 14 3e 3a 1e 6c bd
       -0.12150655 -0.20313582 0.14483973 -0.057646014
000290 61 f3 23 3e 0b 9a e6 3d 87 10 ae bd af 5d b0 bd
       0.1601081 0.1125985 -0.08499246 -0.08611619
0002a0 cf e6 92 bc 6d c6 13 be ba 39 cb bd 00 bd b8 3d
       -0.017932324 -0.14431162 -0.0992312 0.09020424
0002b0 5c 39 09 bd 74 c0 1f 3e 13 b6 4f 3d 9b 7c d4 3c
       -0.033501968 0.15600759 0.05071075 0.025938323
0002c0 93 c2 c9 3d db 59 89 bd 16 9e 97 3d bd 71 00 bd
       0.09851565 -0.06706592 0.074031994 -0.03135847
0002d0 ff 82 36 3e b3 25 85 3e a1 ff 5f be 87 b2 f8 bd
       0.17823409 0.26005325 -0.21874858 -0.121434264
0002e0 d9 2b 17 3d 87 fb 92 3c d6 77 03 3d 82 f8 c1 3d
       0.03690705 0.017942203 0.032096706 0.09471227
0002f0 7c f6 cd bd 6d 7c fc bc 0c 74 8c bd 84 91 11 bc
       -0.10056779 -0.03082105 -0.06858072 -0.008884791
000300 a3 dc 9e 3e d5 cf e4 3d 3a 86 c0 bd d9 ca 1b bd
       0.31027707 0.11172453 -0.09400602 -0.038035247
000310 11 6b 58 3e 22 5f 77 3d 7a 2c a5 3e de 3a 5d bd
       0.21134593 0.06039346 0.32260495 -0.05401122
000320 32 56 b5 3d 61 77 b3 bc 44 78 7c 3d c6 59 94 bd
       0.08854331 -0.02190751 0.06163813 -0.072436854
000330 ae b6 09 3e 1c 51 e2 3d 27 1c 9f 3d 32 d5 05 3d
       0.13448593 0.11050627 0.077690415 0.032674022
000340 83 32 98 3d 81 af 25 3e be 7a 83 3e 17 7b c2 3d
       0.07431509 0.1618023 0.25679582 0.09496134
000350 15 41 bd 3b 91 e4 33 bc 42 cd 44 3e 44 90 12 3e
       0.0057755806 -0.010979787 0.19218925 0.14312845
000360 16 26 60 3d be fa 35 bd 6a 05 40 3e 4f a5 b1 3d
       0.05472382 -0.04442858 0.18752065 0.08674108
000370 b0 85 48 bd 8a 47 52 3e b7 4d 6f 3e ea 4a 1a bd
       -0.04895562 0.20535102 0.2336949 -0.0376691
000380 9a 7a e0 3d 5d fd 88 bb 81 8c 09 3d d9 ae 18 bc
       0.109608844 -0.004180594 0.03358126 -0.009319031
000390 18 27 b3 3d ba 85 d9 3c 00 54 0e 3e ad 52 8d 3e
       0.08747691 0.026553024 0.13899231 0.2760214
0003a0 9d 1b 8c 3d 96 24 e5 bc d0 fe 7a bd 5c 84 c1 3e
       0.06841204 -0.027971547 -0.061278164 0.37796295
0003b0 1d 61 0d 3e fc 88 ed 3c b8 5b 13 be 00 d1 87 3e
       0.13806577 0.028995983 -0.14390457 0.26526642
0003c0 27 92 9b 3d fc 2b b1 3a e7 4e d6 3d de eb 11 3e
       0.07596236 0.0013517137 0.10464268 0.14250132
0003d0 b3 74 5c 3d 19 8e 33 3e eb f9 52 3d a7 9f 61 3e
       0.05382223 0.17534675 0.05150787 0.22033559
0003e0 9c dc 33 3e 1c 5b 95 bc fc 89 5e bc b2 55 01 3e
       0.17564625 -0.01823192 -0.013582703 0.12630346
0003f0 1c 24 bd bc 51 e3 06 3e 67 99 28 ba 36 f7 61 3e
       -0.023088507 0.13172652 -0.000643155 0.2206696

lstm.weight_ih_l1 f4 [256, 64]
000000 d5 95 50 bb ee 59 c9 bd 38 5e 82 bd 87 cb c3 bd
       -0.0031827588 -0.09831606 -0.06365627 -0.09560304
000010 ed 0c 95 3d 87 16 3a bd 8b 5a 6c bd 75 68 3e bc
       0.07277856 -0.04543164 -0.057703536 -0.011621584
000020 a0 36 d9 3b 3f a7 44 3e 2d f6 4e bd be 76 9e bd
       0.0066288263 0.19204424 -0.05052774 -0.07737492
000030 36 90 16 be ad 54 41 bd 9e 25 d9 3c b2 1e bc 3c
       -0.1470345 -0.047199894 0.026507195 0.022963855
000040 a6 1f 78 bc c8 ea 65 3c 34 b1 6d bd e7 03 11 3e
       -0.015144264 0.014033027 -0.058030322 0.14161645
000050 c6 3a c9 3c 48 ac e4 3d a9 8c 6f 3d 0b 4c 15 3e
       0.024564158 0.111656725 0.058483753 0.1457979
000060 c5 5f c1 3c 23 c5 0f 3d be 1d 0d be 7b 18 6d bc
       0.023605237 0.035100114 -0.13780877 -0.014471169
000070 bb 96 03 be 3d bd b6 bd 9c fd d2 3d 48 d1 e5 bd
       -0.12850468 -0.08922813 0.103022784 -0.11221558
000080 ae 49 be bd 8e 9d 5b 3d 44 d3 81 bd 2a 2b d4 3c
       -0.09291397 0.053617053 -0.06339124 0.025899488
000090 43 2d 99 3d 1b 70 08 be 58 55 c2 bd a3 33 09 bd
       0.07479336 -0.13324015 -0.09488934 -0.03349651
0000a0 ae 54 24 3c cf 13 19 be 39 21 bf 3d 02 6c 77 be
       0.010029955 -0.14948963 0.093325086 -0.24162295
0000b0 4c 16 da 3c 4a 46 8e 3d d1 a0 a6 3d 08 8a b9 3d
       0.02662196 0.06947 0.08136142 0.090595305
0000c0 3a fb 52 3d 90 a9 13 be bb 66 5b bc 2c 96 ab 3d
       0.05150912 -0.14420152 -0.013391192 0.083782524
0000d0 d6 82 f1 bb 60 45 d0 3d 33 e1 61 bd 55 50 02 3d
       -0.007370333 0.10169482 -0.055146407 0.03181489
0000e0 6a 72 54 3d 2b fe 51 bc dc 4a fe bd b3 57 a0 3c
       0.051866926 -0.012816946 -0.12416622 0.019573068
0000f0 84 ca aa bd 57 26 a7 bd 86 14 8b be cb 47 0c be
       -0.08339408 -0.081616096 -0.27164096 -0.13699262
000100 04 c0 02 be 22 4d 88 bb 64 5a 47 3d 24 26 58 bd
       -0.1276856 -0.0041595856 0.048670188 -0.05277075
000110 99 1b a0 bc b0 5c 57 bd e3 9b 9b 3c 73 b0 87 bd
       -0.01954441 -0.052578628 0.018995231 -0.06625452
000120 d9 13 57 3c 6a 49 03 3e e9 86 1f 3e cc 9a 13 3d
       0.013127291 0.12820974 0.15578808 0.036036298
000130 26 b5 da 3d f6 1b b3 bd 7b 60 13 bd ee 6d 8e 3e
       0.106790826 -0.087455675 -0.035980683 0.27818245
000140 3a c5 8f bd 32 1e c8 3d f8 77 74 3d 8c ed 72 bc
       -0.0702004 0.09771384 0.059684724 -0.014827143
000150 62 c9 87 bd f0 e9 cb 3d 4f a6 66 3d 0f 7f 11 3e
       -0.066302076 0.099567294 0.056310948 0.14208625
000160 a0 74 1e 3e 19 51 d4 3d ce 74 74 be ab 95 b9 bd
       0.15474176 0.10367031 -0.23872682 -0.0906175
000170 93 88 05 3e 6a 3d 1e bd 99 7d 24 3d 1d 04 9d b9
       0.1304038 -0.038632788 0.04015884 -0.00029948438
000180 b1 16 50 be 01 67 10 3e 60 6a 18 bd 0f 07 a4 3d
       -0.20321156 0.14101793 -0.037210822 0.08009159
000190 76 02 96 3c d6 2a d0 3d 9f 72 a2 3d 32 91 68 3e
       0.01831172 0.1016442 0.079320185 0.22711638
0001a0 21 73 cf bd 34 fd 96 bd 94 aa 54 3d 3f 55 02 be
       -0.10129381 -0.073725134 0.05192049 -0.12727831
0001b0 40 c3 70 bc 38 72 c2 3d 1c c3 b8 3c 20 81 6e bc
       -0.014694989 0.09494442 0.022553973 -0.014557153
0001c0 cc 40 03 bc f9 ef bf bd d2 6f 52 3e df c4 aa bd
       -0.008011054 -0.09371943 0.20550469 -0.083383314
0001d0 cb da cc 3d 3a b1 6c bc 40 a5 36 bd 48 70 c5 3d
       0.10002669 -0.014446551 -0.04459119 0.096405566
0001e0 be 75 22 be fd 2d 0e 3d e2 32 93 bd 01 c1 3a be
       -0.15865228 0.034711827 -0.071874395 -0.18237688
0001f0 ec d6 a9 bc 1a 2d 8f 3d b5 fa 14 bb 23 e9 15 be
       -0.020732366 0.06991024 -0.002273244 -0.14639716
000200 80 e7 37 3d 60 76 7b be d8 b9 82 3c 27 3d 16 be
       0.04489851 -0.24556875 0.015957758 -0.14671765
000210 84 9a 0d 3e 98 f1 f8 3d 3d 8a 38 bc 41 c4 48 3d
       0.13828474 0.12155455 -0.011263427 0.049015287
000220 a6 1f 1f 3d d3 22 10 3f e8 33 88 3c 9d 61 82 3d
       0.03884854 0.5630314 0.016626313 0.063662745
000230 d7 51 41 be 78 01 cb bc e5 f4 1c be 40 2b 57 3f
       -0.18878876 -0.024780974 -0.15327795 0.8405037
000240 00 e4 0d 3e 21 e0 0a 3c 26 d9 bc bc 21 02 c7 3d
       0.13856506 0.008476288 -0.023052763 0.09717203
000250 dd 70 72 bb 30 b0 97 3c 8d e5 91 bc e1 f7 f0 3d
       -0.0036993541 0.01851663 -0.017809654 0.11766029
000260 59 0e 02 3e 40 e1 2f 3e 50 9a 6e be 9a c1 e0 bd
       0.12700786 0.1717577 -0.23301053 -0.109744266
000270 d1 5c e6 3c 67 e2 e3 3d 17 3c 25 3d 9f 0d e1 bc
       0.02812043 0.11127167 0.04034051 -0.027472315
000280 e4 17 3e be 54 89 5d bd 8f b8 c7 bd 8c 99 17 bd
       -0.18563801 -0.054086044 -0.09751999 -0.037011668
000290 ba 66 ab bd 55 b3 96 be 64 73 81 bd 95 00 6f be
       -0.08369203 -0.29433694 -0.06320837 -0.23340066
0002a0 dd 91 6b 3d 70 2c aa 3c 42 f6 11 bc ac 56 13 3e
       0.057512153 0.020773143 -0.00890881 0.14388531
0002b0 8d 47 a3 3e d7 a1 4c ba 06 66 0c bd 0d a7 06 be
       0.31890526 -0.00078060984 -0.034276985 -0.13149662
0002c0 86 1b 3d 3d fd 50 26 be 54 34 be 3c dc ef 1b be
       0.046168827 -0.16241832 0.023218311 -0.15228218
0002d0 0f 2b e8 bd 33 13 de 3d 0d e9 a0 bc 4c c5 f0 3d
       -0.11336338 0.10843506 -0.019642377 0.117563814
0002e0 1d 93 c3 bd 64 f3 49 3a fb 11 00 bd 4d 4e 8c be
       -0.09549544 0.00077038095 -0.031267148 -0.2740349
0002f0 18 e0 06 3e bf fe d4 3d d4 49 86 be 7d 10 1c be
       0.13171422 0.104001515 -0.262282 -0.15240665
000300 66 9c 2f 3e f4 51 a2 3d a7 0c 0c be 0f a0 55 bc
       0.17149505 0.079257876 -0.13676701 -0.013038649
000310 bf cf 69 3e b7 e1 30 3d a9 df 9e 3d 13 6e c9 3d
       0.22833155 0.04318401 0.077575035 0.09835448
000320 d6 a5 8e bd 2a 58 0f 3e 23 f4 84 be c6 cc 73 bd
       -0.069652244 0.13998476 -0.25967512 -0.05952146
000330 44 1e 0d 3e f4 cd 04 3c 91 b8 a5 3c d7 01 e7 3d
       0.13781077 0.008105744 0.02022961 0.11279648
000340 4d 61 81 3c 93 83 aa 3b 43 b6 9b bd 89 95 e3 3c
       0.015793467 0.005203673 -0.07603123 0.027781265
000350 58 b5 18 be cb 44 83 3d 8c 05 f5 bd 31 c0 db 3c
       -0.14912927 0.064096056 -0.119639486 0.026825042
000360 bb ed 24 3e 4f 39 59 b9 e9 e9 22 3e 40 73 0d be
       0.16106312 -0.00020716082 0.15909542 -0.13813496
000370 6c d8 e9 3c 03 fb 9e be f0 3a 8b 3d 09 37 ba 3d
       0.02854558 -0.31050882 0.06798351 0.090925284
000380 bf c3 c2 bc 1e 2a 16 be 37 bc e9 bd e8 45 8c bd
       -0.02377498 -0.14664504 -0.11412852 -0.06849271
000390 75 d5 52 bd 2b cd 94 bc 18 e4 e4 3c 25 24 ad bd
       -0.0514731 -0.018164238 0.027940795 -0.0845416
0003a0 5c 20 07 3c 88 22 f0 3d 39 97 27 be 27 f1 da be
       0.008247461 0.11725336 -0.1636628 -0.4276211
0003b0 86 c9 c7 bd b8 d3 69 3d c1 cd fc 3d 66 d4 61 3d
       -0.097552344 0.057086676 0.12343932 0.0551342
0003c0 0e 5c 03 be 2a 6d 25 be 9d c6 15 3d 3b b7 08 be
       -0.12828085 -0.16154924 0.036566366 -0.13351147
0003d0 e7 66 e1 bd c8 88 6c 3c a9 10 b7 bd 00 b7 44 be
       -0.11005955 0.014436908 -0.089387245 -0.19210434
0003e0 94 61 4a bd c9 a9 08 bd 15 33 15 3b ff 7b f7 3c
       -0.049409464 -0.033365045 0.0022766043 0.030210493
0003f0 ad 40 06 bd b3 57 83 3d c7 9e f2 bd a4 7a 0b be
       -0.032776523 0.06413212 -0.118466906 -0.13621002

lstm.weight_hh_l1 f4 [256, 64]
000000 53 88 89 3d 0e 26 42 bd 15 6d 0c 3e 25 2e ee 3d
       0.06715455 -0.047399573 0.13713486 0.11629895
000010 fd 04 cd 3c cf 75 07 3d 2b 81 35 bd d0 c0 31 be
       0.025026793 0.033071335 -0.044312637 -0.17358708
000020 05 6e 6d bd 0f 4f be 3c 97 45 a8 bd a0 05 08 be
       -0.05796625 0.023231057 -0.08216398 -0.13283396
000030 e6 90 83 bd 62 af 69 3d 19 b3 22 3d 5b bf b2 be
       -0.064241216 0.057052024 0.039721582 -0.34911618
000040 df 7a f9 3d b0 32 5b bd 9e f0 13 bb 36 12 37 be
       0.12181639 -0.053515136 -0.002257384 -0.1787804
000050 ce c2 36 bc cd 17 2f 3e be 5c db bc b2 94 af 3c
       -0.0111548435 0.17098923 -0.026777621 0.021433208
000060 41 61 f8 bd fe 94 2a 3d c4 59 06 bd 2c 5b bf 3c
       -0.12127925 0.041645996 -0.03280045 0.023358904
000070 70 af 9f bd 48 8e ba bd 77 93 c5 3d 67 a9 bc bd
       -0.07797134 -0.09109169 0.09647267 -0.092119984
000080 24 b6 7b bb 0c b4 b0 bd af eb 17 be 53 aa 76 be
       -0.0038408125 -0.08628091 -0.14836 -0.24088411
000090 63 b2 fc bb 69 e4 1a bd f4 94 a8 3d d4 62 20 3e
       -0.007711695 -0.037815485 0.082315356 0.156627
0000a0 f6 97 f6 bb 5e 29 b2 3d 4a 6a 4f bc f8 dd cc 3d
       -0.0075254394 0.086992964 -0.012659619 0.10003275
0000b0 db a9 97 3d c3 8b 1b be 96 16 3b 3d 6c ab 09 3e
       0.07405444 -0.15190034 0.045675837 0.13444299
0000c0 10 a4 f8 3a 65 ce 60 bd 8b 45 d2 3d a9 31 bb 3c
       0.0018969793 -0.054884333 0.102671705 0.022850828
0000d0 87 d9 8a bd b1 9a ba 3c 0e 25 d4 3d ad f0 24 3d
       -0.06779771 0.02277884 0.1035863 0.04026859
0000e0 9d fd 5a bb 8c 1c 60 ba c9 68 fc 3b 37 7c 11 3b
       -0.0033415325 -0.00085491757 0.007702921 0.0022199282
0000f0 0d 4b 8b 3d ab a7 e3 bc 31 79 27 be 46 68 1e 3d
       0.06801424 -0.027789911 -0.16354825 0.03867366
000100 06 50 49 be 09 79 a7 3d 78 66 0c 3e ea 57 34 bd
       -0.19659433 0.081773825 0.13710964 -0.044029154
000110 94 d2 84 be 4a f0 80 3d 62 25 1d bc 21 e3 d9 bd
       -0.25941908 0.062958315 -0.009591432 -0.106390245
000120 29 87 88 bd e9 c4 02 bd 7b 1b 30 3c 56 99 06 bd
       -0.06666405 -0.03192607 0.010748739 -0.032861076
000130 ec 06 49 bd 3c 82 04 be e1 1e 95 3e 5c 47 d4 3d
       -0.049078867 -0.12940305 0.2912512 0.10365173
000140 65 90 c6 3d 39 f1 26 be 75 79 38 3d 23 bd 01 be
       0.0969551 -0.16302957 0.045037705 -0.12669806
000150 83 49 7c bd 21 ab f2 bc 63 c8 96 bd f9 83 96 bd
       -0.061593544 -0.029622616 -0.073624395 -0.073493905
000160 b1 4f 4d be 72 81 1b be 67 a7 5b be 96 da 22 be
       -0.20049931 -0.15186098 -0.21450578 -0.15903696
000170 79 f7 11 bb 59 52 95 bc 71 67 29 bd 06 fc 52 3d
       -0.002227275 -0.018227743 -0.041358415 0.05150988
000180 97 f6 56 3d 99 20 75 b9 1c 48 b3 3a 09 fa 80 bd
       0.05248126 -0.00023377164 0.0013678106 -0.062976904
000190 1e f0 d6 3c 9d ae 2d be b3 29 2d bd 81 cc 9c bc
       0.026237544 -0.16961141 -0.042276096 -0.019140484
0001a0 97 fd 2a bd 18 fb 7d bd 27 8f a3 bc 46 f2 b2 3d
       -0.04174575 -0.06200704 -0.019965721 0.08737616
0001b0 39 d4 a6 3c fe e0 25 be c2 91 c8 3d e3 4d 37 3e
       0.020364868 -0.16199109 0.09793426 0.17900805
0001c0 86 8a ed bd 4d f0 19 3e 0f f5 2f 3e 06 4d 81 3d
       -0.11598687 0.15033074 0.17183326 0.06313519
0001d0 ce d8 a4 bd 41 d6 fe 3d cf 91 ac 3d 3b 71 c6 bd
       -0.08049165 0.124432094 0.08426248 -0.09689566
0001e0 ed 72 11 bc 8f d3 5b bd f1 91 ab 3d 62 f4 d6 bd
       -0.008877498 -0.053668555 0.083774455 -0.10495831
0001f0 2b 91 27 3d e9 ae 16 3e e0 ff 57 3d f9 a0 c9 bd
       0.040909927 0.1471516 0.052734256 -0.09845156
000200 8c 57 31 be 4a 49 48 3c 06 e4 31 3e bc ea b0 3e
       -0.17318553 0.012224505 0.1737214 0.34554088
000210 93 9c 67 be b6 95 8c 3e 5c 2d cc bd 7f 7d 21 be
       -0.22618322 0.2745797 -0.09969589 -0.15770529
000220 a9 24 a1 be 3f dd d9 3d b6 75 ae 3c c0 a3 43 be
       -0.31473282 0.106379025 0.021296363 -0.19105434
000230 e4 f9 08 3e 30 a7 e3 3c 41 dc 73 3d 8a 47 38 3e
       0.13376576 0.027789682 0.059536222 0.1799604
000240 64 a4 a0 3e 1c 0e 00 be 98 ef 49 3c bd 13 03 bf
       0.3137542 -0.12505382 0.01232519 -0.51201993
000250 6a db 32 be 12 5a 93 3e 20 7c b8 bc f1 6c 0b 3e
       -0.17466512 0.28779656 -0.022520125 0.13615777
000260 ea 0f 88 be 70 4f 0b be 27 9f 2e 3d 0c d3 98 bd
       -0.2657464 -0.13604522 0.04263225 -0.07462129
000270 b6 59 14 be e6 88 e4 3b 1a 30 71 3e 76 32 53 be
       -0.14487347 0.0069743274 0.23553506 -0.20624718
000280 8b 9a f2 bd 0b d6 c7 3d 21 0e 2b be ca 5d 75 bd
       -0.11845883 0.09757622 -0.16704609 -0.059903897
000290 78 f2 f3 bd 22 92 b1 be 18 4c b9 bd 75 c5 46 be
       -0.119114816 -0.34681803 -0.09047717 -0.19411261
0002a0 0b 59 67 3d e7 4b fd 3b bc d6 d0 3d 61 d7 a4 3d
       0.056481402 0.0077299955 0.10197207 0.08048893
0002b0 85 5a 93 3e 2f 3b b2 bc 8e 09 02 3e 59 cb 91 3e
       0.28779998 -0.021756737 0.12698957 0.28475454
0002c0 91 9e a7 be de eb 50 3e 4c 4d 54 3d d8 7f 9c 3e
       -0.32738164 0.20402476 0.05183153 0.30566287
0002d0 72 39 a2 be 68 6f 5b 3c dc 4a 91 3e e7 e6 26 be
       -0.31684452 0.013393261 0.28377426 -0.1629902
0002e0 71 27 7a bd 03 16 de 3d 59 c0 c7 bd 3b 23 52 be
       -0.06107277 0.10844042 -0.09753484 -0.20521252
0002f0 3f 4e 30 3e 52 04 10 3b 3d 9b 68 3c e7 95 25 be
       0.17217349 0.0021975231 0.014197168 -0.16170464
000300 26 68 05 3e e1 a5 35 3e 03 8a 18 3c 0d 31 19 be
       0.1302801 0.17739059 0.009310248 -0.14960118
000310 21 3d 4e bd ed 29 bc 3d 35 b1 10 be cb 39 e9 bc
       -0.050351266 0.09187684 -0.14130099 -0.02846994
000320 a6 d9 fd 3c 5c 03 e4 bc b0 a1 91 bc dd 87 c4 bd
       0.030987572 -0.027833633 -0.017777294 -0.09596226
000330 f0 c1 14 3e 98 71 4e 3b 8d 77 5c bd 79 7e 8c be
       0.14527106 0.0031500813 -0.05382495 -0.2744024
000340 84 5c 00 be 89 bf 15 be ba ed 70 bd 50 4d 2f be
       -0.12535292 -0.14623846 -0.058820464 -0.17119336
000350 db d3 48 3e d0 8d 10 be a6 bb c0 3c 51 57 a6 bb
       0.19612066 -0.14116597 0.023526978 -0.005076327
000360 7a ef 85 3d 7b e4 fd bd f2 e5 f0 bd 18 8b 2d 3d
       0.06539817 -0.12397095 -0.117626086 0.04236898
000370 6f a7 db bc 8c fb a2 bd 29 da 1c 3d dd 22 77 3d
       -0.026813237 -0.07958135 0.03829399 0.060335983
000380 f1 4a 31 bd 62 12 cc bd 3a 68 ac 3d 46 1c 49 3d
       -0.04328436 -0.09964444 0.08418317 0.04909923
000390 68 24 5c bd c1 62 04 bc c3 33 45 bd 37 41 51 3e
       -0.053745657 -0.008080185 -0.048145067 0.20435034
0003a0 ec b6 71 3d 40 9a 27 be b0 71 b3 3d 6a 1a 7f 3d
       0.05901234 -0.16367435 0.087619185 0.06228105
0003b0 0c 6f 8d 3d cc 69 a0 3c 51 f5 b7 3d 67 71 d4 3d
       0.06905946 0.019581698 0.08982337 0.10373192
0003c0 90 c0 0a be 56 17 f9 bd ac d2 fc bd 10 09 03 3d
       -0.1355002 -0.12162654 -0.1234487 0.031991065
0003d0 2b 7d 5d 3e c4 b9 db 3d 8d 1c b1 bb 80 c1 10 3d
       0.21629779 0.10728791 -0.005405015 0.035340786
0003e0 ea 83 06 be 0f f6 e1 bd 5c 8f 4b 3d 29 d5 e1 bc
       -0.13136259 -0.1103326 0.049697265 -0.027567463
0003f0 4b c1 08 bd f0 84 51 be 98 2f ff bd fe 65 e1 3c
       -0.033387464 -0.20460868 -0.1246025 0.027514454

lstm.bias_ih_l1 f4 [256]
000000 b9 d6 96 bd dc ac dc bc 25 d8 cb bd 04 d1 70 3d
       -0.07365174 -0.026937895 -0.09953336 0.058793083
000010 d3 e9 97 bc 63 fc 45 3d 12 c0 dc 3d 01 ef f2 bb
       -0.018544113 0.048336398 0.10778822 -0.0074137454
000020 a6 61 c3 3c 96 20 a7 bd 16 8f 53 bd cd 6c 89 bd
       0.023850273 -0.08160512 -0.05165013 -0.06710205
000030 83 55 a3 bd 34 40 a7 bd c5 ea d9 3d 2b 9b c6 bd
       -0.079752944 -0.08166543 0.10640482 -0.09697565
000040 73 6b 14 bb 85 d6 5a bd 41 48 ce bc 1d ea 8e 3d
       -0.0022647053 -0.053427238 -0.025180938 0.06978247
000050 01 c0 7a 3d f8 23 ed bb ec e2 07 bd 45 16 a4 bd
       0.061218265 -0.007236954 -0.033175394 -0.0801206
000060 43 3d 2c 3c 71 39 61 bd 30 a6 3e 3e 3f cb 13 3e
       0.010512653 -0.05498642 0.18618083 0.14433001
000070 37 9d 3e bd 12 50 db bc 00 1a 58 bd db 50 96 3d
       -0.04653665 -0.026771579 -0.05275917 0.07339641
000080 b5 0b 53 3d a2 51 1a 3b 4c ce 86 3d b1 19 f9 3c
       0.051524837 0.0023547192 0.06582317 0.030407758
000090 82 e7 47 3d 36 e8 c8 3c a9 c2 41 3d e8 21 f8 3a
       0.048804767 0.02452479 0.047304783 0.0018931003
0000a0 7f 87 0a bd 48 4a 08 3d 3e d9 ba 3c 15 bb 76 bd
       -0.033820625 0.033273965 0.022808667 -0.06023701
0000b0 86 b6 b0 3d ee 98 c5 bd 26 09 83 bb f1 81 a4 3d
       0.086285636 -0.0964831 -0.0039988933 0.08032597
0000c0 dc 38 04 3d d6 2f 30 bd 4e c2 ef bc 70 04 bc 3d
       0.032280788 -0.04301437 -0.029267456 0.09180534
0000d0 7e c2 32 3d 65 68 d3 bd df df b3 3d 33 86 55 3d
       0.043642513 -0.10322646 0.087829344 0.052129935
0000e0 32 bc 40 3e 43 09 1d bc 4e 47 bf 3d d3 59 d3 3a
       0.18821791 -0.009584728 0.09339772 0.0016124792
0000f0 4e fc 37 3e a1 0c 97 3d 04 77 8f 3e 1c e8 35 3d
       0.1796734 0.07375456 0.2802049 0.04441081
000100 e6 76 83 bd 96 ff d9 3c 6d 08 93 3d cb e0 23 bd
       -0.064191625 0.02661113 0.071793415 -0.0400093
000110 dd 69 8b bd e5 df 8f 3d 02 bf 73 3c 53 78 e1 3d
       -0.06807301 0.07025126 0.014877083 0.11009278
000120 41 2f 0a bd b3 30 b7 3d 4f a4 81 3d 22 f2 88 bd
       -0.03373647 0.089448355 0.063301675 -0.06686808
000130 6e db 66 3d 2d 16 21 bc 7e 2f e4 3d 1e 9a e5 3d
       0.05636161 -0.009831947 0.11141871 0.11211036
000140 8d 03 42 3d 07 5c 02 3e 23 43 35 3d e6 c7 89 bd
       0.047366668 0.12730418 0.04425348 -0.06727581
000150 b4 01 30 3d 06 24 00 3e 3a 2b 0c 3e 07 ab 19 3d
       0.042970374 0.12513742 0.13688365 0.03751662
000160 4c 7d 15 3e af 30 04 3e a3 59 24 bd 75 1b 9e 3a
       0.14598578 0.12909196 -0.040124547 0.0012062626
000170 1f 5e fe 3d 58 b6 d5 3d ec ba 9c 3c 22 f4 57 3d
       0.12420296 0.1043517 0.0191321 0.052723058
000180 92 02 08 3e 2b 2d cc 3d 90 ae 0b 3e b9 1f bf 3c
       0.1328223 0.099695526 0.13640809 0.023330556
000190 bb 33 df 3b 02 d9 9e bc df 0a ec 3d b2 28 24 bd
       0.0068115867 -0.019390587 0.11525511 -0.040077873
0001a0 3d a8 e2 3c ba 1d 42 3d 60 dd ba bd ec c3 42 bd
       0.027668113 0.04739163 -0.09124255 -0.047550127
0001b0 12 1c e7 bb c1 82 91 bd 74 b7 ba ba 38 8b 4e 3d
       -0.007052907 -0.071050175 -0.0014245347 0.050425738
0001c0 bd f5 34 3d bb d6 fd 3c 43 60 c2 bd 81 c2 f6 3d
       0.044179667 0.03098618 -0.09491017 0.120488174
0001d0 1b 0f 90 3d b5 91 ac bc 0c 78 61 bd bd 4f ca bd
       0.07034131 -0.021065572 -0.055046126 -0.0987849
0001e0 73 ec fc bc 54 2a 8d 3d 17 ff 54 bd 38 2c 02 bd
       -0.030874467 0.06892839 -0.052001085 -0.03178045
0001f0 7e e6 0d 3d 64 23 41 3d 01 c0 e9 bb bf 5e b4 3d
       0.034643643 0.04715289 -0.0071334844 0.08807134
000200 8b 62 a1 3c 06 d4 87 bd 3f 06 33 bc 0f a4 7c 3d
       0.01970031 -0.06632237 -0.010926782 0.061679896
000210 c9 d2 2b 3d b9 b0 79 ba 30 52 d1 bd 75 2a a0 bd
       0.041949067 -0.000952493 -0.10220754 -0.07820598
000220 bf 19 94 bd 3a 8a 86 3d 08 4d f6 bc fa 86 f0 3d
       -0.07231473 0.065693334 -0.030066028 0.11744495
000230 52 e7 e1 bd e6 27 5e 3d 04 b7 b5 bd c4 4c 0a 3c
       -0.11030449 0.05423727 -0.08872798 0.008441154
000240 f4 3c b3 bd c7 d9 22 bb e0 a5 1b bd 27 da b0 bc
       -0.0875186 -0.0024849044 -0.037999988 -0.021588398
000250 55 76 88 3d 3c a8 27 3d e2 57 27 3d e0 1d 45 bd
       0.06663195 0.040931925 0.040855296 -0.048124194
000260 5c ed 76 3d af 74 d3 3d de 23 dd 3d b9 6e 57 3d
       0.060284957 0.1032499 0.10797857 0.052595828
000270 b8 f6 75 bd 67 d4 ed 3d e1 ce 05 3e ae a7 c5 bd
       -0.060049742 0.11612778 0.130672 -0.09651123
000280 ee 64 ba 3c 2a 8d 00 be ac ea 9d bd 30 a1 0b 3e
       0.022753205 -0.1255385 -0.07710776 0.13635707
000290 35 7a be bd ab 4a a4 bc 56 5b 5c 3d b6 f0 b0 b9
       -0.09300653 -0.020055136 0.053798042 -0.0003374868
0002a0 4b 3b 01 3d cf 04 19 be 1d 1f 35 3d 9e 78 cc 3c
       0.031550687 -0.1494324 0.044219125 0.024959859
0002b0 7a 56 01 be c5 f5 ac bd 00 b7 fd bb 8a 16 d4 bc
       -0.12630644 -0.08445314 -0.0077427626 -0.025889654
0002c0 53 8d 00 3d 11 79 3d 3d 94 52 01 be 97 d0 0e bd
       0.031384777 0.046258036 -0.12629157 -0.034866896
0002d0 57 dc 04 3e 9c 5d d8 3b ef fa 86 bd 8a 89 33 3d
       0.12974678 0.006602956 -0.065908305 0.04383234
0002e0 c6 f2 b2 3d da 06 52 bc 77 2b 8a bc 53 14 f4 bc
       0.087377116 -0.012819016 -0.016866429 -0.029794848
0002f0 96 cb c8 3d 00 d2 34 bd ff ff 94 3d 14 9f a0 bd
       0.09804456 -0.044145584 0.0727539 -0.07842842
000300 ea 78 21 3e 13 4a 49 3d 84 c4 b7 3d 7a 0f e6 bc
       0.15768781 0.04914291 0.08973029 -0.028083552
000310 ae b0 04 3e c8 ae b1 bb 35 80 43 bd 60 dd 9a bd
       0.12958023 -0.005422447 -0.04772969 -0.07561755
000320 5c 7d a6 bc 13 e2 18 3e 12 6e 35 3c 74 35 d6 3d
       -0.020323448 0.1492999 0.011073606 0.10459414
000330 9c 70 1a be 92 2e 5b 3e ee 1c c5 3c 08 00 28 bd
       -0.1508202 0.21404484 0.024061646 -0.041015655
000340 7c dd af 3d eb b1 ef 3d 8e ca 94 3d f3 09 89 3d
       0.08587167 0.11703857 0.07265197 0.06691351
000350 ae da e2 3d ab dd 9c 3d ca 15 98 3b e1 a7 34 3e
       0.11076866 0.07659467 0.0046412693 0.17642166
000360 b6 64 94 3b 9c 68 22 3e 00 fe 36 3e 78 85 28 3e
       0.0045286072 0.15860218 0.17870331 0.16457164
000370 53 48 a6 3d a2 06 63 bd 0d ac 46 3e bf b3 16 3d
       0.081192635 -0.055426247 0.1940157 0.036792513
000380 e2 d1 a3 3d cd 9e e9 3d 13 d9 ef 3d 47 86 55 3c
       0.07999016 0.11407242 0.117113255 0.0130325025
000390 ca c3 c6 3d e5 58 f7 3d 5c 2d 5e 3e 67 54 d5 bc
       0.097053126 0.12077502 0.2169699 -0.026041223
0003a0 5a 1c c8 3d 2d 93 17 3e 18 4e 3b bd 81 a3 74 3d
       0.09771033 0.14802237 -0.045728773 0.059726242
0003b0 0b 99 a6 bd 27 a0 de bb fa b1 89 bd 62 26 8f 3d
       -0.081346594 -0.006793994 -0.067233995 0.06989743
0003c0 c4 24 5a 3c ce b4 76 3e 4b 49 32 3e 50 cf 30 3e
       0.01331443 0.24092409 0.17410772 0.17266583
0003d0 ae b9 f3 bd c5 f9 48 3c ad 58 a5 bd 18 e0 03 3d
       -0.1190065 0.012266581 -0.08073554 0.032196134
0003e0 02 a2 d7 3d 36 8a 43 3d 93 02 ec bd bf c9 1c 3d
       0.105289474 0.04773923 -0.115239285 0.038278338
0003f0 e5 88 d3 bc 6d ad 86 3b 5e e6 ec 3d d3 65 21 bc
       -0.025822112 0.0041100294 0.115673766 -0.009850937
