LogAnomaly/result/deeplog/deeplog_epoch288.pth (torch_old, 644367 bytes, 30 tensors)

lstm.weight_ih_l0 f4 [256, 1]
-0.20379671 -0.015278036 -0.06358307 0.08813115 -0.13695095 0.048398647 -0.10387285 0.07216593
0.18079486 0.08267615 0.16732042 -0.08373992 0.09550579 0.13288575 -0.08241627 0.25961098
0.07860394 0.054183874 -0.1503344 0.15287918 0.16927533 0.07770147 0.06300404 -0.059419937
0.20534518 -0.06751445 -0.01844416 0.071001686 0.07311051 -0.1389884 0.12607476 0.01500533
0.121418595 0.102826215 0.022217337 0.047639836 0.21687941 0.0101276245 0.13378139 -0.1419033
0.004316155 -0.13848472 0.12963445 0.40802214 -0.12969737 0.11051688 0.14693816 -0.20281553
0.19701406 0.15901265 0.3690628 0.084960975 0.05610227 0.33290553 0.11808125 -0.058676597
-0.17654213 0.026076326 0.1153232 0.04201562 0.044663824 0.14787471 0.10122777 -0.15336518
-0.064736426 0.04518996 0.11883411 -0.043525353 -0.091663994 0.05588604 0.09843163 0.056240052
-0.041037586 0.29652292 0.16919787 -0.13218684 -0.014830608 0.08283851 0.17145804 0.2634146
0.031761415 0.1349538 -0.11952134 0.036757298 0.0037424718 0.23133646 0.13837898 -0.05261111
0.017154243 0.07633212 -0.684813 0.07967206 -0.0653579 -0.2575529 0.22124405 0.014899016
-0.028920278 0.15803438 0.107996434 0.1060521 0.06721543 0.19910741 0.11402139 0.036860336
0.15114407 0.24133231 0.18120413 0.060959432 -0.12878644 -0.029557697 0.059928983 -0.11416552
0.08255184 0.1088936 0.3147453 0.25062993 0.053031527 0.023919137 0.16989955 -0.026868934
-0.18137148 0.18102328 0.47584555 -0.03426096 0.043030553 0.049787175 -0.086867526 -0.15375778
0.4603609 -0.13739118 0.08188848 0.032661572 0.25653988 -0.18001786 -0.049707074 0.15239641
0.17565249 -0.044101708 -0.066081285 0.2299827 -0.24273656 0.17142029 -0.16501585 -0.09683703
0.22865167 -0.30320874 -0.26436174 0.21744075 0.18162869 -0.036716938 -0.15661661 0.20225057
0.1012606 0.32151037 -0.47175813 0.02088925 0.024475634 -0.187206 0.94511676 0.0013361616
0.50643384 0.02473478 0.08591465 -0.029754965 -0.31826198 -0.21122043 -0.3171444 -0.19186723
0.20722888 0.05551716 -0.12943241 -1.6878551 0.37913767 0.30871335 0.06682747 0.51229304
-0.12349711 -0.15462585 -0.15069874 -0.03942414 -0.41857404 0.47872856 0.036469564 0.17234337
-0.37663272 0.07869845 0.050285522 -0.07844662 0.1374282 -0.08135008 0.08337768 -0.35243785
0.1924932 -0.011916761 0.15790695 0.3349261 0.18360752 0.08142641 0.18352741 0.22535409
0.04540902 0.30355707 0.07962095 0.22794701 0.2587314 0.15115598 0.23361081 0.3085075
-0.09267507 0.033783663 0.32726708 0.2067711 0.31335872 0.23984821 -0.21246165 -0.17862755
-0.17807397 0.048027206 0.0033025658 0.110645436 -0.022362117 -0.33970845 0.15271428 0.28122786
-0.11185017 0.34222656 0.08307294 0.31893 -0.09391473 -0.22722179 0.08674534 -0.3013628
-0.21712524 0.28579646 0.19991852 -0.2992011 0.2719372 0.017766388 0.21698955 -0.16838112
-0.19051136 -0.12353183 0.12725918 -0.2208386 0.07689795 -0.09632554 0.0636231 0.091599494
0.17429298 -0.22163787 0.29669595 -0.14119963 0.10743703 0.16031298 0.2388296 0.14592563
00000000: 16b0 50be ba50 7abc d737 82bd 1b7e b43d
00000010: df3c 0cbe a93d 463d 4abb d4bd bbcb 933d
00000020: 4a22 393e 1d52 a93d 0b56 2b3e d67f abbd
00000030: 8a98 c33d 3413 083e ddc9 a8bd bbeb 843e
00000040: 1afb a03d e9ef 5d3d 43f1 19be 5c8c 1c3e
00000050: 8356 2d3e f321 9f3d 4308 813d 5262 73bd
00000060: 0246 523e 0445 8abd 3518 97bc 5569 913d
00000070: f7ba 953d fa52 0ebe be19 013e ead8 753c
00000080: 50aa f83d 8d96 d23d 2201 b63c fd21 433d
00000090: a315 5e3e 56ee 253c fdfd 083e 194f 11be
000000a0: 886e 8d3b f0ce 0dbe e5be 043e 47e8 d03e
000000b0: 63cf 04be ad56 e23d f576 163e e0ae 4fbe
000000c0: 0ebe 493e 36d4 223e cdf5 bc3e 0500 ae3d
000000d0: 7ecb 653d 9872 aa3e 95d4 f13d df56 70bd
000000e0: 76c7 34be 059e d53c 922e ec3d 9218 2c3d
000000f0: 6af1 363d 786c 173e 8150 cf3d c30b 1dbe
00000100: 8894 84bd 1c19 393d 4c5f f33d a447 32bd
00000110: 55ba bbbd c3e8 643d 8696 c93d f85b 663d
00000120: 0717 28bd dad1 973e 3542 2d3e fd5b 07be
00000130: 14fc 72bc 3da7 a93d b292 2f3e 47de 863e
00000140: 4218 023d 5431 0a3e 9bc7 f4bd d28e 163d
00000150: 4244 753b 77e3 6c3e 38b3 0d3e bf7e 57bd
00000160: 0e87 8c3c 0454 9c3d e84f 2fbf 1b2b a33d
00000170: 5dda 85bd f9dd 83be cd8d 623e 011b 743c
00000180: 38ea ecbc c4d3 213e 3c2d dd3d d831 d93d
00000190: 3ea8 893d d0e2 4b3e 0c84 e93d ddfa 163d
000001a0: 83c5 1a3e d11f 773e 938d 393e 99b0 793d
000001b0: 98e0 03be fc22 f2bc 1878 753d 9dcf e9bd
000001c0: f010 a93d 9c03 df3d 4c26 a13e 9152 803e
000001d0: 9637 593d 11f2 c33c 26fa 2d3e 3d1c dcbc
000001e0: 72b9 39be 2b5e 393e 07a2 f33e 3855 0cbd
000001f0: ce40 303d a3ed 4b3d 9ae7 b1bd ae72 1dbe
00000200: 6db4 eb3e 46b0 0cbe 26b5 a73d 24c8 053d
00000210: 3259 833e 9a56 38be a599 4bbd ce0d 1c3e
00000220: 3fde 333e fea3 34bd a055 87bd 9680 6b3e
00000230: ef8f 78be cd88 2f3e eaf9 28be 7e52 c6bd
00000240: aa23 6a3e 2d3e 9bbe 6c5a 87be caa8 5e3e
00000250: dffc 393e 8064 16bd 1b60 20be c61a 4f3e
00000260: b861 cf3d 029d a43e 488a f1be ef1f ab3c
00000270: 2081 c83c eeb2 3fbe 2cf3 713f 2522 af3a
00000280: a6a5 013f 98a0 ca3c 05f4 af3d afc0 f3bc
00000290: 3cf3 a2be 2b4a 58be c060 a2be d878 44be
000002a0: cf33 543e f665 633d ee89 04be a30b d8bf
000002b0: 551e c23e ad0f 9e3e d7dc 883d a325 033f
000002c0: 0eec fcbd 3d56 1ebe c550 1abe 357b 21bd
000002d0: 564f d6be e91b f53e 1c61 153d c87a 303e
000002e0: 01d6 c0be a72c a13d 31f8 4d3d 9fa8 a0bd
000002f0: fab9 0c3e df9a a6bd ebc1 aa3d bc72 b4be
00000300: f01c 453e 853e 43bc 5cb2 213e 6f7b ab3e
00000310: 9c03 3c3e e4c2 a63d 9cee 3b3e 39c3 663e
00000320: cffe 393d d56b 9b3e 4f10 a33d f16a 693e
00000330: 7178 843e a2c8 1a3e ac37 6f3e b2f4 9d3e
00000340: 6dcc bdbd bd60 0a3d 8d8f a73e cebb 533e
00000350: 8e70 a03e c59a 753e 8c8f 59be 24ea 36be
00000360: 0659 36be 2db8 443d dc6f 583b 139a e23d
00000370: c230 b7bc 44ee adbe 2261 1c3e 19fd 8f3e
00000380: b411 e5bd 5238 af3e 2522 aa3d cb4a a33e
00000390: 5e56 c0bd d4ac 68be 8aa7 b13d 3a4c 9abe
000003a0: 1456 5ebe ea53 923e 71b7 4c3e e330 99be
000003b0: 5a3b 8b3e d18a 913c 8232 5e3e 1a6c 2cbe
000003c0: 6915 43be 42fe fcbd 3b50 023e 8423 62be
000003d0: ac7c 9d3d 5346 c5bd d44c 823d 8498 bb3d
000003e0: dc79 323e 0af5 62be 88e8 973e a396 10be
000003f0: f207 dc3d 1629 243e bf8f 743e 876d 153e

lstm.weight_hh_l0 f4 [256, 64]
0.23066454 -0.15473421 0.03804924 0.0703906 0.25301203 -0.1143089 -0.049230725 0.08507453
0.17043819 0.13218002 -0.007579645 -0.17753279 -0.19673862 0.10253103 -0.11855102 0.26893124
0.2074677 -0.05079615 0.04194066 0.14931059 -0.079912506 0.08583548 -0.053864405 0.1857196
0.28269118 0.2339114 0.0941887 0.087458424 0.08604894 -0.32250756 0.0588945 0.13225923
0.046829022 0.07108068 0.08603824 -0.16942443 -0.03884585 -0.208925 -0.113444746 -0.3217098
0.08064386 -0.12562247 0.092103176 -0.10964253 0.050483357 0.17685077 0.04030112 0.25499803
-0.2999188 -0.09290922 0.17374516 -0.34128776 0.058695126 0.19770935 0.11352146 -0.021513613
-0.10456518 0.38284078 -0.030336138 -0.12027661 0.13555202 -0.05024756 -0.14562774 -0.079480484
-0.055251732 -0.0851036 0.31341374 0.2632869 0.14861965 -0.18143746 0.086445265 0.08469683
0.15299386 0.08938136 -0.12675703 0.08007098 -0.21556471 0.184744 -0.13222967 -0.3345827
0.2156263 -0.03792381 -0.12758562 0.21703371 0.11632318 -0.10248845 -0.15549512 0.034886144
0.3854795 0.08934063 -0.08412632 0.12111248 0.22875124 -0.0049839173 0.039696723 0.17951933
0.0128586665 0.17809227 0.06392496 -0.12984656 -0.021490458 -0.18451193 -0.15409848 0.0758958
0.18757333 -0.05831833 -0.11715586 0.098936535 0.009912268 0.15624364 0.21684515 -0.117594324
-0.24091293 -0.12783615 -0.037111472 -0.23350103 0.026728785 -0.026283458 0.27636555 0.15752669
-0.04572475 0.35949734 0.04989562 -0.17050427 0.15373816 -0.1712717 0.07775832 -0.08615991
0.12373059 0.079754755 0.11206005 0.2368028 0.156222 -0.27425686 -0.24967064 0.22091174
0.21576735 -0.03340923 -0.07549199 0.11662924 -0.085575745 0.06478595 -0.13774607 0.090706855
0.15043104 -0.23152967 -0.017882345 0.2163237 0.051275153 0.061217193 -0.058775537 0.12798248
0.1911586 0.08931217 -0.019931013 0.29511344 -0.038821537 -0.39588803 0.11946668 0.07352996
-0.10003308 0.13765375 0.2039977 -0.13316523 0.007021376 -0.15742902 -0.04539669 -0.4014599
0.18072553 -0.15508725 -0.037082262 -0.060330153 0.07151967 0.08553628 0.25647548 0.007577946
-0.040885393 0.013562674 -0.15057926 0.052725133 0.009106568 0.081710145 0.039218925 0.25969502
-0.037110746 0.23365647 -0.010622574 -0.56214184 -0.010759486 -0.13469967 0.0817252 -0.29415274
0.07442107 -0.22727555 -0.029799994 0.034008056 0.041965894 0.08300405 0.008599498 -0.10294944
-0.06374042 -0.018852059 0.04414563 0.10905299 -0.005580994 0.02999688 0.06973617 0.10019049
0.0013924101 -0.08737956 -0.14741047 0.028689008 0.05269878 0.024804387 -0.2284505 0.29336232
-0.049693093 0.13621679 0.030514387 0.0878376 0.12508497 -0.24362122 -0.025772877 -0.0084342165
0.080746494 -0.041913036 0.12942724 0.038710102 -0.05553361 -0.2031673 -0.11392788 -0.1943831
-0.04932204 0.04484433 -0.11185325 -0.028832337 0.23243982 -0.04527432 -0.15714064 0.33242202
-0.007543373 -0.0015851138 0.0774383 -0.1360755 -0.09132424 0.072954886 0.04168192 0.12686704
-0.087107524 0.13381568 0.10419446 -0.09624369 0.10801013 -0.027443517 -0.117863566 -0.014272123
00000000: 5333 6c3e a572 1ebe 85d9 1b3d f228 903d
00000010: cb8a 813e c91a eabd 28a6 49bd 8e3b ae3d
00000020: 5987 2e3e 335a 073e ac5e f8bb 28cb 35be
00000030: d975 49be cafb d13d e1ca f2bd 5bb1 893e
00000040: 6a72 543e a00f 50bd f8c9 2b3d e0e4 183e
00000050: 2ba9 a3bd 83ca af3d eca0 5cbd 472d 3e3e
00000060: e6bc 903e 7886 6f3e 01e6 c03d 671d b33d
00000070: 6d3a b03d b61f a5be 5c3b 713d f76e 073e
00000080: cacf 3f3d bf92 913d d134 b03d 997d 2dbe
00000090: d31c 1fbd 6ff0 55be b855 e8bd 26b7 a4be
000000a0: 9c28 a53d 2da3 00be 97a0 bc3d 438c e0bd
000000b0: a3c7 4e3d 5e18 353e ca12 253d 1a8f 823e
000000c0: f58e 99be 3047 bebd 40ea 313e 45bd aebe
000000d0: 4d6a 703d 5274 4a3e f07d e83d 513d b0bc
000000e0: 4526 d6bd b503 c43e 7e83 f8bc 9553 f6bd
000000f0: 26ce 0a3e 63d0 4dbd 701f 15be aac6 a2bd
00000100: a44f 62bd cc4a aebd c477 a03e 8acd 863e
00000110: c02f 183e beca 39be 370a b13d 8875 ad3d
00000120: 6caa 1c3e 930d b73d 98cc 01be 41fc a33d
00000130: ffbc 5cbe 882d 3d3e 3767 07be 6c4e abbe
00000140: 24cd 5c3e ff55 1bbd cea5 02be 163e 5e3e
00000150: d93a ee3d 77e5 d1bd 1d3a 1fbe c6e4 0e3d
00000160: 925d c53e 38f8 b63d 6c4a acbd d209 f83d
00000170: c43d 6a3e 2150 a3bb 0899 223d ead3 373e
00000180: 28ad 523c d25d 363e 17eb 823d 7ff6 04be
00000190: c20c b0bc b2f0 3cbe fecb 1dbe 426f 9b3d
000001a0: 3913 403e 34df 6ebd 69ef efbd 3d9f ca3d
000001b0: 1167 223c 55fe 1f3e a80c 5e3e 4bd5 f0bd
000001c0: e1b1 76be 7be7 02be 3302 18bd e51a 6fbe
000001d0: 53f6 da3c 6850 d7bc c97f 8d3e ad4e 213e
000001e0: e049 3bbd 0910 b83e 5a5f 4c3d ac98 2ebe
000001f0: 896d 1d3e d961 2fbe c13f 9f3d 9b74 b0bd
00000200: 7766 fd3d 7656 a33d bd7f e53d 6f7c 723e
00000210: a9f8 1f3e 656b 8cbe a9a9 7fbe b036 623e
00000220: 1ef2 5c3e 1ed8 08bd 8b9b 9abd 50db ee3d
00000230: 5642 afbd 7fae 843d 4e0d 0dbe 84c4 b93d
00000240: 980a 1a3e 1d16 6dbe ff7d 92bc f683 5d3e
00000250: e505 523d e1be 7a3d 9ebe 70bd d70d 033e
00000260: 14bf 433e 4de9 b63d 5d46 a3bc 1c19 973e
00000270: 5503 1fbd d6b1 cabe f2aa f43d e096 963d
00000280: 25de ccbd 1bf5 0c3e c6e4 503e 775c 08be
00000290: 9213 e63b 1335 21be e1f1 39bd 278c cdbe
000002a0: 1d10 393e 31cf 1ebe 92e3 17bd c01c 77bd
000002b0: e878 923d a52d af3d c150 833e 6b50 f83b
000002c0: 7177 27bd fa35 5e3c 7331 1abe 4ff6 573d
000002d0: b733 153c a657 a73d 06a4 203d bff6 843e
000002e0: 7001 18bd a443 6f3e 4e0a 2ebc 87e8 0fbf
000002f0: 8e48 30bc b6ee 09be 8b5f a73d 309b 96be
00000300: 136a 983d ecba 68be 1e1f f4bc 084c 0b3d
00000310: 6ee4 2b3d 07fe a93d e9e4 0c3c 28d7 d2bd
00000320: 568a 82bd a26f 9abc 0cd2 343d 2d57 df3d
00000330: c5e0 b6bb 04bc f53c d6d1 8e3d ac30 cd3d
00000340: 8881 b63a 0ef4 b2bd c5f2 16be 3605 eb3c
00000350: adda 573d 9232 cb3c eeee 69be 9633 963e
00000360: fc8a 4bbd 6a7c 0b3e 4ff9 f93c 33e4 b33d
00000370: 4616 003e d777 79be a421 d3bc ab2f 0abc
00000380: 6b5e a53d 01ad 2bbd 9388 043e 7c8e 1e3d
00000390: 3677 63bd 170b 50be 0553 e9bd 5d0c 47be
000003a0: e805 4abd b0ae 373d 5113 e5bd cb31 ecbc
000003b0: b404 6e3e 9171 39bd 7ae9 20be 3833 aa3e
000003c0: 662e f7bb 98c3 cfba f997 9e3d 6057 0bbe
000003d0: 3408 bbbd 5f69 953d a9ba 2a3d 6fe9 013e
000003e0: 6e65 b2bd fa06 093e e863 d53d 691b c5bd
000003f0: 6a34 dd3d 3ad1 e0bc 7462 f1bd 9fd5 69bc

lstm.bias_ih_l0 f4 [256]
0.1153172 0.08511405 0.042329386 -0.08199755 0.19858636 -0.00973899 0.18584414 0.004833738
0.25015762 0.18747851 -0.122009285 0.22410144 0.03196022 0.1219761 0.112154804 0.13938285
0.18207623 0.1576079 0.18840478 -0.022428771 -0.074330546 0.03981642 0.10544689 0.09302133
0.14091282 0.17461033 0.054046232 0.070403494 -0.024244636 0.24468036 0.2812776 -0.11162976
-0.03216494 0.1238906 0.04145559 -0.109035276 0.15984692 -0.08584303 0.0016288579 -0.084658414
0.1237239 -0.028973587 -0.049392004 0.6698331 0.047917675 0.2687855 0.027309556 0.10404033
-0.04152774 0.069263 -0.027384065 -0.1290239 -0.1273973 0.30011815 0.0907417 0.040774554
0.18914105 -0.051658142 0.054358665 0.07966662 -0.027044876 0.11670997 -0.24641986 0.030838788
-0.056334246 0.14284955 -0.080041386 0.12103209 0.07280073 0.08349086 0.0910028 0.1055892
0.08839948 0.08904494 -0.14613293 0.13848978 0.04384574 0.062924065 0.007232334 -0.09296523
0.05632048 -0.019659728 -0.101415806 -0.1151259 0.044554062 0.07943361 -0.10929785 -0.005085863
0.20552713 0.118991606 0.09545454 0.018148525 0.2055149 0.08796141 -0.1735133 0.06489707
-0.06975722 0.017148027 -0.04305678 0.020237338 0.032542568 -0.13461731 -0.041501302 0.0043595647
-0.093272895 0.0032727877 0.12577848 -0.25906864 -0.1147716 0.190066 0.10001863 0.09951741
0.069248565 0.020151855 -0.010326556 -0.08516149 -0.11071052 0.103604406 0.08818031 0.011400815
0.09719884 0.13509344 -0.21089506 0.12192807 0.026767451 0.045268565 0.077286504 0.16216448
0.024291163 0.1983274 -0.08605161 -0.21164182 0.12691556 0.11949271 -0.19418602 0.23635006
0.2333887 0.13007459 -0.07942908 -0.038464412 0.2015835 -0.002825422 -0.04522081 0.09820334
0.22967511 -0.13787076 0.07010744 0.034922425 0.02824311 0.16672815 -0.070419915 -0.08649321
-0.069050364 0.11474614 0.07891269 0.09862946 -0.03721752 -0.28656548 0.13236825 0.008904001
-0.2386678 -0.17139775 0.14346415 0.029264707 0.03692559 -0.0044406704 -0.08441992 0.07652978
-0.0025104997 -0.0873634 -0.081732236 0.10388889 -0.0016046375 0.09574441 0.0640633 -0.20819478
-0.012411414 -0.020370325 0.020787379 0.05043993 0.165556 0.27565238 -0.061048068 -0.14127156
-0.10532854 0.017599324 0.1835075 0.06785036 -0.17101988 -0.05914398 -0.05967651 -0.13749765
0.31873578 -0.0365922 -0.028429044 -0.1886323 0.22170769 0.07921332 0.12351491 -0.110947415
0.05441048 -0.0069339387 0.1453118 -0.006823918 0.1781564 -0.05094461 0.08634745 0.09510377
0.09611113 0.020957077 0.20548423 -0.04593867 0.037093718 0.04062125 0.073201 0.07085324
0.04492698 0.018750915 0.19601136 0.025130173 0.13089617 0.34402114 0.31872132 -0.13935311
0.16104783 -0.13541944 0.12305891 -0.10875869 0.109330155 0.14607027 0.13391541 0.28681353
0.17032643 0.00071918225 0.08830819 0.471734 0.14975281 0.111397415 -0.047561724 0.15371004
0.13692075 0.12787662 0.17430541 0.03485765 0.2229794 0.22737846 0.22023179 0.30065084
0.16422945 0.081238076 0.037759073 0.1896238 -0.06542059 0.0423185 -0.21362972 0.28597718
00000000: 6d2b ec3d 4650 ae3d 9461 2d3d 55ee a7bd
00000010: 395a 4b3e 4990 1fbc ed4d 3e3e 5564 9e3b
00000020: a914 803e 5efa 3f3e 01e0 f9bd d97a 653e
00000030: b8e8 023d 9bce f93d 6bb1 e53d 61ba 0e3e
00000040: 3172 3a3e f763 213e 2fed 403e 8bbc b7bc
00000050: 9d3a 98bd 8b16 233d 8af4 d73d f881 be3d
00000060: 734b 103e 0dcd 323e 955f 5d3d b52f 903d
00000070: b09c c6bc 7d8d 7a3e 9e03 903e 259e e4bd
00000080: 62bf 03bd 5bba fd3d 56cd 293d e34d dfbd
00000090: e9ae 233e 78ce afbd 677f d53a 6461 adbd
000000a0: f562 fd3d 045a edbc 454f 4abd 2f7a 2b3f
000000b0: 5345 443d 419e 893e 4ab8 df3c 1913 d53d
000000c0: fe18 2abd c2d9 8d3d 8c54 e0bc d71e 04be
000000d0: 7074 02be 16a9 993e c9d6 b93d 3803 273d
000000e0: 31ae 413e 7d97 53bd 31a7 5e3d 4128 a33d
000000f0: 378d ddbc a305 ef3d 7d55 7cbe a0a1 fc3c
00000100: bdbe 66bd 2747 123e bdec a3bd acdf f73d
00000110: 8d18 953d 42fd aa3d ad5f ba3d 273f d83d
00000120: c90a b53d 325d b63d dfa3 15be 44d0 0d3e
00000130: 9797 333d 55de 803d 37fd ec3b 8e64 bebd
00000140: 4eb0 663d 700d a1bc 17b3 cfbd 21c7 ebbd
00000150: 527e 363d 17ae a23d 8dd7 dfbd 50a7 a6bb
00000160: b475 523e dfb1 f33d ab7d c33d 37ac 943c
00000170: 7f72 523e 1d25 b43d 78ad 31be c1e8 843d
00000180: e0dc 8ebd 057a 8c3c 4e5c 30bd c6c8 a53c
00000190: 5b4b 053d 1fd9 09be 45fd 29bd aeda 8e3b
000001a0: dc05 bfbd 447c 563b 13cc 003e a5a4 84be
000001b0: 5f0d ebbd a9a0 423e 91d6 cc3d c9cf cb3d
000001c0: 31d2 8d3d 8115 a53c b730 29bc 2669 aebd
000001d0: 32bc e2bd 8c2e d43d e197 b43d 7cca 3a3c
000001e0: 2f10 c73d ef55 0a3e e0f4 57be 6db5 f93d
000001f0: 6a47 db3c 886b 393d 6348 9e3d 720e 263e
00000200: 43fe c63c 5716 4b3e d43b b0bd a2b8 58be
00000210: 27f6 013e 98b8 f43d b3d8 46be c005 723e
00000220: 73fd 6e3e 4632 053e b7ab a2bd dc8c 1dbd
00000230: e86b 4e3e b72a 39bb 7539 39bd d51e c93d
00000240: f42f 6b3e fe2d 0dbe 7d94 8f3d d10a 0f3d
00000250: 185e e73c c9ba 2a3e 5138 90bd 5a23 b1bd
00000260: 476a 8dbd 0600 eb3d fa9c a13d 3efe c93d
00000270: 6671 18bd b6b8 92be 8b8b 073e 16e2 113c
00000280: 5565 74be e482 2fbe 44e8 123e 8abc ef3c
00000290: 4a3f 173d 0b83 91bb 5ae4 acbd a5bb 9c3d
000002a0: 3287 24bb 95eb b2bd 3b63 a7bd b3c3 d43d
000002b0: b352 d2ba a515 c43d 9f33 833d 0331 55be
000002c0: 3e59 4bbc abdf a6bc 4b4a aa3c 1a9a 4e3d
000002d0: 8387 293e 4f22 8d3e 8a0d 7abd 7ea9 10be
000002e0: 7db6 d7bd 752c 903c 64e9 3b3e 21f5 8a3d
000002f0: d61f 2fbe f540 72bd 5b6f 74bd 2fcc 0cbe
00000300: 5631 a33e b4e1 15bd 07e4 e8bc d328 41be
00000310: 5707 633e 983a a23d 63f5 fc3d 6638 e3bd
00000320: 86dd 5e3d 1836 e3bb 9ecc 143e 2c9b dfbb
00000330: a26e 363e 4cab 50bd efd6 b03d c4c5 c23d
00000340: ead5 c43d 2dae ab3c 756a 523e 302a 3cbd
00000350: 95ef 173d 7862 263d 68ea 953d 811b 913d
00000360: 5a05 383d 859b 993c 34b7 483e cbdd cd3c
00000370: a509 063e 8a23 b03e 712f a33e 95b2 0ebe
00000380: b9e9 243e 65ab 0abe 4f06 fc3d e0bc debd
00000390: 7de8 df3d 7293 153e 1f21 093e 39d9 923e
000003a0: 0d6a 2e3e 8187 3c3a edda b43d 1e87 f13e
000003b0: cd58 193e 5424 e43d 15d0 42bd 2a66 1d3e
000003c0: f434 0c3e 17f2 023e 1e7d 323e e5c6 0e3d
000003d0: b654 643e e6d5 683e 7184 613e e8ee 993e
000003e0: c42b 283e 2660 a63d 42a9 1a3d be2c 423e
000003f0: 3bfb 85bd 2a56 2d3d c0c1 5abe 9a6b 923e

lstm.bias_hh_l0 f4 [256]
0.19503576 0.072976835 0.0560143 0.07365426 0.14630608 0.04849866 0.011586931 0.08585877
0.08964799 0.21700627 0.024293197 0.18095534 0.16706777 -0.0036711174 0.11368661 0.14892815
0.10992904 0.03176779 0.10618847 0.073541604 -0.023836326 0.06522771 0.041554563 -0.0034882352
0.12905641 0.09832066 -0.02307657 0.09430389 -0.033131354 0.28596723 0.23222257 0.0888603
0.1053821 0.062229116 0.05511286 -0.011713663 0.23206899 -0.07240482 0.029446876 -0.13507904
0.032482464 -0.0022657036 0.06020603 0.5910611 0.11295064 0.24643677 0.061445035 0.09579551
-0.09354979 -0.057505164 -0.06900885 -0.05668377 -0.02459529 0.4859074 -0.046298556 0.07258697
0.1703855 0.027080549 0.23962557 0.09825495 0.12192775 0.10259832 -0.13848665 0.040447667
-0.06711898 0.022295838 -0.0318767 0.15181541 -0.035105146 0.11301065 0.041469757 0.13302074
0.2193282 0.0024417278 -0.11469799 0.07068998 -0.0037219585 0.18603534 -0.088196695 -0.14118089
0.079237305 0.003745125 -0.09989944 -0.007113348 -0.0030278612 0.09075818 -0.014831118 0.09783441
0.028843602 0.071383364 0.107634984 -0.0815538 0.18943766 0.06245379 -0.026687348 0.15062642
-0.11836743 -0.1595629 0.047101736 -0.008604886 -0.12799418 0.0031990327 -0.1296712 -0.07282449
-0.0536542 -0.011621011 0.091501795 -0.23939306 -0.019949581 0.056250308 0.014593776 -0.047027
0.034820586 0.0012749789 0.046589687 -0.010553896 -0.016129855 0.057945807 -0.034877084 -0.016787264
0.084064566 -0.07350017 0.014090697 -0.01660271 0.09136283 0.105802335 -0.064000584 0.1103843
-0.1034686 0.121352255 -0.15827167 -0.19862844 0.16282469 -0.05810606 -0.13849373 0.21265537
0.09062292 0.04177887 -0.04949547 -0.12530002 0.018943924 -0.05756883 0.11088113 0.17963591
0.24053796 -0.11875643 -0.007192335 -0.10872515 -0.1318678 0.19796535 0.09614819 -0.05431656
-0.0012182887 0.22216004 0.07920281 0.141716 -0.02450997 -0.13465312 -0.03337007 0.013983344
-0.12480749 -0.21717986 0.14175403 -0.047302317 0.16255178 0.11859945 -0.07059345 -0.081624456
-0.027280688 -0.1379717 -0.0952878 0.10084523 -0.0380492 0.13074878 0.05090231 0.017286558
0.10349027 -0.061129943 0.0735858 -0.026843702 0.1837139 0.25971517 -0.2256977 -0.12898241
0.04602876 0.01281193 0.03834127 0.100620784 -0.10346646 -0.033130173 -0.07031527 -0.0050340043
0.32191426 0.109100096 -0.090977736 -0.038135227 0.20260108 0.0620183 0.32431534 -0.052813306
0.09690523 -0.026845556 0.056473028 -0.07544419 0.13114609 0.11372184 0.06446341 0.030762114
0.078474246 0.16365978 0.25719365 0.100031994 0.0051678284 -0.01404146 0.20501293 0.15130585
0.06144641 -0.05070466 0.18777241 0.08986556 -0.04882627 0.21647792 0.25302973 -0.03747251
0.11422043 -0.0007706997 0.036048215 -0.007272426 0.09095835 0.030874828 0.14801534 0.28754562
0.072280765 -0.032840118 -0.05998659 0.39065447 0.13185768 0.030601576 -0.14797334 0.2758126
0.07812419 0.008779187 0.10525252 0.14731058 0.054603647 0.18264633 0.05130184 0.25026104
0.17904451 -0.01440542 -0.00788059 0.13452455 -0.021383625 0.12633754 -0.013524838 0.22274993
00000000: 74b7 473e e174 953d 406f 653d 0bd8 963d
00000010: 43d1 153e 88a6 463d 1cd7 3d3c b9d6 af3d
00000020: 5e99 b73d e436 5e3e 8702 c73c 5b4c 393e
00000030: d013 2b3e 2197 70bb 86d4 e83d 9f80 183e
00000040: 7a22 e13d f11e 023d 5779 d93d fb9c 963d
00000050: 6644 c3bc 1b96 853d 1e35 2a3d e09a 64bb
00000060: 5d27 043e 585c c93d 130b bdbc 6622 c13d
00000070: beb4 07bd 4c6a 923e c1cb 6d3e 64fc b53d
00000080: 92d2 d73d f5e3 7e3d 06be 613d aaea 3fbc
00000090: 7ea3 6d3e fa48 94bd 933a f13c 2952 0abe
000000a0: 550c 053d 337c 14bb 999a 763d c84f 173f
000000b0: aa52 e73d ec59 7c3e caad 7b3d 7030 c43d
000000c0: 0897 bfbd 898a 6bbd 8354 8dbd 3e2d 68bd
000000d0: 107c c9bc dbc8 f83e 8ea3 3dbd 7aa8 943d
000000e0: 8979 2e3e 07d8 dd3c 6860 753e e439 c93d
000000f0: 42b5 f93d 111f d23d 72cf 0dbe 74ac 253d
00000100: ad75 89bd c3a5 b63c 2591 02bd 8075 1b3e
00000110: 6aca 0fbd 2172 e73d 31dc 293d 9736 083e
00000120: 9297 603e 6505 203b c8e6 eabd e9c5 903d
00000130: 1aec 73bb 0c80 3e3e 78a0 b4bd b991 10be
00000140: 2b47 a23d c570 753b 1498 ccbd 1717 e9bb
00000150: 156f 46bb 6ddf b93d 38fe 72bc 685d c83d
00000160: 6b49 ec3c 7131 923d bb6f dc3d ae05 a7bd
00000170: f2fb 413e 8ccf 7f3d 6d9f dabc d03d 1a3e
00000180: a06a f2bd 7564 23be c0ed 403d 82fb 0cbc
00000190: e810 03be dda6 513b 87c8 04be 0225 95bd
000001a0: 82c4 5bbd 0e66 3ebc 4b65 bb3d 7423 75be
000001b0: 4e6d a3bc b966 663d bc1a 6f3c 629f 40bd
000001c0: 08a0 0e3d 311d a73a d4d4 3e3d 40ea 2cbc
000001d0: c222 84bc 9558 6d3d 46db 0ebd 7285 89bc
000001e0: 0b2a ac3d 4287 96bd abdc 663c 6802 88bc
000001f0: 6f1c bb3d e5ae d83d bd12 83bd 2a11 e23d
00000200: 58e7 d3bd 8887 f83d f811 22be 4165 4bbe
00000210: 84bb 263e 9f00 6ebd 4dd1 0dbe 54c2 593e
00000220: 8298 b93d 5220 2b3d c3bb 4abd a64e 00be
00000230: 4a30 9b3c 4bcd 6bbd a515 e33d 7af2 373e
00000240: 954f 763e 9236 f3bd aead ebbb 4bab debd
00000250: 5a08 07be 6eb7 4a3e 58e9 c43d 0b7b 5ebd
00000260: fcae 9fba ec7d 633e 1535 a23d 001e 113e
00000270: 22c9 c8bc 82e2 09be 0eaf 08bd 651a 653c
00000280: 129b ffbd 6664 5ebe f827 113e 13c0 41bd
00000290: f973 263e 45e4 f23d 4c93 90bd b92a a7bd
000002a0: c07b dfbc 7448 0dbe 4026 c3bd f287 ce3d
000002b0: 7ad9 1bbd 02e3 053e f17e 503d 8a9c 8d3c
000002c0: b5f2 d33d 6463 7abd 27b4 963d 53e7 dbbc
000002d0: 7f1f 3c3e 63f9 843e 4c1d 67be f713 04be
000002e0: a788 3c3d 21e9 513c bc0b 1d3d 4512 ce3d
000002f0: 39e6 d3bd 81b3 07bd 7401 90bd 4af4 a4bb
00000300: f2d1 a43e df6f df3d 8952 babd af33 1cbd
00000310: a876 4f3e e706 7e3d a90c a63e c452 58bd
00000320: 4076 c63d 36eb dbbc 4350 673d 7c82 9abd
00000330: 294b 063e ffe6 e83d 6405 843d d400 fc3c
00000340: 1bb7 a03d 6e96 273e e3ae 833e 93dd cc3d
00000350: e356 a93b 270e 66bc e9ee 513e ecef 1a3e
00000360: 3baf 7b3d b1af 4fbd 6947 403e 6f0b b83d
00000370: 0efe 47bd 63ac 5d3e 1d8d 813e c67c 19bd
00000380: 67ec e93d c808 4aba 4ba7 133d 884d eebb
00000390: 5f48 ba3d 35ed fc3c 5591 173e 2e39 933e
000003a0: f007 943d 5c83 06bd 80b4 75bd dd03 c83e
000003b0: b305 073e 28b0 fa3c 5386 17be 4f37 8d3e
000003c0: 93ff 9f3d 94d6 0f3c a28e d73d 96d8 163e
000003d0: 13a8 5f3d a407 3b3e e121 523d 3722 803e
000003e0: 7257 373e b604 6cbc 971d 01bc cec0 093e
000003f0: b62c afbc a15e 013e 4897 5dbc 8f18 643e

lstm.weight_ih_l1 f4 [256, 64]
-0.027188744 -0.08251994 -0.083581105 -0.090064324 0.06437562 -0.056686033 -0.054521292 -0.0030863283
0.010922095 0.18743952 -0.052032456 -0.05629194 -0.14080173 -0.043095 0.035163246 0.025442585
-0.009452904 0.011530168 -0.061530516 0.1678971 0.03014966 0.13912846 0.08704936 0.14256468
0.027472805 0.034418248 -0.15590039 0.0048380615 -0.14539564 -0.0927275 0.10889221 -0.114243425
-0.12065013 0.060090348 -0.0698596 0.05532401 0.05584242 -0.11455124 -0.102057844 -0.018598376
0.0142154945 -0.16739266 0.09248716 -0.25686526 0.045445047 0.067739636 0.09691837 0.071221694
0.062959746 -0.14072911 -0.014978881 0.10582706 -0.015330378 0.10631921 -0.06597433 0.058410123
0.05702844 -0.008756822 -0.13011333 0.04221199 -0.09452194 -0.06054454 -0.27853975 -0.14981109
-0.13076434 -0.0015456692 0.051927492 -0.044460423 -0.02384809 -0.044399817 -0.008426657 -0.06710995
0.013355529 0.15474597 0.15981568 0.051803056 0.11047233 -0.09160262 -0.027380535 0.31031898
-0.070703745 0.09930133 0.06917068 -0.016058693 -0.04669844 0.10547326 0.078373365 0.15455921
0.15204808 0.10142935 -0.25503215 -0.09036358 0.12880161 -0.032954834 0.036609348 -0.0026714387
-0.20958894 0.14824024 -0.041349277 0.07235859 0.019691022 0.10957629 0.08330667 0.24066423
-0.11376336 -0.10319087 0.056903284 -0.12309184 -0.020967657 0.09367769 0.012791792 -0.0153102055
-0.005997705 -0.09382281 0.2197628 -0.07323555 0.11150356 -0.014860939 -0.04393273 0.12196535
-0.15335268 0.032875333 -0.07514984 -0.18373375 -0.024088562 0.057910215 -0.023353208 -0.14250596
0.04119292 -0.25694832 0.011704408 -0.15268439 0.13540317 0.12367212 -0.0017474039 0.04270445
0.032024875 0.5756151 0.01586414 0.082635544 -0.19519915 -0.03153001 -0.16300064 0.86032975
0.13828789 0.01354719 -0.03316817 0.10497418 0.0006219946 0.019716706 -0.030243857 0.14485075
0.13046333 0.18065813 -0.24486503 -0.12789705 0.029849425 0.11806791 0.030562127 -0.030719453
-0.1867367 -0.056269173 -0.0993689 -0.031149155 -0.10288053 -0.2992913 -0.05887341 -0.23758145
0.047340993 0.062901884 -0.008968901 0.1516475 0.3446088 -0.0058479607 -0.037193414 -0.13946459
0.039782736 -0.17036802 0.017650608 -0.15310378 -0.11819619 0.10081939 -0.019425463 0.12459237
-0.09375088 0.0015568568 -0.028793283 -0.28279257 0.12066853 0.118378066 -0.26433477 -0.13736841
0.16877076 0.08124805 -0.14751984 -0.03704587 0.23695914 0.045757655 0.08739152 0.080019616
-0.06516446 0.14059395 -0.30269927 -0.08725537 0.13644964 -0.002093134 0.0040091164 0.11441597
0.038016986 0.011204867 -0.032273933 0.014301558 -0.16488384 0.099775665 -0.15458962 0.002439071
0.18811017 0.00407738 0.19044016 -0.18489857 0.03203628 -0.340328 0.07780475 0.07438868
-0.016439712 -0.16958249 -0.12632173 -0.045525722 -0.056510925 -0.050938994 0.033194706 -0.118124105
0.015985457 0.14917466 -0.18284568 -0.47942576 -0.107174195 0.05539316 0.13349783 0.079406865
-0.15342687 -0.17945878 -0.01377252 -0.16383505 -0.124984145 0.030823672 -0.08026151 -0.20647983
-0.053021707 -0.009864162 -0.0018617974 0.02622726 -0.039251976 0.07310866 -0.121294916 -0.10941598
00000000: eeba debc 3700 a9bd 922c abbd a573 b8bd
00000010: 5dd7 833d 9d2f 68bd b851 5fbd ff43 4abb
00000020: 96f2 323c 25f0 3f3e fc1f 55bd 6192 66bd
00000030: 542e 10be 6284 30bd 5607 103d f86c d03c
00000040: 5ae0 1abc 08e9 3c3c 6c07 7cbd 38ed 2b3e
00000050: 6bfc f63c b177 0e3e ef46 b23d 7afc 113e
00000060: a60e e13c 26fa 0c3d 5aa4 1fbe 9a88 9e3b
00000070: 98e2 14be eae7 bdbd e102 df3d 75f8 e9bd
00000080: 6a17 f7bd 4c21 763d 8d12 8fbd 6e9b 623d
00000090: 05bb 643d d799 eabd b403 d1bd 9f5b 98bc
000000a0: 1be8 683c fb68 2bbe e869 bd3d d883 83be
000000b0: 9624 3a3d 14bb 8a3d 237d c63d aedc 913d
000000c0: 0af1 803d 4b1b 10be fb69 75bc dcbb d83d
000000d0: 442c 7bbc e3bd d93d 8d1d 87bd 743f 6f3d
000000e0: a796 693d c678 0fbc 6e3c 05be 7be6 2c3d
000000f0: b894 c1bd 8dfd 77bd c39c 8ebe 1468 19be
00000100: 16e7 05be 0d98 caba ecb1 543d 221c 36bd
00000110: 125d c3bc 95dc 35bd f60f 0abc f170 89bd
00000120: 26d1 5a3c ba75 1e3e b9a6 233e 712f 543d
00000130: 513f e23d 289a bbbd 254d e0bc 21e2 9e3e
00000140: 20cd 90bd 7f5e cb3d 5ca9 8d3d 858d 83bc
00000150: dd46 3fbd 5d02 d83d 3782 a03d c544 1e3e
00000160: 7eb2 1b3e 31ba cf3d 9393 82be 8a10 b9bd
00000170: 92e4 033e a6fb 06bd aff3 153d 4e13 2fbb
00000180: 7c9e 56be 4acc 173e dc5d 29bd be30 943d
00000190: 114f a13c 8969 e03d b09c aa3d af70 763e
000001a0: c4fc e8bd bc55 d3bd 6b13 693d 9317 fcbd
000001b0: 5dc4 abbc 17da bf3d aa94 513c a8d7 7abc
000001c0: 6588 c4bb 2c26 c0bd 8009 613e 85fc 95bd
000001d0: fa5b e43d 4c7b 73bc cef2 33bd f8c8 f93d
000001e0: 7c08 1dbe 49a8 063d 29e8 99bd b324 3cbe
000001f0: 6055 c5bc 4333 6d3d 3a4f bfbc 15ed 11be
00000200: e8b9 283d bb8e 83be d8c3 3f3c 4c59 1cbe
00000210: 21a7 0a3e cf47 fd3d 2509 e5ba ddea 2e3d
00000220: 842c 033d 835b 133f 83f5 813c d33c a93d
00000230: 49e2 47be 9d25 01bd a4e9 26be 923e 5c3f
00000240: 579b 0d3e 09f5 5d3c 59db 07bd b4fc d63d
00000250: 5a0d 233a ee84 a13c f7c1 f7bc c153 143e
00000260: 2e98 053e 72fe 383e e6bd 7abe 72f7 02be
00000270: c886 f43c 97cd f13d 6d5d fa3c 5da7 fbbc
00000280: e837 3fbe 817a 66bd ec81 cbbd 832c ffbc
00000290: 07b3 d2bd b63c 99be 3f25 71bd 8d48 73be
000002a0: a1e8 413d b4d2 803d 4cf2 12bc 7b49 1b3e
000002b0: 9170 b03e 40a0 bfbb 1f58 18bd cecf 0ebe
000002c0: 39f3 223d f474 2ebe 0298 903c 3dc7 1cbe
000002d0: d810 f2bd 657a ce3d 2622 9fbc 492a ff3d
000002e0: 7600 c0bd 720f cc3a e4df ebbc 30ca 90be
000002f0: 1021 f73d 3370 f23d e356 87be 4eaa 0cbe
00000300: 3ed2 2c3e 6165 a63d 710f 17be 69bd 17bd
00000310: 6ba5 723e 616c 3b3d 53fa b23d 53e1 a33d
00000320: f274 85bd dcf7 0f3e 66fb 9abe f2b2 b2bd
00000330: 74b9 0b3e f62c 09bb e85e 833b ec52 ea3d
00000340: b3b7 1b3d 9e94 373c ac31 04bd 1551 6a3c
00000350: 4fd7 28be 2f57 cc3d be4c 1ebe d2d8 1f3b
00000360: f49f 403e 8b9b 853b bf02 433e 0d56 3dbe
00000370: 7938 033d 793f aebe 1958 9f3d 1859 983d
00000380: 93ac 86bc 08a7 2dbe 7c5a 01be 2e79 3abd
00000390: 0078 67bd 68a5 50bd 2cf7 073d 0deb f1bd
000003a0: eff3 823c 3ec1 183e e63b 3bbe 4b77 f5be
000003b0: 257e dbbd f0e3 623d a8b3 083e 11a0 a23d
000003c0: ef1b 1dbe 0bc4 37be 23a6 61bc 60c4 27be
000003d0: b0f7 ffbd ed81 fc3c 2660 a4bd 736f 53be
000003e0: 4a2d 59bd 4b9d 21bc 8e07 f4ba 8dda d63c
000003f0: aec6 20bd feb9 953d 7869 f8bd 7c15 e0bd

lstm.weight_hh_l1 f4 [256, 64]
0.06751531 -0.043382768 0.11888413 0.12062828 0.04188216 0.028026821 -0.040867712 -0.19584182
-0.07120109 0.005398987 -0.07280079 -0.14902078 -0.07688878 0.070790224 0.04352205 -0.43410695
0.10578196 -0.040388834 -0.019386176 -0.18041068 -0.053104825 0.18082036 -0.008441935 0.027340343
-0.093515426 0.075331464 -0.040515915 0.040610973 -0.052059274 -0.09283584 0.10631856 -0.084379666
-0.011015748 -0.0671593 -0.17002375 -0.26383165 0.016568054 -0.039480973 0.0849828 0.17580466
0.008022777 0.08456601 -0.016734352 0.055793416 0.08290896 -0.17170373 0.04822874 0.12729435
0.006648225 -0.06428019 0.09243692 0.03508168 -0.039021503 0.018498104 0.10017723 0.04446847
-0.01462202 0.028337648 0.02805605 0.022265043 0.07650362 -0.037022192 -0.1934049 0.061887205
-0.19402225 0.06454315 0.16864152 -0.05205562 -0.26394284 0.06895951 -0.016384952 -0.10346981
-0.075269155 -0.055391368 0.013608756 -0.041600615 -0.062339768 -0.14635718 0.30134776 0.128672
0.119868636 -0.16416642 0.0544405 -0.13086498 -0.058218546 -0.035779256 -0.08451456 -0.0922148
-0.21063079 -0.12777743 -0.22064546 -0.17531766 -0.023773385 -0.02431805 -0.015571651 0.033458766
0.04921423 0.0005709161 0.010910252 -0.05651601 0.02562611 -0.14799224 -0.03468897 -0.0161806
-0.050893072 -0.05287144 -0.020476019 0.101748906 0.037868556 -0.15283327 0.09691447 0.18348798
-0.147116 0.16003345 0.1758274 0.060280733 -0.09552774 0.13269843 0.09189236 -0.10745185
0.012518659 -0.059712507 0.07416954 -0.13381393 0.029920088 0.15383652 0.05778778 -0.09645925
-0.18127501 -0.0017935886 0.19633172 0.34935695 -0.22083057 0.27665794 -0.08240987 -0.15840428
-0.31519377 0.16902961 0.016178586 -0.19877236 0.14139734 0.027871776 0.047118705 0.17409311
0.31260973 -0.14856365 0.028363135 -0.5281096 -0.16316353 0.2840852 -0.030356396 0.13681361
-0.29857382 -0.19959015 0.050897077 -0.06838723 -0.15045092 0.0058599785 0.22974613 -0.2053001
-0.103880264 0.08810527 -0.16029266 -0.050600372 -0.12204193 -0.3482282 -0.10349459 -0.20100287
0.04293037 0.011005834 0.07735924 0.106777094 0.32149714 -0.012884989 0.13379027 0.2963756
-0.32878488 0.20511279 0.03810187 0.30826193 -0.3193076 0.003929072 0.29536748 -0.15788876
-0.07000132 0.052744184 -0.11715883 -0.21743605 0.17675877 0.00981133 0.0014061969 -0.1594164
0.14936039 0.19084664 0.0019040521 -0.16382322 -0.05634849 0.0870369 -0.1445445 -0.038808107
0.025884008 -0.015425722 -0.0076165027 -0.09561498 0.14491081 0.007661528 -0.07263861 -0.25203738
-0.1475444 -0.14916731 -0.07554795 -0.18817209 0.25679764 -0.16325316 0.051155034 0.011563714
0.073516764 -0.096778065 -0.08420687 0.07811664 -0.020202145 -0.11937562 0.011884446 0.078184396
-0.027731407 -0.116999276 0.065888345 0.0779301 -0.040364347 0.008469141 -0.06710415 0.25476506
0.074420266 -0.18387552 0.0779947 0.04129817 0.09330884 0.032161497 0.12966233 0.096824355
-0.10257581 -0.12501322 -0.12177335 0.024240755 0.2812551 0.1016122 -0.0070232707 0.017088568
-0.17464054 -0.15840824 0.052336846 -0.011590276 -0.06335317 -0.23066443 -0.1695383 0.04325166
00000000: 7845 8a3d 21b2 31bd 8679 f33d f60b f73d
00000010: a18c 2b3d 8198 e53c e764 27bd c28a 48be
00000020: e1d1 91bd fce9 b03b 9518 95bd e798 18be
00000030: dd77 9dbd 77fa 903d 2d44 323d 4443 debe
00000040: 36a4 d83d c36e 25bd c2cf 9ebc 94bd 38be
00000050: 7284 59bd f928 393e 0b50 0abc dbf8 df3c
00000060: 0485 bfbd 6247 9a3d 04f4 25bd b157 263d
00000070: 1b3c 55bd b820 bebd 8cbd d93d 3fcf acbd
00000080: 657b 34bc d18a 89bd b51a 2ebe f114 87be
00000090: bab9 873c cdb6 21bd 760b ae3d 2306 343e
000000a0: f771 033c f230 ad3d 7b16 89bc a387 643d
000000b0: 2ccc a93d 1ad3 2fbe 808b 453d 7359 023e
000000c0: 5ad9 d93b 55a5 83bd 914f bd3d cfb1 0f3d
000000d0: 03d5 1fbd 5689 973c b829 cd3d 9224 363d
000000e0: 3291 6fbc 5b24 e83c cdd5 e53c 2e65 b63c
000000f0: eead 9c3d 95a4 17bd ef0b 46be 707d 7d3d
00000100: c5ad 46be 332f 843d 5db0 2c3e 4638 55bd
00000110: 8423 87be a53a 8d3d bc39 86bc fbe7 d3bd
00000120: b726 9abd 0fe2 62bd 42f7 5e3c 6865 2abd
00000130: fc57 7fbd a8de 15be 414a 9a3e 98c2 033e
00000140: b07d f53d 3e1b 28be 00fd 5e3d 7801 06be
00000150: 9276 6ebd 458d 12bd f815 adbd 1ddb bcbd
00000160: 99af 57be 16d8 02be e2f0 61be 7986 33be
00000170: 67c0 c2bc a636 c7bc 3d20 7fbc 0f0c 093d
00000180: dc94 493d 88a9 153a eac0 323c 557d 67bd
00000190: d9ed d13c 478b 17be 0516 0ebd 2d8d 84bc
000001a0: 4175 50bd b98f 58bd 53bd a7bc bb61 d03d
000001b0: 0f1c 1b3d 5380 1cbe 187b c63d 46e4 3b3e
000001c0: 94a5 16be cfdf 233e 190c 343e eee8 763d
000001d0: 0ca4 c3bd 19e2 073e 1032 bc3d b70f dcbd
000001e0: 101b 4d3c 1a95 74bd 33e6 973d 8506 09be
000001f0: f91a f53c 5287 1d3e e1b2 6c3d 6d8c c5bd
00000200: 28a0 39be d916 ebba 2f0b 493e eade b23e
00000210: 6921 62be 1ca6 8d3e 82c6 a8bd bb34 22be
00000220: 1461 a1be 1916 2d3e f488 843c fb8a 4bbe
00000230: 77ca 103e 5a53 e43c 8bff 403d 7745 323e
00000240: 620e a03e 1221 18be ce59 e83c 3132 07bf
00000250: 5714 27be 9e73 913e faad f8bc de18 0c3e
00000260: abde 98be 5c61 4cbe 7479 503d 9b0e 8cbd
00000270: ce0f 1abe 1005 c03b 9242 6b3e 303a 52be
00000280: 2dbf d4bd 8970 b43d c223 24be 5642 4fbd
00000290: 1ff1 f9bd f74a b2be f9f4 d3bd b2d3 4dbe
000002a0: c1d7 2f3d d051 343c 856e 9e3d f3ad da3d
000002b0: 469b a43e 901b 53bc 5100 093e 8bbe 973e
000002c0: 7e56 a8be 1609 523e b510 1c3d 82d4 9d3e
000002d0: 497c a3be 72bf 803b 683a 973e 97ad 21be
000002e0: da5c 8fbd 490a 583d f8f0 efbd 8ea7 5ebe
000002f0: 4000 353e b3bf 203c 2350 b83a 0e3e 23be
00000300: eef1 183e 4d6d 433e 6391 f93a 46c1 27be
00000310: adcd 66bd 6740 b23d 7903 14be 40f5 1ebd
00000320: b30a d43c 2bbc 7cbc db93 f9bb c9d1 c3bd
00000330: 8063 143e 8e0d fb3b 8dc3 94bd 0b0b 81be
00000340: e115 17be 51bf 18be e2b8 9abd 2fb0 40be
00000350: fb7a 833e d62b 27be f187 513d bb75 3d3c
00000360: f58f 963d 9433 c6bd a774 acbd 9efb 9f3d
00000370: f87e a5bc 347b f4bd fbb6 423c 241f a03d
00000380: fa2c e3bc 519d efbd 78f0 863d d199 9f3d
00000390: 1655 25bd 27c2 0a3c e76d 89bd 9170 823e
000003a0: a769 983d dd49 3cbe afbb 9f3d 4528 293d
000003b0: b518 bf3d c6bb 033d 34c6 043e d94b c63d
000003c0: 4413 d2bd 7703 00be 4e64 f9bd 8c94 c63c
000003d0: ab00 903e 0f1a d03d 7723 e6bb 53fd 8b3c
000003e0: f8d4 32be c535 22be 295f 563d 24e5 3dbc
000003f0: 4fbf 81bd 4c33 6cbe 739b 2dbe a728 313d

lstm.bias_ih_l1 f4 [256]
-0.06481106 -0.02997057 -0.11020354 0.058531545 -0.023139257 0.047836762 0.10424088 -0.011453732
0.025825024 -0.09405943 -0.050524734 -0.07233889 -0.08594403 -0.0780988 0.11328537 -0.099601574
-0.0123035805 -0.052197315 -0.024602354 0.066379555 0.05821169 -0.004473138 -0.04229153 -0.07182243
0.010132494 -0.05510508 0.19699797 0.13890907 -0.047242243 -0.016744379 -0.07590911 0.052604392
0.041636527 0.0033944 0.06384229 0.033930298 0.04852279 0.010886618 0.05038487 0.017692847
-0.02814987 0.034234405 0.013728944 -0.06371735 0.09544844 -0.099235356 -0.008425401 0.08058473
0.024955824 -0.04980684 -0.028390957 0.10044057 0.049138993 -0.107162155 0.08010243 0.04655024
0.20447282 -0.019763054 0.075143926 -0.0052796863 0.17423744 0.069294035 0.2813295 0.047365583
-0.06959007 0.023777299 0.070486896 -0.046592165 -0.088892035 0.06660445 0.006968994 0.11161091
-0.027277088 0.089053296 0.069097504 -0.06689767 0.057827972 -0.0038621977 0.10260783 0.10289034
0.040095422 0.13319445 0.045161184 -0.07123026 0.04029182 0.12366996 0.13031192 0.04124026
0.14311302 0.12467588 -0.03867563 0.0024825777 0.123406045 0.10823178 0.019918602 0.056565296
0.13379456 0.10175109 0.14226122 0.018782591 0.0026991623 -0.0262214 0.11490638 -0.04281069
0.029899279 0.046569634 -0.09584974 -0.05525331 -0.007507444 -0.071991496 -0.0025867403 0.058406506
0.039391194 0.028301682 -0.09916489 0.11660421 0.07385749 -0.021244762 -0.06270292 -0.10716299
-0.027048403 0.075335674 -0.056678113 -0.025641536 0.025194552 0.051574033 -0.00602699 0.08531136
0.026180422 -0.06688851 -0.011806651 0.060394537 0.045052357 -0.0007507896 -0.1019375 -0.07257461
-0.06873488 0.058663145 -0.034298204 0.118486576 -0.11602662 0.06851396 -0.08603097 0.011541871
-0.08720516 -0.0022167945 -0.03442025 -0.020918831 0.07055568 0.03877274 0.037399065 -0.043357085
0.062320564 0.105223365 0.10717434 0.053874675 -0.06208623 0.11888492 0.13273413 -0.09588325
0.019508569 -0.12648238 -0.07205038 0.13759273 -0.09188465 -0.00021227144 0.06217773 -2.5472604e-05
0.030993631 -0.14917915 0.04536674 0.02578246 -0.13244857 -0.089798994 -0.008272143 -0.02914315
0.045666385 0.03827619 -0.13915174 -0.032485686 0.1353615 0.007111578 -0.07552244 0.051128305
0.08421589 -0.011146081 -0.01561713 -0.029999582 0.09094915 -0.04494504 0.07316403 -0.079086214
0.16169587 0.044037215 0.07257156 -0.023071093 0.1284059 -0.02318136 -0.04414209 -0.075036
-0.026845587 0.15551934 0.006590585 0.10252647 -0.15638782 0.22187865 0.03491473 -0.040259685
0.07416022 0.11785839 0.07437718 0.06675766 0.10932135 0.07989508 -0.000785614 0.17679398
0.0068021417 0.16156909 0.16257069 0.1631478 0.08581645 -0.052343212 0.1748763 0.041417036
0.063100986 0.116411425 0.12039806 0.006777944 0.09977047 0.118096955 0.2143319 -0.023446653
0.09020101 0.145052 -0.045946393 0.061387673 -0.07802138 0.00668482 -0.06405498 0.073085226
0.011041089 0.23941639 0.17512427 0.17607693 -0.113748394 0.012199598 -0.08225675 0.032042045
0.1078194 0.055326678 -0.1326031 0.044026338 -0.021704074 -0.00067040854 0.10767398 -0.012237699
00000000: a9bb 84bd d784 f5bc 65b2 e1bd c6be 6f3d
00000010: 8a8e bdbc 7bf0 433d 3e7c d53d 6fa8 3bbc
00000020: 008f d33c 3ba2 c0bd 06f3 4ebd 6926 94bd
00000030: 6c03 b0bd 43f2 9fbd 2902 e83d e9fb cbbd
00000040: f594 49bc dacc 55bd e08a c9bc 01f2 873d
00000050: 626f 6e3d 6793 92bb e239 2dbd a317 93bd
00000060: c302 263c ddb5 61bd d6b9 493e 2e3e 0e3e
00000070: 1581 41bd 822b 89bc 3c76 9bbd b477 573d
00000080: 108b 2a3d 9574 5e3b bfbf 823d 7ffa 0a3d
00000090: d5bf 463d c95d 323c 5e60 4e3d 97f0 903c
000000a0: 8e9a e6bc 6039 0c3d 5def 603c 3e7e 82bd
000000b0: 797a c33d e83b cbbd b10a 0abc 9b09 a53d
000000c0: 2870 cc3c 4202 4cbd 2794 e8bc c9b3 cd3d
000000d0: f845 493d d577 dbbd be0c a43d 77ab 3e3d
000000e0: 5361 513e 21e6 a1bc 0fe5 993d 3801 adbb
000000f0: 4d6b 323e 08ea 8d3d 6c0a 903e 6a02 423d
00000100: 3d85 8ebd 9cc8 c23c 6f5b 903d 6dd7 3ebd
00000110: 070d b6bd ea67 883d 295c e43b 4394 e43d
00000120: 3374 dfbc 9361 b63d fe82 8d3d a501 89bd
00000130: 06dd 6c3d ed1c 7dbb 0e24 d23d 2cb8 d23d
00000140: 193b 243d 2064 083e effa 383d 2ce1 91bd
00000150: 0909 253d ad46 fd3d 7d70 053e 8ceb 283d
00000160: 388c 123e 1156 ff3d 566a 1ebd beb2 223b
00000170: 4fbc fc3d a0a8 dd3d 562c a33c 03b1 673d
00000180: 7101 093e e062 d03d edac 113e f3dd 993c
00000190: 6ee4 303b 43ce d6bc 0954 eb3d 435a 2fbd
000001a0: 55ef f43c cdbf 3e3d de4c c4bd 4b51 62bd
000001b0: 0101 f6bb 4770 93bd 4d86 29bb a93b 6f3d
000001c0: a958 213d eed8 e73c f616 cbbd 30ce ee3d
000001d0: 9942 973d 7f09 aebc 636a 80bd 4578 dbbd
000001e0: 9d94 ddbc 9749 9a3d 4f27 68bd 330e d2bc
000001f0: ce64 ce3c 4b3f 533d 0e7e c5bb b9b7 ae3d
00000200: 5378 d63c d8fc 88bd af70 41bc 4360 773d
00000210: d288 383d a3d0 44ba 9cc4 d0bd ffa1 94bd
00000220: dfc4 8cbd c448 703d 467c 0cbd 17a9 f23d
00000230: 5d9f edbd 0c51 8c3d 0131 b0bd 1e1a 3d3c
00000240: 9e98 b2bd a447 11bb 40fc 0cbd f85d abbc
00000250: 7f7f 903d 2ad0 1e3d c32f 193d 3397 31bd
00000260: d943 7f3d 597f d73d 387e db3d b1ab 5c3d
00000270: 214e 7ebd f079 f33d 75eb 073e 705e c4bd
00000280: 6fd0 9f3c 9984 01be 268f 93bd 1ce5 0c3e
00000290: 052e bcbd 2e95 5eb9 13ae 7e3d 00ae d5b7
000002a0: 5be6 fd3c 6bc2 18be 7ad2 393d bd35 d33c
000002b0: 99a0 07be 89e8 b7bd e287 07bc 9ebd eebc
000002c0: ad0c 3b3d 7fc7 1c3d cb7d 0ebe b60f 05bd
000002d0: 349c 0a3e 3d08 e93b 82ab 9abd ea6b 513d
000002e0: 6179 ac3d 0d9e 36bc fede 7fbc afc1 f5bc
000002f0: 8c43 ba3d 4a18 38bd 06d7 953d f4f7 a1bd
00000300: 9a93 253e 5e60 343d 66a0 943d 97ff bcbc
00000310: d67c 033e d6e6 bdbc 56ce 34bd 79ac 99bd
00000320: 47eb dbbc 7640 1f3e d6f5 d73b 66f9 d13d
00000330: 2124 20be 2834 633e bf02 0f3d 57e7 24bd
00000340: 50e1 973d bd5f f13d 1053 983d 3db8 883d
00000350: dfe3 df3d 08a0 a33d aaf1 4dba 7b09 353e
00000360: 80e4 de3b 5e72 253e ee78 263e 3810 273e
00000370: 89c0 af3d d665 56bd c612 333e e9a4 293d
00000380: 173b 813d 1d69 ee3d 4293 f63d 8419 de3b
00000390: 7654 cc3d d1dc f13d d279 5b3e 3213 c0bc
000003a0: 4fbb b83d 8388 143e 4932 3cbd a471 7b3d
000003b0: acc9 9fbd 560c db3b 422f 83bd b5ad 953d
000003c0: afe5 343c 9229 753e c753 333e 834d 343e
000003d0: ebf4 e8bd d3e0 473c 3a76 a8bd 853e 033d
000003e0: 6bd0 dc3d 3a9e 623d 1bc9 07be f654 343d
000003f0: becc b1bc 5bbe 2fba 2d84 dc3d a180 48bc

lstm.bias_hh_l1 f4 [256]
0.05692237 0.0069353227 -0.19448747 0.06941993 0.045725457 0.058590792 0.09691962 0.012193876
-0.051428724 -0.03125684 0.1645788 -0.022066724 0.025925454 0.07885117 -0.056537986 -0.1762283
0.019791503 -0.008891421 0.09884847 0.0353552 0.086062066 -0.03511732 -0.09916459 0.14513494
0.13019803 0.049932808 0.24834965 0.14440663 0.054837834 0.10866806 -0.035080425 -0.17344964
0.14831702 0.21365395 0.1503814 0.037195753 0.06981808 0.05818842 0.07418543 -0.025072908
-0.07992926 0.031888016 -0.15274991 0.011926739 0.103237845 -0.09340713 -0.05206002 0.06094303
-0.034025066 0.01104428 -0.069577456 0.08570855 -0.0013627458 -0.028229447 -0.067703664 0.08749178
0.23835301 -0.10451474 -0.003884523 -0.11859639 0.17736705 0.0985467 0.21059044 -0.05830771
0.029728439 -0.045047466 0.06393084 -0.050156366 -0.038995985 0.13615324 0.062026512 -0.060710717
-0.03649682 -0.03390213 0.019485211 -0.0005912988 0.020392446 0.11061603 -0.07967764 -0.05807629
0.050579924 -0.017791936 0.15147722 0.048402805 0.03444112 0.09465593 0.12059598 0.034928992
0.123303 -0.028221952 -0.0014428106 0.14739096 0.09418298 -0.0064273044 -0.08156733 -0.013891714
-0.059954647 0.18310992 0.008973808 -0.11353652 0.04365824 -0.01752508 -0.0041876715 -0.054239605
0.054053966 0.06452939 0.10865294 -0.042543173 0.09453059 0.011605931 0.025833467 -0.013865181
0.02666022 -0.12702535 -0.06548397 0.05517831 -0.06658112 -0.08802195 0.065181546 -0.07119303
-0.025776481 -0.0043198806 0.10088678 0.034952402 0.07872935 0.0813462 0.008674227 0.03755045
0.08135582 0.1142675 -0.021787629 0.02703519 -0.06790201 -0.044406973 -0.18087761 0.00560071
0.060696397 -0.11574298 -0.012062635 -0.11246822 0.12305097 0.10522439 0.05606746 0.088844396
0.09666847 0.02851871 -0.008745801 -0.03514049 0.030977508 -0.01477783 0.022603046 -0.099033065
0.087531835 0.044194687 0.012625848 -0.033244833 0.0052158614 -0.10873137 0.08533933 0.12465634
-0.0050902357 -0.03405529 -0.07081751 -0.039087035 0.04051289 -0.10235428 -0.027353901 0.089328624
0.0960735 -0.15222138 -0.008819951 0.098505564 0.09452428 0.021120034 -0.057551883 -0.117613204
-0.069538385 -0.014818547 -0.0094177965 -0.06817067 -0.0035690786 0.0859639 -0.004520188 -0.09065032
-0.09662247 -0.050599944 -0.057317108 0.055950787 -0.03833256 -0.06204763 0.08995222 0.023294687
0.17520605 -0.1548287 -0.049189255 0.15344179 0.07227041 0.07809558 0.14956768 -0.11052868
0.055480808 0.025441203 -0.039845306 -0.038592357 -0.15766446 0.07404315 0.17607646 0.10681329
0.18438146 -0.10528665 -0.043401077 0.12282106 -0.070333935 0.047674634 -0.0055678827 0.055900093
0.021400828 0.09372512 0.08984295 0.16511334 0.12222621 0.123540305 0.042309448 0.15998644
-0.035808075 0.06789755 0.06265971 -0.090652995 0.05107139 0.005364142 0.1994661 0.15042691
-0.09406293 -0.030995902 0.053642515 0.13754237 -0.079969764 0.20701483 0.17992571 0.12698194
0.025345456 0.20547362 0.051978808 0.14712277 -0.075447336 -0.060969688 0.11898912 0.17851546
0.105889484 0.007025784 -0.021049358 0.039455246 0.0035192468 0.11395386 0.1430529 -0.010763664
00000000: 6e27 693d b441 e33b b927 47be 092c 8e3d
00000010: 9e4a 3b3d e6fc 6f3d cb7d c63d d3c8 473c
00000020: eda6 52bd 2c07 00bd 5887 283e 46c5 b4bc
00000030: 9e61 d43c b97c a13d 6094 67bd 3175 34be
00000040: ca21 a23c 53ad 11bc 1171 ca3d 9dd0 103d
00000050: 4f41 b03d 2ed7 0fbd ce16 cbbd 419e 143e
00000060: a252 053e 5886 4c3d 5f4f 7e3e 55df 133e
00000070: a39d 603d 5c8d de3d 7eb0 0fbd c89c 31be
00000080: 6be0 173e 1ac8 5a3e 95fd 193e 935a 183d
00000090: c8fc 8e3d fb56 6e3d 88ee 973d b365 cdbc
000000a0: f4b1 a3bd 029d 023d 796a 1cbe 5e68 433c
000000b0: 5d6e d33d 3d4c bfbd e33c 55bd 669f 793d
000000c0: de5d 0bbd 11f3 343c a07e 8ebd f787 af3d
000000d0: 299e b2ba 7141 e7bc 38a8 8abd e42e b33d
000000e0: d012 743e d30b d6bd 7b93 7ebb aae2 f2bd
000000f0: b59f 353e dad2 c93d 05a5 573e 11d4 6ebd
00000100: 0e89 f33c b183 38bd 2cee 823d c370 4dbd
00000110: 41ba 1fbd c16b 0b3e 830f 7e3d cdab 78bd
00000120: b17d 15bd f6dc 0abd 739f 9f3c 6401 1bba
00000130: 0f0e a73c a88a e23d 082e a3bd 67e1 6dbd
00000140: e52c 4f3d 65c0 91bc d81c 1b3e 0542 463d
00000150: 2212 0d3d f8da c13d 06fb f63d b411 0f3d
00000160: 4986 fc3d b931 e7bc b11c bdba a8ed 163e
00000170: 02e3 c03d 239c d2bb c60c a7bd 129a 63bc
00000180: 0193 75bd 2b81 3b3e e106 133c d685 e8bd
00000190: fcd2 323d c290 8fbc bc38 89bb 592a 5ebd
000001a0: b167 5d3d fc27 843d 6f85 de3d c041 2ebd
000001b0: 4199 c13d ce26 3e3c b5a0 d33c c92a 63bc
000001c0: 8966 da3c ef12 02be 761c 86bd a702 623d
000001d0: af5b 88bd da44 b4bd e77d 853d a7cd 91bd
000001e0: 3329 d3bc c98d 8dbb ba9d ce3d 402a 0f3d
000001f0: da3c a13d d698 a63d 581e 0e3c 80ce 193d
00000200: e19d a63d 1405 ea3d f87b b2bc e778 dd3c
00000210: 3610 8bbd 16e4 35bd fb37 39be 2986 b73b
00000220: c99c 783d a80a edbd 5ca2 45bc bd55 e6bd
00000230: 2602 fc3d e37f d73d fea6 653d 0df4 b53d
00000240: 1efa c53d 12a0 e93c 8c4a 0fbc 79ef 0fbd
00000250: 8bc4 fd3c b61e 72bc 062a b93c d9d1 cabd
00000260: e443 b33d 7d05 353d a5dc 4e3c bc2b 08bd
00000270: d1e9 aa3b 8dae debd 63c6 ae3d d34b ff3d
00000280: fecb a6bb 8f7d 0bbd c508 91bd ba19 20bd
00000290: d8f0 253d 1f9f d1bd 4a15 e0bc edf1 b63d
000002a0: 2fc2 c43d ecdf 1bbe 8e81 10bc 49bd c93d
000002b0: f295 c13d ec03 ad3c 86bb 6bbd 31df f0bd
000002c0: 246a 8ebd 7ec9 72bc 1a4d 1abc 109d 8bbd
000002d0: 34e7 69bb d70d b03d 161e 94bb e0a6 b9bd
000002e0: 00e2 c5bd e341 4fbd 58c5 6abd a72c 653d
000002f0: 9a02 1dbd a825 7ebd df38 b83d 80d4 be3c
00000300: 3769 333e 6a8b 1ebe ac7a 49bd d81f 1d3e
00000310: 8202 943d 93f0 9f3d 4528 193e dc5c e2bd
00000320: d83f 633d 126a d03c d534 23bd 0513 1ebd
00000330: cb72 21be efa3 973d 634d 343e edc0 da3d
00000340: 7ece 3c3e 87a0 d7bd 54c5 31bd 9c89 fb3d
00000350: 3d0b 90bd 7a46 433d c972 b6bb 7ff7 643d
00000360: ca50 af3c f5f2 bf3d 95ff b73d 7913 293e
00000370: bc51 fa3d b302 fd3d ac4c 2d3d 7cd3 233e
00000380: 7dab 12bd df0d 8b3d bc53 803d 47a8 b9bd
00000390: 3c30 513d afc5 af3b d740 4c3e 8309 1a3e
000003a0: 11a4 c0bd 1eeb fdbc 41b8 5b3d e8d7 0c3e
000003b0: 30c7 a3bd b2fb 533e 723e 383e 8e07 023e
000003c0: 46a1 cf3c ad67 523e bbe7 543d 5aa7 163e
000003d0: 2284 9abd 5abb 79bd 91b0 f33d c2cc 363e
000003e0: 96dc d83d 8c38 e63b b46f acbc d39b 213d
000003f0: 2aa3 663b a460 e93d 767c 123e 145a 30bc
