LogAnomaly/result/deeplog/deeplog_epoch196.pth (torch_old, 639072 bytes, 30 tensors)

lstm.weight_ih_l0 f4 [256, 1]
0	0xbe3f90b3	-0.18707542
1	0xbca44121	-0.020050587
2	0xbd219373	-0.03944726
3	0x3da97497	0.08274191
4	0xbe0b9ec0	-0.13634777
5	0x3d6ca2b6	0.05777236
6	0xbdbbe9c0	-0.09175444
7	0x3d5aa106	0.05337622
8	0x3e15b2ec	0.14619035
9	0x3d9e78d6	0.077378914
10	0x3e2ca6e4	0.16860539
11	0xbd9c7066	-0.07638626
12	0x3dd46cdc	0.10372326
13	0x3ddeacfd	0.10872839
14	0xbd9a6509	-0.07538802
15	0x3e87f13c	0.26551235
16	0x3d0837ff	0.033256527
17	0x3d50090a	0.05078987
18	0xbe12d3e5	-0.14338644
19	0x3e0dec34	0.13859636
20	0x3e1dc1a2	0.15405896
21	0x3d95c5eb	0.073131405
22	0x3d06dbb9	0.032924388
23	0xbd33af9a	-0.04386864
24	0x3e34af5f	0.17645024
25	0xbd4bd86a	-0.049766935
26	0xbb809896	-0.0039244397
27	0x3d36f5dc	0.044668064
28	0x3d9b56bd	0.075849034
29	0xbe24e1e3	-0.16101794
30	0x3d9814e4	0.074258596
31	0x3c22bd2c	0.009932797
32	0x3e1bd5ca	0.15218273
33	0x3db362ae	0.08759056
34	0x3bdedebb	0.006801454
35	0x3d635f89	0.05551103
36	0x3e55080f	0.20803855
37	0x3c29ca35	0.010363151
38	0x3df96488	0.12177378
39	0xbe0db3af	-0.13838075
40	0x3c7936a8	0.015210785
41	0xbe13e4b8	-0.14442718
42	0x3e03a9ff	0.12857817
43	0x3ec42da2	0.38316065
44	0xbdc39738	-0.09550327
45	0x3dbb211b	0.09137174
46	0x3e09d1f9	0.13459004
47	0xbe3f97ee	-0.187103
48	0x3e30eb2c	0.17277211
49	0x3e169c6d	0.14708109
50	0x3eaae9c7	0.33381483
51	0x3de51131	0.111849196
52	0x3dd29f91	0.10284341
53	0x3e97cc5d	0.29648104
54	0x3e17da3f	0.14829348
55	0xbd4a6d7d	-0.049420822
56	0xbe26a881	-0.16275217
57	0x3c4b675b	0.012414779
58	0x3dc14c9f	0.094384424
59	0x3d1b2d03	0.037884723
60	0x3d289493	0.041157316
61	0x3dc7dfe2	0.09759499
62	0x3dc85e66	0.0978363
63	0xbe1db950	-0.15402722
64	0xbd7121fc	-0.0588703
65	0x3d583ebc	0.052794203
66	0x3ddffa0e	0.10936366
67	0xbc414142	-0.011795344
68	0xbdb42858	-0.087967575
69	0x3d475199	0.048661802
70	0x3de6806f	0.112549655
71	0x3d3287de	0.043586604
72	0xbd2d6fa2	-0.04234279
73	0x3e8828c1	0.26593593
74	0x3e25a974	0.16177922
75	0xbde213c2	-0.11038925
76	0xbcd575d4	-0.026057161
77	0x3d75fa40	0.06005311
78	0x3e329030	0.17437816
79	0x3e6d5dd5	0.23180325
80	0x3ca51952	0.020153675
81	0x3dd13e2e	0.10216938
82	0xbdd93b87	-0.10607057
83	0x3cbe11c8	0.023201838
84	0x3c193208	0.009350307
85	0x3e58e4a9	0.21180977
86	0x3ddcef3d	0.107878186
87	0xbd5470a0	-0.05186522
88	0x3aa1dbc4	0.001234882
89	0x3d95b979	0.07310767
90	0xbee6f4b4	-0.4510857
91	0x3db250ac	0.08706793
92	0xbd6959bb	-0.05697034
93	0xbe872173	-0.26392707
94	0x3e5f41f1	0.21802498
95	0x3d016ee5	0.031599898
96	0xbb758df1	-0.0037468637
97	0x3dde5da6	0.10857706
98	0x3de67298	0.11252326
99	0x3d803688	0.06260401
100	0x3da3e459	0.08002538
101	0x3e3042ef	0.17213033
102	0x3d7ba9b3	0.061441135
103	0x3d0f398e	0.034966998
104	0x3df396ef	0.11894023
105	0x3e5d2ad2	0.21598366
106	0x3e26f46b	0.16304176
107	0x3d940e7a	0.07229324
108	0xbe03a7f5	-0.1285704
109	0xbd0a1968	-0.033715636
110	0x3d5748fe	0.052559845
111	0xbdd725f3	-0.10505285
112	0x3d4664ee	0.048436098
113	0x3dade4d6	0.084909126
114	0x3e994440	0.29934883
115	0x3e6c51b1	0.23078038
116	0x3d5daba5	0.05411877
117	0x3ce1e1b6	0.027573448
118	0x3e08fd31	0.13377835
119	0xbced1821	-0.02894217
120	0xbe32e4e2	-0.17470124
121	0x3e234ee7	0.15948068
122	0x3ed69565	0.41910854
123	0xbd1191a5	-0.035539288
124	0x3caaaa52	0.020833168
125	0x3d7c53a7	0.061603215
126	0xbda67400	-0.08127594
127	0xbe115ad9	-0.14194812
128	0x3ec29471	0.38003877
129	0xbe01a8c6	-0.12662038
130	0x3d988ef6	0.07449143
131	0x3cf7568d	0.030192638
132	0x3e5b1f02	0.21398547
133	0xbe270832	-0.1631172
134	0xbd31b6ea	-0.04338733
135	0x3df1754f	0.11789953
136	0x3e10ea09	0.14151777
137	0xbd23e977	-0.04001757
138	0xbd57d9ed	-0.052698065
139	0x3e5bc372	0.21461275
140	0xbe68a170	-0.22717834
141	0x3e0bd018	0.136536
142	0xbe198948	-0.14993775
143	0xbdb3999e	-0.087695345
144	0x3e4ac9f2	0.19803599
145	0xbe852db5	-0.26011434
146	0xbe6783b2	-0.22608832
147	0x3e441882	0.19149974
148	0x3e2dc1a6	0.16968402
149	0xbd126a9f	-0.035746213
150	0xbdfc688d	-0.12324629
151	0x3e422a72	0.18961504
152	0x3db6e215	0.089298405
153	0x3ea03f59	0.3129833
154	0xbec8b44b	-0.39200053
155	0x3c9d3d9f	0.019194422
156	0x3cf80513	0.030275857
157	0xbe27215e	-0.16321322
158	0x3f65147e	0.89484394
159	0x39efb404	0.00045719754
160	0x3ee4eeb4	0.44713366
161	0x3ce74bb5	0.028234342
162	0x3da5a8cd	0.08088837
163	0xbce5da09	-0.028058069
164	0xbe9761e5	-0.29566875
165	0xbe4298a9	-0.19003548
166	0xbe5ad0f6	-0.21368775
167	0xbe3044c2	-0.17213729
168	0x3e27a36a	0.16370931
169	0x3d2ae580	0.041722775
170	0xbe13db8e	-0.14439222
171	0xbfd0d40a	-1.6314709
172	0x3eae504b	0.34045634
173	0x3ea021c7	0.3127577
174	0x3d78c3ab	0.06073348
175	0x3eec4e42	0.46153456
176	0xbdd7285c	-0.10505745
177	0xbe115cbc	-0.14195532
178	0xbe1144f3	-0.14186458
179	0xbd03f6ef	-0.032217916
180	0xbeb2cb15	-0.34920564
181	0x3ee482f9	0.44631174
182	0x3d1656e0	0.036703944
183	0x3e26403c	0.16235441
184	0xbeacc31d	-0.3374261
185	0x3d8a4323	0.067510866
186	0x3d697802	0.056999214
187	0xbd926ae9	-0.07149298
188	0x3e091f5a	0.13390866
189	0xbd957756	-0.07298152
190	0x3d9b9d6b	0.075983845
191	0xbea48d04	-0.32138836
192	0x3e235a01	0.15952303
193	0xbc986d9a	-0.01860695
194	0x3e1f4b3c	0.15556043
195	0x3ea3c9f3	0.31990013
196	0x3e280431	0.16407849
197	0x3d6d5ea5	0.05795159
198	0x3dffb200	0.12485123
199	0x3e5d77e4	0.21627766
200	0x3d5d83d1	0.054080788
201	0x3e8de3e9	0.27712944
202	0x3d37d956	0.044885002
203	0x3e7d6876	0.2474688
204	0x3e800cd2	0.2500978
205	0x3e0d74e4	0.13814121
206	0x3e623911	0.22092082
207	0x3e871922	0.26386362
208	0xbdb647c0	-0.08900404
209	0x3d06c732	0.03290481
210	0x3e9071b0	0.28211737
211	0x3e1b3890	0.15158296
212	0x3e79063a	0.24318781
213	0x3e6697eb	0.2251889
214	0xbe441ff6	-0.19152817
215	0xbe2c8641	-0.16848089
216	0xbe2b510b	-0.16730134
217	0x3d6fab1a	0.058512785
218	0x3bda097f	0.006653964
219	0x3dd9edc9	0.10641057
220	0xbcede1a4	-0.029038258
221	0xbeb29652	-0.3488031
222	0x3dd135b7	0.102153234
223	0x3e8ae0be	0.2712459
224	0xbdc73a70	-0.09727943
225	0x3ea890ad	0.3292288
226	0x3da0074e	0.07813893
227	0x3e9a8338	0.30178237
228	0xbdafaa39	-0.08577389
229	0xbe5d6c67	-0.21623383
230	0x3d9e3850	0.077255845
231	0xbe90f36c	-0.28310716
232	0xbe41c9f1	-0.18924691
233	0x3e8998b1	0.26874307
234	0x3e42eb61	0.19035102
235	0xbe936a7d	-0.28792182
236	0x3e8d99e3	0.2765647
237	0x3c870ac5	0.016484628
238	0x3e5886c0	0.21145153
239	0xbe2032ff	-0.15644453
240	0xbe3905d1	-0.18068625
241	0xbdf10f85	-0.11770538
242	0x3dde218b	0.108462416
243	0xbe5855e1	-0.2112651
244	0x3d9e9b7b	0.07744499
245	0xbdb97f8a	-0.09057529
246	0x3d6c75ab	0.057729404
247	0x3d644e4a	0.055738725
248	0x3e209f80	0.15685844
249	0xbe59cce7	-0.2126957
250	0x3e603766	0.21896133
251	0xbe085052	-0.1331189
252	0x3df67a7b	0.1203508
253	0x3e06c653	0.13161592
254	0x3e3bd9c3	0.18344788
255	0x3db10317	0.086431675

lstm.weight_hh_l0 f4 [256, 64]
0	0x3e70b121	0.2350507
1	0xbe124f47	-0.14288054
2	0x3c36ae0f	0.011149897
3	0x3d9d974f	0.076948754
4	0x3e6c1d1d	0.23057981
5	0xbde1006e	-0.1098641
6	0xbdb69202	-0.089145675
7	0x3d831362	0.06400181
8	0x3e155f62	0.14587167
9	0x3dc8a09e	0.0979626
10	0xbc671255	-0.014103492
11	0xbde507d5	-0.111831345
12	0xbe35d0e9	-0.17755474
13	0x3d9c7546	0.07639556
14	0xbe0482cd	-0.12940522
15	0x3e76d424	0.24104363
16	0x3e2cc7f2	0.16873148
17	0xbca93633	-0.020655727
18	0x3d0d9986	0.03457024
19	0x3e0e4d32	0.13896635
20	0xbd389578	-0.04506442
21	0x3dcab394	0.09897533
22	0xbddf3b27	-0.10899954
23	0x3e53fba7	0.20701467
24	0x3e617dd5	0.22020657
25	0x3e59be9f	0.21264122
26	0x3daa84c7	0.083261065
27	0x3db6d42e	0.08927189
28	0x3d8b156f	0.067911975
29	0xbe73d3ed	-0.23811312
30	0x3d7492fc	0.059710488
31	0x3df1f682	0.11814596
32	0x3d870b1b	0.06593915
33	0x3d6e684c	0.058204934
34	0x3d6cf04e	0.05784636
35	0xbe1f3f7e	-0.15551564
36	0xbd9d1dbf	-0.07671689
37	0xbe27447e	-0.16334721
38	0xbdcabe93	-0.098996304
39	0xbe8f8973	-0.28034553
40	0x3db402ff	0.08789634
41	0xbdd34439	-0.10315747
42	0x3db9bbcc	0.090690225
43	0xbdbc6fe3	-0.09201028
44	0x3d726f73	0.059188318
45	0x3e1a973a	0.15096751
46	0x3d134147	0.035950925
47	0x3e843e84	0.25828946
48	0xbe869f02	-0.26293188
49	0xbd9d64ef	-0.07685267
50	0x3e3029a5	0.17203386
51	0xbe99a4e0	-0.30008602
52	0x3d1ae1a2	0.037812836
53	0x3e231205	0.15924843
54	0x3dc914ff	0.09818458
55	0xbc03919b	-0.0080303205
56	0xbd9b04d4	-0.0756928
57	0x3ea79601	0.3273163
58	0xbd118ddd	-0.035535682
59	0xbdad5033	-0.084625624
60	0x3df07826	0.117416665
61	0xbcf363ea	-0.029710729
62	0xbe2b5244	-0.167306
63	0xbd8857f6	-0.06657402
64	0xbb662bd9	-0.003512135
65	0xbddf8454	-0.109139115
66	0x3e8ae3e3	0.2712699
67	0x3e1b39e6	0.15158805
68	0x3e2d4a57	0.1692289
69	0xbe2ea22d	-0.17054053
70	0x3db6cd25	0.08925847
71	0x3d9d3c44	0.076775104
72	0x3e165ade	0.146831
73	0x3de639c5	0.112414874
74	0xbdf2e815	-0.118606724
75	0x3dc9b2d9	0.098485656
76	0xbe574de0	-0.210258
77	0x3e31db45	0.17368801
78	0xbe05bae9	-0.13059582
79	0xbe9a7751	-0.30169156
80	0x3e6e140d	0.23249836
81	0xbcfc8d12	-0.030828986
82	0xbe2febd0	-0.17179799
83	0x3e54ae54	0.20769626
84	0x3e120f6d	0.14263697
85	0xbd7ad0dc	-0.06123434
86	0xbe368aa1	-0.1782632
87	0x3df944ce	0.121713266
88	0x3ec5de16	0.38646
89	0x3dd6cb26	0.10487966
90	0xbde34a6d	-0.1109818
91	0x3dcd525c	0.100254744
92	0x3e51fa1e	0.20505568
93	0xbc863c67	-0.016386224
94	0x3d2405b0	0.040044487
95	0x3e35e8ec	0.17764634
96	0x3d88fcc7	0.066888385
97	0x3e04b00a	0.12957779
98	0x3d9435f5	0.07236854
99	0xbdb8673d	-0.09004066
100	0xbd63d979	-0.05562732
101	0xbe714016	-0.23559603
102	0xbe183331	-0.14863278
103	0xbbfad9ec	-0.007655373
104	0x3e6737f0	0.22579932
105	0xbd8a4a4a	-0.06752451
106	0xbdd1b994	-0.10240474
107	0x3da4e951	0.08052314
108	0x3d3f0c99	0.046642873
109	0x3e203c9e	0.15648124
110	0x3e400414	0.18751556
111	0xbd8fb3a2	-0.07016684
112	0xbe817123	-0.2528163
113	0xbe0585bc	-0.13039297
114	0xbd3ec693	-0.046576094
115	0xbe7a971a	-0.24471703
116	0xbc1586dd	-0.009126392
117	0xbbcd8dd8	-0.0062730126
118	0x3e639565	0.22224958
119	0x3e21d7c2	0.15804961
120	0xbd59e3c5	-0.053195734
121	0x3ebe739d	0.3719758
122	0x3d2d00a9	0.042236958
123	0xbe7711b9	-0.24127854
124	0x3dddf4dd	0.108377196
125	0xbe0aedd2	-0.13567284
126	0x3d0e997d	0.034814347
127	0xbdd9875b	-0.1062152
128	0x3de6ad53	0.11263528
129	0x3d8406ee	0.06446634
130	0x3de489da	0.111591056
131	0x3e32f7d9	0.17477359
132	0x3e08858c	0.13332194
133	0xbe4f8641	-0.20266058
134	0xbe3ffcfb	-0.18748848
135	0x3e42d615	0.19026978
136	0x3e36410c	0.17798251
137	0xbcd7240a	-0.026262302
138	0xbd465ddd	-0.04842936
139	0x3dab5da0	0.08367467
140	0xbda64629	-0.08118851
141	0x3d198e0f	0.037488993
142	0xbe164ba3	-0.1467729
143	0x3dbcafd6	0.092132255
144	0x3e0418c5	0.12900074
145	0xbe518b9c	-0.20463413
146	0x3b4f8198	0.0031662937
147	0x3e2b2f11	0.16717173
148	0x3d5c2777	0.053748574
149	0x3d96f8b8	0.07371658
150	0xbdd6ec3a	-0.104942754
151	0x3cce20c2	0.025162105
152	0x3e1e877a	0.15481368
153	0x3d6c2646	0.057653688
154	0xbd486047	-0.048919942
155	0x3e7cc39e	0.24683997
156	0x3d288a2f	0.041147407
157	0xbebaa3c4	-0.36453068
158	0x3dbe7891	0.0930034
159	0x3d0de10a	0.034638442
160	0xbdea319a	-0.11435242
161	0x3d97b7ac	0.074080795
162	0x3e1d5440	0.1536417
163	0xbdb70b16	-0.08937661
164	0x3cab05ae	0.020876732
165	0xbdb07c9a	-0.08617516
166	0xbcb3e179	-0.0219581
167	0xbe5ca971	-0.21549012
168	0x3db935f5	0.090434946
169	0xbdbfc948	-0.09364563
170	0xbd9f9684	-0.077923805
171	0xbd647167	-0.05577221
172	0x3d016e9f	0.031599637
173	0x3d86db5e	0.0658481
174	0x3e561583	0.20906644
175	0xbbcb85a2	-0.0062109986
176	0xbd9582b4	-0.0730032
177	0x3d12be5a	0.035826065
178	0xbddd1bed	-0.10796342
179	0xbd609850	-0.054832757
180	0x3d96e303	0.07367518
181	0x3d5f8765	0.05457248
182	0x3db29b88	0.087210715
183	0x3e371f04	0.17882925
184	0xbd63b4a7	-0.055592205
185	0x3e15bba6	0.14622363
186	0xbce31272	-0.027718756
187	0xbebe212f	-0.37134692
188	0xbd2981c4	-0.04138352
189	0xbdde1bc7	-0.10845142
190	0x3d51df17	0.051238146
191	0xbe7dcdb2	-0.24785498
192	0x3c8d6fe4	0.017265268
193	0xbe5fdcc1	-0.21861555
194	0xbc8cd97d	-0.01719355
195	0x3d6e4d61	0.058179263
196	0x3d4d7dbf	0.05016875
197	0x3db2d98b	0.08732899
198	0x3cdde1a6	0.027085137
199	0xbdca59da	-0.09880419
200	0xbd90512f	-0.070467345
201	0xbd55c43c	-0.052189097
202	0x3cb94f21	0.02262074
203	0x3dbbd8bd	0.09172199
204	0xbd293764	-0.04131259
205	0x3d017eb0	0.03161496
206	0x3d0496d0	0.03237039
207	0x3d47a7d6	0.048744045
208	0x3b4535e2	0.003009193
209	0xbda2a858	-0.07942265
210	0xbe0742b4	-0.13209039
211	0x3d1701d7	0.03686699
212	0x3d83d851	0.064377435
213	0xbcb5b7fc	-0.022182457
214	0xbe587809	-0.2113954
215	0x3e6bf3e0	0.2304225
216	0xbd725eb8	-0.059172362
217	0x3e0ae9c4	0.13565737
218	0x3cc5ed45	0.02416099
219	0x3d7ae0ee	0.061249666
220	0x3dcd2dd2	0.10018505
221	0xbe6e1018	-0.23248327
222	0xbce6d2e4	-0.028176732
223	0xbc6f016f	-0.014587744
224	0x3da7fee9	0.08202917
225	0xbd220a55	-0.039560635
226	0x3df7b475	0.12094966
227	0x3d55f310	0.052233756
228	0xbd7501a6	-0.059816025
229	0xbe2dbeb8	-0.16967285
230	0xbdce0177	-0.10058873
231	0xbe944be9	-0.28964165
232	0xbd8fe063	-0.0702522
233	0x3d9bdcac	0.07610449
234	0xbdf3f152	-0.119112626
235	0xbccce4c7	-0.025011433
236	0x3e75b501	0.23994829
237	0xbd4cc868	-0.04999581
238	0xbe1e11b8	-0.15436447
239	0x3e8d92b5	0.2765099
240	0x3cf29bf4	0.02961538
241	0x3ca66e0e	0.02031615
242	0x3d35b90b	0.044365924
243	0xbdb0f978	-0.086413324
244	0xbdd33093	-0.10311999
245	0x3dac78f0	0.084215045
246	0x3d3fe8dd	0.046852935
247	0x3de02278	0.109440744
248	0xbddd6eaa	-0.10812123
249	0x3de96e11	0.113979466
250	0x3e125a5f	0.14292286
251	0xbd8468df	-0.06465315
252	0x3de437ee	0.1114348
253	0xbd2203f9	-0.03955457
254	0xbdb3ef94	-0.0878593
255	0xbc2cd71d	-0.010549334

lstm.bias_ih_l0 f4 [256]
0	0x3da47374	0.080298334
1	0x3dabffe8	0.083984196
2	0x3d57b5d3	0.052663635
3	0xbd96a347	-0.073553614
4	0x3e36c5fe	0.17848966
5	0x3c4bdb4d	0.012442422
6	0x3e37e2e7	0.1795765
7	0xbc85eb81	-0.016347649
8	0x3e640731	0.22268368
9	0x3e5c3dbb	0.21507923
10	0xbde91a11	-0.11381925
11	0x3e509f71	0.20373322
12	0x3d4cd722	0.050009854
13	0x3db924b0	0.09040201
14	0x3dce7563	0.100809835
15	0x3e45a95b	0.19302885
16	0x3e140be8	0.14457667
17	0x3e11174b	0.14169042
18	0x3e196020	0.14978075
19	0xbd1e62c3	-0.038668405
20	0xbd12097d	-0.03565358
21	0x3d922d21	0.07137514
22	0x3d9c43d7	0.07630127
23	0x3dd69fa1	0.104796655
24	0x3e027991	0.12741686
25	0x3e4364f0	0.19081473
26	0x3d81f159	0.063448615
27	0x3da29259	0.0793807
28	0xbcad6cf4	-0.021170117
29	0x3e6ad7b1	0.22933842
30	0x3e71b90d	0.23605748
31	0xbdbc5166	-0.09195213
32	0x3c9741df	0.018464027
33	0x3dcb9c94	0.09941974
34	0x3ceadc31	0.028669449
35	0xbdc9cc30	-0.09853399
36	0x3e2cf4e0	0.16890287
37	0xbd98ab95	-0.07454602
38	0x3d6bdef7	0.057585683
39	0xbd8b48a0	-0.068009615
40	0x3e06c0d7	0.131595
41	0xbceb95b3	-0.028757906
42	0xbc5bfd08	-0.013427027
43	0x3f2abec0	0.6669731
44	0x3d3ad989	0.045617614
45	0x3e82be3a	0.25535756
46	0x3d0a2535	0.03372689
47	0x3db61914	0.08891502
48	0xbd5610ac	-0.052261993
49	0x3dac3319	0.084081836
50	0xbc95e96e	-0.018299785
51	0xbdc7a8cd	-0.09748993
52	0xbd6caecf	-0.057783898
53	0x3e917296	0.28407735
54	0x3db133a4	0.08652428
55	0x3b77304b	0.0037717994
56	0x3e2c7316	0.16840777
57	0xbd335a41	-0.043787245
58	0x3d8aad90	0.06771386
59	0x3d86f4d6	0.065896675
60	0xbcfea149	-0.031082766
61	0x3df14cb2	0.117822066
62	0xbe5ccdff	-0.21562956
63	0x3ce34870	0.027744502
64	0xbd192399	-0.037387464
65	0x3e263028	0.16229308
66	0xbd933089	-0.07186992
67	0x3d994efd	0.07485769
68	0x3da8224d	0.08209667
69	0x3dbbb46d	0.09165273
70	0x3dc4dc71	0.09612358
71	0x3dc5966d	0.09647832
72	0x3d8c84d1	0.0686127
73	0x3dce7f58	0.10082883
74	0xbe118373	-0.142103
75	0x3e09df90	0.13464189
76	0x3d3a0d71	0.045422975
77	0x3d527c5f	0.05138814
78	0x3b2adc30	0.0026071183
79	0xbda30978	-0.079607904
80	0x3d365aa6	0.044520043
81	0xbc48fa9a	-0.012266779
82	0xbdd1ff2a	-0.10253747
83	0xbdd43105	-0.10360912
84	0x3d1d9a03	0.038476955
85	0x3dd8fc36	0.105949804
86	0xbdceb825	-0.100937165
87	0xbad1655f	-0.0015975646
88	0x3e46258d	0.19350262
89	0x3e00d5ba	0.1258153
90	0x3d6cee95	0.057844717
91	0x3c1bb1b8	0.009502821
92	0x3e419792	0.18905476
93	0x3da2e1fc	0.07953259
94	0xbe232708	-0.15932858
95	0x3def4c9c	0.11684534
96	0xbd1aeee2	-0.037825473
97	0x3d988a56	0.074482605
98	0xbcfb1011	-0.03064731
99	0x3cbde1db	0.023178985
100	0x3d456d88	0.04820016
101	0xbdf3bd3f	-0.1190133
102	0xbc83d52a	-0.016092855
103	0x3bd75f21	0.0065726195
104	0xbdbaa487	-0.09113412
105	0xbc15947e	-0.009129642
106	0x3e07538a	0.13215461
107	0xbe8c2b44	-0.2737676
108	0xbdc7caab	-0.09755453
109	0x3e3dadb7	0.18523298
110	0x3dcef5c3	0.10105469
111	0x3dda6763	0.10664251
112	0x3d940622	0.07227732
113	0x3c8d4ce5	0.01724858
114	0xba8ea85b	-0.0010883914
115	0xbd873608	-0.066021025
116	0xbd8df088	-0.06930643
117	0x3dcb14f1	0.09916104
118	0x3dbe6571	0.09296692
119	0x3c2dd22c	0.010609191
120	0x3dd64419	0.10462207
121	0x3e07b111	0.13251139
122	0xbe4a261e	-0.19741103
123	0x3e008384	0.12550169
124	0x3cd83730	0.026393503
125	0x3d55c4d9	0.05218968
126	0x3d9a8aef	0.07546031
127	0x3e19e122	0.15027288
128	0x3d4acab9	0.049509738
129	0x3e41bda8	0.18920004
130	0xbd8752de	-0.066076025
131	0xbe3df1d9	-0.18549289
132	0x3e102bfa	0.14079276
133	0x3de09835	0.10966531
134	0xbe400df9	-0.1875533
135	0x3e5f5ed6	0.21813521
136	0x3e6687b9	0.22512712
137	0x3e067fa3	0.13134627
138	0xbdaabca4	-0.083367616
139	0xbce487cd	-0.027896786
140	0x3e3aecc7	0.18254386
141	0x3bbfcf59	0.005853575
142	0xbd582149	-0.05276612
143	0x3dc63b8d	0.09679327
144	0x3e6cc2e8	0.23121226
145	0xbe3a000b	-0.18164079
146	0x3d39c7e3	0.045356642
147	0x3d0e4c38	0.034740657
148	0x3d050e76	0.032484494
149	0x3e22d479	0.15901364
150	0xbdb29e63	-0.08721616
151	0xbd9f52e3	-0.07779481
152	0xbd73896c	-0.059457228
153	0x3e0c81f8	0.13721454
154	0x3d2b83b6	0.041873656
155	0x3dc0c99f	0.09413456
156	0xbc3db5cb	-0.011578987
157	0xbea7578f	-0.3268399
158	0x3e17d376	0.1482676
159	0x3cb6ffd8	0.022338793
160	0xbe6b28ba	-0.22964755
161	0xbe058de9	-0.13042416
162	0x3e1eefe9	0.15521206
163	0x3bae9010	0.005327232
164	0x3cf47b43	0.029843932
165	0xbc815054	-0.015785374
166	0xbdef0e29	-0.11672623
167	0x3d86f645	0.06589941
168	0x3c91b077	0.01778434
169	0xbdd75e33	-0.10516014
170	0xbdc1b1a3	-0.0945771
171	0x3d9d989c	0.076951236
172	0x3c0abeed	0.008468372
173	0x3e1e2183	0.15442471
174	0x3d831f5f	0.06402468
175	0xbe401463	-0.18757777
176	0xbcf2854f	-0.029604582
177	0xbd148619	-0.036260698
178	0x3c982b64	0.018575378
179	0x3d18a4f4	0.037266687
180	0x3e1c5b2f	0.15269159
181	0x3e8d095e	0.2754621
182	0xbd2d0b87	-0.04224732
183	0xbdfe6f18	-0.12423533
184	0xbe054b84	-0.13017088
185	0x3cf2ce60	0.029639423
186	0x3e2fd0c0	0.17169476
187	0x3d642d4d	0.055707265
188	0xbe23564e	-0.15950891
189	0xbd7c4912	-0.061593123
190	0xbd622085	-0.055206794
191	0xbe16ed56	-0.14738974
192	0x3e96520d	0.29359475
193	0xbcfbe513	-0.03074888
194	0xbd3852c2	-0.0450008
195	0xbe3ecd9e	-0.18633124
196	0x3e6d2f15	0.23162492
197	0x3da67553	0.081278466
198	0x3dc595b8	0.09647697
199	0xbde235ab	-0.110453926
200	0x3d019e5e	0.03164517
201	0x3a16fe42	0.0005759933
202	0x3e2ba1b6	0.16760907
203	0x3c490ee0	0.012271613
204	0x3e481f2f	0.19543146
205	0xbd713b09	-0.05889419
206	0x3defd932	0.117113486
207	0x3dc4c0e8	0.096071064
208	0x3db099ad	0.08623061
209	0x3c95de29	0.01829441
210	0x3e63ed09	0.2225839
211	0xbd6c1adb	-0.0576428
212	0x3d0c2aad	0.034220386
213	0x3d49d46a	0.04927484
214	0x3d190b26	0.037364148
215	0x3d569ffe	0.052398674
216	0x3d008b79	0.03138301
217	0x3d0ee84e	0.03488951
218	0x3e3f6adb	0.18693106
219	0x3c20854c	0.009797405
220	0x3dfaca98	0.12245673
221	0x3ea1a389	0.3157008
222	0x3e8d01f0	0.2754054
223	0xbe0ec367	-0.13941728
224	0x3e15b573	0.14619999
225	0xbe08be0b	-0.13353746
226	0x3def5a95	0.11687199
227	0xbde0399c	-0.10948488
228	0x3dcba17b	0.09942909
229	0x3e0b7ab8	0.13621032
230	0x3dde8669	0.108654805
231	0x3e866e1b	0.2625588
232	0x3e241a9e	0.16025779
233	0x3c8d43b0	0.01724419
234	0x3dc3bd5d	0.095576026
235	0x3ee13ebe	0.4399318
236	0x3e5624fd	0.20912547
237	0x3ddd64e6	0.108102605
238	0xbd249eca	-0.040190496
239	0x3e0540b5	0.13012965
240	0x3e04ac29	0.12956299
241	0x3de3c16c	0.11120877
242	0x3e3142e4	0.17310673
243	0x3c8ca408	0.01716806
244	0x3e6ce4e2	0.23134187
245	0x3e57deab	0.21081035
246	0x3e5e2f79	0.21697797
247	0x3e6825b0	0.22670627
248	0x3e1e756d	0.15474482
249	0x3d93ebac	0.07222685
250	0x3d0fd6c5	0.03511693
251	0x3e32ca22	0.1745992
252	0xbd8bbfcb	-0.06823691
253	0x3d4bd41c	0.04976283
254	0xbe38660b	-0.18007676
255	0x3e9659aa	0.29365283

lstm.bias_hh_l0 f4 [256]
0	0x3e23dacc	0.16001433
1	0x3d932445	0.07184652
2	0x3d87e416	0.06635301
3	0x3da81f96	0.082091495
4	0x3e013d26	0.12620983
5	0x3d90c0d5	0.0706803
6	0x3bae4034	0.005317712
7	0x3d847b12	0.06468786
8	0x3d7eb0e1	0.062180404
9	0x3e7a7d22	0.24461797
10	0x3d050875	0.03247877
11	0x3e246fd8	0.1605829
12	0x3e3d9496	0.18513712
13	0xbd105498	-0.035236925
14	0x3dd1995f	0.10234331
15	0x3e4f742c	0.2025916
16	0x3d9459b4	0.07243672
17	0x3c81e8ee	0.01585814
18	0x3d8a5a50	0.06755507
19	0x3d6ac308	0.057314903
20	0x3c733a06	0.014845377
21	0x3dc6388a	0.09678753
22	0x3c4b8054	0.0124207325
23	0x3c07f2ac	0.008297604
24	0x3deca805	0.11555485
25	0x3dea8e61	0.11452938
26	0xbc600448	-0.013672896
27	0x3dd388a2	0.10328795
28	0xbcf627b5	-0.03004823
29	0x3e8a8ec7	0.27062055
30	0x3e3f8090	0.18701386
31	0x3dde4dc7	0.108546786
32	0x3e1fc3f8	0.156021
33	0x3d1aa82d	0.03775804
34	0x3d2d6876	0.04233595
35	0xba9df74a	-0.0012051847
36	0x3e76eb64	0.24113232
37	0xbd7a4bff	-0.06110763
38	0x3daef253	0.085423134
39	0xbdf28c8c	-0.118432134
40	0x3d254ec4	0.04035832
41	0xbb05c7e1	-0.0020413327
42	0x3dc4f5ba	0.09617181
43	0x3f1694a5	0.58820564
44	0x3de29d33	0.110651396
45	0x3e6e9d06	0.23302087
46	0x3d8af6e5	0.06785373
47	0x3da535e9	0.08066923
48	0xbdd596bd	-0.10429142
49	0xbd2ec4e2	-0.04266823
50	0xbd757a1e	-0.059930913
51	0xbcce0264	-0.025147624
52	0x3d386434	0.045017436
53	0x3ef09308	0.46987176
54	0xbd4ee3ca	-0.050510205
55	0x3d11c6a4	0.03558983
56	0x3e193e7a	0.14965239
57	0x3d0f27cd	0.034950066
58	0x3e818734	0.25298464
59	0x3dad059a	0.08448334
60	0x3df171fc	0.11789319
61	0x3dd467ba	0.10371347
62	0xbddc94d7	-0.107705764
63	0x3d18fa46	0.037348054
64	0xbd454fc0	-0.04817176
65	0x3d2af710	0.041739523
66	0xbcc22e34	-0.023703672
67	0x3dd85b5e	0.10564302
68	0xbcd36da4	-0.025809117
69	0x3df82881	0.121171005
70	0x3d3ed5d0	0.046590626
71	0x3dfdc73e	0.12391518
72	0x3e4c5888	0.19955647
73	0x3c6924b2	0.01422994
74	0xbde2a6aa	-0.11066945
75	0x3d88e497	0.06684225
76	0xbb0afed4	-0.0021209018
77	0x3e32b1f8	0.17450702
78	0xbdbe153a	-0.092813924
79	0xbe02e179	-0.12781323
80	0x3d8a221d	0.06744788
81	0x3c368c3e	0.011141835
82	0xbdcee45d	-0.101021506
83	0x3b905ca7	0.0044055763
84	0xbc15362c	-0.009107154
85	0x3df02b3c	0.11726996
86	0xbbd3e188	-0.0064660944
87	0x3dcf81f8	0.101322114
88	0x3c89c528	0.016817644
89	0x3da02d57	0.07821148
90	0x3d8f6b43	0.070028804
91	0xbdb8ba7d	-0.09019945
92	0x3e311e88	0.17296803
93	0x3d5d4ada	0.054026462
94	0xbc4caa80	-0.012491822
95	0x3e4f71cf	0.20258258
96	0xbdb10629	-0.08643753
97	0xbdd15d23	-0.102228425
98	0x3d73c8be	0.059517615
99	0xbbb96ea0	-0.0056589395
100	0xbde61068	-0.11233598
101	0x3c9a0538	0.018801317
102	0xbdd58671	-0.10426033
103	0xbd909e80	-0.070614815
104	0xbd52fa0e	-0.051508002
105	0xbcc4bcd8	-0.024015829
106	0x3dc87392	0.09787668
107	0xbe82184f	-0.2540917
108	0xbb331d3c	-0.0027330657
109	0x3d52a9af	0.051431354
110	0x3c8005bc	0.015627734
111	0xbd236e7f	-0.0399003
112	0x3d1b042e	0.037845783
113	0xbad4c73f	-0.0016233696
114	0x3d649ccb	0.055813592
115	0x3c0ccc5f	0.008593648
116	0x3ccf0cd5	0.025274673
117	0x3d5b2b8f	0.053508338
118	0xbcf67b23	-0.030088013
119	0xbc90045a	-0.0175802
120	0x3dbb5e60	0.0914886
121	0xbd9bd20d	-0.076084234
122	0x3ce1e597	0.027575297
123	0xbc55878c	-0.013032805
124	0x3dba5cb3	0.09099712
125	0x3de6dd2b	0.11272653
126	0xbd86d165	-0.065829076
127	0x3dc9b6e4	0.09849337
128	0xbda04206	-0.07825093
129	0x3de5d6a4	0.1122258
130	0xbe0d9d75	-0.13829596
131	0xbe30a110	-0.1724894
132	0x3e34efe4	0.17669636
133	0xbd8b1f70	-0.067931056
134	0xbe0709fd	-0.13187404
135	0x3e471c9c	0.19444507
136	0x3da8ad54	0.08236185
137	0x3d305de5	0.043058295
138	0xbd5adbf2	-0.053432412
139	0xbdeaf341	-0.11472178
140	0xb8d554b2	-0.00010172407
141	0xbd483ca3	-0.048885953
142	0x3dd39df1	0.10332859
143	0x3e3682c9	0.17823328
144	0x3e77e494	0.2420829
145	0xbe266dbd	-0.162528
146	0xbd02d388	-0.031940013
147	0xbddf06d7	-0.108899765
148	0xbe02af46	-0.12762174
149	0x3e42d1a3	0.19025283
150	0x3da2801a	0.0793459
151	0xbd3add74	-0.04562135
152	0x3c091490	0.008366719
153	0x3e7a804c	0.24463004
154	0x3d2cb303	0.042162906
155	0x3e0c8423	0.13722281
156	0x3a95cf04	0.0011429493
157	0xbe331eb2	-0.17492178
158	0xbc8f1d58	-0.017470047
159	0x3ce0a840	0.027423978
160	0xbded21a2	-0.115786806
161	0xbe346fae	-0.17620727
162	0x3e1d3103	0.15350728
163	0xbd91e9de	-0.07124685
164	0x3e1f3122	0.15546086
165	0x3ddba7b7	0.107253484
166	0xbdd2bd54	-0.10290018
167	0xbdbcef2f	-0.09225308
168	0xbbe4be50	-0.006980695
169	0xbe1f83a2	-0.15577558
170	0xbddd77d2	-0.108138695
171	0x3d975cd1	0.0739075
172	0xbce51db4	-0.027968265
173	0x3e41f9f2	0.18943003
174	0x3d505b73	0.050868463
175	0x3d1b3520	0.03789246
176	0x3db0c060	0.086304426
177	0xbd9dc053	-0.077026986
178	0x3d922c71	0.07137383
179	0xbd23ebbb	-0.040019732
180	0x3e2ef329	0.17084946
181	0x3e84e071	0.25952485
182	0xbe53dbdd	-0.2068934
183	0xbde53dd5	-0.11193434
184	0x3cad8fd3	0.021186745
185	0x3ccb93bd	0.02485072
186	0x3cd9566c	0.026530467
187	0x3db532dc	0.08847591
188	0xbdbc526e	-0.0919541
189	0xbd11bf33	-0.035582732
190	0xbd86dbeb	-0.06584915
191	0xbc748629	-0.014924564
192	0x3e97f36f	0.29677913
193	0x3deb6772	0.1149434
194	0xbddc42ae	-0.10754906
195	0xbd12c6bc	-0.03583406
196	0x3e599e14	0.21251708
197	0x3d833ddd	0.06408284
198	0x3e983596	0.29728383
199	0xbd564d66	-0.052319907
200	0x3d97d71b	0.07414075
201	0xbc9e596c	-0.019329749
202	0x3da14d30	0.078760505
203	0xbd66c41d	-0.056339372
204	0x3e1801b8	0.14844406
205	0x3dd89f02	0.10577203
206	0x3dc30b31	0.09523619
207	0x3d01fbec	0.031734392
208	0x3d8c7a9f	0.068593256
209	0x3e24dcaa	0.16099802
210	0x3e8c703d	0.2742938
211	0x3db4e508	0.08832747
212	0x3b165db2	0.002294403
213	0xbbb089a1	-0.0053875004
214	0x3e2d3c80	0.1691761
215	0x3e080a28	0.13285124
216	0x3d443552	0.047902413
217	0xbd0d9487	-0.034565475
218	0x3e36fb6e	0.1786935
219	0x3d98a107	0.074525885
220	0xbd6a8f81	-0.057265762
221	0x3e40ac8d	0.18815823
222	0x3e56c4e1	0.20973541
223	0xbd19bf95	-0.037536222
224	0x3dcb8732	0.09937896
225	0x3a91b37b	0.0011116111
226	0x3cf4a14a	0.029862065
227	0xbc030a88	-0.007998116
228	0x3da5fee2	0.08105256
229	0x3cac27d2	0.021015082
230	0x3dfb6764	0.122755796
231	0x3e86cde8	0.2632897
232	0x3d7ed17a	0.06221149
233	0xbc85a794	-0.016315259
234	0xbd57f27b	-0.05272148
235	0x3eb7bba2	0.3588534
236	0x3e43d2f7	0.19123445
237	0x3cdfaf6c	0.027305327
238	0xbe0ffbfd	-0.1406097
239	0x3e812493	0.25223216
240	0x3d90ede5	0.07076625
241	0xbc013d8f	-0.007888212
242	0x3dd51364	0.10404089
243	0x3e04bb6d	0.12962122
244	0x3d80fab8	0.06297821
245	0x3e2a102b	0.1660773
246	0x3d44ced4	0.04804881
247	0x3e348d43	0.17632012
248	0x3e2d9f02	0.16955188
249	0xbcbfd44c	-0.02341666
250	0xbc2c4b84	-0.010516051
251	0x3df4bc88	0.11950022
252	0xbcc63fd9	-0.024200367
253	0x3e08fe9b	0.13378374
254	0x3ca402ca	0.020020861
255	0x3e6bf4bb	0.23042576

lstm.weight_ih_l1 f4 [256, 64]
0	0x3c96c675	0.018405179
1	0xbe03816a	-0.12842336
2	0xbd33458a	-0.04376749
3	0xbdbcf222	-0.09225871
4	0x3da9533a	0.08267827
5	0xbcdda3f2	-0.027055714
6	0xbd71c164	-0.059022322
7	0xbbe7f5c0	-0.007078856
8	0x3c182585	0.009286289
9	0x3e2bb73e	0.1676912
10	0xbd863697	-0.06553381
11	0xbdb4ac96	-0.08821981
12	0xbe1fe5c1	-0.15614988
13	0xbd3600a5	-0.04443421
14	0x3a02bf93	0.0004987653
15	0xbba16e17	-0.004926454
16	0xbc3da9df	-0.011576145
17	0x3c412938	0.0117896125
18	0xbd33899b	-0.043832403
19	0x3dee77aa	0.11643918
20	0x3d3fbe73	0.046812486
21	0x3da8acc8	0.082360804
22	0x3a87e049	0.0010366525
23	0x3def0d9c	0.11672518
24	0x3c997e6e	0.018737044
25	0x3d0958ae	0.033531837
26	0xbddecc69	-0.10878832
27	0xbd35d902	-0.044396408
28	0xbdd65c3c	-0.10466811
29	0xbdae7fe2	-0.085204855
30	0x3dc4a8b3	0.09602489
31	0xbdd16e0a	-0.102260664
32	0xbd6a00e2	-0.05712975
33	0x3d60203d	0.054718245
34	0xbd6ef893	-0.058342528
35	0x3be40d99	0.006959629
36	0x3d8fd269	0.070225544
37	0xbe1221cb	-0.14270703
38	0xbdb12153	-0.08648934
39	0x3ba87d6c	0.0051419046
40	0x3c0c8ba4	0.008578215
41	0xbe072e88	-0.13201344
42	0x3d94a738	0.07258457
43	0xbe53fd23	-0.20702033
44	0xbb15a13c	-0.00228317
45	0x3d9cd865	0.076584615
46	0x3da0b3d8	0.078468025
47	0x3dd05a0c	0.10173425
48	0x3d0fc389	0.035098586
49	0xbe1cc190	-0.15308213
50	0xbc9ef300	-0.01940298
51	0x3d531d7f	0.0515418
52	0xb901712c	-0.00012344558
53	0x3db64421	0.08899713
54	0xbd0d3141	-0.0344708
55	0x3c38675d	0.0112551125
56	0x3d312cc9	0.0432556
57	0xbcbb71cb	-0.02288141
58	0xbdd9b0bc	-0.106294125
59	0x3c794a02	0.015215399
60	0xbd859234	-0.06522027
61	0xbdd3fc71	-0.10350884
62	0xbe73bb79	-0.23801984
63	0xbde99057	-0.11404484
64	0xbde8333b	-0.113378964
65	0xbbdb180b	-0.0066862158
66	0x3d2b2414	0.041782454
67	0xbd8c99b8	-0.06865257
68	0xbb4275ff	-0.0029672382
69	0xbd83e86f	-0.064408176
70	0x3d1e40e9	0.038636122
71	0xbd81dd15	-0.06340996
72	0x3c8c54be	0.017130252
73	0x3dccbadd	0.09996579
74	0x3e1879ec	0.1489026
75	0x3cea206b	0.028579911
76	0x3dc92ca0	0.09822965
77	0xbda22367	-0.07916909
78	0xbd33a087	-0.043854263
79	0x3e79c372	0.24390963
80	0xbd8486ee	-0.06471048
81	0x3dbe4bed	0.092918254
82	0x3d209bbb	0.039211016
83	0x3b01ff08	0.0019835848
84	0xbda5931d	-0.080847
85	0x3dd00fee	0.10159288
86	0x3d061bbc	0.032741293
87	0x3e156681	0.14589883
88	0x3e2982cb	0.165538
89	0x3dde7a72	0.10863198
90	0xbe5e12db	-0.2168688
91	0xbdaa3f97	-0.0831291
92	0x3e05f244	0.13080698
93	0xbd696268	-0.056978613
94	0x3d4403ed	0.047855306
95	0xbb980132	-0.0046388144
96	0xbe4725ae	-0.19447967
97	0x3e04f704	0.12984854
98	0xbcfa0592	-0.030520234
99	0x3dbd8791	0.09254373
100	0x3c30f536	0.01080065
101	0x3dad3310	0.08457005
102	0x3d9173db	0.07102176
103	0x3e4b77bd	0.19869895
104	0xbda28ae5	-0.07936648
105	0xbd3c48f5	-0.045968015
106	0x3d28325a	0.041063644
107	0xbe138b34	-0.1440857
108	0xbbb2f82b	-0.005461713
109	0x3dca2685	0.09870628
110	0x3d1ea521	0.038731698
111	0xbb147975	-0.0022655402
112	0xbc9b68d7	-0.01897089
113	0xbdd02479	-0.101632066
114	0x3e3f477e	0.18679616
115	0xbdc57b01	-0.09642602
116	0x3da6117b	0.08108803
117	0xbbbaa5da	-0.0056960406
118	0xbd328201	-0.043581013
119	0x3d91f06a	0.071259335
120	0xbe34da34	-0.17661363
121	0x3d38e4d6	0.04514011
122	0xbd880440	-0.066414356
123	0xbe3b6d39	-0.18303384
124	0xbcb02118	-0.021500155
125	0x3da0baa7	0.07848101
126	0x3c28aef7	0.010295621
127	0xbe23ec83	-0.16008191
128	0x3d190ab8	0.037363738
129	0xbe6d5ffd	-0.23181148
130	0x3ce296e4	0.02765984
131	0xbe00be3c	-0.12572569
132	0x3dfab3f2	0.12241353
133	0x3dee6c17	0.1164171
134	0xbca234ad	-0.019800508
135	0x3d64df41	0.055876974
136	0x3d30e008	0.043182403
137	0x3f033288	0.5124898
138	0x3c8fd071	0.017555447
139	0x3cb6f2e4	0.022332616
140	0xbe34878d	-0.17629834
141	0xbc96422f	-0.018342106
142	0xbe0373d5	-0.12837155
143	0x3f46e970	0.7769995
144	0x3e023051	0.12713744
145	0x3ba127a1	0.004918054
146	0x3b8b5987	0.004252616
147	0x3d9ade72	0.07561959
148	0xbc3111d4	-0.010807473
149	0xbc169e76	-0.0091930535
150	0x3c0397de	0.008031813
151	0x3d5c8d78	0.053845853
152	0x3de7b98b	0.113146864
153	0x3e1c8e12	0.1528857
154	0xbe5a0a26	-0.21292934
155	0xbdad0d64	-0.0844982
156	0x3cc954b9	0.024576532
157	0x3dd7efbb	0.10543772
158	0x3d4e7639	0.050405715
159	0xbca0cb77	-0.01962827
160	0xbe49c08a	-0.19702354
161	0xbd3c9d55	-0.04604848
162	0xbdbc5471	-0.091957934
163	0xbd67bcf2	-0.056576677
164	0xbce32dd4	-0.027731813
165	0xbe8d8621	-0.27641395
166	0xbd8a3ca7	-0.0674985
167	0xbe4c4f97	-0.19952236
168	0x3d55aa86	0.052164577
169	0xbb97576c	-0.004618576
170	0xbbac67ae	-0.005261383
171	0x3e0f2be0	0.1398158
172	0x3e872120	0.2639246
173	0x3b0feff8	0.00219631
174	0xbd06ac89	-0.032879386
175	0xbe0109f6	-0.12601456
176	0x3d7edd1c	0.062222585
177	0xbe0d7fb4	-0.13818246
178	0x3cf66e82	0.030081991
179	0xbe1bf2f0	-0.15229392
180	0xbdc8cee6	-0.09805088
181	0x3dd4ba86	0.10387139
182	0xbc8a9d74	-0.016920783
183	0x3dd6f615	0.10496155
184	0xbdac424f	-0.08411085
185	0xbc0466fa	-0.008081192
186	0xbcfc31a1	-0.030785384
187	0xbe8a5a24	-0.27021897
188	0x3e1d324e	0.15351221
189	0x3d983cef	0.07433497
190	0xbe8008d5	-0.25006738
191	0xbe147658	-0.1449827
192	0x3e17fb74	0.14842016
193	0x3d7fb00b	0.062423747
194	0xbde92222	-0.113834634
195	0x3c915709	0.017741697
196	0x3e38f3e4	0.18061787
197	0x3d7c2322	0.061556943
198	0x3d8ae0d2	0.06781162
199	0x3df8e382	0.12152769
200	0xbd9c2085	-0.0762339
201	0x3e08a41f	0.13343857
202	0xbe4d64c5	-0.20057972
203	0xbd54b46b	-0.051929872
204	0x3e01142c	0.12605351
205	0x3ce8fbea	0.028440434
206	0x3cfb0504	0.03064204
207	0x3dba32ff	0.09091758
208	0xbc62040b	-0.013794909
209	0xbbf1ddab	-0.007381161
210	0xbdb1d00f	-0.08682262
211	0x3d2fd31b	0.042925935
212	0xbde2a032	-0.11065711
213	0x3cc8f21a	0.024529506
214	0xbd8933db	-0.06699344
215	0x3d96df7a	0.073668435
216	0x3e13a8db	0.14419882
217	0xbc033ecd	-0.008010578
218	0x3d9cb485	0.07651619
219	0xbdacb987	-0.08433824
220	0x3d17650b	0.036961596
221	0xbe924017	-0.28564522
222	0x3d61354f	0.05498248
223	0x3ddc47ff	0.1075592
224	0xbd757259	-0.059923504
225	0xbdea2b93	-0.114340924
226	0xbdc98605	-0.09840015
227	0xbddec806	-0.10877995
228	0xbc1d5f90	-0.009605303
229	0x3c0cb9a6	0.008589184
230	0xb7c66100	-2.3648608e-05
231	0xbc1fb2f9	-0.00974726
232	0xbc948ff9	-0.018135058
233	0x3db13281	0.08652211
234	0xbe119782	-0.14217952
235	0xbe9ec7c7	-0.31011793
236	0xbdb212d0	-0.086949944
237	0x3d740fd2	0.0595854
238	0x3de43ff6	0.11145012
239	0x3d08ef59	0.033431385
240	0xbde55786	-0.111983344
241	0xbde622ed	-0.1123713
242	0x3daab965	0.083361425
243	0xbdef9d26	-0.116998956
244	0xbd960221	-0.07324625
245	0x3bd8f679	0.0066211787
246	0xbdafe45d	-0.08588479
247	0xbe272060	-0.16320944
248	0xbc869f21	-0.0164333
249	0xbd3a1d5d	-0.04543816
250	0x3bf10fd2	0.0073566223
251	0xbba4d0ad	-0.005029759
252	0xbcd11f34	-0.025527574
253	0x3d50891f	0.05091202
254	0xbdf72e5b	-0.120693885
255	0xbe1c0b17	-0.15238605

lstm.weight_hh_l1 f4 [256, 64]
0	0x3d8b576e	0.06803785
1	0xbd480f30	-0.04884261
2	0x3e1c71db	0.15277807
3	0x3dd097b1	0.10185183
4	0x3b3ab088	0.0028486568
5	0x3ce04937	0.027378662
6	0xbd44a08d	-0.048004676
7	0xbe28fac2	-0.16501907
8	0xbd22f143	-0.039780866
9	0x3d285607	0.041097667
10	0xbdb4aa05	-0.08821491
11	0xbde24ef9	-0.11050219
12	0xbd6a35b6	-0.05718013
13	0x3d26601e	0.04061901
14	0x3d0040cf	0.031311806
15	0xbe78de20	-0.24303484
16	0x3db65926	0.089037225
17	0xbd6c5140	-0.057694674
18	0x3bfe7b6d	0.0077661783
19	0xbe1faea5	-0.15593965
20	0x3cf893d2	0.030343924
21	0x3e0bae9a	0.13640824
22	0xbd1b4e8d	-0.03791671
23	0x3ceed36a	0.029153544
24	0xbe09336d	-0.13398524
25	0x3c30b0da	0.010784352
26	0xbbf95735	-0.007609273
27	0x3d07ff0e	0.033202223
28	0xbdcbbda0	-0.099482775
29	0xbda3565e	-0.079754576
30	0x3d47bf59	0.048766468
31	0xbdb4c556	-0.08826701
32	0x3c32d589	0.010915169
33	0xbdb733cd	-0.08945427
34	0xbe095ac2	-0.13413528
35	0xbe4b89ef	-0.19876836
36	0xbcfc836b	-0.030824384
37	0xbcca82a0	-0.02472049
38	0x3d8a0a46	0.06740241
39	0x3e05ecbb	0.13078587
40	0xbcbbc35f	-0.022920309
41	0x3da3d034	0.07998696
42	0xbc1fa44d	-0.009743762
43	0x3de0c54c	0.109751314
44	0x3d3c6871	0.04599804
45	0xbded8510	-0.11597645
46	0x3d2f101b	0.04273997
47	0x3e0e2898	0.13882673
48	0x3beb4f3c	0.0071810763
49	0xbd5d2416	-0.053989492
50	0x3de9847d	0.11402223
51	0x3c068735	0.008210947
52	0xbd9ffbc9	-0.07811696
53	0x3cadcef3	0.021216845
54	0x3dc61bb7	0.09673255
55	0x3d104755	0.035224278
56	0x3aaddb6a	0.0013264243
57	0xbc9b126c	-0.018929683
58	0xb9316abb	-0.00016919796
59	0xbb8c4fd3	-0.0042819767
60	0x3d4dbd72	0.050229497
61	0xbd0ee0b0	-0.034882247
62	0xbe062bfb	-0.13102715
63	0x3c72937a	0.014805669
64	0xbe3f2524	-0.18666512
65	0x3dc1b7a1	0.094588526
66	0x3dbce8b6	0.092240736
67	0xbd5a6f6d	-0.05332892
68	0xbe7e3e05	-0.24828346
69	0x3d4ed49c	0.05049573
70	0xbb3bfd09	-0.0028684756
71	0xbde0ee63	-0.10982969
72	0xbd6d4a88	-0.057932407
73	0xbcbf3240	-0.02333939
74	0x3b485b3e	0.0030571963
75	0xbcb6c98d	-0.022312904
76	0xbd3f833b	-0.04675601
77	0xbdd3f08d	-0.10348616
78	0x3e92219f	0.28541276
79	0x3d8d0135	0.06884996
80	0x3daf45b9	0.085582204
81	0xbe21c705	-0.15798576
82	0x3d266832	0.040626712
83	0xbdfd7381	-0.12375546
84	0xbd68fb97	-0.05688056
85	0xbcd93feb	-0.026519736
86	0xbd8db90c	-0.069200605
87	0xbd844ee2	-0.06460358
88	0xbe3d22ba	-0.18470278
89	0xbe2e92b0	-0.17048144
90	0xbe501239	-0.20319451
91	0xbe1690ae	-0.14703628
92	0x3ce1b34c	0.027551316
93	0xbc62a9a3	-0.01383439
94	0xbd736a59	-0.059427593
95	0x3d80c3aa	0.0628732
96	0x3d4b6f7f	0.049666878
97	0x3b812b5c	0.0039419364
98	0xbbd0917b	-0.006364999
99	0xbd997b62	-0.074942365
100	0x3cfa31b1	0.030541273
101	0xbe3f109b	-0.18658678
102	0xbd53ad69	-0.05167905
103	0xbc7f8c1d	-0.01559737
104	0xbd116bbf	-0.035503145
105	0xbd8cf7b8	-0.06883186
106	0xbc721976	-0.014776578
107	0x3d6dfb09	0.058100734
108	0xb9fa3bfe	-0.00047728413
109	0xbe290200	-0.16504669
110	0x3dc15367	0.09439736
111	0x3e2a859f	0.16652535
112	0xbdb11df5	-0.08648292
113	0x3e0bb91d	0.13644834
114	0x3e278cac	0.16362256
115	0x3d7c2eef	0.061568197
116	0xbccedd57	-0.025252027
117	0x3dde9340	0.108679295
118	0x3d9a2993	0.07527461
119	0xbdaf16f9	-0.085493036
120	0xbcd6da0c	-0.02622702
121	0xbd3ba4df	-0.04581153
122	0x3da93652	0.08262314
123	0xbdae27a1	-0.08503652
124	0x3d3d4f7c	0.04621838
125	0x3e0592fc	0.13044351
126	0x3d3518dc	0.04421316
127	0xbdc6a7c2	-0.09699966
128	0xbe3da231	-0.18518902
129	0x3cd3673a	0.025806058
130	0x3df83d9d	0.12121127
131	0x3eab7022	0.33483988
132	0xbe63c49f	-0.22242974
133	0x3e6cb019	0.23114051
134	0xbdc703f1	-0.09717549
135	0xbe17e80c	-0.14834613
136	0xbe934872	-0.2876621
137	0x3ccf65c3	0.025317078
138	0x3cbbcc4b	0.022924563
139	0xbe2637d2	-0.16232231
140	0x3deb3dd5	0.11486403
141	0x3c56f4dd	0.013119903
142	0x3d8d7bcf	0.0690838
143	0x3e444fcb	0.19171064
144	0x3e9d4902	0.30719763
145	0xbdd35bc6	-0.10320239
146	0xbbd6eb73	-0.0065588295
147	0xbee1731a	-0.44033128
148	0xbe5f9d4e	-0.2183735
149	0x3e8ecf47	0.27892515
150	0xbab0e9b3	-0.0013497382
151	0x3e055ce6	0.13023719
152	0xbe3e311b	-0.1857342
153	0xbd65280c	-0.055946395
154	0x3d034c05	0.03205492
155	0xbd9cc97f	-0.0765562
156	0xbe01d9db	-0.12680762
157	0x3c915c34	0.017744161
158	0x3e736dc3	0.2377234
159	0xbe578d68	-0.21050036
160	0xbe09b0f5	-0.1344641
161	0x3dc1be70	0.09460151
162	0xbe377d46	-0.17918882
163	0xbdc18ea5	-0.094510354
164	0xbde4ec59	-0.11177892
165	0xbea8c540	-0.3296299
166	0xbda32ad8	-0.07967156
167	0xbe3d6a09	-0.1849748
168	0x3daa1ffb	0.08306881
169	0x3b6bc4d0	0.0035975464
170	0x3df2a42e	0.11847721
171	0x3d3734d1	0.044728104
172	0x3e697fe1	0.22802688
173	0xbcfc6199	-0.030808257
174	0x3de4ed60	0.11178088
175	0x3e90dfab	0.28295645
176	0xbe9efe15	-0.31053224
177	0x3e505894	0.2034629
178	0x3d887002	0.06661989
179	0x3e8b80b9	0.27246645
180	0xbe90cbfd	-0.2828063
181	0x3da47191	0.080294736
182	0x3e82b293	0.25526866
183	0xbe1eeb78	-0.15519512
184	0xbd335042	-0.04377771
185	0x3e41777d	0.18893237
186	0xbd35f5e7	-0.044423964
187	0xbe07d6a0	-0.13265467
188	0x3e344c02	0.1760712
189	0x3c36f330	0.011166379
190	0x3d0565a9	0.032567654
191	0xbe2319a8	-0.15927756
192	0x3da1eead	0.07906852
193	0x3e07a22a	0.13245454
194	0xbcaa6989	-0.020802276
195	0xbdde05ba	-0.10840936
196	0xbd35167c	-0.044210896
197	0x3dd20cbe	0.10256337
198	0xbe1a2ffc	-0.15057367
199	0xbbd78937	-0.0065776366
200	0x3c8e2bd1	0.017354878
201	0xbd42af2a	-0.04753033
202	0xbd098ae8	-0.033579737
203	0xbdadfe34	-0.08495751
204	0x3e19d2f9	0.15021886
205	0xbc0052ec	-0.00783227
206	0xbd2b9fca	-0.041900434
207	0xbe6f6898	-0.23379743
208	0xbd99726b	-0.074925266
209	0xbde957d2	-0.113937035
210	0xbd34cb97	-0.04413947
211	0xbe1dcd68	-0.15410388
212	0x3df60d2b	0.1201423
213	0xbde5ddd6	-0.112239525
214	0xbbeb433b	-0.0071796454
215	0xbd57c99c	-0.052682504
216	0x3d9ac394	0.07556835
217	0xbe13a712	-0.14419201
218	0xbdfc0af3	-0.12306776
219	0xbcb10ec7	-0.021613492
220	0xbce46c59	-0.027883695
221	0xbda073d0	-0.078345895
222	0x3de06934	0.10957566
223	0x3c2c50e4	0.010517333
224	0xbd450813	-0.048103403
225	0xbd8ce194	-0.06878963
226	0x3dc430ce	0.09579621
227	0x3c5edbd3	0.013602215
228	0xbd863527	-0.06553107
229	0xbd02dda5	-0.031949658
230	0xbc984a6b	-0.018590173
231	0x3de47041	0.11154223
232	0x3d4b4da8	0.049634606
233	0xbe1256ba	-0.14290896
234	0x3dafeb69	0.08589823
235	0x3db0f7ae	0.08640991
236	0x3d027f87	0.0318599
237	0xbc825c03	-0.015913015
238	0x3d3bbb08	0.045832664
239	0x3de3b82c	0.11119112
240	0xbe2883c4	-0.16456515
241	0xbdce5aa9	-0.10075886
242	0xbdf403fe	-0.11914824
243	0x3d616520	0.05502808
244	0x3df1ad27	0.11800604
245	0x3db89234	0.09012261
246	0xbc13e6d5	-0.009027203
247	0x3d3587f4	0.044319108
248	0xbdd1c487	-0.10242563
249	0xbdbf4e36	-0.093410894
250	0x3d3794e6	0.044819735
251	0xbbc2c0bc	-0.005943386
252	0xbc4bc56a	-0.012437204
253	0xbe290646	-0.165063
254	0xbda3f2ba	-0.08005281
255	0x3bf1a233	0.007374072

lstm.bias_ih_l1 f4 [256]
0	0xbd9543a9	-0.07288296
1	0xbc8fdb28	-0.017560557
2	0xbdb8b3fb	-0.090187036
3	0x3d8a2e93	0.067471646
4	0x38cf685c	9.8899676e-05
5	0x3d779477	0.06044432
6	0x3de2acba	0.11068101
7	0xbbc079ed	-0.0058739097
8	0x3c96f31d	0.018426472
9	0xbd5004b3	-0.05078573
10	0xbd693668	-0.05693665
11	0xbd739463	-0.059467684
12	0xbd8dc024	-0.069214135
13	0xbda9715d	-0.082735755
14	0x3ddf2a7f	0.10896777
15	0xbda0cbba	-0.07851358
16	0x3c9c7463	0.019098466
17	0xbd5813f6	-0.05275341
18	0xbcc21853	-0.02369324
19	0x3da7cc47	0.0819326
20	0x3d6f7dee	0.058469705
21	0xbc5a4cce	-0.013323976
22	0xbcb8cb0f	-0.022557763
23	0xbdafdd18	-0.08587092
24	0x3c6631f9	0.01405
25	0xbd4fb5a0	-0.05071032
26	0x3e42c664	0.19020993
27	0x3e1b9462	0.15193322
28	0xbd40cfe8	-0.047073275
29	0xbd159dac	-0.03652732
30	0xbcc33131	-0.023827167
31	0x3dea02d1	0.114263184
32	0x3d90c17c	0.07068154
33	0x3bce2b4a	0.0062917816
34	0x3d810023	0.06298854
35	0x3d1c8fce	0.03822308
36	0x3d4b9904	0.049706474
37	0x3d0e6afd	0.03477
38	0x3d3f4393	0.046695303
39	0xbcab8940	-0.02093947
40	0xbd15d268	-0.036577612
41	0x3d2093d3	0.039203476
42	0x3d4ac9e1	0.049508933
43	0xbd454a39	-0.048166487
44	0x3dab0e61	0.08352352
45	0xbd939228	-0.072056115
46	0x3c092fbd	0.008373198
47	0x3dad547e	0.08463381
48	0x3d3eaec7	0.0465534
49	0xbcfa6ea4	-0.030570336
50	0xbccfda38	-0.02537261
51	0x3d772578	0.060338467
52	0x3d24f37a	0.04027126
53	0xbdb04f82	-0.08608915
54	0x3db6cb57	0.08925503
55	0x3d7981e8	0.060914904
56	0x3e302ac7	0.17203818
57	0x3be4b16a	0.006979157
58	0x3e0a26a1	0.13491298
59	0x3d0db4fb	0.034596425
60	0x3e3cb2f9	0.18427648
61	0x3db81a96	0.08989446
62	0x3e8db060	0.27673626
63	0x3d122e03	0.03568841
64	0xbd51931e	-0.051165693
65	0x3d2051b6	0.039140426
66	0x3d8f2fe7	0.069915585
67	0xbd1d7d38	-0.038449496
68	0xbd225e02	-0.039640434
69	0x3d9a339c	0.07529375
70	0x3c9c9daa	0.019118149
71	0x3dda5d1b	0.1066229
72	0xbd22feda	-0.039793827
73	0x3dafc0aa	0.0858167
74	0x3d5e8fb4	0.054336265
75	0xbd86fbb7	-0.065909795
76	0x3d53993e	0.051659815
77	0xbd195e75	-0.037443597
78	0x3e01d0cd	0.12677307
79	0x3de9c012	0.11413588
80	0x3d538c41	0.05164743
81	0x3df741ee	0.12073122
82	0x3d32a35f	0.043612834
83	0xbd88244a	-0.066475466
84	0x3d2a29cf	0.041543778
85	0x3e0086f7	0.12551485
86	0x3e12a761	0.14321662
87	0x3d1d8ada	0.038462497
88	0x3e175072	0.14776781
89	0x3dffd87d	0.12492464
90	0xbd14f18c	-0.03636317
91	0x3b7208f9	0.0036931618
92	0x3dfab90c	0.12242326
93	0x3dc7cd6c	0.09755978
94	0x3cc21933	0.023693657
95	0x3d27d250	0.040972054
96	0x3e083b48	0.13303864
97	0x3daf384e	0.08555661
98	0x3e05a6c5	0.13051899
99	0x3ce0b95c	0.027432136
100	0x3bfa56cb	0.007639741
101	0xbc977143	-0.018486625
102	0x3dee3311	0.11630834
103	0xbd3370e4	-0.043808833
104	0x3cd29bea	0.025709111
105	0x3d53db68	0.051722914
106	0xbdab10cd	-0.08352814
107	0xbd2d2dae	-0.04227989
108	0xbbcfbb06	-0.0063394336
109	0xbd885a11	-0.06657804
110	0x3aab2210	0.0013056416
111	0x3d2c92dd	0.042132247
112	0x3d2a2e35	0.041547973
113	0x3d208bb6	0.03919574
114	0xbdb32954	-0.08748117
115	0x3e01d788	0.12679875
116	0x3d748aac	0.05970256
117	0xbc11a53d	-0.0088894935
118	0xbd824494	-0.063607365
119	0xbdb66c03	-0.0890732
120	0xbd209dc0	-0.039212942
121	0x3d6e442b	0.05817048
122	0xbd4ce157	-0.05001959
123	0xbce7c70e	-0.028293159
124	0x3d1a3b3f	0.037654158
125	0x3d4b5b14	0.049647406
126	0xbc063b34	-0.008192826
127	0x3db9688a	0.09053142
128	0x3c53aaf6	0.012919178
129	0xbd8e69e3	-0.0695379
130	0xbc003365	-0.007824753
131	0x3d7de156	0.061982475
132	0x3d0ff6f3	0.03514762
133	0x3ba115cd	0.004915929
134	0xbdcf421f	-0.101200335
135	0xbdb826b5	-0.08991758
136	0xbd951d29	-0.072809525
137	0x3da3980f	0.07987987
138	0xbcc514f9	-0.024057852
139	0x3de9a25e	0.11407922
140	0xbdd193e1	-0.10233284
141	0x3d11c169	0.03558484
142	0xbdc55ec7	-0.09637218
143	0x3b9a3713	0.0047062724
144	0xbdb31da5	-0.087458886
145	0xbc285322	-0.010273727
146	0xbd17c3ee	-0.037052087
147	0xbcc9b193	-0.024620807
148	0x3d8131cd	0.06308327
149	0x3d48bd9c	0.04900895
150	0x3d3136e4	0.04326524
151	0xbd4ffa95	-0.050776083
152	0x3d5509ac	0.052011177
153	0x3dcd09cc	0.10011634
154	0x3dd4a5b8	0.10383171
155	0x3d3b2da9	0.04569784
156	0xbd811432	-0.0630268
157	0x3de7eee4	0.11324862
158	0x3e0358e4	0.12826878
159	0xbdcc7589	-0.099833556
160	0x3d02f41f	0.031971093
161	0xbdf9bc54	-0.12194124
162	0xbda10258	-0.07861775
163	0x3e075f75	0.13220008
164	0xbdc8684c	-0.09785518
165	0xbd21ea5c	-0.039530143
166	0x3d21b4eb	0.039479177
167	0xbb850d35	-0.0040604123
168	0x3d047439	0.0323374
169	0xbe1a53cb	-0.15071027
170	0x3d22515a	0.039628364
171	0x3cb94e6a	0.022620399
172	0xbde8fad5	-0.113759674
173	0xbda6b1dc	-0.08139393
174	0xba3bb44d	-0.0007160351
175	0xbca28f25	-0.019843647
176	0x3c158deb	0.009128074
177	0x3d7dac0d	0.06193166
178	0xbddc3873	-0.10752954
179	0xbccc4924	-0.02493722
180	0x3df4dffc	0.11956784
181	0x3c4f27e9	0.012643793
182	0xbd7306f9	-0.05933282
183	0x3d1a59f7	0.037683453
184	0x3db6386f	0.088974826
185	0xbca764ba	-0.020433772
186	0xbca8b11c	-0.020592265
187	0xbd0ac0ce	-0.03387528
188	0x3dda132f	0.1064819
189	0xbd2873cf	-0.04112607
190	0x3d922420	0.071357965
191	0xbda0fd09	-0.078607626
192	0x3e200f7b	0.15630905
193	0x3d71faf7	0.05907723
194	0x3dd61586	0.10453324
195	0xbd01134d	-0.031512547
196	0x3e0cd244	0.13752085
197	0x3c924388	0.017854467
198	0xbd49b2ed	-0.049242903
199	0xbd991cbe	-0.07476185
200	0xbc828056	-0.015930336
201	0x3e169811	0.14706446
202	0x3c3e9bad	0.011633796
203	0x3de28d7b	0.110621415
204	0xbe13d789	-0.14437689
205	0x3e533439	0.2062539
206	0x3c3947b6	0.011308601
207	0xbcf570be	-0.029960986
208	0x3dce58a9	0.10075504
209	0x3df12f93	0.11776652
210	0x3d90958e	0.07059775
211	0x3d857f49	0.06518418
212	0x3deae66c	0.11469731
213	0x3d9426b0	0.072339416
214	0x3c2b6527	0.010461128
215	0x3e2f125e	0.1709685
216	0x3b2eb298	0.0026656743
217	0x3e1d06f4	0.15334684
218	0x3e44fdec	0.19237489
219	0x3e297d1d	0.16551633
220	0x3d99668f	0.074902646
221	0xbd61da23	-0.055139672
222	0x3e6767b0	0.22598147
223	0x3cf927f9	0.030414568
224	0x3dd91d1f	0.106012575
225	0x3dd4242b	0.10358461
226	0x3de3e2fc	0.11127278
227	0x3d05d763	0.032676112
228	0x3dd17840	0.10228014
229	0x3e0688dd	0.13138147
230	0x3e59d7f4	0.21273786
231	0xbcf4b4cb	-0.029871365
232	0x3de62da4	0.11239174
233	0x3e1c7b8d	0.15281506
234	0xbd15f35e	-0.036609046
235	0x3d5d4f4a	0.054030694
236	0xbd9acf42	-0.075590625
237	0xbc220f44	-0.009891335
238	0xbd94ca33	-0.07265129
239	0x3d7b4497	0.06134471
240	0x3c773b1f	0.015089779
241	0x3e7699af	0.24082063
242	0x3e2607bc	0.16213888
243	0x3e2dc631	0.16970135
244	0xbe004831	-0.12527539
245	0x3c42cb4b	0.011889289
246	0xbd9bf6d5	-0.07615439
247	0x3d081a48	0.03322819
248	0x3dd477d5	0.10374419
249	0x3d25549e	0.0403639
250	0xbd9756ca	-0.073896006
251	0x3cd66bfb	0.026174536
252	0xbcdfb6c9	-0.027308838
253	0x3b478f00	0.0030450225
254	0x3e03f9ff	0.12888335
255	0xbc1d5926	-0.009603774
