LogAnomaly/result/deeplog/deeplog_epoch188.pth (torch_old, 638616 bytes, 30 tensors)

lstm.weight_ih_l0 f4 [256, 1]
000000 ea 62 3e be fb ad a0 bc bf c9 1a bd bc e2 aa 3d
       -0.1859242 -0.01961421 -0.037790056 0.083440274
000010 ab d0 0b be 16 8c 6e 3d cb 2b bb bd 4e d9 58 3d
       -0.1365382 0.058239065 -0.09139212 0.052941613
000020 7d 3c 13 3e 55 4e 9c 3d 05 b4 2b 3e 64 fc 9b bd
       0.14378543 0.07632128 0.16767891 -0.07616499
000030 a2 e7 d8 3d 78 8b dc 3d b2 04 9c bd e7 32 87 3e
       0.105910555 0.10768789 -0.07618083 0.26406023
000040 cb d4 f8 3c fc 9e 57 3d a8 93 13 be 4e 9e 0c 3e
       0.030374905 0.052641854 -0.14411795 0.13732263
000050 70 43 1e 3e a9 09 95 3d 53 e1 f3 3c 6f 6c 31 bd
       0.15455413 0.07277233 0.029770529 -0.0433163
000060 71 1f 33 3e ee e0 41 bd 3e 75 6a bb 98 5d 37 3d
       0.17492463 -0.04733365 -0.0035775448 0.044766992
000070 ed b4 a0 3d b1 b3 25 be 17 7b 91 3d ec c1 19 3c
       0.07847009 -0.16181828 0.07103556 0.0093846135
000080 58 67 1e 3e c4 c9 b0 3d 48 ab 8a 3b 0a 50 66 3d
       0.1546911 0.08632234 0.004231844 0.056228675
000090 53 dd 53 3e a6 7d 29 3c 1d a4 f5 3d 9f 6d 0e be
       0.20689897 0.010344898 0.11994193 -0.13909005
0000a0 10 81 6b 3c 1b 96 13 be 43 0e 02 3e e8 32 c2 3e
       0.014374033 -0.1441273 0.12700753 0.37929463
0000b0 6a ea c3 bd f1 d1 bd 3d e0 51 09 3e 58 41 3e be
       -0.09566195 0.09268559 0.13410139 -0.18579614
0000c0 a4 86 2e 3e 2a 38 18 3e 9f d5 a9 3e b9 ed e6 3d
       0.17043549 0.14865175 0.33170792 0.11275811
0000d0 28 76 df 3d db 8d 95 3e 3d d1 17 3e 15 33 4a bd
       0.109112084 0.2920979 0.14825912 -0.049365122
0000e0 c9 54 25 be 8e 6b 36 3c f0 05 bf 3d d4 6c 18 3d
       -0.16145624 0.0111340415 0.09327304 0.03721316
0000f0 d9 75 24 3d b5 45 c2 3d 73 23 c9 3d 36 e9 1c be
       0.04015145 0.09485952 0.098212145 -0.15323338
000100 b5 30 76 bd 96 9c 58 3d 8d b8 de 3d 40 e3 0c bc
       -0.060105044 0.052883707 0.10875044 -0.0085991025
000110 5b 4b b4 bd 1c 87 49 3d e4 5a e5 3d 8f 12 2f 3d
       -0.088034354 0.049201116 0.11198977 0.04274231
000120 cd bd 32 bd 30 80 86 3e 3a 10 24 3e c2 be dd bd
       -0.04363804 0.26269674 0.16021815 -0.108274
000130 2a 40 e4 bc be cb 71 3d dd 45 33 3e 2a 7a 69 3e
       -0.027862627 0.059032194 0.1750712 0.22800508
000140 ac 89 9d 3c 27 26 d0 3d 46 f2 d8 bd ff 20 aa 3c
       0.019230686 0.10163527 -0.10593085 0.020767687
000150 89 03 0b 3c dd 09 56 3e 17 28 d8 3d f4 76 57 bd
       0.00848473 0.209022 0.105545215 -0.052603677
000160 a0 7e e1 b6 4c 22 96 3d cf 49 d9 be c4 c9 b3 3d
       -6.7202636e-06 0.0733076 -0.42439124 0.08778718
000170 0b 33 64 bd ca 53 86 be 49 e6 5d 3e 58 6f 02 3d
       -0.05571274 -0.262358 0.21669878 0.031844467
000180 71 c2 27 bb 19 f4 ce 3d 61 d9 e3 3d 63 c0 6f 3d
       -0.0025598074 0.10105152 0.11125446 0.058533084
000190 56 c4 a3 3d 02 1c 2d 3e db a2 60 3d 86 32 09 3d
       0.079964325 0.16905215 0.05484281 0.03349545
0001a0 58 65 e7 3d 38 85 59 3e 28 d6 25 3e c9 10 92 3d
       0.11298627 0.21242225 0.16194975 0.07132108
0001b0 1a f4 04 be eb f5 08 bd 7a e4 5e 3d dd c3 d6 bd
       -0.12983742 -0.03343765 0.05441711 -0.10486577
0001c0 e5 e0 3e 3d 03 96 a7 3d 9d c5 98 3e 91 63 6b 3e
       0.046601195 0.08182909 0.29838267 0.229872
0001d0 0c ff 57 3d c5 20 f8 3c 76 14 08 3e 5a 12 f3 bc
       0.052733466 0.030289063 0.13289055 -0.029671837
0001e0 c9 7d 32 be df ec 20 3e 5d d3 d1 3e a1 29 17 bd
       -0.17430796 0.15715359 0.4098157 -0.036904935
0001f0 19 bf 8d 3c 79 68 78 3d 67 cf a4 bd b7 2b 10 be
       0.017303037 0.060646508 -0.08047371 -0.14079176
000200 c5 c4 bd 3e 89 84 01 be e2 0a 97 3d f8 90 02 3d
       0.37064186 -0.12648214 0.073751226 0.031876534
000210 af cf 54 3e c2 ec 25 be 71 a0 2f bd de d4 ed 3d
       0.2078235 -0.16203597 -0.04287762 0.11612867
000220 71 ff 0d 3e a1 50 27 bd 4c 1f 51 bd ca dc 5a 3e
       0.13866974 -0.040848378 -0.051055238 0.21373287
000230 4c 9c 67 be b6 56 08 3e ab 14 18 be 1c 3d b2 bd
       -0.22618216 0.13314328 -0.14851634 -0.08703062
000240 09 3d 48 3e 65 d8 84 be 6f dc 62 be 56 99 40 3e
       0.19554533 -0.25946346 -0.22154401 0.18808493
000250 87 88 2d 3e ed c6 11 bd 95 b1 f4 bd 51 01 40 3e
       0.16946612 -0.0355901 -0.119479336 0.18750502
000260 a7 17 b9 3d 5c 98 9f 3e 80 d1 c3 be 07 98 9e 3c
       0.090377145 0.31170928 -0.38245773 0.019359602
000270 fa f3 0c 3d 9c 82 24 be 04 e9 63 3f 3d 6e 14 3a
       0.03441236 -0.16065449 0.8902743 0.0005662179
000280 bf 17 e2 3e 8d 7c f2 3c 48 fa a0 3d 95 58 d8 bc
       0.44158742 0.029600406 0.07860237 -0.026409427
000290 07 f7 95 be 73 e4 41 be cb 12 51 be 4e 2b 2e be
       -0.2929003 -0.18934803 -0.20417325 -0.17008707
0002a0 7d ec 22 3e a7 0b 27 3d 61 db 13 be 69 18 d0 bf
       0.15910526 0.040782597 -0.14439155 -1.6257449
0002b0 fe 45 ac 3e 77 56 a0 3e e7 7a 78 3d a0 d2 e9 3e
       0.3364715 0.31315967 0.060664084 0.45668507
0002c0 1f b9 d9 bd 2e 07 10 be 6f 74 10 be 9e 4d 04 bd
       -0.10631012 -0.14065239 -0.14106916 -0.032300584
0002d0 6a 33 ae be c8 95 e2 3e cc dc 18 3d de 80 24 3e
       -0.340236 0.442549 0.037319943 0.16064784
0002e0 78 3c aa be d2 d1 88 3d bf 0c 63 3d 98 96 90 bd
       -0.3324926 0.06680645 0.055432077 -0.070599735
0002f0 72 2a 07 3e eb ce 91 bd ef 0f 9c 3d 0b 1f a3 be
       0.13199785 -0.071195446 0.076202266 -0.3185962
000300 5f d5 1f 3e c2 22 9b bc 9e 5d 1d 3e 76 75 a2 3e
       0.15608738 -0.018937472 0.15367743 0.3173024
000310 be a8 25 3e 38 80 63 3d a6 ef f4 3d 35 a2 5a 3e
       0.16177651 0.0555422 0.11959772 0.2135094
000320 0d a8 5f 3d 2c 7b 8c 3e 2d 3e 30 3d b0 8b 7e 3e
       0.054603625 0.27437723 0.043028045 0.24857974
000330 07 0f 80 3e 86 20 09 3e 48 34 5f 3e 25 31 85 3e
       0.25011465 0.13391313 0.21797287 0.26014057
000340 d9 93 b5 bd 71 fb 09 3d 84 5e 8f 3e 2b db 14 3e
       -0.0886609 0.03368706 0.28001797 0.14536731
000350 45 47 75 3e af fa 63 3e 0d 73 41 be 63 f7 2a be
       0.23952968 0.22263597 -0.18891545 -0.16695933
000360 f9 ba 2a be 8e 58 74 3d 29 0e cf 3b 0b 7c d9 3d
       -0.16672887 0.059654765 0.0063188267 0.106193624
000370 f3 60 fa bc e2 df b2 be b7 24 ca 3d 29 30 8a 3e
       -0.030563807 -0.34936434 0.09870284 0.26989868
000380 b6 af c6 bd 00 1a a7 3e 52 16 9f 3d 87 87 98 3e
       -0.09701483 0.32637024 0.07767929 0.297909
000390 1a b6 af bd 3e 54 5c be a3 84 9a 3d 0e ed 8f be
       -0.08579655 -0.21516511 0.0754483 -0.28110546
0003a0 ce de 3d be c7 72 88 3e 86 84 43 3e 84 4d 92 be
       -0.18542024 0.26650068 0.19093522 -0.28574765
0003b0 c3 88 8e 3e 3c f5 80 3c 97 da 58 3e 9f f2 1e be
       0.27838716 0.015741937 0.21177135 -0.1552224
0003c0 09 5b 38 be 73 ae f0 bd 48 50 d9 3d f0 9e 57 be
       -0.18003477 -0.117520235 0.106110156 -0.21056724
0003d0 2b 32 9f 3d 60 19 b8 bd 28 be 68 3d 5a 9b 59 3d
       0.07773241 -0.08989215 0.056821972 0.05312667
0003e0 80 ea 1d 3e b3 b6 58 be 74 d2 5a 3e a5 90 07 be
       0.15421486 -0.21163444 0.21369344 -0.13238771
0003f0 7b 95 f6 3d 30 a2 04 3e 34 c1 36 3e 27 b8 ae 3d
       0.1204023 0.12952495 0.17847139 0.08531218

lstm.weight_hh_l0 f4 [256, 64]
000000 99 06 71 3e 62 7e 0f be c8 b9 c9 3b 71 48 99 3d
       0.23537673 -0.14013055 0.00615618 0.0748452
000010 46 cc 69 3e 1c e2 de bd b3 ef ba bd 46 c6 76 3d
       0.2283183 -0.10882971 -0.0912775 0.060247682
000020 3c 69 11 3e 0e f8 bd 3d 75 71 62 bc fa 44 d8 bd
       0.142003 0.09275828 -0.013820996 -0.10560031
000030 1f a8 32 be bd 82 94 3d b5 e9 01 be 9e 05 72 3e
       -0.17446946 0.07251499 -0.12686808 0.23634955
000040 15 04 28 3e 17 46 85 bc d3 a7 08 3d 34 9f 0a 3e
       0.16407807 -0.016268773 0.033363175 0.13537294
000050 bd 3c 2e bd b9 60 cf 3d 01 16 e3 bd 6d c4 55 3e
       -0.042538393 0.1012587 -0.11088181 0.20875712
000060 9d 11 5a 3e 14 1d 56 3e fd 07 aa 3d d6 8d b3 3d
       0.21295781 0.2090953 0.08302305 0.087672874
000070 a1 47 84 3d ef 41 6a be 40 90 71 3d 40 68 eb 3d
       0.06458975 -0.22876714 0.05897546 0.114944935
000080 00 bb 8a 3d 9d 09 60 3d 55 22 5e 3d ba 9b 1a be
       0.06773949 0.054696668 0.05423196 -0.15098467
000090 73 c4 a2 bd 9a 20 21 be 56 cf c6 bd 6c b1 8d be
       -0.07947626 -0.15735093 -0.09707515 -0.27674425
0000a0 a1 c0 af 3d 95 d6 c8 bd 26 e4 ba 3d 6f 15 b7 bd
       0.08581663 -0.09806553 0.09125547 -0.08939635
0000b0 2f 81 71 3d 44 a6 16 3e 14 ec 15 3d 1b 02 84 3e
       0.05896109 0.14711863 0.036602095 0.25782856
0000c0 08 0d 84 be 26 64 99 bd 69 bc 2f 3e 59 ce 96 be
       -0.25791192 -0.07489805 0.17161717 -0.29454306
0000d0 45 36 15 3d 6d 70 1e 3e 53 f9 c2 3d ef 99 06 bc
       0.03642871 0.15472575 0.09520211 -0.008215412
0000e0 03 f5 94 bd f7 24 a4 3e 80 ac 16 bd ed 6e a4 bd
       -0.07273295 0.32059452 -0.036785603 -0.0802897
0000f0 7f 2f ea 3d 22 38 d3 bc 85 65 2f be 29 05 88 bd
       0.114348404 -0.025783602 -0.1712857 -0.06641609
000100 73 e1 98 b8 2b 27 e1 bd d4 72 88 3e 7d 64 0d 3e
       -7.289918e-05 -0.10993799 0.26650107 0.13807864
000110 d0 e4 2e 3e c9 6e 2e be f7 22 b4 3d 19 59 98 3d
       0.17079473 -0.17034449 0.087957315 0.07438869
000120 fb 62 14 3e dc 51 ee 3d 04 ef ed bd 3c 43 cc 3d
       0.14490883 0.11636707 -0.11617854 0.099737614
000130 2e b0 55 be 31 db 2e 3e 78 da 01 be 09 d5 97 be
       -0.20867988 0.17075802 -0.12680995 -0.2965472
000140 36 97 6e 3e 0c 4b f1 bc 73 a9 34 be 13 4b 53 3e
       0.2329987 -0.02945473 -0.17642765 0.20634107
000150 b0 f1 14 3e 38 a8 68 bd 78 15 31 be 20 8a 05 3e
       0.14545321 -0.05680105 -0.17293346 0.13040972
000160 86 45 c4 3e d2 c1 da 3d a0 ac e5 bd ad 46 cd 3d
       0.38334292 0.106814995 -0.11214566 0.10023246
000170 12 73 4c 3e 33 e6 84 bc 30 57 24 3d a9 01 34 3e
       0.19965771 -0.016223049 0.04012221 0.17578758
000180 b0 b4 90 3d ce 65 fb 3d 0c e6 93 3d b2 99 b0 bd
       0.070657134 0.12275277 0.07221612 -0.08623065
000190 e0 dd 68 bd 62 ff 72 be a3 46 17 be fe 5b a1 bc
       -0.05685222 -0.23730233 -0.1477304 -0.019697186
0001a0 ea df 67 3e d0 38 89 bd 60 09 cf bd 1a 0a a2 3d
       0.2264401 -0.06700289 -0.1010921 0.07912083
0001b0 e5 45 42 3d 85 d6 1e 3e 03 2c 39 3e c5 f4 84 bd
       0.047429938 0.1551152 0.18083195 -0.064919986
0001c0 bd 54 7f be 96 f0 01 be 67 5e 3f bd bf 53 76 be
       -0.24934669 -0.12689433 -0.04672089 -0.24055384
0001d0 a8 9d 25 bc 1a 1a 92 bb d4 17 59 3e 12 fc 24 3e
       -0.010108389 -0.004458678 0.21200496 0.16111782
0001e0 c1 cb 5e bd 5d 57 be 3e 01 ec 21 3d 68 ea 79 be
       -0.054393534 0.37176028 0.03953171 -0.24405825
0001f0 42 bb d4 3d 96 8b 06 be ba 55 d8 3c cc b2 e1 bd
       0.10387279 -0.13139185 0.026408065 -0.11020431
000200 be 5d ea 3d 95 32 70 3d c8 90 df 3d d9 94 2b 3e
       0.11443661 0.05864199 0.10916287 0.16756
000210 37 19 02 3e c9 38 45 be a2 b8 33 be be 4a 3e 3e
       0.12704931 -0.19259943 -0.175509 0.185832
000220 0f fa 2e 3e 3f d4 00 bd 86 36 40 bd cd f3 a5 3d
       0.17087577 -0.031452414 -0.046926998 0.08103142
000230 6c e2 a3 bd c2 0f 07 3d 2a 9a 15 be f0 90 b6 3d
       -0.08002171 0.032974012 -0.1460959 0.089143634
000240 1f 8e ff 3d 18 a2 4c be d9 a3 56 3b 97 0a 23 3e
       0.12478279 -0.19983709 0.003275147 0.15922008
000250 1e 90 66 3d f2 ef 92 3d 0a 98 db bd c1 92 a3 3c
       0.056289785 0.07174672 -0.107223585 0.019967439
000260 c6 c8 12 3e 61 72 59 3d 52 d3 46 bd 0c 66 74 3e
       0.14334401 0.053087596 -0.048541375 0.23867053
000270 03 66 43 3d 1e 0c b7 be 11 eb b3 3d c1 14 f6 3c
       0.047704708 -0.35751432 0.0878507 0.030039193
000280 6d 40 e2 bd 40 ab 8a 3d 4f 95 17 3e 66 2d ae bd
       -0.110474445 0.067709446 0.1480305 -0.08504753
000290 80 13 9e 3c f8 fd 92 bd 41 7b 87 bc 72 1f 4d be
       0.019296408 -0.07177347 -0.016538264 -0.20031527
0002a0 15 4d a1 3d 30 c0 ae bd a8 0e a5 bd ca a3 56 bd
       0.0787603 -0.085327506 -0.08059436 -0.052402295
0002b0 a8 6b d9 3c 01 81 7a 3d 12 15 4f 3e c2 51 0d bc
       0.026540592 0.061158184 0.20222881 -0.00862545
0002c0 b3 ca 96 bd 73 29 2d 3d 73 ae d7 bd 96 24 88 bd
       -0.073628806 0.042275857 -0.105313204 -0.06647603
0002d0 f2 63 9e 3d b0 44 4d 3d d4 a6 c0 3d e1 0d 2d 3e
       0.07733907 0.050114334 0.0940682 0.16899826
0002e0 ff 09 5e bd 72 ac 05 3e 70 35 e9 bc 72 6e b2 be
       -0.05420875 0.13054064 -0.028467864 -0.34849888
0002f0 fd 2c 3e bd 4a fa d4 bd 06 37 4b 3d 2f 62 74 be
       -0.046429623 -0.10399301 0.04961302 -0.23865579
000300 92 67 32 3c af e7 58 be 90 38 91 bc 89 10 6a 3d
       0.010888951 -0.2118213 -0.017727166 0.057144675
000310 0a d9 56 3d ff 0f b4 3d 5d 10 e1 3c ae d1 c9 bd
       0.05245308 0.087921135 0.027473623 -0.09854446
000320 be 84 8e bd 29 dc 53 bd 9c f4 b8 3c 00 59 af 3d
       -0.06958912 -0.051723633 0.022577576 0.08561897
000330 41 73 1d bd 9e 5f 01 3d 83 21 07 3d 8f 36 45 3d
       -0.038439993 0.03158533 0.032990944 0.048147734
000340 22 ed bc 3b c0 be a3 bd 1d c7 04 be 88 db 0b 3d
       0.005765573 -0.07995367 -0.1296658 0.03414491
000350 f7 3e 7a 3d 65 55 b0 bc 34 30 54 be bb 34 63 3e
       0.061095204 -0.021525094 -0.20721513 0.22188084
000360 20 75 6f bd 15 53 09 3e aa b2 f0 3c 23 fe 74 3d
       -0.05846131 0.134106 0.029382069 0.059812676
000370 0b e9 c9 3d 77 c9 70 be 11 0e e2 bc 30 47 79 bc
       0.098589025 -0.23514353 -0.027594598 -0.015214726
000380 06 81 a1 3d 56 5d 23 bd 20 8f f5 3d 0e 2e 5a 3d
       0.078859374 -0.039883934 0.119901896 0.053266577
000390 41 be 65 bd 8d 58 29 be 2d d3 cd bd 15 46 93 be
       -0.056089643 -0.16537686 -0.10050044 -0.28764406
0003a0 7e 50 90 bd 9f 6a 99 3d aa 79 f3 bd d4 79 e8 bc
       -0.07046603 0.074910395 -0.1188844 -0.028378405
0003b0 ef 0c 73 3e ff c1 4a bd ad d6 1c be 39 39 8b 3e
       0.23735403 -0.049501415 -0.15316267 0.27192095
0003c0 f9 bb f9 3c a5 36 a9 3c f5 7c 40 3d 67 2d a5 bd
       0.03048514 0.02065594 0.04699417 -0.080653004
0003d0 b8 f2 c9 bd 5f 94 b2 3d 0b b5 3b 3d a8 fc d1 3d
       -0.09860748 0.08719706 0.045826953 0.102532685
0003e0 77 3b e3 bd 9a f0 ea 3d 3a 61 12 3e 44 cf 79 bd
       -0.110953264 0.11471672 0.14294901 -0.06098868
0003f0 5c 5e df 3d 86 9c 1f bd fe d1 b5 bd b1 1b 4e bc
       0.109066695 -0.03896763 -0.088779435 -0.012579844

lstm.bias_ih_l0 f4 [256]
000000 36 ff 9a 3d 2b 31 ab 3d bf 3d 5a 3d ef 6c 95 bd
       0.07568209 0.083589874 0.053281542 -0.07296168
000010 64 b3 34 3e 95 2f 4f 3c 76 8c 36 3e 71 87 87 bc
       0.17646557 0.012645622 0.17827019 -0.016544076
000020 8f e2 61 3e fd 11 5b 3e 6a 65 e7 bd 0a b7 4d 3e
       0.22059081 0.2139358 -0.1129864 0.20089355
000030 36 98 59 3d 2d 9c b4 3d 7a f5 c9 3d ba 43 4c 3e
       0.053123675 0.08818851 0.09861274 0.1994771
000040 07 2b 11 3e 79 84 12 3e d8 e5 13 3e 58 fe 1c bd
       0.1417657 0.14308347 0.14443147 -0.0383285
000050 f0 6f f4 bc 26 f3 8f 3d a1 d7 93 3d 07 31 d9 3d
       -0.029838532 0.07028799 0.07218862 0.10605054
000060 94 a1 02 3e 3e 99 44 3e 71 3b 79 3d 43 3c a5 3d
       0.1275695 0.19199082 0.060847703 0.08068135
000070 17 e2 9e bc 7a 21 69 3e 8b 8b 6e 3e 77 49 b7 bd
       -0.019394917 0.22766677 0.23295419 -0.08949559
000080 66 df c1 3c 42 5a c7 3d 50 fa db 3c c3 d8 c8 bd
       0.023666095 0.09734012 0.026852757 -0.09806969
000090 99 c6 2c 3e a7 ee 98 bd 09 80 74 3d 94 8c 8a bd
       0.16872634 -0.07467394 0.059692416 -0.067650944
0000a0 d4 5a 06 3e c2 72 ec bc d1 0c 48 bc 17 3d 2a 3f
       0.13120586 -0.028863315 -0.012210087 0.66499466
0000b0 76 54 38 3d 53 dd 82 3e fa 07 0c 3d 41 93 b1 3d
       0.045002423 0.25559482 0.034187295 0.086706646
0000c0 e0 a3 56 bd 06 9c b2 3d a7 e2 7a bc 58 4b c8 bd
       -0.052402377 0.08721165 -0.015312827 -0.09779996
0000d0 6e 52 4a bd 35 ed 8f 3e 0b 05 ab 3d ef 9b 66 3a
       -0.049395017 0.28110662 0.08350571 0.00087970396
0000e0 65 8a 2a 3e 88 ea 30 bd 41 d3 92 3d 22 69 83 3d
       0.16654356 -0.043192416 0.071692 0.06416537
0000f0 cb 6c 03 bd 4e da ef 3d be ca 57 be f2 5b e9 3c
       -0.032086175 0.1171156 -0.21073434 0.028486226
000100 d7 e8 1d bd 03 d0 28 3e 60 9a 8f bd 5d d9 8d 3d
       -0.03855213 0.164856 -0.070118666 0.069262244
000110 dc 17 a9 3d b1 bc bc 3d 87 0b c6 3d b3 23 c3 3d
       0.08256504 0.092156775 0.096701674 0.095282935
000120 f0 f0 88 3d f4 26 cd 3d d9 82 12 be dc ee 07 3e
       0.0668658 0.10017195 -0.14307727 0.13274711
000130 10 7f 37 3d a3 9f 42 3d dd 6c ed 3a 84 e3 a2 bd
       0.04479891 0.047515523 0.0018114109 -0.079535514
000140 97 88 2e 3d af ca 16 bc 61 b1 cf bd cc 95 d6 bd
       0.04261073 -0.009203597 -0.10141254 -0.1047779
000150 fa b3 1e 3d 96 81 dc 3d 8c 5a ce bd 20 2c 12 bb
       0.038745858 0.10766904 -0.10075864 -0.0022304133
000160 81 c4 44 3e ea 4c 01 3e d4 21 5d 3d 16 b0 fd 3b
       0.19215585 0.12626997 0.05398734 0.0077419383
000170 ef 9e 3f 3e d4 5d a2 3d e7 f9 21 be f3 e0 f6 3d
       0.18712972 0.079280525 -0.15817986 0.120546244
000180 71 3d 11 bd 96 88 9f 3d 2b 9d ed bc a2 cb be 3c
       -0.035458986 0.077897236 -0.029005608 0.023290459
000190 2e 3a 46 3d b0 0f f2 bd ee 82 72 bc b0 4f ab 3b
       0.04839533 -0.118193984 -0.014801724 0.0052280053
0001a0 dd e1 c1 bd f8 76 23 bc bd 68 06 3e 2b 77 8f be
       -0.09466908 -0.009977095 0.13125892 -0.28020605
0001b0 73 37 c8 bd 6f bc 3d 3e 37 f1 d0 3d 0e 4b d9 3d
       -0.09776201 0.18528913 0.10202258 0.10610019
0001c0 45 f7 97 3d de 75 7b 3c 07 2f 1b ba 3f 6d 7d bd
       0.0742021 0.015347926 -0.00059197884 -0.061871763
0001d0 1e 81 89 bd e2 3d ce 3d 90 4c c8 3d ce 34 1e 3c
       -0.0671408 0.10070397 0.09780228 0.009656144
0001e0 bc d4 d6 3d 07 c8 07 3e fa 7f 4a be 2e 2d fe 3d
       0.104897946 0.13259898 -0.19775382 0.12410961
0001f0 9a fa cb 3c 2a 1f 52 3d 14 43 9b 3d ab 13 1a 3e
       0.02489977 0.05129925 0.075811535 0.15046565
000200 d1 ba 58 3d fa 60 3f 3e 53 08 81 bd f2 9d 39 be
       0.052912537 0.18689337 -0.06300416 -0.18126658
000210 3b 00 0f 3e 65 70 df 3d 5c ce 3e be 1c eb 5e 3e
       0.13964932 0.109101094 -0.18633407 0.21769375
000220 a3 e5 65 3e 52 bf 05 3e 66 69 a9 bd 78 de d4 bc
       0.2245088 0.13061264 -0.08272056 -0.025984988
000230 47 c2 38 3e 54 4b 0c 3c 87 9d 5b bd ae ab c5 3d
       0.18042861 0.0085628815 -0.053617027 0.09651886
000240 cc c2 6c 3e 58 fe 43 be 03 6d 2a 3d d8 50 0d 3d
       0.23121184 -0.19139993 0.041607868 0.034500927
000250 54 0c 08 3d 7a b4 22 3e 18 f2 b3 bd 51 d5 9f bd
       0.033214882 0.15889159 -0.0878641 -0.07804359
000260 c5 13 66 bd 55 56 0d 3e 04 76 19 3d 24 1c c0 3d
       -0.056171197 0.13802464 0.037466064 0.093803674
000270 00 7a d1 bb 5c 71 a9 be fe d0 19 3e e5 61 c3 3c
       -0.0063927174 -0.330943 0.1502113 0.02385039
000280 e0 97 68 be 7f 0e 00 be c5 c6 1f 3e 9e 6f bf 3b
       -0.22714186 -0.1250553 0.15603168 0.005842163
000290 3a ac ef 3c b4 43 8c bc 78 a0 f7 bd b2 b4 85 3d
       0.029256929 -0.017122127 -0.12091154 0.065286055
0002a0 5a bf 9a 3c b8 82 d7 bd f9 29 c1 bd 3a 03 98 3d
       0.018890072 -0.105229795 -0.09431834 0.074224904
0002b0 ae fe 19 3c 29 e9 23 3e ef 27 83 3d c4 21 3d be
       0.009399099 0.16006912 0.06404101 -0.18469912
0002c0 6d b6 08 bd 07 99 1a bd 4f dd 94 3c 69 c4 11 3d
       -0.0333771 -0.037743594 0.018171934 0.035587702
0002d0 d3 da 1b 3e 61 7b 8b 3e 8b 26 21 bd 40 27 fb bd
       0.15220194 0.27242568 -0.039343398 -0.12263346
0002e0 98 8a 07 be c3 c7 05 3d e0 48 2e 3e 64 25 63 3d
       -0.13236463 0.03266121 0.17019987 0.05545558
0002f0 9a 3a 23 be f8 f7 7c bd ee f4 5e bd 16 a4 17 be
       -0.15940323 -0.06175992 -0.054432802 -0.14808688
000300 a2 41 94 3e 60 af 01 bd 99 dc 3e bd c7 db 3f be
       0.28956324 -0.03166139 -0.046597097 -0.18736182
000310 13 39 6b 3e 30 c7 a6 3d f5 8a ba 3d 6c 62 e2 bd
       0.22970991 0.08143461 0.09108535 -0.11053929
000320 04 d0 f3 3c 43 2f f0 3a 55 23 2e 3e da 62 49 3c
       0.029762276 0.0018324632 0.17005666 0.012291634
000330 3f d2 49 3e f7 a6 7a bd 33 a2 e7 3d be bf c3 3d
       0.19709109 -0.061194386 0.11310234 0.09558056
000340 b3 e5 ae 3d df ab a0 3c 96 87 68 3e d3 36 76 bd
       0.085399054 0.019613205 0.22707972 -0.06011088
000350 57 bd 10 3d 1a 8e 48 3d 96 4c 07 3d 71 1e 53 3d
       0.03533682 0.048963644 0.033032022 0.051542703
000360 2b 40 f0 3c 0f ae 12 3d 71 90 3b 3e 67 68 e4 3b
       0.029327473 0.035810526 0.18316819 0.0069704535
000370 e2 06 f7 3d 64 0d a0 3e 44 e8 8a 3e 1f fa 0e be
       0.1206186 0.31260216 0.2713033 -0.13962601
000380 cd f8 11 3e cb 8e 07 be ae 5f f1 3d ad a5 e2 bd
       0.14255066 -0.13238065 0.117858276 -0.110667564
000390 ee 80 c7 3d ac c4 09 3e 0a ba d6 3d 90 f9 84 3e
       0.09741388 0.1345393 0.10484703 0.2597165
0003a0 4e d1 23 3e 01 d1 a1 3c 04 1a c7 3d d8 22 e0 3e
       0.15997812 0.019752981 0.09721759 0.43776584
0003b0 be c2 5e 3e 10 77 dd 3d 49 d3 1d bd f1 98 02 3e
       0.21753976 0.10813725 -0.038531575 0.12753655
0003c0 91 71 03 3e 42 34 e1 3d 1a 65 32 3e 14 5a 68 3c
       0.12836291 0.109962955 0.1742138 0.014181633
0003d0 7e 1e 6d 3e bd 0b 57 3e 1d 56 5c 3e 89 bd 62 3e
       0.23156163 0.21000572 0.21517225 0.22142614
0003e0 06 eb 1d 3e be 33 91 3d 7c 9d 17 3d 0f 55 31 3e
       0.15421686 0.07089947 0.037015423 0.17317604
0003f0 f9 c9 8c bd 0e 30 49 3d ac 7a 33 be 4f d1 96 3e
       -0.06874461 0.049118094 -0.17527264 0.29456565

lstm.bias_hh_l0 f4 [256]
000000 ba 20 1f 3e 61 55 92 3d 21 28 89 3d 9c 55 a9 3d
       0.15539828 0.07145191 0.06697107 0.08268282
000010 10 55 fe 3d 7c 2b 91 3d 7c 72 83 3b a2 14 84 3d
       0.12418568 0.07088372 0.0040114503 0.06449248
000020 1f 1f 76 3d 8f 51 79 3e 35 71 08 3d 5a 87 21 3e
       0.060088273 0.24347518 0.033311088 0.15774289
000030 40 c5 40 3e 4d 64 19 bd 92 19 cd 3d f4 0e 56 3e
       0.18825245 -0.03744917 0.10014643 0.20904142
000040 5d 98 8e 3d 08 54 8d 3c df ca 7e 3d 8f 29 6c 3d
       0.06962655 0.017251983 0.06220519 0.05765682
000050 80 41 a9 3c 6f fe c3 3d 4c 22 08 3c 19 82 1c 3c
       0.020661116 0.09570014 0.008308958 0.009552502
000060 da f7 ec 3d 44 f7 ec 3d 11 51 85 bc 98 32 d6 3d
       0.115707114 0.115706 -0.016274007 0.10458869
000070 19 9b e7 bc a1 b3 89 3e 8c 53 3c 3e 5f 56 e3 3d
       -0.028272199 0.26894858 0.18391246 0.11100458
000080 28 18 25 3e 46 23 12 3d 8a f8 25 3d 24 eb 41 ba
       0.16122496 0.03567817 0.04052023 -0.00073974044
000090 2a bd 76 3e 76 d1 7a bd bc 43 b3 3d a8 d0 f1 bd
       0.24095598 -0.061234914 0.08753154 -0.11807376
0000a0 f6 b6 23 3d a5 a2 0c bb 10 74 c7 3d 00 13 16 3f
       0.039969407 -0.0021459248 0.09738934 0.5862274
0000b0 af 5a e1 3d 86 db 6e 3e fa e7 8b 3d 00 b0 a0 3d
       0.11003625 0.23325929 0.068313554 0.07846069
0000c0 98 e0 d5 bd 55 f1 21 bd b3 3e 69 bd 6f 8b d0 bc
       -0.104432285 -0.039536793 -0.05694456 -0.025457112
0000d0 2f c1 5a 3d b8 0d ef 3e 25 40 5b bd 4a ee 05 3d
       0.05340689 0.46690154 -0.05352797 0.032697953
0000e0 ce 55 17 3e 62 97 11 3d b1 90 83 3e dc 79 a9 3d
       0.14778826 0.03554476 0.25696328 0.08275196
0000f0 0b 64 ef 3d 5b f5 d2 3d cc 8e d2 bd 69 03 1c 3d
       0.116890036 0.10300704 -0.102811426 0.03808919
000100 05 15 4a bd 75 76 35 3d 6f d5 b3 bc d5 e5 cc 3d
       -0.049336452 0.044302423 -0.021952359 0.100047745
000110 74 97 cf bc aa 30 f9 3d 04 34 41 3d c0 54 fb 3d
       -0.025340773 0.12167485 0.047168747 0.12272024
000120 e1 8e 4a 3e bf 64 5e 3c 85 a5 e4 bd 0f 03 85 3d
       0.19781066 0.013573824 -0.11164383 0.06494724
000130 67 c7 33 bb fa ba 2e 3e 01 b6 bf bd 45 ce 02 be
       -0.0027432085 0.17063513 -0.09360886 -0.12773998
000140 a4 39 86 3d ff bd 68 3c b1 96 cc bd cc 1d 54 3b
       0.06553963 0.014205455 -0.099896796 0.0032366393
000150 22 d0 10 bc 24 b0 f3 3d 84 05 ce bb 28 36 ce 3d
       -0.008838685 0.118988305 -0.0062872786 0.10068923
000160 36 79 7d 3c a7 1b a1 3d e6 84 87 3d a4 55 bc bd
       0.0154707935 0.078666024 0.06617145 -0.09196022
000170 b2 25 2f 3e a2 42 5c 3d 97 d3 39 bc 1f 3c 53 3e
       0.17104223 0.053774484 -0.011341951 0.20628403
000180 7e 2d ac bd f2 5e ca bd 0e 83 7a 3d 6c c0 b5 bb
       -0.084071144 -0.09881391 0.06116014 -0.00554662
000190 15 aa e5 bd d2 bb a0 3c 67 e1 d2 bd 57 5f 93 bd
       -0.11214081 0.01962081 -0.10296898 -0.07195919
0001a0 ae 73 61 bd 35 ac cb bc e3 9d c6 3d 32 64 85 be
       -0.05504196 -0.024862388 0.09698083 -0.26053005
0001b0 e5 b3 40 bb 1f e6 52 3d 4d f3 87 3c 14 a7 25 bd
       -0.00294041 0.05148899 0.016595507 -0.04044254
0001c0 86 e6 22 3d 78 e9 66 bb 01 a4 66 3d 8c cb 50 3c
       0.039770626 -0.0035234373 0.05630875 0.012743842
0001d0 ca ca e0 3c 07 7e 61 3d e9 dd ce bc 42 d3 97 bc
       0.027440447 0.05505183 -0.0252523 -0.018533353
0001e0 fd ee bb 3d 3c a4 9b bd 71 16 df 3c 35 57 6c bc
       0.09176443 -0.075996846 0.02723238 -0.014425089
0001f0 c4 4d b7 3d 79 0a e5 3d 4b 19 86 bd ab 1b ca 3d
       0.089503795 0.11183638 -0.06547793 0.098685585
000200 f8 49 99 bd 5d 1d e1 3d 28 78 0a be 69 4d 2c be
       -0.074848115 0.10991929 -0.13522398 -0.16826405
000210 13 c4 33 3e ee 46 8c bd ac ca 05 be 00 a9 46 3e
       0.17555265 -0.06849466 -0.13065594 0.19400406
000220 57 69 a7 3d 81 5d 2d 3d 4e 35 58 bd 9b 08 e7 bd
       0.08174389 0.0423255 -0.05278521 -0.11280938
000230 b4 56 11 bb 22 23 3d bd 3d df d1 3d 0b 3b 36 3e
       -0.0022176923 -0.046176083 0.102476574 0.1779596
000240 9f e4 77 3e 14 6c 30 be c5 2d 12 bd d7 83 df bd
       0.24208306 -0.17228729 -0.03568818 -0.10913818
000250 c1 ef 01 be bb b1 42 3e 0d 2c a1 3d 62 e2 3b bd
       -0.12689115 0.19013111 0.0786973 -0.045870192
000260 3b e7 3e 3c b2 54 7b 3e 5f a5 1a 3d b9 2d 0c 3e
       0.011651809 0.24544027 0.037755366 0.13689317
000270 9b 71 cf 3b 16 52 37 be 13 62 7e bc 07 0c ed 3c
       0.0063306815 -0.17902407 -0.015526312 0.0289364
000280 f8 ff e7 bd 4f f0 2e be 39 08 1e 3e 68 dc 90 bd
       -0.11328119 -0.17083858 0.15432824 -0.07073289
000290 f1 96 1e 3e c4 ea d8 3d b6 4f db bd ca 30 be bd
       0.15487267 0.10591653 -0.10708563 -0.092866495
0002a0 51 7e c0 bb 40 96 1f be 48 f0 dc bd 73 c7 91 3d
       -0.005874433 -0.1558466 -0.107880175 0.0711812
0002b0 bc 7b dd bc 9a c1 47 3e 20 6d 50 3d 86 fe 26 3d
       -0.02703654 0.19507447 0.05088532 0.040770076
0002c0 b3 06 a9 3d 26 ca a0 bd f6 58 91 3d f6 cc 2a bd
       0.08253231 -0.07851057 0.07097046 -0.041699372
0002d0 d2 72 2e 3e 74 52 83 3e 81 e2 50 be a8 f5 e1 bd
       0.17035988 0.25648844 -0.20398904 -0.11033183
0002e0 9b 97 9b 3c de 54 e4 3c de 17 cd 3c cf ae b4 3d
       0.01899319 0.0278725 0.025035795 0.088224046
0002f0 1b 1b bc bd 3e 6e 12 bd 1a 46 85 bd f2 f0 7f bc
       -0.091848575 -0.035749666 -0.065075114 -0.015621411
000300 31 e3 95 3e 35 89 e9 3d a9 87 df bd 74 ff 16 bd
       0.29274896 0.11403123 -0.10914547 -0.036864713
000310 39 a8 57 3e c3 8f 83 3d ec 72 95 3e d3 a6 56 bd
       0.21060266 0.06423905 0.2918924 -0.05240519
000320 fd fb 93 3d 84 0c 94 bc 4c 50 a6 3d 0d ae 66 bd
       0.07225797 -0.018072374 0.08120784 -0.05631833
000330 55 b5 19 3e 25 e9 d3 3d b3 d4 ba 3d 9c f3 ff 3c
       0.15010579 0.10347203 0.091226004 0.031244092
000340 b8 c6 8a 3d 50 36 26 3e a5 bd 8e 3e 2a d7 af 3d
       0.06776184 0.16231656 0.27879062 0.08585961
000350 c7 88 5f 3b a9 bb ba bb dd cc 28 3e be 29 07 3e
       0.0034108625 -0.0056986404 0.16484399 0.13199517
000360 1a ca 3b 3d 8b ce 09 bd 06 21 33 3e d4 d6 92 3d
       0.045847036 -0.03364424 0.17493066 0.071698815
000370 0e 17 72 bd 51 80 3d 3e f1 91 52 3e 83 9a 1a bd
       -0.059104018 0.1850598 0.20563485 -0.03774501
000380 11 0e c4 3d ea aa 14 3b 22 b6 fc 3c cc 6a 16 bc
       0.095729955 0.002268488 0.030848566 -0.009180736
000390 2c de a1 3d 96 77 9e 3c 08 9b f3 3d 5b 59 85 3e
       0.07903704 0.019344132 0.11894804 0.26044735
0003a0 04 ac 7d 3d 3c 35 62 bc 86 39 51 bd c2 9f b6 3e
       0.061931625 -0.013806637 -0.05108025 0.3566876
0003b0 12 71 4c 3e 0c f8 df 3c 45 49 0e be 66 a1 7f 3e
       0.19965008 0.027339958 -0.13895138 0.24963912
0003c0 ad 78 8e 3d 31 a6 15 bc 3b 57 d7 3d 87 ac 01 3e
       0.06956611 -0.009133861 0.10514685 0.1266347
0003d0 56 6e 81 3d 39 3d 29 3e 50 69 3d 3d 2d 25 2f 3e
       0.06319873 0.16527261 0.046243012 0.17104025
0003e0 8a 14 2d 3e 2c b4 ca bc 59 2f 0d bc 61 d2 f1 3d
       0.16902366 -0.024744116 -0.008617246 0.11807705
0003f0 b4 68 ca bc 8d 55 08 3e ef 5a cb 3c 56 e4 6c 3e
       -0.02470813 0.13313885 0.024823634 0.23133978

lstm.weight_ih_l1 f4 [256, 64]
000000 b5 8c b7 3c 72 a4 0a be 57 78 29 bd de de b8 bd
       0.022405962 -0.13539293 -0.04137453 -0.090268835
000010 c3 48 a9 3d e1 35 c2 bc dc 4d 68 bd 53 e6 c5 bb
       0.08265831 -0.023707332 -0.056714877 -0.0060394197
000020 de df 26 3c 57 87 26 3e a2 37 8f bd 9f 90 b6 bd
       0.01018521 0.16262566 -0.06993033 -0.08914303
000030 85 2d 22 be 29 bd 33 bd 6b 2a b8 bb e8 1e 41 bc
       -0.15837677 -0.04388157 -0.005620291 -0.011787154
000040 34 7c 2a bc 07 63 34 3c 64 83 2b bd 6e 73 eb 3d
       -0.010405589 0.011009938 -0.04187335 0.11496626
000050 a8 15 59 3d 68 21 9d 3d 9c e7 fb bb 97 b2 e4 3d
       0.05299917 0.07672387 -0.007687522 0.11166876
000060 9e df 94 3c 04 c0 08 3d c4 51 d8 bd bc 82 4d bd
       0.018173035 0.033386245 -0.105624706 -0.050173506
000070 9a b2 c9 bd f6 39 ae bd 28 7b c2 3d 41 b7 cd bd
       -0.09848519 -0.08507149 0.094961464 -0.100447185
000080 34 4d 4d bd 55 c0 64 3d 25 90 6d bd b5 a7 c7 3b
       -0.050122455 0.055847485 -0.057998795 0.0060929903
000090 9c a8 84 3d df bf 11 be 17 c8 af bd 1b 03 60 3c
       0.06477472 -0.1423335 -0.08583086 0.013672615
0000a0 97 48 03 3c 2b 69 03 be b5 2d 87 3d cb d8 4e be
       0.008012912 -0.12833087 0.06600515 -0.20199887
0000b0 da 3d 07 bc f8 78 a0 3d 06 27 a1 3d 52 d7 d3 3d
       -0.008254493 0.07835573 0.07868771 0.103438035
0000c0 95 9b fe 3c fe 47 1e be ec 58 ae bc 53 4c 3a 3d
       0.031080047 -0.1545715 -0.021282636 0.045482945
0000d0 7d 3e 90 ba 97 a6 b1 3d 87 1f e9 bc dc fd 12 3c
       -0.0011004951 0.086743526 -0.028457416 0.008971658
0000e0 97 17 2c 3d 8c 1e d0 bc b0 fb d1 bd e9 16 98 3c
       0.042014685 -0.02540519 -0.10253084 0.018565612
0000f0 7f fd 80 bd 39 1c d8 bd df a6 6e be 5e 7b df bd
       -0.062983505 -0.10552258 -0.23305844 -0.10912202
000100 8f 6e e5 bd 08 16 98 bb 18 70 20 3d 09 9f 95 bd
       -0.11202728 -0.004641298 0.0391694 -0.07305724
000110 43 f6 19 ba e9 92 83 bd dc b2 28 3d 66 09 84 bd
       -0.00058731827 -0.06424505 0.0411862 -0.06447105
000120 82 f4 82 3c d1 de c8 3d a7 85 19 3e ce d2 e1 3c
       0.015985731 0.09808124 0.1499239 0.02756634
000130 44 72 c9 3d 0c 56 a2 bd 48 a6 31 bd b9 cf 76 3e
       0.098362476 -0.079265684 -0.04337147 0.24102677
000140 39 21 86 bd dd 7e c0 3d 3c 8e 16 3d 5a 22 48 3b
       -0.065493055 0.09399197 0.03675674 0.0030538053
000150 28 ba a7 bd 6a 6b d7 3d d7 03 00 3d f6 43 15 3e
       -0.08189803 0.105185345 0.031253662 0.14576706
000160 17 8a 29 3e 7e 13 dd 3d 4d a3 5b be b4 c8 a1 bd
       0.16556583 0.107947335 -0.21449013 -0.07899609
000170 dc bc 03 3e 25 ec 6c bd 6d bc 41 3d 4b b0 f6 bb
       0.12865013 -0.057842392 0.047298837 -0.00752834
000180 a1 d8 47 be c7 c6 01 3e 00 68 01 bd c3 72 c3 3d
       -0.19516231 0.12673484 -0.031593323 0.095433734
000190 b7 51 2e 3c 89 43 ab 3d 3a 45 92 3d 69 a2 49 3e
       0.0106395995 0.08362491 0.0714211 0.19690861
0001a0 9e f8 a1 bd 30 26 2b bd 39 5b 27 3d 3d 4a 14 be
       -0.07908748 -0.041784465 0.04085848 -0.14481445
0001b0 b0 50 9d bb 2c 6c c7 3d 77 04 25 3d 59 18 db ba
       -0.0048008785 0.09737429 0.04028746 -0.001671563
0001c0 21 16 9c bc 62 db d0 bd d6 fd 3e 3e 6d 0b c3 bd
       -0.01905352 -0.10198094 0.18651518 -0.09523664
0001d0 06 52 a3 3d c7 26 b5 bb 86 a8 3b bd 32 c4 86 3d
       0.07974629 -0.0055283043 -0.045815013 0.0658039
0001e0 0e dd 36 be 86 21 39 3d e2 88 8a bd eb 39 38 be
       -0.17857763 0.045197986 -0.067643896 -0.17990844
0001f0 ba 4f c4 bc 54 57 a6 3d 3a 92 18 3c 3d 0e 26 be
       -0.023963798 0.08122125 0.009312207 -0.16216369
000200 5c c3 0f 3d df 0f 6e be 53 a9 ff 3c c8 49 f5 bd
       0.03509842 -0.23248242 0.03120867 -0.11976963
000210 ec ce f0 3d e5 58 f2 3d 4b da a9 bc e0 10 69 3d
       0.11758217 0.118333615 -0.020733973 0.05690086
000220 0b 89 2f 3d 87 67 00 3f 1b 00 8d 3c 2d c6 8f 3c
       0.042855304 0.5015797 0.017211964 0.017550552
000230 3a fb 30 be 86 f5 9a bc c6 b5 00 be c0 f1 43 3f
       -0.17283335 -0.018915903 -0.12569341 0.76540756
000240 30 6c 00 3e 17 b2 b2 3b 50 c1 23 3c 78 d2 90 3d
       0.1254127 0.005453359 0.00999482 0.07071394
000250 35 7b 53 bc 2d 17 93 bc e0 f9 1c 3c 8a 3f 3f 3d
       -0.012907793 -0.017955387 0.009581059 0.046691455
000260 bc 1f e3 3d ac 98 16 3e 53 be 54 be 23 75 ac bd
       0.11090037 0.14706677 -0.20775728 -0.084207796
000270 e8 d0 c8 3c 2b 8f d9 3d 7c 59 4f 3d 4c 69 8c bc
       0.024513677 0.1062301 0.05062245 -0.017140053
000280 09 5c 4a be 20 8d 32 bd 05 4b bb bd 48 18 7b bd
       -0.19761671 -0.04359162 -0.09145168 -0.061302453
000290 75 53 a2 bc 48 95 8b be e2 0d 88 bd c6 bb 41 be
       -0.019815186 -0.2726233 -0.06643273 -0.18919286
0002a0 8d 3c 57 3d 87 a1 a5 ba 67 3e 5e bb 8f a5 10 3e
       0.05254798 -0.001263664 -0.0033911706 0.14125656
0002b0 0e 88 83 3e 18 db c8 3a ab 98 05 bd cb 4e 02 be
       0.2568974 0.0015324084 -0.0326163 -0.1272537
0002c0 19 f7 82 3d 14 23 0a be 9a e6 fc 3c 12 f8 1b be
       0.063947864 -0.13489944 0.030871678 -0.1523135
0002d0 f3 e2 c4 bd 2f 90 d0 3d 54 eb 7c bc 94 56 d5 3d
       -0.096136 0.10183751 -0.015436966 0.10416904
0002e0 74 39 a4 bd f9 73 26 bc de 32 f7 bc 29 44 8b be
       -0.08018771 -0.010159486 -0.030175623 -0.2720044
0002f0 6d 19 22 3e 80 f4 88 3d b8 23 7c be 0c f3 0c be
       0.15830012 0.0668726 -0.24623 -0.1376459
000300 de f2 15 3e a3 6f 4c 3d a1 bf d9 bd af 0a cf 3c
       0.14643428 0.049911153 -0.106322534 0.025273649
000310 ad 46 33 3e 0f 81 82 3d 0b 8c 83 3d 1e 32 02 3e
       0.1750743 0.06372272 0.064231955 0.1271443
000320 8d fb 91 bd 49 0f 0e 3e fd 9d 49 be 25 a8 57 bd
       -0.07128058 0.13873018 -0.19689174 -0.05265059
000330 d3 83 f1 3d de b5 0b 3d bd 8a de 3c 69 38 c0 3d
       0.117927216 0.03410899 0.027165765 0.093857594
000340 0d da 47 bc e1 45 64 bc f5 9d ac bd 9f 79 4a 3d
       -0.012197983 -0.013932676 -0.084285654 0.049432393
000350 9c 66 cc bd 4f bf 9b 3c 2a 9d 85 bd be 7f a7 3d
       -0.09980509 0.019012121 -0.06524117 0.08178662
000360 14 9b 19 3e f2 1c a6 bb 4f 85 7d 3d ba 66 9e bd
       0.15000564 -0.0050693685 0.06189471 -0.07734437
000370 b1 04 45 3d f0 ac 94 be de 96 6c 3d 93 bc e7 3d
       0.048100177 -0.2903819 0.057761066 0.113152646
000380 e7 36 84 bd 81 59 db bd 33 10 bc bd a0 11 ee bd
       -0.06455784 -0.10710431 -0.09182777 -0.116244555
000390 89 e3 45 bb 4f 80 a3 3b 1e 1b f5 bb 69 ef 14 3a
       -0.0030195436 0.004989661 -0.0074800393 0.0005681427
0003a0 86 82 84 bc 84 93 a5 3d 85 99 0f be 5b 19 99 be
       -0.01617552 0.08084777 -0.14023407 -0.29902157
0003b0 ce a9 ac bd f4 57 87 3d 44 96 df 3d c2 03 17 3d
       -0.08430825 0.066085726 0.10917333 0.036868818
0003c0 31 94 f3 bd c4 20 dd bd b0 8a b1 3d 35 ed 01 be
       -0.118935 -0.10797265 0.08669031 -0.12688144
0003d0 f2 d9 8c bd dc 98 40 3c f5 6f 9a bd c9 5a 20 be
       -0.06877507 0.0117551945 -0.07540885 -0.15659632
0003e0 ee 71 74 bc 7f 80 20 bd 7b 3f 3f 3c c9 e3 92 bc
       -0.014919741 -0.039185043 0.01167285 -0.017930882
0003f0 c5 14 ad bc d1 08 3c 3d 12 75 f4 bd c1 da 1c be
       -0.021128068 0.045906845 -0.11936392 -0.15317823

lstm.weight_hh_l1 f4 [256, 64]
000000 98 4a 87 3d c5 92 50 bd d3 f2 21 3e 01 9d cb 3d
       0.066060245 -0.05092122 0.15815286 0.099420555
000010 de ce a8 b8 4a c6 ce 3c aa 4f 44 bd 0a 78 28 be
       -8.049396e-05 0.025241036 -0.047927536 -0.16452041
000020 25 54 13 bd 22 89 3b 3d ca 45 b6 bd c8 28 da bd
       -0.03596892 0.045785077 -0.0890003 -0.1065231
000030 72 99 66 bd a2 fb 17 3d 9c ec d7 3c 8a 36 61 be
       -0.05629868 0.03710521 0.026357941 -0.21993461
000040 cc f0 ac 3d 0c aa 6f bd 99 a5 29 3c 0b dd 19 be
       0.08444366 -0.05851178 0.010354423 -0.15025727
000050 8a 03 10 3d 28 76 04 3e 33 5d 26 bd a6 f8 df 3c
       0.035159625 0.12935698 -0.040616225 0.027340245
000060 73 ff 0a be 40 9e 9a 3b 23 02 24 39 95 5a 14 3d
       -0.13574009 0.004718572 0.00015641055 0.0362192
000070 9c 22 d2 bd b4 d3 9a bd af 55 2a 3d a8 f8 b9 bd
       -0.102605075 -0.075599104 0.04158562 -0.090806305
000080 1d 0d 8b 3c 8b af be bd b0 1c 07 be 23 49 45 be
       0.016974026 -0.09310826 -0.13194537 -0.1926618
000090 7d 10 0e bd 74 9a ae bc a1 ce 81 3d df 5f fc 3d
       -0.034683693 -0.021313883 0.063382395 0.123229735
0000a0 7b d0 d4 bc 63 35 a3 3d 9e ce 4c bc 0c 90 e4 3d
       -0.025978317 0.07969167 -0.012500433 0.11160287
0000b0 6e 86 23 3d 9b 2d db bd ea 66 25 3d 13 5c 0e 3e
       0.039923124 -0.10702058 0.04038135 0.13902311
0000c0 86 08 05 3c ed 7f 5b bd ab b2 f0 3d 09 ad c6 3b
       0.008119708 -0.053588796 0.11752828 0.006063108
0000d0 b1 11 9b bd 53 9f af 3c 22 9b c2 3d ec 39 0e 3d
       -0.07571734 0.021438276 0.095022455 0.034723207
0000e0 64 ab 88 3b 00 e0 c4 bc 17 33 b1 bb 1f 96 63 bb
       0.004170822 -0.024032593 -0.0054077017 -0.003472693
0000f0 d4 b0 3e 3d b4 f9 1a bd e0 3d 01 be 20 f3 50 3c
       0.046555355 -0.03783579 -0.1262126 0.012753278
000100 8c ef 3a be 86 b0 c1 3d cd 3c a9 3d 13 d6 62 bd
       -0.18255442 0.09457497 0.0826355 -0.05537994
000110 ed 14 7a be 11 e1 3f 3d 41 c8 3e 3a f9 bb de bd
       -0.24422045 0.0468455 0.0007277765 -0.10875697
000120 7d 0a 5d bd 11 66 aa bc c2 08 63 ba 54 b9 a1 bc
       -0.05396508 -0.020800622 -0.0008660668 -0.019741692
000130 b8 85 45 bd 3c ec c8 bd 08 0a 92 3e fc 23 7c 3d
       -0.048223227 -0.09810683 0.28523278 0.061557755
000140 04 9a af 3d 2a b9 1e be 2f ea 2f 3d 2d f7 fa bd
       0.08574298 -0.15500322 0.042947944 -0.12254176
000150 ed 72 6b bd 48 e9 e2 bc b0 91 92 bd d3 13 89 bd
       -0.05748265 -0.027699128 -0.07156694 -0.06693234
000160 dc 98 38 be 67 a5 2e be 33 92 51 be 60 bc 15 be
       -0.18027061 -0.17055283 -0.20465927 -0.1462264
000170 c4 38 09 3d 5b 25 73 bc 22 ef 70 bd 56 16 7b 3d
       0.0335014 -0.014840449 -0.058821805 0.061300598
000180 45 99 41 3d bf 73 39 3b d0 5f 9f bb 79 19 a2 bd
       0.04726531 0.002829775 -0.0048637167 -0.07915015
000190 58 93 08 3d 00 32 41 be 8c 34 54 bd db 9f 6d bc
       0.033343643 -0.1886673 -0.051807925 -0.014503445
0001a0 bd f4 17 bd 1e ed 88 bd a6 b0 19 bc ad 6a 78 3d
       -0.037098635 -0.066858515 -0.009380495 0.06064861
0001b0 a9 7c 7b bb c9 1c 2b be c6 9e ba 3d 26 b0 26 3e
       -0.0038373864 -0.167102 0.09112315 0.16278133
0001c0 20 5d aa bd 4e a9 07 3e 5a 71 23 3e 24 01 72 3d
       -0.083185434 0.13248178 0.15961209 0.05908312
0001d0 ef d6 83 bc 25 a0 d6 3d 75 44 93 3d 61 4e a7 bd
       -0.0160937 0.10479764 0.071907915 -0.081692465
0001e0 4d 19 d2 bc 54 3a 3e bd 89 53 a2 3d 09 fa ac bd
       -0.02564683 -0.046442345 0.07926089 -0.08446128
0001f0 ed c9 38 3d 61 00 00 3e 3d 5b 39 3d 30 c4 c0 bd
       0.045114446 0.12500145 0.045253027 -0.0941242
000200 d6 1f 40 be e9 22 c5 3c 05 c8 f6 3d 7a 77 a6 3e
       -0.18762144 0.024064498 0.120498694 0.32513028
000210 35 2f 66 be 00 aa 5b 3e a0 65 c1 bd e4 99 13 be
       -0.22478946 0.21451569 -0.094432116 -0.14414173
000220 04 2b 90 be 51 f5 4b 3c 0a c3 d4 3c cb 8d 1f be
       -0.28157818 0.012448625 0.025971908 -0.15581433
000230 54 cb d8 3d a5 99 d0 3b 61 65 8c 3d c3 d2 54 3e
       0.10585657 0.006365972 0.06855274 0.20783524
000240 13 ac 9b 3e 31 d6 ce bd 50 35 0e bc e0 38 d6 be
       0.3040472 -0.100994475 -0.008679703 -0.41840267
000250 84 cf 5a be 53 bb 8c 3e 94 c4 f8 3a 30 3e 07 3e
       -0.21368223 0.27486667 0.0018979483 0.13207316
000260 cd f9 31 be a0 78 4e bd da 2c 09 3d d2 30 97 bd
       -0.17380448 -0.050408006 0.03349004 -0.073823586
000270 99 77 fa bd b3 cf 95 3c 5e e8 6f 3e 41 0a 56 be
       -0.12229843 0.018287515 0.23428485 -0.20902349
000280 1d 44 09 be fb 0b c6 3d c3 ac 39 be 32 0b be bd
       -0.1340489 0.09670254 -0.1813231 -0.09279479
000290 d4 9b df bd 60 bc a1 be e2 f0 a4 bd 12 19 35 be
       -0.10918394 -0.3158903 -0.08053757 -0.17685345
0002a0 01 f1 aa 3d 0d f8 e7 3a a3 d4 e8 3d 92 b7 1c 3d
       0.08346749 0.0017697826 0.11368682 0.038261004
0002b0 fb 31 5f 3e d3 72 e3 bc f6 dc d7 3d 20 76 91 3e
       0.2179641 -0.027764713 0.10540192 0.28410435
0002c0 ad 0e 9b be 4c 6c 50 3e 47 3f 91 3d f0 c6 87 3e
       -0.30284634 0.20353812 0.07092147 0.26518965
0002d0 da 0d 8b be e8 3d ba 3d d0 1d 7f 3e 56 17 20 be
       -0.27159005 0.09093839 0.24913716 -0.15633902
0002e0 f7 1b 2b bd c4 f8 49 3e b4 21 eb bc 22 8a ef bd
       -0.041774716 0.19723803 -0.028702594 -0.116962686
0002f0 9c d4 33 3e b4 4f 0f 3c c8 2f 07 3d 8c 70 20 be
       0.17561573 0.00874703 0.033004552 -0.15667933
000300 47 43 78 3d 4c 2a 02 3e da 4b e2 bc 22 1c bd bd
       0.060611036 0.12711447 -0.02762406 -0.092338815
000310 86 1a 56 bd bf 65 e0 3d 52 09 25 be e7 08 fd bb
       -0.05227139 0.109569065 -0.16116837 -0.0077220085
000320 08 8e 1a 3c e2 cf 5f bd 97 4e e2 bc 65 c3 b1 bd
       0.009433277 -0.054641612 -0.027625365 -0.08679847
000330 87 a7 20 3e 7c a7 72 bc 1a c6 38 bd e8 df 5d be
       0.15688907 -0.014810439 -0.0451108 -0.21667445
000340 91 67 77 bd 9b 94 e6 bd de a1 40 bd 7e 4f 1f be
       -0.060401503 -0.11258813 -0.04702937 -0.15557668
000350 e9 2d db 3d 42 44 dc bd 7d 74 a4 bb 87 fb 85 bd
       0.10702116 -0.10755207 -0.0050187693 -0.06542116
000360 ae 52 9a 3d b7 bb 12 be 5a 3e f3 bd fe 59 02 bd
       0.07535301 -0.1432942 -0.11877127 -0.031824104
000370 2a 46 05 bd 03 82 9c bd bf 1a 02 3e a8 90 a5 ba
       -0.032537617 -0.07641985 0.12705515 -0.0012631612
000380 35 6d 3e bd f0 fc 80 bd 4b 6d bc 3d c2 af 28 3c
       -0.046490867 -0.06298244 0.092005335 0.01029581
000390 78 87 93 bd 59 ea 35 bd 62 c1 5b bc 48 28 c0 3d
       -0.07203573 -0.044412944 -0.013412805 0.09382683
0003a0 04 90 55 3d fb 8e 14 be f1 b6 a9 3d ed a2 b6 3d
       0.052139297 -0.14507668 0.082868464 0.089177944
0003b0 0c 46 02 3d 65 0d ab bc ba ca 3c 3d f8 38 ee 3d
       0.031805083 -0.02088041 0.046091773 0.1163196
0003c0 0b 73 2f be 9e 1f b4 bd 39 f3 e2 bd 49 3d 7f 3d
       -0.17133729 -0.08795093 -0.11081547 0.062314305
0003d0 09 66 d1 3d cf 0b bb 3d 35 ea 7a bb c1 6f 1b 3d
       0.1022454 0.09133112 -0.003828657 0.037948374
0003e0 b2 43 d1 bd 8b 65 b5 bd a8 5c 46 3d b3 66 c2 ba
       -0.1021799 -0.088572584 0.048428208 -0.0014831632
0003f0 3b 8c c3 bb 7b 68 1c be d8 3e 93 bd b3 b0 74 39
       -0.0059676445 -0.15274231 -0.07189721 0.00023335479

lstm.bias_ih_l1 f4 [256]
000000 0f 3b 93 bd f0 cc 8f bc 06 f5 b8 bd 54 dd 95 3d
       -0.07188999 -0.017553777 -0.090311095 0.073176056
000010 42 da 75 3b cb 1e 7f 3d 0d c6 e5 3d 91 86 d0 bb
       0.0037514125 0.062285226 0.11219416 -0.006363698
000020 7d b1 92 3c c3 2f 46 bd be f8 73 bd bd a4 6c bd
       0.017906899 -0.048385393 -0.05956339 -0.057774294
000030 f8 31 89 bd 70 de ab bd 27 4b e1 3d 27 ce a3 bd
       -0.06698984 -0.08392036 0.11000662 -0.07998305
000040 78 70 c0 3c 5a 80 5a bd 3a 9c c7 bc c8 cd ad 3d
       0.02349113 -0.05334506 -0.024366487 0.08486515
000050 c3 0d 6e 3d 8c 10 63 bc b6 61 a6 bc f3 65 ae bd
       0.058118593 -0.013858926 -0.020310264 -0.08515539
000060 1e 3b 71 3c 33 e2 49 bd 6e 57 4a 3e f6 59 23 3e
       0.014723567 -0.049287986 0.19759914 0.15952286
000070 7c d0 3c bd 8b 6d 1a bd 56 c1 a6 bc a3 e2 fa 3d
       -0.046097264 -0.037702125 -0.020355862 0.12250259
000080 f3 31 9c 3d 0b 92 b9 3b 23 4f 7b 3d e2 9c 26 3d
       0.076267146 0.0056631616 0.061354768 0.04067696
000090 5e 8a 59 3d 91 11 1e 3d 7b bd 48 3d 66 93 d6 bc
       0.053110473 0.03859097 0.049008828 -0.026193332
0000a0 b0 a7 12 bd 39 bb 20 3d 63 c2 58 3d a3 96 39 bd
       -0.03580445 0.03924105 0.052919757 -0.045309674
0000b0 9f 4f ae 3d 21 63 90 bd bc 6b 1d 3c a8 ee af 3d
       0.0851128 -0.07050157 0.009608205 0.08590442
0000c0 84 f3 44 3d 7d 89 cc bc f5 fe d0 bc 59 65 78 3d
       0.048083797 -0.024967903 -0.025512198 0.060643528
0000d0 1a 12 23 3d a7 d6 ab bd 7e 7b b6 3d db d9 80 3d
       0.039812185 -0.08390551 0.08910273 0.06291553
0000e0 e0 3a 2d 3e 54 a7 a3 3b 86 59 0c 3e 3e 67 22 3d
       0.1691699 0.0049943123 0.13706025 0.03964924
0000f0 31 34 3d 3e af 24 bb 3d ee 00 8d 3e 45 68 0d 3d
       0.1847694 0.09137856 0.27539772 0.034523267
000100 31 d4 4b bd e0 c8 1f 3d 42 bf 8c 3d a7 c7 f0 bc
       -0.04976291 0.03900993 0.06872417 -0.029392077
000110 cd 8f 0b bd f8 19 9b 3d cf 13 a5 3c 13 22 d6 3d
       -0.034072686 0.075733125 0.020151047 0.10455718
000120 48 ca 27 bd 61 35 ab 3d 80 90 5e 3d ac 3d 86 bd
       -0.040964395 0.083597906 0.054337025 -0.06554732
000130 1a bb 55 3d d8 33 42 bd 40 66 02 3e f6 11 e6 3d
       0.052180387 -0.047412723 0.12734318 0.112338945
000140 08 d9 54 3d 54 f8 f5 3d 81 3a 30 3d 62 e9 81 bd
       0.05196479 0.120102555 0.043024544 -0.06343342
000150 1c 09 34 3d eb 05 02 3e 8c af 14 3e d1 d3 21 3d
       0.043954 0.1269757 0.14520091 0.039508644
000160 f6 91 17 3e 9d 41 01 3e f0 c3 07 bd bf 96 94 3b
       0.14801773 0.12622686 -0.033145845 0.004534572
000170 97 ee fa 3d 17 bb c9 3d 23 28 bc 3c c2 1d 1e 3d
       0.12252539 0.09850138 0.022968357 0.038602598
000180 de b3 06 3e 09 4a b1 3d 5c d1 04 3e 8f 20 f2 3c
       0.13154551 0.08656699 0.1297049 0.02955654
000190 bb dc 21 3c b9 c7 8b bc 74 19 f5 3d ef 06 30 bd
       0.009879286 -0.017063009 0.119677454 -0.042975362
0001a0 76 76 d2 3c 46 be 55 3d 4e 83 b1 bd ce 11 29 bd
       0.025691252 0.052183412 -0.086676225 -0.041276745
0001b0 f3 fb 82 bb 30 f7 86 bd 6f fa a5 3a cb 38 28 3d
       -0.00399732 -0.06590116 0.0012663136 0.041069787
0001c0 b2 39 28 3d bb 73 21 3d 42 73 aa bd a5 d7 00 3e
       0.041070648 0.03941701 -0.08322765 0.12582262
0001d0 e7 9f 7c 3d dc 2f 61 bb 96 12 85 bd 08 cc b4 bd
       0.061675932 -0.0034360802 -0.064976856 -0.088279784
0001e0 fc f4 22 bd 5a d5 59 3d b8 5d 4c bd c4 23 d7 bc
       -0.039784417 0.053181984 -0.049894065 -0.026262172
0001f0 0b b5 1c 3d 9a 04 49 3d f4 57 eb bb 3a 3c ba 3d
       0.038258594 0.049076654 -0.0071821157 0.090935186
000200 d2 fa 3f 3c 55 3d 93 bd 66 81 e4 bb 06 18 7c 3d
       0.011717515 -0.071894325 -0.0069734333 0.061546348
000210 3d c5 0a 3d cb 0b dd 3b 42 b2 d0 bd 10 6d ba bd
       0.033879507 0.0067457906 -0.1019025 -0.09102833
000220 c6 9a 93 bd 8e b5 a6 3d f5 62 c3 bc 07 e0 e6 3d
       -0.07207255 0.081400976 -0.023850897 0.112731986
000230 ea 51 ce bd 03 a4 07 3d 2e 68 c8 bd fe ba a0 3b
       -0.100742176 0.0331154 -0.09785496 0.0049051037
000240 24 bb b4 bd 49 ea 2a bc de f1 16 bd 8c fb dd bc
       -0.08824757 -0.0104318345 -0.036851756 -0.027097486
000250 73 e4 81 3d fc 95 4a 3d a1 d2 34 3d 01 7c 50 bd
       0.06342401 0.049459442 0.044146184 -0.05089951
000260 29 0a 50 3d 2b ef cc 3d 6a 12 d1 3d ad 56 33 3d
       0.05079094 0.10006555 0.1020859 0.043783832
000270 ed 85 83 bd 62 2d ea 3d 49 ec 01 3e ee 14 ce bd
       -0.06422029 0.11434437 0.12687792 -0.10062586
000280 19 48 09 3d e2 7d f9 bd 62 4f 9f bd 9c 83 06 3e
       0.033516023 -0.12182213 -0.07778813 0.13136142
000290 d6 e9 cd bd c8 40 3d bd 83 e0 16 3d 06 9d 83 bb
       -0.10054366 -0.04620436 0.036835205 -0.0040165214
0002a0 46 d3 06 3d eb 44 1b be dc e5 22 3d 46 f0 b6 3c
       0.03291633 -0.15163009 0.039769992 0.022331368
0002b0 e6 aa e3 bd 5b 79 a8 bd ad 70 3b 3a 32 cb 94 bc
       -0.11116581 -0.08226272 0.0007150274 -0.018163297
0002c0 15 e2 e2 3b e6 ba 89 3d b9 81 da bd ed 09 c4 bc
       0.0069239237 0.06725101 -0.10669274 -0.023930514
0002d0 57 9b f0 3d 5e 6d 5d 3c 19 85 72 bd 0a 49 16 3d
       0.11748379 0.013514845 -0.059208963 0.03669075
0002e0 13 d1 b7 3d df 04 b2 bc 8d 74 9d bc d4 ef 0c bd
       0.089754246 -0.021730838 -0.019220615 -0.034408405
0002f0 a2 ff d8 3d 73 73 2e bd 65 03 8f 3d 46 12 a0 bd
       0.10595633 -0.04259057 0.06983069 -0.078159854
000300 85 2c 1f 3e ef ca 6f 3d e6 3c d9 3d 12 36 ff bc
       0.15544327 0.058543142 0.106073186 -0.031153712
000310 f5 62 0e 3e a3 c5 a6 3c fb d6 48 bd ba 4e 97 bd
       0.13904937 0.020357912 -0.049033146 -0.07388063
000320 d7 bd 88 bc 5a 3f 16 3e 8f 6e 35 3c 55 9e e4 3d
       -0.016692085 0.14672604 0.0110737225 0.11163012
000330 14 50 11 be 16 21 52 3e 08 1d 4a 3c 0c 26 fa bc
       -0.14190704 0.20520434 0.012336023 -0.03053572
000340 35 59 d7 3d 56 93 ee 3d 64 09 90 3d 61 fa 87 3d
       0.10515062 0.11649196 0.07033041 0.06639553
000350 7f 8f ec 3d c8 ef 96 3d c8 c5 32 3c b2 b1 2f 3e
       0.11550807 0.073699534 0.010911413 0.17157629
000360 6b 17 9e 3b 53 dc 1c 3e 8c 10 49 3e 7c af 2c 3e
       0.004824569 0.15318422 0.19635218 0.16863817
000370 94 c5 98 3d 32 a6 5f bd c7 dd 6f 3e 2e b6 05 3d
       0.0745956 -0.054601856 0.23424445 0.032644443
000380 30 6e dd 3d 25 6a d5 3d f1 1e de 3d ef 35 00 3d
       0.10812032 0.10420636 0.10845745 0.031301435
000390 56 bf d7 3d 65 65 0a 3e 20 07 5d 3e 26 51 fa bc
       0.10534541 0.13515241 0.21584749 -0.030556273
0003a0 d1 b9 e9 3d c7 01 1f 3e a9 90 0f bd 88 45 60 3d
       0.11412395 0.15528022 -0.035050068 0.05475381
0003b0 89 90 97 bd 93 87 20 bc 02 90 96 bd c3 e1 76 3d
       -0.07400615 -0.009797948 -0.07351686 0.060273897
0003c0 44 f0 6e 3c 88 56 76 3e bc 32 25 3e 51 e9 2c 3e
       0.014583651 0.24056447 0.16132635 0.16885878
0003d0 21 69 fd bd 9c 6a 48 3c ad ad 9c bd c6 ff 08 3d
       -0.123735674 0.012232449 -0.076503135 0.03344705
0003e0 3e 88 d0 3d 49 01 21 3d e5 32 8f bd 94 a4 d8 3c
       0.10182236 0.039307866 -0.06992129 0.026445664
0003f0 c2 c2 d8 bc ef f0 14 3b 3e 6a 06 3e bb 67 23 bc
       -0.026460055 0.0022726615 0.13126466 -0.009973462
