LogAnomaly/result/deeplog/deeplog_epoch208.pth (torch_old, 639756 bytes, 30 tensors)

lstm.weight_ih_l0 f4 [256, 1]
000000 96 dc 41 be 60 3c 9a bc 2a 67 29 bd 3b 6e a8 3d
       -0.18931803 -0.018827617 -0.04135815 0.0822415
000010 d2 b6 0b be 26 4a 60 3d 08 f0 bb bd c1 5a 62 3d
       -0.13643959 0.054758213 -0.09176642 0.05526233
000020 f0 ab 19 3e a9 0a 9a 3d c0 3e 2b 3e 6c 08 a1 bd
       0.15006995 0.075215645 0.16723156 -0.078629345
000030 2c ce cc 3d c5 09 e0 3d 52 b9 9d bd bc 07 89 3e
       0.10000262 0.109393634 -0.07701363 0.26763713
000040 71 07 24 3d 23 fa 4b 3d cc 45 15 be 46 19 0e 3e
       0.04004616 0.049799096 -0.14577407 0.13876829
000050 88 a2 21 3e a9 43 97 3d 40 3b 18 3d cc 61 3c bd
       0.15784657 0.07385952 0.03716588 -0.045991704
000060 91 cc 35 3e f6 29 55 bd 5e 11 af bb 04 97 47 3d
       0.17753817 -0.05204197 -0.0053426465 0.048728004
000070 ad d8 93 3d 1a 75 24 be 8b de a7 3d d8 20 2e 3c
       0.07219062 -0.16060296 0.081967436 0.010627948
000080 ad 1c 16 3e 95 04 b7 3d 26 0e 44 3c a4 bf 65 3d
       0.14659376 0.08936421 0.011966264 0.056090966
000090 9c c7 58 3e dd d9 20 3c 5c 51 fa 3d f1 c6 0f be
       0.21169895 0.009817568 0.12222549 -0.14040734
0000a0 06 c2 80 3c 9f e1 13 be da ca 06 3e ef ce c6 3e
       0.015717518 -0.14441536 0.13163319 0.38829753
0000b0 7c ee cc bd 0c 3e bf 3d d4 f6 0c 3e f5 f1 42 be
       -0.10006425 0.093380064 0.13766032 -0.19037612
0000c0 2b 46 34 3e e9 b2 15 3e ed 8a ac 3e 93 6d de 3d
       0.17604892 0.1461903 0.33699742 0.108607434
0000d0 07 be b4 3d 26 9b 99 3e 37 6f 12 3e 03 c8 4e bd
       0.08825307 0.3000118 0.14300238 -0.050483715
0000e0 85 32 29 be d6 0f 6f 3c f4 48 ca 3d 4c 91 18 3d
       -0.16523178 0.014591178 0.09877196 0.03724794
0000f0 45 bb 2e 3d dc f6 d4 3d 0b ae c9 3d ca f9 1c be
       0.042659063 0.10398647 0.09847649 -0.15329662
000100 a9 39 79 bd 4b 7a 58 3d 62 ef e1 3d fa e2 9e bc
       -0.060846005 0.052851003 0.11031987 -0.01939534
000110 8a b4 b6 bd b7 fe 45 3d 9d bb ec 3d 12 21 3a 3d
       -0.08921154 0.048338618 0.11559222 0.045441695
000120 b9 5c 2d bd 3c 34 8b 3e e2 1d 27 3e ee 0e e8 bd
       -0.042324755 0.2718829 0.16319993 -0.113309726
000130 0d 02 d4 bc e7 8d 7c 3d 9e f8 31 3e a1 46 75 3e
       -0.025879884 0.061658766 0.17379996 0.23952724
000140 dd 8c b3 3c 56 69 d9 3d b7 c2 dd bd c7 51 ba 3c
       0.021917755 0.10615794 -0.108281545 0.022744073
000150 c8 0d d6 3b 01 93 5b 3e 79 9e e0 3d d3 e9 56 bd
       0.0065324046 0.21442796 0.10967726 -0.052469086
000160 48 f1 47 3b a3 b1 98 3d 6d 0f fa be d0 41 b0 3d
       0.0030508805 0.074557565 -0.48839894 0.08606303
000170 1b c7 74 bd e2 09 89 be 74 f0 5f 3e eb 4f 04 3d
       -0.059760194 -0.26765352 0.2186907 0.03230278
000180 6d 28 ed bb 9a 84 f4 3d ef 14 e9 3d 86 ca 8b 3d
       -0.007237485 0.11939354 0.11380946 0.06825738
000190 4d 34 9f 3d 64 e2 34 3e 13 97 87 3d f6 8d 10 3d
       0.077736475 0.17664486 0.06620612 0.035291635
0001a0 07 46 f7 3d 9a 86 63 3e d8 d7 28 3e 7e e6 89 3d
       0.120739035 0.22219315 0.16488588 0.06733416
0001b0 12 30 03 be c3 99 0f bd e0 d6 5e 3d 63 52 db bd
       -0.12811306 -0.035058748 0.05440414 -0.107090734
0001c0 b4 a5 5c 3d bf 0c b3 3d 40 76 9a 3e 44 17 6e 3e
       0.053868964 0.087426655 0.30168343 0.23251063
0001d0 d9 16 5c 3d 59 33 ec 3c df 25 08 3e 57 7b f1 bc
       0.053732727 0.028833078 0.13295697 -0.029477758
0001e0 cb f0 33 be 7b ae 27 3e c9 10 dd 3e ad 08 0f bd
       -0.17572324 0.16375153 0.4317687 -0.034920383
0001f0 4c af bc 3c 38 3d 6c 3d 17 da a8 bd b1 c2 14 be
       0.023032807 0.05767557 -0.08244722 -0.14527394
000200 7e 07 c9 3e 5b d6 02 be ae 49 9e 3d 2e cf 01 3d
       0.3926353 -0.12777083 0.07728897 0.031691723
000210 5b b3 5f 3e c3 41 2a be b1 2b 31 bd ac d1 f7 3d
       0.21845762 -0.16626649 -0.043254558 0.121005386
000220 0f db 11 3e 94 d0 2d bd 6e 68 5e bd 76 10 5f 3e
       0.1424372 -0.042435244 -0.05429881 0.21783623
000230 e2 43 6a be 58 d2 0e 3e 32 85 1c be 43 96 b8 bd
       -0.22877458 0.13947427 -0.15285185 -0.09013035
000240 37 fc 4b 3e 13 14 88 be 02 2c 70 be 30 1a 47 3e
       0.19920431 -0.26577815 -0.23454288 0.19443583
000250 e8 d4 30 3e bf 51 15 bd 33 84 01 be 5d 8b 44 3e
       0.17268717 -0.036454912 -0.12648086 0.19193788
000260 7d 58 bb 3d 6a f9 9f 3e 1d 82 cf be 8c bb 94 3c
       0.09147737 0.31244975 -0.40528956 0.018155836
000270 81 24 e8 3c d6 c3 28 be f4 53 67 3f 23 78 2f ba
       0.028337719 -0.16480955 0.9036248 -0.0006693622
000280 1b c3 e8 3e e5 56 e3 3c ed b3 ab 3d 03 54 e3 bc
       0.45461354 0.027751395 0.083839275 -0.02775002
000290 ed 36 99 be 1d d5 45 be 7e 53 6b be 73 13 34 be
       -0.29924718 -0.19319578 -0.22981068 -0.17585544
0002a0 c7 2f 2c 3e bc b7 29 3d 30 ac 10 be c3 ec d1 bf
       0.168151 0.04143499 -0.14128184 -1.6400379
0002b0 ae d8 b1 3e 26 db 9f 3e de 9a 7d 3d 15 08 f1 3e
       0.34735626 0.31221884 0.06191527 0.4707648
0002c0 cb fa df bd 6c 3b 12 be bb 74 12 be 2e e8 01 bd
       -0.10936507 -0.1428048 -0.14302342 -0.031715564
0002d0 3a cd b7 be 95 42 e5 3e 1f 33 16 3d 5e c9 28 3e
       -0.35898763 0.4477736 0.036669847 0.16483065
0002e0 1b c4 af be e2 2d 8e 3d 87 97 66 3d 18 71 93 bd
       -0.34329304 0.06942345 0.05629685 -0.07199305
0002f0 46 bc 0a 3e ad 23 96 bd 5a f9 9e 3d 2f 68 a6 be
       0.13548383 -0.07331023 0.07762404 -0.3250136
000300 ef 18 28 3e 34 ad 95 bc 58 1d 21 3e 2c 95 a4 3e
       0.16415761 -0.018271066 0.1573385 0.3214506
000310 78 2e 2a 3e 1f ee 77 3d 87 72 08 3e f1 1b 5d 3e
       0.16619289 0.060529824 0.13324939 0.2159269
000320 eb c5 59 3d 7c d2 8f 3e d1 a8 49 3d 63 56 7a 3e
       0.053167265 0.28090274 0.04923326 0.24447016
000330 aa 74 7f 3e b7 de 0f 3e c3 e4 64 3e ef d2 89 3e
       0.24946848 0.14049803 0.2235289 0.26918742
000340 54 dc b9 bd e9 35 00 3d a1 c3 92 3e 22 e0 23 3e
       -0.090752274 0.031301413 0.28664878 0.16003469
000350 84 f7 81 3e 99 38 67 3e 3f 6b 48 be df e7 2e be
       0.25384152 0.22580184 -0.19572161 -0.1708064
000360 ba a4 2e be 32 da 66 3d 99 dd df 3b ee ff dc 3d
       -0.17055026 0.05636043 0.0068318364 0.10791002
000370 50 93 ef bc 7d 19 b4 be 14 fe de 3d b5 8b 8b 3e
       -0.029245049 -0.35175696 0.10888305 0.27255026
000380 37 37 d0 bd fb 1c aa 3e 55 77 a1 3d b4 47 9c 3e
       -0.101667814 0.33225235 0.07884089 0.30523455
000390 8c b4 b4 bd ff c5 5f be 54 ae 9f 3d 63 4b 93 be
       -0.08823499 -0.21852873 0.07796922 -0.28768453
0003a0 3d 7a 47 be 34 71 8a 3e 1b f2 45 3e eb 78 94 be
       -0.19480224 0.27039492 0.19330637 -0.28998503
0003b0 d6 7a 8c 3e 48 0e 83 3c f5 15 5b 3e 02 e8 22 be
       0.27437466 0.01599802 0.21395095 -0.15908816
0003c0 69 0a 3c be 42 91 f2 bd 92 aa e2 3d 17 62 5a be
       -0.18363346 -0.11844112 0.1106769 -0.21326481
0003d0 2d 04 9a 3d 04 b5 bd bd 16 86 70 3d 31 a3 79 3d
       0.07520328 -0.092630416 0.058721624 0.060946647
0003e0 df 34 22 3e 7f e0 5c be 01 c2 6b 3e 38 ea 09 be
       0.15840481 -0.21570013 0.23023225 -0.13468254
0003f0 61 32 f5 3d 2b 55 0b 3e 96 21 46 3e 72 9b b7 3d
       0.119725 0.13606708 0.1934875 0.08965196

lstm.weight_hh_l0 f4 [256, 64]
000000 fc 0c 70 3e 5b 2a 16 be 37 5f 86 3c 8c e4 9c 3d
       0.23442453 -0.14664595 0.016402824 0.07660779
000010 bf ca 6f 3e 4f 96 e3 bd c9 0b a0 bd 35 53 8c 3d
       0.23417185 -0.111126535 -0.07814748 0.06851808
000020 8e a4 1a 3e 37 92 d2 3d 68 a4 71 bc 46 3a 00 be
       0.15101835 0.102817945 -0.01474867 -0.1252223
000030 c3 5a 3a be ec 02 a8 3d 19 fc 06 be 40 19 7a 3e
       -0.18198685 0.08203682 -0.13182105 0.24423695
000040 cb 0a 34 3e 52 26 db bc 22 88 14 3d cd 94 11 3e
       0.17582242 -0.026751671 0.03626264 0.14216919
000050 e5 b1 4d bd f7 6b c7 3d dc d9 d4 bd c6 41 4f 3e
       -0.05021848 0.097373895 -0.10393116 0.20239934
000060 a1 0c 6d 3e b7 0c 5e 3e 58 20 b1 3d 75 5a b7 3d
       0.23149349 0.21684538 0.08648747 0.089528
000070 a2 4e 94 3d 39 ba 81 be 79 cd 76 3d 84 d2 f6 3d
       0.072415605 -0.2533739 0.060254548 0.120518714
000080 91 c2 80 3d 4a fe 79 3d d2 0b 81 3d 03 04 23 be
       0.062871106 0.061033525 0.06301083 -0.15919499
000090 bb 06 8f bd dc dc 30 be 8d 8b d0 bd 3e 24 92 be
       -0.069837056 -0.17271751 -0.10182867 -0.28543276
0000a0 74 6f ad 3d 22 f5 da bd 54 66 b5 3d 31 3c c4 bd
       0.084685236 -0.106912866 0.08857408 -0.09581793
0000b0 1e cd 69 3d be 01 20 3e 5d a8 0d 3d 38 55 84 3e
       0.05708038 0.15625665 0.03458439 0.25846267
0000c0 75 ba 8a be a4 60 a6 bd c6 a8 2b 3e 3a 41 9e be
       -0.2709538 -0.081239015 0.167636 -0.3090914
0000d0 d8 c8 25 3d a8 38 2a 3e 30 65 d1 3d 35 30 4d bc
       0.040474743 0.16623175 0.10224378 -0.0125237005
0000e0 ac 1b a5 bd 9f ba ac 3e e1 69 09 bd 58 5f b7 bd
       -0.080619186 0.3373613 -0.03354824 -0.08953732
0000f0 07 c1 f8 3d 89 59 08 bd 61 50 22 be ab b7 88 bd
       0.12146192 -0.033288512 -0.15850975 -0.06675657
000100 df 3e 0f bc 8e 7d de bd 26 2d 8f 3e bc 09 2e 3e
       -0.008743017 -0.108637914 0.27964133 0.16995901
000110 ca 98 2c 3e 04 1e 32 be f1 d7 b1 3d db 47 a6 3d
       0.1685516 -0.17394263 0.08683766 0.08119174
000120 52 d2 1a 3e 3d 83 df 3d 71 34 fc bd 2a 51 c7 3d
       0.15119293 0.109137036 -0.1231469 0.09732278
000130 13 08 5c be 0c 70 37 3e 7f 65 07 be f7 17 9e be
       -0.21487455 0.17913836 -0.13222311 -0.3087766
000140 d6 45 6e 3e 7a 6d 0b bd 69 84 2b be 56 52 58 3e
       0.23268828 -0.03403995 -0.16749729 0.21125159
000150 45 21 12 3e e5 c6 89 bd 6e dd 36 be 0c 74 e4 3d
       0.14270504 -0.06727389 -0.17857906 0.11154947
000160 13 73 c7 3e 42 49 d5 3d 58 3b e1 bd 61 89 d3 3d
       0.38954982 0.104143634 -0.10997647 0.10328937
000170 73 73 58 3e 3d a2 91 bc f0 74 2c 3d 93 eb 38 3e
       0.2113779 -0.017777557 0.042103708 0.18058614
000180 46 e1 7a 3d bf d4 0e 3e 41 13 9a 3d 5b 09 c7 bd
       0.061249994 0.13948344 0.07523204 -0.09718581
000190 c0 da 58 bd 5f 41 6c be 63 db 1b be 0f 66 b3 3b
       -0.05294299 -0.23071812 -0.15220408 0.005474813
0001a0 cf 16 63 3e 55 03 8d bd 67 91 d9 bd 36 59 a7 3d
       0.2217667 -0.06885401 -0.106234364 0.081713125
0001b0 0e 72 33 3d 0b 59 23 3e 68 63 49 3e 49 7a 9b bd
       0.043809943 0.15951936 0.19666827 -0.075916834
0001c0 d5 b5 82 be 5a dc 07 be 44 55 45 bd 53 20 7e be
       -0.25529352 -0.13267651 -0.04817702 -0.24817018
0001d0 5d 6e ef bb b9 b6 ed bb 7e 25 71 3e 39 5c 1f 3e
       -0.0073068575 -0.0072544483 0.23549458 0.15562524
0001e0 7f 24 59 bd eb 30 bf 3e 0f 65 39 3d 98 30 72 be
       -0.05301332 0.3734201 0.045262393 -0.2365135
0001f0 d7 4a ee 3d f9 02 12 be ab 51 36 3d 1c 5d d4 bd
       0.11635368 -0.14258946 0.04451148 -0.10369322
000200 ed 53 eb 3d 60 e7 82 3d 6c 8d e8 3d 3a 68 40 3e
       0.11490617 0.063917875 0.11355099 0.1878976
000210 52 a6 0e 3e c1 ac 5b be a6 d5 45 be b0 da 48 3e
       0.13930634 -0.21452619 -0.19319782 0.19614673
000220 34 54 3f 3e 1e b2 f1 bc 42 6e 6d bd 38 a7 b0 3d
       0.18684465 -0.029503878 -0.05796648 0.086256444
000230 b1 0a ab bd 39 a0 33 3d 20 c1 18 be 44 94 b5 3d
       -0.083516486 0.043853972 -0.14917421 0.0886617
000240 2f 13 0a 3e d7 b6 57 be 6c 56 1f bb 3c 95 33 3e
       0.1348388 -0.21065842 -0.0024312986 0.17537397
000250 56 c2 51 3d 20 d8 92 3d 01 fa d5 bd 69 e3 11 3d
       0.051210724 0.07170129 -0.10448075 0.035617266
000260 d5 bf 2e 3e 62 02 74 3d 13 6a 2d bd b8 4a 81 3e
       0.17065366 0.059572585 -0.04233749 0.25252318
000270 fe 87 11 3d f5 16 bf be 9e c6 ca 3d a0 17 2a 3d
       0.035530083 -0.37322202 0.099011645 0.041526437
000280 69 0e e5 bd f3 d8 ab 3d 59 91 26 3e 4e 09 c1 bd
       -0.11184389 0.08390989 0.16266383 -0.09425603
000290 60 4c a1 3c 40 2f cf bd 8a 83 e4 bc 9a ee 6f be
       0.019689739 -0.10116434 -0.027894754 -0.23430863
0002a0 a9 54 d7 3d 57 04 ce bd f3 57 98 bd 3d 68 6d bd
       0.105141945 -0.100594215 -0.0743865 -0.057960737
0002b0 39 dd 0c 3d e4 a3 92 3d 73 c5 61 3e 25 38 9d ba
       0.034390662 0.07160166 0.22047977 -0.0011994882
0002c0 c3 fc 9d bd 50 92 de 3c 6e c5 e8 bd 6c f0 3b bd
       -0.07714226 0.027169377 -0.11365782 -0.04588358
0002d0 3f 54 88 3d 1a bc 70 3d 64 65 b7 3d 04 af 3e 3e
       0.06656694 0.058773138 0.089548856 0.1862145
0002e0 78 02 63 bd d3 dd 2a 3e 18 ae bf bc ca 6c ce be
       -0.055422276 0.16686182 -0.023398444 -0.40317374
0002f0 ff 74 10 bd cb 94 e9 bd 09 8a 7b 3d 55 3d 82 be
       -0.035267826 -0.11405333 0.061410937 -0.25437418
000300 1e b0 d0 3c f4 67 61 be dd 7d 7e bc 09 43 64 3d
       0.025474604 -0.22012311 -0.015532938 0.055727992
000310 4c a8 57 3d d9 f7 ad 3d b6 6b b6 3c ee ee ca bd
       0.052650735 0.08494539 0.022268157 -0.099088535
000320 f2 94 8c bd 54 81 28 bd b3 6d cd 3c 3c 24 c4 3d
       -0.068643466 -0.041138962 0.025076723 0.09577224
000330 7e d4 1e bd e2 f2 02 3d a4 80 11 3d 3e 6d 7e 3d
       -0.038776867 0.031969912 0.035523072 0.0621159
000340 c2 e8 79 3b a9 d4 a7 bd 1e 19 0c be d6 e1 19 3d
       0.003813312 -0.081948586 -0.13681456 0.03756889
000350 30 0a 7b 3d 49 c1 68 bc 26 1c 5b be ae 0e 7a 3e
       0.061289012 -0.014206239 -0.21397457 0.24419662
000360 6c cc 61 bd 54 1d 0f 3e 30 56 ab 3c 05 40 87 3d
       -0.055126593 0.13976032 0.02091512 0.06604008
000370 e6 60 d1 3d c4 12 71 be c7 10 dd bc ed 13 26 bc
       0.1022356 -0.23542315 -0.02698554 -0.010136587
000380 79 e1 ac 3d b2 82 1a bd 36 6d 00 3e a0 90 4e 3d
       0.08441443 -0.037722297 0.1254166 0.050430894
000390 f1 b1 70 bd 14 41 37 be eb c9 d3 bd b9 2f 91 be
       -0.05876345 -0.17895919 -0.10341247 -0.28356722
0003a0 a8 f3 85 bd 9d ea 90 3d a7 3f ef bd a0 90 ca bc
       -0.06540614 0.07075999 -0.116820626 -0.024727166
0003b0 10 d0 77 3e 80 b7 42 bd 5c 11 1e be ba 2d 93 3e
       0.24200463 -0.04753828 -0.1543631 0.28745824
0003c0 4b fc d5 3c b5 2e 64 3c f7 cb 44 3d 7c c5 b1 bd
       0.02612128 0.013927151 0.04804608 -0.08680245
0003d0 11 54 d1 bd b8 b3 ac 3d 8d fb 31 3d 7c a1 ec 3d
       -0.102211125 0.08432716 0.04345279 0.11554238
0003e0 e3 00 df bd a9 26 f3 3d 30 62 0d 3e 8a 95 99 bd
       -0.10888841 0.11872608 0.13806987 -0.074992254
0003f0 3d da e5 3d ae 68 21 bd c6 68 c4 bd 93 ad 4d bc
       0.11223266 -0.03940647 -0.095902964 -0.01255359

lstm.bias_ih_l0 f4 [256]
000000 d1 89 b2 3d 73 1e ad 3d ca c9 58 3d 1d 5f 9b bd
       0.08717693 0.08453073 0.052926816 -0.07586501
000010 cd b3 39 3e 11 b2 09 3c c6 5c 3b 3e 32 a3 7c bc
       0.18134995 0.008404271 0.18297109 -0.015419768
000020 f4 d1 63 3e e4 45 54 3e d9 29 ec bd ea 17 54 3e
       0.2224806 0.20729786 -0.11531419 0.20712247
000030 d0 c1 37 3d 3f ad bb 3d 3f 9b d1 3d 30 03 44 3e
       0.04486257 0.091639034 0.10234689 0.19141841
000040 0a e6 17 3e 5f 25 11 3e 00 34 1e 3e 12 50 20 bd
       0.14833847 0.14174412 0.15449524 -0.03913886
000050 82 fc 27 bd 01 3c 81 3d 94 a9 a6 3d e8 b2 d4 3d
       -0.041012295 0.06310273 0.08137813 0.10385686
000060 de 8a ff 3d c0 f7 3f 3e 4b 91 88 3d 9e 98 9c 3d
       0.12477659 0.18746853 0.066683374 0.07646297
000070 ee ca b2 bc a2 5b 6a 3e 8c 30 78 3e 83 ca c3 bd
       -0.02182528 0.22886518 0.24237269 -0.095601104
000080 6b 55 05 3c 9e 71 d7 3d 6c 5e 00 3d 77 ac c9 bd
       0.008138041 0.10519718 0.031340048 -0.09847348
000090 cd c4 2d 3e 44 b2 9c bd 2d 42 3e 3d 89 62 93 bd
       0.16969605 -0.07651189 0.04644983 -0.071965285
0000a0 b4 71 07 3e bf ca f0 bc 0d 90 9a bc 8a 54 2b 3f
       0.13226968 -0.029393552 -0.018867517 0.6692587
0000b0 3f 39 33 3d 29 66 83 3e 93 00 08 3d c4 89 bb 3d
       0.043755766 0.2566388 0.033203673 0.09157136
0000c0 14 6a 58 bd 2a d3 a2 3d 02 bd ad bc 70 69 c2 bd
       -0.05283554 0.079504326 -0.02120829 -0.09492767
0000d0 62 6d 96 bd d6 20 92 3e df 0f b0 3d 94 d2 1b 3c
       -0.07345082 0.28540677 0.08596777 0.009510655
0000e0 39 78 2f 3e 4b 93 37 bd c1 4f 7a 3d 5e 32 8b 3d
       0.17135705 -0.044818204 0.061111216 0.06796716
0000f0 26 1f fc bc b9 5c ee 3d 72 0b 63 be 21 4c e4 3c
       -0.030776571 0.11638779 -0.22172335 0.027868332
000100 04 4d 22 bd 69 c5 23 3e 5f 01 9a bd 0d bc a7 3d
       -0.03962423 0.15993275 -0.07519793 0.08190165
000110 29 53 a4 3d 42 ee ba 3d fe 72 c5 3d 3a 05 c5 3d
       0.08023674 0.09127475 0.09641074 0.096201375
000120 10 ef 8d 3d c3 f3 c9 3d 50 f6 10 be 1d 29 0c 3e
       0.06930363 0.09860947 -0.14156461 0.13687558
000130 2c f4 31 3d 6a 37 51 3d c2 34 52 3b 60 99 ad bd
       0.04344575 0.051078238 0.0032074903 -0.084765196
000140 42 bd 3b 3d 17 d4 64 bc 61 d6 d0 bd 15 69 dd bd
       0.045834787 -0.013966582 -0.101971395 -0.108110584
000150 24 43 1c 3d d5 d6 d1 3d 57 18 d4 bd 8c 91 88 ba
       0.038149968 0.10246054 -0.10356205 -0.0010419353
000160 fd 8a 47 3e 5e 50 01 3e 89 14 8b 3d ef 29 4f 3c
       0.19486614 0.12628314 0.06791026 0.012644275
000170 dc 7e 45 3e 29 1b a1 3d d7 9c 26 be 14 c5 e0 3d
       0.19286674 0.078665085 -0.16270767 0.1097509
000180 93 1f 37 bd 67 4d 90 3d 77 b6 01 bd af 13 be 3c
       -0.044707846 0.07046013 -0.031668153 0.023202745
000190 e1 ea 3e 3d 1b 59 f8 bd c2 5b ac bc 5a cf 8f 3b
       0.046610717 -0.121263705 -0.021039847 0.004388732
0001a0 6b e2 bb bd 88 d6 b4 bb ea d8 06 3e d3 44 8b be
       -0.09174045 -0.005518738 0.13168684 -0.27200946
0001b0 27 67 ce bd 3b 9a 3d 3e b8 25 d1 3d b6 93 db 3d
       -0.100782685 0.18515866 0.102122724 0.10721533
0001c0 8d 4f 93 3d 29 b0 87 3c cc 5f 15 bb 50 70 8e bd
       0.071929075 0.016563492 -0.0022792695 -0.06955016
0001d0 2a ba 9d bd a7 83 ce 3d d5 8c b1 3d 11 85 3a 3c
       -0.077015236 0.100837044 0.0866944 0.011384265
0001e0 85 37 d5 3d 86 fd 08 3e 97 93 4a be 7e 15 01 3e
       0.1041098 0.13377962 -0.19782864 0.12605855
0001f0 31 70 d3 3c 3c 0b 53 3d 48 70 9b 3d 71 83 1a 3e
       0.025810333 0.051524386 0.07589775 0.15089203
000200 db 83 38 3d d1 cb 43 3e fa 3e 8e bd 40 9b 41 be
       0.045047622 0.19120719 -0.069456056 -0.1890688
000210 0c 08 0d 3e 9b 09 e2 3d 6a 1e 41 be 48 8f 5f 3e
       0.13772601 0.11036988 -0.18859258 0.21832001
000220 38 2a 63 3e b5 db 05 3e 18 af aa bd 99 4f ef bc
       0.22184074 0.13072093 -0.08334178 -0.02921276
000230 bd 1c 3e 3e f5 02 e2 3a e2 d3 52 bd bd 64 c6 3d
       0.1856565 0.0017243313 -0.0514716 0.09687183
000240 ab 90 6a 3e 32 7a 30 be 01 f2 42 3d 37 a5 04 3d
       0.22906749 -0.17234114 0.047594074 0.032384124
000250 61 b0 06 3d ad ed 23 3e fe 67 a9 bd fd d1 a0 bd
       0.03288305 0.16008635 -0.08271788 -0.07852552
000260 4d 1c 76 bd 10 a0 09 3e cd ee 3f 3d 3e a0 be 3d
       -0.060085583 0.13439965 0.046858598 0.093079075
000270 98 ae 53 bc ff 2a a4 be 3b 5e 16 3e fa ef 97 3c
       -0.012920044 -0.32064053 0.14684384 0.018547047
000280 0e 8b 6d be 00 a2 0c be 3f fa 1d 3e c0 05 0e 3c
       -0.23197576 -0.13733673 0.15427493 0.008668363
000290 90 be fe 3c 9e a0 7b bc 0f 48 e6 bd 1d 28 88 3d
       0.031096727 -0.015358118 -0.11244213 0.06648276
0002a0 f5 e5 7c 3c c5 17 d4 bd 42 f5 bc bd 18 14 a6 3d
       0.015435685 -0.10356096 -0.09226467 0.08109301
0002b0 88 67 f9 3b 08 3a 18 3e 05 b1 82 3d 47 32 42 be
       0.007611219 0.14865887 0.0638142 -0.18964492
0002c0 b6 81 de bc e8 0c 0b bd af 72 9d 3c 5b 18 23 3d
       -0.02716146 -0.033947855 0.019219724 0.03981815
0002d0 cd 4b 1f 3e 50 31 8c 3e 68 10 39 bd 25 50 01 be
       0.1555626 0.27381372 -0.04518166 -0.12628229
0002e0 a5 a6 00 be 06 db e7 3c b0 a7 2f 3e 01 47 6c 3d
       -0.1256357 0.02830268 0.17153811 0.057684902
0002f0 51 e6 24 be db e3 71 bd 1b d4 64 bd 37 73 15 be
       -0.16103484 -0.05905519 -0.055866342 -0.14594732
000300 86 28 99 3e a4 4d 06 bd 7f 2c 31 bd 61 04 40 be
       0.2991373 -0.032788888 -0.043255325 -0.1875167
000310 0a e7 6c 3e 9f ee a0 3d a0 d1 ce 3d a0 c7 e8 bd
       0.2313501 0.07858013 0.100985765 -0.113662004
000320 36 ae 08 3d 81 1e 96 b9 fd ae 26 3e ec ee 15 3c
       0.033369265 -0.00028632957 0.1627769 0.009151202
000330 bf 1c 45 3e 6c d4 71 bd d0 58 ec 3d f5 5f c3 3d
       0.19249247 -0.059040472 0.11540377 0.09539787
000340 ac c6 b1 3d 89 0b 8e 3c 6f 37 60 3e 9a 3a 6d bd
       0.08680472 0.017339485 0.21896146 -0.057917215
000350 ad 72 12 3d ed 88 3f 3d 82 74 34 3d c1 98 61 3d
       0.035753895 0.046761442 0.044056423 0.055077318
000360 ae ae 00 3d a4 fd 04 3d 76 18 45 3e 7d 40 5b 3c
       0.031416588 0.032468453 0.19247612 0.013382074
000370 49 20 fb 3d 7e f8 a1 3e 51 5b 90 3e 9f af 0f be
       0.12262017 0.31634897 0.2819467 -0.14031838
000380 6c f6 17 3e 82 99 0a be 0e 1f ef 3d 55 2b e0 bd
       0.14840096 -0.13535121 0.11675845 -0.10945765
000390 bd 11 d0 3d 79 d7 0c 3e 31 42 e3 3d 02 38 87 3e
       0.10159633 0.13754071 0.110966094 0.26409918
0003a0 38 41 26 3e d2 54 5d 3c a8 97 c3 3d fe c3 e3 3e
       0.16235816 0.013508992 0.095504105 0.44485468
0003b0 eb da 4a 3e 05 a2 dd 3d 82 20 2a bd eb b2 08 3e
       0.19810073 0.108219184 -0.041534908 0.13349502
0003c0 d2 12 05 3e db 8b e8 3d 68 6a 30 3e 8c 39 ad 3c
       0.1299546 0.113548 0.17228091 0.021145605
0003d0 02 00 6a 3e 45 22 59 3e 60 cf 5e 3e 60 ce 72 3e
       0.22851565 0.21204479 0.21758795 0.23711538
0003e0 8d 5e 1c 3e 83 1d 95 3d 4e 17 0b 3d 9a cd 34 3e
       0.15270443 0.072810195 0.033957772 0.17656556
0003f0 e8 11 8b bd d0 61 4c 3d 74 f7 3d be 7d 41 94 3e
       -0.06790525 0.04989797 -0.18551427 0.28956214

lstm.bias_hh_l0 f4 [256]
000000 fb e5 2a 3e df 42 94 3d c4 6d 88 3d 2d 64 a3 3d
       0.16689293 0.07239317 0.06661561 0.079780914
000010 e7 2a 04 3e b4 7b 88 3d b5 be 0e 3c a1 60 86 3d
       0.12906991 0.066642195 0.00871246 0.06561399
000020 46 da 7d 3d d7 84 72 3e d5 d2 fd 3c b0 e8 27 3e
       0.06197574 0.23683487 0.030984322 0.16397357
000030 79 4e 38 3e 14 45 0b bd 00 bf d4 3d 4c cd 4d 3e
       0.17998685 -0.034001425 0.10387993 0.20097846
000040 51 0d 9c 3d 4e 57 82 3c b2 02 94 3d 90 d2 68 3d
       0.076197274 0.01591077 0.072270766 0.056841433
000050 f6 68 1b 3c 37 47 b5 3d 49 54 8f 3c 8a 0a f1 3b
       0.009485474 0.08851474 0.017496245 0.0073559927
000060 1e 40 e7 3d a2 b3 e3 3d d4 05 2b bc 60 8e cd 3d
       0.11291526 0.111182466 -0.010438401 0.100369215
000070 20 88 fb bc cc 50 8a 3e 68 f7 45 3e c4 d3 d6 3d
       -0.030704558 0.27014768 0.19332659 0.1048961
000080 70 30 15 3e 6f 52 32 3d 11 57 38 3d 4e 31 96 ba
       0.14569259 0.043535646 0.045004908 -0.0011458786
000090 0c bb 77 3e 01 2d 81 bd 4f 22 98 3d 4c a6 fa bd
       0.24192446 -0.06307412 0.07428419 -0.1223875
0000a0 35 11 28 3d 1f 85 2f bb dc d0 b9 3d 62 2a 17 3f
       0.041032035 -0.0026782227 0.0907304 0.59049046
0000b0 fc cc de 3d 23 ec 6f 3e 53 e5 89 3d c5 a6 aa 3d
       0.108789414 0.23429923 0.06733193 0.0833259
0000c0 11 c3 d6 bd 56 88 41 bd a1 b1 80 bd 02 06 b9 bc
       -0.10486425 -0.04724916 -0.0628388 -0.022585873
0000d0 90 6f f0 3c 1f 41 f1 3e 84 2c 51 bd cd 47 29 3d
       0.029350072 0.47119996 -0.051067844 0.04132824
0000e0 8d 43 1c 3e e7 ee 0a 3d 63 4b 7c 3e 27 43 b1 3d
       0.15260144 0.03391924 0.24638133 0.086553864
0000f0 68 12 f2 3d 90 77 d1 3d be 0e e9 bd f9 7c 19 3d
       0.11819917 0.10227883 -0.11379765 0.0374727
000100 12 79 4e bd ee 4b 21 3d f9 71 dd bc 67 c8 e6 3d
       -0.05040843 0.039379053 -0.027031885 0.112686925
000110 05 aa e2 bc 98 62 f7 3d d3 02 40 3d d3 35 fd 3d
       -0.027668962 0.12079352 0.046877693 0.12363782
000120 11 0d 4d 3e 36 c4 44 3c 44 8c e1 bd cb 77 8d 3d
       0.20024516 0.012009671 -0.11013082 0.06907614
000130 88 60 86 bb 7d 60 32 3e 2f db bc bd ea 29 08 be
       -0.004100863 0.1741962 -0.092214935 -0.13297239
000140 9b d2 8c 3d d0 af 1a 3c 94 bb cd bd ec 77 c9 b8
       0.06876107 0.009441331 -0.10045543 -9.606764e-05
000150 36 90 1a bc 6f 06 e9 3d ae f4 14 bc 26 a5 d0 3d
       -0.009433797 0.1137818 -0.009091539 0.101877496
000160 4c f0 94 3c 56 22 a1 3d 66 08 a4 3d 5c 4b b2 bd
       0.018180989 0.07867877 0.080094144 -0.0870578
000170 33 06 35 3e cd bc 59 3d 16 07 82 bc d6 2d 48 3e
       0.17678146 0.05315857 -0.01587252 0.19548735
000180 6c 1e bf bd 01 9a d9 bd f8 98 6f 3d 99 b0 b8 bb
       -0.093319744 -0.10625077 0.05849549 -0.0056362865
000190 95 51 e9 bd ae 95 87 3c 46 a8 df bd a1 17 95 bd
       -0.11392514 0.016550865 -0.109207675 -0.072798975
0001a0 54 77 55 bd a8 2a a7 bc 6e 7e c7 3d dd 31 81 be
       -0.052115753 -0.020406082 0.097409114 -0.25233355
0001b0 3f 55 c3 bb 6f 59 52 3d dd c5 88 3c 17 16 21 bd
       -0.00596109 0.05135482 0.016695911 -0.039327707
0001c0 09 97 19 3d 13 55 17 bb 3c be 5f 3d 4f ea a5 3b
       0.037497554 -0.002309148 0.05462478 0.005063332
0001d0 af e5 8f 3c 92 08 62 3d 45 ef 14 bd 04 ab 89 bc
       0.017565576 0.055183955 -0.036360998 -0.01680518
0001e0 ac 51 ba 3d 0b 39 99 bd e2 79 de 3c e3 67 4c bc
       0.09097609 -0.07481583 0.027157728 -0.01247594
0001f0 6f 2a b9 3d 18 80 e5 3d 09 ec 85 bd 82 fb ca 3d
       0.09041297 0.112060726 -0.06539161 0.099112526
000200 6d 65 a9 bd ed f2 e9 3d 85 13 11 be d3 49 34 be
       -0.082712986 0.114232875 -0.14167602 -0.17606287
000210 0a cc 31 3e 7e ae 89 bd eb 19 08 be d4 4c 47 3e
       0.17362991 -0.06722735 -0.13291137 0.19462901
000220 33 f2 a1 3d c4 cc 2d 3d ed c0 5a bd ce a5 ed bd
       0.07907524 0.042431608 -0.053406645 -0.1160389
000230 b3 62 45 3b 1b 27 59 bd 81 45 d6 3d 05 97 36 3e
       0.0030118644 -0.05301581 0.104624756 0.17831047
000240 08 b2 75 3e d6 e7 1c be a3 54 f3 bc 0e db e3 bd
       0.23993695 -0.15322813 -0.029703444 -0.11125766
000250 e4 46 02 be ae ea 43 3e f3 b6 ab 3d 64 db 3d bd
       -0.12722355 0.19132492 0.08384504 -0.046351805
000260 a9 9c fd 3b 4d 9e 77 3e e2 1d 41 3d 3f 6f 0b 3e
       0.0077396226 0.2418148 0.04714764 0.13616656
000270 08 18 52 b9 f8 c5 2c be 67 c7 9a bc 5b 96 c1 3c
       -0.00020036113 -0.16872394 -0.01889391 0.023631265
000280 43 e6 f1 bd be 83 3b be 09 3b 1c 3e 81 11 8b bd
       -0.11811497 -0.18311974 0.15256895 -0.06790448
000290 f6 79 20 3e de 87 dc 3d 35 f7 c9 bd 77 bd bb bd
       0.15671524 0.10768102 -0.09861604 -0.09166997
0002a0 a4 dd 18 bc f7 df 1d be 25 bb d8 bd 52 d8 9f 3d
       -0.009330187 -0.15417467 -0.1058257 0.07804932
0002b0 29 26 ec bc 6d 12 3c 3e d5 7d 4f 3d 06 bf 12 3d
       -0.02882679 0.18366404 0.050657112 0.035826705
0002c0 f1 c0 b5 3d 0c 03 99 bd 45 7e 93 3d d4 77 19 bd
       0.08874691 -0.07471284 0.072018184 -0.037467793
0002d0 c3 e3 31 3e 5e 08 84 3e 4f dd 56 be b7 6f e9 bd
       0.1737204 0.25787634 -0.2098286 -0.11398261
0002e0 b4 b6 d2 3c e2 a0 c0 3c 13 0e d8 3c d8 3f b9 3d
       0.025721885 0.023514215 0.026373899 0.0904538
0002f0 9b 72 bf bd 15 59 07 bd 83 35 88 bd fd e4 5c bc
       -0.09348031 -0.03304394 -0.066508316 -0.013482329
000300 b3 c9 9a 3e db 39 e7 3d 96 af d8 bd 03 a2 17 bd
       0.3023201 0.11290332 -0.10580365 -0.03701974
000310 d2 55 59 3e c5 6e 7b 3d 7e 84 9a 3e 23 71 63 bd
       0.21224144 0.061384935 0.3017921 -0.055527817
000320 1d 5f 9b 3d b3 6c a5 bc 28 68 97 3d 33 8e 73 bd
       0.07586501 -0.020193433 0.07392913 -0.059461784
000330 58 fe 14 3e 3e 52 d8 3d db 89 bf 3d 9c 73 fe 3c
       0.1455015 0.105625615 0.09352466 0.031060986
000340 b6 a7 8d 3d 4a e2 23 3e 50 95 8a 3e f1 54 b4 3d
       0.06916754 0.16004291 0.2706704 0.08805264
000350 fb da 7a 3b 72 72 01 bc cd 16 34 3e 62 c8 0a 3e
       0.0038277495 -0.007900821 0.17586823 0.13553002
000360 b3 58 44 3d 3b 7f 17 bd 0d a9 3c 3e 72 f8 9f 3d
       0.047936153 -0.03698657 0.18423863 0.07811059
000370 03 e4 69 bd 60 56 41 3e de 76 5d 3e a1 70 1d bd
       -0.057102215 0.18880606 0.21627375 -0.03843749
000380 f9 08 d0 3d 63 21 38 ba be b2 f3 3c 37 99 02 bc
       0.101579614 -0.0007024018 0.029748317 -0.0079711
000390 cc 6f aa 3d c5 0d b7 3c 94 11 00 3e d6 97 87 3e
       0.08322105 0.022345433 0.12506706 0.2648303
0003a0 07 b6 83 3d f5 40 a4 bc 90 3d 58 bd ea 40 ba 3e
       0.06431203 -0.020050505 -0.052793086 0.3637765
0003b0 87 88 38 3e 92 a3 e0 3c 30 5c 11 be ac dd 82 3e
       0.18020831 0.027421746 -0.14195323 0.25559747
0003c0 4b bb 91 3d f4 d3 b5 bb 64 63 d3 3d 18 ce 08 3e
       0.071158014 -0.0055489484 0.10321692 0.13359869
0003d0 60 5f 76 3d c7 53 2b 3e f2 4e 47 3d f0 35 3f 3e
       0.06014955 0.16731177 0.048659272 0.1867292
0003e0 2f 88 2b 3e fb 0c bb bc f4 4a 3f bc 5e c3 f8 3d
       0.16751169 -0.022833338 -0.011675585 0.12146638
0003f0 ab 88 c3 bc 03 22 09 3e 89 f5 6e 3c f8 c3 67 3e
       -0.02386888 0.1339188 0.014584907 0.2263335

lstm.weight_ih_l1 f4 [256, 64]
000000 98 3a 60 3c c4 78 f8 bd 64 b8 38 bd 40 8d be bd
       0.013685845 -0.12132409 -0.045097724 -0.09304285
000010 08 4c ad 3d 60 23 0e bd fd d1 85 bd 48 ae c4 bb
       0.084617674 -0.034701705 -0.06534193 -0.0060022213
000020 91 0c 4c 3c e8 23 37 3e 97 54 80 bd 79 62 b5 bd
       0.012454168 0.17884791 -0.06266134 -0.08856673
000030 0c 98 1f be 83 57 2e bd 13 31 98 3b 3e 8f 86 3b
       -0.15585345 -0.042563926 0.004644522 0.0041064313
000040 48 39 18 bc 47 f0 15 3c d3 eb 3b bd 28 8f fd 3d
       -0.009291001 0.009151525 -0.045879196 0.123808205
000050 0c 03 0e 3d ae b7 b8 3d c9 22 2e 3c 19 e9 ff 3d
       0.034670874 0.09019409 0.010628411 0.12495632
000060 e1 46 c2 3c 20 63 18 3d 48 83 eb bd b0 93 10 bd
       0.023715438 0.037203908 -0.11499649 -0.035297096
000070 5f a0 de bd 4d e4 b8 bd 16 ca d0 3d dc d0 ce bd
       -0.10870432 -0.0902792 0.10194795 -0.100984305
000080 7e 62 84 bd a8 ff 64 3d 49 e1 63 bd b5 ae e5 3b
       -0.064640984 0.055907875 -0.05563477 0.007009352
000090 2e d0 9a 3d 69 41 16 be 19 b6 bb bd e7 f2 12 bc
       0.075592384 -0.1467339 -0.09165592 -0.008969045
0000a0 d6 52 6b 3c be fa 0d be 23 20 a0 3d 90 db 60 be
       0.014363011 -0.13865182 0.078186296 -0.21958756
0000b0 ec 8e c7 3b c0 57 9f 3d de a4 a7 3d 73 aa d2 3d
       0.0060900357 0.07780409 0.08185743 0.10286417
0000c0 e1 fc 16 3d 46 27 1d be eb ac 91 bc 85 0a 68 3d
       0.036862258 -0.15347013 -0.017782649 0.056650657
0000d0 d3 df 45 ba 7f f3 c6 3d ce 1d 1f bd 5f af 6c 3c
       -0.0007548306 0.09714412 -0.038846783 0.014446109
0000e0 01 a9 2c 3d d4 bc 7a bc 5a 2e e1 bd dc b1 f4 3b
       0.042153362 -0.015303809 -0.10995169 0.0074674916
0000f0 20 91 88 bd a1 d3 d1 bd 3d 32 7a be b9 57 fd bd
       -0.066683054 -0.10245443 -0.24433227 -0.123702474
000100 42 24 f0 bd cd e7 51 bb 40 ef 23 3d 8b 63 89 bd
       -0.11725666 -0.0032029033 0.04002309 -0.067084394
000110 74 93 e2 bb 00 6d 6f bd 0d 64 27 3d 78 bc 88 bd
       -0.0069145504 -0.05845356 0.0408669 -0.066765726
000120 36 fd 51 3c 52 8f d6 3d d6 76 1d 3e f2 ea ed 3c
       0.012816718 0.10476555 0.15377364 0.029042695
000130 95 e5 d1 3d 7b 83 aa bd 50 e0 26 bd dc 8f 82 3e
       0.102488674 -0.08325859 -0.040741265 0.2550038
000140 67 53 8d bd 44 1a c6 3d 40 c8 3b 3d cd 79 6a bb
       -0.06900673 0.096729785 0.04584527 -0.0035778165
000150 81 fd a5 bd f8 ea d3 3d f8 07 19 3d dc e3 0e 3e
       -0.08104993 0.10347551 0.037361115 0.13954109
000160 9f 60 25 3e 22 a3 d5 3d 1e 2a 65 be ac a8 a7 bd
       0.1615014 0.10431506 -0.22379348 -0.081864685
000170 cd e9 03 3e 16 70 4a bd 88 84 32 3d 24 f2 a9 bb
       0.12882157 -0.0494233 0.043583423 -0.005186336
000180 fd 2a 4a be 45 eb 04 3e f5 d9 10 bd 6a d9 bf 3d
       -0.19742961 0.12980373 -0.03536411 0.0936764
000190 2f 79 5e 3c 17 22 b8 3d b2 22 9b 3d d8 46 53 3e
       0.013578697 0.08990877 0.07574977 0.20632493
0001a0 e3 44 ad bd e1 f7 69 bd 86 9d 3c 3d 76 d7 0d be
       -0.08460405 -0.05712116 0.046048664 -0.13851723
0001b0 7b cf d8 bb e2 fa c2 3d 8b 5b 03 3d f1 a7 da bb
       -0.0066165305 0.09520508 0.032069724 -0.006672852
0001c0 fb 74 72 bc 79 6c c9 bd 13 e3 46 3e 7a 7f bd bd
       -0.014798398 -0.09835143 0.1942256 -0.0925283
0001d0 43 61 b4 3d e0 6a 17 bc b0 2f 3f bd 23 40 92 3d
       0.08807614 -0.00924179 -0.046676338 0.07141139
0001e0 05 b7 2f be a4 a9 24 3d d9 d9 91 bd 87 09 38 be
       -0.1715966 0.040200844 -0.07121629 -0.17972384
0001f0 8d 76 c8 bc d4 3e a5 3d 02 15 9c 3b 3d 85 22 be
       -0.024470592 0.08068624 0.0047632465 -0.15871139
000200 1c 26 1d 3d b3 fa 6d be d8 f9 96 3c e6 b3 0e be
       0.038366422 -0.23240165 0.018429682 -0.13935813
000210 4b df ff 3d 8a e1 fd 3d 4a 0f 85 bc af 11 43 3d
       0.12493762 0.12396534 -0.016242642 0.047624286
000220 67 73 16 3d a5 c2 06 3f 4f ff be 3c 1f e2 04 3d
       0.03673115 0.52640754 0.0233151 0.03244221
000230 a0 46 33 be 9a 4b de bc b1 5f 05 be 82 d4 4b 3f
       -0.1750741 -0.027135659 -0.13024785 0.79621136
000240 d8 f2 02 3e da d2 38 3c b8 4e f9 ba ac 78 9d 3d
       0.1278795 0.01128074 -0.0019020652 0.07689032
000250 d4 34 3e bc 58 1b bc 3b a7 fe 2d 3b 02 45 95 3d
       -0.011609275 0.0057405643 0.002654949 0.07288553
000260 27 44 e9 3d 7d 1f 20 3e 85 59 5e be 25 33 c3 bd
       0.11389952 0.15637012 -0.21713836 -0.095312394
000270 b3 bd ab 3c 1a 4b de 3d 70 31 32 3d 42 98 f1 bc
       0.02096448 0.10854168 0.04350418 -0.029491547
000280 d8 2e 4a be 52 29 64 bd c0 31 cc bd b9 01 34 bd
       -0.19744432 -0.05570347 -0.099704266 -0.043946955
000290 6f 24 22 bd 0c 76 90 be c1 ed 77 bd 98 41 60 be
       -0.039585527 -0.28215063 -0.060529474 -0.21900022
0002a0 21 7d 59 3d 57 94 6c 3b 9c c7 17 39 05 35 10 3e
       0.053097848 0.003609916 0.00014474842 0.14082725
0002b0 d2 45 90 3e 1d 6a 6a bb 29 7b 21 bd f0 a2 02 be
       0.2817827 -0.0035768815 -0.039424095 -0.12757468
0002c0 87 90 78 3d d2 c8 10 be 7a 68 06 3d 70 99 1b be
       0.060684707 -0.14139107 0.03281448 -0.1519525
0002d0 af 41 c5 bd 8f ef d6 3d e9 2a ca bc b8 9f d9 3d
       -0.09631669 0.10494911 -0.024678664 0.10626167
0002e0 2d 2b b0 bd cd 79 f5 bb ce 33 17 bd dc 57 8e be
       -0.08601985 -0.0074913264 -0.03691464 -0.27801406
0002f0 20 66 10 3e 49 20 b9 3d db 29 85 be 1f 7d 17 be
       0.14101458 0.09039361 -0.26008496 -0.14793824
000300 c9 7d 25 3e 48 a5 80 3d 71 e5 ed bd c2 bc 5c 3c
       0.16161264 0.06281525 -0.11616028 0.013472738
000310 47 63 4c 3e 55 d6 42 3d 33 e3 81 3d c3 32 f5 3d
       0.19959746 0.047567684 0.06342163 0.11972573
000320 d0 75 8e bd 56 5c 14 3e d4 84 64 be bf 83 3e bd
       -0.06956065 0.14488348 -0.22316295 -0.04651236
000330 be 0f 00 3e c6 d7 dc 3c 7d 23 d7 3c 2c b9 dd 3d
       0.12506005 0.026958358 0.02626204 0.10826334
000340 fd 83 6e bb 8f 9c 0b bc c1 20 c8 bd 44 de 36 3d
       -0.003639459 -0.008521213 -0.09771872 0.044645563
000350 ca 84 f4 bd b9 22 00 3d 0a 53 9d bd 78 75 8f 3d
       -0.1193939 0.031283114 -0.07681854 0.07004827
000360 32 0b 18 3e 75 4f e5 ba 2a 3b c0 3d eb 34 c4 bd
       0.1484802 -0.0017494994 0.09386285 -0.09580406
000370 4a 75 18 3d 3b b6 95 be 44 01 7d 3d 87 f9 dd 3d
       0.03722123 -0.29240593 0.061768785 0.10838609
000380 d1 db 34 bd f5 87 f1 bd 61 1e c5 bd bf ac cf bd
       -0.044154946 -0.1179351 -0.09624935 -0.101403706
000390 cc 63 f1 bc ce c8 f0 3a 7c de 24 3b dc 26 02 bd
       -0.029466532 0.0018370391 0.0025157025 -0.03177534
0003a0 75 2c 45 bc 4f aa bb 3d 43 97 1f be be 3f b0 be
       -0.012034525 0.09163343 -0.15585046 -0.3442363
0003b0 26 8c b3 bd b1 72 83 3d 75 07 f9 3d a0 b1 30 3d
       -0.087669656 0.0641836 0.121596254 0.043138146
0003c0 e3 9f ee bd 93 1b 04 be f1 1a 85 3d 65 f6 f2 bd
       -0.1165159 -0.12901144 0.06499279 -0.11863402
0003d0 52 97 b3 bd 29 10 2b 3c 89 6c aa bd fa bf 27 be
       -0.087690964 0.010440865 -0.08321483 -0.16381827
0003e0 4d 74 fd bc 6d c1 2c bd b1 3d 43 3c 17 c5 1f 3b
       -0.030939246 -0.042176653 0.011916564 0.002437895
0003f0 4b e1 c5 bc a7 7c 53 3d 39 c3 f9 bd 8b 3f 1d be
       -0.02415528 0.05163255 -0.12195439 -0.15356271

lstm.weight_hh_l1 f4 [256, 64]
000000 bd 4d 8e 3d 7c 38 3d bd 4e 4f 15 3e 7b ef d9 3d
       0.06948421 -0.046196446 0.14581034 0.106413804
000010 5d a7 bb 3a ac aa 08 3d 97 5a 5a bd ca 2f 2d be
       0.0014316846 0.03336589 -0.05330905 -0.16912761
000020 44 4d 4c bd b2 3c 10 3d ea d4 a9 bd 3e 37 f3 bd
       -0.049878374 0.035214134 -0.08292563 -0.11875771
000030 f6 06 69 bd fa bb 29 3d 68 87 05 3d af 7a 87 be
       -0.056891404 0.041439034 0.032599837 -0.26460788
000040 4e 8d c7 3d cd f4 77 bd 5a f9 a0 3a 97 14 2b be
       0.097437486 -0.060536195 0.0012281344 -0.16707073
000050 54 47 a2 3c 04 2d 14 3e 80 ce fb bc f9 4c 03 3d
       0.019809403 0.14470297 -0.030738115 0.03205583
000060 90 d9 09 be 74 cb 84 3c 44 67 6a bc a2 af ea 3c
       -0.134619 0.016210295 -0.014306847 0.028648201
000070 ab 28 cb bd 84 be a8 bd 1d 0b 7d 3d a6 06 b0 bd
       -0.09919866 -0.08239463 0.061778177 -0.08595018
000080 7c 05 64 3b 66 44 b3 bd 4d 76 10 be a9 54 50 be
       0.0034793308 -0.0875328 -0.14107628 -0.20344795
000090 35 f8 eb bc 6e 32 09 bd e8 33 92 3d 54 23 0b 3e
       -0.028804878 -0.03349536 0.071388066 0.13587695
0000a0 32 2a 88 bc 8c 30 9e 3d 24 ef c2 bb 9d 4d d6 3d
       -0.016621683 0.07724103 -0.005948918 0.10464022
0000b0 55 7f 6b 3d 4c 7a ff bd 11 1a 4a 3d e4 ad 10 3e
       0.05749448 -0.12474498 0.049341265 0.14128834
0000c0 34 25 2a 3b 72 17 53 bd 6a ad e5 3d 5f 31 5d 3c
       0.0025962116 -0.05153603 0.11214717 0.0135005405
0000d0 ec c8 a3 bd d0 e3 c2 3c 75 ad d4 3d e1 ce 02 3d
       -0.07997307 0.02379027 0.10384647 0.031935576
0000e0 8b 6a 3c bb 54 6d 47 bc f4 dc 93 3b 47 b9 a6 bb
       -0.0028750028 -0.012172062 0.0045124236 -0.0050880047
0000f0 2b e4 68 3d 00 1c 0c bd 08 83 0f be 26 a6 8a 3c
       0.056858223 -0.03420639 -0.14014828 0.016924929
000100 4e 94 43 be c5 8f bc 3d 12 40 c7 3d bf b2 3f bd
       -0.19099542 0.09207109 0.09729017 -0.046801325
000110 c6 e3 7b be cf e3 54 3d 06 70 d0 ba 7b cc dc bd
       -0.24598607 0.051975068 -0.0015902526 -0.10781189
000120 76 64 65 bd 7e 86 cb bc 22 2b c4 3a 95 50 b6 bc
       -0.05600401 -0.024844404 0.0014966468 -0.022255221
000130 13 20 3f bd 0b 37 dc bd e7 58 95 3e a3 96 93 3d
       -0.046661448 -0.10752686 0.2916939 0.07206466
000140 de 13 b9 3d 62 04 20 be 1e 31 30 3d 63 ed f9 bd
       0.090369925 -0.15626672 0.04301559 -0.12203481
000150 25 79 76 bd 09 12 b7 bc 40 d2 92 bd c1 63 8c bd
       -0.060174126 -0.022347467 -0.07169008 -0.06854964
000160 a9 b7 3c be 45 b4 22 be 4c b0 56 be e7 60 1a be
       -0.18429436 -0.1588908 -0.2096569 -0.15076028
000170 54 af cb 3c d1 00 81 bc ba 8f 5b bd eb cb 6c 3d
       0.024863876 -0.01574746 -0.053603865 0.05781166
000180 a6 c5 46 3d 91 be a3 3b be df 63 bb 4d cd a1 bd
       0.048528336 0.0049970825 -0.0034770812 -0.07900486
000190 74 cb 04 3d 71 d7 3c be b7 92 38 bd 25 bb 82 bc
       0.03242059 -0.1844156 -0.045061793 -0.015958378
0001a0 02 b8 14 bd 1c 22 85 bd b7 26 9f bc e9 d5 81 3d
       -0.036308296 -0.065006465 -0.01942764 0.06339628
0001b0 86 eb 46 bb 7b bf 2e be 11 37 be 3d cc d8 2a 3e
       -0.0030352785 -0.17065232 0.09287847 0.16684264
0001c0 0f 99 b4 bd 1f 61 0c 3e 7d 9c 26 3e 26 ab 7a 3d
       -0.08818256 0.13708924 0.16270633 0.061198376
0001d0 81 66 1d bd 5f 2a e4 3d 71 3e 96 3d 02 ec ab bd
       -0.038427833 0.11140894 0.073361285 -0.08394624
0001e0 31 74 b4 bc 54 88 50 bd 14 a7 a6 3d 97 72 ab bd
       -0.02202806 -0.050911263 0.081373364 -0.08371466
0001f0 8e 34 37 3d d1 2c 0b 3e fe 4d 4e 3d 1f 53 c2 bd
       0.044727854 0.13591315 0.050367348 -0.0948851
000200 1e 8e 40 be 3c df a3 3c 26 b3 10 3e 19 eb ad 3e
       -0.18804213 0.020003907 0.1413084 0.33968428
000210 59 f9 5f be ad 13 7d 3e 44 97 bc bd a2 0e 18 be
       -0.21872462 0.24714537 -0.09208539 -0.14849332
000220 eb d5 95 be 56 ee 73 3d 3d e4 a3 3c 58 55 2b be
       -0.2926477 0.059553467 0.020006293 -0.16731775
000230 ea 5c f3 3d c8 cb 8f 3c 45 d8 8c 3d 78 72 3d 3e
       0.11882956 0.017553225 0.06877188 0.18500698
000240 5d 5c 9f 3e ed 47 d9 bd e4 33 b0 3a 11 a7 ea be
       0.31125155 -0.10609422 0.0013443199 -0.45830587
000250 9a bd 53 be 40 47 91 3e 81 a1 2f bc 9e 0a 09 3e
       -0.20677796 0.28374672 -0.010719658 0.13382956
000260 b9 d2 54 be 34 0f a0 bd 91 eb 0b 3d 47 47 a2 bd
       -0.2078351 -0.078154 0.0341602 -0.07923751
000270 79 af 08 be 66 1a 1c 3c 89 29 73 3e 46 a4 58 be
       -0.13348188 0.009527778 0.23746313 -0.21156415
000280 07 1e 08 be 56 b6 c3 3d a5 25 2e be dc 80 a6 bd
       -0.13292705 0.09556262 -0.17006548 -0.08130047
000290 18 ba e0 bd 22 34 a8 be d7 30 a3 bd 36 60 3f be
       -0.109729946 -0.32852274 -0.079683 -0.18689045
0002a0 e9 6c 94 3d 6a 07 19 3c 57 de dc 3d 81 50 59 3d
       0.072473355 0.009340147 0.107845955 0.05305529
0002b0 66 d3 7a 3e a7 c7 fd bc 96 cd ee 3d ee a4 90 3e
       0.24494705 -0.03097899 0.11660306 0.2825083
0002c0 74 df 9f be 64 22 4b 3e 20 b2 78 3d 36 16 8f 3e
       -0.3122517 0.19837338 0.06071675 0.27946633
0002d0 9b d0 97 be c5 54 6d 3d b4 2d 85 3e 05 de 1c be
       -0.2965134 0.05794217 0.2601143 -0.15319069
0002e0 f6 55 50 bd c7 a5 2a 3e 01 92 7d bd 72 e2 1e be
       -0.05086323 0.16664802 -0.06190682 -0.1551607
0002f0 b5 0f 2d 3e 0c 51 1b 3c 32 04 f9 3c f1 08 1f be
       0.16900523 0.009479772 0.030397508 -0.15530755
000300 bd 1c cd 3d 0f 72 12 3e f1 42 e7 b9 8f b4 01 be
       0.10015247 0.14301322 -0.0004410963 -0.12666534
000310 02 71 43 bd 0d c1 d5 3d 38 c4 15 be a3 ca 95 bc
       -0.047715195 0.10437212 -0.14625633 -0.018285101
000320 fa 69 94 3c 33 73 fc bc 93 07 03 bd ca f2 bd bd
       0.01811694 -0.03081665 -0.031989645 -0.09274824
000330 e6 ba 1b 3e 95 ae 1b bc 46 63 38 bd c5 8e 80 be
       0.15208015 -0.009502073 -0.04501655 -0.25108925
000340 2e ff b3 bd d9 8a 06 be b2 29 3b bd db 2c 25 be
       -0.08788906 -0.13138904 -0.04569406 -0.16130392
000350 00 33 09 3e 74 e0 f5 bd 25 46 45 bb de 74 0f bd
       0.13398361 -0.12005702 -0.0030101624 -0.035023563
000360 9f e3 84 3d b3 34 23 be bb 03 03 be 6b 88 61 bc
       0.06488728 -0.15938072 -0.12794392 -0.013765435
000370 d6 1d 08 bd 50 5c 88 bd 55 47 b5 3d c1 bb e9 3c
       -0.03323158 -0.06658232 0.08851496 0.02853191
000380 5b d4 4c bd 71 04 a6 bd d4 a0 c3 3d 31 c8 63 3c
       -0.050007205 -0.08106316 0.0955216 0.01390271
000390 c5 5b 93 bd 45 bb 08 bd 96 18 ee bc 99 58 01 3e
       -0.07195238 -0.03338172 -0.029064458 0.12631454
0003a0 e4 4e 53 3d ac 63 16 be d2 79 c4 3d 05 91 a4 3d
       0.051588908 -0.1468646 0.09593548 0.08035473
0003b0 92 4c 27 3d bb f0 93 3b 91 17 6a 3d f7 31 f2 3d
       0.040844508 0.0045147813 0.05715138 0.11825936
0003c0 8d a7 2c be 87 34 d5 bd 90 09 f6 bd 98 b5 5c 3d
       -0.1686079 -0.104104094 -0.12013543 0.05388412
0003d0 3c d4 0a 3e 86 ac d8 3d ee 4c 3f ba 63 e8 2d 3d
       0.13557523 0.10579781 -0.0007297535 0.04245795
0003e0 b2 90 cc bd 36 b3 cb bd df 4c 07 3d 62 62 c9 bc
       -0.09988536 -0.09946291 0.033032294 -0.024583045
0003f0 77 0c 8a bc 43 18 33 be 0f 00 c8 bd a3 8c 1b 3c
       -0.016851647 -0.17489724 -0.09765636 0.00949398

lstm.bias_ih_l1 f4 [256]
000000 06 03 91 bd 18 aa b5 bc 00 de c5 bd 75 bc 8c 3d
       -0.07080655 -0.022175834 -0.09661484 0.06871883
000010 17 db cf bb dc c3 73 3d 4a 45 e0 3d 4b 6c 07 bc
       -0.006343256 0.059512958 0.10950716 -0.008265565
000020 ea f3 a5 3c 43 e7 62 bd 3c a4 64 bd c1 8d 75 bd
       0.020257909 -0.05539633 -0.05582069 -0.05994964
000030 03 ec 90 bd 17 95 aa bd bb 68 de 3d 59 01 ae bd
       -0.07076266 -0.08329218 0.108598195 -0.08496351
000040 f7 29 87 3c da 41 59 bd 68 ff b5 bc 08 24 a4 3d
       0.016499503 -0.053041317 -0.022216514 0.08014685
000050 bd fd 78 3d 2f 9a 49 bc 56 96 bf bc 46 b4 af bd
       0.06078886 -0.012304827 -0.023387115 -0.08579306
000060 5d 53 3e 3c f0 b3 35 bd dd 3a 46 3e 22 91 18 3e
       0.011616555 -0.044361055 0.19358392 0.14899114
000070 3b 63 44 bd 18 43 0d bd 4b 6e b3 bc 32 1c d5 3d
       -0.047946196 -0.034487814 -0.021903178 0.104057685
000080 68 28 8e 3d c6 90 03 3b 26 63 83 3d e3 dc 0f 3d
       0.06941301 0.0020075305 0.064153954 0.035122763
000090 41 a5 49 3d 96 39 f3 3c 91 0b 43 3d 8a 90 82 bc
       0.049229864 0.029690545 0.047618452 -0.015938062
0000a0 82 0d 18 bd d9 3f 13 3d bc 4a 2d 3d 97 9e 5a bd
       -0.037122257 0.03594956 0.0423076 -0.0533739
0000b0 4f 66 b0 3d e4 77 98 bd bd 47 00 3b 27 61 aa 3d
       0.08613264 -0.07444742 0.001957401 0.083193116
0000c0 8b ef 1f 3d f9 d1 02 bd 35 9b dc bc 08 1a 82 3d
       0.039046805 -0.031938527 -0.026929477 0.06352621
0000d0 30 42 30 3d 37 33 b7 bd 41 75 ba 3d 33 92 69 3d
       0.04303187 -0.08945315 0.09104396 0.057024192
0000e0 ec 95 34 3e 0a b0 1b 3b 59 d2 fc 3d ff b9 d8 3c
       0.17635316 0.002375605 0.12344808 0.026455877
0000f0 04 2a 3e 3e 9b 5e b3 3d 3c 14 8e 3e 2f d6 1f 3d
       0.18570715 0.08758279 0.27749813 0.03902262
000100 c8 90 5c bd 5e e9 09 3d 5b 31 8f 3d 20 6f 20 bd
       -0.05384901 0.033669822 0.06991836 -0.039168477
000110 4a 26 3c bd cc 90 99 3d 83 b4 9b 3c 63 3e db 3d
       -0.045934953 0.07498321 0.019006973 0.10705259
000120 cc 23 1d bd d1 6e b0 3d 82 6e 63 3d e1 fc 85 bd
       -0.038364217 0.086148866 0.05552531 -0.065423734
000130 a2 ce 47 3d 9c 1c 00 bd 0e d6 01 3e 4b f7 e8 3d
       0.048781045 -0.031277284 0.12679312 0.113752924
000140 e8 57 55 3d 94 9d f8 3d 83 5d 36 3d b5 de 86 bd
       0.052085787 0.12139431 0.044522773 -0.06585447
000150 fd 07 2a 3d 51 e5 fa 3d d3 98 11 3e 9e ff 17 3d
       0.041511524 0.1225077 0.14218454 0.03710901
000160 af f0 16 3e 2b 0b 02 3e a4 fd 1d bd 3e d1 15 3a
       0.14740251 0.12699573 -0.03857197 0.00057150784
000170 d8 e6 fb 3d 59 f8 c9 3d 76 cb b9 3c b7 7c 34 3d
       0.12299889 0.09861822 0.022680026 0.04406425
000180 8f 48 07 3e 45 50 b6 3d 03 d5 06 3e 95 1a ee 3c
       0.13211273 0.08902029 0.13167195 0.02906541
000190 36 e0 07 3c 0e cf 92 bc dd a3 ef 3d fd 72 31 bd
       0.008293202 -0.017920997 0.11701176 -0.043322552
0001a0 b1 72 d3 3c 8c c2 51 3d 47 b3 b4 bd ec 7f 2d bd
       0.025811525 0.051210925 -0.08823257 -0.042358324
0001b0 56 f7 bd bb a9 35 89 bd 9c 7c 05 3a d0 20 33 3d
       -0.005797307 -0.06699688 0.00050921156 0.043732464
0001c0 27 82 29 3d b9 2f 1c 3d 25 ce b6 bd 5c 56 02 3e
       0.04138389 0.03813145 -0.08926038 0.12728256
0001d0 b8 55 84 3d 27 68 69 bc c3 09 76 bd c1 81 ba bd
       0.06461662 -0.014246023 -0.060067903 -0.0910678
0001e0 3b 05 13 bd c5 1f 83 3d 84 1a 4a bd 96 09 e6 bc
       -0.03589366 0.06402544 -0.049341694 -0.028080743
0001f0 d4 1d 13 3d f4 f1 44 3d 5a 61 ce bb ff db b5 3d
       0.03591712 0.048082307 -0.0062982263 0.088798515
000200 47 36 64 3c 5f 26 8b bd 3d 62 0f bc a6 61 80 3d
       0.013928956 -0.06794428 -0.008751449 0.06268625
000210 58 dd 14 3d d4 93 95 3b be 33 cf bd d0 5d b1 bd
       0.036343902 0.0045647416 -0.10117291 -0.086604714
000220 23 9c 98 bd e2 80 99 3d 54 3e c5 bc 32 f8 e9 3d
       -0.07451656 0.074952856 -0.024077572 0.114242926
000230 1e 84 d7 bd 47 e9 36 3d e1 4d c3 bd 83 d2 e1 3b
       -0.10523246 0.044656064 -0.095363386 0.00689155
000240 56 0c b4 bd d1 31 12 bc e5 aa 19 bd e9 22 c1 bc
       -0.087914154 -0.00892301 -0.037516493 -0.023576217
000250 71 3f 81 3d fc 74 41 3d e0 ad 36 3d 5b 3a 4f bd
       0.063109286 0.047230706 0.044599414 -0.05059276
000260 d0 e8 60 3d f0 21 cd 3d a7 70 d3 3d 72 2e 40 3d
       0.054909527 0.10016239 0.10324221 0.046919294
000270 95 b3 7a bd d2 08 ea 3d 02 46 03 3e 5d 2d ca bd
       -0.06120642 0.114274636 0.12819675 -0.098719336
000280 d8 79 f0 3c 19 e1 fb bd cf 73 a1 bd 3d 84 08 3e
       0.029354975 -0.12298793 -0.07883417 0.13331695
000290 ed b3 c8 bd 81 e0 0f bd 2e 48 2d 3d 67 8f 75 bb
       -0.09799943 -0.035126213 0.042305164 -0.0037469508
0002a0 b5 dd fe 3c 35 87 1b be 4e c2 22 3d 6b 6a c1 3c
       0.031111578 -0.15188296 0.039736085 0.023610314
0002b0 bd c4 ed bd f3 5b a3 bd 3e 9e 92 bb f4 01 ad bc
       -0.116097905 -0.07976522 -0.0044744303 -0.021119095
0002c0 6a c1 93 3c ae 91 6a 3d 0d 15 e3 bd d6 96 e6 bc
       0.018036563 0.057267837 -0.110879995 -0.028148096
0002d0 82 5e f7 3d 53 67 2d 3c 00 8a 6f bd d1 9a 23 3d
       0.12078573 0.010583716 -0.058481216 0.039942566
0002e0 fb c6 b5 3d ec 03 9d bc 9d d4 8e bc 0b 16 07 bd
       0.08875843 -0.01916691 -0.017435366 -0.032980006
0002f0 75 b9 d5 3d 3d 75 2b bd b6 a8 8f 3d fb fb 9f bd
       0.10435764 -0.041859854 0.07014601 -0.07811733
000300 da f3 21 3e 44 e2 5f 3d d9 d2 c7 3d 91 47 fc bc
       0.15815678 0.054659143 0.09757013 -0.030795844
000310 10 d0 09 3e c1 2d 7e 3c 58 d5 45 bd 60 f1 9c bd
       0.13458276 0.015513838 -0.048299164 -0.07663226
000320 08 8d 82 bc 00 36 19 3e d0 62 49 3c 0d b2 e1 3d
       -0.01593639 0.14962006 0.012291625 0.110202886
000330 92 5c 15 be 31 fc 53 3e e9 4f 86 3c 77 62 f8 bc
       -0.14586094 0.20701672 0.016395526 -0.03032039
000340 1c 72 d0 3d 57 60 f1 3d c0 ba 94 3d bd f6 88 3d
       0.10178015 0.117859535 0.07262182 0.066876866
000350 c8 e1 e8 3d 55 93 97 3d 24 24 0f 3c b3 99 30 3e
       0.11371189 0.07401148 0.008736644 0.17246132
000360 24 d3 49 3b a1 ea 20 3e 48 eb 48 3e fc aa 24 3e
       0.0030796016 0.15714504 0.19621003 0.1608085
000370 11 55 9a 3d f4 57 5b bd cd f1 63 3e 90 d0 04 3d
       0.075357564 -0.053550676 0.22260208 0.032425463
000380 38 5e cf 3d 83 88 dc 3d 74 47 e9 3d 35 86 ce 3c
       0.10125393 0.10768225 0.11390582 0.02521048
000390 a6 28 d2 3d 03 3d 04 3e 02 fe 5a 3e cf 36 e5 bc
       0.10261659 0.12913899 0.21385959 -0.027980236
0003a0 21 35 df 3d 8b c6 1d 3e 1e 4a 22 bd a7 10 65 3d
       0.108988054 0.1540777 -0.039621465 0.055924084
0003b0 13 10 9c bd 27 10 1f bc 2e e3 93 bd 7b eb 82 3d
       -0.076202534 -0.009708441 -0.072210655 0.063925706
0003c0 01 69 5f 3c b0 80 78 3e e0 0c 2a 3e fa d5 2e 3e
       0.013635875 0.2426784 0.16606474 0.17073813
0003d0 bc fc fb bd cd 88 50 3c 6d 67 9f bd 60 8d 08 3d
       -0.12304065 0.012727928 -0.07783399 0.03333795
0003e0 92 4b d5 3d e5 49 31 3d 7a a9 af bd 37 d0 f4 3c
       0.104148045 0.043283362 -0.08577247 0.02988444
0003f0 29 66 cc bc db c4 93 3b 81 5d fe 3d 2d 06 00 bc
       -0.024951058 0.004509551 0.12420178 -0.007813972
