LogAnomaly/result/deeplog/deeplog_epoch262.pth (torch_old, 642846 bytes, 30 tensors)

lstm.weight_ih_l0 f4 [256, 1]
00000000: 223f 4bbe d7a0 83bc a24d 6abd a5b0 ab3d
00000010: a46f 0bbe 863e 3b3d 982c d2bd 471f 853d
00000020: 08ad 303e d5ec a53d 91af 2b3e d27d a8bd
00000030: 8cf3 c13d 0d81 003e 6259 a4bd ce3d 823e
00000040: 2d8e 863d 1c84 5b3d 1d86 19be 31f6 163e
00000050: b481 263e c1a0 9e3d b877 5b3d 459c 65bd
00000060: 1baf 473e 661b 7fbd c086 84bc 0be1 833d
00000070: ef8e 953d efb2 16be 5954 e53d f936 393c
00000080: 733a 033e 9407 c33d d17e a53c 922c 423d
00000090: 1406 5b3e 602c d83b a8cc 063e f284 0fbe
000000a0: 583a 9f3b c02d 11be ec12 063e a0f8 cc3e
000000b0: be78 f5bd dcd4 d63d 7edb 123e 08cb 4cbe
000000c0: 37e9 433e 2a18 1b3e ce54 b73e 3153 c33d
000000d0: b18c 813d 383c a53e 728b 013e bdda 66bd
000000e0: 0f85 31be 9968 bb3c 4cf6 e63d 479e 213d
000000f0: 74e3 373d 8cda 063e fc10 cf3d 1bc0 1bbe
00000100: 6e12 81bd 715e 463d 8324 ed3d c84c 13bd
00000110: 4ddf b9bd ef93 563d 4a81 dc3d c767 523d
00000120: c473 2cbd e158 953e ce8c 2c3e 7a43 febd
00000130: 7da2 b5bc 1eda 993d 2fac 2f3e e08e 843e
00000140: 5733 e23c 4fb3 063e 0ec4 ecbd a8fc 023d
00000150: 0f00 3f3b e75f 633e 1742 083e 6525 5abd
00000160: 97c8 5a3c 2f27 993d ef17 22bf e749 9f3d
00000170: 56ee 85bd a23f 88be 4d84 623e c791 6f3c
00000180: 297f ccbc 6837 183e 4760 e43d fa3e bf3d
00000190: 0c46 8e3d 74bd 423e c939 ce3d 40a8 133d
000001a0: 0cb2 103e 6ad9 733e 01fb 323e 5fcc 823d
000001b0: c89a 05be cee3 08bd e351 5f3d 5e08 e5bd
000001c0: 9733 953d 63d3 cf3d d280 9f3e 416c 7c3e
000001d0: 3f1e 523d 8714 dc3c 30a6 213e dd20 f7bc
000001e0: 7dcf 37be 0847 343e 5217 ee3e 36d7 10bd
000001f0: cc12 153d e602 503d efcf b0bd 310b 1cbe
00000200: 3786 e13e 5d74 0abe f5f0 a93d a749 fe3c
00000210: 8a05 7b3e 1afb 33be 6184 42bd 06d8 133e
00000220: e60a 2b3e 3f27 2fbd 1918 7fbd 80fb 663e
00000230: 475a 75be ccb8 273e 97a8 26be ae10 c3bd
00000240: 6d81 5f3e 8ae2 99be 15ed 84be c71f 593e
00000250: 5fc2 373e b8fe 13bd e79c 17be 7fec 4a3e
00000260: f92a cc3d cb28 a33e 1ed7 e8be a2fa 9b3c
00000270: 5949 e83c daf8 3abe 049d 6e3f 8c44 1bba
00000280: cedd fa3e f0c9 d33c 244b b33d 1787 d8bc
00000290: e95a 9fbe ae04 51be bdcc 96be 0109 3ebe
000002a0: ea31 463e 8acc 503d 276e 06be ab4a d6bf
000002b0: b81a bd3e a737 9e3e 48da 843d e927 003f
000002c0: d9ba f3bd 1538 1bbe 1482 17be 2e26 18bd
000002d0: 7ab9 cdbe a658 ee3e 49dc 193d dc5d 2d3e
000002e0: ee03 bcbe d2f6 993d cd34 5f3d 0ecc 9cbd
000002f0: 3250 0a3e 5d0f 9fbd 6003 a53d f656 b0be
00000300: d497 393e a035 87bc 9582 223e 3f97 a93e
00000310: e23c 383e 1458 993d 2431 2f3e 21c4 643e
00000320: 9fd4 433d bda0 983e bc80 8f3d f1cf 6d3e
00000330: eeb5 813e 3ee7 193e 71ac 6a3e 8b9e 973e
00000340: cef1 bcbd 13a3 063d 57c7 9e3e e4d2 443e
00000350: 934e 983e 80c2 703e b348 55be 1a7b 35be
00000360: ca54 34be 781b 533d 8ae3 3e3b fb0c e13d
00000370: de92 b3bc 8aaa aebe 7fbc 0d3e bd99 8f3e
00000380: f25b dcbd b29b ae3e 6b07 a93d 0156 a13e
00000390: cc3d bdbd fa4a 66be dcc6 ab3d b2c1 98be
000003a0: 14ba 57be 2a93 8f3e 00fa 493e 1b92 97be
000003b0: 6a17 873e 011c 953c d614 5c3e 9657 2abe
000003c0: 8a00 41be c792 f9bd a414 fc3d 4fbe 5fbe
000003d0: e0f4 9d3d 2f68 c4bd a50a 7d3d e02f a73d
000003e0: 76fc 2f3e e868 61be 9ce7 8b3e b7ab 0ebe
000003f0: c94f e43d cacc 1c3e d3eb 673e 2f9f 003e
-0.19848302 -0.016067905 -0.057202943 0.08383302 -0.13616806 0.045713924 -0.10262412 0.06500106
0.17253506 0.08101813 0.16766192 -0.08227123 0.09470281 0.12549229 -0.08024861 0.25437778
0.06570087 0.053592786 -0.14992566 0.14742352 0.16260415 0.07745505 0.05358097 -0.056057233
0.19500391 -0.06228199 -0.016177535 0.06439408 0.07302653 -0.14716695 0.11197729 0.01130461
0.12815265 0.0952293 0.020202072 0.047405787 0.21389037 0.006597087 0.13164008 -0.14015558
0.00485925 -0.14177608 0.13093156 0.40033436 -0.1198592 0.104898185 0.14341542 -0.19999325
0.19131933 0.15145937 0.35806888 0.09537352 0.06325663 0.32272506 0.1265085 -0.05636095
-0.17335914 0.022877024 0.11277446 0.039457586 0.04489465 0.13169307 0.101106614 -0.15210001
-0.06302343 0.04842991 0.1157923 -0.035961896 -0.09075794 0.052387174 0.107668474 0.0513685
-0.04210259 0.29169372 0.16850588 -0.12415214 -0.022172207 0.07512306 0.17155527 0.25890255
0.027612371 0.13154338 -0.11560832 0.031979233 0.0029144322 0.22204553 0.13306461 -0.05325832
0.013353488 0.07478177 -0.6331777 0.07777768 -0.065395996 -0.26611048 0.22120781 0.014622158
-0.024962978 0.14864886 0.11151176 0.09338184 0.06946954 0.19017583 0.100696154 0.036049128
0.1413042 0.23813406 0.17478563 0.06386637 -0.13047326 -0.033420376 0.054521453 -0.111832365
0.072852306 0.10147741 0.3115297 0.2465067 0.051298376 0.026865257 0.15786052 -0.030167038
-0.17950244 0.17605221 0.46502167 -0.03536149 0.03639488 0.050784014 -0.0863341 -0.15238644
0.4404771 -0.13520952 0.08297912 0.03104098 0.24513832 -0.17576256 -0.047489528 0.14437875
0.16703376 -0.042762037 -0.06227884 0.22556877 -0.2396022 0.16379088 -0.1627525 -0.09524666
0.21826716 -0.30055648 -0.2596213 0.21203528 0.1794524 -0.03613159 -0.14805947 0.19816779
0.09969134 0.3186706 -0.4547662 0.01904041 0.028355287 -0.18258992 0.93208337 -0.0005922995
0.4899735 0.025853127 0.08754566 -0.026431603 -0.31124046 -0.20411941 -0.29453078 -0.18558122
0.19354978 0.050976314 -0.13127957 -1.6741537 0.36934447 0.30901834 0.06486946 0.500609
-0.11900873 -0.15158112 -0.14795715 -0.037145786 -0.4018057 0.46552008 0.037563596 0.16930336
-0.36721748 0.0751778 0.054493714 -0.07656108 0.13507155 -0.07766602 0.08057284 -0.34441346
0.18124324 -0.016505063 0.15870126 0.33123204 0.17991975 0.07487503 0.1710859 0.22340442
0.047810193 0.29810134 0.07006976 0.23223855 0.25334114 0.15029618 0.22917344 0.29613146
-0.09225808 0.032870363 0.3101146 0.19221073 0.29747447 0.23511696 -0.20828514 -0.17722741
-0.1761047 0.051539868 0.0029127323 0.10988804 -0.021920618 -0.34114486 0.13841437 0.2804698
-0.10759725 0.3410316 0.08253368 0.31510928 -0.092403024 -0.22489539 0.08387539 -0.29835278
-0.21067077 0.28041965 0.19724274 -0.29603657 0.2638505 0.01820183 0.21492323 -0.16634974
-0.18847862 -0.12186199 0.123086244 -0.2184994 0.07712722 -0.09590184 0.06177773 0.08163428
0.1718615 -0.22012675 0.2732514 -0.13932692 0.1114803 0.15312496 0.22648554 0.12560724

lstm.weight_hh_l0 f4 [256, 64]
00000000: b366 6d3e fd4d 1ebe e1b1 023d a598 943d
00000010: 084b 7d3e 6bbe e9bd 0dfd 6dbd 3025 a23d
00000020: b566 293e 8d16 fe3d 1e44 2dbc 471e 27be
00000030: bde1 45be 7e5f c43d afad 00be 23ce 853e
00000040: 3720 4c3e 4790 35bd 4c87 253d 3bdf 183e
00000050: 7a7e 94bd 9ee3 bd3d aaf5 94bd d40a 413e
00000060: 3419 8a3e f822 6b3e 05be be3d 14fe b53d
00000070: 414f aa3d 673c 9cbe 8c3c 733d 3f24 033e
00000080: 7e36 4e3d 0b5e 8b3d eb4f a03d 4429 29be
00000090: f98d 41bd 44f6 4dbe 250c e2bd e25c 9ebe
000000a0: 31e9 a33d 430a f5bd bdbf b53d c852 dbbd
000000b0: f0de 4c3d be83 2f3e af4a 213d b8f3 833e
000000c0: e5bf 96be 58a6 babd 482a 313e 5f32 abbe
000000d0: b1b9 593d 3669 413e 0879 e53d 3ec0 9ebc
000000e0: 9be0 c9bd 8944 be3e 6fc5 fbbc 5acc e4bd
000000f0: ae12 063e e56c 33bd 0a08 1cbe 365d 95bd
00000100: 6624 21bd 8407 c5bd f21d 9b3e f5ab 723e
00000110: 379b 1f3e 0f7d 37be 0ae5 b53d cb76 b13d
00000120: 3a35 1e3e 4b67 bd3d 675c 04be d617 b03d
00000130: 250b 5ebe 975e 3e3e 2621 0abe 3ddb a9be
00000140: 989b 633e 29ea 19bd 82f9 0fbe 7e20 5e3e
00000150: 8a0e 013e 71d7 c0bd 6015 2cbe d515 723d
00000160: d6c7 c73e 6863 c33d afa3 bdbd 3d42 e73d
00000170: 0acf 673e 89da 21bc d426 2b3d 3b6e 3a3e
00000180: 5ba8 e73c b2f5 2b3e 52e3 8e3d 19c0 f4bd
00000190: 39f8 0ebd 7161 4cbe 43e3 1dbe 6b72 6e3d
000001a0: 94c3 493e eeb9 7dbd 5ecc edbd 0fa8 bd3d
000001b0: fb4d b63c c870 233e 902c 5b3e 6310 d8bd
000001c0: e052 80be f8e8 08be 10bf 38bd 9775 72be
000001d0: cbdd 3f3c 1b8e 9ebc 9251 883e 53c4 1a3e
000001e0: 1f87 43bd 447e ba3e 8eff 5d3d 1b57 47be
000001f0: 557f 133e c216 29be 5358 953d 383a b8bd
00000200: 1ede f23d 494a a33d 3cbe ea3d ea72 653e
00000210: 872f 1e3e 5634 85be 149d 79be 6a5b 5d3e
00000220: 70ec 573e 94fb acbc 128f 89bd 5c83 dc3d
00000230: 4b24 b3bd 9270 803d 4f61 13be 2bba c03d
00000240: 4b92 153e f526 69be 4103 35bc 50d8 563e
00000250: 9011 523d eb89 923d 5b59 8abd d8e1 c73d
00000260: 1de4 483e 8a64 a93d 2cb3 11bd 17a8 943e
00000270: 6c59 afbc 62fb c7be f4a8 f03d 2dc9 863d
00000280: 714e dfbd 3b61 f83d cfdb 453e 5608 f7bd
00000290: 3ce5 433c 2b04 19be bd43 3abd 18cb b4be
000002a0: ff35 253e 4d56 14be 5dec 4cbd bb02 80bd
000002b0: 5146 843d c978 ac3d f788 7e3e 93b6 b43b
000002c0: c1e9 50bd ac1f 3b3c ef8b 0dbe abed 053d
000002d0: 9574 f53c db2b 9a3d 850d 3a3d 7e3b 783e
000002e0: bd76 31bd 6556 633e 30ed 89bc 721d 06bf
000002f0: 4f2b 56bc e122 08be 45ff 943d 0afa 92be
00000300: 63d0 693d 0c97 62be b429 b2bc 76b2 533d
00000310: 9245 3e3d 0f9f a53d 2c41 123c ec71 d0bd
00000320: 3d0d 84bd 7156 b0bc bcbf 1b3d 9678 d83d
00000330: f131 b0bc 5f3e 023d e877 703d 6828 c73d
00000340: 3382 0e3b fca4 b1bd 8141 13be 9f84 113d
00000350: 1dbf 5c3d 3391 423c da2e 64be 2357 8c3e
00000360: dd4d 52bd ccce 0e3e df37 a83c 2cd8 ae3d
00000370: 9b54 ec3d 8de4 77be 80ff c5bc ca65 47bb
00000380: eb50 aa3d 2cc3 02bd 43d4 033e 5a3c 273d
00000390: 6ca8 67bd da10 4ebe 12f6 e4bd 666c 74be
000003a0: b263 55bd d6b0 493d 47e0 e6bd fc4a e3bc
000003b0: a618 6f3e 1b58 3bbd de00 1fbe 31ae a33e
000003c0: f9b5 2d3c 5517 b83b 346e 893d ece0 e8bd
000003d0: 2217 c4bd e488 9d3d f281 1e3d ffd4 033e
000003e0: 284b c5bd 041c 053e 214e e83d 82fb bbbd
000003f0: fb79 e33d 7f55 fdbc 8109 eabd fe5c 87bc
0.23183708 -0.15459438 0.03190792 0.07255677 0.24735653 -0.114132725 -0.058102656 0.07917249
0.16543086 0.12406645 -0.010575322 -0.16320144 -0.19324394 0.09588526 -0.12566255 0.26133832
0.19934164 -0.044327047 0.040412232 0.14928906 -0.07250686 0.0927193 -0.07273419 0.18851787
0.26972353 0.22962558 0.09313587 0.08886352 0.08315898 -0.30514833 0.059383914 0.12806796
0.050344937 0.06805047 0.07827743 -0.16519648 -0.047254536 -0.20113474 -0.11037473 -0.3093024
0.08003462 -0.11964848 0.08874462 -0.10709149 0.050017297 0.171401 0.039377864 0.2577188
-0.2944328 -0.09113759 0.17301285 -0.33436868 0.053155605 0.18887791 0.112047255 -0.019378778
-0.09857293 0.37161663 -0.030733792 -0.111717895 0.13093063 -0.04380502 -0.15237442 -0.07293169
-0.039341353 -0.09620574 0.30296284 0.23698409 0.15586554 -0.179188 0.08881576 0.08665236
0.15449992 0.09248217 -0.12925874 0.08598296 -0.21683939 0.1859077 -0.13489208 -0.33175078
0.22227323 -0.03757683 -0.14060023 0.21692082 0.12603202 -0.09416092 -0.16805029 0.059102852
0.3901965 0.095404446 -0.09259736 0.11291931 0.22637573 -0.009878763 0.041785076 0.18206112
0.02827852 0.16792944 0.06976952 -0.11950702 -0.034904692 -0.19959046 -0.15418725 0.058214586
0.19703513 -0.061944894 -0.116112456 0.0926057 0.02225398 0.15960991 0.21403718 -0.105500005
-0.2506323 -0.1337012 -0.045104086 -0.2367767 0.011710594 -0.01935487 0.26624733 0.15113954
-0.047736283 0.36424458 0.054198794 -0.19466822 0.14404042 -0.16512588 0.07292237 -0.08995479
0.11858772 0.07973153 0.114620656 0.22407117 0.15447818 -0.26016492 -0.24376327 0.21616903
0.21086287 -0.021116056 -0.067167416 0.10767242 -0.08747157 0.06271471 -0.14392589 0.09410509
0.14606588 -0.22768767 -0.011048139 0.20980954 0.05128628 0.07155212 -0.067553245 0.09759873
0.19618268 0.082711294 -0.035571262 0.29034492 -0.021404944 -0.39058977 0.11750975 0.0658134
-0.109036334 0.1212792 0.19322132 -0.12062137 0.011956509 -0.14942996 -0.045474757 -0.35311198
0.16133879 -0.14486046 -0.0500301 -0.06250521 0.06458724 0.084214754 0.24856935 0.0055149286
-0.051004175 0.011421125 -0.13822912 0.03269736 0.029962817 0.07527896 0.04542305 0.24241444
-0.04332613 0.22200926 -0.016836733 -0.5238868 -0.013071849 -0.13294555 0.07275251 -0.2870639
0.0570835 -0.22127932 -0.021748401 0.051683865 0.046453066 0.08086979 0.008926671 -0.10177979
-0.064478375 -0.021525593 0.03802465 0.10569875 -0.021508189 0.031797763 0.0587081 0.09724504
0.0021745085 -0.086740464 -0.14380457 0.035526868 0.053893197 0.0118754385 -0.22283497 0.2741023
-0.051343787 0.13946074 0.020534454 0.08537325 0.11539575 -0.24208279 -0.024169683 -0.0030425661
0.08316215 -0.03192441 0.1287394 0.04082904 -0.056557104 -0.20123616 -0.11179747 -0.23869476
-0.05209703 0.04924091 -0.11273246 -0.027745716 0.23349246 -0.04573832 -0.15527675 0.31968835
0.010602468 0.005618016 0.06710473 -0.113710254 -0.09574725 0.076921254 0.038698144 0.1287422
-0.096334755 0.12998968 0.11343027 -0.09178831 0.1110725 -0.030924557 -0.11427594 -0.016523834

lstm.bias_ih_l0 f4 [256]
00000000: 8e64 da3d e5dd ac3d c9b1 3a3d b337 b0bd
00000010: a4af 453e 4a0c b9bb 0087 3c3e 60a7 f8ba
00000020: 0e32 793e 5382 453e ddea f3bd 119a 603e
00000030: 1288 0b3d 1f80 e93d ab97 de3d 9df7 173e
00000040: b68c 2f3e c0de 1f3e b91a 343e 691a ebbc
00000050: 4c85 88bd 7e00 463d b0a6 c53d 9a75 c23d
00000060: af7d 093e 6b4c 393e 2320 733d d425 993d
00000070: 60c5 c1bc 314b 783e f123 8a3e 850d e2bd
00000080: b354 b6bc d5f9 e63d 2e5f 1f3d 4d6d dbbd
00000090: c16c 253e 950d aebd 8986 8a3c 4cdf a0bd
000000a0: 4489 fc3d bdfc f8bc 8abf 25bd 7cbf 2a3f
000000b0: f435 2c3d 02eb 873e ebfb f63c 0a72 cd3d
000000c0: d15b 41bd f45f 8a3d 1646 d0bc 812e e1bd
000000d0: 7ecb f0bd 7d39 973e a48f b23d d280 ef3c
000000e0: b411 3c3e b68c 44bd 2aaa 543d 350c 9b3d
000000f0: 16ba f4bc fcdf ef3d 88ab 74be e202 fc3c
00000100: a97b 4cbd f88c 143e 6a20 a4bd 6178 e33d
00000110: 1a06 993d efa5 b23d ff8b bc3d e7fb d23d
00000120: 1ead a33d ccad c13d 30b7 13be d5a3 103e
00000130: 822f 3b3d 3d75 833d c1f0 cd3b 712e b5bd
00000140: 630a 653d 5d74 8ebc 8982 cbbd 8f64 e4bd
00000150: 0751 303d 9ce9 a63d 970e ddbd d7e3 93bb
00000160: 7fcd 503e 125e fa3d 7ae4 b63d 1fbd 863c
00000170: bebd 503e a800 ae3d c812 30be aca2 993d
00000180: f57f 85bd f907 113d c4a0 20bd 8ee8 ac3c
00000190: ad5f 113d 10f5 07be 0791 0fbd ea10 d73b
000001a0: 9e04 bebd ebbc 243b 336e 033e 538c 85be
000001b0: fe52 eabd cc30 3e3e 4674 cf3d b3f8 d63d
000001c0: f647 893d 3bf0 933c dd7b dfbb 86e2 a4bd
000001d0: 18b2 d1bd ab0a d53d ef59 b23d 78fd 513c
000001e0: 56a7 ca3d 8e1a 0c3e fd40 53be 004e fa3d
000001f0: 1788 d63c 3b8a 423d 5e9a 9e3d a737 213e
00000200: 2861 f93c f7b2 473e e37f a4bd 19b8 51be
00000210: d9c8 043e 081c ef3d 9143 45be 612b 703e
00000220: b7ca 6c3e 289e 053e 67fa a3bd 2b4d 16bd
00000230: fd17 473e 7349 263a a117 3cbd a6d1 c63d
00000240: c103 6c3e fa54 19be 0d39 7f3d fe73 123d
00000250: b5d3 f03c 3fe4 283e fbc8 96bd 6304 b0bd
00000260: bc56 85bd fb29 ff3d ee3f 8d3d 6772 c63d
00000270: a782 e8bc 8516 9abe ebd4 0b3e 2624 683c
00000280: 0fe1 73be 8519 25be 0fba 153e 9072 ab3c
00000290: 1540 143d bdb4 0ebc d5f2 c0bd c137 953d
000002a0: 3bd6 783b 41ab bbbd ba00 adbd e8f6 c63d
000002b0: 8ad2 163b 5b17 e83d ac03 843d 59c1 4ebe
000002c0: 7295 89bc a689 ccbc 3d7a a83c ddb4 3f3d
000002d0: 7dbc 273e 76a3 8d3e 93e3 5fbd 18e2 0bbe
000002e0: 1ac8 e4bd f274 b83c fc95 373e e335 853d
000002f0: f73b 2cbe a624 6bbd fc54 6cbd bacd 0fbe
00000300: ef1c 9f3e 4ee2 13bd a0a5 f2bc e54f 40be
00000310: cae3 693e d8a8 a13d 018a f63d 70ec e2bd
00000320: eb1b 463d b5cf 88bb 2c3f 193e 1fec 40bb
00000330: 3921 3b3e 202f 56bd 5d72 c13d ebaa c33d
00000340: 1a75 bf3d 1ab4 a73c 50ad 523e 6fb4 42bd
00000350: d729 223d 5382 2d3d d521 843d 858b 863d
00000360: 4776 223d 8846 ca3c 0e53 493e a742 c73c
00000370: c49a 063e 7eaf ac3e 864e 9d3e 3391 0dbe
00000380: 0f7b 223e 46c9 0bbe fb94 f83d bd0e dfbd
00000390: 1cef d93d 67ac 123e 679a 043e bf2d 8f3e
000003a0: d189 2b3e 306a 8f3b 0606 b73d 1250 ed3e
000003b0: 6785 173e 9fbb e13d faa1 3bbd 587e 163e
000003c0: 8b5b 0a3e 1071 f93d d545 313e 03b5 033d
000003d0: b79f 643e 3130 643e 407f 613e 7ffc 8f3e
000003e0: 68dc 243e 5cf6 a13d 567f 0c3d 64ad 3c3e
000003f0: fb10 88bd 3945 3c3d cf5c 51be c5a5 903e
0.106637105 0.084407605 0.045579705 -0.08604374 0.19305283 -0.005647217 0.18410873 -0.001897078
0.243355 0.19287996 -0.11910031 0.21933772 0.034065314 0.1140139 0.10868772 0.1484055
0.1714352 0.15612316 0.17588319 -0.028699117 -0.06666049 0.048340313 0.09650934 0.09495087
0.1342685 0.18095557 0.05935682 0.07477918 -0.023653686 0.24247433 0.26980546 -0.11037735
-0.022257185 0.112781204 0.03890913 -0.10714207 0.16154768 -0.08498684 0.016909854 -0.078550905
0.12330869 -0.030393953 -0.04046587 0.6669843 0.04204364 0.26546484 0.03014942 0.10031517
-0.047206704 0.06756583 -0.025424045 -0.10995198 -0.11757563 0.29536048 0.087188035 0.029236231
0.18366128 -0.047985755 0.051920094 0.07570688 -0.029873889 0.117126435 -0.23893559 0.030763093
-0.04992262 0.145069 -0.08013995 0.11106945 0.07471867 0.087230556 0.0920639 0.10301953
0.07992004 0.09456977 -0.14425349 0.14124997 0.045699604 0.06418846 0.0062848036 -0.088467486
0.05591811 -0.01738947 -0.09937007 -0.111519925 0.043046024 0.08150026 -0.107937984 -0.0045132446
0.2039089 0.12224974 0.08930297 0.016447602 0.20384881 0.08496219 -0.17194664 0.0750173
-0.065185465 0.035407994 -0.039215818 0.021106984 0.035491634 -0.13277078 -0.03505042 0.0065632956
-0.092782244 0.0025137018 0.12835006 -0.2608362 -0.11441611 0.18573302 0.10129599 0.10496654
0.067031786 0.018058887 -0.0068201856 -0.080510184 -0.10239047 0.104024254 0.0870856 0.012816779
0.09895198 0.13682005 -0.2063026 0.122219086 0.02618794 0.047495108 0.07744287 0.15743886
0.030441836 0.19501863 -0.08032205 -0.20480384 0.12967242 0.116752684 -0.19264056 0.23454048
0.23124205 0.13048613 -0.08006745 -0.036694687 0.19442745 0.0006343342 -0.04592097 0.09707956
0.23048307 -0.14973822 0.062310267 0.03575515 0.029397825 0.16493319 -0.07362553 -0.08594587
-0.06510684 0.12459179 0.06896959 0.09689789 -0.028382612 -0.30095306 0.1365544 0.014168775
-0.23816322 -0.16123016 0.14621757 0.020928651 0.036193926 -0.008710084 -0.094213165 0.07286025
0.0037969488 -0.091635235 -0.08447404 0.097150624 0.0023013675 0.1133258 0.06446013 -0.20190944
-0.016794894 -0.02496798 0.0205661 0.046803344 0.16380496 0.27663773 -0.05466039 -0.13660467
-0.11170979 0.022516701 0.17928308 0.06504419 -0.1681975 -0.057407998 -0.057698235 -0.14043322
0.31076762 -0.036104493 -0.029619992 -0.18780477 0.22840801 0.078935325 0.12038041 -0.11080253
0.04836647 -0.004175151 0.14965504 -0.0029437614 0.18274392 -0.052291036 0.09445641 0.095540844
0.09348507 0.020471621 0.20573926 -0.047535356 0.039590683 0.042360615 0.064517654 0.0656958
0.03966358 0.024691835 0.19660589 0.024323775 0.13144976 0.3372764 0.3072397 -0.1382492
0.15867256 -0.13650998 0.12137791 -0.10891483 0.106413096 0.14323579 0.12949525 0.2796459
0.16751792 0.004376672 0.08936696 0.4635015 0.14796983 0.11022114 -0.04580877 0.14696634
0.13511483 0.12179768 0.17311795 0.032155048 0.22326551 0.22284009 0.22021198 0.28122327
0.16099703 0.079083174 0.034301125 0.18425518 -0.06643864 0.045964453 -0.2044556 0.28251472

lstm.bias_hh_l0 f4 [256]
00000000: 9bd3 3e3e 8902 943d 50c1 723d d58d 8e3d
00000010: b026 103e cb69 573d 3664 213c 310f a23d
00000020: 80ab a93d 85bf 633e 40d4 de3c 2b6b 343e
00000030: e03c 2d3e 1694 3ebc 8bba e13d fdbe 213e
00000040: 7958 cb3d ee18 f83c e6d2 bf3d b0c6 893d
00000050: b96d 84bc c40a 973d 729d 053d edef cbba
00000060: 7fb2 fa3d 805b d63d cc89 91bc 6119 ca3d
00000070: 0a46 05bd f248 913e d50c 623e 078e b83d
00000080: df1d ec3d d662 513d f451 573d f3df 20bc
00000090: 1862 6f3e 7c88 92bd cd39 373d 5e11 04be
000000a0: f159 033d 6c64 71bb c094 8d3d 2795 163f
000000b0: 024b db3d 1ff4 783e c8a6 833d 4a8f bc3d
000000c0: 9139 cbbd 2b7a 72bd d551 89bd 390f 1abd
000000d0: f010 72bc 6959 f63e a430 4cbd 8410 7a3d
000000e0: 2add 283e 53ec fb3c 60e1 723e 761d c13d
000000f0: a9ea f33d 15fa d23d 0c26 06be 575c 253d
00000100: 30a8 78bd d7d2 c83c f1f7 02bd 2c42 113e
00000110: 02ef 07bd c91a ef3d ba34 2e3d 6f95 053e
00000120: d9e9 573e f487 023c a80d e7bd 106d 963d
00000130: c1f8 f3ba 06cc 3f3e 3290 b6bd 0ff6 0bbe
00000140: 8475 a13d ca22 c53b 8c67 c8bd 5ad3 65bb
00000150: b0a6 94bb de1a be3d 23b2 5cbc 6e89 c93d
00000160: df05 df3c 35de 983d 2fd7 cf3d 2981 aabd
00000170: 8846 403e c986 733d cac3 cdbc 3e9b 243e
00000180: f90d e9bd b1b1 10be 6faa 503d 1b72 fdbb
00000190: 990b 00be ca4d a53b 9b5a fcbd aea2 90bd
000001a0: edc0 59bd 71ce 4abc 71a9 c03d b5f2 76be
000001b0: d783 a0bc 6fab 543d 6402 823c 924c 2abd
000001c0: f989 053d 1a22 56ba 102d 4d3d 3663 c1bb
000001d0: 9ee7 ffbb 6912 6f3d aa56 13bd 8fda 7bbc
000001e0: 27c1 af3d 54fe 92bd 010e 993c 8ba3 85bc
000001f0: e4ed b93d a73e dd3d 91c1 82bd e163 d83d
00000200: db4e c7bd e2c0 f13d eb33 1cbe 3c65 44be
00000210: c48d 293e d839 79bd 0d3d 0cbe 18e8 573e
00000220: 0d33 b53d 0ad2 2c3d f658 4dbd 6efb fcbd
00000230: 161c 413c 3aa0 5dbd d2a5 e13d 4ccc 363e
00000240: cb23 773e 6bc2 05be 3295 75bc 7bf5 dcbd
00000250: 03d9 05be fae0 483e c857 be3d 383e 5cbd
00000260: 3b7d 323b f992 6d3e c7d7 8d3d 3958 0f3e
00000270: b860 80bc e59d 18be 6d12 efbc 3eb1 9d3c
00000280: 6792 febd 02fb 53be 10fa 133e ede6 63bd
00000290: 9fb3 253e d625 ea3d d1a1 a4bd 65ae aebd
000002a0: 8ece abbc 96a8 11be e9c4 c8bd 2abb c03d
000002b0: 34d8 0bbd f8e3 173e 4f20 523d 9913 c13c
000002c0: 93f9 ca3d f19c 86bd 0a40 963d c7b1 f9bc
000002d0: 6d54 3a3e 7f7a 853e aa92 60be 0197 febd
000002e0: 5c65 223d 4f3c 913c debe 0b3d d252 c83d
000002f0: 8f1e cebd dc97 00bd 21f5 8bbd 4d90 02bc
00000300: abbd a03e d56f e03d c5c2 bcbd 34d0 18bd
00000310: bd52 563e 9ce3 7c3d 1472 a43e 90ba 57bd
00000320: b915 ba3d 0950 c5bc f716 793d 528f 92bd
00000330: 49ff 0a3e 0b25 e63d 23a1 943d 1c9a ff3c
00000340: 7756 9b3d 4a17 273e 1dd0 833e 3098 c93d
00000350: 1428 fb3b 4a8c 49bc ac0a 493e e5a7 153e
00000360: 3420 663d bc59 37bd 59e3 403e 5563 b63d
00000370: ccb9 45bd 44c4 563e d159 773e eef6 14bd
00000380: 0710 e53d 76f8 f3ba 6cc4 0c3d 1569 f3bb
00000390: 6c4e b43d 16b5 e53c df0a 133e aa8d 8f3e
000003a0: 6a47 8e3d 4610 efbc bc5e 71bd e6cc c33e
000003b0: 3732 053e a10b f13c 5dbb 15be 52c3 893e
000003c0: e84c 9c3d e9fd 303b 031e d53d 1d14 143e
000003d0: f4d6 603d df61 363e a50d 523d 3c60 6c3e
000003e0: 6807 343e b8a9 87bc 6abb 39bc 7f41 043e
000003f0: c783 b7bc a21a 053e aa9e 8ebb 738c 603e
0.18635409 0.07227046 0.05926639 0.06960646 0.14077258 0.052591126 0.009850552 0.07913054
0.08284664 0.22241028 0.027200818 0.17619006 0.16917753 -0.011631986 0.110219084 0.15795512
0.09928984 0.030285325 0.093663976 0.0672735 -0.016165601 0.073751 0.032620855 -0.0015559174
0.12241077 0.10466671 -0.017765902 0.09868122 -0.032537498 0.28375965 0.22075208 0.090114646
0.11529135 0.051119648 0.05256839 -0.009819019 0.23377264 -0.071549386 0.044732857 -0.1289725
0.032068197 -0.0036833538 0.069131374 0.5882134 0.10707666 0.24311875 0.064282954 0.09207018
-0.09923089 -0.05919854 -0.06705061 -0.037612174 -0.014774546 0.4811509 -0.049851075 0.061050907
0.16490617 0.030752337 0.23718786 0.09429447 0.11909992 0.103016056 -0.13100451 0.040371265
-0.06070727 0.024514599 -0.031974737 0.14185399 -0.03318692 0.11675031 0.042530753 0.13045286
0.210853 0.007966984 -0.112819016 0.07345021 -0.0018613563 0.18730173 -0.08914222 -0.13668083
0.078837425 0.00601611 -0.09785375 -0.0035068602 -0.0045364723 0.09282468 -0.0134702055 0.09840666
0.02722448 0.07464258 0.10148465 -0.083254166 0.18776906 0.059454713 -0.025117774 0.16074845
-0.11379618 -0.14130284 0.05094379 -0.0077345497 -0.12504424 0.0050446736 -0.12321969 -0.07062279
-0.053162504 -0.012378321 0.094073184 -0.24116023 -0.019594116 0.051921304 0.01587028 -0.04157693
0.032602284 -0.00081685337 0.050091803 -0.0059017194 -0.0078095933 0.058367167 -0.03597132 -0.015371933
0.08581763 -0.071774155 0.018683435 -0.016313335 0.09078577 0.108029656 -0.06384576 0.105659254
-0.09731837 0.118043676 -0.1525418 -0.19179243 0.16557986 -0.06084618 -0.13695164 0.2108463
0.08847628 0.042192496 -0.050133668 -0.12352644 0.011786481 -0.054107882 0.11017956 0.1785137
0.24134748 -0.13062446 -0.014989184 -0.10789009 -0.13071065 0.19617072 0.09294087 -0.053770274
0.0027235288 0.23200597 0.06925922 0.13998498 -0.01567112 -0.14903982 -0.02918359 0.019249555
-0.12430268 -0.2070122 0.1445086 -0.05564015 0.16181801 0.11432998 -0.080386765 -0.08529357
-0.020972516 -0.14224467 -0.09803183 0.09410699 -0.034141734 0.14833057 0.051300343 0.023568915
0.09910884 -0.06572903 0.07336433 -0.030480279 0.18196268 0.2607002 -0.21930948 -0.124311455
0.039647445 0.017728953 0.034117572 0.09781422 -0.10064422 -0.031394824 -0.06833864 -0.007968974
0.31394705 0.1095883 -0.09216837 -0.037307933 0.2093 0.061740503 0.32118285 -0.052668154
0.090861745 -0.024086015 0.060812917 -0.071562424 0.13573946 0.11237534 0.07257297 0.031201415
0.07584851 0.16317478 0.25744715 0.098434806 0.00766469 -0.012301514 0.19632977 0.14614828
0.056183055 -0.04476331 0.18836726 0.08905665 -0.048272893 0.20973307 0.24155356 -0.036368303
0.111846976 -0.0018613476 0.03436701 -0.0074282982 0.0880402 0.02804045 0.14359616 0.2803777
0.06947215 -0.029182564 -0.058928236 0.38242263 0.13007437 0.02942449 -0.14622255 0.2690683
0.07631856 0.002700681 0.10406115 0.14460798 0.054892495 0.17810772 0.051282544 0.23083586
0.1758095 -0.01656042 -0.011336187 0.1291561 -0.022401704 0.12998441 -0.0043524103 0.21928577

lstm.weight_ih_l1 f4 [256, 64]
00000000: 0db3 4bbc 8d86 c5bd f5e0 8bbd 61f1 bbbd
00000010: 958d 8c3d b56e 46bd 3664 56bd ae02 10bc
00000020: 5152 f73b de61 3f3e 2441 52bd 63f2 95bd
00000030: c7e8 16be acc4 38bd 95e4 d63c 6fe9 9f3c
00000040: 870f 68bc 7e8c 553c 825d 6dbd 2da2 1b3e
00000050: 1b95 d53c cee3 ed3d 656a 8a3d 86ee 103e
00000060: b9d5 ce3c 4b7a 143d 93b5 16be 314d 30bc
00000070: 4a41 07be 58a9 b7bd 7da8 d73d 2b21 e7bd
00000080: e429 d2bd 2dd0 6c3d 2bc6 82bd 108b 0e3d
00000090: 8cad 933d 9f73 06be e66f c7bd f060 0fbd
000000a0: a681 363c 2614 1bbe df33 be3d 145d 7cbe
000000b0: da37 0d3d 8efa 8d3d 5e6d b13d 4977 ac3d
000000c0: 872c 623d 4298 11be 4858 95bc 0e9a b23d
000000d0: 5a56 2abc 8c42 d33d 708c 6abd e8df 2b3d
000000e0: e9cf 5d3d d980 36bc 51f9 fbbd eae5 ce3c
000000f0: 8b5d aebd f226 9abd b42c 8bbe 3797 0dbe
00000100: a317 06be 601e 53bb 659f 4b3d a0cd 4dbd
00000110: 4db1 c1bc 29f3 4fbd a5ee f53b e8ac 88bd
00000120: cebf 4e3c e0f8 0a3e 9328 213e 6125 2f3d
00000130: d8a4 dd3d 165a b7bd 3861 05bd 3039 923e
00000140: 9bca 92bd 51bc ca3d 2fd0 823d 28a4 5ebc
00000150: 613e 7bbd 0040 cb3d baab 843d f6ff 153e
00000160: 7d51 1b3e 493a d43d 028c 78be 53b9 b5bd
00000170: 96ef 033e 0b37 11bd 01d3 1b3d d5ac 04bb
00000180: 8936 53be 9f8f 113e a3d9 1dbd 9cde 9b3d
00000190: d0af 943c bc07 d73d 2cf3 a53d 8a7a 6b3e
000001a0: 08d0 d7bd 24d1 a2bd a3a7 5c3d 5dac fcbd
000001b0: fb0d 8dbc 5c0f c03d bdc1 963c 1c14 8abc
000001c0: b296 b4bb bab4 bbbd 43ee 553e 7095 a2bd
000001d0: b6a9 d13d 5a7c 85bc d4d9 38bd 6ede d73d
000001e0: 3f3c 1ebe f14b 063d 43b7 94bd 02f0 3cbe
000001f0: b3a2 a3bc 4f31 843d 6937 10bc 6b4c 12be
00000200: ee3e 2d3d 6365 7dbe 1040 613c 2c64 18be
00000210: 51f2 0b3e 77f9 fc3d 2ec8 0ebc 31e0 3c3d
00000220: f0f0 103d 02d8 113f 8995 933c 518b 8a3d
00000230: d143 42be 48e0 dfbc f317 1fbe 1aaf 583f
00000240: 9b10 0c3e 7a38 393c 33a1 c7bc c616 cb3d
00000250: 8b0f 43bb 186f a63c a08f a7bc e181 f73d
00000260: 5a74 023e 0c92 323e 6ace 72be 224d e9bd
00000270: c5fb e23c f8aa ea3d 1c84 123d 0bba ebbc
00000280: de33 40be 6859 62bd a07e ccbd c619 0cbd
00000290: cc5d b5bd 4a06 97be 939c 78bd d8c6 70be
000002a0: a8f0 5a3d 678c f43c 7946 07bc f7b2 163e
000002b0: cf25 a73e 4adf 6ebb a416 16bd 4fea 0abe
000002c0: 5d9a 383d e7f7 27be 8f0d b93c 64d4 1abe
000002d0: ddbd e9bd 4d70 d63d 6b58 a8bc 55bb f33d
000002e0: 1eba c0bd ad28 37b9 82ab 01bd 60da 8abe
000002f0: 4821 033e 9f46 df3d 689f 87be b3fe 17be
00000300: 63db 313e 323c 9f3d dd09 0ebe 77cd 99bc
00000310: 4eca 723e d49c 203d 7745 a33d 6959 c13d
00000320: 22c6 84bd 0adc 113e be8e 8ebe c473 84bd
00000330: 2c67 093e cefb ce3b c037 923c 7e4f ed3d
00000340: deff d53c a00b 883b cfc2 91bd cfcb de3c
00000350: 6651 1abe 3a19 943d ee89 03be 7e0a c43c
00000360: 5aba 2e3e d2a4 943b 3823 2b3e 0b53 1bbe
00000370: e0a4 013d ea92 a4be 60b8 9a3d 66cf b23d
00000380: 435d a1bc c90e 1cbe 0cdb e7bd 6b66 7dbd
00000390: 5660 65bd 60fd e6bc 75ff dd3c 6791 d5bd
000003a0: 359a 6d3c 8683 003e ed1e 2cbe ff1a e6be
000003b0: 8bea cabd fed6 763d b6ee fb3d 6e44 833d
000003c0: 970e 0bbe 73f4 27be 0103 893c 8604 15be
000003d0: c390 f1bd 55ce ac3c 386c adbd ea27 45be
000003e0: 5a50 5fbd c715 c2bc 41c5 913b c819 cb3c
000003f0: 0f6a ffbc 9dd2 843d b924 f4bd 3156 09be
-0.012432826 -0.09644804 -0.068300165 -0.09176899 0.06862942 -0.048445422 -0.052341662 -0.008789701
0.0075476547 0.18689677 -0.051331654 -0.07321622 -0.14737235 -0.045109436 0.026232043 0.01952049
-0.014163858 0.013033984 -0.057950504 0.15198584 0.026072076 0.11615716 0.067585744 0.1415349
0.025248395 0.03624944 -0.14717703 -0.010760591 -0.132085 -0.08967847 0.105301835 -0.11285623
-0.10261896 0.05781572 -0.06385454 0.03480059 0.07210836 -0.13130043 -0.0973814 -0.035004556
0.011139309 -0.15144405 0.092872374 -0.24644881 0.034477092 0.06932555 0.08663438 0.08421189
0.055218246 -0.14218238 -0.018230572 0.0872079 -0.010396564 0.10315427 -0.057262838 0.04196158
0.054153357 -0.011139118 -0.12303413 0.025256116 -0.08513936 -0.075269595 -0.27182543 -0.13827215
-0.13094954 -0.003221415 0.049712557 -0.050244927 -0.023644114 -0.050769005 0.0075052553 -0.06673604
0.012618972 0.13571501 0.15738134 0.042760257 0.10822457 -0.089527294 -0.03256342 0.28559256
-0.0716755 0.098992 0.06387364 -0.013588943 -0.061338786 0.099243164 0.06478067 0.14648423
0.15167804 0.103626795 -0.24272159 -0.088732384 0.12884364 -0.035452884 0.038043026 -0.0020244617
-0.20626272 0.14214943 -0.038537633 0.07610819 0.01815024 0.10499522 0.08103022 0.22995964
-0.10537726 -0.07950047 0.05387081 -0.12337563 -0.01721858 0.093779296 0.018402928 -0.016855292
-0.0055111283 -0.0916533 0.20891671 -0.07938659 0.10237448 -0.016294647 -0.045129612 0.10540472
-0.1545267 0.032787267 -0.07261517 -0.1845093 -0.019975042 0.06454717 -0.008802273 -0.14286964
0.042296343 -0.24745707 0.013748184 -0.14881963 0.13666655 0.12352269 -0.008714719 0.046112243
0.035386026 0.56970227 0.01801564 0.06764854 -0.18971182 -0.027328625 -0.1553648 0.84642184
0.1367821 0.011304969 -0.024368858 0.09916453 -0.0029763903 0.020316646 -0.020454228 0.12085319
0.12739697 0.17438525 -0.23711553 -0.11391665 0.027707944 0.11458391 0.03577052 -0.028775236
-0.18769786 -0.055261046 -0.09985089 -0.034204267 -0.08855781 -0.29496986 -0.060696196 -0.23513353
0.053452164 0.029852105 -0.008256548 0.14716707 0.32646033 -0.0036449009 -0.036642686 -0.13565944
0.045069087 -0.16403161 0.022589473 -0.15120083 -0.11413167 0.104706384 -0.020549973 0.11900965
-0.09410499 -0.00017467393 -0.031657703 -0.27119732 0.12805665 0.10902142 -0.26488805 -0.14843254
0.17368846 0.07775153 -0.1387095 -0.018774731 0.23709986 0.039212063 0.07972234 0.09440882
-0.06483103 0.14244094 -0.2784328 -0.06467393 0.13418263 0.0063166386 0.01784885 0.115874276
0.026122984 0.0041517764 -0.07117235 0.027196793 -0.15070114 0.07231374 -0.12845585 0.023930784
0.17063275 0.0045362497 0.16712654 -0.15168397 0.031651378 -0.32143337 0.07554698 0.08730964
-0.019697791 -0.15240015 -0.11321077 -0.06186525 -0.056000076 -0.02819699 0.02709935 -0.10428124
0.014502098 0.12550172 -0.16808672 -0.4494247 -0.09908017 0.060263626 0.1230139 0.06409536
-0.13579784 -0.16401844 0.016725065 -0.14552507 -0.11795189 0.02109448 -0.08467907 -0.19253507
-0.05451999 -0.023692025 0.0044485633 0.024792567 -0.031178502 0.06485484 -0.11921067 -0.13411786

lstm.weight_hh_l1 f4 [256, 64]
00000000: fdc9 813d d152 3bbd 4f53 063e cd9f f23d
00000010: ca32 fc3c ed1d 093d a84a 29bd 34bb 3abe
00000020: 4f2d 78bd 4695 a13c 5d2e 9ebd 769b 0dbe
00000030: 1f7f 8abd 886c 7b3d 5a1e 1e3d 4335 c2be
00000040: 6ac8 ed3d 3b7f 4bbd dd4a 0ebc 4924 39be
00000050: d776 c8bc c87d 333e 50c2 9fbc 1ad1 e43c
00000060: 2ba7 e6bd 144f 5a3d 4f31 0abd 674a 033d
00000070: b99d 8bbd 1a08 b7bd 19c1 c33d 59dd b2bd
00000080: 1e76 30bb 9165 acbd f94f 20be 8a20 7fbe
00000090: 0085 92ba d5d5 1cbd 6cc9 a23d eb55 243e
000000a0: a279 93b9 6fb8 ad3d c06f 61bc c436 b73d
000000b0: e523 9d3d 0157 25be 314a 463d 8525 083e
000000c0: 0360 893b 4338 68bd ef43 ce3d 397a e93c
000000d0: 1546 81bd 641f b43c 9055 d23d 1383 2a3d
000000e0: 61b1 2dbc f31c 1c3c 17c9 833c 6c9f 413c
000000f0: 90a0 953d 0564 ddbc a88d 32be 923e 363d
00000100: 8d53 47be 44f3 9a3d 9fb9 193e 23fc 45bd
00000110: c1df 85be 6d70 843d c64b 34bc 3651 d5bd
00000120: 5651 8dbd b5e2 28bd f5f1 3e3c 15d7 12bd
00000130: ee18 5bbd 5c4f 0abe 4303 973e 7fec eb3d
00000140: c4d3 d33d 755f 27be 94e8 443d 2b28 03be
00000150: 401b 6dbd 7e6a 01bd 744b 9fbd e810 a2bd
00000160: 8cfc 52be 5ab5 13be b11b 5ebe 38dd 29be
00000170: cbbe 27bc 427c afbc bb55 08bd 0f47 3a3d
00000180: f058 503d c166 82b9 57fa cd3b 006c 6cbd
00000190: e144 d63c 39d1 26be d4f8 21bd 6978 87bc
000001a0: 634b 3dbd 8c78 6ebd c3d1 a8bc e5ce b73d
000001b0: 8c81 db3c 17c3 23be c74b c83d a410 393e
000001c0: 68e8 00be 6e01 1d3e a254 313e ab2c 7d3d
000001d0: 6025 b8bd 8286 023e 126a b13d e71d cebd
000001e0: 7ac0 65ba 6576 6dbd 1555 a43d c909 eebd
000001f0: 0a17 143d 4622 183e 8a19 5c3d cc77 c6bd
00000200: 8178 34be b82a f03b f1d3 373e 6cec b33e
00000210: c383 64be d287 8e3e fe15 bfbd fd2b 22be
00000220: 3134 a1be bff2 013e c0ca 8c3c d6f8 45be
00000230: 8cf0 0d3e 621c f93c 28e6 6b3d 3e9f 343e
00000240: c79b a13e 612f 05be fd80 8c3c f4c8 05bf
00000250: 8c61 2dbe 9c8c 943e a4b0 e0bc 5abf 0b3e
00000260: 7e79 8ebe 1622 1cbe 30c2 323d 5e6b 96bd
00000270: b673 17be 7165 b33b 5e09 713e b9cf 54be
00000280: ead4 e9bd 21e1 c43d 65c1 27be 15e8 6cbd
00000290: 3bce f1bd 4204 b2be 90c9 bdbd 0213 49be
000002a0: b425 523d fc64 2d3c 35eb c03d 667c bb3d
000002b0: dec2 983e 5807 b4bc 5c08 073e 406c 923e
000002c0: 8bb4 a7be c21d 513e bcd6 393d be5b 9e3e
000002d0: 6cd8 a3be f893 0a3c f5ad 923e 8da6 23be
000002e0: 9b75 82bd 1c23 b73d 3118 dcbd 48e8 57be
000002f0: 8445 2f3e f592 8c3b 323a 483c ce17 23be
00000300: a137 083e 2204 3b3e 8fd5 493c 2592 1cbe
00000310: 10e1 63bd 4542 c03d 9e2c 14be df01 07bd
00000320: 9ff2 e33c 21ef e4bc 0a45 1dbc 2c5a cbbd
00000330: 68c4 153e 946a f839 2b1a 63bd f877 8abe
00000340: 1dde 03be 08be 1bbe d35a 88bd a329 36be
00000350: e492 5b3e 2deb 12be 678d 0d3d 7fae 023b
00000360: 17ae 803d b3b7 edbd c9f1 d6bd de85 4a3d
00000370: 8663 efbc 5b32 b2bd 0b14 063d 31b7 823d
00000380: 5c72 1abd c8e2 d0bd 1b3c 9e3d 52df 683d
00000390: 30da 5ebd 0830 3cbb c439 56bd 48cf 613e
000003a0: 94df 853d 7ee8 30be 1aa1 a73d 260f 513d
000003b0: 24c0 a33d 54ad d73c 49a9 d63d 7215 d93d
000003c0: 69c9 03be cb93 f3bd 8787 f1bd d4d0 083d
000003d0: 83f9 6e3e cb8e e33d 0009 e4ba 6cc3 e33c
000003e0: 32ad 12be d652 00be e97d 5a3d 442c eebc
000003f0: a94d 1ebd 6043 58be 1ebb 0fbe b75f ed3c
0.06337354 -0.045733277 0.13117717 0.11846886 0.030785937 0.033475805 -0.041330963 -0.18235475
-0.060590085 0.0197245 -0.07723687 -0.13828835 -0.06762528 0.0613828 0.038603164 -0.3793126
0.116104916 -0.049681883 -0.008684841 -0.18080248 -0.02447073 0.1752845 -0.019501835 0.027931739
-0.112623535 0.05329807 -0.03373843 0.032053377 -0.068171926 -0.08937092 0.09558315 -0.08733625
-0.0026925872 -0.0841781 -0.15655507 -0.24914756 -0.0011178553 -0.038289864 0.079485744 0.160484
-0.00028128648 0.084824435 -0.013759553 0.089459926 0.07672862 -0.1614647 0.0484106 0.13295563
0.0041923537 -0.05669428 0.10071551 0.028500663 -0.06312195 0.021987624 0.10270226 0.04162891
-0.010601372 0.009528386 0.016087098 0.011817794 0.073060155 -0.027025232 -0.1743685 0.044493265
-0.19465466 0.075659305 0.15012215 -0.04833616 -0.26147273 0.06466756 -0.011004394 -0.104158804
-0.06900279 -0.04123183 0.011654367 -0.03584965 -0.05349057 -0.13506836 0.29494676 0.115197174
0.103431255 -0.16345008 0.048073366 -0.12808292 -0.057887316 -0.0315957 -0.077780634 -0.07913381
-0.20604151 -0.14424649 -0.21690251 -0.16588295 -0.01023836 -0.021421555 -0.033284884 0.045477923
0.050866067 -0.0002487209 0.0062859464 -0.057720184 0.02615589 -0.1629075 -0.03954394 -0.016536908
-0.046214473 -0.05822043 -0.020607835 0.08975009 0.026795171 -0.1599239 0.097800784 0.18072754
-0.12588656 0.15332577 0.17317441 0.061810177 -0.08991504 0.12746623 0.086628094 -0.10064297
-0.0008764338 -0.057974238 0.080240406 -0.1162296 0.036154784 0.14856824 0.053735293 -0.09690818
-0.17624094 0.007329311 0.17951943 0.35141313 -0.22315888 0.27837998 -0.093303666 -0.15837093
-0.3148513 0.12690257 0.017186522 -0.19333205 0.13861293 0.030409042 0.05759254 0.17638871
0.3156416 -0.13006355 0.01715135 -0.52259755 -0.16931742 0.29013526 -0.027427979 0.13647214
-0.27827066 -0.15247378 0.043642223 -0.073446974 -0.14790234 0.0054747392 0.2353873 -0.20782365
-0.11417563 0.096132524 -0.16382368 -0.05783852 -0.118069135 -0.34768873 -0.092669606 -0.19636157
0.051305488 0.010583159 0.09419862 0.091545865 0.29836172 -0.021976158 0.13186783 0.28598213
-0.3275493 0.20421508 0.045370802 0.3092937 -0.32001054 0.00845813 0.28648344 -0.15981503
-0.06370088 0.089422435 -0.10746802 -0.21084702 0.17116362 0.0042899796 0.012220906 -0.1592705
0.1330247 0.18263295 0.012318983 -0.15290125 -0.05563456 0.0938764 -0.14470145 -0.03296077
0.027825652 -0.027946057 -0.00959898 -0.09929308 0.14625704 0.00047381653 -0.055444878 -0.27044654
-0.12877698 -0.1520921 -0.06657948 -0.1778932 0.21442753 -0.14347525 0.03455868 0.0019940434
0.06283205 -0.116073035 -0.104953356 0.049444072 -0.029222261 -0.08701011 0.03273396 0.06382597
-0.037706718 -0.10199505 0.07726308 0.0568536 -0.0544073 -0.0028715152 -0.052301183 0.22051728
0.06536785 -0.17276189 0.081850246 0.051039837 0.07995632 0.026327766 0.10481507 0.105997935
-0.128698 -0.11893424 -0.11793428 0.03340228 0.23337369 0.1111122 -0.0017397702 0.027803145
-0.14323881 -0.125316 0.053342734 -0.029073842 -0.03864828 -0.21119452 -0.14036223 0.028976304

lstm.bias_ih_l1 f4 [256]
00000000: ef31 92bd ff92 edbc eda9 d4bd af80 7b3d
00000010: 4e88 b1bc f902 3e3d f543 d93d d713 d8bb
00000020: a822 c03c fb96 b0bd 7dbc 4fbd d66c 8dbd
00000030: 2577 abbd 64d4 a3bd ffe6 de3d e87a c7bd
00000040: 518f e0bb 89ad 58bd 91be cdbc 8caa 8a3d
00000050: 5d79 723d fbc6 c6bb 4981 1ebd f08e 9bbd
00000060: 12f1 373c ee0e 6abd 6e4e 433e e602 123e
00000070: e234 3ebd 68ad bebc df3e 7abd 9f89 853d
00000080: 84e4 503d c61f e938 656a 8a3d 6f47 033d
00000090: bae4 493d c7f6 b53c ddec 453d 422a db3b
000000a0: 4966 07bd 6e4d 143d e614 a33c 3a5f 7bbd
000000b0: ec66 bb3d 0104 d3bd b2bb 3abb ccab a53d
000000c0: 5f6f f43c 36cb 3dbd f821 dfbc 68d2 c43d
000000d0: d0fe 383d 79bd d4bd 0fac b23d 10f0 493d
000000e0: fba9 463e aee0 6cbc 437d b13d 80f3 76bb
000000f0: 9634 383e 16d4 8a3d f0d6 8f3e efa8 393d
00000100: 3b07 89bd 83af da3c 3859 8f3d 444d 2abd
00000110: 1434 96bd 9350 8b3d 109d 3a3c 7ddb e73d
00000120: ab86 06bd 0ef2 b43d 31c7 833d 3094 89bd
00000130: 19d1 683d b49f d5bb 33fe de3d 68e3 dd3d
00000140: b9aa 313d 2019 043e ad60 363d dac7 8ebd
00000150: 3a14 2d3d 947d 013e bea2 073e 969d 1b3d
00000160: 7e66 143e 8fff 023e 5fb4 24bd 6415 e73a
00000170: 1222 fe3d 50b7 d33d 35f4 933c be99 563d
00000180: 0329 073e 209b cb3d 7f9a 0d3e f081 b53c
00000190: 85d1 903b 0a99 aabc 8ff5 ee3d 6bd1 2cbd
000001a0: 1370 e73c 0eae 413d 5bb8 c2bd 8224 4cbd
000001b0: 3abd f5bb bad4 91bd 1a4e feba 738f 5a3d
000001c0: 876f 303d 5aec 003d bbf7 c8bd 0cef f53d
000001d0: 9cde 923d dede b6bc b251 66bd a4ec cfbd
000001e0: 5400 f0bc 7541 903d 151b 5fbd aa2f e6bc
000001f0: 5e19 f83c dade 453d 36ce bfbb 4161 ad3d
00000200: a4e8 a93c 84c3 84bd 6f78 36bc b84b 7c3d
00000210: 55f0 343d e83e 9eba 4cb2 d0bd 3d31 a0bd
00000220: 111b 95bd 98fc 7f3d a676 febc 9983 f23d
00000230: 8297 e4bd 411f 723d 6dee b1bd 3e2f 113c
00000240: c2bc b0bd bd42 56bb a647 1bbd d22d b1bc
00000250: 6957 883d 041e 233d df0e 1f3d 6d7e 3cbd
00000260: 8016 7a3d 9ede d53d 4e05 df3d 85ff 5c3d
00000270: 5306 74bd 2cb1 ec3d 567e 063e a5d9 c4bd
00000280: 3b9c b43c 853c 02be 3760 9fbd 39d8 0c3e
00000290: bd0e babd c0d3 63bc 1235 6d3d 582d b7ba
000002a0: b267 fc3c 8a81 1abe 5211 3a3d 4c30 cb3c
000002b0: c2e4 02be f24f b0bd 84a7 e1bb 80cb d7bc
000002c0: d6c8 153d ba18 323d 525d 05be c8a3 0ebd
000002d0: c84c 063e 79e0 d23b d3c9 8abd c892 403d
000002e0: aa86 b13d bcac 4ebc 35af 81bc 0c1d f2bc
000002f0: 3784 c13d 8691 34bd eb22 943d cf91 a0bd
00000300: 295d 243e ec43 4a3d 64bf ac3d 1114 cebc
00000310: 8f96 043e 108e 39bc ff77 40bd 8a99 9dbd
00000320: c9f7 b6bc c00b 1a3e 4489 373c 838f d43d
00000330: b42c 1dbe fbb5 5e3e 663f eb3c 8f28 29bd
00000340: 5ccc a93d d529 f03d 7de7 943d 1d8d 893d
00000350: 85e0 df3d 7c26 9b3d da21 1b3b 42d3 333e
00000360: 6364 953b a649 233e 34ea 323e 69d3 293e
00000370: 1ef5 a73d 4f1b 5fbd c2a2 413e d5dd 183d
00000380: 0dcb 933d b15e ee3d ddb6 f63d 821a 1a3c
00000390: ddea c43d 6d50 f73d 47a8 5e3e f09e c6bc
000003a0: f399 c03d e9eb 163e d64d 41bd 5f99 723d
000003b0: fdc5 a3bd 9d49 45bb db0b 88bd 99c8 913d
000003c0: 37c8 593c 4884 773e 1335 333e 9cb5 313e
000003d0: 61fb f0bd 2553 373c 6439 a4bd bcc6 043d
000003e0: c3bc de3d 3441 4d3d af4a febd 2be2 1d3d
000003f0: cc85 c7bc 86dc be39 9fda e63d 381c 22bc
-0.0713843 -0.029000757 -0.10383973 0.06140202 -0.02167144 0.046389554 0.10608665 -0.006594162
0.023454025 -0.08622547 -0.050716866 -0.069055244 -0.083723344 -0.07999495 0.10883903 -0.097402394
-0.006853022 -0.05289987 -0.025115283 0.067708105 0.059197772 -0.006066201 -0.038697515 -0.075956225
0.011226909 -0.057143144 0.19072887 0.14258918 -0.04643715 -0.023276046 -0.061095115 0.0652039
0.05099918 0.00011116224 0.067585744 0.032050546 0.049290396 0.0222124 0.048321594 0.006688387
-0.03305653 0.036206655 0.019907426 -0.061370112 0.0915049 -0.10303498 -0.0028493223 0.08089408
0.029838262 -0.046336375 -0.027237877 0.09610444 0.045164883 -0.103877015 0.08724224 0.049301207
0.1940078 -0.014457865 0.0866647 -0.0037681758 0.1798881 0.067787334 0.28093672 0.045327123
-0.06690832 0.026695019 0.06999439 -0.041577592 -0.07334152 0.06802478 0.011389986 0.11321161
-0.032843273 0.08835231 0.06434477 -0.06717718 0.056840036 -0.0065192822 0.108883284 0.1083439
0.043375704 0.1290021 0.04452579 -0.069717124 0.042255618 0.1264556 0.13245675 0.037992083
0.14492223 0.127928 -0.040211078 0.0017630276 0.12408842 0.103376985 0.018060783 0.052392714
0.13199238 0.09941697 0.13828467 0.022156686 0.004419508 -0.020824928 0.1166793 -0.042191904
0.028251683 0.047285132 -0.09507819 -0.049839504 -0.007499364 -0.071206525 -0.0019401938 0.05335946
0.04307511 0.031475402 -0.09812876 0.12008485 0.071713656 -0.022323068 -0.056230254 -0.101525575
-0.029297031 0.07043735 -0.054469187 -0.0280989 0.030285534 0.04830823 -0.0058534397 0.08465815
0.020740815 -0.06482604 -0.011137112 0.06159565 0.04417451 -0.0012073191 -0.101902574 -0.078218915
-0.07280553 0.06249675 -0.031062435 0.118415065 -0.1116171 0.059111837 -0.08688054 0.008861361
-0.08629753 -0.0032693588 -0.037910126 -0.021628294 0.06657297 0.039823547 0.03883254 -0.046019007
0.061056614 0.104428515 0.10889684 0.05395462 -0.059576344 0.1155723 0.13134131 -0.09611825
0.022047153 -0.12718399 -0.077820234 0.13754357 -0.09084842 -0.013905466 0.05791194 -0.0013975305
0.030811165 -0.15088478 0.045426674 0.024803303 -0.12782577 -0.08608998 -0.0068864245 -0.026342154
0.036568485 0.043480612 -0.1302388 -0.034824163 0.13115227 0.0064354506 -0.06776776 0.04701498
0.08668263 -0.012614425 -0.015830616 -0.029554866 0.09449046 -0.044084094 0.072332226 -0.07840311
0.16051163 0.04938118 0.08434942 -0.025156053 0.12948059 -0.011325374 -0.046989437 -0.07695301
-0.02233495 0.15043545 0.01120216 0.10378935 -0.15349084 0.21749108 0.028716754 -0.041298445
0.082909316 0.11726729 0.072707154 0.06716368 0.109314956 0.075757 0.00236713 0.17561057
0.004559086 0.15946063 0.17472154 0.16584553 0.08201049 -0.054469403 0.18909743 0.03732093
0.07216463 0.11639155 0.12046597 0.009405734 0.09615109 0.12075887 0.2174388 -0.02424571
0.094043635 0.1473843 -0.04719337 0.059228297 -0.07996748 -0.0030103691 -0.06642886 0.07118339
0.013292364 0.24171555 0.17500715 0.17354435 -0.11766697 0.011189257 -0.08018759 0.03241609
0.10875847 0.05011101 -0.124165885 0.03854577 -0.024355792 0.00036403927 0.112721674 -0.009894423

lstm.bias_hh_l1 f4 [256]
00000000: 0c38 4e3d f985 013c cda2 40be 650d 943d
00000010: f14b 413d a90f 6a3d 1944 ca3d 8db2 8b3c
00000020: b05a 5cbd d6e8 bfbc d954 283e 48e3 99bc
00000030: 238f e63c df99 9d3d cec9 79bd e934 32be
00000040: b3c6 ce3c 702c 1dbc 5c63 c93d 523f 163d
00000050: dd45 b23d fa5b 16bd c0bb c3bd 9962 103e
00000060: 4371 063e 5827 443d 2ae4 773e aba4 173e
00000070: 7ae8 633d 062d d13d 620c a6bc 5cb5 24be
00000080: 8777 213e f16a 573e 24d3 1d3e 6fa4 103d
00000090: 2990 903d e95d 8e3d b6b4 933d 9bc6 13bd
000000a0: 1fbf adbd 0db1 0a3d 2a17 16be 2ada 693c
000000b0: 7f5c cb3d 5115 c7bd c066 3ebd dfdf 7a3d
000000c0: 3fbd eebc 68ce 6d3c 0623 8cbd 6fa5 a63d
000000d0: 9bdf aebb cc5b ccbc 4313 78bd 15d0 b83d
000000e0: 295b 693e 432f cbbd 1813 fa3b ecc8 efbd
000000f0: 9668 3b3e acbc c63d 453e 573e 002c 77bd
00000100: 4fbb 043d 718f 2cbd 88eb 813d f9e6 38bd
00000110: d518 c0bc 22e0 0c3e 9d14 883d 1d1f 72bd
00000120: 6b49 2cbd 38bd 0dbd 2260 713c 6e20 64ba
00000130: 2cf3 9e3c 2819 dd3d 3753 96bd 388b 57bd
00000140: 229c 5c3d 8618 b4bc 1776 1a3e 2473 4c3d
00000150: a01c 153d ca8e c73d 195f fb3d afc3 013d
00000160: 341d 003e 9091 ccbc 2f3a 43bb 4c31 163e
00000170: c748 c23d b2d7 38bc cfda aabd ddfb 93bc
00000180: 60f3 7cbd ce1c 393e 0fbe a33b fd9c e1bd
00000190: 18df 393d d6b8 46bc da3f 1ebb 9ea1 5bbd
000001a0: a3a7 563d 229f 853d fb1a e03d 8515 18bd
000001b0: 2b9d c13d 3cfb 4a3c 74ec d83c c7ef 9abc
000001c0: ad94 f83c 39a6 fdbd e0fd 83bd fe43 703d
000001d0: a0bf 8cbd d47a b6bd 52bf 923d e842 86bd
000001e0: 8094 e5bc d60f 17bc 1c22 d33d d919 053d
000001f0: e5a9 ab3d 58e8 9f3d 65f7 103c a021 173d
00000200: d07b 9b3d 213f ee3d 3efe acbc 004d e73c
00000210: 82dc 8cbd 3fc3 37bd 852e 39be 5c37 37b8
00000220: 90ee 673d 3032 e5bd 3bbd 10bc 7b7a e6bd
00000230: 9884 023e 553e c43d 4b2d 623d 4476 b03d
00000240: 6ad6 c73d fbfc e03c fa6a 48bc a0d7 12bd
00000250: 3727 dd3c 65e7 60bc 36e5 c43c 2e45 d0bd
00000260: 93ae b03d a8c5 313d 6e11 6b3c 2cda 07bd
00000270: 6a37 fd3b 6677 e5bd 23eb ab3d 08d1 fe3d
00000280: 9f5c 27bb 4e5f 0ebd 2cda 9cbd b249 20bd
00000290: 582f 2a3d 4baa edbd 8684 01bd 4c23 b43d
000002a0: 9d62 c43d 399f 1dbe 7286 0fbc efbc c73d
000002b0: cb0e cb3d ec62 cb3c 3a0f 66bd cd23 ebbd
000002c0: 830b a1bd 6d84 1dbc 1570 04ba dc68 90bd
000002d0: 7ddd febb 27ab ae3d 2fde 533b 3612 c2bd
000002e0: 1bd5 c0bd 8248 55bd 78a5 6bbd cffb 663d
000002f0: 5a82 0ebd 1d9f 7abd d384 b63d 066d c43c
00000300: bf32 323e 7812 19be a03c 19bd 4efd 1a3e
00000310: ac35 963d 7838 b83d f23d 163e da49 e6bd
00000320: e1b9 753d 92c0 a63c c152 10bd d6e6 18bd
00000330: 4e7b 1ebe f8a7 8e3d bef4 2d3e b69f d83d
00000340: b5c3 453e 66d6 d8bd 999d 38bd a35e fc3d
00000350: de0e 90bd cc53 323d ad7d 1ebb 4e1f 603d
00000360: 23ee 9c3c 60a1 bb3d 6ce2 d03d 54d7 2b3e
00000370: 7886 f23d f5a7 f83d ac8a 673d b6a1 1f3e
00000380: ee16 dbbc fa02 8b3d d776 803d 6549 b4bd
00000390: 805d 423d 117d 033c 5d6f 4f3e 7e37 193e
000003a0: 79c5 b8bd 3fcf eabc 069c 563d cda1 0a3e
000003b0: 76c3 a7bd 860d 4a3e 40d0 353e d214 003e
000003c0: 6c11 e23c 96c2 543e 966c 543d 4b0f 143e
000003d0: ef89 a2bd 3ddf 7dbd 4fed f73d d32e 373e
000003e0: eec8 da3d e234 ed3a 0aba 4ebc ec28 0b3d
000003f0: 4c85 633a d87e eb3d 9da7 173e 25fa 09bc
0.05034642 0.007905477 -0.18812104 0.07229117 0.047191564 0.05714384 0.0987627 0.017052913
-0.053797424 -0.023426455 0.16438617 -0.018785134 0.028144425 0.07695364 -0.06098347 -0.17402996
0.025241232 -0.009593114 0.098334044 0.03668148 0.087047316 -0.03670881 -0.09557295 0.14100112
0.13129143 0.047889084 0.24208131 0.1480891 0.05564163 0.10213666 -0.020269576 -0.16084808
0.15768252 0.21036889 0.15412575 0.035313066 0.07058746 0.06951506 0.07212202 -0.036078077
-0.08483719 0.033860255 -0.14657274 0.014273206 0.099297516 -0.09720863 -0.04648471 0.061248656
-0.029142974 0.014514543 -0.06842618 0.08137023 -0.0053367144 -0.024946116 -0.060565244 0.090240635
0.22788681 -0.09921124 0.0076316707 -0.11708245 0.18301615 0.09703955 0.21019848 -0.060344696
0.032405194 -0.042128984 0.06343752 -0.045142148 -0.02344934 0.13757375 0.06644557 -0.059111703
-0.042062204 -0.03460428 0.0147323925 -0.0008702342 0.019403063 0.10795814 -0.07340091 -0.052623004
0.053859837 -0.02198435 0.1508411 0.049914494 0.036404252 0.09744032 0.12273998 0.03168076
0.1251114 -0.024971753 -0.0029789319 0.14667243 0.094865374 -0.0112818945 -0.08342516 -0.018064434
-0.061755538 0.18077394 0.004997022 -0.11016271 0.045378774 -0.012129029 -0.0024146945 -0.053620927
0.052405965 0.06524493 0.10942646 -0.037129898 0.094538055 0.0123890005 0.026479937 -0.018913163
0.030344332 -0.1238522 -0.06444907 0.058658592 -0.06872487 -0.08910146 0.07165398 -0.0655573
-0.028024912 -0.009220084 0.1030924 0.032495353 0.08382014 0.07807988 0.008848046 0.0368973
0.07591975 0.11633135 -0.021117326 0.028234959 -0.06877996 -0.044863936 -0.18084152 -4.3682157e-05
0.056623995 -0.11191213 -0.008834179 -0.1125383 0.12745893 0.095822014 0.055218976 0.086163074
0.09757693 0.02746438 -0.012232536 -0.035850167 0.026996238 -0.013727044 0.024035078 -0.10169445
0.086270474 0.04340139 0.014347417 -0.03316705 0.007727553 -0.11204414 0.08394458 0.12442213
-0.0025537384 -0.03475886 -0.076588005 -0.03913278 0.041549057 -0.116047464 -0.031620525 0.08795795
0.095891215 -0.1539277 -0.008760082 0.09752833 0.09914931 0.024827443 -0.056166865 -0.11481438
-0.07863524 -0.009614092 -0.0005052102 -0.0705125 -0.0077778683 0.085287385 0.0032328477 -0.0947613
-0.09415647 -0.052071102 -0.05753085 0.056392487 -0.03479228 -0.0611869 0.08912053 0.023977768
0.1740217 -0.14948452 -0.037411332 0.1513569 0.07334456 0.089951456 0.14672068 -0.11244555
0.05999172 0.020355497 -0.03523517 -0.037329517 -0.15476725 0.06965631 0.16987893 0.105773374
0.19312938 -0.10587768 -0.04507217 0.12322738 -0.07034086 0.043536946 -0.0024183795 0.054717354
0.019156521 0.09161639 0.101994365 0.1678136 0.11842054 0.1214141 0.056528732 0.15589032
-0.026744332 0.06787677 0.06272667 -0.088030614 0.04745245 0.008025424 0.20257325 0.14962575
-0.0902204 -0.028663276 0.05239489 0.13538285 -0.08191578 0.19731721 0.17755222 0.12507942
0.027596198 0.20777354 0.051861368 0.14458959 -0.07936465 -0.061980475 0.1210581 0.17888956
0.106828555 0.0018097425 -0.012617597 0.033974573 0.00086792256 0.11498803 0.14810033 -0.0084214555
