LogAnomaly/result/deeplog/deeplog_epoch318.pth (torch_old, 646122 bytes, 30 tensors)

lstm.weight_ih_l0 f4 [256, 1]
0	0xbe52cf50	-0.20586896
1	0xbc5dbe94	-0.013534207
2	0xbd83e6c1	-0.06440497
3	0x3db540e2	0.08850266
4	0xbe0bdc93	-0.13658361
5	0x3d4593da	0.048236705
6	0xbdd697d9	-0.104781814
7	0x3d967a39	0.07347531
8	0x3e3cc3e9	0.18434109
9	0x3dad31ff	0.084568016
10	0x3e2bd556	0.167806
11	0xbdae53ce	-0.08512078
12	0x3dc895cd	0.09794197
13	0x3e0ccc97	0.1374992
14	0xbda6ab26	-0.08138113
15	0x3e87122a	0.26381046
16	0x3daca8a4	0.08430603
17	0x3d646054	0.05575593
18	0xbe1bb5e2	-0.15206102
19	0x3e1f8092	0.1557639
20	0x3e2badd3	0.16765527
21	0x3d9ef9db	0.077625
22	0x3d8cb8f4	0.068712145
23	0xbd77e9c2	-0.060525663
24	0x3e57a07d	0.21057315
25	0xbd8e3c02	-0.06945039
26	0xbcaa0f32	-0.020759199
27	0x3d9600a9	0.07324345
28	0x3d9eb1ea	0.07748778
29	0xbe078add	-0.13236566
30	0x3e068e1d	0.1314015
31	0x3c838c67	0.01605816
32	0x3df5d78a	0.120040014
33	0x3dd61047	0.104523234
34	0x3cb2d47e	0.02182984
35	0x3d3a24a2	0.045445092
36	0x3e5decd0	0.21672368
37	0x3c495499	0.012288236
38	0x3e0fb609	0.14034285
39	0xbe116136	-0.1419724
40	0x3b37f242	0.002806798
41	0xbe0df398	-0.13862455
42	0x3e05e655	0.13076146
43	0x3ed1ed59	0.41001394
44	0xbe0a5118	-0.13507497
45	0x3de5ed1f	0.11226868
46	0x3e160f29	0.1465422
47	0xbe522109	-0.20520414
48	0x3e4bb5c5	0.19893558
49	0x3e2532fa	0.16132727
50	0x3ebf43e1	0.37356475
51	0x3daa2279	0.083073564
52	0x3d60007a	0.054687954
53	0x3ead390a	0.3383258
54	0x3deced87	0.11568742
55	0xbd7c934a	-0.061663903
56	0xbe36869a	-0.17824784
57	0x3ce625f4	0.02809427
58	0x3de30684	0.11085227
59	0x3d2b8fbc	0.041885123
60	0x3d315d12	0.04330165
61	0x3e20e2f7	0.1571158
62	0x3dd0cde1	0.10195518
63	0xbe1de966	-0.15421066
64	0xbd846b00	-0.06465721
65	0x3d2f5dd7	0.042814102
66	0x3e006a36	0.12540516
67	0xbd3dc2eb	-0.046328466
68	0xbdbb274d	-0.091383554
69	0x3d741d30	0.059598148
70	0x3dc8760c	0.09788141
71	0x3d6ef9bd	0.058343638
72	0xbd20fcef	-0.039303716
73	0x3e988880	0.2979164
74	0x3e2f7477	0.17134272
75	0xbe0aa2a6	-0.13538608
76	0xbc2ccfa1	-0.010547549
77	0x3db83e21	0.08996225
78	0x3e2fbcd9	0.17161883
79	0x3e885cd6	0.26633328
80	0x3d0a91c6	0.033830427
81	0x3e0eddd3	0.13951807
82	0xbdf80212	-0.1210977
83	0x3d1df601	0.038564686
84	0x3bb77efc	0.0055998545
85	0x3e6fb45e	0.23408648
86	0x3e10d7fd	0.14144893
87	0xbd60bca2	-0.054867394
88	0x3ca0c6c5	0.01962603
89	0x3d9d60fd	0.07684515
90	0xbf348a93	-0.7052395
91	0x3da55eba	0.08074708
92	0xbd7e1e5a	-0.062040664
93	0xbe7fb385	-0.24970825
94	0x3e617175	0.22015937
95	0x3c990dc7	0.018683327
96	0xbd0584da	-0.0325974
97	0x3e2b07db	0.16702215
98	0x3ddccf58	0.10781735
99	0x3de5b05b	0.11215278
100	0x3d86a98c	0.06575307
101	0x3e4d7299	0.20063247
102	0x3df46347	0.11932998
103	0x3d137ff0	0.036010683
104	0x3e1ad5cf	0.15120624
105	0x3e770853	0.24124269
106	0x3e3df2c5	0.1854964
107	0x3d75b31e	0.059985273
108	0xbe03d178	-0.12872875
109	0xbce35f01	-0.027755262
110	0x3d7cea99	0.061747167
111	0xbde8db74	-0.11369982
112	0x3da97727	0.0827468
113	0x3de24343	0.110479854
114	0x3ea16570	0.31522703
115	0x3e810aba	0.25203496
116	0x3d594a3e	0.05304932
117	0x3cb7b9b8	0.022427425
118	0x3e311565	0.17293318
119	0xbcd50ba8	-0.026006535
120	0xbe3af7b3	-0.18258552
121	0x3e3c1cd5	0.18370374
122	0x3ef55709	0.47917965
123	0xbd12c49b	-0.03583203
124	0x3d38ae07	0.04508784
125	0x3d59e62d	0.05319803
126	0xbdb08703	-0.086195014
127	0xbe1d7416	-0.15376315
128	0x3eeef869	0.46673897
129	0xbe0e54ea	-0.1389958
130	0x3da8fbb3	0.08251133
131	0x3d04f749	0.032462392
132	0x3e8707b5	0.26373067
133	0xbe3a31e0	-0.18183088
134	0xbd51b989	-0.05120233
135	0x3e21c1c8	0.15796578
136	0x3e39266d	0.18081065
137	0xbd3496e3	-0.04408921
138	0xbd8bd875	-0.06828395
139	0x3e6dacc0	0.2321043
140	0xbe7ad643	-0.24495797
141	0x3e35ec52	0.1776593
142	0xbe29b049	-0.16571154
143	0xbdc867d7	-0.09785431
144	0x3e6f22b0	0.23353076
145	0xbe9f14af	-0.31070468
146	0xbe89b182	-0.2689324
147	0x3e618de7	0.22026788
148	0x3e3b2ac6	0.18278036
149	0xbd1411e6	-0.03614988
150	0xbe24ebe5	-0.16105612
151	0x3e504144	0.20337397
152	0x3dd15aa9	0.1022237
153	0x3ea5a671	0.32353547
154	0xbef61648	-0.48063874
155	0x3caa7058	0.020805523
156	0x3cd285e5	0.025698612
157	0xbe437b14	-0.1908992
158	0x3f733eac	0.95017505
159	0x39aa7c63	0.00032517602
160	0x3f032315	0.51225406
161	0x3cc32ec3	0.023826009
162	0x3db09ac3	0.086232685
163	0xbcea169b	-0.028575232
164	0xbea4165d	-0.32048312
165	0xbe5a84f9	-0.21339788
166	0xbea86628	-0.3289044
167	0xbe448eb9	-0.1919507
168	0x3e59b8bb	0.21261875
169	0x3d6b189a	0.05739651
170	0xbe013b9d	-0.12620397
171	0xbfd8cca3	-1.693745
172	0x3ec3cc72	0.38241917
173	0x3e9e28c4	0.30890477
174	0x3d8a3798	0.06748885
175	0x3f04a0e4	0.51808
176	0xbdffbd32	-0.12487258
177	0xbe1eedc4	-0.15520388
178	0xbe1b75a0	-0.15181589
179	0xbd1e7371	-0.038684312
180	0xbed99f27	-0.42504236
181	0x3ef51d2c	0.4787382
182	0x3d15e2a5	0.0365931
183	0x3e31be85	0.17357834
184	0xbec36323	-0.38161573
185	0x3da4723e	0.080296025
186	0x3d4d2fc0	0.050094366
187	0xbda305bc	-0.07960078
188	0x3e0d4c3c	0.13798612
189	0xbdaacab0	-0.08339441
190	0x3dabf8f4	0.083970934
191	0xbeb700f4	-0.35742915
192	0x3e49b5f7	0.1969832
193	0xbc342cfb	-0.010997052
194	0x3e22bfcd	0.15893479
195	0x3eac4846	0.3364889
196	0x3e3e3058	0.18573129
197	0x3da73e61	0.08166195
198	0x3e432fa9	0.1906115
199	0x3e6924d1	0.2276795
200	0x3d330eef	0.043715414
201	0x3e9c3495	0.30508867
202	0x3da9f4f0	0.08298671
203	0x3e678649	0.2260982
204	0x3e86671c	0.2625054
205	0x3e1cc46f	0.15309308
206	0x3e74b0a9	0.23895516
207	0x3ea1487f	0.31500623
208	0xbdbf3ea9	-0.09338123
209	0x3d0e93c6	0.034808896
210	0x3eab788a	0.33490402
211	0x3e5ce80d	0.21572895
212	0x3ea40628	0.32035947
213	0x3e781e63	0.24230342
214	0xbe5c2319	-0.21497764
215	0xbe38acaa	-0.18034616
216	0xbe370de3	-0.17876391
217	0x3d41c3ab	0.047305744
218	0x3b0f61eb	0.0021878432
219	0x3de2ccf7	0.1107425
220	0xbcad070e	-0.021121528
221	0xbeacd736	-0.33757943
222	0x3e21cf74	0.15801793
223	0x3e915559	0.28385428
224	0xbde87923	-0.1135123
225	0x3eaffd53	0.3437296
226	0x3daa1b56	0.08305995
227	0x3ea4e8d4	0.32208884
228	0xbdc30a0c	-0.09523401
229	0xbe69e4c7	-0.22841178
230	0x3db66424	0.08905819
231	0xbe9a95b6	-0.30192345
232	0xbe61ac11	-0.22038294
233	0x3e93737a	0.2879904
234	0x3e510a13	0.20414
235	0xbe99a2c5	-0.30006996
236	0x3e8be9d6	0.2732684
237	0x3c98f430	0.018671125
238	0x3e5ed7b4	0.21761972
239	0xbe2e0a7e	-0.1699619
240	0xbe43f5dd	-0.19136758
241	0xbdfe7ec3	-0.12426522
242	0x3e033f82	0.12817195
243	0xbe633dc3	-0.22191529
244	0x3d9bdd89	0.07610614
245	0xbdc56b8f	-0.09639656
246	0x3d849929	0.064745255
247	0x3dc1e160	0.09466815
248	0x3e3743d2	0.17896965
249	0xbe640186	-0.22266206
250	0x3e9d747c	0.30752933
251	0xbe128286	-0.14307603
252	0x3dda48aa	0.10658391
253	0x3e28e26c	0.16492623
254	0x3e7a3980	0.24435997
255	0x3e2171b9	0.15766038

lstm.weight_hh_l0 f4 [256, 64]
0	0x3e6c7873	0.23092823
1	0xbe1ee1e3	-0.15515856
2	0x3d2aae0d	0.041669894
3	0x3d8e114b	0.06936892
4	0x3e835281	0.25648883
5	0xbdeb19e9	-0.11479551
6	0xbd368b2c	-0.04456632
7	0x3db4e827	0.08833342
8	0x3e3126da	0.17299977
9	0x3e0b28e4	0.13589817
10	0xbbd8f851	-0.0066213985
11	0xbe3d041f	-0.18458603
12	0xbe4c0eea	-0.19927564
13	0x3dd95dca	0.10613592
14	0xbdeb2f90	-0.11483681
15	0x3e8b70f1	0.27234605
16	0x3e5883b6	0.21143994
17	0xbd5d6094	-0.054047182
18	0x3d2ce745	0.042212743
19	0x3e18727c	0.14887422
20	0xbdad0733	-0.08448639
21	0x3da52d00	0.08065224
22	0xbd330fdc	-0.043716297
23	0x3e3c52b4	0.18390924
24	0x3e946c40	0.28988838
25	0x3e7199af	0.23593782
26	0x3dc3b642	0.09556247
27	0x3daf8fbb	0.08572336
28	0x3db32e0f	0.08749019
29	0xbea967e9	-0.3308709
30	0x3d70ac61	0.058758143
31	0x3e09666b	0.13417976
32	0x3d3ad9d7	0.045617905
33	0x3d949e70	0.07256782
34	0x3db8579d	0.09001086
35	0xbe30d76e	-0.1726968
36	0xbd0e40b9	-0.034729693
37	0xbe5a872d	-0.21340628
38	0xbdec6d8b	-0.11544331
39	0xbea828d4	-0.3284365
40	0x3da280a1	0.0793469
41	0xbe036c5c	-0.12834305
42	0x3dc1c27b	0.09460922
43	0xbde2f917	-0.11082666
44	0x3d4df65a	0.050283767
45	0x3e37e1ee	0.17957279
46	0x3d256369	0.040378008
47	0x3e81e0df	0.25366876
48	0xbe9b34f7	-0.30313846
49	0xbdbff70f	-0.093732946
50	0x3e317649	0.17330278
51	0xbeb104bb	-0.34573922
52	0x3d7b7271	0.061388437
53	0x3e4f60bf	0.2025175
54	0x3dea9de2	0.11455895
55	0xbcba6d6a	-0.02275725
56	0xbddd0ad7	-0.10793083
57	0x3ec70ccd	0.38876954
58	0xbcf47f90	-0.029845983
59	0xbdffb3f0	-0.12485492
60	0x3e0d79a4	0.13815933
61	0xbd5e3c12	-0.054256506
62	0xbe13bc11	-0.1442721
63	0xbdac2357	-0.08405178
64	0xbd84fdaa	-0.06493695
65	0xbd9fc028	-0.07800323
66	0x3ea2d718	0.31804729
67	0x3e8e959a	0.27848512
68	0x3e13b841	0.14425756
69	0xbe3880ab	-0.18017833
70	0x3db1dc41	0.08684588
71	0x3da40c96	0.08010213
72	0x3e1a6fc2	0.15081695
73	0x3dbbeea6	0.09176378
74	0xbdfce253	-0.123478554
75	0x3d9320ab	0.07183965
76	0xbe598623	-0.21242575
77	0x3e39e910	0.18155313
78	0xbe025573	-0.12727909
79	0xbea91453	-0.3302332
80	0x3e58b791	0.21163775
81	0xbd1830de	-0.03715598
82	0xbdf4dfaf	-0.11956727
83	0x3e5978b7	0.21237455
84	0x3dd976e2	0.10618378
85	0xbdd765be	-0.10517453
86	0xbe184c94	-0.14872962
87	0x3cbe1293	0.023202216
88	0x3ec4aeed	0.38414708
89	0x3daeaf53	0.08529534
90	0xbd9ff48a	-0.07810314
91	0x3dfac473	0.12244501
92	0x3e6f0c88	0.23344624
93	0xbb80f35f	-0.003935262
94	0x3d165f0c	0.036711738
95	0x3e36c8a2	0.17849973
96	0x3ba5c69c	0.0050590765
97	0x3e3dce31	0.18535687
98	0x3d75dbc6	0.060024045
99	0xbe08663e	-0.13320252
100	0xbc40f57c	-0.011777278
101	0xbe36e81c	-0.1786198
102	0xbe1bec04	-0.15226752
103	0x3da7fadd	0.08202145
104	0x3e3bf7f4	0.18356305
105	0xbd6bc26e	-0.05755847
106	0xbdeab87d	-0.114609696
107	0x3dcfe0a7	0.10150271
108	0x3981c0f6	0.00024748564
109	0x3e1cf106	0.15326318
110	0x3e5dbbfe	0.21653745
111	0xbdfa2a04	-0.12215045
112	0xbe722a06	-0.23648843
113	0xbdfbaa99	-0.12288398
114	0xbce2d144	-0.027687676
115	0xbe6f3078	-0.23358333
116	0x3d17c60d	0.03705411
117	0xbcf9ec95	-0.030508319
118	0x3e90cee4	0.28282845
119	0x3e1e539d	0.15461583
120	0xbd35aab9	-0.044352267
121	0x3eb7fa13	0.3593298
122	0x3d2a81dd	0.041627754
123	0xbe26ea83	-0.16300397
124	0x3e1da619	0.15395392
125	0xbe2d9272	-0.16950396
126	0x3d9894ae	0.074502334
127	0xbdaa96e4	-0.08329561
128	0x3e0315e2	0.12801316
129	0x3daab955	0.083361305
130	0x3de207aa	0.11036618
131	0x3e7377b9	0.2377614
132	0x3e25412f	0.16138147
133	0xbe9232ba	-0.28554326
134	0xbe84fe05	-0.25975052
135	0x3e67ddee	0.22643253
136	0x3e6493c4	0.22321993
137	0xbcfb34ec	-0.030664884
138	0xbda3de6d	-0.08001409
139	0x3dfb3ef6	0.12267868
140	0xbdb10dd7	-0.08645218
141	0x3d8c41ec	0.06848511
142	0xbe0c3d11	-0.1369517
143	0x3dc20ea2	0.09475447
144	0x3e226497	0.15858684
145	0xbe73f2e7	-0.23823129
146	0xbcbbeb26	-0.022939276
147	0x3e651763	0.22372203
148	0x3d4d314c	0.05009584
149	0x3d82ea84	0.063923866
150	0xbd622e77	-0.055220094
151	0x3e1391cd	0.14411087
152	0x3e47959c	0.19490665
153	0x3dc796a2	0.09745528
154	0xbc8c0d86	-0.017096292
155	0x3e9bca83	0.30427942
156	0xbd3e53fc	-0.046466812
157	0xbecfab36	-0.4056031
158	0x3dff63ce	0.12470208
159	0x3da79713	0.08183112
160	0xbdc27524	-0.09494999
161	0x3e167e8c	0.14696711
162	0x3e584672	0.21120623
163	0xbe10af9b	-0.14129488
164	0x3b4bcf27	0.0031098814
165	0xbe2b1bfe	-0.16709897
166	0xbd4d5393	-0.05012853
167	0xbedbb39c	-0.4291047
168	0x3e4b0126	0.19824657
169	0xbe2cc978	-0.16873729
170	0xbd094992	-0.033517428
171	0xbd816ee2	-0.06319977
172	0x3da30bee	0.0796126
173	0x3db9382d	0.09043918
174	0x3e8733df	0.26406762
175	0x3c2e9dac	0.010657709
176	0xbd1c2c4f	-0.038128193
177	0x3c30c36f	0.0107887825
178	0xbe208603	-0.15676121
179	0x3d793336	0.060839854
180	0xbabdc884	-0.0014479314
181	0x3db9b0f7	0.090669565
182	0x3cf82fbd	0.0302962
183	0x3e8a9eff	0.2707443
184	0xbd240ced	-0.04005139
185	0x3e7cdf9c	0.24694675
186	0xbbec03aa	-0.007202585
187	0xbf14a35d	-0.5806177
188	0xbc1b2c0b	-0.00947095
189	0xbe0c1444	-0.13679606
190	0x3da9570c	0.08268556
191	0xbe9c6764	-0.3054763
192	0x3db222eb	0.08698066
193	0xbe6bdf7e	-0.23034474
194	0xbd1feac4	-0.03904225
195	0x3cd397ef	0.025829284
196	0x3d35bb45	0.044368047
197	0x3dab61d9	0.08368272
198	0x3c2841e3	0.010269615
199	0xbdd21488	-0.10257822
200	0xbd7cfa21	-0.06176198
201	0xbc89d465	-0.01682491
202	0x3d2d2b09	0.04227737
203	0x3dd74f6d	0.10513196
204	0x3b3e5ffa	0.0029048906
205	0x3cf5c737	0.03000222
206	0x3d914f9c	0.070952624
207	0x3dd680aa	0.104737595
208	0x3b96e7b8	0.0046052597
209	0xbdb7dcd2	-0.08977665
210	0xbe1a6b42	-0.15079978
211	0x3cd26fc9	0.025688069
212	0x3d4833ec	0.04887764
213	0x3d05d711	0.032675806
214	0xbe6f2cb7	-0.23356901
215	0x3e9725b0	0.2952094
216	0xbd3218c0	-0.043480635
217	0x3e0a8748	0.13528168
218	0x3d1b956f	0.037984308
219	0x3db34a93	0.08754458
220	0x3e09e49a	0.13466111
221	0xbe7d2074	-0.24719411
222	0xbcc55a86	-0.024091017
223	0xbbc97cfe	-0.0061489334
224	0x3dad4fa2	0.084624544
225	0xbd31f0c6	-0.04344251
226	0x3e049013	0.12945585
227	0x3d1ec688	0.038763553
228	0xbd69c16a	-0.05706922
229	0xbe51d8ad	-0.20492812
230	0xbded8601	-0.11597825
231	0xbe3848c6	-0.17996511
232	0xbd42bc19	-0.047542665
233	0x3d3201cb	0.04345874
234	0xbdedb423	-0.11606624
235	0xbd0aa480	-0.033848286
236	0x3e6d7cac	0.2319209
237	0xbd2df07f	-0.042465683
238	0xbe206f10	-0.15667367
239	0x3eaffc12	0.34372002
240	0xbcaf63a0	-0.02140981
241	0xbc572cb0	-0.013133213
242	0x3da8ea86	0.08247857
243	0xbe18079f	-0.14846657
244	0xbdb7a0e0	-0.08966231
245	0x3d9473c4	0.07248643
246	0x3d3b7768	0.04576817
247	0x3df1bd9e	0.11803745
248	0xbdb2d6ff	-0.087324135
249	0x3e0cb63b	0.1374139
250	0x3dce86a5	0.10084275
251	0xbdb56d9f	-0.08858799
252	0x3dd3b4b0	0.10337198
253	0xbcc2bc9a	-0.023771573
254	0xbdf64e82	-0.12026693
255	0xbc7270a4	-0.014797363

lstm.bias_ih_l0 f4 [256]
0	0x3df41827	0.11918669
1	0x3db14c07	0.08657079
2	0x3d308535	0.043095786
3	0xbda51ca0	-0.080621004
4	0x3e4e54cd	0.20149536
5	0xbc459e8b	-0.012061725
6	0x3e3ed362	0.18635324
7	0x3c029e3c	0.007972296
8	0x3e821d21	0.2541285
9	0x3e3d6916	0.18497118
10	0xbdfd44ca	-0.12366636
11	0x3e67869a	0.2260994
12	0x3d0ccf56	0.03437742
13	0x3e02252f	0.12709497
14	0x3dec8718	0.115492046
15	0x3e09800e	0.13427755
16	0x3e3fec7c	0.18742555
17	0x3e23a21b	0.15979807
18	0x3e45280a	0.19253555
19	0xbc9891e4	-0.018624254
20	0xbda35d2e	-0.07976757
21	0x3d13e5d5	0.036107857
22	0x3ddf6baf	0.10909211
23	0x3db955e7	0.09049588
24	0x3e144c81	0.14482309
25	0x3e31591f	0.17319153
26	0x3d4fe12e	0.050751857
27	0x3d9247b8	0.071425855
28	0xbc993375	-0.018701294
29	0x3e7e612e	0.24841759
30	0x3e9243ef	0.28567454
31	0xbde0644e	-0.109566316
32	0xbd15e8d8	-0.03659901
33	0x3e03284e	0.12808344
34	0x3d3199bc	0.043359503
35	0xbde3faee	-0.111318454
36	0x3e2077df	0.15670727
37	0xbdad1e54	-0.0845305
38	0x3a5216b4	0.0008014247
39	0xbdb27129	-0.0871299
40	0x3df78030	0.12084997
41	0xbcf07e0d	-0.02935698
42	0xbd512e4b	-0.05106954
43	0x3f2ba0d7	0.670423
44	0x3d45b77b	0.048270684
45	0x3e8a5e7e	0.27025217
46	0x3ccf1ed3	0.025283253
47	0x3dd8c0de	0.105836615
48	0xbd230164	-0.039796248
49	0x3d8aeb5a	0.06783171
50	0xbce925eb	-0.028460464
51	0xbe060e27	-0.13091336
52	0xbe08d582	-0.13362697
53	0x3e9afaaa	0.30269367
54	0x3dc27d43	0.09496548
55	0x3d2ff9b0	0.04296273
56	0x3e44f583	0.1923428
57	0xbd52a5ad	-0.051427532
58	0x3d4c7305	0.04991438
59	0x3da1076f	0.07862746
60	0xbcc9c8e3	-0.024631923
61	0x3df2a9f7	0.118488245
62	0xbe7e658f	-0.24843429
63	0x3d01c076	0.031677686
64	0xbd6dbacc	-0.05803947
65	0x3e12f89f	0.14352654
66	0xbd97d8aa	-0.07414372
67	0x3df95074	0.12173548
68	0x3d971479	0.07376952
69	0x3dac2d44	0.08407071
70	0x3dbe49af	0.09291398
71	0x3ddb2eb5	0.10702268
72	0x3dbb7ee2	0.0915506
73	0x3da9b892	0.08287157
74	0xbe1691c2	-0.1470404
75	0x3e0e2554	0.13881427
76	0x3d3b7363	0.04576434
77	0x3d90a7cb	0.07063254
78	0x3c023575	0.007947315
79	0xbdbe6102	-0.092958465
80	0x3d5fcca0	0.054638505
81	0xbc90b14c	-0.017662667
82	0xbdc6ba6c	-0.09703526
83	0xbdeecb41	-0.11659861
84	0x3d395e06	0.045255683
85	0x3d9cd6ba	0.07658143
86	0xbde1d363	-0.11026647
87	0xbbdb2ddf	-0.006688818
88	0x3e550d5b	0.20805876
89	0x3df4afe1	0.11947609
90	0x3dcc4ec7	0.09975963
91	0x3c95922a	0.018258173
92	0x3e565c40	0.20933628
93	0x3dbade9a	0.09124489
94	0xbe337fc1	-0.17529203
95	0x3d88581f	0.06657433
96	0xbd9950ce	-0.074861154
97	0x3c205e3a	0.00978809
98	0xbd30285c	-0.04300724
99	0x3cabd004	0.020973213
100	0x3cf74543	0.030184394
101	0xbe0bd0c6	-0.1365386
102	0xbd3079d2	-0.043084927
103	0x3b804421	0.0039143716
104	0xbdc1b7d7	-0.09458893
105	0x3b08b81c	0.002086169
106	0x3e00f0fd	0.1259193
107	0xbe8453c1	-0.2584515
108	0xbded6300	-0.115911484
109	0x3e446899	0.19180526
110	0x3dc952de	0.09830259
111	0x3dcbbcb0	0.09948099
112	0x3d886c49	0.06661279
113	0x3cae8bcd	0.021306897
114	0xbc3d63c1	-0.011559428
115	0xbdb3c923	-0.08778598
116	0xbdeedf1e	-0.1166365
117	0x3dd32a48	0.10310799
118	0x3db05ba0	0.08611226
119	0x3c196254	0.009361822
120	0x3dc7580d	0.09733591
121	0x3e0b65b6	0.13613018
122	0xbe5d4248	-0.21607316
123	0x3df44cba	0.11928697
124	0x3ce36f15	0.027762929
125	0x3d43b06f	0.047775682
126	0x3d9f2b81	0.077719696
127	0x3e28c5c3	0.1648169
128	0x3caf02f8	0.02136372
129	0x3e4a18f4	0.19736081
130	0xbdb4e2ac	-0.08832297
131	0xbe5a6e58	-0.21331155
132	0x3e029dbc	0.12755483
133	0x3dfa04e3	0.12207963
134	0xbe478b62	-0.19486764
135	0x3e752e88	0.23943532
136	0x3e70d9b5	0.23520549
137	0x3e05ac99	0.13054122
138	0xbda10044	-0.07861379
139	0xbd203ae7	-0.039118674
140	0x3e50528e	0.20343992
141	0xba6e3174	-0.00090863486
142	0xbd34be39	-0.044126723
143	0x3dc9aae9	0.09847052
144	0x3e68ae1b	0.22722666
145	0xbe0dba71	-0.13840653
146	0x3d933d07	0.071893744
147	0x3d119abe	0.035547964
148	0x3cdeeef9	0.02721356
149	0x3e2bbdbb	0.16771595
150	0xbd8ebea2	-0.06969954
151	0xbdb5e416	-0.088813946
152	0xbd914543	-0.07093289
153	0x3de8368d	0.1133853
154	0x3da8a72c	0.082350105
155	0x3dc9f5e7	0.09861355
156	0xbd19131b	-0.037371736
157	0xbe9096c3	-0.28240022
158	0x3e064009	0.13110365
159	0x3bfd1e1a	0.0077245357
160	0xbe73ddb3	-0.2381504
161	0xbe32c30a	-0.17457214
162	0x3e134be2	0.14384416
163	0x3d066a45	0.03281619
164	0x3d18b35b	0.03728042
165	0xbb3fc0b3	-0.0029259145
166	0xbda9f3ee	-0.08298479
167	0x3d9f635a	0.07782622
168	0xbbb8fbdb	-0.005645258
169	0xbdb08fcb	-0.08621176
170	0xbda4b608	-0.08042532
171	0x3dda2035	0.10650674
172	0xbb373433	-0.0027954697
173	0x3db4ad61	0.08822132
174	0x3d831c8c	0.06401929
175	0xbe575e83	-0.21032147
176	0xbc2d5ee7	-0.0105817085
177	0xbc96873d	-0.018375034
178	0x3cad5f7d	0.021163696
179	0x3d547331	0.051867668
180	0x3e29fefe	0.16601178
181	0x3e8a7463	0.2704192
182	0xbd803062	-0.06259228
183	0xbe1230d4	-0.14276439
184	0xbdd46e77	-0.10372632
185	0x3c8ebca0	0.017423928
186	0x3e3e374b	0.1857578
187	0x3d8d202a	0.068909004
188	0xbe313daa	-0.17308679
189	0xbd74765e	-0.059683196
190	0xbd778816	-0.060432516
191	0xbe0ce9bb	-0.13761036
192	0x3ea44bde	0.32089132
193	0xbd13c175	-0.036073167
194	0xbccacc2a	-0.024755556
195	0xbe40b8e5	-0.18820532
196	0x3e5f2973	0.21793155
197	0x3da168cb	0.07881316
198	0x3e030b4f	0.12797283
199	0xbdde6b29	-0.10860283
200	0x3d699f10	0.05703646
201	0xbc09a9d8	-0.00840231
202	0x3e124ebe	0.1428785
203	0xbc0f9320	-0.008763105
204	0x3e37a0c4	0.17932421
205	0xbd4c7744	-0.049918428
206	0x3db00ac1	0.08595801
207	0x3dc4ab4f	0.09602987
208	0x3dc7cd10	0.097559094
209	0x3cb5618f	0.022141246
210	0x3e52ab9a	0.20573273
211	0xbd26b6b1	-0.04070157
212	0x3d0f77ae	0.035026245
213	0x3d26a7be	0.040687315
214	0x3da042fd	0.07825277
215	0x3d91c6c6	0.07117991
216	0x3d46181f	0.048362847
217	0x3c92f145	0.017937312
218	0x3e47b161	0.19501258
219	0x3cdb1e80	0.026747942
220	0x3e09454f	0.13405345
221	0x3eb2ccd7	0.34921905
222	0x3ea58078	0.32324576
223	0xbe0be9c5	-0.13663395
224	0x3e25e063	0.16198878
225	0xbe079295	-0.1323951
226	0x3dfc63cf	0.123237245
227	0xbdddbe78	-0.10827345
228	0x3de03186	0.10946946
229	0x3e16fb49	0.14744295
230	0x3e0be0a8	0.13659918
231	0x3e94daea	0.29073268
232	0x3e300399	0.17188872
233	0xba13bf1b	-0.0005636082
234	0x3dbd0cf0	0.09230983
235	0x3ef3c467	0.4761078
236	0x3e19d7da	0.15023747
237	0x3de8d3e9	0.11368544
238	0xbd426869	-0.047462855
239	0x3e20cef4	0.15703946
240	0x3e0d773c	0.13815016
241	0x3e06bcc6	0.13157949
242	0x3e326c25	0.17424066
243	0x3d1a1989	0.03762201
244	0x3e622a69	0.2208649
245	0x3e6c2994	0.23062736
246	0x3e6280c5	0.22119434
247	0x3e9d5ca3	0.3073474
248	0x3e2e91dc	0.17047828
249	0x3da9a71a	0.08283825
250	0x3d1c8b99	0.03821907
251	0x3e43e880	0.1913166
252	0xbd8094ae	-0.062783584
253	0x3d2a5ba6	0.04159131
254	0xbe5eaf80	-0.21746635
255	0x3e942397	0.28933403

lstm.bias_hh_l0 f4 [256]
0	0x3e4badee	0.19890568
1	0x3d9870ad	0.07443366
2	0x3d6891c8	0.056779653
3	0x3d99a9ea	0.07503112
4	0x3e18cbd6	0.14921507
5	0x3d3d2300	0.046175957
6	0x3c462f70	0.012096271
7	0x3db64393	0.088996075
8	0x3dbfbb29	0.0936187
9	0x3e5ba54b	0.21449773
10	0x3cb97017	0.022636456
11	0x3e3b5858	0.18295419
12	0x3e2d8cd6	0.16948256
13	0x3abdb7d2	0.0014474338
14	0x3defaa60	0.11702418
15	0x3e1345ef	0.14382146
16	0x3dec1680	0.11527729
17	0x3d0b166a	0.033956923
18	0x3de1efb0	0.11032045
19	0x3d9e6737	0.077345304
20	0xbcefcf19	-0.029273557
21	0x3d7bfba7	0.06151929
22	0x3d392153	0.045197796
23	0xbbc51a2e	-0.0060150838
24	0x3e08289f	0.13296746
25	0x3dc674b0	0.09690225
26	0xbcd807db	-0.026370933
27	0x3dc33a0b	0.09532555
28	0xbce20326	-0.027589392
29	0x3e945435	0.28970495
30	0x3e724c6e	0.23661968
31	0x3dba35ba	0.09092279
32	0x3dcebd7d	0.10094736
33	0x3d88081c	0.06642172
34	0x3d698967	0.057015803
35	0xbc655570	-0.013997421
36	0x3e6a6c1e	0.22892806
37	0xbd91988c	-0.07109174
38	0x3cea6e0d	0.02861693
39	0xbe0cd9f2	-0.13755015
40	0x3cf28cfd	0.029608244
41	0xbb2db586	-0.0026505901
42	0x3d6fbc2b	0.05852906
43	0x3f177669	0.59165055
44	0x3de80bb9	0.11330361
45	0x3e7dda1b	0.24790232
46	0x3d7361b1	0.059419338
47	0x3dc7de3d	0.097591855
48	0xbdbc0aa9	-0.09181721
49	0xbd7168d0	-0.058937848
50	0xbd8f8864	-0.07008436
51	0xbd6fea2a	-0.058572926
52	0xbcfc83f3	-0.030824637
53	0x3efa1a69	0.48848274
54	0xbd2c56fe	-0.04207515
55	0x3d99231b	0.07477399
56	0x3e31c0d8	0.1735872
57	0x3cdfbc29	0.027311401
58	0x3e70d34c	0.23518103
59	0x3dc71916	0.09721582
60	0x3dfea5ff	0.12434005
61	0x3dd5c31a	0.10437603
62	0xbe0fdf50	-0.1405003
63	0x3d291c64	0.04128684
64	0xbd8cf3a6	-0.0688241
65	0x3cbc32d7	0.022973461
66	0xbcd4d2b6	-0.025979381
67	0x3e1c2dc2	0.1525183
68	0xbd0bd2d8	-0.034136623
69	0x3de8a234	0.11359063
70	0x3d31affd	0.043380726
71	0x3e09ae2d	0.13445349
72	0x3e63d11e	0.2224774
73	0xbb74933e	-0.0037319208
74	0xbdecc2a1	-0.1156056
75	0x3d917005	0.07101444
76	0xbaecb6e5	-0.0018059878
77	0x3e46648d	0.19374295
78	0xbdb32a1d	-0.08748267
79	0xbe109058	-0.14117563
80	0x3d9ed4e0	0.077554464
81	0x3bbc2687	0.0057418975
82	0xbdc39f5c	-0.0955188
83	0xbc0caba7	-0.008585847
84	0xbb1872e0	-0.002326183
85	0x3db40840	0.08790636
86	0xbc816f86	-0.015800249
87	0x3dc51522	0.096231714
88	0x3d0083ef	0.03137582
89	0x3d932f5d	0.07186768
90	0x3de5408e	0.111939535
91	0xbda6cc4a	-0.08144434
92	0x3e45e5fd	0.19326015
93	0x3d86a17a	0.06573768
94	0xbce933da	-0.028467108
95	0x3e1bf56b	0.15230338
96	0xbdfcde71	-0.12347115
97	0xbe2aedcb	-0.16692273
98	0x3d412127	0.047150757
99	0xbc00ee54	-0.007869322
100	0xbe057b23	-0.13035254
101	0x3aa789dd	0.0012782175
102	0xbe0667c1	-0.13125516
103	0xbd960df6	-0.073268816
104	0xbd61290a	-0.05497078
105	0xbc51da5e	-0.01280841
106	0x3dbbaf5a	0.09164305
107	0xbe7481c9	-0.23877634
108	0xbcacc356	-0.021089237
109	0x3d6d84cb	0.05798797
110	0x3c52fe3c	0.012877997
111	0xbd40c5e7	-0.047063734
112	0x3d03d511	0.032185618
113	0x3b1f3fcb	0.0024299498
114	0x3d39ca42	0.045358904
115	0xbc57eb04	-0.013178591
116	0xbcb4af7d	-0.022056336
117	0x3d6b4f29	0.05744854
118	0xbd17540f	-0.0369454
119	0xbc9a38e1	-0.01882595
120	0x3dac71cc	0.084201425
121	0xbd9467a9	-0.07246334
122	0x3c120571	0.00891243
123	0xbc9da3e0	-0.01924318
124	0x3dbd25d0	0.09235728
125	0x3dddd115	0.10830895
126	0xbd822f3d	-0.06356666
127	0x3de77f7b	0.11303612
128	0xbdd9e609	-0.10639579
129	0x3df68cae	0.12038551
130	0xbe246564	-0.16054302
131	0xbe4d1aa6	-0.20029697
132	0x3e276364	0.16346508
133	0xbd63687a	-0.05551956
134	0xbe0e8395	-0.13917382
135	0x3e5ceb0c	0.21574038
136	0x3dbd50ff	0.092439644
137	0x3d2d08e3	0.042244803
138	0xbd476568	-0.048680693
139	0xbe00fa8d	-0.12595578
140	0x3caa66ce	0.020800974
141	0xbd63f3f6	-0.05565258
142	0x3de5537e	0.111975655
143	0x3e383849	0.17990221
144	0x3e73cda1	0.2380891
145	0xbdf44f47	-0.119291835
146	0xbbb1258b	-0.005406087
147	0xbddd63e2	-0.10810067
148	0xbe081685	-0.1328984
149	0x3e4bba5a	0.19895306
150	0x3dc6639a	0.09686966
151	0xbd67fc0c	-0.056636855
152	0xbb4b2efa	-0.0031003342
153	0x3e621922	0.220799
154	0x3da93f70	0.08264053
155	0x3e1119e6	0.14170036
156	0xbcca0f1f	-0.024665413
157	0xbe059ea2	-0.13048795
158	0xbd0ddd46	-0.03463485
159	0x3c51c5a4	0.012803469
160	0xbdfe8bcf	-0.1242901
161	0xbe61a4a7	-0.22035466
162	0x3e118b7a	0.14213362
163	0xbd333325	-0.043749947
164	0x3e26d12b	0.16290729
165	0x3df5fe50	0.12011397
166	0xbd8da2df	-0.06915831
167	0xbda48314	-0.08032814
168	0xbcf92b23	-0.030416077
169	0xbe0c1a53	-0.13681917
170	0xbdc078a3	-0.0939801
171	0x3dd3e475	0.10346309
172	0xbd20babe	-0.03924059
173	0x3dfc5daf	0.12322556
174	0x3d504fe4	0.05085744
175	0x3c786772	0.015161382
176	0x3dd7b182	0.10531904
177	0xbd7236af	-0.05913418
178	0x3d97797b	0.073962174
179	0xbcd0358c	-0.025416158
180	0x3e3c96f1	0.18416955
181	0x3e824b7d	0.25448218
182	0xbe68b229	-0.22724213
183	0xbe059bd0	-0.13047719
184	0x3d4318af	0.047630962
185	0x3c4f09ec	0.012636643
186	0x3d264280	0.040590763
187	0x3dd03d66	0.10167961
188	0xbdd82202	-0.105533615
189	0xbd09e8c3	-0.033669244
190	0xbd918d84	-0.0710707
191	0xbba8a658	-0.005146783
192	0x3ea5ec7c	0.32406986
193	0x3de07fc6	0.10961871
194	0xbdb2ccb2	-0.08730449
195	0xbd1a73e9	-0.037708197
196	0x3e4b9901	0.19882585
197	0x3d7c6376	0.06161829
198	0x3ea854d1	0.3287721
199	0xbd4eb865	-0.05046882
200	0x3dcbd6e3	0.09953096
201	0xbce7f43d	-0.028314704
202	0x3d5d5a29	0.05404106
203	0xbd9e7b99	-0.07738418
204	0x3e077c7c	0.13231081
205	0x3deb010b	0.11474808
206	0x3d83391d	0.06407378
207	0x3d01ca85	0.03168728
208	0x3da3ae2b	0.07992204
209	0x3e28ccd2	0.16484383
210	0x3e83cf9a	0.25744325
211	0x3dd797a2	0.105269685
212	0x3b4b30ab	0.003100435
213	0xbc64f86a	-0.013975242
214	0x3e571b1a	0.21006432
215	0x3e1b457d	0.15163226
216	0x3d84e110	0.0648824
217	0xbd5304c0	-0.0515182
218	0x3e3f4191	0.18677355
219	0x3dbb5c13	0.09148421
220	0xbd3b0f6c	-0.045669004
221	0x3e62fed4	0.22167522
222	0x3e83ddbe	0.25755113
223	0xbd0e5994	-0.034753397
224	0x3debd94f	0.11516058
225	0x3b13aff1	0.002253529
226	0x3d146264	0.036226645
227	0xbbde66b1	-0.006787144
228	0x3dba91ae	0.091098174
229	0x3d0415b7	0.03224727
230	0x3e1a50c1	0.15069868
231	0x3e953ade	0.29146475
232	0x3d973b20	0.07384324
233	0xbd0bc4a2	-0.03412307
234	0xbd654ff3	-0.05598445
235	0x3eca4129	0.39502838
236	0x3e0784cb	0.1323425
237	0x3d06b7cc	0.032890126
238	0xbe176c27	-0.1478735
239	0x3e8eebac	0.27914178
240	0x3da2841f	0.07935356
241	0x3c4c815e	0.012482015
242	0x3dd76d89	0.10518939
243	0x3e19ad46	0.15007505
244	0x3d56fd67	0.052487757
245	0x3e3e5b55	0.18589528
246	0x3d5612fe	0.052264206
247	0x3e838fb6	0.2569558
248	0x3e3dbded	0.18529482
249	0xbc51cd01	-0.012805224
250	0xbbf32fa9	-0.007421453
251	0x3e0b7c8f	0.13621734
252	0xbc99927c	-0.018746607
253	0x3e009fc8	0.12560952
254	0xbc8e380d	-0.017360711
255	0x3e6788db	0.226108

lstm.weight_ih_l1 f4 [256, 64]
0	0xbcf7a5c0	-0.030230403
1	0xbda41757	-0.08012264
2	0xbdbda279	-0.09259505
3	0xbdafcad8	-0.08583611
4	0x3d745d95	0.05965956
5	0xbd6c2816	-0.057655416
6	0xbd53d773	-0.05171914
7	0x39ad1c3c	0.00033018168
8	0x3c2a4e40	0.010394633
9	0x3e3ab528	0.18233168
10	0xbd55e800	-0.052223206
11	0xbd29d6a3	-0.04146446
12	0xbe0cabf8	-0.13737476
13	0xbd2f832f	-0.042849716
14	0x3d062af1	0.032755796
15	0x3cbfff6a	0.02343722
16	0xbc27d99b	-0.010244752
17	0x3c545bb5	0.012961318
18	0xbd785160	-0.06062448
19	0x3e358806	0.1772767
20	0x3d1d0aae	0.038340263
21	0x3e1316f2	0.14364222
22	0x3db89c8b	0.09014233
23	0x3e0eec99	0.13957442
24	0x3cd99d38	0.026564226
25	0x3d0ecf35	0.034865577
26	0xbe29fa0f	-0.16599296
27	0x3c007bc6	0.00784201
28	0xbe1a7250	-0.1508267
29	0xbdb391b5	-0.08768026
30	0x3ddf2d12	0.10897268
31	0xbde9ae13	-0.11410155
32	0xbe00870c	-0.12551516
33	0x3d740c8d	0.05958228
34	0xbd97a4db	-0.074044906
35	0x3d8a262a	0.067455605
36	0x3d1b8a01	0.037973408
37	0xbddeaea1	-0.108731516
38	0xbdd2b1c7	-0.102878146
39	0xbc7b66fe	-0.0153443795
40	0x3c918e11	0.017767938
41	0xbe2c4e8a	-0.16826835
42	0x3db7138f	0.089392774
43	0xbe832f89	-0.25622204
44	0x3d614739	0.054999564
45	0x3d856ac3	0.06514504
46	0x3dcd0f45	0.10012678
47	0x3d8033b7	0.06259864
48	0x3d8c06c1	0.06837226
49	0xbe0ec536	-0.13942418
50	0xbc91262c	-0.017718397
51	0x3de47abd	0.11156223
52	0xbcc18d9d	-0.023627097
53	0x3dcf68b1	0.1012739
54	0xbd8fd695	-0.0702335
55	0x3da053e9	0.078285046
56	0x3d7f96d0	0.062399685
57	0xbc50ad5d	-0.0127366455
58	0xbe041c26	-0.12901363
59	0x3d4b12a7	0.049578335
60	0xbdbde80b	-0.09272774
61	0xbd66e98f	-0.056375083
62	0xbe8d737a	-0.27627164
63	0xbe1a72bf	-0.15082835
64	0xbe0abf9d	-0.13549657
65	0x3b8685e7	0.004105318
66	0x3d5391f4	0.051652864
67	0xbd312ad6	-0.043253742
68	0xbce18019	-0.027526902
69	0xbd168c2f	-0.036754783
70	0xbcc4f959	-0.02404468
71	0xbd8aa19a	-0.06769104
72	0x3c4d30d2	0.012523847
73	0x3e25816d	0.16162653
74	0x3e27c22a	0.16382661
75	0x3d73d976	0.05953356
76	0x3deb7b14	0.11498085
77	0xbdc140ac	-0.09436163
78	0xbcb339fe	-0.021878239
79	0x3ea3d90c	0.3200153
80	0xbd928de9	-0.071559735
81	0x3dd0514c	0.10171756
82	0x3da10d9d	0.07863925
83	0xbc9ef997	-0.019406123
84	0xbd33135f	-0.043719646
85	0x3de40b34	0.11134949
86	0x3db3365d	0.08750603
87	0x3e238895	0.1597007
88	0x3e18d2a1	0.14924099
89	0x3dc97297	0.098363094
90	0xbe81f56c	-0.25382555
91	0xbdb6aa17	-0.08919161
92	0x3e001ab9	0.12510194
93	0xbcf155c9	-0.02945985
94	0x3d0ab0a4	0.033859864
95	0xbbba9bb6	-0.0056948317
96	0xbe5b66c0	-0.21425915
97	0x3e185680	0.14876747
98	0xbd3c7405	-0.046009082
99	0x3d900a67	0.07033234
100	0x3cbe7863	0.023250764
101	0x3dee51f9	0.11636729
102	0x3db29e17	0.087215595
103	0x3e814481	0.25247577
104	0xbdf19dec	-0.11797699
105	0xbdebe99f	-0.11519169
106	0x3d79d347	0.060992505
107	0xbdf6cfd0	-0.12051356
108	0xbcefe784	-0.0292852
109	0x3dba99ce	0.09111367
110	0x3c07ab73	0.008280623
111	0xbc9c3902	-0.019070152
112	0xbb43eec1	-0.0029896947
113	0xbdbb9f8f	-0.09161293
114	0x3e6b8b19	0.2300228
115	0xbd87b427	-0.06626158
116	0x3df36155	0.11883799
117	0xbc8c6c69	-0.017141538
118	0xbd3e648e	-0.046482615
119	0x3e04727f	0.12934302
120	0xbe18a66d	-0.14907236
121	0x3cf3df0b	0.029769441
122	0xbda44c8e	-0.08022414
123	0xbe3cfd8e	-0.18456098
124	0xbce40a9a	-0.027837086
125	0x3d4a0c99	0.04932842
126	0xbd015d6c	-0.031583235
127	0xbe0a1beb	-0.13487212
128	0x3d2d168e	0.042257838
129	0xbe842cd3	-0.25815448
130	0x3c25967c	0.010106679
131	0xbe1d64e2	-0.15370515
132	0x3e0ca316	0.13734087
133	0x3df81ff4	0.121154696
134	0x3a9e4f08	0.0012077997
135	0x3d2d3fab	0.042297047
136	0x3d04227d	0.032259453
137	0x3f14c25f	0.58109087
138	0x3c633fd8	0.013870202
139	0x3db35bbf	0.087577336
140	0xbe4ad738	-0.19808662
141	0xbcffba82	-0.031216864
142	0xbe2ad892	-0.16684178
143	0x3f5e267b	0.86777467
144	0x3e0f1119	0.13971366
145	0x3c4b3ab2	0.012404131
146	0xbd228681	-0.039679054
147	0x3ddd394d	0.10801945
148	0x3af261e8	0.0018492313
149	0x3cae0cff	0.021246431
150	0xbd0bc37b	-0.03412197
151	0x3e1c76f1	0.15279748
152	0x3e094b1a	0.13407555
153	0x3e39ca8b	0.1814367
154	0xbe7cb1d4	-0.24677211
155	0xbe05415b	-0.13013212
156	0x3d0039ac	0.031305
157	0x3df08451	0.11743987
158	0x3cfb5f0a	0.030684967
159	0xbcf8f64d	-0.030390883
160	0xbe3cee5f	-0.18450306
161	0xbd625692	-0.05525834
162	0xbdca24a3	-0.09870269
163	0xbcf4de20	-0.029891074
164	0xbde0603e	-0.10955857
165	0xbe9a9c99	-0.301976
166	0xbd783262	-0.060594924
167	0xbe72138f	-0.23640274
168	0x3d3937f3	0.045219373
169	0x3d8ca961	0.06868244
170	0xbc2fd097	-0.010730884
171	0x3e1b11c5	0.15143497
172	0x3eb0eea3	0.34557065
173	0xbb9bed37	-0.004758503
174	0xbd121ad2	-0.03567011
175	0xbe0ddffb	-0.13854973
176	0x3d150594	0.036382273
177	0xbe32a31c	-0.17445034
178	0x3c80b5f7	0.015711768
179	0xbe1dc2f9	-0.15406407
180	0xbdf4fc61	-0.119622
181	0x3dcc99f0	0.09990299
182	0xbc965dd8	-0.018355295
183	0x3e0120c7	0.1261016
184	0xbdc49a1a	-0.09599705
185	0x3b8caada	0.004292828
186	0xbce595ed	-0.028025592
187	0xbe8f4f65	-0.2799026
188	0x3def1277	0.11673444
189	0x3dfa8f3e	0.122343525
190	0xbe870bba	-0.26376134
191	0xbe0bbd9d	-0.1364655
192	0x3e340d37	0.17583166
193	0x3d9f947d	0.07791994
194	0xbe1b7b9d	-0.15183873
195	0xbd3bb2f7	-0.04582497
196	0x3e7776b1	0.24166371
197	0x3d41420d	0.04718213
198	0x3daf1d48	0.08550507
199	0x3d9545fb	0.07288738
200	0xbd7963cd	-0.060886193
201	0x3e13b663	0.14425044
202	0xbea15040	-0.31506538
203	0xbdce5f61	-0.10076786
204	0x3e08c123	0.13354926
205	0xbb94441f	-0.004524722
206	0x3b41d451	0.0029576013
207	0x3ded37f9	0.115829416
208	0x3d49fcef	0.049313482
209	0x3c1dc1b3	0.009628701
210	0xbca693f5	-0.020334223
211	0x3c5675b8	0.01308959
212	0xbe2ae83e	-0.16690156
213	0x3de43834	0.111435324
214	0xbe28371f	-0.16427277
215	0x3b4d6503	0.0031340725
216	0x3e5288e9	0.2056004
217	0x3bf254f5	0.0073953816
218	0x3e4a1546	0.19734678
219	0xbe45726f	-0.19281934
220	0x3d1e5d9b	0.038663488
221	0xbeb7b61a	-0.3588112
222	0x3da66f15	0.08126656
223	0x3d89aede	0.067228064
224	0xbc976208	-0.018479362
225	0xbe35beb7	-0.17748533
226	0xbe020039	-0.12695397
227	0xbd1f137e	-0.03883695
228	0xbd660344	-0.056155458
229	0xbd8f447f	-0.069954865
230	0x3cfea427	0.031084133
231	0xbe091ddd	-0.13390298
232	0x3cbe7338	0.0232483
233	0x3e21f1bb	0.15814869
234	0xbe3ab9d3	-0.18234949
235	0xbf006900	-0.5016022
236	0xbde4660c	-0.111522764
237	0x3d6cb95f	0.05779397
238	0x3e07dd16	0.13267931
239	0x3dc548bc	0.096330136
240	0xbe2eda8f	-0.17075561
241	0xbe3b9f8a	-0.18322578
242	0xbc5eb937	-0.013593963
243	0xbe3986c3	-0.18117814
244	0xbe022dfe	-0.12712857
245	0x3d2e5740	0.042563677
246	0xbd9752b8	-0.07388824
247	0xbe568b03	-0.20951466
248	0xbd68f452	-0.056873627
249	0x3becea14	0.0072300527
250	0xbb826512	-0.0039793337
251	0x3c6cb94a	0.014448473
252	0xbd24cf98	-0.04023704
253	0x3d9ad670	0.07560432
254	0xbe01ff63	-0.12695079
255	0xbdd75493	-0.10514178

lstm.weight_hh_l1 f4 [256, 64]
0	0x3d7cea6d	0.061747003
1	0xbd00ab8e	-0.031413607
2	0x3de28102	0.110597625
3	0x3e008cab	0.1255366
4	0x3d59bb2b	0.053157013
5	0x3ccb92ba	0.024850238
6	0xbd0b3b42	-0.03399206
7	0xbe4bdc09	-0.19908156
8	0xbd8ed50f	-0.069742315
9	0xbb462850	-0.003023643
10	0xbd8fad6c	-0.070154995
11	0xbe1bf7c0	-0.15231228
12	0xbda611b3	-0.081088446
13	0x3d9f099d	0.077655055
14	0x3d3c10d7	0.045914497
15	0xbeed9713	-0.46404323
16	0x3dc13841	0.09434558
17	0xbd15d75d	-0.03658234
18	0xbcf27573	-0.02959702
19	0xbe3a2afb	-0.18180458
20	0xbd925241	-0.07144595
21	0x3e3bf693	0.1835578
22	0xbad3b209	-0.0016151081
23	0x3ceef5e4	0.029169984
24	0xbdb1ae99	-0.0867588
25	0x3dbc5507	0.09195905
26	0xbd2debe1	-0.04246128
27	0x3d5d364b	0.054006856
28	0xbd350a8d	-0.044199515
29	0xbdc3d00e	-0.09561168
30	0x3dd52beb	0.10408767
31	0xbda29e79	-0.079403825
32	0xbc4f0ad0	-0.012636855
33	0xbd69ae30	-0.057050884
34	0xbe34851d	-0.17628904
35	0xbe877f94	-0.26464522
36	0x3ce77d1f	0.028257905
37	0xbd07b197	-0.033128347
38	0x3daf76c0	0.08567572
39	0x3e3cc3da	0.18434086
40	0x3c3a8ff2	0.011386858
41	0x3dadb900	0.084825516
42	0xbc9b1d58	-0.01893489
43	0x3d0ff1f3	0.03514285
44	0x3daf462d	0.08558307
45	0xbe340bc4	-0.17582613
46	0x3d43ec11	0.047832552
47	0x3dfea45c	0.12433693
48	0x3c64c994	0.013964076
49	0xbd94889f	-0.07252621
50	0x3dafeb56	0.08589809
51	0x3d054125	0.03253283
52	0xbd0acb8e	-0.03388553
53	0x3c95698b	0.018238803
54	0x3dc1c418	0.0946123
55	0x3d50e389	0.050998244
56	0xbc8cc1c2	-0.017182235
57	0x3d26ed83	0.040753853
58	0x3d252003	0.040313732
59	0x3d14b810	0.03630835
60	0x3dabb472	0.083840266
61	0xbcfd9168	-0.030953124
62	0xbe4d4be8	-0.20048487
63	0x3d8fef86	0.07028107
64	0xbe3cafe8	-0.18426478
65	0x3d7398c4	0.05947186
66	0x3e35acfc	0.1774177
67	0xbd84abab	-0.064780556
68	0xbe87c895	-0.2652022
69	0x3d868cfb	0.06569859
70	0xbcabd505	-0.020975599
71	0xbdc6c389	-0.09705264
72	0xbd95aca6	-0.07308321
73	0xbd92a5be	-0.07160519
74	0x3c67da69	0.014151194
75	0xbd2015c0	-0.039083242
76	0xbd9998d2	-0.07499851
77	0xbe1aaba1	-0.15104534
78	0x3e9e4d25	0.30918232
79	0x3e14dfb8	0.14538467
80	0x3e028be6	0.1274868
81	0xbe24440f	-0.16041587
82	0x3d70dcb6	0.058804236
83	0xbe0371b6	-0.12836346
84	0xbd429413	-0.047504496
85	0xbd1b9fa3	-0.03799404
86	0xbdba071a	-0.09083386
87	0xbdc54940	-0.09633112
88	0xbe588fec	-0.21148652
89	0xbdf2d3fd	-0.1185684
90	0xbe672026	-0.22570857
91	0xbe3c3a15	-0.18381532
92	0xbcfa1317	-0.03052668
93	0xbd036bbf	-0.032085177
94	0xbbb3bb87	-0.0054850015
95	0x3ce5c805	0.028049478
96	0x3d2e1c24	0.042507306
97	0x3c0b36d3	0.008496958
98	0x3c870649	0.01648249
99	0xbd40beca	-0.04705695
100	0x3cf288e5	0.029606292
101	0xbe05b56b	-0.13057487
102	0xbce5f253	-0.02806965
103	0xbc11d99a	-0.008901978
104	0xbd741549	-0.05959061
105	0xbd46c5c1	-0.048528437
106	0xbc89d767	-0.016826345
107	0x3dd8d83a	0.10588117
108	0x3d11d531	0.035603706
109	0xbe1a6878	-0.15078914
110	0x3dbf4299	0.09338874
111	0x3e38b324	0.18037087
112	0xbe1bcd4b	-0.15215032
113	0x3e229f85	0.15881164
114	0x3e358a05	0.17728432
115	0x3d5edcd5	0.05440982
116	0xbdd4661d	-0.10371039
117	0x3e037db4	0.1284092
118	0x3db84216	0.0899698
119	0xbde594cd	-0.11210022
120	0x3c9621ff	0.018326757
121	0xbd7e0384	-0.06201507
122	0x3d939194	0.07205501
123	0xbe15009f	-0.14551018
124	0x3cc130f9	0.023582922
125	0x3e16efda	0.14739934
126	0x3d806c5a	0.062706664
127	0xbdbecddc	-0.09316608
128	0xbe3516c7	-0.1768447
129	0xbb7521c6	-0.0037404164
130	0x3e48dbd0	0.19615102
131	0x3eb4cb73	0.3531147
132	0xbe5efa60	-0.21775198
133	0x3e8da577	0.27665302
134	0xbda3c8e8	-0.07997304
135	0xbe26270e	-0.16225836
136	0xbea267d1	-0.3171983
137	0x3e3bd7a1	0.18343975
138	0x3c4c5baa	0.012473026
139	0xbe52d2fb	-0.20588295
140	0x3e1772cd	0.14789887
141	0x3d0d0ecd	0.034437943
142	0x3d38ca98	0.045115083
143	0x3e2cac46	0.16862592
144	0x3ea08791	0.3135343
145	0xbe20b15f	-0.15692662
146	0x3d14e046	0.036346696
147	0xbf096ddd	-0.53683263
148	0xbe29cc92	-0.16581944
149	0x3e910b6f	0.28329036
150	0xbd0ca754	-0.034339264
151	0x3e09947c	0.13435549
152	0xbe9be847	-0.3045065
153	0xbe5a8189	-0.21338476
154	0x3d4fcb21	0.05073083
155	0xbd89f312	-0.06735815
156	0xbe18c052	-0.14917114
157	0x3c15d9d0	0.009146169
158	0x3e6be505	0.23036583
159	0xbe52ec23	-0.20597892
160	0xbdce8321	-0.100836046
161	0x3dad787d	0.08470247
162	0xbe242c9c	-0.16032642
163	0xbd5d9454	-0.054096535
164	0xbe00288d	-0.12515469
165	0xbeb4f808	-0.35345483
166	0xbdd7f49f	-0.10544705
167	0xbe50ded5	-0.20397504
168	0x3d255aea	0.040369906
169	0x3c2c499f	0.0105155995
170	0x3da11a72	0.07866372
171	0x3ded1ed8	0.115781486
172	0x3ea98230	0.33107138
173	0xbc5b131d	-0.013371256
174	0x3e027d88	0.12743199
175	0x3e98f568	0.2987473
176	0xbeaa474b	-0.33257517
177	0x3e543f0e	0.20727178
178	0x3d0095e5	0.03139295
179	0x3ea08796	0.31353444
180	0xbea30b1e	-0.3184442
181	0x3af2748d	0.001849787
182	0x3e9a59b3	0.3014656
183	0xbe1fc45d	-0.1560225
184	0xbd9249ab	-0.07142957
185	0x3d0be282	0.03415156
186	0xbe015743	-0.12630944
187	0xbe631f69	-0.22179951
188	0x3e38f07c	0.18060488
189	0x3bc5ae4b	0.00603274
190	0xbaf083a7	-0.0018349782
191	0xbe2669d0	-0.16251302
192	0x3e183e88	0.14867604
193	0x3e4a391e	0.19748351
194	0x3ad478ff	0.0016210376
195	0xbe2b7842	-0.16745093
196	0xbd7df6a0	-0.062002778
197	0x3db8d499	0.09024925
198	0xbe1a48ed	-0.15066881
199	0xbd22a66e	-0.0397095
200	0x3ca95f5d	0.020675356
201	0xbc7b2dd5	-0.015330751
202	0xba96a938	-0.0011494523
203	0xbdca0d10	-0.09865773
204	0x3e1213f0	0.14265418
205	0x3ba7f1db	0.005125267
206	0xbd95a5e0	-0.07307029
207	0xbe72ea7b	-0.2372226
208	0xbe1852a2	-0.14875272
209	0xbe1affe1	-0.15136673
210	0xbdb1664b	-0.08662089
211	0xbe4bdaf6	-0.19907746
212	0x3e8abe0c	0.2709812
213	0xbe28c0ba	-0.1647977
214	0x3d8589f0	0.0652045
215	0x3c8da98a	0.017292757
216	0x3d951e22	0.07281138
217	0xbdaf1003	-0.08547976
218	0xbd9f3894	-0.07774463
219	0x3db3e87f	0.087845795
220	0xbcb40406	-0.021974575
221	0xbe0adc79	-0.13560666
222	0x3c2e6642	0.010644497
223	0x3da468df	0.08027815
224	0xbcd962e7	-0.026536418
225	0xbdf26f67	-0.118376546
226	0x3d62b2f6	0.05534645
227	0x3dbea7ff	0.093093865
228	0xbd195d70	-0.037442625
229	0x3c1440ae	0.009048624
230	0xbd895543	-0.067057155
231	0x3e87c9ff	0.26521298
232	0x3dae0daa	0.084987
233	0xbe4726d6	-0.19448408
234	0x3d8efaea	0.06981452
235	0x3cfd5570	0.030924529
236	0x3dd560d8	0.10418862
237	0x3d1def97	0.03855857
238	0x3e1600d9	0.14648761
239	0x3dc78b71	0.09743393
240	0xbdbc5ed4	-0.091977745
241	0xbdf870d3	-0.121308945
242	0xbdeef730	-0.11668241
243	0x3ccce9fe	0.02501392
244	0x3e9698ee	0.2941355
245	0x3dcdb6a8	0.100446045
246	0xbb9c82d7	-0.0047763395
247	0x3bee42dd	0.0072711543
248	0xbe4347be	-0.19070336
249	0xbe336d0f	-0.17522071
250	0x3d69bd87	0.057065513
251	0xbb9f35e2	-0.0048587183
252	0xbd8c7e02	-0.068599716
253	0xbe6eae65	-0.23308714
254	0xbe3762cd	-0.17908783
255	0x3d3f6eb8	0.04673645

lstm.bias_ih_l1 f4 [256]
0	0xbd838cce	-0.06423341
1	0xbd024ecd	-0.03181343
2	0xbde40ad8	-0.11134881
3	0x3d7fb89c	0.062431917
4	0xbcd37e04	-0.025816925
5	0x3d3c73b3	0.046008777
6	0x3dd21bdf	0.10259222
7	0xbc205d28	-0.009787835
8	0x3ccde6d9	0.02513449
9	0xbdd1de25	-0.10247449
10	0xbd56dd11	-0.05245692
11	0xbd96f59c	-0.07371065
12	0xbdafb32a	-0.08579095
13	0xbd9ff0ca	-0.07809599
14	0x3def05ca	0.11671026
15	0xbdc9e6bc	-0.09858462
16	0xbc95f8b6	-0.018307071
17	0xbd4dc5ac	-0.050237343
18	0xbcceea30	-0.025258154
19	0x3d8aaf7d	0.06771753
20	0x3d7a6f7f	0.061141487
21	0xba287ea6	-0.00064275635
22	0xbd325421	-0.043537263
23	0xbd92a412	-0.071602
24	0x3c12b3b8	0.008953981
25	0xbd56a156	-0.052399956
26	0x3e4ecde9	0.20195736
27	0x3e10a47b	0.14125244
28	0xbd3bbd52	-0.045834847
29	0xbc798da8	-0.015231527
30	0xbdaabdde	-0.083369955
31	0x3d3d13a0	0.046161294
32	0x3d24189a	0.040062524
33	0x3ba7b598	0.005118083
34	0x3d8423e8	0.06452161
35	0x3d0bffdc	0.034179553
36	0x3d4224ca	0.047398366
37	0x3bfd9d1f	0.0077396776
38	0x3d500382	0.050784595
39	0x3cc514b1	0.024057718
40	0xbcf61806	-0.030040752
41	0x3d0c3bdf	0.034236785
42	0x3c4e051d	0.012574461
43	0xbd876319	-0.06610698
44	0x3dc986a7	0.09840136
45	0xbdd00dd6	-0.10158889
46	0xbbc155bb	-0.0059001124
47	0x3da867de	0.08222936
48	0x3cd0c542	0.025484685
49	0xbd5f0baf	-0.0544545
50	0xbcee76d1	-0.02910939
51	0x3dd13979	0.1021604
52	0x3d45016b	0.048097055
53	0xbde045cf	-0.10950815
54	0x3da1872d	0.07887111
55	0x3d3f9dda	0.0467814
56	0x3e55711f	0.20843934
57	0xbcc4ca76	-0.024022322
58	0x3d909844	0.07060292
59	0xbba58416	-0.0050511463
60	0x3e2e1ae7	0.1700245
61	0x3d8c0daa	0.06838544
62	0x3e8fe455	0.2810389
63	0x3d38aad7	0.0450848
64	0xbd992e95	-0.07479588
65	0x3caa9e24	0.02082736
66	0x3d903908	0.07042128
67	0xbd3d2ecc	-0.046187207
68	0xbdd0273d	-0.10163734
69	0x3d819936	0.06328051
70	0x3bdf01b9	0.0068056253
71	0x3de604f4	0.112314135
72	0xbce3eec6	-0.027823817
73	0x3db3be78	0.087765634
74	0x3d91a80b	0.0711213
75	0xbd84cbe2	-0.064842
76	0x3d866e16	0.06563966
77	0xbc58843b	-0.01321512
78	0x3dda6e45	0.106655635
79	0x3dcfcced	0.10146508
80	0x3d178c4d	0.036999036
81	0x3e0a9646	0.13533887
82	0x3d33f3d9	0.043933723
83	0xbd8c9eaa	-0.068662
84	0x3d26a66d	0.04068606
85	0x3df56f2d	0.11984096
86	0x3e04ba23	0.1296163
87	0x3d386bc1	0.045024637
88	0x3e105691	0.14095522
89	0x3e025f0f	0.12731574
90	0xbd1bc009	-0.038024936
91	0x3b7f1dcf	0.003892768
92	0x3dfbddd2	0.12298168
93	0x3dde6d5c	0.108607024
94	0x3cb299ef	0.021801917
95	0x3d68741b	0.05675135
96	0x3e06ecbd	0.13176246
97	0x3dd4380b	0.10362252
98	0x3e1511f6	0.14557633
99	0x3c9ba6b1	0.019000383
100	0x3b5ac533	0.00333817
101	0xbce1ce68	-0.027564242
102	0x3df272db	0.11838313
103	0xbd281e25	-0.041044373
104	0x3cf3073c	0.029666536
105	0x3d37311c	0.04472457
106	0xbdccb9b7	-0.0999636
107	0xbd644855	-0.055733044
108	0xbbf53a9b	-0.007483793
109	0xbd8d5d55	-0.06902567
110	0xbac60811	-0.0015108605
111	0x3d7a7957	0.061150875
112	0x3d15eca0	0.036602616
113	0x3ce814a4	0.028330155
114	0xbdc5c6bd	-0.09657047
115	0x3deedeb2	0.116635695
116	0x3d97baab	0.07408651
117	0xbca4a21f	-0.020096837
118	0xbd831777	-0.0640096
119	0xbde0dda2	-0.10979773
120	0xbcddb618	-0.027064368
121	0x3d98bd3d	0.07457969
122	0xbd635095	-0.05549677
123	0xbcd3f895	-0.02587537
124	0x3cc1de8a	0.023665685
125	0x3d513012	0.051071234
126	0xbba7afc6	-0.0051173894
127	0x3dabf5f3	0.083965205
128	0x3cedcfa6	0.029029679
129	0xbd864f11	-0.065580495
130	0xbc481cfd	-0.012213943
131	0x3d7566ad	0.059912372
132	0x3d3cdcdb	0.04610906
133	0xbaa914cf	-0.0012899878
134	0xbdcf077f	-0.10108852
135	0xbd940a54	-0.072285324
136	0xbd8d810a	-0.06909378
137	0x3d69bca1	0.057064656
138	0xbd18828a	-0.037233867
139	0x3df5c9a1	0.12001348
140	0xbde8fad7	-0.11375969
141	0x3d907850	0.07054198
142	0xbdb18d51	-0.08669532
143	0x3c50487b	0.012712593
144	0xbdb35830	-0.08757055
145	0xbb225afd	-0.0024773472
146	0xbd074181	-0.033021454
147	0xbcaa3923	-0.020779198
148	0x3d8f0a9e	0.06984447
149	0x3d258959	0.040414188
150	0x3d1468fd	0.036232937
151	0xbd2d700a	-0.042343177
152	0x3d7f2bf2	0.06229777
153	0x3dd7e871	0.105423816
154	0x3ddd6649	0.10810525
155	0x3d64ead9	0.05588803
156	0xbd827610	-0.06370175
157	0x3df1dc44	0.118095905
158	0x3e088cac	0.13334912
159	0xbdc34a41	-0.09535647
160	0x3c896ec0	0.016776443
161	0xbe02964d	-0.12752648
162	0xbd927044	-0.07150319
163	0x3e0db3e9	0.13838162
164	0xbdb97941	-0.090563305
165	0x3c0d4cef	0.008624299
166	0x3d87f80f	0.0663911
167	0xbac5aab6	-0.0015080783
168	0x3cdc1e96	0.026870053
169	0xbe155528	-0.14583266
170	0x3d394e59	0.045240734
171	0x3ce1ddfe	0.027571674
172	0xbe075240	-0.1321497
173	0xbdbbe72b	-0.09174951
174	0xbbbb281a	-0.0057115676
175	0xbce52f5b	-0.027976682
176	0x3d400b13	0.04688556
177	0x3d10445b	0.03522144
178	0xbe13f6fa	-0.14449683
179	0xbd01f53d	-0.031728018
180	0x3e0d8e34	0.13823777
181	0x3c0d337b	0.008618231
182	0xbd9b4aa8	-0.07582599
183	0x3d6714fc	0.056416497
184	0x3dae7600	0.085186005
185	0xbc385ff4	-0.011253346
186	0xbc820ad1	-0.015874298
187	0xbce9f37d	-0.028558487
188	0x3db7a472	0.08966912
189	0xbd36e25b	-0.044649463
190	0x3d93de66	0.072201535
191	0xbda044af	-0.078256
192	0x3e29576f	0.1653726
193	0x3d363dc8	0.044492513
194	0x3d8bbc71	0.06823052
195	0xbcaece89	-0.021338718
196	0x3e02ee29	0.12786163
197	0xbce24e9f	-0.02762538
198	0xbd33ab6a	-0.043864645
199	0xbd9d7a7a	-0.07689376
200	0xbcdedac1	-0.02720392
201	0x3e1fb7a9	0.15597405
202	0x3b3bce87	0.0028657035
203	0x3dcfd527	0.101480775
204	0xbe214413	-0.15748625
205	0x3e663713	0.22481947
206	0x3d20c225	0.03924765
207	0xbd228184	-0.039674297
208	0x3d8d7759	0.069075294
209	0x3dedbba3	0.116080545
210	0x3d9af471	0.07566155
211	0x3d8c5216	0.06851594
212	0x3de3eb8e	0.11128913
213	0x3da0cc12	0.07851423
214	0xb8a16530	-7.695926e-05
215	0x3e33dc4e	0.17564508
216	0x3bd456b1	0.006480061
217	0x3e256b08	0.1615411
218	0x3e1ec60c	0.15505236
219	0x3e2874ae	0.1645076
220	0x3db0217f	0.08600139
221	0xbd5db73d	-0.054129828
222	0x3e29b441	0.16572668
223	0x3d2ed422	0.042682774
224	0x3d853f4a	0.06506212
225	0x3df13676	0.11777966
226	0x3df9b7c8	0.121932566
227	0x3bdd03bc	0.00674483
228	0x3dcbe966	0.099566266
229	0x3deda140	0.116030216
230	0x3e5d947f	0.21638678
231	0xbcc311ba	-0.023812164
232	0x3dac4d33	0.08413162
233	0x3e176c94	0.14787513
234	0xbd3dc035	-0.04632588
235	0x3d822ddb	0.063564025
236	0xbd9be27a	-0.07611556
237	0x3c3cd4fe	0.011525391
238	0xbd820d48	-0.063501894
239	0x3d98bae6	0.07457523
240	0x3c2b0f2a	0.010440627
241	0x3e737043	0.23773293
242	0x3e35683d	0.17715545
243	0x3e361585	0.17781647
244	0xbde92d17	-0.11385553
245	0x3c42c6c0	0.011888206
246	0xbda732d3	-0.08163991
247	0x3d027adb	0.031855445
248	0x3de10520	0.10987306
249	0x3d690cac	0.05689685
250	0xbe0b7c91	-0.13621737
251	0x3d349fbf	0.04409766
252	0xbcb752d2	-0.022378359
253	0xbb4b1535	-0.0030987982
254	0x3dd4260c	0.10358819
255	0xbc485d60	-0.012229294
