LogAnomaly/result/deeplog/deeplog_epoch264.pth (torch_old, 642963 bytes, 30 tensors)

lstm.weight_ih_l0 f4 [256, 1]
0	0xbe4b267a	-0.19838896
1	0xbc7b3c02	-0.015334131
2	0xbd6d40e3	-0.05792321
3	0x3dacf27d	0.084446885
4	0xbe0ba381	-0.1363659
5	0x3d3ed293	0.046587538
6	0xbdd1f63f	-0.10252046
7	0x3d84d81e	0.064865336
8	0x3e31b7b9	0.17355241
9	0x3da61ef6	0.08111374
10	0x3e2b89ed	0.16751833
11	0xbda8885e	-0.08229135
12	0x3dc5bb7b	0.096549
13	0x3dfecd64	0.12441519
14	0xbda3a82d	-0.07991061
15	0x3e82ff0a	0.25585204
16	0x3d89ef80	0.06735134
17	0x3d58a215	0.05288895
18	0xbe19b669	-0.1501099
19	0x3e16d4e2	0.14729646
20	0x3e28832c	0.16456288
21	0x3d9fefb9	0.07809395
22	0x3d65ab37	0.056071486
23	0xbd67dc73	-0.05660672
24	0x3e491af1	0.19639184
25	0xbd7ed872	-0.062218137
26	0xbc8b7d9b	-0.017027667
27	0x3d86353a	0.06553121
28	0x3d98478f	0.07435524
29	0xbe1571ae	-0.14594147
30	0x3de4f23a	0.111790136
31	0x3c356e2d	0.011073631
32	0x3e02a3a2	0.12757733
33	0x3dc42dbd	0.095790364
34	0x3ca9b3d5	0.020715633
35	0x3d3f1745	0.04665305
36	0x3e5b9a95	0.21445687
37	0x3c11e4d4	0.0089046545
38	0x3e0684a7	0.1313654
39	0xbe0f4b3d	-0.13993545
40	0x3bf45820	0.0074567944
41	0xbe0ec83c	-0.13943571
42	0x3e047061	0.12933494
43	0x3ecdc71f	0.4019098
44	0xbdf3c20e	-0.11902247
45	0x3dd70aa2	0.10500075
46	0x3e135cc1	0.14390852
47	0xbe4ca048	-0.19983017
48	0x3e468b1d	0.19389005
49	0x3e1c4bee	0.1526334
50	0x3eb7936b	0.35854658
51	0x3dc32e63	0.09530332
52	0x3d85337c	0.065039605
53	0x3ea6461f	0.32475373
54	0x3e0310da	0.12799397
55	0xbd65eb7d	-0.056132782
56	0xbe313e15	-0.17308839
57	0x3cc521ae	0.024063911
58	0x3de31a00	0.110889435
59	0x3d247bf3	0.04015727
60	0x3d3b691e	0.045754544
61	0x3e070fd1	0.13189627
62	0x3dcc0cae	0.09963356
63	0xbe1ba602	-0.15200046
64	0xbd81a002	-0.06329347
65	0x3d49ccdd	0.04926764
66	0x3defd6de	0.117109045
67	0xbd1a4ceb	-0.03767101
68	0xbdba002e	-0.090820655
69	0x3d5a6530	0.053319156
70	0x3ddfd67e	0.10929583
71	0x3d54ba98	0.051935762
72	0xbd2a80a2	-0.04162658
73	0x3e95b9c9	0.29243305
74	0x3e2cfeaa	0.16894022
75	0xbdfd3696	-0.12363927
76	0xbca866eb	-0.020556888
77	0x3d9cdef3	0.07659712
78	0x3e2fb86e	0.17160198
79	0x3e853a5b	0.26021084
80	0x3ceb7b45	0.028745303
81	0x3e07bca0	0.13255548
82	0xbdecbf5c	-0.115599364
83	0x3d0cb336	0.034350596
84	0x3b022741	0.0019859823
85	0x3e6660c6	0.22497854
86	0x3e0a4ed4	0.13506633
87	0xbd5bd1e6	-0.05366697
88	0x3c641374	0.013920654
89	0x3d98b0dd	0.07455609
90	0xbf22cf22	-0.6359731
91	0x3da1f150	0.07907355
92	0xbd83e64e	-0.064404115
93	0xbe871ca1	-0.2638903
94	0x3e62d62f	0.22152017
95	0x3c56392a	0.013075152
96	0xbccde823	-0.025135105
97	0x3e187a45	0.14890392
98	0x3de39ce2	0.111139074
99	0x3dbdffd1	0.09277309
100	0x3d8ef93d	0.06981132
101	0x3e44af00	0.19207382
102	0x3dcb4a40	0.099262714
103	0x3d128b3f	0.035777327
104	0x3e12c044	0.14331156
105	0x3e7524f5	0.23939879
106	0x3e333644	0.1750117
107	0x3d831312	0.06400122
108	0xbe047b30	-0.12937617
109	0xbd09ca44	-0.03364016
110	0x3d5bf630	0.05370158
111	0xbde56a3a	-0.11201902
112	0x3d9b3c00	0.075798035
113	0x3dd4999c	0.10380861
114	0x3e9f7d48	0.3115027
115	0x3e7d2ea4	0.24724823
116	0x3d56009f	0.052246686
117	0x3cd76903	0.02629519
118	0x3e2217ff	0.15829466
119	0xbce9b3e7	-0.028528167
120	0xbe372d00	-0.1788826
121	0x3e34347a	0.17598143
122	0x3eee79bb	0.46577248
123	0xbd048f69	-0.03236333
124	0x3d1a53d3	0.037677597
125	0x3d516819	0.051124666
126	0xbdb05680	-0.086102486
127	0xbe1bf894	-0.15231544
128	0x3ee23296	0.4417922
129	0xbe0a3496	-0.13496622
130	0x3da8703f	0.08224534
131	0x3cff4d2e	0.031164732
132	0x3e7d2c26	0.24723873
133	0xbe35980e	-0.17733786
134	0xbd447ca1	-0.047970418
135	0x3e15d0e6	0.1463047
136	0x3e2d03a4	0.1689592
137	0xbd2e52b6	-0.042559348
138	0xbd822686	-0.06355004
139	0x3e66d699	0.225428
140	0xbe75b64d	-0.23995323
141	0x3e285e26	0.16442165
142	0xbe27c7aa	-0.1638476
143	0xbdc1b3a8	-0.09458095
144	0x3e622705	0.22085197
145	0xbe9b5290	-0.30336428
146	0xbe84c882	-0.25934225
147	0x3e583b4a	0.21116367
148	0x3e37743f	0.17915438
149	0xbd162929	-0.036660347
150	0xbe188552	-0.14894608
151	0x3e4c2d31	0.19939114
152	0x3dcc346c	0.09970936
153	0x3ea3de79	0.3200567
154	0xbee8f88b	-0.45502123
155	0x3c983a02	0.018582348
156	0x3cdff052	0.027336273
157	0xbe3c853d	-0.18410201
158	0x3f6ee4a1	0.9331761
159	0xba41dbd0	-0.00073951203
160	0x3efc29e1	0.492507
161	0x3cd60ca7	0.02612908
162	0x3db2cc80	0.087304115
163	0xbcd3ccfc	-0.02585458
164	0xbe9fdb68	-0.3122208
165	0xbe522032	-0.20520094
166	0xbe96b718	-0.29436564
167	0xbe3f4c9f	-0.18681572
168	0x3e46d871	0.19418503
169	0x3d52159e	0.051290147
170	0xbe05696d	-0.13028498
171	0xbfd668bb	-1.6750711
172	0x3ebd84db	0.37015423
173	0x3e9f903d	0.31164733
174	0x3d84c343	0.06482556
175	0x3f002ab6	0.5006517
176	0xbdf504a3	-0.11963775
177	0xbe1b6877	-0.15176569
178	0xbe17d12a	-0.14825884
179	0xbd16e300	-0.036837578
180	0xbecf1fd1	-0.40453961
181	0x3eeed9ae	0.4665045
182	0x3d1b504a	0.037918366
183	0x3e2da193	0.16956167
184	0xbebcbc08	-0.36862206
185	0x3d9a432e	0.07532345
186	0x3d5b6a2a	0.053568043
187	0xbd9f318e	-0.07773124
188	0x3e0be442	0.13661292
189	0xbd9f2b41	-0.07771922
190	0x3da44ecb	0.08022841
191	0xbeb10627	-0.34575006
192	0x3e3b75b6	0.18306622
193	0xbc7d8f04	-0.015475992
194	0x3e21c61f	0.15798233
195	0x3ea96f20	0.33092594
196	0x3e38e107	0.18054591
197	0x3d9c1bef	0.076225154
198	0x3e30552e	0.17219993
199	0x3e648006	0.22314462
200	0x3d44c0d0	0.048035443
201	0x3e98e829	0.29864624
202	0x3d8f04ec	0.06983361
203	0x3e6d132d	0.23151846
204	0x3e82642a	0.25467044
205	0x3e18f3c0	0.14936733
206	0x3e6b5dab	0.2298495
207	0x3e97d298	0.29652858
208	0xbdbc02d6	-0.091802284
209	0x3d07307d	0.033005226
210	0x3ea00825	0.31256214
211	0x3e466dd8	0.1937784
212	0x3e99143d	0.29898253
213	0x3e70ebaa	0.23527399
214	0xbe55ad6b	-0.20866935
215	0xbe35fbf9	-0.17771901
216	0xbe341e45	-0.17589672
217	0x3d503df8	0.050840348
218	0x3b23b44f	0.0024979298
219	0x3de17016	0.11007707
220	0xbcacb84a	-0.02108397
221	0xbeae8270	-0.3408389
222	0x3e0dd8f6	0.13852295
223	0x3e8fc754	0.28081763
224	0xbddd7362	-0.10813023
225	0x3eae74b5	0.34073415
226	0x3da7ee7b	0.081997834
227	0x3ea1914a	0.3155616
228	0xbdbc44bc	-0.091927975
229	0xbe663732	-0.22481993
230	0x3dacb8f7	0.08433717
231	0xbe989860	-0.29803753
232	0xbe586d3e	-0.21135423
233	0x3e8ffe11	0.28123525
234	0x3e48b890	0.19601655
235	0xbe98043a	-0.29690725
236	0x3e87690c	0.26447332
237	0x3c8e4dca	0.017371077
238	0x3e5d3f03	0.21606068
239	0xbe2a6227	-0.16639005
240	0xbe403cda	-0.18773213
241	0xbdf932cf	-0.12167894
242	0x3dfc710a	0.12326248
243	0xbe5fac12	-0.21842983
244	0x3d9f0ae0	0.07765746
245	0xbdc3e7d1	-0.095657
246	0x3d8154b5	0.06314985
247	0x3da8c863	0.08241346
248	0x3e30a18c	0.17249125
249	0xbe60f83b	-0.21969692
250	0x3e8d99d7	0.27656433
251	0xbe0e47ce	-0.13894579
252	0x3de3c1a7	0.11120921
253	0x3e1d2568	0.153463
254	0x3e68f3a6	0.22749195
255	0x3e02ab8c	0.12760752

lstm.weight_hh_l0 f4 [256, 64]
0	0x3e6d4634	0.23171312
1	0xbe1ea74f	-0.1549351
2	0x3d07fa22	0.03319753
3	0x3d95c7a3	0.07313468
4	0x3e7dd8eb	0.24789779
5	0xbdea3749	-0.11436326
6	0xbd6a3e83	-0.057188522
7	0x3da50ea0	0.0805943
8	0x3e2a6ef3	0.16643886
9	0x3dff78ea	0.124742344
10	0xbc309c8d	-0.010779512
11	0xbe263334	-0.1623047
12	0xbe469a35	-0.19394763
13	0x3dc666ef	0.09687602
14	0xbe003a42	-0.12522224
15	0x3e8644ff	0.26224515
16	0x3e4dd671	0.20101334
17	0xbd396d18	-0.045270056
18	0x3d254632	0.040350147
19	0x3e19d60f	0.15023063
20	0xbd924926	-0.07142858
21	0x3dbd5c73	0.09246149
22	0xbd97e429	-0.07416565
23	0x3e3f6c72	0.18693712
24	0x3e8a7d6e	0.2704882
25	0x3e6c1bba	0.23057452
26	0x3dbe784c	0.093002886
27	0x3db6d74b	0.089277826
28	0x3dab609c	0.08368036
29	0xbe9cb2cf	-0.3060517
30	0x3d754c52	0.059887238
31	0x3e045bce	0.12925646
32	0x3d4ea676	0.05045172
33	0x3d8d8eac	0.06911978
34	0x3da2451a	0.07923336
35	0xbe29b2fd	-0.16572185
36	0xbd43099d	-0.04761659
37	0xbe4e6425	-0.2015539
38	0xbde3617d	-0.11102579
39	0xbe9e8b46	-0.30965632
40	0x3da7590e	0.08171283
41	0xbdf741f2	-0.12073125
42	0x3db55aa0	0.08855176
43	0xbddc0339	-0.10742802
44	0x3d541eb1	0.051787082
45	0x3e306eeb	0.17229812
46	0x3d228513	0.03967769
47	0x3e83c6ad	0.25737515
48	0xbe97014b	-0.29493174
49	0xbdbb038b	-0.09131535
50	0x3e30a696	0.17251047
51	0xbeab6a73	-0.33479652
52	0x3d595819	0.053062532
53	0x3e42b034	0.19012529
54	0x3de65a80	0.1124773
55	0xbc976bf5	-0.018484095
56	0xbdcafb1d	-0.09911177
57	0x3ebeb126	0.3724453
58	0xbcf8f74b	-0.030391356
59	0xbde454aa	-0.11148961
60	0x3e06c154	0.13159686
61	0xbd37f0b7	-0.044907298
62	0xbe19cc25	-0.15019281
63	0xbd962e16	-0.07333009
64	0xbd22796d	-0.039666582
65	0xbdc0ce52	-0.094143525
66	0x3e9b9d6e	0.30393547
67	0x3e747e8f	0.23876403
68	0x3e1fe258	0.15613687
69	0xbe388f05	-0.18023308
70	0x3db2af12	0.08724798
71	0x3db157ad	0.08659301
72	0x3e1ebf3a	0.15502635
73	0x3dc073c7	0.09397083
74	0xbe047d20	-0.12938356
75	0x3daf43c7	0.085578494
76	0xbe5ddecb	-0.2166702
77	0x3e3e682c	0.18594426
78	0xbe08a0c5	-0.13342579
79	0xbea8c76e	-0.32964653
80	0x3e6404ff	0.22267531
81	0xbd1c4c95	-0.03815897
82	0xbe109fe3	-0.14123492
83	0x3e5e322d	0.21698828
84	0x3e0114e4	0.12605625
85	0xbdc1086e	-0.09425436
86	0xbe29c727	-0.16579877
87	0x3d73fa8b	0.05956511
88	0x3ec73f41	0.38915446
89	0x3dc3e324	0.09564808
90	0xbdbd5e5f	-0.092465155
91	0x3dea17e9	0.11430342
92	0x3e679437	0.22615133
93	0xbc305f7a	-0.010764951
94	0x3d2d0fcb	0.04225139
95	0x3e3b2fac	0.18279904
96	0x3ce0ee9d	0.02745753
97	0x3e2dc177	0.16968332
98	0x3d8f4cc8	0.06997067
99	0xbdf5d9d5	-0.12004439
100	0xbd0b8e13	-0.03407104
101	0xbe4bf821	-0.19918872
102	0xbe1e6032	-0.15466383
103	0x3d6a4eeb	0.05720417
104	0x3e495b47	0.19663726
105	0xbd80a8d9	-0.06282205
106	0xbdee341b	-0.11631032
107	0x3dbc4607	0.09193044
108	0x3ca6812f	0.020325271
109	0x3e23d53c	0.15999311
110	0x3e5b7bd7	0.2143396
111	0xbdd72500	-0.10505104
112	0xbe7faab2	-0.24967459
113	0xbe080176	-0.13281807
114	0xbd332b50	-0.043742478
115	0xbe7130b5	-0.23553737
116	0x3c53b798	0.01292219
117	0xbc9cfc4b	-0.019163271
118	0x3e888e15	0.266709
119	0x3e1b27b4	0.15151864
120	0xbd467cb3	-0.048458766
121	0x3ebab52f	0.36466357
122	0x3d5a908d	0.05336051
123	0xbe459662	-0.19295648
124	0x3e1334d1	0.14375617
125	0xbe28e9e1	-0.16495468
126	0x3d929352	0.07157005
127	0xbdb9a85f	-0.09065317
128	0x3df203ec	0.11817154
129	0x3da2a4c3	0.07941582
130	0x3ded6b41	0.11592723
131	0x3e688d6c	0.22710198
132	0x3e1e035a	0.15430966
133	0xbe8685ce	-0.2627396
134	0xbe7cb268	-0.24677432
135	0x3e5eb34b	0.21748082
136	0x3e5904e8	0.21193278
137	0xbcb1ae13	-0.02168945
138	0xbd8ab2a2	-0.06772353
139	0x3ddf4d77	0.10903447
140	0xbdb40f3b	-0.087919675
141	0x3d82a977	0.06379979
142	0xbe132edc	-0.14373344
143	0x3dbf4ae7	0.09340458
144	0x3e1587cf	0.14602588
145	0xbe69ff70	-0.22851348
146	0xbc2a53f4	-0.010395993
147	0x3e58a5bc	0.21156973
148	0x3d5462bd	0.051851977
149	0x3d90ce09	0.07070548
150	0xbd86fc19	-0.065910526
151	0x3dcea268	0.1008957
152	0x3e487a4b	0.19577901
153	0x3dacb95b	0.08433791
154	0xbd135622	-0.035970815
155	0x3e95f04b	0.2928489
156	0xbcbe52e9	-0.023232894
157	0xbec7f6c0	-0.39055443
158	0x3df280e6	0.11840992
159	0x3d8a3846	0.067490146
160	0xbddf296b	-0.10896572
161	0x3dfe91f3	0.12430181
162	0x3e479e03	0.1949387
163	0xbdfc77d3	-0.12327542
164	0x3c3d5be3	0.011557552
165	0xbe1a8b70	-0.15092254
166	0xbd3e4bf8	-0.04645917
167	0xbeb7be9a	-0.35887605
168	0x3e277aca	0.16355434
169	0xbe163859	-0.14669932
170	0xbd49ba6c	-0.04925005
171	0xbd7e486e	-0.062080793
172	0x3d88848f	0.066659085
173	0x3dad5163	0.08462789
174	0x3e7f9c65	0.24962004
175	0x3ba54be7	0.0050444487
176	0xbd470a41	-0.048593763
177	0x3c4329c4	0.011911813
178	0xbe0f9b83	-0.14024167
179	0x3d125b6c	0.035731718
180	0x3ce05011	0.027381929
181	0x3d9c2334	0.07623902
182	0x3d33c37e	0.043887608
183	0x3e7c82a4	0.2465921
184	0xbd2df6a5	-0.042471547
185	0x3e64c617	0.2234119
186	0xbc813ddf	-0.015776573
187	0xbf076a39	-0.5289646
188	0xbc388aae	-0.011263533
189	0xbe0990ba	-0.13434115
190	0x3d976651	0.07392562
191	0xbe93c6e5	-0.28862682
192	0x3d6fd39d	0.05855142
193	0xbe63aba9	-0.22233452
194	0xbcbf3701	-0.023341658
195	0x3d4a5521	0.04939759
196	0x3d38ff65	0.04516544
197	0x3da8a205	0.08234028
198	0x3c2baa8e	0.010477675
199	0xbdd35126	-0.10318212
200	0xbd86105b	-0.06546088
201	0xbcaf2f7b	-0.021384945
202	0x3d1f2559	0.038853977
203	0x3dd824a0	0.10553861
204	0xbc9bc248	-0.019013539
205	0x3cf81f9c	0.03028851
206	0x3d6bf828	0.057609707
207	0x3dc7e508	0.09760481
208	0x3abe5e25	0.0014523907
209	0xbdafdc28	-0.08586913
210	0xbe124e2a	-0.1428763
211	0x3d0a7dcb	0.03381137
212	0x3d5513e2	0.052020915
213	0x3c5b2a8b	0.013376842
214	0xbe663842	-0.22482398
215	0x3e8d4682	0.27592856
216	0xbd4e239f	-0.05032694
217	0x3e0d778e	0.13815138
218	0x3cba024b	0.022706171
219	0x3dace9c8	0.08443028
220	0x3df2df2c	0.11858973
221	0xbe7739b6	-0.24143109
222	0xbcceaee8	-0.025229886
223	0xbb6e1047	-0.003632562
224	0x3dabce47	0.08388954
225	0xbd0a1330	-0.033709705
226	0x3e025030	0.12725902
227	0x3d2b47e4	0.041816607
228	0xbd68376a	-0.056693472
229	0xbe4e6302	-0.20154956
230	0xbde32af1	-0.11092175
231	0xbe6f2175	-0.23352607
232	0xbd570f7e	-0.05250501
233	0x3d4c8b20	0.049937367
234	0xbde85210	-0.11343777
235	0xbcde9b07	-0.027173532
236	0x3e6e3060	0.23260641
237	0xbd3f2ef6	-0.046675645
238	0xbe203829	-0.15646423
239	0x3ea42d8a	0.32065994
240	0x3bfa1765	0.0076321834
241	0x3b6e8e77	0.0036400834
242	0x3d8c1697	0.06840246
243	0xbdede695	-0.11616246
244	0xbdc38fe6	-0.09548931
245	0x3d9b63a2	0.07587363
246	0x3d216777	0.039405312
247	0x3e0336e7	0.12813912
248	0xbdc3a634	-0.09553185
249	0x3e04b916	0.1296123
250	0x3de6909e	0.11258052
251	0xbdba5afd	-0.09099386
252	0x3de04083	0.10949805
253	0xbcf0b720	-0.029384196
254	0xbdeb73c4	-0.1149669
255	0xbc7d4972	-0.015459405

lstm.bias_ih_l0 f4 [256]
0	0x3ddd6895	0.10810963
1	0x3daf1dde	0.085506186
2	0x3d387e53	0.045042347
3	0xbdae52cc	-0.08511886
4	0x3e465177	0.19367014
5	0xbbc298cb	-0.0059386245
6	0x3e3d8886	0.18509111
7	0xba2f7263	-0.0006692765
8	0x3e7b6098	0.24548566
9	0x3e44d654	0.19222385
10	0xbdf3df39	-0.11907811
11	0x3e611f70	0.21984649
12	0x3d0e35ac	0.034719154
13	0x3dea6901	0.11445809
14	0x3de0018f	0.10937797
15	0x3e175782	0.14779475
16	0x3e31f528	0.17378676
17	0x3e204836	0.15652546
18	0x3e358cd4	0.17729503
19	0xbceaccc4	-0.028662093
20	0xbd866ca3	-0.065636896
21	0x3d474dc9	0.048658166
22	0x3dcb4e96	0.099270985
23	0x3dc2a6c7	0.095044665
24	0x3e0a0cef	0.13481496
25	0x3e393e09	0.18090071
26	0x3d719d9a	0.05898819
27	0x3d992b2c	0.074789375
28	0xbcae205a	-0.02125566
29	0x3e7943ce	0.24342272
30	0x3e8a963a	0.2706774
31	0xbde3404c	-0.11096248
32	0xbcbbd23b	-0.022927394
33	0x3de83f82	0.11340238
34	0x3d1dffa7	0.038573887
35	0xbddeec64	-0.10884932
36	0x3e2591fd	0.16168971
37	0xbdaaaf4b	-0.08334216
38	0x3c7b4c78	0.015338056
39	0xbda19167	-0.078890614
40	0x3dff2ed5	0.124601044
41	0xbce9e1ae	-0.028549995
42	0xbd2ead02	-0.04264546
43	0x3f2b0c4d	0.66815645
44	0x3d366066	0.044525526
45	0x3e88a7c1	0.26690486
46	0x3cf9e294	0.030503549
47	0x3dcdc4c6	0.10047297
48	0xbd34749a	-0.044056512
49	0x3d8d2d68	0.06893426
50	0xbcd16fee	-0.025566068
51	0xbde3906e	-0.11111532
52	0xbdefed78	-0.117152154
53	0x3e984f9c	0.29748237
54	0x3db81bc2	0.089896694
55	0x3cfbcb08	0.030736461
56	0x3e3d365a	0.18477765
57	0xbd45e38b	-0.048312705
58	0x3d5190ea	0.05116359
59	0x3d9d8644	0.07691625
60	0xbcf2564e	-0.029582169
61	0x3dee71fc	0.116428345
62	0xbe771633	-0.24129562
63	0x3cff3784	0.031154402
64	0xbd5142c0	-0.05108905
65	0x3e16c4ad	0.14723463
66	0xbda1845e	-0.07886575
67	0x3de4c4cd	0.11170349
68	0x3d996239	0.074894376
69	0x3db31359	0.08743925
70	0x3dc040ea	0.093873814
71	0x3dd5951c	0.10428831
72	0x3da838c2	0.08213951
73	0x3dc2536c	0.09488568
74	0xbe134426	-0.14381465
75	0x3e128f82	0.14312556
76	0x3d419a9d	0.04726659
77	0x3d882597	0.06647795
78	0x3be3d31c	0.0069526564
79	0xbdb2f614	-0.08738342
80	0x3d6ba3c0	0.05752921
81	0xbc8de24e	-0.017319825
82	0xbdcb848e	-0.09937392
83	0xbde0fcf8	-0.1098575
84	0x3d2c8c3f	0.042125937
85	0x3dac6f5d	0.08419678
86	0xbdd97074	-0.10617152
87	0xbb926d2b	-0.0044685802
88	0x3e509145	0.20367916
89	0x3df8ed2b	0.12154611
90	0x3dba5917	0.09099024
91	0x3c9441af	0.018097727
92	0x3e521be8	0.20518458
93	0x3dafc2d3	0.08582082
94	0xbe2fc8b3	-0.17166404
95	0x3d9217a0	0.07133412
96	0xbd858c35	-0.06520883
97	0x3d0e369e	0.034720056
98	0xbd22cd32	-0.03974647
99	0x3c97f346	0.018548619
100	0x3d1044ca	0.035221852
101	0xbe067c65	-0.1313339
102	0xbd1c1ee9	-0.038115416
103	0x3bb74d17	0.0055939066
104	0xbdbbc63e	-0.09168671
105	0x3b64a51c	0.0034888452
106	0x3e032b00	0.12809372
107	0xbe85178e	-0.25994533
108	0xbdea8eeb	-0.11453041
109	0x3e3f1e04	0.18663794
110	0x3dcc5c71	0.09978569
111	0x3dd57363	0.10422399
112	0x3d8dfc55	0.06932894
113	0x3ca4a336	0.020097356
114	0xbbefd96d	-0.0073196203
115	0xbda36e9b	-0.07980081
116	0xbdd18eed	-0.10232339
117	0x3dd3d614	0.103435665
118	0x3db1925d	0.08670495
119	0x3c64fc82	0.013976218
120	0x3dcbb0df	0.09945845
121	0x3e0b53cc	0.13606185
122	0xbe53d9fd	-0.20688625
123	0x3e005965	0.12534101
124	0x3ce3ba78	0.027798876
125	0x3d450be8	0.048107058
126	0x3d9ff926	0.07811193
127	0x3e225886	0.15854082
128	0x3cf7de66	0.030257415
129	0x3e491b9b	0.19639437
130	0xbda728d7	-0.081620865
131	0xbe52ecf5	-0.20598204
132	0x3e05be7f	0.1306095
133	0x3deef176	0.11667149
134	0xbe460645	-0.19338329
135	0x3e73274e	0.23745462
136	0x3e6f0c22	0.23344472
137	0x3e060740	0.13088703
138	0xbda53cb9	-0.080682226
139	0xbd17b2fd	-0.03703593
140	0x3e479009	0.19488539
141	0x3ae31e9b	0.0017327847
142	0xbd40ba61	-0.047052745
143	0x3dc8ef09	0.09811217
144	0x3e6e5a07	0.2327653
145	0xbe1ac907	-0.15115748
146	0x3d82efa6	0.063933656
147	0x3d0f45d9	0.03497872
148	0x3cf0848c	0.029360078
149	0x3e28b0a7	0.16473638
150	0xbd9634d9	-0.07334299
151	0xbdae2164	-0.085024625
152	0xbd86a405	-0.06574253
153	0x3e000bdf	0.12504528
154	0x3d905a3f	0.07048463
155	0x3dc666c0	0.09687567
156	0xbcf919d6	-0.030407827
157	0xbe9a2aad	-0.30110684
158	0x3e0b8de6	0.13628349
159	0x3c5c0f4b	0.0134313805
160	0xbe730472	-0.23732165
161	0xbe255887	-0.16147052
162	0x3e15282e	0.14566109
163	0x3cb942c7	0.02261485
164	0x3d1151e1	0.035478476
165	0xbc170016	-0.009216329
166	0xbdbb63fe	-0.09149931
167	0x3d94a754	0.07258478
168	0x3b179fe4	0.0023136074
169	0xbdbc543d	-0.09195755
170	0xbdab5c58	-0.083672225
171	0x3dc77d25	0.09740666
172	0x3b0b6ce2	0.0021274616
173	0x3deb5922	0.1149161
174	0x3d83cbc4	0.064353496
175	0xbe4fce2f	-0.20293497
176	0xbc83fe53	-0.016112482
177	0xbcca3076	-0.024681311
178	0x3ca7726f	0.020440308
179	0x3d43d14d	0.047807027
180	0x3e267321	0.16254856
181	0x3e8dbcbe	0.2768306
182	0xbd6404e3	-0.055668723
183	0xbe0c5985	-0.13706024
184	0xbde55309	-0.11197478
185	0x3cae185d	0.021251852
186	0x3e38099f	0.1797242
187	0x3d839c73	0.06426325
188	0xbe2b429d	-0.1672463
189	0xbd6c8fc4	-0.057754293
190	0xbd6ebbed	-0.05828469
191	0xbe102790	-0.14077592
192	0x3ea023df	0.31277367
193	0xbd0d7e50	-0.03454429
194	0xbcf1b006	-0.02950288
195	0xbe407e76	-0.18798241
196	0x3e69a73f	0.22817706
197	0x3da2d85a	0.07951422
198	0x3df913cf	0.12161981
199	0xbde1f035	-0.11032144
200	0x3d4c21af	0.04983681
201	0xbb90d5cd	-0.0044200183
202	0x3e17acc9	0.14812006
203	0xbb70ba80	-0.0036732256
204	0x3e3b5166	0.1829277
205	0xbd56484a	-0.052315034
206	0x3dc19ec1	0.09454108
207	0x3dc3557a	0.09537788
208	0x3dc1551b	0.09440061
209	0x3ca8f62a	0.020625193
210	0x3e545047	0.20733748
211	0xbd41f972	-0.04735703
212	0x3d20fa44	0.039301172
213	0x3d332b1e	0.04374229
214	0x3d8657dd	0.06559727
215	0x3d867795	0.06565777
216	0x3d27219a	0.04080353
217	0x3cc55a03	0.024090772
218	0x3e498463	0.19679408
219	0x3cc8d1fb	0.024514189
220	0x3e0832a7	0.13300572
221	0x3ead21af	0.3381476
222	0x3e9db2b4	0.30800402
223	0xbe0dd111	-0.13849284
224	0x3e227912	0.15866497
225	0xbe0ce4bf	-0.13759135
226	0x3df7ba17	0.12096041
227	0xbddf10f6	-0.10891907
228	0x3ddc1256	0.10745685
229	0x3e139f49	0.14416231
230	0x3e053f1b	0.13012354
231	0x3e8fea44	0.28108418
232	0x3e2bf614	0.1679309
233	0x3b7b4962	0.00383433
234	0x3db3c60c	0.08778009
235	0x3eed8aa2	0.4639483
236	0x3e17fd2c	0.14842671
237	0x3de2064f	0.110363595
238	0xbd375e23	-0.04476751
239	0x3e17215b	0.14758818
240	0x3e0bbaf0	0.1364553
241	0x3dfbc4cb	0.12293395
242	0x3e314ea8	0.17315161
243	0x3d07f4af	0.033192333
244	0x3e64c92e	0.22342369
245	0x3e650a50	0.22367215
246	0x3e637264	0.22211605
247	0x3e90acbe	0.28256792
248	0x3e25a820	0.16177416
249	0x3da3d23d	0.07999084
250	0x3d1334b7	0.035938945
251	0x3e3e1ac7	0.18564902
252	0xbd8739f8	-0.066028535
253	0x3d3c133c	0.04591678
254	0xbe515271	-0.20441605
255	0x3e9169f5	0.2840115

lstm.bias_hh_l0 f4 [256]
0	0x3e4055a9	0.18782677
1	0x3d964288	0.073369086
2	0x3d708dc0	0.058728933
3	0x3d9072bd	0.070531346
4	0x3e10c882	0.14138988
5	0x3d563827	0.052299645
6	0x3c317d74	0.010833133
7	0x3da492cb	0.08035811
8	0x3dae0882	0.084977165
9	0x3e63137f	0.22175406
10	0x3cdf0317	0.027223153
11	0x3e34f091	0.17669894
12	0x3e2de837	0.16983114
13	0xbc374d6e	-0.011187894
14	0x3de32470	0.11090934
15	0x3e211eca	0.15734401
16	0x3dd02942	0.10164119
17	0x3cfb644a	0.03068747
18	0x3dc2b731	0.09507597
19	0x3d89da07	0.067310385
20	0xbc781638	-0.015142016
21	0x3d97b167	0.07406884
22	0x3d10ed11	0.035382334
23	0xbabfab83	-0.0014623258
24	0x3dfbd10c	0.12295732
25	0x3dd63e9d	0.10461161
26	0xbc948ef8	-0.018134579
27	0x3dca1e97	0.09869116
28	0xbcf6e7bd	-0.030139798
29	0x3e91c54a	0.28470832
30	0x3e62f15c	0.22162384
31	0x3db75b26	0.08952932
32	0x3deabe6b	0.114621006
33	0x3d53ee45	0.051740903
34	0x3d55f23a	0.05223296
35	0xbc3cd980	-0.011526465
36	0x3e6f8747	0.23391448
37	0xbd8f2a2e	-0.06990467
38	0x3d30c94d	0.043160725
39	0xbe046a69	-0.12931217
40	0x3d08a510	0.03336054
41	0xbaf11b46	-0.0018394969
42	0x3d891e05	0.06695179
43	0x3f16e1f7	0.58938545
44	0x3de06041	0.10955859
45	0x3e7a6d8d	0.24455853
46	0x3d84607f	0.06463718
47	0x3dbce209	0.092228
48	0xbdc4c5da	-0.0960805
49	0xbd6cdf91	-0.057830397
50	0xbd899c37	-0.06719249
51	0xbd1ed310	-0.038775504
52	0xbc6b2091	-0.014351026
53	0x3ef76f83	0.48327264
54	0xbd411872	-0.047142453
55	0x3d801ab9	0.06255097
56	0x3e2a01c9	0.16602243
57	0x3cf93ea5	0.030425379
58	0x3e721b0d	0.23643132
59	0x3dc39780	0.09550381
60	0x3df4838e	0.119391546
61	0x3dd18c06	0.102317855
62	0xbe0890b2	-0.13336447
63	0x3d26f6a3	0.040762555
64	0xbd7d6f4c	-0.06187372
65	0x3cda9082	0.026680235
66	0xbcfb7fb6	-0.030700546
67	0x3e11e85c	0.14248794
68	0xbd0736c6	-0.03301122
69	0x3def8835	0.11695901
70	0x3d359e90	0.04434067
71	0x3e06e1fc	0.13172144
72	0x3e5a2f99	0.2130722
73	0x3c07b502	0.008282902
74	0xbde62782	-0.11238004
75	0x3d9a445c	0.0753257
76	0xb99a9059	-0.00029480716
77	0x3e422429	0.18959107
78	0xbdb5321a	-0.08847447
79	0xbe0ad9ef	-0.13559698
80	0x3da4c223	0.08044841
81	0x3bc76a77	0.0060856896
82	0xbdc86997	-0.09785765
83	0xbaf1beae	-0.0018443668
84	0xbbb2cbd5	-0.0054564276
85	0x3dc3a0a2	0.09552123
86	0xbc3fc1c9	-0.011703917
87	0x3dc9a0e5	0.09845141
88	0x3cdd2430	0.026994795
89	0x3d976d4e	0.07393895
90	0x3dd34bc0	0.103171825
91	0xbda72018	-0.08160418
92	0x3e41a4c6	0.18910512
93	0x3d770afc	0.06031321
94	0xbccb7385	-0.024835357
95	0x3e20d5a9	0.15706505
96	0xbde91a3a	-0.113819554
97	0xbe116606	-0.14199075
98	0x3d4e7de9	0.050413046
99	0xbc28a3c5	-0.010292952
100	0xbe005257	-0.1253141
101	0x3bd46389	0.006481592
102	0xbe0150c7	-0.1262847
103	0xbd929eda	-0.07159205
104	0xbd554437	-0.052067008
105	0xbc3ad4ea	-0.011403302
106	0x3dc0230a	0.09381683
107	0xbe760930	-0.24026942
108	0xbca17370	-0.019708365
109	0x3d586000	0.052825928
110	0x3c6b465b	0.014360036
111	0xbd2d5734	-0.04231949
112	0x3d0ef2d4	0.034899548
113	0x3aa01cf6	0.0012215662
114	0x3d4b21b6	0.049592696
115	0xbbaa2551	-0.0051924367
116	0xbbfdb54b	-0.007742559
117	0x3d6ca911	0.05777842
118	0xbd14e5db	-0.03635202
119	0xbc68db94	-0.014212508
120	0x3db0cab1	0.0863241
121	0xbd948bcb	-0.07253226
122	0x3c9445f8	0.01809977
123	0xbc582071	-0.013191328
124	0x3dbd3a6a	0.09239657
125	0x3dde7f77	0.10864156
126	0xbd8162bf	-0.063176624
127	0x3ddaa59e	0.1067612
128	0xbdc7af84	-0.09750274
129	0x3df4922a	0.11941941
130	0xbe1d886a	-0.15384069
131	0xbe459a0d	-0.19297047
132	0x3e2a8372	0.16651705
133	0xbd798ef9	-0.060927365
134	0xbe0cffaa	-0.13769403
135	0x3e5ae404	0.21376044
136	0x3db9b5e6	0.090678975
137	0x3d2e763d	0.04259323
138	0xbd4fdda4	-0.050748482
139	0xbdfdae86	-0.12386803
140	0x3c489d28	0.0122445
141	0xbd592093	-0.05300958
142	0x3ddf5482	0.109047905
143	0x3e37daf7	0.17954622
144	0x3e797a00	0.24362946
145	0xbe073672	-0.13204363
146	0xbc5afc87	-0.013365871
147	0xbdde8c94	-0.10866657
148	0xbe05e2fa	-0.13074866
149	0x3e48ad64	0.19597393
150	0x3dbeebf6	0.0932235
151	0xbd58780b	-0.052848857
152	0x3b08d60e	0.002087954
153	0x3e6e09de	0.23245952
154	0x3d90f226	0.07077436
155	0x3e0f526f	0.1399629
156	0xbc90f889	-0.017696636
157	0xbe18c636	-0.14919361
158	0xbcf14a9a	-0.029454518
159	0x3c97a682	0.018512014
160	0xbdfcd92f	-0.12346112
161	0xbe543a02	-0.20725253
162	0x3e136827	0.143952
163	0xbd5cfea0	-0.053953767
164	0x3e24f824	0.16110283
165	0x3de91c6a	0.11382373
166	0xbd9f12f8	-0.0776729
167	0xbdaf3ede	-0.08556913
168	0xbcb7f55d	-0.022455866
169	0xbe11fd04	-0.14256674
170	0xbdc7206f	-0.09722983
171	0x3dc14166	0.09436302
172	0xbd0c8ea8	-0.034315735
173	0x3e1984d9	0.14992084
174	0x3d51b065	0.051193614
175	0x3cb8ad52	0.022543583
176	0x3dcc5f48	0.09979111
177	0xbd860698	-0.065442264
178	0x3d95fe1d	0.07323859
179	0xbcf178e8	-0.029476598
180	0x3e390b0f	0.18070625
181	0x3e8593c9	0.26089314
182	0xbe619b04	-0.2203179
183	0xbdff860a	-0.12476738
184	0x3d214f7e	0.03938245
185	0x3c86dfd0	0.016464144
186	0x3d0d8d4c	0.03455858
187	0x3dc6b962	0.09703328
188	0xbdcc2bdf	-0.09969305
189	0xbd0202d3	-0.031740975
190	0xbd8d288a	-0.06892498
191	0xbc082dca	-0.008311698
192	0x3ea1c497	0.315953
193	0x3de3a1c9	0.111148424
194	0xbdbc855f	-0.09205126
195	0xbd198a70	-0.03748554
196	0x3e561636	0.2090691
197	0x3d7f4298	0.062319368
198	0x3ea51481	0.32242206
199	0xbd55c228	-0.052187115
200	0x3dbd188c	0.092331976
201	0xbcc751de	-0.02433103
202	0x3d72cdbb	0.05927823
203	0xbd940de1	-0.0722921
204	0x3e0b2f5e	0.13592288
205	0x3de61872	0.11235131
206	0x3d94cd83	0.07265761
207	0x3cfe441b	0.031038335
208	0x3d9d3672	0.076764
209	0x3e273f83	0.16332822
210	0x3e84a19e	0.25904554
211	0x3dc9f5c5	0.0986133
212	0x3bf1aba2	0.0073751966
213	0xbc32e902	-0.010919811
214	0x3e4a25aa	0.1974093
215	0x3e159de8	0.14611018
216	0x3d6acb84	0.057322994
217	0xbd39d01f	-0.045364495
218	0x3e4114ab	0.1885554
219	0x3db6c746	0.08924727
220	0xbd3f5a44	-0.046716943
221	0x3e57a8a2	0.21060422
222	0x3e782209	0.24231733
223	0xbd15f687	-0.03661206
224	0x3de50bf5	0.11183921
225	0xbb40d9bc	-0.0029426655
226	0x3d0b0e8b	0.033949416
227	0xbbf38c77	-0.007432516
228	0x3db671bb	0.08908411
229	0x3ced4c52	0.028967056
230	0x3e13af96	0.1442245
231	0x3e904a2c	0.2818159
232	0x3d8f1fe3	0.06988504
233	0xbcf381c5	-0.029724965
234	0xbd77deb5	-0.060515124
235	0x3ec40772	0.3828693
236	0x3e05a9fb	0.13053124
237	0x3cf23695	0.029567042
238	0xbe14aa59	-0.14518107
239	0x3e8a14d2	0.2696901
240	0x3d9f0baf	0.077659
241	0x3b7b7433	0.003836882
242	0x3dd52fd3	0.10409512
243	0x3e152407	0.14564525
244	0x3d617c8b	0.055050414
245	0x3e373bfb	0.17893974
246	0x3d59da21	0.05318654
247	0x3e6dc0ac	0.2321803
248	0x3e34d32b	0.17658679
249	0xbc803a1c	-0.015652709
250	0xbc1ee69a	-0.009698534
251	0x3e05aedf	0.1305499
252	0xbcb427b4	-0.021991588
253	0x3e050e1e	0.12993667
254	0xbb8d52b0	-0.0043128356
255	0x3e6214da	0.22078267

lstm.weight_ih_l1 f4 [256, 64]
0	0xbc5b973c	-0.013402756
1	0xbdc1ff99	-0.094725795
2	0xbd8ece66	-0.06972961
3	0xbdbd9e00	-0.09258652
4	0x3d8cc7fd	0.06874082
5	0xbd4706be	-0.048590414
6	0xbd56c21e	-0.05243122
7	0xbc0eb9c4	-0.008711282
8	0x3bf8739a	0.00758214
9	0x3e40bee7	0.18822823
10	0xbd4fae11	-0.050703112
11	0xbd94d082	-0.07266332
12	0xbe160edc	-0.14654106
13	0xbd3909cf	-0.04517537
14	0x3cdba865	0.026813695
15	0x3cb1f85b	0.02172487
16	0xbc620bbc	-0.013796743
17	0x3c56e234	0.013115454
18	0xbd709f70	-0.0587458
19	0x3e1c8eb7	0.15288816
20	0x3cd80216	0.026368182
21	0x3df1dbcd	0.11809502
22	0x3d8cf429	0.06882507
23	0x3e0ff2b3	0.14057426
24	0x3ccbed65	0.024893472
25	0x3d11fbcf	0.035640534
26	0xbe16c2a3	-0.14722686
27	0xbc0c5dea	-0.008567313
28	0xbe08b39b	-0.13349764
29	0xbdb8c81b	-0.09022542
30	0x3dd82f6c	0.1055592
31	0xbde7aaca	-0.11311872
32	0xbdd49060	-0.103791
33	0x3d6be0b9	0.05758736
34	0xbd848d21	-0.06472231
35	0x3d146b28	0.036235005
36	0x3d9184d5	0.07105414
37	0xbe04dc14	-0.12974578
38	0xbdc79be9	-0.097465344
39	0xbd06ca1d	-0.032907594
40	0x3c44697f	0.011988043
41	0xbe1ca4b6	-0.15297207
42	0x3dbe481e	0.09291099
43	0xbe7dda12	-0.24790218
44	0x3d0d4e35	0.034498412
45	0x3d8d88bb	0.06910845
46	0x3db1f522	0.086893335
47	0x3dac1edf	0.08404326
48	0x3d64cb2f	0.055857833
49	0xbe11173e	-0.14169022
50	0xbc893ff8	-0.016754135
51	0x3db45545	0.08805326
52	0xbc1f7c64	-0.009734247
53	0x3dd38099	0.103272624
54	0xbd6f5578	-0.05843112
55	0x3d27b78f	0.04094654
56	0x3d5c9d3c	0.053860888
57	0xbc35b8fb	-0.011091466
58	0xbdff50dc	-0.124665946
59	0x3ce6bdb8	0.028166637
60	0xbdb0edc3	-0.086390994
61	0xbd972b6f	-0.07381331
62	0xbe8ba049	-0.27270725
63	0xbe0ecffa	-0.13946524
64	0xbe07a1a2	-0.13245252
65	0xbb48abd2	-0.003061999
66	0x3d50aa3c	0.0509436
67	0xbd4870fc	-0.048935875
68	0xbccf0059	-0.02526872
69	0xbd4cbca1	-0.049984578
70	0x3b9c1484	0.004763188
71	0xbd87f030	-0.06637609
72	0x3c4bf4c6	0.012448495
73	0x3e0ab62e	0.13546059
74	0x3e218b2c	0.15775746
75	0x3d3500d0	0.044190228
76	0x3dde8870	0.10865867
77	0xbdb77238	-0.089573324
78	0xbd0465c5	-0.032323617
79	0x3e924f2e	0.28576034
80	0xbd938cf9	-0.07204623
81	0x3dcb25bb	0.09919306
82	0x3d86bd15	0.06579033
83	0xbc65e34d	-0.0140312435
84	0xbd7467aa	-0.059669174
85	0x3dcb1e10	0.09917843
86	0x3d87c9f9	0.0663032
87	0x3e15d41f	0.14631699
88	0x3e1a08c5	0.15042408
89	0x3dd45f27	0.10369711
90	0xbe797ca2	-0.2436395
91	0xbdb880aa	-0.09008916
92	0x3e039d58	0.1285299
93	0xbd0bc70c	-0.034125373
94	0x3d1a77d1	0.037711922
95	0xba8cdf9a	-0.0010747791
96	0xbe53c24f	-0.20679592
97	0x3e132e9b	0.14373247
98	0xbd1ecd76	-0.03877016
99	0x3d9a61e7	0.07538205
100	0x3c9895af	0.018626062
101	0x3dd9e61a	0.106395915
102	0x3da6d64c	0.08146343
103	0x3e6d61cb	0.23181836
104	0xbdda1f1d	-0.10650466
105	0xbda407b5	-0.080092825
106	0x3d5e30b8	0.05424568
107	0xbdfa4e84	-0.12222007
108	0xbc8bb76c	-0.017055236
109	0x3dbf629f	0.09344982
110	0x3c93adca	0.018027205
111	0xbc93f67c	-0.018061869
112	0xbb8c7cfa	-0.0042873593
113	0xbdb997cc	-0.09062156
114	0x3e56609f	0.20935296
115	0xbd9f5f21	-0.07781816
116	0x3dd3542e	0.103187904
117	0xbc88eb61	-0.0167138
118	0xbd39749e	-0.04527723
119	0x3ddd7c92	0.108147755
120	0xbe1cdc97	-0.15318523
121	0x3d0185eb	0.031621855
122	0xbd95bcfe	-0.07311438
123	0xbe3d281e	-0.18472335
124	0xbca10cf8	-0.019659504
125	0x3d817d6c	0.063227504
126	0xbc199919	-0.00937488
127	0xbe10452a	-0.14088884
128	0x3d34b1cb	0.04411487
129	0xbe7e66b6	-0.24843869
130	0x3c585926	0.013204848
131	0xbe18ba95	-0.14914925
132	0x3e0d9f71	0.13830353
133	0x3dfc3142	0.12314083
134	0xbbf02927	-0.0073291245
135	0x3d3eca4b	0.04657964
136	0x3d149944	0.036278978
137	0x3f11b046	0.56909597
138	0x3c86fb12	0.016477142
139	0x3d8c4d1e	0.068506464
140	0xbe431937	-0.19052587
141	0xbcdc1ef4	-0.026870228
142	0xbe203051	-0.15643431
143	0x3f58d758	0.8470359
144	0x3e0dcf6e	0.1384866
145	0x3c297638	0.010343127
146	0xbcdb2dab	-0.026755175
147	0x3dcca323	0.09992053
148	0xbb3de715	-0.0028976847
149	0x3ca4e19f	0.020127116
150	0xbcbcdc16	-0.023054164
151	0x3dfe9c96	0.1243221
152	0x3e0480ed	0.12939806
153	0x3e326678	0.17421901
154	0xbe72b8ed	-0.23703356
155	0xbdec05c7	-0.115245394
156	0x3cef9862	0.029247466
157	0x3de8897c	0.11354348
158	0x3d153123	0.036423814
159	0xbcedcd9b	-0.029028704
160	0xbe3e5755	-0.18588002
161	0xbd621709	-0.05519775
162	0xbdcaf976	-0.09910862
163	0xbd0b090b	-0.03394417
164	0xbdba18e7	-0.09086781
165	0xbe979c97	-0.29611656
166	0xbd7b343b	-0.061329108
167	0xbe703024	-0.23455864
168	0x3d5edbaa	0.054408707
169	0x3d0393ed	0.032123495
170	0xbc166dba	-0.009181434
171	0x3e15cef1	0.14629723
172	0x3ea740e9	0.3266671
173	0xbb3028c3	-0.0026879765
174	0xbd10dfee	-0.035369806
175	0xbe09bb42	-0.1345034
176	0x3d2f544c	0.042805
177	0xbe2a85ae	-0.16652557
178	0x3cb4b2cb	0.022057911
179	0xbe1c3182	-0.1525326
180	0xbdebdf13	-0.115171574
181	0x3dd7dfe3	0.1054075
182	0xbc9be5c8	-0.019030467
183	0x3df2d2bb	0.118566
184	0xbdc3a94c	-0.09553775
185	0x3ab9e7f6	0.001418351
186	0xbcfd14bb	-0.030893674
187	0xbe8b3e5f	-0.27196023
188	0x3e02a409	0.12757887
189	0x3ddf6d69	0.1090954
190	0xbe86fe33	-0.26365814
191	0xbe1807c9	-0.1484672
192	0x3e2b9d76	0.16759285
193	0x3da8479a	0.08216782
194	0xbe12baeb	-0.14329116
195	0xbcbbf648	-0.022944584
196	0x3e6ed04a	0.23321643
197	0x3d36ba36	0.04461118
198	0x3dac4037	0.084106855
199	0x3db7dbed	0.089774944
200	0xbd8df235	-0.06930963
201	0x3e0e4a68	0.13895571
202	0xbe8dae9a	-0.27672273
203	0xbd8cfcbf	-0.06884145
204	0x3e0e6d08	0.1390878
205	0x3ab95290	0.0014138985
206	0x3c9b9930	0.018993944
207	0x3de67565	0.1125286
208	0x3cc18fe1	0.023628177
209	0x3c148329	0.009064474
210	0xbd820c24	-0.06349972
211	0x3caf2509	0.021379964
212	0xbe1e3b7c	-0.15452379
213	0x3d9db12c	0.076998085
214	0xbe041f70	-0.12902617
215	0x3c8aa60d	0.016924882
216	0x3e2cb295	0.16864999
217	0x3a44c564	0.000750622
218	0x3e32a982	0.17447475
219	0xbe208ed9	-0.15679492
220	0x3ce0988e	0.027416494
221	0xbea3a0c3	-0.3195859
222	0x3d91ef3c	0.071257085
223	0x3da9d1c4	0.08291963
224	0xbcbd8f5d	-0.02313965
225	0xbe20ed0e	-0.15715429
226	0xbdf377f2	-0.11888112
227	0xbd6c69cd	-0.057718087
228	0xbd582b98	-0.05277595
229	0xbcd3f2e0	-0.025872648
230	0x3d045ac3	0.03231312
231	0xbdd04c93	-0.101708554
232	0x3c326669	0.010888674
233	0x3e04582d	0.12924261
234	0xbe2c552c	-0.16829365
235	0xbee5850f	-0.44828078
236	0xbdd1fb38	-0.10252994
237	0x3d620c39	0.055187438
238	0x3dfbf927	0.123033814
239	0x3d749527	0.059712555
240	0xbe08e60c	-0.13369006
241	0xbe2558e3	-0.16147189
242	0x3c554d82	0.013018968
243	0xbe131996	-0.14365229
244	0xbdea90ef	-0.11453425
245	0x3c980b3f	0.01856005
246	0xbdb5c0cf	-0.08874666
247	0xbe4a90f5	-0.19781859
248	0xbd4e8d0b	-0.050427478
249	0xbcd822ca	-0.026383776
250	0x3a21b0b7	0.0006167995
251	0x3cf1caa1	0.029515566
252	0xbd0fa1b9	-0.03506634
253	0x3d8d3c44	0.068962604
254	0xbdf756f3	-0.12077131
255	0xbe03461b	-0.12819712

lstm.weight_hh_l1 f4 [256, 64]
0	0x3d833973	0.06407442
1	0xbd3efe15	-0.04662903
2	0x3e0738ba	0.13205233
3	0x3df143b3	0.11780491
4	0x3d01c985	0.031686325
5	0x3d0697aa	0.032859482
6	0xbd29c2f6	-0.041445695
7	0xbe3b2c6f	-0.18278669
8	0xbd790f77	-0.060805764
9	0x3c97e202	0.018540386
10	0xbd9e74aa	-0.07737096
11	0xbe0de334	-0.13856202
12	0xbd8c93b4	-0.0686411
13	0x3d7fc22f	0.062441047
14	0x3d216d41	0.039410833
15	0xbec3dfc7	-0.38256666
16	0x3dee4576	0.11634342
17	0xbd469290	-0.048479617
18	0xbc0bf966	-0.008543348
19	0xbe38acdd	-0.18034692
20	0xbccfa1ef	-0.02534577
21	0x3e352e0a	0.17693344
22	0xbca16711	-0.019702466
23	0x3cd88755	0.026431719
24	0xbde3a21d	-0.11114905
25	0x3d5d8ea1	0.0540911
26	0xbd11c710	-0.03559023
27	0x3d00b5d8	0.03142342
28	0xbd896a78	-0.067097604
29	0xbdb789d6	-0.08961837
30	0x3dc72203	0.09723284
31	0xbdb5519e	-0.08853458
32	0xbb3bb824	-0.0028643692
33	0xbdaa232e	-0.08307491
34	0xbe205134	-0.15655977
35	0xbe80bd6d	-0.2514452
36	0xb926547a	-0.00015862464
37	0xbd1ee5c7	-0.03879335
38	0x3da6255c	0.081125945
39	0x3e24d49d	0.1609673
40	0xba01f66e	-0.00049576804
41	0x3daf5112	0.08560385
42	0xbc6eb613	-0.014569777
43	0x3db7e7c4	0.08979753
44	0x3d9de6a2	0.07710005
45	0xbe266aac	-0.1625163
46	0x3d440522	0.047856458
47	0x3e07199b	0.13193361
48	0x3b8b0298	0.0042422526
49	0xbd6900ac	-0.056885406
50	0x3dcda082	0.1004038
51	0x3cee6c27	0.029104305
52	0xbd7b567e	-0.061361782
53	0x3cb02ba5	0.021505186
54	0x3dd1a1df	0.102359526
55	0x3d2c1c70	0.042019308
56	0xbc125dd5	-0.008933504
57	0x3c11eba7	0.008906282
58	0x3c75f4cc	0.015011977
59	0x3c2f3ebb	0.010696108
60	0x3d939c18	0.07207507
61	0xbcf0b633	-0.029383754
62	0xbe324175	-0.17407782
63	0x3d3d671a	0.046240903
64	0xbe46627b	-0.19373505
65	0x3d99e422	0.07514216
66	0x3e1b52d3	0.15168314
67	0xbd4ae241	-0.04953218
68	0xbe8614ff	-0.26187894
69	0x3d83e672	0.06440438
70	0xbc25cd75	-0.010119786
71	0xbdd53f75	-0.10412494
72	0xbd8da5f6	-0.0691642
73	0xbd1fd0f3	-0.03901763
74	0x3c40a4f5	0.011758079
75	0xbd117870	-0.03551525
76	0xbd6017f5	-0.054710347
77	0xbe0aefee	-0.13568088
78	0x3e96c3bd	0.2944621
79	0x3de90721	0.11378313
80	0x3dd29bcd	0.10283623
81	0xbe276e00	-0.16350555
82	0x3d488670	0.048956335
83	0xbe021263	-0.12702326
84	0xbd68eece	-0.056868367
85	0xbd0a4701	-0.03375912
86	0xbd9fe44c	-0.07807216
87	0xbda2be8f	-0.079465024
88	0xbe52397e	-0.20529744
89	0xbe1443e0	-0.14479017
90	0xbe5e2a58	-0.2169584
91	0xbe29a055	-0.16565068
92	0xbc230497	-0.009949825
93	0xbcb058a7	-0.021526648
94	0xbd088441	-0.033329252
95	0x3d3ac89e	0.04560148
96	0x3d4d0f12	0.0500632
97	0xbb284276	-0.002567438
98	0x3bda3cc3	0.0066600754
99	0xbd688afd	-0.056773175
100	0x3cd6b723	0.026210373
101	0xbe24f861	-0.16110374
102	0xbd248cf8	-0.0401735
103	0xbc8b5f84	-0.017013319
104	0xbd3e0654	-0.046392754
105	0xbd6e7421	-0.058216218
106	0xbca39127	-0.019966675
107	0x3db72ba8	0.08943874
108	0x3ce1bc68	0.02755566
109	0xbe220d75	-0.15825446
110	0x3dc7d338	0.09757084
111	0x3e3920cb	0.18078916
112	0xbe01dd5e	-0.12682101
113	0x3e1d3560	0.15352392
114	0x3e318d7f	0.17339133
115	0x3d7bc192	0.0614639
116	0xbdb5b808	-0.08872992
117	0x3e02a3ec	0.12757844
118	0x3db18901	0.086687095
119	0xbdce853a	-0.10084005
120	0xba5f8b53	-0.0008527536
121	0xbd6a52ab	-0.057207745
122	0x3da40d8c	0.08010396
123	0xbdf1b243	-0.11801579
124	0x3d1175d3	0.035512757
125	0x3e17ebea	0.14836088
126	0x3d5bbe42	0.05364824
127	0xbdc66d86	-0.09688859
128	0xbe32b15c	-0.1745047
129	0x3bc64c55	0.00605158
130	0x3e38c33c	0.18043226
131	0x3eb2d156	0.34925336
132	0xbe649a46	-0.22324476
133	0x3e8c84a5	0.2744495
134	0xbdbfef41	-0.09371806
135	0xbe222617	-0.15834843
136	0xbea10d98	-0.31455684
137	0x3e031262	0.12799981
138	0x3c94dd58	0.018171951
139	0xbe44e87a	-0.19229308
140	0x3e0d7609	0.13814558
141	0x3d067fdd	0.032836784
142	0x3d655e90	0.055998385
143	0x3e35a67a	0.17739287
144	0x3ea106a5	0.31450382
145	0xbe059a82	-0.13047221
146	0x3c9a5216	0.01883797
147	0xbf054c06	-0.5206913
148	0xbe2ad0e3	-0.16681246
149	0x3e93f8c5	0.28900734
150	0xbceb2ed5	-0.028708855
151	0x3e0c5623	0.13704734
152	0xbe8e3fc4	-0.27783024
153	0xbe1eabb3	-0.15495186
154	0x3d3acf38	0.045607775
155	0xbd931ba5	-0.07183007
156	0xbe133945	-0.14377315
157	0x3bbfd784	0.005854549
158	0x3e6fbdfc	0.23412317
159	0xbe538203	-0.20655064
160	0xbde560dc	-0.11200115
161	0x3dc5d6af	0.09660088
162	0xbe27f173	-0.164007
163	0xbd68f225	-0.056871552
164	0xbdf38db1	-0.1189226
165	0xbeb22231	-0.3479171
166	0xbdc1cb30	-0.09462583
167	0xbe487148	-0.19574463
168	0x3d4bde11	0.049772326
169	0x3c1ef278	0.009701364
170	0x3dbe2233	0.09283867
171	0x3dbc9fcd	0.09210167
172	0x3e9861d9	0.29762152
173	0xbc9fbdef	-0.019499747
174	0x3e02ba1c	0.12766308
175	0x3e9255d4	0.28581107
176	0xbea7c3f7	-0.32766697
177	0x3e509f75	0.20373328
178	0x3d3bfe55	0.045896847
179	0x3e9eb68a	0.3099864
180	0xbea39fba	-0.319578
181	0x3ba5a54a	0.0050551044
182	0x3e92b361	0.2865248
183	0xbe24b420	-0.16084337
184	0xbd841c6e	-0.06450735
185	0x3daf0bdb	0.08547183
186	0xbdde8723	-0.10865619
187	0xbe5a8cf9	-0.2134284
188	0x3e2fe62f	0.17177652
189	0x3b81fa7f	0.003966629
190	0x3c286b36	0.010279467
191	0xbe245ad7	-0.16050278
192	0x3e0b8ae7	0.13627206
193	0x3e384a78	0.17997158
194	0x3c0d4c62	0.008624168
195	0xbe1f0f5f	-0.15533207
196	0xbd586260	-0.052828193
197	0x3db82401	0.08991242
198	0xbe1146a0	-0.14187098
199	0xbcf3ef21	-0.029777111
200	0x3cff6c72	0.03117964
201	0xbcd35092	-0.025795255
202	0xbc42450c	-0.011857282
203	0xbdc35916	-0.09538476
204	0x3e124841	0.14285375
205	0x3b61a0f5	0.0034428213
206	0xbd6b18db	-0.05739675
207	0xbe895417	-0.26821968
208	0xbe086334	-0.13319093
209	0xbe179ce0	-0.14805937
210	0xbd857c49	-0.06517846
211	0xbe35388e	-0.17697355
212	0x3e629450	0.22126889
213	0xbe153550	-0.14571118
214	0x3d0b2a85	0.033976097
215	0x3b53f188	0.0032340009
216	0x3d88b671	0.06675423
217	0xbde511b0	-0.11185014
218	0xbdce786f	-0.10081565
219	0x3d5df637	0.054189887
220	0xbcd22ed0	-0.025657088
221	0xbdbfad24	-0.09359196
222	0x3ce46984	0.027882345
223	0x3d87bf98	0.066283405
224	0xbd0d0b60	-0.034434676
225	0xbdd344d5	-0.10315863
226	0x3da2c719	0.07948131
227	0x3d7a8110	0.06115824
228	0xbd4966c5	-0.049170274
229	0x3b2a4a11	0.0025984088
230	0xbd6009fc	-0.05469702
231	0x3e68c1c3	0.22730164
232	0x3d808d6e	0.062769756
233	0xbe2effac	-0.17089719
234	0x3da82b80	0.08211422
235	0x3d53749b	0.051624876
236	0x3da1fa19	0.079090305
237	0x3cc4effd	0.024040217
238	0x3dd6422a	0.104618385
239	0x3dcef8e3	0.10106065
240	0xbdfa3a7b	-0.122181855
241	0xbdfd6507	-0.12372785
242	0xbdf859da	-0.12126513
243	0x3ce8836d	0.028382981
244	0x3e7725dd	0.24135537
245	0x3ddb3006	0.10702519
246	0xbbce66cc	-0.0062988754
247	0x3cf41464	0.02979488
248	0xbe1565ba	-0.14589587
249	0xbe047c0d	-0.12937947
250	0x3d5770a9	0.052597675
251	0xbcd3fd3f	-0.025877593
252	0xbd340a27	-0.043954995
253	0xbe5da565	-0.21645124
254	0xbe10cc8d	-0.1414053
255	0x3d0b0d89	0.033948455

lstm.bias_ih_l1 f4 [256]
0	0xbd90c199	-0.07068176
1	0xbcf2d475	-0.029642323
2	0xbdd2eb5d	-0.10298798
3	0x3d69e3f0	0.057102144
4	0xbca6919d	-0.020333106
5	0x3d3cd8ff	0.04610538
6	0x3ddada80	0.10686207
7	0xbc07c1e2	-0.008285971
8	0x3cbed171	0.023293229
9	0xbdaea0b0	-0.085267425
10	0xbd4d6dcb	-0.050153535
11	0xbd8ccc76	-0.06874935
12	0xbdac9b76	-0.08428089
13	0xbda7b38d	-0.081885435
14	0x3de29ac8	0.110646784
15	0xbdc777ff	-0.09739684
16	0xbbd1627a	-0.006389913
17	0xbd59fd9e	-0.053220384
18	0xbccbefa4	-0.024894543
19	0x3d8e08c2	0.06935264
20	0x3d6c2a14	0.057657316
21	0xbbe14f38	-0.0068758987
22	0xbd1bb1f1	-0.038011495
23	0xbd9baf25	-0.076017655
24	0x3c41e4a6	0.011834299
25	0xbd678166	-0.05651989
26	0x3e443825	0.19162042
27	0x3e125567	0.14290391
28	0xbd39f088	-0.045395404
29	0xbcba9807	-0.02277757
30	0xbd7faf53	-0.06242306
31	0x3d86c725	0.065809526
32	0x3d48fa67	0.049066927
33	0x3a808e0d	0.000980796
34	0x3d8a65d4	0.067577034
35	0x3d04abe6	0.032390498
36	0x3d4cd486	0.050007366
37	0x3cb2fe90	0.0218499
38	0x3d47984b	0.048729222
39	0x3c0fe67d	0.00878298
40	0xbd07e1f2	-0.033174463
41	0x3d125589	0.035726104
42	0x3c9a65bf	0.018847344
43	0xbd7fae7a	-0.062422253
44	0x3dbb5b59	0.091482826
45	0xbdd47507	-0.10373884
46	0xbb5792a8	-0.003289381
47	0x3da3214f	0.079653375
48	0x3ced9a2b	0.029004177
49	0xbd3bd35d	-0.04585587
50	0xbce494c2	-0.027902965
51	0x3dc4c3f6	0.09607689
52	0x3d34983f	0.044090506
53	0xbdd2c79c	-0.10291979
54	0x3daf0697	0.08546179
55	0x3d4d0e48	0.050062448
56	0x3e482d06	0.19548425
57	0xbc77be90	-0.015121117
58	0x3db0da13	0.08635344
59	0xbadff96c	-0.0017087883
60	0x3e3838d7	0.17990433
61	0x3d8caebc	0.068692654
62	0x3e8fa14a	0.2805274
63	0x3d3b05e0	0.0456599
64	0xbd86bebb	-0.06579348
65	0x3cd4c484	0.025972612
66	0x3d8cf4dd	0.068826415
67	0xbd324266	-0.043520354
68	0xbd96fec9	-0.07372815
69	0x3d8b48c1	0.06800986
70	0x3c42d345	0.011891191
71	0x3de63491	0.11240495
72	0xbd053dcf	-0.03252965
73	0x3db8e2be	0.09027623
74	0x3d863b13	0.06554236
75	0xbd884e61	-0.066555746
76	0x3d69b0f6	0.05705353
77	0xbbe2511e	-0.0069066426
78	0x3ddd849b	0.10816308
79	0x3ddb9c90	0.10723221
80	0x3d3884dc	0.04504858
81	0x3e0428fb	0.12906258
82	0x3d37c32f	0.044863876
83	0xbd8a60cd	-0.067567445
84	0x3d2853a6	0.0410954
85	0x3dff7317	0.124731235
86	0x3e084814	0.13308746
87	0x3d20f30a	0.03929428
88	0x3e147284	0.14496809
89	0x3e01c26e	0.12671825
90	0xbd22c935	-0.039742667
91	0x3a97dceb	0.0011586224
92	0x3dfe9a60	0.124317884
93	0x3dd64cc8	0.104638636
94	0x3c92e8ad	0.017933214
95	0x3d5cbd36	0.053891383
96	0x3e082a93	0.13297491
97	0x3dcba5ab	0.09943708
98	0x3e0df592	0.13863209
99	0x3cb8a3d1	0.022539051
100	0x3b8a9b77	0.0042299586
101	0xbca3c032	-0.019989107
102	0x3dea90d2	0.114534035
103	0xbd310866	-0.0432209
104	0x3ce8339f	0.028344927
105	0x3d4624ad	0.04837482
106	0xbdc47188	-0.09591967
107	0xbd4466d8	-0.047949642
108	0xbc0d65bc	-0.008630212
109	0xbd9b968c	-0.07597074
110	0xbb06e543	-0.0020583428
111	0x3d588fe8	0.052871615
112	0x3d2d35d0	0.042287648
113	0x3ceca2d3	0.028886234
114	0xbdc93754	-0.09825006
115	0x3df2d104	0.11856273
116	0x3d913071	0.070893176
117	0xbcac984f	-0.02106872
118	0xbd6c4b7d	-0.05768918
119	0xbdd1bccb	-0.102410875
120	0xbced08a0	-0.028934777
121	0x3d93e8d7	0.07222145
122	0xbd606f5f	-0.05479371
123	0xbcf495c3	-0.029856568
124	0x3cedd066	0.029030036
125	0x3d4a0222	0.04931844
126	0xbbe1b6ed	-0.0068882615
127	0x3dac534b	0.084143244
128	0x3cb3ec9a	0.021963406
129	0xbd85b8ff	-0.06529426
130	0xbc35e861	-0.011102767
131	0x3d7adccf	0.061245736
132	0x3d2d313f	0.042283293
133	0xbac6d2aa	-0.0015168984
134	0xbdd22dfd	-0.10262678
135	0xbd9cf71a	-0.076643184
136	0xbd917a0d	-0.071033575
137	0x3d7ae51d	0.061253656
138	0xbd023834	-0.03179188
139	0x3df1a9b5	0.11799947
140	0xbde54e40	-0.11196566
141	0x3d7754be	0.06038355
142	0xbdb2f32b	-0.08737787
143	0x3c149a56	0.00907
144	0xbdb07f8c	-0.08618078
145	0xbb26c4fa	-0.0025446997
146	0xbd147d7a	-0.036252476
147	0xbcb54854	-0.022129215
148	0x3d8b3e8f	0.067990415
149	0x3d23bc16	0.039974295
150	0x3d20ea66	0.03928604
151	0xbd373c3c	-0.04473518
152	0x3d7e973e	0.062155955
153	0x3dd60735	0.104505934
154	0x3ddcd003	0.107818626
155	0x3d58a20a	0.052888907
156	0xbd778370	-0.060428083
157	0x3def5ae2	0.116872564
158	0x3e0730c6	0.132022
159	0xbdc6a696	-0.096997425
160	0x3cbc617b	0.022995701
161	0xbe008381	-0.12550165
162	0xbd9f52ff	-0.07779502
163	0x3e0c1b44	0.13682276
164	0xbdbac30e	-0.09119235
165	0xbc627dd7	-0.013823948
166	0x3d6db952	0.058038063
167	0xba89f9fd	-0.0010526773
168	0x3cf8f01b	0.030387929
169	0xbe1b506b	-0.15167396
170	0x3d368217	0.044557657
171	0x3cda8be6	0.026678037
172	0xbe033332	-0.12812498
173	0xbdb20e42	-0.08694126
174	0xbbf09018	-0.007341396
175	0xbcdc0700	-0.026858807
176	0x3d183215	0.037157137
177	0x3d2f4038	0.042785853
178	0xbe07c658	-0.13259256
179	0xbd118bdd	-0.035533775
180	0x3e081f04	0.13293082
181	0x3be677c4	0.00703332
182	0xbd8e69db	-0.06953784
183	0x3d3dc60f	0.04633146
184	0x3dae715f	0.085177176
185	0xbc48ab86	-0.012247926
186	0xbc804f8c	-0.01566293
187	0xbcf86ee6	-0.030326318
188	0x3dc2bf39	0.09509129
189	0xbd34a922	-0.04410661
190	0x3d930be2	0.07180001
191	0xbda0cdf2	-0.07851781
192	0x3e241adf	0.16025876
193	0x3d40ce4d	0.047071744
194	0x3dacdcc5	0.08440546
195	0xbcd4e3c1	-0.025987508
196	0x3e044a5d	0.12918992
197	0xbc58320c	-0.013195526
198	0xbd3c6d34	-0.04600258
199	0xbd9d5cd1	-0.07683719
200	0xbcbdc159	-0.023163484
201	0x3e1bba1d	0.15207715
202	0x3c2a6479	0.010399931
203	0x3dd5b74a	0.1043535
204	0xbe1d6f2e	-0.15374443
205	0x3e5dca16	0.21659121
206	0x3cecd6ab	0.028910955
207	0xbd22cfef	-0.039749082
208	0x3da8e055	0.08245913
209	0x3deee893	0.11665454
210	0x3d95f4d7	0.0732209
211	0x3d891c8d	0.06694899
212	0x3de4cb63	0.111716054
213	0x3d9fdc1c	0.078056544
214	0x3a40e90c	0.00073589454
215	0x3e339fc1	0.1754141
216	0x3b673f58	0.0035285559
217	0x3e24092f	0.16019128
218	0x3e33f834	0.1757515
219	0x3e29e8dd	0.16592737
220	0x3daaaeb9	0.08334107
221	0xbd6291c1	-0.055314783
222	0x3e4011c1	0.18756773
223	0x3d1dbf79	0.03851268
224	0x3d971331	0.07376707
225	0x3dee8f84	0.11648467
226	0x3df77174	0.12082186
227	0x3c1fa55e	0.009744016
228	0x3dc48e11	0.095974095
229	0x3df78396	0.12085645
230	0x3e5eb35d	0.21748109
231	0xbcc9ca50	-0.024632603
232	0x3dc1c155	0.09460703
233	0x3e1569fd	0.14591213
234	0xbd3d501c	-0.046218976
235	0x3d75fb6e	0.060054235
236	0xbda2eb37	-0.0795502
237	0xbac7a166	-0.0015230596
238	0xbd88de3b	-0.06683012
239	0x3d9139e7	0.07091122
240	0x3c4e7fc0	0.0126037
241	0x3e7729c3	0.24137025
242	0x3e34d7f9	0.17660512
243	0x3e315e6c	0.17321175
244	0xbdf12e37	-0.11776393
245	0x3c441385	0.011967544
246	0xbda6406d	-0.08117757
247	0x3d03ebb8	0.03220722
248	0x3ddd1c0b	0.107963644
249	0x3d4e8f2c	0.050429508
250	0xbdfd6f82	-0.12374784
251	0x3d1fd9ac	0.039025947
252	0xbcc1af6a	-0.023643214
253	0x388eaa20	6.802776e-05
254	0x3de540df	0.11194014
255	0xbc1dc53d	-0.009629545
